logs/weight_colliion_obj_obs = 0.4/model/best_model_3.pth (torch, 427625 bytes, 19 tensors)

_policy.0.weight f4 [128, 22]
0	0xbd928515	-0.0715429
1	0x3d23892b	0.039925735
2	0xbd99b347	-0.075048976
3	0x3dfd9ed3	0.12383809
4	0x3cc62174	0.024185874
5	0xbe305a17	-0.17221867
6	0xbd9bdbed	-0.07610307
7	0xbe25caa9	-0.1619059
8	0xbdaf1ec6	-0.085507914
9	0x3db25e71	0.087094195
10	0x3d2e8a51	0.042612378
11	0x3de984b1	0.11402262
12	0x3e085b44	0.13316065
13	0x3e32c561	0.17458107
14	0x3dbc054f	0.091807
15	0x3cbe9604	0.023264892
16	0xbd1db8ce	-0.03850632
17	0x3e39e761	0.1815467
18	0x3e3ab8b8	0.18234527
19	0x3e154ca3	0.14580016
20	0xbd8eefe1	-0.06979347
21	0xbdac3463	-0.084084295
22	0x3d25a9f7	0.040445294
23	0x3df1d334	0.11807862
24	0x3e2b512f	0.16730188
25	0x3e00a60d	0.12563343
26	0xbddea615	-0.108715214
27	0xbd65ecaa	-0.056133904
28	0x3d4e4cd1	0.050366227
29	0xbd8358b8	-0.06413406
30	0xbe5bc79f	-0.21462868
31	0xbdcdc8c2	-0.10048057
32	0x3d701a5a	0.05861888
33	0x3d3cf925	0.04613604
34	0x3c76d4f4	0.01506542
35	0x3d4d6ee3	0.050154578
36	0x3df2568e	0.11832915
37	0xbb572a30	-0.0032831542
38	0x3dc69d14	0.09697929
39	0xbe3b87ff	-0.18313597
40	0xbe6af309	-0.22944273
41	0xbba0b820	-0.004904762
42	0x3da1b074	0.07894984
43	0xbd0ecb82	-0.03486205
44	0xbe2bde34	-0.16783983
45	0xbe1bcdc6	-0.15215215
46	0x3dbdceeb	0.09267982
47	0x3c517a91	0.01278557
48	0x3dc95461	0.09830547
49	0xbd4991be	-0.049211256
50	0xbdd27a21	-0.102772005
51	0x3e3127da	0.17300358
52	0x3e504c0c	0.2034151
53	0xbe61a1c7	-0.2203437
54	0x3e3a1eac	0.18175763
55	0xbe0ee5f9	-0.13954915
56	0x3e189228	0.14899504
57	0xbdc0f455	-0.09421603
58	0x3ae23992	0.0017259589
59	0x3dc0d1dd	0.09415028
60	0xbda903cc	-0.08252677
61	0x3dc95b71	0.09831894
62	0xbd88a26d	-0.06671605
63	0xbe26654e	-0.16249582
64	0xbe022d17	-0.12712513
65	0xbe2d9970	-0.16953063
66	0x3d8cfddb	0.068843566
67	0xbe12197b	-0.14267533
68	0x3d807df9	0.062740274
69	0xbd5be5a9	-0.053685818
70	0xbe09f72d	-0.13473196
71	0xbc11f1a4	-0.008907709
72	0x3d33c69c	0.04389058
73	0xbc2ca671	-0.01053773
74	0x3e074f41	0.13213827
75	0xbe43766b	-0.19088142
76	0xbb9c27ef	-0.0047655026
77	0xbdeb3ba0	-0.11485982
78	0xbca3efe4	-0.02001185
79	0x3e4710a1	0.19439937
80	0xbe485485	-0.19563492
81	0xbe45ef65	-0.19329603
82	0xbdf87f5c	-0.12133667
83	0x3e0afa92	0.13572147
84	0xbe040ec8	-0.12896264
85	0x3e55fba8	0.2089678
86	0x3e68a813	0.22720365
87	0x3e47e18d	0.19519635
88	0x3e18cd81	0.14922144
89	0xbe1e1222	-0.15436605
90	0xbda7de19	-0.08196659
91	0xbe17880f	-0.14797996
92	0x3e3612f0	0.17780662
93	0xbe3c2807	-0.18374644
94	0xbe20cfde	-0.15704295
95	0xbe49df5b	-0.1971411
96	0xbd9051cb	-0.07046851
97	0x3e3cd136	0.18439183
98	0x3d13105a	0.035904266
99	0xbd3e5420	-0.046466947
100	0xbdb9262a	-0.09040482
101	0x3e103297	0.14081798
102	0x3dbaf2b6	0.09128325
103	0x3e2bbea6	0.16771945
104	0x3e3f30af	0.18670915
105	0x3d4d9435	0.05019017
106	0x3dbd8322	0.09253527
107	0xbe412c5e	-0.18864581
108	0xbe0f8da4	-0.14018875
109	0xbddc2406	-0.107490584
110	0xbe0e35d0	-0.13887715
111	0x3d4c348d	0.049854804
112	0x3dc44135	0.0958275
113	0xbd8bbcdc	-0.068231314
114	0xbc8963b1	-0.01677117
115	0xbd5082d8	-0.050906032
116	0xbda83a67	-0.08214264
117	0x3e301785	0.17196472
118	0xbd9468ce	-0.072465524
119	0xbc207c9c	-0.009795334
120	0xbe2e6109	-0.17029203
121	0xbdad9283	-0.084752105
122	0xbe191c5c	-0.14952224
123	0xbd65c08d	-0.056091834
124	0xbd543af7	-0.051814046
125	0x3d990360	0.07471347
126	0x3e066a43	0.13126473
127	0xbda5764d	-0.08079205
128	0xbdb9dad5	-0.09074942
129	0x3ba0c983	0.0049068346
130	0xbe30f193	-0.17279653
131	0xbce849ec	-0.028355561
132	0xbe4b7a76	-0.19870934
133	0xbdd8d4bb	-0.1058745
134	0x3e4b05ab	0.19826381
135	0x3e6467c1	0.22305204
136	0x3e599a10	0.21250176
137	0x3d180e20	0.037122846
138	0xbe551c62	-0.20811608
139	0x3e3c1ce5	0.18370397
140	0x3d011113	0.031510424
141	0x3c55057c	0.013001796
142	0xbd9f1440	-0.07767534
143	0xbe48a159	-0.19592799
144	0xbe1c24d6	-0.15248427
145	0x3def1692	0.11674227
146	0xbe001718	-0.1250881
147	0xbe3c2cd4	-0.18376476
148	0xbe22ef92	-0.15911701
149	0xbdf8fb96	-0.12157361
150	0x3e48c24c	0.19605368
151	0xbdf95376	-0.12174122
152	0x3e68b622	0.22725728
153	0xbd859b83	-0.06523802
154	0xbe3e3de8	-0.18578303
155	0x3ce5af45	0.028037677
156	0x3cfb81e0	0.030701578
157	0x3e3a6010	0.18200707
158	0x3ce924cd	0.02845993
159	0x3e4e42a2	0.20142606
160	0xbc1f0154	-0.0097049065
161	0xbd5f93d1	-0.054584328
162	0xbcfeb739	-0.031093227
163	0x3e2b87ca	0.16751018
164	0xbdf399dd	-0.118945815
165	0xbd92d6db	-0.07169887
166	0x3dcca9c2	0.09993316
167	0x3e149578	0.14510143
168	0xbe473580	-0.19454002
169	0x3e1a65d6	0.1507791
170	0xbe0cd044	-0.13751322
171	0xbdc358af	-0.095383994
172	0x3e183e57	0.14867531
173	0x3dc2eff7	0.09518426
174	0xbc456ffc	-0.012050625
175	0x3dfe767a	0.12424941
176	0xbddfb660	-0.10923457
177	0x3c91e096	0.017807286
178	0xbe0b1a24	-0.1358419
179	0x3d640dd2	0.055677243
180	0x3dffed7c	0.124964684
181	0xbcf680b1	-0.030090662
182	0xbe5456dc	-0.20736259
183	0xbd82153a	-0.06351705
184	0x3e6db57c	0.23213762
185	0x3e190531	0.14943387
186	0xbcc1afe3	-0.02364344
187	0x3e40a32a	0.18812242
188	0x3e2d8a54	0.16947299
189	0x3da959fc	0.08269116
190	0x3e502d4f	0.20329784
191	0xbe176bb8	-0.14787185
192	0x3dfd99f5	0.123828806
193	0xbe2b0182	-0.16699794
194	0xbd106198	-0.035249323
195	0x3cb89634	0.02253256
196	0xb9db95dd	-0.00041882592
197	0x3d9e6b70	0.07735336
198	0x3dab3f51	0.08361686
199	0x3e0450e8	0.12921488
200	0xbe0875fd	-0.13326259
201	0xbdf173e0	-0.117896795
202	0xbd99cfee	-0.075103626
203	0x3e81e395	0.25368944
204	0xbe0fe179	-0.14050855
205	0xbe2fe752	-0.17178085
206	0xbe452177	-0.19251047
207	0xbd33e608	-0.043920547
208	0xbd868c5d	-0.06569741
209	0x3e037d13	0.12840681
210	0x3e0dea89	0.13859
211	0xbdd675ca	-0.10471685
212	0xbd372b30	-0.04471892
213	0x3e2ab294	0.16669685
214	0x3e2a864c	0.16652793
215	0xbe24a0cf	-0.16076969
216	0xbd5218a7	-0.05129304
217	0x3e17eacb	0.1483566
218	0x3db75901	0.08952523
219	0xbddbcc24	-0.10732296
220	0xbdd6fcef	-0.10497462
221	0x3c8abc6b	0.016935548
222	0x3be4f569	0.006987263
223	0x3dcd2ac8	0.100179255
224	0xbdcf8cfc	-0.101343125
225	0xbd418ede	-0.04725539
226	0xbda40e5b	-0.080105506
227	0x3d66bd45	0.056332845
228	0x3e2028cf	0.15640567
229	0x3e6c6cd4	0.2308839
230	0x3e0db00e	0.13836691
231	0xbc8f0749	-0.017459529
232	0x3c4865dd	0.012231317
233	0xbd22b3fe	-0.039722435
234	0x3db24de6	0.08706264
235	0x3e0a6fda	0.1351923
236	0x3e59b5e9	0.212608
237	0x3dec899d	0.11549685
238	0xbddf70f5	-0.10910217
239	0xbd13bfd4	-0.036071613
240	0xbe135c7f	-0.14390753
241	0x3e4519c5	0.19248112
242	0x3df21243	0.118198894
243	0xbd6a5df7	-0.057218518
244	0xbe11b617	-0.14229618
245	0xbd3f9a5b	-0.046778064
246	0xbdbb62ee	-0.09149729
247	0xbd579f79	-0.05264232
248	0x3d38da60	0.045130134
249	0xbc6c9a9a	-0.014441157
250	0x3c45ad78	0.012065284
251	0xbd2b2fb4	-0.04179354
252	0x3d8deb8f	0.06929695
253	0xbd2160f7	-0.039399114
254	0xbda6375d	-0.081160285
255	0xbe233688	-0.15938771

_policy.0.bias f4 [128]
0	0x3e0422ba	0.12903872
1	0x3d98fc80	0.074700356
2	0xbe4e905b	-0.20172255
3	0xbdd7b52b	-0.10532602
4	0xbc48f681	-0.012265802
5	0xbde7beab	-0.11315664
6	0xbcfef16f	-0.031120984
7	0x3da817f6	0.08207695
8	0xb986300f	-0.00025594278
9	0x3e47649c	0.19471973
10	0x3e2d59db	0.16928808
11	0x3e3b0c97	0.18266521
12	0xbe5090e2	-0.20367768
13	0xbe60f987	-0.21970187
14	0x3cd1721e	0.02556711
15	0xbe14212b	-0.14465778
16	0xbc381987	-0.011236555
17	0x3d0fda76	0.03512045
18	0xbe37246c	-0.17884988
19	0x3d495450	0.049152672
20	0x3e2cff11	0.16894175
21	0x3c485194	0.012226481
22	0xbe0041dc	-0.12525123
23	0x3e4c5d5f	0.19957493
24	0xbb352ffd	-0.0027647011
25	0x3d010ed4	0.03150828
26	0xbcc6cee4	-0.024268575
27	0x3d9488d2	0.07252659
28	0x3e40e05c	0.18835586
29	0xbe0d39d0	-0.13791585
30	0xbe24b93d	-0.16086288
31	0xbdd01939	-0.10161061
32	0x3e31f490	0.1737845
33	0xbd3cc7d4	-0.04608901
34	0x3dd30f62	0.103056684
35	0x3dabe548	0.08393341
36	0x3e5451b0	0.20734286
37	0xbe379eb5	-0.17931636
38	0xbdbe41e4	-0.092899114
39	0x3da6bca7	0.08141451
40	0xbd0c7b11	-0.034297053
41	0x3e09d877	0.13461481
42	0xbe1faa63	-0.15592341
43	0xbd9dc1b3	-0.07702961
44	0x3d98b770	0.07456863
45	0xbe1bee8e	-0.1522772
46	0x3e49088c	0.19632167
47	0x3e01d45f	0.1267867
48	0xbcdc7f12	-0.02691606
49	0xbe22aefa	-0.15887061
50	0xbe546f06	-0.20745477
51	0xbd664801	-0.056221012
52	0xbd9ffd35	-0.07811967
53	0x3e0e598c	0.13901347
54	0xbe2c5dfd	-0.16832729
55	0xbe0763d5	-0.13221677
56	0x3c743f3b	0.014907653
57	0x3e3e684c	0.18594474
58	0x3e277fd1	0.16357352
59	0xbac3d65c	-0.0014941203
60	0x3d00a677	0.031408753
61	0x3d8052a2	0.06265761
62	0xbe1cd33f	-0.15314959
63	0xbe315428	-0.1731726
64	0xbd7bed0f	-0.061505374
65	0x3cdc4363	0.026887601
66	0xba8d683c	-0.001078851
67	0xbd9af76d	-0.07566724
68	0xbdcf359e	-0.101176485
69	0xbe179c24	-0.14805657
70	0xbe4d0a8e	-0.20023558
71	0xbcd0cc5c	-0.025488071
72	0xbe45df88	-0.19323552
73	0x3e2c71bc	0.16840261
74	0xbd875586	-0.06608109
75	0x3c430a3f	0.011904298
76	0xbdd5b5de	-0.10435079
77	0xbda3c672	-0.07996835
78	0xbd204fa8	-0.039138466
79	0xbdfab0f5	-0.12240783
80	0x3e394009	0.18090834
81	0x3d20cb85	0.03925659
82	0x3e11c41b	0.14234965
83	0xbe467c2b	-0.19383304
84	0xbdf350ca	-0.11880644
85	0x3c9482df	0.01812881
86	0xbd1dc198	-0.038514704
87	0xbcfac0da	-0.030609537
88	0xbd5b9254	-0.053606346
89	0xbe44e746	-0.19228849
90	0x3e29225e	0.16517016
91	0xbe16fda8	-0.147452
92	0x3dcdf25d	0.10055993
93	0xbddce3db	-0.107856475
94	0xbe060c41	-0.13090612
95	0x3d6bc372	0.057559438
96	0xbe0fe831	-0.14053418
97	0xbdafe16a	-0.08587916
98	0xbe00d14c	-0.1257984
99	0xbdefd7ac	-0.11711058
100	0xbe2db729	-0.16964401
101	0xbe277664	-0.16353756
102	0xbdeeddc1	-0.1166339
103	0xb9dcca28	-0.00042112288
104	0xbd0283b9	-0.0318639
105	0x3dd372e8	0.10324651
106	0xbe1bad37	-0.15202795
107	0xbe13cff5	-0.14434798
108	0xbc32b349	-0.010907003
109	0x3e20d9b5	0.15708049
110	0x3e3761a9	0.17908348
111	0xbd06cfb4	-0.032912925
112	0xbda2d718	-0.07951182
113	0xbd9bff92	-0.076171055
114	0xbe4d82c8	-0.2006942
115	0x3e09928e	0.13434812
116	0x3e18ebe1	0.1493373
117	0x3db93d35	0.090448774
118	0xbd2fdf8b	-0.042937797
119	0x3d61bba5	0.055110592
120	0x3da6f690	0.08152497
121	0xbca221e1	-0.019791545
122	0x3e1832e2	0.1486316
123	0x3c9224a9	0.017839747
124	0x3de8e6b4	0.11372128
125	0xbe28120a	-0.16413131
126	0xbe197e84	-0.14989668
127	0xbe0686bf	-0.13137339

_policy.2.weight f4 [128, 128]
0	0x3c66dcdd	0.014090744
1	0x3d6dfffd	0.058105458
2	0xbc8fba67	-0.017544938
3	0x3d68e485	0.05685856
4	0x3da777d9	0.08177156
5	0xbd90cc97	-0.070702724
6	0x3d8d598f	0.069018476
7	0x3d52cc60	0.05146444
8	0xbd495015	-0.049148638
9	0xbd8b6c2c	-0.068077415
10	0x3ca22883	0.019794708
11	0x3ca52936	0.020161252
12	0xbd1d81da	-0.038453914
13	0x3cf7785e	0.030208763
14	0xbd25ca1b	-0.040475946
15	0x3d18256a	0.037145056
16	0xbd9acc98	-0.075585544
17	0xbc57a80d	-0.013162625
18	0xbd87e5cf	-0.066356294
19	0x3de1b74a	0.11021288
20	0x3d32fe8a	0.04369978
21	0x3ceec280	0.02914548
22	0x3d5e53fa	0.054279305
23	0xbd309775	-0.04311319
24	0xbd51218f	-0.051057395
25	0xbda3be32	-0.07995261
26	0x3d7f8dd5	0.06239112
27	0x3bcfa27d	0.006336509
28	0xbd9b7ddf	-0.075923674
29	0xbcedad04	-0.029013164
30	0xbd4fc8c6	-0.05072858
31	0xbc7359af	-0.014852925
32	0x3dada238	0.084782064
33	0xbd69aca1	-0.057049397
34	0x3da9fe86	0.083004996
35	0xbd4e85bf	-0.05042052
36	0x3d8d34a3	0.06894805
37	0x3c8acf13	0.016944444
38	0x3c22d792	0.009939091
39	0xbc40ea43	-0.011774602
40	0xbc80088f	-0.015629081
41	0x3c80943a	0.01569568
42	0xbdb85ed1	-0.0900246
43	0xbd743ae3	-0.05962647
44	0x3d3b663f	0.045751806
45	0x3d4b5bfc	0.04964827
46	0x3c1f8a25	0.009737526
47	0xbd693e5d	-0.05694424
48	0xbd0a0221	-0.033693437
49	0x3d1e8039	0.0386965
50	0x3c9c93ce	0.019113448
51	0x3da3bf3d	0.0799546
52	0x3c992e80	0.01869893
53	0xbd8cb0b5	-0.06869642
54	0xbd9c0878	-0.07618803
55	0xbda10936	-0.07863085
56	0xbcb0232c	-0.021501146
57	0x3d487901	0.048943523
58	0xbd97b17c	-0.07406899
59	0xbcb232ff	-0.021752832
60	0xbcfd72e8	-0.03093858
61	0x3c3bebea	0.0114698205
62	0xbd357c62	-0.044308074
63	0x3db2636b	0.08710369
64	0x3a09f000	0.0005261898
65	0x3ab64b21	0.0013907888
66	0x3d86e4d7	0.065866165
67	0xbd0ea6c1	-0.034826998
68	0x3d468c82	0.048473842
69	0xbcff756b	-0.031183919
70	0xbd2fb7eb	-0.042900007
71	0xbda812e0	-0.08206725
72	0xbd0d75e7	-0.03453627
73	0xbd7b294e	-0.061318688
74	0xbda11600	-0.07865524
75	0xbd5544b2	-0.052067466
76	0xbd4869e0	-0.048929095
77	0x3daf35db	0.08555194
78	0xbd736942	-0.059426554
79	0xbd2d19b1	-0.04226083
80	0xbb266f3d	-0.0025395893
81	0xbce147f1	-0.027500125
82	0xbca46fcd	-0.020072842
83	0xbd40bcf7	-0.04705521
84	0xbdf20885	-0.11818031
85	0xbd86a8b1	-0.06575144
86	0xbd8cfada	-0.06883784
87	0x3d9d290d	0.076738454
88	0x3ac85d0c	0.0015286519
89	0xbbb0599b	-0.0053817756
90	0xbda16dc6	-0.07882266
91	0x3da4d9dd	0.080493666
92	0x3d4f21dc	0.0505694
93	0xbd000db6	-0.031263076
94	0x3c2c3634	0.01051097
95	0x3d59622d	0.053072143
96	0xbcdeca57	-0.027196093
97	0x3d06b28c	0.03288512
98	0x3dbf66c5	0.093457736
99	0x3d2e95d5	0.04262336
100	0xbdcdaa43	-0.100422405
101	0x3d2973c3	0.041370165
102	0x3d9437c2	0.072371975
103	0xbacfad55	-0.0015844504
104	0x3d24eb57	0.0402635
105	0xbcc41aad	-0.023938501
106	0xbd49ae97	-0.049238767
107	0xbc4cd7e5	-0.012502645
108	0xbd8105bf	-0.06299924
109	0xbdadac2c	-0.08480105
110	0xbdabbc5a	-0.083855346
111	0x3bbd3d36	0.005775119
112	0x3c8032ce	0.015649226
113	0xbd9bef9a	-0.0761406
114	0x3ac7a584	0.0015231823
115	0x3d00dd00	0.031460762
116	0x3da8742d	0.08225284
117	0x3d9714ff	0.073770516
118	0xbdab965d	-0.08378289
119	0x3de35797	0.11100691
120	0xbc2508a8	-0.010072865
121	0x3c1e0abd	0.009646115
122	0x3b704625	0.0036662903
123	0xbd4bae07	-0.049726512
124	0x3b2ae7a4	0.002607801
125	0xbddc5c2f	-0.1075977
126	0x3d44ca26	0.048044346
127	0x3d88cf35	0.066801466
128	0xbd061ac1	-0.03274036
129	0xbd1ee8fb	-0.038796406
130	0xbbc056a2	-0.0058697024
131	0xbc0bf638	-0.00854259
132	0x3d9034fb	0.07041355
133	0xbd5e0803	-0.05420686
134	0x3c8bd004	0.017066963
135	0xbbc47c69	-0.005996276
136	0x3d4f5166	0.050614737
137	0xbc639d2c	-0.013892453
138	0xbc909ed8	-0.017653868
139	0xbdc62476	-0.09674923
140	0xbc0887e6	-0.008333182
141	0xbd7d853e	-0.061894648
142	0xbdb99639	-0.09061856
143	0xbc6b4378	-0.0143593475
144	0xbdd449de	-0.103656515
145	0xbcd8621c	-0.02641397
146	0xbdb08d4e	-0.08620702
147	0x3dabe085	0.08392433
148	0xbdc26426	-0.09491758
149	0x3cbe2238	0.023209676
150	0xbd565b7f	-0.05233335
151	0x3d260a7f	0.040537354
152	0xbca98c59	-0.020696806
153	0x3a98fc06	0.0011671789
154	0xbcdde20e	-0.02708533
155	0xbd540952	-0.0517667
156	0xbda61143	-0.08108761
157	0x3bb2f28b	0.0054610423
158	0x3c02c1b9	0.007980757
159	0xbd27d59d	-0.040975202
160	0xbcff686f	-0.031177728
161	0xbd6014d4	-0.054707363
162	0xbce99d37	-0.028517349
163	0xbd5a9bb3	-0.053371143
164	0x3b97fd40	0.004638344
165	0xbc9f25b8	-0.019427165
166	0xbd47e092	-0.04879815
167	0xbd730462	-0.05933035
168	0x3d7b9cd6	0.061428867
169	0x3d59fdc8	0.05322054
170	0x3d4f3fef	0.05059808
171	0x3cbda0d0	0.02314797
172	0x3da1da43	0.07902958
173	0xbdc4837e	-0.09595393
174	0xbc869c95	-0.016432086
175	0xbdaebcae	-0.085320815
176	0xbd94adff	-0.072597496
177	0xbd8e2ba2	-0.06941916
178	0x3c5808c2	0.013185682
179	0xbd970186	-0.073733374
180	0xbc42340c	-0.011853229
181	0x3d33a6bb	0.04386018
182	0xbd6ccb1b	-0.057810884
183	0xbc1a9231	-0.009434269
184	0x3b9e9f6e	0.004840783
185	0xbd597938	-0.05309412
186	0x3d44c648	0.04804066
187	0xbda7b6e4	-0.081891805
188	0x3d8833e0	0.06650519
189	0x3d590d28	0.052991062
190	0xbc35ddda	-0.011100257
191	0xbc4f0b71	-0.012637005
192	0x3d21ed7e	0.03953313
193	0x3d51c240	0.05121064
194	0xbd93b03b	-0.07211348
195	0x3cd8969d	0.026439006
196	0xbcc6a7a8	-0.024249867
197	0x3d8573fe	0.065162644
198	0xbcde8c26	-0.027166437
199	0xbd6ced42	-0.057843454
200	0x3d779513	0.060444903
201	0xbda2fc0a	-0.07958229
202	0x3d258f17	0.040419664
203	0xbd3da67b	-0.046301346
204	0xbd2cc1f3	-0.042177152
205	0xbdafe831	-0.08589209
206	0xbcb04014	-0.02151493
207	0xbce7c90f	-0.028294114
208	0xbd36bff0	-0.04461664
209	0x3ccca4e9	0.024980979
210	0x3cc0bc12	0.023527179
211	0xbd5ea644	-0.054357782
212	0x3d13e100	0.03610325
213	0x3d0fd563	0.03511561
214	0xbc356bf1	-0.0110730985
215	0xba907442	-0.0011020976
216	0x3d4f5935	0.050622184
217	0x3d340f6d	0.043960024
218	0xba945bc3	-0.0011318851
219	0xbda5df6d	-0.08099256
220	0x3d5d01a3	0.05395664
221	0x3c3ed847	0.011648244
222	0x3d81181f	0.06303429
223	0x3d6c635f	0.057711955
224	0x3d428081	0.047485832
225	0xbd5fcd85	-0.054639358
226	0xbdc82f15	-0.09774605
227	0xbdb32125	-0.08746556
228	0xbd8433ad	-0.06455169
229	0xbc3c32b9	-0.011486703
230	0x3d2bdcf6	0.04195877
231	0x3d66a9cf	0.056314286
232	0xbd8d16a4	-0.06889084
233	0x3c406084	0.011741761
234	0xbd919b51	-0.071097024
235	0x3d8f73ce	0.0700451
236	0x3d86810d	0.06567583
237	0xbc57a728	-0.013162412
238	0x3c0e3821	0.008680374
239	0xbc549168	-0.012974121
240	0x3caa5ff3	0.020797705
241	0x3d8008e4	0.06251696
242	0x3d455c51	0.048183743
243	0x3d127286	0.03575375
244	0xbc41d11a	-0.011829639
245	0xbd156694	-0.03647478
246	0x3d194212	0.037416525
247	0xbd9e3c33	-0.07726326
248	0x3d4b8fa6	0.04969754
249	0x3c980cfd	0.01856088
250	0xbdadc3fa	-0.08484645
251	0xbdab7928	-0.08372718
252	0xbcf22f64	-0.029563613
253	0x3ca37ef8	0.019958004
254	0x3d8eb198	0.06967467
255	0xbd17bf7b	-0.037047844

_policy.2.bias f4 [128]
0	0xbdab2cbd	-0.083581425
1	0xbdcc263a	-0.09968229
2	0xbdaa170a	-0.083051756
3	0x3d6e1228	0.058122784
4	0xbc4867c7	-0.012231774
5	0xbbb35091	-0.0054722507
6	0x3d0e8d0a	0.034802474
7	0x3d164481	0.036686424
8	0x3d119dfe	0.035551064
9	0x38e4aae5	0.00010903719
10	0x3a2ef359	0.0006673835
11	0x3dba76c7	0.09104686
12	0x3db77956	0.0895869
13	0x3db309cb	0.08742102
14	0x3d920e14	0.071315914
15	0x3d49d63c	0.049276575
16	0x3d4621a2	0.04837192
17	0x3db03c68	0.086052716
18	0x3d872069	0.065979786
19	0x3ce75ef0	0.028243512
20	0xbd86b4e5	-0.06577472
21	0x3d363039	0.044479582
22	0x3ca0f848	0.01964964
23	0x3d616ca9	0.055035267
24	0xbda836fe	-0.08213614
25	0xbc96c8a8	-0.018406227
26	0x3d7374e3	0.059437644
27	0xbdb4d7f6	-0.08830254
28	0xbdb20a00	-0.086933136
29	0x3dae3c67	0.085076146
30	0xbd6ae314	-0.057345465
31	0xbc3d4e9b	-0.011554386
32	0xbc50ef0b	-0.012752305
33	0x3d5414ea	0.051777758
34	0xbd977061	-0.073944815
35	0xbdd50900	-0.10402107
36	0xbd808f2c	-0.06277308
37	0x3d2afc87	0.041744735
38	0x3d587746	0.052848123
39	0xbd2ef310	-0.04271227
40	0x3d81b9c5	0.06334261
41	0xbd946a56	-0.072468445
42	0x3d305202	0.04304696
43	0xbda4a665	-0.0803955
44	0x3bb7eeb9	0.0056131748
45	0x3d96a000	0.07354736
46	0x3d9750fc	0.073884934
47	0x3b47be09	0.003047826
48	0x3bd77405	0.00657511
49	0xbd9a9136	-0.07547228
50	0xbb847492	-0.0040422166
51	0x3d69a3b2	0.057040878
52	0x3db3f1c7	0.0878635
53	0x3cee2947	0.029072417
54	0x3d75040b	0.05981831
55	0x3d824129	0.063600846
56	0x3badc82c	0.0053034034
57	0xbdc32039	-0.0952763
58	0xbc9f83dc	-0.019472055
59	0x3d89f54e	0.06736241
60	0xbdaf7ae8	-0.085683644
61	0x3d0315d7	0.03200325
62	0xbd20b7f9	-0.03923795
63	0x3b97f29f	0.004637077
64	0xbca3799f	-0.019955454
65	0x3d4c29ea	0.04984466
66	0x3c787c63	0.015166375
67	0x3da786c7	0.081800036
68	0xbda5f462	-0.08103253
69	0x3c94508a	0.01810481
70	0xbc8c52c4	-0.01712931
71	0x39f1b6f5	0.00046103416
72	0xbcc306a2	-0.023806874
73	0xbdb30105	-0.08740429
74	0x3d6e4d51	0.058179203
75	0xbd8840a1	-0.06652952
76	0x3dbf07df	0.09327673
77	0xbd6cebe2	-0.057842143
78	0x3dab8953	0.08375802
79	0xbb92a56b	-0.0044752858
80	0x3cf4413b	0.02981626
81	0xbd6e82c9	-0.058230195
82	0x3db5b1a9	0.088717766
83	0x3ce2f839	0.027706252
84	0x3d475040	0.048660517
85	0x3d95a845	0.073074855
86	0x3b8b1190	0.004244037
87	0xbd7035af	-0.058644947
88	0xbd1c6e32	-0.038191028
89	0x3d48a94b	0.048989575
90	0xbcdbf3f6	-0.026849728
91	0x3dbb6b9e	0.09151386
92	0x3c071cfd	0.008246657
93	0x3d3de720	0.046362996
94	0xbb9ad245	-0.004724773
95	0xbd5bf05c	-0.05369602
96	0x3c035248	0.008015223
97	0x3ce871a5	0.028374502
98	0xbd986e16	-0.07442872
99	0xbda8c55d	-0.08240769
100	0xbd29ee35	-0.041486938
101	0x3c8b1328	0.016976908
102	0xbab22146	-0.0013590239
103	0x3d99451a	0.07483883
104	0xbc2b8f49	-0.010471174
105	0x3da12b78	0.07869619
106	0x3b9f5be5	0.0048632496
107	0x3d161a52	0.036646195
108	0xbd1c6865	-0.038185496
109	0xbd93d8f7	-0.07219117
110	0xbd1be6d8	-0.038061947
111	0x3d9df525	0.07712773
112	0x3da263c5	0.07929186
113	0x3d904c0e	0.07045756
114	0xbc6ed8b2	-0.014578031
115	0x3dbd1a7c	0.09233567
116	0xbda5c75a	-0.08094664
117	0xbb93a7e3	-0.0045060976
118	0xbd1ecc58	-0.038769096
119	0x3d740711	0.05957705
120	0xbd104db3	-0.03523035
121	0xbc544d8c	-0.012957942
122	0xbca35d0e	-0.019941833
123	0xbdb8dca5	-0.090264596
124	0xbdae056c	-0.08497128
125	0x3d602ab3	0.05472822
126	0xbd5b5dc7	-0.05355623
127	0x3da001a4	0.07812813

_policy.4.weight f4 [128, 128]
0	0xbdb5bbd6	-0.088737175
1	0xbd44f03d	-0.04808067
2	0x3bd44eb3	0.0064791082
3	0x3d1ae572	0.037816472
4	0x3d8d0cc9	0.06887204
5	0x3d05ee63	0.032698046
6	0xbcec6e35	-0.028861145
7	0x3cc63d2b	0.024199089
8	0xbd03f053	-0.032211613
9	0xbdabfb08	-0.0839749
10	0x3d1cef65	0.038314242
11	0xbd07a1ab	-0.033113163
12	0x3d1affe4	0.037841693
13	0x3d6458d7	0.055748787
14	0xbda29e1f	-0.079403155
15	0xbd04af20	-0.032393575
16	0xbd823b2d	-0.06358943
17	0x3e079410	0.13240075
18	0xbdb83f71	-0.089964755
19	0x3d7678c4	0.060173765
20	0xbc6b08fe	-0.014345406
21	0xbd08ca34	-0.03339596
22	0xbd9a1099	-0.07522697
23	0x3d3a0d54	0.045422867
24	0x3d507f20	0.050902486
25	0x3c4995ae	0.012303753
26	0xbd81f69c	-0.06345865
27	0xbcedb551	-0.029017122
28	0x3d90c751	0.070692666
29	0xbd69bf91	-0.057067458
30	0x3d1c9db4	0.038236335
31	0xbd84a739	-0.06477208
32	0x3d18a629	0.037267838
33	0x3db99c97	0.0906307
34	0x3d96be1c	0.07360479
35	0x3d921651	0.07133163
36	0x3d0d294c	0.034463212
37	0x3dc38734	0.09547272
38	0x3cb0fe32	0.021605585
39	0x3b5d404f	0.0033760255
40	0xbcc2547d	-0.023721928
41	0x3d8ba91c	0.068193644
42	0x3d074571	0.03302521
43	0x3d285c64	0.041103736
44	0x3a769595	0.0009406445
45	0x3d5c3705	0.05376341
46	0xbd3abaf4	-0.04558845
47	0x3c1c97dc	0.0095576905
48	0x3cf1715d	0.029473001
49	0xbc3e7c32	-0.01162629
50	0x3d8316b8	0.06400818
51	0xbd1aee34	-0.037824824
52	0xbd100364	-0.035159484
53	0x3d3f0853	0.046638798
54	0xbd793017	-0.060836878
55	0xbd1c771f	-0.03819954
56	0xbd755131	-0.059891883
57	0x3b0ab980	0.0021167696
58	0xbdd0493a	-0.10170217
59	0x3d93d956	0.07219188
60	0x3b8735d3	0.0041262894
61	0xbdbce061	-0.092224844
62	0x3d455aba	0.048182227
63	0xbd524918	-0.05133924
64	0x3c7777e4	0.015104268
65	0x3ca51466	0.020151328
66	0x3cac29b0	0.021015972
67	0xbd0fae8e	-0.035078578
68	0x3d193601	0.037405018
69	0x3d9411e4	0.07229975
70	0xbd2527b7	-0.04032108
71	0xbdc11d50	-0.09429419
72	0xbdad77ba	-0.08470102
73	0xbd9a2af9	-0.07527728
74	0x3d483322	0.04887689
75	0xbdcb68e0	-0.09932113
76	0x3d64d132	0.055863567
77	0xbd015808	-0.031578094
78	0x3d91c14d	0.07116947
79	0xbd58ca20	-0.052927136
80	0xbdb27919	-0.08714504
81	0x3d3b6611	0.045751635
82	0xbc867d16	-0.016417067
83	0x3d73dced	0.059536863
84	0x3dcd8558	0.10035199
85	0x3c6fd7b9	0.014638835
86	0x3d3450c7	0.044022348
87	0xbdb6b463	-0.08921125
88	0xbd70c95a	-0.058785774
89	0xbdb05fea	-0.08612044
90	0xbd4091d6	-0.04701408
91	0xb8e7e3fd	-0.000110574045
92	0x3ba6a770	0.005085878
93	0xbd77537f	-0.060382362
94	0xbd62c81a	-0.055366613
95	0x3d7640b4	0.0601203
96	0x3dcb0af6	0.099142
97	0xbd32a221	-0.04361165
98	0xbbbf6657	-0.0058410573
99	0x3d716e6b	0.058943193
100	0x3d258758	0.040412277
101	0x3d72865f	0.059210178
102	0x3cdf64cf	0.027269749
103	0x3c603d3a	0.013686473
104	0xbd23123f	-0.039812323
105	0xbd4123bb	-0.047153216
106	0x3d066b43	0.032817136
107	0xbc7de5aa	-0.015496651
108	0xbc337f54	-0.01095565
109	0x3d833d21	0.06408144
110	0xbbe52b6a	-0.0069937008
111	0x3d53ed4d	0.05173998
112	0x3dc0bde3	0.09411218
113	0xbdc0695f	-0.09395098
114	0x3dc993b0	0.09842622
115	0xbdadc5b4	-0.084849745
116	0xbd99e3cf	-0.07514154
117	0x3d1f95b7	0.03896114
118	0x3dc6f077	0.09713834
119	0xbb11d146	-0.002224998
120	0xbc5dc172	-0.0135348905
121	0x3cb21e1f	0.021742878
122	0xbd4aec8d	-0.049542
123	0xbd0ce7d7	-0.034400787
124	0xbcdb9b7e	-0.026807543
125	0x3b41f23f	0.0029593853
126	0xbc30b163	-0.01078448
127	0xbda54cee	-0.08071314
128	0xbc5cab28	-0.013468541
129	0x3d6d1cc2	0.057888754
130	0x3ccf0920	0.025272906
131	0x3d2a6022	0.041595586
132	0xbc8b0446	-0.016969811
133	0x3d20cf2a	0.039260067
134	0x3ce53d4d	0.027983332
135	0xbd7a0f8c	-0.061049983
136	0x3ca7c85e	0.020481285
137	0x3d2b606a	0.041839994
138	0xbc451eec	-0.012031298
139	0x3d162d48	0.036664277
140	0x3d8e3eb7	0.06945556
141	0xbd4b1fce	-0.04959088
142	0x3c2d5089	0.010578283
143	0xbdb9ff4b	-0.090818964
144	0xbd7b66e2	-0.061377414
145	0x3d5590f2	0.052140184
146	0x3cdbffcc	0.026855372
147	0x3d0b97da	0.034080364
148	0xbbcffbd0	-0.006347157
149	0xbd8cc2b2	-0.06873073
150	0xbd3fb8ec	-0.046807215
151	0xbd91aa3a	-0.07112546
152	0x3c03d3c4	0.008046094
153	0xbc14b7fd	-0.009077069
154	0x3d7eeafe	0.062235825
155	0xbd92d2f4	-0.07169142
156	0xbc3a4680	-0.011369348
157	0x3d549b46	0.051905893
158	0x3d942b2d	0.072347976
159	0x3d1ced3c	0.03831218
160	0xbd13646c	-0.03598444
161	0xbc71a94d	-0.014749837
162	0xbd0a6727	-0.03378978
163	0xbc8aade8	-0.016928628
164	0xbd7a5920	-0.061120152
165	0xbd80ad16	-0.062830135
166	0xbd989074	-0.07449427
167	0xbc3067fd	-0.01076698
168	0xbd936666	-0.07197265
169	0xbd9f2107	-0.07769971
170	0x3c1b1ec0	0.009467781
171	0x3d19a5d0	0.037511647
172	0x3d34f7f6	0.044181786
173	0xbd5bad09	-0.053631816
174	0xbd858b08	-0.06520659
175	0xbc18728b	-0.009304653
176	0x3d0c0743	0.034186613
177	0xbd05e8e4	-0.032692805
178	0x3c465cdc	0.0121071
179	0xbd8d6e34	-0.06905785
180	0xbd241959	-0.040063236
181	0x3c6d1778	0.014470927
182	0xbd137611	-0.03600127
183	0x3d41a99e	0.0472809
184	0xbd20dc41	-0.03927255
185	0xbd34587b	-0.044029694
186	0xbdaef96a	-0.08543666
187	0x3c267798	0.010160349
188	0xbd916637	-0.07099574
189	0xbc1e2550	-0.009652451
190	0xbd97ef2a	-0.07418664
191	0x3d91fc2f	0.07128178
192	0xbdb19007	-0.08670049
193	0xbdbca5f1	-0.09211338
194	0xbd9fb22c	-0.077976555
195	0x3d303657	0.043020573
196	0xbd23f730	-0.04003066
197	0x3c516e20	0.0127826035
198	0xbd593939	-0.053033087
199	0xbcd60fc2	-0.02613056
200	0x3d7ab426	0.06120696
201	0x3cfbf914	0.030758418
202	0xbd0d03a8	-0.034427315
203	0xbd99e3fb	-0.07514187
204	0x3cee2e95	0.029074946
205	0xbc9c8a10	-0.019108802
206	0xbdb3bf9b	-0.0877678
207	0xbd8b3c72	-0.067986384
208	0xbbf6ec00	-0.0075354576
209	0x3d4f3f6b	0.05059759
210	0x3cd8ac31	0.026449295
211	0xbc3436b7	-0.010999373
212	0x3c297c80	0.0103446245
213	0x3d89cbd4	0.0672833
214	0xbd4c2b17	-0.04984578
215	0xbcb0f5eb	-0.021601638
216	0xbd9ccf6b	-0.07656749
217	0x3d3477b6	0.044059478
218	0xbd47c61f	-0.048772927
219	0x3b0d760f	0.002158526
220	0x3d5e6af6	0.054301225
221	0xbd89610e	-0.06707965
222	0xbd2821dc	-0.041047916
223	0xbdb09f1a	-0.08624096
224	0x3da2f9b3	0.079577826
225	0x3bd98ca0	0.0066390783
226	0x3d3d2392	0.0461765
227	0x3d9ddd37	0.07708209
228	0xbd9a5905	-0.075365104
229	0x3c7ecaf8	0.015551321
230	0xba4d829d	-0.0007839592
231	0xbd3f957b	-0.046773415
232	0xbba633e5	-0.0050721043
233	0xbd8ab73a	-0.06773229
234	0xbd82a319	-0.06378765
235	0xbd0303c9	-0.03198603
236	0xbca56e73	-0.020194268
237	0xbaaf8a80	-0.0013392717
238	0xbd9bdd9f	-0.0761063
239	0xbd87d819	-0.06633014
240	0x3d1ea7fd	0.038734425
241	0x3d65f288	0.0561395
242	0xbd07578c	-0.033042476
243	0xbc909e9c	-0.017653756
244	0xbc444dfb	-0.011981483
245	0x3cef44de	0.029207643
246	0x3c32913f	0.010898887
247	0x3cd04dcc	0.025427721
248	0x3d78fefa	0.06079004
249	0xbd655951	-0.055993382
250	0x3da64fc7	0.08120685
251	0xbd497d9f	-0.049192067
252	0xbcd31fdc	-0.025772028
253	0x3c6bd617	0.014394305
254	0xbd6c9e0a	-0.057767905
255	0xbd1c8593	-0.038213324

_policy.4.bias f4 [128]
0	0x3cb721c4	0.022354968
1	0xbd494a36	-0.04914304
2	0x3dacb387	0.084326796
3	0xbd7b1e75	-0.061308343
4	0x3c8d8a34	0.017277814
5	0xbd8b867e	-0.06812762
6	0xbc3e89f3	-0.011629569
7	0xbd1cf5a3	-0.038320195
8	0x3d26892d	0.040658165
9	0x3d512689	0.05106214
10	0x3d4546ce	0.048163228
11	0x3dae29e8	0.08504087
12	0xbc4362b4	-0.011925388
13	0xbd9d6930	-0.076860785
14	0xbd873c9b	-0.066033565
15	0x3d6a717e	0.05723714
16	0x3c2e4559	0.010636651
17	0x3d746f48	0.05967644
18	0xbd3f5135	-0.046708304
19	0xbd6f2888	-0.058388263
20	0x3db9a667	0.09064942
21	0x3d2ae579	0.04172275
22	0x3d81e206	0.06341939
23	0xbcfffcb5	-0.03124843
24	0x3a0bd1b7	0.0005333679
25	0x3d1e1ed1	0.038603608
26	0xbd99ed3e	-0.075159535
27	0x3d40ae61	0.0470413
28	0x3c91321c	0.01772409
29	0xbcd1c523	-0.025606697
30	0x3d15a883	0.03653766
31	0x3d3a7f40	0.04553151
32	0x3d8cda28	0.068775475
33	0x3da20665	0.07911376
34	0xbd99eaf5	-0.075155176
35	0x3afa5093	0.0019097499
36	0x3d8a1ff0	0.06744373
37	0xbd9e5275	-0.07730571
38	0x3d633689	0.05547193
39	0x3d55b745	0.052176733
40	0x3d7974b7	0.060902324
41	0xbcd3313a	-0.025780309
42	0xbd71df5c	-0.059050903
43	0x3cf4d045	0.029884467
44	0x3d198238	0.037477702
45	0xbd8d28a1	-0.06892515
46	0xbdccc0ab	-0.09997686
47	0xbd6b672d	-0.057471443
48	0x3d6e9479	0.058247063
49	0x3d8f172d	0.06986842
50	0x3d14fb8f	0.036372717
51	0xbdbde9c7	-0.09273105
52	0x3d0fc4b9	0.03509972
53	0xbd81f9ee	-0.063464984
54	0x3bb68d22	0.0055710236
55	0x3dbf778b	0.09348973
56	0xbd320286	-0.043459438
57	0xbc271c1d	-0.010199574
58	0x3d0f9b44	0.035060182
59	0x3be49caf	0.006976686
60	0xbddc588c	-0.107590765
61	0xbd451799	-0.048118208
62	0x3d36a70c	0.044592902
63	0x3cafdf9e	0.021468934
64	0x3cd786af	0.02630934
65	0xbd1a79ac	-0.03771369
66	0xbc20d8b4	-0.009817291
67	0x3d266c9c	0.04063092
68	0x3da5d66d	0.08097539
69	0x3cf4f183	0.029900318
70	0x3d4be8db	0.049782615
71	0xbcd712c3	-0.026254063
72	0xbd527afe	-0.051386826
73	0x3d58e259	0.052950237
74	0x3d907bd3	0.070548676
75	0x3bbbf653	0.0057361512
76	0x3d81c8bc	0.06337115
77	0x3da58e12	0.080837384
78	0x3d56547a	0.052326657
79	0x3dbc1b4b	0.09184893
80	0x3d305c7e	0.043056957
81	0xbd233d75	-0.039853532
82	0x3b47a342	0.00304623
83	0xbc17cf73	-0.009265768
84	0xbcd36187	-0.02580334
85	0x3d87c5a7	0.06629496
86	0x3d14a251	0.03628761
87	0xbd6d267b	-0.057898026
88	0xbc8c04eb	-0.017092189
89	0xbd957668	-0.07297975
90	0x3cf1f6ec	0.029536687
91	0x3da49937	0.08037036
92	0x3d6df1a8	0.05809179
93	0xbbb829f5	-0.005620236
94	0x3d26055b	0.04053245
95	0x3d839c7d	0.06426332
96	0xbd8e8408	-0.06958777
97	0x3d2c96f4	0.042136148
98	0x3d1269e3	0.035745513
99	0xbba01882	-0.004885734
100	0xbdcc5210	-0.0997659
101	0xbd4f4e0f	-0.05061155
102	0x3d3d5e44	0.046232477
103	0x3db56bc8	0.08858448
104	0x3d549ded	0.051908422
105	0x3d7e01b0	0.062013328
106	0x3d37d30c	0.044879004
107	0x3c7f4cfc	0.015582319
108	0x3d92bfdb	0.071655
109	0x3d21bb94	0.03948553
110	0xbd0382d5	-0.032107193
111	0xbd21e23c	-0.039522395
112	0xbc82ccbf	-0.015966771
113	0x3ba70831	0.005097412
114	0xbd0ae8af	-0.03391331
115	0x3d7956d0	0.060873806
116	0x3cd70277	0.026246293
117	0xbd962114	-0.07330528
118	0xbd82793d	-0.063707806
119	0xbceb7daa	-0.028746445
120	0xbd5f5296	-0.05452212
121	0x3d76a493	0.060215544
122	0xbca54f4f	-0.020179419
123	0xbcdcf2a9	-0.026971178
124	0x3c9b60fe	0.018967148
125	0x3d4ff311	0.050768916
126	0x3d2c5d12	0.042080946
127	0x3da1a5f6	0.07892983

_policy.6.weight f4 [128, 128]
0	0xbc9a1082	-0.0188067
1	0xbc8b1dd5	-0.016981998
2	0x3d3e4a43	0.04645754
3	0xbdd59185	-0.10428146
4	0x3db1d67d	0.086834885
5	0xbd176a8c	-0.036966845
6	0xbda193fa	-0.078895524
7	0x3d806d35	0.062708296
8	0xbd78b631	-0.060720626
9	0x3bceb724	0.006308453
10	0x3d9f1a22	0.07768656
11	0xbd153dec	-0.036436006
12	0x3da0e94a	0.07856996
13	0xbd212333	-0.03934021
14	0xbc9ea7c0	-0.019367099
15	0x3ca54b88	0.020177618
16	0x3d80efaf	0.06295716
17	0x3bae3b6b	0.005317142
18	0x3d466068	0.048431784
19	0xbd842c1f	-0.06453728
20	0x3d8b0cb8	0.06789535
21	0x3d83cb29	0.06435234
22	0x3d84518a	0.06460865
23	0x3db95301	0.09049035
24	0x3c752319	0.014961981
25	0xbcea4edb	-0.028602054
26	0x3d0f4d7f	0.034986015
27	0x3c735b57	0.01485332
28	0x3d5d9b0a	0.054102935
29	0xbcee483b	-0.029087177
30	0x3d669e9d	0.05630361
31	0xbd36eb4d	-0.044657994
32	0xbd58ecb4	-0.052960113
33	0xbc909525	-0.017649243
34	0x3d5fd105	0.054642696
35	0xbd8e265c	-0.0694091
36	0x3c93fc4b	0.018064639
37	0x3c5a60b6	0.013328722
38	0x3d651ab3	0.055933665
39	0xbc86b820	-0.01644522
40	0x3d189dc9	0.03725985
41	0xbc24cf33	-0.010059166
42	0xbdb6807c	-0.08911225
43	0x3d44f0a7	0.048081066
44	0x3d14c4e4	0.036320582
45	0x3db1a564	0.08674124
46	0x3d4be421	0.049778108
47	0xbd3afd08	-0.045651466
48	0xbcd406a9	-0.025882082
49	0xbcdd8af9	-0.027043806
50	0x3d5d6dc3	0.054059755
51	0x3ceb0ebc	0.02869355
52	0x3d7070b6	0.05870124
53	0x3da7d794	0.08195415
54	0xbd0b1d1b	-0.033963304
55	0x3cc447db	0.023960045
56	0xbda6f0dc	-0.08151409
57	0x3cdb4dd3	0.026770508
58	0x3da90127	0.08252173
59	0x39d72913	0.00041038598
60	0x3caa1dd1	0.02076617
61	0x3d8d2422	0.068916574
62	0xbd7a88ae	-0.061165504
63	0xbd5f9fe8	-0.054595858
64	0xbd929a28	-0.07158309
65	0xbd92e2b3	-0.07172146
66	0x3cb96b4a	0.022634167
67	0x3c348bea	0.011019686
68	0x3db23fae	0.08703552
69	0xbbc57887	-0.006026331
70	0x3d1a9733	0.03774185
71	0xbd471c55	-0.048611004
72	0xbd198ce2	-0.037487872
73	0xbd44105f	-0.047867175
74	0xbd9467fb	-0.07246395
75	0x3d50929e	0.050921075
76	0x3d8ec770	0.069716334
77	0x3d5d7719	0.05406866
78	0xbc549f42	-0.012977423
79	0xbd1d23d3	-0.038364243
80	0x3cf810c8	0.03028144
81	0x3ccfb910	0.0253568
82	0x3da7a05f	0.08184885
83	0xbd5cea79	-0.053934548
84	0xbd999645	-0.07499365
85	0xbd3a9f4b	-0.04556207
86	0xbd3e4f61	-0.04646242
87	0x3c2247c7	0.009904808
88	0xbd91e93e	-0.071245655
89	0xbda2a66b	-0.07941898
90	0x3d09c41e	0.033634298
91	0xbd4aaf15	-0.049483377
92	0xbc2a9856	-0.010412296
93	0x3b4a72ed	0.0030891255
94	0xbd6b5082	-0.057449825
95	0xbd5cb4bf	-0.05388331
96	0xbd651994	-0.055932596
97	0x3d5bee82	0.053694256
98	0x3d0a28d0	0.033730328
99	0x3c615ffc	0.013755795
100	0x3c843074	0.016136386
101	0x3c9ce755	0.019153276
102	0x3c3af9eb	0.011412124
103	0x3d81f610	0.06345761
104	0x3d57afdd	0.05265795
105	0xbd950e49	-0.07278115
106	0x3d7b4e5a	0.06135402
107	0xbdae19a6	-0.08500986
108	0x3c2327cd	0.00995822
109	0xbc4a5025	-0.0123482095
110	0xbc6bfa0e	-0.014402879
111	0x3d958f91	0.07302774
112	0x3dafa872	0.0857705
113	0x3d1b4e9c	0.037916765
114	0x3d52498a	0.051339664
115	0x3cfc19a8	0.030773953
116	0xbd8a7dc6	-0.06762271
117	0x3d03cddd	0.03217875
118	0x3ccb7bc4	0.02483929
119	0x3d7f40f0	0.06231779
120	0x3cd05dad	0.025435293
121	0x3dbcd4b2	0.09220256
122	0x3d91415f	0.07092547
123	0x3d93fc2d	0.07225833
124	0xbda1b27f	-0.078953736
125	0x3d1cdf82	0.03829909
126	0xbd1af415	-0.03783043
127	0x3dbd147e	0.09232424
128	0x3c9e61c4	0.019333728
129	0x3d4c7a3b	0.049921256
130	0x3cc8fa79	0.024533497
131	0xbdbd1e48	-0.09234291
132	0xbd3c42e6	-0.045962237
133	0x386d9e3a	5.6652563e-05
134	0xbcfd07de	-0.03088754
135	0x3d9cc5e1	0.0765493
136	0xbd96f75a	-0.07371397
137	0x3c549650	0.01297529
138	0xbd179fb5	-0.037017543
139	0x3d98425d	0.07434533
140	0xbd84e3db	-0.064887725
141	0x3ceba95e	0.028767284
142	0xbda20861	-0.079117544
143	0xbdf4676a	-0.11933787
144	0x3d503923	0.05083574
145	0xbda968c2	-0.08271934
146	0x3d390af7	0.045176473
147	0x3d84d804	0.06486514
148	0xbba60dcf	-0.005067564
149	0xbc9f7d87	-0.019469036
150	0xbcc94baa	-0.024572212
151	0xbd0850b1	-0.03328008
152	0xbd66b189	-0.056321654
153	0x3cf0e11c	0.029404216
154	0x3d0599bb	0.032617312
155	0x3d777e18	0.060422987
156	0x3d914966	0.07094078
157	0x3cd6d8d0	0.026226431
158	0x3bc779ff	0.006087541
159	0xbcc719ef	-0.024304358
160	0x3c004587	0.007829077
161	0xbb90036b	-0.0043949387
162	0x3d1e11af	0.038591083
163	0x3d1411a8	0.03614965
164	0x3d95bbca	0.073112085
165	0x3d25235a	0.040316917
166	0xbd1ae52a	-0.037816204
167	0x3d50549b	0.050861936
168	0x3d501bec	0.05080788
169	0xbda59fd9	-0.08087129
170	0xbd70f53a	-0.058827616
171	0x3d309060	0.043106437
172	0x3cdbe744	0.026843674
173	0xbdbc26c1	-0.09187079
174	0xbd0c7a48	-0.034296304
175	0x3d038687	0.032110717
176	0xbd21750b	-0.03941826
177	0x3c876c08	0.016531006
178	0xbd9c53a5	-0.076331414
179	0xbc04942f	-0.00809197
180	0xbd3a4840	-0.04547906
181	0xbd96ba42	-0.073597446
182	0x3d7d7bb2	0.061885543
183	0x3d8a48a6	0.06752138
184	0x3d3ecaa7	0.046579983
185	0x3c62350b	0.013806592
186	0x3c1d2ef5	0.009593715
187	0x3cb99a0f	0.022656469
188	0x3c2f1ab2	0.010687517
189	0xbdc142ba	-0.09436555
190	0x396812e4	0.00022132281
191	0xbce964c7	-0.028490437
192	0xbd1f1da9	-0.038846646
193	0xbc9dda4b	-0.01926913
194	0xbd7523e0	-0.059848666
195	0x3d869322	0.06571032
196	0xbca41c83	-0.020033127
197	0x3d878f72	0.06619157
198	0x3d13779d	0.036002744
199	0x3d87af74	0.06625262
200	0xbcca7a85	-0.024716625
201	0xbd986928	-0.07441932
202	0x3d20f5b0	0.039296806
203	0x3d05126a	0.032488264
204	0xbd8e25e4	-0.06940821
205	0xbd939e7a	-0.072079614
206	0x3c860a33	0.016362285
207	0xbd7ed341	-0.062213186
208	0xbc2460a3	-0.010032806
209	0x3d145784	0.036216274
210	0xbd183740	-0.037162066
211	0xbcb1d251	-0.021706732
212	0x3d85addb	0.06527301
213	0x3d8deb44	0.06929639
214	0x3dcf4c42	0.10121967
215	0xbd980067	-0.07421952
216	0xbd0bd4d8	-0.03413853
217	0xbdb9deb1	-0.09075678
218	0xbd0b78c0	-0.034050703
219	0x3c1f07dd	0.009706465
220	0x3d5c6cf5	0.053814847
221	0xbd3e1f22	-0.04641641
222	0xbd47a9ee	-0.048746042
223	0xbd986768	-0.07441598
224	0x3d1e0d99	0.038587186
225	0x3d893d73	0.06701174
226	0xbb7c88dd	-0.0038533725
227	0xbdceaa5b	-0.100910865
228	0xbbe66f4d	-0.007032311
229	0x3d9655e3	0.073406
230	0xbd4b260b	-0.049596827
231	0x3d292cf0	0.04130262
232	0xbd02a40d	-0.031894732
233	0xbd9d900e	-0.07693492
234	0x3d07d52c	0.03316228
235	0x3aaae058	0.001303683
236	0xbd68aaef	-0.05680364
237	0xbd572f9f	-0.05253565
238	0x3cfca9aa	0.03084262
239	0xbca386c9	-0.019961732
240	0x3d279e2f	0.04092234
241	0x3cb987d7	0.022647781
242	0xbd5f1686	-0.05446484
243	0xbdb28b2f	-0.087179534
244	0xbca8f902	-0.020626549
245	0x3daf085e	0.08546518
246	0x3c6b8794	0.014375586
247	0x3cb0fec8	0.021605864
248	0x3d1b5e1d	0.03793155
249	0xbcaa3b6e	-0.020780291
250	0xbc8294aa	-0.01594003
251	0x3d5e36f0	0.05425161
252	0xbd984b31	-0.074362166
253	0xbd84b278	-0.06479353
254	0xbcd99eb0	-0.026564926
255	0xbd8b210a	-0.06793411

_policy.6.bias f4 [128]
0	0x3bbb9db8	0.0057255886
1	0xbdc864d8	-0.097848594
2	0xbdbc70f3	-0.09201231
3	0x3c9e3e5b	0.019316843
4	0xbd1a991a	-0.037743665
5	0xbd8baced	-0.06820092
6	0x3d409b5a	0.047023155
7	0xbc7c56d5	-0.015401562
8	0x3ce9745f	0.028497873
9	0xbd3ca4fc	-0.04605578
10	0x3d279851	0.040916745
11	0x3d9e4e2b	0.07729753
12	0x3d3c58fe	0.045983307
13	0xbd89b8e4	-0.06724718
14	0x3d2384ad	0.03992145
15	0xbd307938	-0.043084353
16	0x3d9b2403	0.07575228
17	0x3d08f175	0.033433396
18	0xbdc5c238	-0.09656185
19	0xbd953d5a	-0.072870925
20	0x3d0f6f5a	0.035018303
21	0x3d266be4	0.040630236
22	0x3dc2e1da	0.09515734
23	0x3b05eea1	0.0020436423
24	0x3d71bec7	0.05901983
25	0xbd4d679c	-0.050147638
26	0x3d2c8c27	0.042125847
27	0xbc5fcb9b	-0.013659383
28	0x3d7d6227	0.061861183
29	0x3d94c7ec	0.072646946
30	0xbd88ec8b	-0.06685742
31	0x3c2fe103	0.010734799
32	0x3d72fe42	0.05932451
33	0x3a42853c	0.0007420366
34	0x3ceb71c7	0.028740777
35	0x3d135355	0.035968143
36	0xbd3e4a45	-0.046457548
37	0x3d219fce	0.039459042
38	0xbccf703c	-0.025322072
39	0x3c9b6768	0.018970206
40	0xbd3b6161	-0.045747165
41	0xbcf02db9	-0.029318677
42	0x3d4704cf	0.04858857
43	0x3d95b09f	0.073090784
44	0x3d558ae3	0.052134406
45	0x3b408c62	0.002938055
46	0xbc494538	-0.012284569
47	0xbd8f2821	-0.06990076
48	0x3c9335f9	0.017970072
49	0x3d24d60e	0.0402432
50	0x3d2f0c3e	0.042736284
51	0xbdad96e0	-0.08476043
52	0xbda8d41d	-0.082435824
53	0xbd543dfd	-0.05181693
54	0xbd4f003a	-0.050537325
55	0xbc0e7163	-0.008694026
56	0x3b5aaa7e	0.0033365781
57	0x3da915b2	0.08256091
58	0xbc6e9db4	-0.014563967
59	0x3d2f762c	0.042837307
60	0x3dac9c15	0.08428208
61	0xbd779fd1	-0.060455147
62	0xbd5f6693	-0.05454118
63	0xbd1a364b	-0.037649434
64	0xbd8be1c8	-0.06830174
65	0x3cbbf237	0.022942645
66	0x3d80ace5	0.06282977
67	0x3d94dfb4	0.072692305
68	0xbd7f9470	-0.06239742
69	0x3d9f30df	0.07772993
70	0xbd7f11b1	-0.06227273
71	0x3c90c1b5	0.017670492
72	0xbd81dff2	-0.06341542
73	0xbd3171d5	-0.04332145
74	0x3ccaf732	0.024776075
75	0xbc971948	-0.018444672
76	0x3d06d9bb	0.032922488
77	0xbd7a33a1	-0.061084393
78	0xbd83d68e	-0.064374074
79	0x3d711857	0.058861103
80	0x3bc26ca7	0.0059333625
81	0xbd86b84b	-0.0657812
82	0xbd86ee23	-0.0658839
83	0x3c1bbd86	0.009505635
84	0x3d445b11	0.04793841
85	0xbce39fbe	-0.027786132
86	0x3d048a7a	0.032358624
87	0xbd19c8b9	-0.03754494
88	0xbcb5a857	-0.022174997
89	0x3d44e2a3	0.0480677
90	0x3d260936	0.040536128
91	0x3d360679	0.044439767
92	0x3d869627	0.06571608
93	0xbcdf3492	-0.027246747
94	0x3d5f24fe	0.054478638
95	0x3d06952d	0.03285711
96	0xbcaafc83	-0.02087236
97	0x3d801ff6	0.06256096
98	0xbca1bc2e	-0.019743051
99	0x3cccb053	0.024986422
100	0xbd0575e8	-0.032583147
101	0x3d837519	0.06418819
102	0xbd6154e1	-0.055012587
103	0xbc1bdc2d	-0.009512943
104	0xbd54e845	-0.051979322
105	0xbda975af	-0.082743995
106	0x3d0834a5	0.03325333
107	0xbc6647d7	-0.014055214
108	0xbd0badbc	-0.034101233
109	0x3dba74d7	0.09104317
110	0x3cb1f22a	0.021721918
111	0xbc97e581	-0.018542053
112	0xbdc182e9	-0.09448797
113	0x3c39b26f	0.011334046
114	0xbd0a701e	-0.03379833
115	0xbd21f529	-0.039540444
116	0xbd18311a	-0.037156202
117	0xbd35a954	-0.044350937
118	0x3b8f4d13	0.0043732016
119	0x3d389c3d	0.045070875
120	0xbc80924e	-0.015694764
121	0x3d7d784d	0.061882306
122	0x3d82f9ff	0.06395339
123	0x3d73b2a9	0.059496555
124	0x3d4f8890	0.050667346
125	0xbd8ace6e	-0.067776546
126	0xbc2f72d0	-0.010708526
127	0xbad7b285	-0.0016456401

_policy.8.weight f4 [3, 128]
0	0x3cf6bbf1	0.030118914
1	0xbc9a7c8f	-0.018858222
2	0xbda1bfc9	-0.07897908
3	0xbd571289	-0.05250791
4	0xbd79d127	-0.06099048
5	0xbd68d8f7	-0.05684754
6	0x3ba33f97	0.0049819457
7	0x3d19f9f6	0.037591897
8	0x3d2e0ed2	0.042494603
9	0xbc72d43e	-0.01482111
10	0x3da5b8b2	0.080918685
11	0x3daaef93	0.083464764
12	0xbcbe00fc	-0.023193829
13	0x3d9640d7	0.07336586
14	0xbdc87dbf	-0.09789609
15	0xbc5389b7	-0.012911252
16	0x3d171cbc	0.036892638
17	0x3d64971c	0.05580817
18	0xbd2a00b0	-0.041504562
19	0x3dcb187a	0.09916778
20	0xbcc097f3	-0.023509955
21	0xbba0f3f7	-0.0049118954
22	0xbc829463	-0.015939897
23	0x3debe59e	0.115184054
24	0x3ca25807	0.019817365
25	0xbd68ccca	-0.056835927
26	0xbab978ce	-0.0014150382
27	0xbd7744e9	-0.060368452
28	0xbcff16f9	-0.031138884
29	0xbd562e68	-0.05229035
30	0xbcd95dc0	-0.026533961
31	0xbc9b769b	-0.018977454
32	0xbd25bfa2	-0.04046596
33	0xbbdd11e6	-0.0067465184
34	0x3d875413	0.06607833
35	0x3d83e3de	0.064399466
36	0xbda29518	-0.079385936
37	0x3d5a8dd0	0.0533579
38	0x3d4bd9d7	0.049768295
39	0xbc0e8e27	-0.008700884
40	0x3d997ed5	0.074948944
41	0xbd8971de	-0.067111716
42	0x3d13fabe	0.0361278
43	0x3d8ce8a8	0.06880313
44	0x3cb06a51	0.02153507
45	0xbdbf0531	-0.09327162
46	0x3dce2cdf	0.10067152
47	0xba7acdd2	-0.0009567413
48	0xbd542864	-0.051796332
49	0xbcacdc84	-0.021101244
50	0x3dd0a41b	0.10187551
51	0x3c5a967c	0.013341542
52	0xba9fd942	-0.0012195485
53	0xbd0fec42	-0.035137422
54	0xba2932b9	-0.00064543966
55	0xbd6c6ba8	-0.057719857
56	0x3cf9de9c	0.030501656
57	0xbd9549d6	-0.07289474
58	0x3ad1c9f5	0.0016005622
59	0xbd4907c5	-0.049079675
60	0xba0b44a1	-0.00053126557
61	0x3ca50c4b	0.020147463
62	0xbdb3d910	-0.08781636
63	0xbacde72d	-0.0015709155
64	0x3b9433ae	0.0045227623
65	0x3dd67019	0.104706
66	0x3da844f0	0.08216274
67	0xbc5db609	-0.01353217
68	0x3c931734	0.0179554
69	0x3da54cea	0.08071311
70	0x3d9381d8	0.072025
71	0x3d59a863	0.0531391
72	0xbae70c9f	-0.0017627663
73	0x3d2b8b4b	0.041880887
74	0x3b8b42a1	0.004249886
75	0xbc083a3f	-0.008314668
76	0xbcbd4bd9	-0.023107456
77	0x3dbcce74	0.09219065
78	0xbd209279	-0.039202187
79	0x3db46733	0.08808746
80	0xbd01ccd6	-0.031689487
81	0xbdcfbeb0	-0.10143793
82	0xbd3bc1a3	-0.045838963
83	0x3c2c6dd1	0.010524229
84	0xbce3fed9	-0.027831482
85	0x3d261af1	0.040553037
86	0xbd49f068	-0.049301535
87	0xbd24b27f	-0.04020929
88	0xbd159474	-0.03651853
89	0x3d1bbba3	0.03802074
90	0xbd665eb0	-0.056242645
91	0xbd978838	-0.073990285
92	0xbdb3dbc2	-0.0878215
93	0xbd5ff3cc	-0.054675862
94	0x3d2a88cc	0.041634366
95	0x3d627b3d	0.05529331
96	0x3cd4a71a	0.025958586
97	0xbd7ac051	-0.061218563
98	0x3d81c547	0.06336456
99	0xbd9f990f	-0.077928655
100	0xbcdf0514	-0.027224101
101	0xbd46b383	-0.04851104
102	0xbcea52a1	-0.028603854
103	0xbd9d7902	-0.07689096
104	0xbd42ee23	-0.047590386
105	0xbc8eca7f	-0.017430542
106	0xbdaa42c2	-0.08313514
107	0x3ca0bf35	0.019622425
108	0x3d8da8bd	0.0691695
109	0x3d2cc105	0.042176265
110	0x3cd59381	0.026071312
111	0xbd933406	-0.07187657
112	0xbd27bde6	-0.040952586
113	0xbaae67a8	-0.0013306038
114	0x3d9415b5	0.07230703
115	0xbd1b1945	-0.037865896
116	0xbc917ff1	-0.017761203
117	0xbd4871ef	-0.04893678
118	0x3c66d721	0.014089377
119	0x3d1f4ab0	0.038889587
120	0xbcf541a3	-0.029938525
121	0xbd794337	-0.060855117
122	0xbd002117	-0.031281557
123	0x3d739731	0.05947036
124	0x3dc2e421	0.095161684
125	0xbd3dd0c0	-0.046341658
126	0xbc21e992	-0.009882348
127	0xbc4cdab2	-0.012503313
128	0x3d517361	0.051135425
129	0x3c870542	0.016482
130	0xbc52a2c1	-0.012856186
131	0xb88a3995	-6.591078e-05
132	0x3cd50dc9	0.02600755
133	0xbaf7b4b2	-0.0018898456
134	0x3cfcee4c	0.030875348
135	0x3d264de0	0.04060161
136	0x3d3dd186	0.046342395
137	0x3d705bf8	0.05868146
138	0xbd00cdf7	-0.031446423
139	0xbc97aae8	-0.018514112
140	0xbdb96527	-0.090524964
141	0x3d0e939c	0.03480874
142	0x3d7c73a1	0.06163371
143	0x3d19a502	0.03751088
144	0xbcaf1a94	-0.021374978
145	0xbd645485	-0.055744667
146	0xbd8acf8f	-0.0677787
147	0x3c7b8005	0.015350346
148	0x3d0100d3	0.031494927
149	0x3dbc0301	0.091802604
150	0xbdb8cd43	-0.090235256
151	0xb95a5108	-0.00020820287
152	0x3d3a7c17	0.045528498
153	0x3d529a7a	0.05141685
154	0x3c9e653b	0.01933538
155	0xbd97af7b	-0.07406517
156	0x3da84bc1	0.08217574
157	0xbced7ab8	-0.02898918
158	0xbb4d7a6e	-0.0031353491
159	0x3cb8e2a5	0.02256901
160	0x3d5b7cb7	0.053585734
161	0xbd4b4258	-0.049623817
162	0xbd55a2f0	-0.052157342
163	0x3d4ac821	0.049507264
164	0xbd2b5bcf	-0.041835602
165	0xbdb33402	-0.08750154
166	0xbd2b8e17	-0.041883554
167	0x3d863926	0.06553869
168	0x3d7c1ddf	0.061551925
169	0x3d007955	0.03136571
170	0x3d66b724	0.056327
171	0xbd4b4aa9	-0.04963175
172	0x3cc0d636	0.023539644
173	0x3d19424b	0.037416738
174	0xbbce4c36	-0.006295706
175	0xbd8942fc	-0.067022294
176	0xbd3f1cfc	-0.0466585
177	0xbc6f2104	-0.014595274
178	0xbc87187a	-0.016491164
179	0x3dbeff2e	0.093260154
180	0x3d59a526	0.053136013
181	0xbd22a85e	-0.03971135
182	0x3d921575	0.07132999
183	0xbd7714f0	-0.060322702
184	0x3db30867	0.08741837
185	0xbc951dbe	-0.018202659
186	0x3d21f271	0.03953785
187	0xbd0440d7	-0.0322884
188	0x3d90be52	0.07067551
189	0x3caa11f0	0.020760506
190	0x3d82ad22	0.06380679
191	0xbd06e7f9	-0.03293607
192	0x3d214017	0.03936776
193	0x3c910de9	0.017706828
194	0x3cff0cf1	0.0311341
195	0x3cedb421	0.029016556
196	0xbc75bc1e	-0.014998464
197	0xbd8e18ef	-0.069383495
198	0x3d82c9ad	0.06386123
199	0x3d8101e1	0.062991865
200	0x3b4278fd	0.0029674165
201	0xbd83888f	-0.06422531
202	0x3c85e6d0	0.016345412
203	0x3abeb4e8	0.0014549764
204	0xbad5b624	-0.0016304892
205	0xbcbedcab	-0.023298582
206	0xbd424a93	-0.0474344
207	0xbd064d09	-0.03278831
208	0xbd8e5fd7	-0.06951874
209	0xbce31ffd	-0.027725214
210	0x3d2e367a	0.04253242
211	0x3d9cbd4f	0.07653295
212	0x3caf025e	0.021363433
213	0x3c9c1aec	0.019055806
214	0x3d637984	0.05553581
215	0xbd67d27a	-0.05659721
216	0x3c986e38	0.018607244
217	0x3c938f75	0.018012742
218	0xbd076bbc	-0.033061728
219	0xbd70ab75	-0.058757264
220	0xbcaf9490	-0.021433145
221	0xbd8c86d6	-0.068616554
222	0xbc45d7f4	-0.012075413
223	0x3c84cb82	0.016210321
224	0xbd7afea9	-0.06127802
225	0xbc7c2ea3	-0.015391978
226	0xbd913916	-0.070909664
227	0x3d57f42b	0.05272309
228	0xbd8b6f00	-0.06808281
229	0xbd392aa1	-0.04520667
230	0xbc769d7a	-0.015052194
231	0xbb4e0872	-0.003143814
232	0x3d888fe1	0.06668068
233	0xbcd4dcb9	-0.025984155
234	0xbd3cdcea	-0.046109118
235	0xbd6398fd	-0.055565823
236	0x3d2d174b	0.042258542
237	0xbdb037bc	-0.086043805
238	0x3d13ea2e	0.036112003
239	0xbcf9bbeb	-0.030485114
240	0xbd5b3fe4	-0.053527728
241	0x3d3dec75	0.04636808
242	0xbd96f8d3	-0.07371678
243	0x3c0a42c3	0.008438769
244	0x3dca7dad	0.09887252
245	0xbd6f9332	-0.058489986
246	0xbca3b41e	-0.019983348
247	0xbdbd5bf7	-0.092460565
248	0xb9e5b729	-0.0004381475
249	0xbd3c8f10	-0.046034873
250	0x3d38a77a	0.045081593
251	0xbd8acd60	-0.067774534
252	0x3d37d443	0.044880163
253	0xbd845aa3	-0.064626
254	0x3db85b20	0.09001756
255	0xbd60f8c0	-0.054924726

_policy.8.bias f4 [3]
0	0x3d5bf33d	0.053698767
1	0xbd19bd7f	-0.037534233
2	0xbd01c882	-0.03168536
