logs/weight_colliion_obj_obs = 0.4/model/best_model_497.pth (torch, 427625 bytes, 19 tensors)

_policy.0.weight f4 [128, 22]
-0.3988679 0.0053406535 0.107539974 0.37936682 -0.48859984 -0.2513332 0.1187292 -0.007907622
0.51900804 0.32498217 -0.039690677 0.17674659 0.15506163 0.28931996 0.0020668642 -0.09942498
-0.10609519 0.09844081 0.07440789 0.11627933 -0.104513474 -0.30477166 -0.34937975 -0.25993264
0.2177082 0.8042036 0.11342663 -0.05798952 0.13133681 -0.026571129 -0.70982194 0.05209822
0.3360461 0.24334016 0.33080596 0.12105749 0.14932075 -0.093128875 0.034809764 -0.26440346
-0.2938623 0.0461014 0.06473021 -0.039284088 -0.50997394 -0.018911252 0.29775438 -0.0054103797
-0.19544262 0.005658136 0.021842131 0.13757093 1.2593155 -0.37400824 0.26398176 0.083106674
0.28919947 0.31272343 0.07614598 0.15049873 -0.17242785 0.104236186 -0.0346309 -0.05462933
-0.14305322 -0.105010375 -0.10883424 -0.6192283 -0.1787135 0.46696088 -0.0972105 -0.3802407
0.12081276 0.20766342 0.079148114 0.49990273 -0.059506398 0.11167744 -0.1578961 0.44574434
-0.23229562 -0.1343389 -0.18309818 0.02430934 -0.26017204 0.27130207 0.13058764 0.14868313
1.0368009 -0.49924225 -0.11458336 0.16691418 0.7103046 -0.5677349 -0.33383316 -0.5543554
-0.6012268 0.34770966 0.1043695 -0.14677367 -0.20685072 0.027184006 3.611763e-05 0.15557069
0.09532853 0.048034195 0.09574711 -0.1340693 -0.10382036 -0.05431693 -0.6102596 0.90507203
0.31953958 -0.5414075 -0.27522743 0.4641306 0.18258911 0.13602114 0.031149166 -0.85908735
-0.32088187 -0.19342615 -0.3200999 0.021538785 -0.017545197 -0.038258728 0.19425611 0.0552838
-0.007994103 -0.11668327 -0.04314172 0.1170197 -0.112680204 0.05779674 -0.11977279 0.3655126
0.36631602 -0.14586078 -0.7126701 0.075977124 0.5056939 -0.61233723 -0.026064845 -0.15088601
-0.6460412 0.15548128 -0.05362255 0.014954901 -0.08433512 -0.1186554 0.34627917 -0.174651
0.19453734 -0.09876943 -0.38853738 -0.23330234 -0.028268818 0.80570614 0.2907366 0.2589198
-0.1252933 -0.40224263 -0.8536133 0.7108641 -0.03482395 -0.19161534 -0.06903731 -0.019691704
-0.14877199 0.08614922 -0.042478565 -0.18654288 0.06980762 0.0077486923 -0.0643833 0.18470544
0.12709464 -0.2689941 -0.09269153 0.2885469 0.5162098 0.15169957 -0.252972 0.05201439
1.5013115 0.85515714 0.011302817 0.057741195 0.103152074 0.1686311 0.19289461 -0.19310836
0.19536418 -0.11198582 -0.060280804 0.048252866 -0.10748785 0.06332234 0.34123492 0.58153796
-0.4667347 -0.85120606 -0.21694985 0.5044796 -0.2675332 -0.5939381 -0.6251927 0.18580863
-0.13115048 0.29976857 0.32724324 -0.12809247 0.015209333 0.073759966 0.116923794 -0.21379478
-0.02106221 0.05305374 -0.1130761 -0.21927544 -0.5514571 -0.2438316 0.18164076 -0.06378047
-0.5731123 -0.2555078 0.014026952 0.26469725 1.2668066 0.32532847 0.12671766 -0.23349912
0.043370288 0.11083897 -0.029691339 0.105780415 0.16886377 -0.027851505 -0.10202029 0.008925693
-0.13199131 -0.011692365 -0.024847738 0.20207073 -0.8377734 -0.056068387 -0.15376537 0.00519951
-0.0058635706 -0.32994688 -0.31808335 -0.19206691 -0.09734984 -0.047081362 -0.3729864 -0.40322196
00000000: 6a38 ccbe a600 af3b eb3d dc3d 5e3c c23e
00000010: c229 fabe bfae 80be 4b28 f33d f88e 01bc
00000020: b6dd 043f 1064 a63e b192 22bd 0ffd 343e
00000030: 7ac8 1e3e bf21 943e 3a74 073b 539f cbbd
00000040: 6f48 d9bd 569b c93d 2a63 983d db23 ee3d
00000050: 290b d6bd 080b 9cbe e7e1 b2be e415 85be
00000060: e6ee 5e3e 4ae0 4d3f 394c e83d 6b86 6dbd
00000070: 287d 063e b2ab d9bc e4b6 35bf f164 553d
00000080: 3c0e ac3e 2a2e 793e 665f a93e fdec f73d
00000090: 8ae7 183e 5aba bebd af94 0e3d e45f 87be
000000a0: 1f75 96be d2d4 3c3d 4691 843d 5ae8 20bd
000000b0: a78d 02bf c5eb 9abc 4373 983e 8e49 b1bb
000000c0: 1c22 48be e367 b93b 45ee b23c 65df 0c3e
000000d0: 4031 a13f 027e bfbe 9e28 873e d533 aa3d
000000e0: f411 943e 491d a03e 6cf2 9b3d 571c 1a3e
000000f0: ed90 30be c879 d53d 21d9 0dbd 01c3 5fbd
00000100: 8b7c 12be ae0f d7bd 7ce4 debd bf85 1ebf
00000110: ac00 37be 7f15 ef3e 4c16 c7bd e9ae c2be
00000120: ae6c f73d b8a5 543e 6818 a23d 40f3 ff3e
00000130: fbbc 73bd 24b7 e43d 84af 21be 9a38 e43e
00000140: e7de 6dbe 2390 09be 177e 3bbe 6224 c73c
00000150: 4535 85be 1be8 8a3e c4b8 053e 6440 183e
00000160: e4b5 843f ae9c ffbe aeaa eabd 8deb 2a3e
00000170: 86d6 353f 1357 11bf 2eec aabe 3cea 0dbf
00000180: 00ea 19bf 0007 b23e adbf d53d d64b 16be
00000190: add0 53be feb0 de3c 037d 1738 ec4d 1f3e
000001a0: 9b3b c33d 81bf 443d 1017 c43d 7649 09be
000001b0: c59f d4bd 6e7b 5ebd f939 1cbf cdb2 673f
000001c0: b19a a33e af99 0abf 9cea 8cbe 87a2 ed3e
000001d0: a4f8 3a3e 2049 0b3e 892c ff3c 26ed 5bbf
000001e0: a14a a4be 8111 46be 22e4 a3be 1b72 b03c
000001f0: f2ba 8fbc 2fb5 1cbd 13eb 463e 4471 623d
00000200: b3f9 02bc a3f7 eebd 5fb5 30bd 06a8 ef3d
00000210: e1c4 e6bd 46bc 6c3d 704b f5bd 7824 bb3e
00000220: c68d bb3e 875c 15be 8c71 36bf e599 9b3d
00000230: 2875 013f 22c2 1cbf f185 d5bc dd81 1abe
00000240: f562 25bf 7c36 1f3e 52a3 5bbd 6705 753c
00000250: e4b7 acbd 9a01 f3bd 814b b13e b6d7 32be
00000260: cc34 473e a047 cabd 5fee c6be cfe6 6ebe
00000270: 0294 e7bc c242 4e3f 6ddb 943e 2391 843e
00000280: e34c 00be bff2 cdbe 6786 5abf 31fb 353f
00000290: 8fa3 0ebd d036 44be 6f63 8dbd 7f50 a1bc
000002a0: af57 18be 016f b03d 01fe 2dbd 1905 3fbe
000002b0: 4cf7 8e3d bee8 fd3b 64db 83bd 6c23 3d3e
000002c0: 1925 023e 98b9 89be 0fd5 bdbd 6bbc 933e
000002d0: 5326 043f 2257 1b3e 8c85 81be 0a0d 553d
000002e0: fa2a c03f 94eb 5a3f 732f 393c 0882 6c3d
000002f0: 6541 d33d a2ad 2c3e 2a86 453e 33be 45be
00000300: 8c0d 483e d258 e5bd 01e9 76bd cca4 453d
00000310: 9722 dcbd 25af 813d 58b6 ae3e acdf 143f
00000320: daf7 eebe a4e8 59bf 1a28 5ebe 9325 013f
00000330: 1dfa 88be 540c 18bf a10c 20bf 9e44 3e3e
00000340: 504c 06be 447b 993e 6d8c a73e ac2a 03be
00000350: 9130 793c 770f 973d be75 ef3d 05ed 5abe
00000360: a88a acbc e14e 593d 7194 e7bd be89 60be
00000370: 4b2c 0dbf feae 79be 0900 3a3e 569f 82bd
00000380: 7db7 12bf ebd1 82be 4dd1 653c 6686 873e
00000390: b826 a23f 7491 a63e 46c2 013e 651a 6fbe
000003a0: 0ba5 313d 8bff e23d 403b f3bc 67a3 d83d
000003b0: a0ea 2c3e d728 e4bc 04f0 d0bd 123d 123c
000003c0: bb28 07be 5591 3fbc 7c8d cbbc a1eb 4e3e
000003d0: 5178 56bf f7a7 65bd ab74 1dbe a760 aa3b
000003e0: 3223 c0bb ccee a8be d2db a2be 30ad 44be
000003f0: 5a5f c7bd 63d8 40bd 13f8 bebe 1c73 cebe

_policy.0.bias f4 [128]
-0.012008612 0.0126352 -0.16420978 -0.16588023 -0.020713948 -0.09954422 0.0452668 0.037626393
-0.044171702 0.17590904 0.14059506 0.14161831 -0.17272525 -0.24236846 0.003446759 -0.12552562
-0.019287376 0.04128311 -0.23095381 0.05440626 0.12021423 -0.06727436 -0.18098666 0.23253508
-0.06822956 -0.007816538 -0.050473746 -0.060406238 0.09940559 -0.21742617 -0.22119579 -0.1332133
0.13433847 -0.07370587 0.06801211 0.059859183 0.20734286 -0.2161094 -0.12739667 0.005682037
-0.008987615 0.06806958 -0.17135906 -0.13745867 0.04964921 -0.14709044 0.11163174 0.13861185
-0.0685531 -0.20585081 -0.33492061 -0.122415215 -0.26861602 0.13061298 -0.22181928 -0.12120974
-0.05446371 0.14349939 0.23022121 -0.05418528 -0.042648163 -0.035189733 -0.1936861 -0.14398457
-0.096261054 -0.06848838 0.07245524 -0.098784104 -0.101176485 -0.18288337 -0.1752061 -0.015553449
-0.19834957 0.20282158 -0.08510795 0.07257488 -0.0515499 -0.121099696 -0.10431782 -0.115243115
0.055194687 0.016107773 0.05283668 -0.16741987 -0.13163169 0.014668092 -0.14238293 -0.02434736
-0.04183292 -0.21218537 0.08859806 -0.22317468 0.10407734 -0.20955545 -0.16508535 0.024464007
-0.25374323 -0.08533157 -0.11222814 -0.1525357 -0.2087744 -0.17134318 -0.14034799 -0.04127559
-0.004114659 0.006969711 -0.19492333 -0.22988495 0.011958029 0.13087854 0.13746668 -0.12664856
-0.16330417 -0.09187113 -0.26958534 0.14304052 0.047949456 0.045393445 -0.062409177 0.20641813
0.08152497 -0.03741739 0.084465496 -0.13429621 0.026509611 -0.16865468 -0.18692578 -0.26390326
00000000: c5bf 44bc df03 4f3c 9c26 28be 82dc 29be
00000010: 4cb0 a9bc d7dd cbbd ae69 393d 221e 1a3d
00000020: 63ed 34bd 8021 343e 27f8 0f3e 6404 113e
00000030: e3de 30be 702f 78be 05e3 613b ca89 00be
00000040: 8f00 9ebc 7a18 293d 287f 6cbe 19d9 5e3d
00000050: e132 f63d 24c7 89bd 9154 39be ad1d 6e3e
00000060: f1bb 8bbd f010 00bc 8fbd 4ebd 886c 77bd
00000070: 2895 cb3d f7a4 5ebe 2681 62be 1169 08be
00000080: 0690 093e 1af3 96bd ef49 8b3d e72e 753d
00000090: b051 543e c84b 5dbe 4674 02be 6230 ba3b
000000a0: ca40 13bc 1068 8b3d c078 2fbe f7c1 0cbe
000000b0: f85c 4b3d e09e 16be 2f9f e43d 44f0 0d3e
000000c0: 9165 8cbd 8eca 52be b77a abbe d4b4 fabd
000000d0: 0a88 89be 69bf 053e 9824 63be d03c f8bd
000000e0: 5715 5fbd 81f1 123e 1cbf 6b3e 62f1 5dbd
000000f0: d7af 2ebd 1c23 10bd a655 46be b170 13be
00000100: 8424 c5bd a343 8cbd 6a63 943d 524f cabd
00000110: 9e35 cfbd c745 3bbe 3a69 33be e5d3 7ebc
00000120: 261c 4bbe 76b0 4f3e 144d aebd 24a2 943d
00000130: fd25 53bd 1e03 f8bd 95a4 d5bd 9504 ecbd
00000140: d313 623d 73f4 833c 466b 583d 1d70 2bbe
00000150: 75ca 06be 7052 703c d5cc 11be 1d74 c7bc
00000160: ff58 2bbd 1f47 59be e672 b53d e787 64be
00000170: 8026 d53d b495 56be 220c 29be be68 c83c
00000180: a2ea 81be 51c2 aebd ded7 e5bd 5232 1cbe
00000190: f5c8 55be 9674 2fbe 62b7 0fbe 9810 29bd
000001a0: 43d4 86bb 2c62 e43b fb99 47be f666 6bbe
000001b0: 9ceb 433c 0605 063e 11c4 0c3e 29b0 01be
000001c0: 3539 27be ee26 bcbd 1707 8abe 3779 123e
000001d0: a666 443d 7aee 393d c4a0 7fbd 465f 533e
000001e0: 90f6 a63d fa42 19bd 3ffc ac3d f284 09be
000001f0: af2a d93c d0b3 2cbe 7969 3fbe 541e 87be

_policy.2.weight f4 [128, 128]
0.0320832 0.017816361 -0.024405548 -0.029093742 0.29931688 -0.6469687 0.11889539 -0.08910897
0.13310373 -0.56886435 0.09433184 -0.26653275 0.042912588 -0.17944676 -0.48371255 0.04597911
-0.1324984 -0.06853557 -0.2086078 0.23273632 0.022663256 -0.028325286 0.16596751 -0.43051848
-0.29751152 0.03126882 -0.30528066 0.15742655 0.110678606 0.05022443 0.014576921 -0.42064935
0.07560836 -0.04034625 0.16466825 -0.20518659 0.06894805 -0.34680635 0.13060983 0.24098755
-0.3843351 -0.16471548 0.1150302 -0.047076263 0.031590037 -0.07913827 0.0808767 -0.100266434
-0.17394331 -0.31054556 -0.096505225 -0.040153865 0.2237163 0.4058787 -0.061565183 -0.12541668
0.20806842 0.0025638859 -0.098577335 0.12758994 0.21318439 0.00084452855 0.009951652 0.40450266
0.02678347 0.13174061 0.049924616 -0.07310544 0.048473842 -0.09128058 0.04424843 -0.12285559
-0.023426965 -0.10931745 -0.19571553 -0.17138179 -0.12540302 -0.035060715 -0.23994946 0.17835726
0.06767768 0.03707322 0.077519745 -0.2603953 -0.38881895 -0.040201914 -0.0032705946 0.08213971
-0.09848687 0.008562342 0.015851583 0.10705251 0.11964484 -0.2189338 0.08948126 0.010922034
0.024041722 0.20648777 -0.13682209 0.074527174 -0.20954607 0.03303541 0.0723749 0.08944358
-0.10882382 -0.03327571 0.06749546 0.034887623 -0.17252146 -0.28390372 -0.38623232 -0.13836466
-0.13331306 0.03396202 0.04996266 0.09624262 -0.08439806 0.033015855 -0.18579975 0.048421387
-0.010072865 0.12818292 0.040204026 -0.51037365 -0.15951441 -0.34273547 0.08551406 0.24537605
-0.06140583 -0.05980903 -0.055664554 -0.028407155 0.014663428 -0.04848445 0.021407485 0.042645685
0.008201685 -0.00938073 -0.06437628 -0.11796675 -0.0067549543 -0.056351375 -0.108683795 -0.05066766
-0.08765347 -0.118350975 -0.081710584 0.042888436 -0.12541732 0.0060305055 -0.084956445 0.040537354
-0.032752458 -0.0379163 -0.02708536 -0.077526234 -0.097748004 -0.042773515 -0.0073657115 -0.06818931
-0.07395296 -0.05856099 -0.0443032 -0.054178447 0.004638344 -0.018967777 -0.070944615 -0.07303782
0.07849728 0.012813721 0.0023514323 0.009558812 0.059018426 -0.09680593 -0.05311028 -0.11582167
-0.10427453 -0.06941916 -0.028747676 -0.11442327 -0.0140749365 0.02036266 -0.11415532 -0.004554025
-0.015577358 -0.077720486 0.049331326 -0.09432861 0.04657864 0.028507441 -0.05484953 -0.03494683
0.04443075 0.03009999 -0.07211348 -0.035023365 -0.024249867 0.04829905 -0.06190344 -0.034180176
0.039344218 -0.07958229 0.0021670721 -0.07741135 -0.07725439 -0.12314217 -0.027355667 -0.03286951
-0.044622682 -0.005033838 -0.000297699 -0.063339554 0.035877697 0.034933403 -0.0110730985 -0.03440077
0.0074495864 0.026683904 -0.023700574 -0.106420316 0.007291824 -0.02104153 0.06317614 0.039225936
0.015683208 -0.08773212 -0.0916417 -0.12460725 -0.11701237 -0.03601365 0.04195877 0.0043091676
-0.09667434 0.008419899 -0.09880147 0.036375757 0.06181695 -0.02670002 0.0063454956 -0.02800785
-0.024517037 0.0435305 0.016264068 0.030139197 -0.009700287 -0.07508193 0.025757436 -0.13164258
0.04969754 -0.0025834537 -0.10772815 -0.09995276 -0.047450107 0.048905816 0.032493576 -0.05947017
00000000: ac69 033d 9ef3 913c 25ee c7bc 0056 eebc
00000010: 1040 993e be9f 25bf 6d7f f33d c37e b6bd
00000020: 584c 083e 18a1 11bf 0d31 c13d fb76 88be
00000030: 1cc5 2f3d e4c0 37be 2ca9 f7be 9754 3c3d
00000040: a9ad 07be 605c 8cbd 489d 55be 6e52 6e3e
00000050: 4ba8 b93c 6e0a e8bc 63f3 293e eb6c dcbe
00000060: 6e53 98be bc13 003d bf4d 9cbe 6d34 213e
00000070: 77ab e23d 22b8 4d3d 0ad4 6e3c 5a5f d7be
00000080: 8ed8 9a3d 1c42 25bd cb9e 283e 6f1c 52be
00000090: a334 8d3d 9a90 b1be 95be 053e 71c5 763e
000000a0: 92c7 c4be 2dab 28be f494 eb3d 0ad3 40bd
000000b0: 8e64 013d 3f13 a2bd afa2 a53d 7d58 cdbd
000000c0: 321e 32be d4ff 9ebe 88a4 c5bd 6178 24bd
000000d0: e315 653e 55cf cf3e c62b 7cbd 3b6d 00be
000000e0: e30f 553e de06 283b eae2 c9bd f0a6 023e
000000f0: 024d 5a3e 5a63 5d3a 410c 233c f91a cf3e
00000100: 0269 db3c 03e7 063e c17d 4c3d 4eb8 95bd
00000110: 828c 463d 50f1 babd d73d 353d b69b fbbd
00000120: e8e9 bfbc d4e1 dfbd a769 48be b57e 2fbe
00000130: a669 00be d39b 0fbd 50b5 75be 49a3 363e
00000140: 989a 8a3d 17da 173d acc2 9e3d 8852 85be
00000150: 4713 c7be c3aa 24bd 7957 56bb dd38 a83d
00000160: 7cb3 c9bd 1149 0c3c 2edb 813c 593e db3d
00000170: 5b08 f53d 2f30 60be f341 b73d 55f2 323c
00000180: 25f3 c43c 8871 533e 171b 0cbe b4a1 983d
00000190: 3f93 56be 2350 073d 4b39 943d 322e b73d
000001a0: 06df debd 1c4c 08bd 0f3b 8a3d 53e6 0e3d
000001b0: 77a9 30be d45b 91be 3ec0 c5be 77af 0dbe
000001c0: 3883 08be c21b 0b3d a5a5 4c3d da1a c53d
000001d0: e4d8 acbd a23b 073d 4a42 3ebe 8155 463d
000001e0: a808 25bc 6242 033e faac 243d d9a7 02bf
000001f0: bf57 23be 067b afbe ff21 af3d dc43 7b3e
00000200: ae84 7bbd 50fa 74bd 8400 64bd 1fb6 e8bc
00000210: e03e 703c a197 46bd c05e af3c 3ead 2e3d
00000220: 5c60 063c a2b1 19bc b6d7 83bd 8d98 f1bd
00000230: aa58 ddbb b3d0 66bd 9c95 debd e488 4fbd
00000240: aa83 b3bd ff61 f2bd e157 a7bd c9ab 2f3d
00000250: 666d 00be 8c9b c53b a5fd adbd 7f0a 263d
00000260: 7127 06bd 1f4e 1bbd 1ee2 ddbc 13c6 9ebd
00000270: 1b30 c8bd 4833 2fbd 115c f1bb d6a6 8bbd
00000280: a674 97bd a6dd 6fbd 4677 35bd 38ea 5dbd
00000290: 40fd 973b 5062 9bbc 694b 91bd da94 95bd
000002a0: 2fc3 a03d a4f0 513c 7d1a 1a3b 909c 1c3c
000002b0: 4ebd 713d 3042 c6bd 2a8a 59bd e933 edbd
000002c0: e38d d5bd a22b 8ebd 3f80 ebbc bf56 eabd
000002d0: 909a 66bc 98cf a63c 44ca e9bd ee39 95bb
000002e0: 2d38 7fbc eb2b 9fbd a50f 4a3d 5c2f c1bd
000002f0: 3ec9 3e3d 7088 e93c e7a9 60bd 6824 0fbd
00000300: 05fd 353d 4194 f63c 3bb0 93bd a974 0fbd
00000310: a8a7 c6bc 3ad5 453d 768e 7dbd 8300 0cbd
00000320: 6727 213d 0afc a2bd 7005 0e3b d889 9ebd
00000330: 8d37 9ebd f631 fcbd fe18 e0bc 2ea2 06bd
00000340: 46c6 36bd e5f2 a4bb 7c14 9cb9 2bb8 81bd
00000350: 7ef4 123d 5416 0f3d f16b 35bc d2e7 0cbd
00000360: a91b f43b 3498 da3c b527 c2bc e5f2 d9bd
00000370: 41f0 ee3b 495f acbc 7e62 813d 60ab 203d
00000380: 127a 803c e6ac b3bd a5ae bbbd 1632 ffbd
00000390: 2ea4 efbd 0d83 13bd f6dc 2b3d eb33 8d3b
000003a0: 32fd c5bd 9ef3 093c 6d58 cabd bffe 143d
000003b0: c533 7d3d 00ba dabc e0ed cf3b b870 e5bc
000003c0: f4d7 c8bc 0a4d 323d 393c 853c 7ae6 f63c
000003d0: f4ed 1ebc 8ec4 99bd 4201 d33c 50cd 06be
000003e0: a68f 4b3d 294f 29bb 94a0 dcbd 08b4 ccbd
000003f0: 0b5b 42bd 7751 483d fc17 053d fe96 73bd

_policy.2.bias f4 [128]
-0.11042796 -0.15135372 -0.11617503 0.05015509 -0.011289925 0.06352599 -0.038923748 0.016982399
-0.03530725 0.03492316 -0.042877812 0.081471086 0.057983648 0.048675016 0.056820612 0.06832438
0.06529832 0.12507391 0.13522772 0.06271187 -0.056177452 -0.017169856 0.045981206 -0.00976806
-0.06252255 0.0023601784 0.087178156 -0.1328636 -0.1435383 0.06137339 -0.085868046 -0.06990546
-0.07964249 0.0067534465 -0.09448534 -0.15384884 -0.04504295 -0.0011822003 0.028936366 -0.08934325
0.13609497 -0.13221934 0.07183843 -0.059544235 0.003975493 0.0031616027 0.014955794 -0.04947584
0.020565748 -0.110869974 -0.07586992 -0.006688536 0.08640798 -0.068724446 0.046785165 0.026325807
-0.034287136 -0.14277834 0.0031467313 -0.09093119 -0.03568048 0.06270699 -0.08156836 -0.040430933
-0.062134597 -0.043800235 0.021542367 -0.013957696 -0.11866656 -0.081035145 -0.03810867 -0.03196362
-0.13673422 -0.13022293 0.11198228 -0.1405519 0.07782993 -0.13475542 0.07254359 -0.04410743
-0.01019316 -0.029783469 0.03456646 0.06316442 -0.032006837 0.123081096 -0.03300239 -0.10977172
-0.059349615 0.0018046948 -0.09397399 0.06188528 -0.047761735 0.08711938 -0.14073978 -0.12734522
-0.0042690374 0.011260107 -0.086430185 -0.037611257 -0.136697 -0.10309829 -0.013755962 0.06822444
-0.019659024 0.092367426 -0.11915853 -0.029160839 -0.134649 -0.03912987 -0.053566683 0.060653333
0.06020435 0.04655798 -0.09661598 0.07968636 -0.07282885 -0.051261134 -0.1644832 0.045301702
-0.09989704 -0.07524998 -0.07068292 -0.08557624 -0.13242422 0.049275562 -0.07397566 0.04753805
00000000: 0e28 e2bd 78fc 1abe 2ded edbd 6c6f 4d3d
00000010: 61f9 38bc ea19 823d 826e 1fbd ac1e 8b3c
00000020: 569e 10bd 960b 0f3d a5a0 2fbd 50da a63d
00000030: 4380 6d3d 745f 473d bbbc 683d a7ed 8b3d
00000040: 20bb 853d 6013 003e 2379 0a3e 156f 803d
00000050: 541a 66bd cca7 8cbc ca56 3c3d 370a 20bc
00000060: d30b 80bd 39ad 1a3b 768a b23d 650d 08be
00000070: b4fb 12be aa62 7b3d 96db afbd 982a 8fbd
00000080: 9a1b a3bd 044c dd3b 8881 c1bd 8d8a 1dbe
00000090: f57e 38bd 0ff4 9aba f50b ed3c 98f9 b6bd
000000a0: 7b5c 0b3e 8264 07be 0720 933d a8e4 73bd
000000b0: da44 823b e432 4f3b 2609 753c 2ea7 4abd
000000c0: 8079 a83c cc0f e3bd b061 9bbd 822b dbbb
000000d0: abf6 b03d 67bf 8cbd cda1 3f3d 38a9 d73c
000000e0: ab70 0cbd 7c34 12be 6439 4e3b 223a babd
000000f0: b225 12bd 866c 803d 500d a7bd e89a 25bd
00000100: d980 7ebd e067 33bd 9e79 b03c d2ae 64bc
00000110: 7407 f3bd c1f5 a5bd d617 1cbd 49ec 02bd
00000120: 0e04 0cbe 2959 05be f756 e53d d6ec 0fbe
00000130: 4c65 9f3d 53fd 09be bc91 943d fea9 34bd
00000140: 3601 27bc 76fc f3bc 8f95 0d3d 595c 813d
00000150: 9a19 03bd f111 fc3d 842d 07bd ffcf e0bd
00000160: 9518 73bd 828b ec3a 6f75 c0bd 6b7b 7d3d
00000170: cfa1 43bd a56b b23d 171e 10be c966 02be
00000180: 48e3 8bbb 507c 383c 4f02 b1bd 430e 1abd
00000190: 4cfa 0bbe 3225 d3bd b060 61bc 41b9 8b3d
000001a0: f60b a1bc 222b bd3d 6309 f4bd b6e2 eebc
000001b0: 6de1 09be a446 20bd bd68 5bbd a16f 783d
000001c0: d698 763d 95b3 3e3d 99de c5bd 9a32 a33d
000001d0: 4b27 95bd 32f7 51bd 496e 28be 478e 393d
000001e0: d296 ccbd a91c 9abd 35c2 90bd 9942 afbd
000001f0: 379a 07be 2cd5 493d 8d80 97bd 42b7 423d

_policy.4.weight f4 [128, 128]
0.18979436 -0.03434356 -0.051278733 -0.21349138 0.21793215 -0.0026618894 0.06031873 0.079851106
-0.029184043 0.104487956 -0.1612881 0.14326818 -0.03294309 0.0190751 -0.14771041 0.235825
-0.29994482 0.11417837 -0.18095218 -0.064245984 0.062150896 -0.2004617 -0.012055154 0.20187698
0.07400542 -0.19728208 0.098767616 -0.16112125 0.058216315 -0.17659557 0.13730171 -0.31810644
-0.036345713 -0.17079 0.28322753 0.05453848 -0.02874915 0.04022006 -0.054002825 -0.053772785
-0.30081096 -0.14615701 0.14463846 0.022176143 0.07981857 0.043120217 -0.08659036 0.11404181
0.045717996 0.0466005 0.022934482 -0.055789173 0.118980356 0.0013620456 -0.3541708 -0.046671405
-0.026480356 -0.034140863 0.050767064 0.10431998 -0.085616514 -0.098915465 0.028488202 0.052085068
0.015324806 -0.0005212718 -0.19029395 -0.25651163 0.12199448 -0.28967187 -0.2620471 -0.23091348
-0.012253608 -0.07527728 -0.093508124 0.035797216 0.3271793 0.04007924 0.060085423 -0.22091319
-0.49225488 -0.09559857 -0.29588136 0.09844375 0.017980466 -0.19454485 -0.29137248 -0.35089794
0.13196397 -0.055824503 0.20518632 -0.032943964 0.21906666 -0.0149795925 0.048986897 0.045693617
0.25076765 0.0022071889 -0.04482489 0.04713989 -0.52669585 0.16281055 0.022547709 -0.3169609
-0.048116058 0.13453957 0.08398104 0.04320712 0.060232323 0.21862279 -0.12135641 0.19621027
-0.08305428 -0.35257626 0.28576106 -0.112921044 -0.20743749 -0.23991725 0.051175755 0.108910955
0.14621559 -0.291951 -0.010080659 -0.23499066 -0.026807543 0.2569391 -0.04093143 -0.032728046
0.011030224 0.057888754 0.04062896 -0.2404151 0.016164904 0.25105363 0.084618285 -0.29536173
0.020481285 0.086959645 0.22616358 -0.05792519 0.1332704 0.38084394 0.051877785 0.04427716
-0.11854282 0.36748663 0.13371305 0.07681601 -0.56702304 0.07475413 0.12318511 -0.2526858
0.25117356 0.044658385 0.16708083 0.13453656 -0.011369348 0.030607555 0.045840662 0.027982613
-0.116570555 -0.0630499 -0.15452719 -0.016928628 0.027571393 -0.1544992 0.22193196 -0.23535289
0.03625746 -0.26553646 -0.38975254 0.27293396 0.049434222 -0.075473726 -0.77786237 0.13651206
-0.0339554 -0.056829978 0.18576874 -0.06905785 -0.23661521 -0.022795329 -0.3123434 0.23803575
-0.2870544 -0.044029694 0.043265216 0.08629735 0.13128549 -0.14705248 -0.31445763 0.008723958
-0.086523645 -0.41366398 0.015048934 -0.07716665 -0.052208606 0.25055507 0.12993422 -0.37895218
-0.046596654 0.030758418 -0.0024739343 -0.33287427 0.18418983 -0.2663702 -0.34083247 -0.11724323
0.03136956 0.31111613 -0.070695065 -0.018702889 0.012914095 0.05554024 0.17694537 -0.118355244
-0.6948415 0.044059478 0.14057323 -0.066981465 0.058872096 -0.18252073 -0.13348643 -0.08624096
0.26088864 -0.4318961 0.07316504 0.09419604 -0.23410736 -0.17471032 -0.03597511 -0.090744324
-0.0050721043 -0.07073927 -0.260683 0.10318474 0.014203217 0.23923194 0.095492 -0.017040808
0.14579964 -0.29866484 0.01877232 0.052914593 -0.14257763 -0.033223536 0.0047024377 0.014586638
0.19420138 -0.031958923 0.07272682 0.11050988 -0.025772028 0.00094307156 0.083674595 -0.17233495
00000000: 7459 423e d5ab 0cbd a609 52bd 7c9d 5abe
00000010: 9b29 5f3e 1873 2ebb c610 773d fa88 a33d
00000020: 6013 efbc c8fd d53d b528 25be e5b4 123e
00000030: 55ef 06bd 6243 9c3c 6641 17be 1c7c 713e
00000040: 5e92 99be 59d6 e93d 874b 39be 6693 83bd
00000050: f091 7e3d d545 4dbe fb82 45bc d7b8 4e3e
00000060: 2790 973d 5004 4abe ad46 ca3d f8fc 24be
00000070: 3b74 6e3d 78d5 34be d298 0c3e d9de a2be
00000080: 3edf 14bd 93e3 2ebe 3303 913e be63 5f3d
00000090: 5683 ebbc cabd 243d 1132 5dbd da40 5cbd
000000a0: e503 9abe 2faa 15be 1b1c 143e beaa b53c
000000b0: eb77 a33d d39e 303d 4956 b1bd c18e e93d
000000c0: cb42 3b3d 2ae0 3e3d 18e1 bb3c 3083 64bd
000000d0: f9ab f33d ab86 b23a e055 b5be 842a 3fbd
000000e0: 55ed d8bc 4ad7 0bbd 20f1 4f3d b7a5 d53d
000000f0: b657 afbd 3194 cabd 1760 e93c 2757 553d
00000100: e514 7b3c f5a5 08ba 6bdc 42be 7e55 83be
00000110: 3ed8 f93d df4f 94be 0a2b 86be 9574 6cbe
00000120: 5bc3 48bc f92a 9abd 3081 bfbd 1aa0 123d
00000130: 0c84 a73e 212a 243d 221c 763d 1137 62be
00000140: d508 fcbe 2fc9 c3bd c37d 97be e09c c93d
00000150: c54b 933c c436 47be c62e 95be e5a8 b3be
00000160: 9021 073e 3ca8 64bd 5d1c 523e 40f0 06bd
00000170: 0353 603e f76c 75bc 7ca6 483d 3b29 3b3d
00000180: 9e64 803e 7ca6 103b 4e9a 37bd c215 413d
00000190: 8ad5 06bf cfb7 263e f9b5 b83c b348 a2be
000001a0: 5815 45bd bec4 093e 40fe ab3d f3f9 303d
000001b0: 2bb6 763d a7de 5f3e b689 f8bd 58eb 483e
000001c0: 5d18 aabd e084 b4be 464f 923e 2643 e7bd
000001d0: 7e6a 54be deac 75be ab9d 513d b50c df3d
000001e0: 8ab9 153e 9a7a 95be 5929 25bc 64a1 70be
000001f0: 7e9b dbbc 868d 833e b7a7 27bd d80d 06bd
00000200: 1db8 343c c21c 6d3d 8d6a 263d 602f 76be
00000210: 436c 843c 1a8a 803e 5a4c ad3d a739 97be
00000220: 5ec8 a73c e617 b23d 6d97 673e f742 6dbd
00000230: 0978 083e fafd c23e cd7d 543d f85b 353d
00000240: 94c6 f2bd 3527 bc3e 13ec 083e b651 9d3d
00000250: 6c28 11bf b118 993d 7a48 fc3d 0860 81be
00000260: d299 803e b6eb 363d 3d17 2b3e f4c3 093e
00000270: 8046 3abc b2bc fa3c 6bc3 3b3d cb3b e53c
00000280: 8bbc eebd 4e20 81bd 603c 1ebe e8ad 8abc
00000290: 67dd e13c 0a35 1ebe 2242 633e 5900 71be
000002a0: b482 143d 65f4 87be a58d c7be 00be 8b3e
000002b0: 8a7b 4a3d f891 9abd fd21 47bf d1c9 0b3e
000002c0: d114 0bbd 8dc6 68bd 293a 3e3e 346e 8dbd
000002d0: 424b 72be 45bd babc 79eb 9fbe a5bf 733e
000002e0: cbf8 92be 7b58 34bd de36 313d aabc b03d
000002f0: b46f 063e ed94 16be 9700 a1be efee 0e3c
00000300: 4f33 b1bd c4cb d3be ce8f 763c 8c09 9ebd
00000310: b1d8 55bd c148 803e 7a0d 053e 0506 c2be
00000320: 22dc 3ebd 14f9 fb3c bb21 22bb 7f6e aabe
00000330: 429c 3c3e ad61 88be 9881 aebe 381d f0bd
00000340: 5e7d 003d 9d4a 9f3e 93c8 90bd cd36 99bc
00000350: a495 533c 2a7e 633d 2b31 353e 3c64 f2bd
00000360: 22e1 31bf b677 343d 6ef2 0f3e 942d 89bd
00000370: de23 713d b7e6 3abe abb0 08be 1a9f b0bd
00000380: 3293 853e 7c21 ddbe 8dd7 953d dae9 c03d
00000390: d7b9 6fbe 43e7 32be a35a 13bd 29d8 b9bd
000003a0: e533 a6bb c0df 90bd 3e78 85be 8552 d33d
000003b0: 9cb4 683c 38f9 743e 4f91 c33d 2a99 8bbc
000003c0: 804c 153e 99ea 98be 69c8 993c f9bc 583d
000003d0: dfff 11be 6715 08bd e816 9a3b cbfc 6e3c
000003e0: badc 463e 5ce7 02bd cdf1 943d 0153 e23d
000003f0: dc1f d3bc 7638 773a 965d ab3d 9378 30be

_policy.4.bias f4 [128]
0.053066984 0.07036376 0.100193605 -0.042877253 -0.05908814 -0.19185984 -0.08349877 -0.078578755
-0.190563 -0.061481286 0.0045827786 0.18145424 -0.070555486 -0.056801338 -0.041055586 0.14718111
-0.1446072 0.004452931 -0.3214969 -0.10276007 0.014721361 0.14495555 -0.024661047 -0.082233295
0.06069293 -0.06253993 -0.29353154 -0.011707332 0.054709487 0.043341685 -0.09406836 -0.018559866
0.08613219 0.20029998 -0.36547124 -0.09462962 0.123480976 -0.24944066 -0.057522118 -0.12360872
-0.014499941 0.042073734 -0.034882072 -0.16774598 0.066586494 -0.14246145 -0.11170515 -0.14455716
0.123460576 0.01516575 -0.08852022 -0.07923854 0.10911237 -0.25013053 0.019218745 0.045277577
-0.11051807 -0.02684798 -0.07435379 -0.016093297 -0.12719257 -0.15145896 0.04869397 0.04700476
0.05710049 0.01248367 -0.060234826 0.0050308756 -0.054124232 -0.060474034 0.028434154 0.021350529
-0.18765773 0.013636656 0.12959175 -0.079868324 -0.016451467 0.064750694 0.080547936 0.05949132
-0.03997552 -0.0348457 -0.054922782 -0.06951674 -0.17655745 0.14088933 0.081197545 -0.14236988
-0.120586626 -0.12919085 0.15335567 -0.020434074 0.009495437 -0.11654026 -0.10712998 -0.026528522
-0.2195578 0.072950035 0.06231751 0.017077591 0.020559303 -0.11998827 -0.108145624 0.017307227
-0.020089122 0.14232084 0.14010298 0.05554645 -0.02772971 -0.035381924 -0.02485319 0.024396775
-0.09325656 -0.07598791 -0.110654406 0.045638375 0.09385751 -0.18024124 -0.059665285 -0.1833833
-0.061755095 -0.098455295 -0.098278254 -0.081802376 0.016534498 -0.16489604 0.100133836 0.03280581
00000000: c45c 593d e01a 903d 4e32 cd3d 0fa0 2fbd
00000010: 6806 72bd e876 44be 6701 abbd e6ed a0bd
00000020: f222 43be cdd3 7bbd 222b 963b 24cf 393e
00000030: 657f 90bd 85a8 68bd e729 28bd a5b6 163e
00000040: e913 14be e5e9 913b 3e9b a4be df73 d2bd
00000050: dd31 713c 3a6f 143e f705 cabc ee69 a8bd
00000060: 2699 783d ef14 80bd c449 96be 1cd0 3fbc
00000070: 0e17 603d 0d87 313d eaa6 c0bd dc0a 98bc
00000080: 1366 b03d 701b 4d3e 0c1f bbbe 2dcd c1bd
00000090: 98e3 fc3d 5f6d 7fbe 509c 6bbd 9226 fdbd
000000a0: 2991 6dbc 8255 2c3d 81e0 0ebd 9ac5 2bbe
000000b0: 805e 883d 6ae1 11be abc5 e4bd cb06 14be
000000c0: e6d8 fc3d c479 783c 174a b5bd d147 a2bd
000000d0: 4e76 df3d 1c11 80be a170 9d3c fb74 393d
000000e0: 4c57 e2bd 4cf0 dbbc cd46 98bd 17d6 83bc
000000f0: c53e 02be 0f18 1bbe 5473 473d 1088 403d
00000100: 34e2 693d 4f88 4c3c cbb8 76bd 0bda a43b
00000110: 5fb1 5dbd 9fb3 77bd beee e83c 4ee7 ae3c
00000120: 5929 40be 486c 5f3c b3b3 043e 0192 a3bd
00000130: 3ac5 86bc 039c 843d 51f6 a43d 2cad 733d
00000140: 5fbd 23bd 5dba 0ebd b6f6 60bd cb5e 8ebd
00000150: 7acb 34be 4b45 103e e64a a63d 69c9 11be
00000160: 1ff6 f6bd 9b4a 04be 4509 1d3e 5c65 a7bc
00000170: c092 1b3c a9ac eebd f766 dbbd 5852 d9bc
00000180: c3d3 60be d466 953d a540 7f3d 4ee6 8b3c
00000190: fc6b a83c 69bc f5bd 747b ddbd e3c7 8d3c
000001a0: f191 a4bc 8ebc 113e 2877 0f3e ad84 633d
000001b0: 6b29 e3bc a3ec 10bd eb98 cbbc bfdb c73c
000001c0: 4cfd bebd 8d9f 9bbd c79e e2bd 4eef 3a3d
000001d0: 5e38 c03d 2991 38be 9663 74bd d5c8 3bbe
000001e0: e9f2 7cbd eea2 c9bd 1c46 c9bd 0188 a7bd
000001f0: 5b73 873c 82da 28be f812 cd3d 635f 063d

_policy.6.weight f4 [128, 128]
-0.10720251 0.01494394 0.015590718 -0.039604895 -0.14978936 -0.2836403 0.04367073 0.033381347
-0.16599908 -0.11109616 0.28585336 -0.309045 -0.039024573 -0.04621497 -0.2238261 0.12852004
-0.08783723 0.01942505 -0.027471146 -0.38090247 0.16859573 0.039183483 0.06981417 0.16268727
0.033431824 0.12316907 0.11681415 -0.007928135 -0.17633605 -0.044541154 0.1052889 -0.05692713
0.045977414 0.059511907 0.3337457 -0.09219788 0.13206689 0.13334972 0.016027082 -0.35533637
-0.16259636 -0.15471557 0.031963803 0.11052685 -0.16598377 0.06415553 -0.2101094 -0.19462304
-0.19540648 0.06661349 0.17433028 -0.029415023 0.09390404 0.046322733 0.1244712 -0.2928922
-0.37704727 -0.16692702 -0.09853576 -0.26965123 0.046480138 0.21192905 -0.2875757 -0.22370565
-0.45850566 0.20801494 0.21320277 -0.4096753 0.27654815 0.08382347 0.10115238 -0.021350473
0.100767404 -0.084858805 -0.16017812 -0.065177105 0.23918682 -0.34005433 0.12128516 0.028895464
-0.1864342 0.09279411 -0.15804546 -0.24157178 -0.03771218 -0.092849195 -0.21624495 -0.030630438
-0.14008069 -0.21774215 0.38177755 -0.011982008 -0.06603012 0.008310438 -0.23721538 -0.34802547
-0.15586759 -0.115343906 -0.11132981 -0.30729908 -0.0074147484 0.050728273 0.08136157 0.19900024
-0.23575889 -0.034114137 0.3158507 0.20891903 0.019307861 -0.124204695 0.11533 0.11874175
-0.19670041 -0.025183465 -0.053024705 0.023929406 -0.05147276 0.1706281 0.12975045 0.11644038
0.25639582 -0.068096906 0.25378022 -0.35288042 -0.30268803 -0.05443002 -0.012930983 -0.0066529387
-0.12097754 0.15677288 0.032613404 -0.056954212 -0.12728105 -0.044974763 -0.36402023 -0.013551979
0.08217859 -0.3232092 0.12632138 0.04376352 -0.097957626 -0.037912026 0.026741885 -0.29771796
0.24342594 -0.28687626 -0.3113443 0.18452471 0.09057399 -0.29883435 0.11662686 0.080109484
-0.10752137 -0.111657284 -0.085035816 0.0485883 -0.34654903 -0.14199632 -0.15518777 0.36927235
-0.3496186 0.09316555 0.12626465 -0.072035275 -0.08278753 0.07222316 0.11392483 0.07801943
-0.023473362 -0.04762349 -0.8234697 -0.046171457 0.38009092 -0.18843357 -0.052988797 0.12519017
-0.29051566 0.06583452 -0.32588944 -0.027751068 -0.34696975 -0.14759246 -0.054731973 -0.08037358
0.006720175 0.3679066 -0.19517648 0.113992624 -0.030176515 0.05058453 -0.19555698 0.034206036
-0.097248286 0.20456518 -0.15251203 0.21225916 -0.3435723 -0.2792857 -0.016899588 0.1626657
-0.26605406 0.052815124 -0.05083414 0.18326326 0.09498159 -0.51163816 -0.35122252 0.039164986
-0.2730398 0.10427875 -0.04785465 -0.45984566 0.2205882 -0.08677989 0.06566081 -0.18861713
0.14227235 -0.42010725 0.018649515 0.018485934 -0.029632227 0.089598656 0.14991157 0.37756178
0.048284534 -0.011579046 -0.17771862 0.1140737 -0.34955627 0.07175763 -0.16283326 0.16266659
0.42413044 -0.19326375 0.20042689 0.24315299 -0.25276196 -0.362311 0.28902802 -0.3209045
-0.24096192 0.1093615 -0.34050897 -0.3546807 -0.091631666 0.017075343 -0.080297716 -0.36066195
-0.18150474 -0.8064047 0.23679002 0.006597463 -0.23207738 -0.19235508 -0.008008746 -0.47899926
00000000: fd8c dbbd 6dd7 743c 3670 7f3c be38 22bd
00000010: 6262 19be 4d39 91be 14e0 323d e1ba 083d
00000020: aafb 29be 6286 e3bd 5f5b 923e 253b 9ebe
00000030: 3bd8 1fbd e94b 3dbd ab32 65be c29a 033e
00000040: 01e4 b3bd 4821 9f3c 2b0b e1bc a605 c3be
00000050: 5ca4 2c3e dc7e 203d bbfa 8e3d 7e97 263e
00000060: cfef 083d 1140 fc3d 423c ef3d 02e5 01bc
00000070: 7091 34be c970 36bd b5a1 d73d 6c2c 69bd
00000080: d052 3c3d c2c2 733d b7e0 aa3e 3ed2 bcbd
00000090: 8b3c 073e d48c 083e 3a4b 833c a6ee b5be
000000a0: a97f 26be c26d 1ebe 7aec 023d e75b e23d
000000b0: a6f7 29be f963 833d eb26 57be 434b 47be
000000c0: a318 48be a76c 883d a383 323e c6f7 f0bc
000000d0: c350 c03d e8bc 3d3d c2ea fe3d f7f5 95be
000000e0: 570c c1be ebee 2abe 1ecd c9bd ba0f 8abe
000000f0: f561 3e3d ee03 593e 1f3d 93be 1813 65be
00000100: 41c1 eabe de01 553e d451 5a3e f6c0 d1be
00000110: b897 8d3e a4ab ab3d fb28 cf3d 30e7 aebc
00000120: 245f ce3d 74ca adbd bc05 24be 937b 85bd
00000130: 64ed 743e 9a1b aebe 5b64 f83d 2eb6 ec3c
00000140: 9be8 3ebe d70a be3d abd6 21be 985e 77be
00000150: 1678 1abd b827 bebd 516f 5dbe afec fabc
00000160: 5071 0fbe ccf7 5ebe 5978 c33e 2f50 44bc
00000170: cd3a 87bd 8128 083c 97e8 72be 6530 b2be
00000180: c19b 1fbe 6d39 ecbd e200 e4bd 4e56 9dbe
00000190: 6bf7 f2bb 73c8 4f3d e5a0 a63d b8c6 4b3e
000001a0: c76a 71be 44bb 0bbd 2fb7 a13e dfee 553e
000001b0: 852b 9e3c 085f febd 2332 ec3d e02e f33d
000001c0: d56b 49be 8e4d cebc 6f30 59bd 9a07 c43c
000001d0: 1ad5 52bd 22b9 2e3e 4ddd 043e 4b78 ee3d
000001e0: 5046 833e 6476 8bbd 7bef 813e beac b4be
000001f0: edf9 9abe 03f2 5ebd 79dc 53bc e500 dabb
00000200: 13c3 f7bd 1289 203e a295 053d d248 69bd
00000210: f755 02be 7537 38bd dc60 babe 1f09 5ebc
00000220: 404d a83d ad7b a5be 645a 013e 6041 333d
00000230: 029e c8bd a449 1bbd cc11 db3c 7d6e 98be
00000240: a644 793e 72e1 92be 8568 9fbe 0cf4 3c3e
00000250: db7e b93d d100 99be 10da ee3d 7110 a43d
00000260: 2a34 dcbd 93ac e4bd 4227 aebd 8604 473d
00000270: e06e b1be 7c67 11be 8be9 1ebe 4411 bd3e
00000280: 3601 b3be 94cd be3d 854b 013e 3b87 93bd
00000290: 828c a9bd bce9 933d 6c51 e93d a7c8 9f3d
000002a0: 354b c0bc d910 43bd e9ce 52bf 481e 3dbd
000002b0: 479b c23e bbf4 40be c80a 59bd da31 003e
000002c0: 78be 94be 40d4 863d fbda a6be 3556 e3bc
000002d0: 05a6 b1be 7a22 17be a22e 60bd e79a a4bd
000002e0: ea34 dc3b 415e bc3e 58dc 47be f774 e93d
000002f0: bd34 f7bc b931 4f3d 1740 48be a11b 0c3d
00000300: 1c2a c7bd 8979 513e 1d2c 1cbe 775a 593e
00000310: b5e8 afbe 89fe 8ebe 0171 8abc d691 263e
00000320: 3d38 88be ac54 583d 7637 50bd 5da9 3b3e
00000330: b585 c23d b8fa 02bf 70d3 b3be 776b 203d
00000340: dfcb 8bbe 1990 d53d 3d03 44bd e470 ebbe
00000350: e0e1 613e a8b9 b1bd 2d79 863d d924 41be
00000360: d8af 113e 4c18 d7be dec6 983c d06f 973c
00000370: 49bf f2bc 807f b73d 6b82 193e c74f c13e
00000380: 01c6 453d 0ab6 3dbc dffb 35be 799f e93d
00000390: 0af9 b2be aaf5 923d c3bd 26be 1292 263e
000003a0: a027 d93e efe6 45be b53c 4d3e 19fd 783e
000003b0: 046a 81be d480 b9be 7bfb 933e 984d a4be
000003c0: b9be 76be ecf8 df3d 3157 aebe b598 b5be
000003d0: 62a9 bbbd 97e1 8b3c 2173 a4bd afa8 b8be
000003e0: 61dc 39be 8a70 4ebf 1579 723e 882f d83b
000003f0: b1a5 6dbe bbf8 44be 1e37 03bc 643f f5be

_policy.6.bias f4 [128]
-0.06737962 -0.11618083 0.015604844 0.1396597 0.043702018 0.02507471 0.0846648 0.023690568
0.14955796 -0.03669411 0.14457594 0.14552298 0.08986115 -0.01144593 -0.008260433 0.17133807
0.115120724 0.04742282 -0.046704017 -0.05641825 0.09807176 0.15978682 0.071393676 0.11566798
0.18220359 0.119295254 0.025871454 -0.007439224 -0.009600391 -0.10510445 -0.057822417 -0.12103059
0.0741282 0.06845758 -0.015558255 0.015895749 -0.011508553 0.0074182455 0.054315414 0.022908268
-0.0038623824 -0.019300587 0.14408655 0.10089726 0.038074147 -0.08818228 -0.07969535 0.04381854
0.24151535 -0.112092145 0.1289491 0.040640812 0.0039052856 -0.08293189 0.055855356 0.18488897
0.15932494 0.2878156 0.07770651 0.07984155 0.042421255 0.06414491 -0.18731092 0.120932534
-0.089093514 0.09253084 0.20549643 0.12501411 0.06450023 0.024863545 -0.084389366 0.08066433
-0.15315558 0.02574237 -0.04887449 0.011113047 0.13456585 -0.1128866 -0.0018226829 0.09202223
0.021651419 0.06586657 -0.124386184 0.0015169635 0.04421861 0.04930519 -0.018405017 0.019696837
-0.01353264 0.064237684 0.06276065 0.3148517 0.142807 0.14784648 -0.038857423 -0.02357427
-0.12683815 0.11422796 0.102763295 0.054310568 -0.12075126 0.2002077 0.06697017 0.14325692
-0.15784131 0.04838601 0.18778417 -0.018712547 -0.23313004 0.17798385 0.2460214 -0.03754214
-0.052305758 -0.03611408 0.032169536 0.052622568 -0.028346373 0.08692103 -0.038408253 0.19889553
0.07518562 0.22302657 0.20313028 -0.014628037 0.16885157 -0.096857026 -0.0050821444 0.096070714
00000000: 54fe 89bd 37f0 edbd 76ab 7f3c f402 0f3e
00000010: e300 333d 7a69 cd3c bd64 ad3d b912 c23c
00000020: b925 193e 904c 16bd b70b 143e fa03 153e
00000030: 1f09 b83d b687 3bbc c456 07bc 3f73 2f3e
00000040: 6ac4 eb3d 6e3e 423d b64c 3fbd d316 67bd
00000050: d9d9 c83d 289f 233e d936 923d 55e3 ec3d
00000060: 9493 3a3e 1251 f43d 5ff0 d33c bcc4 f3bb
00000070: f54a 1dbc 0041 d7bd 33d7 6cbd e3de f7bd
00000080: 87d0 973d 7d33 8c3d 0de8 7ebc cd37 823c
00000090: 5f8e 3cbc c114 f33b d779 5e3d 1faa bb3c
000000a0: 0620 7dbb 441c 9ebc 6d8b 133e 39a3 ce3d
000000b0: a3f3 1b3d e998 b4bd 5137 a3bd 127b 333d
000000c0: cd4f 773e 9190 e5bd 3c0b 043e fb76 263d
000000d0: d2ef 7f3b 32d8 a9bd 96c8 643d 8953 3d3e
000000e0: 1426 233e 915c 933e 9724 9f3d f783 a33d
000000f0: e9c1 2d3d 685e 833d 6fce 3fbe 7aab f73d
00000100: a976 b6bd cf80 bd3d a86d 523e b303 003e
00000110: b218 843d a2ae cb3c 55d4 acbd 5733 a53d
00000120: d1d4 1cbe aae1 d23c 9e30 48bd 7f13 363c
00000130: a1cb 093e 1731 e7bd 17e7 eeba 2776 bc3d
00000140: 515e b13c 0de5 863d 2fbe febd d9d4 c63a
00000150: 931e 353d 3df4 493d 1ec6 96bc 435b a13c
00000160: 02b8 5dbc 0c8f 833d a888 803d 3e34 a13e
00000170: 003c 123e 1165 173e f628 1fbd d41e c1bc
00000180: dce1 01be 59f0 e93d 9075 d23d c274 5e3d
00000190: 704c f7bd 3f03 4d3e a827 893d f1b1 123e
000001a0: 27a1 21be 6930 463d 7e4a 403e 0e4b 99bc
000001b0: a4b9 6ebe 6641 363e 09ed 7b3e c9c5 19bd
000001c0: 903e 56bd 5cec 13bd 34c4 033d c38a 573d
000001d0: a736 e8bc a703 b23d f951 1dbd 45ab 4b3e
000001e0: ebfa 993d 1461 643e 6201 503e 6faa 6fbc
000001f0: 6de7 2c3e fa5c c6bd 1e88 a6bb b9c0 c43d

_policy.8.weight f4 [3, 128]
-0.0043120407 0.14643934 -0.093656726 -0.60595524 -0.3342632 -0.22271074 -0.28227836 0.0022021849
0.41793314 -0.049407322 0.3427775 0.4561049 -0.01645839 0.05711576 -0.8224488 -0.08623365
0.35333014 0.27100512 -0.5568676 0.07797494 -0.13104717 -0.2209502 -0.021305569 0.4273513
-0.11985788 -0.32254663 0.005914325 -0.0938489 -0.5146424 0.34461042 -0.075468585 0.01344595
-0.1276615 -0.055304624 0.085429475 0.40280634 -0.44193932 0.30877787 -0.1263881 -0.08460783
0.5956748 -0.10800887 -0.110368624 0.3528119 0.47085813 -0.594651 1.4627714 0.36943135
-0.15821625 0.01829796 0.29123563 -0.210573 -0.28653014 0.18601286 0.033054892 -0.1916032
-0.11509606 -0.5798874 0.00058257516 0.44700712 0.033166666 -0.107757434 -0.67893565 -0.19500665
0.30100712 0.44328254 0.4529869 -0.09969772 0.44302467 -0.004219083 0.44685093 0.0034025249
-0.4029064 0.54282737 0.350807 0.0040412135 -0.20188302 0.35286006 -0.034898262 0.15068585
-0.0357236 -0.20050186 -0.74412996 -0.16688886 -0.1646247 0.43631756 -0.5168614 -0.07745982
-0.4949567 0.6596057 -0.18958855 -0.26843473 -0.35866997 -0.015245685 0.46105933 0.4511042
0.17918257 -0.08923656 0.24977487 -0.284668 0.044465452 -0.10423747 -0.10968912 -0.38459235
0.017044201 0.167479 -0.3304789 0.4756535 0.33663076 0.44900423 -0.16280495 0.19617322
-0.4259868 0.052089594 0.15915293 -0.09493186 -0.23210847 -0.16922745 0.2603646 -0.11298079
0.39435744 -0.20201491 -0.09333618 0.3791049 0.4657986 0.17588747 -0.043486796 -0.13672471
0.15393095 0.3178207 -0.1370302 0.4583834 0.36259043 0.03095008 0.24017824 0.4065217
-0.38447964 0.3930236 -0.024671877 -0.04776823 -0.1797353 0.16413702 0.67602754 -0.20099577
-0.44507995 -0.07119879 0.45467055 0.1262464 0.41948426 0.40722108 -0.14296758 -0.18369742
-0.34105512 0.13987102 -0.121085085 -0.25022224 0.3728961 -0.50180316 0.23992616 0.06438811
0.24212666 -0.0639927 -0.9858453 -0.14075264 -0.10067766 -0.41040525 0.55153894 -0.10309083
-0.12525341 0.20558034 0.71114 -0.4703452 -0.39833245 0.43538144 -1.046764 -0.28948396
-0.0387689 0.52680117 -0.17183085 0.25953454 0.29348263 -0.10289927 0.3917515 -0.34111044
0.427261 0.49827406 0.25150344 -0.1612572 0.0641341 -0.10210367 0.42118284 0.44829786
-0.4237158 -0.13190123 -0.0071993605 0.26325408 0.0023989023 -0.5739979 0.21566632 0.42623425
0.055836577 -0.64032 0.06764102 -0.1806307 0.21390216 -0.3131125 -0.31200612 -0.22738263
-0.32207105 -0.12151282 0.26505002 0.44000757 0.2674014 -0.056839623 0.09922887 -0.07683564
0.41844204 -0.5047926 0.118900865 -0.41436672 -0.18899386 -0.35837093 -0.6072163 -0.09505079
-0.40485987 0.5337594 -0.09606592 0.16760126 -0.7130462 -0.27485773 -0.05235473 -0.050837666
-0.12610802 -0.045644496 -0.13579594 -0.6886242 0.28632537 -0.54470456 0.20134954 -0.16759457
0.37915704 0.31580195 -0.10189316 0.26552698 0.1466867 -0.05199301 -0.8704903 -0.25906
-0.33051205 0.23088883 0.48979038 -0.4732608 -0.29427662 -0.12942056 0.31674495 -0.33409184
00000000: 054c 8dbb 32f4 153e 19cf bfbd e21f 1bbf
00000010: 8c24 abbe 490e 64be ca86 90be 8852 103b
00000020: 55fb d53e 555f 4abd 8880 af3e 9586 e93e
00000030: bfd3 86bc 37f2 693d 018c 52bf 459b b0bd
00000040: b0e7 b43e 2fc1 8a3e e08e 0ebf 53b1 9f3d
00000050: 3b31 06be c540 62be 0489 aebc cacd da3e
00000060: 0c78 f5bd d524 a5be f4cc c13b da33 c0bd
00000070: 9bbf 03bf c770 b03e 468f 9abd 674c 5c3c
00000080: b2b9 02be 1a87 62bd a6f5 ae3d a23c ce3e
00000090: df45 e2be 2218 9e3e e26b 01be df46 adbd
000000a0: 257e 183f c133 ddbd f208 e2bd c3a3 b43e
000000b0: 5114 f13e 0c3b 18bf 183c bb3f 1b26 bd3e
000000c0: 7103 22be 9ae5 953c d61c 953e 73a0 57be
000000d0: 14b4 92be 287a 3e3e 9164 073d a133 44be
000000e0: 7cb7 ebbd 8073 14bf f5b7 183a 1ede e43e
000000f0: c5d9 073d eeaf dcbd bace 2dbf d3af 47be
00000100: 9b1d 9a3e eef5 e23e e6ed e73e 512e ccbd
00000110: 21d4 e23e 3c40 8abb a5c9 e43e e5fc 5e3b
00000120: bf49 cebe bcf6 0a3f fa9c b33e 286c 843b
00000130: 6cba 4ebe 13aa b43e 7bf1 0ebd 644d 1a3e
00000140: e952 12bd 5c50 4dbe 4d7f 3ebf eae4 2abe
00000150: 6193 28be 0465 df3e 0751 04bf 41a3 9ebd
00000160: f76a fdbe ebdb 283f 8023 42be 4770 89be
00000170: 97a3 b7be 0ac9 79bc f80f ec3e 21f7 e63e
00000180: a37b 373e a8c1 b6bd fcc4 7f3e 01c0 91be
00000190: 6821 363d 747a d5bd b0a4 e0bd 4ae9 c4be
000001a0: 48a0 8b3c 9d7f 2b3e 8834 a9be db88 f33e
000001b0: de5a ac3e e2e3 e53e 57b6 26be a2e1 483e
000001c0: f11a dabe e65b 553d fcf8 223e a36b c2bd
000001d0: d8ad 6dbe f649 2dbe 824e 853e 7962 e7bd
000001e0: 38e9 c93e ffdc 4ebe 0a27 bfbd 0a1a c23e
000001f0: 277d ee3e d81b 343e 361f 32bd 9001 0cbe
00000200: 13a0 1d3e 65b9 a23e a551 0cbe 3bb1 ea3e
00000210: 74a5 b93e 068b fd3c 49f1 753e 9d23 d03e
00000220: 84da c4be 643a c93e ad1c cabc 9fa8 43bd
00000230: 880c 38be 8913 283e 2410 2d3f d6d1 4dbe
00000240: 85e1 e3be acd0 91bd 94ca e83e bc46 013e
00000250: a4c6 d63e 487f d03e 1866 12be 2d1b 3cbe
00000260: c79e aebe 593a 0f3e 75fb f7bd 211d 80be
00000270: 3dec be3e 2c76 00bf 34af 753e eadd 833d
00000280: 0df0 773e 9b0e 83bd 5c60 7cbf 7621 10be
00000290: 1730 cebd a320 d2be a831 0d3f 4921 d3bd
000002a0: 6e42 00be a783 523e 450d 363f 16d1 f0be
000002b0: 3bf2 cbbe 51ea de3e 5dfc 85bf 3e37 94be
000002c0: 23cc 1ebd 71dc 063f 6df4 2fbe b6e1 843e
000002d0: 5b43 963e dabc d2bd a793 c83e 07a6 aebe
000002e0: f4c1 da3e c71d ff3e 0fc5 803e 9c20 25be
000002f0: bd58 833d bb1b d1bd 47a5 d73e 4c87 e53e
00000300: 47f1 d8be 1e11 07be 9de8 ebbb 3dc9 863e
00000310: e736 1d3b 87f1 12bf a2d7 5c3e 603b da3e
00000320: e5b4 643d 03ec 23bf 6087 8a3d 41f7 38be
00000330: 2b09 5b3e 4850 a0be 44bf 9fbe fed6 68be
00000340: 7fe6 a4be b7db f8bd a3b4 873e ac48 e13e
00000350: d6e8 883e aad0 68bd 8138 cb3d 015c 9dbd
00000360: 093e d63e 163a 01bf 4c82 f33d e027 d4be
00000370: 9b87 41be 657c b7be 8772 1bbf fda9 c2bd
00000380: cb49 cfbe 75a4 083f 36be c4bd aa9f 2b3e
00000390: 328a 36bf 27ba 8cbe ea71 56bd 283b 50bd
000003a0: 7622 01be b9f5 3abd 170e 0bbe ad49 30bf
000003b0: 3d99 923e c271 0bbf 932e 4e3e e99d 2bbe
000003c0: df20 c23e cbb0 a13e 5cad d0bd 27f3 873e
000003d0: 0a35 163e 9ff6 54bd 74d8 5ebf 83a3 84be
000003e0: e038 a9be 1f6e 6c3e cec5 fa3e 3d4f f2be
000003f0: 6dab 96be d386 04be 652c a23e 160e abbe

_policy.8.bias f4 [3]
-0.0012032865 -0.045303885 0.032517694
00000000: 98b7 9dba 9190 39bd 4631 053d

_value.0.weight f4 [128, 22]
0.063127585 0.16749026 -0.14837119 0.03782892 0.028893515 -0.16886337 0.077366136 -0.049362943
0.16458015 -0.18221886 -0.03410483 0.16071682 0.070729546 -0.05379509 -0.047504652 0.042441096
-0.02773267 0.16904975 0.00015605599 0.10273563 0.07828688 -0.07864383 -0.15971042 -0.13774975
-0.066294074 -0.05210328 0.03754238 -0.15575847 -0.07974352 0.12839209 -0.01480967 -0.07806347
-0.1479312 -0.058035854 -0.15474084 0.17200194 0.111432984 0.16560942 -0.1461795 -0.17448229
0.014209988 -0.22802146 -0.115704015 0.046467975 -0.026476394 -0.03125818 -0.062417734 -0.1478982
0.1617762 0.16154431 -0.10627301 0.17468606 0.13274105 0.07047725 0.17945799 0.14997205
-0.16118108 -0.20636848 -0.14223751 -0.21067943 -0.13546665 -0.013799256 -0.05779897 -0.09555011
-0.15042272 0.08223919 -0.11516151 0.04440346 0.0034641288 -0.20909882 -0.15227285 0.052689638
0.07138155 0.035370447 0.01621159 -0.11414662 0.11341433 0.040031787 0.2767061 0.005552226
0.14725566 -0.0263745 0.007914277 -0.040688314 -0.108171344 0.07413169 -0.020859417 0.27178013
-0.13497725 0.24552526 -0.23331234 0.08061987 0.021806328 0.094862275 0.025919832 0.08356348
-0.07330206 -0.08645592 -0.18420029 -0.09496857 0.056143984 0.06605834 -0.083939694 -0.07957663
-0.05676096 0.06604551 -0.050855655 0.01734286 0.034075983 -0.025316823 -0.19428807 0.23128651
0.13068458 -0.11003657 0.1261856 -0.13578159 0.15413679 0.036002535 0.078104995 0.02178325
-0.12976214 0.08394554 0.14481297 0.114434734 0.17831875 0.10178846 0.0012662563 -0.16006933
0.0032919866 -0.13496563 -0.088232644 -0.17896974 0.08576436 0.17508075 -0.10854278 0.1708307
-0.045628335 -0.17235716 0.023673082 -0.032349948 0.06625693 -0.053448517 -0.19779329 -0.054910015
-0.14538926 0.17861477 -0.18402617 0.11730409 0.061377894 -0.10145535 0.10136043 -0.18253787
-0.16469304 0.020401282 -0.08480787 -0.13696714 0.005214548 -0.16254564 0.09903918 0.14422807
0.10718076 0.016778909 -0.10392065 0.16736627 -0.019818852 -0.14562245 0.0540621 -0.19505152
0.077127226 -0.123106405 0.014135313 -0.025128953 -0.22093548 0.040383022 0.15263462 0.1199392
0.108435385 -0.18274362 -0.069739036 -0.11188159 -0.08508286 0.02540832 0.11735826 0.16468671
-0.034314334 0.18584995 -0.04922207 -0.13939865 0.12833832 -0.13177022 -0.20729358 -0.1729355
0.16238682 0.0070054727 0.012895945 -0.09943664 -0.21828741 0.16203076 -0.05486922 0.10915507
0.07793822 -0.03286108 0.04542368 -0.08113394 0.047670938 -0.16511016 -0.008079602 0.09039525
-0.07627975 0.20012735 -0.14806592 -0.18266277 0.12305954 -0.07982193 -0.055752944 -0.1980969
-0.20440644 0.0005800605 0.021697411 0.06402924 0.14609985 -0.1561487 -0.040295113 0.13879666
0.13158567 -0.08067208 -0.04858578 0.06758048 0.13851736 0.0754661 0.03937345 -0.010651593
0.070530675 0.015576666 0.01777976 0.083781905 -0.14428025 -0.027385097 0.16973943 -0.08559705
-0.017367726 -0.18935505 -0.05138075 -0.042141423 -0.015111414 -0.08325432 -0.15505642 -0.12926628
-0.060098697 -0.028164934 0.037280798 0.0073949634 0.13638014 0.12905994 0.13208832 0.15016772
00000000: 0949 813d 9182 2b3e 9eee 17be 7ff2 1a3d
00000010: 18b2 ec3c 85ea 2cbe 2372 9e3d cc30 4abd
00000020: b387 283e 9597 3abe 82b1 0bbd f392 243e
00000030: a7da 903d 3e58 5cbd 3d94 42bd b7d6 2d3d
00000040: a02f e3bc 611b 2d3e f6a2 2339 0f67 d23d
00000050: df54 a03d 0410 a1bd 218b 23be 450e 0dbe
00000060: 30c5 87bd 406a 55bd 0ac6 193d 267f 1fbe
00000070: 9250 a3bd 3779 033e 42a4 72bc bedf 9fbd
00000080: 477b 17be 01b7 6dbd 6274 1ebe 4721 303e
00000090: fa36 e43d 8495 293e 14b0 15be 7cab 32be
000000a0: 02d1 683c 757e 69be 3af6 ecbd 3455 3e3d
000000b0: 06e5 d8bc 9408 00bd bda9 7fbd a072 17be
000000c0: a9a8 253e df6b 253e aaa5 d9bd e7e0 323e
000000d0: 45ed 073e 6056 903d d6c3 373e 4692 193e
000000e0: a70c 25be 4252 53be b6a6 11be 59bc 57be
000000f0: c5b7 0abe 4616 62bc 9dbe 6cbd c7af c3bd
00000100: 6a08 1abe 056d a83d ccd9 ebbd 67e0 353d
00000110: 7006 633b 001e 56be 6aed 1bbe 17d1 573d
00000120: 7d30 923d 9ae0 103d 2bce 843c b4c5 e9bd
00000130: c645 e83d 5ff8 233d 6cac 8d3e 73ef b53b
00000140: 30ca 163e 560f d8bc e2aa 013c caa8 26bd
00000150: f088 ddbd 5bd2 973d 5ee1 aabc c426 8b3e
00000160: 7a37 0abe f96a 7b3e 6ee9 6ebe 081c a53d
00000170: 2fa3 b23c 2747 c23d d455 d43c 5423 ab3d
00000180: 641f 96bd cd0f b1bd 009f 3cbe e27e c2bd
00000190: 3cf7 653d 9849 873d 93e8 abbd 12f9 a2bd
000001a0: 2e7e 68bd de42 873d 054e 50bd 9d12 8e3c
000001b0: 4293 0b3d 3a65 cfbc 74f3 46be 5fd6 6c3e
000001c0: 2ed2 053e da5a e1bd cc36 013e 540a 0bbe
000001d0: 09d6 1d3e 6577 133d 83f5 9f3d c972 b23c
000001e0: 5ee0 04be a4eb ab3d da49 143e c25c ea3d
000001f0: 3199 363e 7876 d03d 83f8 a53a 37e9 23be
00000200: 5fbe 573b 6e34 0abe 51b3 b4bd d843 37be
00000210: 3aa5 af3d 5e48 333e ad4b debd 3eee 2e3e
00000220: c7e4 3abd 657e 30be 0dee c13c 6181 04bd
00000230: b7b1 873d d5ec 5abd 538a 4abe 53e9 60bd
00000240: ece0 14be cae6 363e 5b71 3cbe 203d f03d
00000250: 6367 7b3d d3c7 cfbd 0f96 cf3d 35eb 3abe
00000260: 4ba5 28be 9720 a73c c0af adbd 1d41 0cbe
00000270: cdde aa3b 5d72 26be 0ed5 ca3d 86b0 133e
00000280: 9681 db3d ec73 893c 5ad4 d4bd 1062 2b3e
00000290: 255b a2bc 0d1e 15be 3870 5d3d 96bb 47be
000002a0: e1f4 9d3d 361f fcbd cd97 673c 3cdb cdbc
000002b0: e93c 62be ab68 253d 404c 1c3e afa2 f53d
000002c0: 5f13 de3d 2521 3bbe 57d3 8ebd 2d22 e5bd
000002d0: ec3f aebd 1c25 d03c 8759 f03d a2a3 283e
000002e0: 308d 0cbd 734f 3e3e 159d 49bd 85be 0ebe
000002f0: 1f6b 033e c6ee 06be c544 54be 0116 31be
00000300: bb48 263e 2a8e e53b 8449 533c 70a5 cbbd
00000310: bc86 5fbe 64eb 253e 8cbe 60bd b18c df3d
00000320: 139e 9f3d 5799 06bd 2e0e 3a3d 8d29 a6bd
00000330: 9a42 433d a312 29be 4f60 04bc 2521 b93d
00000340: 8f38 9cbd 2fee 4c3e 989e 17be f30b 3bbe
00000350: a406 fc3d ae79 a3bd 335d 64bd ead9 4abe
00000360: ec4f 51be 340f 183a c5be b13c c321 833d
00000370: 339b 153e 72e5 1fbe 7d0c 25bd b620 0e3e
00000380: 65be 063e 6737 a5bd e201 47bd a267 8a3d
00000390: 7fd7 0d3e f88d 9a3d 0e46 213d 0584 2ebc
000003a0: 6372 903d 4635 7f3c dca6 913c d995 ab3d
000003b0: 34be 13be b656 e0bc 2cd0 2d3e 824d afbd
000003c0: c346 8ebc 4ae6 41be 9f74 52bd 7c9c 2cbd
000003d0: dd95 77bc 3e81 aabd 1cc7 1ebe 615e 04be
000003e0: 0d2a 76bd 26ba e6bc c0b3 183d 7351 f23b
000003f0: 3ca7 0b3e 4a28 043e 2942 073e 91c5 193e
