logs/weight_colliion_obj_obs = 0.4/model/best_model_1605.pth (torch, 427625 bytes, 19 tensors)

_policy.0.weight f4 [128, 22]
000000 bd 0f c0 be e2 08 55 bd b0 bb 3a 3e 57 19 be 3d
       -0.37512007 -0.052010424 0.1823566 0.09282177
000010 39 81 b7 be 61 89 5e be d0 d5 32 3e 13 14 d9 bc
       -0.35840777 -0.21732093 0.17464375 -0.02649883
000020 6c 99 e3 3e 29 b0 b5 3e 64 c1 69 be dc d6 93 3b
       0.4445299 0.35485962 -0.22827679 0.004511697
000030 3e 8a 87 3e dc 94 f4 3e f8 c2 98 bd 35 1a 01 be
       0.26472658 0.4776982 -0.07459062 -0.12607653
000040 19 ed a5 bd b2 4f 97 3d 47 47 0b 3d 42 11 03 3e
       -0.081018634 0.073882475 0.034003522 0.12799552
000050 35 f6 08 be 7c c8 16 bf d1 0f d8 be 16 eb 96 be
       -0.1337517 -0.58899665 -0.42199567 -0.2947623
000060 c5 45 e6 3c f2 bc 89 3f 4f 07 75 bd c1 b8 23 3b
       0.02810944 1.0760787 -0.059821423 0.0024981948
000070 6b fa 83 3e bc 32 a2 3d 07 1e 6e bf cf 92 f7 3d
       0.2577699 0.07919833 -0.9301457 0.120885484
000080 b9 d7 1d 3e af 3b 6f 3e c5 63 a7 3e 30 ae a8 3e
       0.15414323 0.23362611 0.32693306 0.32945395
000090 e8 d5 4e 3e 90 12 5c bd 68 d5 2d bd 72 c2 40 be
       0.20198786 -0.05372864 -0.04243985 -0.18824175
0000a0 80 45 56 be fb 78 dc 3d e7 70 b5 3c 29 a1 eb bc
       -0.2092495 0.10765263 0.022148563 -0.02876337
0000b0 62 6b 1a bf b0 db 43 bd 9e 20 8d 3e bc e2 de 3c
       -0.60320103 -0.047816932 0.27563947 0.027207725
0000c0 ed 9f 8e be 85 d9 b8 3d 41 1c 36 3c 36 6d 3b 3e
       -0.2785639 0.090258636 0.011115135 0.1830338
0000d0 b8 ac a1 3f 2e b1 09 bf 69 88 9e 3e fc 2f b4 bb
       1.2630835 -0.5378598 0.30963448 -0.0054988842
0000e0 52 df cf 3e 8c 74 e5 3e b9 3d a1 3d 99 6c 1d 3e
       0.40600067 0.4481548 0.07873101 0.15373458
0000f0 1b 44 20 be 02 9d e8 3d 98 0f 80 38 06 f5 24 bd
       -0.1565098 0.11358072 6.10642e-05 -0.040272735
000100 47 2b be bd ae ca e4 bd fc 06 c2 3d eb 05 0e bf
       -0.09285598 -0.111714706 0.094739884 -0.5547778
000110 c4 5f 96 3d 06 af 0d 3f f8 a5 23 bd f2 43 33 bf
       0.073424846 0.5534519 -0.039953202 -0.7002555
000120 2f a4 2c 3e fd 26 ca 3e a2 29 10 3e ea e3 1d 3e
       0.16859506 0.3948287 0.14078382 0.15418974
000130 c5 a7 fd bc ec ea 59 be 81 98 a8 be 32 06 25 3f
       -0.030963788 -0.21281022 -0.3292885 0.6446258
000140 e5 fa 71 be be 8c 12 be f1 4d 61 be 3b 14 f7 ba
       -0.23630865 -0.14311501 -0.22002389 -0.0018850634
000150 21 42 5e be af 44 93 3e a6 8b 0d 3e 73 93 c3 3d
       -0.21704914 0.2876334 0.13822803 0.09549608
000160 da e1 8e 3f 7b 5a 07 bf 1c 77 8a bd 42 82 49 3e
       1.1162674 -0.5287244 -0.067609996 0.19678596
000170 2e 6f 44 3f a1 84 2a bf 32 b0 fe 3d c1 4d 13 bf
       0.76732147 -0.66608626 0.1243595 -0.5754052
000180 6d e0 3d bf 8a 39 0a 3f e5 18 02 3e 2f 36 22 be
       -0.7417057 0.5399405 0.12704809 -0.15840982
000190 82 e8 ea bd be 08 25 be da 82 a0 3b e9 ce 37 3e
       -0.114701286 -0.16116616 0.004898411 0.17950024
0001a0 89 69 43 bc 8b 47 f3 3b cd 9d d5 3c eb 88 fd bd
       -0.011927017 0.0074243 0.026076222 -0.12379631
0001b0 a2 34 8d 3c 97 47 f5 bc cb 01 39 bf 52 e8 4d 3f
       0.017237011 -0.029941363 -0.7226836 0.8043262
0001c0 33 ce fc 3e e4 e2 17 bf 9a a8 8e be 48 6b 41 3f
       0.49376068 -0.5933058 -0.27863008 0.75554323
0001d0 5c a9 50 3e 85 11 81 3e c2 73 4a bd 57 93 99 bf
       0.20377105 0.2520868 -0.0494268 -1.199809
0001e0 71 48 a2 be 65 97 3c 3c 2d d6 39 be e3 d3 9d 3c
       -0.31695893 0.011510705 -0.18148108 0.019266075
0001f0 04 68 80 3d 06 64 ff bc f7 0f 29 3e 8e cf 37 3d
       0.062698394 -0.031175625 0.16509996 0.044875674
000200 dc 44 36 bd 1f 3b cd bd 85 db 92 bd f1 17 af 3d
       -0.044499263 -0.10021042 -0.07170776 0.08549488
000210 54 de de bd 95 17 27 3e 8d f0 9e be fe 0d 92 3e
       -0.108822495 0.1631759 -0.310429 0.285263
000220 d5 e3 cc 3e cc 80 74 bd 3b 8f 0c bf bc d6 09 3e
       0.40017572 -0.059693143 -0.5490605 0.13460821
000230 7f a6 1a 3f 92 06 16 bf 7d d6 6b 3e 35 46 31 bd
       0.604103 -0.58603776 0.2303104 -0.043279845
000240 c8 0b 70 bf 4b b2 36 3e cd d1 2e bd 2d a5 8d bc
       -0.93767977 0.17841451 -0.04268055 -0.017290676
000250 60 0f a9 bd 64 15 10 be 57 95 bd 3e ae f4 40 be
       -0.08254886 -0.1407066 0.37028 -0.18843338
000260 98 87 26 3e e6 84 f2 bd 09 08 82 be 02 5d fa bd
       0.16262662 -0.118417546 -0.25396755 -0.12224771
000270 d7 31 75 3d 45 a8 7a 3f bd db b9 3e 3c 15 9b 3e
       0.059861984 0.9791301 0.3630046 0.30289638
000280 f4 32 80 be 28 78 e4 bd 59 ba 56 bf 8d 09 65 3f
       -0.25038874 -0.111557305 -0.83878094 0.894677
000290 90 a9 6f bd 9c 7a eb be c1 93 5a 3d 05 40 6d 3d
       -0.058511317 -0.4599198 0.053363565 0.057922382
0002a0 d1 dd 20 be 48 9b 32 3d 19 10 ee bd b3 33 74 be
       -0.15709616 0.04360512 -0.11624164 -0.23847847
0002b0 b0 e5 8a bc 9c 92 60 3d ff 62 31 bc b1 1d 74 3e
       -0.016955227 0.054827318 -0.010826825 0.23839451
0002c0 e8 1f 3a 3e 8a 45 eb be 85 b9 e9 bd 97 62 07 3e
       0.18176234 -0.45951492 -0.11412338 0.13221203
0002d0 d8 bf ee 3e b7 f3 a9 bd 7b ee 4b be 21 eb 81 bc
       0.4663074 -0.08298438 -0.19915192 -0.015859189
0002e0 96 c1 07 40 d6 19 9b 3f db 32 a2 bc ee 6b f0 bd
       2.1211905 1.211726 -0.01979964 -0.11739336
0002f0 fe 81 3f 3e 1c be 1a 3c 93 40 10 3e e9 b0 1e be
       0.18701932 0.00944474 0.14087133 -0.15497173
000300 ad e9 2e 3e 44 a0 9b bd 25 ac 7d bd d0 4c 31 bc
       0.17081328 -0.075989276 -0.061931748 -0.010821536
000310 8b 61 88 bd d7 6c d4 3d 97 49 ab 3e ab 59 4b 3f
       -0.0665923 0.10372322 0.33454582 0.794337
000320 fe 42 e3 be 15 be 47 bf 6b 22 87 be ad 6d 06 3f
       -0.44387048 -0.7802442 -0.26393446 0.525111
000330 6b 4b 04 bf ce fd 2b bf 13 16 24 bf 34 a7 b2 3e
       -0.5167758 -0.6718415 -0.6409618 0.3489319
000340 37 c5 d2 3b 22 d5 f6 3e d9 4d aa 3e 4d 28 07 be
       0.0064322012 0.48209482 0.33262518 -0.13198967
000350 27 96 95 3d f8 18 3b 3d 11 84 ff 3d 9c 1a 1e be
       0.0730403 0.04567811 0.124763615 -0.15439838
000360 c0 9d 3b bc 4f 1c 64 3b bb af fc bd 45 18 f2 bd
       -0.011451185 0.0034806912 -0.123382054 -0.11821035
000370 20 8d 4d bf 68 3e b3 be f9 64 33 3e ed 82 e6 bd
       -0.80293465 -0.3500855 0.17518987 -0.11255441
000380 fd f1 37 bf 45 5b b2 be fa 40 b8 bd 51 6a cf 3d
       -0.7185362 -0.34835258 -0.08996768 0.101277
000390 33 96 c7 3f 20 7b 11 3f 3d a2 79 3e f6 96 81 be
       1.5592712 0.568285 0.24378295 -0.25310487
0003a0 7c 56 af bc 2f 00 77 3d bb ba 9d bc cb ee f2 3d
       -0.021403544 0.06030291 -0.01925408 0.118619524
0003b0 b0 37 17 3e ed 2b 66 3c 2d 27 f1 bd c3 69 b5 bc
       0.14767337 0.014048559 -0.1177505 -0.022145158
0003c0 4e ef c8 bd 28 0d 8d bd b3 2a c8 3c 56 32 a6 3e
       -0.09811269 -0.06887275 0.024434423 0.32460278
0003d0 05 89 55 bf a3 d0 b7 be 81 73 38 be ea e8 86 bd
       -0.834122 -0.35901365 -0.18012811 -0.065873936
0003e0 e6 c7 6a bd f3 95 fe be f1 ab ba be ad cd 13 be
       -0.057319544 -0.49723777 -0.36459306 -0.14433928
0003f0 fd 7b 53 bd 86 47 8e bd 02 3f d8 be 64 e2 ad be
       -0.051631916 -0.06947236 -0.4223557 -0.33961785

_policy.0.bias f4 [128]
000000 90 7c cb bd e0 be ea bc f8 37 45 be 7c 43 47 be
       -0.09935868 -0.02865547 -0.19259632 -0.19459337
000010 56 40 e5 bc b1 80 01 be 08 17 1b 3d 5d a5 ed bb
       -0.02798478 -0.12646748 0.03786376 -0.007252379
000020 cd 4c 26 bd b3 c6 37 3e eb 03 28 3e dc 27 38 3e
       -0.040600587 0.17946891 0.16407745 0.17983955
000030 dd 6d 2f be c5 3b 76 be e0 e1 0a 3c f9 6d d6 bd
       -0.17131753 -0.24046238 0.008476704 -0.10470194
000040 83 cb 10 bc 56 da 25 3d 2d a7 37 be 2f 54 1b 3d
       -0.0088375835 0.040491425 -0.17934866 0.03792208
000050 6b 55 af 3d ff 8a fc bc c2 96 8a be cf 95 78 3e
       0.08561214 -0.030827997 -0.27068144 0.24275897
000060 de 44 92 bd 20 b7 88 bd b9 15 e4 bc 7f 2d 14 be
       -0.071420416 -0.06675553 -0.02784239 -0.1447048
000070 1e de df 3d ff a3 57 be 63 1f 7b be 91 b1 27 be
       0.10931037 -0.21058653 -0.24523692 -0.1637633
000080 eb 71 e5 3d f9 1c c3 bd 94 f5 b4 3d e7 c7 76 3d
       0.11203369 -0.095270105 0.08835903 0.060249235
000090 b0 51 54 3e 91 1d 50 be be d1 29 be c2 13 3c bb
       0.20734286 -0.20323779 -0.16583917 -0.00286983
0000a0 dd 65 03 bd 2c d1 e4 3d 25 e8 3b be 29 85 96 bd
       -0.032079566 0.11172709 -0.18350275 -0.07349617
0000b0 bc fe 33 3b 43 bb 04 be 14 3f 46 3e ab 4c cd 3d
       0.0027465066 -0.1296206 0.1936 0.10024389
0000c0 2e a3 fa bd b3 cf 45 be 6c 6a a4 be a3 6b 24 be
       -0.12238155 -0.19317512 -0.32112443 -0.16056685
0000d0 65 ee 8d be 78 f4 62 3e 8c 6f 8f be 94 33 c8 bd
       -0.27720943 0.2216357 -0.2801479 -0.09775463
0000e0 80 9f 8e bd 78 61 b2 3d 93 6c b8 3e 0b ae 5e bd
       -0.06964016 0.08709997 0.36020336 -0.0543652
0000f0 e9 89 2a bd 02 a6 6c bc e5 ac 96 be c1 04 96 bd
       -0.041635428 -0.014443876 -0.29428783 -0.073251255
000100 be f7 05 be 45 3f b5 bd 5f e8 4f 3d 28 e4 ad bd
       -0.13082787 -0.08849958 0.050758716 -0.08490783
000110 9e 35 cf bd a3 20 32 be 64 58 ae bd a2 97 91 bd
       -0.101176485 -0.17395262 -0.08512953 -0.07109
000120 32 de 2d be f2 6c 0e 3e 37 89 29 be 83 25 f0 3d
       -0.16979292 0.13908747 -0.1655625 0.11725905
000130 eb 81 f2 bd 99 e1 fe bd e4 5b 44 be 82 c8 05 be
       -0.11841186 -0.12445373 -0.19175678 -0.13064769
000140 c0 bd 8a ba 20 b7 85 bc 9a f5 9a 3c 3a 4c 7b be
       -0.0010585114 -0.016322672 0.01891594 -0.24540797
000150 e4 5e e0 bd ca 88 32 bc 34 1f 2e be 0d 42 5f bd
       -0.10955599 -0.010896871 -0.1700409 -0.05450635
000160 25 5a eb bd 26 da 84 be c9 ed a9 3d 83 e8 65 be
       -0.11491803 -0.25947684 0.08297307 -0.22451977
000170 19 7c c9 3d 1c a1 81 be a9 94 6d be 0a 47 0e 3d
       0.09838123 -0.2531823 -0.2320124 0.034735717
000180 06 01 9a be b7 ae 1a be 36 af c0 bd 97 da 33 be
       -0.30078906 -0.15105711 -0.09408419 -0.17563854
000190 c2 e0 90 be 68 13 1c be 62 b7 0f be c1 fe 88 bd
       -0.28296477 -0.15241778 -0.14034799 -0.066892155
0001a0 25 f3 af 3c 3c 79 2d 3c dd 82 4f be 50 b4 6a be
       0.021478245 0.010587987 -0.20264764 -0.22920346
0001b0 bb c6 5d bc 2f 9a 28 3e 49 86 16 3e d2 95 65 be
       -0.013536151 0.16465066 0.14699663 -0.22420433
0001c0 15 b7 50 be e3 23 ed bd 67 32 8b be 33 60 09 3e
       -0.2038234 -0.115791105 -0.2718689 0.13415603
0001d0 35 b0 9e 3c a9 ab 00 3d 8c 60 94 bd 0a 6e 3e 3e
       0.019371131 0.031413708 -0.07244977 0.18596664
0001e0 90 f6 a6 3d 38 2d bc bd e0 70 54 3d 3f 57 63 be
       0.08152497 -0.09188312 0.05186546 -0.2220125
0001f0 5e fd bb 3b 11 67 5f be 5d a8 62 be a0 98 8d be
       0.005736991 -0.2181666 -0.22134538 -0.27655506

_policy.2.weight f4 [128, 128]
000000 0e 86 3a 3e 11 b0 52 bb ed ad 1d be de 4e 87 be
       0.182152 -0.00321484 -0.15398379 -0.26427358
000010 58 35 a3 3e 8d 48 0a bf 86 c9 ae 3c 35 18 5d 3e
       0.31876636 -0.54016954 0.021336328 0.21591265
000020 0e 70 87 3d 65 35 11 bf a0 8a 96 bc 73 a1 67 be
       0.066131696 -0.567221 -0.018376648 -0.22620182
000030 19 31 19 3d df 22 db bd 92 9c a5 be 0f 9f 82 bd
       0.03740034 -0.107000105 -0.32346016 -0.06377994
000040 cf 4c 48 3d 48 b2 bb 3d bc c4 55 bd 83 95 c7 3c
       0.048901375 0.09164864 -0.052189574 0.024363285
000050 a9 54 a5 3d 34 43 e8 bd e5 73 42 3d 50 16 b9 be
       0.08072788 -0.11340943 0.047473807 -0.36149836
000060 f3 de 97 be cc ae 7c bc bf 5f 6d be 14 f9 80 3e
       -0.29662284 -0.015422534 -0.23181055 0.25190032
000070 76 b4 a6 3e 89 af e0 3d 34 f4 af 3d 25 37 c5 be
       0.32559556 0.10970981 0.085915 -0.38518634
000080 84 8d f8 3d d9 9d f9 3b b3 fd 84 3e 1f da 50 3b
       0.12136367 0.007617694 0.25974807 0.0031868292
000090 a3 34 8d 3d 13 44 b3 be 2e 03 e8 3d db 9c 7b 3d
       0.06894805 -0.35012874 0.113287315 0.061428886
0000a0 0c 05 df be 54 85 35 be 08 60 b3 3c b2 2e dc ba
       -0.43558538 -0.17726642 0.021896377 -0.0016798584
0000b0 17 d3 2f 3e 67 a2 63 be 06 3e 9b 3d af d7 9a bd
       0.17170368 -0.2222992 0.075801894 -0.0756067
0000c0 2d 44 ac bd 35 ab 28 bf c1 4b a3 be 81 78 1c bc
       -0.08411441 -0.6588624 -0.31893733 -0.009550215
0000d0 e9 47 e9 3e b0 54 c7 3e 83 eb a4 be ed 20 72 be
       0.45562676 0.389318 -0.3221093 -0.23645373
0000e0 65 40 98 3e 90 3f 44 3e 5b 5f 0e be d8 10 22 3e
       0.2973663 0.19164872 -0.13903563 0.15826738
0000f0 2a 6f 85 3e e5 6d 03 bd c8 51 98 be 84 5e c2 3d
       0.26061374 -0.032087225 -0.29749894 0.09490684
000100 6f 3f cc 3c 0c 3d 83 3e 29 f6 0d 3e e3 ab fd bc
       0.024932591 0.25632513 0.13863434 -0.030965751
000110 82 8c 46 3d e9 4b 6a be a7 0a fa 3c 36 af 25 be
       0.048473842 -0.2288052 0.030522658 -0.16180119
000120 b3 f0 1f be f5 06 3e bd 9e a5 03 be 53 f8 97 be
       -0.15619163 -0.046393353 -0.12856147 -0.29681644
000130 00 12 12 be 83 62 d4 bc 98 06 a3 be 38 1f 57 3e
       -0.14264679 -0.02592588 -0.31840968 0.21008003
000140 19 fe 78 3e 03 3e b8 3d df 38 0b 3d 87 b9 08 bf
       0.2431568 0.08996203 0.033989783 -0.5340809
000150 e7 46 e1 be 87 59 00 be 8e 4e d7 3b c3 e4 8d bd
       -0.43999407 -0.12534152 0.0065706437 -0.069283985
000160 ef b5 6c bd fb 09 64 3d 1f 0b 30 3e 99 a9 9b 3e
       -0.057790693 0.05567358 0.17191742 0.3040283
000170 98 c5 f1 3c 15 35 10 bf f4 0e 44 3d 62 36 4d 3d
       0.029513165 -0.56330997 0.047865823 0.05010069
000180 28 88 18 bd 0e 84 cd 3d 81 b1 a7 bd c0 97 17 3e
       -0.037239224 0.10034953 -0.08188153 0.14803982
000190 4c 9d 84 be 97 fb 2e 3c 4b 39 94 3d 21 d9 96 3d
       -0.25901258 0.010680101 0.0723749 0.07365633
0001a0 e7 3f 34 be a7 b9 4e be 6d a7 b0 3c 2e dc a6 bd
       -0.17602502 -0.20188008 0.02156421 -0.08147465
0001b0 04 ff cf 3d 5b 51 94 be e4 c9 11 bf 75 bd d3 bd
       0.10156062 -0.2896832 -0.56948686 -0.103388704
0001c0 73 9c 57 bd 0b 28 4c 3e 52 98 4a be fb a1 01 3e
       -0.052639436 0.1993715 -0.19784668 0.12659447
0001d0 1d 60 cc 3c 7e 08 17 3d 96 1e 25 be 85 91 2c be
       0.024948174 0.036873333 -0.16124949 -0.16852386
0001e0 a8 08 25 bc b6 e2 8b 3d 74 2b 89 3c 4c 1c 10 bf
       -0.010072865 0.06830351 0.016744353 -0.5629318
0001f0 00 a4 0a 3d df 02 fb be cc ee db 3c 9b 9d 12 3e
       0.03384781 -0.49025628 0.026847266 0.14317934
000200 ae 84 7b bd 50 fa 74 bd 84 00 64 bd 25 ef 3c bd
       -0.06140583 -0.05980903 -0.055664554 -0.046126503
000210 0c 41 18 bb a1 97 46 bd c0 5e af 3c 3e ad 2e 3d
       -0.002323213 -0.04848445 0.021407485 0.042645685
000220 53 d4 1b bc a2 b1 19 bc b6 d7 83 bd 8d 98 f1 bd
       -0.009511071 -0.00938073 -0.06437628 -0.11796675
000230 aa 58 dd bb 44 ec 94 bd 9c 95 de bd 99 c9 7c bd
       -0.0067549543 -0.072716266 -0.108683795 -0.061715696
000240 aa 83 b3 bd cd ca f5 bd e1 57 a7 bd c9 ab 2f 3d
       -0.08765347 -0.12001572 -0.081710584 0.042888436
000250 66 6d 00 be 8c 9b c5 3b a5 fd ad bd a9 e6 bb 3c
       -0.12541732 0.0060305055 -0.084956445 0.022937136
000260 71 27 06 bd 1f 4e 1b bd 1e e2 dd bc 13 c6 9e bd
       -0.032752458 -0.0379163 -0.02708536 -0.077526234
000270 1b 30 c8 bd 48 33 2f bd 11 5c f1 bb 04 43 97 bd
       -0.097748004 -0.042773515 -0.0073657115 -0.07385829
000280 a6 74 97 bd a6 dd 6f bd 46 77 35 bd 38 ea 5d bd
       -0.07395296 -0.05856099 -0.0443032 -0.054178447
000290 40 fd 97 3b 50 62 9b bc 69 4b 91 bd da 94 95 bd
       0.004638344 -0.018967777 -0.070944615 -0.07303782
0002a0 2f c3 a0 3d 9d f1 c1 3a 7d 1a 1a 3b 90 9c 1c 3c
       0.07849728 0.0014796738 0.0023514323 0.009558812
0002b0 4e bd 71 3d 9e 0b da bd 4d 4f 8a bd e9 33 ed bd
       0.059018426 -0.10646747 -0.06753407 -0.11582167
0002c0 e3 8d d5 bd a2 2b 8e bd 3f 80 eb bc bf 56 ea bd
       -0.10427453 -0.06941916 -0.028747676 -0.11442327
0002d0 90 9a 66 bc 38 02 26 3b 44 ca e9 bd 51 e5 16 bc
       -0.0140749365 0.0025330912 -0.11415532 -0.009209947
0002e0 2d 38 7f bc eb 2b 9f bd a5 0f 4a 3d c0 0f e0 bd
       -0.015577358 -0.077720486 0.049331326 -0.10940504
0002f0 3e c9 3e 3d dd 01 2e 3c e7 a9 60 bd 68 24 0f bd
       0.04657864 0.010620561 -0.05484953 -0.03494683
000300 05 fd 35 3d c5 e6 45 3c 5c b4 a8 bd a9 74 0f bd
       0.04443075 0.0120789455 -0.08237526 -0.035023365
000310 a8 a7 c6 bc 3a d5 45 3d b3 cf 9e bd 83 00 0c bd
       -0.024249867 0.04829905 -0.07754459 -0.034180176
000320 67 27 21 3d 0a fc a2 bd 70 05 0e 3b d8 89 9e bd
       0.039344218 -0.07958229 0.0021670721 -0.07741135
000330 8d 37 9e bd f6 31 fc bd fe 18 e0 bc 2e a2 06 bd
       -0.07725439 -0.12314217 -0.027355667 -0.03286951
000340 46 c6 36 bd e5 f2 a4 bb 7c 14 9c b9 2b b8 81 bd
       -0.044622682 -0.005033838 -0.000297699 -0.063339554
000350 7e f4 12 3d 54 16 0f 3d f1 6b 35 bc d2 e7 0c bd
       0.035877697 0.034933403 -0.0110730985 -0.03440077
000360 a9 1b f4 3b 34 98 da 3c b5 27 c2 bc e5 f2 d9 bd
       0.0074495864 0.026683904 -0.023700574 -0.106420316
000370 41 f0 ee 3b f7 b3 1b bd 88 40 3e 3d 22 f7 ac 3c
       0.007291824 -0.038013425 0.04644826 0.021113936
000380 12 7a 80 3c 07 6a d4 bd a5 ae bb bd 80 00 02 be
       0.015683208 -0.103717856 -0.0916417 -0.12695503
000390 2e a4 ef bd 0d 83 13 bd f6 dc 2b 3d 69 bb 55 bc
       -0.11701237 -0.03601365 0.04195877 -0.01304517
0003a0 32 fd c5 bd 9e f3 09 3c 6d 58 ca bd bf fe 14 3d
       -0.09667434 0.008419899 -0.09880147 0.036375757
0003b0 43 0d 50 3d 00 ba da bc e0 ed cf 3b b8 70 e5 bc
       0.050793897 -0.02670002 0.0063454956 -0.02800785
0003c0 06 bc 1d bd 0a 4d 32 3d 39 3c 85 3c 7a e6 f6 3c
       -0.03850939 0.0435305 0.016264068 0.030139197
0003d0 f4 ed 1e bc 8e c4 99 bd 42 01 d3 3c 50 cd 06 be
       -0.009700287 -0.07508193 0.025757436 -0.13164258
0003e0 a6 8f 4b 3d c7 a7 9f bc 94 a0 dc bd 08 b4 cc bd
       0.04969754 -0.019489182 -0.10772815 -0.09995276
0003f0 0b 5b 42 bd 77 51 48 3d 9d 26 99 3c fe 96 73 bd
       -0.047450107 0.048905816 0.01869517 -0.05947017

_policy.2.bias f4 [128]
000000 eb 40 18 be fc f1 2b be 46 ba 66 bd 1c 21 28 3d
       -0.14868514 -0.16791528 -0.056329988 0.0410472
000010 e5 50 85 bd a6 77 00 3e d3 7c 9d 3d ec 11 c1 3d
       -0.0650957 0.12545642 0.07689824 0.094272465
000020 80 97 6f bd e8 cc 02 3e f9 18 92 bd 1b 7d 42 3d
       -0.05849409 0.12773478 -0.071336694 0.04748259
000030 be 50 6e 3d c5 ff b5 3d d2 84 a3 3d 7a e7 54 3d
       0.05818247 0.08886675 0.07984318 0.051978566
000040 b8 3e 94 3d c3 c9 12 3e bb 7e 31 3e d4 c3 0c 3c
       0.07238525 0.14334778 0.173335 0.008591611
000050 20 6e b5 bd 73 ed ba bd 48 13 09 3d ec 66 5a 3d
       -0.08858895 -0.09127321 0.033465654 0.05332081
000060 61 1d 80 bd a9 71 aa bc 3b b0 c4 3d 28 51 01 be
       -0.062556036 -0.02080615 0.09603926 -0.12628615
000070 d2 d7 28 be 31 1f ce 3d f0 d2 d2 bd 70 ad 59 bd
       -0.16488579 0.10064543 -0.102941394 -0.05314392
000080 f3 8a a4 bd b9 38 74 bc ea 64 4a bd 17 43 16 bc
       -0.08034315 -0.014906102 -0.049412645 -0.009171269
000090 11 dd 85 bd 4a 6f ce bc 48 05 12 3b 6c 5c 35 be
       -0.06536306 -0.025199551 0.002228098 -0.17711037
0000a0 6c fd bd 3d bd 90 1c be c7 7a 55 3d be 7d ab bd
       0.09276852 -0.15289588 0.052119043 -0.08373593
0000b0 8c a5 a8 bd 44 58 ab 3d 32 98 26 bd a1 f6 e5 bd
       -0.082347006 0.08366445 -0.04067249 -0.11228681
0000c0 b8 69 e5 3c cc 0f e3 bd 31 21 81 bd 86 81 03 3e
       0.028004512 -0.110869974 -0.06305159 0.12842378
0000d0 53 61 04 3d e1 3d c9 bd b9 6d 2f 3d 06 f5 85 3c
       0.032319378 -0.098262556 0.04282925 0.016352188
0000e0 2c ba 69 bc 7c 34 12 be 66 8c 18 3c 3a 63 20 be
       -0.014265578 -0.14277834 0.009310817 -0.15662852
0000f0 55 2c 0c bc 88 ce 9e 3d cd 16 13 be 71 4e 85 bc
       -0.008555491 0.077542365 -0.14364167 -0.016272755
000100 ce d5 aa bd 21 17 a3 bd e1 03 86 3d 5e 73 eb 3c
       -0.08341561 -0.07963396 0.065437086 0.028741535
000110 01 13 e0 bd 5d a2 2a be fe 92 2c bd 45 96 53 be
       -0.10941125 -0.16663499 -0.04213237 -0.20662792
000120 8c 19 e4 bd 7e fc 1b be b8 94 27 3d db 5e 14 bd
       -0.11137685 -0.15233037 0.040913314 -0.036223274
000130 6d c7 10 3e da a4 04 be 07 4c 6e 3c 12 30 66 bb
       0.14138575 -0.12953511 0.0145444935 -0.0035123867
000140 24 d2 1e bc c7 c6 19 bd 4b 35 35 3d b8 25 42 3d
       -0.009693656 -0.037543084 0.044240277 0.047399253
000150 06 b1 c2 bc 57 e5 0c 3e 67 14 fc 3c 93 3b c8 bd
       -0.023766052 0.13759361 0.030771447 -0.09776988
000160 7d 1e d8 bd 24 52 e9 3d 56 4c 36 be da b7 0a 3d
       -0.1055269 0.1139262 -0.17802557 0.03386674
000170 14 bb c9 bc 23 e5 74 3d 67 be 52 be fe 20 07 be
       -0.024625339 0.059788834 -0.20580445 -0.1319618
000180 75 9d d2 3c fb 27 0f 3d d7 3a 24 3c 4f 24 9a bd
       0.025709847 0.034950238 0.010023794 -0.075264566
000190 c5 f6 1f be bf 88 9f bd 9f 7b 78 3c cc d1 fb 3d
       -0.15621479 -0.07789754 0.015166192 0.12295875
0001a0 4b de 16 bd df 8c a4 3d 16 f6 22 be 32 5e 01 bb
       -0.03683309 0.080346815 -0.15914187 -0.0019739983
0001b0 a5 65 2e be c9 7a 08 be 2f da b2 bd 53 71 ac 3d
       -0.17030962 -0.13328089 -0.087330215 0.084200524
0001c0 f7 69 97 3d b4 50 25 3e 6a 6d b9 bd bb c0 47 3d
       0.07393258 0.16144067 -0.09054072 0.048767786
0001d0 22 4d ad bd ef 2c 2f 3d b8 9a d8 bd 89 eb 80 3d
       -0.084619775 0.04276746 -0.10576385 0.06294925
0001e0 44 93 b9 bd 04 7f 0b be 84 5c c8 bc a5 49 c7 bd
       -0.09061292 -0.13622671 -0.024458177 -0.097308435
0001f0 37 9a 07 be 7b 92 a5 bc 03 93 62 bd a8 05 ce 3d
       -0.13242422 -0.020211449 -0.055315983 0.100596726

_policy.4.weight f4 [128, 128]
000000 fa 5f 37 bd 54 4b 46 bd b3 49 76 bd 45 3a 04 bd
       -0.044769265 -0.048411682 -0.06012888 -0.032282133
000010 06 e3 99 3d 2d af 69 3d 6e 27 7e 3e 50 df 86 3e
       0.075140044 0.057051826 0.24819729 0.2634225
000020 60 13 ef bc db d6 23 3e a4 0d 8c bd a3 b8 02 be
       -0.029184043 0.1599993 -0.06838539 -0.12765746
000030 a9 3a 34 be b1 c0 9c 3e 85 a5 c8 bd 7d 71 32 3e
       -0.17600502 0.30615762 -0.09797195 0.17426105
000040 66 c2 43 be 23 3d 15 3e c8 c9 b5 be 19 7a 7c bd
       -0.19117126 0.14574103 -0.3550551 -0.06163988
000050 bb 6b 01 be b3 de 69 be 7d 2c ab bd 99 ec f2 3d
       -0.12638752 -0.2283886 -0.08358095 0.11861534
000060 84 0f 1b 3d db 63 0b be 77 ba 18 bd ec a9 5c bb
       0.037856594 -0.1361231 -0.0372872 -0.0033670617
000070 3b 74 6e 3d 00 aa c0 bd 85 a1 0f 3e c8 5a cb be
       0.058216315 -0.09407425 0.14026459 -0.39717698
000080 26 3d a6 be aa 55 28 bd dc b5 30 3e 73 29 2a be
       -0.32468528 -0.04109732 0.17256874 -0.16617374
000090 e1 2a 06 bc ce f1 10 ba e9 ca e3 bd 69 59 11 bd
       -0.008188934 -0.0005529196 -0.111226864 -0.03548566
0000a0 30 4a b6 be 3f 88 1e 3c fd b6 0f 3c 88 e3 2c be
       -0.35603476 0.009676038 0.008771655 -0.16883671
0000b0 ab 04 d9 bd de 88 20 3e f6 ac 3a bd 99 0f 98 bd
       -0.105965935 0.1567721 -0.045575105 -0.0742485
0000c0 69 7b 48 3e 2a e0 3e 3d 6c 47 78 be 22 09 6f 3d
       0.19578327 0.0466005 -0.24245995 0.05835832
0000d0 18 26 e1 3d 9e c8 3e 3d 5e 44 f4 be d8 f8 08 3e
       0.10993594 0.046578042 -0.4770841 0.13376176
0000e0 4d 98 1b 3e 4a d7 0b bd f2 50 06 3e 7b 97 0d 3e
       0.15194817 -0.034140863 0.13116816 0.13827316
0000f0 9c b7 e3 bd b9 49 89 bc 9e 46 8d be 47 1d 22 bd
       -0.11119005 -0.016758787 -0.2759294 -0.039578702
000100 e5 14 7b 3c 83 86 ec be 2d 4f 35 be bf e2 81 be
       0.015324806 -0.46196374 -0.17705984 -0.25368306
000110 dd ee b8 3b 51 11 87 be 46 9c 4e 3d 96 b7 8d be
       0.005643709 -0.263804 0.050442003 -0.27679127
000120 4a 7a 02 3e f9 2a 9a bd e5 03 3f be ee 6f 83 3e
       0.12741962 -0.07527728 -0.1865383 0.25671333
000130 88 31 b5 3e 47 0a 5e 3e 17 a1 0c be 62 49 b2 be
       0.35389352 0.21683608 -0.13733326 -0.34821612
000140 23 ac 39 bf 64 99 11 bc 4e b0 8f be 63 79 9d 3d
       -0.72528285 -0.008886669 -0.28064197 0.07689168
000150 51 44 d7 3c 3b 4f 81 3c 0c c1 39 be 29 3b 00 bf
       0.026277693 0.01578485 -0.18140048 -0.5009027
000160 7b 5e 57 3d 5c d5 7d bd e5 70 b0 3e 8c 8a 1b be
       0.052580338 -0.061971053 0.34461132 -0.1518957
000170 fe 3b 91 3e 14 be 0f be b1 b3 ae be 3b 29 3b 3d
       0.28366083 -0.14037353 -0.3412147 0.045693617
000180 78 2b 91 3e 56 52 d5 bb 5b db 4a be 1a dd 67 bc
       0.28353477 -0.0065100593 -0.1981024 -0.014151836
000190 36 d7 fa be 6d 1b b3 3e 63 b8 3a 3e 2b 71 8d bc
       -0.48992318 0.34981862 0.182344 -0.017265877
0001a0 58 15 45 bd 21 95 cd 3e bf 9c 26 be 13 26 8f 3d
       -0.048116058 0.4015284 -0.16270731 0.06989684
0001b0 31 42 eb 3d 23 a0 a9 3e 0e 6e a6 3d 00 49 0f 3d
       0.114872344 0.33129987 0.0812646 0.034981728
0001c0 0c 11 9c be 45 13 90 be d3 2f 93 3e e7 ae 35 bd
       -0.30481756 -0.281397 0.28747424 -0.044356253
0001d0 69 87 6b be 20 ef 89 be d3 42 71 3e b6 6f 6b bd
       -0.23000874 -0.2694025 0.23560648 -0.057479583
0001e0 19 24 e4 3d 5b 71 60 be e6 2e 8b bc 2c 27 21 bf
       0.111396976 -0.21918242 -0.016990136 -0.62950397
0001f0 7e 9b db bc ed 6e ad 3e 29 91 40 be cd e4 28 3e
       -0.026807543 0.33873692 -0.18805374 0.1649353
000200 e9 e4 ae bd c2 1c 6d 3d e6 c7 54 be d6 a2 88 bd
       -0.08539755 0.057888754 -0.2077938 -0.066716835
000210 24 ea fc 3d cc 45 5c 3e c5 39 8c 3d 2e 0e a6 be
       0.12349346 0.21511 0.06846956 -0.32432693
000220 5e c8 a7 3c 00 ef 92 bc ba aa 40 3d 30 f5 37 bd
       0.020481285 -0.01793623 0.047037818 -0.044911563
000230 3d 03 98 be e2 03 94 3e 76 e2 9f 3d b2 83 50 be
       -0.2968997 0.28909212 0.07806866 -0.20362738
000240 64 d5 05 be fe 24 5d 3e 35 36 71 3e 8a b7 02 bd
       -0.13069683 0.21596143 0.23555835 -0.031913318
000250 07 bb 0d bf e9 1c f9 3d f1 8d 66 bd 89 83 b2 be
       -0.55363506 0.12163717 -0.05628771 -0.34865978
000260 44 4f 4e be d0 7d b5 3e 5d 93 07 3e 88 11 d2 3c
       -0.20147425 0.3544755 0.13239808 0.025643125
000270 80 46 3a bc 9c a8 bf 3d 8a 20 2e 3e 08 fd c8 3d
       -0.011369348 0.093583316 0.170046 0.09813887
000280 97 e4 17 3d e1 66 89 bd bc 06 42 be a8 48 0a be
       0.037083235 -0.06709076 -0.18947881 -0.13504279
000290 1b 53 b8 bd 23 d8 8b be 0a d9 88 bb 65 bf 9a bd
       -0.09000226 -0.27313337 -0.0041762637 -0.07556037
0002a0 73 29 f9 bd 1e 0f 8d be 72 e8 99 be ad 9e 01 3e
       -0.12166109 -0.27550596 -0.30060154 0.12658186
0002b0 5d 40 a5 bd d4 47 d2 bd 24 11 8c bf c8 0b 92 3e
       -0.08068917 -0.102676064 -1.0942731 0.28524613
0002c0 7f bc 11 3e 8d c6 68 bd 4e 94 82 3b 51 45 e2 bd
       0.14232062 -0.056829978 0.0039849645 -0.11048377
0002d0 79 19 9b be 2d f9 27 3e 97 72 71 be e1 41 f6 3e
       -0.30292872 0.16403647 -0.23578869 0.48097137
0002e0 44 e3 8f be 7b 58 34 bd 80 82 03 be 0d 1d 3e bd
       -0.28103077 -0.044029694 -0.1284275 -0.046414424
0002f0 49 ae 04 3e f7 0c 4f be 4a ad 01 bf b9 b8 c1 bd
       0.1295711 -0.2021979 -0.50655043 -0.09459061
000300 4f 33 b1 bd b4 69 d6 3c 37 2c 61 be 3d 47 33 3d
       -0.086523645 0.02617345 -0.21989523 0.04376911
000310 c3 d3 44 3e 74 93 46 3d 96 dd 0f bd ee 8f e2 be
       0.19221406 0.048480466 -0.03512343 -0.44250435
000320 49 44 38 bd 14 f9 fb 3c 10 a0 40 be 9f 91 b9 be
       -0.044986997 0.030758418 -0.18811059 -0.36243913
000330 1f 4b 19 3e 62 85 ee bd 0d 9a b1 be af 22 82 be
       0.14970063 -0.116465345 -0.34687844 -0.25417086
000340 4a e1 23 3e 3f 5a 8e 3e 6c 9d 2c bf b0 eb 7f 3d
       0.1600391 0.27803227 -0.67427707 0.06248063
000350 88 1a b5 bd d9 95 07 be 22 1c 83 3e 6c f3 72 be
       -0.08842951 -0.13240756 0.256074 -0.2372567
000360 23 c6 6b bf e2 9d 5f 3d 87 5a ff 3d 7f b0 5d bd
       -0.9209921 0.05459393 0.124684386 -0.054123398
000370 1d bb 16 3c b2 b3 fe be b4 c3 c5 be 1a 9f b0 bd
       0.009199885 -0.49746472 -0.38625872 -0.08624096
000380 49 d0 03 3f 73 f2 29 bf 75 64 c1 3e f9 4f 21 3d
       0.5148969 -0.66385573 0.37771955 0.03938291
000390 5f c8 19 bf 6b 0d 30 be eb 94 29 bd b7 e2 20 3d
       -0.6007137 -0.17192619 -0.041401785 0.039278712
0003a0 da 0d c1 bb 6a 12 0f bd 9f e7 2a bf 2a de a2 3d
       -0.005891544 -0.03492967 -0.66759676 0.07952531
0003b0 7c ce f8 3c 72 f4 9a 3d ef 2f 5c bd 29 35 9c be
       0.030371897 0.075661555 -0.05375665 -0.30509308
0003c0 c7 4a ce 3d 12 25 0a be 50 c1 c8 bc 2a 77 65 bd
       0.100728564 -0.13490704 -0.024506241 -0.056021847
0003d0 51 c8 86 be c5 93 89 3d 7e 22 af bd 7c e7 aa 3c
       -0.26324704 0.06717638 -0.08551501 0.020862333
0003e0 7e 66 b4 be d4 e7 16 bd d5 89 e5 bd ca 2e eb bd
       -0.35234445 -0.036842182 -0.1120793 -0.11483534
0003f0 dc 1f d3 bc 10 10 f2 3d 95 61 b3 bd e1 d7 76 3e
       -0.025772028 0.1181947 -0.08758847 0.24105789

_policy.4.bias f4 [128]
000000 e3 b4 45 3d 96 13 61 3c 27 db 0f 3e 82 ca 0d be
       0.04826821 0.01373758 0.14048444 -0.13846782
000010 38 ff a9 bd c3 a0 3a be e0 24 e7 bd 77 01 50 be
       -0.08300632 -0.18225388 -0.1128633 -0.20313059
000020 e4 74 3b be b8 1a af bd 91 7b 4a 3d 13 b5 5f 3e
       -0.18306309 -0.08550018 0.04943425 0.21846418
000030 39 23 1c be 71 ea d0 bd 03 2a c3 3d de 89 e9 3d
       -0.15247811 -0.10200966 0.095294975 0.11403249
000040 42 d9 9f be 8b f6 44 3d 56 9c e7 be b0 31 80 be
       -0.31220442 0.048086684 -0.45236462 -0.2503791
000050 ac b4 82 bc 05 b9 e3 3d 64 a9 d4 bd 31 17 9e bd
       -0.015955292 0.11119274 -0.10383871 -0.07719267
000060 f2 d6 08 bc e7 ab cf bd 75 7d 48 be fb 63 9c bd
       -0.008352028 -0.1014021 -0.19579108 -0.07636257
000070 28 b4 a1 3b f4 34 e7 bc b2 a0 7d be a6 75 90 3d
       0.0049348064 -0.028223492 -0.24768332 0.0705369
000080 d4 bf 04 3d a8 3f 42 3e 3e 11 f0 be 2f 59 83 be
       0.032409504 0.18969595 -0.46888155 -0.2565398
000090 fe be 31 3d dd 13 cf be a1 b4 9f bc 48 f0 2f be
       0.043395035 -0.40444842 -0.01949531 -0.17181504
0000a0 2a c2 52 3c 1b 2c 0f 3c f7 b4 d4 bd b7 fb 46 be
       0.012863675 0.008738543 -0.10386079 -0.19431959
0000b0 9f 83 a2 3c d2 36 31 be ac 9a 1f be d8 06 88 bd
       0.019838152 -0.17306069 -0.15586346 -0.0664193
0000c0 55 3e b7 3d f9 2a 03 3e 4c f2 cc bd c4 2e 65 bd
       0.08947436 0.12809362 -0.10007152 -0.055952802
0000d0 c0 45 e0 3d 95 87 63 be 9c 36 1d 3e 18 67 58 bd
       0.10950804 -0.22219689 0.15352863 -0.052832693
0000e0 40 79 24 be 1b b8 01 be 3a 01 34 be d2 bc a2 3b
       -0.16061878 -0.12667887 -0.17578593 0.004966357
0000f0 a8 bd 96 bd 97 b9 1d be 94 60 5b be 57 f4 a3 3b
       -0.07360393 -0.15402828 -0.2142356 0.005003493
000100 95 a7 91 3d 92 7d 38 bd f1 5c c4 bc 6f 09 68 bd
       0.07112042 -0.04504163 -0.0239701 -0.05664962
000110 93 0a 39 be fa a3 d6 bd d3 d8 77 bd 50 89 93 bd
       -0.1807044 -0.10480495 -0.060509514 -0.07203925
000120 8b e6 80 be 4d a2 ff bd 29 8d 4d bd e3 87 11 be
       -0.2517589 -0.12482128 -0.05018345 -0.14211993
000130 01 08 98 3d 15 d2 5f 3d d4 d9 06 bc cf 3f dd 3d
       0.074234016 0.05464371 -0.008230645 0.10803186
000140 8b b3 3e be 6d 2f 74 bd 40 50 7b bd a5 2f f9 bd
       -0.18623178 -0.05961554 -0.06135583 -0.121672906
000150 4a ea 80 be af 76 90 3e ac 8a ae 3d 13 7e d7 bd
       -0.25178748 0.28215548 0.08522543 -0.105220936
000160 35 a2 6f be 2d b9 c9 bd fc 25 5e 3e dd 3e 08 be
       -0.23401721 -0.098497726 0.21694177 -0.1330523
000170 b7 61 9b bc 3f 6d ad bd cf e4 2a be 37 30 8d bc
       -0.018967493 -0.08468103 -0.16688846 -0.017234905
000180 d7 96 c6 be 4c 31 8b bd dd 54 05 bc 80 ab 8f 3d
       -0.38786957 -0.06796512 -0.008137909 0.07015133
000190 d6 a2 ca 3d 0c 81 3b be dd bd 52 be 6e 1b e6 3d
       0.0989434 -0.18310946 -0.2058024 0.112357005
0001a0 93 ac 28 be c6 53 34 3e 85 c1 fc 3d 33 99 8a 34
       -0.16472082 0.17610082 0.123415984 2.581597e-07
0001b0 c8 25 13 be ee e2 97 3c 11 cc 09 be dd 21 d4 3c
       -0.14369881 0.018540826 -0.13456751 0.025895054
0001c0 07 88 76 be bd 68 41 bd be 53 43 bd eb 26 18 3d
       -0.24075328 -0.047219027 -0.047687285 0.03714649
0001d0 e6 b9 c3 3d d7 62 ac be 1b 1a 76 bd 47 89 9d be
       0.09556942 -0.3366916 -0.06008349 -0.30768797
0001e0 2f 81 90 bd fa ee 16 be 5d 5c 9d bd 88 95 a5 3c
       -0.0705589 -0.147396 -0.076836325 0.020212904
0001f0 48 db 2d bd ec 89 58 be e5 26 e8 3c 92 49 85 3d
       -0.04244545 -0.21146363 0.028338859 0.06508173

_policy.6.weight f4 [128, 128]
000000 a6 81 b6 be da 36 3c 3d 38 05 38 be e3 fd d2 bc
       -0.3564579 0.045950748 -0.17970741 -0.025755828
000010 67 99 fe bb 0b 5d 5a bf 11 fb 0b 3e 12 5a db 3e
       -0.007769752 -0.8529822 0.13669993 0.42842156
000020 af 46 f2 be 01 7f b9 bd f6 9f 9f 3e 25 d0 24 be
       -0.47319552 -0.09057427 0.31176728 -0.16095026
000030 b0 04 d9 bd 85 9d d7 3e f5 4b 9d be ac 79 07 be
       -0.10596597 0.42112365 -0.30722013 -0.13230008
000040 fe b3 20 be 1d a9 e0 bd 10 53 69 3e 20 38 6c be
       -0.15693662 -0.10969756 0.22785592 -0.23068285
000050 92 9a 53 3e ec bd 8a 3d 25 dc 3a bd 09 af b3 bd
       0.20664433 0.06774506 -0.045620102 -0.0877362
000060 5a 38 84 be 2b ad ea bd 4e b2 01 bf 73 b7 a7 3d
       -0.25824243 -0.114588104 -0.50662696 0.08189287
000070 be 97 70 be 82 c8 f8 bc ab 5c 56 3e 55 3a a7 3e
       -0.23495385 -0.030369047 0.20933788 0.3266169
000080 c0 f2 a6 3d f7 e5 34 3e a1 01 af 3e 5c 20 99 3e
       0.0815177 0.1766585 0.3418093 0.299075
000090 fe 38 0a 3e 97 cb 37 be 3f 8b 83 3e 86 39 3a be
       0.13498303 -0.17948757 0.25692174 -0.18186006
0000a0 c1 9d 06 bf 37 e6 9f bc 31 42 dc 3d 34 9e 92 3e
       -0.52584463 -0.019518955 0.107548125 0.28636324
0000b0 bf 50 4b be 74 88 e3 be 95 55 41 be d6 4a 8d be
       -0.19855021 -0.44440043 -0.18880303 -0.27596158
0000c0 a1 0b 48 be 15 20 83 3d ca 92 57 bd 8f a1 1a 3d
       -0.19535686 0.064026035 -0.052630223 0.03775173
0000d0 84 b8 4b 3e 25 0f 02 bd 1b 23 50 be fa 71 14 bf
       0.19894606 -0.031752724 -0.20325892 -0.57986414
0000e0 d2 d0 44 be 51 17 a3 bd b2 21 de bd 99 ce f5 bd
       -0.19220284 -0.079634316 -0.108462706 -0.12002296
0000f0 70 4a 3d 3e c9 f5 45 be fc 6f c0 bc 38 3b d6 bc
       0.18485427 -0.19332041 -0.023490898 -0.026151285
000100 ab 07 73 bf 63 46 80 3e 9c 5c ce bd cb 81 be be
       -0.94933575 0.250537 -0.100762576 -0.372084
000110 52 58 45 3d fc a0 d0 3d 57 eb 90 3e fd bb 61 3d
       0.048179932 0.10186955 0.2830455 0.05511092
000120 3a 35 91 3e 08 66 a3 bd e0 e2 50 be 1d a8 45 3e
       0.2836092 -0.07978445 -0.20399046 0.19302411
000130 12 3c d6 3e 9f 63 16 be 89 73 df 3e 41 e3 07 3d
       0.41842705 -0.1468644 0.43642834 0.03317571
000140 1c 07 0d be 2c ea f3 bd 80 a0 62 be c1 28 d3 be
       -0.13772243 -0.11909899 -0.22131538 -0.4124203
000150 76 f2 40 bd e5 59 fa bd 67 b3 1b be f5 5f 8e bc
       -0.04710623 -0.12224177 -0.15205155 -0.01737974
000160 59 d1 ed bc ce 3f 31 be 26 56 9c 3e 9e ea a1 bd
       -0.029030489 -0.17309496 0.30534476 -0.07906078
000170 47 a4 45 3e f8 9e 6d bd 48 85 6b be aa 19 0f bf
       0.19300948 -0.058012933 -0.23000062 -0.55898535
000180 e3 7e 86 bc 57 28 38 bd aa 46 8f bc cc 1e 40 bf
       -0.016417926 -0.044960346 -0.01748975 -0.7504699
000190 d4 f5 21 3d a7 c4 cb 3c 53 15 ac be ae 5e d9 3e
       0.03954108 0.024874045 -0.3361002 0.42455047
0001a0 ef dc 8e bd 53 b6 14 bd f6 d0 eb 3d 9c 8b 88 3e
       -0.069757335 -0.03630669 0.115144655 0.26669014
0001b0 ab a2 a1 be a7 fd c9 be 62 67 3c bd d1 ec f4 bd
       -0.31569418 -0.39451334 -0.04599703 -0.11959232
0001c0 28 dc b8 3d ca 6f 96 bd bf d6 ea bd 9b 3c 8a 3e
       0.090263665 -0.07345541 -0.11466741 0.26999363
0001d0 99 d1 db 3d d7 56 3a 3e e1 bc ef bb a6 f6 dd 3d
       0.10733337 0.1819719 -0.0073162173 0.1083806
0001e0 8e 21 91 3e b4 0b 09 b8 70 87 5a 3e 97 2c c4 be
       0.28345913 -3.2674245e-05 0.21340728 -0.3831527
0001f0 6a 06 ba be 3a 0a 29 3e 4a 89 6c be 6e 62 4a bd
       -0.3633302 0.16507807 -0.23099247 -0.049410276
000200 38 19 be bc c5 ab 77 3e 02 d7 af be 55 7b e3 3d
       -0.023205385 0.24186619 -0.34343725 0.11107508
000210 56 ce db be f6 00 17 bd 2e 37 12 bf 1c 7d df bc
       -0.4293086 -0.03686615 -0.5711545 -0.027281336
000220 62 a0 bf bd 91 40 53 bd ab 56 29 be aa 23 ae bd
       -0.093567625 -0.051575247 -0.16536967 -0.08502896
000230 6d 6e 94 be 03 30 d0 3c 1c 76 b1 be 42 e6 06 bf
       -0.28990498 0.025413519 -0.34660423 -0.52695096
000240 01 80 b7 3d 57 c8 31 be d8 f4 36 bf 35 6f 97 3c
       0.08959962 -0.1736158 -0.7146735 0.018485645
000250 66 01 95 3d e4 99 ac be 94 cc c3 bd 20 30 e0 3d
       0.07275657 -0.3371116 -0.095605046 0.10946679
000260 08 b8 5d bd 1f bd 95 be f8 dd bc 3c 07 0a d4 3d
       -0.054130584 -0.2924585 0.023055062 0.10353475
000270 1a 32 a3 be e0 8e bc be 23 f0 48 bd 03 79 eb 3d
       -0.31874162 -0.36827755 -0.049057137 0.114976905
000280 e7 a2 1a bf 84 2b 82 3d e3 a4 85 3e b9 09 5f 3e
       -0.6040482 0.06355956 0.2610236 0.21781053
000290 92 db 3d bd b2 aa ae bc e5 52 c0 bd cb 4a ac 3d
       -0.046351977 -0.021321628 -0.09390811 0.08412703
0002a0 e3 66 0d ba 7e fa 52 be ad 13 83 bf 77 55 6a be
       -0.00053940545 -0.20603368 -1.024038 -0.22884165
0002b0 e9 bd cc 3e b7 7f b4 be 6c bc 07 bf 6c d1 95 bd
       0.3998864 -0.3525369 -0.53021884 -0.07315335
0002c0 2c 4c e6 be 97 fd 2c 3d f9 c1 3a bf 32 c8 97 be
       -0.4497999 0.04223403 -0.7295223 -0.29644924
0002d0 d8 59 24 3e 4f 83 e9 be a5 b0 15 be d3 76 88 3e
       0.16049898 -0.45607993 -0.14618166 0.26653156
0002e0 de 19 34 3c 24 b2 2d 3e 98 96 2f be 9a bf 96 bd
       0.010992495 0.16962487 -0.1714729 -0.07360764
0002f0 f7 9e 8d be 51 fb d5 3c 1f 81 d2 3d 7b 9c 17 bd
       -0.27660343 0.026120814 0.10278534 -0.037014466
000300 ff 89 fa bc 85 0c bd 3e 20 78 bb be 78 92 22 3d
       -0.03058338 0.36923614 -0.36615086 0.039690465
000310 80 bb 20 bf ee a7 fc be c8 5b 8b be 29 50 81 3e
       -0.627861 -0.4934687 -0.2721846 0.2525647
000320 9b 6a 11 bf c1 43 74 bc 25 99 9d 3d 1e ca 49 be
       -0.5680329 -0.014908732 0.076952256 -0.19706008
000330 45 d7 11 3e d6 de 64 bf 8f fe bc be 18 11 2b 3e
       0.14242275 -0.8940252 -0.36912963 0.1670574
000340 4f be d5 bd f2 64 2e 3e 99 60 d8 be 03 74 be be
       -0.10436689 0.17030695 -0.42261198 -0.37197885
000350 14 44 17 3e 22 02 57 bc 67 04 a0 3e a7 4f 06 bf
       0.14772063 -0.013123067 0.3125336 -0.5246529
000360 ab 01 96 3e 09 81 db be 43 fc 6d be e7 07 c0 3d
       0.29298148 -0.42871884 -0.23240761 0.09376507
000370 df b4 92 3e 62 e4 11 3d 42 f3 03 3d 96 2d 2f 3e
       0.2865362 0.035618193 0.03221441 0.17107233
000380 e0 a7 a5 3d 4f 9c 09 be 61 55 58 bd 2e 37 a4 3d
       0.0808866 -0.13438533 -0.0528158 0.08018337
000390 07 bc 3a bf 78 bc 8f bc 63 4c a3 be ca 8b e7 3d
       -0.72943157 -0.017545924 -0.31894216 0.113059595
0003a0 37 f4 46 3e 35 24 c2 be 24 4c 0c 3e db a5 00 3c
       0.19429098 -0.3791825 0.1370092 0.007852043
0003b0 33 02 2c be dc 4c 33 bf 5e 01 e4 3e 07 a9 75 be
       -0.16797714 -0.70039153 0.44532293 -0.2399026
0003c0 4f 3a cf bd 62 d4 b8 bd 04 73 a7 be e3 2f 34 be
       -0.10118543 -0.09024884 -0.32704937 -0.17596392
0003d0 f7 14 b6 be 88 b2 7e bd 62 81 03 be bf 08 bf be
       -0.3556287 -0.06218198 -0.12842324 -0.3731136
0003e0 e7 8c c3 bd e6 0f 80 bf a1 e3 b9 bd 2a 72 2b 3e
       -0.09548359 -1.0004852 -0.0907662 0.16742769
0003f0 4a 2c ee be 11 b9 c0 be ab 1d 74 bd fb f8 91 bf
       -0.46518165 -0.37641194 -0.059598606 -1.1404108

_policy.6.bias f4 [128]
000000 b3 24 14 be 27 00 fd be 20 f0 5f 3e 5b 58 60 3e
       -0.14467125 -0.4941418 0.21868944 0.21908705
000010 fd 6e 06 3e 7b 09 1d 3e f9 82 e9 34 2f 26 0e 3e
       0.13128276 0.15335648 4.3494927e-07 0.13881753
000020 fd fd 0e 3e 1c 4f 04 3d 55 de 7e 3d e9 0c ec 3c
       0.13964076 0.032302007 0.06222375 0.02881475
000030 00 ff 82 3c 76 44 18 be 44 4d 8b 3e 78 bc 2b 3e
       0.015990734 -0.14869866 0.27207386 0.16771114
000040 34 dc 34 3d 42 19 63 3d bb c9 3e bd 57 1c 82 bd
       0.044155315 0.05544401 -0.046579104 -0.06353062
000050 c8 d3 83 3e de 3a 39 3e 01 26 7a 3e ae e6 60 3d
       0.25747514 0.18088862 0.2442856 0.054907493
000060 59 a6 35 3e cc 94 ea 3d d5 94 58 3d 43 65 26 3e
       0.17739238 0.11454162 0.052876312 0.16249566
000070 b1 58 a7 bd 54 24 d5 3d d8 a9 de 3d f7 31 34 be
       -0.081712134 0.1040732 0.10872239 -0.17597185
000080 78 b1 20 3e fe b4 c1 bd 1b 88 52 3e 99 e9 17 3e
       0.15692699 -0.0945835 0.20559733 0.14835204
000090 20 a6 19 3b 94 6b 37 3e 0d 81 95 3d 7e 8a b8 bb
       0.0023444965 0.17912132 0.07300005 -0.005631744
0000a0 2f 0e 54 be d0 f3 ce bd 30 cd 8d 3e 5c 6d 4c 3c
       -0.20708536 -0.10105097 0.27695608 0.012477245
0000b0 9e c3 c4 3d 54 38 82 be e8 f3 86 3e 34 f5 eb 3d
       0.096076235 -0.254336 0.2635796 0.11521378
0000c0 c4 bf b2 3d 19 cd fb bc 44 4b a8 3d 5a c0 8a 3d
       0.08727983 -0.030737447 0.08217481 0.067749694
0000d0 32 05 8c 3d 9d 9d 8a 3d 6e 0d 1f 3c 7a fd ba 3d
       0.068369284 0.067683436 0.009707792 0.09130378
0000e0 b6 05 49 3d 9f c4 c3 3e 3f 01 94 3d 62 55 24 3e
       0.049077712 0.38235947 0.072268 0.16048196
0000f0 e6 bd e5 bc 36 07 36 3e 7e 93 ba 3d 47 7d 7b 3e
       -0.028044652 0.17776188 0.09110163 0.24559508
000100 88 d5 c7 bd 36 6c 24 3e 83 a5 6d 3e dc 25 45 3e
       -0.09757525 0.16056904 0.23207669 0.19252723
000110 f0 93 5c 3b 20 fd 65 3e 01 a8 1b be 5d 47 a8 3d
       0.0033657514 0.22459841 -0.15200807 0.082167365
000120 6d 70 19 3d d5 7a 10 3e 0f f1 83 bd c1 9b e6 3d
       0.037460733 0.14109357 -0.06442463 0.112601765
000130 37 13 af 3e 98 32 8b be ce 2c ee 3d a8 84 dd 3b
       0.34194347 -0.27187037 0.116296396 0.0067601986
000140 5c f8 05 3e 9a 7b e8 3a 82 d4 3f be 51 4e 1c be
       0.13083023 0.0017737031 -0.18733409 -0.1526425
000150 5b ba 85 3e d8 2e 1a 3d a3 4a 94 be 7b b2 6a 3d
       0.2611874 0.03764233 -0.28963193 0.05729912
000160 43 08 44 3e b5 7e 01 3e ad 3a bd bd 7e f6 77 3e
       0.19143777 0.12645991 -0.09239707 0.24215123
000170 7a da 76 3e 69 91 4a 3e 9f f8 60 bd 02 fa 17 bd
       0.2410678 0.19782032 -0.054924604 -0.03710366
000180 0f fd 94 bd 5f d4 3b 3e 00 e5 d0 3d bd 6a b6 bd
       -0.072748296 0.18342732 0.10199928 -0.089070775
000190 67 a7 71 3d fe cf ab bd ef 8a 34 bd 60 32 0d 3e
       0.058997538 -0.08389281 -0.04407781 0.13788748
0001a0 2a 50 42 bc 4f 8c 5e 3e 57 e7 e7 3d 42 2a f6 3d
       -0.011859933 0.21733211 0.113234214 0.12019779
0001b0 69 55 fd be 02 19 aa 3e 9d c9 9f 3d d0 3c cd 3c
       -0.49479225 0.33222204 0.078021266 0.025053412
0001c0 51 81 32 3d 90 7a ff bd ce 86 e8 3c 55 a9 33 3d
       0.043580357 -0.12474549 0.028384592 0.04386266
0001d0 2c 98 05 3e 30 d8 40 3e 75 9a 57 be 6d 87 20 3e
       0.1304633 0.18832469 -0.21055014 0.15676661
0001e0 fa 45 58 3e a6 77 a8 3e 05 67 66 3e 9f f0 fc bc
       0.21120444 0.32903785 0.22500236 -0.030876456
0001f0 b1 8e 9d 3e bb 34 15 bd ea 83 b6 bd 1d 1e 39 3c
       0.30772927 -0.03642724 -0.08911879 0.0112986835

_policy.8.weight f4 [3, 128]
000000 68 fa 96 bb 9a 1d 6c 3d 84 c2 1f be bc 27 00 bf
       -0.0046074875 0.057645418 -0.15601546 -0.5006063
000010 25 cc f3 be 80 64 8d be c5 a0 30 bf 58 61 83 be
       -0.47616687 -0.27615738 -0.68995315 -0.25660205
000020 f4 42 1d 3f 47 55 5d be 3c c7 fc 3e 14 6d 2e 3f
       0.6143029 -0.21614562 0.49370754 0.6813519
000030 88 fa 03 be 4b 7a eb bc ef 15 38 bf 50 e1 23 bd
       -0.12888539 -0.028744837 -0.7190847 -0.040009797
000040 c4 c5 83 3e 78 78 95 3e f2 0c d2 be 6f 6f 71 bd
       0.2573682 0.29193473 -0.410255 -0.058944162
000050 6d 37 6b be 09 04 1c be 04 30 e1 3d 81 8a 60 3e
       -0.22970362 -0.15235914 0.109954864 0.21927835
000060 1e b6 54 bc 43 70 bc be f5 42 86 3e 1f 3f 2e be
       -0.012982873 -0.368044 0.2622296 -0.17016266
000070 0d 59 32 bf 6f 32 be 3e d7 18 d0 bd 99 ce 0f 3d
       -0.6966713 0.37147853 -0.10160988 0.035109136
000080 83 c8 4b be 66 e5 0b bd d7 00 18 be cd d9 db 3e
       -0.19900708 -0.03415432 -0.1484407 0.42939606
000090 a1 88 ff be fc fe f4 3e a8 19 d6 bd a9 56 66 be
       -0.49908927 0.47850788 -0.10454112 -0.22493996
0000a0 ec 96 fc 3e 9e f1 10 bc 5e d1 4d bb 48 2c 24 3f
       0.49333894 -0.0088466685 -0.003140531 0.6413007
0000b0 49 98 ac 3e 25 da d4 be 94 8e 4b 3f 06 98 22 3e
       0.33709934 -0.4157268 0.7951443 0.15878305
0000c0 61 12 0b be 24 c8 90 bd 79 cb 90 3e 34 aa 88 be
       -0.1358123 -0.07069424 0.28280237 -0.26692355
0000d0 9d 3b 94 be 95 76 37 3e 7d d6 c3 bd 48 68 59 be
       -0.2895173 0.17916329 -0.09562395 -0.21231186
0000e0 ee 9f 6f 3c b3 ce af be 93 94 3e 3e db 82 95 3e
       0.014625533 -0.34337386 0.18611364 0.29201397
0000f0 de df 4a bc e6 b6 16 be 02 7e 00 bf 60 72 11 bd
       -0.012382476 -0.14718208 -0.5019227 -0.035509467
000100 3e 81 91 3e 43 c5 5e 3e 6e ad 35 3f b7 45 31 be
       0.28418916 0.21754937 0.7096776 -0.1731175
000110 df c1 e2 3e cf 3d 37 be d3 76 12 3f e9 82 f0 3d
       0.44288537 -0.17894672 0.5721256 0.11743719
000120 11 28 af be 2d e9 a6 3e 5c e3 46 3f 08 f2 92 bd
       -0.34210256 0.32599774 0.7769067 -0.0717507
000130 80 a5 1f be ef b5 83 3f 47 77 80 bd c1 ee ff 3e
       -0.15590477 1.0289897 -0.0627275 0.49986842
000140 09 b4 fc bd 94 14 4d be 53 31 6a bf 91 0a 11 bd
       -0.123390265 -0.20027381 -0.9148151 -0.035410468
000150 fb ff 8f be d5 72 85 3e f3 79 84 bf 32 f8 df bd
       -0.28124985 0.26064172 -1.0349716 -0.109360114
000160 17 7f be be a7 d5 2f 3e dc 1f 7f be a5 aa 2d be
       -0.37206337 0.17171346 -0.24914497 -0.16959627
000170 1a be 29 be 1f 79 16 be c2 ff 00 3f b1 7a 0f 3f
       -0.16576424 -0.14694642 0.50390255 0.5604659
000180 26 a2 53 bc d1 e2 b5 bd 53 73 e5 3d 2a f8 1c bf
       -0.012917077 -0.088811524 0.11203637 -0.6131617
000190 d5 2f 06 3d d5 34 11 be c1 8d 71 be b8 4e a7 be
       0.03276046 -0.1418031 -0.23589231 -0.32677245
0001a0 ad 03 60 bd 51 6d 6e 3e e2 04 b4 be 6e 9e 3a 3f
       -0.054691005 0.23283888 -0.35159975 0.72897995
0001b0 9c 57 7a 3e b0 5d af 3e 10 9c a0 be 9a cb 30 3e
       0.24447483 0.34251165 -0.31369066 0.17265168
0001c0 b9 2e 92 be ab 6f 35 be b3 70 57 3e 82 65 52 3e
       -0.28551272 -0.17718379 0.21039085 0.20546535
0001d0 d6 1a ab be ad 85 f0 be 91 f5 80 3f b5 f8 cc bd
       -0.33418912 -0.46976987 1.0074941 -0.100083746
0001e0 61 14 95 3e bd ae 82 be 27 08 64 be f4 27 06 3f
       0.2911711 -0.2552394 -0.22268735 0.52404714
0001f0 71 98 e2 3e 50 1a ea 3d a6 99 c4 3e 76 42 f9 bd
       0.4425693 0.114308 0.38398474 -0.121708795
000200 2c 5c a1 3e e4 6c 38 3f c2 5d fb bd d2 92 f3 3e
       0.31515634 0.72041154 -0.12273742 0.47572953
000210 74 2c f7 3e bf 1d b2 bd 40 fa e5 3e 77 87 fc 3e
       0.48276103 -0.0869708 0.44917488 0.493221
000220 0a 8d a2 be 35 3b fd 3e bb 98 c4 bd dd a5 20 be
       -0.3174823 0.49459234 -0.095994435 -0.15688272
000230 bd c4 10 be 3b 92 14 3e 9f 12 52 3f 3a 9f 66 be
       -0.1413755 0.14508907 0.82059664 -0.22521678
000240 6e 3b aa be a2 6f 3e be bd 78 8a 3e 71 1a cf 3e
       -0.33248466 -0.18597272 0.2704524 0.4044986
000250 87 47 cd 3e 67 62 88 3e 53 41 cc be 96 1d 10 be
       0.40093634 0.26637575 -0.39893588 -0.14073786
000260 0f c5 77 be ad 9d a0 3e 72 93 9a be df 44 8d be
       -0.24196266 0.31370297 -0.30190617 -0.27591607
000270 6a f8 b8 3e 24 d3 96 be 50 8b 8a 3e b9 9e 29 3d
       0.36127025 -0.29457963 0.27059412 0.041411135
000280 bb 89 9e 3e 20 fd 82 be 2d e8 1a bf 95 55 b8 bd
       0.30964455 -0.25583744 -0.6051052 -0.090006985
000290 13 e6 07 bc 70 9f f4 be 9d 48 c2 3e 39 fc 87 bd
       -0.0082946 -0.4777789 0.37946025 -0.066399045
0002a0 cb 4b 09 3c 4a 62 a2 3e 54 af e3 3e 4b 38 71 bf
       0.008379887 0.31715614 0.44469702 -0.9422652
0002b0 2f b2 b8 be 3f 6f 04 3f a5 91 1c bf d3 63 31 be
       -0.36073443 0.5173225 -0.61159736 -0.17323236
0002c0 e9 b4 3f be 50 83 bc 3e 67 c9 81 bc 3d 92 85 3e
       -0.18721355 0.36818933 -0.015843106 0.26088133
0002d0 3f 45 95 3e 1d e4 42 bd 60 e1 c4 3e bb d6 f1 bd
       0.29154393 -0.047580827 0.38453197 -0.11808535
0002e0 e7 96 60 3e 57 99 ae 3e ae c6 0a 3e f5 88 fb bc
       0.21932565 0.34101364 0.13552353 -0.030704955
0002f0 a1 62 10 3f 96 95 d3 bd 94 39 23 3f 18 1d 54 3e
       0.56400496 -0.10331266 0.6375973 0.20714223
000300 1b 38 11 bf f8 f1 5a bd 95 13 20 be 30 8d aa 3e
       -0.56726235 -0.053453416 -0.1563247 0.33310843
000310 2c 0b 0d bd 79 d7 ed be c2 31 c0 3d a7 7a f1 3e
       -0.034434482 -0.46453455 0.093844905 0.4716389
000320 17 55 ef 3c 3b 12 d0 be 93 11 86 bd 97 e3 5b be
       0.029215379 -0.4063891 -0.06546321 -0.21473537
000330 44 7e 91 3e 25 88 80 bf 8d 92 9e be c3 28 13 bf
       0.28416646 -1.0041548 -0.30971184 -0.5748407
000340 c9 e4 52 be f8 12 02 be 1a f1 28 3f bc 00 77 3e
       -0.20595087 -0.12702549 0.6599289 0.24121374
000350 1a 3e 98 3e 80 c5 05 3e 1b 4d 9a 3e 2a 31 b9 bd
       0.2973488 0.13063622 0.30136952 -0.090425804
000360 78 e9 ed 3e 9e e8 5d be aa bc 07 3e da c8 a0 be
       0.46467185 -0.21670768 0.13255563 -0.31403238
000370 8b 18 9e be de e7 a2 be 64 c0 07 bf 7b f7 43 be
       -0.308781 -0.31817526 -0.5302794 -0.19137375
000380 3a 13 12 bf 33 d1 ab 3e fe 43 63 bd 7a d3 53 3e
       -0.5706059 0.33558044 -0.055484764 0.2068614
000390 99 97 36 bf 69 4b 46 be 4b 88 d3 3d cd 48 9b bc
       -0.7132507 -0.19364704 0.1032873 -0.018955613
0003a0 08 e4 2e be 81 4a 88 bd c7 f1 46 be 88 57 3e bf
       -0.17079175 -0.066548355 -0.19428168 -0.7435231
0003b0 b7 5e 11 3f 29 02 a3 be a4 0d f5 3d c2 09 70 be
       0.5678515 -0.31837586 0.11965492 -0.23441222
0003c0 6b 3a 87 3e 0e f4 20 3f 98 3f 17 3e 8b f5 15 3e
       0.26411757 0.628724 0.14770353 0.14644448
0003d0 14 b2 b7 bd cc 9c bf 3d 71 13 b2 bf 0e 20 bf be
       -0.089695126 0.093560785 -1.3912183 -0.37329143
0003e0 4c 07 8d be 9c 72 38 3e b1 a4 e4 3e f5 ff f7 be
       -0.2754463 0.1801247 0.446569 -0.48437467
0003f0 89 e0 a0 be b7 78 90 3d 3e 62 28 3e 64 8b 7b be
       -0.31421307 0.070542745 0.16443726 -0.24564892

_policy.8.bias f4 [3]
000000 9d 81 ae 3d 8f 2f a6 bd 05 2f ae bc
       0.085208155 -0.0811454 -0.021262655
