logs/weight_colliion_obj_obs = 0.4/model/best_model_42.pth (torch, 427625 bytes, 19 tensors)

_policy.0.weight f4 [128, 22]
-0.2108682 -0.21319708 0.092604294 -0.08881745 -0.15056251 -0.45586804 -0.004729065 -0.03500377
-0.25051636 -0.27595022 0.042856883 -0.26501876 0.20291634 -0.22742191 0.00028046872 -0.23042609
-0.17389065 -0.12157963 -0.004157163 0.13460307 -0.11123022 0.0032716945 0.093433894 -0.08513737
-0.21678193 0.08309821 0.059265725 0.14898522 -0.13099091 0.2839502 -0.6113766 0.2748126
-0.08569285 0.11577958 0.19943531 0.07607429 0.060271356 -0.091946565 -0.07051048 0.09999096
0.0041784784 -0.14000054 -0.070987545 0.023636008 -0.032594778 0.18042895 0.06991459 0.20853499
0.25485647 0.059132446 0.072056256 -0.0186319 0.5667722 -0.04725265 0.029405631 0.14751257
0.17387226 -0.08161234 -0.054085698 -0.16775213 0.023285704 0.17419006 -0.0984332 -0.04078805
-0.050896347 -0.010110433 0.060879674 -0.027514083 -0.026402391 0.09310688 -0.05233973 -0.059936408
0.10046944 0.02590783 0.40749747 -0.53964525 0.095359914 -0.051776495 -0.07781866 -0.056991234
-0.07553227 0.14711356 -0.13521616 0.060444362 0.21190576 -0.17784183 0.034715388 0.14390251
-0.24398687 -0.3276009 -0.080461286 0.042528827 -0.10464974 -0.2653387 -0.22207104 0.032902617
0.06825422 -0.2110913 -0.01425055 0.04932998 -0.06885962 0.18853672 0.019994779 0.12584813
-0.12560219 -0.16267401 0.06638476 0.062498704 -0.14395437 0.10221631 0.03526096 0.290355
0.023003967 -0.17918687 0.18113527 0.15011662 -0.00027310476 -0.3177588 0.14846939 -0.7806127
-0.1337956 -0.33838755 0.17587307 -0.1025684 0.12857188 0.13186835 -0.19470684 0.116389245
-0.16881613 -0.0063974913 0.15328678 -0.22278324 -0.23694642 -0.108493805 0.021589383 0.22914998
-0.52105737 0.29627442 -0.0071625714 0.31837416 0.15902343 0.67200583 0.114138335 0.408087
-0.17568 0.18825544 -0.1467387 0.12840651 -0.038647447 -0.12049328 0.18493257 0.22241548
-0.062400207 -0.15114395 0.17963146 -0.35750553 0.09313145 0.20920354 -0.0056115054 -0.13002849
-0.038384423 -0.19839534 -0.35504195 -0.040964916 0.08246484 0.013445027 -0.27824867 -0.062356617
0.06759347 0.048660357 -0.109483115 0.11717949 -0.21468088 -0.055324804 -0.07450845 0.16975212
-0.19282408 0.23606 0.09225678 0.08833332 0.093359984 0.060149305 0.1355129 -0.08680618
0.38530746 -0.375471 -0.06545854 -0.1623339 -0.011302839 -0.091306694 -0.0534035 -0.1842213
0.15077093 0.1761746 0.04600371 -0.071073174 -0.14483686 0.15846986 0.23100105 -0.19091956
-0.06488072 0.019306256 -0.05523716 -0.026538376 -0.05977326 0.13359699 0.64768994 0.470695
-0.0647321 -0.034165 0.12995933 0.2572244 -0.11115176 0.0369867 0.06978994 0.11156102
0.1652632 -0.07425373 -0.011840936 0.11974924 -0.17566031 -0.17138231 0.20602542 0.19276172
-0.2032801 -0.050520264 0.2410297 0.062192917 0.59290206 -0.21525383 0.09443711 0.13625053
0.14646219 0.021349955 -0.06616468 -0.14511561 -0.17797951 0.031438995 0.2103594 -0.17482181
-0.03711234 0.092708066 0.37004212 0.03601594 -0.10484499 0.237923 0.18187733 -0.3702851
-0.22212388 0.1393933 -0.6355196 0.34501177 0.13756128 -0.037677888 -0.18068478 0.093531765
00000000: d5ed 57be 5650 5abe 52a7 bd3d ece5 b5bd
00000010: 0f2d 1abe 8967 e9be 46f6 9abb 1d60 0fbd
00000020: ae43 80be 5949 8dbe b38a 2f3d 8ab0 87be
00000030: 4dc9 4f3e 4ae1 68be e00b 9339 d1f4 6bbe
00000040: 6410 32be befe f8bd d038 88bb 63d5 093e
00000050: abcc e3bd ed69 563b 455a bf3d 805c aebd
00000060: 15fc 5dbe 652f aa3d 9ec0 723d 958f 183e
00000070: 7b22 06be ec61 913e 2d83 1cbf 3db4 8c3e
00000080: bc7f afbd d81d ed3d c538 4c3e d6cc 9b3d
00000090: 19df 763d 7b4e bcbd cc67 90bd 0fc8 cc3d
000000a0: 9eeb 883b 4d5c 0fbe eb61 91bd 4da0 c13c
000000b0: 1a82 05bd 5ec2 383e 612f 8f3d 328a 553e
000000c0: 8c7c 823e dd34 723d 3b92 933d eda1 98bc
000000d0: fc17 113f ff8b 41bd 14e4 f03c 890d 173e
000000e0: 920b 323e 5f24 a7bd f788 5dbd 37c7 2bbe
000000f0: a9c1 be3c e15e 323e 5897 c9bd 5f11 27bd
00000100: b078 50bd 3ba6 25bc f75c 793d 3765 e1bc
00000110: d449 d8bc d2ae be3d 2f62 56bd e17f 75bd
00000120: ecc2 cd3d a83c d43c 82a3 d03e 3126 0abf
00000130: 0f4c c33d 9713 54bd 645f 9fbd a46f 69bd
00000140: aab0 9abd f0a4 163e 1b76 0abe 8294 773d
00000150: d3fd 583e 2b1c 36be b931 0e3d 2e5b 133e
00000160: b2d7 79be 4ebb a7be e3c8 a4bd b532 2e3d
00000170: 9a52 d6bd 79da 87be 9766 63be e5c4 063d
00000180: dec8 8b3d 5128 58be 247b 69bc 3c0e 4a3d
00000190: 4606 8dbd c50f 413e 17cc a33c 55de 003e
000001a0: dc9d 00be 0494 26be bcf4 873d a4fe 7f3d
000001b0: c668 13be c956 d13d cc6d 103d 69a9 943e
000001c0: d172 bc3c c37c 37be 867b 393e 2cb8 193e
000001d0: 802f 8fb9 48b1 a2be 5c08 183e 3cd6 47bf
000001e0: b701 09be 2241 adbe 1218 343e 620f d2bd
000001f0: 59a8 033e 7f08 073e 3b61 47be 7c5d ee3d
00000200: 23de 2cbe 0ca2 d1bb 36f7 1c3e 4a21 64be
00000210: 15a2 72be 0032 debd 38dc b03c 4ba6 6a3e
00000220: 0464 05bf 48b1 973e 01b4 eabb f001 a33e
00000230: 0ad7 223e 9308 2c3f 5cc1 e93d c7f0 d03e
00000240: 75e5 33be 09c6 403e ab42 16be ff7c 033e
00000250: c94c 1ebd 2ec5 f6bd f75e 3d3e e2c0 633e
00000260: 5c97 7fbd 7bc5 1abe 4ff1 373e f70a b7be
00000270: b4bb be3d 7439 563e b8e0 b7bb 3026 05be
00000280: fc38 1dbd 2628 4bbe 0fc8 b5be d4ca 27bd
00000290: 53e3 a83d 8848 5c3c 9c76 8ebe a769 7fbd
000002a0: 726e 8a3d 1550 473d af38 e0bd cdfb ef3d
000002b0: 4ed5 5bbe 439c 62bd e397 98bd 80d3 2d3e
000002c0: ad73 45be b6b9 713e 1ff1 bc3d 1ae8 b43d
000002d0: 8533 bf3d 1e5f 763d e5c3 0a3e 70c7 b1bd
000002e0: 0547 c53e bc3d c0be 210f 86bd dc3a 26be
000002f0: 8b2f 39bc 01ff babd a1bd 5abd 82a4 3cbe
00000300: b263 1a3e 1d67 343e 636e 3c3d d08e 91bd
00000310: 1d50 14be ec45 223e 8a8b 6c3e 6b80 43be
00000320: 2fe0 84bd 2728 9e3c 5c40 62bd 0267 d9bc
00000330: ced4 74bd a6cd 083e 02cf 253f effe f03e
00000340: 4392 84bd 99f0 0bbd 0f14 053e ebb2 833e
00000350: 89a3 e3bd 5e7f 173d 07ee 8e3d 1b7a e43d
00000360: c23a 293e 5712 98bd 7c00 42bc 173f f53d
00000370: 4ce0 33be d87e 2fbe 54f8 523e 5463 453e
00000380: a928 50be 56ee 4ebd 7dd0 763e 00be 7e3d
00000390: 6ec8 173f 806b 5cbe 3e68 c13d 4285 0b3e
000003a0: 2ffa 153e 1ae6 ae3c 5981 87bd 3099 14be
000003b0: 4340 36be 2dc6 003d 7468 573e 7d04 33be
000003c0: 1c03 18bd badd bd3d 2976 bd3e 7385 133d
000003d0: f8b8 d6bd 16a2 733e 0d3e 3a3e 0296 bdbe
000003e0: 7174 63be 1ebd 0e3e 6ab1 22bf 62a5 b03e
000003f0: dddc 0c3e 2154 1abd 6e05 39be 958d bf3d

_policy.0.bias f4 [128]
0.11016259 0.12401942 0.09912385 0.19013205 -0.20990023 0.16224726 0.16775306 -0.16178273
-0.15953329 -0.10633116 0.22441398 0.07166927 -0.20192747 0.008865789 -0.26681453 0.16714723
-0.056256335 -0.008026732 -0.12285574 0.07603243 0.0016858284 0.13592097 -0.13349517 -0.058297127
-0.19131914 0.17561567 0.05240681 0.040346485 -0.16904579 -0.03626114 -0.052187473 0.043701906
-0.09873411 0.22073357 -0.12857313 -0.19781522 0.23344891 0.09544863 -0.17517832 -0.21346872
0.028474525 -0.11845411 0.19016503 0.13140951 -0.075329594 -0.12838006 0.11059852 0.096577555
0.12932497 -0.014845877 0.07146336 -0.1423008 0.08122275 -0.03125459 0.035449784 0.014266175
0.1371622 -0.2379408 0.2097406 0.12270628 -0.17609988 -0.07547988 0.110660635 0.06970588
0.17094353 0.11584473 0.18100096 0.1749991 0.122803465 0.14380546 0.09341499 -0.14696978
-0.09975252 0.18523118 -0.21039885 0.21161255 -0.10559181 0.0013429143 0.11478589 -0.19406956
-0.22085746 0.20041601 0.09217048 0.022444045 0.050871693 0.0410911 -0.20205173 0.04221758
-0.13944884 0.025302364 0.09357729 -0.07999576 0.11951739 0.22515857 -0.12202583 -0.09160905
0.15504584 0.18343237 -0.022766646 0.18352114 -0.15451923 -0.038338345 0.17248334 0.14437822
-0.26581898 0.086770765 0.1755619 -0.11431325 0.15799122 0.20082444 -0.051867552 -0.031570915
-0.18090887 0.008866929 0.13145772 0.013018864 0.03189142 0.08913663 -0.03529186 0.043041777
-0.097033866 -0.08273172 -0.03307287 -0.00883093 -0.17704782 -0.04222811 0.10563377 -0.16889429
00000000: ed9c e13d e5fd fd3d 7201 cb3d fab1 423e
00000010: 16f0 56be 2524 263e 75c7 2b3e 5faa 25be
00000020: b25c 23be 27c4 d9bd c7cc 653e 57c7 923d
00000030: 13c6 4ebe d041 113c ea9b 88be a528 2b3e
00000040: 0b6d 66bd 8e82 03bc ca9b fbbd e4b6 9b3d
00000050: 04f7 dc3a de2e 0b3e f5b2 08be f8c8 6ebd
00000060: 2ae9 43be 98d4 333e 86a8 563d 5b42 253d
00000070: 571a 2dbe 9086 14bd 88c2 55bd c500 333d
00000080: 1c35 cabd fb07 623e ada8 03be 1390 4abe
00000090: 3b0d 6f3e 927a c33d f261 33be 8b97 5abe
000000a0: 6843 e93c 1298 f2bd 9fba 423e 3790 063e
000000b0: 6746 9abd 1076 03be 7a81 e23d 74ca c53d
000000c0: c46d 043e 1f3c 73bc 625b 923d 4db7 11be
000000d0: 1d58 a63d d004 00bd cb33 113d adbc 693c
000000e0: 3f74 0c3e c1a6 73be 3dc6 563e 6e4d fb3d
000000f0: 8753 34be 3295 9abd 0ba2 e23d f5c1 8e3d
00000100: d20b 2f3e 0040 ed3d 5158 393e f732 333e
00000110: 6280 fb3d bd41 133e 5c50 bf3d 3f7f 16be
00000120: 0d4b ccbd 3ead 3d3e cc72 57be f6b0 583e
00000130: 8540 d8bd ba04 b03a dd14 eb3d 2cba 46be
00000140: 7528 62be db39 4d3e e0c3 bc3d 93dc b73c
00000150: d65e 503d 244f 283d a6e6 4ebe 57ec 2c3d
00000160: adcb 0ebe e746 cf3c 73a5 bf3d d1d4 a3bd
00000170: 89c5 f43d f88f 663e aee8 f9bd 879d bbbd
00000180: 56c4 1e3e b2d5 3b3e 1e81 babc f7ec 3b3e
00000190: 4a3a 1ebe ab08 1dbd 799f 303e e2d7 133e
000001a0: 6d19 88be dfb4 b13d 80c6 333e 111d eabd
000001b0: 73c8 213e eca4 4d3e 1273 54bd 8150 01bd
000001c0: 2d40 39be 9946 113c da9c 063e 134d 553c
000001d0: 94a0 023d 448d b63d 338e 10bd 934c 303d
000001e0: b1b9 c6bd 3f6f a9bd 6b77 07bd 9baf 10bc
000001f0: 064c 35be 62f7 2cbd 8556 d83d a0f2 2cbe

_policy.2.weight f4 [128, 128]
0.03379195 -0.019583207 -0.07338979 -0.08040033 -0.020094035 0.04311925 -0.06381874 -0.014039093
-0.07189301 -0.06455836 -0.025684085 0.06683964 0.0384406 0.044084124 0.031322062 -0.07246613
-0.06573558 0.042407796 -0.02741567 -0.10656778 0.01240433 -0.057923 -0.039146915 -0.06653333
0.007285351 -0.009805233 -0.08404562 -0.001018982 0.05598664 0.017664576 -0.025799947 -0.10111086
0.06499769 -0.07442249 -0.105058074 0.00823009 0.0013578113 -0.0076973233 -0.029848091 -0.12389569
0.028671103 -0.1079386 0.011833958 -0.050493605 -0.017697133 -0.01892524 -0.027470926 -0.0036878216
0.032919284 -0.068299316 -0.06353715 0.008363 -0.021447167 -0.016516749 0.021062713 0.011962796
0.012844151 0.020328116 -0.06488401 -0.06974163 -0.011263304 0.026540482 0.032809235 -0.039048947
0.05475117 0.02959562 0.0066697113 -0.04627996 0.091608904 0.046981085 -0.032226335 -0.07255741
-0.025894564 -0.06563871 0.06068201 -0.09762708 0.0047648763 0.031831488 -0.117781766 -0.017025856
-0.0021428182 0.048553526 -0.09937546 0.047645718 0.056786723 0.016347641 0.012920164 0.037842046
-0.010781312 0.027253546 -0.053202 0.048725657 0.017043311 -0.06673562 0.026261404 -0.03498003
-0.08666032 0.003940162 -0.0744272 -0.07926103 -0.0072904094 -0.048116397 0.006850453 -0.005114308
-0.107126094 0.057211835 -0.027234852 -0.012412095 0.016802048 -0.033198636 0.059653584 -0.007169875
0.013839774 -0.078799404 -0.036501013 0.08787245 -0.08516133 -0.04765445 -0.0016846795 0.017336754
-0.094544455 -0.032759573 0.06889739 0.00095726893 0.0604917 0.03812461 0.019114707 -0.029861439
0.05837405 -0.104122534 -0.0042428845 -0.07853131 0.020994266 -0.03162608 0.060477175 -0.050331123
0.045591317 -0.06531832 0.061737683 -0.0231184 -0.046393055 0.034306683 -0.11103204 0.041671913
0.0030144774 -0.00732463 -0.045337517 -0.054623906 -0.041323878 -0.16208178 0.018778361 -0.20887515
-0.011246991 -0.035022605 -0.048915036 0.024344489 -0.079145335 0.027681876 0.07258908 -0.182804
0.012205235 0.025943829 0.052773662 -0.022553837 -0.14524642 0.0629387 -0.14232534 -0.038360197
0.020967817 0.10537204 0.03178358 -0.06704754 0.08858084 0.10352884 0.11192723 -0.06292539
-0.11020492 -0.07321021 0.07728142 -0.009521642 0.07321467 -0.0699365 -0.19907627 0.0583994
0.003620454 -0.027981782 -0.036911577 -0.0028801996 0.061392266 -0.043784305 -0.08168277 0.046681143
0.07908731 -0.049567632 0.027052084 -0.18891232 0.074115105 0.035142545 -0.0115265865 -0.11856894
0.06158447 -0.02317128 -0.016523167 -0.06629443 -0.06734237 -0.040969394 -0.060233098 0.078003176
0.026823811 -0.13882841 0.045455787 0.009523085 -0.07206674 -0.04106165 0.09448206 0.0098843565
0.13548844 0.060221873 -0.0995624 0.06808254 -0.011103764 0.07967198 0.08913107 -0.15135026
-0.10907893 -0.03925816 -0.10716765 0.041514996 0.13727465 0.0363891 -0.025536392 -0.030603651
0.046979245 -0.096162714 0.037601776 -0.0431067 0.024359455 0.08250483 -0.007024421 -0.12195076
-0.05592298 -0.03631804 -0.12566422 -0.0094086295 -0.05849653 0.075842224 -0.035575796 -0.029568989
-0.02620934 0.02805483 0.007370353 0.0836567 -0.09944255 -0.014302722 0.010003646 0.004960223
00000000: 6e69 0a3d f66c a0bc 634d 96bd eea8 a4bd
00000010: 3f9c a4bc d09d 303d 66b3 82bd 3904 66bc
00000020: a43c 93bd 2c37 84bd 6e67 d2bc 39e3 883d
00000030: e473 1d3d 8e91 343d 904b 003d 1f69 94bd
00000040: 60a0 86bd ccb3 2d3d d496 e0bc 3540 dabd
00000050: 883b 4b3c ab40 6dbd 8458 20bd a042 88bd
00000060: f4b9 ee3b 21a6 20bc 1c20 acbd 5d8f 85ba
00000070: 3f52 653d 4db5 903c 695a d3bc 3613 cfbd
00000080: 821d 853d d26a 98bd b028 d7bd 80d7 063c
00000090: 96f8 b13a d439 fcbb fc83 f4bc 06bd fdbd
000000a0: a9df ea3c ea0e ddbd 38e3 413c 62d2 4ebd
000000b0: 94f9 90bc 1b09 9bbc b50a e1bc 61af 71bb
000000c0: 5fd6 063d 83e0 8bbd c41f 82bd f704 093c
000000d0: f8b1 afbc 224e 87bc b68b ac3c 9aff 433c
000000e0: 4670 523c 2687 a63c e8e1 84bd b3d4 8ebd
000000f0: b989 38bc 6d6b d93c fa62 063d caf1 1fbd
00000100: c342 603d 8472 f23c 988d da3b 0e90 3dbd
00000110: 739d bb3d 3d6f 403d c3ff 03bd fb98 94bd
00000120: d620 d4bc 976d 86bd b38d 783d b5f0 c7bd
00000130: ae22 9c3b bc61 023d 9137 f1bd cf79 8bbc
00000140: 866e 0cbb 10e0 463d 5c85 cbbd 2828 433d
00000150: 3299 683d 7deb 853c 18af 533c 4300 1b3d
00000160: 1aa4 30bc d442 df3c 57ea 59bd 8e94 473d
00000170: 6a9e 8b3c afac 88bd 2822 d73c 3847 0fbd
00000180: f77a b1bd 791c 813b 4a6d 98bd 9b53 a2bd
00000190: 63e4 eebb b315 45bd c479 e03b ed95 a7bb
000001a0: ed64 dbbd f556 6a3d a01b dfbc 1a5c 4bbc
000001b0: 73a4 893c 4bfb 07bd 5157 743d 45f1 eabb
000001c0: 38c0 623c 9561 a1bd 1682 15bd 79f6 b33d
000001d0: 1069 aebd 5031 43bd 77d0 dcba cf05 8e3c
000001e0: 86a0 c1bd e72e 06bd 131a 8d3d 3bf1 7a3a
000001f0: 25c6 773d 8d28 1c3d 7296 9c3c fa9f f4bc
00000200: a119 6f3d 323e d5bd e507 8bbb 06d5 a0bd
00000210: 2bfc ab3c 598a 01bd eab6 773d 0228 4ebd
00000220: f6bd 3a3d 9dc5 85bd a7e0 7c3d cc62 bdbc
00000230: a506 3ebd 2a85 0c3d c464 e3bd 2bb0 2a3d
00000240: 8a8e 453b 7303 f0bb d5b3 39bd 51bd 5fbd
00000250: 3a43 29bd c4f8 25be 14d5 993c 5ee3 55be
00000260: 4d45 38bc dd73 0fbd 225b 48bd 186e c73c
00000270: f316 a2bd 1ac5 e23c 95a9 943d f930 3bbe
00000280: 77f8 473c 2788 d43c 3229 583d d3c2 b8bc
00000290: 7abb 14be 01e6 803d bcbd 11be 951f 1dbd
000002a0: b3c4 ab3c 4ccd d73d 802f 023d 3850 89bd
000002b0: df69 b53d ee06 d43d 1b3a e53d 07df 80bd
000002c0: 1eb3 e1bd 3cef 95bd b945 9e3d a900 1cbc
000002d0: 93f1 953d de3a 8fbd a6da 4bbe 3634 6f3d
000002e0: 2445 6d3b 0d3a e5bc 9830 17bd bbc1 3cbb
000002f0: 7576 7b3d 2c57 33bd 4c49 a7bd ba34 3f3d
00000300: 87f8 a13d 6e07 4bbd 559c dd3c 3b72 41be
00000310: a9c9 973d a1f1 0f3d 02da 3cbc 46d4 f2bd
00000320: ff3f 7c3d b2d1 bdbc 985b 87bc 60c5 87bd
00000330: ccea 89bd 86cf 27bd fbb6 76bd 21c0 9f3d
00000340: 9cbd db3c 0929 0ebe d92f 3a3d b706 1c3c
00000350: ba97 93bd 4330 28bd cf7f c13d fff1 213c
00000360: 7bbd 0a3e 36ab 763d 5fe7 cbbd dc6e 8b3d
00000370: 90ec 35bc 102b a33d 5a8a b63d 90fb 1abe
00000380: c664 dfbd 2acd 20bd b67a dbbd a10b 2a3d
00000390: ba91 0c3e bd0c 153d b231 d1bc 82b4 fabc
000003a0: 4f6d 403d f5f0 c4bd 5204 1a3d a790 30bd
000003b0: 7b8d c73c 4bf8 a83d 1d2d e6bb 52c1 f9bd
000003c0: 7f0f 65bd 3ac2 14bd 1fae 00be a726 1abc
000003d0: 0f9a 6fbd 2b53 9b3d edb7 11bd aa3a f2bc
000003e0: f8b4 d6bc 3ed3 e53c 0183 f13b 3454 ab3d
000003f0: 89a8 cbbd f755 6abc 55e6 233c 5e89 a23b

_policy.2.bias f4 [128]
-0.015718741 -0.014225427 -0.023287917 -0.056989115 -0.04212423 0.06338748 -0.037510887 -0.083302416
-0.09613681 0.059797935 0.051085543 0.036297202 -0.05461625 0.03902673 0.097064525 -0.02185926
0.034760002 0.07053343 0.022438489 -0.01912059 -0.025716789 0.0067063337 0.048001207 0.07895597
-0.08581496 -0.06784558 -0.077706315 0.01047192 0.017285572 0.02712575 -0.005037848 0.020042138
-0.08021513 -0.056925576 -0.044816114 0.02739591 -0.08636962 -0.02659185 -0.07189932 -0.011649652
0.024672505 0.036308367 -0.0058062836 -0.0808592 0.03702473 -0.044084463 -0.050176077 -0.02614946
-0.046026245 0.0651374 -0.0741096 -0.016901296 0.024829842 0.020705294 0.05323119 0.070265874
0.049978558 0.04722356 -0.018500416 0.028560754 -0.03936427 -0.010089517 -0.09122335 -0.046173606
-0.036486726 -0.055046737 0.05748239 0.052953415 -0.034513496 -0.05941334 0.022823317 0.021892857
-0.06619276 -0.028525762 0.063214764 -0.012482955 -0.02614934 -0.022843868 -0.10483381 0.023045978
-0.06793094 -0.020556515 -0.005952311 0.0069317524 0.043508153 -0.008458832 -0.08713383 0.043237276
-0.030953802 -0.035918362 -0.019657768 0.045238685 -0.0015777417 -0.10392817 -0.08811439 0.0022187196
-0.083739 -0.020974018 -0.025557207 -0.010074552 0.029563801 -0.06484375 -0.069595076 0.006127628
-0.07296782 -0.020675369 0.09047452 0.019211072 0.024113234 -0.099692024 -0.042087264 0.037848122
-0.006635089 0.07729741 0.0020166347 -0.018070621 -0.016258882 -0.03139099 0.024894299 0.07650709
-0.10867469 0.02241812 -0.083947256 -0.071522206 -0.028315859 -0.026329834 -0.08151578 -0.014460321
00000000: 97c4 80bc c411 69bc 4dc6 bebc 6b6d 69bd
00000010: 758a 2cbd 4cd1 813d 04a5 19bd 759a aabd
00000020: 60e3 c4bd aeee 743d 133f 513d 60ac 143d
00000030: 4ab5 5fbd 7eda 1f3d c4c9 c63d 3112 b3bc
00000040: 8160 0e3d d573 903d ecd0 b73c c9a2 9cbc
00000050: 04ac d2bc cec0 db3b ea9c 443d abb3 a13d
00000060: c1bf afbd a0f2 8abd 7d24 9fbd 6a92 2b3c
00000070: 799a 8d3c d236 de3c 8814 a5bb 692f a43c
00000080: d447 a4bd cb2a 69bd 1a91 37bd 636d e03c
00000090: 8ee2 b0bd 27d7 d9bc f33f 93bd 2fde 3ebc
000000a0: fe1d ca3c 15b8 143d a342 bebb 8299 a5bd
000000b0: 3ea7 173d e991 34bd 6e85 4dbd 6437 d6bc
000000c0: 0486 3cbd c266 853d c6c6 97bd 9674 8abc
000000d0: f467 cb3c 269e a93c f308 5a3d 8ee7 8f3d
000000e0: 51b6 4c3d 7e6d 413d 2f8e 97bc 3ef8 e93c
000000f0: 6e3c 21bd 804e 25bc 4fd3 babd 8920 3dbd
00000100: 1b73 15bd b078 61bd a872 6b3d aee5 583d
00000110: 065e 0dbd 675b 73bd f7f7 ba3c a658 b33c
00000120: 1290 87bd dcae e9bc be76 813d 4f85 4cbc
00000130: 2437 d6bc 1023 bbbc 1cb3 d6bd ebca bc3c
00000140: 601f 8bbd 2366 a8bc 9b0b c3bb c123 e33b
00000150: 9b35 323d ea96 0abc 3973 b2bd 9219 313d
00000160: d492 fdbc 221f 13bd 5409 a1bc 334c 393d
00000170: 3acc ceba 4bd8 d4bd 5175 b4bd f067 113b
00000180: 5a7f abbd b4d1 abbc 595d d1bc bc0f 25bc
00000190: c92f f23c cdcc 84bd dd87 8ebd 45ca c83b
000001a0: 2770 95bd 645f a9bc b54a b93d 8a60 9d3c
000001b0: 1e89 c53c 552b ccbd b263 2cbd a206 1b3d
000001c0: 296b d9bb 1b4e 9e3d 8429 043b d708 94bc
000001d0: 5931 85bc d793 00bd 21ef cb3c c0af 9c3d
000001e0: d690 debd 35a6 b73c 8aec abbd 3c7a 92bd
000001f0: a9f6 e7bc aab1 d7bc bff1 a6bd fbea 6cbc

_policy.4.weight f4 [128, 128]
-0.071366616 0.03901779 -0.19386208 -0.06363269 0.07670726 0.004510927 0.10013834 -0.18818001
-0.006447405 0.038049076 0.19926663 -0.01883387 0.12234264 -0.011961961 0.12794958 -0.07174474
-0.05605586 0.04445279 0.16321221 0.02747194 -0.13601176 -0.08803348 0.059922922 0.14943327
-0.09112969 -0.07954514 0.07118487 -0.14433523 -0.10499269 -0.092963256 -0.016122216 -0.14241916
0.08678108 -0.09574225 -0.24312147 -0.034122277 -0.021613425 -0.040576834 -0.06009527 -0.041970413
0.019071767 -0.04683874 0.023591908 0.077731535 0.039188404 0.0147764785 0.03481517 0.07176954
0.13159028 0.023362987 0.046459816 -0.15744615 -0.0046765655 -0.00928148 0.085092895 -0.0691507
0.09572614 0.009491055 0.08531433 -0.03746438 -0.01609045 -0.010327595 0.07585737 0.07294203
-0.07721297 -0.015046605 0.04913934 0.11866269 0.098802514 0.0712558 0.06378259 -0.013634086
-0.039709937 0.04404336 0.10800304 -0.022390977 -0.072757594 0.06423394 -0.115733154 0.13675025
-0.034178667 0.011725461 -0.068663955 0.0390154 0.07207454 0.0031349706 0.07224708 -0.004659628
-0.040771313 0.14952253 0.09164537 -0.10632806 0.21326438 0.042346008 -0.17912082 0.041709203
0.031720024 0.06690433 -0.04275399 0.051045068 0.08299285 0.065193035 0.03451101 -0.071044475
0.040506184 0.032133706 0.081895396 -0.043758024 -0.033997245 -0.047106437 0.054271787 -0.031981997
0.003938909 -0.083886586 0.15264271 0.04223885 -0.019421935 -0.018537562 0.04799251 -0.0405546
-0.011969879 0.07826539 -0.07821988 0.07903713 0.108821526 0.0024083047 -0.03758857 -0.066819236
0.023894208 0.057559203 -0.05509415 0.06441673 -0.052551255 -0.06597613 -0.0061204266 0.07448423
0.0027442074 0.040382538 -0.07569594 0.10023285 0.036768697 0.014892084 -0.024097 0.035851624
0.09747652 -0.08042918 -0.05647044 -0.0028574741 0.061410274 -0.13505673 -0.034233656 0.043357622
-0.13814107 0.03824937 -0.0061039967 -0.0632675 -0.09589292 -0.0483861 -0.0489325 0.0073831626
0.043368403 -0.0357581 0.041804254 -0.054530725 0.015753597 0.07463181 0.027823783 -0.00939534
0.06805491 -0.0067862286 -0.060046498 -0.046966627 0.08996458 0.110414326 -0.06210669 0.13913414
-0.0051014614 0.004880328 -0.08072216 -0.047388755 -0.035470806 -0.09459887 -0.098022826 0.0045239297
0.020851223 -0.0045928457 0.06202075 0.059727646 -0.06639014 -0.02601477 -0.12033826 -0.09470451
0.051587943 -0.04890681 0.03993142 -0.08178325 -0.022555966 0.039818417 0.043127026 -0.08918644
0.07156283 0.059334476 0.023294842 0.03649478 0.06435143 -0.02323037 -0.06261101 -0.15538163
-0.07461647 0.0005654782 0.024981637 -0.008594099 0.07483868 -0.019161362 0.01094185 0.0039972547
0.08411819 0.04204038 -0.08058161 0.08218368 -0.004946342 -0.0782167 0.1089949 0.040414177
0.046492584 0.067630194 -0.06606166 -0.098852515 0.117089845 0.09925297 -0.023606542 0.057351217
-0.0007792722 0.03305462 -0.072695434 0.03635183 0.013329388 0.0589438 -0.08490515 0.048093915
0.107286066 0.04084127 -0.09487774 -0.051441945 0.1159634 -0.050245892 0.04805557 -0.012958924
-0.0080422405 -0.01388522 -0.047556758 -0.07627412 0.0147361085 0.056176644 0.05757744 0.08192967
00000000: a928 92bd 1ed1 1f3d c883 46be db51 82bd
00000010: b218 9d3d 66d0 933b 5415 cd3d 43b2 40be
00000020: c144 d3bb 59d9 1b3d 8d0c 4c3e 7d49 9abc
00000030: c78e fa3d 1afc 43bc 3705 033e e8ee 92bd
00000040: d49a 65bd 2114 363d 1a21 273e d50c e13c
00000050: ab46 0bbe e64a b4bd bd71 753d 0905 193e
00000060: 34a2 babd 90e8 a2bd 60c9 913d 9dcc 13be
00000070: 6806 d7bd 8563 bebd bd12 84bc 54d6 11be
00000080: 47ba b13d 8314 c4bd d6f4 78be cdc3 0bbd
00000090: a30e b1bc e533 26bd 7526 76bd 2be9 2bbd
000000a0: 653c 9c3c fbd9 3fbd d143 c13c b631 9f3d
000000b0: 0584 203d 0b19 723c 5a9a 0e3d e9fb 923d
000000c0: 9abf 063e bc63 bf3c a64c 3e3d 9039 21be
000000d0: e03d 99bb 5911 18bc 2f45 ae3d e29e 8dbd
000000e0: 110c c43d 5f80 1b3c 48b9 ae3d 4074 19bd
000000f0: 1fd0 83bc 1335 29bc 1c5b 9b3d a262 953d
00000100: d521 9ebd 0986 76bc 5546 493d 6d05 f33d
00000110: f958 ca3d 90ee 913d 72a0 823d 8061 5fbc
00000120: e3a6 22bd cf66 343d b330 dd3d 486d b7bc
00000130: ef01 95bd 158d 833d 8105 edbd 4208 0c3e
00000140: eefe 0bbd 261c 403c b09f 8cbd 9dce 1f3d
00000150: d19b 933d 1474 4d3b 47f6 933d cbaf 98bb
00000160: d2ff 26bd 6f1c 193e 91b0 bb3d 87c2 d9bd
00000170: fa61 5a3e 0273 2d3d 736b 37be 45d7 2a3d
00000180: dbec 013d 2305 893d cf1e 2fbd a214 513d
00000190: 28f8 a93d ed83 853d 6b5b 0d3d c47f 91bd
000001a0: d0e9 253d a29e 033d c6b8 a73d 9d3b 33bd
000001b0: b240 0bbd aef2 40bd 184c 5e3d 8eff 02bd
000001c0: f711 813b bbcc abbd 5f4e 1c3e a502 2d3d
000001d0: c01a 9fbc 16dc 97bc cb93 443d 951c 26bd
000001e0: 501d 44bc 9b49 a03d bf31 a0bd 38de a13d
000001f0: d2dd de3d a6d4 1d3b 79f6 19bd 86d8 88bd
00000200: c9bd c33c 33c3 6b3d 67aa 61bd ebec 833d
00000210: fc3f 57bd 7e1e 87bd dc8d c8bb 308b 983d
00000220: 29d8 333b 2968 253d 7906 9bbd e146 cd3d
00000230: c69a 163d edfd 733c 1267 c5bc 27d9 123d
00000240: c5a1 c73d 0eb8 a4bd 8c4d 67bd 7644 3bbb
00000250: 5789 7b3d 504c 0abe 9738 0cbd c397 313d
00000260: da74 0dbe 5fab 1c3d 0904 c8bb 6492 81bd
00000270: 8263 c4bd 8130 46bd 726d 48bd 75ee f13b
00000280: 11a3 313d 1677 12bd f03a 2b3d 9c5b 5fbd
00000290: b00d 813c 90d8 983d b4ee e33c eaee 19bc
000002a0: 5f60 8b3d 035f debb 51f3 75bd 1460 40bd
000002b0: 5a3f b83d e820 e23d 9663 7ebd 2e79 0e3e
000002c0: 292a a7bb 29eb 9f3b a951 a5bd b61a 42bd
000002d0: d649 11bd 0dbd c1bd 31c0 c8bd 793d 943b
000002e0: 2fd0 aa3c 957f 96bb 7809 7e3d faa4 743d
000002f0: 8ef7 87bd ed1c d5bc e873 f6bd 70f4 c1bd
00000300: e14d 533d 8252 48bd 218f 233d fa7d a7bd
00000310: 4ac7 b8bc a318 233d f7a5 303d 61a7 b6bd
00000320: 888f 923d b508 733d d3d4 be3c 8d7b 153d
00000330: afca 833d 9e4d bebc 343a 80bd 5d1c 1fbe
00000340: 85d0 98bd 9a3c 143a 4aa6 cc3c 44ce 0cbc
00000350: 0645 993d 4af8 9cbc 7245 333c 67fb 823b
00000360: 2846 ac3d 8932 2c3d f907 a5bd eb4f a83d
00000370: ed14 a2bb 1430 a0bd b838 df3d 5689 253d
00000380: 026f 3e3d b381 8a3d 564b 87bd 3073 cabd
00000390: cdcc ef3d 2445 cb3d 8262 c1bc 1ce9 6a3d
000003a0: 1248 4cba 4864 073d 58e1 94bd a8e5 143d
000003b0: 8163 5a3c 0e6f 713d c0e2 adbd 20fe 443d
000003c0: ccb8 db3d 2d49 273d 434f c2bd cab4 52bd
000003d0: 387e ed3d a3ce 4dbd ebd5 443d ab51 54bc
000003e0: 9ac3 03bc d57e 63bc e0ca 42bd 9b35 9cbd
000003f0: b86f 713c 7b19 663d 52d6 6b3d beca a73d

_policy.4.bias f4 [128]
0.016288685 -0.04435827 0.018830638 -0.04388216 -0.022285057 -0.035633933 -0.053402886 0.008432224
-0.041448936 0.025089622 0.034153264 -0.061011888 0.0740739 -0.0128799705 0.007007164 -0.033727754
-0.05163105 -0.036065187 0.018896481 -0.020633638 -0.05918039 -0.07382669 -0.0812357 -0.036767542
-0.05480814 -0.0065720417 0.04191245 0.011893882 0.0034437971 -0.06341209 0.0077865534 0.084917694
-0.10040362 0.068135075 -0.022375714 -0.067745544 0.04878792 -0.08393136 -0.07876601 0.039473828
0.10042894 -0.042722225 -0.11833222 -0.020377316 -0.0872762 -0.07502458 -0.045454025 0.029228434
0.09055396 -0.101630285 -0.024870861 -0.031744037 -0.001551746 0.06651543 0.07974977 -0.09885756
-0.055619862 0.072689205 -0.06928641 -0.06897676 0.04088839 -0.0958808 0.031418633 -0.053904988
0.08780127 0.023822471 0.023513176 -0.013399291 0.014236572 0.056870073 -0.011600229 0.0058594067
0.040768158 -0.030750377 -0.029029028 0.0005423977 0.067416534 -0.01092891 -0.09220607 0.006881835
0.01610862 0.041710556 -0.018243521 0.020389685 -0.04297817 0.043411244 0.10412896 0.03509048
0.04773687 -0.045252815 0.0019128454 0.0075903744 -0.075698785 0.015364887 -0.05338155 -0.05285874
0.03531417 0.06863691 0.033450767 -0.07511977 -0.07846677 -0.031076452 -0.030514475 -0.044891506
-0.0136435395 0.025543438 -0.041546654 -0.105710454 -0.11240307 -0.065514445 0.018562343 0.05694799
0.08191024 0.044981334 0.0091967005 0.05318321 0.0118081 -0.0102874115 0.0013407774 -0.050705124
0.023668649 -0.060124125 0.04383693 -0.012375508 -0.10519266 -0.040905442 -0.023500627 0.052288257
00000000: d96f 853c 04b1 35bd b642 9a3c c8bd 33bd
00000010: 278f b6bc e3f4 11bd fcbc 5abd 5027 0a3c
00000020: 5cc6 29bd c088 cd3c 4be4 0b3d 9ae7 79bd
00000030: 0fb4 973d 8306 53bc 5a9c e53b 1d26 0abd
00000040: 147b 53bd 17b9 13bd cbcc 9a3c e007 a9bc
00000050: 2367 72bd 7332 97bd e75e a6bd 9099 16bd
00000060: 807e 60bd 485a d7bb 64ac 2b3d 8fde 423c
00000070: 54b1 613b 33de 81bd 5826 ff3b 54e9 ad3d
00000080: 6aa0 cdbd 678a 8b3d 464d b7bc 2dbe 8abd
00000090: d8d5 473d 34e4 abbd 1350 a1bd 4faf 213d
000000a0: b0ad cd3d 80fd 2ebd 2a58 f2bd 54ee a6bc
000000b0: ddbd b2bd 7da6 99bd 002e 3abd 7870 ef3c
000000c0: 5b74 b93d 8a23 d0bd fabd cbbc 0906 02bd
000000d0: f563 cbba 3e39 883d d953 a33d d575 cabd
000000e0: a7d1 63bd 14de 943d 09e6 8dbd b043 8dbd
000000f0: 967a 273d 275d c4bd d3b0 003d 7acb 5cbd
00000100: 27d1 b33d 5827 c33c b49e c03c b388 5bbc
00000110: 8340 693c 98f0 683d e30e 3ebc 4400 c03b
00000120: 83fc 263d 37e8 fbbc 49ce edbc b22f 0e3a
00000130: ae11 8a3d 2c0f 33bc 89d6 bcbd 0481 e13b
00000140: 3af6 833c b0d8 2a3d 7073 95bc 4508 a73c
00000150: e109 30bd fdcf 313d 9041 d53d 09bb 0f3d
00000160: bc87 433d 045b 39bd 71b8 fa3a adb8 f83b
00000170: f707 9bbd 02bd 7b3c 9da6 5abd 6882 58bd
00000180: 97a5 103d 8291 8c3d ac03 093d 65d8 99bd
00000190: 30b3 a0bd 0b94 febc 7ef9 f9bc 28e0 37bd
000001a0: 2789 5fbc 7940 d13c d32c 2abd b97e d8bd
000001b0: 9533 e6bd 702c 86bd 0e10 983c 4c42 693d
000001c0: 8ec0 a73d 593e 383d c2ad 163c a3d6 593d
000001d0: c376 413c 888c 28bc 06bd af3a 2db0 4fbd
000001e0: c1e4 c13c b744 76bd 5a8e 333d a5c2 4abc
000001f0: 406f d7bd 778c 27bd 6384 c0bc 362c 563d

_policy.6.weight f4 [128, 128]
-0.19366167 -0.01700976 0.057119355 -0.13252951 -0.1436508 -0.06780925 -0.1306383 0.036377218
0.082962155 0.07249147 -0.085084245 -0.20395125 -0.004403341 0.1910275 0.027961532 0.038937025
-0.016065089 0.049678173 -0.05913096 0.0024805882 0.05153193 0.15882467 -0.057045303 0.07762544
0.07594794 -0.05499888 -0.11565699 -0.08774089 -0.13196245 0.02208913 0.014793542 -0.07786234
-0.044586778 -0.056719348 0.0022983183 -0.071164206 0.08187356 -0.083070315 0.05688934 0.031959817
0.10303732 -0.05863694 0.022433795 0.09180016 -0.047095258 -0.025990594 -0.08437566 -0.07868049
0.15855737 -0.0040025027 0.12106997 0.10473604 0.00275286 0.14158279 -0.051715486 -0.0604299
-0.14528391 0.030898618 0.15997915 0.011935307 -0.084417135 0.066525936 -0.028907012 -0.026816908
-0.0431527 0.023151223 0.020249521 -0.10054197 0.07978533 -0.062173083 -0.056721747 -0.015370055
0.040707618 0.012124711 0.013427117 -0.08507579 -0.07527187 0.11720329 0.004925829 -0.096896276
-0.005238046 -0.23246077 0.022701083 0.0067710495 -0.00099977 0.12214273 -0.08181415 0.07884465
0.025813704 0.005973283 -0.07465056 -0.103333406 0.0069149085 -0.091454566 -0.083233535 -0.111987956
-0.05519579 -0.021110786 0.11567986 0.026995396 -0.011391149 -0.011403457 -0.021499075 -0.030261341
0.10243622 -0.07042215 0.14256147 0.079450786 -0.027362522 -0.094138704 -0.18240799 0.1274057
-0.1294213 -0.0427362 -0.06404791 0.1912605 -0.018559238 0.119003385 0.007951372 -0.011160893
0.02208132 -0.12987952 -0.04216724 0.14317982 0.055037204 -0.14015631 -0.088254325 -0.015658205
-0.02027074 -0.059153333 0.038394954 0.08979454 -0.05606466 0.060723707 0.06622482 0.10934708
-0.028995875 0.04655406 0.030630585 -0.064408064 0.03675525 0.031132001 0.056753464 -0.038535528
0.020721216 -0.00484132 0.017687732 -0.13830289 -0.10301915 -0.0511211 -0.12994567 0.039476767
0.094598584 0.009379799 -0.14511092 0.08024675 0.036457688 -0.15156804 0.10336777 0.020215733
-0.053957056 0.07046694 0.03979781 -0.09668654 0.0575897 0.072256334 -0.057227857 0.032727107
0.057364702 0.016874785 0.0057958714 0.06932572 -0.026579231 -0.07228363 0.046958175 -0.09134102
0.011863235 0.11229277 -0.087414324 -0.09154142 0.032422762 -0.12134934 0.029610153 -0.0593836
-0.09667908 0.03194692 0.09567194 -0.07809532 0.044500582 0.0085632885 0.026238166 -0.029704193
-0.0362592 -0.034595717 -0.064860076 0.06685172 -0.04428959 -0.020213487 -0.017274138 0.010939779
0.03540654 -0.050205957 0.026588067 0.21802628 -0.015645556 0.01874809 0.027023155 0.009783517
0.040138926 -0.077293225 -0.036318418 0.0047617755 0.009357293 0.0018115904 0.10796963 -0.056525093
0.007846492 -0.16188727 -0.045327768 0.008113246 -0.040674426 -0.06369567 -0.014160109 0.031176178
0.069638014 0.08403531 0.009500576 -0.024232311 -0.0006330537 0.0055490006 -0.022476451 0.024563096
-0.052579753 0.09060833 0.014539178 0.0010493954 0.009443712 -0.058017723 -0.035830803 -0.12434961
0.1312448 -0.042984687 0.026799317 -0.062310793 -0.03072096 -0.13076444 -0.018550484 -0.13447553
-0.02285063 -0.014981895 -0.007877003 -0.092707016 -0.05696231 0.023856523 0.048293572 0.013477596
00000000: 3f4f 46be 0d58 8bbc fcf5 693d d1b5 07be
00000010: 3219 13be 93df 8abd 0cc6 05be 4700 153d
00000020: 10e8 a93d 6876 943d a640 aebd 99d8 50be
00000030: e749 90bb b79c 433e 950f e53c 6e7c 1f3d
00000040: ef9a 83bc 577b 4b3d 4e33 72bd 5d91 223b
00000050: 2513 533d efa2 223e 56a8 69bd 16fa 9e3d
00000060: 988a 9b3d 8146 61bd 92dd ecbd 7fb1 b3bd
00000070: 2a21 07be 43f4 b43c 9d60 723c 4a76 9fbd
00000080: a0a0 36bd 8c52 68bd 629f 163b 8abe 91bd
00000090: 53ad a73d c520 aabd cc04 693d 4ce8 023d
000000a0: 3b05 d33d 4a2d 70bd 14c7 b73c b901 bc3d
000000b0: f5e6 40bd 3aea d4bc 25cd acbd 3d23 a1bd
000000c0: dd5c 223e 6d27 83bb 88f3 f73d d97f d63d
000000d0: 5469 343b 14fb 103e 9ed3 53bd 5885 77bd
000000e0: 4ec5 14be 191f fd3c 93d1 233e 4e8c 433c
000000f0: e4e2 acbd c03e 883d 66ce ecbc 22af dbbc
00000100: e3c0 30bd a2a7 bd3c 53e2 a53c f3e8 cdbd
00000110: 7e66 a33d 34a9 7ebd 1055 68bd afd2 7bbc
00000120: 08bd 263d b9a6 463c 69fd 5b3c 373c aebd
00000130: 2328 9abd 4708 f03d d968 a13b 8e71 c6bd
00000140: eaa3 abbb 320a 6ebe 9ff7 b93c aedf dd3b
00000150: b70a 83ba f825 fa3d 2d8e a7bd 4e79 a13d
00000160: 4377 d33c 88bb c33b 65e2 98bd 77a0 d3bd
00000170: 7596 e23b 884c bbbd 5876 aabd f159 e5bd
00000180: fb14 62bd 87f0 acbc 90e9 ec3d 7325 dd3c
00000190: f1a1 3abc 91d5 3abc d41e b0bc a2e6 f7bc
000001a0: 15ca d13d 7d39 90bd a2fb 113e 18b7 a23d
000001b0: 5e27 e0bc cbcb c0bd 29c9 3abe a476 023e
000001c0: 0487 04be 270c 2fbd 8d2b 83bd cbd9 433e
000001d0: 8b09 98bc 0cb8 f33d 7946 023c 2edc 36bc
000001e0: e2e3 b43c 23ff 04be 8eb7 2cbd bb9d 123e
000001f0: b16e 613d 2385 0fbe afbe b4bd a345 80bc
00000200: d30e a6bc c44a 72bd 0744 1d3d 33e6 b73d
00000210: 0fa4 65bd 6cb9 783d e1a0 873d 5df1 df3d
00000220: c288 edbc 78af 3e3d feec fa3c 60e8 83bd
00000230: ac8c 163d 8a08 ff3c 5276 683d 6ed7 1dbd
00000240: 8abf a93c f0a3 9ebb dde5 903c 469f 0dbe
00000250: b4fb d2bd 5c64 51bd 7a10 05be 64b2 213d
00000260: e7bc c13d baad 193c f597 14be 6858 a43d
00000270: a854 153d a734 1bbe 7bb2 d33d 779b a53c
00000280: 1302 5dbd f950 903d 0703 233d 9803 c6bd
00000290: 2de3 6b3d 21fb 933d c267 6abd dc0c 063d
000002a0: 40f7 6a3d fd3c 8a3c 4beb bd3b a5fa 8d3d
000002b0: b0bc d9bc 7109 94bd 3757 403d 0011 bbbd
000002c0: 045e 423c c0f9 e53d 4806 b3bd 117a bbbd
000002d0: bbcd 043d 0186 f8bd fe90 f23c 383c 73bd
000002e0: aeff c5bd c6da 023d a6ef c33d 70f0 9fbd
000002f0: 3e46 363d 094d 0c3c 6cf1 d63c 3556 f3bc
00000300: 8784 14bd 3db4 0dbd 5cd5 84bd 8ee9 883d
00000310: 0069 35bd c196 a5bc 7e82 8dbc c23c 333c
00000320: 7306 113d c3a4 4dbd 38cf d93c 4842 5f3e
00000330: 1c2b 80bc 9895 993c aa5f dd3c 0b4b 203c
00000340: b768 243d e94b 9ebd 9fc2 14bd ab08 9c3b
00000350: 554f 193c e372 ed3a 2e1f dd3d db86 67bd
00000360: 938e 003c c7c5 25be 9ca9 39bd 6ced 043c
00000370: 3a9a 26bd e072 82bd cdff 67bc 2f65 ff3c
00000380: 609e 8e3d b41a ac3d 4ea8 1b3c d782 c6bc
00000390: 84f3 25ba 64d4 b53b 8920 b8bc 8c38 c93c
000003a0: de5d 57bd dc90 b93d bc35 6e3c de8b 893a
000003b0: cdb9 1a3c fea3 6dbd 52c3 12bd 02ab febd
000003c0: 0965 063e b610 30bd 3e8a db3c 9a39 7fbd
000003d0: 86aa fbbc 1de7 05be 2ff7 97bc f4b3 09be
000003e0: 3f31 bbbc 9f76 75bc 8c0e 01bc 2ddd bdbd
000003f0: 5051 69bd c16e c33c 7bcf 453d 23d1 5c3c

_policy.6.bias f4 [128]
0.0322337 0.048785955 -0.047088724 -0.11029029 0.015914164 0.04363104 -0.04810569 -0.042463597
-0.034692176 -0.10707342 -0.06413749 -0.020741936 -0.10472041 0.049995027 -0.0072794897 0.03113345
0.0543791 0.027481403 0.012863509 0.07306546 -0.011904325 -0.088243425 -0.0873257 -0.103948735
0.008876465 0.060390037 0.03991714 0.01923011 0.004838599 -0.09909154 -0.036538005 -0.049972076
0.07114792 -0.008194092 -0.03246995 0.0670932 0.061234854 -0.05384727 -0.11747604 0.04065888
-0.09103141 -0.07604708 0.04403001 0.038862005 0.021236734 0.043185644 -0.044314027 0.069584385
0.09408219 0.017667895 0.021625295 0.06602729 -0.037441924 0.04712215 -0.041650884 -0.12683222
0.043069463 -0.037567157 0.07735502 0.03829677 0.01093768 0.042570427 -0.0497603 -0.081939004
-0.06627949 0.081022896 0.061643086 -0.03593244 -0.0030771196 0.005848529 0.05690513 0.032502666
-0.042303532 0.061705343 0.044063758 -0.012585734 -0.029909134 0.04577089 -0.05960987 -0.025663674
0.036679804 -0.06433571 0.062061585 0.07781585 -0.0545342 0.057757195 0.060973033 0.033476315
-0.099381514 -0.047742713 -0.05304269 0.027987286 -0.032231797 0.05829366 -0.03468372 0.023006812
0.002893878 -0.007471435 0.023221612 -0.0035963012 -0.11065449 0.040409192 -0.049967848 0.07537652
0.07966595 -0.000120669785 0.06897407 0.035841506 -0.061560642 0.083458975 -0.036261212 -0.0240172
0.04334965 0.065875426 0.07843293 -0.07004289 -0.017460061 0.05316733 -0.013607174 -0.11914015
-0.039676283 0.0933577 0.063130185 0.0050836224 0.028379917 0.020665798 -0.047192857 0.025417875
00000000: 7c07 043d c8d3 473d 1be0 40bd e0df e1bd
00000010: 6c5e 823c 76b6 323d 790a 45bd 4fee 2dbd
00000020: 6219 0ebd 4f49 dbbd 845a 83bd feea a9bc
00000030: a877 d6bd 96c7 4c3d c988 eebb 940b ff3c
00000040: 9fbc 5e3d ae20 e13c 78c1 523c 58a3 953d
00000050: 5c0a 43bc f8b8 b4bd d1d7 b2bd 13e3 d4bd
00000060: 986e 113c 8b5b 773d 2880 233d 7788 9d3c
00000070: 1c8d 9e3b 81f0 cabd e0a8 15bd 85af 4cbd
00000080: 00b6 913d 8340 06bc 36ff 04bd 2968 893d
00000090: 66d1 7a3d f48e 5cbd 4797 f0bd ed89 263d
000000a0: ad6e babd 92be 9bbd d058 343d c42d 1f3d
000000b0: a9f8 ad3c 6ee3 303d a082 35bd 4282 8e3d
000000c0: 2aae c03d 43bc 903c 8827 b13c 5139 873d
000000d0: b45c 19bd 2803 413d 1e9a 2abd 4ee0 01be
000000e0: 9b69 303d 05e0 19bd 4f6c 9e3d 13dd 1c3d
000000f0: f433 333c 545e 2e3d 75d1 4bbd a3cf a7bd
00000100: 8bbd 87bd 55ef a53d 767d 7c3d e52d 13bd
00000110: 80a9 49bb 04a5 bf3b 5b15 693d 8421 053d
00000120: 7846 2dbd bebe 7c3d 337c 343d 6534 4ebc
00000130: 0004 f5bc 427a 3b3d 7b29 74bd a03c d2bc
00000140: 903d 163d 71c2 83bd 4a34 7e3d eb5d 9f3d
00000150: 415f 5fbd cf92 6c3d dcbe 793d 761e 093d
00000160: 8988 cbbd dd8d 43bd 4b43 59bd 9845 e53c
00000170: 7d05 04bd 55c5 6e3d 8410 0ebd c878 bc3c
00000180: 37a7 3d3b f0d2 f4bb 403b be3c ecaf 6bbb
00000190: d29e e2bd 1c84 253d 16ab 4cbd 015f 9a3d
000001a0: e727 a33d 1910 fdb8 4742 8d3d 8bce 123d
000001b0: 0327 7cbd 8aec aa3d a386 14bd b8bf c4bc
000001c0: 678f 313d b2e9 863d 72a1 a03d a672 8fbd
000001d0: 6708 8fbc fcc5 593d a0f0 5ebc c0ff f3bd
000001e0: 9983 22bd 5232 bf3d 664a 813d 8494 a63b
000001f0: 007d e83c 524b a93c 4c4d 41bd 2639 d03c

_policy.8.weight f4 [3, 128]
0.12685725 -0.024393966 -0.14220442 -0.0071818596 -0.08998425 -0.052976284 -0.11584485 0.027574245
-0.09296247 -0.11038699 0.118956804 0.13150485 0.057907548 0.027968314 0.035965484 -0.046655294
0.12719955 0.20136823 0.07379597 -0.042019207 0.11929187 0.002868574 -0.07859075 -0.026584866
-0.10923809 -0.075645946 0.11878591 0.21317859 0.021977022 0.05309674 0.096693344 -0.17142138
0.03180686 -0.12754558 -0.2427543 0.12807056 0.11431988 -0.017047022 0.020740757 0.18315352
-0.04687144 0.025303612 0.034779765 0.06640596 0.046864193 0.11423526 -0.024391918 0.006320169
0.08165003 0.099594936 -0.035042323 -0.15751737 -0.016393082 -0.037782118 0.03547406 0.36766908
-0.01706621 0.045622658 0.0023733394 -0.050697457 0.06348633 0.17440917 -0.09477408 0.043082047
-0.038892068 0.14231572 0.07793852 0.027121004 0.039604682 -0.028414844 -0.12271387 0.12363408
-0.13196501 -0.014535687 0.22617362 0.039360646 -0.038542677 -0.02922579 -0.14702228 0.026301764
-0.015884353 0.020037854 0.017150529 0.02567006 -0.009187625 0.15064877 -0.09105546 0.09198739
0.31152123 0.03736122 0.18968782 -0.11553173 0.112809874 -0.05480164 -0.091040716 -0.0309257
0.06395043 -0.0062318295 0.0815251 -0.04619455 -0.06629007 -0.08321382 0.035438567 0.0036223722
0.072278716 0.01483632 -0.15424907 -0.038707882 -0.0842536 0.10672501 -0.03695551 0.05533383
0.0098732 0.0023675424 0.06272137 -0.0151685625 -0.107545175 -0.06523245 -0.0029356815 -0.12618542
-0.07880159 0.025713999 0.06143522 -0.029583734 -0.004667032 0.056914546 -0.08222934 0.005892436
-0.068088196 0.068938546 0.16085078 -0.05494021 -0.05688063 0.11558656 -0.12720276 0.031584363
-0.025093121 -0.002821232 -0.063686766 -0.082202524 0.055502553 -0.08434425 0.006533031 -0.00024047642
-0.018953534 -0.050122526 0.045945764 0.104476005 0.012535019 0.060976032 0.19024102 -0.061568484
0.022750868 -0.0498448 -0.078787655 -0.0052101356 -0.09550421 0.044990312 -0.08476554 0.019665625
-0.048987504 -0.050014295 0.08176618 0.012989839 0.034778494 0.07245948 0.010311322 -0.03384401
-0.12453092 -0.009020238 -0.064253286 -0.1158864 0.17458427 -0.09583051 0.04217544 -0.099619314
-0.031505015 -0.07994478 -0.07933718 0.15365648 0.101097494 -0.07054158 -0.01809801 -0.32208368
0.14472035 -0.0028678235 0.076141685 0.10237957 0.05624141 -0.028040785 0.05836559 -0.07240246
-0.088709556 -0.11887653 0.047834862 -0.09688566 -0.06957438 -0.05260079 0.05759936 -0.07129489
0.022939485 -0.08761032 -0.044039063 -0.0062020477 -0.034691934 -0.022444656 0.06098605 -0.03790315
-0.06666053 -0.040366054 0.07283162 -0.15565065 -0.087717414 -0.0086024385 0.026593199 0.10604174
-0.26630458 0.04815327 -0.08276342 -0.018069558 0.06551109 -0.043216884 0.01116403 0.0681658
0.07744346 -0.10720247 0.075146556 -0.081796296 0.17282748 -0.060667805 -0.06011411 0.074472226
-0.090220876 -0.029924238 -0.061168306 0.10295177 -0.063557036 -0.09772686 0.12712376 0.0691273
-0.04572505 0.1132615 0.047708884 -0.013361907 0.12654139 0.053512305 0.020657068 -0.070392355
0.07716346 -0.05951276 -0.051473822 -0.13726303 0.05512549 0.07671247 0.07651442 -0.13773826
00000000: dee6 013e dbd5 c7bc 099e 11be ce55 ebbb
00000010: aa49 b8bd a9fd 58bd 1140 edbd 62e3 e13c
00000020: 1c63 bebd 9312 e2bd a09f f33d 35a9 063e
00000030: 7730 6d3d ce1d e53c 8b50 133d 9f19 3fbd
00000040: 9940 023e 7933 4e3e 5722 973d 551c 2cbd
00000050: 4c4f f43d b0fe 3b3b 30f4 a0bd 81c8 d9bc
00000060: 38b8 dfbd 43ec 9abd 0746 f33d 7d4b 5a3e
00000070: 2809 b43c f87b 593d 2907 c63d 1689 2fbe
00000080: e947 023d 4f9b 02be 9594 78be ee24 033e
00000090: 8b20 ea3d 32a6 8bbc 85e8 a93c 998c 3b3e
000000a0: 44fc 3fbd 8549 cf3c 3a75 0e3d d9ff 873d
000000b0: abf4 3f3d 2df4 e93d 8fd1 c7bc 6c19 cf3b
000000c0: 2238 a73d 6ef8 cb3d 8a88 0fbd 3c4c 21be
000000d0: c94a 86bc 6cc1 1abd 3f4d 113d 1f3f bc3e
000000e0: 70ce 8bbc d3de 3a3d 078a 1b3b 23a8 4fbd
000000f0: 1f05 823d 5198 323e ea18 c2bd cd76 303d
00000100: 4a4d 1fbd 36bb 113e 3b9e 9f3d de2c de3c
00000110: 8538 223d 3fc6 e8bc 6951 fbbd dd33 fd3d
00000120: d621 07be 1727 6ebc 0f9a 673e a138 213d
00000130: edde 1dbd ed6a efbc 028d 16be cc76 d73c
00000140: e71f 82bc 6d26 a43c 447f 8c3c 054a d23c
00000150: b187 16bc ac43 1a3e 497b babd e263 bc3d
00000160: b67f 9f3e 1408 193d 863d 423e e69b ecbd
00000170: dd08 e73d af77 60bd 8e73 babd e557 fdbc
00000180: 71f8 823d 6034 ccbb a2f6 a63d 7f36 3dbd
00000190: 17c3 87bd 026c aabd 0828 113d 5265 6d3b
000001a0: dd06 943d 0914 733c 78f3 1dbe 288c 1ebd
000001b0: 278d acbd a492 da3d a95e 17bd baa5 623d
000001c0: 34c3 213c c528 1b3b 1074 803d 9085 78bc
000001d0: a540 dcbd 9798 85bd 9064 40bb c036 01be
000001e0: ba62 a1bd 2aa6 d23c 7fa3 7b3d 9659 f2bc
000001f0: e7ed 98bb 3a1f 693d db67 a8bd 5615 c13b
00000200: d371 8bbd a72f 8d3d 11b6 243e fc08 61bd
00000210: aafb 68bd a5b8 ec3d 7141 02be 9b5e 013d
00000220: 1790 cdbc 6be4 38bb 356e 82bd cc59 a8bd
00000230: a556 633d aebc acbd 0913 d63b 6628 7cb9
00000240: 7144 9bbc 474d 4dbd a031 3c3d 84f7 d53d
00000250: ae5f 4d3c 01c2 793d 8bce 423e 3c2f 7cbd
00000260: 0760 ba3c 102a 4cbd 6c5b a1bd c9b9 aabb
00000270: b697 c3bd c347 383d 8e99 adbd ce19 a13c
00000280: 1fa7 48bd cadb 4cbd 0775 a73d 55d3 543c
00000290: e573 0e3d a365 943d d2f0 283c 04a0 0abd
000002a0: 110a ffbd 9fc9 13bc 3a97 83bd d955 edbd
000002b0: 38c6 323e c942 c4bd 27c0 2c3d 3605 ccbd
000002c0: 670b 01bd 17ba a3bd 887b a2bd 2058 1d3e
000002d0: 340c cf3d 1b78 90bd 4742 94bc 27e8 a4be
000002e0: 9231 143e 18f2 3bbb 2cf0 9b3d 61ac d13d
000002f0: 655d 663d cab5 e5bc c210 6f3d be47 94bd
00000300: 5bad b5bd 8a75 f3bd 7dee 433d fd6b c6bd
00000310: 037d 8ebd ed73 57bd 4eed 6b3d 0e03 92bd
00000320: 96eb bb3c 0a6d b3bd 4e62 34bd 8c3a cbbb
00000330: 2119 0ebd dbdd b7bc 82cc 793d 5540 1bbd
00000340: 5185 88bd e056 25bd bf28 953d e262 1fbe
00000350: 30a5 b3bd 3ef1 0cbc fbd9 d93c 692c d93d
00000360: 1359 88be 5d3c 453d de7f a9bd 9c06 94bc
00000370: ae2a 863d 3004 31bd 56e9 363c 839a 8b3d
00000380: ad9a 9e3d f88c dbbd 70e6 993d d184 a7bd
00000390: b0f9 303e ce7e 78bd 373a 76bd e584 983d
000003a0: b9c5 b8bd ad23 f5bc 9e8b 7abd 61d8 d23d
000003b0: 312a 82bd 0525 c8bd bb2c 023e 9d92 8d3d
000003c0: 314a 3bbd a5f5 e73d 646a 433d e6eb 5abc
000003d0: 1194 013e b82f 5b3d 0339 a93c de29 90bd
000003e0: e007 9e3d a7c3 73bd 37d6 52bd ae8e 0cbe
000003f0: 44cb 613d 6d1b 9d3d 98b3 9c3d 420b 0dbe

_policy.8.bias f4 [3]
0.11725448 0.030227287 0.06589359
00000000: 1e23 f03d 379f f73c 38f3 863d
