logs/weight_colliion_obj_obs = 0.4/model/best_model_18.pth (torch, 427625 bytes, 19 tensors)

_policy.0.weight f4 [128, 22]
-0.077967726 0.020067642 0.002339811 0.09015257 -0.06808741 -0.1062184 -0.026239075 -0.13758694
0.18392755 0.08711199 0.10418628 0.16015509 0.16744712 0.2043154 0.07502915 0.008692297
-0.050658863 0.16964395 0.16324142 0.13590477 -0.090722986 -0.11752458 0.03839308 0.0885902
0.094397835 0.1045605 -0.10085001 -0.09882011 0.08595358 -0.032250702 -0.18534316 -0.08576607
0.05944303 0.02437378 0.024256354 0.022036882 0.10436799 -0.010191996 0.06477651 -0.22404465
-0.2592358 -0.025850482 0.033533067 -0.050247137 -0.1448659 -0.16145915 0.11055672 -0.024557248
0.10180169 0.015285047 -0.16249138 0.173464 0.5743725 -0.21265544 0.22283714 -0.037106823
0.17411813 -0.019643059 0.0326594 0.13818903 -0.11112308 0.10225749 -0.055005666 -0.15138783
-0.16417533 -0.17125066 0.0999543 -0.19809434 -0.0153174875 -0.0173069 -0.1526404 -0.09570249
0.050159924 -0.015357072 0.09780904 -0.11549169 -0.040701162 -0.08775923 -0.05467831 0.2459285
-0.22544518 -0.20673491 -0.13958435 0.11538485 -0.12772812 0.20874646 0.22056618 0.19422907
0.26131877 -0.094886735 -0.07543096 -0.0740155 0.27880886 -0.18542743 -0.25785834 -0.2749243
-0.30742377 0.20789754 -0.016369555 -0.045026924 -0.1184691 0.17619602 0.06614624 0.17664371
0.16830897 0.05615105 0.10349533 -0.20807016 -0.1060298 -0.10653328 -0.14441414 0.14454935
0.1455938 -0.27414742 0.048884705 0.011012988 -0.10295391 0.27706864 -0.14336452 -0.10508508
-0.19598693 -0.15065402 -0.17408666 -0.12108727 -0.036158487 0.07220675 0.1616691 -0.04761512
-0.055033546 -0.00945883 -0.17216797 0.037262946 -0.23083638 -0.17030713 0.17268167 0.15847516
0.23364475 -0.019522524 -0.26244256 0.15181363 0.0927119 -0.014587342 -0.10029531 -0.32262057
-0.20675452 0.035427283 -0.106949024 -0.15111898 -0.12169365 -0.10502851 0.28553906 -0.1015405
0.24229409 -0.030038467 -0.24820103 0.040434785 0.022067565 0.24262014 0.00058272557 0.1996768
-0.033918194 -0.07936271 -0.2809736 0.25635502 -0.17980984 -0.06464557 0.060999263 0.14499193
-0.20215125 0.1355825 -0.11606501 -0.098220654 0.15209079 0.08026357 -0.0152011085 0.15168075
-0.017140174 0.13429631 -0.061893392 -0.022367304 0.22961168 0.15649243 -0.22846586 0.013960548
0.6073653 0.2125784 0.016818782 0.18459135 0.17314163 0.09094139 0.19210927 -0.16039468
0.12926699 -0.16162653 -0.040687755 0.006984952 -0.011535594 0.11580037 0.041830394 0.20129336
-0.25852862 -0.06774344 -0.09899461 0.254728 -0.21566685 -0.17298901 -0.3640869 0.0439726
-0.12988152 0.12479537 0.10876789 -0.08832925 -0.041329283 0.14026827 0.12097493 -0.1699436
-0.06923487 0.1257845 0.042595997 -0.122673996 -0.059253704 0.064963266 0.057711113 0.047244143
-0.14291294 0.13102621 -0.12379939 0.1829001 0.5609913 0.26884428 0.19815724 0.017808776
0.03375102 -0.0005566453 0.08768983 0.12492443 0.18466145 0.09432599 -0.13173866 -0.05318426
-0.16792144 0.17154007 0.10848539 -0.07793454 -0.14335921 -0.05517977 0.002447986 -0.12625794
0.06662907 -0.08811021 -0.09263929 -0.13839123 0.04927556 -0.14396654 -0.09845848 -0.25445196
00000000: 8bad 9fbd e564 a43c 8457 193b e9a1 b83d
00000010: 6971 8bbd 0889 d9bd 54f3 d6bc 97e3 0cbe
00000020: 8157 3c3e c567 b23d 9e5f d53d b2ff 233e
00000030: 4277 2b3e 0e38 513e e2a8 993d 236a 0e3c
00000040: ab7f 4fbd 25b7 2d3e c228 273e 9f2a 0b3e
00000050: f9cc b9bd bab0 f0bd 1042 1d3d c76e b53d
00000060: a753 c13d d123 d63d 738a cebd 3362 cabd
00000070: 6e08 b03d 5019 04bd 99ca 3dbe 1fa6 afbd
00000080: 897a 733d 85ab c73c 43b5 c63c b186 b43c
00000090: e2be d53d 54fc 26bc 8ca9 843d f66b 65be
000000a0: 8eba 84be 64c4 d3bc f859 093d f1cf 4dbd
000000b0: ba57 14be 8c55 25be 906b e23d 482c c9bc
000000c0: 687d d03d 226e 7a3c 2464 26be 8ca0 313e
000000d0: 130a 133f 59c2 59be 6b2f 643e 53fd 17bd
000000e0: 064c 323e 7bea a0bc ddc5 053d 6d81 0d3e
000000f0: 7f94 e3bd 606c d13d 9f4d 61bd 6905 1bbe
00000100: 941d 28be 555c 2fbe d7b4 cc3d 3ed9 4abe
00000110: 33f6 7abc 33c7 8dbc c44d 1cbe abff c3bd
00000120: 7e74 4d3d 3b9c 7bbc 1b50 c83d e886 ecbd
00000130: 43b6 26bd 1cbb b3bd 5df6 5fbd aed4 7b3e
00000140: 1adb 66be 51b2 53be 33ef 0ebe e44e ec3d
00000150: 29cb 02be a2c1 553e 1adc 613e fce3 463e
00000160: 93cb 853e fa53 c2bd 8c7b 9abd 7095 97bd
00000170: 09c0 8e3e b0e0 3dbe 0206 84be e1c2 8cbe
00000180: a666 9dbe 18e3 543e 7219 86bc 276e 38bd
00000190: ed9f f2bd bb6c 343e ae77 873d 17e2 343e
000001a0: 3059 2c3e a5fe 653d 5cf5 d33d 5810 55be
000001b0: 2726 d9bd 1f2e dabd 4de1 13be bf04 143e
000001c0: 8b16 153e 0d5d 8cbe 543b 483d d26f 343c
000001d0: 80d9 d2bd f1db 8d3e 26ce 12be d936 d7bd
000001e0: ccb0 48be 0c45 1abe c643 32be 9afc f7bd
000001f0: ec1a 14bd 22e1 933d 968c 253e 1208 43bd
00000200: db6a 61bd 35f9 1abc cd4c 30be 08a1 183d
00000210: 5f60 6cbe fe64 2ebe 77d3 303e 5047 223e
00000220: 9240 6f3e b3ed 9fbc df5e 86be 0875 1b3e
00000230: bddf bd3d bfff 6ebc a167 cdbd 862e a5be
00000240: 75b7 53be 331c 113d 1708 dbbd efbe 1abe
00000250: 853a f9bd 3019 d7bd 2d32 923e 77f4 cfbd
00000260: f11b 783e 3b13 f6bc 6928 7ebe f29e 253d
00000270: 0ac7 b43c 6a71 783e 0dc2 183a 1378 4c3e
00000280: ceed 0abd eb88 a2bd c6db 8fbe f740 833e
00000290: 1220 38be e664 84bd 5dda 793d c478 143e
000002a0: bd00 4fbe 24d6 0a3e 7eb3 edbd e927 c9bd
000002b0: b0bd 1b3e 3a61 a43d 120e 79bc 3352 1b3e
000002c0: 8d69 8cbc f984 093e ed83 7dbd a33b b7bc
000002d0: 531f 6b3e 8d3f 203e f4f2 69be c8ba 643c
000002e0: 4b7c 1b3f 27ae 593e 8bc7 893c 8405 3d3e
000002f0: 0a4c 313e 7b3f ba3d 4bb8 443e 813e 24be
00000300: 915e 043e 6d81 25be 34a8 26bd 06e2 e43b
00000310: caff 3cbc bf28 ed3d 5956 2b3d d91f 4e3e
00000320: dd5d 84be 13bd 8abd b0bd cabd b56b 823e
00000330: c5d7 5cbe 0824 31be 9969 babe 9d1c 343d
00000340: a9ff 04be b794 ff3d b3c1 de3d f7e5 b4bd
00000350: e548 29bd 7ca2 0f3e b4c1 f73d b205 2ebe
00000360: 03cb 8dbd a7cd 003e 2479 2e3d 813c fbbd
00000370: 03b4 72bd 760b 853d 7d62 6c3d 1383 413d
00000380: c557 12be bc2b 063e 898a fdbd 2a4a 3b3e
00000390: 209d 0f3f f5a5 893e bbe9 4a3e b6e3 913c
000003a0: 823e 0a3d d5eb 11ba ba96 b33d 61d8 ff3d
000003b0: e417 3d3e fc2d c13d 80e6 06be bdd7 59bd
000003c0: 99f3 2bbe 33a8 2f3e 972d de3d 259c 9fbd
000003d0: c2cc 12be 2f04 62bd 646e 203b c349 01be
000003e0: d274 883d 2073 b4bd abb9 bdbd 6eb6 0dbe
000003f0: 2bd5 493d f76b 13be 99a4 c9bd 8747 82be

_policy.0.bias f4 [128]
0.10518943 0.04376781 -0.1929374 -0.12738886 -0.004520641 -0.09726812 -0.0018951652 0.079626895
-0.0138601335 0.1702585 0.13994618 0.15657458 -0.19786659 -0.2293057 -0.0055545447 -0.16288114
-0.0050065373 0.062120155 -0.21390255 0.04559707 0.16926199 -0.007975809 -0.15691982 0.21138492
-0.024317749 -0.0036848546 -0.04797937 0.035716753 0.17230596 -0.1562968 -0.17689717 -0.1049696
0.18084444 -0.028630113 0.09527881 0.093432225 0.20734286 -0.17136882 -0.10791251 0.06828818
-0.030447675 0.15013392 -0.1607799 -0.069196336 0.05127536 -0.16382395 0.18187237 0.13886558
-0.026598608 -0.17706731 -0.231525 -0.082134396 -0.11684745 0.14645638 -0.18119952 -0.11691485
0.010672051 0.15647748 0.17240925 0.003432181 0.01978911 0.0275906 -0.16956472 -0.18501309
-0.056537252 -0.011100928 -0.010209037 -0.05916484 -0.101176485 -0.16346586 -0.22089621 0.0024020106
-0.19858663 0.19311427 -0.06381662 0.054388743 -0.09231002 -0.084367596 -0.04784802 -0.11601621
0.1506364 0.057147775 0.09845019 -0.17971987 -0.12438309 0.013465799 -0.026785053 -0.02341269
-0.042841643 -0.18361232 0.14355317 -0.18117474 0.11065812 -0.1284773 -0.1274348 0.054468792
-0.15204321 -0.08635565 -0.14139609 -0.1271034 -0.1651914 -0.17432614 -0.116656885 -0.034514982
-0.007428742 0.08200159 -0.17506792 -0.16394252 -0.002165007 0.13712344 0.16984823 -0.04508279
-0.10034309 -0.054342758 -0.21586682 0.1623166 0.14737397 0.0939269 -0.06023488 0.037597157
0.08152497 -0.048356175 0.12270073 -0.012257916 0.110728465 -0.189884 -0.1445391 -0.18929145
00000000: 8e6d d73d e045 333d 6291 45be 3a72 02be
00000010: e321 94bb 8234 c7bd 3167 f8ba 6d13 a33d
00000020: 9d15 63bc 3f58 2e3e 0d4e 0f3e 1655 203e
00000030: 8a9d 4abe 1dcf 6abe e602 b6bb 50ca 26be
00000040: e10d a4bb b471 7e3d 4509 5bbe fec3 3a3d
00000050: 0453 2d3e f8ac 02bc 97af 20be 4a75 583e
00000060: 0436 c7bc 9a7d 71bb 0486 44bd bb4b 123d
00000070: f970 303e 450c 20be 8824 35be 4dfa d6bd
00000080: 492f 393e b389 eabc 8921 c33d 6559 bf3d
00000090: b051 543e 4f7b 2fbe 3c01 ddbd acda 8b3d
000000a0: 676d f9bc b5bc 193e 7ca3 24be cfb6 8dbd
000000b0: 1d06 523d 77c1 27be c03c 3a3e c732 0e3e
000000c0: 53e5 d9bc 2251 35be e414 6dbe 1436 a8bd
000000d0: b74d efbd a9f8 153e 5e8c 39be 0e71 efbd
000000e0: d4d9 2e3c a23b 203e 0d8c 303e 71ee 603b
000000f0: c61c a23c af05 e23c 60a2 2dbe 1274 3dbe
00000100: 9b93 67bd abe0 35bc ce43 27bc d556 72bd
00000110: 9e35 cfbd 9863 27be 9e32 62be 0d6b 1d3b
00000120: 4b5a 4bbe bfbf 453e 4ab2 82bd bbc6 5e3d
00000130: 090d bdbd ebc8 acbd 49fc 43bd e899 edbd
00000140: 6e40 1a3e c913 6a3d 41a0 c93d 7c08 38be
00000150: 90bc febd a89f 5c3c 546c dbbc f8cb bfbc
00000160: b87a 2fbd de04 3cbe 9aff 123e df85 39be
00000170: b9a0 e23d 8e8f 03be 457e 02be ab1a 5f3d
00000180: 37b1 1bbe 3bdb b0bd 23ca 10be 6527 02be
00000190: ef27 29be 8d82 32be cee9 eebd 955f 0dbd
000001a0: ce6c f3bb 73f0 a73d 0145 33be 8ce0 27be
000001b0: cae2 0dbb 166a 0c3e b2ec 2d3e bba8 38bd
000001c0: ae80 cdbd 8396 5ebd 310c 5dbe 5336 263e
000001d0: 34e9 163e bf5c c03d d9b8 76bd 7aff 193d
000001e0: 90f6 a63d 2011 46bd 854a fb3d 6dd5 48bc
000001f0: 9bc5 e23d f470 42be 0f02 14be 9ed5 41be

_policy.2.weight f4 [128, 128]
0.01848084 0.04469689 -0.043556415 0.07632643 0.080508836 -0.12668024 0.05096986 0.059708033
-0.0395295 -0.094138265 0.018707389 -0.0059660175 -0.04929669 0.02594149 -0.058013912 0.070505485
-0.07542834 -0.014625379 -0.07160275 0.1067548 0.03049331 0.037967887 0.08353574 -0.0046958188
-0.06558794 -0.09823453 0.07345646 0.000865103 -0.08474155 -0.03495545 -0.06759687 -0.0019055652
0.071759045 -0.113151275 0.08969943 -0.080202125 0.06894805 -0.18347275 -0.038471624 -0.012321092
0.0013291452 0.032705985 -0.07617317 -0.080685824 -0.0005081064 0.039821062 0.009118239 -0.13619612
-0.043291863 -0.0045743445 0.016314084 0.06430864 0.008228542 -0.08931869 -0.06569751 -0.061004307
-0.02038623 0.045557555 -0.05192201 -0.085267 -0.06920781 0.016395701 -0.042269044 0.06648832
0.047277637 0.02220158 0.065866165 -0.06709502 0.048473842 -0.066842526 -0.035892125 -0.12599742
-0.040346436 -0.079571195 -0.067642085 -0.000964229 -0.041792404 0.090031065 -0.06619649 -0.047525804
0.02681077 -0.039525434 -0.016626256 -0.077949986 -0.15456773 -0.09518117 -0.04717713 0.08060847
-0.055002064 -0.004671216 -0.09437584 0.086273305 0.051174156 -0.021664878 -0.06809093 0.07975048
-0.058810983 -0.0001854603 0.09300472 0.03631967 -0.15449448 0.024950288 0.0723749 -0.014902734
0.03744815 -0.075144105 -0.044318784 -0.010488505 -0.11188129 -0.090352945 -0.11009523 -0.05416841
-0.015759623 -0.078083165 0.0012578402 -0.048128966 0.06531248 0.08963635 -0.10819137 0.11524091
-0.010072865 0.019921945 0.0052632266 -0.06550831 0.0011012261 -0.13209616 0.05774079 0.07293328
-0.033021722 -0.038796447 -0.005869724 -0.00854259 0.06988218 -0.05420686 0.017066963 -0.005996276
0.050274648 -0.014023114 -0.017975941 -0.09674923 -0.008333196 -0.061894648 -0.09061856 -0.014395564
-0.10365653 -0.035615645 -0.08620702 0.08389674 -0.09496863 0.023210768 -0.05262787 0.040537354
-0.020719964 0.00034093793 -0.02708536 -0.051983457 -0.08108775 0.005461028 0.007967092 -0.04144904
-0.031337913 -0.054707363 -0.028517349 -0.05337115 0.004638344 -0.019427165 -0.049055625 -0.05933035
0.06142887 0.053017702 0.04941567 0.02314776 0.07900676 -0.09595393 -0.016687853 -0.08669224
-0.07281206 -0.06941916 0.012753575 -0.07376565 -0.0118535375 0.04386018 -0.058292903 -0.009394472
0.0045326343 -0.05309419 0.047853325 -0.08189155 0.06650536 0.052911386 -0.011100257 -0.013392762
0.03953313 0.051208224 -0.07211348 0.025875378 -0.024249867 0.0649136 -0.02715582 -0.057843518
0.060124405 -0.07958229 0.040419664 -0.046301346 -0.042177405 -0.08625236 -0.021514932 -0.028380565
-0.044622682 0.024645407 0.02351816 -0.054357782 0.03610325 0.0351156 -0.0110730985 -0.0011086089
0.049697492 0.04386108 -0.0012326007 -0.081100605 0.053278323 0.011293213 0.06303429 0.057346947
0.04705006 -0.05463937 -0.09802532 -0.08746556 -0.06502486 -0.011480167 0.04195877 0.056314286
-0.06885009 0.011741761 -0.07122271 0.069900535 0.06567583 -0.013162418 0.008680374 -0.012974121
0.020797705 0.06251696 0.04811584 0.03575375 -0.011829639 -0.036942873 0.037120182 -0.07732108
0.04969754 0.018417327 -0.08485103 -0.083727196 -0.029791493 0.019958004 0.06939226 -0.037059695
00000000: 2165 973c 1614 373d 3668 32bd 0851 9c3d
00000010: d1e1 a43d 77b8 01be c6c5 503d 6990 743d
00000020: afe9 21bd 90cb c0bd 3d40 993c 957e c3bb
00000030: 53eb 49bd 3f83 d43c ff9f 6dbd 2e65 903d
00000040: 2c7a 9abd 499f 6fbc 76a4 92bd 43a2 da3d
00000050: 1bcd f93c 3784 1b3d c914 ab3d 62df 99bb
00000060: f852 86bd 2f2f c9bd 5770 963d 14c8 623a
00000070: fa8c adbd 722d 0fbd 3a70 8abd 28c4 f9ba
00000080: 68f6 923d dbbb e7bd 56b4 b73d 0341 a4bd
00000090: a334 8d3d 48e0 3bbe 6c94 1dbd 68de 49bc
000000a0: b636 ae3a b6f6 053d ae00 9cbd 9c3e a5bd
000000b0: 7132 05ba 691b 233d ab64 153c ff76 0bbe
000000c0: cf52 31bd 62e4 95bb 1da5 853c 40b4 833d
000000d0: 02d1 063c b8ec b6bd 6b8c 86bd a7df 79bd
000000e0: 0601 a7bc 8f9a 3a3d 2cac 54bd 77a0 aebd
000000f0: d3bc 8dbd 4750 863c 4e22 2dbd 072b 883d
00000100: 32a6 413d 17e0 b53c d7e4 863d 1d69 89bd
00000110: 828c 463d bce4 88bd 9f03 13bd 7805 01be
00000120: 4e42 25bd 39f6 a2bd ef87 8abd 50c4 7cba
00000130: 832e 2bbd 3562 b83d 0692 87bd 6baa 42bd
00000140: 43a2 db3c 6ce5 21bd c933 88bc 3ea4 9fbd
00000150: 0147 1ebe 58ee c2bd ce3c 41bd 0e16 a53d
00000160: d849 61bd 0011 99bb 1f48 c1bd 0fb0 b03d
00000170: fe9b 513d 8b7a b1bc 4273 8bbd 3854 a33d
00000180: c9e3 70bd 1f78 42b9 4279 be3d efc3 143d
00000190: cd33 1ebe 8c64 cc3c 4b39 943d 992a 74bc
000001a0: 3b63 193d 27e5 99bd 9d87 35bd fad7 2bbc
000001b0: 0522 e5bd f70a b9bd 9c79 e1bd b2df 5dbd
000001c0: 531a 81bc 11ea 9fbd 1dde a43a e122 45bd
000001d0: 8dc2 853d 4393 b73d 7093 ddbd 6d03 ec3d
000001e0: a808 25bc 5933 a33c 2577 ac3b 3929 86bd
000001f0: 0457 903a 3744 07be 9b81 6c3d 0b5e 953d
00000200: c941 07bd 06e9 1ebd d056 c0bb 38f6 0bbc
00000210: 631e 8f3d 0308 5ebd 04d0 8b3c 697c c4bb
00000220: caec 4d3d 34c1 65bc 4842 93bc 7624 c6bd
00000230: f587 08bc 3e85 7dbd 3996 b9bd 5fdb 6bbc
00000240: e049 d4bd b6e1 11bd 4e8d b0bd 0ed2 ab3d
00000250: ea7e c2bd 8224 be3c 5290 57bd 7f0a 263d
00000260: eabc a9bc eabf b239 1ee2 ddbc 9bec 54bd
00000270: 5611 a6bd 6cf2 b23b 6888 023c 78c6 29bd
00000280: 2f5c 00bd d414 60bd 379d e9bc b59b 5abd
00000290: 40fd 973b b825 9fbc 8dee 48bd 6204 73bd
000002a0: d79c 7b3d 1729 593d 1668 4a3d 5fa0 bd3c
000002b0: 4cce a13d 7e83 c4bd f7b4 88bc b38b b1bd
000002c0: 7d1e 95bd a22b 8ebd 5ff4 503c 7212 97bd
000002d0: 5735 42bc bba6 333d 8ac4 6ebd 46eb 19bc
000002e0: 7e86 943b 4b79 59bd d901 443d c2b6 a7bd
000002f0: f633 883d 9cb9 583d dadd 35bc 516d 5bbc
00000300: 7eed 213d b7bf 513d 3bb0 93bd 9af8 d33c
00000310: a8a7 c6bc 6cf1 843d e275 debc 53ed 6cbd
00000320: 0245 763d 0afc a2bd 178f 253d 7ba6 3dbd
00000330: 37c2 2cbd 14a5 b0bd 1540 b0bc 5c7e e8bc
00000340: 46c6 36bd 2ae5 c93c 28a9 c03c 44a6 5ebd
00000350: 00e1 133d 60d5 0f3d f16b 35bc be4e 91ba
00000360: 998f 4b3d ada7 333d 378f a1ba 1318 a6bd
00000370: 5f3a 5a3d 2b07 393c 1f18 813d a2e4 6a3d
00000380: 90b7 403d 88cd 5fbd 80c1 c8bd 2521 b3bd
00000390: c12b 85bd 4f17 3cbc f6dc 2b3d cfa9 663d
000003a0: 4701 8dbd 8460 403c 36dd 91bd 0328 8f3d
000003b0: 0d81 863d 2fa7 57bc 2138 0e3c 6891 54bc
000003c0: f35f aa3c e408 803d 1d15 453d 8672 123d
000003d0: 1ad1 41bc 6951 17bd 550b 183d 845a 9ebd
000003e0: a68f 4b3d efdf 963c 60c6 adbd 2a79 abbd
000003f0: 4a0d f4bc f87e a33c 871d 8e3d e8cb 17bd

_policy.2.bias f4 [128]
-0.091741264 -0.10004126 -0.09556773 0.057654373 -0.020665037 0.00010866517 0.023319788 0.03433765
0.026458325 0.003406276 -0.021359028 0.07816954 0.083757296 0.08046281 0.07477603 0.05365045
0.040085725 0.08207979 0.060383838 0.018069588 -0.06047236 0.040180296 0.020409256 0.054228287
-0.07632066 -0.02240914 0.058021575 -0.08682975 -0.096440986 0.0649273 -0.06267105 -0.022480791
-0.01655664 0.041541304 -0.08116529 -0.10472995 -0.06163973 0.025858277 0.035770338 -0.041944697
0.055955786 -0.07409879 0.062525146 -0.08257882 0.022844778 0.068260826 0.07726223 -0.009204018
0.0012348474 -0.07667978 -0.011694067 0.040100362 0.08880499 0.030452508 0.041729745 0.053721946
-0.0011731826 -0.0952763 -0.027937826 0.07135494 -0.082928285 0.03128069 -0.043758336 0.0061744535
-0.021876875 0.042581115 0.013902479 0.08934457 -0.07973823 0.000110235094 -0.018865695 -0.0034495548
-0.02817235 -0.08740429 0.06421569 -0.06700449 0.09758973 -0.0672988 0.08627322 -0.009718732
0.03786251 -0.0691986 0.077376895 0.026673656 0.045669198 0.080638066 0.004258017 -0.053277988
-0.05341315 0.032027327 -0.04071792 0.09622122 0.008246657 0.04047282 -0.013159183 -0.05854769
0.0005179106 0.0125510385 -0.06336328 -0.08249151 -0.04614637 0.0015489783 -0.015873564 0.0799088
-0.016500302 0.07836685 0.0021778808 0.040342655 -0.04599698 -0.0771148 -0.03807441 0.068650916
0.07428584 0.06413922 -0.017011411 0.10645881 -0.10126079 0.000729088 -0.053541422 0.051036872
-0.03908623 -0.017137479 -0.039884124 -0.08355242 -0.08497133 0.0751043 -0.055505816 0.08098461
00000000: d8e2 bbbd 6fe2 ccbd 04b9 c3bd fe26 6c3d
00000010: b949 a9bc 2be3 e338 2409 bf3c a3a5 0c3d
00000020: 21bf d83c d43b 5f3b 21f9 aebc 5a17 a03d
00000030: f288 ab3d b0c9 a43d 2d24 993d 93c0 5b3d
00000040: ee30 243d 7319 a83d 0b55 773d ac06 943c
00000050: deb1 77bd 1894 243d 5031 a73c 7b1e 5e3d
00000060: 024e 9cbd 5f93 b7bc 08a8 6d3d ccd3 b1bd
00000070: da82 c5bd 9bf8 843d ae59 80bd a329 b8bc
00000080: caa1 87bc 3727 2a3d fd39 a6bd a87c d6bd
00000090: f179 7cbd bdd4 d33c eb83 123d 34ce 2bbd
000000a0: e531 653d 1bc1 97bd 2f0d 803d 161f a9bd
000000b0: f924 bb3c 55cc 8b3d a93b 9e3d 73cc 16bc
000000c0: 9ada a13a 4a0a 9dbd 7998 3fbc 4740 243d
000000d0: 64df b53d 8a77 f93c cfec 2a3d 8b0b 5c3d
000000e0: 7ac5 99ba 3920 c3bd dedd e4bc 8a22 923d
000000f0: 4ed6 a9bd 2e20 003d f13b 33bd 1253 ca3b
00000100: 2237 b3bc 8969 2e3d 39c7 633c 49fa b63d
00000110: cc4d a3bd 042e e738 3b8c 9abc ed11 62bb
00000120: b3c9 e6bc 0501 b3bd 8483 833d a639 89bd
00000130: 20dd c73d f4d3 89bd 04b0 b03d 513b 1fbc
00000140: b815 1b3d ffb7 8dbd c777 9e3d b682 da3c
00000150: a00f 3b3d 9225 a53d d686 8b3b 053a 5abd
00000160: bfc7 5abd 162f 033d d5c7 26bd a20f c53d
00000170: fd1c 073c d4c6 253d 9d99 57bc b4cf 6fbd
00000180: 64c4 073a dfa2 4d3c 9bc4 81bd 4ff1 a8bd
00000190: fa03 3dbd 1607 cb3a 4709 82bc 3aa7 a33d
000001a0: a42b 87bc cd7e a03d c7ba 0e3b 573e 253d
000001b0: 5467 3cbd 5dee 9dbd eaf3 1bbd da98 8c3d
000001c0: 2d23 983d 6c5b 833d 845b 8bbc 1407 da3d
000001d0: d161 cfbd 4420 3f3a 404e 5bbd 0a0c 513d
000001e0: e218 20bd e663 8cbc 895d 23bd 881d abbd
000001f0: 7305 aebd 49d0 993d 115a 63bd 42db a53d

_policy.4.weight f4 [128, 128]
-0.034610797 -0.048080727 -0.01581185 0.037816472 0.061311994 0.06897223 -0.004040429 0.04803163
-0.055003714 -0.09138996 0.078241885 -0.0056810793 0.06375364 0.0710749 -0.11644443 -0.07598962
-0.07383543 0.16135569 -0.1256921 0.050159395 -0.08602569 -0.03984506 -0.05056162 0.045422867
0.0013158774 0.0047659175 -0.0403376 -0.0005765075 0.059528016 -0.14211176 0.05058035 -0.061754465
0.050614737 0.0711778 0.092081144 0.07174662 0.023594 0.11330146 0.04473776 0.022370411
-0.09051192 0.068108924 0.08697398 0.04633725 0.0708906 0.04967359 0.007960955 -0.076295786
0.04539445 -0.01162629 0.04750605 -0.0404312 -0.021923091 0.067705505 -0.035904862 -0.028569808
-0.016801117 0.0021167696 -0.12906039 0.1091665 -0.04294006 -0.107914425 0.08381049 -0.046302315
0.015105003 0.030679103 0.029069712 -0.059317227 -0.01727442 0.05730675 -0.020695083 -0.12987228
-0.074923754 -0.07527728 0.024689129 -0.08199603 0.07269447 0.011691901 0.071525455 -0.07568511
-0.04825915 0.04498899 -0.051670916 0.07592446 0.13144551 0.04040013 -0.021293504 -0.048641164
-0.050676864 -0.08837777 -0.045702104 0.027861388 0.005085878 -0.049363013 -0.05903079 0.045720175
0.13393137 -0.059341755 -0.010488911 0.058996614 0.044955093 0.09787955 0.021462599 -0.047302336
-0.048116058 -0.040764693 0.04804638 0.0025522492 -0.017490948 0.06284324 -0.0069937008 0.012898719
0.088779435 -0.11116713 0.13313845 -0.025445152 -0.088023365 0.03873332 0.081472404 0.023071345
-0.016423479 0.019285223 -0.03693326 -0.024364391 -0.026807543 0.07064195 -0.07516384 -0.10036016
-0.023288703 0.057888754 0.025272906 0.041595586 -0.035435617 0.018793652 0.035727963 -0.06991179
0.020481285 0.043893714 -0.008055023 0.04186364 0.05306969 -0.0657043 0.010578283 -0.104295045
-0.06115982 0.04684723 -0.015168626 0.05405982 0.0022427498 -0.0887139 -0.0501141 -0.07112546
-0.008173233 -0.025375023 0.034430485 -0.10198746 -0.011369348 0.06411745 0.044950366 0.055011246
-0.040884666 -0.014749837 -0.022388794 -0.016928628 -0.060039964 -0.093855545 -0.070594855 -0.02817157
-0.074965365 -0.07769971 0.016485723 0.026523469 0.044181786 -0.068182014 -0.07884584 -0.024402402
0.030526627 -0.032692805 -0.016610071 -0.06905785 -0.04091715 -0.0075681275 -0.046804935 0.033485048
-0.020284897 -0.044029694 -0.08528919 -0.010044356 -0.08719024 -0.027122254 -0.08100234 0.07059426
-0.08670049 -0.12129319 -0.09660268 0.008755866 -0.021491325 -0.012572775 -0.05837548 -0.027187977
0.028161535 0.030758418 -0.049792916 -0.08498131 0.026133351 -0.019027138 -0.09996446 -0.09256266
0.010911252 0.048042476 0.0021109805 -0.041220073 -0.012940325 0.0672833 -0.046834074 -0.013034226
-0.08054959 0.044059478 -0.06533537 -0.020876614 0.054301225 -0.063869484 -0.062777616 -0.08624096
0.0711333 0.021327408 0.023066772 0.07708209 -0.066145115 0.036717143 -0.027993614 -0.05955343
-0.0050721043 -0.08706757 -0.067708775 -0.042146508 -0.020194268 0.005763525 -0.0761063 -0.07772803
0.033411376 0.062279653 -0.05458924 0.0037788155 -0.021102712 0.017055575 0.004794378 0.039148577
0.04059077 -0.08618757 0.08120685 -0.05731172 -0.025772028 0.011838008 -0.05777268 -0.049905356
00000000: 0dc4 0dbd 4cf0 44bd da87 81bc 72e5 1a3d
00000010: 4922 7b3d 5041 8d3d 9365 84bb d1bc 443d
00000020: 934b 61bd a92a bbbd 483d a03d 5928 babb
00000030: 4591 823d b88f 913d 6b7a eebd 72a0 9bbd
00000040: 0837 97bd 6d3a 253e 6eb5 00be f073 4d3d
00000050: 3d2e b0bd 9334 23bd b419 4fbd 540d 3a3d
00000060: 8579 ac3a 6a2b 9c3b 0a39 25bd c320 17ba
00000070: a6d3 733d bf85 11be 572d 4f3d 40f2 7cbd
00000080: 6651 4f3d abc5 913d 0a95 bc3d e4ef 923d
00000090: 3448 c13c 990a e83d f13e 373d 2742 b73c
000000a0: 505e b9bd b17c 8b3d 6a1f b23d 21cc 3d3d
000000b0: 172f 913d 8976 4b3d aa6e 023c f740 9cbd
000000c0: 88ef 393d 327c 3ebc b495 423d 309b 25bd
000000d0: 0e98 b3bc 2fa9 8a3d fa10 13bd 3b0b eabc
000000e0: 7fa2 89bc 80b9 0a3b 6828 04be b092 df3d
000000f0: ebe1 2fbd 3d02 ddbd d6a4 ab3d 7fa7 3dbd
00000100: f97a 773c be52 fb3c 9b23 ee3c 9ff6 72bd
00000110: 1683 8dbc 7cba 6a3d bc88 a9bc 3dfd 04be
00000120: a071 99bd f92a 9abd db40 ca3c 89ed a7bd
00000130: d7e0 943d 638f 3f3c f07b 923d cc00 9bbd
00000140: 63ab 45bd 6046 383d e2a4 53bd 497e 9b3d
00000150: a799 063e 9b7a 253d b76f aebc f53b 47bd
00000160: 8b92 4fbd 67ff b4bd 2132 3bbd 913d e43c
00000170: 70a7 a63b df30 4abd 45ca 71bd 1445 3b3d
00000180: 4e25 093e 5710 73bd aed9 2bbc 6fa6 713d
00000190: d522 383d 1375 c83d 55d2 af3c 18c0 41bd
000001a0: 5815 45bd e1f8 26bd 48cc 443d a343 273b
000001b0: 2d49 8fbc f5b3 803d 6a2b e5bb 2655 533c
000001c0: fed1 b53d 98ab e3bd 7255 083e 5a72 d0bc
000001d0: 9845 b4bd d4a6 1e3d 01db a63d 1e00 bd3c
000001e0: 888a 86bc 0bfc 9d3c 5447 17bd d597 c7bc
000001f0: 7e9b dbbc baac 903d 80ef 99bd a189 cdbd
00000200: f3c7 bebc c21c 6d3d 2009 cf3c 2260 2a3d
00000210: f024 11bd 25f5 993c 7c57 123d ea2d 8fbd
00000220: 5ec8 a73c e5c9 333d 37f9 03bc 3579 2b3d
00000230: 9a5f 593d fa8f 86bd 8950 2d3c a498 d5bd
00000240: b882 7abd e2e2 3f3d d485 78bc d46d 5d3d
00000250: 19fb 123b a2af b5bd 7144 4dbd 3aaa 91bd
00000260: 06e9 05bc 48df cfbc fb06 0d3d cdde d0bd
00000270: 8046 3abc 0250 833d e01d 383d 7953 613d
00000280: ae76 27bd 4da9 71bc b468 b7bc e8ad 8abc
00000290: 77ec 75bd 5637 c0bd 0994 90bd 10c8 e6bc
000002a0: 7187 99bd 0721 9fbd 110d 873c bf47 d93c
000002b0: f6f7 343d 03a3 8bbd ee79 a1bd 8ce7 c7bc
000002c0: fa12 fa3c e4e8 05bd d811 88bc 346e 8dbd
000002d0: be98 27bd 0efe f7bb 88b6 3fbd 9e27 093d
000002e0: 832c a6bc 7b58 34bd 19ac aebd 1591 24bc
000002f0: cc90 b2bd 7d2f debc 8ee4 a5bd b993 903d
00000300: 0790 b1bd 9068 f8bd a0d7 c5bd c474 0f3c
00000310: 930e b0bc 0afe 4dbc 211b 6fbd 52b9 debc
00000320: 05b3 e63c 14f9 fb3c a8f3 4bbd ae0a aebd
00000330: 9c15 d63c cdde 9bbc 2bba ccbd 7e91 bdbd
00000340: 1cc5 323c 30c8 443d 6058 0a3b 61d6 28bd
00000350: a803 54bc d4cb 893d 16d5 3fbd 828d 55bc
00000360: 2ff7 a4bd b677 343d 8dce 85bd 6f05 abbc
00000370: f66a 5e3d 01ce 82bd 8d91 80bd 1a9f b0bd
00000380: 56ae 913d d1b6 ae3c 87f6 bc3c 37dd 9d3d
00000390: 1777 87bd b764 163d dd52 e5bc 4cee 73bd
000003a0: e533 a6bb 7b50 b2bd e6aa 8abd d1a1 2cbd
000003b0: 736e a5bc f4db bc3b 9fdd 9bbd e02f 9fbd
000003c0: 5eda 083d f318 7f3d f898 5fbd 01a6 773b
000003d0: 98df acbc 22b8 8b3c 281a 9d3b 425a 203d
000003e0: 8242 263d 1c83 b0bd c74f a63d b2bf 6abd
000003f0: dc1f d3bc 34f4 413c 0ca3 6cbd 8f69 4cbd

_policy.4.bias f4 [128]
0.03329439 -0.06366504 0.08237857 -0.06326489 0.022573177 -0.08444886 -0.0097274035 -0.050662085
0.01296489 0.05366925 0.047625367 0.0805486 -0.04152271 -0.0761218 -0.07588272 0.059535194
0.020454554 0.060833864 -0.06147105 -0.05210882 0.08610121 0.06207791 0.061218336 -0.02712301
-0.034284852 0.015671916 -0.04729985 0.040672515 0.0044270856 -0.04385593 0.023075465 0.053434968
0.06403 0.07976478 -0.08241799 0.014773258 0.06810024 -0.100993134 0.06269634 0.04962238
0.052120537 -0.035205584 -0.048038006 0.0052118837 0.034501906 -0.08150314 -0.09453251 -0.079627685
0.041434325 0.03369565 0.039434735 -0.09696968 0.043208 -0.069864504 0.01660534 0.0768451
-0.05924855 -0.02868322 0.02212966 0.00093426695 -0.1095383 -0.047773074 0.0438037 0.036045328
0.0036006928 -0.043985512 -0.015848733 0.046673484 0.09248089 0.01685525 0.03786092 -0.02479897
-0.06549017 0.043830585 0.06391458 0.006238661 0.06857433 0.08223852 0.05339874 0.087984644
0.024623279 -0.0382815 -0.013436354 0.007585158 -0.05182705 0.08447473 0.04838343 -0.06009084
-0.020496383 -0.08706788 0.035549693 0.08006469 0.03864603 -0.02795724 0.03295197 0.049900245
-0.07897731 0.048579406 0.037285734 -0.0025089425 -0.11143693 -0.04441983 0.036742885 0.091861434
0.043551803 0.067740545 0.04964069 0.019328745 0.07923423 0.042735502 -0.027702218 -0.035412427
-0.024989503 -0.006320536 -0.04450177 0.07012692 0.03951864 -0.08421498 -0.06315717 -0.041196283
-0.05452314 0.085803725 -0.01727326 -0.023965407 0.003084668 0.04312838 0.043416817 0.09016674
00000000: b35f 083d d162 82bd 19b6 a83d 0691 81bd
00000010: 62eb b83c 86f3 acbd b05f 1fbc 0c83 4fbd
00000020: b16a 543c 4ad4 5b3d d112 433d aaf6 a43d
00000030: b813 2abd bfe5 9bbd 6668 9bbd 2ddb 733d
00000040: 4f90 a73c ee2c 793d 11c9 7bbd 0f70 55bd
00000050: d555 b03d 6845 7e3d 14c0 7a3d 1331 debc
00000060: 466e 0cbd 6462 803c 7dbd 41bd 3998 263d
00000070: 1611 913b 47a2 33bd c208 bd3c a0de 5a3d
00000080: 2922 833d b85b a33d c3ca a8bd 890b 723c
00000090: 2378 8b3d 7dd5 cebd f066 803d d640 4b3d
000000a0: 587c 553d bb33 10bd 80c3 44bd 73c8 aa3b
000000b0: df51 0d3d 1eeb a6bd 439a c1bd d713 a3bd
000000c0: 0ab7 293d 7304 0a3d 5186 213d 0a98 c6bd
000000d0: dffa 303d 1f15 8fbd ec07 883c f760 9d3d
000000e0: 9cae 72bd 12f9 eabc 4349 b53c 98e9 743a
000000f0: 9e55 e0bd b3ad 43bd 826b 333d 44a4 133d
00000100: 9af9 6b3b 272a 34bd 34d5 81bc b22c 3f3d
00000110: 9f66 bd3d 0514 8a3c 0d14 1b3d 3627 cbbc
00000120: b61f 86bd b387 333d a6e5 823d ae6d cc3b
00000130: b370 8c3d ab6c a83d a3b8 5a3d 4b31 b43d
00000140: c2b6 c93c 10cd 1cbd 2724 5cbc eb8c f83b
00000150: 9a48 54bd 1601 ad3d b42d 463d d021 76bd
00000160: 08e8 a7bc a550 b2bd 8e9c 113d f5f8 a33d
00000170: 4d4b 1e3d 9506 e5bc a5f8 063d 3364 4c3d
00000180: dbbe a1bd 33fb 463d edb8 183d 126d 24bb
00000190: 0c39 e4bd 91f1 35bd b57f 163d d921 bc3d
000001a0: 6063 323d 8ebb 8a3d 0954 4b3d 5157 9e3c
000001b0: 8e45 a23d 6c0b 2f3d c3ef e2bc 9f0c 11bd
000001c0: c9b6 ccbc 801c cfbb 7d47 36bd b49e 8f3d
000001d0: 4cde 213d e778 acbd 8c58 81bd 6fbd 28bd
000001e0: a853 5fbd ddb9 af3d a780 8dbc 1a53 c4bc
000001f0: 2428 4a3b 62a7 303d d5d5 313d 57a9 b83d

_policy.6.weight f4 [128, 128]
0.01507715 -0.022805965 0.045683574 -0.12431027 0.104466684 -0.023947597 -0.036341358 0.05134651
-0.051765554 0.027573137 0.12493981 -0.036442 0.0813774 0.0001523449 -0.020215338 0.008153279
0.08462305 0.044837628 0.024167491 -0.056263834 0.06108531 0.06887171 0.08494105 0.12597714
-0.003924056 -0.0393958 0.04696801 0.022282928 0.07817147 -0.00092240586 0.07910097 -0.08730088
-0.053694528 -0.0053629903 0.07517317 -0.07091257 0.05268402 0.020034991 0.060542576 -0.02962402
0.04950848 -0.011876468 -0.10878112 0.01703755 0.034654237 0.09569864 -0.025360629 -0.106338784
-0.05324263 -0.022417672 0.06702503 -0.016146757 0.06331652 0.07112053 0.032233946 0.02580654
-0.099124685 0.021554904 0.08991312 -0.0055711446 0.020806806 0.116763085 -0.07491024 -0.061727207
-0.07213809 -0.06533635 -0.0013167807 0.02168302 0.09106384 0.010938667 0.06293686 -0.06823317
-0.055809617 -0.06673083 -0.07256404 0.05659755 0.06640133 0.05235911 -0.006322303 -0.038860243
0.06144381 0.04224274 0.046164658 -0.009402106 -0.101470225 -0.038717974 -0.079300985 0.0022708222
-0.07956408 -0.09131873 0.06494475 -0.05541279 0.006860074 0.019888286 -0.062024478 -0.050918758
-0.050053637 0.044180065 0.047500763 0.019054508 0.12868439 0.069202706 0.0030925286 0.059631184
0.05240094 -0.07200203 0.070267 -0.06429695 0.022411427 0.062287603 0.005355043 0.09462273
0.0569914 0.028904045 0.079504296 0.044856258 -0.07443127 0.0382998 0.034938272 0.03022559
0.048784822 0.104445264 0.05721211 0.07151076 -0.08456546 0.023410698 -0.01816384 0.11422205
0.017161401 0.062159393 0.006814643 -0.102211334 -0.049590375 -0.0026496293 -0.031470932 0.0765493
-0.07441453 0.008900569 -0.042693235 0.07434533 -0.064887725 0.021276575 -0.079271555 -0.12653662
0.046175413 -0.08543966 0.0005660411 0.06486423 -0.008664363 -0.018433388 -0.02988527 -0.03846824
-0.061948482 0.01784128 0.031619415 0.05961337 0.07330249 0.001674827 0.004079522 -0.02623825
0.00831784 0.0014828133 0.03306833 0.03605094 0.06827681 0.037172947 -0.03829417 0.04828489
0.04812871 -0.08093941 -0.08723173 0.043155815 0.022924004 -0.094536215 -0.021696193 0.026196728
-0.03831446 -0.009414068 -0.080126554 -0.006715026 -0.05050406 -0.0737238 0.043276735 0.06653581
0.048013777 0.0051637334 0.009958941 0.022648538 0.010687517 -0.110452615 0.0008175517 -0.029803708
-0.038846646 -0.022090333 -0.06443231 0.05797098 -0.026639367 0.05895635 0.03415666 0.06590909
-0.03054447 -0.06167819 0.039296806 0.026332144 -0.0692211 -0.0715095 0.012248999 -0.06388367
-0.012695559 0.03464928 -0.0615506 -0.022073817 0.059891313 0.06539902 0.0995301 -0.07475304
-0.035066534 -0.09382631 -0.03580717 0.0074976566 0.04657469 -0.05320264 -0.051334005 -0.0742172
0.03791352 0.069323786 -0.019221539 -0.10422191 -0.03313431 0.0560281 -0.047742464 0.04096194
-0.031894732 -0.08335526 0.03020678 -0.0037730124 -0.05755008 -0.04233349 0.026492577 -0.025482787
0.063151546 0.022601224 -0.053176146 -0.0916683 -0.0213701 0.07291532 0.013404475 0.021605864
0.037907463 -0.029800838 -0.015966125 0.05419625 -0.07581798 -0.068699844 -0.03169138 -0.06997299
00000000: 2706 773c 93d3 babc b31e 3b3d 6296 febd
00000010: a1f2 d53d c02d c4bc adda 14bd b850 523d
00000020: 1e08 54bd 0fe1 e13c 71e0 ff3d 3544 15bd
00000030: 32a9 a63d c6be 1f39 a39a a5bc 5595 053c
00000040: da4e ad3d a9a7 373d e7fa c53c e874 66bd
00000050: 9734 7a3d 9c0c 8d3d 93f5 ad3d 2700 013e
00000060: 5e95 80bb 7e5d 21bd 8761 403d b08a b63c
00000070: 5d18 a03d 9ccd 71ba b0ff a13d ceca b2bd
00000080: cbee 5bbd 06bc afbb 64f4 993d 9c3a 91bd
00000090: 33cb 573d 6c20 a43c 7efb 773d 13ae f2bc
000000a0: 67c9 4a3d 8495 42bc a3c8 debd 5592 8b3c
000000b0: 9af1 0d3d a6fd c33d 18c1 cfbc 26c8 d9bd
000000c0: f214 5abd 44a5 b7bc 6b44 893d 3446 84bc
000000d0: 17ac 813d a4a7 913d be07 043d 3d68 d33c
000000e0: e201 cbbd e993 b03c 5f24 b83d 268e b6bb
000000f0: 0973 aa3c 7c21 ef3d 8a6a 99bd abd5 7cbd
00000100: 23bd 93bd 10cf 85bd d497 acba 97a0 b13c
00000110: ae7f ba3d 1838 333c 0ae5 803d d5bd 8bbd
00000120: a098 64bd 2caa 88bd 759c 94bd d5d2 673d
00000130: 6cfd 873d 8276 563d 522b cfbb eb2b 1fbd
00000140: 81ac 7b3d b906 2d3d 2717 3d3d 4a0b 1abc
00000150: 9fcf cfbd bd96 1ebd 8e68 a2bd 13d2 143b
00000160: 7ef2 a2bd 5005 bbbd c101 853d 86f8 62bd
00000170: 79ca e03b c2ec a23c 610d 7ebd 3090 50bd
00000180: 0b05 4dbd 28f6 343d 2990 423d 3318 9c3c
00000190: d7c5 033e 26ba 8d3d 05ac 4a3b d43f 743d
000001a0: 5ea2 563d cd75 93bd 25e8 8f3d 1fae 83bd
000001b0: 2b98 b73c 4921 7f3d 5b79 af3b 90c9 c13d
000001c0: d06f 693d 2dc8 ec3c 26d3 a23d 32bb 373d
000001d0: 6c6f 98bd 40e0 1c3d 6f1b 0f3d a89b f73c
000001e0: 98d2 473d 66e7 d53d 3f57 6a3d 3c74 923d
000001f0: a830 adbd cbc7 bf3c 55cc 94bc 40ed e93d
00000200: 1196 8c3c d99a 7e3d 5e4d df3b 2d54 d1bd
00000210: 471f 4bbd 67a5 2dbb aae7 00bd e1c5 9c3d
00000220: a566 98bd b1d3 113c 1adf 2ebd 5d42 983d
00000230: dbe3 84bd 364c ae3c 2059 a2bd d192 01be
00000240: 6e22 3d3d fdfa aebd 6062 143a 8ad7 843d
00000250: f9f4 0dbc 9e01 97bc f4d1 f4bc e090 1dbd
00000260: b1bd 7dbd e027 923c 5c83 013d 262d 743d
00000270: 9e1f 963d de85 db3a 83ad 853b 99f1 d6bc
00000280: 8d47 083c f55a c23a a872 073d 27aa 133d
00000290: b6d4 8b3d a942 183d 59da 1cbd 60c6 453d
000002a0: 9c22 453d 90c3 a5bd 8da6 b2bd 27c4 303d
000002b0: 1fcb bb3c 349c c1bd 37bc b1bc 859a d63c
000002c0: a0ef 1cbd 773d 1abc 6419 a4bd b909 dcbb
000002d0: 58dd 4ebd 81fc 96bd f242 313d ed43 883d
000002e0: 18aa 443d 8934 a93b d32a 233c 6d89 b93c
000002f0: b21a 2f3c fb34 e2bd f750 563a e826 f4bc
00000300: a91d 1fbd c9f6 b4bc 16f5 83bd fa72 6d3d
00000310: cd3a dabc 377c 713d dbe7 0b3d 58fb 863d
00000320: 6538 fabc 45a2 7cbd b0f5 203d 82b6 d73c
00000330: cbc3 8dbd 9373 92bd 07b0 483c 71d5 82bd
00000340: 0901 50bc 67ec 0d3d 7b1c 7cbd 26d4 b4bc
00000350: 9850 753d ecef 853d 70d6 cb3d 1f18 99bd
00000360: eda1 0fbd 0228 c0bd 8aaa 12bd e7ae f53b
00000370: 1ac5 3e3d 03eb 59bd 9b43 52bd 30ff 97bd
00000380: 354b 1b3d a1f9 8d3d 7d76 9dbc 4c72 d5bd
00000390: d8b7 07bd b97d 653d 9a8d 43bd b5c7 273d
000003a0: 0da4 02bd 2ab6 aabd 3674 f73c a544 77bb
000003b0: a2b9 6bbd e265 2dbd f606 d93c 47c1 d0bc
000003c0: 9955 813d 3426 b93c 3bcf 59bd 97bc bbbd
000003d0: 5910 afbc a154 953d 719e 5b3c c8fe b03c
000003e0: db44 1b3d e320 f4bc 64cb 82bc e3fc 5d3d
000003f0: 7546 9bbd 81b2 8cbd d2ce 01bd 004e 8fbd

_policy.6.bias f4 [128]
0.016361166 -0.10024974 -0.09201231 0.011801758 -0.057443533 -0.0657565 0.034291208 -0.007172981
0.019361896 -0.03369232 0.048264045 0.09274925 0.055071156 -0.051047165 0.018196048 -0.044186275
0.08799143 0.042285375 -0.100774474 -0.078920834 0.03755348 0.06230006 0.097270034 -0.0060147466
0.05901983 -0.069896 0.033311464 -0.010821178 0.041960306 0.05891186 -0.06772957 -0.007000308
0.05911232 0.005769612 0.008084281 0.032896526 -0.064269036 0.05228979 -0.025881276 0.025881393
-0.061738532 -0.022817945 0.029963737 0.0759444 0.047629923 0.0020030043 -0.021838063 -0.04690361
0.014055733 0.031818092 0.059512608 -0.10455901 -0.08240759 -0.061990976 -0.05072043 -0.031915866
-0.015644724 0.0797025 -0.01874929 0.04085733 0.09542099 -0.084988475 -0.06784027 -0.051159527
-0.06922871 0.0052458127 0.07290641 0.069811806 -0.07894689 0.08277589 -0.0642511 0.011995472
-0.06341542 -0.043321576 0.044620305 -0.0315112 0.016788548 -0.066319 -0.09451985 0.06262886
0.00478484 -0.06820209 -0.061544217 0.0065980833 0.065990545 -0.03795669 0.03277913 -0.052924328
-0.04270947 0.028755335 0.04595925 0.02444307 0.04516063 -0.03135937 0.041631166 0.04939988
-0.035407748 0.05263334 -0.025771841 0.04757624 -0.038264602 0.05941298 -0.057231408 -0.013879162
-0.05435725 -0.08729245 0.034250755 -0.022850938 -0.06708191 0.09940258 0.0023835802 -0.022418706
-0.095462345 0.026487278 -0.028276566 -0.06792232 -0.02328545 -0.059554253 -0.011303482 0.049922846
-0.034999758 0.060959235 0.08697667 0.044886965 0.07218672 -0.06917768 0.00028145453 0.013619907
00000000: da07 863c bc4f cdbd f370 bcbd 295c 413c
00000010: e949 6bbd 58ab 86bd f074 0c3d 530b ebbb
00000020: d79c 9e3c f500 0abd 85b0 453d 52f3 bd3d
00000030: 4b92 613d d516 51bd e10f 953c abfc 34bd
00000040: da34 b43d 6e33 2d3d d962 cebd 3fa1 a1bd
00000050: aed1 193d 592e 7f3d 8335 c73d 5a17 c5bb
00000060: c7be 713d a225 8fbd 9a71 083d 4f4b 31bc
00000070: 92de 2b3d 904d 713d cdb5 8abd d762 e5bb
00000080: c31f 723d 030f bd3b ef73 043c 82be 063d
00000090: 7c9f 83bd d22d 563d f804 d4bc 3705 d43c
000000a0: 8be1 7cbd b3ec babc 8376 f53c bd88 9b3d
000000b0: 9817 433d d644 033b bde5 b2bc 001e 40bd
000000c0: 044a 663c b053 023d 7ec3 733d 0923 d6bd
000000d0: 4fc5 a8bd 40ea 7dbd 3ac0 4fbd 36ba 02bd
000000e0: 5d29 80bc 103b a33d 1c98 99bc 045a 273d
000000f0: 146c c33d 700e aebd d7ef 8abd a78c 51bd
00000100: c8c7 8dbd 11e5 ab3b f54f 953d 7ef9 8e3d
00000110: e8ae a1bd 6886 a93d 1596 83bd a888 443c
00000120: f2df 81bd f771 31bd c8c3 363d e311 01bd
00000130: 2388 893c 42d2 87bd a093 c1bd 8f43 803d
00000140: 26ca 9c3b 8aad 8bbd ca15 7cbd bc34 d83b
00000150: 0d26 873d 7978 1bbd 6943 063d 2ec7 58bd
00000160: 20f0 2ebd 4f90 eb3c c43f 3c3d d53c c83c
00000170: 5afa 383d af72 00bd 7185 2a3d 8757 4a3d
00000180: b707 11bd 0f96 573d 781f d3bc 4edf 423d
00000190: 58bb 1cbd 065b 733d 7b6b 6abd 6d65 63bc
000001a0: b5a5 5ebd 62c6 b2bd 854a 0c3d e431 bbbc
000001b0: 3e62 89bd 9493 cb3d d735 1c3b 6fa7 b7bc
000001c0: c381 c3bd d9fb d83c 42a4 e7bc db1a 8bbd
000001d0: 21c1 bebc 29ef 73bd 3d32 39bc e67b 4c3d
000001e0: e85b 0fbd 64b0 793d d320 b23d 65db 373d
000001f0: a2d6 933d 07ad 8dbd 3090 9339 0826 5f3c

_policy.8.weight f4 [3, 128]
0.034562603 -0.022977738 -0.07897908 -0.058679253 -0.062903844 -0.0798114 0.003142826 0.035038654
0.048709787 -0.025200676 0.10612741 0.11269674 -0.029418193 0.09082218 -0.10388784 -0.01249765
0.065218806 0.092368536 -0.12537588 0.101423614 -0.02663154 -0.014384256 -0.03254274 0.16739614
0.019817365 -0.08804685 -0.02960973 -0.077387035 -0.042118218 -0.05734919 -0.019927913 -0.025735274
-0.03205593 -0.025963286 0.060329232 0.08416281 -0.06383055 0.09023684 0.049761396 -0.016606906
0.08315442 -0.07910834 0.0125795165 0.08985705 0.037348125 -0.12355537 0.24357277 0.042872295
-0.0503191 -0.017875072 0.12836401 0.01358204 -0.005783664 -0.052012675 -0.0001716858 -0.04575789
0.028992353 -0.08426928 -0.0093561355 -0.04930618 -0.012991043 0.01597274 -0.073189996 0.0022254668
0.00516739 0.16992483 0.096033856 -0.008774866 0.047313035 0.09877418 0.072021425 0.043085482
-0.0017627663 0.041880887 0.015598111 -0.019005947 -0.018923368 0.11825093 -0.07964641 0.12387219
-0.040997487 -0.09832839 -0.028377207 0.012092718 -0.009462469 0.040879678 -0.0639501 -0.03445289
-0.04339785 0.0659356 -0.06372702 -0.06805523 -0.12559779 -0.06761988 0.084942386 0.07582408
0.012028832 -0.048608724 0.13171098 -0.093711324 -0.029446078 -0.041278332 -0.028023046 -0.07662052
-0.05324374 -0.012962059 -0.09977328 0.039833628 0.08620723 0.058419883 0.014656145 -0.06281384
-0.045789193 -0.01909626 0.13000503 -0.046040453 -0.03266656 -0.035294384 0.05827508 0.030834187
-0.041964985 -0.06935814 -0.03356441 0.08130751 0.111879595 -0.048426405 -0.026279023 0.00086925714
0.06236578 0.017213553 -0.012856186 0.007259239 0.016613511 0.0065713534 0.04468984 0.05914776
0.032275897 0.07533751 -0.046686135 -0.03288309 -0.105000295 0.030738905 0.06273674 0.037768953
-0.057615858 -0.093397416 0.00029593284 0.0046457956 0.042465318 0.118383035 -0.094843864 -0.040767644
0.045528498 0.06372298 0.039362565 -0.07044385 0.0843461 -0.007858969 0.00541737 0.06962086
0.08978881 -0.05199754 -0.0786482 0.04669069 -0.06966627 -0.116254106 -0.040738594 0.075249724
0.0631206 0.05105351 0.069788575 -0.06888521 0.023941087 0.06812696 -0.16825753 -0.10184761
-0.049966447 -0.013437497 -0.04227102 0.09591953 0.059583984 -0.033789057 0.081521355 -0.06787181
0.077102944 -0.001084081 0.06602209 -0.0320185 0.081554346 0.01976978 0.056344952 -0.034534566
0.040142577 -0.050988507 0.029472465 0.03511197 -0.0031933207 -0.09054318 0.063533254 0.060158275
0.0029674165 -0.06422531 0.025591502 0.0058823265 0.0034584545 -0.051811658 -0.027044924 -0.058742095
-0.05017504 -0.015057626 0.032643512 0.07871006 0.04221747 0.020239696 0.058883946 -0.06968629
0.030786602 0.027078941 -0.030737272 -0.06749782 -0.017064337 -0.07770745 -0.07776012 0.011178133
-0.05501629 -0.018808741 -0.09622236 0.06621743 -0.06273007 -0.045589406 -0.014796364 -0.003461811
0.09346163 -0.014194653 -0.032881763 -0.074938245 0.042908575 -0.10728247 0.056705523 -0.038874518
-0.05183346 0.072084464 -0.13177925 0.02694677 0.112079464 -0.04591325 -0.12048052 -0.09867685
0.012490299 -0.037356377 0.09868552 -0.0749706 0.046301793 -0.06460601 0.113505565 -0.08408975
00000000: 8491 0d3d cf3b bcbc c9bf a1bd a859 70bd
00000010: bbd3 80bd 2974 a3bd dff7 4d3b b184 0f3d
00000020: ea83 473d a671 cebc 5459 d93d 8ccd e63d
00000030: 6cfe f0bc fb00 ba3d 26c3 d4bd f2c2 4cbc
00000040: 7091 853d b72b bd3d 8962 00be 2fb7 cf3d
00000050: 632a dabc f1ab 6bbc 894b 05bd e569 2b3e
00000060: 0758 a23c e851 b4bd 1b90 f2bc 187d 9ebd
00000070: 2784 2cbd fce6 6abd dd3f a3bc c8d2 d2bc
00000080: 144d 03bd f5b0 d4bc c91b 773d 8d5d ac3d
00000090: 97b9 82bd 18ce b83d 9bd2 4b3d 350b 88bc
000000a0: dd4c aa3d 8e03 a2bd 511a 4e3c f906 b83d
000000b0: 59fa 183d 990a fdbd 246b 793e dc9a 2f3d
000000c0: 671b 4ebd be6e 92bc db71 033e 3487 5e3c
000000d0: e484 bdbb 3e0b 55bd 8e06 34b9 a06c 3bbd
000000e0: 5f81 ed3c 5f95 acbd 7a4a 19bc 47f5 49bd
000000f0: 62d8 54bc 43d9 823c a3e4 95bd 23d9 113b
00000100: 3653 a93b c600 2e3e 66ad c43d 75c4 0fbc
00000110: 50cb 413d 1e4a ca3d f87f 933d 677a 303d
00000120: 9f0c e7ba 4b8b 2b3d 388f 7f3c 5cb2 9bbc
00000130: 2e05 9bbc 8b2d f23d a81d a3bd b4b0 fd3d
00000140: fbec 27bd 6560 c9bd 5177 e8bc 8920 463c
00000150: 7908 1bbc 7371 273d 45f8 82bd 791e 0dbd
00000160: f2c1 31bd 3e09 873d 5083 82bd 8a60 8bbd
00000170: b59c 00be 4b7c 8abd 46f6 ad3d a849 9b3d
00000180: 9414 453c f119 47bd 3edf 063e b9eb bfbd
00000190: e738 f1bc 7813 29bd 9690 e5bc 38eb 9cbd
000001a0: 1c16 5abd d15e 54bc ef55 ccbd 9628 233d
000001b0: 6b8d b03d b049 6f3d 5420 703c 8ba4 80bd
000001c0: 738d 3bbd c36f 9cbc 0a20 053e ea94 3cbd
000001d0: 5fcd 05bd d890 10bd dab1 6e3d fa97 fc3c
000001e0: 7ae3 2bbd a40b 8ebd d67a 09bd 8d84 a63d
000001f0: 2121 e53d c45a 46bd 1b47 d7bc dcde 633a
00000200: 4373 7f3d 7003 8d3c c1a2 52bc e9de ed3b
00000210: 0f19 883c 8254 d73b b20c 373d ec44 723d
00000220: bb33 043d 8d4a 9a3d f639 3fbd 6bb0 06bd
00000230: 650a d7bd 28d0 fb3c 1f7c 803d 9eb3 1a3d
00000240: 9bfe 6bbd 2547 bfbd 6f27 9b39 c23b 983b
00000250: 1df0 2d3d ce72 f23d 803d c2bd f9fb 26bd
00000260: 177c 3a3d 3281 823d a43a 213d dd44 90bd
00000270: a6bd ac3d e8c2 00bc 3184 b13b 6295 8e3d
00000280: 32e3 b73d 5ffb 54bd 4f12 a1bd bd3e 3f3d
00000290: 30ad 8ebd a216 eebd 83dd 26bd 871c 9a3d
000002a0: 6045 813d 7c1d 513d 50ed 8e3d b013 8dbd
000002b0: 1920 c43c 2686 8b3d b44b 2cbe 7b95 d0bd
000002c0: 9ea9 4cbd f328 5cbc 6124 2dbd 7571 c43d
000002d0: 560e 743d 6566 0abd abf4 a63d 6000 8bbd
000002e0: 26e8 9d3d b917 8eba 9736 873d d525 03bd
000002f0: f705 a73d 3cf4 a13c f7c9 663d 1e74 0dbd
00000300: 8b6c 243d 53d9 50bd 3d70 f13c 92d1 0f3d
00000310: 0847 51bb b46e b9bd b91d 823d 8668 763d
00000320: fd78 423b 8f88 83bd 45a5 d13c 88c0 c03b
00000330: 3da7 623b 7638 54bd 518d ddbc 8d9b 70bd
00000340: 5884 4dbd 43b4 76bc 34b5 053d bd32 a13d
00000350: 3aec 2c3d b8cd a53c 4b30 713d b0b7 8ebd
00000360: 2f34 fc3c a8d4 dd3c bbcc fbbc 4c3c 8abd
00000370: 82ca 8bbc 1525 9fbd b340 9fbd 7d24 373c
00000380: c358 61bd ca14 9abc 3b10 c5bd 019d 873d
00000390: 9f78 80bd f5bb 3abd 736c 72bc 8ddf 62bb
000003a0: d068 bf3d b190 68bc 07af 06bd 3979 99bd
000003b0: e7c0 2f3d e9b6 dbbd 0d44 683d e33a 1fbd
000003c0: 524f 54bd 05a1 933d 24f1 06be 79bf dc3c
000003d0: eb89 e53d 880f 3cbd 7ebe f6bd 1717 cabd
000003e0: 1ca4 4c3c 0003 19bd a21b ca3d 308a 99bd
000003f0: f3a6 3d3d 2850 84bd 9b75 e83d 3f37 acbd

_policy.8.bias f4 [3]
0.0583834 -0.035189733 -0.04020066
00000000: 6f23 6f3d 1c23 10bd 72a9 24bd
