logs/weight_colliion_obj_obs = 0.4/model/best_model_266.pth (torch, 427625 bytes, 19 tensors)

_policy.0.weight f4 [128, 22]
0	0xbea80d74	-0.32822764
1	0x3c898454	0.016786732
2	0xbcaa5a2f	-0.020794956
3	0x3eb27492	0.3485456
4	0xbea8edcc	-0.32993925
5	0xbe90c4b9	-0.28275087
6	0x3c3ad1d5	0.011402567
7	0xbd93223d	-0.07184265
8	0x3f065cf3	0.5248558
9	0x3e71da13	0.23618345
10	0xbcb2b046	-0.02181257
11	0x3e3d26b1	0.18471791
12	0x3e212487	0.1573659
13	0x3e7cefa3	0.24700789
14	0xbcbc69b5	-0.022999624
15	0xbde240d7	-0.110475235
16	0xbe288a46	-0.16458997
17	0x3dc9f670	0.09861457
18	0x3dba62bc	0.09100863
19	0x3d8b3e5a	0.06799002
20	0xbdf87b04	-0.12132838
21	0xbe316911	-0.17325236
22	0x3bc46909	0.0059939665
23	0xbe485dca	-0.19567028
24	0x3ea16d50	0.3152871
25	0x3f3ed030	0.7453642
26	0xbc8bbe66	-0.017058562
27	0xbe959cce	-0.29221195
28	0x3e0f7cab	0.14012401
29	0x3e0354b5	0.12825282
30	0xbf0d6206	-0.55227697
31	0xbdb9aff6	-0.09066765
32	0x3e5b73ec	0.2143094
33	0x3d8aa819	0.06770343
34	0x3df9fb1f	0.12206101
35	0x3e21fc08	0.15818799
36	0x3e1967a6	0.14980945
37	0xbdcce3f7	-0.10004418
38	0x3d06d97e	0.03292226
39	0xbe6faaf4	-0.23405057
40	0xbe91adae	-0.2845282
41	0xbcfdffc4	-0.031005748
42	0x3da71afc	0.08159444
43	0x3cf46ab2	0.029836033
44	0xbedeec82	-0.43539816
45	0xbd9c1dcd	-0.076228715
46	0x3e5b2e53	0.2140439
47	0xbd0d2829	-0.034462128
48	0xbe4839d1	-0.19553305
49	0xbd508cc4	-0.050915495
50	0xbc974dcd	-0.018469715
51	0x3de5f52d	0.11228404
52	0x3f8b7e9a	1.0898011
53	0xbe24c434	-0.1609047
54	0x3e8f7f91	0.28027013
55	0x3de69626	0.11259107
56	0x3e6d8a03	0.23197179
57	0x3e18d905	0.14926536
58	0x3d8bfff8	0.068359315
59	0x3e0adbf3	0.13560466
60	0xbe6574d7	-0.22407852
61	0x3dcacd70	0.09902465
62	0xbcd9c093	-0.026581084
63	0xbda15e23	-0.07879283
64	0xbe05eeb7	-0.13079344
65	0xbdf2d4ff	-0.11857032
66	0xbd9a4a81	-0.07533742
67	0xbf0f28a9	-0.5592142
68	0xbd93fbc7	-0.07225757
69	0x3ec79be4	0.38986123
70	0xbe0b0282	-0.13575175
71	0xbe9b9b77	-0.30392048
72	0xbde7e331	-0.1132263
73	0x3e0c0973	0.1367548
74	0xbcbf3365	-0.023339937
75	0x3e8c2387	0.27370855
76	0xbdb3d8cc	-0.08781585
77	0x3deb31ea	0.1148413
78	0xbe04f30c	-0.1298334
79	0x3ec2f7bd	0.38079634
80	0xbe2ab1ed	-0.16669436
81	0xbe2767e2	-0.16348222
82	0xbe4bcfe5	-0.19903524
83	0x3d8acb16	0.06777017
84	0xbe574ab8	-0.21024597
85	0x3e0b9289	0.13630117
86	0x3de2e504	0.110788375
87	0x3e34a3ff	0.17640685
88	0x3f6dbb9f	0.9286441
89	0xbe93eca3	-0.28891477
90	0xbe0f709f	-0.14007805
91	0xbd8d611b	-0.06903287
92	0x3f1e3855	0.61804706
93	0xbea94e31	-0.33067468
94	0xbeb5d215	-0.35511842
95	0xbf101f1c	-0.5629747
96	0xbf06af66	-0.52611387
97	0x3e88307d	0.26599494
98	0xbb034375	-0.0020029221
99	0xbe0a0c55	-0.13481267
100	0xbe3d6296	-0.18494639
101	0x3dcd3851	0.10020507
102	0x3cfd4958	0.030918762
103	0x3e32d58c	0.17464274
104	0x3e0e3fe8	0.13891566
105	0x3d73aca5	0.05949082
106	0x3dbaf609	0.09128959
107	0xbe3d491b	-0.18484919
108	0xbe2ce978	-0.16885936
109	0xbd469ff6	-0.048492394
110	0xbf40c769	-0.75304276
111	0x3f7221bd	0.9458273
112	0x3e89236e	0.26784843
113	0xbf0bb5ce	-0.54574287
114	0xbe679e9d	-0.226191
115	0x3ecff1eb	0.40614256
116	0x3e420476	0.18947014
117	0x3e398b65	0.18119581
118	0xbdaaa159	-0.08331556
119	0xbf073811	-0.52819926
120	0xbeb92f2e	-0.36168808
121	0xbe249eb1	-0.16076161
122	0xbeb06e9b	-0.34459385
123	0xbc8bfdf0	-0.01708886
124	0xbcee4131	-0.02908382
125	0xbc6a8a35	-0.014315178
126	0x3e284007	0.16430674
127	0x3d7d77ba	0.06188176
128	0x3b9c9e23	0.0047795936
129	0xbcf54baf	-0.029943315
130	0xbd222adc	-0.039591655
131	0x3db4e993	0.08833613
132	0xbda2660b	-0.079296194
133	0xbe00a3d5	-0.12562497
134	0x3cbd5089	0.023109691
135	0x3e8c55b0	0.27409124
136	0x3ed74808	0.42047143
137	0xbe2b4618	-0.16725957
138	0xbf2a0930	-0.6642027
139	0x3e5f9b91	0.21836688
140	0x3ec452fb	0.3834456
141	0xbee89b8e	-0.4543118
142	0xbe64e3ef	-0.22352575
143	0xbe4d04be	-0.2002134
144	0xbf16c806	-0.5889896
145	0x3de1a410	0.110176206
146	0xbdc75cbf	-0.09734487
147	0x3c4e8fd4	0.0126075335
148	0xbdb6c204	-0.08923724
149	0xbdb7847b	-0.089608155
150	0x3eb05e86	0.34447116
151	0xbdd3f330	-0.10349119
152	0x3e900557	0.28129074
153	0xbddad22c	-0.10684618
154	0xbebd0794	-0.36919844
155	0xbe0e4f48	-0.13897431
156	0xbcf1cf44	-0.029517777
157	0x3f050c5b	0.5197198
158	0x3e0feba4	0.14054734
159	0x3d607ab2	0.05480451
160	0xbe15f8ca	-0.14645687
161	0xbe82bfa6	-0.2553684
162	0xbf3abac2	-0.7294122
163	0x3f01f00c	0.5075691
164	0xbdd97a20	-0.106189966
165	0xbe11a61a	-0.14223519
166	0x3c81af08	0.015830532
167	0x3cca1eca	0.024672884
168	0xbe40e249	-0.18836321
169	0x3e026f24	0.1273771
170	0xbe2421f2	-0.16028574
171	0xbe13d142	-0.14435294
172	0x3da88acd	0.08229599
173	0x3cc965e0	0.02458471
174	0xbde71864	-0.11283949
175	0x3e2f1c89	0.17100729
176	0x3d03e8c8	0.03220442
177	0xbde63466	-0.11240463
178	0xbe914cef	-0.28379008
179	0x3daeb672	0.085308924
180	0x3f08f745	0.53502303
181	0x3e23d7f5	0.1600035
182	0xbe8149ca	-0.2525161
183	0xbda563e9	-0.08075697
184	0x3fafb332	1.3726561
185	0x3f1d3564	0.6140959
186	0xbd0a547d	-0.03377198
187	0x3d3c92e6	0.04603853
188	0x3dbb5c49	0.09148461
189	0x3daa4a9b	0.08315011
190	0x3e1fc86c	0.15603799
191	0xbe25fc8b	-0.16209619
192	0x3e4f7116	0.20257983
193	0xbe058805	-0.13040169
194	0xbd6d7f46	-0.057982706
195	0x3addef9d	0.0016932372
196	0xbc88507e	-0.016639944
197	0x3da3f8ab	0.08006414
198	0x3e3b1146	0.18268308
199	0x3f2bfe62	0.6718503
200	0xbee88cf1	-0.4542003
201	0xbf21c976	-0.6319803
202	0xbe6049ee	-0.21903202
203	0x3ef8d365	0.4859878
204	0xbecd7ee7	-0.4013588
205	0xbf293544	-0.660969
206	0xbeef58b1	-0.46747354
207	0x3e7f50e7	0.24933206
208	0xbd533147	-0.051560666
209	0x3e4b8f54	0.19878894
210	0x3e976c75	0.29574934
211	0xbe06061b	-0.13088267
212	0xbd10ad5e	-0.035321586
213	0x3d8da430	0.06916082
214	0x3ddf5278	0.109044015
215	0xbe47dd2e	-0.19517967
216	0xbd4bdc61	-0.049770717
217	0x3d120aa0	0.035654664
218	0xbe1ab275	-0.15107138
219	0xbe531245	-0.20612438
220	0xbe62f4f9	-0.22163762
221	0xbe1cab57	-0.15299736
222	0x3e234040	0.15942478
223	0x3d331fa2	0.04373134
224	0xbece905e	-0.40344518
225	0xbe0f89d9	-0.14017428
226	0x3d101098	0.035172075
227	0x3e50cbdb	0.20390265
228	0x3f908cbc	1.1292949
229	0x3eaeb39a	0.341214
230	0x3e54dab6	0.20786557
231	0xbe51be25	-0.2048269
232	0x3cbbca4d	0.022923613
233	0x3d46dd9a	0.04855118
234	0x3d8ecd32	0.06972732
235	0x3d9aa0e6	0.0755022
236	0x3e17d024	0.14825493
237	0x3ba17f34	0.004928494
238	0xbde3395e	-0.11094926
239	0xbb33f35e	-0.002745829
240	0xbe015a88	-0.12632191
241	0x3d67c492	0.05658395
242	0xbd722618	-0.05911836
243	0x3db4c8f8	0.08827394
244	0xbf12dcb0	-0.5736799
245	0xbde1fdb0	-0.11034715
246	0xbd401f7c	-0.046905026
247	0xbd351fd5	-0.04421981
248	0xbd21ecf0	-0.0395326
249	0xbe579dd1	-0.21056296
250	0xbe84411d	-0.25830927
251	0xbe1252ed	-0.14289446
252	0xbe0110e0	-0.12604094
253	0x3d950fb7	0.07278388
254	0xbeacaf81	-0.3372765
255	0xbe808b6d	-0.25106373

_policy.0.bias f4 [128]
0	0x3c3c1f16	0.011482021
1	0x3c98c62d	0.018649185
2	0xbe2b9ad2	-0.16758278
3	0xbe41dff2	-0.18933085
4	0xbcca9e91	-0.024733813
5	0xbd9c430e	-0.07629977
6	0x3d8d2c2f	0.06893193
7	0x3d20fbca	0.039302625
8	0xbd236352	-0.03988964
9	0x3e103ddd	0.14086099
10	0x3e1614ca	0.14656368
11	0x3e08c338	0.1335572
12	0xbe6fa42c	-0.2340247
13	0xbe84eadc	-0.25960433
14	0x3c99a541	0.018755557
15	0xbe2b8f8c	-0.16753978
16	0xbcdecaf4	-0.027196385
17	0x3d54a936	0.051919185
18	0xbe86e27e	-0.26344675
19	0x3d89208e	0.066956624
20	0x3dfbc8e3	0.122941755
21	0xbd54b3af	-0.051929172
22	0xbe236c88	-0.1595937
23	0x3e6c55ea	0.23079649
24	0xbd9e8f26	-0.07742147
25	0xbbb90a73	-0.0056469976
26	0xbd493372	-0.049121328
27	0xbce10ca1	-0.027471842
28	0x3d95308c	0.0728465
29	0xbe727b21	-0.23679782
30	0xbe59c598	-0.21266782
31	0xbe36e3cb	-0.17860334
32	0x3e167fda	0.14697209
33	0xbd88ee80	-0.06686115
34	0x3dd4364f	0.10361921
35	0x3d507911	0.050896708
36	0x3e5451b0	0.20734286
37	0xbe6e467f	-0.2326908
38	0xbdcdccb1	-0.100488074
39	0x3b09d25d	0.0021029927
40	0xbc3a0804	-0.01135445
41	0x3da7b2f2	0.08188428
42	0xbe2b1b95	-0.1670974
43	0xbdc7ad42	-0.09749843
44	0x3d860f60	0.06545901
45	0xbe22f5f9	-0.15914144
46	0x3e06d9a0	0.13168955
47	0x3e0910d3	0.13385324
48	0xbd1ebc21	-0.038753632
49	0xbe7851b9	-0.24249925
50	0xbe9e2901	-0.30890658
51	0xbddbb809	-0.10728461
52	0xbe76bf0b	-0.24096315
53	0x3e108760	0.14114141
54	0xbe707ba6	-0.23484668
55	0xbdec3f69	-0.11535532
56	0xbda66e03	-0.08126452
57	0x3e0b6535	0.13612826
58	0x3e4253a1	0.18977214
59	0xbd8fbddb	-0.07018634
60	0xbcd8a102	-0.026443962
61	0xbd468036	-0.048462115
62	0xbe3d8fbd	-0.18511863
63	0xbe28b6b2	-0.16475943
64	0xbd9d0b2d	-0.07668147
65	0xbdaacc86	-0.08339791
66	0x3d8e5119	0.06949062
67	0xbdbf7080	-0.093476295
68	0xbdcf359e	-0.101176485
69	0xbe4c332d	-0.19941397
70	0xbe4d4a59	-0.20047893
71	0xbc24ce79	-0.010058993
72	0xbe37811f	-0.1792035
73	0x3e4ab9a4	0.19797379
74	0xbdc6053d	-0.09668968
75	0x3dcdc342	0.10047008
76	0xbd05b032	-0.032638736
77	0xbdcac08c	-0.09900007
78	0xbdf6a4cb	-0.120431505
79	0xbdf9fc5f	-0.12206339
80	0x3dafea04	0.08589557
81	0x3bf43e45	0.007453712
82	0x3d442a24	0.04789175
83	0xbe304488	-0.17213643
84	0xbe001333	-0.12507324
85	0x3c314f1b	0.010822083
86	0xbdbde31e	-0.09271835
87	0xbd3c5ab2	-0.04598493
88	0xbd34d4a5	-0.044148106
89	0xbe65bf78	-0.22436321
90	0x3df1b3e7	0.11801892
91	0xbe7a0a0b	-0.24417894
92	0x3da8e1c8	0.08246189
93	0xbe4d57d5	-0.20053037
94	0xbe01dcc6	-0.12681875
95	0x3d143594	0.03618391
96	0xbe7d232d	-0.2472045
97	0xbda5fcd5	-0.081048645
98	0xbe0a3b2d	-0.13499136
99	0xbdf90bdd	-0.12160466
100	0xbe49397d	-0.19650836
101	0xbe353f23	-0.17699866
102	0xbdeee9ce	-0.116656885
103	0xbd11390d	-0.0354548
104	0xbc066587	-0.008202917
105	0x3d14f47d	0.036365975
106	0xbe34f1ff	-0.17670439
107	0xbe54934a	-0.20759311
108	0x3cead6b0	0.028666824
109	0x3db403d5	0.087897934
110	0x3e264df5	0.16240676
111	0xbe2e49e4	-0.17020375
112	0xbe1e6441	-0.15467931
113	0xbdc0e064	-0.09417799
114	0xbe7c93ea	-0.246658
115	0x3de8a68f	0.113598935
116	0x3d9dd995	0.07707516
117	0x3d075c26	0.033046864
118	0xbd8baaee	-0.068197116
119	0x3e3fe6ef	0.18740438
120	0x3da6f690	0.08152497
121	0xbc844c2c	-0.016149603
122	0x3d910667	0.07081299
123	0xbd87186e	-0.065964565
124	0x3ce08d20	0.027411044
125	0xbe258578	-0.16164196
126	0xbe386368	-0.1800667
127	0xbe86e44b	-0.2634605

_policy.2.weight f4 [128, 128]
0	0x3cf84d8d	0.030310417
1	0x3d23c19c	0.039979562
2	0xbe2916c2	-0.16512588
3	0x3e1234de	0.1427798
4	0x3e71557b	0.23567764
5	0xbf0db72d	-0.5535763
6	0x3dd996e5	0.10624484
7	0x3d292d86	0.04130318
8	0x3d4a93c2	0.04945732
9	0xbe666f9d	-0.22503515
10	0x3d8fadaf	0.070155494
11	0xbe726953	-0.2367299
12	0x3dbedaa8	0.09319049
13	0xbd28413e	-0.041077845
14	0xbe5db930	-0.21652675
15	0x3d09581c	0.033531293
16	0xbdf519a6	-0.11967783
17	0xbda6e15f	-0.08148455
18	0xbdc4efd5	-0.09616057
19	0x3e35d03b	0.17755215
20	0xbbba9ca6	-0.0056949435
21	0x3dfedfa6	0.12445001
22	0x3cb53d04	0.022123821
23	0xbe4d743c	-0.20063871
24	0xbdc0f60e	-0.09421931
25	0xbde89c37	-0.113579206
26	0xbd3f01e7	-0.046632674
27	0x3deeb9d8	0.11656541
28	0x3d26fe5c	0.04076992
29	0xbcada8fd	-0.021198744
30	0x3d6bb754	0.057547882
31	0xbea78516	-0.32718724
32	0x3d1f522f	0.038896736
33	0xbd2fabb5	-0.042888362
34	0x3e67144c	0.22566336
35	0x3ddfbec5	0.10925058
36	0x3d8d34a3	0.06894805
37	0xbe3bb76c	-0.18331689
38	0xbd4e04ec	-0.050297663
39	0x3e79b871	0.24386765
40	0xbec12f20	-0.37731266
41	0xbd34567e	-0.044027798
42	0x3db82f69	0.08993418
43	0xbd9aa13a	-0.07550283
44	0xbc803147	-0.015648497
45	0x3d87a437	0.06623118
46	0x3d5a9fce	0.053375058
47	0xbe6384f6	-0.2221869
48	0xbd499b42	-0.04922033
49	0xbdcccf30	-0.100004554
50	0x3d230190	0.039796412
51	0xbbc45a9a	-0.005992246
52	0x3e1790b1	0.14801289
53	0x3ed3d6a7	0.41374704
54	0xbe159289	-0.1460668
55	0xbe89b891	-0.26898625
56	0x3e0040e5	0.12524755
57	0x3d22f282	0.039782055
58	0xbdb21fca	-0.086974695
59	0xbc78a601	-0.015176297
60	0x3da90a89	0.082539625
61	0x3d4a7778	0.04943034
62	0x3c4384e9	0.011933544
63	0x3e9a4727	0.3013241
64	0xbe13b1b2	-0.14423254
65	0x3e406bc7	0.18791114
66	0x3dcb5a28	0.09929305
67	0xbd890b16	-0.066915676
68	0x3d468c82	0.048473842
69	0xbded80df	-0.11596846
70	0x3d531218	0.051530927
71	0xbde17a47	-0.11009651
72	0xbda0bc3f	-0.07848405
73	0xbd8d2669	-0.06892092
74	0xbe042ab5	-0.12906916
75	0x3dba1e65	0.090878285
76	0xbde6b290	-0.11264527
77	0xbc8c188f	-0.017101554
78	0x3cf7356f	0.030176846
79	0x3d4d534f	0.050128277
80	0x3dc2c06b	0.09509357
81	0xbdd29d68	-0.10283929
82	0xbc75a875	-0.014993777
83	0xbe1f0888	-0.15530598
84	0xbec128dd	-0.3772649
85	0x3cf81299	0.030282306
86	0x3db30ef1	0.08743084
87	0x3df71a67	0.12065583
88	0xbda47de4	-0.08031824
89	0xbdc81333	-0.09769287
90	0xbd586bb8	-0.052837104
91	0x3dc3fafb	0.09569355
92	0x3db386c4	0.08765939
93	0xbddea113	-0.10870566
94	0x3dccbdaa	0.09997113
95	0x3d7d7940	0.06188321
96	0x3d09aca7	0.03361192
97	0x3e5e195e	0.21689364
98	0xbd8d4d5f	-0.06899523
99	0x3dc7a0ad	0.09747443
100	0xbe30d4da	-0.17268696
101	0x3d0ba9fb	0.034097653
102	0x3d94394b	0.0723749
103	0x3dee8ebf	0.116483204
104	0xbc42e8ce	-0.011896325
105	0xbe0dc0ee	-0.13843128
106	0x3d0d38d9	0.034478042
107	0x3d7bce4b	0.061476033
108	0xbe8a9844	-0.27069294
109	0xbe1fa98f	-0.15592025
110	0xbe326925	-0.17422922
111	0xbde6f482	-0.11277105
112	0xbd22dc16	-0.03976067
113	0x3c160fb2	0.0091590155
114	0x3e009826	0.1255804
115	0x3dc9baee	0.09850107
116	0xbd9444a3	-0.07239654
117	0x3d7f882b	0.06238572
118	0xbe706f7c	-0.23480028
119	0x3d4206c6	0.04736974
120	0xbc2508a8	-0.010072865
121	0x3ce8467f	0.028353928
122	0xbd56cf70	-0.05244392
123	0xbeba4984	-0.36384213
124	0xbd40f66d	-0.04711001
125	0xbd4ed4ef	-0.050496038
126	0x3da2049c	0.079110354
127	0x3e346fec	0.1762082
128	0xbd7b84ae	-0.06140583
129	0xbd74fa50	-0.05980903
130	0xbd640084	-0.055664554
131	0xbce8b61f	-0.028407155
132	0x3c703ee0	0.014663428
133	0xbd4697a1	-0.04848445
134	0x3caf5ec0	0.021407485
135	0x3d2ead3e	0.042645685
136	0x3c06605c	0.008201685
137	0xbc19b1a2	-0.00938073
138	0xbd83d7b6	-0.06437628
139	0xbdf1988d	-0.11796675
140	0xbbdd58aa	-0.0067549543
141	0xbd66d0b3	-0.056351375
142	0xbdde959c	-0.108683795
143	0xbd4f88e4	-0.05066766
144	0xbdb383aa	-0.08765347
145	0xbdf261ff	-0.118350975
146	0xbda757e1	-0.081710584
147	0x3d2fabc9	0.042888436
148	0xbe006d66	-0.12541732
149	0x3bc59b8c	0.0060305055
150	0xbdadfda5	-0.084956445
151	0x3d260a7f	0.040537354
152	0xbd062771	-0.032752458
153	0xbd1b4e1f	-0.0379163
154	0xbcdde21e	-0.02708536
155	0xbd9ec613	-0.077526234
156	0xbdc8301b	-0.097748004
157	0xbd2f3348	-0.042773515
158	0xbbf15c11	-0.0073657115
159	0xbd8ba6d6	-0.06818931
160	0xbd9774a6	-0.07395296
161	0xbd6fdda6	-0.05856099
162	0xbd357746	-0.0443032
163	0xbd5dea38	-0.054178447
164	0x3b97fd40	0.004638344
165	0xbc9b6250	-0.018967777
166	0xbd914b69	-0.070944615
167	0xbd9594da	-0.07303782
168	0x3da0c32f	0.07849728
169	0x3c51f0a4	0.012813721
170	0x3b1a1a7d	0.0023514323
171	0x3c1c9c90	0.009558812
172	0x3d71bd4e	0.059018426
173	0xbdc64230	-0.09680593
174	0xbd598a2a	-0.05311028
175	0xbded33e9	-0.11582167
176	0xbdd58de3	-0.10427453
177	0xbd8e2ba2	-0.06941916
178	0xbceb803f	-0.028747676
179	0xbdea56bf	-0.11442327
180	0xbc669a90	-0.0140749365
181	0x3ca6cf98	0.02036266
182	0xbde9ca44	-0.11415532
183	0xbb9539ee	-0.004554025
184	0xbc7f382d	-0.015577358
185	0xbd9f2beb	-0.077720486
186	0x3d4a0fa5	0.049331326
187	0xbdc12f5c	-0.09432861
188	0x3d3ec93e	0.04657864
189	0x3ce98870	0.028507441
190	0xbd60a9e7	-0.05484953
191	0xbd0f2468	-0.03494683
192	0x3d35fd05	0.04443075
193	0x3cf69441	0.03009999
194	0xbd93b03b	-0.07211348
195	0xbd0f74a9	-0.035023365
196	0xbcc6a7a8	-0.024249867
197	0x3d45d53a	0.04829905
198	0xbd7d8e76	-0.06190344
199	0xbd0c0083	-0.034180176
200	0x3d212767	0.039344218
201	0xbda2fc0a	-0.07958229
202	0x3b0e0570	0.0021670721
203	0xbd9e89d8	-0.07741135
204	0xbd9e378d	-0.07725439
205	0xbdfc31f6	-0.12314217
206	0xbce018fe	-0.027355667
207	0xbd06a22e	-0.03286951
208	0xbd36c646	-0.044622682
209	0xbba4f2e5	-0.005033838
210	0xb99c147c	-0.000297699
211	0xbd81b82b	-0.063339554
212	0x3d12f47e	0.035877697
213	0x3d0f1654	0.034933403
214	0xbc356bf1	-0.0110730985
215	0xbd0ce7d2	-0.03440077
216	0x3bf41ba9	0.0074495864
217	0x3cda9834	0.026683904
218	0xbcc227b5	-0.023700574
219	0xbdd9f2e5	-0.106420316
220	0x3beef041	0.007291824
221	0xbcac5f49	-0.02104153
222	0x3d81627e	0.06317614
223	0x3d20ab60	0.039225936
224	0x3c807a12	0.015683208
225	0xbdb3ace6	-0.08773212
226	0xbdbbaea5	-0.0916417
227	0xbdff3216	-0.12460725
228	0xbdefa42e	-0.11701237
229	0xbd13830d	-0.03601365
230	0x3d2bdcf6	0.04195877
231	0x3b8d33eb	0.0043091676
232	0xbdc5fd32	-0.09667434
233	0x3c09f39e	0.008419899
234	0xbdca586d	-0.09880147
235	0x3d14febf	0.036375757
236	0x3d7d33c5	0.06181695
237	0xbcdaba00	-0.02670002
238	0x3bcfede0	0.0063454956
239	0xbce570b8	-0.02800785
240	0xbcc8d7f4	-0.024517037
241	0x3d324d0a	0.0435305
242	0x3c853c39	0.016264068
243	0x3cf6e67a	0.030139197
244	0xbc1eedf4	-0.009700287
245	0xbd99c48e	-0.07508193
246	0x3cd30142	0.025757436
247	0xbe06cd50	-0.13164258
248	0x3d4b8fa6	0.04969754
249	0xbb294f29	-0.0025834537
250	0xbddca094	-0.10772815
251	0xbdccb408	-0.09995276
252	0xbd425b0b	-0.047450107
253	0x3d485177	0.048905816
254	0x3d0517fc	0.032493576
255	0xbd7396fe	-0.05947017

_policy.2.bias f4 [128]
0	0xbd7fa7c0	-0.06241584
1	0xbe1afc78	-0.15135372
2	0xbdeded2d	-0.11617503
3	0x3d47b8d5	0.048760254
4	0xbc2c7688	-0.010526307
5	0xbb821cb1	-0.0039707054
6	0xbbd6af3a	-0.0065516504
7	0x3cd479aa	0.02593692
8	0xbc4c68e0	-0.012476176
9	0x3c8dfa5a	0.017331291
10	0xbd5aafeb	-0.053390425
11	0x3dd2e0fc	0.102968186
12	0x3ddc64f4	0.10761443
13	0x3dcb1cac	0.09917578
14	0x3d51f0b3	0.05125494
15	0x3d3065c9	0.04306582
16	0x3d70a36d	0.058749605
17	0x3d8ed03f	0.069733135
18	0x3dd8c76a	0.1058491
19	0x3d10c45e	0.03534352
20	0xbd120602	-0.03565026
21	0xbc76f9f9	-0.015074247
22	0x3cbcb691	0.023036273
23	0x3c85401a	0.016265918
24	0xbd94dee3	-0.07269075
25	0xbc3698ed	-0.011144859
26	0x3d43625a	0.047701217
27	0xbdc981e4	-0.09839228
28	0xbe12fbb4	-0.1435383
29	0x3db082db	0.08618709
30	0xbd9bbad6	-0.076039955
31	0xbd56e2ac	-0.052462265
32	0xbd5031bb	-0.050828677
33	0x3ca7d43e	0.020486947
34	0xbd94729a	-0.07248421
35	0xbe11898b	-0.14212625
36	0xbd7db4c1	-0.06193996
37	0x3ca7be7a	0.020476568
38	0x3d3bfb59	0.045894
39	0xbd8971d6	-0.067111656
40	0x3db86732	0.09004058
41	0xbdb42f18	-0.08798045
42	0x3dcc8e1d	0.099880435
43	0xbd8e2564	-0.069407254
44	0x3b0c999b	0.002145386
45	0x3ce4f7ce	0.027950194
46	0xb995c7cb	-0.00028568352
47	0x3bdeffb4	0.0068053845
48	0x3cab3d6f	0.020903317
49	0xbdbe6855	-0.092972435
50	0xbd4ca69c	-0.04996358
51	0x3c4a92b2	0.012364076
52	0x3dc67439	0.096901365
53	0xbbbef28b	-0.005827253
54	0x3d10713d	0.035264242
55	0x3d76fdb6	0.06030055
56	0xbd644181	-0.055726532
57	0xbe12347c	-0.14277834
58	0x3ba6800e	0.0050811833
59	0xbc9cee04	-0.019156463
60	0xbd8b88cd	-0.06813202
61	0x3d0a81ce	0.033815198
62	0xbd8c56b3	-0.06852474
63	0xbd6404f3	-0.055668782
64	0xbd313a46	-0.043268465
65	0xbc8cc2bf	-0.017182706
66	0xbc1c8b0b	-0.009554635
67	0xbb1a17b8	-0.0023512673
68	0xbdf572ed	-0.11984811
69	0xbd9815c0	-0.074260235
70	0xbcba8287	-0.022767318
71	0xbcb6591a	-0.022259284
72	0xbd79aae1	-0.06095398
73	0xbddb1812	-0.106979504
74	0x3d61c913	0.0551234
75	0xbd97e7dd	-0.07417271
76	0x3dc93500	0.09824562
77	0xbdbcc785	-0.09217743
78	0x3d9f029a	0.07764168
79	0x3ca19df3	0.019728636
80	0x3c172812	0.009225862
81	0xbd4ab461	-0.04948843
82	0x3d7dc250	0.06195289
83	0x3d58bf0d	0.052916575
84	0xbb94a299	-0.0045359847
85	0x3de9216b	0.11383327
86	0x3b1b50e1	0.002369933
87	0xbd737612	-0.059438772
88	0xbd0145a2	-0.031560548
89	0x3aec8b82	0.0018046948
90	0xbd9353a4	-0.071936876
91	0x3d8e270d	0.06941042
92	0xbd1414b8	-0.03615257
93	0x3d7d413e	0.061829798
94	0xbddd5c7b	-0.10808655
95	0xbdd3fe2e	-0.10351215
96	0xbb7a9828	-0.0038237665
97	0x3c682bd0	0.014170602
98	0xbd4852c5	-0.04890706
99	0xbda78595	-0.081797756
100	0xbdd1de90	-0.102475286
101	0xbdc02a5e	-0.09383081
102	0xbce2ab86	-0.02766968
103	0x3d6334a6	0.05547013
104	0xbca10bf6	-0.019659024
105	0x3dbc20fc	0.09185979
106	0xbd80523c	-0.06265685
107	0xbcaab3c5	-0.020837674
108	0xbdb18765	-0.086684026
109	0xbd871b53	-0.065970086
110	0xbdc7a113	-0.09747519
111	0x3cee9d83	0.029127842
112	0x3dabfee3	0.08398225
113	0x3d3c813d	0.04602169
114	0xbd77bce0	-0.06048286
115	0x3d71209f	0.058869
116	0xbde1312f	-0.10995709
117	0xbcbe91bd	-0.023262853
118	0xbd7eef0a	-0.062239684
119	0x3d61e991	0.055154387
120	0xbd9b069a	-0.075696185
121	0xbd7c22c8	-0.061556607
122	0xbd90c235	-0.07068292
123	0xbd60eac4	-0.05491139
124	0xbe079a37	-0.13242422
125	0x3d87ad69	0.06624872
126	0xbd91f1e7	-0.07126217
127	0x3c3236e9	0.010877349

_policy.4.weight f4 [128, 128]
0	0x3e2741bb	0.16333668
1	0xbd0cabd5	-0.03434356
2	0xbd5209a6	-0.051278733
3	0xbe49a963	-0.19693522
4	0xbcbd4dd6	-0.023108404
5	0x3e145560	0.14485693
6	0xbd4d9a95	-0.05019625
7	0x3dadea68	0.08491975
8	0xbc963d4b	-0.018339774
9	0x3d8afd53	0.06786599
10	0x3d0e3385	0.0347171
11	0x3e2fe07f	0.17175482
12	0x3ccd5c4f	0.02506843
13	0x3dd4f879	0.10398955
14	0xbe1a3f84	-0.15063292
15	0x3d9f2866	0.07771377
16	0xbebef410	-0.3729558
17	0x3df999c5	0.12187532
18	0xbe5c35ba	-0.2150487
19	0x3d61bcb7	0.055111613
20	0xbcfc700d	-0.030815149
21	0xbe81a024	-0.2531749
22	0x3d24789e	0.040154092
23	0x3e17af17	0.14812885
24	0x3c0fccc2	0.008776845
25	0xbe10fb45	-0.14158352
26	0xbd8b22c8	-0.06793743
27	0xbdfa8545	-0.122324504
28	0x3d6e743b	0.058216315
29	0xbd9365db	-0.07197162
30	0xbd92843c	-0.07154128
31	0xbeb6a862	-0.3567534
32	0xbdc54f3f	-0.096342556
33	0xbd72a73c	-0.05924152
34	0x3e07a771	0.13247468
35	0x3d5f63be	0.05453848
36	0xbe292a34	-0.16520005
37	0x3d8b081c	0.06788656
38	0x3da6fb1a	0.081533626
39	0xbd802523	-0.06257083
40	0xbd277219	-0.040880296
41	0x3ccf684e	0.025318291
42	0x3ddea173	0.10870638
43	0x3e23ea30	0.16007304
44	0xbc78d88b	-0.015188347
45	0x3d309ed3	0.043120217
46	0x3ddd37cc	0.10801658
47	0x3e2eb2ce	0.17060396
48	0x3db9c95c	0.090716094
49	0x3c8998ab	0.01679643
50	0x3e26180d	0.16220112
51	0xbd11a73f	-0.03555989
52	0x3d834232	0.0640911
53	0x3d9a5796	0.07536237
54	0xbebb4500	-0.3657608
55	0xbd86f078	-0.065888345
56	0xbd9583d1	-0.073005326
57	0xbd0bd74a	-0.034140863
58	0xbd1f8813	-0.03894813
59	0xbc773463	-0.015088174
60	0xbb672d9b	-0.0035274986
61	0xbde8929b	-0.11356088
62	0xbcdee534	-0.027208902
63	0xbdca1361	-0.098669775
64	0x3c7b14e5	0.015324806
65	0x3d3bf708	0.045889884
66	0xbd29f41c	-0.041492566
67	0xbe37f9c1	-0.17966367
68	0x3dad7cba	0.08471055
69	0xbda33fbf	-0.07971143
70	0xbdabf293	-0.08395877
71	0xbe4ed059	-0.20196666
72	0xbbfe8dd4	-0.007768372
73	0xbd9a2af9	-0.07527728
74	0xbdff365a	-0.124615386
75	0xbd6ce544	-0.057835832
76	0x3e366ebe	0.17815682
77	0x3e0025af	0.12514375
78	0x3d660aed	0.056162763
79	0xbe05efce	-0.1307976
80	0xbe2044d1	-0.15651251
81	0x3dbb77e0	0.09153724
82	0xbe1d9449	-0.15388598
83	0x3dba1af3	0.090871714
84	0x3cc0b526	0.023523878
85	0xbea41223	-0.32045087
86	0xbda26125	-0.07928685
87	0xbe904105	-0.28174606
88	0x3d92351c	0.07139036
89	0xbd64a83c	-0.055824503
90	0x3db34d7e	0.08755015
91	0xbd525a12	-0.05135543
92	0xbb2496b1	-0.0025114233
93	0xbe12227c	-0.14270967
94	0x3d3d96b6	0.046286307
95	0x3d3b293b	0.045693617
96	0x3e777eb8	0.24169433
97	0x3e010392	0.12599018
98	0x3d417770	0.047233045
99	0x3d143939	0.036187384
100	0xbeaa809a	-0.3330124
101	0x3e31b7a0	0.17355204
102	0x3cf1d60b	0.029521009
103	0xbe3ff77d	-0.18746753
104	0xbd451558	-0.048116058
105	0x3d6da6d9	0.058020446
106	0x3e590829	0.21194519
107	0x3d010740	0.031501055
108	0x3ddb64c4	0.10712579
109	0x3e45e734	0.19326478
110	0xbd8af379	-0.0678472
111	0x3db83714	0.0899488
112	0xbddcdf19	-0.1078474
113	0xbec3fd80	-0.38279343
114	0x3ddf0f31	0.108915694
115	0xbd554eca	-0.052077092
116	0xbe5371b6	-0.20648846
117	0xbe479ad4	-0.19492656
118	0xbc0af122	-0.008480342
119	0x3e18fea1	0.14940883
120	0xbdb53528	-0.088480294
121	0xbe65858b	-0.22414224
122	0xbc252959	-0.010080659
123	0xbe471e24	-0.19445091
124	0xbcdb9b7e	-0.026807543
125	0x3e011baa	0.12608209
126	0xbe10fe92	-0.14159611
127	0xbd777d09	-0.060421977
128	0xbcac5519	-0.021036671
129	0x3d6d1cc2	0.057888754
130	0x3d266a8d	0.04062896
131	0xbd22c89c	-0.039742097
132	0xbd2739d3	-0.04082663
133	0x3e09fc32	0.13475111
134	0x3d5be3c7	0.053684022
135	0xbe6e3dbe	-0.2326574
136	0x3ca7c85e	0.020481285
137	0x3d1f1b74	0.03884454
138	0x3e052d0b	0.13005464
139	0x3d6a1950	0.057153046
140	0x3d5464fc	0.05185412
141	0x3e97b6c8	0.2963164
142	0x3d4682c6	0.04846456
143	0xbdce7911	-0.10081685
144	0xbe307412	-0.17231777
145	0x3e8fb5ee	0.2806849
146	0x3e39b68d	0.18136044
147	0x3c43dc9f	0.011954456
148	0xbf005f97	-0.5014586
149	0xbd98958d	-0.074503995
150	0x3e20ff28	0.15722334
151	0xbe9e4aec	-0.30916536
152	0x3cee896e	0.029118266
153	0xbb89cf0b	-0.0042055896
154	0xbd421d25	-0.047391076
155	0x3e2c9ef8	0.16857517
156	0xbc3a4680	-0.011369348
157	0x3de15c65	0.11003951
158	0x3c7ae184	0.015312556
159	0x3db2a92e	0.08723675
160	0xbe4959bf	-0.19663142
161	0x3a50ba6e	0.00079623505
162	0xbd68d044	-0.056839243
163	0xbc8aade8	-0.016928628
164	0x3c1f2c1d	0.009715107
165	0xbc44b096	-0.012004992
166	0x3d476b56	0.048686348
167	0xbe6e9fa4	-0.23303086
168	0xbdb2bb55	-0.08727137
169	0xbdd0af88	-0.1018973
170	0xbeb57945	-0.35444084
171	0x3e83d465	0.25747982
172	0xbc8132cd	-0.015771294
173	0xbdb35d0c	-0.08757982
174	0xbf00cea7	-0.50315326
175	0xbcb2a35d	-0.021806413
176	0x3d8253fd	0.06363676
177	0xbd05e8e4	-0.032692805
178	0x3e0cc98c	0.13748759
179	0xbd8d6e34	-0.06905785
180	0xbea19279	-0.31557062
181	0xbdb47632	-0.088116065
182	0xbeb6f6ee	-0.35735267
183	0x3e1c46d8	0.152614
184	0xbdfe7bd3	-0.12425961
185	0xbd34587b	-0.044029694
186	0x3d37a244	0.044832483
187	0xbe2a3c16	-0.16624483
188	0x3de732e1	0.11289001
189	0x3be2aef0	0.006917827
190	0xbdf4968e	-0.119427785
191	0x3dd333eb	0.10312637
192	0xbdb19007	-0.08670049
193	0xbe989196	-0.29798573
194	0x3d56acb5	0.0524108
195	0xbe4248e6	-0.18973121
196	0xbe056a93	-0.13028936
197	0x3d7cac1c	0.061687574
198	0xbcc5fc8e	-0.024168279
199	0xbf1593dd	-0.58428746
200	0x3e0a6946	0.13516721
201	0x3cfbf914	0.030758418
202	0x3c0715c8	0.008244939
203	0xbe91b231	-0.28456262
204	0xbca23764	-0.019801803
205	0xbdb2bcee	-0.08727442
206	0xbe3077b3	-0.17233162
207	0xbe4dab0e	-0.20084783
208	0x3d64b75f	0.05583894
209	0x3e7742e5	0.24146612
210	0xbdc685d0	-0.096934915
211	0xbc923bd6	-0.017850798
212	0x3cf11684	0.029429682
213	0x3d8718f1	0.06596554
214	0x3d29b665	0.04143371
215	0xbcc84286	-0.024445783
216	0xbf14761c	-0.5799272
217	0x3d3477b6	0.044059478
218	0x3d9bf5ba	0.07615228
219	0xbc66bb9b	-0.014082815
220	0x3d5e6af6	0.054301225
221	0xbdf338ba	-0.11876054
222	0xbe33e3b4	-0.1756733
223	0xbdb09f1a	-0.08624096
224	0x3e4297e0	0.19003248
225	0xbeed86d5	-0.4639193
226	0x3e2fbbb7	0.17161451
227	0x3d8aa47d	0.06769655
228	0xbe377d89	-0.17918982
229	0xbdaf9cef	-0.085748546
230	0xbcd6b93d	-0.026211375
231	0xbeb011e2	-0.34388644
232	0xbba633e5	-0.0050721043
233	0xbe9e71fa	-0.30946332
234	0x3d00ef61	0.03147829
235	0xbde8fa05	-0.113758124
236	0x3ddce1a0	0.10785222
237	0x3e76072f	0.24026178
238	0x3ddf827e	0.10913561
239	0xbdc1922d	-0.09451709
240	0x3de6f334	0.11276856
241	0xbec23ed9	-0.37938574
242	0x3d505e69	0.050871287
243	0x3db6c333	0.0892395
244	0xbe865560	-0.2623701
245	0xbd8dec27	-0.06929808
246	0x3c1a0c87	0.009402401
247	0x3de4c9cf	0.111713044
248	0x3e9057e8	0.28192067
249	0x3c257ee7	0.010101057
250	0x3d94f1cd	0.07272682
251	0x3e12ff86	0.14355287
252	0xbcd31fdc	-0.025772028
253	0x3d2ba1d1	0.041902367
254	0x3d58dcd4	0.052944973
255	0xbc808d5c	-0.015692405

_policy.4.bias f4 [128]
0	0x3d1055c8	0.035238057
1	0x3d14eafd	0.036356915
2	0x3dac9310	0.084264874
3	0xbc7eb0b4	-0.015545059
4	0x3ae7b7b6	0.0017678651
5	0xbe3360b8	-0.17517364
6	0xbd3f69c6	-0.046731733
7	0xbda985e9	-0.082774945
8	0xbdfcfec0	-0.12353277
9	0xbd408a81	-0.047007088
10	0x3c9522b0	0.018205017
11	0x3e3380af	0.17529558
12	0xbdc76da0	-0.09737706
13	0xbddd2081	-0.10797215
14	0xbdc234d7	-0.09482735
15	0x3dfc0fa0	0.12307668
16	0xbd760c3d	-0.060070265
17	0x3cd23911	0.025661977
18	0xbe459d9b	-0.19298403
19	0xbc8225b3	-0.015887117
20	0x3c07bde0	0.008285016
21	0x3e076c45	0.13224895
22	0x3ca9646c	0.020677768
23	0xbd4c9f77	-0.049956765
24	0x3c70bdd7	0.014693699
25	0x3d4946b0	0.04913968
26	0xbe604d56	-0.21904501
27	0x3d3d0e01	0.046155933
28	0x3da16058	0.07879704
29	0xbd2c76b2	-0.042105384
30	0x3c8d5464	0.017252155
31	0xbd549ab5	-0.051905353
32	0x3dda9288	0.1067248
33	0x3e421748	0.18954194
34	0xbe64a5c5	-0.22328861
35	0xbd1a3f54	-0.03765805
36	0x3dc8f1f3	0.09811773
37	0xbe6f0e03	-0.23345189
38	0xbd4d8f1b	-0.050185304
39	0xbdd4b4f7	-0.10386079
40	0x3c3c6efb	0.011501069
41	0xbc2a97db	-0.010412182
42	0x3d82e5f4	0.06391516
43	0xbd43508a	-0.04768423
44	0x3c6fd0d0	0.014637187
45	0xbd9a3ac3	-0.07530739
46	0xbe2e743e	-0.1703653
47	0xbdf05056	-0.11734073
48	0x3df459f0	0.11931217
49	0x3d644eeb	0.055739325
50	0xbdd099a6	-0.10185556
51	0xbdb33327	-0.08749991
52	0x3d98379f	0.07432484
53	0xbe161cbf	-0.14659403
54	0xbd3f6b0e	-0.046732955
55	0x3d419ddb	0.047269683
56	0xbdcd8cdf	-0.10036635
57	0xbd166bcd	-0.0367239
58	0xbd571fe5	-0.05252065
59	0xbd313e92	-0.043272562
60	0xbdf81c69	-0.12114794
61	0xbde16901	-0.11006356
62	0x3c9d3c42	0.019193772
63	0x3d064ab0	0.03278607
64	0x3d20dee4	0.039275065
65	0xbce6f56c	-0.028193198
66	0xbbd7b5d2	-0.006582954
67	0x3d7ecf4a	0.062209405
68	0x3d0e4806	0.034736656
69	0xbdaae99e	-0.0834534
70	0x3cf2c1c4	0.02963341
71	0x3d3bb23c	0.045824274
72	0xbdc44b2c	-0.095846504
73	0x3d13bf48	0.036071092
74	0x3dd32cf0	0.103113055
75	0xbd777256	-0.060411774
76	0xbd04d12a	-0.032426037
77	0x3db56e69	0.0885895
78	0x3da3cb62	0.079977766
79	0x3d95bb29	0.073110886
80	0xbbfc74a8	-0.007704336
81	0xbcd27d2d	-0.025694454
82	0x3b8a2a18	0.0042164437
83	0xbd1fc713	-0.03900821
84	0xbdfd2762	-0.12361027
85	0x3e3075f2	0.17232493
86	0x3d509edb	0.050932746
87	0xbdf76355	-0.12079493
88	0xbdd0c2d7	-0.10193413
89	0xbdf0e545	-0.1176248
90	0x3dc616c3	0.0967231
91	0x3d062093	0.03274591
92	0x3bc7bcbe	0.006095498
93	0xbe031444	-0.128007
94	0xbd6c8f60	-0.05775392
95	0x3d2b9b9d	0.04189645
96	0xbd922c00	-0.071372986
97	0x3c798a23	0.015230688
98	0x3d5cd6f7	0.053915944
99	0x3c916bef	0.017751662
100	0xbdc56195	-0.09637753
101	0xbdcb552f	-0.09928357
102	0xbde28f01	-0.11062432
103	0x3d58d371	0.05293602
104	0x3cdbf37c	0.0268495
105	0x3e120a84	0.14261824
106	0x3d14f1f6	0.036363564
107	0xbca39b0d	-0.019971395
108	0x3c799fd8	0.015235864
109	0x3d44db06	0.04806044
110	0xbda85121	-0.08218599
111	0xbc4cfebb	-0.012511904
112	0xbcf78071	-0.030212613
113	0xbccfcd2f	-0.025366394
114	0xbddb2660	-0.10700679
115	0x3d4a5247	0.049394872
116	0x3da2a21c	0.07941076
117	0xbddb60b1	-0.10711802
118	0xbd3e896b	-0.04651777
119	0xbe021e48	-0.12706864
120	0xbc547ee8	-0.01296971
121	0xbcc27ddf	-0.02374166
122	0xbd5922b2	-0.053011604
123	0xbd8acc98	-0.067773044
124	0xbbe3a09d	-0.006946637
125	0xbdc84a9b	-0.09779855
126	0xb98def21	-0.0002707178
127	0x3d2d479d	0.042304624

_policy.6.weight f4 [128, 128]
0	0x3ce29866	0.02766056
1	0x3d9ff524	0.07810429
2	0xbd43111b	-0.047623735
3	0xbe44d77d	-0.19222827
4	0x3e1ad49f	0.15120171
5	0xbe13dc46	-0.14439496
6	0x3cd71a15	0.026257554
7	0x3e04454a	0.12917057
8	0x3d4786aa	0.04871241
9	0x3d6d0917	0.057869997
10	0x3e055b67	0.13023148
11	0xbec02999	-0.37531736
12	0x3d9bf6ca	0.07615431
13	0xbd3f6f6b	-0.046737116
14	0xbdd60298	-0.104497135
15	0x3dfece2d	0.12441669
16	0xbde26cca	-0.11055906
17	0x3e516cbe	0.20451638
18	0xbbc0f1d9	-0.0058882055
19	0xbec9efa4	-0.39440644
20	0x3d7918c3	0.06081463
21	0x3e0e76fc	0.13912576
22	0x3dca9212	0.09891142
23	0x3e4dad79	0.20085706
24	0x3d064efe	0.032790177
25	0x3d85349b	0.06504174
26	0x3e00411f	0.12524842
27	0xbd299f8f	-0.041411933
28	0x3ddf53b0	0.10904634
29	0xbc50b9c9	-0.012739607
30	0x3d9b4ed4	0.07583395
31	0xbdd4c0ac	-0.10388312
32	0x3d762814	0.060096815
33	0xbdbe0fb2	-0.092803374
34	0x3ebe83f4	0.37210047
35	0xbe66ac1c	-0.22526592
36	0x3e36b8f1	0.17843987
37	0x3cf21432	0.029550646
38	0x3b8e1c4b	0.004336869
39	0xbe895f18	-0.26830363
40	0x3aad1b15	0.0013206924
41	0xbd833f0c	-0.064085096
42	0xbb295fbe	-0.002584442
43	0xbc3fe796	-0.011712929
44	0x3d5ef58d	0.054433394
45	0x3d60c7c9	0.05487803
46	0xbeb7aaec	-0.3587259
47	0xbe68baf1	-0.22727562
48	0xbe3ba7e9	-0.18325771
49	0x3d4f0b5e	0.05054795
50	0x3cceb669	0.025233464
51	0x3c0aca41	0.008471073
52	0x3df4731b	0.11936017
53	0x3d4cbc12	0.049984045
54	0x3ca52743	0.020160323
55	0x3d61b967	0.055108454
56	0xbeb96c88	-0.36215615
57	0xbe1d1d66	-0.15343246
58	0x3d149f9c	0.036285028
59	0xbe948796	-0.29009694
60	0x3dba7821	0.09104944
61	0x3e387fd5	0.18017514
62	0xbdd64626	-0.104625985
63	0xbd9c4342	-0.07630016
64	0xbece4bfb	-0.40292343
65	0x3e7498f2	0.23886469
66	0x3dac6af7	0.084188394
67	0xbe9714ed	-0.29508153
68	0x3ddf00e9	0.108888455
69	0x3e2b47cd	0.16726609
70	0x3c8a3890	0.016872674
71	0xbdc0fb81	-0.094229706
72	0x3d1c869e	0.03821432
73	0xbe8bb1df	-0.27284142
74	0xbe2c8ca4	-0.16850525
75	0xbda86cb3	-0.08223858
76	0x3d5d2075	0.05398603
77	0xbe078bee	-0.13236973
78	0x3e0ca033	0.13732986
79	0x3a7f5e1c	0.00097415014
80	0xbc78596c	-0.015158039
81	0x3e01c586	0.12673005
82	0xbd282be1	-0.04105747
83	0xbd7722d3	-0.060335945
84	0xbc534949	-0.0128958905
85	0x3e11b04d	0.1422741
86	0xbe45b4a3	-0.19307189
87	0xbc0f0d97	-0.008731267
88	0xbd8c1e07	-0.06841665
89	0xbd282baa	-0.041057266
90	0x3e719404	0.2359162
91	0xbde8e13c	-0.11371085
92	0xbe9d0a44	-0.30671895
93	0x3d43f582	0.047841556
94	0xbe628fd4	-0.22125179
95	0xbe788f3b	-0.24273388
96	0xbdfced87	-0.12349992
97	0x3c9a8bb9	0.018865453
98	0xbdd219dd	-0.10258839
99	0xbdf6c667	-0.12049561
100	0x3d83ee0a	0.06441887
101	0x3d748d03	0.05970479
102	0xbd8b4a2d	-0.06801257
103	0x3e9f95a5	0.31168857
104	0xbe8be698	-0.27324367
105	0xbdde485a	-0.10853644
106	0x3e574f61	0.21026374
107	0x3dea0d04	0.11428264
108	0x3c883457	0.01662652
109	0xbc2e59f4	-0.010641564
110	0xbd27bffb	-0.04095457
111	0xbcc7766b	-0.024348458
112	0xbd688de9	-0.05677596
113	0x3d27759f	0.040883657
114	0x3e1f25f8	0.15541828
115	0x3d9c4db1	0.07632006
116	0xbe42d610	-0.19026971
117	0xbd9121b7	-0.07086509
118	0x3e219487	0.15779315
119	0x3dbc6255	0.09198443
120	0x3e75623b	0.23963253
121	0x3c66eb10	0.014094129
122	0x3d2f98aa	0.0428702
123	0xbe52bf0e	-0.20580694
124	0xbe800d2a	-0.25010043
125	0xbcd65ef3	-0.026168322
126	0xbd752c39	-0.059856627
127	0x3b12c840	0.002239719
128	0x3bc113ef	0.005892269
129	0x3e956ceb	0.2918466
130	0x3dda4800	0.10658264
131	0xbe51938b	-0.2046644
132	0xbd9adddb	-0.07561847
133	0x3c49a33b	0.012306984
134	0xbe48a57e	-0.1959438
135	0x3d4ffb5c	0.050776824
136	0x3dd37dbd	0.10326717
137	0xbeb72a79	-0.35774592
138	0x3dc1703e	0.094452366
139	0x3d03c57c	0.032170758
140	0xbd84e3db	-0.064887725
141	0xbd022f3b	-0.031783324
142	0x3d560258	0.05224833
143	0xbe5c1e78	-0.21495998
144	0x3dbe9bf8	0.093070924
145	0xbeb9af84	-0.3626672
146	0xbec8162a	-0.3907941
147	0x3e43bb9a	0.19114533
148	0x3dc74b4b	0.09731158
149	0xbe8fa78b	-0.28057513
150	0xbb07a32d	-0.0020696626
151	0xbd17cd7d	-0.037061203
152	0x3c841744	0.016124375
153	0xbdf08a43	-0.11745121
154	0xbc5b0c90	-0.013369694
155	0xbbec9e81	-0.0072210436
156	0xbe4994a6	-0.19685611
157	0xbcf98e57	-0.03046338
158	0xbd9dea85	-0.07710747
159	0x3d6f9bbc	0.05849813
160	0xbdb5eb23	-0.088827394
161	0xbdd0323a	-0.1016583
162	0xbd0dfb1b	-0.0346633
163	0x3cedfd84	0.02905155
164	0xbc9c3ee1	-0.019072952
165	0x3dfcfb2f	0.12352597
166	0xbd950e86	-0.07278161
167	0x3e27e7e2	0.1639705
168	0x3d67c41e	0.056583516
169	0x3d08ba53	0.033380818
170	0xbee6f519	-0.4510887
171	0x3c641258	0.013920389
172	0x3debc956	0.11513011
173	0xbe11a6eb	-0.1422383
174	0xbd6e9ae4	-0.058253184
175	0x3d7e440b	0.06207661
176	0xbe77243c	-0.24134916
177	0x3e10d4d6	0.1414369
178	0xbeb791a8	-0.35853314
179	0x3dcd56a3	0.1002629
180	0xbe8d458d	-0.27592126
181	0xbe063536	-0.13106236
182	0xbced1197	-0.028939052
183	0x3b8faaa9	0.004384358
184	0x3dc02b3a	0.09383245
185	0x3eabe0a9	0.3356984
186	0xbe3c803e	-0.18408296
187	0xbbe927af	-0.0071153264
188	0x3ca3162c	0.019908033
189	0xbbb7e93a	-0.0056125196
190	0xbe1d28fa	-0.15347663
191	0xbccfac40	-0.02535069
192	0xbe00ede0	-0.12590742
193	0xbdbd3a0b	-0.092395864
194	0xbec39644	-0.3820058
195	0x3e62b34e	0.22138712
196	0xbe80a54e	-0.25126117
197	0xbe2d5256	-0.1692594
198	0x3db0f71d	0.08640883
199	0x3dc5338d	0.09628973
200	0xbcd4e87d	-0.025989765
201	0xbd34f126	-0.04417529
202	0xbdc1aed1	-0.09457172
203	0xbd53d06c	-0.05171244
204	0xbac8dd01	-0.0015324653
205	0xbedd0185	-0.43165222
206	0xbe599f6c	-0.21252221
207	0x3cf68dd4	0.030096926
208	0xbe7b91da	-0.24567357
209	0x3ca7178a	0.020396966
210	0xbd8a807c	-0.06762788
211	0xbef1aac4	-0.47200596
212	0x3e3769ff	0.17911528
213	0xbc7844b9	-0.0151531035
214	0x3e573625	0.21016748
215	0xbe2989bb	-0.16556446
216	0x3e629c99	0.2213005
217	0xbea9a9fa	-0.33137494
218	0x3c6dc420	0.014512092
219	0xbd2744d4	-0.040837124
220	0xbdb0996a	-0.086230114
221	0x3e15902f	0.14605783
222	0x3e306df0	0.17229438
223	0x3e893381	0.26797107
224	0x3d7d3cbd	0.061825503
225	0xbdd696e0	-0.10477996
226	0xbdfb5397	-0.12271803
227	0x3dca35b0	0.09873521
228	0xbdeb9471	-0.11502922
229	0x3e247305	0.16059501
230	0xbdbb2fcc	-0.09139976
231	0x3db93c55	0.090447105
232	0x3eeeb07d	0.46619025
233	0xbe914252	-0.2837091
234	0x3e21b78a	0.15792671
235	0x3e386bf6	0.18009934
236	0xbe2b253a	-0.1671342
237	0xbe9648df	-0.2935247
238	0x3e955746	0.29168147
239	0xbf0e55a4	-0.5559943
240	0xbe31460b	-0.17311876
241	0xbcbd9fe3	-0.023147529
242	0x3dce99ea	0.100879505
243	0xbe91f7c4	-0.28509343
244	0xbc82dfe6	-0.015975904
245	0x3de4b148	0.11166626
246	0xbe293495	-0.16523965
247	0xbe48ff38	-0.19628608
248	0xbe1cf2b5	-0.1532696
249	0xbef2c5db	-0.47416577
250	0xbcdb1e43	-0.026747828
251	0xbc3e0221	-0.011597187
252	0xbe4dd138	-0.20099342
253	0xbd9def7d	-0.077116944
254	0xbd54e335	-0.051974494
255	0xbeba7169	-0.3641465

_policy.6.bias f4 [128]
0	0xbd38bddc	-0.04510294
1	0xbdf4ea60	-0.11958766
2	0x3da06da7	0.078334145
3	0x3e5793fa	0.21052542
4	0x3d8ea6a8	0.06965381
5	0x3d01c063	0.031677615
6	0x3d9dc85a	0.0770423
7	0xbcaa8413	-0.020814931
8	0x3e4f3c65	0.20237882
9	0xbc06c47e	-0.008225558
10	0x3e18d81e	0.14926192
11	0x3dee5876	0.11637966
12	0x3d498e32	0.049207874
13	0x3d18fc9e	0.03735029
14	0xbc463f21	-0.012100012
15	0x3db58685	0.08863548
16	0x3d791876	0.060814343
17	0x3dd36135	0.10321275
18	0xbe3932a5	-0.18085726
19	0x3d7c8a07	0.06165507
20	0x3dc52575	0.09626285
21	0x3da89fec	0.08233628
22	0x3e120a11	0.14261653
23	0x3e02b50c	0.12764376
24	0x3d9377e9	0.072006054
25	0x3d8b3e6c	0.067990154
26	0x3d622942	0.055215128
27	0x3d1f0be4	0.0388297
28	0x3d4525ca	0.04813174
29	0x3d825dee	0.06365572
30	0xbd27335f	-0.040820476
31	0xbdc67223	-0.096897386
32	0x3cdca932	0.026936147
33	0x3ce5d014	0.028053321
34	0xbd93bd01	-0.07213784
35	0x3d4f6ba4	0.050639763
36	0xbca9ba94	-0.02071885
37	0x3d899697	0.06718176
38	0x3d9e80cb	0.07739409
39	0xbcc4484d	-0.023960257
40	0xbc919237	-0.017769916
41	0xbd7482b6	-0.05969497
42	0x3e052a2f	0.13004373
43	0x3c22bf80	0.0099333525
44	0xbd104619	-0.0352231
45	0xbdc667c1	-0.09687758
46	0xbdafecbc	-0.085900754
47	0x3ddd2e0e	0.107998
48	0x3e20ebed	0.15714999
49	0x3d2fdbbf	0.042934176
50	0x3dca5128	0.098787606
51	0xbe01a355	-0.12659962
52	0xbd254780	-0.04035139
53	0xbdfef876	-0.12449734
54	0x3d33ec7d	0.043926705
55	0x3d7f12aa	0.06227366
56	0x3dc52264	0.096257
57	0x3e409e7b	0.18810456
58	0xbd1e6cc2	-0.03867794
59	0x3de5cc1f	0.11220574
60	0x3dd658c0	0.104661465
61	0x3d62d0c0	0.05537486
62	0xbe2fd0fa	-0.17169562
63	0x3e19fba3	0.15037398
64	0x3c651b49	0.013983556
65	0x3ce2811a	0.027649451
66	0x3e155dc6	0.14586553
67	0x3e12f09a	0.14349595
68	0xbc867830	-0.016414732
69	0x3d44e700	0.04807186
70	0x3c3e03c8	0.011597581
71	0x3e1ecc2b	0.15507571
72	0xbdee3963	-0.116320394
73	0x3cfc4519	0.030794667
74	0x3d4bd66d	0.04976504
75	0xbbb4bacb	-0.0055154315
76	0x3e0c402e	0.13696358
77	0xbde8cfbe	-0.11367749
78	0x3b4b737e	0.003104418
79	0x3db40113	0.087892674
80	0x3c198829	0.009370842
81	0xbcc435d1	-0.023951443
82	0xbe164b6b	-0.14677207
83	0x3b70c303	0.003673733
84	0x3d640803	0.055671703
85	0x3dea930d	0.11453829
86	0x3cd1f651	0.025630148
87	0x3d678812	0.05652625
88	0xbb0b6487	-0.0021269636
89	0x3d206e33	0.039167594
90	0x3d8f3c71	0.0699395
91	0x3e60a57d	0.21938129
92	0x3e2091cf	0.15680622
93	0x3d562e5a	0.052290298
94	0x3d0bfbf7	0.03417584
95	0x3ca545f7	0.020174963
96	0x3d9bc783	0.07606413
97	0x3dd7925e	0.10525964
98	0x3de53314	0.11191383
99	0x3dcc67b9	0.09980721
100	0xbd9961f9	-0.0748939
101	0x3e1b9d46	0.15196714
102	0x3d802418	0.06256884
103	0x3dd7dc22	0.10540034
104	0xbd8a8f54	-0.06765619
105	0x3ce9677e	0.028491732
106	0x3e1a7f8a	0.15087715
107	0x3cf3f6e7	0.029780818
108	0xbda2d581	-0.07950879
109	0x3e418d4e	0.1890156
110	0x3e6de10d	0.23230381
111	0x3b3d4695	0.0028881181
112	0xbd2356ea	-0.03987781
113	0x3b928c9e	0.0044723293
114	0x3d1a37b7	0.03765079
115	0x3c7eb811	0.015546815
116	0xbd9b1559	-0.07572431
117	0x3d96f8b6	0.073716566
118	0xbc24109d	-0.010013727
119	0x3dff7342	0.124731556
120	0x3d486c0a	0.04893116
121	0x3e0e23b3	0.13880806
122	0x3e57a339	0.21058358
123	0x3dc34a5d	0.09535668
124	0x3dda2aab	0.106526695
125	0xbd96bb54	-0.07359949
126	0xbd776995	-0.060403425
127	0xbc999b70	-0.018750876

_policy.8.weight f4 [3, 128]
0	0xbc6a1138	-0.014286332
1	0x3d9caef1	0.07650555
2	0xbdcfcdea	-0.10146697
3	0xbee70ca8	-0.45126843
4	0xbeb2bddb	-0.34910473
5	0xbe538d61	-0.206594
6	0xbdbffd7c	-0.0937452
7	0x3cdbbf48	0.026824608
8	0x3ee53782	0.44768912
9	0x3c52649c	0.01284137
10	0x3e851d4c	0.25998914
11	0x3e78bfe5	0.24291952
12	0xbd273880	-0.040825367
13	0x3e1a7f8f	0.15087722
14	0xbf34030c	-0.7031715
15	0xbe2ad5b3	-0.16683082
16	0x3e6d92ac	0.23200482
17	0x3e91326b	0.28358778
18	0xbef0de13	-0.4704443
19	0x3e1618d5	0.1465791
20	0xbd9e7d3b	-0.077387296
21	0xbdd9a4b9	-0.106271215
22	0xbb507148	-0.0031805802
23	0x3f151ac7	0.58243984
24	0xbd7818ec	-0.060570642
25	0xbe8ebcc6	-0.27878398
26	0xbcea5bfd	-0.028608317
27	0xbd810e5f	-0.06301569
28	0xbeaa71db	-0.3328999
29	0x3e2c8596	0.16847834
30	0x3cccc332	0.02499542
31	0x3d0753f8	0.033039063
32	0xbe47583d	-0.19467254
33	0xbe0757b6	-0.13217053
34	0x3e3d0600	0.1845932
35	0x3e69aa22	0.22818807
36	0xbe78740e	-0.24263021
37	0x3de40007	0.11132818
38	0xbb77f87f	-0.0037837324
39	0xbdd20f6c	-0.10256848
40	0x3f0512bc	0.5198171
41	0xbdace522	-0.08442141
42	0x3da92a81	0.0826006
43	0x3e3b4ef5	0.18291838
44	0x3ee1480c	0.4400028
45	0xbe9dd08d	-0.30823174
46	0x3f8afe3b	1.0858835
47	0x3e941c53	0.2892786
48	0xbe0c6a8b	-0.13712518
49	0x3d2d7730	0.042349994
50	0x3e6768b9	0.22598542
51	0xbd43bdf1	-0.047788564
52	0xbe7a416e	-0.24439022
53	0x3e9546dd	0.29155627
54	0xbd4f0fa3	-0.05055202
55	0xbe2cbd04	-0.16868979
56	0xbd9503bb	-0.07276102
57	0xbf14b642	-0.58090603
58	0xbd36b266	-0.044603728
59	0x3eb25432	0.3482986
60	0xbd40139a	-0.046893694
61	0xbc05b0b1	-0.008159802
62	0xbf078a90	-0.52945805
63	0xbe3d03da	-0.184585
64	0x3e0fae1f	0.14031266
65	0x3e8c5637	0.27409527
66	0x3e83d12b	0.2574552
67	0xbc3ab69a	-0.011396075
68	0x3e9edff5	0.3103024
69	0x3e17f020	0.14837694
70	0x3eba92fb	0.36440262
71	0xbcc4452b	-0.023958763
72	0xbe74d64d	-0.23909874
73	0x3eb75074	0.35803568
74	0x3e46e478	0.19423091
75	0xbdb5173b	-0.088423215
76	0xbe198ecb	-0.14995877
77	0x3e779ada	0.24180165
78	0xbe0c3c08	-0.13694775
79	0x3e48ed4e	0.19621775
80	0x3d54278d	0.05179553
81	0xbe6bfeb2	-0.23046377
82	0xbe85d33a	-0.26137716
83	0xbe522cb4	-0.20524865
84	0xbd0a9fa3	-0.033843648
85	0x3f07f392	0.53106034
86	0xbebe1845	-0.3712789
87	0xbd2ae3ef	-0.04172128
88	0xbe765991	-0.24057604
89	0x3eecbfab	0.4623998
90	0xbe36503f	-0.17804049
91	0xbd8fda61	-0.07024074
92	0xbe7ff993	-0.24997549
93	0xbdb734a2	-0.08945586
94	0x3e9d0631	0.30668786
95	0x3eb08a84	0.3448068
96	0x3e377a4c	0.17917746
97	0xbc45471d	-0.0120408805
98	0x3eb943c5	0.36184517
99	0xbe820692	-0.25395638
100	0x3da6991e	0.081346735
101	0xbe26bdf3	-0.16283397
102	0xbe6485a6	-0.22316608
103	0xbed772ab	-0.42079672
104	0xbd8b7b53	-0.068106316
105	0x3e3bd900	0.18344498
106	0xbe61cfe2	-0.22051957
107	0x3e87259d	0.26395884
108	0x3dffb56d	0.12485776
109	0x3e69f25f	0.22846363
110	0xbe2f99e5	-0.1714855
111	0x3dbf6b85	0.093466796
112	0xbeebf499	-0.4608505
113	0x3c71910f	0.014744057
114	0x3e57ead6	0.21085677
115	0xbe116f7b	-0.14202683
116	0xbd53a551	-0.05167133
117	0xbe4df1a6	-0.20111713
118	0x3e17822d	0.14795752
119	0x3c0fcfd4	0.008777577
120	0x3eae72df	0.34072015
121	0xbdb3f998	-0.087878406
122	0xbda5e51a	-0.08100338
123	0x3e9de3a1	0.3083773
124	0x3f0db12c	0.5534847
125	0x3e5c3c1b	0.21507303
126	0x3cc190f7	0.023628695
127	0xbe05c904	-0.13064963
128	0x3e2ce09a	0.16882554
129	0x3e9fceb9	0.31212404
130	0xbe09bdf0	-0.13451362
131	0x3e80cf2c	0.2515806
132	0x3eb0db1b	0.34542164
133	0xbb20c5f3	-0.002453205
134	0x3e3795a2	0.17928174
135	0x3e9aac2e	0.30209488
136	0xbeccf654	-0.40031683
137	0x3dd5329b	0.10410043
138	0xbe1e3009	-0.15448011
139	0xbdaa9104	-0.08328441
140	0x3bb7344f	0.0055909525
141	0x3d2ec7ab	0.042670887
142	0x3f2147cf	0.63000196
143	0xbda4aa2a	-0.08040269
144	0xbea2b331	-0.31777337
145	0xbe269404	-0.16267401
146	0x3ec686cb	0.38774714
147	0x3d73eea7	0.05955377
148	0x3ebef976	0.372997
149	0x3eaf9bc6	0.34298533
150	0xbdd909f4	-0.105976015
151	0xbe91fd95	-0.2851378
152	0xbeefef42	-0.46862227
153	0x3d3d8b1d	0.046275247
154	0xbde8f7d4	-0.113753945
155	0xbdf07551	-0.11741126
156	0x3dd01576	0.10160343
157	0xbea0e4b3	-0.31424484
158	0x3d18bdd8	0.037290424
159	0x3d1a27b1	0.03763551
160	0x3eb2e20e	0.3493809
161	0xbc9778c3	-0.0184902
162	0xbef82653	-0.4846674
163	0x3dd5fa8c	0.10448179
164	0xbdf4a003	-0.11944582
165	0xbe15eaab	-0.146403
166	0x3ef655b2	0.48112255
167	0x3d10e67d	0.03537606
168	0xbc8b4d64	-0.017004676
169	0x3db4d9aa	0.088305786
170	0x3eebfcd9	0.46091345
171	0xbe875257	-0.26430008
172	0xbe4c842f	-0.19972299
173	0x3e1f48d2	0.15555122
174	0xbf48a88a	-0.7838217
175	0xbe94641a	-0.2898262
176	0xbddf5c18	-0.10906237
177	0x3ebb7fe6	0.36621016
178	0xbe009adc	-0.12559074
179	0x3e1c1bab	0.1524493
180	0x3e8e1363	0.27749166
181	0xbe3ee191	-0.18640734
182	0x3e997ddf	0.29978845
183	0xbe5da250	-0.21643949
184	0x3ecc6d08	0.39926934
185	0x3eb6f27a	0.3573187
186	0x3e06d2f4	0.1316641
187	0xbcaf7602	-0.021418575
188	0x3e175ea1	0.14782192
189	0xbd9aeabd	-0.07564304
190	0x3e87d5c8	0.2653029
191	0x3f0aaef0	0.54173183
192	0xbe83821f	-0.25685212
193	0xbe34a644	-0.1764155
194	0x3c2a9481	0.010411383
195	0x3dfd6b96	0.12374036
196	0x3cfd9981	0.030956985
197	0xbeb1cae2	-0.347251
198	0x3e1b6ac3	0.15177445
199	0x3ecbd32a	0.39809543
200	0x3c4c8c4f	0.012484624
201	0xbedf68f0	-0.43634748
202	0x3d5e2c7f	0.054241654
203	0xbde0c266	-0.109745786
204	0x3e50a206	0.20374307
205	0xbe6d99b0	-0.23203158
206	0xbe893595	-0.26798692
207	0xbde3d8cf	-0.11125337
208	0xbe8ef0dc	-0.27918136
209	0xbd433551	-0.04765827
210	0x3e3b167c	0.18270296
211	0x3ea5a57b	0.32352814
212	0x3e7e17eb	0.24813811
213	0xbdedb14a	-0.11606081
214	0x3e43eaac	0.19132489
215	0xbe22bb16	-0.1589168
216	0x3ea34bf2	0.3189388
217	0xbe3dbdf3	-0.18529491
218	0x3e2fa892	0.17154148
219	0xbeb2d181	-0.34925464
220	0xbd833cf2	-0.06408109
221	0xbe6af3cd	-0.22944565
222	0xbef54638	-0.47905135
223	0xbd6f18a5	-0.058373112
224	0xbea80406	-0.3281557
225	0x3eb9dd5c	0.36301696
226	0xbe3639ac	-0.17795438
227	0x3e26a806	0.16275033
228	0xbede600c	-0.43432653
229	0xbe3b3692	-0.18282536
230	0x3c1dbc97	0.009627483
231	0xbca2a5bd	-0.01985442
232	0x3cbfd077	0.023414833
233	0xbd89dd53	-0.06731667
234	0xbc23718d	-0.009975803
235	0xbefcf88c	-0.49408376
236	0x3ea9d2eb	0.3316873
237	0xbebbf2b8	-0.36708617
238	0x3e83351a	0.2562645
239	0xbcb62f79	-0.022239434
240	0x3e3f4f37	0.18682562
241	0x3e39afa4	0.18133408
242	0xbe785a20	-0.2425313
243	0x3e84cd67	0.2593796
244	0x3e01ddbd	0.12682243
245	0xbcdff259	-0.02733724
246	0xbf2546c6	-0.64561117
247	0xbe9b062a	-0.3027814
248	0xbd6819cc	-0.056665227
249	0x3e42b132	0.19012907
250	0x3ebe4f8a	0.37170058
251	0xbea73959	-0.3266094
252	0xbeadf06e	-0.33972496
253	0xbe3d961d	-0.18514295
254	0x3e0a34de	0.1349673
255	0xbe820af7	-0.2539899

_policy.8.bias f4 [3]
0	0x3cebdf9e	0.028793152
1	0xbd4812ac	-0.048845932
2	0x3ba8168a	0.00512964
