logs/weight_colliion_obj_obs = 0.4/model/model_2000.pth (torch, 427625 bytes, 19 tensors)

_policy.0.weight f4 [128, 22]
000000 bd 0f c0 be e2 08 55 bd b0 bb 3a 3e 57 19 be 3d
       -0.37512007 -0.052010424 0.1823566 0.09282177
000010 39 81 b7 be 61 89 5e be d0 d5 32 3e 13 14 d9 bc
       -0.35840777 -0.21732093 0.17464375 -0.02649883
000020 6c 99 e3 3e 29 b0 b5 3e 64 c1 69 be dc d6 93 3b
       0.4445299 0.35485962 -0.22827679 0.004511697
000030 3e 8a 87 3e dc 94 f4 3e f8 c2 98 bd 35 1a 01 be
       0.26472658 0.4776982 -0.07459062 -0.12607653
000040 19 ed a5 bd b2 4f 97 3d 47 47 0b 3d 42 11 03 3e
       -0.081018634 0.073882475 0.034003522 0.12799552
000050 35 f6 08 be 7c c8 16 bf 0b 03 e1 be a2 e5 97 be
       -0.1337517 -0.58899665 -0.43947634 -0.29667383
000060 53 17 33 3d 20 cd 89 3f 17 4f 8b bd 13 49 06 3d
       0.043723416 1.0765724 -0.068021946 0.032784533
000070 1e 9a 82 3e fb da ba 3d ae 97 73 bf 78 dc f4 3d
       0.25508207 0.091237985 -0.9515332 0.119561136
000080 70 72 00 3e 45 57 73 3e b1 31 a8 3e 1e c4 a9 3e
       0.12543654 0.2376376 0.32850412 0.33157438
000090 d6 cb 51 3e 5e e4 50 bd ea 1d 23 bd 44 bd 3d be
       0.20487913 -0.050999038 -0.03982345 -0.1852923
0000a0 c0 03 53 be bb 92 e2 3d 72 7d cd 3c 27 4f d4 bc
       -0.206069 0.11063143 0.025084231 -0.025916649
0000b0 d2 dc 19 bf 46 f5 45 bd 87 e8 92 3e f0 81 5b 3d
       -0.6010257 -0.048329614 0.2869303 0.053590715
0000c0 3d 39 91 be 17 f4 ab 3d 1b 85 7a 3c 34 fc 33 3e
       -0.28363982 0.08396166 0.015290524 0.17576677
0000d0 58 b5 a0 3f 84 15 05 bf 48 e8 9b 3e 5f ca f4 bc
       1.2555342 -0.51985955 0.30450654 -0.029881654
0000e0 a1 20 d0 3e 13 6c ef 3e d3 eb a1 3d dc b4 1d 3e
       0.40649894 0.46762142 0.07906308 0.15401024
0000f0 cb 07 20 be cc 8d e9 3d 83 8f d6 39 4a f2 23 bd
       -0.15627973 0.11403999 0.00040924185 -0.040025987
000100 77 5c bd bd 6c fb e3 bd 75 34 a4 3d c9 d2 0e bf
       -0.09246152 -0.11131939 0.08017818 -0.5579038
000110 dd 2d 81 3d f3 bf 10 3f 9b f4 13 bd 50 37 3b bf
       0.06307576 0.5654289 -0.036121946 -0.73131275
000120 6e c0 4e 3e 63 59 d6 3e ba eb 1f 3e 3f b1 08 3e
       0.20190594 0.41865072 0.15617266 0.13348864
000130 45 08 75 bb b1 4d 4c be d4 f7 95 be 53 4d 2c 3f
       -0.0037388962 -0.19951512 -0.2929064 0.6730549
000140 cb 80 61 be a5 12 02 be bd c4 50 be 28 a1 72 3c
       -0.22021787 -0.12702425 -0.2038755 0.01480893
000150 ff a9 4d be 0d 81 9b 3e a1 05 1e 3e ed 87 e4 3d
       -0.2008438 0.30371895 0.15431835 0.11158738
000160 6a 3d 8f 3f dc 08 0c bf 3d 08 4d bd 64 6b 4a 3e
       1.1190617 -0.5470102 -0.050056685 0.19767529
000170 a9 b0 48 3f d8 21 2e bf 9d 64 13 3e 3f a5 0e bf
       0.7839456 -0.6802039 0.1439385 -0.55720896
000180 76 ec 3b bf 61 4c 09 3f 70 65 24 3e be 97 17 be
       -0.73407686 0.5363217 0.1605432 -0.14803979
000190 00 16 e2 bd 40 25 23 be 90 d8 67 3b d8 3c 37 3e
       -0.110393524 -0.15932178 0.0035376884 0.17894304
0001a0 88 37 56 bc 53 9a d7 3b f0 a3 cc 3c 0f 7b ff bd
       -0.013074763 0.006579676 0.024980515 -0.124746434
0001b0 5e 5e 83 3c e5 db fd bc 83 60 38 bf b0 9e 47 3f
       0.016036209 -0.030988643 -0.72022265 0.7797651
0001c0 a9 c4 f6 3e 87 6b 1d bf 40 c6 8e be b9 5d 3c 3f
       0.48196915 -0.614922 -0.27885628 0.7358051
0001d0 e9 30 58 3e 2a b2 52 3e ec e2 36 bd 22 5d 9e bf
       0.21112408 0.20575777 -0.044650003 -1.2372172
0001e0 a7 16 a9 be 0e 3a c3 3c 50 d8 2e be e6 7e bc bb
       -0.33025095 0.023831394 -0.17074704 -0.005752432
0001f0 8c c3 7a 3d 13 f5 06 bd 5c 93 27 3e 57 5b 2f 3d
       0.061221644 -0.032948565 0.16364807 0.042811718
000200 82 b1 3d bd 15 f9 d0 bd 5e 92 96 bd 05 07 ab 3d
       -0.046311863 -0.102037586 -0.07352136 0.08350948
000210 a3 60 c6 bd 3f d3 28 3e 34 42 c7 be 4d c9 82 3e
       -0.09686401 0.16486834 -0.38917696 0.25544205
000220 84 bd d0 3e 93 8d 83 bc 37 fc 0a bf b1 c3 a4 3d
       0.4076959 -0.016058719 -0.542911 0.08045138
000230 2c 21 1e 3f d1 06 13 bf b1 44 76 3e 67 e3 74 bc
       0.61769366 -0.57432276 0.24049641 -0.014946795
000240 e6 78 6f bf 42 ca 4b 3e f5 84 30 bd 58 26 9a bc
       -0.9354385 0.19901374 -0.043095548 -0.018817112
000250 d4 16 ac bd 11 70 11 be 97 dd bc 3e df c8 42 be
       -0.084027916 -0.14202906 0.3688781 -0.19021939
000260 32 81 24 3e b3 50 f5 bd 51 0b 78 be 0c 0c d3 bd
       0.16064909 -0.11978283 -0.24223067 -0.10305032
000270 5a a7 1f 3d 34 7a 7f 3f df 2a ba 3e 89 de 97 3e
       0.03897796 0.9979584 0.36360833 0.29661968
000280 d9 bb 8b be f2 5d ed bd b6 f0 58 bf 54 46 69 3f
       -0.27291754 -0.11590184 -0.84742296 0.9112294
000290 5f bd 25 bd 62 4d f1 be 98 cc 3a 3d b5 cd b8 3d
       -0.0404638 -0.4712935 0.045605272 0.090236105
0002a0 5d 85 19 be 79 9b 4e 3d ab 80 df bd 35 8b 6d be
       -0.1499228 0.05044124 -0.10913213 -0.23197635
0002b0 8e 15 2f bc 51 dd 7c 3d 5e 0e 7b bb f7 25 7b 3e
       -0.010686291 0.0617345 -0.0038308124 0.24526201
0002c0 db dc 46 3e 63 5d dc be e7 a8 f4 bd 49 be 17 3e
       0.19420187 -0.43039998 -0.11946278 0.14818682
0002d0 31 f1 f4 3e 0c f3 b6 bd 85 76 4e be f9 05 28 bc
       0.47840264 -0.08933076 -0.20162399 -0.01025533
0002e0 87 77 08 40 91 24 9d 3f a3 e2 08 bd 6b 5e 04 be
       2.1322954 1.2276784 -0.033419263 -0.12926643
0002f0 17 13 33 3e 2d a0 07 3c a1 cc 0d 3e ed 2a 21 be
       0.17487751 0.008277935 0.13847591 -0.15739031
000300 22 c6 2c 3e 07 ed 9f bd 00 0f 83 bd 3a 9a 56 bc
       0.16872457 -0.07808881 -0.063993454 -0.013098294
000310 93 cf 8c bd 83 f2 cf 3d 5a f5 b7 3e ad 3d 51 3f
       -0.06875529 0.10153677 0.35929376 0.81734735
000320 73 24 e4 be 1b 34 47 bf fe 17 94 be c8 58 09 3f
       -0.4455906 -0.7781388 -0.28924555 0.53651094
000330 8f c6 07 bf 2e 0f 26 bf 34 64 1e bf 1a 06 b6 3e
       -0.5303735 -0.6486691 -0.6187165 0.3555153
000340 07 ff 64 bc a7 1b e7 3e c1 72 ac 3e 7f 1f 00 be
       -0.013976819 0.45138285 0.336813 -0.12512015
000350 91 37 97 3d 2d 23 3e 3d e5 23 01 3e 46 4f 1d be
       0.07383645 0.046420265 0.12611349 -0.15362272
000360 fd 40 2d bc 43 81 a6 3b b9 c2 fa bd b5 7f ee bd
       -0.010574576 0.005081327 -0.12244172 -0.11645452
000370 98 3f 47 bf 7b 83 aa be 97 97 2a 3e 4f 62 10 be
       -0.7783141 -0.33303437 0.1665939 -0.14100002
000380 b7 59 2c bf 77 c9 ab be 3a dc e0 bd 4c 73 7d 3d
       -0.67324394 -0.33552143 -0.10979505 0.061877534
000390 c5 d1 c9 3f 69 29 15 3f 96 de 82 3e 5c 17 80 be
       1.5767142 0.5826631 0.25560445 -0.25017822
0003a0 a0 d0 00 bd d0 4a 58 3d 97 15 98 bc 3c fb f3 3d
       -0.03144896 0.05280572 -0.018564982 0.119131535
0003b0 e5 4d 18 3e 03 fd 71 3c 16 15 f0 bd f1 20 b0 bc
       0.14873464 0.014769795 -0.11722772 -0.021500083
0003c0 4f b8 c7 bd 3e d9 8b bd 9b 26 93 3c 11 c4 ab 3e
       -0.09751951 -0.06828545 0.017962744 0.33548024
0003d0 86 32 59 bf 8c 5f b5 be 1c ef 17 be 20 3a b4 bb
       -0.8484272 -0.3542446 -0.14837307 -0.005500093
0003e0 6d 3d 13 3c 5b ea ed be bb d0 be be 3c 57 04 be
       0.008986813 -0.46467862 -0.37268624 -0.12923902
0003f0 bb 79 dc bc e1 fc 56 bd d7 7c cd be 5a bc aa be
       -0.026913514 -0.052487258 -0.40134308 -0.33346826

_policy.0.bias f4 [128]
000000 90 7c cb bd b0 44 d3 bc a4 d1 44 be 9b c9 36 be
       -0.09935868 -0.025789589 -0.19220597 -0.17850344
000010 3b 33 ee bc 0e 78 03 be d3 0f 15 3d 68 18 d8 b9
       -0.029077163 -0.12838766 0.036392044 -0.00041216915
000020 3b 3c 2f bd 90 e2 38 3e 0b 9e 28 3e 04 39 39 3e
       -0.04278205 0.18055177 0.16466539 0.18088156
000030 cd 77 39 be 76 e2 75 be a9 f8 ce 3b 50 3a d7 bd
       -0.18112107 -0.24012169 0.0063162637 -0.10509169
000040 79 55 f1 bb 79 f9 23 3d 2c c2 35 be 56 80 1d 3d
       -0.0073649255 0.040032838 -0.17749852 0.03845247
000050 24 a7 b1 3d 53 08 d1 bc 64 e7 8a be f1 39 68 3e
       0.08674458 -0.025516665 -0.27129662 0.22678353
000060 a8 db 98 bd 96 13 8d bd b9 15 e4 bc 7f 2d 14 be
       -0.07463771 -0.06888501 -0.02784239 -0.1447048
000070 bf fc ea 3d ff a3 57 be fe 5b 7c be 60 c9 27 be
       0.11473989 -0.21058653 -0.24644467 -0.16385412
000080 8e 0d e5 3d c3 f3 bb bd 91 30 b3 3d f7 7e 85 3d
       0.11184226 -0.09177353 0.08749498 0.06518357
000090 b0 51 54 3e 5f 01 57 be 77 82 25 be 62 ef 93 bb
       0.20734286 -0.20996617 -0.1616305 -0.0045146206
0000a0 3f 1d f7 bc 95 f9 e0 3d 6a 27 3c be 29 85 96 bd
       -0.030165313 0.10985104 -0.1837441 -0.07349617
0000b0 19 9c d8 3a 5f 8c 02 be 5d 61 46 3e 53 e1 cd 3d
       0.0016526013 -0.1274886 0.19373079 0.10052743
0000c0 bd 73 f6 bd ac 2e 4e be 6b ae a3 be 90 49 24 be
       -0.12033794 -0.20134991 -0.31969008 -0.16043687
0000d0 a4 00 92 be ca 7d 64 3e 8c 6f 8f be c0 b8 cb bd
       -0.28516114 0.2231361 -0.2801479 -0.09947348
0000e0 80 9f 8e bd 78 61 b2 3d 99 2f b8 3e e0 b9 59 bd
       -0.06964016 0.08709997 0.35973814 -0.05315578
0000f0 e9 89 2a bd 63 46 54 bc e5 ac 96 be 79 20 83 bd
       -0.041635428 -0.012956235 -0.29428783 -0.06402678
000100 be f7 05 be 6b be c1 bd d1 26 51 3d df 6d ac bd
       -0.13082787 -0.094601475 0.05106241 -0.08419394
000110 9e 35 cf bd 80 0c 3b be 72 a0 ae bd d5 20 93 bd
       -0.101176485 -0.18266487 -0.08526696 -0.071839966
000120 6a ea 33 be f7 55 10 3e 37 89 29 be 4f 68 ec 3d
       -0.1756989 0.14095293 -0.1655625 0.11543333
000130 eb 81 f2 bd 1b cb fc bd e4 5b 44 be 82 c8 05 be
       -0.11841186 -0.12343427 -0.19175678 -0.13064769
000140 c0 bd 8a ba a7 9c af bc 87 af aa 3c 6b 0a 78 be
       -0.0010585114 -0.021437002 0.020835651 -0.24222724
000150 e4 5e e0 bd 1f f0 b4 bb 34 1f 2e be 2e 27 58 bd
       -0.10955599 -0.0055217887 -0.1700409 -0.05277174
000160 68 23 e5 bd 26 da 84 be c7 c2 a7 3d ba 8f 5d be
       -0.11188394 -0.25947684 0.08191448 -0.21636859
000170 19 7c c9 3d 58 ed 89 be b0 18 75 be 06 53 07 3d
       0.09838123 -0.2693889 -0.23935199 0.03303816
000180 db d2 98 be b0 81 19 be 5b bb c3 bd f2 de 32 be
       -0.2984837 -0.14990878 -0.095572196 -0.1746786
000190 3e e5 90 be 34 6c 1b be 62 b7 0f be 80 04 8c bd
       -0.28299898 -0.15177995 -0.14034799 -0.06836796
0001a0 30 7a b8 3c 3c 79 2d 3c 12 ca 4d be db 1c 6a be
       0.022519201 0.010587987 -0.20096615 -0.2286257
0001b0 c9 59 33 bc 2d b2 2d 3e 14 4b 1c 3e d2 95 65 be
       -0.010946699 0.169625 0.15263015 -0.22420433
0001c0 15 b7 50 be 0a e0 de bd 67 32 8b be 48 45 12 3e
       -0.2038234 -0.10882576 -0.2718689 0.14284241
0001d0 42 5d 58 3c 98 29 1a 3d 1c b7 97 bd 15 36 34 3e
       0.013205828 0.037637323 -0.07407972 0.17598756
0001e0 90 f6 a6 3d 71 16 bc bd 23 85 33 3d d9 35 65 be
       0.08152497 -0.09183968 0.04382814 -0.22383823
0001f0 5e fd bb 3b 11 67 5f be b1 ad 5c be d5 a4 8d be
       0.005736991 -0.2181666 -0.21550633 -0.2766482

_policy.2.weight f4 [128, 128]
000000 0e 86 3a 3e 10 e7 c7 bb c3 0f 39 be a2 d3 97 be
       0.182152 -0.006100543 -0.18072419 -0.2965365
000010 ff 54 9e 3e b4 0a 02 bf bc df 21 3d 02 d1 7e 3e
       0.30924222 -0.5079758 0.03952001 0.24884418
000020 4a a1 5d 3d 35 51 0c bf ee c8 0b bd 40 03 7f be
       0.054108895 -0.5481141 -0.03412717 -0.24903584
000030 c8 b7 d2 3c 0d cb 00 be 61 2b 95 be b3 53 54 bd
       0.0257224 -0.12577458 -0.29134658 -0.051837634
000040 44 23 21 3d 15 f6 e0 3d 65 41 82 bd 8f 1c 23 bd
       0.039340273 0.109844364 -0.06360129 -0.039822157
000050 d6 a8 c2 3d 56 55 13 be 41 b0 8b 3d 6b 82 cb be
       0.09504859 -0.14388022 0.06820727 -0.3974794
000060 f3 de 97 be cc ae 7c bc bf 5f 6d be 14 f9 80 3e
       -0.29662284 -0.015422534 -0.23181055 0.25190032
000070 33 19 99 3e 89 af e0 3d c2 2a 55 3d 34 60 c7 be
       0.29902038 0.10970981 0.05204273 -0.38940585
000080 3d 20 03 3e 16 48 03 bd d6 db 66 3e a2 1f 61 bc
       0.12805267 -0.03205117 0.22544798 -0.013740452
000090 a3 34 8d 3d 13 44 b3 be de 0d ba 3d f3 23 eb 3c
       0.06894805 -0.35012874 0.09084676 0.028703665
0000a0 15 97 cc be e2 3a 34 be 68 43 1e 3d b2 2e dc ba
       -0.39959016 -0.17600587 0.038638502 -0.0016798584
0000b0 bb 66 1d 3e 94 b4 5c be 2e 9e 9c 3d 7b d0 b1 bd
       0.1537122 -0.2155326 0.07647358 -0.086823426
0000c0 49 c4 b8 bd 35 ab 28 bf 18 58 b4 be c2 54 fb bc
       -0.090218134 -0.6588624 -0.3522346 -0.030680064
0000d0 a2 57 e7 3e 9b 42 d6 3e 83 eb a4 be cc c1 85 be
       0.45184046 0.4184769 -0.3221093 -0.26124418
0000e0 65 40 98 3e 90 3f 44 3e 91 1a 01 be 60 c1 0c 3e
       0.2973663 0.19164872 -0.1260779 0.13745642
0000f0 2a 6f 85 3e 16 da 59 bc c8 51 98 be a8 75 98 3d
       0.26061374 -0.013296625 -0.29749894 0.07444316
000100 6f 3f cc 3c 49 bc 7d 3e f4 9f 06 3e e5 35 0f bd
       0.024932591 0.24778856 0.13146955 -0.034963507
000110 82 8c 46 3d db da 76 be a5 2d 34 3d 34 d9 31 be
       0.048473842 -0.24106924 0.043988843 -0.17368013
000120 b2 96 01 be 30 d3 ba bd 9e a5 03 be 55 46 8f be
       -0.12655142 -0.09122312 -0.12856147 -0.27983347
000130 00 12 12 be 1e 70 c5 bc 98 06 a3 be 38 1f 57 3e
       -0.14264679 -0.024101313 -0.31840968 0.21008003
000140 19 fe 78 3e 03 3e b8 3d bf b8 c6 3c 38 7c 05 bf
       0.2431568 0.08996203 0.024258016 -0.5214267
000150 e7 46 e1 be b7 74 a2 bd 8e 4e d7 3b 91 8a 5a bd
       -0.43999407 -0.07932418 0.0065706437 -0.053354803
000160 0f 48 66 bd fb 09 64 3d 4f 4f 0f 3e 28 53 9f 3e
       -0.056221064 0.05567358 0.13995098 0.3111813
000170 98 c5 f1 3c a1 6b 10 bf 83 a9 1b 3d 0a 71 f4 3c
       0.029513165 -0.5641423 0.038003456 0.029839057
000180 eb 33 1f bb be d7 a4 3d e2 7e 0c bd 06 ae 1d 3e
       -0.002429242 0.08048962 -0.034300692 0.15398416
000190 e7 44 90 be 17 f4 77 3d 4b 39 94 3d 54 0f 82 3d
       -0.28177568 0.060535517 0.0723749 0.0635058
0001a0 31 fa 1d be a7 b9 4e be 0f 26 b4 ba af 64 94 bd
       -0.15427472 -0.20188008 -0.0013744253 -0.07245766
0001b0 9f de af 3d 1d f4 85 be e4 c9 11 bf 75 bd d3 bd
       0.085873835 -0.26162806 -0.56948686 -0.103388704
0001c0 73 9c 57 bd e9 0d 41 3e 52 98 4a be fc 54 da 3d
       -0.052639436 0.18852963 -0.19784668 0.10660741
0001d0 f8 60 81 3d 18 8a b4 3d d8 95 29 be 13 a5 1e be
       0.063173234 0.08815402 -0.16561067 -0.15492658
0001e0 a8 08 25 bc d0 1f 64 3d 93 08 73 3c 4c 1c 10 bf
       -0.010072865 0.0556944 0.014833587 -0.5629318
0001f0 00 a4 0a 3d df 02 fb be c3 ba 85 3c d8 39 10 3e
       0.03384781 -0.49025628 0.016324406 0.14084566
000200 ae 84 7b bd 50 fa 74 bd 84 00 64 bd 25 ef 3c bd
       -0.06140583 -0.05980903 -0.055664554 -0.046126503
000210 0c 41 18 bb a1 97 46 bd c0 5e af 3c 3e ad 2e 3d
       -0.002323213 -0.04848445 0.021407485 0.042645685
000220 53 d4 1b bc a2 b1 19 bc b6 d7 83 bd 8d 98 f1 bd
       -0.009511071 -0.00938073 -0.06437628 -0.11796675
000230 aa 58 dd bb 44 ec 94 bd 9c 95 de bd 99 c9 7c bd
       -0.0067549543 -0.072716266 -0.108683795 -0.061715696
000240 aa 83 b3 bd cd ca f5 bd e1 57 a7 bd c9 ab 2f 3d
       -0.08765347 -0.12001572 -0.081710584 0.042888436
000250 66 6d 00 be 8c 9b c5 3b a5 fd ad bd a9 e6 bb 3c
       -0.12541732 0.0060305055 -0.084956445 0.022937136
000260 71 27 06 bd 1f 4e 1b bd 1e e2 dd bc 13 c6 9e bd
       -0.032752458 -0.0379163 -0.02708536 -0.077526234
000270 1b 30 c8 bd 48 33 2f bd 11 5c f1 bb 04 43 97 bd
       -0.097748004 -0.042773515 -0.0073657115 -0.07385829
000280 a6 74 97 bd a6 dd 6f bd 46 77 35 bd 38 ea 5d bd
       -0.07395296 -0.05856099 -0.0443032 -0.054178447
000290 40 fd 97 3b 50 62 9b bc 69 4b 91 bd da 94 95 bd
       0.004638344 -0.018967777 -0.070944615 -0.07303782
0002a0 2f c3 a0 3d 9d f1 c1 3a 7d 1a 1a 3b 90 9c 1c 3c
       0.07849728 0.0014796738 0.0023514323 0.009558812
0002b0 4e bd 71 3d 9e 0b da bd 4d 4f 8a bd e9 33 ed bd
       0.059018426 -0.10646747 -0.06753407 -0.11582167
0002c0 e3 8d d5 bd a2 2b 8e bd 3f 80 eb bc bf 56 ea bd
       -0.10427453 -0.06941916 -0.028747676 -0.11442327
0002d0 90 9a 66 bc 38 02 26 3b 44 ca e9 bd 51 e5 16 bc
       -0.0140749365 0.0025330912 -0.11415532 -0.009209947
0002e0 2d 38 7f bc eb 2b 9f bd a5 0f 4a 3d c0 0f e0 bd
       -0.015577358 -0.077720486 0.049331326 -0.10940504
0002f0 3e c9 3e 3d dd 01 2e 3c e7 a9 60 bd 68 24 0f bd
       0.04657864 0.010620561 -0.05484953 -0.03494683
000300 05 fd 35 3d c5 e6 45 3c 5c b4 a8 bd a9 74 0f bd
       0.04443075 0.0120789455 -0.08237526 -0.035023365
000310 a8 a7 c6 bc 3a d5 45 3d b3 cf 9e bd 83 00 0c bd
       -0.024249867 0.04829905 -0.07754459 -0.034180176
000320 67 27 21 3d 0a fc a2 bd 70 05 0e 3b d8 89 9e bd
       0.039344218 -0.07958229 0.0021670721 -0.07741135
000330 8d 37 9e bd f6 31 fc bd fe 18 e0 bc 2e a2 06 bd
       -0.07725439 -0.12314217 -0.027355667 -0.03286951
000340 46 c6 36 bd e5 f2 a4 bb 7c 14 9c b9 2b b8 81 bd
       -0.044622682 -0.005033838 -0.000297699 -0.063339554
000350 7e f4 12 3d 54 16 0f 3d f1 6b 35 bc d2 e7 0c bd
       0.035877697 0.034933403 -0.0110730985 -0.03440077
000360 a9 1b f4 3b 34 98 da 3c b5 27 c2 bc e5 f2 d9 bd
       0.0074495864 0.026683904 -0.023700574 -0.106420316
000370 41 f0 ee 3b f7 b3 1b bd 88 40 3e 3d 22 f7 ac 3c
       0.007291824 -0.038013425 0.04644826 0.021113936
000380 12 7a 80 3c 07 6a d4 bd a5 ae bb bd 80 00 02 be
       0.015683208 -0.103717856 -0.0916417 -0.12695503
000390 2e a4 ef bd 0d 83 13 bd f6 dc 2b 3d 69 bb 55 bc
       -0.11701237 -0.03601365 0.04195877 -0.01304517
0003a0 32 fd c5 bd 9e f3 09 3c 6d 58 ca bd bf fe 14 3d
       -0.09667434 0.008419899 -0.09880147 0.036375757
0003b0 43 0d 50 3d 00 ba da bc e0 ed cf 3b b8 70 e5 bc
       0.050793897 -0.02670002 0.0063454956 -0.02800785
0003c0 06 bc 1d bd 0a 4d 32 3d 39 3c 85 3c 7a e6 f6 3c
       -0.03850939 0.0435305 0.016264068 0.030139197
0003d0 f4 ed 1e bc 8e c4 99 bd 42 01 d3 3c 50 cd 06 be
       -0.009700287 -0.07508193 0.025757436 -0.13164258
0003e0 a6 8f 4b 3d c7 a7 9f bc 94 a0 dc bd 08 b4 cc bd
       0.04969754 -0.019489182 -0.10772815 -0.09995276
0003f0 0b 5b 42 bd 77 51 48 3d 9d 26 99 3c fe 96 73 bd
       -0.047450107 0.048905816 0.01869517 -0.05947017

_policy.2.bias f4 [128]
000000 db 2b 1f be fc f1 2b be 9b 1a 16 bd 9c 2a 5d 3d
       -0.15544073 -0.16791528 -0.036646467 0.053995714
000010 01 77 54 bd 3f f5 0b 3e 85 38 9b 3d ea 27 d7 3d
       -0.051871303 0.13667773 0.075791396 0.1050566
000020 80 97 6f bd 99 a3 f5 3d 12 42 95 bd 07 89 59 3d
       -0.05849409 0.119940944 -0.072879925 0.053109195
000030 a8 48 4b 3d 83 bf a2 3d e9 0b a7 3d 0c 94 2f 3d
       0.049629837 0.07946684 0.081565686 0.042865798
000040 7c 02 8f 3d 50 70 12 3e 97 aa 40 3e 37 e9 0e 3c
       0.06982896 0.14300656 0.18815075 0.008722595
000050 f2 05 be bd 0b 30 b7 bd bc 28 09 3d bf 95 42 3d
       -0.09278478 -0.0894471 0.033486113 0.04750609
000060 25 39 29 bd 73 7c 23 bc 35 d0 c0 3d cd 12 02 be
       -0.041314263 -0.0099784015 0.09414712 -0.12702484
000070 d2 d7 28 be c7 f5 cd 3d f6 84 e9 bd 12 97 5c bd
       -0.16488579 0.10056644 -0.114023134 -0.05385501
000080 9a 29 a6 bd 41 2c 72 bc 44 88 43 bd b8 8f 80 bc
       -0.081134036 -0.014781059 -0.047737375 -0.01569353
000090 17 85 77 bd 70 f3 4d bc 00 3c 25 bc be a4 3b be
       -0.06042966 -0.012570247 -0.010085106 -0.18324563
0000a0 14 54 c8 3d d7 d4 2e be 9b 89 65 3d 12 8e a9 bd
       0.09781662 -0.1707338 0.056039434 -0.08279051
0000b0 86 8e bf bd 0b b3 ea 3d 88 5b 57 bd 86 92 db bd
       -0.09353356 0.11459931 -0.052577525 -0.107213065
0000c0 a2 e0 ba 3c cc 0f e3 bd 06 17 9e bd 82 65 08 3e
       0.022812191 -0.110869974 -0.07719235 0.13319972
0000d0 3f 59 17 3d bf f1 b4 bd 54 36 78 3d db cb e8 3b
       0.036950346 -0.08835172 0.060598686 0.0071043796
0000e0 2a 87 6b bc 7c 34 12 be 12 b9 fb 3c ee d1 1b be
       -0.014375487 -0.14277834 0.030727897 -0.152168
0000f0 64 c6 36 3b 03 e8 a2 3d b0 bc fb bd 2f 60 31 bc
       0.0027889246 0.07954409 -0.12291849 -0.010826155
000100 ce d5 aa bd 8c 31 ab bd f8 6e 78 3d ee ad 46 3d
       -0.08341561 -0.0835906 0.060652703 0.048505716
000110 3b 99 de bd 25 22 38 be fe 13 81 bd 48 e3 5a be
       -0.1086907 -0.17981775 -0.06302641 -0.21375763
000120 9c 0c eb bd 7e fc 1b be 31 ad 43 3d 70 dd 01 bd
       -0.114770144 -0.15233037 0.04777259 -0.03170532
000130 41 cb 14 3e 73 08 1a be b8 22 0c 3c 7c 88 48 b9
       0.1453066 -0.15042286 0.0085531995 -0.0001912433
000140 1b 5d 65 bb 42 9c 16 bd 4c 31 4f 3d f4 1a 5f 3d
       -0.0034998122 -0.036770113 0.050584123 0.054469064
000150 9e ea 09 bd 02 b6 18 3e ec 7a 05 3d ae 90 c3 bd
       -0.033671014 0.1491318 0.03258793 -0.0954908
000160 87 a9 ed bd da cf f4 3d a9 63 3b be c2 4d 00 3d
       -0.116046004 0.11953707 -0.18299736 0.031324156
000170 3c 22 9b bc 28 62 70 3d 46 9d 40 be fe 20 07 be
       -0.018937223 0.05868736 -0.18809995 -0.1319618
000180 a9 9b 03 3d 85 3f 00 3d a2 e6 a6 3c c8 09 99 bd
       0.03213087 0.031310577 0.020373646 -0.07472569
000190 9f db 23 be f6 19 99 bd 79 50 1a 3c b1 b1 ec 3d
       -0.16001748 -0.07475655 0.0094186 0.115573294
0001a0 4b de 16 bd 29 24 b0 3d b8 78 1f be e4 d6 2c bc
       -0.03683309 0.08600647 -0.15573394 -0.010549281
0001b0 02 34 3d be 06 8b 0b be 83 74 90 bd b3 17 9c 3d
       -0.1847687 -0.13627252 -0.07053473 0.07621708
0001c0 7d 78 9f 3d 12 e0 2f 3e 89 cf a6 bd ba c5 2e 3d
       0.07786653 0.1717532 -0.08145053 0.042669035
0001d0 c4 76 9e bd e2 0b 62 3d 64 85 d1 bd 33 b4 8a 3d
       -0.077374965 0.055187114 -0.1023052 0.067726515
0001e0 e4 5f be bd 39 dc 0e be 61 84 ac bc 21 60 c7 bd
       -0.092956334 -0.13951196 -0.021059217 -0.09735132
0001f0 37 9a 07 be 97 20 c7 bc 62 80 83 bd b4 f7 d2 3d
       -0.13242422 -0.024307532 -0.064209715 0.10301152

_policy.4.weight f4 [128, 128]
000000 8d 51 36 bd 54 4b 46 bd 4a 98 c4 bd b1 ed 3b bd
       -0.044511367 -0.048411682 -0.09599359 -0.045880977
000010 47 49 94 3d bb 96 46 3d ff 55 7b 3e 54 24 68 3e
       0.07240539 0.04848359 0.24544524 0.22670108
000020 60 13 ef bc c5 97 2a 3e 34 30 d2 bd 57 e8 f3 bd
       -0.029184043 0.16659458 -0.102631 -0.1190955
000030 91 e3 64 be 4f b2 a8 3e cd fb 01 be e4 c7 3d 3e
       -0.22352435 0.3294854 -0.1269371 0.18533283
000040 b6 73 26 be aa a7 fa 3d 6a e0 bd be e6 e5 7f bd
       -0.16255078 0.12239011 -0.37085277 -0.062475108
000050 22 c5 24 be a3 40 55 be 51 07 e6 bd e8 23 17 3e
       -0.16090825 -0.20825438 -0.11231864 0.14759791
000060 d5 3f 2c 3d 4b 51 21 be bc d3 0c bd 17 11 56 bd
       0.042053062 -0.15753667 -0.034381613 -0.052262392
000070 3b 74 6e 3d 71 09 c3 bd c0 36 d0 3d a7 7f dc be
       0.058216315 -0.09523285 0.10166693 -0.4306614
000080 d2 48 98 be 1f 3f b7 bd 56 9a 17 3e 90 30 1c be
       -0.29743057 -0.08947586 0.14804968 -0.152529
000090 8b 85 ba bc 48 41 9f bc 0b 49 bb bd a5 0e 3b bc
       -0.022768756 -0.019440308 -0.09144791 -0.011417066
0000a0 a2 81 ba be 48 2d 57 bc 9b 53 04 3d 0c 08 32 be
       -0.36427027 -0.0131333545 0.032306295 -0.17385882
0000b0 7b fa f4 bd 9a 6f 01 3e 63 af 2b bc e2 07 85 bd
       -0.11961838 0.12640229 -0.010478827 -0.06495644
0000c0 bb b3 46 3e 2a e0 3e 3d 17 42 81 be 97 02 20 3d
       0.19404499 0.0466005 -0.25245735 0.03906497
0000d0 12 08 06 3e dc e2 a0 3d 66 33 f4 be 72 96 cf 3d
       0.13089016 0.0785577 -0.47695464 0.10136117
0000e0 99 62 1d 3e 4a d7 0b bd 9d f5 40 3e 66 29 f2 3d
       0.15369643 -0.034140863 0.18843694 0.118243024
0000f0 cc c6 f7 bd 8e d3 80 bc bc 91 94 be a1 85 86 bd
       -0.12098464 -0.015725877 -0.29017437 -0.065684564
000100 e5 14 7b 3c ce 04 ea be 99 19 44 be 76 ca 8b be
       0.015324806 -0.4570679 -0.1915039 -0.27302903
000110 c8 c0 f5 bc 23 f5 93 be d8 8b 9f 3d 96 b7 8d be
       -0.029999152 -0.28897962 0.07790345 -0.27679127
000120 ea b4 ff 3d f9 2a 9a bd c3 ce 58 be 2f 36 7c 3e
       0.124856785 -0.07527728 -0.21172623 0.24630044
000130 6c 83 c2 3e 53 17 4a 3e 44 05 17 be 96 1b b8 be
       0.37990892 0.1973546 -0.14748102 -0.35958546
000140 92 82 3d bf ca b8 07 bb 3b 5b 87 be 32 48 75 3d
       -0.7402736 -0.0020709508 -0.2643679 0.059883304
000150 3a 3e 61 3c 48 20 9c 3c a9 93 32 be aa 21 f6 be
       0.013747746 0.019058362 -0.1743914 -0.4807256
000160 61 b6 56 3d bf d8 8a bc 71 3d ab 3e 46 ac 1b be
       0.052420024 -0.016949056 0.33445314 -0.15202436
000170 72 33 a2 3e a3 71 d3 bd 5c 03 a4 be 3b 29 3b 3d
       0.31679875 -0.10324409 -0.32033813 0.045693617
000180 82 f4 85 3e 9f a6 a1 3b e7 b1 56 be d0 5c 38 bc
       0.26163107 0.004933193 -0.20966302 -0.011252597
000190 31 ae ec be 74 32 c2 3e 87 8e 3d 3e 02 8b 8b bc
       -0.46226647 0.37929118 0.18511401 -0.017034058
0001a0 58 15 45 bd 4a a1 c1 3e f4 00 23 be 6d ca a6 3d
       -0.048116058 0.37818366 -0.15918332 0.081440784
0001b0 62 51 eb 3d 2a 8c 97 3e 14 84 93 3d ba 7c 24 3d
       0.11490132 0.29599124 0.07202926 0.04015801
0001c0 63 4d 9e be 62 fa 99 be e3 f0 7c 3e 55 09 4d bd
       -0.30918416 -0.3007384 0.24701266 -0.050057728
0001d0 3b c2 88 be 89 41 a5 be a6 b8 52 3e 56 3f 6b bd
       -0.26710686 -0.32276562 0.2057825 -0.05743345
0001e0 51 d3 01 3e 0b 06 55 be 15 66 fd 3c 22 ca 11 bf
       0.12678267 -0.20803086 0.030932466 -0.56949055
0001f0 7e 9b db bc 0a da a3 3e 00 df 4e be e2 d9 26 3e
       -0.026807543 0.32002288 -0.20202255 0.16294053
000200 34 36 dd bd c2 1c 6d 3d be 57 69 be b6 f7 5d bd
       -0.10801354 0.057888754 -0.22787377 -0.054191314
000210 58 c9 c8 3d 39 d0 6a 3e fc cf 62 3d b6 d4 9f be
       0.09804028 0.22930993 0.05537413 -0.31216973
000220 5e c8 a7 3c 33 26 26 bd 2d e7 5f 3d de 64 b7 bd
       0.020481285 -0.040563773 0.054663826 -0.08954786
000230 e8 f9 a4 be 4d b5 71 3e 62 d4 16 3e 3c 37 52 be
       -0.32221913 0.23604317 0.14729455 -0.20528883
000240 18 8c 06 be d2 e9 66 3e a7 2a 33 3e 19 28 88 bd
       -0.13139379 0.22550133 0.1749674 -0.06648273
000250 9f 45 05 bf d1 4d f9 3d 79 c2 33 bd 7a 7e a5 be
       -0.5205936 0.121730454 -0.043886635 -0.32323056
000260 17 9b 82 be 38 8a 94 3e fd 89 bc 3d e6 93 04 3d
       -0.2550895 0.29011703 0.09206007 0.03236761
000270 80 46 3a bc 93 9e af 3d c1 cc 12 3e 8f bb b2 3d
       -0.011369348 0.085751675 0.1433592 0.0872718
000280 a6 2b b0 3c b0 8f c1 bd 93 c9 51 be f6 dc 08 be
       0.021505188 -0.09451234 -0.2048705 -0.1336554
000290 87 77 d2 bd 13 7e a8 be 4f 1f a9 bc 92 7d 6e bd
       -0.10276704 -0.32908687 -0.020644812 -0.058225222
0002a0 7b 85 02 be c7 c2 85 be 0d 02 a1 be 1e 03 8b 3d
       -0.12746231 -0.26125166 -0.31446877 0.06787704
0002b0 ee 2a 4d bd a5 30 0c be 8c 18 85 bf dd 32 88 3e
       -0.05008977 -0.13690431 -1.0398116 0.26601306
0002c0 10 c4 0f 3e 8d c6 68 bd ee e8 23 bc ee 02 e8 bd
       0.14039636 -0.056829978 -0.010004265 -0.11328684
0002d0 30 00 a5 be 12 e1 58 3e ab 7b 6f be 12 f3 00 3f
       -0.32226706 0.21179608 -0.2338702 0.50370896
0002e0 60 8a a3 be 7b 58 34 bd ec 04 3c be 86 fa 27 bd
       -0.3194151 -0.044029694 -0.18361253 -0.041010402
0002f0 95 d2 dd 3d 01 bb 71 be 15 8d 01 bf 8b ed 1a be
       0.10831181 -0.23606493 -0.506059 -0.15129678
000300 4f 33 b1 bd 75 1a d5 bc a6 b8 68 be 96 37 a7 3c
       -0.086523645 -0.026013592 -0.22726688 0.020412248
000310 3d 3f 35 3e ea 26 56 3c 46 ef 79 bd ee 8f e2 be
       0.17699905 0.013070801 -0.061019205 -0.44250435
000320 46 a6 4c bd 14 f9 fb 3c 40 b2 37 be 24 11 b5 be
       -0.04996326 0.030758418 -0.1793909 -0.3536464
000330 da fd 19 3e 53 5b b5 bd d9 7c 9c be d7 df 8e be
       0.15038243 -0.08855309 -0.30564 -0.2790515
000340 05 6f 0e 3e c9 64 7b 3e f2 1e 2d bf 40 43 62 3d
       0.13909538 0.24550165 -0.67625344 0.055239916
000350 b8 a3 b2 bd ce 9a cb bd 24 a8 81 3e 42 64 67 be
       -0.08722633 -0.09941636 0.25323594 -0.22596839
000360 cf b3 6f bf 21 9c 8b 3d a9 6c eb 3d 0f a8 96 bd
       -0.9363374 0.068168886 0.11495335 -0.073562734
000370 8c f3 a7 bb c2 33 01 bf 0a 54 c6 be 1a 9f b0 bd
       -0.0051254686 -0.504696 -0.38735992 -0.08624096
000380 37 d3 01 3f 44 d5 31 bf 7d db bb 3e 2a 78 8e 3b
       0.50712913 -0.6946604 0.36690894 0.0043478208
000390 f4 cd 18 bf b9 8d 2d be a1 96 90 bd d8 cb 81 3c
       -0.5968926 -0.16948594 -0.0705998 0.01584427
0003a0 da 0d c1 bb c4 84 17 bc 90 ef 2b bf aa d7 67 3d
       -0.005891544 -0.009247962 -0.6716242 0.056602158
0003b0 3d b0 0b 3d 20 a9 4c 3d 8d 6a 8b bd 28 d7 99 be
       0.03410362 0.049965978 -0.06807432 -0.30046964
0003c0 8f 87 c8 3d 79 ee ff bd 1d db 1b bd ab f1 8c bd
       0.09791481 -0.12496657 -0.03805076 -0.06882032
0003d0 37 57 64 be b0 f6 76 3d a2 d1 f4 bd 03 13 ac 3d
       -0.22298895 0.060293853 -0.11954047 0.08402064
0003e0 18 93 cb be c5 42 b1 bd 7c ac 0c be d4 15 22 be
       -0.3976066 -0.086553134 -0.13737673 -0.1582864
0003f0 dc 1f d3 bc 71 b1 07 3e 44 f4 ae bd 18 99 69 3e
       -0.025772028 0.13251282 -0.08542684 0.22812307

_policy.4.bias f4 [128]
000000 f0 ce f1 3c e0 21 c9 b9 1e 18 ee 3d 98 f4 04 be
       0.02951762 -0.00038362946 0.11625694 -0.1298393
000010 06 e5 9d bd 57 5a 40 be 3d 5d 10 be 29 dd 4a be
       -0.077096984 -0.18784462 -0.14098068 -0.19810928
000020 23 53 37 be f8 f3 bb bd 20 c7 3c 3d 04 ac 57 3e
       -0.17902808 -0.09177393 0.046088338 0.21061713
000030 2b 16 20 be cb eb d8 bd 28 e2 af 3d 6b de df 3d
       -0.15633456 -0.10591849 0.08588058 0.10931095
000040 36 5c a4 be 84 67 3f 3d 00 a3 e5 be cb 46 83 be
       -0.321016 0.04672958 -0.44850922 -0.25639948
000050 5d 51 c1 bb 9a 2a d5 3d dd d0 9c bd de ee 89 bd
       -0.005899592 0.10408516 -0.07657025 -0.067350134
000060 93 51 0b bd 0c 58 e2 bd e9 75 4a be b2 26 d3 bd
       -0.034013342 -0.1105195 -0.19771542 -0.10310115
000070 64 6e e9 3b 73 49 d8 bc 0b d5 7f be 2f 24 9e 3d
       0.0071237553 -0.02640221 -0.24983613 0.07721745
000080 88 72 17 3d 30 fd 46 3e e4 e2 ea be 0f d6 83 be
       0.03697446 0.19432521 -0.4587623 -0.2574925
000090 f3 af 45 3d cc 93 c6 be 8f d9 8a bc 22 e4 26 be
       0.0482635 -0.38784635 -0.016949443 -0.16297963
0000a0 95 d1 a3 3b 60 b8 3c 3d f2 ab 9a bd d5 37 60 be
       0.0049993494 0.04607427 -0.07552327 -0.21896298
0000b0 b1 e0 e9 3c 23 0d 3c be c2 3d 1f be c2 57 84 bd
       0.028549524 -0.18364386 -0.15550902 -0.06462051
0000c0 bc 04 da 3d 94 22 06 3e 33 d7 b7 bd 18 cb 19 bd
       0.10645434 0.13099128 -0.08976593 -0.0375472
0000d0 d1 74 bd 3d ac 57 64 be 16 36 2c 3e 57 49 55 bd
       0.092507966 -0.22299069 0.16817507 -0.052071895
0000e0 15 df 1c be 66 52 00 be e0 e9 33 be 40 32 8f 3c
       -0.15319474 -0.12531433 -0.17569685 0.017480016
0000f0 80 9d 81 bd 81 d5 19 be bc 25 52 be ee f1 3e bc
       -0.06328869 -0.15022852 -0.20522207 -0.01165436
000100 3f b7 ae 3d 84 0f 12 bd f3 32 b1 bc 50 96 4c bd
       0.08531045 -0.035659328 -0.02163074 -0.049948037
000110 38 49 11 be cc 13 ae bd 40 13 28 bd 06 a5 45 bd
       -0.14188087 -0.0849987 -0.041033983 -0.04825308
000120 6f 89 7f be 40 fe d9 bd 27 f2 88 bd 08 fe 2c be
       -0.2495477 -0.106441975 -0.06686812 -0.1689378
000130 d7 00 b5 3d 41 65 97 3d 5e ba 72 3c f1 92 dc 3d
       0.08838051 0.073923595 0.014814941 0.10770214
000140 5b e0 3d be b0 64 50 bd 40 93 86 bd 5b e9 e6 bd
       -0.18542616 -0.050877273 -0.065710545 -0.11274978
000150 41 42 84 be d6 c9 96 3e 61 48 b3 3d d0 a5 da bd
       -0.25831798 0.29450864 0.087540396 -0.106761575
000160 be 98 72 be 9e 20 c7 bd f2 7b 62 3e c6 93 1b be
       -0.23691079 -0.09723018 0.22117594 -0.1519309
000170 c5 1a 11 bd 13 c4 bc bd 2d 87 28 be e8 e6 fe bb
       -0.03542592 -0.09217086 -0.16457815 -0.007778991
000180 a7 b2 cc be 57 99 81 bd 0b 19 55 bb 53 fa 8a 3d
       -0.3998005 -0.063280754 -0.0032516147 0.06786027
000190 f7 51 c4 3d 97 7c 3a be 4a 12 41 be f5 05 01 3e
       0.09585946 -0.1821159 -0.18854633 0.12599929
0001a0 97 26 33 be 38 d2 24 3e 39 b5 fd 3d c8 2b 0b bb
       -0.1749519 0.16095817 0.12388081 -0.0021235812
0001b0 71 22 dc bd 04 2f a6 bc 45 f0 c5 bd 10 71 d0 3c
       -0.10748757 -0.02028609 -0.096649684 0.025444537
0001c0 10 e6 73 be 19 f5 61 bd cd 9b 79 bd a8 fd 93 3c
       -0.2381823 -0.055165384 -0.0609396 0.018065289
0001d0 b3 6c c4 3d e1 6c b7 be 80 d7 fc bc 89 24 a6 be
       0.09591045 -0.35825256 -0.030864477 -0.3244975
0001e0 05 35 8c bd da 0d 22 be c3 ce d3 bd cc 4f 34 3c
       -0.0684605 -0.15825596 -0.10342171 0.011005353
0001f0 65 ba 13 bd d7 46 6d be d0 3a a6 3c b4 42 93 3d
       -0.03606643 -0.23171555 0.020291716 0.07190457

_policy.6.weight f4 [128, 128]
000000 0b 90 bb be 21 52 2b 3d 26 3f 34 be 3a c0 9f bd
       -0.36633334 0.04182637 -0.17602214 -0.07800336
000010 50 2b 44 bc 36 b3 61 bf ac 65 22 3e a2 8f d3 3e
       -0.011973217 -0.8816408 0.15859097 0.4132052
000020 64 26 00 bf a8 0f b1 bd d5 51 99 3e 3e 13 2f be
       -0.5005858 -0.08645564 0.29945245 -0.17097184
000030 e9 93 c5 bd 93 31 c7 3e 13 3c 88 be 7b 93 d0 bd
       -0.09647352 0.3890501 -0.26608333 -0.1018438
000040 87 96 56 be 88 cf cf bd 49 9c 83 3e dd fc 67 be
       -0.20955859 -0.10147005 0.25705174 -0.22655053
000050 a9 46 3f 3e 99 02 71 3c 67 6e 8a bd 32 a8 05 be
       0.18679298 0.014710092 -0.06759339 -0.13052443
000060 b2 c6 52 be b7 b9 c9 bd 3b 7f 0b bf 54 e3 95 3d
       -0.20583609 -0.098498754 -0.54491013 0.0731875
000070 a7 0b 88 be ec b1 eb 3b cf 96 45 3e 89 15 b5 3e
       -0.2657139 0.007192841 0.1929581 0.35367993
000080 76 26 aa 3d a6 ac 2d 3e 99 43 b3 3e 9b 70 76 3e
       0.08308117 0.16960391 0.3501251 0.24066393
000090 11 5f b0 3d f5 b4 7a be 96 dd 84 3e 70 c2 42 be
       0.086118825 -0.24483092 0.25950307 -0.19019485
0000a0 49 3d 06 bf b5 42 9e 3b 6c 37 03 3e 82 f5 8c 3e
       -0.52437264 0.0048297294 0.1281411 0.27531058
0000b0 c5 0a 90 be 88 56 e1 be e7 3e 58 be eb a8 90 be
       -0.28133217 -0.4401133 -0.21117745 -0.28253874
0000c0 24 17 37 be 34 66 d6 3d 1b 4d 8e bd 9e cb 35 3c
       -0.17879921 0.104687124 -0.069483005 0.011095909
0000d0 c5 9d 54 3e 75 70 9e bc 2f 72 1e be 3e 2a 15 bf
       0.2076331 -0.019340733 -0.15473245 -0.5826758
0000e0 d0 1e 35 be 82 f0 d5 bd a5 db f4 bd e6 92 9b bd
       -0.17687535 -0.10446264 -0.11955956 -0.07596378
0000f0 c3 7b 37 3e b0 94 32 be 58 f0 e7 bc 0c 90 5c bc
       0.17918305 -0.17439532 -0.028312847 -0.013462078
000100 55 aa 73 bf 9f 94 80 3e 21 14 99 bd 7f 8b a1 be
       -0.9518178 0.2511339 -0.074745424 -0.3155174
000110 74 33 a6 3d 80 e9 85 3d a0 90 94 3e 18 fc 82 3d
       0.08115283 0.06538677 0.2901659 0.06395739
000120 d7 16 5e 3e 69 be d6 bd cb 38 3b be b1 af 46 3e
       0.216884 -0.104855366 -0.18283384 0.19402958
000130 ca aa d0 3e 65 84 2d be 41 5c b2 3e a0 76 a3 ba
       0.40755302 -0.16945036 0.3483601 -0.0012471266
000140 77 92 0d be 24 13 3f be 7c 6d 76 be 70 74 e4 be
       -0.13825403 -0.18659645 -0.24065202 -0.44620085
000150 e7 91 6e bd 1c d0 0f be cb a2 37 be 59 20 01 3c
       -0.058244612 -0.14044231 -0.17933194 0.007881247
000160 e7 35 3e bd 41 c9 36 be d3 31 a1 3e 70 c2 c4 bd
       -0.046438124 -0.1785021 0.31483325 -0.096073985
000170 1b 31 35 3e 8f c9 d2 bd 9d 06 0b be 5c 89 18 bf
       0.17694513 -0.102923505 -0.13576742 -0.59584594
000180 ad 4f 12 bd 68 bd a4 bd 12 4a 4d bc a1 b7 4a bf
       -0.035720516 -0.08043939 -0.012529867 -0.79186445
000190 9b d4 1c bd 56 ce d4 3c f6 bb b2 be 34 0e e6 3e
       -0.038288694 0.025977295 -0.34909028 0.4493271
0001a0 f2 7f 25 bd ec 8a 2f bd bd 29 ca 3d 0a 2a 8e 3e
       -0.04040522 -0.042857096 0.09871242 0.27766448
0001b0 a9 66 a2 be 19 7a c8 be 90 28 a7 bd 69 d5 2b be
       -0.31718948 -0.39155653 -0.081620336 -0.16780628
0001c0 b3 ae d8 3d 3f e4 c9 bd 2c 68 1e be 2a 28 8d 3e
       0.10580196 -0.098579876 -0.15469426 0.27569705
0001d0 d4 5a f8 3d ff 92 18 3e 50 f5 14 bb 14 d4 82 3d
       0.12126699 0.14899825 -0.0022729225 0.06388107
0001e0 bd 81 aa 3e c9 ff 2e bd 1a a5 46 3e 1c 04 aa be
       0.33302107 -0.042724404 0.19398919 -0.3320626
0001f0 29 bb a3 be 43 6a 2f 3e df bd 81 be fc fb cc bd
       -0.3197873 0.1713038 -0.25340173 -0.10009
000200 9f f7 51 bd 22 2b 82 3e ee 4f a9 be ce 37 c1 3d
       -0.05126154 0.25423533 -0.33068794 0.09434472
000210 12 47 e1 be d5 ae 5d bd 58 3b 12 bf d6 12 aa bc
       -0.43999535 -0.05412181 -0.571218 -0.020760935
000220 22 67 a8 bd db 13 68 bd c7 84 36 be da 85 5e bd
       -0.08222796 -0.05665956 -0.17824088 -0.05432687
000230 10 c1 9e be a8 9c aa 3d aa bb 90 be da 5d eb be
       -0.3100667 0.08330661 -0.28268176 -0.4597004
000240 48 1d a4 3d 2a 34 40 be 08 b6 37 bf 69 e2 b4 bc
       0.080133975 -0.18769899 -0.7176213 -0.022080617
000250 eb 40 51 3d 44 a3 a9 be 23 ec e9 bd 84 ad b1 3d
       0.0510873 -0.33132374 -0.11421993 0.086756736
000260 79 9f 0b bd 3a c8 a9 be 70 74 68 3c 34 85 a5 3d
       -0.03408763 -0.33160573 0.014187917 0.08082047
000270 d5 74 b2 be 14 f1 bd be 08 44 6c bc 5a dd 88 3d
       -0.3485476 -0.3709799 -0.014420517 0.066828445
000280 4a 8a 19 bf 84 2b 82 3d 02 58 7f 3e 5f ad 6b 3e
       -0.5997664 0.06355956 0.24935916 0.23015355
000290 3d 81 88 bd d5 c0 2f 3c c6 cf fd bd 00 21 cc 3d
       -0.06665275 0.010727127 -0.12393145 0.09967232
0002a0 b7 d0 42 bd 33 36 51 be 34 56 82 bf d6 fd 5b be
       -0.047562327 -0.20430832 -1.0182557 -0.2148355
0002b0 81 43 c9 3e 8b 55 9e be 6a 47 11 bf b7 e4 39 bd
       0.39309314 -0.3092464 -0.56749594 -0.045384135
0002c0 5d bf d6 be 38 00 75 3d cd 41 3c bf 1e c5 a0 be
       -0.41942874 0.05981466 -0.73537904 -0.31400388
0002d0 e1 0c 1e 3e 98 65 ea be 99 30 13 be 78 e5 8e 3e
       0.154346 -0.45780635 -0.14374007 0.27909446
0002e0 17 b1 77 bd e9 1c 28 3e e8 e6 3d be 8d 5b 8b bd
       -0.06047162 0.16417278 -0.18545115 -0.06804571
0002f0 4f c3 94 be 22 87 3d ba 73 b3 22 3e 21 41 18 bd
       -0.2905526 -0.0007229914 0.15888767 -0.037171487
000300 0d fd 43 bd 5c cc b4 3e ec 5a a9 be 53 ca ae 3d
       -0.04784875 0.35312164 -0.3307718 0.08534684
000310 64 34 27 bf 8f 8b 03 bf c8 84 87 be db 5d 81 3e
       -0.65314317 -0.51384825 -0.26468492 0.2526692
000320 12 38 14 bf 21 99 bb bc e1 46 79 3d 30 44 7a be
       -0.57898057 -0.022900166 0.06085861 -0.24440074
000330 e5 06 29 3e 7e d7 60 bf 34 c6 ba be f1 b4 22 3e
       0.16506536 -0.87828815 -0.36479342 0.15889336
000340 3f d3 da bd 68 4a 24 3e 09 ee da be 73 40 cd be
       -0.10684823 0.16044009 -0.4275973 -0.40088233
000350 2d 90 25 3e 90 0f c2 bc 5f 3f b6 3e ea 69 08 bf
       0.1616828 -0.023689061 0.35595223 -0.5328661
000360 4a f7 98 3e 6b 2c e1 be 6a f5 7a be 47 75 d1 3d
       0.29876167 -0.439792 -0.2450768 0.10227447
000370 ab ef af 3e c1 24 b7 3c a0 22 6a 3d 57 21 62 3e
       0.3436254 0.022356393 0.057161927 0.2208303
000380 99 78 9f 3d 5f a5 20 be 5d 47 a3 bd f5 87 81 3d
       0.07786674 -0.15688084 -0.07972596 0.0632476
000390 48 3f 48 bf b4 82 3b bc a7 bb a0 be 68 6f da 3d
       -0.7822156 -0.011444736 -0.31393167 0.1066578
0003a0 09 9d 30 3e 54 09 c8 be 89 3b 2f 3e b0 e8 f6 ba
       0.17247404 -0.39069617 0.17112555 -0.0018837657
0003b0 35 1d 88 bd 2a 33 44 bf d3 48 dc 3e 4b 20 83 be
       -0.06646196 -0.7664057 0.4302431 -0.25610575
0003c0 82 aa e1 bd 1b d7 f0 bd 21 05 a5 be 18 53 57 be
       -0.1101885 -0.11759778 -0.32230476 -0.21027792
0003d0 0f c9 b6 be 98 58 80 bd f6 c6 22 be 98 d0 c2 be
       -0.3570027 -0.06266898 -0.1589621 -0.3804977
0003e0 bf 30 0e be 6d b2 83 bf 2d ac b2 bd d1 90 37 3e
       -0.13885783 -1.0288826 -0.08724246 0.17926337
0003f0 a0 84 f1 be 2d a6 ab be 1f 94 45 bd b4 2b 93 bf
       -0.47171497 -0.3352522 -0.048236962 -1.1497712

_policy.6.bias f4 [128]
000000 a6 a1 07 be 2a c1 f1 be 7b a5 64 3e f6 55 4b 3e
       -0.13245258 -0.47217685 0.22328751 0.1985701
000010 4a 53 f6 3d dc 7f 18 3e 69 16 94 bb 4b 12 19 3e
       0.12027605 0.14892524 -0.004519273 0.14948384
000020 a4 26 11 3e 9c 65 c9 3c 43 2a ab 3d a2 b3 2b 3d
       0.14174896 0.024584584 0.0835767 0.041919358
000030 47 61 aa 3c f0 0a 26 be 7a d4 82 3e 00 b3 32 3e
       0.020798339 -0.1621511 0.25552732 0.17451096
000040 26 54 6b 3c af fb a7 3d 68 0c ea 3a f4 7d ab bd
       0.014363324 0.08202302 0.001785648 -0.08373633
000050 ae 15 7c 3e 25 68 43 3e cd 31 79 3e d5 74 16 3d
       0.24617645 0.19082697 0.24335404 0.036732513
000060 c7 72 39 3e c5 f1 03 3e 65 30 33 3d f0 39 2b 3e
       0.1811019 0.12885197 0.043747324 0.1672132
000070 46 59 c9 bd 46 d3 ec 3d 59 b3 b7 3d f7 31 34 be
       -0.09831481 0.11563735 0.08969755 -0.17597185
000080 56 ab 25 3e af ad c5 bd 4d 40 5a 3e 02 d0 0d 3e
       0.1617864 -0.09652268 0.21313591 0.1384888
000090 da 92 28 bd 92 e8 36 3e 69 69 9b 3d a2 e8 ea 3b
       -0.041155674 0.17862156 0.07588465 0.0071688453
0000a0 11 58 63 be 16 50 bb bd ad 25 80 3e 01 8c 14 3c
       -0.22201563 -0.091461346 0.25028744 0.009066583
0000b0 51 c9 b1 3d 0a a4 75 be 58 90 82 3e 4b 21 f4 3d
       0.08680976 -0.23988357 0.2550075 0.11920413
0000c0 87 d3 c0 3d f5 20 7e bc 79 3b c8 3d b1 c6 80 3d
       0.09415346 -0.015510787 0.097769685 0.062878974
0000d0 1b 22 9a 3d d3 d6 4b 3d 58 0b 25 3c 49 a5 ec 3d
       0.07526036 0.04976542 0.010073505 0.11554963
0000e0 08 81 b3 3d 63 09 c9 3e 74 7b a5 3d 1a b0 1e 3e
       0.08764845 0.39264974 0.080801874 0.15496865
0000f0 13 b7 20 bd 1b a6 3f 3e 24 dd cc 3d b5 17 6b 3e
       -0.039237093 0.18715708 0.10003117 0.22958262
000100 5c 2a a5 bd 4d c6 2d 3e ca 10 7d 3e 51 dd 41 3e
       -0.0806472 0.16970177 0.24713436 0.18932082
000110 f1 07 b1 3c a1 2b 7d 3e ff 2d 1f be ca 4d 88 3d
       0.021610232 0.24723674 -0.1554489 0.06655462
000120 85 9a ba 3c ad 33 e4 3d bb ec a5 bd 52 2d ce 3d
       0.022778759 0.11142669 -0.081017934 0.10067238
000130 7e f0 ac 3e 95 63 8a be 40 44 02 3e cd 8b cb 39
       0.3377723 -0.270291 0.12721348 0.00038823337
000140 70 b6 06 3e 03 65 e3 bc 35 ac 6a be 45 fb 34 be
       0.13155532 -0.027758127 -0.22917254 -0.17673977
000150 f5 cc 82 3e 42 88 cf 3c 5a 5c 98 be f3 7f 51 3d
       0.25546995 0.025333527 -0.2975796 0.051147413
000160 ac 7c 3e 3e d6 ca 11 3e c2 c6 bc bd 56 fa 7d 3e
       0.18602246 0.14237532 -0.092175975 0.24802527
000170 0c 3c 6e 3e 56 ca 36 3e 54 df 84 bd 64 39 20 bd
       0.23265094 0.17850623 -0.06487909 -0.039117232
000180 05 01 93 bd 07 63 31 3e 72 04 fc 3d 95 14 06 be
       -0.07177929 0.17322932 0.123055354 -0.13093789
000190 6a 36 95 3d d6 15 8c bd 27 f5 a5 bc f8 2f fd 3d
       0.07285769 -0.068401024 -0.0202585 0.12362665
0001a0 2c 36 8a bc 29 6a 60 3e 22 99 14 3e 2f cf dd 3d
       -0.016871534 0.21915497 0.1451154 0.10830533
0001b0 d2 c1 e7 be 7e 53 a6 3e c9 4c a4 3d 68 c1 e0 3c
       -0.4526506 0.32485574 0.08022458 0.027435973
0001c0 e8 bb 34 3c 6f 7d d0 bd 2d 69 22 3b ce ab d9 3c
       0.0110311285 -0.101801746 0.0024781928 0.02657118
0001d0 87 3c f9 3d e2 c4 42 3e 85 e6 58 be 82 9b 30 3e
       0.12169748 0.19020417 -0.21181686 0.17246822
0001e0 e5 a3 64 3e cc 3c a9 3e df fe 75 3e 4c f4 88 bc
       0.22328146 0.33054197 0.24023007 -0.016718052
0001f0 0e 2b 9c 3e ca fc 25 bd ae 2e 71 bd 2e 7e d5 bb
       0.30501598 -0.04052428 -0.058882408 -0.006515286

_policy.8.weight f4 [3, 128]
000000 62 9d ca 3b c8 ef 40 3d 0e c9 0f be 76 74 f3 be
       0.0061833123 0.047103673 -0.1404154 -0.4754979
000010 a3 d4 e9 be cd 16 8c be d9 51 3a bf 74 a0 87 be
       -0.4567004 -0.27361146 -0.7278114 -0.26489604
000020 35 5b 19 3f fb a9 67 be 9d 88 0a 3f 18 16 32 3f
       0.59904796 -0.22623436 0.54114705 0.6956496
000030 3c 65 01 be 7c 9a c8 bc e4 3b 32 bf 09 ca d1 bc
       -0.12636274 -0.024487726 -0.69622636 -0.025609033
000040 d0 91 9c 3e ea 9b 9a 3e 4f 7e df be ae 36 24 bd
       0.30579996 0.30197078 -0.43651053 -0.04009121
000050 6a f8 6e be 65 4d 19 be 59 89 f1 3d 55 f3 6d 3e
       -0.2333695 -0.1497093 0.11793775 0.23237355
000060 2d 40 71 bc 4d 9f ca be 90 7a 7d 3e 58 3c 35 be
       -0.014724773 -0.39574662 0.24753785 -0.176988
000070 9f 7c 34 bf 75 b1 bb 3e bc c5 c8 bd 99 ce 0f 3d
       -0.70502657 0.36658826 -0.0980334 0.035109136
000080 c0 4a 4b be ff fa e7 bc 03 4c 10 be f6 24 de 3e
       -0.19852734 -0.028317926 -0.14091496 0.43387574
000090 32 31 f2 be f0 5c f8 3e 72 a0 d1 bd f4 dd 75 be
       -0.47303158 0.48508406 -0.10235681 -0.2401045
0000a0 93 e2 f2 3e 8c 8c cb 3c 0f 72 43 bc 84 0f 2f 3f
       0.47438487 0.024847291 -0.011929049 0.6838305
0000b0 a5 3a a1 3e d4 bd d4 be 8a 26 49 3f c7 de 23 3e
       0.31490055 -0.41551077 0.7857443 0.16002952
0000c0 50 f3 07 be 6b db 8d bd 96 11 9f 3e 11 aa 83 be
       -0.1327641 -0.06926616 0.31068105 -0.25715688
0000d0 aa ff 94 be 33 ad 39 3e 88 dc cc bd 44 3b 4c be
       -0.29101306 0.18132477 -0.100030005 -0.19944483
0000e0 e3 7e d1 3c dd a7 af be 79 93 33 3e f0 67 9b 3e
       0.0255732 -0.34307757 0.17536725 0.30352736
0000f0 99 87 41 bd 32 2e 18 be 1e 18 00 bf 6a 43 10 bd
       -0.047248457 -0.14861372 -0.500368 -0.03522054
000100 d2 e8 a4 3e ac 3f 64 3e 9b ad 38 3f e1 26 49 be
       0.32208878 0.22289914 0.721399 -0.19643737
000110 14 67 d8 3e f6 9b 25 be 28 a4 03 3f 9b 48 19 3e
       0.42266142 -0.16172776 0.5142236 0.14969103
000120 82 b9 ac be 55 56 a6 3e 54 1c 50 3f 62 20 84 bd
       -0.3373528 0.3248774 0.81293225 -0.06451489
000130 ad 6a 25 be b5 c1 8b 3f 46 84 57 bd 2b 57 07 3f
       -0.16153975 1.091849 -0.05261638 0.5286738
000140 19 fc f2 bd ec c0 40 be a5 d5 6e bf e3 7f 10 bd
       -0.1186449 -0.18823594 -0.93294746 -0.035278212
000150 fa b9 92 be eb c0 71 3e 8d 09 88 bf 9e b6 c5 bd
       -0.28657514 0.23608749 -1.0627915 -0.09653972
000160 fc d2 c6 be 64 4e 4f 3e d8 1d a0 be 84 ce 29 be
       -0.38832843 0.20244747 -0.3127277 -0.16582686
000170 b5 21 2d be 74 4c 09 be 48 41 05 3f 40 fd 12 3f
       -0.1690739 -0.13408071 0.52052736 0.5741768
000180 95 5c a1 bb ea 0d bd bd f1 82 07 3e 42 6b 1e bf
       -0.0049243667 -0.092311695 0.13233544 -0.6188241
000190 58 d7 55 3d c3 f1 0f be 8f 29 67 be ed d2 a2 be
       0.05220732 -0.14057069 -0.22574447 -0.3180155
0001a0 b8 54 62 bd 3a b4 4a 3e 55 aa c4 be e6 27 3d 3f
       -0.055256575 0.19795313 -0.38411203 0.73889005
0001b0 2f 14 77 3e 5f d3 ad 3e 31 2b a0 be c2 e3 1c 3e
       0.24128793 0.33950326 -0.31282952 0.15321258
0001c0 a1 bc 8b be 7c c8 51 be cb e2 30 3e 39 35 5c 3e
       -0.2729235 -0.20486635 0.17274015 0.21504678
0001d0 83 4a a4 be 13 d8 f5 be f8 8e 85 3f 46 ff dd bd
       -0.32088098 -0.48016414 1.0434256 -0.10839705
0001e0 6c 56 8c 3e c5 78 83 be cb e9 5f be ee 54 06 3f
       0.27409685 -0.25678077 -0.21866529 0.5247334
0001f0 36 e4 e3 3e bb 90 ea 3d 33 3c cd 3e 49 37 e3 bd
       0.4451005 0.114533864 0.4008499 -0.11094529
000200 aa 4c 95 3e 24 a8 3e 3f cf aa 06 be 80 db e2 3e
       0.29160053 0.7447531 -0.13151096 0.4430809
000210 17 f7 f0 3e 92 69 a0 bd d7 cd f9 3e 98 67 fa 3e
       0.47063515 -0.07832636 0.48789856 0.4890716
000220 e7 3b 8e be ce 2d 01 3f 70 65 fd bd 7e ba 1e be
       -0.27780077 0.5046052 -0.12372863 -0.15500829
000230 90 13 0c be 07 f7 22 3e a3 77 48 3f 8b 65 78 be
       -0.13679338 0.15914546 0.7830755 -0.24257486
000240 87 37 b1 be c3 3f 45 be 9e 2c 9c 3e af 8a c7 3e
       -0.34612677 -0.19262604 0.3050279 0.38972995
000250 80 d8 ca 3e 87 25 88 3e 46 e5 d6 be 70 5f 17 be
       0.396183 0.2659113 -0.41971797 -0.147825
000260 70 02 6f be 73 82 ad 3e b7 72 93 be 3d d4 88 be
       -0.23340774 0.33888587 -0.28798458 -0.26724425
000270 56 06 c2 3e af 95 99 be 54 e9 8b 3e b9 9e 29 3d
       0.3789546 -0.29997012 0.27326453 0.041411135
000280 77 40 9d 3e b0 5b 8b be 10 af 19 bf 1f 1e bd bd
       0.30713245 -0.2721839 -0.6003275 -0.09234261
000290 15 a1 34 bc 86 29 00 bf 14 c6 b8 3e 87 6b 80 bd
       -0.011024733 -0.5006336 0.36088622 -0.06270509
0002a0 6d d0 c6 bc 3f 4d 94 3e 2f 6a dc 3e 3a ab 72 bf
       -0.024269307 0.28965184 0.43049762 -0.9479252
0002b0 d8 79 aa be 28 3e 0a 3f da 30 1c bf 43 25 24 be
       -0.33296084 0.5400109 -0.6101204 -0.16029839
0002c0 f5 f0 3c be 85 ea b3 3e 1b f2 14 bd 21 43 83 3e
       -0.18451293 0.35139862 -0.036363702 0.25637153
0002d0 f3 fd 9a 3e 43 fd 49 bd a7 84 c6 3e 6c 1f f4 bd
       0.30271873 -0.049313795 0.3877308 -0.11920056
0002e0 5c f2 6e 3e 16 b9 ac 3e 7d 9b 0b 3e 6a 24 f5 bc
       0.2333464 0.3373496 0.13633533 -0.02992459
0002f0 57 d5 18 3f 78 20 b1 bd 8d 30 20 3f 72 e8 4b 3e
       0.5970053 -0.08648771 0.6257408 0.1991289
000300 6e 2b 10 bf 4d 98 89 bd 11 af 20 be 23 f4 af 3e
       -0.5631627 -0.06718502 -0.15691783 0.3436595
000310 3a 9f e7 bc f1 a9 ee be fa 08 ba 3d b2 ef e6 3e
       -0.028274167 -0.4661403 0.090837434 0.45104748
000320 1c d3 1b 3d 8e 78 c8 be 71 32 a5 bd 47 a4 49 be
       0.038043126 -0.39154476 -0.080662616 -0.19691573
000330 a1 ad 86 3e 0b 3a 82 bf 3b 79 a1 be 32 e1 18 bf
       0.26304343 -1.0173963 -0.31537804 -0.5971862
000340 f8 91 5e be 20 0b ce bd dc 13 2f 3f 4e 6d 87 3e
       -0.2173537 -0.10060716 0.6838968 0.2645058
000350 33 fd 97 3e 5c a1 05 3e 20 75 ab 3e 74 10 af bd
       0.29685363 0.13049835 0.33487797 -0.0854806
000360 27 3a f2 3e 5b ba 76 be d1 26 33 3e 01 40 a9 be
       0.47309992 -0.24094526 0.17495276 -0.33056644
000370 70 ec 8f be 6e 6a a0 be 12 a4 07 bf 72 b6 4d be
       -0.28110075 -0.313312 -0.52984726 -0.20089129
000380 9e 1b 10 bf e5 2d a9 3e 9c 3b 74 bd 2c 49 65 3e
       -0.5629214 0.33042827 -0.05962716 0.22391194
000390 20 18 2e bf 4a 7a 45 be 87 6e c4 3d 28 ea 83 3b
       -0.6800556 -0.19284931 0.09591394 0.0040257163
0003a0 de 3d 26 be 9c 0c e8 bc be e5 2a be 70 97 3c bf
       -0.16234538 -0.028326325 -0.16689202 -0.73668575
0003b0 26 cb 12 3f 9d 2d a1 be 91 27 f5 3d f7 c5 6b be
       0.5734123 -0.31480113 0.11970437 -0.23024736
0003c0 2e f9 85 3e db 1b 24 3f 97 b2 31 3e 65 09 08 3e
       0.26166672 0.64105004 0.17353283 0.13284834
0003d0 2f 85 ba bd 9c d1 ac 3d 27 67 b4 bf ab 7c b8 be
       -0.09107434 0.08438417 -1.409398 -0.36032614
0003e0 5b 7d 8a be 2c 7d 28 3e 37 01 e2 3e f7 c1 ec be
       -0.27048764 0.16454 0.44141552 -0.46241733
0003f0 f1 bc a7 be 24 92 af 3d c3 61 22 3e d8 a0 82 be
       -0.32761338 0.08572796 0.15857606 -0.2551334

_policy.8.bias f4 [3]
000000 d2 4d a6 3d 00 91 ad bd 52 74 56 bc
       0.08120312 -0.08474922 -0.013089256
