logs/weight_colliion_obj_obs = 0.4/model/model_550.pth (torch, 427625 bytes, 19 tensors)

_policy.0.weight f4 [128, 22]
00000000: 39dd c1be d599 70bd a505 f93d 2d1c a83e
00000010: f052 e2be 45aa 4ebe edff ee3d a163 abbb
00000020: 02ea 0d3f 618a b13e d256 11bd cbff 313e
00000030: bb5c 313e 94a4 9a3e 2350 f53a 5bb8 e8bd
00000040: d70d 00be 9f8f c93d 0d48 843d 59f9 033e
00000050: bde6 abbd 7ab2 a4be a85b c4be 3b2f 57be
00000060: ee53 373e 4fc5 663f ce92 a83d 5d94 3cbd
00000070: c86b 543e 6c63 aabd c615 46bf 457a 023e
00000080: 36db 9f3e dc5f a33e 7d2d bf3e 6211 403e
00000090: 4a88 233e 9404 88bd fe3a fe3a f90c 7dbe
000000a0: 7f98 9dbe 2daa 593d 7100 743d 7523 44bd
000000b0: 5462 03bf b1c6 2abd bd0d 9a3e 7d48 bfbb
000000c0: 1a8a 58be c670 153d 069a 783b 90c0 fb3d
000000d0: b1ee a23f fbda bdbe db05 8f3e 5ec3 d03d
000000e0: 91ea 9f3e 5de1 ad3e fa41 a63d 8659 183e
000000f0: 50a5 1abe 5256 ed3d c754 15bd dfea 62bd
00000100: be96 10be 6158 f8bd c82f 29be b795 13bf
00000110: 7d3f 4cbe e1a4 013f ec53 3fbe 6f9f debe
00000120: 17ff 293e c154 8e3e 5716 203c bbbe e93e
00000130: d130 d5bd 4fd2 3d3d fb13 7ebe 2a5e d63e
00000140: 1145 90be a5b1 e2bd 9eea 56be 0c33 2c3d
00000150: ed7a 6cbe a7b4 853e e4d6 233e e0d8 e73d
00000160: aa01 803f 641c 0cbf 4cd4 d9bd a31f 853e
00000170: a9fe 403f f926 16bf 0d52 89be d2af 19bf
00000180: f72e 19bf bd17 c03e d030 fb3d e382 0bbe
00000190: d478 56be d657 b83c c5bf 4abb 2933 333e
000001a0: 6a94 8d3d d909 d73c d7b7 b83d 527f f9bd
000001b0: 5263 c8bd f712 17bd c9bc 16bf 2d31 573f
000001c0: 25ba b53e 70d8 1bbf 68d8 83be 9028 e53e
000001d0: fe3f 5d3e 366c 1d3e 8844 443d 4b5c 7ebf
000001e0: 5ba1 acbe a27a 1bbe 57d4 a5be ca73 273d
000001f0: b7d9 a1bb 5cbb dabb de21 463e 3c3c 713d
00000200: 48e4 92bc c524 e1bd fd04 4bbd ab20 cc3d
00000210: 6ef8 cdbd 778e 2b3e efac b1bd 0358 d33e
00000220: 3c55 be3e cd92 e9bd 6193 39bf 6bd7 e33d
00000230: 77ec 063f 0353 1abf 08cd 773c 7e6c 3abe
00000240: e899 2ebf 5d2b 0b3e ecc7 48bd e281 4f32
00000250: af6c aebd 40ee efbd 7db9 ac3e 3e61 4abe
00000260: 285e 4f3e dff2 abbd 7109 d6be 5541 a1be
00000270: 04b4 49bd d517 563f a03d 8f3e e571 7a3e
00000280: c7d1 d2bd 9341 efbe d74d 58bf 531e 223f
00000290: dd58 6abc 8709 56be 5d13 d1bd 1e69 85bc
000002a0: 9757 1bbe 59ed 9e3d 52fe 38bd 9e41 66be
000002b0: ccda 843d 7fbd 6a3c 2a43 55bd 9b07 303e
000002c0: 1b72 d03d 3516 88be 7a44 7bbd 93d0 483e
000002d0: bbd5 063f 10a5 063e 476b 4dbe 7a7f 8a3d
000002e0: 7641 cf3f 022b 683f 9c34 91bd 81ac 523c
000002f0: 447a ea3d fcae ef3d 3273 483e 24e4 60be
00000300: eb91 3b3e 17ec a5bd 940c 76bd 3d33 0f3d
00000310: e027 f6bd 9f9d b23d ab89 bd3e c6be 1a3f
00000320: 3cd0 00bf 337c 4cbf 29e5 84be 957f 023f
00000330: c1e5 96be f6c6 19bf 24c6 27bf 6921 623e
00000340: 6f3f 20be a189 993e 25a6 a63e 5a9c fabd
00000350: 6c9c 453c 62c7 a53d 717f 003e b9ac 60be
00000360: ccd2 28bc 2205 803d 2069 e4bd cc03 49be
00000370: 09be 0abf c64d 52be 8d6d 2e3e 50f8 913b
00000380: ac95 19bf dcfb 86be 3068 9f3d 45e6 403e
00000390: b800 a73f 071d ac3e 74f2 913d 49d4 50be
000003a0: f795 acbb 2fde 093e 765b 54bd 2d8e d03d
000003b0: 8b99 223e 06cd d8bc dac2 01be 7bb9 643c
000003c0: 3b9c d0bd 7c03 1cbd bcd9 d4bd 2d24 343e
000003d0: 825e 4dbf 8501 ccbd 4766 22be c9b4 e8ba
000003e0: e220 30bc 522f dbbe 065c b1be c8ce 86be
000003f0: 51ff 97bc 27ba 9abd 4226 c1be 5f76 c5be
-0.37864092 -0.058740456 0.1215928 0.32833996 -0.442039 -0.2018214 0.11669908 -0.0052303826
0.5543519 0.34675887 -0.03548319 0.17382734 0.1732053 0.30203688 0.0018715899 -0.11363288
-0.1250528 0.09841847 0.06459055 0.12888087 -0.08393619 -0.32167417 -0.38351178 -0.2101411
0.1790311 0.9014482 0.08231126 -0.046039928 0.2074424 -0.083197445 -0.77376974 0.12741955
0.31221932 0.31909072 0.37339392 0.18756631 0.15969959 -0.06641498 0.0019396243 -0.2471198
-0.30780408 0.053140808 0.059570733 -0.047885377 -0.5132191 -0.041693393 0.30088606 -0.0058374987
-0.21146432 0.036484502 0.0037933602 0.12292588 1.2729093 -0.3708113 0.27934155 0.10193513
0.31233647 0.33961 0.08118053 0.148779 -0.15102124 0.1158873 -0.036457803 -0.05539977
-0.14120004 -0.12126232 -0.16522133 -0.5765032 -0.19946094 0.5064221 -0.18684357 -0.43481013
0.16601215 0.27799037 0.009770951 0.45653328 -0.104097016 0.046343144 -0.2481231 0.41868716
-0.28177693 -0.11069039 -0.20987937 0.04204087 -0.23093767 0.2611439 0.15999943 0.113206625
1.0000508 -0.5473082 -0.106361955 0.260007 0.7538858 -0.5865322 -0.26820412 -0.60033906
-0.5983729 0.3751811 0.122651696 -0.13624148 -0.2094453 0.022502821 -0.0030937057 0.17499985
0.06913073 0.026249813 0.0901944 -0.121824875 -0.09784569 -0.03688332 -0.58881813 0.8405941
0.3549358 -0.6087713 -0.25751042 0.4475751 0.21606442 0.1537331 0.04791692 -0.9935958
-0.33716854 -0.151835 -0.32388565 0.04088191 -0.0049392837 -0.006675167 0.19348857 0.058895335
-0.017931119 -0.10993341 -0.049565304 0.099671684 -0.1005715 0.16753565 -0.086755626 0.41278085
0.37174404 -0.11404953 -0.7249051 0.11125072 0.52704567 -0.60282916 0.015124567 -0.18205449
-0.6820359 0.1359076 -0.049018785 1.2078518e-08 -0.085168235 -0.117153645 0.33735266 -0.19763657
0.20250762 -0.08395933 -0.41804078 -0.31495157 -0.049243942 0.83630115 0.27976704 0.2445751
-0.10293918 -0.46729717 -0.84493774 0.6332752 -0.014303413 -0.20902072 -0.102087714 -0.016285475
-0.15170132 0.07760114 -0.045164414 -0.22485968 0.06487045 0.014327406 -0.052066006 0.17190401
0.10178014 -0.26579443 -0.0613446 0.19610815 0.52669877 0.13148904 -0.20060454 0.067625955
1.6191852 0.90690625 -0.070901126 0.012858511 0.114491016 0.117032975 0.19575194 -0.21962029
0.18317382 -0.08101671 -0.06007059 0.034960974 -0.12019324 0.0872147 0.37019095 0.6044735
-0.5031774 -0.7987701 -0.25956085 0.50975925 -0.29472163 -0.60069215 -0.65536714 0.22083057
-0.15649198 0.29987815 0.32548633 -0.12236853 0.01206122 0.0809467 0.12548615 -0.21940888
-0.010304164 0.06250979 -0.111528635 -0.19630355 -0.5419622 -0.2053748 0.17033978 0.00445465
-0.59994006 -0.26364028 0.07783544 0.18837841 1.3047094 0.33615896 0.071263224 -0.2039348
-0.0052669006 0.13463663 -0.051845036 0.10183368 0.15878884 -0.02646495 -0.12671986 0.013960238
-0.101860486 -0.03808926 -0.10393092 0.17591925 -0.8022233 -0.09961227 -0.15859328 -0.0017754073
-0.010750027 -0.4280954 -0.3464052 -0.26329637 -0.018554362 -0.07555037 -0.377245 -0.38566872

_policy.0.bias f4 [128]
00000000: 955a b3bc dd0e a43c ba1c 25be 275b 1dbe
00000010: 3361 9abc c55a dbbd b5ed 2b3d e8b4 ca3c
00000020: b0fd 3fbd 488f 3f3e 3077 0d3e 5336 2d3e
00000030: 1920 36be 79ae 84be ce63 de3a f002 f4bd
00000040: 6e0f e4bc 85ad 123d 7a8a 74be d1d8 803d
00000050: 87e9 fc3d 0481 5ebd a3fd 3dbe eae6 5c3e
00000060: 9b35 81bd a984 d7bb 18b3 2fbd 38c9 97bd
00000070: f67d c63d b36a 60be c3be 74be 19ba f7bd
00000080: 7846 153e f6f2 9abd 8abe ab3d f7e2 793d
00000090: b051 543e 2d33 5cbe 7e89 e2bd 014d 80bc
000000a0: 1710 15bb a985 9b3d 2a03 2bbe e353 07be
000000b0: db45 2c3d 925a 16be 6bda f83d ed7f 0f3e
000000c0: f753 73bd e623 50be f1ac a5be f5e0 01be
000000d0: c7fd 88be 6429 0f3e 5e98 65be 458e d6bd
000000e0: 8c21 16bd a015 093e be1b 733e 7e7d 7cbd
000000f0: 41c5 6bbd 052a 06bd cde6 54be f4e5 10be
00000100: 663a b4bd fefc a6bd 1db9 a73d 8765 cfbd
00000110: 9e35 cfbd baa0 36be aedb 25be 7b43 8ebb
00000120: dde5 51be 0272 4e3e db15 aabd 7448 9f3d
00000130: 911b 1fbd 1d6a 08be 5c61 02be fd21 eebd
00000140: b1cc 803d d3cd 313c 2a0d 583d 9bd9 2dbe
00000150: 3c3a cbbd 4d03 cf3b 633a 25be 8254 ccbc
00000160: 76c8 35bd 977b 52be b27b bd3d 3fcd 58be
00000170: 45d9 ce3d 709f 5bbe b275 2fbe 66dc 8e3c
00000180: 29c1 88be 872b b5bd 9f7e dbbd 2cfe 1ebe
00000190: 2075 5ebe b349 39be 62b7 0fbe 6624 1fbd
000001a0: 61f2 3fba 87c2 693c f6f0 53be b659 70be
000001b0: c971 8bbc 6340 003e 0ae9 053e e8f4 f6bd
000001c0: 5fc3 22be 5b61 cebd dc90 8bbe 556a 1c3e
000001d0: 8c6d 493d 0b18 593d 2825 8dbd 6b3d 583e
000001e0: 90f6 a63d 92f3 34bd dfc5 973d 40b6 13be
000001f0: 4622 4e3c bbee 3cbe d351 38be e704 87be
-0.021893779 0.020026619 -0.1612424 -0.15366803 -0.018845176 -0.10710672 0.041974742 0.024744466
-0.046872795 0.18707001 0.13814998 0.16915254 -0.17785682 -0.25914362 0.0016967 -0.11914623
-0.027839389 0.035810012 -0.2388095 0.062913544 0.12349229 -0.054322258 -0.18553786 0.21572462
-0.063090526 -0.0065770936 -0.042895406 -0.07411426 0.09691994 -0.21915703 -0.23900895 -0.12096042
0.14577663 -0.07565872 0.08385952 0.061007466 0.20734286 -0.21503897 -0.11061381 -0.015661718
-0.0022745186 0.07593853 -0.16700426 -0.13215594 0.042058807 -0.14682987 0.12151035 0.14013644
-0.059406247 -0.20326194 -0.32358506 -0.1268347 -0.26756117 0.13980633 -0.22421405 -0.104763545
-0.036653087 0.13387156 0.23741052 -0.061643116 -0.057561163 -0.032754917 -0.20791169 -0.1415022
-0.08800201 -0.08153723 0.081896044 -0.10126787 -0.101176485 -0.1783475 -0.16197082 -0.0043415404
-0.20497842 0.20160678 -0.0830495 0.07777491 -0.03884465 -0.13321729 -0.12732452 -0.116275765
0.06289042 0.010852295 0.05274693 -0.16977541 -0.09923217 0.006317532 -0.16135554 -0.02494264
-0.044380628 -0.20554958 0.09252109 -0.21172045 0.101000346 -0.2144754 -0.17134741 0.017439079
-0.2670987 -0.08846193 -0.107175104 -0.15526646 -0.21724367 -0.1809452 -0.14034799 -0.03885307
-0.0007322189 0.01426757 -0.20697388 -0.23471722 -0.01702203 0.12524562 0.13077179 -0.12058431
-0.1589484 -0.10077163 -0.27258956 0.15274937 0.049176738 0.053001445 -0.068918526 0.21117179
0.08152497 -0.0441776 0.07410788 -0.14424992 0.012581414 -0.18450443 -0.17999963 -0.26370928

_policy.2.weight f4 [128, 128]
00000000: 47e3 053d 035c 913c 1d96 18bd 9d52 afbd
00000010: b378 8c3e c4b0 1ebf d152 f83c 345c c1bd
00000020: 13ff cc3d 6181 2bbf 56fa 033e 0ef2 98be
00000030: fed6 c5bc 0531 59be 1f50 fabe 277f e63c
00000040: 2ae4 07be ab95 b3bd 2a4d 65be 6069 9a3e
00000050: 7c83 bb3d 546a bdbd 8f1e 573e f1c7 fcbe
00000060: 6b04 d2be 3a2d ff3c c86b 75be 6cb3 773e
00000070: 5aba 5c3d 7995 803d 9ed5 0b3d a2e1 d1be
00000080: f941 463d 2f6e 5cbd aeec 1a3e 7ab6 04be
00000090: a334 8d3d 5189 9abe 01d8 e83d a562 893e
000000a0: 5e8f c5be 8e03 7ebe e36c dc3d 32c1 e5bd
000000b0: 9aa2 883c a8dd 08be 044d 793d 8346 b5bd
000000c0: e69b 2bbe 5bc5 5bbe bd44 96bc e803 723a
000000d0: d678 1b3e e0bf c73e e7b4 a9bd 3859 39be
000000e0: 89e6 573e 2799 813c 9000 01be 8183 303e
000000f0: 89a5 0f3e a05f ea3c 004d 98bd 75c3 c93e
00000100: 3d37 7c3c dd7c 843d 4b09 813c be66 5fbd
00000110: 828c 463d 1479 0cbe 2db6 debb 9965 04be
00000120: c409 803c a4fb f5bd 0b19 74be 6c4a 4bbe
00000130: 47c5 ccbd c389 3bbd 8b47 55be badd 023e
00000140: dbf1 b83d d4af 0e3c b66d bd3d e243 b3be
00000150: 951d cdbe 3899 37bd 3f14 cfbc bfc2 863d
00000160: 85b4 20bd ef55 e53c ebc9 3fba c7b8 b83d
00000170: 69c3 c03d f173 55be 2a42 0c3e 45c9 5b3d
00000180: b7ab c43c 4ea2 463e abc6 73bd b1a8 e03c
00000190: 1f1a 46be 2628 193c 4b39 943d fec3 043e
000001a0: b11a 31be 064f 863c 9588 d43d 96cf 923d
000001b0: f68a febd 9428 b2be e340 e0be 75bd d3bd
000001c0: 2176 46be 31cd cf3c e47a 013d 2edd b53d
000001d0: 677f adbd 2b52 7cbd 78dc 8dbe 9ee8 e83d
000001e0: a808 25bc 6e67 f43d 68ab c8ba 89e4 eabe
000001f0: 0918 e9bd 3be3 98be 2d7b 6e3d 229f 4c3e
00000200: ae84 7bbd 50fa 74bd 8400 64bd 1fb6 e8bc
00000210: e03e 703c a197 46bd c05e af3c 3ead 2e3d
00000220: 5c60 063c a2b1 19bc b6d7 83bd 8d98 f1bd
00000230: aa58 ddbb b3d0 66bd 9c95 debd e488 4fbd
00000240: aa83 b3bd ff61 f2bd e157 a7bd c9ab 2f3d
00000250: 666d 00be 8c9b c53b a5fd adbd 7f0a 263d
00000260: 7127 06bd 1f4e 1bbd 1ee2 ddbc 13c6 9ebd
00000270: 1b30 c8bd 4833 2fbd 115c f1bb d6a6 8bbd
00000280: a674 97bd a6dd 6fbd 4677 35bd 38ea 5dbd
00000290: 40fd 973b 5062 9bbc 694b 91bd da94 95bd
000002a0: 2fc3 a03d a4f0 513c 7d1a 1a3b 909c 1c3c
000002b0: 4ebd 713d 3042 c6bd 2a8a 59bd e933 edbd
000002c0: e38d d5bd a22b 8ebd 3f80 ebbc bf56 eabd
000002d0: 909a 66bc 98cf a63c 44ca e9bd ee39 95bb
000002e0: 2d38 7fbc eb2b 9fbd a50f 4a3d 5c2f c1bd
000002f0: 3ec9 3e3d 7088 e93c e7a9 60bd 6824 0fbd
00000300: 05fd 353d 4194 f63c 3bb0 93bd a974 0fbd
00000310: a8a7 c6bc 3ad5 453d 768e 7dbd 8300 0cbd
00000320: 6727 213d 0afc a2bd 7005 0e3b d889 9ebd
00000330: 8d37 9ebd f631 fcbd fe18 e0bc 2ea2 06bd
00000340: 46c6 36bd e5f2 a4bb 7c14 9cb9 2bb8 81bd
00000350: 7ef4 123d 5416 0f3d f16b 35bc d2e7 0cbd
00000360: a91b f43b 3498 da3c b527 c2bc e5f2 d9bd
00000370: 41f0 ee3b 495f acbc 7e62 813d 60ab 203d
00000380: 127a 803c e6ac b3bd a5ae bbbd 1632 ffbd
00000390: 2ea4 efbd 0d83 13bd f6dc 2b3d eb33 8d3b
000003a0: 32fd c5bd 9ef3 093c 6d58 cabd bffe 143d
000003b0: c533 7d3d 00ba dabc e0ed cf3b b870 e5bc
000003c0: f4d7 c8bc 0a4d 323d 393c 853c 7ae6 f63c
000003d0: f4ed 1ebc 8ec4 99bd 4201 d33c 50cd 06be
000003e0: a68f 4b3d 294f 29bb 94a0 dcbd 08b4 ccbd
000003f0: 0b5b 42bd 7751 483d fc17 053d fe96 73bd
0.03268745 0.01774407 -0.037252534 -0.08560679 0.27435836 -0.6198847 0.030312927 -0.094414145
0.10009589 -0.6699429 0.12888464 -0.29872173 -0.024150368 -0.21210106 -0.48889253 0.028136803
-0.13270631 -0.08768781 -0.22392717 0.3015852 0.09155938 -0.09248796 0.21007751 -0.49371293
-0.41018996 0.031149495 -0.23966897 0.24189538 0.053888656 0.0627851 0.034139268 -0.40992457
0.04840276 -0.053816017 0.15129349 -0.12960234 0.06894805 -0.3018289 0.113693245 0.26833072
-0.38585943 -0.24806044 0.10762956 -0.1121849 0.016679097 -0.13365805 0.060864463 -0.0885134
-0.1675869 -0.21462004 -0.018343324 0.00092321495 0.15182814 0.39013577 -0.082864575 -0.1810044
0.21084036 0.015820099 -0.12597871 0.17237665 0.1402799 0.02861005 -0.074365616 0.39406934
0.015394029 0.06469128 0.015751502 -0.054541342 0.048473842 -0.13718063 -0.0067966194 -0.12929381
0.015629657 -0.12010887 -0.23837678 -0.19852608 -0.09998565 -0.045785677 -0.20828073 0.12779894
0.09030505 0.008708913 0.09249441 -0.35012728 -0.40061632 -0.044823855 -0.025278209 0.065801136
-0.039234657 0.027995078 -0.000731616 0.090196185 0.094122715 -0.2084501 0.13697115 0.053658742
0.024007661 0.19397852 -0.059515636 0.027424188 -0.19345902 0.009347951 0.0723749 0.1296539
-0.17295338 0.016395103 0.103776135 0.071685 -0.124288484 -0.34796584 -0.43799505 -0.103388704
-0.19381 0.025366398 0.03161134 0.08880077 -0.08471566 -0.0616018 -0.27707267 0.11372493
-0.010072865 0.1193379 -0.0015309872 -0.45877483 -0.113815375 -0.29860863 0.05822294 0.1998258
-0.06140583 -0.05980903 -0.055664554 -0.028407155 0.014663428 -0.04848445 0.021407485 0.042645685
0.008201685 -0.00938073 -0.06437628 -0.11796675 -0.0067549543 -0.056351375 -0.108683795 -0.05066766
-0.08765347 -0.118350975 -0.081710584 0.042888436 -0.12541732 0.0060305055 -0.084956445 0.040537354
-0.032752458 -0.0379163 -0.02708536 -0.077526234 -0.097748004 -0.042773515 -0.0073657115 -0.06818931
-0.07395296 -0.05856099 -0.0443032 -0.054178447 0.004638344 -0.018967777 -0.070944615 -0.07303782
0.07849728 0.012813721 0.0023514323 0.009558812 0.059018426 -0.09680593 -0.05311028 -0.11582167
-0.10427453 -0.06941916 -0.028747676 -0.11442327 -0.0140749365 0.02036266 -0.11415532 -0.004554025
-0.015577358 -0.077720486 0.049331326 -0.09432861 0.04657864 0.028507441 -0.05484953 -0.03494683
0.04443075 0.03009999 -0.07211348 -0.035023365 -0.024249867 0.04829905 -0.06190344 -0.034180176
0.039344218 -0.07958229 0.0021670721 -0.07741135 -0.07725439 -0.12314217 -0.027355667 -0.03286951
-0.044622682 -0.005033838 -0.000297699 -0.063339554 0.035877697 0.034933403 -0.0110730985 -0.03440077
0.0074495864 0.026683904 -0.023700574 -0.106420316 0.007291824 -0.02104153 0.06317614 0.039225936
0.015683208 -0.08773212 -0.0916417 -0.12460725 -0.11701237 -0.03601365 0.04195877 0.0043091676
-0.09667434 0.008419899 -0.09880147 0.036375757 0.06181695 -0.02670002 0.0063454956 -0.02800785
-0.024517037 0.0435305 0.016264068 0.030139197 -0.009700287 -0.07508193 0.025757436 -0.13164258
0.04969754 -0.0025834537 -0.10772815 -0.09995276 -0.047450107 0.048905816 0.032493576 -0.05947017

_policy.2.bias f4 [128]
00000000: 2e56 02be 78fc 1abe 7b7d 0ebe 7832 723d
00000010: 234d e1bb 3bc8 8f3d 8f17 14bc c2d4 963c
00000020: 569e 10bd 36cc 5f3d 80b5 88bd 7b9b a53d
00000030: 3e95 6c3d 4a50 623d 216b 4f3d fdfb ad3d
00000040: 42b4 483d c92a 003e 6e02 093e 480b a33d
00000050: 7bea 4cbd 80a7 19bd b9a6 263d 54b1 87bc
00000060: 3f80 77bd aacd b5bc 67df a53d 992e 19be
00000070: 430b 13be f2a6 8d3d 05ad afbd 7041 9fbd
00000080: b92a 86bd 0f74 77bb bc29 c2bd 8d8a 1dbe
00000090: 5604 0abd 88dd e2bb b76d 9c3c 6c97 f8bd
000000a0: dc89 013e 91aa e0bd 1cdc 6e3d fb43 91bd
000000b0: e481 15bc e432 4f3b 2d3f ccba 98ff 39bd
000000c0: c828 ab3c cc0f e3bd 86a3 abbd 822b dbbb
000000d0: b993 c23d 08a3 88bd d417 1f3d 3322 163c
000000e0: eefa 5dbc 7c34 12be d3d3 d0bb 6217 fbbd
000000f0: 560f 04bd 09e1 8f3d b604 d3bd 2b6e 31bc
00000100: d980 7ebd 9618 c9bc 2696 f43c de4b b0bc
00000110: 0f6c d0bd 672e acbd 8816 0fbd 3d30 f6bc
00000120: 845f 04be 2959 05be 5f38 e23d a63c 20be
00000130: 3339 d33d b3ff e2bd ee04 9f3d 001c e6bc
00000140: 2b33 7bbb bf9b d3bc e37e c93c 6e03 633d
00000150: c4db d4bc d8b1 093e cc8e 24bd b207 b6bd
00000160: 9e6d 25bd 828b ec3a e65c d8bd 8e0d 583d
00000170: c5f6 70bd 5660 a53d 635f 29be c966 02be
00000180: 1bc4 b73a 2e76 b03c f082 bcbd 78e2 67bd
00000190: fbdc ecbd b180 ddbd c0f0 82bb 3e62 933d
000001a0: 4bde 16bd 9f15 a13d 0a71 14be e920 fabc
000001b0: 47c9 0ebe 6800 7abd 5d3a 6abd 212b 7f3d
000001c0: 0938 843d 2dfa 2e3d 88ef d4bd 3ea5 c13d
000001d0: 44b4 a7bd 83e3 fdbc ce02 0fbe eb47 3c3d
000001e0: 7370 a4bd 0a65 a5bd 35c2 90bd 3f10 9ebd
000001f0: 379a 07be 4888 bd3c 6682 b3bd 3e62 0c3d
-0.12728187 -0.15135372 -0.13915055 0.059130162 -0.0068756505 0.07020613 -0.00903882 0.018411998
-0.03530725 0.05463811 -0.066752434 0.08086296 0.057759516 0.05525235 0.050639275 0.084953286
0.049000032 0.12516321 0.13379833 0.07961136 -0.050028306 -0.037513256 0.040686343 -0.016564049
-0.06042504 -0.022192795 0.08099251 -0.14959182 -0.14359765 0.06916608 -0.08577923 -0.07776153
-0.065511174 -0.0037758385 -0.094806165 -0.15384884 -0.03369554 -0.0069233812 0.019095285 -0.121382564
0.12650245 -0.10970033 0.05831538 -0.07093044 -0.009125207 0.0031616027 -0.0015582793 -0.04540977
0.02089347 -0.110869974 -0.08380799 -0.006688536 0.09500832 -0.06671721 0.038841084 0.009163427
-0.013548596 -0.14277834 -0.0063729077 -0.12260319 -0.032241188 0.07025344 -0.10303633 -0.010829489
-0.062134597 -0.024547856 0.029856753 -0.021520551 -0.101768605 -0.08407288 -0.034933597 -0.030052299
-0.12927061 -0.13022293 0.11045908 -0.15648136 0.10313644 -0.11083927 0.07764612 -0.028089523
-0.003833006 -0.025831101 0.024596637 0.055423193 -0.025983699 0.13446748 -0.040175244 -0.088881865
-0.040387742 0.0018046948 -0.10564594 0.0527473 -0.058829088 0.08075015 -0.16540293 -0.12734522
0.0014020236 0.021540727 -0.09204662 -0.05661246 -0.11565586 -0.108155616 -0.003995985 0.071964726
-0.03683309 0.07865452 -0.14496246 -0.03053327 -0.13943969 -0.061035544 -0.057184566 0.06229699
0.06456 0.042719055 -0.103972495 0.094553456 -0.0818868 -0.030992275 -0.13965914 0.045967024
-0.080292605 -0.08075912 -0.07068292 -0.077179424 -0.13242422 0.023136273 -0.08765106 0.03427338

_policy.4.weight f4 [128, 128]
00000000: a2fc 253e d5ab 0cbd 2e6e 05bd d3f9 55be
00000010: bf88 1a3e 65c0 4c3c f716 d33d 29e7 953d
00000020: 6013 efbc f02e 063e 6678 d1bd eab5 1b3e
00000030: 33c8 71bd bcdf 813d 367a 2dbe 63ef 303e
00000040: 157f a1be 1dc5 1f3e 196b 64be b600 35bd
00000050: 10eb 973c c3a0 4bbe dfbf a0bc d7c1 683e
00000060: 9da9 6d3d 0160 4dbe 73b3 463d a25b a8bd
00000070: 3b74 6e3d ef56 51be 9f46 693d bb51 a0be
00000080: 6525 623c 6621 20be 1d5d 763e be63 5f3d
00000090: 04da 37bd 4483 09bb 08e0 04bd 4486 67bb
000000a0: 9a88 79be 7e7e 4abe 2424 5b3e 2eb6 443e
000000b0: f1b8 073e d39e 303d c980 77bd bd57 2f3e
000000c0: cdd7 a13d 2ae0 3e3d 85d7 94bd 3083 64bd
000000d0: 39d3 f73d 319e 9b3c 69ea aabe e48a 71bd
000000e0: 95f6 9a3c 4ad7 0bbd 276c 063d ff56 0e3e
000000f0: f3f2 d3bd 7789 c2bd fc64 963d 5fba 653c
00000100: e514 7b3c e700 e0bd c8a2 dabd 5e38 63be
00000110: 934e e53d 27c3 a1be 988c 92be c352 5bbe
00000120: 17bc a63d f92a 9abd f40c 2abe 3437 4cbd
00000130: d3ce 813e d315 5ebc 3146 2a3d 6860 b8be
00000140: 8ded 00bf 4845 50bd ddf3 b3be 06b5 b13d
00000150: d76c 4e3c eed0 0dbe 6756 8dbe 0cc2 acbe
00000160: cfec 3c3e 3ca8 64bd 12dc 683e 044c dfbd
00000170: 905d 353e c7fc f1bc c35d cf3c 3b29 3b3d
00000180: 7461 733e d276 b0bc 5c0e 90bd fbfd 593d
00000190: 7e11 16bf 3434 2a3e baaf e73c 26dd 96be
000001a0: 5815 45bd 73a2 523e 308e 3b3d b50e 63bc
000001b0: 91d3 a73d 9982 343e e128 3bbd 0747 383e
000001c0: 72c3 19bd 1f8f b1be 88ac 9f3e fcb5 7dbd
000001d0: d1e6 52be bbb4 7cbe 4257 453d 90c9 bc3d
000001e0: 01e3 313e 14f3 a0be 5929 25bc 007a 8dbe
000001f0: 7e9b dbbc e181 913e e139 04be 59ad 8abc
00000200: 52f4 2fbc c21c 6d3d 8d6a 263d 0dc1 51be
00000210: d411 aebc d5ad 733e 3552 f73d 1a81 8cbe
00000220: 5ec8 a73c ca5a 513d b002 5b3e 00b3 16bc
00000230: a273 c03d 34fd c33e 33e7 373c 3f2b 7a3d
00000240: f657 16be 966a a03e 31ee b63d 1ee5 fe3c
00000250: d9de 25bf 2a2b 103e 100b 1b3e 5bbb a8be
00000260: aac5 463e aa0d c83d 574e 323e 6002 083e
00000270: 8046 3abc 65ea 243e efc8 d43d b3b4 733d
00000280: 5247 f2bd 0918 eabd 32bb 4ebe e8ad 8abc
00000290: cad4 a63d 8aba 0dbe 8f4c 183e a373 86be
000002a0: ecdc 223d a981 6dbe 568b babe 6ddd 7c3e
000002b0: e08c 7abd f891 9abd 5849 4ebf 1c01 b03d
000002c0: a6bd e4bc 8dc6 68bd 6b5b 1a3e 346e 8dbd
000002d0: e53e 2dbe 2dc3 a6bb ebef d3be 0cc1 413e
000002e0: 25f1 c2be 7b58 34bd 0e75 633d ed14 0b3e
000002f0: 27de 183e 6fe6 31be ec6c 90be 7b47 1f3d
00000300: 4f33 b1bd 69f8 c9be 1a23 b1bb 2aab c0bd
00000310: f46b cabd dc50 7c3e a897 043e e2b1 c8be
00000320: ac76 11bc 14f9 fb3c 2398 cabb 78f8 bfbe
00000330: 4a42 803e c34d 88be 7a9e 98be 2556 10be
00000340: 7201 463c f1a2 853e 9d62 07be fb36 b1bc
00000350: 6feb 2a3d 3f92 443c 20b4 123e 903d fabd
00000360: fab5 36bf b677 343d 3a0c d43d 69d1 0dbe
00000370: 32be d83c 36ca 01be c460 e4bd 1a9f b0bd
00000380: d562 af3e 33fe 02bf 94ec 193e 87ea bb3d
00000390: a7bf aabe 8c47 15be 00eb e5bc ee86 d2bc
000003a0: da0d c1bb 02b0 aabd 6ced 95be ad87 e53d
000003b0: 10cb a33c 4820 393e 6ae4 0c3e 239f 59bd
000003c0: cb8b 183e 0a4c 7cbe cc3a eabd e018 083d
000003d0: 3191 f7bd e2f7 c7bc 2c52 8abc ea96 80bc
000003e0: 7034 f73d cccc 6bbd cdf1 943d 1a46 cf3d
000003f0: dc1f d3bc 316b 7b3c 0abf 6c3d 9f57 31be
0.16209653 -0.03434356 -0.03257578 -0.20896082 0.15091227 0.012497042 0.103071146 0.07319481
-0.029184043 0.13103843 -0.10228042 0.15206113 -0.059028815 0.06341502 -0.16941151 0.17278819
-0.31542268 0.15602536 -0.2230648 -0.04419013 0.018544704 -0.19885544 -0.019622741 0.22730194
0.058023084 -0.20056154 0.04851098 -0.082206026 0.058216315 -0.20443319 0.056952115 -0.31312355
0.013802861 -0.1563774 0.24058957 0.05453848 -0.04488565 -0.0020982781 -0.032440215 -0.0035327831
-0.24368516 -0.19774815 0.21400505 0.19210121 0.13254143 0.043120217 -0.060425553 0.17123313
0.07902489 0.0466005 -0.072676696 -0.055789173 0.121008344 0.01899633 -0.33381966 -0.058970347
0.018916408 -0.034140863 0.032817986 0.13900374 -0.10349073 -0.094988756 0.0734348 0.014021485
0.015324806 -0.10937672 -0.10675579 -0.22189471 0.111966275 -0.31594202 -0.2862289 -0.2141829
0.08141344 -0.07527728 -0.16606504 -0.049857333 0.25353107 -0.013555008 0.041570846 -0.36011052
-0.50362474 -0.05084732 -0.3514699 0.086771056 0.012599192 -0.13849232 -0.27604982 -0.33741796
0.1844971 -0.055824503 0.227402 -0.10903171 0.17711473 -0.029539479 0.025313264 0.045693617
0.23767644 -0.021541033 -0.07033989 0.05322073 -0.5862044 0.16621476 0.028282035 -0.29465598
-0.048116058 0.20569782 0.045789897 -0.013858487 0.0819465 0.17627944 -0.045693282 0.17995845
-0.037539907 -0.34679505 0.31186318 -0.061941132 -0.20595862 -0.24678318 0.04817892 0.092181325
0.17371751 -0.31435454 -0.010080659 -0.2763214 -0.026807543 0.28419402 -0.12912704 -0.016928362
-0.010739403 0.057888754 0.04062896 -0.204838 -0.021248735 0.2379678 0.120762266 -0.27442247
0.020481285 0.051111974 0.21387744 -0.00919795 0.09397055 0.38279116 0.011224556 0.0610764
-0.14681992 0.3133132 0.0893215 0.031115111 -0.64793164 0.14078966 0.15140939 -0.3295544
0.1941134 0.09768231 0.17412697 0.13282156 -0.011369348 0.1610504 0.103898875 0.0594985
-0.118300095 -0.114303656 -0.20188597 -0.016928628 0.08146055 -0.1384069 0.14872955 -0.262601
0.03976147 -0.23193993 -0.3643443 0.24693842 -0.061169505 -0.075473726 -0.80580664 0.085939616
-0.027922463 -0.056829978 0.15073936 -0.06905785 -0.16918524 -0.0050891847 -0.4139398 0.18921298
-0.38074604 -0.044029694 0.055531554 0.13582201 0.14928494 -0.1737306 -0.282081 0.03888653
-0.086523645 -0.39447334 -0.0054057958 -0.09407647 -0.09883872 0.2464022 0.12948477 -0.39198214
-0.008878391 0.030758418 -0.006182687 -0.37494254 0.25050575 -0.26621827 -0.29808408 -0.14095362
0.0120853055 0.26100877 -0.13221212 -0.021632662 0.041728433 0.011997758 0.14326525 -0.12218773
-0.71371424 0.044059478 0.103538945 -0.13849415 0.02645788 -0.12674794 -0.11151269 -0.08624096
0.3425509 -0.5116913 0.15031654 0.09175592 -0.33349344 -0.14578074 -0.028066158 -0.025699105
-0.005891544 -0.08334352 -0.292827 0.11207519 0.019994289 0.1807872 0.13759008 -0.05313028
0.14897077 -0.24638382 -0.11436996 0.033226848 -0.1208824 -0.024410192 -0.016884886 -0.015696961
0.120705485 -0.057568356 0.07272682 0.10120793 -0.025772028 0.015345381 0.057799377 -0.17318581

_policy.4.bias f4 [128]
00000000: 69d4 213d 0759 933d e988 a43d d896 83bd
00000010: 8aa2 95bd 9625 3bbe fdca 97bd bbba 87bd
00000020: 1ee2 46be b40c ffbc 96d6 e83b 69d6 423e
00000030: 76ac dfbd 50b1 3cbd fcea bcbc 4e9f 413e
00000040: f525 5abe 6abb ad39 b5e5 b0be b459 ddbd
00000050: a67e 3c3c d5c4 093e fd55 9a3a 772a c7bd
00000060: ebc3 2e3d 826e b9bd d8c6 92be b559 92bc
00000070: 3e51 933c e4ad be3b 4411 edbd 9790 133d
00000080: 3c8a 113d cf49 653e 7e28 c9be 9f33 e0bd
00000090: 329a c13d 8634 85be c7cc 58bd 2b67 fcbd
000000a0: c1ee a5bb 23c0 363d 4d7d 90bd da37 38be
000000b0: 4d68 7a3d eadf e2bd 3a97 9fbd 6abd e4bd
000000c0: 0402 0e3e 2de0 17bb 4dfc a4bd a12c aabd
000000d0: 8934 bb3d 980c 8cbe 6ee3 af3c 49df 073d
000000e0: ead7 bdbd 2ff6 a1bc a95d 98bd 067d 41bd
000000f0: 3a93 f3bd 5c2a 13be 686f 703b cd0a cb3c
00000100: a6b1 b73d 6399 c83b 8727 9bbd 97ca 21bc
00000110: 7b4c 8fbd fdbe 86bd 5613 143d 7440 b83c
00000120: 4b15 2ebe e130 5abc d87d fe3d 3456 b9bd
00000130: 1b8d f4b9 72b7 8f3d a506 c43d eaa7 a03d
00000140: 03fc f6bc 7758 48bd e74a 56bd 3c47 8cbd
00000150: 8891 3bbe c25b fe3d 8d62 663d 5c2f 04be
00000160: f5da 20be cb97 e3bd 3c30 223e b8ba 42bd
00000170: c7f8 4c3b 782b 0fbe b724 88bd 9ba5 b2bd
00000180: 37ce 62be 6b5f 973d 584a 7e3d 4ef5 0b3d
00000190: e968 643d f76f fcbd 2266 bdbd 1f87 c83c
000001a0: faa1 97bc da6d 2b3e 6a62 d13d 396c 083d
000001b0: 2fdd 0dbd bf6a 1bbd f22c 2a3b 3df9 973c
000001c0: 7fda dfbd b0bf c1bd c8eb 04be f4b2 b43c
000001d0: f468 893d 7ddd 48be a4a1 85bd ee5e 4fbe
000001e0: cf26 d8bd be67 07be 8c14 9cbd 8efd a2bd
000001f0: f44a 543d 5590 4cbe 7070 9d3d 2159 f33c
0.03950921 0.07194715 0.08033926 -0.064252555 -0.073063925 -0.18276057 -0.07411764 -0.06627413
-0.19422194 -0.031133987 0.0071056588 0.19027103 -0.10921566 -0.046067536 -0.023061268 0.18908426
-0.21303542 0.00033136766 -0.34550253 -0.10808125 0.011504805 0.13453992 0.0011774894 -0.097248964
0.04266731 -0.09054281 -0.2866733 -0.017865041 0.017983075 0.005819069 -0.11575559 0.036026563
0.03553222 0.22391437 -0.39288706 -0.10947346 0.094532385 -0.26016635 -0.052929666 -0.12324365
-0.005063862 0.04461683 -0.07055149 -0.17990056 0.061134625 -0.110778645 -0.07792516 -0.1116894
0.13867956 -0.002317439 -0.08055935 -0.083092935 0.0914088 -0.27353358 0.021470752 0.033171926
-0.09269698 -0.01977071 -0.07439739 -0.047238372 -0.118933156 -0.14371628 0.0036687497 0.024785424
0.089694306 0.0061218007 -0.075758986 -0.009874961 -0.06997009 -0.06579397 0.036151253 0.022491671
-0.1700031 -0.013317318 0.124263465 -0.09049645 -0.00046644438 0.07017411 0.0957158 0.07844527
-0.030149465 -0.04891249 -0.052317526 -0.068495244 -0.18317235 0.12419845 0.05624633 -0.12908691
-0.15708525 -0.111129366 0.15838712 -0.04754135 0.0031276213 -0.13981426 -0.06647628 -0.08722993
-0.22148977 0.073912464 0.06208262 0.034169488 0.055764113 -0.12326043 -0.09247996 0.024478493
-0.018509854 0.16741124 0.10223849 0.033306334 -0.034634765 -0.037943598 0.002596673 0.018551463
-0.10930347 -0.094603896 -0.12980568 0.022057988 0.06709471 -0.19615741 -0.06524971 -0.20251057
-0.10554277 -0.13223168 -0.076211065 -0.07958518 0.051829293 -0.19976933 0.076874614 0.029705586

_policy.6.weight f4 [128, 128]
00000000: b920 aebd 7f8f 90bc a891 da3d c528 483c
00000010: 9c12 3cbe 548d bdbe 3efb 023b 13c7 8b3d
00000020: 87a7 67be 547e 08be f4a5 8f3e 1773 83be
00000030: 8b11 653c d663 47bd 8e5d 63be 8eb8 493e
00000040: 8841 1ebe a4bb f33d 8863 953d 1b40 abbe
00000050: 5c1d 023e 3ed3 17bc 3927 9c3d 46d8 fd3d
00000060: 014e bcb8 8438 cc3d 5501 cc3d cd8e febb
00000070: e0ff 4abe b3ec cabc a18c c4bb d697 a33d
00000080: bb39 2c3d 720b bb3d 5209 b03e fa6f d6bc
00000090: 066d b93d 215d f83d 17f0 b13c 397b 9bbe
000000a0: 87e0 2cbe d779 62be 42d3 403d e1be 0b3e
000000b0: d127 4dbe 5d73 14bd 0be0 5cbe 3cce 85be
000000c0: e245 2ebe 80d9 013d c8e9 223e 816a f0bd
000000d0: 7308 1c3d 3f43 293d 9d16 4b3d 1811 94be
000000e0: f2aa 18bf 84e3 f8bd 5b7d c5bd 5817 32be
000000f0: c806 453d a0be 1c3e f527 5bbe aa97 7fbe
00000100: 4c1b 04bf 8344 743e 7522 443e ecdb efbe
00000110: a289 573e e31e c73d 0bed 913d 1010 82bd
00000120: 9411 303e 752d 04be dad7 41be 46bb c1bc
00000130: 4b51 a53e b787 8abe 5828 1b3e adf4 a4bd
00000140: 5326 2dbe 4f31 8e3d b228 39be 2cb2 89be
00000150: 4226 263c 5d2f 5fbd 8330 79be a048 6abc
00000160: 7d8b f9bd 9180 72be e152 ad3e 9fb6 3fbd
00000170: a267 55bd 3f8d 3dbc 01b0 fdbd 095a 95be
00000180: a5f7 87be cf78 03be 6077 15be d655 d7be
00000190: b1bf 3fbd f974 4b3c 7899 cf3c 322c 653e
000001a0: 42d9 70be 6c61 c8bd d141 a23e b22d 5a3e
000001b0: 63eb 88bc 343b 48be 4c72 de3d 56dc 5d3c
000001c0: 5604 0bbe 11b6 8cbc cbc8 68bd 864d dcbc
000001d0: 8b9d 033d d725 293e 4276 b53d ee47 f63d
000001e0: dcb8 af3e 8c49 febd c3e5 473e ec3d d3be
000001f0: de89 b5be 9358 3a3b 7571 2b3c 2694 81bd
00000200: 73b5 11be 4939 b23d 04e5 4dbd 3455 2abd
00000210: e7b7 0cbe 4fec c0bc c44d 9fbe 3dd5 cc3d
00000220: d7d5 683c d986 91be 17f5 b73d 231a e43a
00000230: be98 d3bd 0206 82bd fd07 72bb 696a 9fbe
00000240: de12 6a3e 6ba8 89be a422 a5be 9b70 cf3d
00000250: 144c 9b3c 6014 a0be b889 ac3d 17f8 943d
00000260: 9246 c4bd 33ba 2cbe 43a6 fa3c e5fa 183d
00000270: 2073 85be 26fc 3bbe 455e 3dbe fd1f b33e
00000280: 4278 babe 4818 023e 63d9 433e ace0 b1bd
00000290: 7f17 a8bc 5eec cbbc 08a4 9b3d f443 943c
000002a0: 0848 b6bb bd67 3dbd c7cd 61bf 2935 30bd
000002b0: 096a ba3e bb9d 1dbe a421 a5bd c6c4 003e
000002c0: dbae 9fbe 7adb bbbc c62f f3be 4960 05be
000002d0: a200 9dbe af22 eabd 6483 fdbd f102 e4bd
000002e0: 4b86 9c3d ebb6 bc3e 2285 50be 2cd7 003e
000002f0: 3692 28bd 54c9 843b 768a 40be 9004 c73c
00000300: afc7 3abe 0b72 833e a4cc 05be b233 4d3e
00000310: be3d a6be 0f70 a8be 917f f1bc ff08 733e
00000320: b5d2 9cbe e257 633d 9d17 2abd e293 c23d
00000330: 079f 983d e35f 1fbf e901 bdbe 004a 48bc
00000340: b5b7 8fbe 8efe 203e 29b9 3a3d f7f2 f0be
00000350: 109c 0c3e fdd3 afbd 1782 9d3d f2bb 68be
00000360: f0f2 0d3e b856 fabe 8fa0 57bc f4f6 853c
00000370: f0f1 45bd 0153 cb3d 7392 213e 7ec9 a63e
00000380: 70d6 5c3d 59b4 1fbd f3c5 f0bd 6a9f fb3d
00000390: badb bebe ee82 b23d af74 3cbe b982 f23d
000003a0: ee45 d53e f97f 6fbe 2ff1 423e ca8a 8c3e
000003b0: 8927 67be af26 b9be 3732 a83e 8985 68be
000003c0: 7026 61be 3662 cd3d aaed 97be 0400 bebe
000003d0: d31b 0fbe c57b 22bc 8d1a 8ebd de45 b5be
000003e0: 0dd1 99be 5c28 4dbf d634 733e d0cb 23bd
000003f0: c526 74be 7486 6ebe bc82 7dbc 1291 02bf
-0.08502335 -0.01764655 0.10672313 0.012216751 -0.18366474 -0.37021887 0.0019986178 0.0682508
-0.226225 -0.1332944 0.280563 -0.25673744 0.013981233 -0.048679195 -0.22203657 0.19699308
-0.15454686 0.11901024 0.07294375 -0.33447346 0.12706512 -0.009266673 0.07624669 0.123947665
-8.979068e-05 0.09971717 0.099611916 -0.007768488 -0.19824171 -0.02477107 -0.0059982096 0.07987945
0.042047244 0.091330424 0.3438211 -0.026176441 0.09053998 0.12127138 0.02172093 -0.3036745
-0.16882525 -0.2211679 0.04707647 0.13647033 -0.2003472 -0.03624283 -0.2156984 -0.26133907
-0.17018846 0.031701565 0.15909493 -0.11739064 0.038093995 0.041323896 0.049582113 -0.28919291
-0.5963584 -0.1215277 -0.0964305 -0.17391717 0.04810217 0.15307093 -0.21401961 -0.24960199
-0.5160415 0.2385426 0.1915377 -0.46847475 0.21048597 0.09722688 0.071252905 -0.0635072
0.17194206 -0.12907965 -0.18929997 -0.02364887 0.32288584 -0.27056667 0.15152109 -0.08054481
-0.16909151 0.069429986 -0.1808193 -0.26893747 0.010140957 -0.05448853 -0.24334912 -0.014299542
-0.121848084 -0.23681857 0.33852294 -0.04680502 -0.052100785 -0.01156932 -0.12387086 -0.29170254
-0.26556125 -0.12839054 -0.14596319 -0.42057675 -0.04681367 0.012418025 0.025341734 0.2238014
-0.23520377 -0.09784207 0.3169084 0.21306494 -0.016713804 -0.19553834 0.10861644 0.013541302
-0.13575873 -0.01717666 -0.056832116 -0.026892435 0.032132667 0.16518341 0.088604465 0.12025438
0.34320724 -0.12416372 0.19521241 -0.4125818 -0.35456747 0.0028434142 0.010464062 -0.06327085
-0.14229374 0.087023325 -0.050267234 -0.041585162 -0.13742028 -0.02355018 -0.31114018 0.100016095
0.01421114 -0.28423193 0.08982294 0.0017402809 -0.10331868 -0.06348802 -0.003693103 -0.31135872
0.2285876 -0.26886305 -0.3225299 0.101289 0.018957175 -0.31265545 0.08424705 0.07273882
-0.09583773 -0.16867904 0.030596858 0.037348647 -0.26064396 -0.18357906 -0.18492992 0.34985343
-0.36419874 0.12704575 0.19125895 -0.08685431 -0.020519016 -0.024892982 0.07599646 0.018098809
-0.005562786 -0.04624151 -0.88204616 -0.043019447 0.36409023 -0.153922 -0.08063057 0.12575063
-0.31188092 -0.022931803 -0.47497386 -0.13025011 -0.30664545 -0.114323966 -0.123785764 -0.111333735
0.07642802 0.36858305 -0.20363286 0.12582082 -0.041155063 0.0040523205 -0.18802819 0.024294168
-0.18240236 0.25672945 -0.13066345 0.20039251 -0.3246898 -0.32897994 -0.029479774 0.237339
-0.30629507 0.055503733 -0.041526426 0.09500863 0.07452207 -0.62255687 -0.3691552 -0.012224674
-0.28069845 0.15722105 0.04558674 -0.47060367 0.13731408 -0.085853554 0.07690828 -0.22727945
0.13862205 -0.48894286 -0.013160839 0.016353108 -0.048326433 0.09927941 0.15778522 0.325756
0.05391544 -0.038990352 -0.11756506 0.12286265 -0.37277013 0.08716379 -0.18403886 0.118413396
0.41654915 -0.23388661 0.19037317 0.27449638 -0.22573675 -0.36162326 0.3285081 -0.2270719
-0.21987319 0.10028498 -0.2967351 -0.37109387 -0.13975458 -0.009917204 -0.06938658 -0.35404867
-0.30042306 -0.8013971 0.23750624 -0.039989293 -0.23842914 -0.23293477 -0.015473064 -0.5100261

_policy.6.bias f4 [128]
00000000: ebe2 b9bd d020 38be 5d5d 943c 72f7 973d
00000010: ab5e 053d bded dbbc 09b8 983d 88db 1ebd
00000020: ef4c 193e a839 3f3a a2cd 1d3e b72f 163e
00000030: 0c22 bd3d 3d39 35bd 3ff7 16bd b285 273e
00000040: 65b0 ee3d 7f64 ca3d a611 a9bd 8ad4 abbd
00000050: 76c8 903d 78a4 2c3e 21cc 62bb 8b27 ed3d
00000060: 7a93 323e 8d19 b63d 855a e53c da5a f33a
00000070: 681b cb3b 7813 c4bd 032f 77bd a4f6 f7bd
00000080: 088c 883d 91ec 5f3d 902e b0ba 3d75 6f3d
00000090: 36b6 94bd 8f4f a7bc c3af 8b3d b8d4 843d
000000a0: 4871 423d 6a0a a6bd 335e 293e 2de1 8f3d
000000b0: e9b4 7b3d 9537 eebd cdbc 903a e3be 9c3d
000000c0: 1fac 523e 6dae 12be 6c36 2c3e a230 003c
000000d0: 15a1 4f3b f704 40bd ea7b 573d 1127 3b3e
000000e0: a859 173e 0d2b 8d3e b88b 973d 2f63 d83d
000000f0: 7ac8 9b3b 6d0e d03c e572 18be 70c6 063e
00000100: 04cf b7bd a584 fa3d 1257 7a3e 8158 143e
00000110: 8774 993d d232 bd3d b5af a4bd b761 c23d
00000120: acc7 18be 8685 80bc 787a 64bd 1a1f 923c
00000130: 92c2 ba3d 4c68 f5bd a8c0 61bc ba4f ef3d
00000140: 57e4 ad3c 4c99 893c 406a 1fbe c5cb 00ba
00000150: df4a 713c 653e 993d 29be a5bd 0f0c da3c
00000160: fe58 f83c 84bb 8b3d 67a8 303d a5b9 b23e
00000170: c918 223e a2b3 f03d 29ac f8bc b7d8 3cbd
00000180: 7074 ddbd 6765 083e 4cd9 d93d 4673 423d
00000190: eaa6 dbbd f19f 4e3e 69b5 8e3d efe1 1b3e
000001a0: e6fc 32be 0220 f4bb e3df 293e 2299 32bd
000001b0: aa79 86be b702 493e 730a 773e 2356 65bc
000001c0: 46e1 05bd 11d8 9abd 17f0 de3b d975 b83d
000001d0: a809 cebc 4ad4 ba3d 0f68 b6bd 2d1a 243e
000001e0: af9a c43d 65f5 6b3e a2f2 2f3e a917 2cbd
000001f0: 6770 333e 1d34 e5bd e741 b03b 4d98 d63d
-0.09076484 -0.17981267 0.018110925 0.07420243 0.032560986 -0.02684676 0.07456977 -0.03878358
0.14970754 0.0007294663 0.15410474 0.1466664 0.092350096 -0.04424404 -0.036856886 0.16359594
0.11654738 0.09882449 -0.08255319 -0.08390148 0.07069485 0.16859615 -0.0034606534 0.11579808
0.1743907 0.08891592 0.027997265 0.0018566505 0.0061983354 -0.09574026 -0.06034757 -0.1210759
0.06667334 0.054668967 -0.0013441611 0.058461417 -0.072613165 -0.020423679 0.06820633 0.064858854
0.047471315 -0.08107455 0.1653984 0.07025371 0.061451826 -0.11631695 0.0011042595 0.07653596
0.20573471 -0.1432435 0.16817635 0.007824095 0.0031681706 -0.046879735 0.052608408 0.18276621
0.14780295 0.27571908 0.07399696 0.10565793 0.0047541233 0.025397504 -0.14887579 0.13161635
-0.08975032 0.12232331 0.24447277 0.14486887 0.07492929 0.09238209 -0.08041326 0.09491294
-0.14919919 -0.015688669 -0.055780858 0.017837096 0.091191426 -0.11982784 -0.013778843 0.116851285
0.021227045 0.01679673 -0.15567875 -0.00049131765 0.014727323 0.07482604 -0.08092911 0.026617078
0.030315872 0.06822875 0.04312935 0.3490726 0.15829767 0.11753012 -0.03035553 -0.046105113
-0.10813224 0.13319932 0.10637149 0.047473215 -0.10725196 0.201782 0.06968195 0.15222906
-0.17479286 -0.0074501047 0.16589312 -0.04360307 -0.26264697 0.19629942 0.2412508 -0.013997587
-0.03268554 -0.07560743 0.0068035233 0.09006853 -0.025151089 0.09122522 -0.08906566 0.1602561
0.09599816 0.2304283 0.17182401 -0.04201475 0.17523347 -0.111915804 0.00537895 0.10478268

_policy.8.weight f4 [3, 128]
00000000: 8517 44bb c773 1f3e 305b 1ebe 6963 12bf
00000010: af8c a5be f1be 3bbe 0fb6 a4be f1cc 31bd
00000020: ae13 013f eb24 a1bd 7ced af3e efc5 ef3e
00000030: 9313 e73b dd69 163d 1ef5 57bf 7bb7 f1bd
00000040: a758 bf3e 299b ab3e ff0a 07bf 8ecf a33c
00000050: 4778 04be 49a9 51be d44b 62bd 99d9 d43e
00000060: 76fc 34be f87d 9fbe 798a b43c 9499 fbbd
00000070: 02a0 11bf f52b c13e da11 5dbd e057 5c3c
00000080: 521d 05be 6ea4 9bbd 1758 4bbd cb7a e73e
00000090: 39cc dfbe a1bd 983e aca8 1bbe d3c9 acbd
000000a0: 85c1 0f3f ede9 6fbd 0052 30be 5a4a 983e
000000b0: 1caf dc3e 7c35 0abf 90bd b83f fb84 aa3e
000000c0: 0f12 10be 8e21 ecbc 5480 913e 3aa5 46be
000000d0: e519 88be 2cb0 393e e386 e2bc 6f1f 54be
000000e0: 589b 77bd 1d97 0fbf 7f4a d23c 148a e03e
000000f0: 2582 753d cd49 0ebe dfa1 31bf 452f 52be
00000100: a216 a13e 0800 bb3e 505e d83e 4350 01be
00000110: 3491 d03e ed9a 02be 6b4b f63e 6940 133c
00000120: e824 c9be a9a0 113f 09f0 c53e c470 5c3d
00000130: 7861 40be 9004 a63e ae92 9abd 8c69 4b3e
00000140: eccc a3bd 311f 32be 83bb 44bf 3f38 17be
00000150: f03a 2ebe 800c f83e 0fb5 10bf 6db6 a2bd
00000160: 57ee 05bf d6cc 0a3f e06d 36be 74ad 9cbe
00000170: e720 98be 0ea1 7fbd cf5b 023f 96d7 cb3e
00000180: 0d62 2c3e bb30 ccbd 02b0 613e 7fa8 96be
00000190: a6bc cbbb 01e7 89bd eb60 eabd 100a c8be
000001a0: 4cab 253c 844d 313e f5d5 a3be fb1d 083f
000001b0: 35d3 cb3e f6c1 0e3f 5287 2bbe da1c 523e
000001c0: 1011 bfbe d8cb d43c 32e6 d83d d8a1 5cbd
000001d0: 1fcb 6abe 4b9b 5ebe 9655 7a3e 3683 d5bd
000001e0: d319 c03e 26e4 81be be1a 08be bb2d ca3e
000001f0: 5eb1 eb3e 4c66 633e f8e5 36bd 7567 0abe
00000200: cba4 463e dc23 923e a0b7 a7bd a7af f43e
00000210: bd58 b73e 49ab a33b a2ae 593e 2c5f e63e
00000220: 2907 d0be 85d7 f03e f38a 80bc 5923 1cbd
00000230: d386 34be 7de7 2e3e 0cc0 313f 2430 2bbe
00000240: 9659 edbe 7346 22be 03f4 d63e 6a41 2e3e
00000250: 6e52 d73e 15d3 c03e 8e72 febd ff1a 3fbe
00000260: e797 9abe 6360 183e 81a2 ffbd 5858 9cbe
00000270: fa5e c73e e67b 09bf 28c7 863e 75da 833d
00000280: 7a88 5d3e f56d 94bd aca8 78bf 05c8 0ebe
00000290: 869b 1bbe 5b5b b9be ce40 0f3f eae2 e9bd
000002a0: 4975 ffbd 3634 283e 0409 363f 8e4e e0be
000002b0: b4ad b4be 4d19 e63e 04d3 86bf 32cf 7fbe
000002c0: adf0 45bd ce27 1a3f beb2 0bbe e461 8f3e
000002d0: 444b 6b3e 411a 98bd ab28 f13e acda 9abe
000002e0: 5ab5 cb3e c181 f03e db63 3c3e 4646 25be
000002f0: ff80 8d3d 15a5 89bd 3a3c d83e e353 eb3e
00000300: 9a2e efbe a12e d0bd d59d 073d a405 a63e
00000310: 0b91 6c3d aeb8 0fbf 40f0 663e 9f57 e63e
00000320: 683c f63c 82bc 21bf 240f 5d3d d88f 79be
00000330: c6e9 663e 6bc6 a7be 2775 8ebe 0009 68be
00000340: 0778 afbe cde3 11be 049f 883e 40e1 dd3e
00000350: 7c31 963e e595 b2bd fd8e b83d fa9d 90bd
00000360: f8d7 f03e 7d75 d5be 9e2b c93d 5161 aabe
00000370: a78f 47be b787 8dbe 5471 12bf be1a 05bd
00000380: 017c d7be de86 0f3f e205 84bd 210e 3d3e
00000390: d18b 43bf 10ff 92be 6a13 5bbd f368 fabc
000003a0: 8d77 4bbe baef 3ebd b611 17be 30da 35bf
000003b0: 92e6 563e 3c33 19bf 8da3 1e3e f59f 51be
000003c0: fca0 ca3e 53e0 c53e acb5 a7bd 0756 823e
000003d0: 4e95 353d 1159 bbbc 607c 66bf 474c 6fbe
000003e0: 8085 b8be 35b8 843e cca9 073f a5de d1be
000003f0: faf9 abbe 6702 b4bd 3f76 bd3e d029 9bbe
-0.0029921245 0.1557151 -0.15464473 -0.5718294 -0.32333896 -0.18334557 -0.3217015 -0.043408338
0.50420654 -0.0786837 0.34360874 0.468307 0.007051894 0.036722053 -0.84358394 -0.11802574
0.37372324 0.33516815 -0.52751154 0.01999643 -0.12936507 -0.20474733 -0.055248097 0.41572264
-0.17674431 -0.31150794 0.022038685 -0.12285152 -0.5688478 0.3772885 -0.053972103 0.013448685
-0.12999466 -0.07599722 -0.049644556 0.4521087 -0.43710497 0.29832175 -0.15201062 -0.084369324
0.5615466 -0.0585727 -0.1721878 0.29744226 0.43102348 -0.5398786 1.443285 0.3330458
-0.14069389 -0.028824594 0.2841822 -0.19398966 -0.26582256 0.1813361 -0.02765221 -0.20715116
-0.06045088 -0.56089956 0.025670288 0.43855345 0.05993857 -0.1389534 -0.6938762 -0.20525844
0.3146258 0.3652346 0.42259455 -0.12628274 0.4073578 -0.12754412 0.48104414 0.008987525
-0.3928597 0.5688577 0.38659695 0.05381848 -0.18787181 0.32425356 -0.07547508 0.19864482
-0.0799807 -0.17394711 -0.7684862 -0.1476755 -0.1701467 0.48447037 -0.56526273 -0.07944951
-0.523168 0.54218805 -0.17815351 -0.30601084 -0.29712602 -0.062409453 0.5092134 0.39812917
0.16834278 -0.09970232 0.22039798 -0.29425427 -0.006217557 -0.067335136 -0.11444267 -0.39070177
0.010111641 0.17314726 -0.31999174 0.53170747 0.39809576 0.5576471 -0.1675084 0.20518818
-0.37317705 0.025976107 0.10590781 -0.053865284 -0.22929047 -0.21738927 0.24446711 -0.10425417
0.37519702 -0.25369376 -0.13291451 0.39488015 0.46033758 0.22206992 -0.04465291 -0.13516028
0.19398801 0.28542984 -0.081893206 0.47790262 0.3580989 0.004994784 0.21258023 0.44994485
-0.40630463 0.47039428 -0.015691256 -0.038119648 -0.17629556 0.17080493 0.69433665 -0.16717583
-0.4635741 -0.15847187 0.4198304 0.17017141 0.42055076 0.37661043 -0.12424193 -0.18662642
-0.30194017 0.14880519 -0.12482167 -0.3053615 0.3893965 -0.5370468 0.2632382 0.06438152
0.21634093 -0.07247535 -0.9713237 -0.13943489 -0.15196046 -0.3620251 0.5595826 -0.114202335
-0.12473542 0.16426167 0.71107507 -0.43809932 -0.35288775 0.44941178 -1.0533147 -0.24981382
-0.04832523 0.6021699 -0.13642403 0.28004372 0.2297793 -0.074268825 0.4710134 -0.30244958
0.39786798 0.46973994 0.18397467 -0.16140088 0.0690937 -0.0672094 0.4223345 0.45962438
-0.46715242 -0.10165144 0.033109505 0.32426178 0.05775551 -0.56141174 0.22552586 0.44988725
0.0300581 -0.63178265 0.053969517 -0.24371278 0.22550115 -0.32768568 -0.27823755 -0.22659683
-0.3427126 -0.14247055 0.2668382 0.43335915 0.2933463 -0.08719996 0.09011648 -0.07061382
0.4703977 -0.416912 0.098227724 -0.33277372 -0.19488393 -0.27642605 -0.57204175 -0.032496206
-0.42086795 0.56065166 -0.064464346 0.18462421 -0.7638522 -0.28710222 -0.05348531 -0.030567622
-0.19869824 -0.04661534 -0.1475285 -0.7103605 0.20986393 -0.598438 0.15492077 -0.20471175
0.39575946 0.38647708 -0.08188948 0.2545626 0.04433184 -0.022869619 -0.9003353 -0.23368941
-0.36039352 0.2592179 0.52993464 -0.40990177 -0.33589154 -0.08789521 0.37004277 -0.30305338

_policy.8.bias f4 [3]
00000000: 90a6 8b3b 0442 4cbd 941b ff3c
0.004261799 -0.049867645 0.03114108

_value.0.weight f4 [128, 22]
00000000: 0949 813d 9182 2b3e 9eee 17be 7ff2 1a3d
00000010: 18b2 ec3c 85ea 2cbe 2372 9e3d cc30 4abd
00000020: b387 283e 9597 3abe 82b1 0bbd f392 243e
00000030: a7da 903d 3e58 5cbd 3d94 42bd b7d6 2d3d
00000040: a02f e3bc 611b 2d3e f6a2 2339 0f67 d23d
00000050: df54 a03d 0410 a1bd 218b 23be 450e 0dbe
00000060: 30c5 87bd 406a 55bd 0ac6 193d 267f 1fbe
00000070: 9250 a3bd 3779 033e 42a4 72bc bedf 9fbd
00000080: 477b 17be 01b7 6dbd 6274 1ebe 4721 303e
00000090: fa36 e43d 8495 293e 14b0 15be 7cab 32be
000000a0: 02d1 683c 757e 69be 3af6 ecbd 3455 3e3d
000000b0: 06e5 d8bc 9408 00bd bda9 7fbd a072 17be
000000c0: a9a8 253e df6b 253e aaa5 d9bd e7e0 323e
000000d0: 45ed 073e 6056 903d d6c3 373e 4692 193e
000000e0: a70c 25be 4252 53be b6a6 11be 59bc 57be
000000f0: c5b7 0abe 4616 62bc 9dbe 6cbd c7af c3bd
00000100: 6a08 1abe 056d a83d ccd9 ebbd 67e0 353d
00000110: 7006 633b 001e 56be 6aed 1bbe 17d1 573d
00000120: 7d30 923d 9ae0 103d 2bce 843c b4c5 e9bd
00000130: c645 e83d 5ff8 233d 6cac 8d3e 73ef b53b
00000140: 30ca 163e 560f d8bc e2aa 013c caa8 26bd
00000150: f088 ddbd 5bd2 973d 5ee1 aabc c426 8b3e
00000160: 7a37 0abe f96a 7b3e 6ee9 6ebe 081c a53d
00000170: 2fa3 b23c 2747 c23d d455 d43c 5423 ab3d
00000180: 641f 96bd cd0f b1bd 009f 3cbe e27e c2bd
00000190: 3cf7 653d 9849 873d 93e8 abbd 12f9 a2bd
000001a0: 2e7e 68bd de42 873d 054e 50bd 9d12 8e3c
000001b0: 4293 0b3d 3a65 cfbc 74f3 46be 5fd6 6c3e
000001c0: 2ed2 053e da5a e1bd cc36 013e 540a 0bbe
000001d0: 09d6 1d3e 6577 133d 83f5 9f3d c972 b23c
000001e0: 5ee0 04be a4eb ab3d da49 143e c25c ea3d
000001f0: 3199 363e 7876 d03d 83f8 a53a 37e9 23be
00000200: 5fbe 573b 6e34 0abe 51b3 b4bd d843 37be
00000210: 3aa5 af3d 5e48 333e ad4b debd 3eee 2e3e
00000220: c7e4 3abd 657e 30be 0dee c13c 6181 04bd
00000230: b7b1 873d d5ec 5abd 538a 4abe 53e9 60bd
00000240: ece0 14be cae6 363e 5b71 3cbe 203d f03d
00000250: 6367 7b3d d3c7 cfbd 0f96 cf3d 35eb 3abe
00000260: 4ba5 28be 9720 a73c c0af adbd 1d41 0cbe
00000270: cdde aa3b 5d72 26be 0ed5 ca3d 86b0 133e
00000280: 9681 db3d ec73 893c 5ad4 d4bd 1062 2b3e
00000290: 255b a2bc 0d1e 15be 3870 5d3d 96bb 47be
000002a0: e1f4 9d3d 361f fcbd cd97 673c 3cdb cdbc
000002b0: e93c 62be ab68 253d 404c 1c3e afa2 f53d
000002c0: 5f13 de3d 2521 3bbe 57d3 8ebd 2d22 e5bd
000002d0: ec3f aebd 1c25 d03c 8759 f03d a2a3 283e
000002e0: 308d 0cbd 734f 3e3e 159d 49bd 85be 0ebe
000002f0: 1f6b 033e c6ee 06be c544 54be 0116 31be
00000300: bb48 263e 2a8e e53b 8449 533c 70a5 cbbd
00000310: bc86 5fbe 64eb 253e 8cbe 60bd b18c df3d
00000320: 139e 9f3d 5799 06bd 2e0e 3a3d 8d29 a6bd
00000330: 9a42 433d a312 29be 4f60 04bc 2521 b93d
00000340: 8f38 9cbd 2fee 4c3e 989e 17be f30b 3bbe
00000350: a406 fc3d ae79 a3bd 335d 64bd ead9 4abe
00000360: ec4f 51be 340f 183a c5be b13c c321 833d
00000370: 339b 153e 72e5 1fbe 7d0c 25bd b620 0e3e
00000380: 65be 063e 6737 a5bd e201 47bd a267 8a3d
00000390: 7fd7 0d3e f88d 9a3d 0e46 213d 0584 2ebc
000003a0: 6372 903d 4635 7f3c dca6 913c d995 ab3d
000003b0: 34be 13be b656 e0bc 2cd0 2d3e 824d afbd
000003c0: c346 8ebc 4ae6 41be 9f74 52bd 7c9c 2cbd
000003d0: dd95 77bc 3e81 aabd 1cc7 1ebe 615e 04be
000003e0: 0d2a 76bd 26ba e6bc c0b3 183d 7351 f23b
000003f0: 3ca7 0b3e 4a28 043e 2942 073e 91c5 193e
0.063127585 0.16749026 -0.14837119 0.03782892 0.028893515 -0.16886337 0.077366136 -0.049362943
0.16458015 -0.18221886 -0.03410483 0.16071682 0.070729546 -0.05379509 -0.047504652 0.042441096
-0.02773267 0.16904975 0.00015605599 0.10273563 0.07828688 -0.07864383 -0.15971042 -0.13774975
-0.066294074 -0.05210328 0.03754238 -0.15575847 -0.07974352 0.12839209 -0.01480967 -0.07806347
-0.1479312 -0.058035854 -0.15474084 0.17200194 0.111432984 0.16560942 -0.1461795 -0.17448229
0.014209988 -0.22802146 -0.115704015 0.046467975 -0.026476394 -0.03125818 -0.062417734 -0.1478982
0.1617762 0.16154431 -0.10627301 0.17468606 0.13274105 0.07047725 0.17945799 0.14997205
-0.16118108 -0.20636848 -0.14223751 -0.21067943 -0.13546665 -0.013799256 -0.05779897 -0.09555011
-0.15042272 0.08223919 -0.11516151 0.04440346 0.0034641288 -0.20909882 -0.15227285 0.052689638
0.07138155 0.035370447 0.01621159 -0.11414662 0.11341433 0.040031787 0.2767061 0.005552226
0.14725566 -0.0263745 0.007914277 -0.040688314 -0.108171344 0.07413169 -0.020859417 0.27178013
-0.13497725 0.24552526 -0.23331234 0.08061987 0.021806328 0.094862275 0.025919832 0.08356348
-0.07330206 -0.08645592 -0.18420029 -0.09496857 0.056143984 0.06605834 -0.083939694 -0.07957663
-0.05676096 0.06604551 -0.050855655 0.01734286 0.034075983 -0.025316823 -0.19428807 0.23128651
0.13068458 -0.11003657 0.1261856 -0.13578159 0.15413679 0.036002535 0.078104995 0.02178325
-0.12976214 0.08394554 0.14481297 0.114434734 0.17831875 0.10178846 0.0012662563 -0.16006933
0.0032919866 -0.13496563 -0.088232644 -0.17896974 0.08576436 0.17508075 -0.10854278 0.1708307
-0.045628335 -0.17235716 0.023673082 -0.032349948 0.06625693 -0.053448517 -0.19779329 -0.054910015
-0.14538926 0.17861477 -0.18402617 0.11730409 0.061377894 -0.10145535 0.10136043 -0.18253787
-0.16469304 0.020401282 -0.08480787 -0.13696714 0.005214548 -0.16254564 0.09903918 0.14422807
0.10718076 0.016778909 -0.10392065 0.16736627 -0.019818852 -0.14562245 0.0540621 -0.19505152
0.077127226 -0.123106405 0.014135313 -0.025128953 -0.22093548 0.040383022 0.15263462 0.1199392
0.108435385 -0.18274362 -0.069739036 -0.11188159 -0.08508286 0.02540832 0.11735826 0.16468671
-0.034314334 0.18584995 -0.04922207 -0.13939865 0.12833832 -0.13177022 -0.20729358 -0.1729355
0.16238682 0.0070054727 0.012895945 -0.09943664 -0.21828741 0.16203076 -0.05486922 0.10915507
0.07793822 -0.03286108 0.04542368 -0.08113394 0.047670938 -0.16511016 -0.008079602 0.09039525
-0.07627975 0.20012735 -0.14806592 -0.18266277 0.12305954 -0.07982193 -0.055752944 -0.1980969
-0.20440644 0.0005800605 0.021697411 0.06402924 0.14609985 -0.1561487 -0.040295113 0.13879666
0.13158567 -0.08067208 -0.04858578 0.06758048 0.13851736 0.0754661 0.03937345 -0.010651593
0.070530675 0.015576666 0.01777976 0.083781905 -0.14428025 -0.027385097 0.16973943 -0.08559705
-0.017367726 -0.18935505 -0.05138075 -0.042141423 -0.015111414 -0.08325432 -0.15505642 -0.12926628
-0.060098697 -0.028164934 0.037280798 0.0073949634 0.13638014 0.12905994 0.13208832 0.15016772
