logs/weight_colliion_obj_obs = 0.4/model/model_1560.pth (torch, 427625 bytes, 19 tensors)

_policy.0.weight f4 [128, 22]
-0.37512007 -0.052010424 0.1823566 0.09282177 -0.35840777 -0.21732093 0.17464375 -0.02649883
0.4445299 0.35485962 -0.22827679 0.004511697 0.26472658 0.4776982 -0.07459062 -0.12607653
-0.081018634 0.073882475 0.034003522 0.12799552 -0.1337517 -0.58899665 -0.40893224 -0.29913196
0.032067508 1.0781451 -0.05452912 0.015129489 0.26875556 0.07035287 -0.91788197 0.11987867
0.14347972 0.24067049 0.3296463 0.32968333 0.20332378 -0.05232509 -0.041761827 -0.18660438
-0.20780121 0.10921593 0.023557797 -0.027423073 -0.6018785 -0.055546526 0.279065 0.02090181
-0.28118283 0.10416075 0.008745302 0.1957401 1.264021 -0.53388137 0.29410416 -0.0059951395
0.4030468 0.45106748 0.079495646 0.15461041 -0.15652141 0.11453628 0.0007304421 -0.039490018
-0.09220597 -0.11106999 0.084793426 -0.5652278 0.080976054 0.5604732 -0.045618962 -0.7083567
0.17296316 0.4012125 0.12685819 0.14117956 -0.035076935 -0.21095107 -0.33150542 0.6481044
-0.23082148 -0.13762785 -0.21475638 0.004132739 -0.2100537 0.293086 0.14368643 0.10098322
1.1178384 -0.51681966 -0.062732436 0.2187296 0.7732942 -0.65930426 0.099523164 -0.58805025
-0.7315548 0.54995114 0.1284948 -0.1599929 -0.1161616 -0.16522962 0.0050263973 0.17718256
-0.011443922 0.00560217 0.025853528 -0.12417993 0.016659189 -0.03072628 -0.7159696 0.8162263
0.5010888 -0.5957715 -0.27531338 0.74299663 0.20182174 0.25381398 -0.035895944 -1.1980337
-0.31055403 0.0069127646 -0.179024 0.02064294 0.060290303 -0.033074856 0.16316397 0.04331087
-0.046941504 -0.10203886 -0.07425947 0.08310451 -0.10087753 0.17214124 -0.27289012 0.2904582
0.39614218 -0.06037765 -0.55071723 0.09378842 0.5941934 -0.5969083 0.2363065 -0.057858244
-0.94435865 0.13881192 -0.041699994 -0.01683886 -0.08184858 -0.14059088 0.37190345 -0.18627523
0.16247101 -0.121576495 -0.25174424 -0.12170202 0.041365363 0.98338455 0.35948142 0.32164037
-0.254743 -0.11082336 -0.83753556 0.91401064 -0.07491891 -0.44453713 0.037381064 0.07752996
-0.15610294 0.04395875 -0.11732563 -0.23495807 -0.016756583 0.05523087 -0.010511905 0.23898366
0.18551156 -0.46430397 -0.10879328 0.13656467 0.47669244 -0.0839265 -0.18748057 -0.0065718694
2.1143188 1.2105255 -0.013324811 -0.11986879 0.19079103 0.011190116 0.14064328 -0.1544922
0.17086288 -0.07660683 -0.0621467 -0.010935186 -0.06651837 0.103785016 0.34041363 0.7599879
-0.45956138 -0.7925738 -0.25398707 0.50409174 -0.50380534 -0.6685012 -0.6117908 0.3123263
0.03849626 0.4637268 0.35149178 -0.15364935 0.070166714 0.04256685 0.1226342 -0.15676105
-0.013051931 0.0014262561 -0.12541474 -0.11969596 -0.7956078 -0.3456045 0.17892297 -0.11123454
-0.7187081 -0.3601717 -0.069061644 0.10598463 1.5617543 0.5567012 0.24926463 -0.24490832
-0.015236565 0.058535237 -0.019889003 0.11920195 0.14914702 0.014072169 -0.11742624 -0.021762729
-0.0976655 -0.06833649 0.02792756 0.29663387 -0.8096948 -0.3483591 -0.1742154 -0.08902988
-0.05085868 -0.50692415 -0.35024923 -0.14531636 -0.061799657 -0.06939465 -0.42922118 -0.35830373
00000000: bd0f c0be e208 55bd b0bb 3a3e 5719 be3d
00000010: 3981 b7be 6189 5ebe d0d5 323e 1314 d9bc
00000020: 6c99 e33e 29b0 b53e 64c1 69be dcd6 933b
00000030: 3e8a 873e dc94 f43e f8c2 98bd 351a 01be
00000040: 19ed a5bd b24f 973d 4747 0b3d 4211 033e
00000050: 35f6 08be 7cc8 16bf 915f d1be d327 99be
00000060: 3859 033d a900 8a3f ed59 5fbd ade1 773c
00000070: 549a 893e 2a15 903d 50fa 6abf f382 f53d
00000080: 59ec 123e 5372 763e 66c7 a83e 41cc a83e
00000090: 1c34 503e d552 56bd 730e 2bbd 3815 3fbe
000000a0: d7c9 54be 9aac df3d 48fc c03c 5aa6 e0bc
000000b0: b614 1abf c184 63bd 9ce1 8e3e 463a ab3c
000000c0: 32f7 8fbe 3b52 d53d 7548 0f3c 1870 483e
000000d0: 71cb a13f 73ac 08bf d294 963e e072 c4bb
000000e0: 265c ce3e 51f2 e63e 9dce a23d 3152 1e3e
000000f0: 2647 20be ff91 ea3d 247b 3f3a 49c0 21bd
00000100: 7cd6 bcbd aa78 e3bd 2da8 ad3d c5b2 10bf
00000110: c6d6 a53d 2c7b 0f3f f3da 3abd dd56 35bf
00000120: 411d 313e ba6b cd3e 1de7 013e 6091 103e
00000130: d5ac 0fbd 8f03 58be 14bb a9be 2cea 253f
00000140: 775c 6cbe 51ee 0cbe 19e9 5bbe ed6b 873b
00000150: 5118 57be 5e0f 963e 8922 133e 4ad0 ce3d
00000160: 5415 8f3f 4b4e 04bf dd79 80bd a7fa 5f3e
00000170: 9cf6 453f 2ac8 28bf cdd2 cb3d 768a 16bf
00000180: 2d47 3bbf 99c9 0c3f 2494 033e 2ed5 23be
00000190: 22e6 edbd f431 29be 7ab4 a43b 586f 353e
000001a0: 4a7f 3bbc 6892 b73b c7ca d33c 0c52 febd
000001b0: da78 883c aeb5 fbbc c949 37bf 35f4 503f
000001c0: 5b47 003f 7b84 18bf e0f5 8cbe 0735 3e3f
000001d0: 5caa 4e3e e8f3 813e a007 13bd 2b59 99bf
000001e0: f000 9fbe 7984 e23b 1152 37be 621b a93c
000001f0: f7f2 763d 8079 07bd 7514 273e bd66 313d
00000200: bc45 40bd c0f9 d0bd 5915 98bd b332 aa3d
00000210: e198 cebd cb45 303e 41b8 8bbe f0b6 943e
00000220: 26d3 ca3e 8e4e 77bd cefb 0cbf 2514 c03d
00000230: 0f1d 183f fbce 18bf 55fa 713e c4fc 6cbd
00000240: 7dc1 71bf b624 0e3e 9dcd 2abd a6f1 89bc
00000250: 3aa0 a7bd 0ef7 0fbe 216a be3e efbe 3ebe
00000260: cd5e 263e 19fd f8bd 9fe4 80be e93e f9bd
00000270: ba6e 293d 17bf 7b3f f30d b83e 0cae a43e
00000280: ad6d 82be 5cf7 e2bd bb68 56bf 9afc 693f
00000290: 166f 99bd 5f9a e3be e31c 193d 07c8 9e3d
000002a0: 73d9 1fbe 170e 343d 6b48 f0bd d998 70be
000002b0: 1a45 89bc c439 623d 203a 2cbc 22b8 743e
000002c0: bef6 3d3e 40b9 edbe 03cf debd 9cd7 0b3e
000002d0: 0811 f43e a8e1 abbd e8fa 3fbe d658 d7bb
000002e0: 0051 0740 80f2 9a3f 4f50 5abc c57d f5bd
000002f0: b95e 433e c056 373c cb04 103e 3433 1ebe
00000300: aef6 2e3e 0be4 9cbd 8a8d 7ebd 7f29 33bc
00000310: c83a 88bd 3d8d d43d b24a ae3e 918e 423f
00000320: a14b ebbe 1ee6 4abf 980a 82be 280c 013f
00000330: 63f9 00bf e522 2bbf 529e 1cbf 3ce9 9f3e
00000340: 41ae 1d3d 996d ed3e bbf6 b33e 4156 1dbe
00000350: 91b3 8f3d 945a 2e3d a427 fb3d f885 20be
00000360: c4d7 55bc 37f1 ba3a b96c 00be 2823 f5bd
00000370: f4ac 4bbf 13f3 b0be 9537 373e efce e3bd
00000380: 41fd 37bf 6d68 b8be 3170 8dbd 780e d93d
00000390: 91e7 c73f f883 0e3f 3a3f 7f3e 3fc9 7abe
000003a0: c9a2 79bc a5c2 6f3d 43ee a2bc 2720 f43d
000003b0: ffb9 183e f48e 663c 2b7d f0bd c047 b2bc
000003c0: da04 c8bd 00f4 8bbd 57c8 e43c 65e0 973e
000003d0: 2948 4fbf 205c b2be 8665 32be 4c55 b6bd
000003e0: 3151 50bd c8c5 01bf de53 b3be d0cd 14be
000003f0: a321 7dbd c81e 8ebd e1c2 dbbe 9673 b7be

_policy.0.bias f4 [128]
-0.09935868 -0.02734039 -0.19194892 -0.18910657 -0.028394116 -0.12891188 0.038248666 -0.006820158
-0.040646844 0.17712161 0.16449207 0.17833783 -0.16653463 -0.23988815 0.009361543 -0.10477953
-0.008416175 0.040279064 -0.18222553 0.03604669 0.08296513 -0.03472384 -0.272847 0.24187963
-0.07788174 -0.06675553 -0.02784239 -0.1447048 0.1021398 -0.21058653 -0.24131568 -0.1653031
0.11150695 -0.09805525 0.089112535 0.0617171 0.20734286 -0.20299198 -0.16740043 0.0067441924
-0.0325905 0.109405555 -0.18594144 -0.07349617 0.0011767624 -0.12986182 0.19188161 0.10148378
-0.12300963 -0.19324934 -0.3228221 -0.1528898 -0.2792834 0.22238126 -0.2801479 -0.09938527
-0.06964016 0.08709997 0.3604983 -0.05464519 -0.041635428 -0.019356009 -0.29428783 -0.071754694
-0.13082787 -0.08736643 0.05179328 -0.08482749 -0.101176485 -0.17413843 -0.08530871 -0.07069524
-0.17076379 0.13975503 -0.1655625 0.11729957 -0.11841186 -0.12491545 -0.19175678 -0.13064769
-0.0010585114 -0.0058568926 0.018096766 -0.24346927 -0.10955599 -0.013537801 -0.1700409 -0.05599568
-0.11670674 -0.25947684 0.080680005 -0.21703622 0.10216416 -0.27397826 -0.22856939 0.03535349
-0.30469045 -0.15198705 -0.09538931 -0.17430797 -0.28942457 -0.15797323 -0.14034799 -0.06663722
0.019634822 0.010587987 -0.20485468 -0.23327538 -0.014239128 0.16366492 0.14099382 -0.22420433
-0.2038234 -0.116373725 -0.2718689 0.14032358 0.01603578 0.034719184 -0.07576896 0.18868798
0.08152497 -0.0930904 0.05185752 -0.203683 0.005736991 -0.2181666 -0.22401829 -0.26766527
00000000: 907c cbbd f4f8 dfbc 428e 44be 27a5 41be
00000010: c79a e8bc 7a01 04be a2aa 1c3d a27b dfbb
00000020: 4e7d 26bd 5e5f 353e 9c70 283e 319e 363e
00000030: 0e88 2abe 3da5 75be 2861 193c a696 d6bd
00000040: ffe3 09bc a9fb 243d 5499 3abe b2a5 133d
00000050: 9fe9 a93d 963a 0ebd 9ab2 8bbe 4baf 773e
00000060: 7680 9fbd 20b7 88bd b915 e4bc 7f2d 14be
00000070: ac2e d13d ffa3 57be 751b 77be 3745 29be
00000080: c15d e43d 31d1 c8bd a280 b63d 12cb 7c3d
00000090: b051 543e 21dd 4fbe 056b 2bbe 63fe dc3b
000000a0: 9e7d 05bd 0510 e03d 6f67 3ebe 2985 96bd
000000b0: 983d 9a3a 7ffa 04be 9d7c 443e bad6 cf3d
000000c0: 79ec fbbd 28e3 45be f048 a5be 258f 1cbe
000000d0: 3cfe 8ebe eab7 633e 8c6f 8fbe 818a cbbd
000000e0: 809f 8ebd 7861 b23d 3c93 b83e a2d3 5fbd
000000f0: e989 2abd 7e90 9ebc e5ac 96be 20f4 92bd
00000100: bef7 05be 2ced b2bd 3125 543d 09ba adbd
00000110: 9e35 cfbd 5851 32be 55b6 aebd aac8 90bd
00000120: b4dc 2ebe f11b 0f3e 3789 29be c23a f03d
00000130: eb81 f2bd acd3 ffbd e45b 44be 82c8 05be
00000140: c0bd 8aba 2deb bfbb ab3f 943c 0250 79be
00000150: e45e e0bd a7cd 5dbc 341f 2ebe ba5b 65bd
00000160: f103 efbd 26da 84be 8f3b a53d be3e 5ebe
00000170: 713b d13d e146 8cbe 180e 6abe d2ce 103d
00000180: 6300 9cbe 7ea2 1bbe 785b c3bd ca7d 32be
00000190: 752f 94be bcc3 21be 62b7 0fbe 1879 88bd
000001a0: 35d9 a03c 3c79 2d3c 6dc5 51be bedf 6ebe
000001b0: 3b4b 69bc c797 273e af60 103e d295 65be
000001c0: 15b7 50be 5955 eebd 6732 8bbe fcb0 0f3e
000001d0: 785d 833c b435 0e3d c22c 9bbd 6c37 413e
000001e0: 90f6 a63d 2ea6 bebd 8d68 543d 4792 50be
000001f0: 5efd bb3b 1167 5fbe 0d65 65be 6c0b 89be

_policy.2.weight f4 [128, 128]
0.182152 -0.03318526 -0.1610084 -0.26590735 0.3202311 -0.56754524 0.0131944325 0.2224005
0.06368738 -0.5552933 0.0013384579 -0.21425097 0.021555152 -0.10882525 -0.3418307 -0.07150142
0.053022344 0.077157184 -0.08620823 0.032333516 0.09245851 -0.096083745 0.028944213 -0.3529925
-0.29662284 -0.015422534 -0.23181055 0.25190032 0.27746865 0.10970981 0.07973697 -0.39341217
0.12367148 0.023128135 0.24193972 0.0027362716 0.06894805 -0.35012874 0.12749928 0.062441632
-0.43078053 -0.19087774 0.03335383 -0.0016798584 0.16256239 -0.22330199 0.08948293 -0.07845225
-0.0855362 -0.6588624 -0.31037822 0.003257196 0.45562676 0.37292743 -0.3221093 -0.22659603
0.2973663 0.19164872 -0.13862027 0.15038483 0.26061374 -0.02434099 -0.29749894 0.09631182
0.024932591 0.2538887 0.14205317 -0.025323244 0.048473842 -0.23869248 0.014386401 -0.1573992
-0.15514925 -0.03167648 -0.12856147 -0.2948031 -0.14264679 -0.030344158 -0.31840968 0.21008003
0.2431568 0.101395376 0.030671315 -0.50711954 -0.43999407 -0.11442814 0.0065706437 -0.06083021
-0.046876162 0.05567358 0.15415314 0.3029725 0.029513165 -0.5711392 0.0604791 0.03456925
-0.036313247 0.093334004 -0.08457983 0.14143404 -0.27437976 0.028385963 0.0723749 0.06528484
-0.15619248 -0.20188008 0.015481914 -0.117240906 0.09503729 -0.28102493 -0.56948686 -0.103388704
-0.052639436 0.19944715 -0.19784668 0.11434234 0.033381447 0.02221991 -0.16124626 -0.14292397
-0.010072865 0.047048014 0.05091338 -0.5629318 0.03384781 -0.49025628 0.014327989 0.13841139
-0.06140583 -0.05980903 -0.055664554 -0.046126503 -0.002323213 -0.04848445 0.021407485 0.042645685
-0.009511071 -0.00938073 -0.06437628 -0.11796675 -0.0067549543 -0.072716266 -0.108683795 -0.061715696
-0.08765347 -0.12001572 -0.081710584 0.042888436 -0.12541732 0.0060305055 -0.084956445 0.022937136
-0.032752458 -0.0379163 -0.02708536 -0.077526234 -0.097748004 -0.042773515 -0.0073657115 -0.07385829
-0.07395296 -0.05856099 -0.0443032 -0.054178447 0.004638344 -0.018967777 -0.070944615 -0.07303782
0.07849728 0.0014796738 0.0023514323 0.009558812 0.059018426 -0.10646747 -0.06753407 -0.11582167
-0.10427453 -0.06941916 -0.028747676 -0.11442327 -0.0140749365 0.0025330912 -0.11415532 -0.009209947
-0.015577358 -0.077720486 0.049331326 -0.10940504 0.04657864 0.010620561 -0.05484953 -0.03494683
0.04443075 0.0120789455 -0.08237526 -0.035023365 -0.024249867 0.04829905 -0.07754459 -0.034180176
0.039344218 -0.07958229 0.0021670721 -0.07741135 -0.07725439 -0.12314217 -0.027355667 -0.03286951
-0.044622682 -0.005033838 -0.000297699 -0.063339554 0.035877697 0.034933403 -0.0110730985 -0.03440077
0.0074495864 0.026683904 -0.023700574 -0.106420316 0.007291824 -0.038013425 0.04644826 0.021113936
0.015683208 -0.103717856 -0.0916417 -0.12695503 -0.11701237 -0.03601365 0.04195877 -0.01304517
-0.09667434 0.008419899 -0.09880147 0.036375757 0.050793897 -0.02670002 0.0063454956 -0.02800785
-0.03850939 0.0435305 0.016264068 0.030139197 -0.009700287 -0.07508193 0.025757436 -0.13164258
0.04969754 -0.019489182 -0.10772815 -0.09995276 -0.047450107 0.048905816 0.01869517 -0.05947017
00000000: 0e86 3a3e 44ed 07bd 63df 24be 0225 88be
00000010: 55f5 a33e a54a 11bf 762d 583c f5bc 633e
00000020: 876e 823d b427 0ebf 326f af3a 9b64 5bbe
00000030: 6e94 b03c c6df debd 6f04 afbe 566f 92bd
00000040: f52d 593d 9604 9e3d f18d b0bd 2670 043d
00000050: e35a bd3d 8ec7 c4bd 6a1c ed3c 6fbb b4be
00000060: f3de 97be ccae 7cbc bf5f 6dbe 14f9 803e
00000070: 5f10 8e3e 89af e03d 234d a33d 526d c9be
00000080: 7947 fd3d 3777 bd3c 0cbf 773e 0553 333b
00000090: a334 8d3d 1344 b3be 2c8f 023e ccc2 7f3d
000000a0: 448f dcbe 7475 43be 079e 083d b22e dcba
000000b0: c176 263e 47a9 64be d442 b73d 93ab a0bd
000000c0: 9a2d afbd 35ab 28bf e5e9 9ebe ae76 553b
000000d0: e947 e93e 58f0 be3e 83eb a4be ca08 68be
000000e0: 6540 983e 903f 443e 79f2 0dbe 7bfe 193e
000000f0: 2a6f 853e c266 c7bc c851 98be 223f c53d
00000100: 6f3f cc3c b3fd 813e 6376 113e b172 cfbc
00000110: 828c 463d cd6b 74be f0b4 6b3c 422d 21be
00000120: 72df 1ebe 32bf 01bd 9ea5 03be 6ff0 96be
00000130: 0012 12be 5094 f8bc 9806 a3be 381f 573e
00000140: 19fe 783e 61a8 cf3d 6942 fb3c 96d2 01bf
00000150: e746 e1be 4d59 eabd 8e4e d73b 1929 79bd
00000160: 3801 40bd fb09 643d 52da 1d3e 361f 9b3e
00000170: 98c5 f13c 2e36 12bf efb8 773d 7c98 0d3d
00000180: 33bd 14bd e625 bf3d 3138 adbd 16d4 103e
00000190: 817b 8cbe ae89 e83c 4b39 943d 0fb4 853d
000001a0: ecf0 1fbe a7b9 4ebe dba7 7d3c 001c f0bd
000001b0: e9a2 c23d 80e2 8fbe e4c9 11bf 75bd d3bd
000001c0: 739c 57bd e03b 4c3e 5298 4abe 512c ea3d
000001d0: fcba 083d 8706 b63c bd1d 25be a95a 12be
000001e0: a808 25bc 6bb5 403d 8c8a 503d 4c1c 10bf
000001f0: 00a4 0a3d df02 fbbe f1bf 6a3c b7bb 0d3e
00000200: ae84 7bbd 50fa 74bd 8400 64bd 25ef 3cbd
00000210: 0c41 18bb a197 46bd c05e af3c 3ead 2e3d
00000220: 53d4 1bbc a2b1 19bc b6d7 83bd 8d98 f1bd
00000230: aa58 ddbb 44ec 94bd 9c95 debd 99c9 7cbd
00000240: aa83 b3bd cdca f5bd e157 a7bd c9ab 2f3d
00000250: 666d 00be 8c9b c53b a5fd adbd a9e6 bb3c
00000260: 7127 06bd 1f4e 1bbd 1ee2 ddbc 13c6 9ebd
00000270: 1b30 c8bd 4833 2fbd 115c f1bb 0443 97bd
00000280: a674 97bd a6dd 6fbd 4677 35bd 38ea 5dbd
00000290: 40fd 973b 5062 9bbc 694b 91bd da94 95bd
000002a0: 2fc3 a03d 9df1 c13a 7d1a 1a3b 909c 1c3c
000002b0: 4ebd 713d 9e0b dabd 4d4f 8abd e933 edbd
000002c0: e38d d5bd a22b 8ebd 3f80 ebbc bf56 eabd
000002d0: 909a 66bc 3802 263b 44ca e9bd 51e5 16bc
000002e0: 2d38 7fbc eb2b 9fbd a50f 4a3d c00f e0bd
000002f0: 3ec9 3e3d dd01 2e3c e7a9 60bd 6824 0fbd
00000300: 05fd 353d c5e6 453c 5cb4 a8bd a974 0fbd
00000310: a8a7 c6bc 3ad5 453d b3cf 9ebd 8300 0cbd
00000320: 6727 213d 0afc a2bd 7005 0e3b d889 9ebd
00000330: 8d37 9ebd f631 fcbd fe18 e0bc 2ea2 06bd
00000340: 46c6 36bd e5f2 a4bb 7c14 9cb9 2bb8 81bd
00000350: 7ef4 123d 5416 0f3d f16b 35bc d2e7 0cbd
00000360: a91b f43b 3498 da3c b527 c2bc e5f2 d9bd
00000370: 41f0 ee3b f7b3 1bbd 8840 3e3d 22f7 ac3c
00000380: 127a 803c 076a d4bd a5ae bbbd 8000 02be
00000390: 2ea4 efbd 0d83 13bd f6dc 2b3d 69bb 55bc
000003a0: 32fd c5bd 9ef3 093c 6d58 cabd bffe 143d
000003b0: 430d 503d 00ba dabc e0ed cf3b b870 e5bc
000003c0: 06bc 1dbd 0a4d 323d 393c 853c 7ae6 f63c
000003d0: f4ed 1ebc 8ec4 99bd 4201 d33c 50cd 06be
000003e0: a68f 4b3d c7a7 9fbc 94a0 dcbd 08b4 ccbd
000003f0: 0b5b 42bd 7751 483d 9d26 993c fe96 73bd

_policy.2.bias f4 [128]
-0.15733871 -0.16791528 -0.06871616 0.03413599 -0.054801885 0.1226862 0.075449295 0.09351755
-0.05849409 0.13357578 -0.06788465 0.055605657 0.061226446 0.08600722 0.08522445 0.06005975
0.077587284 0.14807117 0.17127529 0.0039410163 -0.0799118 -0.07924925 0.03963408 0.056803033
-0.0589274 -0.0341973 0.10170661 -0.12804368 -0.16488579 0.10043051 -0.106692955 -0.05646681
-0.08297607 -0.013107237 -0.055603992 -0.00683231 -0.06833546 -0.021391472 0.007499482 -0.17052776
0.09847776 -0.16261116 0.063654125 -0.07645153 -0.06408455 0.07890188 -0.044597432 -0.114405476
0.03532133 -0.110869974 -0.063489035 0.124373876 0.039781112 -0.09325069 0.041090257 0.010033526
-0.018265383 -0.14277834 0.009496865 -0.1563445 -0.0113319075 0.08012873 -0.13396814 -0.014025574
-0.08341561 -0.07072669 0.07112234 0.02754859 -0.10904609 -0.16386455 -0.05014873 -0.18904822
-0.10833589 -0.15233037 0.040367924 -0.03767304 0.13998148 -0.12087006 0.019976227 -0.00082356966
-0.008201433 -0.046284277 0.03511878 0.046553954 -0.0237426 0.14040285 0.027496487 -0.098886065
-0.102040455 0.09601442 -0.17160207 0.03535887 -0.029985221 0.06980379 -0.20552565 -0.1319618
0.022438932 0.033514913 0.010369335 -0.086924724 -0.15616305 -0.07475502 0.024864063 0.122130424
-0.03683309 0.08836127 -0.16276495 -0.002394238 -0.18633209 -0.1346099 -0.094828114 0.07844018
0.075982615 0.15989321 -0.09582649 0.049912184 -0.07678279 0.043538477 -0.115146585 0.05242081
-0.08680655 -0.12701915 -0.032615684 -0.09708848 -0.13242422 -0.02484495 -0.05749188 0.10029433
00000000: 661d 21be fcf1 2bbe 0fbb 8cbd 2ed2 0b3d
00000010: f177 60bd e742 fb3d 2985 9a3d 2186 bf3d
00000020: 8097 6fbd 17c8 083e 1b07 8bbd c2c2 633d
00000030: 95c8 7a3d 8e24 b03d 288a ae3d 3601 763d
00000040: 15e6 9e3d f89f 173e ca62 2f3e a423 813b
00000050: cca8 a3bd 6e4d a2bd 5857 223d 4caa 683d
00000060: db5d 71bd 7812 0cbd 8e4b d03d e21d 03be
00000070: d2d7 28be 83ae cd3d d681 dabd be49 67bd
00000080: 5cef a9bd bdbf 56bc 03c1 63bd 92e1 dfbb
00000090: 76f3 8bbd 2b3d afbc 37be f53b d49e 2ebe
000000a0: b5ae c93d 8a83 26be 185d 823d 9f92 9cbd
000000b0: c33e 83bd 4f97 a13d ccab 36bd 6b4d eabd
000000c0: 19ad 103d cc0f e3bd 8a06 82bd bbb7 fe3d
000000d0: 85f1 223d 38fa bebd 424e 283d a963 243c
000000e0: 49a1 95bc 7c34 12be bd98 1b3c c618 20be
000000f0: 77a9 39bc 881a a43d f22e 09be 85cb 65bc
00000100: ced5 aabd 28d9 90bd 97a8 913d 95ad e13c
00000110: 8e53 dfbd 1ccc 27be c168 4dbd db95 41be
00000120: 35df ddbd 7efc 1bbe d658 253d 0c4f 1abd
00000130: 4e57 0f3e b98a f7bd 2fa5 a33c d3e4 57ba
00000140: 4e5f 06bc 9594 3dbd b6d8 0f3d 5caf 3e3d
00000150: d77f c2bc c4c5 0f3e 5040 e13c c784 cabd
00000160: 96fa d0bd 35a3 c43d 74b8 2fbe 76d4 103d
00000170: 91a3 f5bc 4af5 8e3d 5175 52be fe20 07be
00000180: dad1 b73c ef46 093d 25e4 293c 9705 b2bd
00000190: 35e9 1fbe 2919 99bd b8af cb3c 841f fa3d
000001a0: 4bde 16bd c1f6 b43d dbab 26be a6e8 1cbb
000001b0: d7cd 3ebe 2dd7 09be 3e35 c2bd 3fa5 a03d
000001c0: c69c 9b3d 0cbb 233e ae40 c4bd b870 4c3d
000001d0: 4c40 9dbd 6755 323d f9d1 ebbd 34b7 563d
000001e0: a2c7 b1bd 4f11 02be 0698 05bd 53d6 c6bd
000001f0: 379a 07be a387 cbbc 9b7c 6bbd 1d67 cd3d

_policy.4.weight f4 [128, 128]
-0.050269976 -0.048411682 -0.097368106 -0.03549518 0.06851592 0.063143134 0.24892317 0.286588
-0.029184043 0.15323642 -0.059042074 -0.116935484 -0.19215369 0.29204714 -0.092215545 0.15184128
-0.20712899 0.14803721 -0.33337262 -0.0700803 -0.11507804 -0.2162611 -0.069260135 0.1165618
0.02729144 -0.13421535 -0.021544473 0.012796648 0.058216315 -0.09710123 0.13701436 -0.39888692
-0.3147679 -0.030429982 0.17294648 -0.17619333 0.0062244525 -0.00089558284 -0.10948649 -0.042318374
-0.36163348 -0.022405688 0.023598766 -0.14826147 -0.091180764 0.16190071 -0.021589095 -0.11090334
0.19235282 0.0466005 -0.25476 0.04836265 0.09069094 0.027334195 -0.45305383 0.12644553
0.1660477 -0.034140863 0.13621187 0.1354133 -0.11077463 -0.0154384365 -0.25414065 -0.06752701
0.015324806 -0.46454334 -0.17298496 -0.25822678 -0.025633141 -0.2628603 0.07057271 -0.27679127
0.12102035 -0.07527728 -0.17664073 0.25015575 0.3475343 0.23782337 -0.13812098 -0.34390205
-0.71547717 -0.0055367234 -0.27501208 0.078780286 0.025719965 0.04563319 -0.17587785 -0.512074
0.035931963 -0.06972248 0.34692368 -0.15628505 0.2797717 -0.1592338 -0.34208474 0.045693617
0.2933877 -0.021225305 -0.211661 -0.028639523 -0.48887673 0.33746445 0.18232898 -0.00030142715
-0.048116058 0.4230635 -0.16412336 0.063443266 0.11484754 0.327285 0.066207044 0.028581318
-0.29870373 -0.2580266 0.27327168 -0.05410245 -0.21301048 -0.29625726 0.22441259 -0.057130195
0.12656447 -0.24117503 -0.024064472 -0.6336953 -0.026807543 0.34670123 -0.19679475 0.16403708
-0.08285362 0.057888754 -0.21211758 -0.07271571 0.122332186 0.22048253 0.0671649 -0.3372682
0.020481285 -0.0065531814 0.051417664 -0.031730387 -0.29501262 0.3195154 0.10729024 -0.19620612
-0.12785341 0.21201438 0.22056285 -0.03111699 -0.5611459 0.12163717 -0.053030677 -0.36237332
-0.19603272 0.36815327 0.13627906 0.038004637 -0.011369348 0.0973219 0.16263364 0.09431406
0.029286433 -0.06012039 -0.18515848 -0.12567869 -0.080819435 -0.25420028 -0.011965667 -0.079482056
-0.13319977 -0.29888892 -0.2903508 0.1296747 -0.065013915 -0.12634388 -1.1030836 0.31052634
0.14410321 -0.056829978 -0.009244634 -0.11677092 -0.3396415 0.1774712 -0.22630113 0.49206942
-0.28419545 -0.044029694 -0.13733904 -0.050147742 0.1276342 -0.181058 -0.48540998 -0.095094524
-0.086523645 0.039342698 -0.22670522 0.07014188 0.19512738 0.059929937 -0.0006559635 -0.44250435
-0.053612944 0.030758418 -0.21201383 -0.34796855 0.14237587 -0.12650841 -0.33774894 -0.23755881
0.16782445 0.2616726 -0.68991244 0.04850889 -0.09312746 -0.13356675 0.26504084 -0.2256159
-0.92621154 0.076386146 0.116875656 -0.052082714 0.0025848593 -0.5177115 -0.3729114 -0.08624096
0.49960342 -0.6575038 0.37490937 0.044993773 -0.5803052 -0.17453213 -0.027143491 0.04696505
-0.005891544 -0.006696119 -0.66868854 0.070336066 0.01927626 0.10333769 -0.06717408 -0.30321825
0.09565995 -0.13866931 -0.010413013 -0.060935907 -0.27827352 0.06868309 -0.073141955 0.017370597
-0.31534645 -0.04229362 -0.11889592 -0.080856524 -0.025772028 0.10414363 -0.062184118 0.23293869
00000000: e4e7 4dbd 544b 46bd ee68 c7bd 6563 11bd
00000010: 1352 8c3d 3051 813d b7e5 7e3e aabb 923e
00000020: 6013 efbc 02ea 1c3e 1ad6 71bd df7b efbd
00000030: f0c3 44be 3487 953e 81db bcbd 487c 1b3e
00000040: 9f19 54be 1197 173e d1af aabe 4386 8fbd
00000050: 09ae ebbd 8d73 5dbe 42d8 8dbd f4b7 ee3d
00000060: 4c92 df3c c06f 09be 097e b0bc 08a9 513c
00000070: 3b74 6e3d 02dd c6bd 7e4d 0c3e e83a ccbe
00000080: 4229 a1be 4c48 f9bc e218 313e 066c 34be
00000090: 7ef6 cb3b 8cc5 6aba 743a e0bd 0856 2dbd
000000a0: 0628 b9be 228c b7bc 3352 c13c dbd1 17be
000000b0: fbbc babd 4dc9 253e 9ddb b0bc 4a21 e3bd
000000c0: 23f8 443e 2ae0 3e3d e76f 82be ea17 463d
000000d0: 2cbc b93d f6eb df3c acf6 e7be f07a 013e
000000e0: 6908 2a3e 4ad7 0bbd 207b 0b3e c9a9 0a3e
000000f0: cfdd e2bd 7ff1 7cbc b91e 82be 9a4b 8abd
00000100: e514 7b3c a0d8 edbe f822 31be 4d36 84be
00000110: 98fc d1bc a095 86be 6d88 903d 96b7 8dbe
00000120: 84d9 f73d f92a 9abd 4fe1 34be 6a14 803e
00000130: 04f0 b13e f887 733e 966f 0dbe ee13 b0be
00000140: 8329 37bf 676d b5bb 62ce 8cbe 8f57 a13d
00000150: adb2 d23c dee9 3a3d 5319 34be 4817 03bf
00000160: 652d 133d a9ca 8ebd fb9f b13e 3009 20be
00000170: 3c3e 8f3e 2f0e 23be bb25 afbe 3b29 3b3d
00000180: ea36 963e b1e0 adbc a9bd 58be 6f9d eabc
00000190: 0d4e fabe 24c8 ac3e 73b4 3a3e de08 9eb9
000001a0: 5815 45bd c79b d83e f40f 28be 8bee 813d
000001b0: 3035 eb3d e691 a73e 8f97 873d 5e23 ea3c
000001c0: b2ef 98be 101c 84be 44ea 8b3e 889a 5dbd
000001d0: 6b1f 5abe 08af 97be 6acc 653e 5a01 6abd
000001e0: 1e9a 013e 96f6 76be db22 c5bc db39 22bf
000001f0: 7e9b dbbc d382 b13e 9084 49be 56f9 273e
00000200: 29af a9bd c21c 6d3d 5a35 59be f9eb 94bd
00000210: 4c89 fa3d 2cc6 613e c08d 893d 6bae acbe
00000220: 5ec8 a73c 12bc d6bb 549b 523d b9f7 01bd
00000230: e50b 97be 8697 a33e fcba db3d 42ea 48be
00000240: 01ec 02be 4c1a 593e 3adb 613e 0fe9 febc
00000250: 42a7 0fbf e91c f93d b236 59bd ff88 b9be
00000260: cdbc 48be 967e bc3e bd8c 0b3e c0aa 1b3d
00000270: 8046 3abc b450 c73d 6f89 263e bb27 c13d
00000280: 1aea ef3c cc40 76bd 2f9a 3dbe eab1 00be
00000290: a984 a5bd 8a26 82be a50b 44bc 7dc7 a2bd
000002a0: 8565 08be f807 99be dca8 94be 72c9 043e
000002b0: 0426 85bd 4a60 01be d831 8dbf 4ffd 9e3e
000002c0: cb8f 133e 8dc6 68bd ce76 17bc 9825 efbd
000002d0: 7ee5 adbe 03bb 353e 7cbb 67be 86f0 fb3e
000002e0: 1182 91be 7b58 34bd 9ba2 0cbe b867 4dbd
000002f0: 8ab2 023e 4567 39be a887 f8be ebc0 c2bd
00000300: 4f33 b1bd cf25 213d 6a25 68be 8ca6 8f3d
00000310: 79cf 473e 1879 753d f7f4 2bba ee8f e2be
00000320: 3f99 5bbd 14f9 fb3c 271a 59be ef28 b2be
00000330: fbca 113e 6c8b 01be 6eed acbe 9e42 73be
00000340: 2cda 2b3e f3f9 853e 1a9e 30bf 42b1 463d
00000350: 9cb9 bebd b9c5 08be 6fb3 873e db07 67be
00000360: 331c 6dbf 5770 9c3d 815c ef3d af54 55bd
00000370: be66 293b be88 04bf 3eee bebe 1a9f b0bd
00000380: 05cc ff3e 2b52 28bf 1ff4 bf3e 644b 383d
00000390: e28e 14bf 8db8 32be 075c debc 6d5e 403d
000003a0: da0d c1bb 1e6b dbbb 2c2f 2bbf 5b0c 903d
000003b0: 3fe9 9d3c b6a2 d33d 9092 89bd 6c3f 9bbe
000003c0: 5de9 c33d 54ff 0dbe 589b 2abc ee97 79bd
000003d0: de79 8ebe b8a9 8c3d 73cb 95bd c84c 8e3c
000003e0: 1775 a1be 133c 2dbd b47f f3bd 1b98 a5bd
000003f0: dc1f d3bc 4149 d53d c6b4 7ebd 7b87 6e3e

_policy.4.bias f4 [128]
0.03684042 0.014203788 0.13439575 -0.14625925 -0.07412663 -0.17726618 -0.11841867 -0.19752222
-0.19148336 -0.08939292 0.056312855 0.21737243 -0.14192896 -0.10651431 0.08259105 0.12598997
-0.3075388 0.0603832 -0.4619592 -0.25108883 -0.014407418 0.102129154 -0.10679244 -0.08645637
-0.013221902 -0.09980794 -0.21440455 -0.08943484 0.014343186 -0.03284966 -0.23819722 0.07235929
0.03586823 0.20209382 -0.4610937 -0.25792316 0.03702595 -0.38894394 -0.012173952 -0.16444601
0.02366155 -0.012409731 -0.09676609 -0.20015699 0.016732737 -0.16915162 -0.17837492 -0.058772337
0.08424322 0.12032247 -0.10906387 -0.05796719 0.10352283 -0.22976404 0.15031011 -0.047933564
-0.16581996 -0.1367257 -0.17416368 0.018497046 -0.08094981 -0.15587431 -0.20862068 -0.0011652538
0.06776643 -0.04242559 -0.03215468 -0.05420855 -0.18134996 -0.10782616 -0.047488872 -0.07790194
-0.24180748 -0.13160953 -0.03149952 -0.14843789 0.06585985 0.043838806 -0.014855918 0.10704298
-0.18386827 -0.06291472 -0.057553675 -0.12244894 -0.24716325 0.28307813 0.07335997 -0.11188836
-0.22955714 -0.108696625 0.22031538 -0.13405652 -0.00954805 -0.08579128 -0.17004892 -0.01805172
-0.39243266 -0.060004897 -0.00073570444 0.06445372 0.09790739 -0.18306777 -0.20601381 0.11492276
-0.16924824 0.17632268 0.13593015 -0.0058885654 -0.1460496 0.01165465 -0.12736343 0.023772676
-0.2418952 -0.058052167 -0.050867718 0.03964572 0.107428975 -0.33710954 -0.06188488 -0.30840677
-0.05955396 -0.141771 -0.07731808 0.019318957 -0.045838866 -0.2166093 0.030613702 0.05700621
00000000: fbe5 163d 01b7 683c 0a9f 093e fcc4 15be
00000010: b4cf 97bd 4485 35be 7d85 f2bd 4443 4abe
00000020: 3714 44be a313 b7bd 4fa8 663d e196 5e3e
00000030: d355 11be 2d24 dabd 7f25 a93d 8403 013e
00000040: ba75 9dbe 6054 773d eb85 ecbe b78e 80be
00000050: 170d 6cbc 1729 d13d ffb5 dabd 0a10 b1bd
00000060: ada0 58bc 1b68 ccbd de8c 5bbe 9d29 b7bd
00000070: afff 6a3c 5d8d 06bd f9e9 73be 1c31 943d
00000080: 91ea 123d aff1 4e3e 7914 ecbe 810e 84be
00000090: 86a8 173d a923 c7be 4175 47bc 8964 28be
000000a0: ded5 c13c 2f52 4bbc 4d2d c6bd f4f5 4cbe
000000b0: 1813 893c 1536 2dbe eaa7 36be 43bb 70bd
000000c0: b687 ac3d a16b f63d e15c dfbd 016f 6dbd
000000d0: c703 d43d 4447 6bbe e5ea 193e fc55 44bd
000000e0: b5cc 29be d201 0cbe f757 32be 1e87 973c
000000f0: 04c9 a5bd 849d 1fbe a9a0 55be 6ebb 98ba
00000100: 20c9 8a3d 75c6 2dbd a0b4 03bd c909 5ebd
00000110: ceb3 39be f6d3 dcbd b183 42bd 0d8b 9fbd
00000120: 619c 77be a6c4 06be a405 01bd 1a00 18be
00000130: 87e1 863d 5290 333d 3c66 73bc 5a39 db3d
00000140: f747 3cbe 6fd9 80bd 67bd 6bbd 83c6 fabd
00000150: 5d18 7dbe 9eef 903e c03d 963d b925 e5bd
00000160: 0711 6bbe 569c debd 5b9a 613e 1d46 09be
00000170: 6d6f 1cbc 57b3 afbd 4e21 2ebe 33e1 93bc
00000180: efec c8be b2c7 75bd 4adc 40ba 5000 843d
00000190: ab83 c83d 1e76 3bbe 49f5 52be a05c eb3d
000001a0: 694f 2dbe ef8d 343e 4631 0b3e def4 c0bb
000001b0: 078e 15be 25f3 3e3c 8f6b 02be eabe c23c
000001c0: 60b3 77be 1cc8 6dbd ab5a 50bd 8d63 223d
000001d0: b903 dc3d 9f99 acbe 007b 7dbd 7ee7 9dbe
000001e0: daee 73bd 6b2c 11be f158 9ebd ca42 9e3c
000001f0: 89c1 3bbd d4ce 5dbe 96c9 fa3c 587f 693d

_policy.6.weight f4 [128, 128]
-0.35326272 0.05676458 -0.16075416 -0.014488756 -0.025407461 -0.84271955 0.11107097 0.40227747
-0.46589014 -0.087449156 0.31190652 -0.16169833 -0.09743296 0.43238485 -0.30343804 -0.13834961
-0.15007682 -0.10505413 0.21381557 -0.23063412 0.2187615 0.07517921 -0.03554907 -0.07368961
-0.22913758 -0.109775186 -0.5309942 0.079334475 -0.21421656 -0.03301696 0.21403733 0.33679965
0.09032045 0.16829297 0.34230155 0.28175637 0.14420925 -0.15641208 0.2698043 -0.16857289
-0.5227041 -0.03395041 0.11579021 0.27305415 -0.19836555 -0.43841222 -0.21027489 -0.2366443
-0.1860594 0.08274492 -0.048209887 0.021952676 0.19691284 -0.022462316 -0.18885869 -0.56022674
-0.1822662 -0.090262175 -0.10402343 -0.13486291 0.18105061 -0.19701645 -0.015655657 -0.043800708
-0.9485593 0.25144053 -0.0874492 -0.37954804 0.08584684 0.09076696 0.31198835 0.068151064
0.2626067 -0.07774438 -0.21040492 0.22055171 0.45592374 -0.15564772 0.43845493 0.038231604
-0.106477715 -0.12504026 -0.22973448 -0.3963688 -0.05308306 -0.12290116 -0.12622532 -0.025404155
-0.008617024 -0.16647953 0.31020564 -0.084015064 0.1876254 -0.04938673 -0.24676588 -0.551194
-0.011358272 -0.02519071 -0.009653787 -0.74090606 0.03902738 0.049404256 -0.33309633 0.42466554
-0.074763924 -0.03307791 0.1403624 0.25873038 -0.2758394 -0.39413503 -0.03929542 -0.10475599
0.08011431 -0.09985239 -0.096367426 0.26378113 0.11045887 0.18632321 -0.004127572 0.08337815
0.30518916 0.0025600563 0.22754695 -0.3319631 -0.3573655 0.14911778 -0.21432498 -0.035832286
-0.016701302 0.24971633 -0.35110444 0.123601 -0.4244207 -0.037896194 -0.56288 -0.028651437
-0.09446709 -0.056797054 -0.1625026 -0.101279594 -0.3039032 -0.006190815 -0.33905077 -0.53652656
0.067582324 -0.17294785 -0.7052894 -0.009297858 0.054984238 -0.33620703 -0.09804618 0.11921468
-0.10461031 -0.26812217 0.025553973 0.094013475 -0.32932082 -0.3536315 -0.05542192 0.12489835
-0.6010913 0.06335236 0.26464877 0.23102008 -0.04298761 -0.016659789 -0.07790679 0.09360638
0.01616143 -0.20603368 -1.0505874 -0.22789922 0.37668544 -0.3565176 -0.5364755 -0.09727257
-0.4595986 0.0550201 -0.731166 -0.26529694 0.15988368 -0.45747486 -0.12192836 0.2544776
0.0062836506 0.18163136 -0.16985291 -0.031340573 -0.26656753 0.032262944 0.06431165 -0.02484409
-0.025752602 0.36522093 -0.34015065 0.033658925 -0.627861 -0.4891508 -0.2718508 0.2525647
-0.574291 -0.02584419 0.07404974 -0.18118158 0.14502892 -0.8984983 -0.39465278 0.16132148
-0.12206106 0.17816849 -0.4074156 -0.37135836 0.15757446 -0.017547159 0.29680455 -0.5179759
0.2723071 -0.42852765 -0.21978119 0.09064344 0.2673558 0.02056525 0.038448587 0.16202757
0.107565396 -0.15056354 -0.04481942 0.08517352 -0.7217174 -0.0071642403 -0.33720502 0.10406024
0.20550069 -0.37438166 0.14358537 0.020563845 -0.14231297 -0.70393187 0.4468279 -0.24278529
-0.09660663 -0.12138499 -0.3394704 -0.17329244 -0.37129152 -0.04535895 -0.13710941 -0.36197305
-0.0956167 -0.9788058 -0.08561214 0.17271793 -0.47107896 -0.35805374 -0.07341992 -1.1368536
00000000: dade b4be fa81 683d bd9c 24be 3f62 6dbc
00000010: 4f23 d0bc 78bc 57bf 2d79 e33d 50f7 cd3e
00000020: 2789 eebe 8b18 b3bd 36b2 9f3e 3f94 25be
00000030: ef8a c7bd 8c61 dd3e 3b5c 9bbe 85ab 0dbe
00000040: bdad 19be 9f26 d7bd 78f2 5a3e 5a2b 6cbe
00000050: 0403 603e 8ff7 993d e79b 11bd 94ea 96bd
00000060: 0ba3 6abe d0d1 e0bd 3cef 07bf 1d7a a23d
00000070: 965b 5bbe cb3c 07bd 9a2c 5b3e 0171 ac3e
00000080: eef9 b83d fe54 2c3e 2642 af3e 5f42 903e
00000090: 97ab 133e 7d2a 20be ca23 8a3e 5f9e 2cbe
000000a0: f0cf 05bf 960f 0bbd 6b23 ed3d c1cd 8b3e
000000b0: 5720 4bbe 9177 e0be 4d52 57be e252 72be
000000c0: 5b86 3ebe 2b76 a93d bb77 45bd 19d6 b33c
000000d0: 85a3 493e e402 b8bc 2c64 41be 056b 0fbf
000000e0: fea3 3abe 60db b8bd 3c0a d5bd 8119 0abe
000000f0: 5565 393e aebe 49be 4b40 80bc 5f68 33bd
00000100: c8d4 72bf d0bc 803e 9118 b3bd 1f54 c2be
00000110: 78d0 af3d 07e4 b93d f0bc 9f3e c992 8b3d
00000120: 6374 863e 7238 9fbd 6374 57be 4fd8 613e
00000130: d66e e93e 1e62 1fbe 2a7d e03e be98 1c3d
00000140: fd10 dabd 8e0a 00be 843f 6bbe daf0 cabe
00000150: 9f6d 59bd 9ab3 fbbd 3641 01be 601c d0bc
00000160: 6b2e 0dbc 9c79 2abe 46d3 9e3e 1710 acbd
00000170: df20 403e bd49 4abd 32b0 7cbe 0d1b 0dbf
00000180: 0c18 3abc bf5c cebc eb2a 1ebc 05ac 3dbf
00000190: 2ddb 1f3d 1e5c 4a3d 9a8b aabe c36d d93e
000001a0: d41d 99bd b47c 07bd 29bb 0f3e 4f78 843e
000001b0: d23a 8dbe 11cc c9be 3cf4 20bd 4f8a d6bd
000001c0: f912 a43d 697f ccbd 495c c5bd 520e 873e
000001d0: 4338 e23d 83cb 3e3e 9540 87bb 2ac2 aa3d
000001e0: c141 9c3e 9ec6 273b 1102 693e 11f7 a9be
000001f0: 9cf8 b6be 55b2 183e 0278 5bbe e0c4 12bd
00000200: 2bd1 88bc a3b5 7f3e f6c3 b3be 8522 fd3d
00000210: ac4d d9be 0a39 1bbd e718 10bf 6bb6 eabc
00000220: f677 c1bd 07a4 68bd 1567 26be ad6b cfbd
00000230: 3399 9bbe 52dc cabb 1098 adbe ce59 09bf
00000240: 9a68 8a3d 3e19 31be d98d 34bf 0b56 18bc
00000250: 2737 613d 5423 acbe 70cc c8bd d326 f43d
00000260: ee3d d6bd 4f47 89be 9156 d13c 238a c03d
00000270: bd9c a8be 300f b5be 1802 63bd b5ca ff3d
00000280: 1fe1 19bf e2be 813d 0b80 873e 8790 6c3e
00000290: c713 30bd 1c7a 88bc 988d 9fbd b4b4 bf3d
000002a0: fa64 843c 7efa 52be a679 86bf 6a5e 69be
000002b0: eadc c03e 7a89 b6be 7556 09bf d736 c7bd
000002c0: 8250 ebbe c25c 613d b22d 3bbf 00d5 87be
000002d0: 8cb8 233e 253a eabe 93b5 f9bd e34a 823e
000002e0: 15e7 cd3b 92fd 393e eced 2dbe f95e 00bd
000002f0: 8a7b 88be 2626 043d d4b5 833d d585 cbbc
00000300: 1ff7 d2bc 3dfe ba3e 3a28 aebe f1dd 093d
00000310: 80bb 20bf f971 fabe 0730 8bbe 2950 813e
00000320: bc04 13bf 32b7 d3bc 64a7 973d aa87 39be
00000330: 7682 143e fc03 66bf ee0f cabe 7531 253e
00000340: 26fb f9bd cd71 363e c798 d0be af22 bebe
00000350: 335b 213e 0fbf 8fbc c4f6 973e 129a 04bf
00000360: d66b 8b3e fa67 dbbe 520e 61be 45a3 b93d
00000370: dce2 883e 7578 a83c 447c 1d3d 8eea 253e
00000380: 3f4b dc3d 542d 1abe 9194 37bd 746f ae3d
00000390: 79c2 38bf 01c2 eabb 23a6 acbe 891d d53d
000003a0: c66e 523e f4ae bfbe 0b08 133e 8275 a83c
000003b0: 7eba 11be e134 34bf a0c6 e43e b59c 78be
000003c0: b2d9 c5bd b298 f8bd 10cf adbe 9373 31be
000003d0: ec19 bebe 4eca 39bd 6966 0cbe 8854 b9be
000003e0: b0d2 c3bd 0493 7abf 6b55 afbd f8dc 303e
000003f0: 4331 f1be d252 b7be 2f5d 96bd 6b84 91bf

_policy.6.bias f4 [128]
-0.13712662 -0.48709467 0.22217447 0.22812049 0.13596861 0.15121125 -0.003673756 0.13433087
0.13039918 0.027265068 0.054644033 0.027429795 0.024502484 -0.15283813 0.27369955 0.17727038
0.044658996 0.0493425 -0.046113055 -0.0669169 0.25838348 0.17335275 0.2474836 0.050427366
0.1859673 0.10702862 0.05056822 0.17180413 -0.08941502 0.10838597 0.09863246 -0.17597185
0.15548679 -0.08695169 0.22159095 0.14373463 -0.0044080606 0.18079184 0.054797944 0.0044532767
-0.18546413 -0.08039484 0.28365156 0.020335566 0.09971906 -0.2418496 0.2620761 0.12847093
0.07896214 -0.030777764 0.07719399 0.06716011 0.07451623 0.0563056 0.0076171556 0.104763
0.05772813 0.38820648 0.051439077 0.15870866 -0.022283314 0.16844894 0.089423396 0.24395533
-0.10884476 0.15482375 0.22653063 0.19287792 -0.007862917 0.2158064 -0.14402609 0.07792437
0.041825507 0.15859541 -0.07807681 0.12340238 0.33405155 -0.26445526 0.12568647 0.005333434
0.13823228 -0.0016034053 -0.19297723 -0.14089741 0.26660526 0.036351252 -0.28758222 0.045103747
0.18394901 0.12260942 -0.101325765 0.23545761 0.23721929 0.19535623 -0.04145594 -0.05325271
-0.09194651 0.17688797 0.10216217 -0.08234191 0.057426434 -0.05045106 -0.0508358 0.12555753
-0.008845758 0.20739222 0.109827526 0.121082135 -0.4998267 0.33350173 0.084699556 0.011447079
0.042993993 -0.12714545 0.008292669 0.02713838 0.11310535 0.1939302 -0.20097311 0.16293916
0.21223342 0.3185866 0.22082804 -0.051058184 0.3120838 -0.04349445 -0.07993823 0.01812597
00000000: ec6a 0cbe 7964 f9be b481 633e 6b98 693e
00000010: 5b3b 0b3e 1fd7 1a3e 66c3 70bb 088e 093e
00000020: 5d87 053e fe5a df3c 6cd2 5f3d 73b4 e03c
00000030: 6fb9 c83c 9981 1cbe 5922 8c3e 5e86 353e
00000040: 5aec 363d 5c1b 4a3d 0be1 3cbd ba0b 89bd
00000050: d74a 843e 6283 313e 576c 7d3e ed8c 4e3d
00000060: 366e 3e3e d231 db3d 9f20 4f3d 6ced 2f3e
00000070: 391f b7bd 77f9 dd3d d1ff c93d f731 34be
00000080: ee37 1f3e ba13 b2bd bde8 623e 2c2f 133e
00000090: 7e71 90bb 7f21 393e cf73 603d cbec 913b
000000a0: 4fea 3dbe 0da6 a4bd c73a 913e c696 a63c
000000b0: 8239 cc3d 6ca7 77be d72e 863e e28d 033e
000000c0: e7b6 a13d a621 fcbc e217 9e3d 3d8b 893d
000000d0: f79b 983d b3a0 663d 5599 f93b fc8d d63d
000000e0: 5574 6c3d 00c3 c63e c8b1 523d 8684 223e
000000f0: 7f8b b6bc e17d 2c3e 9d23 b73d 6dcf 793e
00000100: 00ea debd 1e8a 1e3e a5f7 673e ca81 453e
00000110: 77d3 00bc 5afc 5c3e 937b 13be d096 9f3d
00000120: 3951 2b3d d666 223e bce6 9fbd 63ba fc3d
00000130: ce08 ab3e ae66 87be f4b3 003e 16c4 ae3b
00000140: c38c 0d3e 5b29 d2ba d39b 45be 6947 10be
00000150: 7c80 883e 0de5 143d fa3d 93be b5be 383d
00000160: 215d 3c3e a61a fb3d e283 cfbd cd1b 713e
00000170: 9de9 723e 770b 483e b4cd 29bd 831f 5abd
00000180: 744e bcbd 1f22 353e 663a d13d e0a2 a8bd
00000190: fb37 6b3d c5a5 4ebd 3339 50bd 2792 003e
000001a0: cced 10bc a05e 543e 41ed e03d e9f9 f73d
000001b0: 49e9 ffbe bdc0 aa3e f676 ad3d 878c 3b3c
000001c0: 781a 303d 6b32 02be fadd 073c 4f51 de3c
000001d0: c7a3 e73d a395 463e e5cb 4dbe 86d9 263e
000001e0: b853 593e c81d a33e bf20 623e 6322 51bd
000001f0: 73c9 9f3e 3d27 32bd a8b6 a3bd ea7c 943c

_policy.8.weight f4 [3, 128]
-0.007354796 0.06465081 -0.15084553 -0.5080067 -0.46733242 -0.2661192 -0.6756278 -0.25443968
0.61075455 -0.20651343 0.49184704 0.6813154 -0.12383959 -0.017678663 -0.7197242 -0.045903247
0.2731482 0.3005086 -0.39796716 -0.04857724 -0.23094705 -0.14194503 0.084468335 0.21477218
-0.017104298 -0.37076873 0.24837554 -0.17391948 -0.69457185 0.37392756 -0.10339455 0.035109136
-0.20275728 -0.024621105 -0.14100076 0.43107837 -0.47672507 0.4825223 -0.10370375 -0.23025726
0.5084101 -0.01387002 -0.002589876 0.628361 0.3431285 -0.41023898 0.7978604 0.16128321
-0.13552113 -0.070637904 0.28104976 -0.26648936 -0.2985573 0.1882244 -0.08849553 -0.2126334
-0.00564359 -0.3444821 0.18606421 0.2973176 -0.0018600563 -0.14798537 -0.51495725 -0.03618322
0.29271472 0.2202829 0.706539 -0.16394126 0.4501753 -0.1758853 0.5678214 0.11229495
-0.3386061 0.3434527 0.77096415 -0.081368275 -0.16924177 1.0162336 -0.067302704 0.49297494
-0.12160998 -0.19352601 -0.90747803 -0.022819879 -0.28222594 0.27773935 -1.0291108 -0.099937424
-0.37714925 0.17127767 -0.24318086 -0.17467697 -0.15247943 -0.14619924 0.5046213 0.55396795
0.0020593032 -0.08891309 0.11068506 -0.6172391 0.04847453 -0.144191 -0.24265507 -0.3235317
-0.06447745 0.2314854 -0.3488848 0.7275341 0.24644136 0.34704873 -0.31288803 0.1737346
-0.27952212 -0.17167296 0.21571401 0.20977198 -0.3206101 -0.47340003 0.99855465 -0.109961934
0.2912224 -0.24913692 -0.22834472 0.5215902 0.43897527 0.10835995 0.37275302 -0.1257513
0.3140263 0.70819604 -0.12983122 0.4832795 0.46194968 -0.10281603 0.43451524 0.4931874
-0.32554138 0.49162635 -0.092693575 -0.16944848 -0.14864255 0.14291908 0.8115165 -0.22595227
-0.3435381 -0.19738929 0.26381686 0.38940176 0.40392977 0.2544396 -0.39448968 -0.13801736
-0.23972155 0.30529603 -0.28839177 -0.26056537 0.36748317 -0.29237917 0.2675841 0.041411135
0.30829954 -0.26287398 -0.62386966 -0.08735851 -0.026017066 -0.48543066 0.37196234 -0.0487272
0.014241365 0.3336726 0.43674132 -0.9405275 -0.36097494 0.5212125 -0.62159985 -0.16982175
-0.1659719 0.37002054 -0.023011377 0.2619217 0.2966846 -0.048883535 0.38298133 -0.12814367
0.2240773 0.3522383 0.12916489 -0.027446626 0.55866235 -0.10489295 0.63699365 0.20533141
-0.54662204 -0.04610139 -0.15249202 0.32718784 -0.04368795 -0.47602463 0.10283613 0.47664386
0.023397397 -0.42341316 -0.06631751 -0.22770932 0.2853557 -1.000051 -0.30599454 -0.567501
-0.20980471 -0.1243711 0.6566711 0.23512636 0.302822 0.11458147 0.29541457 -0.09027641
0.45568472 -0.21656603 0.12243942 -0.3134712 -0.3117679 -0.3219753 -0.5305279 -0.18959686
-0.59053314 0.33391345 -0.06356861 0.21816362 -0.71943974 -0.19373035 0.09291768 -0.021423155
-0.16342421 -0.06691273 -0.1843475 -0.7376596 0.564641 -0.32480747 0.1111167 -0.24540997
0.2592089 0.6275826 0.13128679 0.14019366 -0.09741209 0.0966758 -1.3900448 -0.36394417
-0.28332224 0.17408182 0.44979745 -0.48255596 -0.31450096 0.06807193 0.17487541 -0.24093498
00000000: 8000 f1bb a567 843d 4077 1abe ba0c 02bf
00000010: 3246 efbe c740 88be f2f5 2cbf eb45 82be
00000020: 695a 1c3f 4278 53be 60d3 fb3e b06a 2e3f
00000030: 9c9f fdbd d8d2 90bc d83f 38bf 0b05 3cbd
00000040: 15da 8b3e 43dc 993e 5ac2 cbbe eef8 46bd
00000050: 627d 6cbe 0a5a 11be bcfd ac3d 3ded 5b3e
00000060: 501e 8cbc 66d5 bdbe 2856 7e3e f317 32be
00000070: 76cf 31bf 6f73 bf3e 86c0 d3bd 99ce 0f3d
00000080: 9b9f 4fbe 33b2 c9bc 8162 10be 4eb6 dc3e
00000090: 4f15 f4be 2a0d f73e a262 d4bd 8fc8 6bbe
000000a0: 2a27 023f 153f 63bc e9ba 29bb 44dc 203f
000000b0: 8aae af3e d80a d2be 9440 4c3f 6d27 253e
000000c0: 0dc6 0abe 9baa 90bd c1e5 8f3e 4b71 88be
000000d0: 81dc 98be e6bd 403e 253d b5bd 92bc 59be
000000e0: dded b8bb f55f b0be 9e87 3e3e 033a 983e
000000f0: 22cd f3ba 7a89 17be 3dd4 03bf db34 14bd
00000100: b4de 953e d791 613e bddf 343f 38e0 27be
00000110: 607d e63e 471b 34be be5c 113f e5fa e53d
00000120: c75d adbe 08d9 af3e e85d 453f 69a4 a6bd
00000130: b74d 2dbe f113 823f 00d6 89bd 3667 fc3e
00000140: a70e f9bd af2b 46be 7b50 68bf c1f0 babc
00000150: eb7f 90be da33 8e3e e7b9 83bf feab ccbd
00000160: b519 c1be 6a63 2f3e 6704 79be 85de 32be
00000170: 9123 1cbe 41b5 15be dd2e 013f d8d0 0d3f
00000180: 60f5 063b 1118 b6bd d9ae e23d 6203 1ebf
00000190: 3b8d 463d cea6 13be 927a 78be f2a5 a5be
000001a0: c10c 84bd 820a 6d3e 07a1 b2be ad3f 3a3f
000001b0: 205b 7c3e 5fb0 b13e dc32 a0be 7ce7 313e
000001c0: 861d 8fbe 09cb 2fbe 22e4 5c3e 77ce 563e
000001d0: 0227 a4be 7d61 f2be 47a1 7f3f b933 e1bd
000001e0: 1a1b 953e c01d 7fbe 33d3 69be ef86 053f
000001f0: 5ec1 e03e d2eb dd3d 7cd9 be3e f3c4 00be
00000200: 0ec8 a03e 564c 353f 7af2 04be 6970 f73e
00000210: ab84 ec3e 3691 d2bd c878 de3e 0f83 fc3e
00000220: 5cad a6be 73b6 fb3e 21d6 bdbd e783 2dbe
00000230: c135 18be 6159 123e 8cbf 4f3f 0860 67be
00000240: 3ae4 afbe 6b20 4abe 0113 873e ab5f c73e
00000250: e2cf ce3e e845 823e 8dfa c9be 6c54 0dbe
00000260: 9179 75be c34f 9c3e 16a8 93be d368 85be
00000270: c126 bc3e b9b2 95be c800 893e b99e 293d
00000280: 70d9 9d3e 6b97 86be ecb5 1fbf 05e9 b2bd
00000290: be21 d5bc 5e8a f8be d971 be3e 2c96 47bd
000002a0: 9d54 693c 23d7 aa3e 8f9c df3e 69c6 70bf
000002b0: b5d1 b8be 2f6e 053f 2b21 1fbf c1e5 2dbe
000002c0: 8af4 29be 5573 bd3e 5b82 bcbc 9a1a 863e
000002d0: 0be7 973e 1a3a 48bd 2116 c43e 1838 03be
000002e0: 8574 653e 9458 b43e cd43 043e bfd7 e0bc
000002f0: 7f04 0f3f 1dd2 d6bd 0412 233f 6642 523e
00000300: 6cef 0bbf d0d4 3cbd de26 1cbe 2a85 a73e
00000310: 23f2 32bd 80b9 f3be c09b d23d aa0a f43e
00000320: e6ab bf3c 9cc9 d8be 7ad1 87bd a22c 69be
00000330: 241a 923e ac01 80bf 51ab 9cbe bf47 11bf
00000340: 0cd7 56be 46b6 febd 991b 283f f7c4 703e
00000350: 7c0b 9b3e b1a9 ea3d 9440 973e d7e2 b8bd
00000360: 824f e93e 7cc3 5dbe 85c1 fa3d 4c7f a0be
00000370: 0ba0 9fbe f2d9 a4be add0 07bf ae25 42be
00000380: 2e2d 17bf b4f6 aa3e 4230 82bd 4966 5f3e
00000390: 342d 38bf 4061 46be a04b be3d 9d7f afbc
000003a0: ad58 27be 8b09 89bd 97c5 3cbe 42d7 3cbf
000003b0: 508c 103f 2a4d a6be 2791 e33d c04c 7bbe
000003c0: 07b7 843e 41a9 203f 0b70 063e ed8e 0f3e
000003d0: fd7f c7bd f6fd c53d fdec b1bf e456 babe
000003e0: 9d0f 91be 8142 323e da4b e63e 9311 f7be
000003f0: 4506 a1be 4c69 8b3d 8a12 333e a9b7 76be

_policy.8.bias f4 [3]
0.08365893 -0.08155441 -0.019250635
00000000: 6055 ab3d 0006 a7bd 82b3 9dbc

_value.0.weight f4 [128, 22]
0.063127585 0.16749026 -0.14837119 0.03782892 0.028893515 -0.16886337 0.077366136 -0.049362943
0.16458015 -0.18221886 -0.03410483 0.16071682 0.070729546 -0.05379509 -0.047504652 0.042441096
-0.02773267 0.16904975 0.00015605599 0.10273563 0.07828688 -0.07864383 -0.15970902 -0.137751
-0.06629371 -0.052103687 0.037542865 -0.1557589 -0.07974303 0.12839188 -0.014808648 -0.078064255
-0.1479302 -0.05803621 -0.1547403 0.17200245 0.11143465 0.16561516 -0.14617376 -0.1744821
0.014210085 -0.22802141 -0.11570379 0.046473734 -0.026476394 -0.03125818 -0.062417734 -0.1478982
0.1617762 0.16154431 -0.10627301 0.17468606 0.13274105 0.07047725 0.17945799 0.14997205
-0.16118108 -0.20636848 -0.14223751 -0.21067943 -0.13546665 -0.013799256 -0.05779897 -0.09555011
-0.15042272 0.08223919 -0.11515995 0.04440205 0.0034645668 -0.20909923 -0.15227236 0.05268913
0.0713821 0.035370167 0.016212719 -0.11414749 0.11341546 0.040031392 0.27670664 0.0055528516
0.14725748 -0.026368104 0.007920673 -0.040688068 -0.10817126 0.07413178 -0.020859143 0.27178636
-0.13497725 0.24552526 -0.23331234 0.08061987 0.021806328 0.094862275 0.025919832 0.08356348
-0.07330206 -0.08645592 -0.18420029 -0.09496857 0.056143984 0.06605834 -0.083939694 -0.07957663
-0.05676096 0.06604551 -0.050855655 0.01734286 0.034075983 -0.025316823 -0.19428807 0.23128651
0.13068458 -0.11003657 0.1261856 -0.13578159 0.15413679 0.036002535 0.078104995 0.02178325
-0.12976214 0.08394554 0.14481297 0.114434734 0.17831875 0.10178846 0.0012662563 -0.16006933
0.0032919866 -0.13496563 -0.088232644 -0.17896974 0.08576247 0.17508242 -0.10854328 0.1708312
-0.04562898 -0.17235659 0.0236724 -0.032349616 0.06625559 -0.053447463 -0.19779462 -0.05490953
-0.14538997 0.17861407 -0.18402837 0.117296435 0.061370227 -0.10145564 0.10136032 -0.18253796
-0.16469333 0.020393603 -0.08480582 -0.13696896 0.005215121 -0.16254619 0.09903988 0.14422743
0.10718148 0.016778538 -0.10391917 0.16736515 -0.019817347 -0.14562294 0.054062925 -0.19505075
0.07712968 -0.12309805 0.014143684 -0.02512862 -0.22093537 0.04038316 0.15263493 0.11994755
0.108434044 -0.18274245 -0.06973939 -0.11188121 -0.085083306 0.025408763 0.11735778 0.16468692
-0.0343153 0.18585066 -0.049223047 -0.13939835 0.12833782 -0.13177072 -0.20729515 -0.17294095
0.16238137 0.0070052515 0.012895854 -0.099436715 -0.2182876 0.1620253 -0.05486922 0.10915507
0.07793822 -0.03286108 0.04542368 -0.08113394 0.047670938 -0.16511016 -0.008079602 0.09039525
-0.07627975 0.20012735 -0.14806592 -0.18266277 0.12305954 -0.07982193 -0.055752944 -0.1980969
-0.20440644 0.0005800605 0.021697411 0.06402924 0.14609985 -0.1561487 -0.040295113 0.13879666
0.13158567 -0.08067208 -0.04858578 0.06758048 0.13851736 0.0754661 0.03937345 -0.010651593
0.070530675 0.015576666 0.01777976 0.083781905 -0.14428025 -0.027385097 0.16973943 -0.08559705
-0.017367726 -0.18935505 -0.05138075 -0.042141423 -0.015111414 -0.08325432 -0.15505642 -0.12926628
-0.060098697 -0.028164934 0.037280798 0.0073949634 0.13638014 0.12905994 0.13208832 0.15016772
00000000: 0949 813d 9182 2b3e 9eee 17be 7ff2 1a3d
00000010: 18b2 ec3c 85ea 2cbe 2372 9e3d cc30 4abd
00000020: b387 283e 9597 3abe 82b1 0bbd f392 243e
00000030: a7da 903d 3e58 5cbd 3d94 42bd b7d6 2d3d
00000040: a02f e3bc 611b 2d3e f6a2 2339 0f67 d23d
00000050: df54 a03d 0410 a1bd c38a 23be 990e 0dbe
00000060: ffc4 87bd ad6a 55bd 8cc6 193d 437f 1fbe
00000070: 5050 a3bd 2979 033e f99f 72bc 27e0 9fbd
00000080: 047b 17be 60b7 6dbd 3e74 1ebe 6921 303e
00000090: da37 e43d 0597 293e 93ae 15be 70ab 32be
000000a0: 6bd1 683c 727e 69be 1cf6 ecbd 3e5b 3e3d
000000b0: 06e5 d8bc 9408 00bd bda9 7fbd a072 17be
000000c0: a9a8 253e df6b 253e aaa5 d9bd e7e0 323e
000000d0: 45ed 073e 6056 903d d6c3 373e 4692 193e
000000e0: a70c 25be 4252 53be b6a6 11be 59bc 57be
000000f0: c5b7 0abe 4616 62bc 9dbe 6cbd c7af c3bd
00000100: 6a08 1abe 056d a83d fbd8 ebbd edde 353d
00000110: c90d 633b 1c1e 56be 49ed 1bbe 8fd0 573d
00000120: c730 923d 4fe0 103d 89d0 843c 29c6 e9bd
00000130: 5d46 e83d f5f7 233d 7eac 8d3e b2f4 b53b
00000140: aaca 163e ec01 d8bc b6c5 013c 88a8 26bd
00000150: e588 ddbd 67d2 973d cbe0 aabc 9527 8b3e
00000160: 7a37 0abe f96a 7b3e 6ee9 6ebe 081c a53d
00000170: 2fa3 b23c 2747 c23d d455 d43c 5423 ab3d
00000180: 641f 96bd cd0f b1bd 009f 3cbe e27e c2bd
00000190: 3cf7 653d 9849 873d 93e8 abbd 12f9 a2bd
000001a0: 2e7e 68bd de42 873d 054e 50bd 9d12 8e3c
000001b0: 4293 0b3d 3a65 cfbc 74f3 46be 5fd6 6c3e
000001c0: 2ed2 053e da5a e1bd cc36 013e 540a 0bbe
000001d0: 09d6 1d3e 6577 133d 83f5 9f3d c972 b23c
000001e0: 5ee0 04be a4eb ab3d da49 143e c25c ea3d
000001f0: 3199 363e 7876 d03d 83f8 a53a 37e9 23be
00000200: 5fbe 573b 6e34 0abe 51b3 b4bd d843 37be
00000210: 3ca4 af3d ce48 333e f04b debd 60ee 2e3e
00000220: 74e5 3abd 3f7e 30be 9fec c13c 0881 04bd
00000230: 03b1 873d baeb 5abd ac8a 4abe d1e8 60bd
00000240: 1ce1 14be 9be6 363e ef71 3cbe 1d39 f03d
00000250: 595f 7b3d f9c7 cfbd 0096 cf3d 3beb 3abe
00000260: 5ea5 28be 7c10 a73c acae adbd 9741 0cbe
00000270: 9be3 aa3b 8272 26be 6cd5 ca3d 5bb0 133e
00000280: f781 db3d 2573 893c 93d3 d4bd c561 2b3e
00000290: fd57 a2bc 2e1e 15be 1671 5d3d 62bb 47be
000002a0: 2af6 9d3d d51a fcbd e9ba 673c 89da cdbc
000002b0: e23c 62be d068 253d 554c 1c3e 10a7 f53d
000002c0: ab12 de3d d620 3bbe 86d3 8ebd fa21 e5bd
000002d0: 2840 aebd 0a26 d03c 4759 f03d b0a3 283e
000002e0: 338e 0cbd a34f 3e3e 1b9e 49bd 71be 0ebe
000002f0: fd6a 033e e7ee 06be 2e45 54be 6f17 31be
00000300: 4d47 263e 4f8c e53b 2249 533c 7aa5 cbbd
00000310: c986 5fbe f6e9 253e 8cbe 60bd b18c df3d
00000320: 139e 9f3d 5799 06bd 2e0e 3a3d 8d29 a6bd
00000330: 9a42 433d a312 29be 4f60 04bc 2521 b93d
00000340: 8f38 9cbd 2fee 4c3e 989e 17be f30b 3bbe
00000350: a406 fc3d ae79 a3bd 335d 64bd ead9 4abe
00000360: ec4f 51be 340f 183a c5be b13c c321 833d
00000370: 339b 153e 72e5 1fbe 7d0c 25bd b620 0e3e
00000380: 65be 063e 6737 a5bd e201 47bd a267 8a3d
00000390: 7fd7 0d3e f88d 9a3d 0e46 213d 0584 2ebc
000003a0: 6372 903d 4635 7f3c dca6 913c d995 ab3d
000003b0: 34be 13be b656 e0bc 2cd0 2d3e 824d afbd
000003c0: c346 8ebc 4ae6 41be 9f74 52bd 7c9c 2cbd
000003d0: dd95 77bc 3e81 aabd 1cc7 1ebe 615e 04be
000003e0: 0d2a 76bd 26ba e6bc c0b3 183d 7351 f23b
000003f0: 3ca7 0b3e 4a28 043e 2942 073e 91c5 193e
