logs/weight_colliion_obj_obs = 0.4/model/model_870.pth (torch, 427625 bytes, 19 tensors)

_policy.0.weight f4 [128, 22]
00000000: 13a6 b8be ebed c3bd 07e0 2b3e 8974 373e
00000010: a706 c4be a266 a0bd 6e16 403e d29f 3b3d
00000020: 3811 003f 8334 bc3e 0c1a c1bd be18 f93d
00000030: f81f 8a3e 77aa ca3e 3b97 f2bc cd1d f3bd
00000040: 3cdc f7bd 001b bd3d 1f32 a33d 0f32 113e
00000050: 9df0 0dbe e2d8 e3be 9c6a e7be 4e1c 74be
00000060: feb2 643d 2dd3 823f 3588 003d c0af f93d
00000070: e686 683e e17d fdbd e175 61bf b58b 3f3e
00000080: 249b 733e 940b 603e 2efc ac3e 5cbe 743e
00000090: 4ada 503e fa58 8dbd 9691 57bd 3204 2cbe
000000a0: 6308 86be b24e 713c 214a b4bc c436 84bd
000000b0: 432b 14bf 2547 f8bb 7686 a43e 4feb 5ebd
000000c0: 9889 8cbe 06c3 be3d 2c42 a73c 3eaf 023e
000000d0: 0533 9a3f ae1d f6be 9455 633e 2a4b ab3d
000000e0: 021b af3e b67b ed3e 4a3b ac3d 4873 283e
000000f0: 26e7 29be 4af2 e63d f8b9 e0bc 0e24 33bd
00000100: 4932 21be b45d 13be 1c77 5ebd 904f 1abf
00000110: 3fb2 31bd 6bd9 1d3f 9bb6 53be a606 16bf
00000120: ce16 323e a0a7 ec3e 9b78 483d 0878 4d3e
00000130: d139 27be 833a 03be 1372 c4be 13ed fa3e
00000140: e785 9cbe 5409 efbd b3e9 66be 2393 d53c
00000150: 3142 80be d42b 7c3e ea84 193e d679 0a3e
00000160: a3b7 8e3f afcd debe 4b2b 2ebe f84e 983e
00000170: 2277 423f 2946 39bf 3a00 35be 26cd 21bf
00000180: a8c5 1dbf 9129 063f 6416 b33d ebd6 91bd
00000190: d476 13be cd65 56bc 5338 0b3d aadc 3a3e
000001a0: 48d3 05bb 9e8b 393d e730 823d ad2d bfbd
000001b0: 2dc8 14bd 420d 5abd 489f 4dbf 4605 493f
000001c0: 925f da3e dc68 07bf 102a 8abe e51f f73e
000001d0: afd2 283e e9de a53e 96a0 ea3a f688 92bf
000001e0: ac3e 59be 06d7 f0bd 1028 7bbe 6572 483c
000001f0: 6b65 c43c 4ce8 23bc f4cc 263e 492c 303d
00000200: 8056 19bd 0bbe 12be a9ee 91bd 57b9 c23d
00000210: e508 53bd ae9c 4f3e 4075 10be e107 c83e
00000220: 7dc4 ac3e 066a b2bd 37a8 21bf 4487 473c
00000230: e57e 243f 3fbf 29bf e0db 263e 092b d8bd
00000240: 6467 55bf a465 063e 0cf4 9cbc bb26 99bc
00000250: 37a4 38bd 0ce0 09be 0ef1 c13e 169b 3cbe
00000260: 820a 2f3e ec72 babd cb55 ecbe 4ff3 1cbe
00000270: 669a d0bc 72eb 713f e9a0 973e e060 893e
00000280: 2aa5 35bd cbfc 92be d531 70bf d7d1 4c3f
00000290: bd1a 5dbe 5f38 a6be 377a 0fbe 9a7a 893c
000002a0: b7d2 11be 18a7 543d 0063 a1bd 22a6 5cbe
000002b0: 775e 183d 5663 3c3d 35da 61bc ae1f 483e
000002c0: c494 813d b6bf c8be 08b2 98bd cee0 143e
000002d0: f18e ea3e 4203 b1bd 947e 13be 9a6a 773d
000002e0: 2c2c ec3f d34f 833f ff42 80bd cf23 6ebd
000002f0: 5767 523e 6c25 d23c 9e4e 343e 1411 3abe
00000300: bf86 423e 0e9d 97bd c84f 8dbd e952 3cbc
00000310: 1e09 bebd 75e3 df3d 3a45 b63e cf6b 273f
00000320: 94eb 09bf 727c 33bf 39c1 66be 1b80 0b3f
00000330: 5fdc 8fbe ee41 3fbf 071e 20bf b2b1 7e3e
00000340: 8b04 f3bd 067e cd3e 6fd7 843e dfff 01be
00000350: b4b0 9b3d 330a 8e3d 81a4 d43d 2d2f 1bbe
00000360: b052 d0bc d493 953c a441 23be 1774 34be
00000370: 3441 1cbf b98c 6fbe 335c 263e 4ab0 4bbb
00000380: 544f 11bf fb63 b9be d193 ad3d c102 4e3d
00000390: 8e19 be3f e68c f13e 3e9c e13d 537d 73be
000003a0: a4dd 213d fd8a 913c 3f58 393c 3635 cc3d
000003b0: 44d3 0e3e 70fa 8bbc 750e 08be d38f 9abd
000003c0: 44ae 1ebe dc6e 05bd d9bf a93c f780 9f3e
000003d0: 7237 70bf 8998 44be 88f0 5abe 4d25 7dbc
000003e0: 8c1c acbd 0128 c4be 52dc babe 3d8b 13be
000003f0: 1b1f e83d 7f44 6fbd 7fa5 a7be 5170 96be
-0.36064205 -0.095668636 0.16784678 0.17915548 -0.38286325 -0.07832076 0.18758556 0.045806713
0.50026274 0.36758813 -0.09428796 0.12162922 0.26977515 0.3958318 -0.029613128 -0.118709184
-0.12102553 0.092336655 0.07968544 0.14179252 -0.13861318 -0.44501406 -0.45198524 -0.23838922
0.055834763 1.0220696 0.031379897 0.12191725 0.2270771 -0.12377525 -0.88070494 0.18705638
0.2378965 0.21879417 0.33786148 0.23900741 0.2039577 -0.069017366 -0.052629076 -0.16798475
-0.26178274 0.014728235 -0.022008004 -0.06455758 -0.5787851 -0.0075768405 0.32133836 -0.054423627
-0.27448726 0.093145415 0.020417295 0.12762162 1.204682 -0.4806952 0.22200614 0.08363946
0.34200293 0.46383446 0.08409746 0.16450226 -0.16592082 0.11276682 -0.027432427 -0.043735556
-0.15741839 -0.14391214 -0.05431281 -0.6027765 -0.04338288 0.6165988 -0.20675127 -0.58603895
0.17391512 0.46221638 0.048943143 0.2006532 -0.16330649 -0.12815289 -0.38368282 0.49008998
-0.3057091 -0.11671701 -0.22550087 0.026071137 -0.250505 0.24626094 0.14992109 0.13523039
1.1149791 -0.435163 -0.17008702 0.29747748 0.7596303 -0.7237268 -0.17675868 -0.63203657
-0.61629725 0.52407175 0.08744505 -0.071210705 -0.14400798 -0.013085795 0.03398926 0.18248239
-0.0020420123 0.045299165 0.06356984 -0.09334884 -0.036323715 -0.0532353 -0.8032117 0.7852367
0.4265104 -0.5289438 -0.26985216 0.4826652 0.1648662 0.3239663 0.0017900642 -1.1448047
-0.21215314 -0.117597625 -0.24527001 0.012234305 0.023974141 -0.010004114 0.16289121 0.043010984
-0.03743601 -0.14330308 -0.07125599 0.09508007 -0.051522154 0.20274612 -0.14107227 0.3906851
0.3374366 -0.087116286 -0.631473 0.012178246 0.64256126 -0.66307443 0.16294813 -0.10555083
-0.83360887 0.1312471 -0.01915934 -0.018695226 -0.045078482 -0.13464373 0.37879223 -0.18418536
0.17093852 -0.09103951 -0.46159205 -0.1532719 -0.025464248 0.94499886 0.29614952 0.26831722
-0.044346966 -0.2870849 -0.9382604 0.8000769 -0.21592231 -0.32464883 -0.14011465 0.016782094
-0.14240538 0.051917166 -0.07880211 -0.2154775 0.037199464 0.04599317 -0.013784935 0.19543335
0.06327203 -0.39208764 -0.07455832 0.14538881 0.4581218 -0.086431995 -0.14403754 0.060404398
1.845098 1.0258735 -0.062627785 -0.05813962 0.20547234 0.02565261 0.17608115 -0.18170577
0.18996714 -0.07403003 -0.06899983 -0.011494377 -0.09279083 0.10932056 0.3559969 0.6539888
-0.5387509 -0.70111763 -0.22534646 0.5449235 -0.28097817 -0.74709976 -0.6254582 0.24872473
-0.11866101 0.4013521 0.25945613 -0.12695263 0.07602063 0.06935539 0.10382939 -0.15154715
-0.025430053 0.018258967 -0.15943009 -0.1762241 -0.6103699 -0.23393525 0.16246109 -0.0031080418
-0.5676167 -0.36209092 0.08475459 0.050295595 1.4851549 0.4717781 0.11016129 -0.23778276
0.039518014 0.01776647 0.011312543 0.09971087 0.13947779 -0.017087191 -0.13286765 -0.075469635
-0.15496165 -0.032576427 0.020721363 0.3115308 -0.938346 -0.19198813 -0.21380818 -0.015450788
-0.084038824 -0.3831177 -0.36496216 -0.14408584 0.11334058 -0.058414932 -0.3274345 -0.29382566

_policy.0.bias f4 [128]
00000000: 66f8 80bd 50e8 a3bc 6e12 36be 0b80 45be
00000010: 54c2 87bc c505 07be 6d68 6b3d f358 a1b8
00000020: 51e8 39bd 779f 3c3e a124 043e 7cdd 473e
00000030: 737a 57be 4bfc 80be 651b 8ebc 8ecd 12be
00000040: 5b39 01bd 7e83 1d3d c0ce 71be 8966 5a3d
00000050: 2fb9 ba3d ef38 eabc 8a9d 74be 6542 6f3e
00000060: 41aa 8fbd be6f 13bd 8380 39bd ef18 c3bd
00000070: 4683 b63d 5d18 78be 66b2 80be b56d 1bbe
00000080: 7a70 f43d dedb b3bd 9133 943d defb af3d
00000090: b051 543e fc2a 62be b5eb 03be f6aa cb3a
000000a0: 6e62 fabb 42a0 bb3d 97ac 3bbe 6d19 c8bd
000000b0: 5af9 ee3c 7cc1 0cbe ca8a 213e b6f1 e63d
000000c0: 8e1f b6bd 5429 57be 637a bdbe b7b6 15be
000000d0: b7d6 a5be 2c95 3a3e fa76 84be 6a9e d8bd
000000e0: 8b3a 48bd 5f84 aa3d d5f7 9f3e b6cf 60bd
000000f0: 7aa8 aabd 1083 4ebc 06a3 85be ded1 b6bd
00000100: d374 c7bd 013f d3bd 9012 463d ff0b b8bd
00000110: 9e35 cfbd 789d 31be c38f 07be 1eb7 15bd
00000120: 5d2c 4cbe 56dd 393e fa62 f5bd 1962 db3d
00000130: ed76 a1bd b3db 09be 9010 38be 0fa5 fdbd
00000140: d772 3c3d 6266 c8bb c4be 123d 0c59 47be
00000150: 5ff3 eabd 4bf8 193c af90 39be 38a9 dabc
00000160: b72b d4bd d46a 44be 080e ba3d 15f8 68be
00000170: d4dd c03d 9bb6 5dbe 400c 4ebe 4132 083d
00000180: 55a7 9cbe 6e6b edbd 4e56 09be 8c9c 19be
00000190: 5d6e 7dbe a5ac 2cbe 62b7 0fbe f853 4abd
000001a0: d8ce 293c 188c f0bb d2b8 6abe ff65 82be
000001b0: a707 34bd 1f31 0b3e dc84 0c3e 4b9f 49be
000001c0: 34f1 0ebe 3337 bfbd 6e8b 90be 96a5 123e
000001d0: cf5e e43c 83e6 713d f67e 53bd fa94 453e
000001e0: 90f6 a63d 5d05 a1bd 8362 2f3d f5e3 37be
000001f0: 3a84 633c 43ae 59be c521 27be 4abb 81be
-0.06297378 -0.020008236 -0.17780468 -0.19287126 -0.016572155 -0.13185795 0.057472635 -7.693646e-05
-0.04538757 0.18420206 0.12904598 0.19518083 -0.21042804 -0.25192484 -0.017347047 -0.14336225
-0.03154884 0.03845548 -0.23614025 0.05332044 0.09117352 -0.028591601 -0.23888221 0.23365171
-0.07014895 -0.035995238 -0.045288574 -0.0952624 0.08911757 -0.24228044 -0.25136107 -0.15178569
0.11935516 -0.08782171 0.07236398 0.08592962 0.20734286 -0.2208671 -0.12882884 0.0015538621
-0.0076411283 0.09161426 -0.18327557 -0.097704746 0.029171634 -0.13745683 0.157756 0.112765715
-0.08892737 -0.21011859 -0.37007436 -0.14620481 -0.32390377 0.18220967 -0.25872022 -0.1057709
-0.048883956 0.08326029 0.31243768 -0.05488559 -0.083329156 -0.01260449 -0.2610094 -0.08926748
-0.09739079 -0.103147514 0.048357546 -0.08986663 -0.101176485 -0.17345226 -0.13238434 -0.036551587
-0.19938798 0.18150839 -0.11981769 0.1071207 -0.078840114 -0.13462715 -0.17975068 -0.12384998
0.046007957 -0.0061157206 0.03582646 -0.19467562 -0.114722006 0.009397577 -0.18121599 -0.026692018
-0.103599004 -0.19181377 0.090847075 -0.22750886 0.0941731 -0.2165169 -0.2012186 0.03325105
-0.30596414 -0.11592756 -0.13411829 -0.15001124 -0.24749132 -0.16862734 -0.14034799 -0.049396485
0.010364257 -0.007340919 -0.22922066 -0.25468442 -0.04395261 0.13592957 0.13722557 -0.19689672
-0.13959199 -0.093367 -0.28231376 0.14320979 0.02787724 0.059057724 -0.05163475 0.19295111
0.08152497 -0.07862351 0.042818557 -0.17958052 0.013886506 -0.21257882 -0.16321476 -0.25338203

_policy.2.weight f4 [128, 128]
00000000: 776c 9b3d c044 21bd 0de9 0abe 68c5 0ebc
00000010: e7ed 9b3e ded8 12bf 3849 cdbc 3c2a ed3d
00000020: acdc 593d 0a94 ffbe f9f3 0cbd afd1 8fbe
00000030: efa9 2fbd e25b 3bbe 9776 aebe b8d9 b3bd
00000040: cd4b 13be 46b3 95bd 5e3a 68be ef20 ea3d
00000050: 7d9e d23d 196c 9cbd 5ba5 163e 07c4 d9be
00000060: ff31 dbbe a23b 573c 3e18 c4be 485c 8a3e
00000070: 237a 793e 9434 033e c264 6fbd cbfa efbe
00000080: d9a4 ba3d 3286 6d3d bf2b 553e 38b0 d2bd
00000090: a334 8d3d 3516 88be 299b 8f3d 0838 963d
000000a0: 33ea aebe e896 36be 1dcc c33d 6386 1abe
000000b0: 2ad2 2d3d a773 5ebe 142e 1d3d ef67 d9bd
000000c0: 83e5 03be 846e f2be 45d9 edbd 22a8 a0bc
000000d0: 5b3a d83e add6 e73e d5a0 dcbd b52b 38be
000000e0: 1e28 8a3e a1a7 ac3d 25fc 35be 50c8 f43d
000000f0: 10e2 ea3d 7f2d c5b9 3022 4fbe 9db4 593e
00000100: 3e6e 783d dc8a b03e 4df9 7a3d 22da 91bd
00000110: 828c 463d c0e2 63be d93a 8fbc df46 27be
00000120: f35c 9dbd 50ca 27be 6341 20be 0dfa 46be
00000130: a580 49be 3934 37be f3b0 a6bd 5f88 443e
00000140: e250 4f3e 70d4 46ba 3253 e93b 57d1 abbe
00000150: 62c7 ecbe 573d d1bd 0a4b 323d a3b5 01be
00000160: 409b 973c b06f d3bd 7316 943b b164 183e
00000170: e6ea 8b3c 7711 dbbe b74d 9c3d 5519 ea3d
00000180: d4c6 b1bd c257 a33d 3faf abbd 6696 fd3d
00000190: 3625 5bbe ad65 aebd 4b39 943d 62a1 b43d
000001a0: 8a3d a9bd c5d1 a73c 7a5a 303e 2e15 0d3d
000001b0: cac9 f43b 99c0 bfbe d6dd 05bf 75bd d3bd
000001c0: 0776 4fbe eb3e 4b3e d6ca 02be 8e76 053e
000001d0: 9efa 2f3d 8648 3fbe 1702 a9be 39fe bd3c
000001e0: a808 25bc bc18 ad3d c3e5 dc3c f84b 11bf
000001f0: b07d 8fbd 7672 cebe 3c8b f53c 43ce 623e
00000200: ae84 7bbd 50fa 74bd 8400 64bd 25ef 3cbd
00000210: 0c41 18bb a197 46bd c05e af3c 3ead 2e3d
00000220: 53d4 1bbc a2b1 19bc b6d7 83bd 8d98 f1bd
00000230: aa58 ddbb 44ec 94bd 9c95 debd 99c9 7cbd
00000240: aa83 b3bd cdca f5bd e157 a7bd c9ab 2f3d
00000250: 666d 00be 8c9b c53b a5fd adbd a9e6 bb3c
00000260: 7127 06bd 1f4e 1bbd 1ee2 ddbc 13c6 9ebd
00000270: 1b30 c8bd 4833 2fbd 115c f1bb 0443 97bd
00000280: a674 97bd a6dd 6fbd 4677 35bd 38ea 5dbd
00000290: 40fd 973b 5062 9bbc 694b 91bd da94 95bd
000002a0: 2fc3 a03d 9df1 c13a 7d1a 1a3b 909c 1c3c
000002b0: 4ebd 713d 9e0b dabd 4d4f 8abd e933 edbd
000002c0: e38d d5bd a22b 8ebd 3f80 ebbc bf56 eabd
000002d0: 909a 66bc 3802 263b 44ca e9bd 51e5 16bc
000002e0: 2d38 7fbc eb2b 9fbd a50f 4a3d c00f e0bd
000002f0: 3ec9 3e3d dd01 2e3c e7a9 60bd 6824 0fbd
00000300: 05fd 353d c5e6 453c 5cb4 a8bd a974 0fbd
00000310: a8a7 c6bc 3ad5 453d b3cf 9ebd 8300 0cbd
00000320: 6727 213d 0afc a2bd 7005 0e3b d889 9ebd
00000330: 8d37 9ebd f631 fcbd fe18 e0bc 2ea2 06bd
00000340: 46c6 36bd e5f2 a4bb 7c14 9cb9 2bb8 81bd
00000350: 7ef4 123d 5416 0f3d f16b 35bc d2e7 0cbd
00000360: a91b f43b 3498 da3c b527 c2bc e5f2 d9bd
00000370: 41f0 ee3b f7b3 1bbd 8840 3e3d 22f7 ac3c
00000380: 127a 803c 076a d4bd a5ae bbbd 8000 02be
00000390: 2ea4 efbd 0d83 13bd f6dc 2b3d 69bb 55bc
000003a0: 32fd c5bd 9ef3 093c 6d58 cabd bffe 143d
000003b0: 430d 503d 00ba dabc e0ed cf3b b870 e5bc
000003c0: 06bc 1dbd 0a4d 323d 393c 853c 7ae6 f63c
000003d0: f4ed 1ebc 8ec4 99bd 4201 d33c 50cd 06be
000003e0: a68f 4b3d c7a7 9fbc 94a0 dcbd 08b4 ccbd
000003f0: 0b5b 42bd 7751 483d 9d26 993c fe96 73bd
0.075890474 -0.039372206 -0.13565464 -0.0087140575 0.30454943 -0.57362163 -0.025059327 0.11580321
0.053188965 -0.49917632 -0.034412358 -0.28089663 -0.04288667 -0.1829677 -0.34074852 -0.08781761
-0.14384384 -0.07309584 -0.22678515 0.11432063 0.102841355 -0.076378055 0.14711516 -0.4253237
-0.42811581 0.013136776 -0.38299745 0.2702353 0.24362998 0.12813026 -0.0584457 -0.46871027
0.091134734 0.057989307 0.20817469 -0.10287517 0.06894805 -0.26579443 0.07012016 0.07334906
-0.34163055 -0.17831004 0.09560416 -0.15090327 0.042436756 -0.21723805 0.03837402 -0.10615527
-0.1288052 -0.47349942 -0.116137065 -0.019611422 0.42232022 0.45280972 -0.10772864 -0.17985423
0.26983732 0.0843041 -0.17771967 0.11952269 0.11468899 -0.00037608665 -0.20227885 0.21260305
0.06065201 0.3448094 0.061272908 -0.07121684 0.048473842 -0.22254467 -0.017484115 -0.16335629
-0.07683744 -0.1638577 -0.15649943 -0.19431324 -0.1967798 -0.17891015 -0.08139219 0.19192646
0.20245698 -0.0007584756 0.0071205134 -0.3355815 -0.46245867 -0.10216778 0.043528594 -0.12666945
0.018506646 -0.10324037 0.0045192777 0.1488216 0.017079782 -0.42786762 0.076320104 0.11430613
-0.086805016 0.07975723 -0.08383035 0.12382202 -0.21400914 -0.08515487 0.0723749 0.08819844
-0.08263691 0.020485768 0.17222014 0.034444027 0.007470344 -0.37451628 -0.5229162 -0.103388704
-0.20259868 0.1984822 -0.12772688 0.13033506 0.042963617 -0.18680009 -0.33009407 0.023192512
-0.010072865 0.08451983 0.026965028 -0.56756544 -0.07006395 -0.40321702 0.029973619 0.22148995
-0.06140583 -0.05980903 -0.055664554 -0.046126503 -0.002323213 -0.04848445 0.021407485 0.042645685
-0.009511071 -0.00938073 -0.06437628 -0.11796675 -0.0067549543 -0.072716266 -0.108683795 -0.061715696
-0.08765347 -0.12001572 -0.081710584 0.042888436 -0.12541732 0.0060305055 -0.084956445 0.022937136
-0.032752458 -0.0379163 -0.02708536 -0.077526234 -0.097748004 -0.042773515 -0.0073657115 -0.07385829
-0.07395296 -0.05856099 -0.0443032 -0.054178447 0.004638344 -0.018967777 -0.070944615 -0.07303782
0.07849728 0.0014796738 0.0023514323 0.009558812 0.059018426 -0.10646747 -0.06753407 -0.11582167
-0.10427453 -0.06941916 -0.028747676 -0.11442327 -0.0140749365 0.0025330912 -0.11415532 -0.009209947
-0.015577358 -0.077720486 0.049331326 -0.10940504 0.04657864 0.010620561 -0.05484953 -0.03494683
0.04443075 0.0120789455 -0.08237526 -0.035023365 -0.024249867 0.04829905 -0.07754459 -0.034180176
0.039344218 -0.07958229 0.0021670721 -0.07741135 -0.07725439 -0.12314217 -0.027355667 -0.03286951
-0.044622682 -0.005033838 -0.000297699 -0.063339554 0.035877697 0.034933403 -0.0110730985 -0.03440077
0.0074495864 0.026683904 -0.023700574 -0.106420316 0.007291824 -0.038013425 0.04644826 0.021113936
0.015683208 -0.103717856 -0.0916417 -0.12695503 -0.11701237 -0.03601365 0.04195877 -0.01304517
-0.09667434 0.008419899 -0.09880147 0.036375757 0.050793897 -0.02670002 0.0063454956 -0.02800785
-0.03850939 0.0435305 0.016264068 0.030139197 -0.009700287 -0.07508193 0.025757436 -0.13164258
0.04969754 -0.019489182 -0.10772815 -0.09995276 -0.047450107 0.048905816 0.01869517 -0.05947017

_policy.2.bias f4 [128]
00000000: 3985 2fbe fcf1 2bbe 1d3e efbd 6cb9 d73c
00000010: 420a 083a c9dd ab3d 64e2 383c e812 e13c
00000020: 569e 10bd 0329 a73d 101b d9bd 8f42 683d
00000030: fd4c 943d de8c 9a3d 0e7a 303d 4afd b73d
00000040: 5f30 8a3d 1167 2b3e d858 0d3e 2d2a b2ba
00000050: 832c 3dbd f5c0 83bd 5306 bd3c 3777 82bc
00000060: 70fc 25bd c042 0ebc 137e 8c3d 4895 14be
00000070: d2d7 28be c35f f73d 5001 a2bd 5a14 8fbd
00000080: 0763 a7bd d19a 833c 6af2 dbbd 922f 6bbd
00000090: 17a4 85bd c4b7 0ebc 20cd 953c e25b d6bd
000000a0: 63c8 193e beee f7bd d851 853c 216b 4fbd
000000b0: 1cd9 16bd e432 4f3b d69e cdbb c48b ddbd
000000c0: 296e 173d cc0f e3bd edfe b0bd 822b dbbb
000000d0: 65d4 ad3d 4767 b5bd 6bdd 653c cb31 6d3a
000000e0: 0bba 26bc 7c34 12be 6195 ecbc 3912 2dbe
000000f0: 7691 02bd fac5 a63d e4dd a0bd 73fe cdbc
00000100: ced5 aabd 4250 28bd 11a7 493d e89b 053d
00000110: bcff 18be 3a13 ecbd 1359 85bd 805f 8abd
00000120: 363e 05be 2959 05be 3eed 9f3d 7eb0 01be
00000130: 1516 f23d 1f01 04be 8871 793d 453f e9bc
00000140: 1176 8dbc 90e1 04bd a1c4 733c 5637 cf3c
00000150: cfff 53bd 3845 f03d 0d2a 2dbd 51e6 a0bd
00000160: 0ca1 32bd 828b ec3a c957 31be 7a80 133d
00000170: 3b3f e3bc 60d2 d23d 20e2 38be c966 02be
00000180: a6a0 36bb dd96 b13c 5664 48bd 45cb 9fbd
00000190: d541 19be 0663 16bc 6ebe 84bc 03b8 ce3d
000001a0: 4bde 16bd d8fb 8d3d 8a4b 1bbe ea4f 00bd
000001b0: f731 eabd 230d 94bd b161 30bd 6ac6 4d3d
000001c0: 6059 203d d76d b23d 2ab7 f2bd 9e81 3f3d
000001d0: ac76 dbbd edde 80bc 0cbe 05be 6bcf af3b
000001e0: b3a0 aebd 275a dcbd bc81 7cbc 6e1d 90bd
000001f0: 379a 07be 3bbd 07bb 8846 b6bd e92c 993d
-0.17140664 -0.16791528 -0.11681769 0.026333533 0.0005189517 0.083919115 0.0112844445 0.027474836
-0.03530725 0.08162119 -0.10600865 0.0567041 0.07241247 0.075463995 0.04308515 0.08983858
0.06747507 0.16738535 0.13803422 -0.0013592892 -0.046185028 -0.06433288 0.023074305 -0.015925987
-0.040523946 -0.008682907 0.06859984 -0.14510071 -0.16488579 0.12078812 -0.079104066 -0.06986304
-0.08173185 0.016065033 -0.10739596 -0.057418413 -0.06525438 -0.008710805 0.018286288 -0.10466744
0.15017848 -0.12106083 0.016274378 -0.050639275 -0.036828145 0.0031616027 -0.0062750382 -0.10817674
0.03697029 -0.110869974 -0.08642373 -0.006688536 0.08487777 -0.08857589 0.014029841 0.0009048252
-0.010176192 -0.14277834 -0.028879823 -0.16901483 -0.031877004 0.0814323 -0.07854822 -0.025145745
-0.08341561 -0.041092165 0.049231593 0.032619387 -0.14941305 -0.11527105 -0.0651113 -0.067564964
-0.13012013 -0.13022293 0.07808922 -0.12664983 0.11820618 -0.12891053 0.060899287 -0.028472552
-0.017268213 -0.032441676 0.014878423 0.02529494 -0.05175763 0.117319524 -0.04227643 -0.07856429
-0.043610618 0.0018046948 -0.17318644 0.036011197 -0.027740112 0.10294032 -0.1805501 -0.12734522
-0.002786675 0.021678383 -0.048923813 -0.078024425 -0.14966519 -0.009178882 -0.016204085 0.10093691
-0.03683309 0.06932801 -0.15165535 -0.031326212 -0.11435311 -0.07229068 -0.043061916 0.05023805
0.039147735 0.087123565 -0.11851342 0.046754472 -0.10715994 -0.0157313 -0.13060778 0.0053653023
-0.08526745 -0.10759383 -0.01541179 -0.07036863 -0.13242422 -0.0020712155 -0.089001715 0.07479269

_policy.4.weight f4 [128, 128]
00000000: 214f 423e 544b 46bd 9846 07bd 95a3 06be
00000010: ff66 8e3c 8e81 b53d e11f 6b3b 508c 5e3e
00000020: 6013 efbc ff57 ba3d 357a 0abe def8 883d
00000030: c450 2ebe 7bdc ab3d 2ad8 9fbd f61a 693e
00000040: a287 c0be 22e3 343e 19c3 90be 496b 13bd
00000050: 884d a5bd 8d1a 69be 1c25 dbbc d06f 5f3e
00000060: 5ca5 a23c ea00 20be f161 05bd a317 9f3d
00000070: 3b74 6e3d b5a2 95be 6eb6 123e 669b e2be
00000080: 5208 29be 3389 03bd ca36 173e 2e2b 0dbe
00000090: b552 c2bd 22ed 06be 5717 1dbe e7ae 32bd
000000a0: 2602 8ebe b803 a8bd b176 2e3e 2614 e0bd
000000b0: 0280 3bbd d39e 303d 64f3 37bd 6b7f 103d
000000c0: 403a ec3d 2ae0 3e3d c86c e7bd 3083 64bd
000000d0: a319 fd3d 2cbd 9c3d f3a3 b4be d88f 7c3d
000000e0: 812d f23d 4ad7 0bbd db97 08bb 6004 853e
000000f0: 47f4 f0bd 70d0 95bd ea3d 5dbe ae71 12bd
00000100: e514 7b3c 5ed7 88be 3a4e 20be 5616 a2be
00000110: 3053 0fbd e38d 3dbe 098c 86be ab84 9ebe
00000120: 9691 b53d f92a 9abd 614d 4abe 7579 fcba
00000130: ba95 973e fe18 9c3d ce08 c13a 4746 d7be
00000140: 8e2c 27bf c0b8 fcbd 4f56 61be 151a 2d3e
00000150: 6201 413d 0eb6 fcbc dc6a aabe cebb ebbe
00000160: 09c9 1d3d 3ca8 64bd 52ac 803e a0fc f8bb
00000170: 25f9 1a3e a687 a1bd efcb 89be 3b29 3b3d
00000180: 4a37 673e 5399 b6bd 79f8 92be d2d7 8f3b
00000190: 1724 10bf 9239 4f3e 2ad8 023e c8d6 2dbe
000001a0: 5815 45bd 6c0b c83e 1dd6 c6bd 078e 1abc
000001b0: f92e 8b3d 6ca9 343e 835e debc a83d cf3d
000001c0: a3bc 6fbe 41bd 06be f181 b33e 4c11 183b
000001d0: 7741 98be f005 a4be a8c4 3a3e 1991 bc3d
000001e0: 7dd8 803e 5e26 97be 5a52 b1bd 80d9 e5be
000001f0: 7e9b dbbc e149 ad3e 5bae 56be b1bc 3c3e
00000200: f0b2 03be c21c 6d3d eb99 99bb 03ff 553d
00000210: 7dbb 3f3c 75ed ad3e 56b5 bbbd 8b44 96be
00000220: 5ec8 a73c 94b8 a0bc 99c9 df3d b3b6 20bd
00000230: 137b cbbc b46a 983e 564a a63d 48b9 13be
00000240: a1e6 edbd 09bb 683e 1860 523e e6dd f3bc
00000250: c307 12bf 744c e33d 57d2 0c3e 32d3 75be
00000260: 7c57 17be 2341 ab3e 2467 303e cfb8 1b3e
00000270: 8046 3abc ef59 eb3d a536 1f3e d03e fb3d
00000280: e76f b0bd 994f 9bbd ab19 86be b0bf 2fbb
00000290: 1d6e 9cbd 66ce 4bbd efac 23bd 5b66 22be
000002a0: 0e65 7bbd 0b08 afbe 6378 f4be a335 173e
000002b0: ea0a 4b3c f891 9abd 5659 5dbf 355a 513e
000002c0: e161 fc3d 8dc6 68bd e43a 993c 346e 8dbd
000002d0: 8fa4 fcbd 4850 a23d f024 abbe 2d6d b13e
000002e0: 09cb 6abe 7b58 34bd b5c0 9e3d 808c c8bd
000002f0: a100 953e 4f81 01be b8ee b2be cbc5 d5bb
00000300: 4f33 b1bd 290a 6bbe 3bd8 19be 7e5d 25bd
00000310: 2a19 003d 1fd4 083e 1a60 2c3d 67f5 bfbe
00000320: 209d fbbd 14f9 fb3c b31b 83be d90b b4be
00000330: bb4d fd3d 0966 77be 8d68 93be c384 eabd
00000340: 2c14 5abd e712 503e 1e3a c5be 146c 143d
00000350: b85c 94bd 69e8 13be 7ad5 a53e 55a1 abbe
00000360: 3e40 5dbf b677 343d 729a 283d 5487 26be
00000370: d50f 003d dfd8 babe 5629 cbbe 1a9f b0bd
00000380: 14dc df3e 815d 25bf 6816 8c3e 01be 353e
00000390: f34e 17bf 0080 45be d4be a53d 2b4c ac3d
000003a0: da0d c1bb c031 9939 96e4 0ebf c31e d33d
000003b0: d82c 0f3e 539d 513e bdda cf3c 1983 55be
000003c0: 6fe1 823d a8ee 82be b40e f0bc 8514 4abc
000003d0: 501f 6abe b762 5a3d e26c 80bd 3c55 343d
000003e0: 6a02 b6bd f8c6 30be 091d 813d 1a8c bf3d
000003f0: dc1f d3bc a50a 9f3d a680 1abd a59e ea3d
0.18975498 -0.048411682 -0.033026308 -0.13148339 0.017383097 0.08862601 0.0035877156 0.21733212
-0.029184043 0.09098815 -0.13523181 0.06688093 -0.17022997 0.08391663 -0.07804902 0.22764191
-0.3760348 0.1766477 -0.28273848 -0.035990987 -0.080714285 -0.22764035 -0.026751094 0.21819997
0.01985424 -0.15625349 -0.032564107 0.0776818 0.058216315 -0.29225698 0.14327404 -0.44259185
-0.1650708 -0.032113265 0.14766994 -0.13786003 -0.09488431 -0.13176396 -0.15340935 -0.04362383
-0.27736014 -0.08203834 0.17037465 -0.10941343 -0.045776375 0.043120217 -0.04490985 0.035277765
0.11534548 0.0466005 -0.11300045 -0.055789173 0.123584054 0.07653269 -0.35281333 0.061660618
0.118250854 -0.034140863 -0.0020842466 0.259799 -0.11765342 -0.07315147 -0.2160565 -0.035752945
0.015324806 -0.26726812 -0.15654841 -0.31657666 -0.034991443 -0.18511157 -0.26278713 -0.30960593
0.08865659 -0.07527728 -0.1975608 -0.0019262271 0.2960642 0.076219544 0.0014727355 -0.42045805
-0.6530236 -0.12339926 -0.2200558 0.16904481 0.04712046 -0.03084853 -0.33284652 -0.4604172
0.0385218 -0.055824503 0.2513147 -0.0075984746 0.15134104 -0.07887201 -0.269134 0.045693617
0.22579685 -0.08915963 -0.28705195 0.0043897415 -0.5630507 0.20236805 0.12777773 -0.16976464
-0.048116058 0.39071214 -0.097088076 -0.009433276 0.06796069 0.17642754 -0.027144676 0.10119182
-0.23411803 -0.13158132 0.35060075 0.002320367 -0.29737446 -0.3203578 0.18239081 0.09207363
0.25165167 -0.2952146 -0.086582854 -0.44892502 -0.026807543 0.33845428 -0.20964949 0.18431355
-0.12861228 0.057888754 -0.004687538 0.05224515 0.0117024155 0.33970228 -0.091654465 -0.2934917
0.020481285 -0.019619264 0.109271236 -0.039236736 -0.02483896 0.29768908 0.08119647 -0.14426148
-0.116162546 0.22727598 0.2054447 -0.029768895 -0.57043093 0.11098567 0.13752113 -0.24006346
-0.14779466 0.33448133 0.17226845 0.15207218 -0.011369348 0.11491763 0.15548189 0.1226784
-0.08615094 -0.075835414 -0.26191458 -0.0026817136 -0.0763819 -0.049757384 -0.039959844 -0.15859358
-0.06137567 -0.34185824 -0.47748098 0.14766555 0.012392739 -0.075473726 -0.8646444 0.20444568
0.123233564 -0.056829978 0.018704839 -0.06905785 -0.123360746 0.07925469 -0.3342662 0.34653607
-0.22929014 -0.044029694 0.077516 -0.09792423 0.29102042 -0.12646984 -0.34947753 -0.006523823
-0.086523645 -0.22953095 -0.15023892 -0.040372364 0.031274 0.13362168 0.042083837 -0.37491915
-0.122858286 0.030758418 -0.2560707 -0.3516529 0.123683415 -0.24160017 -0.28790703 -0.114511035
-0.053241894 0.2031971 -0.38520902 0.036235884 -0.07244247 -0.14444126 0.32389432 -0.33521524
-0.8642615 0.044059478 0.041162916 -0.16262561 0.0312651 -0.36493585 -0.39679974 -0.08624096
0.43722594 -0.645958 0.27360845 0.17748262 -0.5910484 -0.1928711 0.08093038 0.084129654
-0.005891544 0.000292195 -0.55817544 0.10308602 0.1398195 0.2047017 0.025372857 -0.20850791
0.06390654 -0.25572705 -0.029303886 -0.012333994 -0.22863507 0.053316798 -0.06270768 0.0440266
-0.08887179 -0.172634 0.06304366 0.09352894 -0.025772028 0.07765702 -0.037720345 0.1145604

_policy.4.bias f4 [128]
00000000: 14f8 76bc 69f7 c23c cb6e bb3d e0cf dfbd
00000010: d3a7 abbd 4bfc 50be 9b93 81bd d5b2 ecbd
00000020: 71bf 35be 3af7 56bd fad1 a13c b9e5 133e
00000030: 0bdc 25be 279c 8fbc 2e5c de3b 4ae1 143e
00000040: 94d8 4bbe 4f16 113d 86ef d2be 5aaa 63be
00000050: e916 e9bc f3b8 923d 3b0f 84bc 452a 10be
00000060: 4af9 403d 8228 cfbd bcbd 82be f2ed 90bd
00000070: 0286 a1bc 6cce ba3c 64b1 38be e6b2 113d
00000080: dfe1 213c 28f2 483e 921e f5be 89ed 42be
00000090: 3164 1b3d c69e 98be 3f20 6dbb 2b5b d1bd
000000a0: e08f 17bd 7c8a 4c3d 3fa0 6ebd 2cfc 51be
000000b0: d8bd 413d a238 b0bd 9f3b 33be be56 0fbe
000000c0: c35c c53d a2a9 ff3d ac9d 2cbe fdcf bbbd
000000d0: b2ca f33d 0371 85be d2f7 8e3d d486 523d
000000e0: fe28 e1bd 6f0c 0ebe c0d5 cdbd 7c2d 8e3d
000000f0: ec0a 00be 1338 29be f8ac abbd 4ffe 2d3c
00000100: b1cd c53a 4c1d 37bd 3a23 4dbd 3b03 0bbe
00000110: 4ed6 3abe 254a 37bd c6eb 9bbd d5be 66bd
00000120: 9345 3bbe a02e 97bd 298d 803d 337c 38be
00000130: 7b24 0abd 2d85 8b3d c3e7 f03d 0653 853d
00000140: 379b d6bd 5ef6 bbbd 7c94 19bd 4b31 04be
00000150: 74f5 76be 389d 823e 16c1 363d 6dab 15be
00000160: a98a 59be c80c 0ebe 34c8 333e 147f 98bd
00000170: d46a 73bc ae17 f3bd 04d4 f5bd 3e9f babc
00000180: c0d6 91be c484 633d ab41 493d 2c47 053d
00000190: be2f ae3d 2888 15be eee9 3bbe 79df d23c
000001a0: 53cf 88bd 9728 233e 2b6d 023e d2a8 6d3d
000001b0: 97fc a7bd 3eca e7bc 7597 58bd 6299 9e3c
000001c0: 99be 66be 8c74 31bd 45c8 d7bd 0af0 1bbd
000001d0: d6d0 cf3d 969c 8dbe 1a55 cfbd 5894 80be
000001e0: f9e9 b0bd ad9b dbbd 76be c5bd c56e 88bd
000001f0: 8f52 7abd e939 83be a17f 363d 8df9 493c
-0.015073795 0.023799615 0.091519915 -0.10928321 -0.08381619 -0.20408742 -0.06326982 -0.11557547
-0.1774881 -0.052481867 0.019753445 0.14443101 -0.16197221 -0.017530514 0.006785891 0.14539066
-0.19906837 0.035421666 -0.41198367 -0.22232953 -0.028453307 0.071641825 -0.016120544 -0.14078625
0.04711274 -0.10115148 -0.2553538 -0.070766345 -0.01971722 0.022803508 -0.18036419 0.035571
0.009880512 0.19623625 -0.47874886 -0.19035925 0.037937347 -0.29808635 -0.003618255 -0.10222467
-0.037002444 0.049936756 -0.05825829 -0.20506352 0.04730019 -0.08604552 -0.17503212 -0.13997933
0.096368335 0.12483527 -0.16857022 -0.0917053 0.119038954 -0.26062784 0.06980862 0.051398113
-0.10994147 -0.1387193 -0.10050535 0.06942269 -0.12504166 -0.16525297 -0.083826005 0.010619714
0.0015091208 -0.044705674 -0.050082423 -0.13575451 -0.18245813 -0.044748444 -0.076133296 -0.056334335
-0.18288259 -0.0738194 0.06276924 -0.18016128 -0.033726197 0.06812511 0.11762955 0.06509976
-0.10478824 -0.0917785 -0.03749512 -0.12909429 -0.2411707 0.25510573 0.044617735 -0.14616175
-0.21244301 -0.13872063 0.1755684 -0.07446113 -0.014857013 -0.11869751 -0.120033294 -0.02278101
-0.28484154 0.055546537 0.04913489 0.032538578 0.085052 -0.1460272 -0.18350956 0.025741326
-0.06680169 0.15933453 0.12736957 0.058022328 -0.082024746 -0.028294679 -0.052878816 0.019360248
-0.22533645 -0.04332404 -0.10536245 -0.038070716 0.10147254 -0.27658528 -0.10123654 -0.25113177
-0.08638377 -0.10723052 -0.09655468 -0.066617526 -0.06111389 -0.2563012 0.04455531 0.012327564

_policy.6.weight f4 [128, 128]
00000000: 7122 acbe 9fbd 6e3e bf7d 753c 9172 adbd
00000010: 97f0 aebd 52fa 03bf db92 0fbd 2abf 793e
00000020: be14 d7be a6cb cdbd ea1f b53e ab4b 84bd
00000030: 641a d0bd f9e0 d33d b807 83be 6046 b83d
00000040: dcf4 95bd 6b27 2f3c dbbd ff3c bdb9 e7be
00000050: db38 6b3e 4620 ce3d 09d1 493b 0d54 693d
00000060: 744c 03be e6f6 6abd 8d85 72bd 91f3 54bb
00000070: 00c1 4ebe 7a8f 6abd 2171 843e 8737 843e
00000080: cbb4 8a3d fb25 3f3d 77af c23e 00ea 5dbd
00000090: dee1 ff3d ee71 25bd 5804 683d b9a5 96be
000000a0: 1170 dcbe 2720 10be 2618 fe3c 7640 3d3e
000000b0: d2a6 19be f26d a8be 2f7e adbe cc29 53be
000000c0: 497d c1bd 8768 b5ba 4ec6 7c3c bef2 32be
000000d0: 24d8 e8bb b65b 833c d27a 0dbd 779e 04bf
000000e0: 9e10 b4be 9b1c 80bd 11f1 58bd cabf ffbd
000000f0: e9c4 c3bc 29a0 3ebe 4229 aebd d2ec 85be
00000100: 5c1d 29bf 5629 953e 9ccb e53d b04d 0dbf
00000110: a47a 8e3d ba8c 643d e0fb 013c 3f16 053c
00000120: 39f3 643e 36e9 b93b f563 91be 0f08 243e
00000130: 8b29 8c3e eaea 0fbe d83d 963e bf79 643d
00000140: 1217 21bd df6d 2c3c 2e5a 3fbe e1ab 74be
00000150: b39f 353d 8f84 233d 3b19 4bbe 0fb9 f8bc
00000160: e5df 47be 79d0 88be bf64 873e 0d22 ccbd
00000170: 7d4f a8bd 3387 e73d 1c8d 93be 9bf2 eabe
00000180: 99a4 3dbe acc9 d1bd 104c 6abd cae5 1abf
00000190: 4d12 35bd 6dd0 26be bbee e7be f570 a73e
000001a0: 679a c5be 1d9b 38be d43e d83e 729f e03d
000001b0: 3baf 7cbe ce96 61be f783 473d e958 b63c
000001c0: 525a 15be 0b73 3fbd b4f3 34be 5096 ca3d
000001d0: a858 8fbb f7de 043e ab21 1b3e f80a eb3d
000001e0: 1b32 b03e 4bd7 bcbc d1ce 423e d963 06bf
000001f0: 4c40 f2be c0a7 bcba 3906 efbd 826c 37be
00000200: 41d3 efbd c8c4 8b3e ff17 22be ff93 613e
00000210: 3498 60be 3a14 00be 380f 03bf 8cca af3c
00000220: f726 f83d 2031 25be d1a9 99bc 6c50 f73c
00000230: 66a8 15be 126c 45bd 25b6 4abe 06f0 95be
00000240: 535b 7a3e f55a 24be 9a85 f4be 3be1 e7bd
00000250: 75fa 193d 6ed2 59be 6bae 8cbd 8d27 c83d
00000260: 99a0 14be b113 12be 2de1 073e d242 e73d
00000270: a23e abbe 73f3 c7be 9e4d 19be 2499 983e
00000280: f78e e0be b7cf 8a3d 518d 6e3e 8d08 c83d
00000290: 3a81 e23c bf61 5fbb 717a 363e 5f91 a23d
000002a0: 7d0f 863d e7b5 623c c6c4 88bf e912 f43c
000002b0: b0b6 c23e 4e96 d4be f50a b4be 886f 14bd
000002c0: 2a82 c6be d81c 953d e376 15bf d6e5 a3bd
000002d0: e36d 4f3d a9c6 cabe 65c0 ee3b ef14 e8bd
000002e0: c43e 1b3e ffdb 9a3e 4495 91be ebf6 98bd
000002f0: f8a5 dbbd c373 e13d 127a abbe a856 bdbd
00000300: 20de d1bc 9d38 a43e b90a 4dbe e0f6 dc3d
00000310: 277d dbbe fe2f e9be 5c27 aabd 0121 563e
00000320: 004a d9be 1364 bb3b 8c80 60bb deda b7bc
00000330: c35f a83e e931 50bf 7862 c6be ea49 173e
00000340: 5182 febd 5467 b83d 5061 d2bd 5028 bcbe
00000350: bd85 d93d 28f5 ccbd ea71 113e 1bbb 00bf
00000360: 330c d33d 56b0 ecbe 14df 63bd 6bb2 a93d
00000370: 783c ac3d 1260 82bd 2adc 863d 7075 9a3d
00000380: ca17 57bc 1b58 99bd 1e2c 07be 8de8 133e
00000390: ee1c 14bf e313 373d 8968 61be 3db9 173e
000003a0: 5b99 ab3e 8958 89be 052f 2f3e 4735 053e
000003b0: 0ca2 8cbe 5747 21bf 4913 a93e 9652 6fbe
000003c0: 2e98 18be ea04 d53c cc46 a0be a706 91be
000003d0: 84a2 babe a2af a9bd 8dd3 0cbe f073 90be
000003e0: ec14 ecbd d671 5dbf 2f2b ee3d 51df f03c
000003f0: e37e 9ebe 96de 76be b3d3 6e3d bac6 75bf
-0.33620027 0.23314522 0.0149835935 -0.084691174 -0.085419826 -0.51553833 -0.03505216 0.2438933
-0.42008013 -0.100486085 0.3537591 -0.06459745 -0.101612836 0.103456445 -0.25591826 0.08997798
-0.07322094 0.01069055 0.03121846 -0.45258895 0.22970907 0.100647494 0.003079476 0.056964923
-0.12822133 -0.057364367 -0.059209395 -0.003249381 -0.20190811 -0.057265736 0.2586756 0.25823614
0.06772765 0.04666708 0.38024494 -0.054178238 0.124942526 -0.040391855 0.056644768 -0.2942331
-0.4305425 -0.14074765 0.031017374 0.18481621 -0.15005043 -0.32896382 -0.33885333 -0.20621413
-0.09447724 -0.0013840356 0.015428139 -0.17475411 -0.007105844 0.016034942 -0.03454096 -0.518043
-0.35168928 -0.06255456 -0.052964274 -0.12487753 -0.023897605 -0.18615784 -0.08503963 -0.26157242
-0.66060424 0.291331 0.11220476 -0.55196667 0.069569856 0.05579827 0.007933587 0.00812298
0.22358407 0.005673553 -0.28396574 0.16018699 0.27375445 -0.14054456 0.29344058 0.05578017
-0.039328642 0.010524242 -0.18686745 -0.23893692 0.044341754 0.03992134 -0.19833843 -0.03036168
-0.19519003 -0.26721552 0.2644405 -0.09967432 -0.08218286 0.11305084 -0.28818595 -0.45888218
-0.1851982 -0.10243544 -0.057201445 -0.6050688 -0.044206906 -0.16290446 -0.45299324 0.32703367
-0.38594362 -0.18027921 0.42235434 0.10967912 -0.2467622 -0.22030184 0.048709836 0.022259193
-0.14585236 -0.046740573 -0.1767109 0.09891951 -0.0043745823 0.1297568 0.15149562 0.114767015
0.34413227 -0.023051878 0.19024207 -0.52496105 -0.4731468 -0.0014393255 -0.11671109 -0.17912486
-0.11710215 0.2729857 -0.15829466 0.22029112 -0.21933061 -0.12507716 -0.51195097 0.021458887
0.12116807 -0.16132021 -0.018757733 0.030189715 -0.1461502 -0.048198767 -0.19796045 -0.29284686
0.244489 -0.16050322 -0.4775818 -0.11322256 0.03759237 -0.21271679 -0.06869205 0.09773169
-0.14514388 -0.14265324 0.13269491 0.11292042 -0.33446223 -0.39052925 -0.14971015 0.29804337
-0.43859074 0.067779 0.23296095 0.09767256 0.02764951 -0.003408536 0.17820145 0.079378836
0.06545923 0.013837314 -1.068505 0.029794173 0.38030005 -0.41520923 -0.3516461 -0.036239177
-0.38771182 0.07280892 -0.5838453 -0.08002822 0.050641906 -0.3960469 0.007286119 -0.11332118
0.15160662 0.3024597 -0.28434193 -0.07468971 -0.107250154 0.11008408 -0.3349157 -0.09245044
-0.025618613 0.32074443 -0.20023622 0.10789275 -0.4286892 -0.45544428 -0.083082885 0.20911027
-0.4243927 0.005718717 -0.0034256307 -0.022443231 0.3288556 -0.81326157 -0.38747 0.1477429
-0.124272 0.09004083 -0.10272467 -0.36749506 0.10621212 -0.10007697 0.14203611 -0.502855
0.10305061 -0.46228284 -0.055632666 0.08285984 0.08409971 -0.0636598 0.06584962 0.07541931
-0.01312823 -0.07487508 -0.13200423 0.1444418 -0.57856643 0.0446967 -0.22012533 0.14816757
0.33515438 -0.2682536 0.1710778 0.13008605 -0.27467382 -0.6299948 0.33022526 -0.23371348
-0.14901802 0.02600332 -0.31304014 -0.28325388 -0.36452115 -0.082854524 -0.13752575 -0.28213453
-0.11527428 -0.86501825 0.1162933 0.02940336 -0.30956182 -0.24108347 0.05830736 -0.9600636

_policy.6.bias f4 [128]
00000000: 8595 f6bd c43e 94be 5885 3a3e 017b 363e
00000010: d50b c23d 0c8f cd3d 962f 033d 5020 b9bc
00000020: dfaf 373e c444 e2ba 8a51 8e3d ef38 b43d
00000030: 6237 243d 8ceb 06be eb08 2c3e 837c 433e
00000040: a969 ad3c 18f1 043e 9e2c 1bbe 7185 58bd
00000050: 8eaf 5f3e d4d9 713e 5677 293e 260f 683d
00000060: 27b3 253e 99c3 0f3e 039f d83c 190a 183e
00000070: 6cd2 3c3c 2f00 8dbd bac2 bd3b f731 34be
00000080: d17f d83d 1d88 90bd b508 323e 05eb 273e
00000090: 2c21 9bbd 8fef a83d c4fa 573c 805b bb3d
000000a0: 9d48 f4bd 2d9d 88bd 784e 893e 8849 05bc
000000b0: 764e e93d 5df9 fdbd 142b 603e 59c8 0c3e
000000c0: 3157 123e 7c76 87bd 0cf0 473e cd94 cf3c
000000d0: f5d4 88bd a2d1 0abc 44ea b63c 6dbc 323e
000000e0: 3593 0b3e 6ec5 ca3e e8b4 bf3c 3420 b43d
000000f0: f4e5 3b3d b775 e83d 034d a0bd 3f68 563e
00000100: 1563 ebbc d178 423d 75a5 563e d5c8 543e
00000110: e1d1 0d3d 0c32 cd3d 4204 32be 6d1e 053e
00000120: 3ff1 47bd 39ad f53d d670 f9bc 3740 a23d
00000130: 23e0 3e3e 3bf0 75be beb1 4a3d ebb9 8a3c
00000140: d45b e83d 7877 31bd 6a1c 4dbe 11f9 49bc
00000150: 6dd2 4c3e 92ab fc3d 082e 22be 4311 49bb
00000160: 7530 ea3d 0253 033e c74b 0f3d e74f a33e
00000170: 7772 423e 33d1 e03d 35c4 bdbc 6874 03bd
00000180: 4543 7ebe 0949 133e b8b5 893d 1f1b 343d
00000190: c293 a3bd 0b17 393d dcd2 863c caa0 393e
000001a0: 9d6c 02be 6783 c33c 210f e13d 57c7 9e3d
000001b0: 174f c9be 8b0e 753e 9661 0f3e 55ce e9bc
000001c0: 8a17 f53c 1fcd 04be aaf8 ab3c f28d db3d
000001d0: da86 a03c f158 453e d6ce 10be a96e 283e
000001e0: f0cf 1d3e 908d 943e 3b64 6a3e f2fb 79be
000001f0: 72fa 853e 29c9 9fbd 33a8 ddbc 318a aa3d
-0.12040237 -0.28954136 0.18214929 0.1782036 0.09474913 0.1003705 0.032027803 -0.022598416
0.17938183 -0.0017262925 0.06949146 0.08799922 0.04009188 -0.13175792 0.16800277 0.19090466
0.021168547 0.12982595 -0.15153739 -0.052861635 0.21844313 0.23618251 0.1654943 0.05665507
0.16181622 0.14039458 0.02644301 0.14847602 0.011524778 -0.06884801 0.0057910355 -0.17597185
0.10571254 -0.070572115 0.17386134 0.16398247 -0.075746864 0.08248817 0.013182346 0.091483116
-0.119279124 -0.06670604 0.2681768 -0.008135207 0.11391918 -0.12401078 0.21891433 0.13748302
0.14291073 -0.06614396 0.19525164 0.025339508 -0.06681243 -0.008472832 0.022328503 0.17454691
0.13630374 0.39603752 0.023401693 0.08795205 0.045873597 0.11350577 -0.07827189 0.20938204
-0.02873377 0.0474785 0.20961554 0.20779736 0.034623984 0.10019311 -0.17384437 0.12999888
-0.048814055 0.1199593 -0.030449312 0.07922404 0.18640189 -0.24017422 0.049485914 0.016934356
0.1134564 -0.043326825 -0.2003037 -0.012327448 0.20002146 0.12337412 -0.15837872 -0.0030680455
0.11435024 0.12824634 0.034984376 0.31896898 0.18988977 0.109774016 -0.023164848 -0.032093436
-0.24830349 0.1438333 0.06724113 0.043971177 -0.07987167 0.04518799 0.016457967 0.18127742
-0.12736745 0.023866368 0.10989214 0.07752865 -0.39318153 0.23931329 0.1400207 -0.02854077
0.02991845 -0.12968872 0.020992596 0.10720433 0.019595552 0.1927221 -0.14141402 0.16448463
0.15411353 0.29014254 0.22889797 -0.24412516 0.26167637 -0.0780204 -0.027057743 0.08327139

_policy.8.weight f4 [3, 128]
00000000: 3d76 6ebc 7c56 673e 6d20 2bbe b993 0dbf
00000010: bfb1 afbe 40a3 4bbe 118e 02bf 6501 40be
00000020: b14a 293f d5de 07be c3b7 de3e 5eda 253f
00000030: 1597 92bc 848e 80bc 08a9 60bf 171d ecbd
00000040: 0a5a 913e 7375 9a3e efbd e6be 2a9d 01be
00000050: a664 20be 49a1 60be 4454 3b3d d041 913e
00000060: b7e4 6cbd c33b b7be be22 303e 2a7f 5abe
00000070: 7cff 0cbf 4d1f 033f a697 a0bd 99ce 0f3d
00000080: 3b8c 5abe 2343 12bc 9bca 8ebe 5332 cc3e
00000090: 3747 f6be 7578 c73e 1604 21be c6e0 03be
000000a0: 2157 023f 8d36 a6bb 2952 b7bd 395b ff3e
000000b0: 0f9a 7f3e 9adb ffbe 4bf2 863f 0682 9d3e
000000c0: b8cd 19be 61a2 1cbe fa72 9c3e 2e39 6dbe
000000d0: 4630 9abe ae50 4b3e 4198 bd3c 8544 61be
000000e0: 74bd cebc 1b11 d3be 8542 ab3d 6ef1 b83e
000000f0: 144a 223e 3592 cfbd f208 47bf 1e5d e7bd
00000100: fa41 843e 6ddd 9d3e 1ae3 e53e c135 36be
00000110: 8651 053f 0cc1 23be b5cd f23e b7dc 39bd
00000120: 541f a1be b0b8 e03e ebde 123f a07d 4abc
00000130: 802e 10be 1846 0a3f a19d b8bd 4104 b13e
00000140: 1763 d5bd 19a7 56be f351 35bf 6f84 8dbd
00000150: 71b2 91be 2227 ed3e e6d8 36bf 1c79 adbd
00000160: 30b2 0dbf e5ab 8d3e c8e7 19be 3947 88be
00000170: 2d2f 51be 4831 05be f55b fe3e 37f7 fe3e
00000180: 4496 e03d 3514 11be 45d2 9e3d 5a7e dfbe
00000190: 3e73 7fbd 7183 d9bd 1264 32be c5b0 d3be
000001a0: 776a 0fbe 63ab a43e 1ac7 edbe 0061 393f
000001b0: c87a ab3e 1549 fa3e 223e 36be 5c0a eb3d
000001c0: 60e7 b8be e772 e8bd 2142 1a3e b9f5 2e3b
000001d0: d36f a8be d06c e1be 029b 1d3f 5daa 81bd
000001e0: b279 a03e 1fee 40be f65e 74be 3835 cc3e
000001f0: f3e2 d43e 1ad0 0d3e 4100 2c3e 4142 f3bd
00000200: cf48 813e e22a b83e 3cf1 94bd 280b 163f
00000210: 4609 b03e e7fa 88bc cd53 ce3e 6e96 043f
00000220: d489 b9be e96f d93e f2d9 d3bd 6e55 48be
00000230: c2b7 25be a65e 343e bccc 803f 62f1 00be
00000240: bee8 d5be 1d6c 5cbe 6afc c03e 3ced c73e
00000250: 5052 df3e a5e4 b53e 9197 9fbe 4a48 04be
00000260: 2a55 94be e2c1 6d3e 518e 86be 1277 bfbe
00000270: ef34 a93e ba6a e2be 60e8 7f3e b99e 293d
00000280: d4d7 923e 2613 85be 984d 39bf 7c1e e4bd
00000290: 6b75 ccbd 7287 edbe 5c72 0a3f c9ba d7bd
000002a0: a8d4 1cbd e2f3 3f3e 8569 073f 64e1 28bf
000002b0: 6a2e 76be 2725 ff3e 738c 46bf 9514 69be
000002c0: a181 ecbd fe82 193f f173 fbbd 4946 7e3e
000002d0: 7afd 9a3e 71a2 92bd 0796 e73e e262 56be
000002e0: 2ef0 913e ac0e d73e ae46 2f3e 6a6d 7bbd
000002f0: e41a 603e 20bb f3bd 54a5 363f 07d7 a13e
00000300: b41b 03bf 256d 2cbe 48cf 61bd 1507 ba3e
00000310: b004 6dbd 172b 05bf 2cec 5a3e f402 003f
00000320: 5baa 8abd 4f7d dabe 5871 e03c 1af2 81be
00000330: 1973 ac3e 5980 20bf 20eb 7bbe 8979 e6be
00000340: f5bf 97be 4d20 9abd 69ca 053f 282a 813e
00000350: c4d4 ca3e f5e6 c2bd b9c1 613e 1f1c 97bd
00000360: 1f39 1e3f 2353 84be d94c fa3d e8dd 7cbe
00000370: bc4d 9abe 9ab5 8ebe f64c e4be d0c6 0abe
00000380: d865 1ebf 93e9 fd3e e233 893c 7bb8 163e
00000390: b433 55bf 81a5 93be 4ff9 50bc fb4c 0f3d
000003a0: 9f7e cabd 2b8e e7bd 6224 243d 7971 5cbf
000003b0: c596 d93e 0a2e f3be f6db b73d 21c2 76be
000003c0: ba2c a83e 8269 0a3f 1c74 a33d 6886 743e
000003d0: 0e17 bebc e1ef 1d3e 2a7e 97bf eb2c a7be
000003e0: d207 a7be 3763 863e b505 0b3f 2f03 e1be
000003f0: 54df bcbe 9ef0 dabc 549a 893e f7ca 96be
-0.014554557 0.22591585 -0.16711588 -0.5530353 -0.34315297 -0.19886494 -0.50998026 -0.18750532
0.66129595 -0.13268597 0.43499574 0.64786327 -0.017894307 -0.015692957 -0.8775792 -0.11528986
0.28389007 0.30167732 -0.45066783 -0.1265761 -0.15663394 -0.21936525 0.04573466 0.28370523
-0.057835307 -0.35787782 0.17200753 -0.21337572 -0.5507734 0.51219636 -0.07841425 0.035109136
-0.21342556 -0.008927139 -0.2788895 0.39882144 -0.48101208 0.3895909 -0.15724215 -0.12878713
0.509142 -0.005072421 -0.08951218 0.49874285 0.24961112 -0.4997223 1.0542692 0.30763263
-0.15019882 -0.15296318 0.3055647 -0.23166344 -0.30114955 0.19854996 0.02314389 -0.21998794
-0.025236823 -0.41223988 0.08362297 0.36121696 0.15848571 -0.10135309 -0.77748024 -0.112970576
0.25831586 0.30832997 0.44899827 -0.17793943 0.5207752 -0.1599161 0.47422567 -0.045376506
-0.31469214 0.43890905 0.57371396 -0.012359053 -0.14080238 0.54013205 -0.0901444 0.34573558
-0.104192905 -0.2096218 -0.7082817 -0.06910025 -0.28456452 0.46318918 -0.7142471 -0.084703654
-0.5535002 0.27670208 -0.15029824 -0.2661684 -0.20428152 -0.1300708 0.49679533 0.49797985
0.10966161 -0.14167865 0.077549495 -0.43651086 -0.062365763 -0.106207736 -0.17420986 -0.41345802
-0.14005457 0.32162008 -0.46440965 0.72413635 0.33492112 0.48883882 -0.1779714 0.11476585
-0.36114025 -0.11350041 0.15064289 0.0026696755 -0.32897815 -0.4402833 0.6156465 -0.06331322
0.31342846 -0.18840836 -0.2386435 0.39884353 0.415794 0.13848916 0.16796972 -0.11877871
0.2525086 0.35970217 -0.07272574 0.58610773 0.34382075 -0.016721202 0.4029831 0.5179204
-0.36237967 0.42468193 -0.10344304 -0.19563839 -0.1618338 0.1761423 1.006248 -0.1259208
-0.4177913 -0.21525617 0.37692577 0.39048183 0.43617487 0.35526004 -0.31170323 -0.12918201
-0.28971225 0.23218492 -0.26280454 -0.3739553 0.33048198 -0.4422205 0.24990988 0.041411135
0.2868029 -0.25991172 -0.72384024 -0.11138627 -0.09983333 -0.463924 0.5408075 -0.10533673
-0.038288742 0.18745378 0.52895385 -0.6596892 -0.24041143 0.49833032 -0.7755806 -0.22761758
-0.11548162 0.59965503 -0.122779734 0.24831499 0.30271512 -0.071598895 0.4523165 -0.20936158
0.28503555 0.4200338 0.17116806 -0.061383642 0.21885258 -0.11900926 0.7134602 0.31609365
-0.51214147 -0.1683851 -0.05512932 0.36333528 -0.0578658 -0.52018875 0.21379155 0.50004506
-0.06770774 -0.42673728 0.027397797 -0.2538002 0.33681563 -0.62695843 -0.24601412 -0.450146
-0.2963864 -0.07525692 0.5226198 0.25227475 0.39615452 -0.09516708 0.22046556 -0.073784105
0.6180591 -0.25844678 0.12221689 -0.24694026 -0.30137432 -0.27872926 -0.44589967 -0.13552403
-0.6187415 0.49592265 0.016748372 0.14718811 -0.8328202 -0.28837207 -0.012754752 0.034985524
-0.09887432 -0.11306413 0.04007376 -0.86110646 0.4249784 -0.47496063 0.08977501 -0.24097492
0.32846624 0.5406724 0.079811305 0.23879397 -0.023204353 0.15423538 -1.1835377 -0.32651457
-0.32623154 0.2624757 0.54305583 -0.4394774 -0.36889136 -0.026726063 0.26875556 -0.29451725

_policy.8.bias f4 [3]
00000000: 4063 1f3d f450 aabd b186 ec3c
0.03891301 -0.08316222 0.02887282

_value.0.weight f4 [128, 22]
00000000: 0949 813d 9182 2b3e 9eee 17be 7ff2 1a3d
00000010: 18b2 ec3c 85ea 2cbe 2372 9e3d cc30 4abd
00000020: b387 283e 9597 3abe 82b1 0bbd f392 243e
00000030: a7da 903d 3e58 5cbd 3d94 42bd b7d6 2d3d
00000040: a02f e3bc 611b 2d3e f6a2 2339 0f67 d23d
00000050: df54 a03d 0410 a1bd c38a 23be 990e 0dbe
00000060: ffc4 87bd ad6a 55bd 8cc6 193d 437f 1fbe
00000070: 5050 a3bd 2979 033e f99f 72bc 27e0 9fbd
00000080: 047b 17be 60b7 6dbd 3e74 1ebe 6921 303e
00000090: da37 e43d 0597 293e 93ae 15be 70ab 32be
000000a0: 6bd1 683c 727e 69be 1cf6 ecbd 3e5b 3e3d
000000b0: 06e5 d8bc 9408 00bd bda9 7fbd a072 17be
000000c0: a9a8 253e df6b 253e aaa5 d9bd e7e0 323e
000000d0: 45ed 073e 6056 903d d6c3 373e 4692 193e
000000e0: a70c 25be 4252 53be b6a6 11be 59bc 57be
000000f0: c5b7 0abe 4616 62bc 9dbe 6cbd c7af c3bd
00000100: 6a08 1abe 056d a83d fbd8 ebbd edde 353d
00000110: c90d 633b 1c1e 56be 49ed 1bbe 8fd0 573d
00000120: c730 923d 4fe0 103d 89d0 843c 29c6 e9bd
00000130: 5d46 e83d f5f7 233d 7eac 8d3e b2f4 b53b
00000140: aaca 163e ec01 d8bc b6c5 013c 88a8 26bd
00000150: e588 ddbd 67d2 973d cbe0 aabc 9527 8b3e
00000160: 7a37 0abe f96a 7b3e 6ee9 6ebe 081c a53d
00000170: 2fa3 b23c 2747 c23d d455 d43c 5423 ab3d
00000180: 641f 96bd cd0f b1bd 009f 3cbe e27e c2bd
00000190: 3cf7 653d 9849 873d 93e8 abbd 12f9 a2bd
000001a0: 2e7e 68bd de42 873d 054e 50bd 9d12 8e3c
000001b0: 4293 0b3d 3a65 cfbc 74f3 46be 5fd6 6c3e
000001c0: 2ed2 053e da5a e1bd cc36 013e 540a 0bbe
000001d0: 09d6 1d3e 6577 133d 83f5 9f3d c972 b23c
000001e0: 5ee0 04be a4eb ab3d da49 143e c25c ea3d
000001f0: 3199 363e 7876 d03d 83f8 a53a 37e9 23be
00000200: 5fbe 573b 6e34 0abe 51b3 b4bd d843 37be
00000210: 3ca4 af3d ce48 333e f04b debd 60ee 2e3e
00000220: 74e5 3abd 3f7e 30be 9fec c13c 0881 04bd
00000230: 03b1 873d baeb 5abd ac8a 4abe d1e8 60bd
00000240: 1ce1 14be 9be6 363e ef71 3cbe 1d39 f03d
00000250: 595f 7b3d f9c7 cfbd 0096 cf3d 3beb 3abe
00000260: 5ea5 28be 7c10 a73c acae adbd 9741 0cbe
00000270: 9be3 aa3b 8272 26be 6cd5 ca3d 5bb0 133e
00000280: f781 db3d 2573 893c 93d3 d4bd c561 2b3e
00000290: fd57 a2bc 2e1e 15be 1671 5d3d 62bb 47be
000002a0: 2af6 9d3d d51a fcbd e9ba 673c 89da cdbc
000002b0: e23c 62be d068 253d 554c 1c3e 10a7 f53d
000002c0: ab12 de3d d620 3bbe 86d3 8ebd fa21 e5bd
000002d0: 2840 aebd 0a26 d03c 4759 f03d b0a3 283e
000002e0: 338e 0cbd a34f 3e3e 1b9e 49bd 71be 0ebe
000002f0: fd6a 033e e7ee 06be 2e45 54be 6f17 31be
00000300: 4d47 263e 4f8c e53b 2249 533c 7aa5 cbbd
00000310: c986 5fbe f6e9 253e 8cbe 60bd b18c df3d
00000320: 139e 9f3d 5799 06bd 2e0e 3a3d 8d29 a6bd
00000330: 9a42 433d a312 29be 4f60 04bc 2521 b93d
00000340: 8f38 9cbd 2fee 4c3e 989e 17be f30b 3bbe
00000350: a406 fc3d ae79 a3bd 335d 64bd ead9 4abe
00000360: ec4f 51be 340f 183a c5be b13c c321 833d
00000370: 339b 153e 72e5 1fbe 7d0c 25bd b620 0e3e
00000380: 65be 063e 6737 a5bd e201 47bd a267 8a3d
00000390: 7fd7 0d3e f88d 9a3d 0e46 213d 0584 2ebc
000003a0: 6372 903d 4635 7f3c dca6 913c d995 ab3d
000003b0: 34be 13be b656 e0bc 2cd0 2d3e 824d afbd
000003c0: c346 8ebc 4ae6 41be 9f74 52bd 7c9c 2cbd
000003d0: dd95 77bc 3e81 aabd 1cc7 1ebe 615e 04be
000003e0: 0d2a 76bd 26ba e6bc c0b3 183d 7351 f23b
000003f0: 3ca7 0b3e 4a28 043e 2942 073e 91c5 193e
0.063127585 0.16749026 -0.14837119 0.03782892 0.028893515 -0.16886337 0.077366136 -0.049362943
0.16458015 -0.18221886 -0.03410483 0.16071682 0.070729546 -0.05379509 -0.047504652 0.042441096
-0.02773267 0.16904975 0.00015605599 0.10273563 0.07828688 -0.07864383 -0.15970902 -0.137751
-0.06629371 -0.052103687 0.037542865 -0.1557589 -0.07974303 0.12839188 -0.014808648 -0.078064255
-0.1479302 -0.05803621 -0.1547403 0.17200245 0.11143465 0.16561516 -0.14617376 -0.1744821
0.014210085 -0.22802141 -0.11570379 0.046473734 -0.026476394 -0.03125818 -0.062417734 -0.1478982
0.1617762 0.16154431 -0.10627301 0.17468606 0.13274105 0.07047725 0.17945799 0.14997205
-0.16118108 -0.20636848 -0.14223751 -0.21067943 -0.13546665 -0.013799256 -0.05779897 -0.09555011
-0.15042272 0.08223919 -0.11515995 0.04440205 0.0034645668 -0.20909923 -0.15227236 0.05268913
0.0713821 0.035370167 0.016212719 -0.11414749 0.11341546 0.040031392 0.27670664 0.0055528516
0.14725748 -0.026368104 0.007920673 -0.040688068 -0.10817126 0.07413178 -0.020859143 0.27178636
-0.13497725 0.24552526 -0.23331234 0.08061987 0.021806328 0.094862275 0.025919832 0.08356348
-0.07330206 -0.08645592 -0.18420029 -0.09496857 0.056143984 0.06605834 -0.083939694 -0.07957663
-0.05676096 0.06604551 -0.050855655 0.01734286 0.034075983 -0.025316823 -0.19428807 0.23128651
0.13068458 -0.11003657 0.1261856 -0.13578159 0.15413679 0.036002535 0.078104995 0.02178325
-0.12976214 0.08394554 0.14481297 0.114434734 0.17831875 0.10178846 0.0012662563 -0.16006933
0.0032919866 -0.13496563 -0.088232644 -0.17896974 0.08576247 0.17508242 -0.10854328 0.1708312
-0.04562898 -0.17235659 0.0236724 -0.032349616 0.06625559 -0.053447463 -0.19779462 -0.05490953
-0.14538997 0.17861407 -0.18402837 0.117296435 0.061370227 -0.10145564 0.10136032 -0.18253796
-0.16469333 0.020393603 -0.08480582 -0.13696896 0.005215121 -0.16254619 0.09903988 0.14422743
0.10718148 0.016778538 -0.10391917 0.16736515 -0.019817347 -0.14562294 0.054062925 -0.19505075
0.07712968 -0.12309805 0.014143684 -0.02512862 -0.22093537 0.04038316 0.15263493 0.11994755
0.108434044 -0.18274245 -0.06973939 -0.11188121 -0.085083306 0.025408763 0.11735778 0.16468692
-0.0343153 0.18585066 -0.049223047 -0.13939835 0.12833782 -0.13177072 -0.20729515 -0.17294095
0.16238137 0.0070052515 0.012895854 -0.099436715 -0.2182876 0.1620253 -0.05486922 0.10915507
0.07793822 -0.03286108 0.04542368 -0.08113394 0.047670938 -0.16511016 -0.008079602 0.09039525
-0.07627975 0.20012735 -0.14806592 -0.18266277 0.12305954 -0.07982193 -0.055752944 -0.1980969
-0.20440644 0.0005800605 0.021697411 0.06402924 0.14609985 -0.1561487 -0.040295113 0.13879666
0.13158567 -0.08067208 -0.04858578 0.06758048 0.13851736 0.0754661 0.03937345 -0.010651593
0.070530675 0.015576666 0.01777976 0.083781905 -0.14428025 -0.027385097 0.16973943 -0.08559705
-0.017367726 -0.18935505 -0.05138075 -0.042141423 -0.015111414 -0.08325432 -0.15505642 -0.12926628
-0.060098697 -0.028164934 0.037280798 0.0073949634 0.13638014 0.12905994 0.13208832 0.15016772
