logs/weight_colliion_obj_obs = 0.4/model/model_1100.pth (torch, 427625 bytes, 19 tensors)

_policy.0.weight f4 [128, 22]
000000 b9 07 c9 be ec 44 fc bd 02 4e 48 3e 17 d0 0d 3e
       -0.39263704 -0.12317833 0.19561008 0.13848911
000010 c2 be a9 be 4e 7d 29 be f8 b6 53 3e 97 6c 22 bd
       -0.3315335 -0.16551706 0.20675266 -0.03965434
000020 fe 35 e8 3e b6 e3 ba 3e 37 08 01 be 27 85 32 3d
       0.45353693 0.36501855 -0.1260079 0.043584015
000030 eb 04 9e 3e d5 81 ff 3e 31 c8 88 bd d8 cc c2 bd
       0.30863127 0.4990374 -0.066788085 -0.09511727
000040 44 12 81 bd b1 e9 b8 3d c7 67 ab 3d b2 c3 0e 3e
       -0.06302312 0.09028948 0.08369403 0.1394184
000050 b2 e5 bf bd e5 36 02 bf bd 06 ce be 40 de 9d be
       -0.09369983 -0.5086501 -0.40239516 -0.30833626
000060 bc 8b 9f 3c a6 27 80 3f 26 96 99 3d 20 97 16 3e
       0.01947581 1.00121 0.07499342 0.14706087
000070 86 6c 55 3e 99 33 8a bc 45 0b 56 bf 5a 59 30 3e
       0.2084218 -0.016870307 -0.83610946 0.17221585
000080 ef 75 95 3e 58 02 56 3e 19 19 b5 3e de 65 81 3e
       0.2919154 0.20899332 0.3537071 0.2527303
000090 ab ef 48 3e 36 5d a2 bd 5e 74 7e bd b8 af 4f be
       0.19622676 -0.07927935 -0.062122695 -0.20281875
0000a0 73 69 67 be a9 13 b0 3d f6 28 9f 3c 60 e4 82 bd
       -0.2259882 0.085975 0.019428711 -0.06391215
0000b0 52 6d 15 bf 78 b1 50 bd f8 ad 8e 3e 81 fe 85 3b
       -0.58369935 -0.050950497 0.27867103 0.004089177
0000c0 7e 7d 8f be be 82 ed 3d 9e 8f a6 3c a4 56 28 3e
       -0.2802543 0.11597203 0.020332154 0.16439301
0000d0 61 8d 9b 3f 54 db ec be 1e 03 83 3e 9f 68 1c 3d
       1.215252 -0.46261084 0.25588316 0.038185712
0000e0 0b 24 c0 3e b0 f2 fc 3e eb 12 ac 3d 6e eb 23 3e
       0.375275 0.49403906 0.08402046 0.16007778
0000f0 cd 06 22 be 21 b5 e6 3d 12 3e dc bb ce 10 52 bd
       -0.15822907 0.11265016 -0.0067212665 -0.051285557
000100 49 7a dd bd 23 d9 07 be e6 a6 fc b9 9c fb 1d bf
       -0.1081434 -0.13266425 -0.00048189535 -0.6171205
000110 db 35 c6 bc f0 4d 05 3f d5 3d 1a be f9 fd 34 bf
       -0.024195602 0.5207205 -0.1506265 -0.7070003
000120 d2 c6 cb 3d ca 55 e1 3e 08 bb 1b 3d 0b 0a f5 3d
       0.09950031 0.44010764 0.038020164 0.11964806
000130 5b c0 0f be 21 4a 94 be 15 08 c4 be 90 f6 03 3f
       -0.14038222 -0.28962806 -0.38287416 0.515481
000140 25 08 83 be 51 bf 2d be ec 50 65 be 6a c3 d9 3b
       -0.2559215 -0.16967513 -0.2239415 0.0066456096
000150 db 1e 70 be d7 f8 99 3e e2 db 14 3e 39 bf df 3d
       -0.2344927 0.30072662 0.14537004 0.10925145
000160 fb c9 8c 3f fc 7c ea be ee 04 f3 bd e0 a3 86 3e
       1.099914 -0.4579848 -0.11866175 0.26296902
000170 10 ce 48 3f ef 72 28 bf d1 3d f9 bd 95 42 16 bf
       0.78439426 -0.65800375 -0.12169994 -0.58695346
000180 83 cf 32 bf ce 3a 07 3f 65 c8 bb 3d 78 ce 01 be
       -0.6984789 0.52824104 0.091690816 -0.12676418
000190 1d 0b 0f be eb 8c 7d bd 96 14 29 3d 1a a0 35 3e
       -0.13969083 -0.061901968 0.041279398 0.17736855
0001a0 47 fc 99 39 58 a9 3a 3c 7a 87 eb 3c fb 13 00 be
       0.00029370395 0.011392914 0.028751124 -0.12507622
0001b0 7f ff ab bc 7a ba 4e bd 2c 2f 42 bf c8 27 33 3f
       -0.020995853 -0.050470807 -0.7585323 0.69982576
0001c0 d1 9d ec 3e c6 c0 eb be 3a 55 71 be 8e d2 1f 3f
       0.46214154 -0.46045512 -0.23567668 0.62430656
0001d0 06 e7 11 3e cc 88 9f 3e a3 2b 4f bc 55 df 9b bf
       0.14248285 0.31159055 -0.012644681 -1.217753
0001e0 01 ff a7 be 82 b8 fc bd 07 39 55 be 2c db b9 ba
       -0.3281174 -0.123398796 -0.20822535 -0.0014179698
0001f0 47 83 19 3d 39 8d 30 bc 11 90 22 3e 65 8f 1f 3d
       0.03747871 -0.010775858 0.1587527 0.03895511
000200 47 18 83 bd 2f e6 fc bd 4a 09 93 bd f2 93 c9 3d
       -0.06401115 -0.123485915 -0.07179506 0.098426715
000210 f3 9a c4 bd 3e b3 12 3e 72 5a 18 be 8e 10 a2 3e
       -0.09599867 0.14326188 -0.14878252 0.31653255
000220 e4 b3 a2 3e cf ea e5 bd 8c 4f 19 bf 32 32 77 3d
       0.3177787 -0.11226427 -0.59887004 0.060350604
000230 aa bc 26 3f d8 fd 33 bf ae f5 34 3e 85 08 62 bd
       0.6513163 -0.7030921 0.17671844 -0.055183906
000240 2f 4c 6a bf 5d 10 f1 3d 96 3e 5c bd c0 cf d6 bc
       -0.91522497 0.11770699 -0.053770624 -0.02622211
000250 c2 4e 67 bd 8a f4 06 be 58 b3 c4 3e bd a5 51 be
       -0.056471594 -0.13179222 0.38418078 -0.2047338
000260 2c d2 18 3e e2 39 a0 bd 81 e6 b9 be 99 ce 01 be
       0.14923924 -0.0782354 -0.36308673 -0.12676467
000270 c2 97 f7 bc cd ba 6d 3f d6 00 bc 3e f3 0c 90 3e
       -0.030223731 0.9286316 0.36719388 0.2813488
000280 29 15 15 3c f3 d2 44 be ae 72 57 bf 11 72 58 3f
       0.009099283 -0.19221096 -0.8415936 0.8454905
000290 34 c2 a6 bd 4c cf aa be 30 20 07 bc ec 61 f4 3d
       -0.0814251 -0.3336128 -0.00824742 0.119327396
0002a0 4b f2 2b be 51 f7 ca 3c 47 45 d4 bd e7 9d 88 be
       -0.16791646 0.024776133 -0.10364776 -0.2668297
0002b0 aa 92 91 3c 83 ea 33 3d 79 08 f6 bc 2c 3a 63 3e
       0.01777013 0.04392482 -0.030033337 0.2219016
0002c0 33 08 ed 3d 18 ac e2 be 3b d1 a5 bd 6f 88 0e 3e
       0.115738295 -0.44271922 -0.08096548 0.13919233
0002d0 05 ee ef 3e 65 26 96 bd a7 14 2a be 42 67 83 3d
       0.46861282 -0.07331542 -0.1660944 0.06416179
0002e0 27 da fc 3f 27 90 8f 3f 55 98 25 ba a3 0b 99 bd
       1.9754075 1.1215867 -0.000631695 -0.07472923
0002f0 cb d9 44 3e 4b f2 1a 3d 7d 1a 2a 3e 0a c8 34 be
       0.19223706 0.037828725 0.16611667 -0.17654434
000300 da 5e 33 3e 81 67 a0 bd dc ef 6a bd 1e a6 91 bc
       0.17516652 -0.07832242 -0.057357654 -0.017779406
000310 e2 85 ab bd ee 25 ed 3d d4 2b 99 3e d5 99 39 3f
       -0.083751455 0.115795 0.2991625 0.72500354
000320 83 34 f2 be ea f8 36 bf 98 70 85 be 1e d3 03 3f
       -0.47305688 -0.7147356 -0.26062465 0.51494014
000330 50 db dd be 56 f9 3b bf e7 56 33 bf e3 9c 60 3e
       -0.43331385 -0.7342733 -0.7005448 0.21934848
000340 34 34 0c be 1d bb f6 3e 94 08 71 3e 22 64 16 be
       -0.13691789 0.4818963 0.23538429 -0.14686635
000350 ee 20 8e 3d a4 39 a5 3d 04 9e de 3d f7 e1 21 be
       0.069398746 0.08067635 0.10869983 -0.15808855
000360 3d 32 0d bd 34 6b e9 3b 2e 16 e5 bd 67 fc f5 bd
       -0.03447174 0.0071233753 -0.11185871 -0.120110326
000370 22 81 1d bf be df 7f be bd d5 2f 3e 34 ed 31 bd
       -0.61525166 -0.24987695 0.17171378 -0.043439105
000380 0d a7 3e bf cd e4 9e be 4c 65 ac bd 0e 4b 10 3e
       -0.7447365 -0.31033936 -0.08417758 0.14091131
000390 9f 6c bf 3f 91 2f 0a 3f d9 d8 47 3e e7 08 48 be
       1.4955024 0.5397883 0.19516315 -0.19534646
0003a0 71 db a4 b9 ae 3f 62 3d e0 c1 82 bb d6 1a fe 3d
       -0.00031444014 0.05523651 -0.003990397 0.12407462
0003b0 58 2e 14 3e 6b 4c b3 ba c9 b6 c2 bd 13 1a 05 bd
       0.14470804 -0.001367939 -0.0950752 -0.03249557
0003c0 23 9d fe bd ff 0a 7e bd 9a 89 0c 3a ec 0e a9 3e
       -0.12432315 -0.062022205 0.00053610804 0.33019197
0003d0 27 43 72 bf 10 ec 65 be 1c 65 30 be a3 92 8f bd
       -0.94633716 -0.22453332 -0.1722607 -0.070103906
0003e0 07 78 e1 bd 06 a3 d4 be dc 19 96 be cf 2b e9 bd
       -0.110092215 -0.41530627 -0.29316604 -0.11385309
0003f0 62 4d 56 3d 41 e5 a0 bd 7b 19 aa be 4b 07 d0 be
       0.05231989 -0.07856227 -0.33222565 -0.40630564

_policy.0.bias f4 [128]
000000 df d5 81 bd 7b 19 fe bc 85 c3 3a be 2c df 44 be
       -0.06339621 -0.03101801 -0.18238647 -0.19225758
000010 33 a9 04 bd 07 e0 08 be 15 5d 2b 3d 9e fe 9d bc
       -0.032387923 -0.1336671 0.041836817 -0.01928645
000020 03 98 2c bd df 03 3e 3e aa 00 1a 3e e9 d6 34 3e
       -0.042137157 0.18556164 0.15039316 0.17660107
000030 5d c1 61 be 8e 12 7f be 48 c9 11 bc 4d d4 f8 bd
       -0.22046418 -0.24909422 -0.008898087 -0.12149868
000040 b8 1a d5 bc b3 f4 29 3d 13 08 52 be 60 b5 fe 3c
       -0.026013717 0.04149313 -0.20510893 0.031092346
000050 1d 11 aa 3d 2b ab 89 bd e2 82 83 be 6a cd 68 3e
       0.08304045 -0.06722101 -0.25685793 0.22734609
000060 47 7b 97 bd a8 72 28 bd 41 b8 f7 bc 29 dc ee bd
       -0.0739656 -0.04112497 -0.030239226 -0.11663086
000070 8e 11 b9 3d 0e e6 52 be 93 eb 81 be e1 bc 26 be
       0.090365514 -0.20595571 -0.2537504 -0.16282989
000080 25 39 dd 3d cc 03 d5 bd 2f c7 8a 3d e8 ff 99 3d
       0.10801915 -0.10401115 0.067762725 0.07519513
000090 b0 51 54 3e 7e 1b 54 be 72 5a 16 be a4 ff a5 bc
       0.20734286 -0.20713612 -0.1468294 -0.0202635
0000a0 3c 4d e5 bc 9a a3 c7 3d 0c 59 41 be 08 b6 cd bd
       -0.02799093 0.097480014 -0.18881625 -0.10044485
0000b0 b1 35 ab 3c 23 fe 0f be bc 4d 44 3e 29 f1 da 3d
       0.020899625 -0.14061789 0.19170278 0.10690529
0000c0 a3 a9 d6 bd 7c 3d 4a be d9 3e b4 be da 42 2d be
       -0.104815744 -0.19750017 -0.352042 -0.16920033
0000d0 e0 f1 9e be e1 0a 51 3e 3c 1a 85 be b4 8f d2 bd
       -0.3104391 0.20414306 -0.25996578 -0.102813154
0000e0 2b aa 30 bd df 84 9f 3d c6 1e ae 3e ad 37 9e bd
       -0.043131035 0.07789015 0.34007853 -0.07725463
0000f0 3d 8a 61 bd 94 bd 01 bd 92 02 91 be 4c f9 99 bd
       -0.055063475 -0.031674936 -0.28322273 -0.07518253
000100 d1 f2 ad bd 6a c8 bd bd 55 80 03 3d ef b5 af bd
       -0.08493579 -0.092667416 0.03210481 -0.08579623
000110 9e 35 cf bd 3a 17 3c be da bd ca bd 6e 3a 53 bd
       -0.101176485 -0.18368235 -0.098994926 -0.051569395
000120 b7 ac 44 be 62 80 14 3e 95 aa 06 be 5c 54 eb 3d
       -0.1920651 0.14502099 -0.1315101 0.114907
000130 5b 74 b6 bd 0b 02 0f be 6f 28 48 be 56 ae 04 be
       -0.08908912 -0.13965623 -0.19546674 -0.12957129
000140 78 08 75 bb c7 4b 97 bb f2 eb e0 3c 3b fd 5e be
       -0.003738908 -0.0046171877 0.027456257 -0.21776287
000150 b8 f0 f8 bd b4 fa 89 bc f3 87 41 be 00 e8 74 bd
       -0.121552885 -0.016843177 -0.18899517 -0.059791565
000160 65 79 e2 bd 5e a6 63 be 3c 60 98 3d d4 e6 81 be
       -0.110583104 -0.22231433 0.0744023 -0.2537142
000170 b5 50 ac 3d 42 70 75 be 7b 4f 65 be 1f 8b 30 3d
       0.08413831 -0.23968604 -0.223936 0.043101426
000180 d7 2d 99 be ab d3 0c be f6 91 fd bd b6 cd 27 be
       -0.29917786 -0.1375262 -0.123813555 -0.16387066
000190 ed 40 93 be b3 4e 30 be 62 b7 0f be a8 39 66 bd
       -0.28760472 -0.17217521 -0.14034799 -0.05620733
0001a0 39 5e f0 3b 5b fa df bc 25 9b 6c be 44 62 7a be
       0.007335451 -0.027341058 -0.23106058 -0.24451548
0001b0 03 0c 12 bd 10 26 20 3e 80 7d 07 3e d2 95 65 be
       -0.035655987 0.1563952 0.13231468 -0.22420433
0001c0 04 d4 46 be 1a fd c4 bd 1a f8 86 be 50 e2 0b 3e
       -0.19416815 -0.09618588 -0.2636116 0.1366055
0001d0 40 30 bb bb e4 34 25 3d 92 08 54 bd aa 6f 3d 3e
       -0.005712539 0.040333644 -0.051765986 0.18499628
0001e0 90 f6 a6 3d f7 8c a6 bd 2a 99 82 3d 59 19 2c be
       0.08152497 -0.08132356 0.0637687 -0.16806544
0001f0 15 40 04 3d c2 4b 60 be 8c 4b 43 be 23 1b 7a be
       0.032287676 -0.219039 -0.19071788 -0.24424414

_policy.2.weight f4 [128, 128]
000000 ac f8 22 3e 1c 05 fa bc d7 12 06 be 16 8e 57 be
       0.15915173 -0.030520014 -0.13093124 -0.21050295
000010 ce 87 94 3e cc 5c 0f bf 41 1c df 3c 66 9f 98 3c
       0.2900986 -0.5600097 0.027235152 0.018630695
000020 91 13 68 3d 1b 9c 08 bf 29 29 3e bd 94 36 34 be
       0.056659285 -0.533632 -0.046425972 -0.17598945
000030 e8 e8 2b bc b9 d3 df bd e7 8d c1 be 76 f2 14 be
       -0.010492541 -0.10929055 -0.37803575 -0.14545617
000040 2b e8 1d bd b0 21 9a 3c 9f 55 19 be 24 aa e4 3d
       -0.03855149 0.018814892 -0.14974068 0.11165264
000050 3b da df 3d cc 33 f6 bd d6 fa 06 3e 85 de dd be
       0.10930296 -0.12021598 0.13181624 -0.4333383
000060 ae e5 b1 be c9 af aa 3d 6d ee ab be ed c0 9b 3e
       -0.34745544 0.083343096 -0.33580342 0.30420628
000070 b2 fe 7d 3e 3e 42 87 3d ab 2e e4 3c 24 97 ce be
       0.2480419 0.066044316 0.027854284 -0.40349686
000080 3e 7f 9d 3d 71 8f 89 bb 59 33 3b 3e 7d 4c 17 bd
       0.07690285 -0.0041980078 0.18281306 -0.03693818
000090 a3 34 8d 3d 5e ac b8 be 56 04 c1 3d a0 ac cf 3c
       0.06894805 -0.36069006 0.09424655 0.025350869
0000a0 87 a3 f1 be f9 29 36 be 03 58 a3 3d c9 a6 62 3c
       -0.47195074 -0.17789449 0.07975771 0.01383371
0000b0 35 dc 38 3e bc 5e 56 be 63 32 7b 3b 94 39 f3 bc
       0.18052752 -0.20934576 0.0038329593 -0.029690541
0000c0 85 dc 24 be 9a 6d 14 bf 73 c3 46 be 7d a1 e5 3c
       -0.16099747 -0.5797974 -0.19410495 0.028031105
0000d0 6c a8 08 3f 60 7a cc 3e 5a 18 65 be 17 f1 6a be
       0.5338199 0.39937115 -0.2237257 -0.22943531
0000e0 da ba bc 3e ed 2d a4 3d 04 cb 38 be c1 d6 1e 3e
       0.36861306 0.08016572 -0.18046194 0.1551161
0000f0 1d 39 79 3e 33 88 73 bd 39 d4 d2 be 15 66 4b 3e
       0.24338193 -0.05945606 -0.41177538 0.1986316
000100 63 70 60 3d 41 28 92 3e 48 ae 07 3e 1e fc b1 bc
       0.05479468 0.28546336 0.13250077 -0.021726664
000110 82 8c 46 3d f9 d9 8e be b1 2d 3e bd de 09 bf bd
       0.048473842 -0.27900675 -0.046430293 -0.09328054
000120 fc a2 a5 bd 0b 20 db bd 4a 43 93 bd b5 b0 a5 be
       -0.080877274 -0.10699471 -0.07190569 -0.3236138
000130 10 2b 65 be 71 3e 2b bd 4a 15 80 be 27 5f 52 3e
       -0.22379708 -0.041807596 -0.25016242 0.2054411
000140 8b cf 29 3e b9 66 d8 3c cb 97 d4 bc da b1 ca be
       0.16583078 0.02641617 -0.025951287 -0.39588815
000150 21 77 f9 be ad 23 15 be 7a 79 33 bc c6 0c a8 bd
       -0.487237 -0.1456439 -0.010954255 -0.08205561
000160 94 5a d8 bc 2e bc 65 3c ea a2 03 3e 69 5d 84 3e
       -0.026410379 0.014021916 0.12855116 0.25852516
000170 47 35 9a 3d 6a ce 0a bf 82 9d 88 3c 2e 22 cd 3d
       0.07529693 -0.5422121 0.016676668 0.10016285
000180 99 aa 7b bc 1a 3a 52 3d 00 9f e7 bd cd ff c4 3d
       -0.015360498 0.05132494 -0.11309624 0.096191026
000190 07 b5 1d be e3 f2 5f bc 4b 39 94 3d 55 92 85 3d
       -0.15401088 -0.013668749 0.0723749 0.06522051
0001a0 09 7a 2d be 8c 68 4c be d4 ec 0c 3e 05 b2 13 be
       -0.16941084 -0.19961756 0.13762218 -0.14423378
0001b0 b9 f8 9d 3d fc 08 bb be 17 07 0f bf 75 bd d3 bd
       0.07713456 -0.36530292 -0.55870193 -0.103388704
0001c0 f0 ce c9 bd fb ab 3a 3e 8d 96 64 be 8a 66 49 3e
       -0.09853923 0.18229668 -0.22323056 0.19668022
0001d0 f9 45 8b bc fa 34 21 be 41 37 5c be 10 a6 de bd
       -0.017001139 -0.15742865 -0.21505453 -0.10871518
0001e0 a8 08 25 bc d3 57 d2 3d 10 4a c5 3c 23 c8 eb be
       -0.010072865 0.102706574 0.024083167 -0.4605113
0001f0 e4 4f 48 3d 36 2e bd be 9e 3f 56 3d ea b0 4c 3e
       0.048904315 -0.3694932 0.052306764 0.19989362
000200 ae 84 7b bd 50 fa 74 bd 84 00 64 bd 25 ef 3c bd
       -0.06140583 -0.05980903 -0.055664554 -0.046126503
000210 0c 41 18 bb a1 97 46 bd c0 5e af 3c 3e ad 2e 3d
       -0.002323213 -0.04848445 0.021407485 0.042645685
000220 53 d4 1b bc a2 b1 19 bc b6 d7 83 bd 8d 98 f1 bd
       -0.009511071 -0.00938073 -0.06437628 -0.11796675
000230 aa 58 dd bb 44 ec 94 bd 9c 95 de bd 99 c9 7c bd
       -0.0067549543 -0.072716266 -0.108683795 -0.061715696
000240 aa 83 b3 bd cd ca f5 bd e1 57 a7 bd c9 ab 2f 3d
       -0.08765347 -0.12001572 -0.081710584 0.042888436
000250 66 6d 00 be 8c 9b c5 3b a5 fd ad bd a9 e6 bb 3c
       -0.12541732 0.0060305055 -0.084956445 0.022937136
000260 71 27 06 bd 1f 4e 1b bd 1e e2 dd bc 13 c6 9e bd
       -0.032752458 -0.0379163 -0.02708536 -0.077526234
000270 1b 30 c8 bd 48 33 2f bd 11 5c f1 bb 04 43 97 bd
       -0.097748004 -0.042773515 -0.0073657115 -0.07385829
000280 a6 74 97 bd a6 dd 6f bd 46 77 35 bd 38 ea 5d bd
       -0.07395296 -0.05856099 -0.0443032 -0.054178447
000290 40 fd 97 3b 50 62 9b bc 69 4b 91 bd da 94 95 bd
       0.004638344 -0.018967777 -0.070944615 -0.07303782
0002a0 2f c3 a0 3d 9d f1 c1 3a 7d 1a 1a 3b 90 9c 1c 3c
       0.07849728 0.0014796738 0.0023514323 0.009558812
0002b0 4e bd 71 3d 9e 0b da bd 4d 4f 8a bd e9 33 ed bd
       0.059018426 -0.10646747 -0.06753407 -0.11582167
0002c0 e3 8d d5 bd a2 2b 8e bd 3f 80 eb bc bf 56 ea bd
       -0.10427453 -0.06941916 -0.028747676 -0.11442327
0002d0 90 9a 66 bc 38 02 26 3b 44 ca e9 bd 51 e5 16 bc
       -0.0140749365 0.0025330912 -0.11415532 -0.009209947
0002e0 2d 38 7f bc eb 2b 9f bd a5 0f 4a 3d c0 0f e0 bd
       -0.015577358 -0.077720486 0.049331326 -0.10940504
0002f0 3e c9 3e 3d dd 01 2e 3c e7 a9 60 bd 68 24 0f bd
       0.04657864 0.010620561 -0.05484953 -0.03494683
000300 05 fd 35 3d c5 e6 45 3c 5c b4 a8 bd a9 74 0f bd
       0.04443075 0.0120789455 -0.08237526 -0.035023365
000310 a8 a7 c6 bc 3a d5 45 3d b3 cf 9e bd 83 00 0c bd
       -0.024249867 0.04829905 -0.07754459 -0.034180176
000320 67 27 21 3d 0a fc a2 bd 70 05 0e 3b d8 89 9e bd
       0.039344218 -0.07958229 0.0021670721 -0.07741135
000330 8d 37 9e bd f6 31 fc bd fe 18 e0 bc 2e a2 06 bd
       -0.07725439 -0.12314217 -0.027355667 -0.03286951
000340 46 c6 36 bd e5 f2 a4 bb 7c 14 9c b9 2b b8 81 bd
       -0.044622682 -0.005033838 -0.000297699 -0.063339554
000350 7e f4 12 3d 54 16 0f 3d f1 6b 35 bc d2 e7 0c bd
       0.035877697 0.034933403 -0.0110730985 -0.03440077
000360 a9 1b f4 3b 34 98 da 3c b5 27 c2 bc e5 f2 d9 bd
       0.0074495864 0.026683904 -0.023700574 -0.106420316
000370 41 f0 ee 3b f7 b3 1b bd 88 40 3e 3d 22 f7 ac 3c
       0.007291824 -0.038013425 0.04644826 0.021113936
000380 12 7a 80 3c 07 6a d4 bd a5 ae bb bd 80 00 02 be
       0.015683208 -0.103717856 -0.0916417 -0.12695503
000390 2e a4 ef bd 0d 83 13 bd f6 dc 2b 3d 69 bb 55 bc
       -0.11701237 -0.03601365 0.04195877 -0.01304517
0003a0 32 fd c5 bd 9e f3 09 3c 6d 58 ca bd bf fe 14 3d
       -0.09667434 0.008419899 -0.09880147 0.036375757
0003b0 43 0d 50 3d 00 ba da bc e0 ed cf 3b b8 70 e5 bc
       0.050793897 -0.02670002 0.0063454956 -0.02800785
0003c0 06 bc 1d bd 0a 4d 32 3d 39 3c 85 3c 7a e6 f6 3c
       -0.03850939 0.0435305 0.016264068 0.030139197
0003d0 f4 ed 1e bc 8e c4 99 bd 42 01 d3 3c 50 cd 06 be
       -0.009700287 -0.07508193 0.025757436 -0.13164258
0003e0 a6 8f 4b 3d c7 a7 9f bc 94 a0 dc bd 08 b4 cc bd
       0.04969754 -0.019489182 -0.10772815 -0.09995276
0003f0 0b 5b 42 bd 77 51 48 3d 9d 26 99 3c fe 96 73 bd
       -0.047450107 0.048905816 0.01869517 -0.05947017

_policy.2.bias f4 [128]
000000 b1 e6 31 be fc f1 2b be 54 11 7b bd 78 48 57 3d
       -0.17373158 -0.16791528 -0.061295822 0.052559346
000010 78 4e e1 bc 35 8e c4 3d a9 d8 4c bc e6 bf 13 3d
       -0.027503237 0.09597436 -0.012502828 0.03607168
000020 56 9e 10 bd 3c 67 9e 3d 57 06 96 bd 6f d6 2e 3d
       -0.03530725 0.07734534 -0.07325428 0.04268497
000030 57 73 e4 3c 30 8b 39 3d 44 84 9f 3d c0 8a ae 3d
       0.02788703 0.045298755 0.077888995 0.08522558
000040 25 4c 23 3d 51 cd 12 3e d0 59 14 3e 94 06 53 3b
       0.03986754 0.14336134 0.14487386 0.0032199966
000050 35 2b 2b bd f7 3a 88 bd 3c 76 1a 3c c7 ff e6 3b
       -0.041789252 -0.06651872 0.009427603 0.007049534
000060 08 5a 33 bd 6e 64 3b 3c c9 7f 83 3d e0 2d 12 be
       -0.043787032 0.0114375185 0.064208575 -0.14275312
000070 d2 d7 28 be 3e 57 fa 3d bb f0 da bd 9b de 88 bd
       -0.16488579 0.122236714 -0.10690447 -0.066830836
000080 4a 3f a5 bd 3b 96 22 3c 8a a4 9e bd a7 bd 69 bd
       -0.08068712 0.009923513 -0.07746227 -0.057065632
000090 91 7f a6 bd 55 cf c7 bc e2 22 c8 3b 85 87 07 be
       -0.081298 -0.024390856 0.006107674 -0.1323529
0000a0 5e 57 0c 3e ca 63 22 be c4 6d 49 3c 41 a4 7d bd
       0.13705203 -0.15858379 0.012294237 -0.061924223
0000b0 6f d8 87 bd e4 32 4f 3b 56 41 bf 3a 84 b8 04 be
       -0.06633078 0.0031616027 0.0014591615 -0.12961012
0000c0 fe 17 73 3d cc 0f e3 bd bb 7e ab bd 19 03 9d 3d
       0.059349053 -0.110869974 -0.08373781 0.076666065
0000d0 31 f9 95 3d ee d5 b3 bd 4c 32 34 3c 07 70 9a 3c
       0.0732292 -0.08781038 0.01099832 0.018852247
0000e0 3b dc 83 bb 7c 34 12 be fc 45 e8 bc 17 22 12 be
       -0.0040240563 -0.14277834 -0.028353684 -0.14270817
0000f0 d3 55 1c bd f7 67 9a 3d 90 ae c0 bd f4 e7 03 3c
       -0.038167786 0.07539361 -0.09408295 0.008050907
000100 ce d5 aa bd 4c bf 6d bd bd 84 9d 3d 17 69 e5 b9
       -0.08341561 -0.058043763 0.076913334 -0.00043756582
000110 09 bd 0b be 9c aa 16 be 4c d4 74 bd e9 f4 93 bd
       -0.1364633 -0.1471352 -0.059772775 -0.07224447
000120 12 51 0d be 09 13 0f be af 78 07 3d 9d ca b4 bd
       -0.13800457 -0.13972105 0.033074077 -0.08827708
000130 fa bf f8 3d ac 47 c3 bd c8 99 2f 3d 19 c9 e1 bc
       0.121459916 -0.09535155 0.042871267 -0.027561711
000140 25 af 4a bd 4a 47 01 bd 5f 5e 08 3d 16 92 44 3d
       -0.049483437 -0.031562127 0.033293124 0.04799088
000150 2d 8d 91 bc b9 e1 c3 3d 3a 9f 79 bd 9d 9a e5 bd
       -0.017767513 0.095645376 -0.060942866 -0.11211131
000160 7a ba 98 bd 91 0f ab 3d 1a 1b 2a be 3b c7 11 3d
       -0.074574426 0.083525784 -0.16611901 0.03559039
000170 d0 5c d0 bc 33 a2 92 3d 67 e4 63 be fe 20 07 be
       -0.025434881 0.07159843 -0.22255097 -0.1319618
000180 23 50 59 3b c4 c4 66 3c a1 6e 24 bc 17 74 a7 bd
       0.0033159337 0.0140849985 -0.010036142 -0.08176439
000190 9b b9 0b be bd 13 f4 bc de 11 5f bc 76 b4 b9 3d
       -0.13645022 -0.029794568 -0.0136151 0.09067623
0001a0 4b de 16 bd ee a1 9f 3d 6c fa 18 be 4c 98 d9 bc
       -0.03683309 0.077945575 -0.14939278 -0.026561879
0001b0 68 c4 1b be bd ea 9f bd d3 79 49 bd d8 65 45 3d
       -0.15211642 -0.07808445 -0.049188446 0.04819283
0001c0 54 d9 9d 3d ae 5d c7 3d 54 e6 c1 bd e8 11 57 3d
       0.07707468 0.09734665 -0.0946776 0.05250731
0001d0 6e 7c ae bd df 25 6b 3c 23 5e e7 bd 5c 93 fa 3c
       -0.08519827 0.014352291 -0.11297252 0.030587845
0001e0 aa 22 af bd dc 43 f0 bd 4a 95 c9 bc bd f0 c3 bd
       -0.085515335 -0.11731693 -0.02460732 -0.095674016
0001f0 37 9a 07 be 4c 3c 4d bc fb b3 af bd 29 6e 7f 3d
       -0.13242422 -0.012526583 -0.085792504 0.062360916

_policy.4.weight f4 [128, 128]
000000 55 15 0d 3e 54 4b 46 bd 83 b2 91 bd 1d 87 b7 bd
       0.13777669 -0.048411682 -0.071141265 -0.08961318
000010 f4 92 e0 3d a1 8b c1 3c 43 84 92 3d 9f e1 91 3e
       0.10965529 0.02362615 0.07154133 0.28492448
000020 60 13 ef bc d7 4e 10 3e 60 b1 bf bd e4 8d ac bd
       -0.029184043 0.14092575 -0.093600035 -0.08425501
000030 c4 38 e4 bd 8d be cf 3d 9a d1 19 be f2 62 23 3e
       -0.1114364 0.101437666 -0.15021363 0.15955713
000040 d9 52 96 be eb 31 ed 3d eb 5b 76 be e8 bd 19 bd
       -0.29360083 0.11581787 -0.24058501 -0.037534624
000050 2a 47 28 be 70 62 98 be bd f1 16 bd 4a 7a 35 3e
       -0.16433397 -0.29762602 -0.036851633 0.17722431
000060 ba 21 1e bd 54 3a 01 be dc 18 a9 bd e6 4e 12 3d
       -0.038606383 -0.12619907 -0.08256695 0.035719775
000070 3b 74 6e 3d 9d d1 84 be 46 94 e1 3d 18 4c 01 bf
       0.058216315 -0.25941172 0.11014609 -0.50506735
000080 eb 9c 9f be 7b 08 0b bd a6 1f ec 3d a9 b3 27 be
       -0.31174406 -0.033943634 0.11529474 -0.16377129
000090 d4 55 c3 bd f9 ed c6 bd 67 3e 13 be 9f ea 83 bd
       -0.09537855 -0.097133584 -0.14379273 -0.06441235
0000a0 a4 05 d1 be 38 e0 d4 bd f7 7d 9a 3d a4 b5 41 be
       -0.40824616 -0.10394329 0.07543557 -0.18916947
0000b0 c5 37 ad bd d3 9e 30 3d 10 93 06 be 59 97 9e bd
       -0.08457903 0.043120217 -0.13142037 -0.07743711
0000c0 bb 50 f9 3d 2a e0 3e 3d f4 2f 55 be 65 f5 bf bd
       0.12173601 0.0466005 -0.20819074 -0.09372977
0000d0 4d 8e 14 3e 7a 2a b5 bc 2e 57 ab be 04 b6 c1 3d
       0.14507408 -0.022114981 -0.3346495 0.09458545
0000e0 43 a2 99 3d 4a d7 0b bd 7d 04 15 3e 73 92 ff 3d
       0.07501652 -0.034140863 0.14552493 0.12479105
0000f0 8f f2 0a bd 2f aa 8c bd 96 40 ba be a2 46 8a 3c
       -0.03392273 -0.068683974 -0.363774 0.016879383
000100 e5 14 7b 3c 79 a7 e7 be 9f 95 82 be b7 b2 a8 be
       0.015324806 -0.4524496 -0.25504777 -0.3294885
000110 5f 07 23 3c 79 8e 86 be 4e e0 c4 bc 94 c7 90 be
       0.009950488 -0.26280573 -0.024032738 -0.28277266
000120 80 56 b9 bb f9 2a 9a bd 60 12 28 be 98 74 45 3d
       -0.0056560636 -0.07527728 -0.1641326 0.048206896
000130 8a 60 a4 3e c0 11 d5 3d 54 0e dc bd a4 2e 06 bf
       0.32104903 0.10403776 -0.107449204 -0.5241492
000140 78 7c 2a bf c4 af 96 bc 66 c2 39 be a1 b4 8a 3e
       -0.66596174 -0.018394358 -0.18140563 0.27090934
000150 37 0b b0 bc 93 1f 8d bd 92 2c 9b be 0a da 02 bf
       -0.021489723 -0.06890788 -0.30307442 -0.5111395
000160 38 48 2f 3d 6e db 2c be cc f2 73 3e 70 dc 8e bd
       0.042793483 -0.16880581 0.23823088 -0.06975639
000170 ec e5 61 3e 6c 29 dd bd ea 30 de be 3b 29 3b 3d
       0.22060364 -0.10798916 -0.43396693 0.045693617
000180 c6 5a a7 3e 5e 97 3a be 58 12 88 be 29 1d 1f 39
       0.32686442 -0.18221804 -0.26576495 0.00015174285
000190 51 32 fb be f1 9f 04 3e 0f a0 50 3e f3 6d a5 bd
       -0.49061826 0.12951638 0.20373558 -0.08077612
0001a0 58 15 45 bd fc d9 c3 3e 80 56 23 be 75 1c 47 bd
       -0.048116058 0.38252246 -0.15950966 -0.048611123
0001b0 07 22 ae 3d a7 e5 5c 3e fd f2 47 3d 0e c6 ea 3d
       0.08502584 0.2157198 0.048815716 0.11463557
0001c0 1a 4a 0b be d4 99 5b be ce 72 99 3e 30 b0 b7 bd
       -0.13602486 -0.214454 0.29970402 -0.08969152
0001d0 36 7c 8f be 5b 0f 80 be aa 08 21 3e ae 2f a0 3d
       -0.28024453 -0.25011715 0.15725961 0.07821594
0001e0 1b a9 2f 3e 95 2f 62 be ae 12 af bd 00 c3 07 bf
       0.17154352 -0.22088464 -0.08548485 -0.5303192
0001f0 7e 9b db bc c4 8f bb 3e ee 0c d3 bd 9c 6e 20 3e
       -0.026807543 0.36633122 -0.103052005 0.15667194
000200 1c 7e 0f bd c2 1c 6d 3d 66 b0 1c be d2 60 40 3d
       -0.035032377 0.057888754 -0.15301666 0.046967335
000210 e1 3a fd 3c 9c 76 8f 3e a5 ec f2 bc 68 07 8f be
       0.030911865 0.2802018 -0.029653857 -0.27935338
000220 5e c8 a7 3c 0b bd 9b 3b 4a 70 9f 3d cc 71 c7 bc
       0.020481285 0.0047527603 0.07785089 -0.024346255
000230 14 d3 f1 bd 50 e2 97 3e ab b0 48 3e ca e1 6f be
       -0.11807838 0.2966485 0.19598643 -0.23425975
000240 a1 8d 15 be d7 f6 60 3e ab 50 b0 3e 6a 67 0e bd
       -0.14604808 0.21969162 0.34436545 -0.034766592
000250 81 ce 1a bf b9 0b 36 3e c5 92 b2 3c 10 d5 8e be
       -0.6047135 0.1777791 0.0217985 -0.2789693
000260 c8 25 96 be ba 97 e0 3e c9 74 50 3e 0b bd 91 3d
       -0.293257 0.43865758 0.2035705 0.07116135
000270 80 46 3a bc 28 60 85 3d 3e ed 33 3e 6a 7a df 3d
       -0.011369348 0.06512481 0.1757097 0.109120205
000280 5b 3b 59 bd 71 28 ca bc a1 bf b7 be 50 b4 c2 bd
       -0.05303512 -0.024677487 -0.3588839 -0.09507048
000290 f4 07 00 be 32 ed 38 be 9b 26 12 3d 75 d0 b2 bd
       -0.12503034 -0.18059233 0.03568135 -0.08731166
0002a0 97 39 88 3c cd 76 92 be 0d 18 b5 be 77 c9 82 3e
       0.016629023 -0.28606263 -0.35369912 0.2554433
0002b0 f8 02 24 3c f8 91 9a bd a4 85 6d bf f2 db 3a 3e
       0.010010473 -0.075473726 -0.92782044 0.18247965
0002c0 a1 1a 24 3e 8d c6 68 bd dd 7b bc 3b 9c 79 69 be
       0.16025783 -0.056829978 0.0057520703 -0.22800297
0002d0 23 25 84 be c3 d3 f8 3d db fc 59 be 01 9d b4 3e
       -0.25809583 0.12149765 -0.21287863 0.35276034
0002e0 67 1c 61 be 7b 58 34 bd 38 e5 c0 3d b0 42 2c 3c
       -0.21983491 -0.044029694 0.0941872 0.010513946
0002f0 8b 60 46 3e cb 52 55 be 54 78 cd be 6f 80 a9 bd
       0.19372766 -0.20832364 -0.40130866 -0.0827645
000300 4f 33 b1 bd c8 3c 8a bd c3 4c 7e be a3 95 d5 3a
       -0.086523645 -0.06749874 -0.2483397 0.0016295206
000310 63 6a 2e 3e 8d 19 de 3d 17 0a 66 3d 03 8e de be
       0.17032771 0.10844717 0.056161966 -0.4346772
000320 64 ba 71 bd 14 f9 fb 3c 06 82 78 be 37 3c 74 be
       -0.059015647 0.030758418 -0.2426835 -0.23851095
000330 0b 26 3c 3e 83 30 1a be fd eb 8d be ac 50 6d be
       0.18373887 -0.15057568 -0.27719107 -0.23175305
000340 b4 9b 6a 3d 63 82 b1 3e a8 1f d1 be e9 db 70 3d
       0.057277396 0.3466979 -0.40844464 0.058803473
000350 a0 e1 f8 bd f4 15 ed bd 78 37 2c 3e ea cf a4 be
       -0.121524096 -0.11576453 0.16818035 -0.32189876
000360 5a 38 5d bf 80 21 87 bc 23 62 0d 3e 69 55 88 bd
       -0.8641411 -0.016495466 0.13806967 -0.06656916
000370 7d f9 84 3d 3c a4 d2 be 5b 23 af be 1a 9f b0 bd
       0.064928986 -0.41140926 -0.34206662 -0.08624096
000380 f6 c1 07 3f 2d f3 17 bf 4f d5 91 3e c5 96 57 3d
       0.53030336 -0.5935543 0.28483054 0.05263402
000390 7a ec 1e bf 45 36 94 be 7b 5f ef 3d de 48 34 3e
       -0.62079585 -0.28947654 0.11688133 0.17605922
0003a0 da 0d c1 bb 1f 17 a0 bd c2 1c 36 bf 87 22 9f 3d
       -0.005891544 -0.0781691 -0.7113763 0.077702574
0003b0 e7 71 7b 3d 32 b6 74 3e 3e 81 92 bd 36 2e 79 be
       0.061387923 0.23897627 -0.07153557 -0.24334034
0003c0 c6 eb 22 3e f1 81 b8 bd be 2c 9a bc d9 32 d1 bc
       0.15910253 -0.09009159 -0.018820163 -0.025536941
0003d0 b0 c9 94 be 2a c4 27 3d c8 10 51 bd cd 73 d0 bd
       -0.29060125 0.04095856 -0.051041394 -0.10178337
0003e0 d0 ad 59 be f3 28 0a be d2 bb ec 3c 60 2d 1f 3c
       -0.2125771 -0.13492183 0.028898153 0.009715408
0003f0 dc 1f d3 bc af bd 83 3c 88 12 50 bd 3b 47 8c 3e
       -0.025772028 0.01608166 -0.050798923 0.27398095

_policy.4.bias f4 [128]
000000 7a 8d 55 bd 51 b4 68 3c 09 6e fa 3d 2e 78 02 be
       -0.052136876 0.014203147 0.12228019 -0.12741157
000010 24 eb 65 bd e4 2e 43 be e5 5c eb bd 03 9e 3e be
       -0.05613245 -0.19060856 -0.114923276 -0.18614964
000020 66 6f 27 be 1f e4 c6 bd a7 13 d0 3a 25 60 13 3e
       -0.16351089 -0.097114794 0.0015874997 0.14392145
000030 32 97 24 be a3 09 4c bd bf 3e 95 3d e8 e0 18 3e
       -0.16073301 -0.049813878 0.072873585 0.14929545
000040 7c 98 67 be f7 b0 3a 3d 7c 2b e9 be 29 40 70 be
       -0.22616762 0.045578923 -0.45540988 -0.23461975
000050 36 25 13 bd 7c 1a a6 3d a7 1d 99 bd 7d 0a ef bd
       -0.03592416 0.0811052 -0.07476359 -0.11671922
000060 0a e5 eb bb b9 54 33 be 33 86 93 be 53 16 aa bd
       -0.0071989344 -0.17512788 -0.28813323 -0.08305039
000070 45 db eb bc 7a 99 eb 3c 5b 46 50 be ee 38 a8 3d
       -0.02879108 0.028759707 -0.20339338 0.082139835
000080 3e 60 5f 3c 6f 63 1d 3e 45 5e e0 be 1e 66 4d be
       0.013633786 0.15369962 -0.43821922 -0.20058486
000090 ed 46 28 bd 4c f8 c3 be ea 83 83 bd 27 cf fe bd
       -0.041083265 -0.38275373 -0.06421645 -0.12441855
0000a0 d0 fd e7 bc ef fc c0 3c 9b 8d d1 bd 9d 33 4b be
       -0.02831927 0.023558108 -0.10232087 -0.19843908
0000b0 40 16 ef 3c b4 fd 20 be 6a 03 51 be e7 85 04 be
       0.029185414 -0.1572178 -0.20411459 -0.12941705
0000c0 c2 44 5e 3d 44 6e de 3d e9 db 44 be d1 89 be bd
       0.05426479 0.10860875 -0.19224514 -0.0930363
0000d0 11 97 0e 3e ca a0 78 be 6c 45 58 3d 2a a8 d4 bc
       0.13924815 -0.24280086 0.05280058 -0.025959093
0000e0 7c 22 f2 bd 5a 46 06 be d5 bd fc bd c0 49 2c 3d
       -0.118229836 -0.13112774 -0.12340895 0.04206252
0000f0 ad bc fe bd 5c f0 32 be 21 eb 11 be 63 14 bc 3c
       -0.12438331 -0.17474502 -0.14249851 0.02295894
000100 00 57 e4 ba 16 80 5d bd 90 d7 41 bd d8 34 1b be
       -0.0017420948 -0.05407723 -0.047324717 -0.15156877
000110 4a c5 65 be 7b 2c fb bd bb c3 d2 bd 36 aa 82 bd
       -0.22438541 -0.12264343 -0.10291239 -0.063801214
000120 ad 57 41 be e8 84 07 be 34 85 0e 3c 40 b8 10 be
       -0.18881102 -0.13234293 0.00869875 -0.14132786
000130 99 1e d3 ba 9e 3b e8 bb d0 f3 e8 3d ed 8f d4 3d
       -0.0016107141 -0.007087185 0.113746285 0.10379014
000140 92 b0 06 be e0 13 fe bd 7d 17 8e bd 93 a0 22 be
       -0.13153294 -0.124061346 -0.06938074 -0.15881567
000150 1b 95 86 be 89 e9 8d 3e 26 4b 7c 3d b9 40 05 be
       -0.26285633 0.27717236 0.061595105 -0.13012971
000160 7b aa 73 be 59 81 dc bd 5c 8c 38 3e 5a 1c ff bd
       -0.23795502 -0.107668586 0.18022293 -0.124565795
000170 6d 73 f8 3a d8 a8 14 be 93 2f 28 be 62 68 f6 3c
       0.0018955298 -0.14517534 -0.16424398 0.03007907
000180 22 0a a9 be dc e5 ab 3c cf 7c a6 bd 37 e8 8c 3d
       -0.33015543 0.020983629 -0.08129274 0.06880229
000190 bc 92 ac 3d 15 8a 18 be c0 85 69 be 5c 5c a3 3d
       0.08426425 -0.14896424 -0.22804928 0.079766005
0001a0 b9 12 e7 bd 7d cc 14 3e 88 fb f7 3d 56 6f 88 3d
       -0.11282868 0.14531131 0.12108523 0.06661861
0001b0 dc 3d 9c bd 89 65 0e bd fb de ba bd ec 68 d4 3c
       -0.07628986 -0.0347648 -0.091245614 0.025928937
0001c0 19 f8 87 be de 17 c7 bc dc 75 0e be 6c bb a6 bc
       -0.2655647 -0.024303373 -0.13912147 -0.020353042
0001d0 dc 4e ad 3d ed 17 90 be 07 15 e1 bd 30 9a 88 be
       0.08462307 -0.28143254 -0.10990339 -0.26680136
0001e0 91 d0 ac bd 65 82 0f be 67 cc de bd 35 ea 5c bd
       -0.084382184 -0.14014585 -0.108788304 -0.053934295
0001f0 fb 6f c9 bd 7b cc 84 be c5 49 d1 3c 32 d6 81 3b
       -0.09835812 -0.25937256 0.025547871 0.0039623016

_policy.6.weight f4 [128, 128]
000000 cd 40 a7 be 6e fd b0 3d 48 48 f7 bd e2 80 0b be
       -0.32666627 0.08642088 -0.120743334 -0.13623384
000010 bb 8d a3 bc 23 7c 3d bf ab 14 11 bb ce 3d 8c 3e
       -0.019965043 -0.7401754 -0.0022137563 0.27390903
000020 69 56 ab be 8a 97 12 be d7 a4 82 3e 73 a0 0c be
       -0.33464363 -0.1431562 0.25516388 -0.13733082
000030 35 12 93 bc d2 89 50 3e 08 48 ac be 91 52 99 bb
       -0.017953018 0.20365074 -0.33648705 -0.004679032
000040 c6 8b a3 bd 3f 9f d2 bd cc 2b 10 3e a3 84 99 be
       -0.07985644 -0.1028428 0.14079207 -0.29984006
000050 e0 9d 8e 3e 33 86 3f bd 95 fd 7d bc e2 41 b5 3d
       0.27854824 -0.04675884 -0.015502353 0.08850457
000060 f3 11 1e be 5e a2 24 be 89 8e e8 be a6 73 2a bc
       -0.15436535 -0.16077563 -0.45421246 -0.010403549
000070 6f b1 a2 be cf 45 b6 3d 39 6d 8e 3e 5a 70 87 3e
       -0.31775996 0.08900034 0.27817705 0.26452905
000080 44 ba c9 3d 4d 91 25 3d 8d af 94 3e 68 e6 d4 3d
       0.098499805 0.040421773 0.29040185 0.10395509
000090 c8 95 11 3e 92 1d 79 bd 23 4e 5f 3e 78 96 6c be
       0.14217293 -0.060819216 0.2180715 -0.23104274
0000a0 f0 54 12 bf 4b fa c9 bd be 5e 8d 3b 36 fb 35 3e
       -0.57160854 -0.09862193 0.0043142727 0.1777161
0000b0 8a d1 d2 bd 71 0e bf be 87 0f 9f be 48 39 38 be
       -0.10293873 -0.37315705 -0.31066534 -0.17990601
0000c0 33 14 15 bd 41 01 27 3c e8 10 52 3c c9 f8 2e bd
       -0.036396217 0.01019317 0.012821414 -0.04271773
0000d0 d6 09 df 3d 8c 9d bb bc e2 b8 60 be dc 1f 08 bf
       0.10890548 -0.022902273 -0.21945527 -0.53173614
0000e0 b8 1e 59 be e6 92 9f bd e5 0a 28 bd ae 8b 24 be
       -0.21203125 -0.077916905 -0.041026015 -0.16068909
0000f0 10 df 12 3e d2 9b 8b be ac f6 5d bd c4 34 5b be
       0.14342904 -0.2726732 -0.054190323 -0.21406847
000100 ab c9 50 bf 5f d6 29 3e 08 bb 8c 3c de 8d e0 be
       -0.8155772 0.16585682 0.017179027 -0.43858236
000110 ae ac 3f 3e eb 48 80 3d 84 b9 0d 3e 87 29 c2 bc
       0.18718216 0.06263908 0.138403 -0.023701442
000120 fd e6 15 3e 29 25 c6 bd 1f 96 ab be 31 36 48 3e
       0.14638896 -0.096750565 -0.3351297 0.19551922
000130 00 55 b1 3e 2b 3d d7 bd 55 fe b1 3e c3 e1 ec 3c
       0.34635162 -0.10509714 0.34764352 0.028916245
000140 78 52 c8 bd 5a 5a b5 3d 63 e0 d0 bd f7 65 b4 be
       -0.09781355 0.08855124 -0.10199048 -0.35234043
000150 9b 85 d4 3a 42 45 e1 bc 6e be 02 be c6 2e 61 bd
       0.0016214134 -0.027498845 -0.12767956 -0.054976247
000160 fc 9c 5d be 88 f0 53 be 22 3f d4 3e eb e4 7b be
       -0.21641916 -0.20697224 0.41454417 -0.24599044
000170 32 17 14 3e be cb a4 3d 24 34 8d be 13 e8 19 bf
       0.14461973 0.08046673 -0.27578843 -0.6011974
000180 d9 be 5a bd 60 45 7e bb a4 d1 98 bd 3d 00 3c bf
       -0.053404663 -0.0038798675 -0.07461861 -0.73437864
000190 21 8d a4 bd 30 ff 13 bd fd 50 eb be f4 62 bb 3e
       -0.08034731 -0.036132038 -0.45960227 0.36598933
0001a0 41 a1 20 be 2b d4 a8 bd 53 90 8f 3e ca 3e 47 3e
       -0.15686513 -0.08243593 0.28039798 0.19457546
0001b0 f2 21 98 be 43 d0 6c be 23 0b 44 3c 1e a3 10 bd
       -0.29713398 -0.2312632 0.011965546 -0.03531181
0001c0 66 fa 96 3d 59 27 08 be 9c 1e f0 bd 4a c0 97 3e
       0.073719785 -0.1329626 -0.11724588 0.29638892
0001d0 8d fd 1b 3e 46 6f 16 3e 58 f2 b4 3d 85 79 37 bc
       0.1523344 0.14690885 0.08835286 -0.011198406
0001e0 19 ae 94 3e f3 44 8d bd 3f ca 81 3e d5 c6 f7 be
       0.29039076 -0.06897917 0.25349614 -0.48393884
0001f0 ee ee ca be ea 16 07 3c 4e 06 41 be a2 26 21 be
       -0.39635414 0.008245209 -0.18850061 -0.15737393
000200 ab 23 bd bd 17 fb 84 3e 9d 74 7c be 47 c8 53 3e
       -0.09235319 0.25972816 -0.2465386 0.20681868
000210 bc 68 e4 be d0 6d db bc bd a3 0e bf 2b 77 9f bc
       -0.44611156 -0.026785761 -0.55718595 -0.019466003
000220 cc 32 cc 3d b6 84 42 bd a2 72 ae bd 20 73 9b bc
       0.09970626 -0.047489844 -0.08517958 -0.018975794
000230 d0 07 8e be 9f 95 e4 bd 87 dc 83 be 20 69 c6 be
       -0.27740335 -0.111613505 -0.25754187 -0.3875208
000240 15 22 ec 3d 59 a4 2d be d1 08 22 bf e9 3b 7c 3c
       0.11529938 -0.16957225 -0.632947 0.015395143
000250 34 7d 0c bd 49 8e 59 be 3c d7 8b bd dc 7f 03 3e
       -0.03429909 -0.21245684 -0.06828162 0.12841743
000260 25 3c 06 be a0 dc 24 be 1e 92 b3 3d 05 07 00 3e
       -0.13108881 -0.16099787 0.08768104 0.12502678
000270 8f 90 cc be b4 d6 cb be 59 d5 ec bd 15 98 6b 3e
       -0.3995404 -0.39812243 -0.1156413 0.23007233
000280 eb 78 ec be cc e0 cf 3d 6a 83 88 3e 7d 7f 22 3e
       -0.46186003 0.101502985 0.2666276 0.15868945
000290 3d 14 64 bc fe 42 86 3d 77 a1 b6 3d 85 ed b6 3d
       -0.013920841 0.065557465 0.08917516 0.08932022
0002a0 1e 5b 99 3d 2d b8 1b be 1b 49 8a bf f2 02 68 bc
       0.07488082 -0.15206976 -1.080356 -0.0141608585
0002b0 ac 45 db 3e 75 c7 53 be 15 fb 03 bf af 89 8f bd
       0.42826593 -0.20681556 -0.51554996 -0.07008683
0002c0 44 34 da be 7a 4d e9 3a a7 db 37 bf 98 00 17 be
       -0.42618 0.0017799579 -0.7181954 -0.1474632
0002d0 2d d1 52 3e 35 ac da be 8f fb d2 bd 6c fc 6a 3d
       0.20587607 -0.4270951 -0.10301887 0.057369635
0002e0 3a 42 51 3d ca f5 af 3e 50 11 1e be d4 d7 21 3d
       0.05108855 0.3436721 -0.15436292 0.03951247
0002f0 41 b4 52 be 3c 0d 6d 3c 72 e7 fc bd 60 43 36 bc
       -0.20576574 0.014468487 -0.12348832 -0.011124462
000300 f2 a7 70 bb ee af d9 3e 90 65 63 be 06 68 9d 3d
       -0.0036721197 0.42517036 -0.22206712 0.076858565
000310 2a c4 0b bf d0 2e 0e bf 1e 30 88 be b8 bb 5d 3e
       -0.545962 -0.5554018 -0.2659921 0.2165364
000320 0d 2d f2 be 16 5e 20 bd 77 de 65 bd 46 9c 5d bd
       -0.47299996 -0.039152227 -0.056120362 -0.054104112
000330 c5 08 2c 3e a0 4f 5a bf a1 5f b0 be ac 12 ff 3d
       0.1680022 -0.8527775 -0.3444796 0.12454733
000340 b3 3e 51 be 56 76 51 3e 1d be b3 be b7 85 be be
       -0.20434074 0.20455298 -0.35105982 -0.3721139
000350 b7 3e 06 3e e3 c8 9a bc de d0 54 3e 8f 00 07 bf
       0.13109861 -0.018894618 0.20782802 -0.5273523
000360 3f 48 2d 3e 5c 37 c1 be 9c a5 19 be e7 56 d6 3d
       0.16922091 -0.37737548 -0.15004581 0.10465794
000370 4e 1d e1 3d 82 71 72 3d 27 a5 c0 3c 55 67 89 3d
       0.109919176 0.05919028 0.02351625 0.06709162
000380 16 92 25 3d d0 cc 65 3c 84 f1 b3 bd 21 3e e1 3d
       0.04042252 0.014025882 -0.087863 0.10998178
000390 ee 67 24 bf 85 71 9c 3c a9 62 ac be c1 16 85 3d
       -0.64221084 0.0190971 -0.33669022 0.064984806
0003a0 99 ec 66 3e c1 68 87 be 08 98 a8 3e dc 13 d9 3d
       0.22551192 -0.26447108 0.3292849 0.10599491
0003b0 8a cc 82 be 63 20 32 bf 89 9a d1 3e c0 14 1b be
       -0.25546676 -0.6958067 0.40938213 -0.15144634
0003c0 8e 39 4c be 57 31 56 bd 6f d8 a7 be b4 59 84 be
       -0.1994383 -0.052293148 -0.32782313 -0.25849688
0003d0 4b 7e c8 be f8 13 fb bb dc e6 28 be 45 4c a5 be
       -0.39158854 -0.0076622926 -0.16494316 -0.32284752
0003e0 b7 9d e3 bd 46 fa 7d bf a8 ce 44 bd c5 4f ba 3c
       -0.11114066 -0.9921001 -0.048048645 0.022743115
0003f0 d1 96 bf be 17 ce 9c be 5b 29 16 bd 4c 9f 89 bf
       -0.3741975 -0.30625984 -0.036660533 -1.0751739

_policy.6.bias f4 [128]
000000 c6 32 88 bd dc 80 d4 be 6d e6 5c 3e 72 99 73 3e
       -0.06650309 -0.41504562 0.21572275 0.23789003
000010 48 d8 44 3e 80 79 c2 3d c6 04 1a bd 8f eb b4 3d
       0.1922313 0.094958305 -0.03760221 0.08833992
000020 b2 5c f8 3d a2 15 39 3d 9c 04 86 bb 5d b5 9b 3d
       0.12127055 0.045186646 -0.004089905 0.07602952
000030 8e da 22 bd 5a e6 03 be 36 be 94 3e 5c b8 f9 3d
       -0.03975921 -0.12880841 0.2905137 0.12193367
000040 ef 63 b2 3d 2f 88 8e 3d 6d 8a c8 bd eb 65 a1 bd
       0.08710467 0.06959569 -0.097920276 -0.078807674
000050 54 14 64 3e 52 41 65 3e e6 c7 50 3e 55 39 89 3d
       0.2227338 0.22388199 0.20388755 0.06700388
000060 8c ac 39 3e 66 8a 39 3e fd dc 29 3c a8 74 1b 3e
       0.18132228 0.18119201 0.010367629 0.1518122
000070 c1 ae 0f bd ab b5 28 3d d1 e9 cf 3c f7 31 34 be
       -0.035078768 0.041188877 0.025380047 -0.17597185
000080 24 75 d0 3d f9 ba 49 bd db 1d 60 3e 29 bf bb 3d
       0.10178593 -0.049250577 0.21886389 0.0916732
000090 a3 71 d4 bd 22 61 03 3e 94 6a 88 3d 4f 13 c4 3d
       -0.10373237 0.12830022 0.06660953 0.09573995
0000a0 49 4f 07 be 0f 1e 11 be 47 09 99 3e 14 af 67 bb
       -0.13213839 -0.14171623 0.2988989 -0.0035352157
0000b0 a3 ae ee 3d 21 40 52 be 54 c4 5e 3e 8f 87 dc 3d
       0.11654403 -0.20532276 0.2175458 0.10768043
0000c0 a6 62 b5 3d a4 63 0e 3d 39 cd c6 3d de f3 80 3d
       0.08856706 0.034762993 0.09707112 0.06296514
0000d0 ba e7 1d bc 84 ee 6f 3c a3 36 53 bd 2d 2c 00 3e
       -0.009637767 0.014644269 -0.051565778 0.12516852
0000e0 34 93 c4 3d 86 7e cf 3e 09 e1 c2 3b 3e ee 06 3e
       0.09598389 0.40526217 0.0059472364 0.1317682
0000f0 66 0e 77 bd 4a e0 49 3d 13 08 73 3d 95 56 70 3e
       -0.060316466 0.049286164 0.059333872 0.23470528
000100 82 3e aa bd de a9 f6 3d 82 bd fc 3d ee 76 3c 3e
       -0.08312704 0.12044118 0.12340833 0.18404743
000110 4d 29 ac 3c f1 1b 13 3e cb 9b 6e be ae fa 09 3e
       0.021015787 0.14366128 -0.23301618 0.13474533
000120 5f 1a 15 3d 65 84 33 3e 8e 70 b0 bd 94 19 10 bc
       0.036402103 0.17530973 -0.08615218 -0.008795161
000130 0d 26 85 3e f2 2d a0 be c2 5e 7b 3d ea 7f 45 bd
       0.26005593 -0.31285053 0.061369665 -0.04821769
000140 9c 94 e5 3d 7c 0c a6 bd c3 9d 5c be c1 ba b6 bd
       0.112099856 -0.0810785 -0.21544556 -0.08922339
000150 f1 89 80 3e 44 49 f5 3d 8f 7b 72 be 95 09 12 3d
       0.2510524 0.11976865 -0.23679946 0.03565367
000160 d0 21 3e 3e cd 8b e2 3d af a9 06 bd b0 f4 91 3e
       0.18567586 0.11061821 -0.032876667 0.28506994
000170 63 f3 44 3e c6 fa a4 3d 32 61 b5 bc ac 11 ad 3b
       0.1923347 0.08055644 -0.022141073 0.0052816477
000180 a7 3e 07 be 70 9c 29 3e 7b 45 f2 3d a0 d7 b2 bd
       -0.13207494 0.16563582 0.118296586 -0.087325335
000190 d8 b4 31 bd bf 8e bb 3b 65 6c 16 3c ea b0 3c 3e
       -0.043385357 0.005723804 0.009181117 0.18426862
0001a0 b8 0f 0a be 36 d8 e1 3d 69 67 84 3d ed f9 c1 3d
       -0.13482559 0.11027567 0.064650364 0.09471498
0001b0 fc 2a f4 be c3 cc 91 3e fe 79 a0 3d b6 32 6e bd
       -0.47689044 0.28476533 0.07835768 -0.05815383
0001c0 22 f9 7f 3d ac 9a 0f be 01 38 a2 3d 23 6b 32 3d
       0.06249345 -0.14023846 0.07920838 0.043559205
0001d0 0e aa 52 3d 76 90 41 3e 9f 74 70 be 51 cd d6 3d
       0.051431708 0.18902764 -0.23481987 0.1048838
0001e0 81 8d 0a 3e 2a 9a 95 3e 40 3a 85 3e 13 c6 e0 bd
       0.13530542 0.2921918 0.26021004 -0.1097528
0001f0 0b a7 6e 3e 64 ad a1 bd 95 69 61 bd 04 d8 a2 3c
       0.2330591 -0.078944 -0.05503233 0.019878395

_policy.8.weight f4 [3, 128]
000000 95 22 3e bd 00 53 5b 3e 6b f7 0a be 33 ae 02 bf
       -0.0464197 0.2141838 -0.13570945 -0.51047057
000010 e5 e6 c9 be 09 5c 2f be c9 8c 0f bf cf c7 8e be
       -0.3943397 -0.17124952 -0.56074196 -0.27886817
000020 8b 86 2c 3f 76 72 44 be fe c4 be 3e 9a 15 16 3f
       0.67392796 -0.19184288 0.37259668 0.5862671
000030 99 c6 38 bd 04 a7 4b 3b ea 80 38 bf 81 e7 56 bd
       -0.045111272 0.003107489 -0.7207171 -0.052466873
000040 ac f5 9e 3e ca 55 83 3e f8 d2 d3 be 02 ea 0b be
       0.31046808 0.2565139 -0.41371894 -0.13663486
000050 97 2f 2d be 34 a4 0c be 03 00 82 3d 8d d7 7c 3e
       -0.16912685 -0.13734514 0.063476585 0.24691601
000060 77 ba 49 bd 70 bc b9 be 75 33 5d 3e 38 b0 6b be
       -0.049250092 -0.3627658 0.2160166 -0.23016441
000070 e3 bc 18 bf 4a 54 f4 3e 8a e7 b5 bd 99 ce 0f 3d
       -0.5966322 0.47720557 -0.08882053 0.035109136
000080 da 10 5b be 6a ae 3a bc d1 81 2f be c2 29 c7 3e
       -0.21393147 -0.011394123 -0.17139365 0.38899046
000090 6b c3 07 bf e4 5e fd 3e bb 95 37 be d5 f4 2a be
       -0.5303256 0.49486458 -0.17928211 -0.16694959
0000a0 c4 44 0a 3f 85 b2 37 bc cf ce 57 bd 46 69 0f 3f
       0.5401118 -0.011211996 -0.052687462 0.5602001
0000b0 46 d8 a2 3e 0a 81 f7 be 96 38 61 3f e2 1c 57 3e
       0.3180563 -0.48340636 0.8797697 0.21007112
0000c0 9d 6b 21 be be e4 e9 bd 51 a3 9a 3e 8c 37 86 be
       -0.15763707 -0.11420582 0.30202726 -0.26214254
0000d0 3a 0b 95 be c6 db 23 3e ad cb be bc 57 c0 4a be
       -0.29110128 0.16001806 -0.02329048 -0.19799934
0000e0 e6 b3 d3 bc b5 fa c4 be 32 af 1d 3e 09 d3 bc 3e
       -0.025842618 -0.38472524 0.15398863 0.36879757
0000f0 31 47 c4 3d 6d e5 f7 bd 89 ec 2d bf d6 15 98 bd
       0.09583891 -0.12104306 -0.6793905 -0.0742604
000100 cd 24 85 3e df 8e 9d 3e a6 86 17 3f d9 44 24 be
       0.2600464 0.30773064 0.5918983 -0.16041888
000110 f6 4b 01 3f bb 79 2c be f9 b2 02 3f 7b bd 8e 3d
       0.5050653 -0.16843311 0.5105434 0.06969734
000120 4a 6b a7 be 2c 3e a4 3e 6d bd 28 3f 00 5d e7 bc
       -0.32699043 0.32078683 0.6591404 -0.028242588
000130 d9 33 2d be 5f 04 46 3f 34 b9 9f bd 8f 3a c8 3e
       -0.1691431 0.7735042 -0.077989966 0.39107177
000140 ee 50 03 be 82 02 52 be 6c d9 62 bf 1c 32 a5 bd
       -0.12823841 -0.20508769 -0.8861301 -0.08066198
000150 55 9f a3 be 26 08 cc 3e ee 1f 57 bf 59 c4 f5 bd
       -0.31957498 0.39849967 -0.84033096 -0.12000341
000160 e0 49 e5 be 22 90 55 3e 71 7d 4d be 0b 98 6c be
       -0.44782925 0.20855764 -0.20067383 -0.23104875
000170 dc 9b 4e be 69 38 de bd c4 28 11 3f 76 70 06 3f
       -0.20176643 -0.10850603 0.5670283 0.5251535
000180 ca d9 b1 3c b9 92 88 bd f1 5f e8 3d bd 82 07 bf
       0.021710295 -0.0666861 0.11346424 -0.52933866
000190 81 e8 bd bd 4f 1a 13 be 45 ae 11 be e1 8f b9 be
       -0.09272862 -0.14365505 -0.14226635 -0.36242583
0001a0 62 83 bc bd 31 d7 9c 3e 25 e6 d6 be c5 e0 42 3f
       -0.09204747 0.30632928 -0.4197246 0.7612422
0001b0 d8 03 99 3e 2b ac be 3e 61 78 8f be 97 9d 15 3e
       0.29885745 0.3724073 -0.2802153 0.14610897
0001c0 1e 65 a3 be f3 7d bc bd a1 8c 61 3e fa 3d 8e 3d
       -0.31913084 -0.092037104 0.22026302 0.06945415
0001d0 64 f6 97 be 68 9e c8 be 49 7b 48 3f bd fe 9f bd
       -0.2968017 -0.39183354 0.7831312 -0.07812259
0001e0 45 8d 8e 3e 9e 5e 60 be de cc 37 be a3 4c 03 3f
       0.27842155 -0.21911094 -0.17949244 0.51288813
0001f0 09 68 d4 3e c7 4a 36 3e 6a 37 5c 3e f9 8b e2 bd
       0.41485623 0.17801963 0.21505514 -0.11061854
000200 2f 73 95 3e af 84 ea 3e 5f 13 e6 bd 25 f5 14 3f
       0.2918944 0.45804355 -0.112341635 0.5818656
000210 e7 2a fb 3e be e2 cb bd 5b e7 b2 3e 86 bb 0f 3f
       0.4905617 -0.09955357 0.34942135 0.56145513
000220 cc 74 bd be 55 31 03 3f 40 e0 5c bd 0c f5 28 be
       -0.3700317 0.5124715 -0.0539248 -0.16499728
000230 5d 27 20 be f7 f5 1f 3e b0 8b 71 3f a5 8b 21 be
       -0.15640016 0.15621172 0.9435377 -0.15775926
000240 ea df b5 be be 43 34 be f4 e2 7c 3e 47 39 d3 3e
       -0.35522395 -0.17603967 0.24695951 0.41254637
000250 53 72 c8 3e b8 ae a1 3e a3 fc b9 be 0f cc ea bd
       0.39149722 0.31578612 -0.3632556 -0.11464702
000260 dd 82 86 be 62 dd 98 3e 93 57 9b be e6 f5 82 be
       -0.26271716 0.29856402 -0.3034025 -0.2557823
000270 d7 d5 c3 3e 13 7f c2 be 63 5f 75 3e b9 9e 29 3d
       0.38249084 -0.37987575 0.23962168 0.041411135
000280 ef 33 94 3e 95 ff 82 be 64 76 25 bf 9a af a9 bd
       0.28945872 -0.2558562 -0.64633775 -0.082854465
000290 48 cc 63 bd bd 0c f7 be cd f8 f0 3e 0b 88 8e bd
       -0.05561474 -0.48251906 0.4706482 -0.06959542
0002a0 d9 32 74 bd 17 e3 64 3e 4d 53 06 3f f5 7c 3f bf
       -0.059618805 0.22352253 0.52470857 -0.74800044
0002b0 5f 28 ae be 66 78 06 3f 46 b2 26 bf 95 b8 50 be
       -0.34015176 0.52527463 -0.65115774 -0.20382912
0002c0 5f b4 69 bd fd 41 e2 3e 59 2d 96 bd b9 7b 7f 3e
       -0.05705678 0.4419097 -0.07332868 0.2494954
0002d0 71 24 9c 3e 44 04 31 bd 38 26 c9 3e 89 40 1b be
       0.30496553 -0.04321696 0.3928697 -0.15161337
0002e0 31 88 62 3e 23 57 d5 3e 9c d8 07 3e 44 7b b6 bd
       0.22122265 0.41668043 0.13266224 -0.0891023
0002f0 03 64 a7 3e 7f ad d2 bd 06 da 44 3f 20 73 72 3e
       0.3269349 -0.10286998 0.7689518 0.23676729
000300 31 6d 04 bf 15 d2 f7 bd ab 56 e5 bd 8e 3c aa 3e
       -0.5172911 -0.12100617 -0.11198171 0.33249325
000310 b3 7f 9e bd ea 70 04 bf 45 f6 3c 3e 10 4b c8 3e
       -0.077392004 -0.51734793 0.1845332 0.39119768
000320 10 ff 53 bd b0 9e ca be 08 1f 08 bc e9 e0 82 be
       -0.05175692 -0.39574194 -0.00830818 -0.25562218
000330 0f b0 ba 3e d2 61 4c bf 48 e6 93 be 2e a0 07 bf
       0.36462447 -0.7983676 -0.28886628 -0.5297879
000340 cc d3 72 be 5c ed fe bd e5 e1 24 3f d2 0a 55 3e
       -0.23713607 -0.124476165 0.6440719 0.20804909
000350 ac 54 b7 3e 94 6a 2e 3c b7 9c 68 3e 23 af aa bd
       0.35806787 0.010645527 0.22716032 -0.08334186
000360 b4 20 0a 3f ec cd 6d be 5d 82 10 3e b6 31 89 be
       0.5395615 -0.23223084 0.1411223 -0.2679574
000370 07 7e 88 be 3a 7d 79 be 85 6c 11 bf b2 28 0f be
       -0.2665865 -0.24364176 -0.5680621 -0.13980368
000380 dc ec 26 bf ec 6f cb 3e 3c f2 23 bd 4a 10 56 3e
       -0.6520517 0.39733827 -0.040025935 0.20904651
000390 f5 0d 47 bf 90 5c 72 be cb d7 3e bc 2b af b2 bb
       -0.7775567 -0.23668122 -0.011648129 -0.0054530106
0003a0 03 c3 09 be 6e a4 05 be d0 24 83 bd 9c 70 48 bf
       -0.13453297 -0.13051006 -0.06403506 -0.7829683
0003b0 23 40 02 3f c1 58 c2 be b4 4c da 3d 8d f7 74 be
       0.50879115 -0.3795834 0.10659161 -0.23922558
0003c0 b8 4a 98 3e bf 65 f9 3e 58 0b 2b 3e cb dd 25 3e
       0.29744506 0.4871044 0.16703546 0.16197889
0003d0 4d bd 19 bd 04 ec 92 3d 61 53 a4 bf 90 2c a4 be
       -0.037534047 0.07173923 -1.2837945 -0.32065248
0003e0 5a 87 96 be 54 e2 57 3e 8a e4 00 3f 6f c8 03 bf
       -0.2940014 0.21082431 0.5034872 -0.5147771
0003f0 be 77 a9 be b5 9c 37 3c 9f b7 66 3e 72 ef 7d be
       -0.3309917 0.011206795 0.22530983 -0.24798372

_policy.8.bias f4 [3]
000000 62 e8 53 3d b0 83 8f bd 64 37 21 3b
       0.05173529 -0.07007539 0.0024599666
