logs/weight_colliion_obj_obs = 0.4/model/model_780.pth (torch, 427625 bytes, 19 tensors)

_policy.0.weight f4 [128, 22]
00000000: f07d b7be 4543 87bd aa26 3f3e d6b0 333e
00000010: 4fd4 cabe 205b 0dbe 57da 563e ea23 823c
00000020: 2cfe 033f 4bc3 b63e 7415 a5bd 4b0e 353e
00000030: 42fd 6a3e cc5d b53e f4ec 8bbb 93cc c8bd
00000040: 4630 febd 817f d83d eb6d 9f3d 0e9e 203e
00000050: d749 0dbe bfa7 c6be 174d c5be 2301 39be
00000060: 3f5a 063d a479 813f 8db9 563c 6b56 2c3d
00000070: 042b 553e 56ec 30be 2068 59bf 52a7 5c3e
00000080: 0f0e 943e dcaa 963e 7c76 b33e 7a17 963e
00000090: f98d 173e fb38 80bd 39e1 603c 1073 3bbe
000000a0: d01b a0be b01f cb3c 8341 653c 8ed8 84bc
000000b0: 096d 15bf c0de cebc e4e3 a23e bf94 28bd
000000c0: 6319 92be d0c2 3b3d fde3 c93c 16ce 0f3e
000000d0: 59ef 983f 4464 efbe 55fd 483e 083d fb3d
000000e0: 3a74 a23e 0234 e33e 6202 bd3d 8a2f 2e3e
000000f0: c70e 20be 0861 f13d 52e0 18bd 31b0 14bd
00000100: 21bb 32be b83e 12be 9b58 61bd ba0b 0abf
00000110: fb25 c3bd 5af4 253f 3c4f 36be 7402 09bf
00000120: 9fcc 353e bfb5 e33e a539 263d 8d78 a73e
00000130: 849d 5cbe b585 09be 0393 b5be e00f f13e
00000140: 2662 81be 9514 e8bd bab1 68be 1cff 263d
00000150: 460e 76be 9207 653e 865f 313e 6078 eb3d
00000160: 0765 873f 124d 08bf 3856 22be fc98 933e
00000170: d2eb 423f 1e3d 35bf b01e 06be b3b7 22bf
00000180: f7a1 1fbf 07e9 e23e 20f8 e53d 0f0c aabd
00000190: 75ee 0ebe 35db 903c 3965 d03c d1fb 4a3e
000001a0: 70a3 c33c 0d99 4e3d cf28 873d acc9 c7bd
000001b0: 1eaf 1cbd 48b5 44bd 0d46 47bf 3024 423f
000001c0: 4fb1 ca3e f56f 11bf b449 84be ca32 f13e
000001d0: 764f 513e e388 8a3e b298 ed3c 4739 8ebf
000001e0: a482 8dbe fa67 e4bd 2983 70be 1be7 4d3c
000001f0: f5fe ba3c c6f4 03bd c9d6 293e 769a 293d
00000200: 938e 19bd d789 0fbe 7c59 46bd db7f eb3d
00000210: a5b7 f5bc 2b20 4d3e 18d6 d6bd 6c77 de3e
00000220: 2bad af3e bbc2 e5bd d664 17bf b8d0 263d
00000230: 4833 263f 036d 31bf fea2 b83d 852d e0bd
00000240: f657 50bf 0422 2c3e 59b2 ecbc 2ffe 1bbc
00000250: 5bf0 43bd f75d 0ebe 0db4 b73e 8c68 4cbe
00000260: f834 0f3e 8d3c d4bd f9c7 e4be f640 7dbe
00000270: f689 d1bb 083c 653f 5145 863e 3888 8b3e
00000280: 0bca abbd 604a a3be 2d7f 74bf e0dd 483f
00000290: 0023 3abe f4b9 abbe 982c 1abe 0007 253d
000002a0: 1fa4 00be 50cc 8f3d c888 9ebd fe83 77be
000002b0: 25a2 933d 29e3 1a3d bfb4 7ebd 71f5 2a3e
000002c0: 1090 7e3d b6b6 cdbe c6d3 9dbd 8ac5 503e
000002d0: f274 e03e 3cf9 96bd f1bb 37be d509 e93d
000002e0: ed8c e13f b609 803f 8f34 0fbd 4e3a 27bd
000002f0: ed69 3f3e 4459 c03d d00c 363e 4b3a 5fbe
00000300: 5947 473e 32a0 61bd db07 98bd c901 bbbc
00000310: 2081 83bd 252f e73d 0e54 b03e bb0b 2a3f
00000320: 639e 02bf aa93 32bf c452 51be 4032 123f
00000330: 9178 9cbe aa11 30bf 870a 20bf 3f50 7c3e
00000340: 6bc6 10be ffc0 d13e ac8a 813e 7c49 fbbd
00000350: 0d5b d53c b823 9b3d 6a22 033e 3d51 20be
00000360: bb17 04bd 4127 203d a152 00be cd81 25be
00000370: 4491 1ebf 9173 51be f34b 433e ccba a93c
00000380: 7808 20bf 7558 abbe 5c8d ec3d 526b 683d
00000390: 14c8 b23f 8d97 e53e c92a fa3d 1eee 58be
000003a0: 8278 733d 4b4c 1b3d 50e2 ba3c 3c08 d13d
000003b0: 7935 1a3e bfd8 12bd 4b65 efbd 2f6d 30bd
000003c0: 7602 e9bd 424f f4bc 16d5 ccbc c67f 883e
000003d0: 668b 63bf 2d79 48be dce3 26be 6111 93bc
000003e0: cff4 c1bd 946b b4be 0155 aebe 4e53 60be
000003f0: 2228 7f3d cc03 7dbd cd62 b6be ddc1 acbe
-0.3583827 -0.066046275 0.18667093 0.17547926 -0.39615104 -0.13804293 0.20981728 0.015886266
0.5155971 0.35695872 -0.080607325 0.17681234 0.22948173 0.35423124 -0.0042701904 -0.098046444
-0.12411551 0.105711944 0.07784637 0.15685293 -0.13797699 -0.38799855 -0.38535377 -0.1806684
0.03280091 1.0115247 0.013105762 0.042074602 0.2081719 -0.17277655 -0.8492451 0.21548203
0.28916976 0.2942723 0.35051334 0.29314786 0.14800252 -0.06260868 0.013725572 -0.18305612
-0.3127122 0.024795383 0.01399267 -0.016216543 -0.583695 -0.0252527 0.31814492 -0.04115748
-0.28534994 0.045840085 0.024644846 0.1404346 1.1948043 -0.46756184 0.19627889 0.122675
0.317293 0.44375616 0.0922897 0.17010322 -0.15630637 0.11786085 -0.037323304 -0.03630084
-0.17454197 -0.14281738 -0.05501614 -0.53924143 -0.095287286 0.64825976 -0.17803663 -0.5351937
0.17753838 0.444746 0.040582318 0.3270916 -0.21544462 -0.13429911 -0.35463724 0.47082424
-0.25270194 -0.11332051 -0.22724047 0.040770635 -0.24028882 0.22366169 0.17321596 0.11497569
1.0577706 -0.532426 -0.15853202 0.28827655 0.76141083 -0.7079638 -0.13097644 -0.6356155
-0.62356514 0.4431841 0.11228967 -0.08303081 -0.13958152 0.017682651 0.025438892 0.19822623
0.023881644 0.05043893 0.065995805 -0.09755263 -0.038252942 -0.048024446 -0.77841264 0.7583647
0.395884 -0.5681146 -0.2583748 0.4710906 0.20440468 0.2705756 0.029003475 -1.111123
-0.27638733 -0.111526445 -0.23487534 0.012567307 0.022826651 -0.032215856 0.1658584 0.04140707
-0.037489485 -0.14017425 -0.048425183 0.11498996 -0.029994795 0.20031802 -0.10490054 0.43450487
0.34311804 -0.112187825 -0.5913824 0.040726393 0.64922 -0.69306964 0.09015463 -0.10946182
-0.8138422 0.16809851 -0.028893637 -0.009521051 -0.047836643 -0.13903032 0.35879555 -0.19961756
0.1398505 -0.10363112 -0.44683817 -0.24731812 -0.00639462 0.89544725 0.2622476 0.27252364
-0.08388146 -0.3189268 -0.95506555 0.78463554 -0.18177414 -0.33540308 -0.15056074 0.04028988
-0.12562607 0.070213914 -0.07740933 -0.24171445 0.07208661 0.037814293 -0.06218409 0.16695191
0.062149107 -0.4017846 -0.07706408 0.20387855 0.43839222 -0.073717564 -0.17942788 0.113788284
1.7621132 1.0002964 -0.034962233 -0.040827088 0.18692751 0.09392026 0.17778325 -0.21799581
0.1946081 -0.055084415 -0.07423373 -0.022828 -0.06421113 0.11288289 0.3443913 0.6642415
-0.5102293 -0.6975657 -0.20441729 0.57107925 -0.30560735 -0.68776953 -0.62516063 0.24639986
-0.1413819 0.40967557 0.2530111 -0.122698754 0.026044393 0.07575172 0.12806097 -0.1565599
-0.032249194 0.039099935 -0.1253152 -0.16162796 -0.6194041 -0.20454241 0.19071941 0.020718955
-0.6251292 -0.33465925 0.115504 0.056742974 1.3967309 0.44842187 0.12215192 -0.21184584
0.059441097 0.037914556 0.022812992 0.10206649 0.1505946 -0.035851236 -0.11689242 -0.043072876
-0.113774225 -0.02982295 -0.025003951 0.26659983 -0.8888458 -0.19577475 -0.16297859 -0.017952623
-0.09470522 -0.35238326 -0.34049228 -0.21906778 0.062294133 -0.0617712 -0.35622254 -0.33741656

_policy.0.bias f4 [128]
00000000: bfaf 08bd c9b3 e2bb 6acd 27be c88d 3fbe
00000010: 38c2 4bbc c935 0abe 12c0 343d 5248 903c
00000020: 59b3 1fbd 9d91 3f3e f877 0b3e 5160 453e
00000030: 7fc1 54be f9dd 83be c3c1 babc 3f6a 03be
00000040: 6716 fdbc b9e3 0f3d 78e8 74be d1f3 4c3d
00000050: a78a e43d d8f4 1cbd 07e8 67be 533a 6f3e
00000060: 8a17 7bbd 36b9 b9bc c71a d9bc 37c8 b1bd
00000070: e19b a73d 7af6 72be 96cc 7fbe e5ce 0ebe
00000080: 3e67 fe3d ade2 a5bd 70ce 9d3d e1f6 9b3d
00000090: b051 543e 52c7 5ebe 146a fabd 089d 443c
000000a0: 470a c5ba 1b10 8f3d 5392 3abe efa1 c0bd
000000b0: 7fc3 203d 52b6 16be 0484 1c3e da83 003e
000000c0: 0996 a5bd f43b 5dbe ece8 b9be 999d 14be
000000d0: 6816 9cbe 77fc 393e facd 78be 6713 e4bd
000000e0: ebd2 39bd 66d1 c03d 89e0 903e 9aec 40bd
000000f0: 34a7 9abd 2a44 e3bb 3104 7fbe 1f1c c7bd
00000100: 6c17 9ebd e515 d8bd 2bc5 373d 104d c9bd
00000110: 9e35 cfbd 9bb8 2bbe bc15 0fbe c9de dbbc
00000120: f21f 52be 2a42 4b3e d516 c2bd 6b8f c43d
00000130: 1933 8fbd 3c0f 0abe fff2 2dbe 7dd2 e8bd
00000140: afcd 533d 1eeb e93a eb41 493d 1fd9 55be
00000150: 36f2 f5bd c35e dd3a c744 46be 0ede c0bc
00000160: 05aa b4bd b4b1 37be ee29 ca3d c603 71be
00000170: b128 bb3d b039 69be df7f 40be 0b8f 063d
00000180: a223 98be 5969 d9bd a340 0abe 4b06 19be
00000190: 3ecd 67be b623 2ebe 62b7 0fbe 4a9c 1fbd
000001a0: 0bb5 713b 4094 2d3c 42eb 7abe b7f4 86be
000001b0: c62c 02bd 2fe8 013e 52d2 013e 951b 3dbe
000001c0: 64b6 23be 94b9 c2bd ea7f 89be 26fe 0d3e
000001d0: ac68 b53b c3be 593d 5171 5dbd dbf7 543e
000001e0: 90f6 a63d d2e7 73bd 87c0 553d cfd9 29be
000001f0: a1d9 123c a95e 4bbe ba70 21be 1c10 88be
-0.03337073 -0.0069184047 -0.16386953 -0.18706429 -0.012436442 -0.1349708 0.044128485 0.01761261
-0.0389894 0.18707891 0.13619983 0.19275023 -0.20776938 -0.2575529 -0.02279747 -0.12833498
-0.030894471 0.035129283 -0.23916805 0.05003721 0.11159258 -0.03831944 -0.22647105 0.23362093
-0.061301745 -0.022671323 -0.026502026 -0.08680766 0.081840284 -0.23726836 -0.24980387 -0.13946112
0.12422036 -0.080998756 0.077053905 0.07615448 0.20734286 -0.21755722 -0.12227264 0.01200033
-0.001503297 0.06985494 -0.18219881 -0.094058864 0.03924894 -0.14717987 0.15284735 0.12550297
-0.080852576 -0.21604902 -0.36310518 -0.14513244 -0.30485845 0.18162714 -0.24297324 -0.11136513
-0.045367163 0.094149396 0.28296307 -0.04710064 -0.07551423 -0.006935616 -0.24903943 -0.097221605
-0.07719311 -0.10551051 0.04486577 -0.09829152 -0.101176485 -0.1676964 -0.13973135 -0.02683963
-0.20519999 0.19849458 -0.09477011 0.09597667 -0.06992168 -0.13482374 -0.16987227 -0.113682725
0.051709827 0.001784656 0.04913513 -0.20883606 -0.12009089 0.0016889203 -0.19362174 -0.023543384
-0.08821491 -0.17938882 0.09871279 -0.23536596 0.09138621 -0.22775912 -0.18798779 0.03285126
-0.29714686 -0.106157966 -0.1350122 -0.14943807 -0.22636887 -0.1700581 -0.14034799 -0.03896741
0.0036881592 0.010594428 -0.24503806 -0.26358578 -0.03178098 0.12686227 0.12677887 -0.18467553
-0.15987545 -0.095080525 -0.26855403 0.13866481 0.0055361595 0.05316044 -0.054063145 0.20797674
0.08152497 -0.059547253 0.05218556 -0.16586994 0.00896302 -0.19860329 -0.15765658 -0.2657479

_policy.2.weight f4 [128, 128]
00000000: 0153 803d df0b 27bc e13f 06be cfce 033d
00000010: 3d84 9d3e 86fa 12bf 9a0f c9bd 605c 863d
00000020: 4733 ce3d 98c7 0abf 48d8 e93c f3ae 9abe
00000030: a1ac 7cbd a580 11be 6585 ecbe 2add 253c
00000040: a899 28be 71c8 5ebd 1479 6fbe 1896 3e3e
00000050: 888b c33d 790d 093d 2ec9 1e3e 7925 a2be
00000060: a8c7 03bf 3afe b13c d722 b2be 27bf 613e
00000070: 6297 4a3e fbbd 113e 3291 6abd 951f 00bf
00000080: 2ac8 5a3d 6348 653d 36a7 313e a5b3 0abe
00000090: a334 8d3d a113 41be 2af7 813d 4aa0 1b3e
000000a0: c8f0 bfbe a13b 35be fde1 003e fed8 12be
000000b0: 8469 573d 1d4d 79be 7c08 733d cfec b8bd
000000c0: 2d56 1cbe 74d0 b5be 79f9 d9bd cc46 17bd
000000d0: 556a d93e 5d3d c73e 27f0 2ebd 4c88 71be
000000e0: 978e 5e3e d10d a43d cd48 febd 955c e73d
000000f0: cdcb 343e 2409 b63b 28a3 d1bd ac43 863e
00000100: 882e 1e3d 7dcd 703e 0280 103d 80cc 94bd
00000110: 828c 463d 835c 47be 4766 25bd aece f7bd
00000120: 31d9 efbc 7335 fdbd 2a7d 61be 2a6d 1dbe
00000130: d6f1 2fbe d82e cebd d863 43bd 1a70 383e
00000140: ebfb 323e ff31 2dbd de5a 1c3d 07bc cebe
00000150: a462 01bf 0dde 32bd 7540 4fbc b893 50bd
00000160: c59d 7fbc 014c dabd bc47 a33b e5fe 573e
00000170: 12fe febb 15e1 cdbe d53b f63d 44b2 f93d
00000180: 6ac6 41bd 0d9f b23d 451b 19bd 2a96 5c3d
00000190: fc22 68be f2ce 93bd 4b39 943d b752 c93d
000001a0: 3f6b cbbd f2ce b5bd 2e69 643e 4f4a 373d
000001b0: c8a1 bbbd 0d46 d5be 82ea e7be 75bd d3bd
000001c0: 7768 86be df41 2a3e 866a 2dbe 7033 fa3d
000001d0: 5718 b4bd f813 06be 673c abbe ade6 103d
000001e0: a808 25bc ac70 8a3d 3b14 183d f41d f6be
000001f0: 8fa7 1abe bb72 9ebe adac 993a 5e9b 423e
00000200: ae84 7bbd 50fa 74bd 8400 64bd 1fb6 e8bc
00000210: e03e 703c a197 46bd c05e af3c 3ead 2e3d
00000220: 5c60 063c a2b1 19bc b6d7 83bd 8d98 f1bd
00000230: aa58 ddbb b3d0 66bd 9c95 debd e488 4fbd
00000240: aa83 b3bd ff61 f2bd e157 a7bd c9ab 2f3d
00000250: 666d 00be 8c9b c53b a5fd adbd 7f0a 263d
00000260: 7127 06bd 1f4e 1bbd 1ee2 ddbc 13c6 9ebd
00000270: 1b30 c8bd 4833 2fbd 115c f1bb d6a6 8bbd
00000280: a674 97bd a6dd 6fbd 4677 35bd 38ea 5dbd
00000290: 40fd 973b 5062 9bbc 694b 91bd da94 95bd
000002a0: 2fc3 a03d a4f0 513c 7d1a 1a3b 909c 1c3c
000002b0: 4ebd 713d 3042 c6bd 2a8a 59bd e933 edbd
000002c0: e38d d5bd a22b 8ebd 3f80 ebbc bf56 eabd
000002d0: 909a 66bc 98cf a63c 44ca e9bd ee39 95bb
000002e0: 2d38 7fbc eb2b 9fbd a50f 4a3d 5c2f c1bd
000002f0: 3ec9 3e3d 7088 e93c e7a9 60bd 6824 0fbd
00000300: 05fd 353d 4194 f63c 3bb0 93bd a974 0fbd
00000310: a8a7 c6bc 3ad5 453d 768e 7dbd 8300 0cbd
00000320: 6727 213d 0afc a2bd 7005 0e3b d889 9ebd
00000330: 8d37 9ebd f631 fcbd fe18 e0bc 2ea2 06bd
00000340: 46c6 36bd e5f2 a4bb 7c14 9cb9 2bb8 81bd
00000350: 7ef4 123d 5416 0f3d f16b 35bc d2e7 0cbd
00000360: a91b f43b 3498 da3c b527 c2bc e5f2 d9bd
00000370: 41f0 ee3b 495f acbc 7e62 813d 60ab 203d
00000380: 127a 803c e6ac b3bd a5ae bbbd 1632 ffbd
00000390: 2ea4 efbd 0d83 13bd f6dc 2b3d eb33 8d3b
000003a0: 32fd c5bd 9ef3 093c 6d58 cabd bffe 143d
000003b0: c533 7d3d 00ba dabc e0ed cf3b b870 e5bc
000003c0: f4d7 c8bc 0a4d 323d 393c 853c 7ae6 f63c
000003d0: f4ed 1ebc 8ec4 99bd 4201 d33c 50cd 06be
000003e0: a68f 4b3d 294f 29bb 94a0 dcbd 08b4 ccbd
000003f0: 0b5b 42bd 7751 483d fc17 053d fe96 73bd
0.06265832 -0.010195701 -0.13110305 0.03217965 0.30764952 -0.5741352 -0.09817429 0.06560588
0.10068374 -0.54210806 0.028545514 -0.302116 -0.06168807 -0.1420923 -0.46195522 0.01012353
-0.16464865 -0.054390375 -0.23386031 0.18611944 0.09548098 0.033460114 0.15506431 -0.31669214
-0.51476526 0.02172767 -0.34792206 0.22045575 0.1978431 0.14232628 -0.057267375 -0.5004819
0.053413548 0.055977236 0.17348942 -0.13545091 0.06894805 -0.18855144 0.06345971 0.15197864
-0.3748839 -0.17698528 0.12586208 -0.14340588 0.052590862 -0.24345823 0.059334263 -0.09029543
-0.15267248 -0.355106 -0.10643286 -0.03693275 0.42463937 0.38914004 -0.042709496 -0.2358715
0.21734081 0.08010448 -0.124162294 0.112969555 0.17655869 0.005555289 -0.10236198 0.26223505
0.038618594 0.23515888 0.035278328 -0.07265568 0.048473842 -0.19468884 -0.040380742 -0.12099968
-0.02927837 -0.1236371 -0.22020403 -0.15373674 -0.17182097 -0.100675285 -0.04770264 0.18011513
0.17478912 -0.042284008 0.038172595 -0.40377828 -0.5054114 -0.043668795 -0.012649645 -0.050922126
-0.01560158 -0.10659028 0.0049829166 0.21093328 -0.0077817524 -0.40210786 0.12023131 0.121922046
-0.047308363 0.08721743 -0.037379522 0.053854145 -0.22669595 -0.07217206 0.0723749 0.0983023
-0.09932565 -0.08877362 0.22305748 0.0447486 -0.09161717 -0.41655007 -0.45296103 -0.103388704
-0.26251575 0.1662669 -0.16935167 0.12216842 -0.08793705 -0.13093555 -0.3344452 0.03537624
-0.010072865 0.06759772 0.03712867 -0.48069727 -0.15102981 -0.30946907 0.0011724435 0.1900458
-0.06140583 -0.05980903 -0.055664554 -0.028407155 0.014663428 -0.04848445 0.021407485 0.042645685
0.008201685 -0.00938073 -0.06437628 -0.11796675 -0.0067549543 -0.056351375 -0.108683795 -0.05066766
-0.08765347 -0.118350975 -0.081710584 0.042888436 -0.12541732 0.0060305055 -0.084956445 0.040537354
-0.032752458 -0.0379163 -0.02708536 -0.077526234 -0.097748004 -0.042773515 -0.0073657115 -0.06818931
-0.07395296 -0.05856099 -0.0443032 -0.054178447 0.004638344 -0.018967777 -0.070944615 -0.07303782
0.07849728 0.012813721 0.0023514323 0.009558812 0.059018426 -0.09680593 -0.05311028 -0.11582167
-0.10427453 -0.06941916 -0.028747676 -0.11442327 -0.0140749365 0.02036266 -0.11415532 -0.004554025
-0.015577358 -0.077720486 0.049331326 -0.09432861 0.04657864 0.028507441 -0.05484953 -0.03494683
0.04443075 0.03009999 -0.07211348 -0.035023365 -0.024249867 0.04829905 -0.06190344 -0.034180176
0.039344218 -0.07958229 0.0021670721 -0.07741135 -0.07725439 -0.12314217 -0.027355667 -0.03286951
-0.044622682 -0.005033838 -0.000297699 -0.063339554 0.035877697 0.034933403 -0.0110730985 -0.03440077
0.0074495864 0.026683904 -0.023700574 -0.106420316 0.007291824 -0.02104153 0.06317614 0.039225936
0.015683208 -0.08773212 -0.0916417 -0.12460725 -0.11701237 -0.03601365 0.04195877 0.0043091676
-0.09667434 0.008419899 -0.09880147 0.036375757 0.06181695 -0.02670002 0.0063454956 -0.02800785
-0.024517037 0.0435305 0.016264068 0.030139197 -0.009700287 -0.07508193 0.025757436 -0.13164258
0.04969754 -0.0025834537 -0.10772815 -0.09995276 -0.047450107 0.048905816 0.032493576 -0.05947017

_policy.2.bias f4 [128]
00000000: 17b3 25be 78fc 1abe 7b7d 0ebe 7340 513d
00000010: 376e f4bb 274f 923d 9d51 ebbc 3861 093d
00000020: 569e 10bd 5564 953d 48e7 e1bd 88ea 8a3d
00000030: 11c8 993d 5835 813d d1ad 723d 897a e23d
00000040: f323 5a3d bb26 153e 8814 2b3e 5807 f13c
00000050: 94d4 83bd cbcc 60bd a806 5c3c 6b2e fcbc
00000060: 4b6e 1dbd 84b7 07bc 7c5d 9d3d ea37 1bbe
00000070: d2d7 28be 5be2 b53d 1eea b1bd 407f 97bd
00000080: efe3 66bd 8ea7 a73c 5af4 b5bd 8119 82bd
00000090: 4e73 46bd b9dc cfba b067 e33c 5d8c dabd
000000a0: bceb 0f3e a7b0 dfbd 28d7 283d df01 83bd
000000b0: 292d 17bd e432 4f3b 601a 5a3a e610 cebd
000000c0: 6495 1d3d cc0f e3bd c35a d5bd 822b dbbb
000000d0: da6e a73d 32db 9dbd f29b 0d3d f8c6 81bc
000000e0: bdc2 ccbc 7c34 12be 3899 12bd edc1 32be
000000f0: 0844 ccbc 85fe bc3d c384 8abd b924 5e3c
00000100: ced5 aabd 58ad 26bd e821 283d 6e0d c53c
00000110: 7f09 f8bd 46b9 c5bd d09d 7bbd fa6f 88bd
00000120: 78ad e9bd 2959 05be 49b7 a43d fb44 05be
00000130: 0380 d73d 89f0 fbbd 3d5c 383d dc31 a5bc
00000140: 3c51 6dbc dfc8 49bd 826f bd3c d670 223d
00000150: d3ce 2dbd 57f6 f13d 620c 90bd d242 a3bd
00000160: 3a6d 3ebd 828b ec3a 251f 35be ab87 ef3c
00000170: 2385 0cbd 14e1 be3d 558c 41be c966 02be
00000180: f6a3 ddbb cc58 203c d1cc abbd a000 86bd
00000190: a31b 16be ae1d cfbc 1ef3 83bc 17df bd3d
000001a0: 4bde 16bd 8b7e a23d 3584 2ebe cb03 15bd
000001b0: e7b5 06be 2ecb a0bd 08cd 48bd a857 973d
000001c0: 41c6 073d e28e 8f3d 8f34 ccbd db08 3d3d
000001d0: b2b6 cebd 13d7 01bd 25b6 eebd 5176 c43b
000001e0: e277 a0bd 02bf eabd 35c2 90bd a2fa 99bd
000001f0: 379a 07be bf88 bd3c e6b5 9ebd bf68 763d
-0.16181599 -0.15135372 -0.13915055 0.051086854 -0.0074594277 0.07144003 -0.02872544 0.03353998
-0.03530725 0.072945274 -0.110304415 0.067830145 0.07508863 0.06309003 0.059247795 0.11058528
0.05325694 0.14565556 0.16707051 0.029422447 -0.064370304 -0.054882806 0.013429321 -0.030783853
-0.03843526 -0.0082835 0.07683846 -0.15158048 -0.16488579 0.088810645 -0.086872324 -0.07397318
-0.05636972 0.020465638 -0.08884497 -0.06352521 -0.048449807 -0.0015858627 0.027759403 -0.106713034
0.1405477 -0.10922366 0.041220814 -0.06396841 -0.036908302 0.0031616027 0.000831997 -0.10061817
0.038472548 -0.110869974 -0.10417702 -0.006688536 0.0817544 -0.07707824 0.03457255 -0.015841946
-0.024995202 -0.14277834 -0.035790652 -0.1745679 -0.024934784 0.09228233 -0.067636035 0.01355856
-0.08341561 -0.040692657 0.04104796 0.024054255 -0.12111186 -0.09654479 -0.0614298 -0.06661983
-0.1141004 -0.13022293 0.08042771 -0.13014595 0.10522463 -0.12301738 0.04500984 -0.020165376
-0.0144847 -0.04926383 0.02312446 0.03965839 -0.04243357 0.11814564 -0.07033612 -0.07971729
-0.046490885 0.0018046948 -0.17687662 0.029239496 -0.034306657 0.09320274 -0.18901189 -0.12734522
-0.0067639304 0.009786796 -0.08388675 -0.06543088 -0.1465898 -0.025282707 -0.016107138 0.09271067
-0.03683309 0.079342924 -0.1704262 -0.03638057 -0.13155328 -0.078512534 -0.049023658 0.07389766
0.033148054 0.070096746 -0.09970962 0.046151023 -0.1009344 -0.03169925 -0.11655835 0.0059955497
-0.07835366 -0.11462213 -0.07068292 -0.075185075 -0.13242422 0.023136495 -0.07749538 0.060158487

_policy.4.weight f4 [128, 128]
00000000: 7d42 123e d5ab 0cbd 2e6e 05bd 9bc1 3abe
00000010: f658 a43d 08b3 493d 8fdc 8b3d c278 ff3d
00000020: 6013 efbc ec62 f43c e224 3fbd 73cc fd3c
00000030: 44a6 10be c01a 903d 4ca4 d1bd c92a 833e
00000040: 9ba7 b9be 2465 3c3e c52e 4fbe 6dfa 89bd
00000050: 398f 6abd b4bc 65be f763 5bbd 96a9 253e
00000060: 4941 383c 1101 2abe 570e b4bd 8c42 813c
00000070: 3b74 6e3d 13f4 7cbe d70e e43d 118c f3be
00000080: b3a8 9bbd 4046 93bd 67fe 213e 3ddd b7bd
00000090: 05fe 09be b877 4abe 73c3 37be 88bf 70bc
000000a0: ff38 8fbe b59a ebbd eb4b 403e 9bb6 dabc
000000b0: 0461 093d d39e 303d 48ad 06be a56f e83c
000000c0: 5915 863b 2ae0 3e3d c581 cbbd 3083 64bd
000000d0: 2317 d13c e2e1 ae3d 8626 b9be 60c8 15bd
000000e0: d485 983d 4ad7 0bbd bd1c e33c 22e1 5d3e
000000f0: 7afc 38be 7c75 0cbe 2bf1 d6bd 22d3 88bd
00000100: e514 7b3c ec35 82be eb57 d4bd b108 6ebe
00000110: d156 ff3b 50c3 a2be abcb 5cbe e19c c1be
00000120: df7d 883d f92a 9abd 5b9c 17be 505b cbbd
00000130: 6c3b be3e 08d4 af3c fa52 343d ba88 d7be
00000140: 1829 2cbf 729d 9fbd 342f 3cbe f0c6 3f3e
00000150: 4a4f f03c d428 a2bd f87f abbe fd54 cbbe
00000160: 0723 2f3d 3ca8 64bd 0dd9 983e 76d2 edbb
00000170: 4a10 043e f17e bbbc ed2e 29be 3b29 3b3d
00000180: f3c5 613e eb7e eabd f1a9 82be 48dd 8d3d
00000190: e19d 05bf 66ae 513e 10d6 b63d e32e 57be
000001a0: 5815 45bd c2a2 c43e 4888 40bd 54ed 483d
000001b0: 8c2c 343d 232d 113e e156 e5bb 31cc e83d
000001c0: 2cc9 4ebe 9129 71be cd07 b93e 6d6e cbbc
000001d0: 49f0 99be c40b 5ebe 9e16 373e 4d96 2e3d
000001e0: 5472 483e 358e 80be 5929 25bc cc96 a9be
000001f0: 7e9b dbbc 74d0 863e a278 8fbe 04dc 5f3e
00000200: fc88 04be c21c 6d3d 8d6a 263d db43 9c3d
00000210: ddfa aabd dbae a53e a9c9 96bd 0eed 9abe
00000220: 5ec8 a73c 2337 2ebc 11e1 083e f713 64bd
00000230: 0e6b 21bc f95e ac3e b299 4d3e 8926 2fbe
00000240: a7f6 32be 0003 873e bd3b 053e d1ac cbbb
00000250: b5ee 0dbf 351b f93d a877 273e 37f0 a7be
00000260: fd00 b73c 8416 643e 7fd5 903d 933e cf3d
00000270: 8046 3abc 9c07 e83d b288 013e 5e13 783d
00000280: 9546 c9bd 367e 30be 031c 53be 2253 8a3c
00000290: 8724 d0bb 3dd0 46bd 8b8b 5a3c b49f 66be
000002a0: fe6a 94bd 906b bcbe 739c e0be ad4e 0a3e
000002b0: fe08 87bc f891 9abd b732 4dbf 70d5 2c3e
000002c0: 1c68 f13d 8dc6 68bd f6fd 433d 346e 8dbd
000002d0: 7470 dabd 7800 543d fd52 a5be 6e50 883e
000002e0: c335 74be 7b58 34bd e6c1 673d 0f82 63bd
000002f0: e951 863e c213 0ebe 7a1a e1be a9aa 54bb
00000300: 4f33 b1bd 9730 83be 5af9 12be c4e1 1bbd
00000310: 3886 83bd 0da6 073e d1aa 4b3d 218a cdbe
00000320: 8d9c 14bd 14f9 fb3c 3de5 44be 4d59 bcbe
00000330: b48f dc3d 46d3 b1be d185 62be 3c3e 0bbe
00000340: 847b d9bc 23e8 673e 17ae 90be 8ae2 893c
00000350: 10fb bebc b2bf b5bd c082 6e3e e680 75be
00000360: dc1f 65bf b677 343d a07b 72bc 29b0 3bbe
00000370: d01b b23b 59ef 8abe 4726 b8be 1a9f b0bd
00000380: d6e1 c93e 1d84 1fbf b567 8d3e 3bd2 fc3d
00000390: 1948 02bf 9631 9bbe 4614 183d c36e 0d3d
000003a0: da0d c1bb ca2b 3cbd b38f 04bf 6c57 493d
000003b0: b096 263e a029 2f3e 06d5 a63d 47b3 4dbe
000003c0: 58a1 83bd e6ab 89be 3675 60bd 3ca1 18bd
000003d0: 4566 25be f143 a63a c6c5 d7bc c4d9 973c
000003e0: e260 cc3c 1fd1 1dbe cdf1 943d c521 d33d
000003f0: dc1f d3bc 2ac7 dd3d 3e77 2b3c 723c b93d
0.14283176 -0.03434356 -0.03257578 -0.18237917 0.080247805 0.049243003 0.068291776 0.124742046
-0.029184043 0.029832326 -0.046666034 0.030981278 -0.14125925 0.07036352 -0.10236415 0.2561858
-0.36260685 0.18397957 -0.20232685 -0.06737218 -0.057265494 -0.22435266 -0.05356213 0.16177973
0.011246034 -0.1660197 -0.087917976 0.015778802 0.058216315 -0.24702482 0.11135643 -0.475678
-0.07600536 -0.071911335 0.15819703 -0.08977745 -0.13475807 -0.19772232 -0.17945652 -0.014694102
-0.27973172 -0.115041174 0.1877896 -0.026698401 0.033539787 0.043120217 -0.13152039 0.028373549
0.0040919003 0.0466005 -0.09936861 -0.055789173 0.025523728 0.085391775 -0.36162204 -0.036568046
0.07447401 -0.034140863 0.027723664 0.21667913 -0.18065062 -0.13716692 -0.10495218 -0.066808954
0.015324806 -0.25431764 -0.103683315 -0.23245503 0.0077923317 -0.31789637 -0.21562068 -0.37815002
0.06664633 -0.07527728 -0.14805739 -0.09929526 0.3715471 0.021463409 0.044024445 -0.42096502
-0.67250204 -0.07793702 -0.18377382 0.18728232 0.029334683 -0.079179436 -0.3349607 -0.39713278
0.042758014 -0.055824503 0.29853097 -0.007257755 0.12896839 -0.022887679 -0.16521807 0.045693617
0.22048168 -0.11449989 -0.2552028 0.06926972 -0.5219403 0.20476684 0.08927548 -0.2101398
-0.048116058 0.38405424 -0.047004968 0.04905446 0.043987796 0.14177375 -0.006998882 0.113670714
-0.20193928 -0.23551013 0.36138764 -0.024832929 -0.30066136 -0.21684176 0.17879722 0.042623807
0.19574863 -0.25108495 -0.010080659 -0.3312286 -0.026807543 0.26330912 -0.28021723 0.21861273
-0.1294288 0.057888754 0.04062896 0.0763013 -0.083486296 0.32359967 -0.07362682 -0.30258983
0.020481285 -0.010633263 0.13367106 -0.055683102 -0.009852184 0.33666208 0.20078161 -0.17104544
-0.17476903 0.26369476 0.1301107 -0.0062156697 -0.55442363 0.121633925 0.16354239 -0.32800457
0.022339338 0.22274214 0.07071971 0.10119357 -0.011369348 0.113295764 0.12649801 0.060565345
-0.098279156 -0.17235646 -0.20616154 0.016885344 -0.0063520106 -0.048538435 0.013338934 -0.2252186
-0.0724697 -0.36800814 -0.4386936 0.13506575 -0.01648378 -0.075473726 -0.8015551 0.16878295
0.117874354 -0.056829978 0.047849618 -0.06905785 -0.1066598 0.05175826 -0.32289878 0.26623863
-0.23848633 -0.044029694 0.0565814 -0.055543955 0.26234367 -0.13874725 -0.43965513 -0.0032450354
-0.086523645 -0.2562301 -0.14352933 -0.038057104 -0.064220846 0.13246937 0.04972345 -0.40144446
-0.03628211 0.030758418 -0.19228072 -0.3678688 0.10769597 -0.347315 -0.2212136 -0.1359796
-0.026548155 0.22647147 -0.2825782 0.016831655 -0.023313075 -0.088744536 0.23292065 -0.23974952
-0.8950174 0.044059478 -0.014799982 -0.18328919 0.0054354444 -0.27135733 -0.35966703 -0.08624096
0.39430112 -0.62310964 0.27618185 0.12344786 -0.5089126 -0.3031127 0.03712871 0.03452946
-0.005891544 -0.045940198 -0.5178177 0.049155638 0.1626842 0.17105722 0.081461 -0.2008792
-0.06427258 -0.2688896 -0.05479928 -0.03726314 -0.16152294 0.0012685043 -0.026339423 0.018536456
0.024948541 -0.15411805 0.07272682 0.103091754 -0.025772028 0.10829003 0.010465441 0.09044732

_policy.4.bias f4 [128]
00000000: 4060 28bb ff9d 553c 91f4 9a3d ae17 a5bd
00000010: a1cb 69bd 9ad3 5fbe 4786 1bbd 0338 c8bd
00000020: 0e6a 3abe 6c6b 21bd 98a2 da3c 86a7 293e
00000030: eb5b c7bd b956 9f3b d29f e1bc 27dd 173e
00000040: edfc 80be 537b a23c 8426 c3be 2a0a 4dbe
00000050: 9c6e ed3b 2e46 913d ccbb 16bc 1167 fabd
00000060: 1cef 783d 83ec 0abe dedd 7cbe 673c 5cbd
00000070: 13e9 d73b ea85 103d 664e 1cbe 6b42 283d
00000080: 38d2 323c 9387 523e 6ee0 f0be af87 36be
00000090: f68a bd3c c944 8cbe 47bb a7bb f5d5 d0bd
000000a0: c85b 343b 47be ba3c 445f 5bbd f5ac 4cbe
000000b0: 5e2d 533d 5471 b1bd 1649 33be 9c03 1abe
000000c0: b89d e33d c757 113e 19d5 2bbe f929 e1bd
000000d0: 08cc c53d 5df3 8dbe 654c 853c 2c1c ac3d
000000e0: 5f1b f6bd a643 fbbd 8742 f3bd d340 9d3c
000000f0: 5a71 11be 9c49 2dbe 926e a1bd a3dc 323c
00000100: 83e7 b13b dad9 6cbc 1131 bbbd ff02 dcbd
00000110: 2baf 3abe 02a3 83bd 3bdd 5dbd ba5e 90bc
00000120: ee2b 53be 0313 5dbd fd8d 943d fd48 21be
00000130: 5749 a2bb fae7 a33d c00e d13d c257 0d3d
00000140: 701b b9bd 4a9c 5fbd c171 49bd 9673 ebbd
00000150: b26f 5bbe ad03 763e 8c3e 583d 0bea 00be
00000160: 2250 4abe c8d6 f5bd 2a36 353e 4198 b3bd
00000170: 51ed 5fbb 0967 04be 998c 0cbe 883f 2abd
00000180: 455f 93be f23d bf3c 608b c33d f7c7 223d
00000190: abdc a23d 1430 12be 4bff d7bd caec 373d
000001a0: b90b 57bd 2d75 2b3e fd81 023e 90f6 a03d
000001b0: 825b aebd 373e b03c 9343 18bc 54fd 203d
000001c0: 945e 4ebe b881 30bd 819e fdbd 427a 37bd
000001d0: 0940 883d e189 8cbe 6d01 a6bd ada9 6dbe
000001e0: 7299 c5bd 8dd1 05be 12ed c0bd be15 cabd
000001f0: 54a7 3bbd 2165 68be fdbb 613d 0a65 063d
-0.0025692135 0.0130381575 0.075661786 -0.08061157 -0.05707896 -0.21858063 -0.037969854 -0.097763084
-0.18204519 -0.039409086 0.026688859 0.16567811 -0.09734329 0.004862633 -0.027542029 0.14830457
-0.25192967 0.019834196 -0.38115323 -0.20023409 0.0072458517 0.07093464 -0.009200048 -0.122266896
0.060774907 -0.13566785 -0.2469401 -0.05376854 0.006589064 0.03528396 -0.15264282 0.041078966
0.010914378 0.2055953 -0.47046226 -0.17825197 0.02313755 -0.2739623 -0.0051187607 -0.10197059
0.0027520526 0.02279581 -0.05355765 -0.19987853 0.051556937 -0.08664194 -0.17508349 -0.1504044
0.11114067 0.1419364 -0.16780509 -0.10994334 0.096580565 -0.27724734 0.01627178 0.08403811
-0.12016939 -0.12268762 -0.118779235 0.01919595 -0.14203396 -0.16922611 -0.07882418 0.010916862
0.0054292097 -0.014456237 -0.09140218 -0.10742759 -0.18230884 -0.06427576 -0.05416606 -0.017623294
-0.20622227 -0.05397321 0.072536446 -0.15750499 -0.0049525904 0.080032304 0.102078915 0.03450752
-0.090384364 -0.05459241 -0.04918075 -0.11496656 -0.21429327 0.2402484 0.052794024 -0.1258928
-0.1975713 -0.12003857 0.17696443 -0.087692745 -0.0034168551 -0.1292993 -0.13725509 -0.041564494
-0.28783622 0.023344968 0.09548068 0.039741483 0.07952245 -0.14276153 -0.1054674 0.044903554
-0.052501414 0.16743918 0.12744899 0.07859528 -0.085135475 0.021514041 -0.009293455 0.039304093
-0.20153266 -0.04309246 -0.12383748 -0.04479433 0.06652839 -0.27448943 -0.08105741 -0.23209257
-0.09648408 -0.13068219 -0.094202176 -0.09867428 -0.045813873 -0.22694828 0.05511092 0.032811202

_policy.6.weight f4 [128, 128]
00000000: b568 abbe 2f0a 0d3e 0769 aa3d a139 33bd
00000010: b49f f1bd af02 d2be a47d d0bb 6596 723e
00000020: 699d c7be fdd6 73bd e37a 8b3e 2b92 dabd
00000030: a541 babd ee95 a83d 72ad 30be 22c7 023e
00000040: 512b d2bd 2e73 44bc 5901 ce3d 874b d0be
00000050: 3094 673e ea8c 583c 7b1d 26bc 3e6d 833c
00000060: 2c7a 39be 61e8 a93d 7aeb c83b 9768 09bd
00000070: 3a46 8bbe ddf1 b83c 970d 6e3e 10e2 8d3e
00000080: 0424 d23c a36c 973c b04b c53e 20d9 d4bd
00000090: c68f d83d 4ae1 0a3d 88db be3d 569e 9abe
000000a0: da73 a0be 4cf1 08be 62ba 273d 8b8e 353e
000000b0: 50ec 78be 5fcd 8fbe 8e5a c0be 3d81 3fbe
000000c0: ec9c 22be 1664 263c 68e1 db3c cc21 b7bd
000000d0: 9704 a3bd d13c 45ba db87 1dbd 6cc5 e9be
000000e0: 5de9 e5be 816b 24bd b234 7bbc 2c5c 20be
000000f0: d0ef 58ba f0fd acbd 047e 2abe dba7 8ebe
00000100: 1692 23bf 0e07 8c3e 62c3 c83d 47c0 06bf
00000110: 8d92 9b3d fb97 423d 8668 153c a65e dabc
00000120: 09e7 8f3e 53e0 7abd 9690 39be 62ce d53d
00000130: 3e70 ac3e af36 72be 6c08 8f3e b965 3e3d
00000140: 4f95 f5bd def8 1f3d 7594 1fbe 3c4e 91be
00000150: a8c1 3a3c fd76 f43d 583f 31be b9a8 02bd
00000160: 3c6c e8bd 6e39 9dbe 1cdb a33e b17f 76be
00000170: f033 d8bb 4e9e 943d 6454 52be 165d e8be
00000180: 46b3 7bbe 183a e3bd 8681 d5bd 768c 11bf
00000190: ea40 8fbb 6cc7 e1bd f7ac c1be 7ca6 973e
000001a0: 9992 cebe d618 2bbe d9c8 c23e 446f 3e3e
000001b0: 6ac9 a1be 8e8b a8be 210e a33d bd45 97bc
000001c0: d2e7 8abd a701 fa3c 4a3d c4bd 7011 3a3d
000001d0: ba31 5e3d d872 0c3e 766c f63d 239f df3d
000001e0: 213f af3e aad1 19bc 8a4c 463e 9218 10bf
000001f0: 9a4a cfbe de7b 2b3d 271a cfbd f789 46be
00000200: 476b bbbd d464 1f3e 5067 3fbe 9812 5a3e
00000210: 3a5f a4bd 2c6f 8dbc 91a8 d4be 9ef5 043e
00000220: ff1f dc3d fcf9 4bbe 5975 0e3b 32bb 3c3d
00000230: 57bd 47be 4a9a 8cbd 827d 05be 1c33 cdbe
00000240: 690a a93e d0a0 1dbe 6b1a d2be 6f2a 20be
00000250: 553f 973d 47a2 5cbe 9964 91bd 31c1 573d
00000260: c3df 1bbe b7c4 4cbe 250e 043e 417b db3d
00000270: 2f3b 89be 89a8 a3be 5641 47be f4a0 823e
00000280: b669 04bf 904d b03d fe65 883e 753a 023d
00000290: bdc4 0f3d 908d 643c 40c7 823d 5b6c 1d3e
000002a0: 42d3 323d ed0f 4cbd 32f0 76bf b57f 8f3d
000002b0: 2776 d43e 30a6 99be 157b 6fbe e877 af3d
000002c0: 3b31 9dbe 02c8 ec3d 4f1d 1abf a97e 3fbe
000002d0: bba8 abbd e11b b6be b17f 0e3e c9c7 ecbd
000002e0: 34c0 b93c a53f 843e f2fa 80be c88c a4bd
000002f0: 3ccd 21be 1ce9 b33c 2248 b9be 9689 aabd
00000300: adf7 b0bd 43bb 913e 9ba0 50be 5975 ec3d
00000310: 458b ddbe 20b7 efbe 331c d03c 92ad 823e
00000320: a047 a4be 3a15 f2bc e130 c2bc e26b ba3c
00000330: 7c8e a73e cce0 2fbf 1f7b b5be 657b 1c3e
00000340: 8da5 0fbe e579 1f3e 1196 74bd fef3 bebe
00000350: 5563 653e 7341 01be 8590 a33d 3d26 c3be
00000360: 7026 ac3d 9af0 03bf ade2 65bd 95f1 de3c
00000370: 9f54 ca3d bedb ff3b 344d e0bb 6aed f5bb
00000380: 11c8 97bd 2e09 c9bd 4b33 10be 9ea0 253e
00000390: c0cd 02bf 6651 953d b27c 40be 23a9 fd3d
000003a0: 2799 8f3e 08ce 80be af72 793e 83e0 3e3e
000003b0: 8fe0 88be 18a8 25bf fe8a cd3e bb34 54be
000003c0: 9eb9 24be b999 973d 60db 85be 10ad 69be
000003d0: 6065 47be 0313 02be 319d 2dbe 787d 8dbe
000003e0: 7bec b9bd c173 62bf ef91 db3d 80c7 17bd
000003f0: 19ca 82be b1a4 8ebe f64d 2d3d 9c5e 57bf
-0.33478323 0.13773416 0.083208136 -0.04375613 -0.11798039 -0.41017672 -0.006362634 0.23690183
-0.38987282 -0.0595312 0.27242193 -0.106724106 -0.09094552 0.08231722 -0.17253664 0.12771276
-0.10262168 -0.011990352 0.10058851 -0.40682623 0.22615123 0.01321719 -0.010138865 0.016043302
-0.18113011 0.08296276 0.0061315866 -0.03354701 -0.27202016 0.022576267 0.23247372 0.27711535
0.02565194 0.01848442 0.38534307 -0.10392976 0.105742976 0.03390626 0.09319216 -0.30198926
-0.31338388 -0.13373297 0.040949233 0.17730157 -0.24308896 -0.28086373 -0.37569088 -0.18701644
-0.15880173 0.010155698 0.02684088 -0.08941993 -0.0795986 -0.0007524016 -0.03845964 -0.45658433
-0.44904605 -0.040141586 -0.015332388 -0.15660161 -0.0008275481 -0.08446872 -0.16649634 -0.2786244
-0.63894784 0.27349132 0.09802891 -0.5263714 0.07596312 0.04750822 0.009119159 -0.02665646
0.28105953 -0.06124909 -0.18121561 0.10439755 0.33679384 -0.23653673 0.27936113 0.04648373
-0.11991369 0.039055698 -0.15583976 -0.2838 0.01139871 0.11936758 -0.1730932 -0.031899188
-0.11348769 -0.30707878 0.32003105 -0.24072148 -0.0065979883 0.07256757 -0.20540005 -0.4538352
-0.24580106 -0.11095065 -0.10425095 -0.5685495 -0.004371752 -0.11024365 -0.37827274 0.29619205
-0.4034622 -0.16708693 0.3804386 0.18597132 -0.3159898 -0.32918972 0.07961679 -0.018465871
-0.067824975 0.030518366 -0.095820025 0.045426786 0.05424664 0.13715684 0.12032406 0.10919025
0.3422785 -0.009388367 0.19365135 -0.5628749 -0.40486604 0.041866176 -0.1011241 -0.19388567
-0.09151321 0.15565807 -0.18691754 0.21296155 -0.080259755 -0.017264925 -0.41534856 0.1298432
0.1074829 -0.1991958 0.0021737425 0.04607696 -0.19505821 -0.06865366 -0.13036159 -0.40078056
0.33015755 -0.15393376 -0.4103578 -0.15641187 0.073851265 -0.21546279 -0.070992656 0.052674476
-0.15222077 -0.19996916 0.1289602 0.10716868 -0.26802966 -0.3196452 -0.19458517 0.25513422
-0.517238 0.08608544 0.26640314 0.03179403 0.035099734 0.013949767 0.0638566 0.15373366
0.043658502 -0.049819876 -0.9646026 0.0700678 0.41496393 -0.30009604 -0.23386796 0.08567792
-0.30701622 0.11561586 -0.6020097 -0.18700661 -0.08381792 -0.35568145 0.13915898 -0.115615435
0.022674657 0.25829807 -0.25191456 -0.080346644 -0.15800947 0.021961741 -0.36187845 -0.08327024
-0.086409904 0.28463182 -0.20373766 0.1154582 -0.43270317 -0.468194 0.025404071 0.2552305
-0.32085896 -0.029551137 -0.023704948 0.02275652 0.32725894 -0.6870239 -0.35445496 0.15281446
-0.14027996 0.15573843 -0.059713427 -0.37295526 0.22401173 -0.12622623 0.07986549 -0.3811511
0.08405769 -0.51539004 -0.056124378 0.027214805 0.098794214 0.0078081777 -0.006845141 -0.0075051086
-0.074112065 -0.09816204 -0.14082067 0.16174552 -0.510952 0.07290916 -0.18797567 0.12385776
0.28046533 -0.2515719 0.24360155 0.18640332 -0.26733825 -0.64709616 0.40145105 -0.2072324
-0.16086432 0.07402367 -0.26143932 -0.22819924 -0.19472265 -0.12702565 -0.16954495 -0.27634788
-0.09078308 -0.88457876 0.10721194 -0.037055492 -0.25544813 -0.27860025 0.042310677 -0.8412874

_policy.6.bias f4 [128]
00000000: 99a9 b2bd 447a 89be aa1e fc3d 73fc 2a3e
00000010: e1af 923d 692d ee3d 2629 b73d 4191 bebd
00000020: 5ffb d83d 65b0 053d f3e5 753d f02d 7c3d
00000030: 85cd b63d 7a46 b7bd 9b9b e63d 30b8 4a3e
00000040: 09d7 923d ac8a bb3d 5b19 3bbe 268a 7fbd
00000050: ac54 0c3e aec9 563e c8e2 053e 8ea4 8d3d
00000060: 397b 2b3e 77a8 103e 3f4c 753c fc19 053e
00000070: 3ff5 f9bb f2d5 b6bd 5717 953c f731 34be
00000080: 5289 e83d 0bd5 aabd 7ca3 1a3e 59ad de3d
00000090: 8043 57bd fe12 a63d 86d0 6b3d ed49 0b3d
000000a0: ba62 bebd 398f 9cbd 6171 843e 0027 f43b
000000b0: 6869 e63d 1b58 52be a9b0 183e 8db3 ef3d
000000c0: bd06 2f3e e052 14be 8b71 1c3e 97e2 fa3c
000000d0: e216 fabc 7f36 2abd 31bd 713d 4bb4 533e
000000e0: d5de 233e 07da cc3e a005 2e3b d664 9d3d
000000f0: 1aaa 043d 878e b03d 3a3b d5bd 95c7 2b3e
00000100: dc51 a2bb e486 653d ee10 243e 4b31 473e
00000110: a12e 873d 3637 e13d 23c3 f0bd 7b4b 9b3d
00000120: 5f14 cdbd 1bd0 1a3e f94d 31bb cee1 843d
00000130: db38 2d3e 63e0 42be 7866 193d 6300 233c
00000140: 1e57 003e 3a8f b13b 2bc2 4dbe eb7e 6d3b
00000150: afb4 3a3e 013e ed3d 6565 3bbe 4bba 973d
00000160: d492 e83d 7fd9 0e3e 397c 2d3d 22b3 ac3e
00000170: f9fa 433e 8dc9 b63d 2783 51bd 61c3 b23c
00000180: d7aa 66be 069e 1f3e fc18 cb3d 7e2f 9d3d
00000190: b055 0fbe f39b 053e faaf 873d 1782 213e
000001a0: cfa6 40be 4dcb b9bc 453c b03d 9d88 153d
000001b0: b200 bfbe 0c45 7b3e 9672 663e f376 f9bb
000001c0: 8696 2b3d d09f 27be 18ab 57bc cced e73d
000001d0: eda4 b23c 60ea ea3d 1cea c8bd be3a 003e
000001e0: 1621 203e b41f 953e c6ce 0a3e 2262 34be
000001f0: 2395 463e 8cb7 a1bc c438 25bd 47ed fe3d
-0.087237544 -0.26851094 0.12310536 0.16697864 0.071624525 0.11629755 0.08943395 -0.09305049
0.1059482 0.032638926 0.06003375 0.061567247 0.089259185 -0.08948989 0.11260148 0.19796824
0.07169921 0.09157309 -0.18271391 -0.062387608 0.13704175 0.20975372 0.13074791 0.06916152
0.16746224 0.14126764 0.014971792 0.12998194 -0.0076281126 -0.089275256 0.018199606 -0.17597185
0.11354317 -0.08341416 0.15101427 0.10872907 -0.052554607 0.08109091 0.05757191 0.034006048
-0.09296174 -0.07644505 0.2586775 0.007450938 0.112505734 -0.20541422 0.1491114 0.117041685
0.17092414 -0.1448474 0.15277688 0.030625625 -0.03052849 -0.041555878 0.059018318 0.20674245
0.16002972 0.40010092 0.0026553646 0.076852486 0.032388784 0.08620935 -0.10411687 0.16775353
-0.004953606 0.056036845 0.16022083 0.19452398 0.06600691 0.10996859 -0.117559694 0.07582756
-0.10013651 0.15118448 -0.0027054532 0.06488381 0.1691622 -0.19030909 0.037451237 0.009948823
0.12533233 0.0054186853 -0.200936 0.003623898 0.18232988 0.11584092 -0.18300398 0.074085794
0.1135613 0.13950156 0.042354796 0.33730417 0.19138707 0.089251615 -0.051150467 0.02182168
-0.22526108 0.15587625 0.09916875 0.07675074 -0.13997531 0.13047771 0.06625362 0.15772282
-0.18813632 -0.02267995 0.086052455 0.036507238 -0.37305218 0.24538058 0.22504649 -0.007613057
0.041891597 -0.16369557 -0.0131633505 0.11324653 0.021807158 0.11470485 -0.09810278 0.12522408
0.15637621 0.2912575 0.1355544 -0.1761556 0.19392829 -0.019740842 -0.04033734 0.12447601

_policy.8.weight f4 [3, 128]
00000000: 7fad 8ebc 918d 3f3e 80de 00be c4d6 16bf
00000010: 2efb b6be 95ad 36be c1d2 04bf 3f98 c5bd
00000020: 9435 1a3f 4082 0dbe aa09 ae3e 186d 2a3f
00000030: 589c 21bd d798 2e3b 4db6 6abf 413d e1bd
00000040: 19d0 943e ffd0 af3e c113 d1be a427 4abd
00000050: 2821 2dbe f461 24be 8194 d63b ab18 963e
00000060: c8c7 00be 5f90 a5be aedd 2b3e d9e7 3dbe
00000070: 82c0 f8be 9c06 003f 3883 b4bd 99ce 0f3d
00000080: 8ce6 32be 490c 37bd f18d 66be 9762 e83e
00000090: 1f02 f0be 7ac7 a93e 16ec 42be d12c 98bd
000000a0: 2816 f43e f124 2c3c a5e3 a6bd 4287 063f
000000b0: d7e9 a33e b36e f3be 5fa9 953f 73be b83e
000000c0: d2f0 25be 915f 00be 3959 873e b155 57be
000000d0: 57a3 9dbe 3dc8 403e 9b62 293d 3ab0 4dbe
000000e0: 082a 99bd df29 e4be b497 b73d 3ca7 ba3e
000000f0: cb20 d93d 42c3 edbd 3758 34bf 2112 ffbd
00000100: d07a a43e 65c3 a33e 4f3c da3e 31e3 05be
00000110: 103a 063f 794f ebbd 4010 ee3e 92da 6abc
00000120: 0793 b5be 8ebe 103f 470b 023f 19d0 a83d
00000130: 5464 3bbe fb18 f73e 8079 4fbd c996 ab3e
00000140: 14df bebd 21bb 33be 1899 36bf 5ff1 a5bd
00000150: 4ae5 9abe 022e f53e 67ad 34bf c151 e8bd
00000160: 3a99 0dbf e058 9d3e 082a 42be 9a34 8dbe
00000170: f041 76be 0edb 1dbe b3cd 083f 4840 e63e
00000180: 29a3 dd3d 145b ddbd a1f2 243e 14e4 ddbe
00000190: 64ad 0f3d 074f f0bd b0b1 36be 5bd6 d1be
000001a0: b099 02be 3a77 8a3e 405e e8be cad3 383f
000001b0: ab36 c03e 7154 0c3f 8233 16be 459e 3e3e
000001c0: 439e c8be 5d85 cabd 2d01 b23d 929e 84bc
000001d0: fd02 8ebe 4d59 c2be 63d3 f63e bba8 57bd
000001e0: 67aa 9d3e 928b 54be 87a3 7fbe 24e2 e83e
000001f0: 5fdc b43e 4dda 393e 71d4 c73d 6808 d6bd
00000200: ae0b 9d3e 278f b43e 8cfc 73bd c0e8 193f
00000210: ee1f a23e 8aaf 2bbc c258 b63e 0c00 003f
00000220: 3054 dbbe 2c84 e83e 0de3 10bb 99e4 54be
00000230: 0068 08be f129 443e f880 7c3f e5da 4bbe
00000240: c476 dcbe 06bd 45be 888e c53e 6d5d aa3e
00000250: 405b f43e cd8e ba3e d1b3 9fbe 16c9 04be
00000260: 27e5 8dbe ddf3 4a3e 0926 7fbe 446c aabe
00000270: 4735 c43e 8973 07bf 0911 8a3e b99e 293d
00000280: 088a 893e d43c 4abe 1203 55bf f20b 01be
00000290: dd4d 1fbe 3db4 debe e207 153f 1455 e3bd
000002a0: 508d 8cbc 352f ff3d 695e 043f 7741 25bf
000002b0: 2c33 91be 4e3b fe3e cc0a 62bf e68e 62be
000002c0: 3d6f 88bd 3feb 263f 1450 99bd 0fd7 803e
000002d0: 8b2d 993e 2c4a 4cbd 5a64 c73e 7861 5cbe
000002e0: 8ba3 aa3e e30e f43e 06fc 1c3e 5b84 bfbd
000002f0: 6216 323e 3ef4 f7bd eaca 103f c773 b03e
00000300: b212 0ebf ea18 1cbe 6a9f f7bb 4181 a53e
00000310: 84e4 53bd 297e 06bf 98e7 683e ace8 fb3e
00000320: 04f3 95bd ca8b 02bf eb00 893d a553 93be
00000330: 6c13 c33e ee11 0dbf 4dd6 88be ca49 b1be
00000340: d5b3 adbe 3563 d3bd 6019 f03e 0070 8c3e
00000350: 240d de3e 6570 c3bd 09c4 8c3e 18a5 2fbd
00000360: a479 113f 3aed 82be a756 323e 5a92 8dbe
00000370: 1d47 83be 6356 69be a9b8 fdbe 534d a6bd
00000380: e93c 06bf 5250 003f 39fc eebc 8f7a 223e
00000390: ade2 5abf 7a0d 95be cd2f bc3b bec3 343d
000003a0: 37e3 acbd 90e6 1dbd 5ebc 63ba 5d62 61bf
000003b0: d902 ae3e deca 0dbf eecd 223d 4f8e 88be
000003c0: c033 bc3e 0269 053f 4598 883d fa92 723e
000003d0: c657 b7bc 7ca1 c13d c3c4 8ebf f19c acbe
000003e0: 5dee a4be 6045 943e 1d23 103f 8af0 03bf
000003f0: 5bcc 98be 0df6 a9bc cc81 a23e ee90 95be
-0.017416714 0.18706347 -0.12584877 -0.58921456 -0.3573851 -0.17839654 -0.51884085 -0.09648179
0.60238004 -0.13819218 0.33991748 0.66572714 -0.03945574 0.0026641393 -0.9168442 -0.109980114
0.29065016 0.3433914 -0.40835384 -0.04935421 -0.1690718 -0.16052991 0.0065484648 0.29315695
-0.1257621 -0.3233671 0.16783783 -0.18545474 -0.48584372 0.50010085 -0.088140905 0.035109136
-0.17470759 -0.04468945 -0.22515084 0.45387718 -0.46876618 0.3316 -0.19035372 -0.07430423
0.47673154 0.010506854 -0.081488885 0.5255014 0.32014343 -0.47545394 1.1692313 0.360828
-0.16205147 -0.12536456 0.2643526 -0.21028782 -0.3078868 0.18826385 0.041353803 -0.20086756
-0.0747872 -0.44563195 0.08964482 0.36455715 0.10601958 -0.11609508 -0.70447105 -0.1245463
0.32124949 0.31985012 0.42624137 -0.13074948 0.52432346 -0.114897676 0.46496773 -0.014334338
-0.35463735 0.56540763 0.5079846 0.082428165 -0.18299991 0.48261246 -0.05065298 0.33513477
-0.093198925 -0.17551853 -0.7132735 -0.081026785 -0.3025306 0.47886664 -0.7057709 -0.11343718
-0.5531193 0.3073187 -0.18961346 -0.27579194 -0.2404859 -0.15415594 0.5343887 0.44970918
0.10822136 -0.108083874 0.1610818 -0.43338072 0.035077468 -0.11733823 -0.1784122 -0.40983853
-0.1275394 0.27044088 -0.45384407 0.72198164 0.37541708 0.5481635 -0.14668086 0.18615063
-0.39183244 -0.09888718 0.086916305 -0.016188893 -0.27736655 -0.37958756 0.4820815 -0.05265115
0.3079407 -0.20756367 -0.24964724 0.45485032 0.3532438 0.18149681 0.09757317 -0.10450822
0.30672973 0.35265467 -0.05956702 0.60120773 0.31664985 -0.0104788635 0.35614592 0.5000007
-0.42837667 0.4541334 -0.002210799 -0.20790328 -0.13320923 0.19156624 0.9863429 -0.1990772
-0.4305936 -0.19310388 0.38585305 0.33274403 0.47725868 0.36437073 -0.31191877 -0.12967333
-0.27713892 0.19819589 -0.24916853 -0.33285725 0.38321897 -0.5291067 0.26966122 0.041411135
0.26863122 -0.19749767 -0.8320781 -0.12602213 -0.15557046 -0.43496886 0.58215153 -0.11100212
-0.017157227 0.12460176 0.5170656 -0.64553016 -0.28359354 0.4965462 -0.88297725 -0.22124824
-0.06661842 0.6520271 -0.07485977 0.25164077 0.2991756 -0.049875423 0.3894375 -0.21521556
0.33327898 0.47667608 0.15330514 -0.09351417 0.17391351 -0.121071324 0.5655962 0.3446333
-0.55497277 -0.15243879 -0.0075568454 0.32325175 -0.0517316 -0.52536255 0.22744596 0.49200952
-0.07321742 -0.5099455 0.06689628 -0.28774753 0.38100755 -0.55105484 -0.26726 -0.3462661
-0.33926263 -0.103216566 0.4689436 0.274292 0.433694 -0.09542922 0.27493313 -0.042882055
0.56826234 -0.25571615 0.17415868 -0.2765072 -0.25640193 -0.2278686 -0.49554947 -0.08120217
-0.5243669 0.5012256 -0.029173004 0.15867065 -0.8550213 -0.29111844 0.005743003 0.044131987
-0.08441775 -0.03854996 -0.00086874317 -0.88040715 0.33986548 -0.55387676 0.03974717 -0.26671073
0.36758232 0.52113354 0.06669668 0.2368888 -0.02238072 0.09454629 -1.1153797 -0.33713487
-0.32213107 0.2895918 0.5630358 -0.5153891 -0.2984341 -0.020747209 0.31739652 -0.29212135

_policy.8.bias f4 [3]
00000000: 0eb5 9b3c 0a62 97bd 5ee4 283d
0.019007232 -0.07391746 0.041233413

_value.0.weight f4 [128, 22]
00000000: 0949 813d 9182 2b3e 9eee 17be 7ff2 1a3d
00000010: 18b2 ec3c 85ea 2cbe 2372 9e3d cc30 4abd
00000020: b387 283e 9597 3abe 82b1 0bbd f392 243e
00000030: a7da 903d 3e58 5cbd 3d94 42bd b7d6 2d3d
00000040: a02f e3bc 611b 2d3e f6a2 2339 0f67 d23d
00000050: df54 a03d 0410 a1bd c38a 23be 990e 0dbe
00000060: ffc4 87bd ad6a 55bd 8cc6 193d 437f 1fbe
00000070: 5050 a3bd 2979 033e f99f 72bc 27e0 9fbd
00000080: 047b 17be 60b7 6dbd 3e74 1ebe 6921 303e
00000090: da37 e43d 0597 293e 93ae 15be 70ab 32be
000000a0: 6bd1 683c 727e 69be 1cf6 ecbd 3e5b 3e3d
000000b0: 06e5 d8bc 9408 00bd bda9 7fbd a072 17be
000000c0: a9a8 253e df6b 253e aaa5 d9bd e7e0 323e
000000d0: 45ed 073e 6056 903d d6c3 373e 4692 193e
000000e0: a70c 25be 4252 53be b6a6 11be 59bc 57be
000000f0: c5b7 0abe 4616 62bc 9dbe 6cbd c7af c3bd
00000100: 6a08 1abe 056d a83d fbd8 ebbd edde 353d
00000110: c90d 633b 1c1e 56be 49ed 1bbe 8fd0 573d
00000120: c730 923d 4fe0 103d 89d0 843c 29c6 e9bd
00000130: 5d46 e83d f5f7 233d 7eac 8d3e b2f4 b53b
00000140: aaca 163e ec01 d8bc b6c5 013c 88a8 26bd
00000150: e588 ddbd 67d2 973d cbe0 aabc 9527 8b3e
00000160: 7a37 0abe f96a 7b3e 6ee9 6ebe 081c a53d
00000170: 2fa3 b23c 2747 c23d d455 d43c 5423 ab3d
00000180: 641f 96bd cd0f b1bd 009f 3cbe e27e c2bd
00000190: 3cf7 653d 9849 873d 93e8 abbd 12f9 a2bd
000001a0: 2e7e 68bd de42 873d 054e 50bd 9d12 8e3c
000001b0: 4293 0b3d 3a65 cfbc 74f3 46be 5fd6 6c3e
000001c0: 2ed2 053e da5a e1bd cc36 013e 540a 0bbe
000001d0: 09d6 1d3e 6577 133d 83f5 9f3d c972 b23c
000001e0: 5ee0 04be a4eb ab3d da49 143e c25c ea3d
000001f0: 3199 363e 7876 d03d 83f8 a53a 37e9 23be
00000200: 5fbe 573b 6e34 0abe 51b3 b4bd d843 37be
00000210: 3ca4 af3d ce48 333e f04b debd 60ee 2e3e
00000220: 74e5 3abd 3f7e 30be 9fec c13c 0881 04bd
00000230: 03b1 873d baeb 5abd ac8a 4abe d1e8 60bd
00000240: 1ce1 14be 9be6 363e ef71 3cbe 1d39 f03d
00000250: 595f 7b3d f9c7 cfbd 0096 cf3d 3beb 3abe
00000260: 5ea5 28be 7c10 a73c acae adbd 9741 0cbe
00000270: 9be3 aa3b 8272 26be 6cd5 ca3d 5bb0 133e
00000280: f781 db3d 2573 893c 93d3 d4bd c561 2b3e
00000290: fd57 a2bc 2e1e 15be 1671 5d3d 62bb 47be
000002a0: 2af6 9d3d d51a fcbd e9ba 673c 89da cdbc
000002b0: e23c 62be d068 253d 554c 1c3e 10a7 f53d
000002c0: ab12 de3d d620 3bbe 86d3 8ebd fa21 e5bd
000002d0: 2840 aebd 0a26 d03c 4759 f03d b0a3 283e
000002e0: 338e 0cbd a34f 3e3e 1b9e 49bd 71be 0ebe
000002f0: fd6a 033e e7ee 06be 2e45 54be 6f17 31be
00000300: 4d47 263e 4f8c e53b 2249 533c 7aa5 cbbd
00000310: c986 5fbe f6e9 253e 8cbe 60bd b18c df3d
00000320: 139e 9f3d 5799 06bd 2e0e 3a3d 8d29 a6bd
00000330: 9a42 433d a312 29be 4f60 04bc 2521 b93d
00000340: 8f38 9cbd 2fee 4c3e 989e 17be f30b 3bbe
00000350: a406 fc3d ae79 a3bd 335d 64bd ead9 4abe
00000360: ec4f 51be 340f 183a c5be b13c c321 833d
00000370: 339b 153e 72e5 1fbe 7d0c 25bd b620 0e3e
00000380: 65be 063e 6737 a5bd e201 47bd a267 8a3d
00000390: 7fd7 0d3e f88d 9a3d 0e46 213d 0584 2ebc
000003a0: 6372 903d 4635 7f3c dca6 913c d995 ab3d
000003b0: 34be 13be b656 e0bc 2cd0 2d3e 824d afbd
000003c0: c346 8ebc 4ae6 41be 9f74 52bd 7c9c 2cbd
000003d0: dd95 77bc 3e81 aabd 1cc7 1ebe 615e 04be
000003e0: 0d2a 76bd 26ba e6bc c0b3 183d 7351 f23b
000003f0: 3ca7 0b3e 4a28 043e 2942 073e 91c5 193e
0.063127585 0.16749026 -0.14837119 0.03782892 0.028893515 -0.16886337 0.077366136 -0.049362943
0.16458015 -0.18221886 -0.03410483 0.16071682 0.070729546 -0.05379509 -0.047504652 0.042441096
-0.02773267 0.16904975 0.00015605599 0.10273563 0.07828688 -0.07864383 -0.15970902 -0.137751
-0.06629371 -0.052103687 0.037542865 -0.1557589 -0.07974303 0.12839188 -0.014808648 -0.078064255
-0.1479302 -0.05803621 -0.1547403 0.17200245 0.11143465 0.16561516 -0.14617376 -0.1744821
0.014210085 -0.22802141 -0.11570379 0.046473734 -0.026476394 -0.03125818 -0.062417734 -0.1478982
0.1617762 0.16154431 -0.10627301 0.17468606 0.13274105 0.07047725 0.17945799 0.14997205
-0.16118108 -0.20636848 -0.14223751 -0.21067943 -0.13546665 -0.013799256 -0.05779897 -0.09555011
-0.15042272 0.08223919 -0.11515995 0.04440205 0.0034645668 -0.20909923 -0.15227236 0.05268913
0.0713821 0.035370167 0.016212719 -0.11414749 0.11341546 0.040031392 0.27670664 0.0055528516
0.14725748 -0.026368104 0.007920673 -0.040688068 -0.10817126 0.07413178 -0.020859143 0.27178636
-0.13497725 0.24552526 -0.23331234 0.08061987 0.021806328 0.094862275 0.025919832 0.08356348
-0.07330206 -0.08645592 -0.18420029 -0.09496857 0.056143984 0.06605834 -0.083939694 -0.07957663
-0.05676096 0.06604551 -0.050855655 0.01734286 0.034075983 -0.025316823 -0.19428807 0.23128651
0.13068458 -0.11003657 0.1261856 -0.13578159 0.15413679 0.036002535 0.078104995 0.02178325
-0.12976214 0.08394554 0.14481297 0.114434734 0.17831875 0.10178846 0.0012662563 -0.16006933
0.0032919866 -0.13496563 -0.088232644 -0.17896974 0.08576247 0.17508242 -0.10854328 0.1708312
-0.04562898 -0.17235659 0.0236724 -0.032349616 0.06625559 -0.053447463 -0.19779462 -0.05490953
-0.14538997 0.17861407 -0.18402837 0.117296435 0.061370227 -0.10145564 0.10136032 -0.18253796
-0.16469333 0.020393603 -0.08480582 -0.13696896 0.005215121 -0.16254619 0.09903988 0.14422743
0.10718148 0.016778538 -0.10391917 0.16736515 -0.019817347 -0.14562294 0.054062925 -0.19505075
0.07712968 -0.12309805 0.014143684 -0.02512862 -0.22093537 0.04038316 0.15263493 0.11994755
0.108434044 -0.18274245 -0.06973939 -0.11188121 -0.085083306 0.025408763 0.11735778 0.16468692
-0.0343153 0.18585066 -0.049223047 -0.13939835 0.12833782 -0.13177072 -0.20729515 -0.17294095
0.16238137 0.0070052515 0.012895854 -0.099436715 -0.2182876 0.1620253 -0.05486922 0.10915507
0.07793822 -0.03286108 0.04542368 -0.08113394 0.047670938 -0.16511016 -0.008079602 0.09039525
-0.07627975 0.20012735 -0.14806592 -0.18266277 0.12305954 -0.07982193 -0.055752944 -0.1980969
-0.20440644 0.0005800605 0.021697411 0.06402924 0.14609985 -0.1561487 -0.040295113 0.13879666
0.13158567 -0.08067208 -0.04858578 0.06758048 0.13851736 0.0754661 0.03937345 -0.010651593
0.070530675 0.015576666 0.01777976 0.083781905 -0.14428025 -0.027385097 0.16973943 -0.08559705
-0.017367726 -0.18935505 -0.05138075 -0.042141423 -0.015111414 -0.08325432 -0.15505642 -0.12926628
-0.060098697 -0.028164934 0.037280798 0.0073949634 0.13638014 0.12905994 0.13208832 0.15016772
