logs/weight_colliion_obj_obs = 0.4/model/model_1320.pth (torch, 427625 bytes, 19 tensors)

_policy.0.weight f4 [128, 22]
-0.3909646 -0.07709278 0.18727706 0.10149046 -0.36580026 -0.21271583 0.18567555 -0.031564288
0.43515235 0.34260988 -0.21787979 0.012102485 0.27182114 0.49183002 -0.069721974 -0.118539095
-0.07051201 0.07719135 0.044344448 0.13239588 -0.121395744 -0.58367085 -0.40623465 -0.29903618
0.012147289 1.0770919 -0.030386044 0.035258368 0.29713625 0.09193458 -0.8983721 0.1202895
0.21001297 0.2524169 0.33570373 0.30146125 0.2033993 -0.059327293 -0.048710242 -0.18350597
-0.20921937 0.10824168 0.023528425 -0.027614065 -0.59233475 -0.10352971 0.2849555 -0.011498088
-0.2999333 0.09031359 -0.010437769 0.1929019 1.2281302 -0.5506758 0.2680891 -0.017411578
0.39002448 0.4554846 0.08499613 0.1603714 -0.16516206 0.11348363 0.008702636 -0.03322683
-0.08942921 -0.10965929 0.041625947 -0.59878135 0.027075859 0.5629553 -0.12819979 -0.72335947
0.13551304 0.4088459 0.055604637 0.12380805 -0.10056225 -0.29560256 -0.31539294 0.5803964
-0.23724909 -0.1497859 -0.23226473 -0.0043439176 -0.19337326 0.28772768 0.13938382 0.09779277
1.1124126 -0.53719324 -0.08175386 0.1887785 0.8470487 -0.66007745 0.011180731 -0.609938
-0.6836237 0.49866077 0.12623692 -0.16353498 -0.10796458 -0.16584896 0.0023142374 0.16113572
0.018603742 -0.00391027 0.027963223 -0.1255023 0.018974176 -0.030823972 -0.7236753 0.80927646
0.48416775 -0.5871546 -0.26124778 0.68659556 0.19323477 0.2583288 -0.02121996 -1.1886644
-0.26689118 -0.056227256 -0.1731424 0.030255415 0.05723061 -0.040003404 0.17599516 0.04043803
-0.052953176 -0.11002155 -0.07353301 0.080745995 -0.14127113 0.15611912 -0.25901493 0.33859485
0.33664483 -0.013027986 -0.5655937 0.11276368 0.63485146 -0.6025121 0.2174827 -0.08964672
-0.9244155 0.13618216 -0.056988955 -0.032431163 -0.09067946 -0.14667632 0.3629927 -0.21156526
0.15624714 -0.11212432 -0.2675288 -0.13400711 -0.037578005 0.9807353 0.32669398 0.3321008
-0.2136907 -0.1179725 -0.82876176 0.86604315 -0.10464082 -0.34969336 0.01270067 0.08541859
-0.15455383 0.03556151 -0.12057939 -0.2373948 -0.010833871 0.050309382 -0.013262478 0.23612605
0.17375655 -0.43732256 -0.09820563 0.15320283 0.4627402 -0.066000305 -0.1773984 0.0134081
2.065984 1.1803179 -0.003741019 -0.116309576 0.19445401 -0.0011750537 0.14156926 -0.1573162
0.17078112 -0.07350801 -0.057565305 -0.0059508975 -0.06773029 0.103509285 0.3024189 0.7481041
-0.49927047 -0.7051229 -0.30796918 0.5329126 -0.49526185 -0.6618773 -0.7181812 0.2859679
-0.049789544 0.4645832 0.27404907 -0.13384745 0.063560225 0.055990484 0.12500332 -0.1501953
-0.0071197054 -0.011288307 -0.1382804 -0.13732356 -0.6513429 -0.2847071 0.19511251 -0.055147987
-0.72928846 -0.36265853 -0.046876047 0.15744342 1.5601377 0.56416816 0.256896 -0.21420868
-0.021511113 0.06603571 -0.019678706 0.11895533 0.1526645 0.015329239 -0.11869988 -0.01490799
-0.10534305 -0.0696273 -0.039616164 0.31962213 -0.89722234 -0.301962 -0.21164392 -0.080847785
-0.10354055 -0.54904777 -0.40131786 -0.11941805 -0.031852186 -0.051718578 -0.41437608 -0.37274367
00000000: 832c c8be d2e2 9dbd 8fc5 3f3e 3bda cf3d
00000010: 2c4a bbbe 2ed2 59be bb21 3e3e 8e49 01bd
00000020: 4acc de3e 906a af3e e11b 5fbe 8049 463c
00000030: 242c 8b3e 25d1 fb3e 65ca 8ebd a0c4 f2bd
00000040: 9a68 90bd 8016 9e3d 86a2 353d c992 073e
00000050: 559e f8bd 746b 15bf fdfd cfbe 451b 99be
00000060: 6c05 473c 26de 893f 27ec f8bc 146b 103d
00000070: 3e22 983e 3248 bc3d b7fb 65bf 575a f63d
00000080: a40d 573e ca3c 813e 5ce1 ab3e 2159 9a3e
00000090: e847 503e 2d01 73bd 6484 47bd fde8 3bbe
000000a0: 9a3d 56be d0ad dd3d afbe c03c e436 e2bc
000000b0: 40a3 17bf 6207 d4bd b0e5 913e 7a62 3cbc
000000c0: dc90 99be 55f6 b83d 2d03 2bbc 1388 453e
000000d0: 5f33 9d3f 17f9 0cbf f942 893e baa2 8ebc
000000e0: 4ab1 c73e 4735 e93e 7312 ae3d 6638 243e
000000f0: 3e20 29be 1b6a e83d 8095 0e3c db18 08bd
00000100: a926 b7bd 0d95 e0bd f87f 2a3d bc49 19bf
00000110: 31ce dd3c d71d 103f ce46 03be 162e 39bf
00000120: eec3 0a3e 4054 d13e b0c1 633d 138f fd3d
00000130: 95f3 cdbd 3859 97be 2f7b a1be dc94 143f
00000140: 6df1 72be 7a61 19be ced6 6dbe 6c57 8ebb
00000150: a403 46be 0b51 933e a2ba 0e3e 9347 c83d
00000160: 8963 8e3f 7f85 09bf 916e a7bd 274f 413e
00000170: 2fd8 583f d6fa 28bf 622f 373c e624 1cbf
00000180: f601 2fbf 7750 ff3e 4044 013e b775 27be
00000190: 891c ddbd 4fd4 29be 76aa 173b c300 253e
000001a0: e066 983c b921 80bb 2113 e53c ad83 00be
000001b0: bb6f 9b3c 8e82 fcbc c942 39bf be2c 4f3f
000001c0: d6e4 f73e c44f 16bf 45c2 85be bac4 2f3f
000001d0: 56df 453e ac43 843e 7bd5 adbc 2826 98bf
000001e0: f6a5 88be 8d4e 66bd 3e4c 31be 34da f73c
000001f0: a56a 6a3d 9cda 23bd 1338 343e 59a2 253d
00000200: 6ee5 58bd fa52 e1bd 7a98 96bd 285e a53d
00000210: 61a9 10be b1dd 1f3e 9b9d 84be 4e5c ad3e
00000220: b65c ac3e 5573 55bc c0ca 10bf a5f0 e63d
00000230: a085 223f 3c3e 1abf c9b3 5e3e b398 b7bd
00000240: 7fa6 6cbf 5673 0b3e 406d 69bd 8ad6 04bd
00000250: 27b6 b9bd 5132 16be 2eda b93e 90a4 58be
00000260: 40ff 1f3e 6fa1 e5bd 89f9 88be 2939 09be
00000270: 65eb 19bd 7811 7b3f 6f44 a73e 1e09 aa3e
00000280: bcd1 5abe 919b f1bd bb29 54bf 01b5 5d3f
00000290: ed4d d6bd 020b b3be 7916 503c f1ef ae3d
000002a0: 5c43 1ebe f2a8 113d 54f2 f6bd 9f17 73be
000002b0: 8c80 31bc 3611 4e3d dd4a 59bc 07cb 713e
000002c0: 3ded 313e bee8 dfbe 0920 c9bd 34e1 1c3e
000002d0: 49ec ec3e 2b2b 87bd eda7 35be a6ad 5b3c
000002e0: 1539 0440 a814 973f e22b 75bb b733 eebd
000002f0: f41e 473e 4204 9aba 88f7 103e 7f17 21be
00000300: 3fe1 2e3e 5e8b 96bd 99c9 6bbd bfff c2bb
00000310: 2eb6 8abd adfc d33d a6d6 9a3e c083 3f3f
00000320: 61a0 ffbe ef82 34bf 23ae 9dbe f66c 083f
00000330: f692 fdbe ca70 29bf b9da 37bf 626a 923e
00000340: 1ff0 4bbd d9dd ed3e 2950 8c3e 4e0f 09be
00000350: dd2b 823d 4756 653d df00 003e cccc 19be
00000360: 6b4c e9bb 97f2 38bc 6199 0dbe 8c9e 0cbe
00000370: 69be 26bf 21c5 91be 93cb 473e dbe2 61bd
00000380: a6b2 3abf 61ae b9be 1901 40bd d938 213e
00000390: 98b2 c73f 536d 103f df87 833e 8559 5bbe
000003a0: 1338 b0bc bb3d 873d 3d35 a1bc da9e f33d
000003b0: 1554 1c3e 7d27 7b3c ec18 f3bd a440 74bc
000003c0: 19be d7bd c298 8ebd 8f44 22bd 83a5 a33e
000003d0: 5db0 65bf c39a 9abe 2fb9 58be 8693 a5bd
000003e0: 110d d4bd 658e 0cbf 8979 cdbe 7391 f4bd
000003f0: 7077 02bd dcd6 53bd 1a29 d4be 42d8 bebe

_policy.0.bias f4 [128]
-0.090312205 -0.026895208 -0.18699816 -0.19557106 -0.032489084 -0.13198014 0.027990237 -0.00866847
-0.04030151 0.17572935 0.16027176 0.1754421 -0.17713405 -0.23937464 -0.0048476737 -0.109596215
-0.007514615 0.039032795 -0.18598786 0.037375018 0.0808537 -0.033565655 -0.28119108 0.22926393
-0.07796502 -0.05851925 -0.012413166 -0.14626019 0.09691227 -0.20214097 -0.24484116 -0.1625113
0.113061205 -0.10766372 0.07177516 0.069713086 0.20734286 -0.18849589 -0.16122736 -0.009114278
-0.032249052 0.10212511 -0.21061867 -0.06926427 -0.001972427 -0.13059244 0.19208595 0.100081794
-0.120860666 -0.18938799 -0.34887314 -0.16721112 -0.30198783 0.20864767 -0.26132923 -0.099822655
-0.062834054 0.08977946 0.3606201 -0.07566468 -0.040334456 -0.018966224 -0.29618406 -0.079981774
-0.115180835 -0.092761114 0.049041323 -0.08450604 -0.101176485 -0.18758316 -0.08408139 -0.068179645
-0.18330799 0.13833697 -0.14873968 0.112083174 -0.118339345 -0.1242469 -0.17722863 -0.11297674
0.010143971 -0.02378178 0.022548163 -0.24304487 -0.10516124 -0.018066553 -0.17195277 -0.057965122
-0.12262216 -0.23596488 0.076294824 -0.23171933 0.100484 -0.25975993 -0.23315972 0.039979838
-0.305458 -0.15192449 -0.10758594 -0.17521784 -0.28343034 -0.15641415 -0.14034799 -0.067541115
0.016624087 0.015918657 -0.22309168 -0.23154396 -0.017342187 0.1661995 0.13745579 -0.22420433
-0.20148258 -0.09353429 -0.24972762 0.14673054 -0.01777443 0.039912526 -0.06334692 0.1982342
0.08152497 -0.088875614 0.057134487 -0.15947223 0.03550122 -0.21406032 -0.21963826 -0.27425623
00000000: 9bf5 b8bd 5753 dcbc 727c 3fbe c843 48be
00000010: 4613 05bd cd25 07be c84b e53c 3306 0ebc
00000020: 3213 25bd 65f2 333e 481e 243e 18a7 333e
00000030: a162 35be a01e 75be 3cd9 9ebb fb73 e0bd
00000040: 293d f6bb dae0 1f3d 9a73 3ebe 8c16 193d
00000050: a096 a53d 247c 09bd 47f8 8fbe 2ac4 6a3e
00000060: 20ac 9fbd e2b1 6fbd 9860 4bbc 3bc5 15be
00000070: f179 c63d 0bfe 4ebe a4b7 7abe 5d69 26be
00000080: a28c e73d cc7e dcbd dbfe 923d bcc5 8e3d
00000090: b051 543e 1105 41be c918 25be 0d54 15bc
000000a0: 9517 04bd f826 d13d 6cac 57be 6dda 8dbd
000000b0: d543 01bb 06ba 05be 2eb2 443e aff7 cc3d
000000c0: cc85 f7bd edee 41be 809f b2be 6439 2bbe
000000d0: 269e 9abe bca7 553e f2cc 85be d26f ccbd
000000e0: 24af 80bd 4bde b73d 33a3 b83e 15f6 9abd
000000f0: be35 25bd 0e5f 9bbc 70a5 97be 7ccd a3bd
00000100: eee3 ebbd 8af9 bdbd 8edf 483d 8111 adbd
00000110: 9e35 cfbd cd15 40be dd32 acbd c5a1 8bbd
00000120: 17b5 3bbe 35a8 0d3e 374f 18be dd8b e53d
00000130: e65b f2bd 2975 febd 6c7b 35be 5960 e7bd
00000140: e632 263c 02d2 c2bc edb6 b83c c1e0 78be
00000150: c75e d7bd 4f00 94bc 6314 30be d66c 6dbd
00000160: 5421 fbbd c7a0 71be 7640 9c3d d547 6dbe
00000170: 8eca cd3d 41ff 84be 6cc1 6ebe e6c1 233d
00000180: fe64 9cbe 1892 1bbe 0456 dcbd 4e6c 33be
00000190: c81d 91be 082b 20be 62b7 0fbe ff52 8abd
000001a0: 3d2f 883c d867 823c 2572 64be dc19 6dbe
000001b0: 3411 8ebc 3430 2a3e 36c1 0c3e d295 65be
000001c0: 7351 4ebe e88e bfbd 99b8 7fbe 8840 163e
000001d0: ae9b 91bc 517b 233d 08bc 81bd e8fd 4a3e
000001e0: 90f6 a63d 6b04 b6bd da05 6a3d b04c 23be
000001f0: ba69 113d a132 5bbe dae8 60be 506b 8cbe

_policy.2.weight f4 [128, 128]
0.18696147 -0.013490312 -0.11820404 -0.25015408 0.29134142 -0.56363344 0.08064008 0.14129807
0.050793674 -0.52735656 -0.02214218 -0.27965313 0.02362945 -0.13405445 -0.43416104 -0.089467384
0.0026795636 0.067384765 -0.12243129 0.063630156 0.13929878 -0.09291875 0.07806116 -0.32165676
-0.31705105 -0.0058945003 -0.21718176 0.24608423 0.2278486 0.087448224 0.049477022 -0.43206733
0.12336942 0.018238135 0.2565102 -0.015678523 0.06894805 -0.3392062 0.15672167 0.084993936
-0.46429384 -0.1787851 0.0886108 0.024784869 0.1841425 -0.21086067 0.028256876 -0.116472006
-0.051359866 -0.6683898 -0.26762512 0.047709238 0.4783299 0.42580643 -0.32302448 -0.25599533
0.29697928 0.17305493 -0.16472471 0.16668876 0.22923043 -0.029253166 -0.30074373 0.15012392
0.015766168 0.2300566 0.11990984 0.02516701 0.048473842 -0.22521736 0.022225402 -0.10649785
-0.13476212 -0.064631455 -0.115437776 -0.25806886 -0.14273356 -0.059881255 -0.27482924 0.20561811
0.25019565 0.11373266 0.025081895 -0.4291083 -0.42481044 -0.080677256 0.0005125166 -0.050068602
-0.09710937 0.06993225 0.09605429 0.27946994 0.033687107 -0.6599981 -0.015602096 0.0834485
-0.04093482 0.07451489 -0.04288717 0.13887703 -0.22804517 0.06656405 0.0723749 0.07736896
-0.11374917 -0.19231744 0.08429997 -0.08103778 0.1083353 -0.2892484 -0.5291037 -0.103388704
-0.052639436 0.1750635 -0.21172182 0.16912436 0.029712517 0.03481646 -0.15127914 -0.13961415
-0.010072865 0.08163134 0.044795252 -0.5706904 0.03775039 -0.4685629 -0.01515811 0.21654923
-0.06140583 -0.05980903 -0.055664554 -0.046126503 -0.002323213 -0.04848445 0.021407485 0.042645685
-0.009511071 -0.00938073 -0.06437628 -0.11796675 -0.0067549543 -0.072716266 -0.108683795 -0.061715696
-0.08765347 -0.12001572 -0.081710584 0.042888436 -0.12541732 0.0060305055 -0.084956445 0.022937136
-0.032752458 -0.0379163 -0.02708536 -0.077526234 -0.097748004 -0.042773515 -0.0073657115 -0.07385829
-0.07395296 -0.05856099 -0.0443032 -0.054178447 0.004638344 -0.018967777 -0.070944615 -0.07303782
0.07849728 0.0014796738 0.0023514323 0.009558812 0.059018426 -0.10646747 -0.06753407 -0.11582167
-0.10427453 -0.06941916 -0.028747676 -0.11442327 -0.0140749365 0.0025330912 -0.11415532 -0.009209947
-0.015577358 -0.077720486 0.049331326 -0.10940504 0.04657864 0.010620561 -0.05484953 -0.03494683
0.04443075 0.0120789455 -0.08237526 -0.035023365 -0.024249867 0.04829905 -0.07754459 -0.034180176
0.039344218 -0.07958229 0.0021670721 -0.07741135 -0.07725439 -0.12314217 -0.027355667 -0.03286951
-0.044622682 -0.005033838 -0.000297699 -0.063339554 0.035877697 0.034933403 -0.0110730985 -0.03440077
0.0074495864 0.026683904 -0.023700574 -0.106420316 0.007291824 -0.038013425 0.04644826 0.021113936
0.015683208 -0.103717856 -0.0916417 -0.12695503 -0.11701237 -0.03601365 0.04195877 -0.01304517
-0.09667434 0.008419899 -0.09880147 0.036375757 0.050793897 -0.02670002 0.0063454956 -0.02800785
-0.03850939 0.0435305 0.016264068 0.030139197 -0.009700287 -0.07508193 0.025757436 -0.13164258
0.04969754 -0.019489182 -0.10772815 -0.09995276 -0.047450107 0.048905816 0.01869517 -0.05947017
00000000: d472 3f3e 7806 5dbc f614 f2bd 3214 80be
00000010: b42a 953e 484a 10bf a026 a53d 71b0 103e
00000020: 070d 503d d700 07bf 8463 b5bc b22e 8fbe
00000030: 8c92 c13c 9245 09be 5b4a debe ad3a b7bd
00000040: 9e9b 2f3b 0601 8a3d 42bd fabd 8750 823d
00000050: 57a4 0e3e 304c bebd 88de 9f3d 32b0 a4be
00000060: 8454 a2be a726 c1bb e564 5ebe 81fd 7b3e
00000070: 2551 693e 0e18 b33d 6ba8 4a3d ee37 ddbe
00000080: 1ba9 fc3d 2468 953c 4e55 833e 3f70 80bc
00000090: a334 8d3d 6fac adbe a57b 203e 4d11 ae3d
000000a0: ecb7 edbe 7113 37be 9479 b53d a309 cb3c
000000b0: da8f 3c3e dceb 57be f77a e73c e088 eebd
000000c0: b95e 52bd 981b 2bbf 2906 89be c36a 433d
000000d0: a8e7 f43e 4d03 da3e 7763 a5be d211 83be
000000e0: ab0d 983e 5035 313e 98ad 28be 75b0 2a3e
000000f0: 62bb 6a3e 56a4 efbc 15fb 99be 16ba 193e
00000100: 0d28 813c f593 6b3e 4a93 f53d 0c2b ce3c
00000110: 828c 463d 619f 66be 0c12 b63c 8b1b dabd
00000120: 15ff 09be 7f5d 84bd a46a ecbd 9a21 84be
00000130: bf28 12be 0c46 75bd 6bb6 8cbe 8e8d 523e
00000140: a519 803e abec e83d 8c78 cd3c 15b4 dbbe
00000150: c180 d9be 1e3a a5bd 685a 063a bc14 4dbd
00000160: 47e1 c6bd a438 8f3d 1db8 c43d af16 8f3e
00000170: 7efb 093d a3f5 28bf ef9f 7fbc 0ce7 aa3d
00000180: 45ab 27bd 439b 983d 75aa 2fbd c835 0e3e
00000190: ac84 69be bc52 883d 4b39 943d 9e73 9e3d
000001a0: 53f5 e8bd ddee 44be 76a5 ac3d 23f7 a5bd
000001b0: e6de dd3d 5e18 94be 5773 07bf 75bd d3bd
000001c0: 739c 57bd d943 333e 9bcd 58be f02e 2d3e
000001d0: aa67 f33c b49b 0e3d ebe8 1abe 03f7 0ebe
000001e0: a808 25bc 552e a73d 3a7b 373d c418 12bf
000001f0: 27a0 1a3d 7ae7 efbe b959 78bc 15bf 5d3e
00000200: ae84 7bbd 50fa 74bd 8400 64bd 25ef 3cbd
00000210: 0c41 18bb a197 46bd c05e af3c 3ead 2e3d
00000220: 53d4 1bbc a2b1 19bc b6d7 83bd 8d98 f1bd
00000230: aa58 ddbb 44ec 94bd 9c95 debd 99c9 7cbd
00000240: aa83 b3bd cdca f5bd e157 a7bd c9ab 2f3d
00000250: 666d 00be 8c9b c53b a5fd adbd a9e6 bb3c
00000260: 7127 06bd 1f4e 1bbd 1ee2 ddbc 13c6 9ebd
00000270: 1b30 c8bd 4833 2fbd 115c f1bb 0443 97bd
00000280: a674 97bd a6dd 6fbd 4677 35bd 38ea 5dbd
00000290: 40fd 973b 5062 9bbc 694b 91bd da94 95bd
000002a0: 2fc3 a03d 9df1 c13a 7d1a 1a3b 909c 1c3c
000002b0: 4ebd 713d 9e0b dabd 4d4f 8abd e933 edbd
000002c0: e38d d5bd a22b 8ebd 3f80 ebbc bf56 eabd
000002d0: 909a 66bc 3802 263b 44ca e9bd 51e5 16bc
000002e0: 2d38 7fbc eb2b 9fbd a50f 4a3d c00f e0bd
000002f0: 3ec9 3e3d dd01 2e3c e7a9 60bd 6824 0fbd
00000300: 05fd 353d c5e6 453c 5cb4 a8bd a974 0fbd
00000310: a8a7 c6bc 3ad5 453d b3cf 9ebd 8300 0cbd
00000320: 6727 213d 0afc a2bd 7005 0e3b d889 9ebd
00000330: 8d37 9ebd f631 fcbd fe18 e0bc 2ea2 06bd
00000340: 46c6 36bd e5f2 a4bb 7c14 9cb9 2bb8 81bd
00000350: 7ef4 123d 5416 0f3d f16b 35bc d2e7 0cbd
00000360: a91b f43b 3498 da3c b527 c2bc e5f2 d9bd
00000370: 41f0 ee3b f7b3 1bbd 8840 3e3d 22f7 ac3c
00000380: 127a 803c 076a d4bd a5ae bbbd 8000 02be
00000390: 2ea4 efbd 0d83 13bd f6dc 2b3d 69bb 55bc
000003a0: 32fd c5bd 9ef3 093c 6d58 cabd bffe 143d
000003b0: 430d 503d 00ba dabc e0ed cf3b b870 e5bc
000003c0: 06bc 1dbd 0a4d 323d 393c 853c 7ae6 f63c
000003d0: f4ed 1ebc 8ec4 99bd 4201 d33c 50cd 06be
000003e0: a68f 4b3d c7a7 9fbc 94a0 dcbd 08b4 ccbd
000003f0: 0b5b 42bd 7751 483d 9d26 993c fe96 73bd

_policy.2.bias f4 [128]
-0.15646207 -0.16791528 -0.05446435 0.04686605 -0.0447453 0.11388765 0.056672163 0.06448349
-0.05849409 0.112302035 -0.062937334 0.07482486 0.03677197 0.070913754 0.07630261 0.0657108
0.048620194 0.14672406 0.16452073 0.006654817 -0.033976912 -0.07396493 0.00808556 0.05804679
-0.07819974 -0.015432934 0.088545024 -0.12791471 -0.16488579 0.11935386 -0.11755335 -0.05686914
-0.076424666 0.0011406975 -0.044651803 -0.057073835 -0.055497736 -0.04128181 0.007355267 -0.16492815
0.11170578 -0.1773876 0.036818467 -0.054957286 -0.06357398 0.08094019 -0.009996957 -0.107248
0.042745918 -0.110869974 -0.055860005 0.09775579 0.055669386 -0.11135828 0.02734985 -0.00082280714
-0.018932434 -0.14277834 0.007472007 -0.163109 -0.01943185 0.07498156 -0.1199951 -0.0001757095
-0.08341561 -0.09632807 0.09343209 0.0071633738 -0.11008418 -0.15232176 -0.104247384 -0.17028713
-0.092056714 -0.15233037 0.04867204 -0.063301556 0.11711681 -0.11396157 0.016589986 -0.011214045
-0.028654302 -0.025094964 0.043516316 0.037846785 -0.027153444 0.11235337 -0.027145369 -0.103148095
-0.06812018 0.069134526 -0.17188951 0.03653722 -0.040653255 0.048508525 -0.23211569 -0.1319618
0.011059883 0.022046598 0.008198046 -0.087352805 -0.13573943 -0.06337681 0.0073435726 0.10721373
-0.03683309 0.069331825 -0.17833856 -0.020209068 -0.17621277 -0.110168464 -0.07078968 0.034052756
0.06448541 0.1306059 -0.11865969 0.074192725 -0.08623135 0.021411924 -0.12220746 0.07411677
-0.07906432 -0.120575756 -0.014085564 -0.09874942 -0.13242422 -0.01441038 -0.071064934 0.08720879
00000000: 9837 20be fcf1 2bbe 0316 5fbd 9ef6 3f3d
00000010: d946 37bd ee3d e93d 1221 683d ec0f 843d
00000020: 8097 6fbd 9cfe e53d 4ae5 80bd c73d 993d
00000030: 359e 163d 3b3b 913d 8b44 9c3d 6293 863d
00000040: f825 473d d53e 163e 1f78 283e a710 da3b
00000050: 602b 0bbd ed7a 97bd 4c79 043c 79c2 6d3d
00000060: 2f27 a0bd 6bda 7cbc 1857 b53d 13fc 02be
00000070: d2d7 28be cc6f f43d d0bf f0bd 9eef 68bd
00000080: 8984 9cbd 7583 953a cfe4 36bd 41c6 69bd
00000090: 9851 63bd 1d17 29bd 7404 f13b ede2 28be
000000a0: 00c6 e43d 18a5 35be f6ce 163d e41a 61bd
000000b0: 1333 82bd f8c3 a53d 47ca 23bc d7a4 dbbd
000000c0: 5816 2f3d cc0f e3bd 76cd 64bd 3034 c83d
000000d0: 9505 643d cf0f e4bd cb0c e03c a7b1 57ba
000000e0: 3118 9bbc 7c34 12be bdd7 f43b 0c06 27be
000000f0: 8b2f 9fbc ef8f 993d febf f5bd a93e 38b9
00000100: ced5 aabd a747 c5bd 5359 bf3d bcba ea3b
00000110: d173 e1bd 3cfa 1bbe a77f d5bd c05f 2ebe
00000120: 3b88 bcbd 7efc 1bbe 555c 473d 3fa4 81bd
00000130: f0da ef3d af64 e9bd b9e7 873c 1dbb 37bc
00000140: 6dbc eabc f493 cdbc 2a3e 323d 3b05 1b3d
00000150: e670 debc 8619 e63d f75f debc 4f3f d3bd
00000160: 9882 8bbd 6796 8d3d ce03 30be 0da8 153d
00000170: 0784 26bd e0b0 463d bcaf 6dbe fe20 07be
00000180: 8334 353c 119b b43c 1951 063c 07e6 b2bd
00000190: 47ff 0abe b3cb 81bd 5aa2 f03b df92 db3d
000001a0: 4bde 16bd d8fd 8d3d 629e 36be 7d8d a5bc
000001b0: 1f71 34be 01a0 e1bd 2efa 90bd e77a 0b3d
000001c0: ed10 843d 8ebd 053e da03 f3bd 5bf2 973d
000001d0: 109a b0bd 0f68 af3c e847 fabd 88ca 973d
000001e0: 79ec a1bd 6cf0 f6bd 23c7 66bc 233d cabd
000001f0: 379a 07be 8419 6cbc 7e8a 91bd 869a b23d

_policy.4.weight f4 [128, 128]
0.080622725 -0.048411682 -0.06969013 -0.041711003 0.06830473 0.015336711 0.15496795 0.28613263
-0.029184043 0.18551336 -0.09031065 -0.060019296 -0.1565588 0.12073158 -0.13928035 0.1075458
-0.22586301 0.12670237 -0.2734397 -0.097548924 -0.1246878 -0.30568668 -0.041646264 0.09562462
0.0081181675 -0.104443096 -0.03557157 0.0123081105 0.058216315 -0.20338947 0.13416176 -0.54324055
-0.30125776 -0.032250956 0.14849195 -0.19052246 0.011901032 -0.05130498 -0.10149939 0.040847424
-0.36388275 -0.11240293 0.064142615 -0.21929651 -0.115065075 0.077081874 0.006607819 -0.10184916
0.1581281 0.0466005 -0.17156611 -0.022087375 0.15861107 -0.09821641 -0.3353251 0.0392609
0.11480988 -0.034140863 0.19008075 0.13655157 -0.010066377 -0.091804616 -0.30808845 0.033653457
0.015324806 -0.40639758 -0.27414194 -0.32356563 -0.020765953 -0.23548017 0.018855311 -0.2724264
-0.014095947 -0.07527728 -0.20704289 0.16342767 0.35166076 0.16669022 -0.15168135 -0.5023646
-0.6884398 -0.00022504664 -0.24407218 0.1685318 -0.012143317 -0.06228005 -0.24614881 -0.5072908
0.035702266 -0.11271089 0.34154338 -0.12975839 0.21463487 -0.145563 -0.36445087 0.045693617
0.3589237 -0.14548363 -0.1776876 -0.035751697 -0.5009483 0.257583 0.21603142 -0.07531978
-0.048116058 0.35477114 -0.17982581 0.0485926 0.10207341 0.2859648 0.043954194 0.08085819
-0.24892904 -0.27044716 0.29396597 -0.05139131 -0.2975419 -0.18975453 0.20017062 0.010644543
0.0663552 -0.22947837 -0.13718022 -0.622126 -0.026807543 0.405447 -0.12276702 0.13393682
-0.15155202 0.057888754 -0.17425032 0.048564732 0.0576749 0.2520709 0.051678237 -0.36617312
0.020481285 0.008461266 0.08720143 -0.017087735 -0.16394877 0.3363388 0.119988054 -0.19788401
-0.10451365 0.18312663 0.26401138 -0.009840683 -0.5910825 0.1283117 0.025173204 -0.39040616
-0.23461168 0.4099244 0.15974882 0.056412727 -0.011369348 0.0567107 0.18440981 0.10499584
-0.0026371814 -0.032157075 -0.207729 -0.10998961 -0.03356825 -0.26219785 0.03174119 -0.020539472
-0.06392174 -0.29330894 -0.37943885 0.16822995 0.01835426 -0.11256013 -1.0139438 0.28434744
0.18346229 -0.056829978 -0.04887358 -0.21812676 -0.2863228 0.16314815 -0.23131128 0.43308753
-0.26209575 -0.044029694 -0.05314572 -0.055414964 0.17370863 -0.24327369 -0.41556525 -0.053258955
-0.086523645 0.0053061205 -0.23630585 0.05280522 0.15874997 0.032398235 0.03576395 -0.46086887
-0.073651396 0.030758418 -0.26379204 -0.33045515 0.20427613 -0.15180251 -0.23764578 -0.25988418
0.15292159 0.29569128 -0.5349124 0.06942248 -0.11484297 -0.15559399 0.26391497 -0.2394646
-0.9097744 0.049005292 0.15012655 -0.06831383 0.084429026 -0.48925012 -0.3711105 -0.08624096
0.50623846 -0.6182281 0.40423298 -0.044970136 -0.62139016 -0.18407315 0.085483044 -0.011003305
-0.005891544 -0.02890112 -0.663843 0.08180557 -0.016109718 0.15649292 -0.05173983 -0.22688834
0.08543572 -0.09691797 -0.056573965 -0.06943995 -0.30252635 0.037794065 -0.08648326 -0.0037005201
-0.2915303 -0.04657345 -0.040938586 -0.026046054 -0.025772028 0.092694394 0.0094076935 0.26764852
00000000: 871d a53d 544b 46bd b3b9 8ebd 28d9 2abd
00000010: 5ae3 8b3d d446 7b3c ebaf 1e3e fa7f 923e
00000020: 6013 efbc 37f7 3d3e caf4 b8bd cbd6 75bd
00000030: f350 20be 1e42 f73d 829f 0ebe f940 dc3d
00000040: a248 67be 44be 013e 4a00 8cbe bbc7 c7bd
00000050: 515c ffbd f782 9cbe 4695 2abd d7d6 c33d
00000060: 1002 053c 43e6 d5bd 7fb3 11bd f5a7 493c
00000070: 3b74 6e3d 5445 50be b361 093e d011 0bbf
00000080: 753e 9abe 9419 04bd 460e 183e 5218 43be
00000090: 8cfc 423c 2c25 52bd eade cfbd a14f 273d
000000a0: d74e babe 8233 e6bd 345d 833d 448f 60be
000000b0: 3da7 ebbd 1add 9d3d 6786 d83b 4b96 d0bd
000000c0: 55ec 213e 2ae0 3e3d 07af 2fbe 95f0 b4bc
000000d0: f16a 223e af25 c9bd bbaf abbe 0ad0 203d
000000e0: 7121 eb3d 4ad7 0bbd 87a4 423e 2dd4 0b3e
000000f0: 72ed 24bc 0f04 bcbd c5bd 9dbe 35d8 093d
00000100: e514 7b3c 5813 d0be 555c 8cbe 65aa a5be
00000110: 5c1d aabc b721 71be 7476 9a3c 797b 8bbe
00000120: b0f2 66bc f92a 9abd 0d03 54be 9559 273e
00000130: e10c b43e d7b0 2a3e 5b52 1bbe f79a 00bf
00000140: 973d 30bf 7ffa 6bb9 0fee 79be 9a93 2c3e
00000150: c3f4 46bc 5e19 7fbd 6f0e 7cbe cfdd 01bf
00000160: 8a3c 123d f8d4 e6bd c6de ae3e 62df 04be
00000170: 3ec9 5b3e 780e 15be 4e99 babe 3b29 3b3d
00000180: d9c4 b73e a9f9 14be bdf3 35be 5f70 12bd
00000190: 263e 00bf ebe1 833e 5737 5d3e 4241 9abd
000001a0: 5815 45bd 90a4 b53e 4224 38be 0909 473d
000001b0: dd0b d13d fa69 923e 5009 343d fb98 a53d
000001c0: 41e7 7ebe 0d78 8abe b582 963e b27f 52bd
000001d0: 6957 98be 034f 42be 87f9 4c3e 7366 2e3c
000001e0: 3ce5 873d 61fc 6abe f978 0cbe a643 1fbf
000001f0: 7e9b dbbc c096 cf3e 466d fbbd bc26 093e
00000200: 7430 1bbe c21c 6d3d ad6e 32be d0eb 463d
00000210: 843c 6c3d 700f 813e 8fac 533d 0b7b bbbe
00000220: 5ec8 a73c 1fa1 0a3c aa96 b23d 94fb 8bbc
00000230: 30e2 27be 9934 ac3e 4cbc f53d 1ba2 4abe
00000240: 410b d6bd 8c85 3b3e 802c 873e d13a 21bc
00000250: 2f51 17bf 2464 033e 0938 ce3c 51e3 c7be
00000260: 0b3e 70be 9ce1 d13e 3295 233e 0811 673d
00000270: 8046 3abc 7b49 683d edd5 3c3e 0f08 d73d
00000280: 90d4 2cbb 23b7 03bd e9b6 54be 3c42 e1bd
00000290: dc7e 09bd cc3e 86be 0d03 023d 6542 a8bc
000002a0: 67e9 82bd 972c 96be cf45 c2be 7944 2c3e
000002b0: ac5b 963c ed85 e6bd e9c8 81bf fd95 913e
000002c0: 8add 3b3e 8dc6 68bd aa2f 48bd 9f5c 5fbe
000002d0: e798 92be 4f10 273e dddc 6cbe a6bd dd3e
000002e0: 6a31 86be 7b58 34bd 54af 59bd cdfa 62bd
000002f0: ade0 313e bd1c 79be f8c4 d4be 1026 5abd
00000300: 4f33 b1bd f7de ad3b 29fa 71be 494a 583d
00000310: 5a8f 223e 03b4 043d 387d 123d 01f7 ebbe
00000320: 8bd6 96bd 14f9 fb3c c00f 87be 6b31 a9be
00000330: c32d 513e 1e72 1bbe 6a59 73be 8a0f 85be
00000340: 7a97 1c3e d964 973e 05f0 08bf 602d 8e3d
00000350: cb32 ebbd 0854 1fbe dd1f 873e 3536 75be
00000360: fae6 68bf c6b9 483d c6ba 193e 1fe8 8bbd
00000370: 20e9 ac3d fe7e fabe 3202 bebe 1a9f b0bd
00000380: d898 013f 3244 1ebf a0f7 ce3e 9b32 38bd
00000390: 6d13 1fbf ac7d 3cbe bc11 af3d 3547 34bc
000003a0: da0d c1bb 0bc2 ecbc 9df1 29bf ae89 a73d
000003b0: 87f8 83bc ae3f 203e 25ed 53bd 6b55 68be
000003c0: ecf8 ae3d ee7c c6bd 1aba 67bd 8836 8ebd
000003d0: bce4 9abe f3cd 1a3d 231e b1bd 6d84 72bb
000003e0: 7643 95be cdc3 3ebd 38af 27bd 895e d5bc
000003f0: dc1f d3bc 8fd6 bd3d ba22 1a3c 3a09 893e

_policy.4.bias f4 [128]
-0.01768462 0.00701888 0.10199814 -0.13469213 -0.058130797 -0.1816297 -0.14020933 -0.17159067
-0.17226858 -0.09998508 0.03471117 0.17363614 -0.13358216 -0.09191741 0.07103659 0.12314562
-0.26720196 0.02849659 -0.4687955 -0.2315884 -0.011456987 0.10176054 -0.10246174 -0.13286455
-0.032443803 -0.11838217 -0.23841901 -0.09858928 0.018684743 -0.027255226 -0.25998667 0.091197796
0.0063654217 0.16293253 -0.45518297 -0.2750126 0.019477986 -0.38877994 -0.032046642 -0.15302505
0.009921899 -0.0025359716 -0.100273974 -0.19211908 0.03479598 -0.1979817 -0.13662112 -0.0713196
0.08758898 0.14363846 -0.13123798 -0.055173505 0.1372395 -0.24855185 0.091090426 -0.046673685
-0.17690332 -0.14981936 -0.14533572 0.05328294 -0.13588373 -0.13955423 -0.17235914 -0.0053615556
0.04873653 -0.04710846 -0.038005214 -0.09939593 -0.17816173 -0.15866818 -0.087210245 -0.059323285
-0.25077513 -0.112567306 -0.059564408 -0.17019896 0.023964517 0.020883756 0.042962782 0.08438268
-0.15876201 -0.09463078 -0.063340746 -0.14546017 -0.22269112 0.26525152 0.07481726 -0.08386432
-0.2505626 -0.08923931 0.21270648 -0.13055673 -0.011596023 -0.11178012 -0.17655918 -0.012378591
-0.3501547 -0.03884149 -0.055624317 0.064776264 0.04967516 -0.17341584 -0.22759591 0.10251811
-0.16255471 0.15558034 0.14592072 0.010224154 -0.12542994 -0.033682544 -0.15421161 0.009909639
-0.27154872 -0.011664309 -0.077003084 -0.023034066 0.09576329 -0.28503186 -0.0745714 -0.299159
-0.1052931 -0.16538756 -0.10553201 -0.027106617 -0.099470235 -0.20470859 0.048774112 0.04495372
00000000: 56df 90bc a2fe e53b 67e4 d03d bcec 09be
00000010: 8f1a 6ebd 23fd 39be 0993 0fbe 77b5 2fbe
00000020: 2d67 30be fac4 ccbd 4d2d 0e3d accd 313e
00000030: c3c9 08be 323f bcbd a27b 913d c533 fc3d
00000040: b2ce 88be ae71 e93c f705 f0be 8225 6dbe
00000050: 16b6 3bbc d467 d03d 76d7 d1bd a50d 08be
00000060: cbe3 04bd 5a72 f2bd 1d24 74be 2de9 c9bd
00000070: bf10 993c 5a46 dfbc f91c 85be e9c5 ba3d
00000080: 0795 d03b c9d7 263e be0d e9be 74ce 8cbe
00000090: 4c90 9f3c 2a0e c7be 5743 03bd 99b2 1cbe
000000a0: 768f 223c 8b32 26bb 715c cdbd ddba 44be
000000b0: 3b86 0e3d b7bb 4abe 68e6 0bbe 0310 92bd
000000c0: da61 b33d f615 133e 4063 06be 9dfd 61bd
000000d0: 8388 0c3e 6084 7ebe 9e8d ba3d e82c 3fbd
000000e0: 2526 35be 3f6a 19be e3d2 14be 363f 5a3d
000000f0: 1b25 0bbe 4ee7 0ebe ea7e 30be fdaf afbb
00000100: f59f 473d cdf4 40bd 5bab 1bbd 1890 cbbd
00000110: 0770 36be e979 22be 499b b2bd f9fc 72bd
00000120: 9965 80be b089 e6bd cff9 73bd a348 2ebe
00000130: 3c51 c43c 6914 ab3c bef9 2f3d d4d0 ac3d
00000140: 8292 22be c8cd c1bd cbb8 81bd 83f3 14be
00000150: 2409 64be 0ccf 873e cb39 993d 0ec1 abbd
00000160: be49 80be 19c3 b6bd bacf 593e aab0 05be
00000170: 3ffd 3dbc faec e4bd eecb 34be 93cf 4abc
00000180: 7a47 b3be 4118 1fbd 53d6 63bd 6ba9 843d
00000190: 2e78 4b3d ec93 31be e70e 69be 04f5 d13d
000001a0: be74 26be 7450 1f3e 3e6c 153e 3683 273c
000001b0: b570 00be b5f6 09bd a6e9 1dbe 0a5c 223c
000001c0: 6f08 8bbe a81b 3fbc cbb3 9dbd f0b1 bcbc
000001d0: 8b1f c43d b2ef 91be e4b8 98bd 5e2b 99be
000001e0: e9a3 d7bd 5b5b 29be 2b21 d8bd b20e debc
000001f0: 0db7 cbbd 219f 51be 5dc7 473d 6421 383d

_policy.6.weight f4 [128, 128]
-0.3030229 5.8296766e-05 -0.06578021 -0.010424233 0.0390893 -0.8076917 0.046129562 0.3547876
-0.41439232 -0.11364499 0.23133305 -0.1562562 -0.017835177 0.31359455 -0.3657202 -0.10694994
-0.15083526 -0.12718013 0.22822644 -0.26472208 0.24084376 -0.019048465 -0.05505105 0.008298273
-0.27167717 -0.13466176 -0.49578497 0.03124496 -0.26734164 0.017064942 0.24182928 0.27805898
0.07170349 0.14508861 0.29799512 0.18369105 0.12076544 -0.09994004 0.2573655 -0.19498341
-0.5796638 -0.05343548 0.10432614 0.22219703 -0.17973849 -0.44228733 -0.21273239 -0.1449612
-0.06897083 0.02832518 0.05081761 -0.06298259 0.15023346 -0.056635004 -0.23451723 -0.5913899
-0.12282872 -0.13261798 -0.07503166 -0.21437444 0.17777254 -0.2520472 0.0036092957 -0.14323756
-0.84261805 0.2053739 -0.046034466 -0.44008467 0.15222396 0.080228634 0.23913418 0.043996964
0.2537146 -0.010625011 -0.25971633 0.20240234 0.35435644 -0.11305968 0.40751028 0.06802148
-0.11721077 -0.06908897 -0.15836309 -0.34725872 -0.037346456 -0.09303732 -0.13439046 -0.03592202
-0.0728841 -0.17928153 0.34141356 -0.15890272 0.21054628 -0.030741222 -0.32386565 -0.57923657
-0.054406736 -0.057480793 -0.03559166 -0.75383025 -0.0064026588 0.010108535 -0.44209328 0.3705639
-0.035238747 -0.079944804 0.1375522 0.24825507 -0.28919664 -0.26444203 -0.011126486 -0.11485653
0.095223635 -0.079784915 -0.08661844 0.279688 0.15328768 0.108900174 0.07904745 0.013795157
0.34368566 -0.039520394 0.2635508 -0.4042099 -0.35240954 0.08238758 -0.1645449 -0.06837667
-0.041538823 0.19049357 -0.31360355 0.13157766 -0.42494622 0.00037808935 -0.5235269 0.016780019
0.005616417 -0.02904384 -0.07307874 -0.105232626 -0.27832618 -0.1330707 -0.30277056 -0.52599114
0.05815888 -0.12574036 -0.7415118 0.011841974 0.03235695 -0.21573512 -0.11486878 0.14309159
-0.16695747 -0.2051659 0.10173091 0.076697044 -0.3095191 -0.3602696 -0.09841645 0.07140626
-0.5704861 0.062362228 0.30677357 0.23573498 -0.011759351 -0.0015370229 -0.012726161 0.049090948
0.037800886 -0.16236424 -1.0355986 -0.09661539 0.36738083 -0.32950857 -0.5772559 -0.12915403
-0.42404106 -0.05678178 -0.71993464 -0.22390817 0.14148197 -0.47139043 -0.0464901 0.18035772
0.015330033 0.2972546 -0.1704508 -0.0008476688 -0.20339786 0.0481351 -0.038929164 -0.036544677
0.04546071 0.39254135 -0.36372373 0.0018544401 -0.6332585 -0.5994993 -0.3259354 0.24886702
-0.5147513 -0.034010112 0.029225556 -0.028905919 0.05355103 -0.9362255 -0.3746237 0.14824302
-0.14656913 0.22372603 -0.39479226 -0.34466276 0.14770027 0.0048168395 0.21715036 -0.4586059
0.20539913 -0.44331637 -0.2371346 0.06662472 0.18353613 0.006226915 -0.048336186 0.08056024
0.074054755 -0.05327693 -0.041736666 0.0963207 -0.68869734 0.009371506 -0.35790566 0.07715522
0.27474076 -0.3278671 0.20758918 0.036590595 -0.13742858 -0.7139364 0.45343828 -0.2020282
-0.21314639 -0.035592794 -0.3125748 -0.24924806 -0.40039837 -0.018294869 -0.12505153 -0.39912316
-0.09437999 -0.99246204 -0.0955861 0.084787376 -0.50190073 -0.34664536 -0.047273856 -1.0731808
00000000: d125 9bbe ad83 7438 c6b7 86bd 67ca 2abc
00000010: 1a1c 203d e2c4 4ebf 5af2 3c3d b8a6 b53e
00000020: 3b2b d4be b4be e8bd 92e2 6c3e a001 20be
00000030: 141b 92bc 778f a03e ae3f bbbe 9208 dbbd
00000040: 8f74 1abe 823b 02be 31b4 693e a789 87be
00000050: bf9f 763e 870b 9cbc 367d 61bd 7bf5 073c
00000060: 4519 8bbe c6e4 09be 87d7 fdbe 6ef5 ff3c
00000070: 01e1 88be c7cb 8b3c 18a2 773e bf5d 8e3e
00000080: 48d9 923d 1c92 143e d192 983e 8219 3c3e
00000090: df53 f73d 5dad ccbd 69c5 833e bba9 47be
000000a0: d964 14bf 29df 5abd f1a8 d53d 9e87 633e
000000b0: 5e0d 38be 7c73 e2be 85d6 59be b570 14be
000000c0: 9440 8dbd 350a e83c 2026 503d 04fd 80bd
000000d0: cdd6 193e 1bfa 67bd 4925 70be 5465 17bf
000000e0: a08d fbbd 02cd 07be 33aa 99bd f984 5bbe
000000f0: 010a 363e 550c 81be ef89 6c3b deac 12be
00000100: d1b5 57bf 894d 523e a38e 3cbd c752 e1be
00000110: 99e0 1b3e e94e a43d 97df 743e 2936 343d
00000120: e1e6 813e 8714 2ebc 8af9 84be 8f42 4f3e
00000130: 356e b53e d58b e7bd 30a5 d03e d94e 8b3d
00000140: 330c f0bd 857e 8dbd ef29 22be e5cb b1be
00000150: 99f8 18bd 5a8a bebd a79d 09be f822 13bd
00000160: 4244 95bd 9495 37be c2cd ae3e 65b7 22be
00000170: 7299 573e 04d5 fbbc b8d1 a5be d948 14bf
00000180: 99d9 5ebd fb70 6bbd 8fc8 11bd 05fb 40bf
00000190: 65cd d1bb 459e 253c 0d5a e2be 8dba bd3e
000001a0: 8156 10bd 1aba a3bd 7cda 0c3e 9436 7e3e
000001b0: 9511 94be f264 87be dd4b 36bc e739 ebbd
000001c0: 9c04 c33d 4666 a3bd 0265 b1bd 4433 8f3e
000001d0: 72f7 1c3e 0e07 df3d a1e3 a13d 1505 623c
000001e0: 91f7 af3e 23e0 21bd 21f0 863e 9af4 cebe
000001f0: 066f b4be d2ba a83d 757e 28be 1109 8cbd
00000200: 9d24 2abd bf10 433e a590 a0be 4bbc 063e
00000210: 8d92 d9be 4b3a c639 dc05 06bf 4076 893c
00000220: ec09 b83b 59ed edbc 4eaa 95bd 3484 d7bd
00000230: c580 8ebe b043 08be be04 9bbe 5ba7 06bf
00000240: 0138 6e3d 15c2 00be b8d3 3dbf d704 423c
00000250: b988 043d abe9 5cbe 5340 ebbd 9a86 123e
00000260: e6f6 2abe 0217 52be 4c58 d03d 5713 9d3d
00000270: 4a79 9ebe 4275 b8be 908e c9bd 723d 923d
00000280: 610b 12bf 896f 7f3d 6d11 9d3e 8364 713e
00000290: 4baa 40bc ee75 c9ba 6381 50bc 9713 493d
000002a0: 1ad5 1a3d d042 26be 7f8e 84bf 4ade c5bd
000002b0: 5719 bc3e 59b5 a8be 0bc7 13bf f440 04be
000002c0: e91b d9be 0394 68bd a34d 38bf 2f48 65be
000002d0: a6e0 103e 165a f1be 676c 3ebd b2af 383e
000002e0: d22a 7b3c c131 983e a88a 2ebe 1736 5eba
000002f0: 8747 50be 5029 453d 3074 1fbd dfaf 15bd
00000300: 0235 3a3d 2efb c83e ff39 babe af10 f33a
00000310: 3b1d 22bf c978 19bf 01e1 a6be ffd6 7e3e
00000320: bec6 03bf 304e 0bbd 6f6a ef3c 1bcc ecbc
00000330: 5358 5b3d 79ac 6fbf adce bfbe 05cd 173e
00000340: 3816 16be 7018 653e 3622 cabe a377 b0be
00000350: bd3e 173e 94d6 9d3b aa5c 5e3e 64ce eabe
00000360: 2654 523e 5dfa e2be 6ad3 72be 8b72 883d
00000370: e5f0 3b3e 260b cc3b 2afc 45bd c4fc a43d
00000380: 05aa 973d e938 5abd 11f4 2abd ca43 c53d
00000390: 784e 30bf f28a 193c 693f b7be 8e03 9e3d
000003a0: d2aa 8c3e 32de a7be 4292 543e 05e0 153d
000003b0: 14ba 0cbe 89c4 36bf 1029 e83e 7be0 4ebe
000003c0: 0c43 5abe c0c9 11bd ce09 a0be e23a 7fbe
000003d0: 0401 cdbe 1fdf 95bc 820d 00be df59 ccbe
000003e0: 4c4a c1bd fe11 7ebf a5c2 c3bd 01a5 ad3d
000003f0: 917c 00bf 807b b1be 3ba2 41bd fd5d 89bf

_policy.6.bias f4 [128]
-0.124631494 -0.5443572 0.21534888 0.21918932 0.21605584 0.1431465 -0.01878168 0.12366623
0.14610313 0.0041970024 0.03701576 0.046494793 -0.031095816 -0.12609845 0.3197719 0.16539298
0.035325233 0.059280436 -0.046387635 -0.08865195 0.22116007 0.21494067 0.20513177 0.067643985
0.1884981 0.12079427 0.036746502 0.16592026 -0.076352246 0.11862002 0.06220583 -0.17597185
0.17244162 -0.02042411 0.2451642 0.118393146 -0.04054728 0.17252454 0.062098663 0.038697973
-0.12247893 -0.10014113 0.28261584 0.014050913 0.1154947 -0.19086732 0.2545405 0.1460797
0.081240065 -0.03982713 0.07399092 0.0726743 0.029708628 0.05627892 0.018571889 0.12698261
0.023085993 0.40701982 0.04636607 0.10797796 -0.05571662 0.07656083 0.07853843 0.24126521
-0.057839844 0.14182664 0.19391496 0.18806225 -0.02578397 0.19593154 -0.20265952 0.08313072
0.06672122 0.16748188 -0.10499812 0.06012374 0.31335285 -0.30981466 0.13332082 0.028707242
0.14750598 -0.029869521 -0.17754307 -0.14488983 0.29673415 0.08022615 -0.27164164 0.04709808
0.19486494 0.115699895 -0.052771658 0.24891809 0.23533362 0.1384602 0.011756414 -0.068167575
-0.119548045 0.15278253 0.10486135 -0.10835301 0.023018286 -0.084410384 -0.038421318 0.10411989
-0.047214326 0.16420768 0.079882264 0.108821794 -0.5148353 0.32716635 0.0893506 -0.058703765
0.083371185 -0.17679787 0.019913154 0.051388618 0.078694426 0.1940394 -0.22096777 0.10724854
0.14940843 0.32363936 0.22840676 -0.1139078 0.2986276 -0.10448334 -0.114025734 0.00026695358
00000000: cc3e ffbd fe5a 0bbf 6b84 5c3e 2a73 603e
00000010: be3d 5d3e ff94 123e 0adc 99bc b844 fd3d
00000020: 0f9c 153e 0287 893b d69d 173d 5371 3e3d
00000030: a7bc febc f41f 01be 24b9 a33e c75c 293e
00000040: 31b1 103d 0bd0 723d f600 3ebd 278f b5bd
00000050: c977 623e 6819 5c3e 100e 523e ee88 8a3d
00000060: a505 413e fc62 f73d 8083 163d 00e7 293e
00000070: 915e 9cbd 0eef f23d 8acb 7e3d f731 34be
00000080: 8994 303e 7750 a7bc 530c 7b3e 1b78 f23d
00000090: e814 26bd 46aa 303e 2b5b 7e3d c481 1e3d
000000a0: 3cd6 fabd cb16 cdbd 06b3 903e cd35 663c
000000b0: 7c88 ec3d b972 43be 2253 823e eb95 153e
000000c0: 3161 a63d c621 23bd 8d88 973d 43d6 943d
000000d0: 825f f33c ba84 663d 1324 983c bb07 023e
000000e0: d61e bd3c e764 d03e 59ea 3d3d 8c23 dd3d
000000f0: 1c37 64bd edcb 9c3d c2d8 a03d 3a0e 773e
00000100: 79e9 6cbd 013b 113e a591 463e 6493 403e
00000110: e738 d3bc 47a2 483e fa85 4fbe 7040 aa3d
00000120: 23a5 883d 5f80 2b3e 4109 d7bd 5044 763d
00000130: c96f a03e 07a0 9ebe 4185 083e 732b eb3c
00000140: cf0b 173e edb0 f4bc dacd 35be 005e 14be
00000150: 8aed 973e 9c4d a43d 9d14 8bbe ebe9 403d
00000160: ad8a 473e 11f4 ec3d 1827 58bd 62e4 7e3e
00000170: 4cfb 703e 83c8 0d3e f99d 403c 719b 8bbd
00000180: 9bd5 f4bd 0673 1c3e 8cc1 d63d 2fe8 ddbd
00000190: d890 bc3c 5adf acbd ac5f 1dbd cf3c d53d
000001a0: cf63 41bd 0f26 283e 5099 a33d f6dd de3d
000001b0: 3fcc 03bf 5982 a73e 73fd b63d 5c73 70bd
000001c0: 83be aa3d 800a 35be e920 a33c df7c 523d
000001d0: 8b2a a13d 44b2 463e 6045 62be 1fa5 db3d
000001e0: 86fe 183e 0fb4 a53e 76e3 693e 7e48 e9bd
000001f0: b7e5 983e 5dfb d5bd 5386 e9bd e7f5 8b39

_policy.8.weight f4 [3, 128]
-0.023667669 0.1115811 -0.1373422 -0.4882747 -0.43880963 -0.22511639 -0.6350645 -0.25676543
0.6532512 -0.2364327 0.42931524 0.59756714 -0.059847195 -0.013081856 -0.7702982 -0.06916259
0.27618653 0.2656287 -0.38877878 -0.061204426 -0.21462996 -0.14820342 0.065019205 0.21490698
-0.031695377 -0.33647582 0.2528265 -0.18971063 -0.6513395 0.3791605 -0.09015008 0.035109136
-0.20763628 -0.008526051 -0.145098 0.40068674 -0.49463537 0.45734742 -0.12364386 -0.20338006
0.5197647 0.00051473756 -0.022808652 0.55349624 0.3294222 -0.43976775 0.82096165 0.17902906
-0.16674072 -0.09400425 0.23241614 -0.26537788 -0.29129398 0.16450587 -0.108223654 -0.2131977
0.01033958 -0.38670117 0.15626878 0.28861952 0.018784573 -0.13649823 -0.5701526 -0.052957833
0.2848978 0.25963444 0.6664383 -0.14000489 0.46437496 -0.18186408 0.52244323 0.1280696
-0.3038405 0.31239465 0.7332713 -0.08543843 -0.19020452 0.9348202 -0.090085045 0.46243474
-0.13875926 -0.18390436 -0.87519914 -0.053987894 -0.30992016 0.34192106 -0.95710886 -0.11205183
-0.37277398 0.18040624 -0.2626952 -0.18356436 -0.18913582 -0.1255188 0.5111667 0.5053633
0.014943634 -0.097716324 0.090235725 -0.5903545 0.008161911 -0.14993288 -0.18587396 -0.34600326
-0.056429844 0.24938545 -0.39370444 0.73894227 0.25388134 0.36640543 -0.29549724 0.09308514
-0.27242744 -0.12340863 0.28179657 0.18413243 -0.3351223 -0.4505031 0.94455546 -0.087667
0.2894887 -0.22518036 -0.20466372 0.507441 0.4644527 0.11414296 0.26635966 -0.14177388
0.2746976 0.59185046 -0.11495202 0.5010973 0.51903874 -0.10357282 0.43582496 0.508754
-0.34247288 0.47968492 -0.07144957 -0.12149409 -0.17413817 0.17161597 0.8660893 -0.20727621
-0.3170581 -0.17264822 0.2742053 0.38932586 0.39185822 0.2966762 -0.38017458 -0.14620376
-0.24101597 0.3083366 -0.2872959 -0.25579992 0.36440852 -0.31205574 0.27194923 0.041411135
0.30990943 -0.23282363 -0.62553203 -0.07353418 -0.038202643 -0.44411668 0.39936903 -0.050182648
-0.033989117 0.30153173 0.45777047 -0.89415824 -0.33380368 0.5310394 -0.63276356 -0.18113768
-0.124427 0.40936413 -0.00262162 0.25181434 0.30726802 -0.004883699 0.4260569 -0.114821
0.19214778 0.3966874 0.13810553 -0.036782574 0.5223483 -0.09758262 0.6800503 0.22289662
-0.5496632 -0.051676154 -0.123050645 0.3287957 -0.04051044 -0.49693727 0.1444748 0.41691098
-0.0104724355 -0.43199524 -0.03530212 -0.25988895 0.31488642 -0.90131027 -0.27672783 -0.54734033
-0.20428467 -0.103948206 0.6473224 0.24759936 0.33781964 0.057698127 0.2690971 -0.1028781
0.48251465 -0.22280344 0.12436387 -0.28878656 -0.2832199 -0.2811037 -0.55548495 -0.17195296
-0.6112547 0.36921778 -0.061157323 0.20066567 -0.76204544 -0.21417452 0.014759939 -0.016378876
-0.14688884 -0.06868049 -0.15482543 -0.7450221 0.5463099 -0.3544496 0.09695198 -0.19313642
0.2652345 0.5705937 0.078652866 0.1542256 -0.03265221 0.087740436 -1.3614163 -0.34945557
-0.2581817 0.20368879 0.47915557 -0.49133673 -0.33417934 0.03921417 0.2200839 -0.25144023
00000000: b3e2 c1bc a284 e43d 6fa3 0cbe 24ff f9be
00000010: a8ab e0be e984 66be 9693 22bf c276 83be
00000020: 783b 273f 6a1b 72be 35cf db3e 29fa 183f
00000030: 5522 75bd 4855 56bc 4332 45bf 1ea5 8dbd
00000040: 5268 8d3e 7c00 883e 030e c7be 7eb1 7abd
00000050: f5c7 5bbe a3c2 17be ca28 853d 9310 5c3e
00000060: 03d3 01bd 8f46 acbe 7a72 813e 8143 42be
00000070: 2fbe 26bf 5321 c23e 9ba0 b8bd 99ce 0f3d
00000080: 9b9e 54be dab0 0bbc 9294 14be d026 cd3e
00000090: d940 fdbe 7129 ea3e fe38 fdbd dd42 50be
000000a0: 4d0f 053f 74ef 063a 36d9 babc eeb1 0d3f
000000b0: 07aa a83e 3d29 e1be 8b2a 523f 6553 373e
000000c0: 14be 2abe 4d85 c0bd 7ffe 6d3e 9cdf 87be
000000d0: 7c24 95be 3a74 283e 5da4 ddbd 7f50 5abe
000000e0: 5767 293c b2fd c5be ec04 203e f0c5 933e
000000f0: 1be2 993c 31c6 0bbe 85f5 11bf 50ea 58bd
00000100: 20de 913e ceee 843e b39b 2a3f 715d 0fbe
00000110: 8ec2 ed3e 943a 3abe d7be 053f ad24 033e
00000120: fb90 9bbe 31f2 9f3e abb7 3b3f 58fa aebd
00000130: f9c4 42be 6050 6f3f 827e b8bd 3fc4 ec3e
00000140: e816 0ebe 6d51 3cbe 0d0d 60bf 6922 5dbd
00000150: dbad 9ebe 4710 af3e 1605 75bf 6e7b e5bd
00000160: 3bdc bebe 6abc 383e fc7f 86be 4cf8 3bbe
00000170: d2ac 41be 0088 00be d2db 023f 7d5f 013f
00000180: 25d6 743c 7f1f c8bd 82cd b83d 7921 17bf
00000190: 89b9 053c 0188 19be be55 3ebe 5727 b1be
000001a0: fb22 67bd e65e 7f3e a193 c9be 522b 3d3f
000001b0: bcfc 813e 7e99 bb3e 6a4b 97be 6ca3 be3d
000001c0: 9c7b 8bbe aabd fcbd a447 903e 368d 3c3e
000001d0: 2695 abbe 58a8 e6be 63ce 713f c28a b3bd
000001e0: dd37 943e ae95 66be 5e93 51be a7e7 013f
000001f0: bfcc ed3e c9c3 e93d 4b60 883e 2c2d 11be
00000200: 2aa5 8c3e 8383 173f f76b ebbd ea47 003f
00000210: b9df 043f fd1d d4bd 7324 df3e b43d 023f
00000220: 9b58 afbe 4399 f53e 2754 92bd e5d1 f8bd
00000230: 4751 32be 19bc 2f3e 07b8 5d3f 3740 54be
00000240: 7055 a2be b2ca 30be a364 8c3e b855 c73e
00000250: a4a1 c83e f1e5 973e 3ea6 c2be 70b6 15be
00000260: e4cc 76be 4bde 9d3e 7318 93be 35f8 82be
00000270: c193 ba3e c5c5 9fbe ee3c 8b3e b99e 293d
00000280: 73ac 9e3e 5169 6ebe de22 20bf 1799 96bd
00000290: 607a 1cbd 4363 e3be 197a cc3e 528c 4dbd
000002a0: 2c38 0bbd 5e62 9a3e e460 ea3e 8ee7 64bf
000002b0: 51e8 aabe 33f2 073f cbfc 21bf 287c 39be
000002c0: 95d3 febd 2d98 d13e 7ccf 2bbb cfed 803e
000002d0: 3c52 9d3e 7007 a0bb 2124 da3e 4627 ebbd
000002e0: 63c2 443e 9c1a cb3e 896b 0d3e 53a9 16bd
000002f0: 9eb8 053f 66d9 c7bd c717 2e3f 033f 643e
00000300: bab6 0cbf 60aa 53bd fa01 fcbd e957 a83e
00000310: 46ee 25bd 906e febe 34f1 133e 5b75 d53e
00000320: 9494 2bbc 7b2e ddbe f598 10bd 2a10 85be
00000330: cb38 a13e 45bc 66bf 45af 8dbe 7f1e 0cbf
00000340: 0030 51be cce2 d4bd ecb6 253f b08a 7d3e
00000350: b2f6 ac3e df54 6c3d 18c7 893e c1b1 d2bd
00000360: 290c f73e 9626 64be 7cb2 fe3d d5db 93be
00000370: 3302 91be d3ec 8fbe 4334 0ebf 7014 30be
00000380: 307b 1cbf 1d0a bd3e 1a80 7abd 4d7b 4d3e
00000390: 6915 43bf 9150 5bbe acd3 713c fe2c 86bc
000003a0: 076a 16be 5ba8 8cbd 8f8a 1ebe c5b9 3ebf
000003b0: f7da 0b3f 6b7a b5be c28e c63d 8ec5 45be
000003c0: d1cc 873e 6e12 123f c114 a13d 51ed 1d3e
000003d0: 53be 05bd 42b1 b33d e442 aebf d7eb b2be
000003e0: 6430 84be cb93 503e e153 f53e 7d90 fbbe
000003f0: 8e19 abbe 0a9f 203d ad5d 613e c6bc 80be

_policy.8.bias f4 [3]
0.07879625 -0.06964585 -0.026282098
00000000: ee5f a13d 7ca2 8ebd 8e4d d7bc

_value.0.weight f4 [128, 22]
0.063127585 0.16749026 -0.14837119 0.03782892 0.028893515 -0.16886337 0.077366136 -0.049362943
0.16458015 -0.18221886 -0.03410483 0.16071682 0.070729546 -0.05379509 -0.047504652 0.042441096
-0.02773267 0.16904975 0.00015605599 0.10273563 0.07828688 -0.07864383 -0.15970902 -0.137751
-0.06629371 -0.052103687 0.037542865 -0.1557589 -0.07974303 0.12839188 -0.014808648 -0.078064255
-0.1479302 -0.05803621 -0.1547403 0.17200245 0.11143465 0.16561516 -0.14617376 -0.1744821
0.014210085 -0.22802141 -0.11570379 0.046473734 -0.026476394 -0.03125818 -0.062417734 -0.1478982
0.1617762 0.16154431 -0.10627301 0.17468606 0.13274105 0.07047725 0.17945799 0.14997205
-0.16118108 -0.20636848 -0.14223751 -0.21067943 -0.13546665 -0.013799256 -0.05779897 -0.09555011
-0.15042272 0.08223919 -0.11515995 0.04440205 0.0034645668 -0.20909923 -0.15227236 0.05268913
0.0713821 0.035370167 0.016212719 -0.11414749 0.11341546 0.040031392 0.27670664 0.0055528516
0.14725748 -0.026368104 0.007920673 -0.040688068 -0.10817126 0.07413178 -0.020859143 0.27178636
-0.13497725 0.24552526 -0.23331234 0.08061987 0.021806328 0.094862275 0.025919832 0.08356348
-0.07330206 -0.08645592 -0.18420029 -0.09496857 0.056143984 0.06605834 -0.083939694 -0.07957663
-0.05676096 0.06604551 -0.050855655 0.01734286 0.034075983 -0.025316823 -0.19428807 0.23128651
0.13068458 -0.11003657 0.1261856 -0.13578159 0.15413679 0.036002535 0.078104995 0.02178325
-0.12976214 0.08394554 0.14481297 0.114434734 0.17831875 0.10178846 0.0012662563 -0.16006933
0.0032919866 -0.13496563 -0.088232644 -0.17896974 0.08576247 0.17508242 -0.10854328 0.1708312
-0.04562898 -0.17235659 0.0236724 -0.032349616 0.06625559 -0.053447463 -0.19779462 -0.05490953
-0.14538997 0.17861407 -0.18402837 0.117296435 0.061370227 -0.10145564 0.10136032 -0.18253796
-0.16469333 0.020393603 -0.08480582 -0.13696896 0.005215121 -0.16254619 0.09903988 0.14422743
0.10718148 0.016778538 -0.10391917 0.16736515 -0.019817347 -0.14562294 0.054062925 -0.19505075
0.07712968 -0.12309805 0.014143684 -0.02512862 -0.22093537 0.04038316 0.15263493 0.11994755
0.108434044 -0.18274245 -0.06973939 -0.11188121 -0.085083306 0.025408763 0.11735778 0.16468692
-0.0343153 0.18585066 -0.049223047 -0.13939835 0.12833782 -0.13177072 -0.20729515 -0.17294095
0.16238137 0.0070052515 0.012895854 -0.099436715 -0.2182876 0.1620253 -0.05486922 0.10915507
0.07793822 -0.03286108 0.04542368 -0.08113394 0.047670938 -0.16511016 -0.008079602 0.09039525
-0.07627975 0.20012735 -0.14806592 -0.18266277 0.12305954 -0.07982193 -0.055752944 -0.1980969
-0.20440644 0.0005800605 0.021697411 0.06402924 0.14609985 -0.1561487 -0.040295113 0.13879666
0.13158567 -0.08067208 -0.04858578 0.06758048 0.13851736 0.0754661 0.03937345 -0.010651593
0.070530675 0.015576666 0.01777976 0.083781905 -0.14428025 -0.027385097 0.16973943 -0.08559705
-0.017367726 -0.18935505 -0.05138075 -0.042141423 -0.015111414 -0.08325432 -0.15505642 -0.12926628
-0.060098697 -0.028164934 0.037280798 0.0073949634 0.13638014 0.12905994 0.13208832 0.15016772
00000000: 0949 813d 9182 2b3e 9eee 17be 7ff2 1a3d
00000010: 18b2 ec3c 85ea 2cbe 2372 9e3d cc30 4abd
00000020: b387 283e 9597 3abe 82b1 0bbd f392 243e
00000030: a7da 903d 3e58 5cbd 3d94 42bd b7d6 2d3d
00000040: a02f e3bc 611b 2d3e f6a2 2339 0f67 d23d
00000050: df54 a03d 0410 a1bd c38a 23be 990e 0dbe
00000060: ffc4 87bd ad6a 55bd 8cc6 193d 437f 1fbe
00000070: 5050 a3bd 2979 033e f99f 72bc 27e0 9fbd
00000080: 047b 17be 60b7 6dbd 3e74 1ebe 6921 303e
00000090: da37 e43d 0597 293e 93ae 15be 70ab 32be
000000a0: 6bd1 683c 727e 69be 1cf6 ecbd 3e5b 3e3d
000000b0: 06e5 d8bc 9408 00bd bda9 7fbd a072 17be
000000c0: a9a8 253e df6b 253e aaa5 d9bd e7e0 323e
000000d0: 45ed 073e 6056 903d d6c3 373e 4692 193e
000000e0: a70c 25be 4252 53be b6a6 11be 59bc 57be
000000f0: c5b7 0abe 4616 62bc 9dbe 6cbd c7af c3bd
00000100: 6a08 1abe 056d a83d fbd8 ebbd edde 353d
00000110: c90d 633b 1c1e 56be 49ed 1bbe 8fd0 573d
00000120: c730 923d 4fe0 103d 89d0 843c 29c6 e9bd
00000130: 5d46 e83d f5f7 233d 7eac 8d3e b2f4 b53b
00000140: aaca 163e ec01 d8bc b6c5 013c 88a8 26bd
00000150: e588 ddbd 67d2 973d cbe0 aabc 9527 8b3e
00000160: 7a37 0abe f96a 7b3e 6ee9 6ebe 081c a53d
00000170: 2fa3 b23c 2747 c23d d455 d43c 5423 ab3d
00000180: 641f 96bd cd0f b1bd 009f 3cbe e27e c2bd
00000190: 3cf7 653d 9849 873d 93e8 abbd 12f9 a2bd
000001a0: 2e7e 68bd de42 873d 054e 50bd 9d12 8e3c
000001b0: 4293 0b3d 3a65 cfbc 74f3 46be 5fd6 6c3e
000001c0: 2ed2 053e da5a e1bd cc36 013e 540a 0bbe
000001d0: 09d6 1d3e 6577 133d 83f5 9f3d c972 b23c
000001e0: 5ee0 04be a4eb ab3d da49 143e c25c ea3d
000001f0: 3199 363e 7876 d03d 83f8 a53a 37e9 23be
00000200: 5fbe 573b 6e34 0abe 51b3 b4bd d843 37be
00000210: 3ca4 af3d ce48 333e f04b debd 60ee 2e3e
00000220: 74e5 3abd 3f7e 30be 9fec c13c 0881 04bd
00000230: 03b1 873d baeb 5abd ac8a 4abe d1e8 60bd
00000240: 1ce1 14be 9be6 363e ef71 3cbe 1d39 f03d
00000250: 595f 7b3d f9c7 cfbd 0096 cf3d 3beb 3abe
00000260: 5ea5 28be 7c10 a73c acae adbd 9741 0cbe
00000270: 9be3 aa3b 8272 26be 6cd5 ca3d 5bb0 133e
00000280: f781 db3d 2573 893c 93d3 d4bd c561 2b3e
00000290: fd57 a2bc 2e1e 15be 1671 5d3d 62bb 47be
000002a0: 2af6 9d3d d51a fcbd e9ba 673c 89da cdbc
000002b0: e23c 62be d068 253d 554c 1c3e 10a7 f53d
000002c0: ab12 de3d d620 3bbe 86d3 8ebd fa21 e5bd
000002d0: 2840 aebd 0a26 d03c 4759 f03d b0a3 283e
000002e0: 338e 0cbd a34f 3e3e 1b9e 49bd 71be 0ebe
000002f0: fd6a 033e e7ee 06be 2e45 54be 6f17 31be
00000300: 4d47 263e 4f8c e53b 2249 533c 7aa5 cbbd
00000310: c986 5fbe f6e9 253e 8cbe 60bd b18c df3d
00000320: 139e 9f3d 5799 06bd 2e0e 3a3d 8d29 a6bd
00000330: 9a42 433d a312 29be 4f60 04bc 2521 b93d
00000340: 8f38 9cbd 2fee 4c3e 989e 17be f30b 3bbe
00000350: a406 fc3d ae79 a3bd 335d 64bd ead9 4abe
00000360: ec4f 51be 340f 183a c5be b13c c321 833d
00000370: 339b 153e 72e5 1fbe 7d0c 25bd b620 0e3e
00000380: 65be 063e 6737 a5bd e201 47bd a267 8a3d
00000390: 7fd7 0d3e f88d 9a3d 0e46 213d 0584 2ebc
000003a0: 6372 903d 4635 7f3c dca6 913c d995 ab3d
000003b0: 34be 13be b656 e0bc 2cd0 2d3e 824d afbd
000003c0: c346 8ebc 4ae6 41be 9f74 52bd 7c9c 2cbd
000003d0: dd95 77bc 3e81 aabd 1cc7 1ebe 615e 04be
000003e0: 0d2a 76bd 26ba e6bc c0b3 183d 7351 f23b
000003f0: 3ca7 0b3e 4a28 043e 2942 073e 91c5 193e
