logs/weight_colliion_obj_obs = 0.4/model/model_770.pth (torch, 427625 bytes, 19 tensors)

_policy.0.weight f4 [128, 22]
00000000: d259 bcbe 2ec5 4cbd bb04 3a3e 10f3 3f3e
00000010: 73ff d0be 013f d1bd 3208 5b3e e172 86bb
00000020: 9dfd 013f c73a be3e b31a 7fbd e33c 3c3e
00000030: 6a0f 6a3e c4e9 b63e 7782 cebb 1c83 dbbd
00000040: 7e7c f2bd 80be e23d 8463 a13d f098 1b3e
00000050: ae20 f5bd cd29 c4be b8ef cebe 66d0 58be
00000060: 1a2a 0d3d 14bf 803f 99de d33c 73e5 043d
00000070: 78b3 733e baad 29be 9318 55bf ed79 583e
00000080: 7b53 9d3e 645f 943e e135 b83e 8415 923e
00000090: 1034 1b3e 4766 5dbd c213 a03c 5681 39be
000000a0: 8d94 9dbe f6c3 073d a11e a93c 2c6c 2ebc
000000b0: 3399 16bf 20c8 3dbc f615 a43e 8f26 efbc
000000c0: 50af 92be 14f8 653d df8b 933c 1257 063e
000000d0: 96e6 983f 7c73 eebe b92c 453e b66b ec3d
000000e0: 6900 a33e 29ff de3e 273e bd3d 7344 2f3e
000000f0: 9f8f 21be 265f f13d 7ae8 19bd 6ac7 10bd
00000100: 093c 33be c67b 0ebe e7cb 8dbd 4ebd 0bbf
00000110: 5c32 c8bd e1cb 223f 922b 29be e3a2 06bf
00000120: 9a63 3e3e 673e e53e 5b8f c93c e120 b23e
00000130: 14a2 5fbe dbfc cebd 25b7 b3be a38f f43e
00000140: fdb1 7cbe d385 e1bd 3bd3 6abe 7476 fe3c
00000150: 3fa5 75be e81e 5f3e 6d03 183e ded1 013e
00000160: 579f 873f 056d 08bf e724 2abe f80e 963e
00000170: 84cd 413f 7d06 32bf 8d1e 0ebe 92c5 23bf
00000180: 366b 20bf 86f1 e53e bf0f ec3d da2f 9cbd
00000190: 70d7 18be 3fe0 763c 02bf d33c 9b8c 483e
000001a0: 237c b63c 813b 453d eefa 8e3d 3794 bbbd
000001b0: aa43 37bd 62e6 45bd 62a8 43bf c97f 3f3f
000001c0: d8ef cb3e 0429 0fbf 2e87 83be 4670 ec3e
000001d0: dd45 5d3e 59fa 8f3e 81c8 203d 0d7c 90bf
000001e0: 3b89 8cbe 6d08 cbbd 01b7 7dbe 4144 313b
000001f0: 9f7d 593c e1a6 e1bc 0e01 283e eeb5 0d3d
00000200: a38a 25bd 06ed 0dbe c995 0fbd 42a1 da3d
00000210: ce7f 2abd 6677 2a3e 33c4 fabd 66b1 d73e
00000220: b6e3 bf3e 453e f5bd 9601 18bf cf7c 3a3d
00000230: cc0a 2a3f 301b 35bf 897c a03d b4d4 f8bd
00000240: 8daf 4ebf 8930 213e f2cf e0bc 6948 27bc
00000250: 3658 4bbd 9e11 0fbe 50a0 b63e 94bc 4bbe
00000260: b9e5 0b3e c4f6 d8bd 2a36 e0be 2ed1 81be
00000270: 55d2 3e3c df57 643f 1347 893e eb49 913e
00000280: 49fb d1bd dd98 b1be 5245 73bf 4039 463f
00000290: a6df 3abe 6fbb a8be d794 1bbe 959e 433d
000002a0: 360f 08be 7714 9c3d 29e9 97bd 3405 84be
000002b0: 34be 913d 5919 1d3d 9979 7ebd 5b6a 1a3e
000002c0: 26c8 483d d3b1 c7be 0d2b 9bbd 8f0a 4e3e
000002d0: 2be8 e73e d733 a8bd 0313 40be e713 f03d
000002e0: 35de dd3f a293 833f 9c2b 6dbd b4d0 39bd
000002f0: 3e6b 3c3e 38bd e83d f661 373e bc3f 68be
00000300: d512 453e bb47 65bd d948 9bbd c6e6 cebc
00000310: 2498 81bd a2e0 e63d c366 af3e 41c3 2a3f
00000320: 92fa 07bf 378c 33bf 6487 6abe 7514 0f3f
00000330: 8a5d a4be e36a 2cbf ab57 25bf 3f3d 763e
00000340: 0c5a 12be f7f9 ce3e 457e 843e d7e2 02be
00000350: dc11 7d3c e708 8c3d 5bc8 fc3d ac0c 1bbe
00000360: b149 06bd b204 353d aa1e 03be 570b 2dbe
00000370: ee5f 1ebf c8e7 59be 1fae 3d3e f1fd e03c
00000380: 15c1 21bf 3240 a8be 696b f03d b7d2 823d
00000390: 93ce b13f c69b e43e 48fd d03d d657 53be
000003a0: 3879 443d db1b 723d 5ca7 ee3c 853c d33d
000003b0: 78ec 1b3e 6e5d 06bd e5fb eabd 6b13 3dbd
000003c0: 6ad2 f4bd 391d 23bd 7859 f1bc a22c 763e
000003d0: 0f4a 6cbf 660a 3fbe 84c1 38be e1cf b7bc
000003e0: 9381 bebd 5f46 afbe 5e7e afbe 0e56 81be
000003f0: 1751 cd3d 193a 9cbd bbca b1be 40df b3be
-0.36787277 -0.049992733 0.18165867 0.18745065 -0.40819892 -0.10217095 0.21389845 -0.00410305
0.5077761 0.3715422 -0.06228132 0.18382601 0.22857442 0.35725224 -0.0063021737 -0.107183665
-0.11840151 0.11071491 0.07880309 0.1519506 -0.11969124 -0.3831314 -0.40417266 -0.21173248
0.03446398 1.0058312 0.025862979 0.032445382 0.2379893 -0.16570178 -0.8324062 0.21140261
0.30727753 0.28979027 0.35978606 0.2853204 0.15156579 -0.054052617 0.019540671 -0.18115744
-0.30777398 0.033145867 0.020644488 -0.010645907 -0.58827513 -0.011583358 0.32048005 -0.02919319
-0.28649378 0.05614479 0.018011032 0.13119152 1.1945369 -0.46572483 0.19255342 0.11543982
0.3183625 0.43554047 0.0924037 0.17115955 -0.15777443 0.11785726 -0.037575223 -0.035346426
-0.1750337 -0.13914403 -0.06923657 -0.5458573 -0.0977523 0.63592345 -0.16520527 -0.52592295
0.18592682 0.44774172 0.02460449 0.3479071 -0.21839172 -0.10106822 -0.35100666 0.47765836
-0.24677272 -0.11011853 -0.2293214 0.031062342 -0.23988818 0.21789134 0.14845057 0.12677714
1.0595502 -0.5329135 -0.1661564 0.29308295 0.75704217 -0.6954115 -0.13878842 -0.63973343
-0.6266359 0.4491083 0.11526441 -0.076263145 -0.14925933 0.015068113 0.025847916 0.19584887
0.02227599 0.04815245 0.06981455 -0.09159129 -0.044742264 -0.048315413 -0.76428807 0.7480436
0.39831424 -0.5592196 -0.2568907 0.46179408 0.21608682 0.28120688 0.039253715 -1.1287857
-0.2744845 -0.099137165 -0.24776842 0.002704874 0.013274579 -0.027545394 0.16406652 0.03459733
-0.040415417 -0.13859949 -0.035054956 0.10675289 -0.04162579 0.1664711 -0.12244453 0.42127532
0.37478417 -0.119747676 -0.5937742 0.045529183 0.66422725 -0.7074461 0.07836253 -0.12149945
-0.8073662 0.15741171 -0.027442906 -0.010210135 -0.04964467 -0.13971564 0.35669184 -0.19896156
0.13661851 -0.10593942 -0.43791324 -0.25354904 0.011646827 0.8919658 0.26812038 0.28376707
-0.10253007 -0.34686938 -0.9502765 0.77431107 -0.18249378 -0.329555 -0.15193497 0.047758657
-0.13287053 0.07621091 -0.07417519 -0.2578522 0.071163565 0.03835425 -0.062127683 0.15079634
0.049019 -0.39002857 -0.07576571 0.20121215 0.45294318 -0.08213013 -0.18757252 0.11722546
1.7333437 1.0279429 -0.057902917 -0.04536505 0.18400285 0.113642156 0.17908463 -0.22680563
0.19245465 -0.05597661 -0.07582254 -0.025256526 -0.06327847 0.11273314 0.34258088 0.66704184
-0.53116715 -0.70135826 -0.2290321 0.5589059 -0.32102615 -0.67350596 -0.64586896 0.24046801
-0.14292163 0.40425083 0.25877586 -0.12781845 0.015446153 0.068376355 0.12342902 -0.15141553
-0.03278512 0.04419393 -0.12804666 -0.16898857 -0.6186513 -0.21279824 0.18523453 0.027464839
-0.63185245 -0.32861477 0.11739237 0.06387847 1.3891166 0.44650096 0.102045596 -0.20638976
0.047967166 0.059108596 0.029132538 0.103142776 0.15226924 -0.032803945 -0.11473826 -0.046161097
-0.11954196 -0.03982279 -0.029461607 0.24040464 -0.92300504 -0.1865631 -0.1804257 -0.022437992
-0.09302058 -0.34233376 -0.34276098 -0.25260967 0.10025232 -0.07628269 -0.34724984 -0.35131264

_policy.0.bias f4 [128]
00000000: f48c 18bd f36b 863b 7bf8 25be 1759 44be
00000010: 1467 81bc 13dc 0cbe 0f3c 2b3d 96a7 6e3c
00000020: 679b 26bd 4edd 353e 1f99 0c3e 826a 473e
00000030: 2442 58be 567f 83be 2f1b b0bc 418d 01be
00000040: 1be0 1dbd 3d94 013d 21df 73be 02e0 533d
00000050: 33e1 e73d 3213 07bd d4a2 66be 0fc6 713e
00000060: 73aa 7cbd 4194 cbbc f7e8 b1bc 96af b4bd
00000070: 34c2 a63d 130b 7cbe fc39 7abe 1366 0ebe
00000080: 94d1 033e c551 adbd a528 9a3d 866a 923d
00000090: b051 543e 20a7 5dbe 8d44 f9bd 5b2b 0e3c
000000a0: 6d44 efba 1bcf 963d e0ba 3abe 0aaf cbbd
000000b0: 1c1c 153d b64a 14be 5395 203e 3418 003e
000000c0: 7b1e a5bd a0cb 5ebe 289e b4be d858 15be
000000d0: a0ea 9abe ede4 3c3e 83c4 72be 9a9a e4bd
000000e0: d6a4 5bbd 9d4b b53d f5af 903e d47a 3abd
000000f0: 15e6 8cbd 7fa3 00bc cee3 78be 9010 cabd
00000100: 025a a7bd 7f9b c7bd 09f3 343d e227 cebd
00000110: 9e35 cfbd 68f9 2ebe 3028 0dbe 3f74 cfbc
00000120: 219e 55be 2227 4b3e 6be3 cabd ed8f c83d
00000130: d62b 8cbd 32ad 0cbe feb0 25be 661f ebbd
00000140: 46e6 6a3d a459 2f3b a1d2 4a3d 78c1 58be
00000150: f1a0 eebd 5bb0 403b 9c59 56be ca5a fcbc
00000160: 7207 b0bd 2e84 3bbe a01b c53d 7215 6abe
00000170: e611 b63d ae57 6bbe f9ad 41be 212b ed3c
00000180: ab3b 95be 928f d4bd 66ff 0cbe e368 1dbe
00000190: c3e2 67be a974 31be 62b7 0fbe 3c96 13bd
000001a0: 3834 833b 777b 923b 754c 77be 8b13 82be
000001b0: 256f e4bc 4dca fb3d 8716 063e 782f 40be
000001c0: f779 1dbe aab2 c7bd a4b4 86be 2ef3 0f3e
000001d0: a4cd b33b 4d01 503d 1be7 58bd ce01 563e
000001e0: 90f6 a63d 425a 79bd 54fd 633d a95d 2ebe
000001f0: ab9d db3b 1869 46be 75d0 26be dd89 89be
-0.0372438 0.004102224 -0.16208069 -0.1917461 -0.015796222 -0.13755827 0.041805323 0.014566323
-0.040675547 0.17760202 0.13730286 0.19474223 -0.2111898 -0.25683087 -0.021497337 -0.1265154
-0.0385438 0.03163551 -0.23815586 0.051727302 0.1132225 -0.03297729 -0.22523052 0.2361071
-0.06168599 -0.024850966 -0.021717532 -0.08822553 0.0814251 -0.246136 -0.24436182 -0.13906126
0.12872916 -0.08462862 0.075272836 0.07149224 0.20734286 -0.21645784 -0.12171278 0.008677329
-0.0018254645 0.07363721 -0.1823535 -0.099454954 0.03640376 -0.14481625 0.15681963 0.12509233
-0.08062454 -0.21757364 -0.35276914 -0.14584672 -0.3025713 0.18446703 -0.23707776 -0.111623004
-0.053623997 0.08852313 0.28259245 -0.045527294 -0.06879822 -0.0078514805 -0.2430565 -0.0986644
-0.081714645 -0.097464554 0.04417709 -0.10066201 -0.101176485 -0.17087328 -0.13784862 -0.025323985
-0.20861103 0.19839147 -0.09906658 0.09793077 -0.068442985 -0.13737944 -0.16180798 -0.11480598
0.057348512 0.002675631 0.049517278 -0.21167552 -0.11651791 0.002940199 -0.20932621 -0.03080501
-0.0859517 -0.18312141 0.0962441 -0.22859743 0.088901326 -0.22982666 -0.18914022 0.02895123
-0.29147086 -0.10378946 -0.13769302 -0.15372042 -0.22645096 -0.17329659 -0.14034799 -0.036031947
0.0040040277 0.0044702846 -0.2415026 -0.25405535 -0.02788503 0.12294445 0.13094531 -0.18768108
-0.15378557 -0.09750874 -0.26309693 0.1405761 0.0054871608 0.05078249 -0.052954774 0.20899126
0.08152497 -0.060877092 0.055661514 -0.17027916 0.006702145 -0.19376028 -0.16290458 -0.26862994

_policy.2.weight f4 [128, 128]
00000000: 81b6 a93d a2a0 0c3b 8a89 f6bd 8409 af3c
00000010: b5b5 a03e a9c6 10bf f27f 94bd aaab 8b3d
00000020: e3d8 e63d b76a 0cbf 0eb5 8e3c 18c9 a4be
00000030: 9242 81bd c912 0dbe d1f8 f2be 3b2a fd3b
00000040: b638 18be dfa6 12bd bd90 75be 501f 363e
00000050: 2c62 b43d 9c86 c43c 7d1f 133e 4831 b2be
00000060: 16fd ffbe bb16 bd3c 138d a1be 2fdc 623e
00000070: 505e 443e 7e65 0c3e 3132 43bd b4e0 fbbe
00000080: 11a5 523d 0604 a93d 5330 373e cf2f 1fbe
00000090: a334 8d3d 6db1 4abe 7000 873d 3d16 173e
000000a0: 22e1 babe a842 3cbe a7d9 093e a722 25be
000000b0: 3368 803d 9c92 56be 0c36 803d 19e1 acbd
000000c0: 26f6 26be fd06 b8be 1fa4 cdbd cc54 e4bc
000000d0: c2f1 d03e 403f cc3e 3201 3abd 442c 7ebe
000000e0: d0a9 703e 1e9b 863d 2b3c 08be 0b82 ea3d
000000f0: 9751 363e 40fc 53ba d6db 97bd b5b9 7c3e
00000100: d77b 0e3d fc8e 703e d408 213d 34da acbd
00000110: 828c 463d a82b 51be 050a 35bd 22be efbd
00000120: fc80 d7bc 570a febd 71bc 48be 44b1 1ebe
00000130: 6698 11be c4c0 cebd f147 60bd dea5 3b3e
00000140: 0375 3c3e 42c7 2fbd 8df6 d83c 90fa d6be
00000150: c4ee f9be 81fd 1cbd e4f6 afbb eeb5 89bd
00000160: 22bb 98bc 684d a9bd e0a5 663c 1254 4b3e
00000170: 0279 d33c 98e2 c4be 7d44 ea3d f20e f83d
00000180: 8532 15bd d8a2 cb3d f2a6 60bd fb5b 8b3d
00000190: 3057 5fbe 3b8c abbd 4b39 943d 4d75 cf3d
000001a0: a6b3 0dbe 2ad7 b1bd 5a84 693e 31f1 343d
000001b0: 0cca a6bd a0ca d7be cff4 ebbe 75bd d3bd
000001c0: 54b0 85be 9deb 2c3e 7b85 23be addb 073e
000001d0: d3c9 8abd b737 d4bd 7a60 adbe d2ea 323d
000001e0: a808 25bc d902 7f3d 5ced 0e3d 98bd efbe
000001f0: 6604 32be d0ce 96be b5a2 ba3b f712 443e
00000200: ae84 7bbd 50fa 74bd 8400 64bd 1fb6 e8bc
00000210: e03e 703c a197 46bd c05e af3c 3ead 2e3d
00000220: 5c60 063c a2b1 19bc b6d7 83bd 8d98 f1bd
00000230: aa58 ddbb b3d0 66bd 9c95 debd e488 4fbd
00000240: aa83 b3bd ff61 f2bd e157 a7bd c9ab 2f3d
00000250: 666d 00be 8c9b c53b a5fd adbd 7f0a 263d
00000260: 7127 06bd 1f4e 1bbd 1ee2 ddbc 13c6 9ebd
00000270: 1b30 c8bd 4833 2fbd 115c f1bb d6a6 8bbd
00000280: a674 97bd a6dd 6fbd 4677 35bd 38ea 5dbd
00000290: 40fd 973b 5062 9bbc 694b 91bd da94 95bd
000002a0: 2fc3 a03d a4f0 513c 7d1a 1a3b 909c 1c3c
000002b0: 4ebd 713d 3042 c6bd 2a8a 59bd e933 edbd
000002c0: e38d d5bd a22b 8ebd 3f80 ebbc bf56 eabd
000002d0: 909a 66bc 98cf a63c 44ca e9bd ee39 95bb
000002e0: 2d38 7fbc eb2b 9fbd a50f 4a3d 5c2f c1bd
000002f0: 3ec9 3e3d 7088 e93c e7a9 60bd 6824 0fbd
00000300: 05fd 353d 4194 f63c 3bb0 93bd a974 0fbd
00000310: a8a7 c6bc 3ad5 453d 768e 7dbd 8300 0cbd
00000320: 6727 213d 0afc a2bd 7005 0e3b d889 9ebd
00000330: 8d37 9ebd f631 fcbd fe18 e0bc 2ea2 06bd
00000340: 46c6 36bd e5f2 a4bb 7c14 9cb9 2bb8 81bd
00000350: 7ef4 123d 5416 0f3d f16b 35bc d2e7 0cbd
00000360: a91b f43b 3498 da3c b527 c2bc e5f2 d9bd
00000370: 41f0 ee3b 495f acbc 7e62 813d 60ab 203d
00000380: 127a 803c e6ac b3bd a5ae bbbd 1632 ffbd
00000390: 2ea4 efbd 0d83 13bd f6dc 2b3d eb33 8d3b
000003a0: 32fd c5bd 9ef3 093c 6d58 cabd bffe 143d
000003b0: c533 7d3d 00ba dabc e0ed cf3b b870 e5bc
000003c0: f4d7 c8bc 0a4d 323d 393c 853c 7ae6 f63c
000003d0: f4ed 1ebc 8ec4 99bd 4201 d33c 50cd 06be
000003e0: a68f 4b3d 294f 29bb 94a0 dcbd 08b4 ccbd
000003f0: 0b5b 42bd 7751 483d fc17 053d fe96 73bd
0.08286763 0.002145805 -0.12037952 0.021366842 0.3138863 -0.5655313 -0.07250966 0.06819852
0.112718366 -0.54850334 0.017420318 -0.32184672 -0.063115254 -0.13776697 -0.47455457 0.0077259815
-0.14865384 -0.035803672 -0.23980995 0.17785382 0.08807787 0.023989968 0.1436748 -0.34803224
-0.49997777 0.023082128 -0.31552944 0.22154306 0.19176602 0.13710591 -0.047655288 -0.49194872
0.05142695 0.082527205 0.17889528 -0.15545581 0.06894805 -0.19794245 0.0659188 0.14754577
-0.36499888 -0.18384802 0.13461934 -0.161265 0.062698744 -0.20954365 0.062603086 -0.084413715
-0.16304836 -0.35942832 -0.10041069 -0.027872466 0.40809447 0.39892006 -0.045411296 -0.24821573
0.23502278 0.06572555 -0.13304202 0.11450585 0.17804562 -0.00080865994 -0.07414977 0.24680217
0.03478607 0.23492044 0.03931506 -0.084400564 0.048473842 -0.2042681 -0.04419901 -0.11706187
-0.026306622 -0.12404316 -0.19603135 -0.15497309 -0.14218292 -0.10095361 -0.05475611 0.18324992
0.18404011 -0.042914636 0.026484752 -0.4198804 -0.48814976 -0.038327698 -0.005370008 -0.067241535
-0.01864392 -0.08266717 0.014077634 0.19856289 0.025814537 -0.38454127 0.11438844 0.121122256
-0.036425132 0.09943169 -0.05484671 0.06804653 -0.21810603 -0.08376356 0.0723749 0.10129795
-0.13838062 -0.086836174 0.22804394 0.04417533 -0.08144006 -0.42146778 -0.46085212 -0.103388704
-0.2611109 0.16886754 -0.15968888 0.13267393 -0.06776776 -0.10362189 -0.33862668 0.043680973
-0.010072865 0.062258575 0.034894332 -0.46824336 -0.1738449 -0.2945466 0.0056956657 0.1914786
-0.06140583 -0.05980903 -0.055664554 -0.028407155 0.014663428 -0.04848445 0.021407485 0.042645685
0.008201685 -0.00938073 -0.06437628 -0.11796675 -0.0067549543 -0.056351375 -0.108683795 -0.05066766
-0.08765347 -0.118350975 -0.081710584 0.042888436 -0.12541732 0.0060305055 -0.084956445 0.040537354
-0.032752458 -0.0379163 -0.02708536 -0.077526234 -0.097748004 -0.042773515 -0.0073657115 -0.06818931
-0.07395296 -0.05856099 -0.0443032 -0.054178447 0.004638344 -0.018967777 -0.070944615 -0.07303782
0.07849728 0.012813721 0.0023514323 0.009558812 0.059018426 -0.09680593 -0.05311028 -0.11582167
-0.10427453 -0.06941916 -0.028747676 -0.11442327 -0.0140749365 0.02036266 -0.11415532 -0.004554025
-0.015577358 -0.077720486 0.049331326 -0.09432861 0.04657864 0.028507441 -0.05484953 -0.03494683
0.04443075 0.03009999 -0.07211348 -0.035023365 -0.024249867 0.04829905 -0.06190344 -0.034180176
0.039344218 -0.07958229 0.0021670721 -0.07741135 -0.07725439 -0.12314217 -0.027355667 -0.03286951
-0.044622682 -0.005033838 -0.000297699 -0.063339554 0.035877697 0.034933403 -0.0110730985 -0.03440077
0.0074495864 0.026683904 -0.023700574 -0.106420316 0.007291824 -0.02104153 0.06317614 0.039225936
0.015683208 -0.08773212 -0.0916417 -0.12460725 -0.11701237 -0.03601365 0.04195877 0.0043091676
-0.09667434 0.008419899 -0.09880147 0.036375757 0.06181695 -0.02670002 0.0063454956 -0.02800785
-0.024517037 0.0435305 0.016264068 0.030139197 -0.009700287 -0.07508193 0.025757436 -0.13164258
0.04969754 -0.0025834537 -0.10772815 -0.09995276 -0.047450107 0.048905816 0.032493576 -0.05947017

_policy.2.bias f4 [128]
00000000: d506 1dbe 78fc 1abe 7b7d 0ebe 384e 603d
00000010: ea15 f8bb 9714 8f3d 24dc 03bd 1b89 213d
00000020: 569e 10bd 0403 993d e638 d2bd eff1 8d3d
00000030: 7bca a43d c151 703d a0e9 643d 3582 df3d
00000040: 02e2 673d 67de 163e 92b4 223e a3de f43c
00000050: b0ab 81bd f2d4 73bd a10d 9c3c 765d dfbc
00000060: 213c 5cbd ccc9 6bbb 22a4 9c3d 2d5e 24be
00000070: d2d7 28be 9401 c33d 9777 b3bd 606d 99bd
00000080: f5e8 76bd 73c7 c23c 90c4 aebd 2084 7cbd
00000090: abee 34bd d4d2 fcbb f266 b53c 9bcf dcbd
000000a0: f179 0e3e 717b edbd 4826 153d ac6e 87bd
000000b0: 8da9 35bd e432 4f3b c83a 073c e9a3 dcbd
000000c0: e277 183d cc0f e3bd 6b5d cfbd 822b dbbb
000000d0: 00c6 a33d 0fb7 a4bd b568 f73c 5f7a 80bc
000000e0: a66e c5bc 7c34 12be 33d0 10bd b08a 2ebe
000000f0: 199b d2bc 4b78 b33d a2f6 97bd d097 943c
00000100: ced5 aabd dce4 28bd b06d 213d fb5f bf3c
00000110: 9e97 f4bd d02f c5bd cbe3 41bd 43de 94bd
00000120: 8859 dfbd 2959 05be 21ba 9a3d 4a2c 01be
00000130: d21d d63d 59cf ecbd 296b 453d b70a d3bc
00000140: 1b33 91bc 6858 42bd 4275 d33c 83e5 2d3d
00000150: 3ce3 58bd 05a6 f33d d084 8abd 7c83 a5bd
00000160: bd32 0dbd 828b ec3a 89ce 28be a01a 0f3d
00000170: d329 2cbd fb05 bd3d 792f 40be c966 02be
00000180: dba6 a6bb 010a 923c 33c4 c9bd b0dc 91bd
00000190: 7018 13be 33ec a1bc 0fc7 90bc 75fe cf3d
000001a0: 4bde 16bd 3a5e ac3d af0a 30be ccd7 21bd
000001b0: 7e07 03be f78e b1bd f011 5fbd fb33 9b3d
000001c0: 2613 023d 6e1b 893d 3a6d c8bd d28f 473d
000001d0: 38da d5bd d1a9 08bd f31f dcbd 963f 1b3c
000001e0: 3c3f 8cbd 60e6 dfbd 35c2 90bd a0d2 9bbd
000001f0: 379a 07be 7e94 b93c 8f30 a9bd 0ffc 4a3d
-0.15334637 -0.15135372 -0.13915055 0.054762095 -0.0075709717 0.06986349 -0.032192364 0.039437395
-0.03530725 0.07471278 -0.10264759 0.06930911 0.080464326 0.058671717 0.055886865 0.10913507
0.056612022 0.14733277 0.15889195 0.029891318 -0.06331575 -0.059529252 0.019049468 -0.027266245
-0.05376828 -0.0035978435 0.07648493 -0.1605155 -0.16488579 0.095217854 -0.08763044 -0.07491565
-0.06028076 0.023776745 -0.08533585 -0.06164944 -0.044172924 -0.0077155624 0.022143815 -0.10781785
0.13913704 -0.1159581 0.03641346 -0.06612906 -0.04435115 0.0031616027 0.008253761 -0.10773451
0.037223704 -0.110869974 -0.1012524 -0.006688536 0.0799675 -0.08042728 0.030201295 -0.015683351
-0.024100613 -0.14277834 -0.035354804 -0.17045093 -0.025708722 0.087631784 -0.07420088 0.018138796
-0.08341561 -0.041233882 0.039411247 0.023361197 -0.11942981 -0.0962826 -0.04733638 -0.072689556
-0.109057486 -0.13022293 0.075550325 -0.12614551 0.104549065 -0.11562986 0.0481979 -0.025761945
-0.017724564 -0.047447592 0.025812749 0.042455208 -0.052951083 0.118969 -0.06763613 -0.08081719
-0.034472216 0.0018046948 -0.16485037 0.0349375 -0.042032074 0.09229656 -0.1876811 -0.12734522
-0.0050858087 0.017827036 -0.09851875 -0.07122171 -0.14364791 -0.019765949 -0.017673044 0.10155956
-0.03683309 0.0841641 -0.17191575 -0.03951244 -0.12795827 -0.086698465 -0.054460466 0.07578274
0.031756543 0.06694685 -0.09786458 0.048721142 -0.104420125 -0.033365075 -0.10748281 0.009475609
-0.068479985 -0.109326124 -0.07068292 -0.07608533 -0.13242422 0.022653814 -0.08261215 0.049556788

_policy.4.weight f4 [128, 128]
00000000: 6058 233e d5ab 0cbd 2e6e 05bd f667 26be
00000010: ad0c dc3d 6888 173d f6f9 9b3d 03bc d13d
00000020: 6013 efbc 88c6 5f3d 2781 16bd 820c b53b
00000030: ba6a 16be ee32 4c3d 8371 ffbd 14f5 7f3e
00000040: f5ae c3be 4ce1 2c3e 7669 55be 7cf1 1dbd
00000050: b679 5cbd b641 4abe 3298 37bd 831b 253e
00000060: 8444 343c cfa6 68be 45bf cabd e73f a53b
00000070: 3b74 6e3d 6fb1 75be 34fe e33d d7f8 f6be
00000080: 0b5b adbd 94ba 81bd 8264 fd3d 9fac bebd
00000090: 1a92 12be 2fe6 21be fd1b 4cbe 4786 93bc
000000a0: d033 8cbe c30e 10be 7f55 3c3e 9a5d 0ebd
000000b0: c606 4e3d d39e 303d 25a6 e8bd d669 f33c
000000c0: c84b 803c 2ae0 3e3d a7b7 dfbd 3083 64bd
000000d0: 650f 433c ad05 843d 1afe b9be fda3 3cbd
000000e0: a97c 603d 4ad7 0bbd 5d54 2f3d 59fb 523e
000000f0: 3055 18be a05e 07be b45a bbbd 3353 90bd
00000100: e514 7b3c 1cd5 64be b16a edbd ca3b 80be
00000110: b17e babc d79b 9ebe 2c95 4ebe 5a6a c8be
00000120: acca 833d f92a 9abd 8ea2 19be 2320 e5bd
00000130: 63ea b33e f53b babb e236 fe3c ce01 cbbe
00000140: 5cc3 22bf 2a5d 61bd 7cd8 54be a3ff 193e
00000150: 5b9c b23c 945a d6bd df1b c4be 7d7b cfbe
00000160: fa70 083d 3ca8 64bd aad6 953e 8948 023b
00000170: ef02 283e bc84 37bd ece2 35be 3b29 3b3d
00000180: de1b 6d3e 1c75 fdbd c258 59be ded9 953d
00000190: dc32 06bf 1dfd 463e 0b66 c13d 5486 69be
000001a0: 5815 45bd 639e d53e aa3d 06bd 4fc2 593d
000001b0: 36f5 033d e51c 233e 3a51 bdbc 752c f43d
000001c0: d311 28be d1c1 90be 0494 b43e 832c 24ba
000001d0: aa16 92be 4bf6 5fbe b450 2a3e 1a5d 273d
000001e0: cb98 4d3e 0845 87be 5929 25bc 6fca a0be
000001f0: 7e9b dbbc d83a 7f3e c1c5 80be 1dcd 673e
00000200: 85cc 34be c21c 6d3d 8d6a 263d 4ffa ab3d
00000210: 1e62 a5bd ab48 aa3e ce1f bebd 7e12 95be
00000220: 5ec8 a73c 0b0e a5bb eab4 e93d 1ad8 90bd
00000230: ce93 f4bb 2ac9 a93e 1f2f 493e 2dad 28be
00000240: 71ca 42be 4676 823e 3779 db3d d8d3 82bb
00000250: 2773 18bf 9c44 003e 0177 2c3e 8ac1 adbe
00000260: dbbd a9bb d844 673e 41b6 b43d f787 1d3e
00000270: 8046 3abc 4b57 983d 7f5c f13d 5f83 053d
00000280: 42d3 e0bd 550c 37be 9aff 3cbe af62 f03b
00000290: ebe5 033c acd7 0bbd cdaa b63b 636c 67be
000002a0: 282f 70bd 9e5d b3be 1580 e5be 66c7 023e
000002b0: 9c60 1e3c f891 9abd abbf 55bf 4740 2f3e
000002c0: 2fde c63d 8dc6 68bd ba60 563d 346e 8dbd
000002d0: fc1f e6bd c23e 5c3d a9a4 a3be 7852 823e
000002e0: 77d3 71be 7b58 34bd 898b ce3c f46c 48bd
000002f0: aa5f 853e 287e 05be 00f6 d4be 4870 50bc
00000300: 4f33 b1bd fab5 89be 0966 00be 9fcd 75bd
00000310: 3692 2cbd f912 fb3d 493c 263c 9204 cabe
00000320: 8d23 a8bc 14f9 fb3c 5086 36be fa3c adbe
00000330: fb94 fe3d 064d b1be 0a88 63be bb7c 17be
00000340: 63e7 0cbd d3a1 623e 50ed 88be 430f ab3c
00000350: 0c71 d2bc 2971 6abd aa34 5d3e b5d9 6dbe
00000360: 17b3 61bf b677 343d 5dfe 67bc f4d1 40be
00000370: c6df f4bc ebf6 6abe 119f b5be 1a9f b0bd
00000380: df26 c83e 57e0 1bbf 049d 8b3e 8481 e33d
00000390: cb56 fabe e265 a1be 1ad2 193d 8c67 da3c
000003a0: da0d c1bb d953 98bd 2152 e4be cad1 3a3d
000003b0: 824d 393e 1711 023e 99fe bb3d d6d7 61be
000003c0: 8add fbbc e2a2 79be 10ac 8bbd d023 0cbd
000003d0: 34a3 20be 7c19 d83c 35d0 8fbd bb2a 82bc
000003e0: c08e 243d 006f 05be cdf1 943d ce11 e33d
000003f0: dc1f d3bc 3b47 103e e8ac 1e3c 8365 b53d
0.15951681 -0.03434356 -0.03257578 -0.16250595 0.10744605 0.03699532 0.07616036 0.102409385
-0.029184043 0.054632694 -0.036744263 0.0055251727 -0.1468915 0.049853258 -0.124728225 0.24995834
-0.3821942 0.16882819 -0.20841011 -0.038560376 -0.05382701 -0.19751629 -0.04482288 0.16123776
0.0110026635 -0.22719882 -0.09899763 0.005043018 0.058216315 -0.23993467 0.1113247 -0.48236725
-0.08464631 -0.06334415 0.12372686 -0.093102686 -0.14313546 -0.15810464 -0.19932552 -0.018008364
-0.2738328 -0.14068131 0.18391989 -0.034757234 0.05029943 0.043120217 -0.113598146 0.029713552
0.015661135 0.0466005 -0.10923701 -0.055789173 0.011905526 0.06446395 -0.36326677 -0.04605483
0.054806385 -0.034140863 0.042805064 0.20603694 -0.14876246 -0.1321969 -0.091481596 -0.07047119
0.015324806 -0.2234692 -0.115926154 -0.25045615 -0.02276549 -0.3097827 -0.20174092 -0.3914364
0.06435141 -0.07527728 -0.15003416 -0.1118777 0.3513976 -0.005683417 0.03103203 -0.39649814
-0.63579345 -0.05502049 -0.20785707 0.15038924 0.021803072 -0.10466495 -0.38302514 -0.40523902
0.033310868 -0.055824503 0.29265338 0.001987966 0.16407369 -0.04480432 -0.17762345 0.045693617
0.23155162 -0.123758525 -0.21225265 0.073169455 -0.52421355 0.19432493 0.09443291 -0.22805148
-0.048116058 0.41722402 -0.03277365 0.053163823 0.032216273 0.15928991 -0.02311002 0.11922542
-0.1641305 -0.2827287 0.35269177 -0.0006262736 -0.28532916 -0.21871297 0.16632348 0.040860273
0.20077817 -0.26419854 -0.010080659 -0.31404445 -0.026807543 0.24924791 -0.25150874 0.22636838
-0.17656143 0.057888754 0.04062896 0.08397352 -0.08075355 0.33258566 -0.0928341 -0.2911567
0.020481285 -0.0050370744 0.1141146 -0.07072468 -0.0074639088 0.33161288 0.19646882 -0.16472311
-0.19022538 0.2548086 0.10716479 -0.003992539 -0.5955071 0.12526172 0.16842271 -0.3393672
-0.0051801032 0.22584856 0.08823825 0.15383898 -0.011369348 0.07438525 0.1178522 0.03259599
-0.10977794 -0.17875798 -0.1845688 0.0073359828 0.008050422 -0.034141228 0.0055745603 -0.2259994
-0.05863872 -0.35032362 -0.4482428 0.12771377 0.009666588 -0.075473726 -0.8349559 0.17114364
0.09710347 -0.056829978 0.05233834 -0.06905785 -0.11236569 0.053770788 -0.31961563 0.25453544
-0.23615824 -0.044029694 0.02521302 -0.04893203 0.26049548 -0.13036406 -0.41593933 -0.012722082
-0.086523645 -0.2689665 -0.12538923 -0.06001055 -0.042131625 0.12259478 0.010146209 -0.39456612
-0.020524764 0.030758418 -0.17824674 -0.33835584 0.124307595 -0.34629077 -0.22219864 -0.14793675
-0.034400355 0.22132044 -0.26743555 0.0208813 -0.02568867 -0.057236824 0.21602121 -0.2322758
-0.88163894 0.044059478 -0.014159766 -0.18830091 -0.02989186 -0.22945754 -0.3547292 -0.08624096
0.39092156 -0.6088919 0.2726823 0.111086875 -0.48894343 -0.31523043 0.037553884 0.026660703
-0.005891544 -0.07437868 -0.4459391 0.045610227 0.18095973 0.12701832 0.0917942 -0.22054991
-0.030745286 -0.24378541 -0.06819928 -0.03421384 -0.15687257 0.02637934 -0.07022134 -0.015889516
0.0401752 -0.13030624 0.07272682 0.1108738 -0.025772028 0.14089672 0.009684779 0.088572524

_policy.4.bias f4 [128]
00000000: 76ed 48bb b676 373c bcbc 993d c759 9bbd
00000010: 3aaf 67bd 4534 50be 5a2b 32bd 28fa cabd
00000020: dcf8 3bbe 40aa 5fbd 4a90 563c 3120 2c3e
00000030: 27f8 babd 6c13 073c cd79 ebbc e40d 163e
00000040: 0533 8abe 9ccf 943c 517a bcbe 2ee4 3ebe
00000050: 8726 263c 82f4 ae3d 0c0f d23b c2fc fcbd
00000060: a79b 4a3d 18fa 15be 72d7 75be 9694 6cbd
00000070: 8e89 2abc a5ce 143d 6b95 0ebe b8d1 0e3d
00000080: 79de 063c 5774 553e c0b4 f2be be80 36be
00000090: 5467 cf3c 984d 86be 0797 ba3a 4795 c7bd
000000a0: 1206 1a3b 8813 ec3c 305a 77bd 77d6 48be
000000b0: bbb3 353d daab b3bd 46ed 31be cb1a 24be
000000c0: a2ec c53d 43b1 0a3e 216c 32be b9e1 bcbd
000000d0: bfae c83d b7d6 8ebe a9a6 8b3c b52c 933d
000000e0: 1358 febd 1572 ebbd 1846 dfbd 5668 953c
000000f0: b36d 11be 51da 2cbe cb10 8fbd eb32 dc3c
00000100: 6701 e33b ba71 b8bc 6972 bfbd eb7a b9bd
00000110: 3b0c 48be 122c 5dbd ee7c 55bd 43e2 12bc
00000120: eefa 50be 5f89 1cbd d7c8 ab3d c8ab 20be
00000130: d856 50bc 9a63 ad3d 44b1 d03d d2a1 2c3d
00000140: 4a40 babd c776 57bd ea24 21bd a7a7 eebd
00000150: 9861 62be ee68 863e 0ea4 6a3d 8699 02be
00000160: 8072 4abe 93bb fabd b49d 353e 4a31 a2bd
00000170: 0adf 203c abca 0abe 3830 0cbe dd77 ffbc
00000180: 6b3c 90be ac2e d33c 2a96 c83d 7936 1b3d
00000190: 9558 973d 4fab 10be c8d7 ecbd ae38 2b3d
000001a0: 14c4 34bd 7051 313e 9834 113e d35e 993d
000001b0: 69e5 b1bd c911 e63c d20d e9bb 1821 263d
000001c0: dbaa 4bbe 1281 37bd 8277 e7bd 2232 ebbc
000001d0: 7aa3 b53d 1d02 8cbe df7a a0bd becb 6bbe
000001e0: d229 b7bd 29cc febd 4e29 ccbd b6eb d0bd
000001f0: 3905 d8bc 7629 64be 534c 403d 9f3f 8b3c
-0.0030659116 0.0111977365 0.07506701 -0.07585483 -0.056563593 -0.20332439 -0.043498375 -0.09910995
-0.18356651 -0.054605722 0.013095925 0.16809155 -0.091293626 0.008244377 -0.028744603 0.14653736
-0.2699205 0.018165402 -0.3681207 -0.18641731 0.010141022 0.0854273 0.006410485 -0.12352897
0.049464848 -0.14646184 -0.24007967 -0.05775889 -0.010408772 0.036329884 -0.13924186 0.034867972
0.008231753 0.20845161 -0.47403526 -0.17822549 0.025317825 -0.26231074 0.0014235683 -0.09745269
0.0023502153 0.028817907 -0.060388744 -0.19613062 0.044360857 -0.087730125 -0.17375669 -0.16025846
0.09664275 0.13544182 -0.1742406 -0.09222741 0.09798955 -0.2789819 0.017047243 0.071862616
-0.124191426 -0.11496369 -0.10902041 0.018238228 -0.14202003 -0.16880156 -0.06985625 0.026879748
0.0069276574 -0.022515167 -0.09347994 -0.09056648 -0.19535916 -0.053997107 -0.052121095 -0.008965078
-0.20408222 -0.038216945 0.083879165 -0.1569053 -0.012716018 0.08466263 0.10190061 0.04214651
-0.090942934 -0.05260351 -0.039341845 -0.11653071 -0.22107542 0.2625193 0.05728536 -0.12753877
-0.19770241 -0.12242808 0.1773594 -0.079195574 0.009818802 -0.13553874 -0.13690269 -0.031185085
-0.28171095 0.02577909 0.097942665 0.037893746 0.073899426 -0.14127849 -0.115645945 0.0418021
-0.044132307 0.17316222 0.14180219 0.074887894 -0.08686335 0.028084652 -0.007112243 0.040558904
-0.19889395 -0.044800825 -0.11302091 -0.028710429 0.08869071 -0.27345362 -0.07835936 -0.2302694
-0.089435235 -0.12441284 -0.09968816 -0.10201208 -0.026369678 -0.22281441 0.04694779 0.01699811

_policy.6.weight f4 [128, 128]
00000000: 8969 adbe 35fb b93d 7f8c c73c 2cdb 8dbd
00000010: 0102 06be d349 ebbe a0ec 53bd ddc3 6e3e
00000020: f7d0 b8be 2a47 b9bd 90dd 6b3e 4c93 ffbd
00000030: 72c5 3dbe 052e d73d f829 57be 0b1e 2e3d
00000040: 8d01 8fbd d0ea 04bc 0d0d a03d 5bd3 ebbe
00000050: f75e 533e 1114 f13b 15af e4bb 6189 08bc
00000060: c5f1 21be 6f4d ac3d a136 1e3d 372c afbd
00000070: a2b1 75be 6eb9 e33c 7167 7b3e 0f52 833e
00000080: 4cac 6d3a 0ea5 733d d486 c83e f7c3 b5bd
00000090: bc57 ba3d 119d fc3b 4f2b df3d 15c6 a9be
000000a0: 1497 b3be e395 20be 9c9e 373d eb60 193e
000000b0: b91d 54be abb2 4ebe 21b9 cdbe 3670 38be
000000c0: 7cb1 f6bd 0abc 5cbb 94b3 f13c 8170 98bd
000000d0: 9cb8 c1bd 64ed fd3b 1cc5 33bd e936 dcbe
000000e0: 8cbd e4be 0e82 92bd cf6e 98bc 46c3 22be
000000f0: 0181 21bd addf e5bd 97f9 2ebe ade4 8bbe
00000100: 7dde 21bf 377f 903e 24a3 d43d 20b2 06bf
00000110: 9cf5 493d 4f51 243d b047 8e3c 4a8d 83bc
00000120: fc48 823e 52e8 50bd 8d43 2bbe 84da 723d
00000130: be9f a33e 26d6 79be 5fa1 8e3e f982 743d
00000140: 16c9 ecbd 2c55 18bb df3b 37be f957 8cbe
00000150: 4d97 3b3d 4235 cd3d 7b5a 10be 6ec0 b6bc
00000160: 2400 06be 889a 94be 9c5f 893e a468 7ebe
00000170: 599d e1bc 77a6 693d cdc9 57be 010e dcbe
00000180: 6d92 87be 8909 19be 63c3 14be 4daa 16bf
00000190: 086e 3fbb 46bc cbbd b6b8 b5be d370 8e3e
000001a0: fd22 d2be eace 25be 202a c83e d7d0 483e
000001b0: 47b5 9bbe 57db 8dbe 0a01 c13d 1be8 823b
000001c0: f256 96bd d58c aabc 6ffe bcbd 23e6 1a3d
000001d0: 573c 2e3d 6ccf ce3d 3072 fa3d af1f da3d
000001e0: c7a0 c73e 7bbf afbb 6c66 2d3e f693 15bf
000001f0: df61 d4be 3092 4d3c ad1d b5bd 8e53 64be
00000200: dbb4 dabd 9254 053e 572f 2dbe 7ea1 8c3e
00000210: 7fd1 acbd 5e50 f4bc 4d2f c0be 63ba df3d
00000220: 08b3 f43d 48fd 38be d448 ad3c 2725 1a3d
00000230: e3cf 5bbe 71a0 7dbd 0734 36be 12a9 c8be
00000240: 66c6 b13e 44da 3ebe 1169 dabe c4ed 19be
00000250: f121 8e3d ce4a 69be 43ea 70bd 7e99 033d
00000260: 93a8 1fbe 0c8d 60be e1d1 163e fdfd b13d
00000270: b9a9 85be c714 9ebe 04b7 6bbe 25a9 883e
00000280: e500 fbbe 6ce3 b53d 6ae7 873e 7b53 8c3c
00000290: 482b d73c 92cf 0d3c 0680 683d 5f39 373e
000002a0: bddb 7a3d 6754 03bd 7124 79bf 8d59 8f3c
000002b0: 8eff c53e dde0 a8be 20b7 6dbe c6f8 873d
000002c0: 87a7 9bbe 18f0 f43d 63e3 13bf 4c5e 3dbe
000002d0: 897e 65bd c090 a8be baa9 f83d 2df1 1abe
000002e0: c663 833c 6774 833e 024f 88be bf94 8dbd
000002f0: 9999 28be 1a38 ea3b add9 b7be 1c53 a4bd
00000300: fcf6 c3bd b2b1 863e eb29 32be 335b b03d
00000310: e4f0 c0be 6ae6 ecbe 2fce 513d b54d 7a3e
00000320: 19a4 8cbe b21a dcbc 34cf 5fbd edbb 573d
00000330: 229b 9a3e 24c1 31bf e203 aebe 07a1 153e
00000340: 1118 0fbe 3a1f 253e 9f67 b3bd 30d6 bcbe
00000350: 77ec 3f3e 2139 efbd 0921 923d 9c7e c0be
00000360: dadb ac3d e8da 05bf 633e a9bd f838 833c
00000370: c19d ad3d f8b8 1a3b e618 be3c 5079 503c
00000380: b4f8 a7bd d2f6 dcbd c94b f5bd ff13 183e
00000390: ce92 0bbf 45af 8c3d c3f8 4fbe 5d87 ac3d
000003a0: aade 873e b7ef 7dbe 2aa3 733e 3e98 383e
000003b0: 47e5 95be ae8a 17bf 0038 c63e f826 77be
000003c0: 2046 2abe f534 ad3d 213e 9ebe 123c 5bbe
000003d0: 7920 28be a38d f5bd 3654 14be f7a7 8ebe
000003e0: e2f4 e8bd 55f2 56bf dffd a43d f9e8 80bd
000003f0: 1844 84be 8b10 90be d519 8e3c fff3 53bf
-0.3386958 0.09081117 0.024358986 -0.06926569 -0.13086702 -0.4595476 -0.051739335 0.23316903
-0.36096928 -0.090467766 0.23033738 -0.124792665 -0.1853235 0.105068244 -0.21012104 0.04250912
-0.06982718 -0.008112624 0.07814989 -0.4605969 0.20641695 0.0073571284 -0.006978879 -0.008333535
-0.15814884 0.08413207 0.038626317 -0.08553355 -0.23993543 0.02779838 0.24551179 0.25648543
0.0009066507 0.05948358 0.39165366 -0.08875268 0.09098765 0.0077091535 0.10896932 -0.33158937
-0.350762 -0.15682177 0.044828996 0.14978378 -0.20714463 -0.20185344 -0.40180305 -0.18011555
-0.12045571 -0.0033681416 0.029504575 -0.074433334 -0.094590396 0.0077492464 -0.04388915 -0.43010643
-0.44675863 -0.07153712 -0.018607525 -0.15894803 -0.03942967 -0.112243034 -0.17087398 -0.27322903
-0.63230115 0.28222057 0.10382679 -0.5261555 0.049306497 0.040116604 0.017368168 -0.016058583
0.25446308 -0.051002808 -0.16724987 0.059290424 0.3195781 -0.24398097 0.2785749 0.059695218
-0.115617916 -0.0023244126 -0.17893933 -0.27410868 0.04579859 0.10019924 -0.14097016 -0.022308555
-0.13085991 -0.29024148 0.26830757 -0.24844605 -0.02754085 0.05704352 -0.21073075 -0.42979434
-0.26478902 -0.14945044 -0.14527659 -0.5885361 -0.002920987 -0.0994802 -0.35492486 0.27820453
-0.4104232 -0.16192213 0.3909464 0.19610916 -0.3041174 -0.27706406 0.09424026 0.0039949543
-0.07340802 -0.020819107 -0.09228217 0.03781713 0.042538013 0.10098156 0.12228811 0.106505744
0.3898985 -0.0053634024 0.16933602 -0.58428895 -0.4148092 0.012547061 -0.08843551 -0.22297499
-0.10679027 0.13020542 -0.1691259 0.2746696 -0.08438396 -0.029823478 -0.37536088 0.10924222
0.1194821 -0.18065369 0.021152891 0.037633087 -0.21466021 -0.061920587 -0.17793284 -0.3919149
0.34721678 -0.18637949 -0.42658284 -0.15032107 0.069400676 -0.22782442 -0.05881716 0.032128803
-0.1559165 -0.21928805 0.147285 0.086910225 -0.2610605 -0.30875227 -0.23019034 0.26691547
-0.4902412 0.08881268 0.26543742 0.01712965 0.026265755 0.008655446 0.056762718 0.17892979
0.061244715 -0.032062914 -0.9732123 0.017498756 0.38671535 -0.32984057 -0.23214388 0.06639247
-0.3040125 0.11959857 -0.5776884 -0.18493003 -0.056028876 -0.32922935 0.12141748 -0.15131064
0.016038787 0.25674745 -0.26622778 -0.06913137 -0.16464843 0.007147801 -0.3590826 -0.08023664
-0.09568593 0.26307446 -0.17398803 0.08611145 -0.37683785 -0.46269542 0.051222023 0.24443705
-0.27468947 -0.026868198 -0.054640964 0.052669454 0.30196482 -0.69435334 -0.33987337 0.14612208
-0.13974024 0.16125193 -0.087599985 -0.36882162 0.18742548 -0.11680818 0.07135207 -0.37596595
0.08440371 -0.5228715 -0.082638524 0.016018376 0.08477355 0.0023608785 0.023205232 0.012724236
-0.08201733 -0.10789265 -0.119773455 0.14851378 -0.5452088 0.068693675 -0.20309739 0.08424256
0.26537067 -0.24798475 0.23792711 0.18026826 -0.29276487 -0.59195983 0.387146 -0.24135959
-0.16628313 0.084573664 -0.30906776 -0.21409634 -0.16418637 -0.11989906 -0.14485249 -0.27862522
-0.11374833 -0.8396352 0.080562346 -0.06294436 -0.258332 -0.2813762 0.017346302 -0.82794183

_policy.6.bias f4 [128]
00000000: b942 c7bd 5463 88be 4718 e93d 6d2d 263e
00000010: 9b22 933d 5f31 d33d 6c4f 583d 1534 c3bd
00000020: 0070 f23d 5806 9e3c bd8c 443d 900e 663d
00000030: 8457 a73d 1cb5 a6bd a8d9 d93d 987f 513e
00000040: 56c8 bc3d 28b5 d83d 315c 34be 4763 79bd
00000050: 89f4 f33d 0b89 373e 8cd8 0b3e e3dc bd3d
00000060: 8c21 243e efc4 fd3d 5be1 0a3c b895 0b3e
00000070: c63b 043c 69f0 a7bd d6c2 693c f731 34be
00000080: 9799 d73d 454c adbd b6fd 203e 291c f73d
00000090: b27d 3cbd f73c c43d 1c92 6a3d bee1 0e3d
000000a0: d241 8dbd f324 47bd 6fc6 833e 182a c1bb
000000b0: da77 013e 5cb3 57be 4924 1c3e 6249 023e
000000c0: 3462 213e 18e8 f0bd 4c63 143e 5fbe 073d
000000d0: ca87 dfbc 65c0 23bd 16bb 393d 6d73 423e
000000e0: f424 133e 752b c03e f845 333c adc3 793d
000000f0: 6f87 42b9 a0cc a63d e733 c8bd 0ce2 393e
00000100: d251 833c 25b0 9a3d 71a1 323e 72de 433e
00000110: 639d 563d ef0c d73d d5d7 04be 4c2d af3d
00000120: 7dcb c4bd 7678 123e 8d7a 923b 9b9d b13d
00000130: 6fdc 283e 2fc9 39be d15a 1b3d 4905 29bc
00000140: 4024 de3d 09cf 9a3b 3eb6 64be e29c 32bc
00000150: 449d 3f3e c202 e23d 029f 25be bccd 9c3d
00000160: a8f9 ff3d c9d7 1b3e a6f1 1b3d 9be8 a73e
00000170: 9ac8 3a3e fe33 b13d 627c 33bd d00f b03c
00000180: 09d3 39be dbc7 1e3e 320b a33d 18a5 233d
00000190: 59ad 0fbe 83eb 0b3e 9e59 7f3d 56f2 263e
000001a0: 7c99 37be 3568 20bb 09c9 b73d 91a6 083d
000001b0: f4cb afbe b6da 863e 4093 603e a515 5ebc
000001c0: e10b 193d aef0 1dbe 8a5d f8bc 9512 eb3d
000001d0: e6e7 a83b de6b 053e b9ca a8bd f574 e23d
000001e0: 45d7 273e b751 943e b6b7 0b3e 4f2f 2dbe
000001f0: 1183 573e aeb6 72bc 77d0 3fbd 8d97 d83d
-0.09729523 -0.2663828 0.11381584 0.16228266 0.07184335 0.10312151 0.052810118 -0.09531418
0.118377686 0.019290134 0.04798578 0.05616623 0.08170989 -0.081400126 0.10637218 0.2045883
0.092178985 0.10581428 -0.17613293 -0.060885694 0.11911876 0.17923371 0.13656825 0.092706464
0.16028422 0.12391078 0.0084765805 0.13631332 0.008070892 -0.082001515 0.014267644 -0.17597185
0.10527342 -0.08461813 0.15721783 0.12065918 -0.04601831 0.095819406 0.057268247 0.034883253
-0.0689732 -0.048619222 0.2573733 -0.0058949105 0.12643376 -0.21064514 0.15248217 0.12723306
0.15760118 -0.11763018 0.14491004 0.033140536 -0.027286429 -0.039978404 0.045344435 0.18989344
0.14369565 0.37533155 0.010941975 0.060977627 -0.00018551735 0.08144498 -0.097755246 0.18152636
0.016030226 0.07553128 0.17444398 0.19127825 0.05239619 0.10500514 -0.12972958 0.085535616
-0.09609125 0.14303765 0.0044701756 0.08672639 0.16490339 -0.18143152 0.037928406 -0.0103162015
0.10846758 0.0047243875 -0.22335145 -0.010901662 0.18712336 0.11035682 -0.16173938 0.07656428
0.1249879 0.15219034 0.03807225 0.3279465 0.18240586 0.08652495 -0.043819793 0.021491915
-0.1814691 0.15505926 0.0796112 0.039952368 -0.1403097 0.1366406 0.062341325 0.16303381
-0.17929643 -0.0024476175 0.08973891 0.033361975 -0.3433529 0.26338738 0.21931171 -0.013554965
0.037364844 -0.15423843 -0.03031804 0.114781536 0.0051545976 0.1302943 -0.08241791 0.11057464
0.16390713 0.28968593 0.13644299 -0.16912578 0.21046092 -0.014814062 -0.046829667 0.10575781

_policy.8.weight f4 [3, 128]
00000000: 6fee e73c 2eb1 393e 8ec8 e4bd 5446 1abf
00000010: 399f b2be 34c8 33be e9ee 05bf d3bc debd
00000020: d2d3 113f bf66 eebd 7550 a43e 4b72 203f
00000030: 90dc 02bd 8745 3e3c b429 6bbf 8506 d6bd
00000040: bf74 9d3e 2f0b ba3e f55a cfbe 7d78 6dbd
00000050: ad53 39be 3048 28be 8924 b13c b5de 963e
00000060: 88bc f9bd 71a4 a7be a85a 233e c891 05be
00000070: 5833 04bf 4246 fc3e 6f2f cebd 99ce 0f3d
00000080: d210 4cbe 9538 25bd b726 6cbe 4277 ea3e
00000090: f5e4 f4be 418f ab3e 14ce 43be 2001 a3bd
000000a0: a7e5 fc3e 9f05 fb3c e0d2 b9bd 14c8 083f
000000b0: 7a1e a13e 1a5a ecbe ed9c 9a3f 3c67 bc3e
000000c0: 7b85 2abe 3c80 e7bd de55 803e d8f6 5fbe
000000d0: 5199 9bbe fa01 5d3e 0dbf 893d 8a86 62be
000000e0: 1455 a1bd 721f e5be 6cb6 b73d a645 bc3e
000000f0: c6f2 c03d 7657 f2bd 982b 2fbf 88e5 10be
00000100: 76d6 a93e 55bd a43e f019 ea3e df30 13be
00000110: bf3b 073f ed57 07be adb0 ea3e 412a 4e3c
00000120: ab94 b4be 78a8 113f 669e 003f eb98 a63d
00000130: 9472 48be 67da f73e 03f6 5dbd 45bd a53e
00000140: 3274 9dbd 2205 44be 854c 31bf 27da ccbd
00000150: 753c a1be 47f0 f63e e6a9 33bf fb5e d2bd
00000160: 17f9 10bf 872b a23e 11e3 36be ceeb 90be
00000170: ffdb 6dbe 2d46 08be 666d 063f 04b0 de3e
00000180: e5fb d13d 4ef3 d8bd 259f 323e 40e5 c4be
00000190: 465f dd3c b356 dfbd 7e4e 34be 18d5 d5be
000001a0: d781 dfbd fc27 8a3e ab28 dfbe d4d7 393f
000001b0: fa18 c93e 0f39 0d3f 1211 28be 84a9 4c3e
000001c0: 5b68 c5be de5f cfbd 852a 943d bfc1 58bc
000001d0: 604a 80be e9ef c5be 632c eb3e 0b9c 54bd
000001e0: 960d a53e fd3e 62be 1a4d 6cbe c0f9 e03e
000001f0: 0378 b73e aaaa 423e 7f03 d03d ccb6 bfbd
00000200: c354 8a3e 2213 ad3e 4564 9bbd 88d9 163f
00000210: c73e a63e 59d7 a5bb 1649 af3e 2cd4 023f
00000220: 88a0 d6be 8253 e23e 97b7 cf3c 227c 52be
00000230: e950 0ebe 6356 3c3e b389 793f 39fa 38be
00000240: d28e d4be 7062 3cbe 69e4 c73e 36e9 ab3e
00000250: f01d fe3e 06cc ae3e e44f a5be 317e 09be
00000260: f1fa 8bbe 3aee 593e b538 82be 0bab cbbe
00000270: a696 be3e 649f 03bf 2289 903e b99e 293d
00000280: 72db 953e d868 52be 77e9 55bf 130e 15be
00000290: 46bb 19be cfcf cdbe c567 143f cfae d1bd
000002a0: a30d f4bc a616 cb3d 7389 033f aa21 20bf
000002b0: 2ba7 8cbe 0a63 043f 3d1a 69bf 9755 68be
000002c0: b072 7ebd 4577 273f 3b8a 84bd 2fb9 8d3e
000002d0: 258a 863e a80d 83bd e297 c93e e9a1 4cbe
000002e0: 4da2 ae3e 23df ea3e e170 183e 506c c9bd
000002f0: 3fcc 2b3e 0d53 04be 3e8d 143f 57cd b93e
00000300: ecc7 0ebf 6d06 07be e0ab cd3b 6b4f a33e
00000310: f1b8 8cbd 2c1e 06bf b049 753e 2f2f f03e
00000320: 8d08 74bd 94b4 03bf 6514 a23d 8e54 91be
00000330: 1e97 bf3e a260 09bf 5c61 89be d962 acbe
00000340: a688 b1be a503 cbbd 44f3 f83e 4c49 923e
00000350: ac7b dd3e 8bfe babd 3747 803e 6a0f 37bd
00000360: 2f0b 183f a472 90be 368d 2b3e 2db0 89be
00000370: bfbb 88be 3741 76be 2b68 f8be 9f95 90bd
00000380: b2c6 0abf 7e18 003f 6d63 40bd 847d 0c3e
00000390: 67eb 5cbf a023 9dbe 45a6 853b 543b 403d
000003a0: 3e4c f1bd 2020 1cbd 61bd cbbc 71c9 5fbf
000003b0: 85c1 aa3e b959 0dbf 870e 513d fd11 8fbe
000003c0: 9cb3 c03e b27b 073f c0e1 8f3d 7fd9 6c3e
000003d0: 2179 21bd a5b3 aa3d 858f 8dbf e1dc a9be
000003e0: 0c63 a8be 13f0 963e b248 0f3f 0139 ffbe
000003f0: 6d71 91be a7fe a1bc d5c9 9f3e 458d 93be
0.028311936 0.18133995 -0.11171065 -0.6026356 -0.34887102 -0.1755684 -0.5231767 -0.10875859
0.5696384 -0.11640691 0.32092634 0.626744 -0.031948626 0.011613256 -0.9186051 -0.10450462
0.30753133 0.36336657 -0.40499082 -0.057976235 -0.18098326 -0.16433787 0.021623867 0.29466787
-0.121941626 -0.32742646 0.15952551 -0.13043892 -0.51640844 0.49272352 -0.10067641 0.035109136
-0.19928291 -0.040337164 -0.23061644 0.45794111 -0.4783093 0.33507732 -0.19121581 -0.07959199
0.4939396 0.030642329 -0.09073424 0.53430295 0.31468564 -0.46162492 1.207914 0.36797512
-0.16652481 -0.11303756 0.2506551 -0.21871507 -0.3039041 0.21582785 0.06725893 -0.22121635
-0.078775555 -0.44750553 0.08970341 0.36771888 0.09421305 -0.11833088 -0.68425894 -0.14150059
0.33171433 0.321757 0.45722914 -0.14374112 0.5282554 -0.13217135 0.45837918 0.012583316
-0.35269675 0.5689769 0.50241697 0.081346355 -0.19574958 0.48408815 -0.054189693 0.32370964
-0.07688178 -0.19142583 -0.69257385 -0.10002547 -0.31491438 0.48230192 -0.7018112 -0.10272022
-0.5663008 0.31673834 -0.17860056 -0.28304905 -0.23228453 -0.1330802 0.5251068 0.43493664
0.10253123 -0.10593282 0.17443521 -0.38456154 0.027022969 -0.109052084 -0.17608067 -0.4176414
-0.10913437 0.2698363 -0.43585715 0.7259495 0.39276868 0.5516519 -0.16412762 0.1998654
-0.3855618 -0.10125707 0.072346725 -0.013229786 -0.25056744 -0.386596 0.45932302 -0.051906627
0.32236928 -0.2209434 -0.23076287 0.43940544 0.3583375 0.19010416 0.10156917 -0.093610376
0.27017793 0.3380366 -0.07587484 0.58925676 0.3246977 -0.005061072 0.34235448 0.51105
-0.4191935 0.44204336 0.025356097 -0.20555165 -0.13898052 0.18392329 0.9747574 -0.18064202
-0.41515213 -0.18396926 0.3904145 0.33576363 0.49632215 0.34140033 -0.32287514 -0.13427044
-0.2733989 0.21282282 -0.2543389 -0.39778933 0.3722431 -0.51415086 0.28229624 0.041411135
0.29268986 -0.20547807 -0.83559364 -0.1455615 -0.15012845 -0.40197608 0.5797084 -0.1023842
-0.029791659 0.09916429 0.51381606 -0.6255137 -0.2747129 0.5171362 -0.9105566 -0.226889
-0.062121093 0.65416366 -0.06471678 0.27680346 0.2627727 -0.06399089 0.3937369 -0.19983639
0.341082 0.45873365 0.1488681 -0.09835112 0.16777132 -0.12922306 0.5802802 0.36289474
-0.55773807 -0.13186045 0.0062765926 0.3189653 -0.06871212 -0.5238979 0.23953891 0.46910998
-0.059578467 -0.51447415 0.07914046 -0.28384823 0.3741998 -0.53663075 -0.26832092 -0.33669165
-0.34674567 -0.099128045 0.48623097 0.28571546 0.43258417 -0.091305815 0.25054333 -0.044692434
0.59392065 -0.28212464 0.16753086 -0.26892224 -0.2670574 -0.24048315 -0.48516974 -0.07059788
-0.54209435 0.5003737 -0.04696982 0.13719755 -0.86296695 -0.30691242 0.0040786588 0.04693158
-0.1178212 -0.038116574 -0.024870576 -0.8741675 0.3335077 -0.5521503 0.051039245 -0.2794341
0.3763703 0.5292312 0.0702548 0.23129843 -0.03942216 0.08335046 -1.1059424 -0.3317633
-0.32888067 0.29480037 0.559703 -0.49848178 -0.2840685 -0.019774748 0.31208673 -0.28818718

_policy.8.bias f4 [3]
00000000: 4bec d53c 8dcd 99bd 3b16 0d3d
0.02611365 -0.07509909 0.03444503

_value.0.weight f4 [128, 22]
00000000: 0949 813d 9182 2b3e 9eee 17be 7ff2 1a3d
00000010: 18b2 ec3c 85ea 2cbe 2372 9e3d cc30 4abd
00000020: b387 283e 9597 3abe 82b1 0bbd f392 243e
00000030: a7da 903d 3e58 5cbd 3d94 42bd b7d6 2d3d
00000040: a02f e3bc 611b 2d3e f6a2 2339 0f67 d23d
00000050: df54 a03d 0410 a1bd c38a 23be 990e 0dbe
00000060: ffc4 87bd ad6a 55bd 8cc6 193d 437f 1fbe
00000070: 5050 a3bd 2979 033e f99f 72bc 27e0 9fbd
00000080: 047b 17be 60b7 6dbd 3e74 1ebe 6921 303e
00000090: da37 e43d 0597 293e 93ae 15be 70ab 32be
000000a0: 6bd1 683c 727e 69be 1cf6 ecbd 3e5b 3e3d
000000b0: 06e5 d8bc 9408 00bd bda9 7fbd a072 17be
000000c0: a9a8 253e df6b 253e aaa5 d9bd e7e0 323e
000000d0: 45ed 073e 6056 903d d6c3 373e 4692 193e
000000e0: a70c 25be 4252 53be b6a6 11be 59bc 57be
000000f0: c5b7 0abe 4616 62bc 9dbe 6cbd c7af c3bd
00000100: 6a08 1abe 056d a83d fbd8 ebbd edde 353d
00000110: c90d 633b 1c1e 56be 49ed 1bbe 8fd0 573d
00000120: c730 923d 4fe0 103d 89d0 843c 29c6 e9bd
00000130: 5d46 e83d f5f7 233d 7eac 8d3e b2f4 b53b
00000140: aaca 163e ec01 d8bc b6c5 013c 88a8 26bd
00000150: e588 ddbd 67d2 973d cbe0 aabc 9527 8b3e
00000160: 7a37 0abe f96a 7b3e 6ee9 6ebe 081c a53d
00000170: 2fa3 b23c 2747 c23d d455 d43c 5423 ab3d
00000180: 641f 96bd cd0f b1bd 009f 3cbe e27e c2bd
00000190: 3cf7 653d 9849 873d 93e8 abbd 12f9 a2bd
000001a0: 2e7e 68bd de42 873d 054e 50bd 9d12 8e3c
000001b0: 4293 0b3d 3a65 cfbc 74f3 46be 5fd6 6c3e
000001c0: 2ed2 053e da5a e1bd cc36 013e 540a 0bbe
000001d0: 09d6 1d3e 6577 133d 83f5 9f3d c972 b23c
000001e0: 5ee0 04be a4eb ab3d da49 143e c25c ea3d
000001f0: 3199 363e 7876 d03d 83f8 a53a 37e9 23be
00000200: 5fbe 573b 6e34 0abe 51b3 b4bd d843 37be
00000210: 3ca4 af3d ce48 333e f04b debd 60ee 2e3e
00000220: 74e5 3abd 3f7e 30be 9fec c13c 0881 04bd
00000230: 03b1 873d baeb 5abd ac8a 4abe d1e8 60bd
00000240: 1ce1 14be 9be6 363e ef71 3cbe 1d39 f03d
00000250: 595f 7b3d f9c7 cfbd 0096 cf3d 3beb 3abe
00000260: 5ea5 28be 7c10 a73c acae adbd 9741 0cbe
00000270: 9be3 aa3b 8272 26be 6cd5 ca3d 5bb0 133e
00000280: f781 db3d 2573 893c 93d3 d4bd c561 2b3e
00000290: fd57 a2bc 2e1e 15be 1671 5d3d 62bb 47be
000002a0: 2af6 9d3d d51a fcbd e9ba 673c 89da cdbc
000002b0: e23c 62be d068 253d 554c 1c3e 10a7 f53d
000002c0: ab12 de3d d620 3bbe 86d3 8ebd fa21 e5bd
000002d0: 2840 aebd 0a26 d03c 4759 f03d b0a3 283e
000002e0: 338e 0cbd a34f 3e3e 1b9e 49bd 71be 0ebe
000002f0: fd6a 033e e7ee 06be 2e45 54be 6f17 31be
00000300: 4d47 263e 4f8c e53b 2249 533c 7aa5 cbbd
00000310: c986 5fbe f6e9 253e 8cbe 60bd b18c df3d
00000320: 139e 9f3d 5799 06bd 2e0e 3a3d 8d29 a6bd
00000330: 9a42 433d a312 29be 4f60 04bc 2521 b93d
00000340: 8f38 9cbd 2fee 4c3e 989e 17be f30b 3bbe
00000350: a406 fc3d ae79 a3bd 335d 64bd ead9 4abe
00000360: ec4f 51be 340f 183a c5be b13c c321 833d
00000370: 339b 153e 72e5 1fbe 7d0c 25bd b620 0e3e
00000380: 65be 063e 6737 a5bd e201 47bd a267 8a3d
00000390: 7fd7 0d3e f88d 9a3d 0e46 213d 0584 2ebc
000003a0: 6372 903d 4635 7f3c dca6 913c d995 ab3d
000003b0: 34be 13be b656 e0bc 2cd0 2d3e 824d afbd
000003c0: c346 8ebc 4ae6 41be 9f74 52bd 7c9c 2cbd
000003d0: dd95 77bc 3e81 aabd 1cc7 1ebe 615e 04be
000003e0: 0d2a 76bd 26ba e6bc c0b3 183d 7351 f23b
000003f0: 3ca7 0b3e 4a28 043e 2942 073e 91c5 193e
0.063127585 0.16749026 -0.14837119 0.03782892 0.028893515 -0.16886337 0.077366136 -0.049362943
0.16458015 -0.18221886 -0.03410483 0.16071682 0.070729546 -0.05379509 -0.047504652 0.042441096
-0.02773267 0.16904975 0.00015605599 0.10273563 0.07828688 -0.07864383 -0.15970902 -0.137751
-0.06629371 -0.052103687 0.037542865 -0.1557589 -0.07974303 0.12839188 -0.014808648 -0.078064255
-0.1479302 -0.05803621 -0.1547403 0.17200245 0.11143465 0.16561516 -0.14617376 -0.1744821
0.014210085 -0.22802141 -0.11570379 0.046473734 -0.026476394 -0.03125818 -0.062417734 -0.1478982
0.1617762 0.16154431 -0.10627301 0.17468606 0.13274105 0.07047725 0.17945799 0.14997205
-0.16118108 -0.20636848 -0.14223751 -0.21067943 -0.13546665 -0.013799256 -0.05779897 -0.09555011
-0.15042272 0.08223919 -0.11515995 0.04440205 0.0034645668 -0.20909923 -0.15227236 0.05268913
0.0713821 0.035370167 0.016212719 -0.11414749 0.11341546 0.040031392 0.27670664 0.0055528516
0.14725748 -0.026368104 0.007920673 -0.040688068 -0.10817126 0.07413178 -0.020859143 0.27178636
-0.13497725 0.24552526 -0.23331234 0.08061987 0.021806328 0.094862275 0.025919832 0.08356348
-0.07330206 -0.08645592 -0.18420029 -0.09496857 0.056143984 0.06605834 -0.083939694 -0.07957663
-0.05676096 0.06604551 -0.050855655 0.01734286 0.034075983 -0.025316823 -0.19428807 0.23128651
0.13068458 -0.11003657 0.1261856 -0.13578159 0.15413679 0.036002535 0.078104995 0.02178325
-0.12976214 0.08394554 0.14481297 0.114434734 0.17831875 0.10178846 0.0012662563 -0.16006933
0.0032919866 -0.13496563 -0.088232644 -0.17896974 0.08576247 0.17508242 -0.10854328 0.1708312
-0.04562898 -0.17235659 0.0236724 -0.032349616 0.06625559 -0.053447463 -0.19779462 -0.05490953
-0.14538997 0.17861407 -0.18402837 0.117296435 0.061370227 -0.10145564 0.10136032 -0.18253796
-0.16469333 0.020393603 -0.08480582 -0.13696896 0.005215121 -0.16254619 0.09903988 0.14422743
0.10718148 0.016778538 -0.10391917 0.16736515 -0.019817347 -0.14562294 0.054062925 -0.19505075
0.07712968 -0.12309805 0.014143684 -0.02512862 -0.22093537 0.04038316 0.15263493 0.11994755
0.108434044 -0.18274245 -0.06973939 -0.11188121 -0.085083306 0.025408763 0.11735778 0.16468692
-0.0343153 0.18585066 -0.049223047 -0.13939835 0.12833782 -0.13177072 -0.20729515 -0.17294095
0.16238137 0.0070052515 0.012895854 -0.099436715 -0.2182876 0.1620253 -0.05486922 0.10915507
0.07793822 -0.03286108 0.04542368 -0.08113394 0.047670938 -0.16511016 -0.008079602 0.09039525
-0.07627975 0.20012735 -0.14806592 -0.18266277 0.12305954 -0.07982193 -0.055752944 -0.1980969
-0.20440644 0.0005800605 0.021697411 0.06402924 0.14609985 -0.1561487 -0.040295113 0.13879666
0.13158567 -0.08067208 -0.04858578 0.06758048 0.13851736 0.0754661 0.03937345 -0.010651593
0.070530675 0.015576666 0.01777976 0.083781905 -0.14428025 -0.027385097 0.16973943 -0.08559705
-0.017367726 -0.18935505 -0.05138075 -0.042141423 -0.015111414 -0.08325432 -0.15505642 -0.12926628
-0.060098697 -0.028164934 0.037280798 0.0073949634 0.13638014 0.12905994 0.13208832 0.15016772
