logs/weight_colliion_obj_obs = 0.4/model/model_460.pth (torch, 427625 bytes, 19 tensors)

_policy.0.weight f4 [128, 22]
0	0xbeb1e5ff	-0.34745786
1	0x3c88c292	0.01669434
2	0x3de16957	0.1100642
3	0x3ecc3df0	0.39891005
4	0xbed97540	-0.42472267
5	0xbe982114	-0.29712737
6	0x3de16d20	0.11007142
7	0xbd00447a	-0.031315304
8	0x3f0c91f3	0.549102
9	0x3ea139b4	0.31489336
10	0xbc710257	-0.0147100305
11	0x3e374a53	0.17899446
12	0x3e1e4fed	0.15460177
13	0x3e995b65	0.2995254
14	0xbc0b51fe	-0.008503435
15	0xbdba4777	-0.09095662
16	0xbdf18e1b	-0.117946826
17	0x3dc31ed4	0.095273644
18	0x3d92fe2e	0.07177387
19	0x3df244cf	0.118295304
20	0xbdc33fe7	-0.09533673
21	0xbe985554	-0.297526
22	0xbe9e19f2	-0.3087917
23	0xbea87e87	-0.32909033
24	0x3e8815be	0.26579088
25	0x3f4e52ef	0.80595297
26	0x3d397061	0.04527319
27	0xbe24d04b	-0.16095082
28	0x3e26109b	0.16217272
29	0xbd3b09fc	-0.04566382
30	0xbf363d03	-0.71186846
31	0xbcd4a7f9	-0.025959002
32	0x3e8df3d5	0.27725092
33	0x3e387a61	0.18015434
34	0x3e96963d	0.29411498
35	0x3dae3b63	0.08507421
36	0x3e1757fc	0.14779657
37	0xbe009ed0	-0.12560582
38	0x3c955c61	0.018232526
39	0xbe815752	-0.25261933
40	0xbe851cb1	-0.25998452
41	0x3ceac892	0.028660093
42	0x3d82bc7c	0.06383607
43	0xbd198497	-0.037479963
44	0xbf059cab	-0.5219218
45	0xbccbcf7b	-0.024879208
46	0x3e912996	0.2835204
47	0xbd0c9f23	-0.034331452
48	0xbe2d62f0	-0.16932273
49	0xbc8f7947	-0.017513884
50	0x3cbc804a	0.023010392
51	0x3dae8bd5	0.085227646
52	0x3fa0be9a	1.2558167
53	0xbeb55e84	-0.35423672
54	0x3e890cfe	0.26767725
55	0x3db038bb	0.086045705
56	0x3e90c4a4	0.28275025
57	0x3e898fe5	0.26867595
58	0x3da6024b	0.08105906
59	0x3e1bd85b	0.15219252
60	0xbe22278c	-0.15835398
61	0x3dd7f0a3	0.10543945
62	0xbcf8cf10	-0.030372173
63	0xbd8947cd	-0.06703148
64	0xbe044115	-0.12915452
65	0xbdc7f7bb	-0.09764048
66	0xbe0ed304	-0.13947684
67	0xbf190054	-0.59766126
68	0xbe0e0170	-0.13867736
69	0x3eec259c	0.46122444
70	0xbdba0538	-0.09083027
71	0xbeb94669	-0.3618653
72	0x3e4d5ed1	0.20055701
73	0x3e06f12d	0.13177939
74	0x3c98142b	0.018564304
75	0x3ef777ca	0.4833358
76	0xbd4861cc	-0.04892139
77	0x3e114fb9	0.14190568
78	0xbe1e02da	-0.15430775
79	0x3eed51e3	0.46351537
80	0xbe574061	-0.21020652
81	0xbdd7c1ee	-0.10535036
82	0xbe300559	-0.1718954
83	0xbc4c0ae1	-0.012453766
84	0xbe83ad75	-0.25718275
85	0x3e940b2b	0.2891477
86	0x3dffa93e	0.12483452
87	0x3e075d14	0.132191
88	0x3f856b53	1.0423378
89	0xbeec56bd	-0.46159926
90	0xbdd76069	-0.10516436
91	0x3e00ad62	0.1256614
92	0x3f30e457	0.6909842
93	0xbf0122c8	-0.50443697
94	0xbeb85cb5	-0.3600823
95	0xbf142e49	-0.57883126
96	0xbf139e9d	-0.576639
97	0x3ebc1a93	0.36739025
98	0x3e0193c4	0.12654024
99	0xbdde7c58	-0.108635604
100	0xbe4478c0	-0.19186687
101	0x3d39b4a7	0.0453383
102	0x3c857ec9	0.016295807
103	0x3e23c42f	0.15992807
104	0x3df1a190	0.11798394
105	0x3d8416fa	0.06449695
106	0x3dc14cbc	0.09438464
107	0xbe0810fe	-0.13287732
108	0xbdbd4792	-0.092421666
109	0xbd39f2f4	-0.045397714
110	0xbf3298bf	-0.6976432
111	0x3f65d7c4	0.8978236
112	0x3e8fe147	0.2810156
113	0xbf0d7c67	-0.5526795
114	0xbe98acb8	-0.29819274
115	0x3eef5c4b	0.467501
116	0x3e24d57c	0.16097063
117	0x3e0bb45d	0.13643022
118	0xbc03542a	-0.008015672
119	0xbf4d8a89	-0.8028951
120	0xbeaece9a	-0.34142
121	0xbe412a05	-0.18863685
122	0xbea44c5f	-0.32089517
123	0x3ca4a156	0.020096462
124	0xbcaf6c51	-0.021413954
125	0xbd07c88b	-0.033150237
126	0x3e3944d6	0.18092665
127	0x3d2f2590	0.04276043
128	0xba305744	-0.0006726871
129	0xbdd4c27b	-0.10388657
130	0xbc8f9249	-0.017525809
131	0x3de22e1c	0.11043951
132	0xbdca0de3	-0.0986593
133	0x3ce9aefd	0.028525824
134	0xbdcc3883	-0.09971716
135	0x3eb13852	0.3461328
136	0x3ed721cb	0.4201797
137	0xbe1dbc95	-0.1540397
138	0xbf2eba5c	-0.6825311
139	0x3df45900	0.11931038
140	0x3f0a06e3	0.5391676
141	0xbf220fff	-0.6330566
142	0xbda1285e	-0.078690276
143	0xbe2df4b3	-0.16987877
144	0xbf29a3df	-0.6626567
145	0x3e02e395	0.12782128
146	0xbd3a7ef7	-0.04553124
147	0x3cb91637	0.0225936
148	0xbdc4511e	-0.095857844
149	0xbdb57ca5	-0.08861665
150	0x3eb0a6a9	0.34502152
151	0xbe2bee6f	-0.16790174
152	0x3e639ef4	0.22228605
153	0xbdcc1611	-0.09965146
154	0xbeae56b1	-0.34050515
155	0xbe3b8085	-0.18310745
156	0xbda1519c	-0.07876894
157	0x3f512a5b	0.81705254
158	0x3ea11a8f	0.31465575
159	0x3e44a899	0.1920494
160	0xbe0c0d5d	-0.13676973
161	0xbeca1c11	-0.39474538
162	0xbf54a76f	-0.83067983
163	0x3f32c00d	0.69824296
164	0xbc5c21b1	-0.013435767
165	0xbe4f88d5	-0.20267041
166	0xbda87cd8	-0.08226937
167	0xbba2d3cc	-0.004969096
168	0xbe07c40d	-0.13258381
169	0x3dabfad3	0.0839745
170	0xbda29144	-0.079378635
171	0xbe3a6b1d	-0.18204923
172	0x3d9753b8	0.07389015
173	0x3ceaa66e	0.028643813
174	0xbd559c5c	-0.05215107
175	0x3e39386e	0.18087932
176	0x3e1dda6a	0.1541535
177	0xbe510f26	-0.20415935
178	0xbdbf7c7b	-0.09349915
179	0x3e848066	0.2587921
180	0x3f0d1562	0.5511075
181	0x3dc99df7	0.098445825
182	0xbe76f830	-0.24118114
183	0x3d29b19c	0.041429147
184	0x3fbf9c69	1.4969608
185	0x3f45cc50	0.7726488
186	0x3c88cba1	0.01669866
187	0xbbf4672b	-0.0074585876
188	0x3dae3854	0.085068375
189	0x3e115f1a	0.14196435
190	0x3e4d92b0	0.20075488
191	0xbe3056e8	-0.17220652
192	0x3e497304	0.19672781
193	0xbdf1c041	-0.11804248
194	0xbda7b31a	-0.08188458
195	0x3d472019	0.048614595
196	0xbdb4a997	-0.08821409
197	0x3d6662a0	0.0562464
198	0x3e90be37	0.28270122
199	0x3f129b76	0.57268465
200	0xbef0285e	-0.46905798
201	0xbf58ddc4	-0.8471339
202	0xbe867237	-0.26259014
203	0x3f01aa60	0.50650597
204	0xbe9515d1	-0.29118207
205	0xbf111632	-0.5667449
206	0xbf248435	-0.6426423
207	0x3e269523	0.16267829
208	0xbdc3ab50	-0.0955416
209	0x3e911ac1	0.28340724
210	0x3ea231fa	0.31678754
211	0xbdf6c324	-0.12048939
212	0x3c1009e5	0.008791422
213	0x3da85276	0.08218853
214	0x3dd20097	0.10254019
215	0xbe4dca1a	-0.20096627
216	0x3b937099	0.0044995067
217	0x3dd052b0	0.101720214
218	0xbe067dfd	-0.13133998
219	0xbe615d78	-0.22008312
220	0xbedbfcd4	-0.4296633
221	0xbe79f90f	-0.24411415
222	0x3e4083c8	0.1880027
223	0xbd8f9ffb	-0.07012936
224	0xbf0c0c02	-0.5470582
225	0xbe743dc9	-0.23851694
226	0x3cde93d8	0.027170107
227	0x3e7994f9	0.24373235
228	0x3fa19b08	1.2625437
229	0x3e9ddb0d	0.30831185
230	0x3dceefe4	0.10104349
231	0xbe698ff0	-0.22808814
232	0x3cfc1921	0.030773701
233	0x3dc4adb5	0.096034445
234	0xbc455fd7	-0.012046776
235	0x3dd9c9a2	0.106341615
236	0x3e2b74cc	0.16743773
237	0xbd18bfb7	-0.03729221
238	0xbdfdfe18	-0.1240198
239	0x3c81a213	0.015824353
240	0xbe03a4cb	-0.12855832
241	0xbbf61fb0	-0.0075111017
242	0xbd75282e	-0.05985277
243	0x3e1487a5	0.1450487
244	0xbf46bd1a	-0.77632296
245	0xbd09cbc2	-0.033641584
246	0xbe8fd799	-0.28094175
247	0x3d16af5c	0.03678833
248	0xbd01bb90	-0.031673014
249	0xbe887654	-0.26652777
250	0xbeaee700	-0.34160614
251	0xbe1b691d	-0.15176816
252	0xbdacc968	-0.08436853
253	0x3ccb36a7	0.024806334
254	0xbec35de3	-0.38157567
255	0xbec3a68c	-0.38213003

_policy.0.bias f4 [128]
0	0xbc905cc6	-0.017622363
1	0x3bf94294	0.0076068137
2	0xbe252adf	-0.16129635
3	0xbe29ed5a	-0.16594449
4	0xbc43306b	-0.011913399
5	0xbdc1aaac	-0.09456381
6	0x3d618a3f	0.055063482
7	0x3d06ca09	0.03290752
8	0xbd1f0771	-0.038825456
9	0x3e3957fa	0.18099967
10	0x3e0e8a47	0.13919936
11	0x3e13417d	0.1438045
12	0xbe34a057	-0.1763929
13	0xbe729de5	-0.23693044
14	0x3b88149e	0.0041528484
15	0xbe080b6c	-0.13285607
16	0xbc823d87	-0.01589848
17	0x3d2007a6	0.039069794
18	0xbe66a5a0	-0.22524118
19	0x3d7fcdd4	0.062452152
20	0x3dd30c52	0.10305084
21	0xbd869e5b	-0.06573173
22	0xbe34978a	-0.17635933
23	0x3e5b560e	0.21419546
24	0xbd3fee7a	-0.04685829
25	0xbc311329	-0.010807791
26	0xbd2dd3c8	-0.0424383
27	0xbd7c9b53	-0.061671566
28	0x3db521db	0.08844348
29	0xbe5e485f	-0.21707295
30	0xbe65c20a	-0.22437301
31	0xbe12e790	-0.14346147
32	0x3e062bcd	0.13102646
33	0xbd965bc3	-0.07341721
34	0x3da5ed14	0.0810186
35	0x3d90e4e1	0.07074905
36	0x3e5451b0	0.20734286
37	0xbe6c99d0	-0.2310555
38	0xbe0a2f47	-0.13494597
39	0x3b430ee3	0.0029763512
40	0xbabd149b	-0.0014425697
41	0x3da5021b	0.08057042
42	0xbe294254	-0.16529208
43	0xbe0229ae	-0.12711212
44	0x3d6c1c74	0.057644323
45	0xbe140f36	-0.14458928
46	0x3dffe446	0.124947116
47	0x3e0ad7fe	0.13558957
48	0xbd7e49a7	-0.06208196
49	0xbe5512a3	-0.2080789
50	0xbeacec73	-0.33774146
51	0xbdf5c718	-0.12000865
52	0xbe85c369	-0.2612565
53	0x3e0b007c	0.13574404
54	0xbe5ab0a9	-0.21356453
55	0xbdeef7c1	-0.11668349
56	0xbd5e9027	-0.054336693
57	0x3e0d60f8	0.13806522
58	0x3e62b828	0.22140563
59	0xbda29c94	-0.07940021
60	0xbd23d04a	-0.03999356
61	0xbd401304	-0.046893135
62	0xbe3ceed2	-0.18450478
63	0xbe1f1944	-0.15536982
64	0xbd93b3e4	-0.07212046
65	0xbd5c1b09	-0.05373672
66	0x3d985827	0.07438689
67	0xbdc4b60a	-0.09605034
68	0xbdcf359e	-0.101176485
69	0xbe3b1a9e	-0.18271872
70	0xbe460f08	-0.19341671
71	0xba183e37	-0.00058076106
72	0xbe42c88d	-0.19021817
73	0x3e4ff9a9	0.20310082
74	0xbd9f4994	-0.07777706
75	0x3daa537b	0.08316704
76	0xbd37eca9	-0.04490343
77	0xbdeab5a8	-0.114604294
78	0xbdf184a3	-0.117928766
79	0xbdf4cd04	-0.11953166
80	0x3da2bb55	0.07945887
81	0x3c4e489c	0.012590554
82	0x3d7bfac1	0.061518434
83	0xbe30d7b8	-0.1726979
84	0xbe018533	-0.12648468
85	0x3ce72374	0.028215148
86	0xbe1173d8	-0.14204347
87	0xbd1c4939	-0.038155768
88	0xbd1f8a90	-0.038950503
89	0xbe557f50	-0.20849347
90	0x3dc47f3f	0.09594583
91	0xbe65fdbf	-0.22460078
92	0x3dce0acc	0.10060653
93	0xbe46d8f7	-0.19418703
94	0xbe2bdd2f	-0.16783594
95	0x3d02de7e	0.031950466
96	0xbe82bac2	-0.2553311
97	0xbdb027a8	-0.08601314
98	0xbddb8773	-0.10719194
99	0xbe158319	-0.14600791
100	0xbe4baa81	-0.19889261
101	0xbe2e41e7	-0.17017327
102	0xbe0fb762	-0.14034799
103	0xbd232ee9	-0.03983966
104	0xbb0cba84	-0.0021473477
105	0x3b95234d	0.0045513273
106	0xbe4b4a71	-0.19852616
107	0xbe5fe34d	-0.21864052
108	0x3c2dac0c	0.010600101
109	0x3e0217a7	0.12704335
110	0x3e0bd4d7	0.1365541
111	0xbdecc27f	-0.11560535
112	0xbe2ffd13	-0.17186384
113	0xbdb4f5d8	-0.088359535
114	0xbe8911ca	-0.26771384
115	0x3e17f045	0.1483775
116	0x3d5d88b0	0.054085433
117	0x3d39cc4d	0.045360852
118	0xbd590f70	-0.052993238
119	0x3e4e9c2d	0.20176764
120	0x3da6f690	0.08152497
121	0xbce9340b	-0.028467199
122	0x3db25317	0.087072544
123	0xbdf93466	-0.12168197
124	0x3ca8a8ec	0.02058836
125	0xbe345da7	-0.1761385
126	0xbe370130	-0.17871547
127	0xbe808ff7	-0.25109836

_policy.2.weight f4 [128, 128]
0	0x3c65f895	0.014036317
1	0x3ca1d13a	0.019753087
2	0xbcfcc816	-0.030857127
3	0xbc8f3e03	-0.017485624
4	0x3ea26902	0.3172074
5	0xbf1bb065	-0.6081603
6	0x3e17dce0	0.14830351
7	0xbdcbf0c3	-0.09958031
8	0x3dc46fc9	0.09591634
9	0xbf125513	-0.5716106
10	0x3de9fca3	0.1142514
11	0xbe96ecaa	-0.29477435
12	0x3d4ff13e	0.050767176
13	0xbde1ad53	-0.11019387
14	0xbf013da8	-0.50484705
15	0x3d5f3474	0.054493383
16	0xbe29e300	-0.165905
17	0xbda1c993	-0.07899775
18	0xbe457cf6	-0.1928595
19	0x3e41dbf2	0.18931559
20	0x3d30124b	0.042986196
21	0x3dbd9553	0.09256997
22	0x3e213bd1	0.15745474
23	0xbeb50d96	-0.35361928
24	0xbe761c29	-0.2403418
25	0x3d0fbbde	0.035091273
26	0xbe91c49e	-0.2847032
27	0x3dcdc422	0.10047175
28	0x3dd447b4	0.10365239
29	0x3d5cdca1	0.053921346
30	0xbd0bdf1c	-0.03414832
31	0xbee4104f	-0.44543692
32	0x3dc835ce	0.097758874
33	0xbd51566f	-0.05110782
34	0x3e5b94ea	0.21443525
35	0xbe5fc224	-0.21851403
36	0x3d8d34a3	0.06894805
37	0xbec187db	-0.37798962
38	0x3dfc7010	0.12326062
39	0x3e6553ad	0.22395201
40	0xbec290ed	-0.38001195
41	0xbe1e90da	-0.15484944
42	0x3e0c701b	0.1371464
43	0xbd5c36b1	-0.053763095
44	0xbb055bee	-0.0020348984
45	0xbdbc1fdd	-0.09185765
46	0x3d3a7ccb	0.045529168
47	0xbe051d11	-0.12999369
48	0xbe432ce1	-0.19060089
49	0xbeb1deac	-0.34740198
50	0xbda792bb	-0.081822835
51	0xbcd2c8e2	-0.025730554
52	0x3e45d5c9	0.19319834
53	0x3ec64192	0.387219
54	0xbd4a1cd1	-0.049343888
55	0xbe18a795	-0.14907677
56	0x3e727ac8	0.2367965
57	0x3cbd7004	0.023124702
58	0xbdd3048e	-0.10303603
59	0x3d86d847	0.065842204
60	0x3e13b22c	0.14423436
61	0x3c802cc2	0.015646342
62	0xbcc33af4	-0.023831822
63	0x3ec54cfa	0.3853529
64	0xbcfa4d6a	-0.030554492
65	0x3e14fd3d	0.14549728
66	0x3d7da488	0.061924487
67	0xbceac5b2	-0.028658722
68	0x3d468c82	0.048473842
69	0xbd50e793	-0.051002096
70	0x3cb50694	0.022097863
71	0xbde63c40	-0.112419605
72	0xbda054c5	-0.078286685
73	0xbdbee4fd	-0.0932102
74	0xbe46623f	-0.19373415
75	0xbe2b5034	-0.16729814
76	0xbe136c94	-0.14396888
77	0xbc84037c	-0.016114943
78	0xbe171504	-0.1475411
79	0x3e32b044	0.17450052
80	0x3d83bf5d	0.06432984
81	0x3ba20480	0.004944384
82	0x3dd4d10c	0.10391435
83	0xbe89aea0	-0.2689104
84	0xbec6ccfc	-0.38828266
85	0xbd59d0bf	-0.05317759
86	0xbc26b812	-0.010175722
87	0x3daa234c	0.083075136
88	0xbda1ebbd	-0.07906292
89	0xbcdc7708	-0.026912227
90	0xbc258ae8	-0.010103919
91	0x3e23ff6b	0.16015403
92	0x3e0639f7	0.1310805
93	0xbe667652	-0.22506073
94	0x3d6147f8	0.055000275
95	0x3c8c9028	0.017158583
96	0xbb0410dd	-0.0020151653
97	0x3e48c563	0.19606547
98	0xbde6f5c6	-0.11277346
99	0x3d242dc9	0.040082727
100	0xbe3f1f8d	-0.1866438
101	0x3d808abc	0.062764615
102	0x3d94394b	0.0723749
103	0x3dc8b69e	0.098004565
104	0xbda8cc7b	-0.082421266
105	0xbdf22a6e	-0.11824499
106	0x3dc0f2f9	0.09421343
107	0x3d86f7a6	0.06590204
108	0xbe571f93	-0.21008138
109	0xbe824e2e	-0.2545027
110	0xbea9cdef	-0.33164927
111	0xbe199836	-0.1499947
112	0xbdf31120	-0.11868501
113	0xbcc28d40	-0.023748994
114	0xbc8f5627	-0.017497135
115	0x3d9b1ca9	0.07573826
116	0xbe0aec10	-0.13566613
117	0x3d49c55f	0.049260493
118	0xbe433845	-0.19064434
119	0x3d885af6	0.066579744
120	0xbc2508a8	-0.010072865
121	0x3df51522	0.119669214
122	0x3d87210b	0.06598099
123	0xbefba47c	-0.4914893
124	0xbe14a58c	-0.14516276
125	0xbe8a7b05	-0.2704698
126	0x3d733655	0.059377987
127	0x3e84f641	0.25969127
128	0xbd7b84ae	-0.06140583
129	0xbd74fa50	-0.05980903
130	0xbd640084	-0.055664554
131	0xbce8b61f	-0.028407155
132	0x3c703ee0	0.014663428
133	0xbd4697a1	-0.04848445
134	0x3caf5ec0	0.021407485
135	0x3d2ead3e	0.042645685
136	0x3c06605c	0.008201685
137	0xbc19b1a2	-0.00938073
138	0xbd83d7b6	-0.06437628
139	0xbdf1988d	-0.11796675
140	0xbbdd58aa	-0.0067549543
141	0xbd66d0b3	-0.056351375
142	0xbdde959c	-0.108683795
143	0xbd4f88e4	-0.05066766
144	0xbdb383aa	-0.08765347
145	0xbdf261ff	-0.118350975
146	0xbda757e1	-0.081710584
147	0x3d2fabc9	0.042888436
148	0xbe006d66	-0.12541732
149	0x3bc59b8c	0.0060305055
150	0xbdadfda5	-0.084956445
151	0x3d260a7f	0.040537354
152	0xbd062771	-0.032752458
153	0xbd1b4e1f	-0.0379163
154	0xbcdde21e	-0.02708536
155	0xbd9ec613	-0.077526234
156	0xbdc8301b	-0.097748004
157	0xbd2f3348	-0.042773515
158	0xbbf15c11	-0.0073657115
159	0xbd8ba6d6	-0.06818931
160	0xbd9774a6	-0.07395296
161	0xbd6fdda6	-0.05856099
162	0xbd357746	-0.0443032
163	0xbd5dea38	-0.054178447
164	0x3b97fd40	0.004638344
165	0xbc9b6250	-0.018967777
166	0xbd914b69	-0.070944615
167	0xbd9594da	-0.07303782
168	0x3da0c32f	0.07849728
169	0x3c51f0a4	0.012813721
170	0x3b1a1a7d	0.0023514323
171	0x3c1c9c90	0.009558812
172	0x3d71bd4e	0.059018426
173	0xbdc64230	-0.09680593
174	0xbd598a2a	-0.05311028
175	0xbded33e9	-0.11582167
176	0xbdd58de3	-0.10427453
177	0xbd8e2ba2	-0.06941916
178	0xbceb803f	-0.028747676
179	0xbdea56bf	-0.11442327
180	0xbc669a90	-0.0140749365
181	0x3ca6cf98	0.02036266
182	0xbde9ca44	-0.11415532
183	0xbb9539ee	-0.004554025
184	0xbc7f382d	-0.015577358
185	0xbd9f2beb	-0.077720486
186	0x3d4a0fa5	0.049331326
187	0xbdc12f5c	-0.09432861
188	0x3d3ec93e	0.04657864
189	0x3ce98870	0.028507441
190	0xbd60a9e7	-0.05484953
191	0xbd0f2468	-0.03494683
192	0x3d35fd05	0.04443075
193	0x3cf69441	0.03009999
194	0xbd93b03b	-0.07211348
195	0xbd0f74a9	-0.035023365
196	0xbcc6a7a8	-0.024249867
197	0x3d45d53a	0.04829905
198	0xbd7d8e76	-0.06190344
199	0xbd0c0083	-0.034180176
200	0x3d212767	0.039344218
201	0xbda2fc0a	-0.07958229
202	0x3b0e0570	0.0021670721
203	0xbd9e89d8	-0.07741135
204	0xbd9e378d	-0.07725439
205	0xbdfc31f6	-0.12314217
206	0xbce018fe	-0.027355667
207	0xbd06a22e	-0.03286951
208	0xbd36c646	-0.044622682
209	0xbba4f2e5	-0.005033838
210	0xb99c147c	-0.000297699
211	0xbd81b82b	-0.063339554
212	0x3d12f47e	0.035877697
213	0x3d0f1654	0.034933403
214	0xbc356bf1	-0.0110730985
215	0xbd0ce7d2	-0.03440077
216	0x3bf41ba9	0.0074495864
217	0x3cda9834	0.026683904
218	0xbcc227b5	-0.023700574
219	0xbdd9f2e5	-0.106420316
220	0x3beef041	0.007291824
221	0xbcac5f49	-0.02104153
222	0x3d81627e	0.06317614
223	0x3d20ab60	0.039225936
224	0x3c807a12	0.015683208
225	0xbdb3ace6	-0.08773212
226	0xbdbbaea5	-0.0916417
227	0xbdff3216	-0.12460725
228	0xbdefa42e	-0.11701237
229	0xbd13830d	-0.03601365
230	0x3d2bdcf6	0.04195877
231	0x3b8d33eb	0.0043091676
232	0xbdc5fd32	-0.09667434
233	0x3c09f39e	0.008419899
234	0xbdca586d	-0.09880147
235	0x3d14febf	0.036375757
236	0x3d7d33c5	0.06181695
237	0xbcdaba00	-0.02670002
238	0x3bcfede0	0.0063454956
239	0xbce570b8	-0.02800785
240	0xbcc8d7f4	-0.024517037
241	0x3d324d0a	0.0435305
242	0x3c853c39	0.016264068
243	0x3cf6e67a	0.030139197
244	0xbc1eedf4	-0.009700287
245	0xbd99c48e	-0.07508193
246	0x3cd30142	0.025757436
247	0xbe06cd50	-0.13164258
248	0x3d4b8fa6	0.04969754
249	0xbb294f29	-0.0025834537
250	0xbddca094	-0.10772815
251	0xbdccb408	-0.09995276
252	0xbd425b0b	-0.047450107
253	0x3d485177	0.048905816
254	0x3d0517fc	0.032493576
255	0xbd7396fe	-0.05947017

_policy.2.bias f4 [128]
0	0xbdc1fbdd	-0.09471867
1	0xbe1afc78	-0.15135372
2	0xbdeded2d	-0.11617503
3	0x3d86cb49	0.06581742
4	0xbc8f9c3f	-0.017530559
5	0x3d4eb983	0.050469887
6	0xbd07be87	-0.033140685
7	0x3bde158c	0.006777471
8	0xbd109e56	-0.03530725
9	0x3cc14a75	0.023595074
10	0xbd27868a	-0.04089979
11	0x3da8a8c4	0.082353145
12	0x3d0bdd2c	0.034146473
13	0x3d6f6b91	0.058452193
14	0x3d7d9551	0.061909977
15	0x3d818d3f	0.06325769
16	0x3d9005e8	0.070323765
17	0x3dc8f38b	0.09812077
18	0x3e0c40fe	0.13696668
19	0x3d49f8cd	0.04930954
20	0xbd5c5ff2	-0.053802438
21	0xbc8008fd	-0.015629286
22	0x3d1cff03	0.038329136
23	0x3c0f7b3d	0.00875741
24	0xbd9a0dba	-0.075221494
25	0x3c157b96	0.009123703
26	0x3d8d741d	0.069069125
27	0xbde675fb	-0.11252972
28	0xbe12fbb4	-0.1435383
29	0x3da83314	0.082128674
30	0xbdab5385	-0.083655395
31	0xbdaf9f3e	-0.08575295
32	0xbd9ca781	-0.07649136
33	0x3bd2b530	0.0064302906
34	0xbda518cf	-0.080613725
35	0xbe1d8a8d	-0.15384884
36	0xbd28f86a	-0.04125253
37	0x3b8ba228	0.004261274
38	0x3ca9b02c	0.020713888
39	0xbda23947	-0.07921081
40	0x3e06c90d	0.13162632
41	0xbde56243	-0.112003826
42	0x3d3b07ef	0.045661863
43	0xbd77d6f8	-0.060507745
44	0xb9f1c06f	-0.00046110476
45	0x3b4f32e4	0.0031616027
46	0x3be607e1	0.007019982
47	0xbd28170e	-0.04103761
48	0x3c4fc281	0.012680651
49	0xbde30fcc	-0.110869974
50	0xbd81ba19	-0.063343234
51	0x3c4a92b2	0.012364076
52	0x3da0b7f0	0.07847583
53	0xbd54a229	-0.05191246
54	0x3d52b538	0.051442355
55	0x3cf68241	0.030091407
56	0xbd3b9b5f	-0.04580247
57	0xbe12347c	-0.14277834
58	0xbc34a8e5	-0.011026596
59	0xbd96da35	-0.073658384
60	0xbd155496	-0.03645762
61	0x3d6f5273	0.05842824
62	0xbdb745b1	-0.089488395
63	0xbd70c1e1	-0.058778647
64	0xbd7e80d9	-0.062134597
65	0xbd2d7640	-0.0423491
66	0x3c54b778	0.0129831955
67	0xbc239d32	-0.009986209
68	0xbdf007d7	-0.11720245
69	0xbd93bdca	-0.07213934
70	0xbd866944	-0.065630466
71	0xbd217940	-0.039422274
72	0xbe05bb76	-0.13059792
73	0xbe055929	-0.13022293
74	0x3db7318e	0.08944999
75	0xbdff72a4	-0.12473038
76	0x3dc011d7	0.09378403
77	0xbe06305b	-0.13104384
78	0x3daa06b1	0.083020575
79	0xbd097b77	-0.03356501
80	0xbb3a409d	-0.002841986
81	0xbcb92449	-0.02260031
82	0x3ccc59d1	0.024945172
83	0x3d6614fd	0.05617236
84	0xbcf5b0e6	-0.029991578
85	0x3dfec9cf	0.12440836
86	0xbc52424c	-0.012833189
87	0xbdc547b6	-0.096328184
88	0xbd55243a	-0.0520365
89	0x3aec8b82	0.0018046948
90	0xbd9950ff	-0.07486152
91	0x3d5b16d3	0.053488564
92	0xbc9e0b93	-0.019292628
93	0x3da1361a	0.07871647
94	0xbe0b2533	-0.13588409
95	0xbe0266c9	-0.12734522
96	0x3b1515b6	0.0022748536
97	0x3c7705e2	0.015077086
98	0xbda6386f	-0.081162326
99	0xbd2ec7e9	-0.042671118
100	0xbe1b5b4f	-0.1517155
101	0xbe044c7d	-0.12919803
102	0x39990af3	0.00029190592
103	0x3d8523bb	0.06500956
104	0xbca10bf6	-0.019659024
105	0x3db45e25	0.08807019
106	0xbdec347e	-0.115334496
107	0xbc54f763	-0.012998435
108	0xbdd30014	-0.10302749
109	0xbd1bd21a	-0.038042165
110	0xbd801e92	-0.06255831
111	0x3d1ccc8c	0.03828101
112	0x3d524679	0.05133674
113	0x3cd609e8	0.02612777
114	0xbdbb803c	-0.09155318
115	0x3db0e30d	0.086370565
116	0xbd891886	-0.066941306
117	0xbd3e1559	-0.046407077
118	0xbdfce606	-0.12348561
119	0x3d2db93d	0.042412985
120	0xbdf74ea6	-0.12075548
121	0xbd6d9f4a	-0.058013238
122	0xbd90c235	-0.07068292
123	0xbd8bffbd	-0.068358876
124	0xbe079a37	-0.13242422
125	0x3d7aeaa8	0.061258942
126	0xbdaf2d74	-0.08553591
127	0x3d24837c	0.040164456

_policy.4.weight f4 [128, 128]
0	0x3e75d041	0.24005224
1	0xbd0cabd5	-0.03434356
2	0xbd5209a6	-0.051278733
3	0xbe440814	-0.19143707
4	0x3e2fbfff	0.17163084
5	0xbcda9a99	-0.026685046
6	0x3c8a1ddf	0.016859947
7	0x3d448ed4	0.047987774
8	0xbcef1360	-0.029184043
9	0x3d919d73	0.07110109
10	0xbe25e632	-0.16201094
11	0x3dd9e593	0.10639491
12	0x3c6b54b4	0.0143634565
13	0xbc634564	-0.0138715245
14	0xbdd87950	-0.105700135
15	0x3e1bb791	0.15206744
16	0xbe8a9956	-0.2707011
17	0x3d5995fe	0.05312156
18	0xbe64b392	-0.22334126
19	0xbd66565a	-0.056234695
20	0x3cf32ddb	0.029684952
21	0xbe717d4f	-0.23582958
22	0x3ce840c0	0.028351188
23	0x3e30b133	0.17255096
24	0x3e374bb0	0.17899966
25	0xbe2acb02	-0.16679004
26	0x3dd7997c	0.10527322
27	0xbe4f8c6e	-0.20268413
28	0x3d6e743b	0.058216315
29	0xbe0fc442	-0.1403971
30	0x3d9e7056	0.0773627
31	0xbeadcf8c	-0.33947408
32	0xbde9dea3	-0.11419418
33	0xbe62e280	-0.22156715
34	0x3e82fe34	0.25584567
35	0x3d5f63be	0.05453848
36	0xbd03d05f	-0.03218114
37	0x3d5942af	0.05304211
38	0xbdb0fd23	-0.08642032
39	0xbc6549cd	-0.013994646
40	0xbe6ec1fc	-0.23316187
41	0xbe08909e	-0.13336417
42	0x3de4d946	0.11174254
43	0x3dc4e151	0.09613288
44	0x3dba0406	0.09082799
45	0x3d309ed3	0.043120217
46	0xbd797331	-0.06090087
47	0x3d1f8260	0.038942695
48	0x3d140447	0.03613689
49	0x3d3ee02a	0.0466005
50	0x3d5a62d8	0.05331692
51	0xbd11a73f	-0.03555989
52	0x3e16b161	0.14716102
53	0x3d814961	0.06312824
54	0xbec80914	-0.39069426
55	0xbca39d47	-0.019972457
56	0xbb36e6d9	-0.0027908592
57	0xbd0bd74a	-0.034140863
58	0x3d76abee	0.06022256
59	0x3d9aeed6	0.075650856
60	0xbd9c402b	-0.076294266
61	0xbdb05779	-0.08610434
62	0x3b8838de	0.0041571697
63	0x3d199e0c	0.03750424
64	0x3c7b14e5	0.015324806
65	0xbd3c561f	-0.04598057
66	0xbe1d04e8	-0.15333903
67	0xbe3dac95	-0.18522866
68	0x3dcb09c3	0.09913971
69	0xbe799c93	-0.24376135
70	0xbe56e3b7	-0.20985304
71	0xbe957aea	-0.29195338
72	0x3b1d20a7	0.002397576
73	0xbd9a2af9	-0.07527728
74	0xbd580912	-0.052743025
75	0xbc32e91d	-0.010919836
76	0x3e99e5be	0.30058092
77	0x3a4ffe5d	0.00079343264
78	0x3d548b13	0.051890444
79	0xbe42897a	-0.18997756
80	0xbed3ed4b	-0.41391978
81	0xbdd2f8a3	-0.1030133
82	0xbe8d1253	-0.27553043
83	0x3de24d77	0.110499315
84	0x3d314e00	0.043287277
85	0xbe410a50	-0.1885159
86	0xbe70ea92	-0.23526981
87	0xbec27c8c	-0.37985647
88	0x3e114b9b	0.14188997
89	0xbd64a83c	-0.055824503
90	0x3e2b3f80	0.16723442
91	0xbb24c684	-0.0025142739
92	0x3e74d004	0.23907477
93	0xbd4d7181	-0.050157074
94	0x3e016056	0.12634405
95	0x3d3b293b	0.045693617
96	0x3e7dbfd1	0.24780203
97	0x3d6961a2	0.056977876
98	0xbd840e71	-0.06448067
99	0x3dad7447	0.08469444
100	0xbefea579	-0.4973562
101	0x3e4b5db4	0.19859964
102	0x3a84b145	0.0010123631
103	0xbe92e416	-0.2868964
104	0xbd451558	-0.048116058
105	0x3d9ed3d1	0.077552445
106	0x3e0011c8	0.12506783
107	0x3d2e6511	0.042576853
108	0x3c72b4bc	0.014813598
109	0x3e9608b4	0.29303515
110	0xbdfaa90f	-0.122392766
111	0x3e5921db	0.21204321
112	0xbdf3e665	-0.11909179
113	0xbed62d87	-0.4183161
114	0x3e48a646	0.19594678
115	0xbdfabb2f	-0.12242734
116	0xbe349a02	-0.17636874
117	0xbe370615	-0.17873414
118	0x3dae2128	0.08502418
119	0x3e0a7bc4	0.13523775
120	0x3d4390d8	0.047745556
121	0xbe75d31b	-0.24006312
122	0xbc252959	-0.010080659
123	0xbe166fb9	-0.14691056
124	0xbcdb9b7e	-0.026807543
125	0x3e9e4ddf	0.30918786
126	0xbd0fedbb	-0.035138827
127	0x3cef6c80	0.029226542
128	0xbdb3a87a	-0.08772369
129	0x3d6d1cc2	0.057888754
130	0x3d266a8d	0.04062896
131	0xbe7ca697	-0.24672924
132	0x3d7fa015	0.062408525
133	0x3e92eef5	0.28697935
134	0x3dbc0208	0.09180075
135	0xbe86b69e	-0.263112
136	0x3ca7c85e	0.020481285
137	0x3d27a224	0.040926114
138	0x3e724cdf	0.23662136
139	0xbcfe5b28	-0.031049326
140	0x3e05561c	0.1302113
141	0x3eb76bd8	0.35824466
142	0x3d3cb7ca	0.046073712
143	0x3da21cd1	0.079156525
144	0xbdcdfa3d	-0.10057495
145	0x3eb69cfe	0.3566665
146	0x3e2cd23a	0.1687707
147	0x3c48f507	0.01226545
148	0xbf0d6e8f	-0.55246824
149	0xbe0f3c76	-0.13987908
150	0x3e184e64	0.14873654
151	0xbe77dd3b	-0.24205486
152	0x3e40434d	0.18775673
153	0xbc5ca611	-0.013467328
154	0x3e0bc5d4	0.13649684
155	0x3e049bd0	0.12950063
156	0xbc3a4680	-0.011369348
157	0x3d73882b	0.05945603
158	0x3d45432d	0.048159767
159	0x3db2751b	0.08713742
160	0xbe279445	-0.16365154
161	0x3bf9f0fa	0.0076276036
162	0xbe2b2993	-0.16715078
163	0xbc8aade8	-0.016928628
164	0xbaf402d6	-0.0018616568
165	0xbe25735c	-0.16157287
166	0x3e29b12d	0.16571493
167	0xbe6a6c6a	-0.22892919
168	0x3c559f52	0.013038473
169	0xbe45fe35	-0.19335254
170	0xbed25614	-0.41081297
171	0x3e9f6a47	0.3113577
172	0x3dade0a1	0.0849011
173	0xbd9a91f8	-0.075473726
174	0xbf36f6c3	-0.7147028
175	0x3dfd79a6	0.12376718
176	0xbd33654c	-0.043797776
177	0xbd68c68d	-0.056829978
178	0x3dd8a9ca	0.1057926
179	0xbd8d6e34	-0.06905785
180	0xbe9b2f4e	-0.30309528
181	0x3cd4397b	0.025906315
182	0xbe9317ac	-0.28728998
183	0x3e593b28	0.21213973
184	0xbe84127a	-0.25795346
185	0xbd34587b	-0.044029694
186	0x3b9895e7	0.0046565416
187	0x3e190e1e	0.14946792
188	0x3e2aeb9c	0.1669144
189	0xbe02da50	-0.12778592
190	0xbe9331ba	-0.28748876
191	0xbc2cf42b	-0.010556261
192	0xbdb1334f	-0.086523645
193	0xbeb7bcd9	-0.35886267
194	0xbab3fa71	-0.0013731254
195	0xbda22e66	-0.07919006
196	0xbd423ea2	-0.047423013
197	0x3e7f6b98	0.24943388
198	0x3e07dc39	0.13267602
199	0xbec3b6a9	-0.38225296
200	0xbd0a462c	-0.033758327
201	0x3cfbf914	0.030758418
202	0x3b544b84	0.0032393644
203	0xbe7f8d7c	-0.24956316
204	0x3e444530	0.19167018
205	0xbe883f07	-0.26610586
206	0xbec72784	-0.38897336
207	0xbe1b53b4	-0.15168649
208	0x3c0cb894	0.008588929
209	0x3e9cc09f	0.30615708
210	0xbda692bb	-0.08133455
211	0xbc58fca3	-0.013243827
212	0x3c8babc5	0.01704968
213	0x3d8419f6	0.06450264
214	0x3e173bcf	0.14768909
215	0xbdeb55f2	-0.11491002
216	0xbf2a0b09	-0.6642309
217	0x3d3477b6	0.044059478
218	0x3dc679a1	0.096911676
219	0xbcceeb3b	-0.025258651
220	0x3db3efaf	0.087859504
221	0xbe056e47	-0.13030349
222	0xbdfbb573	-0.12290468
223	0xbdb09f1a	-0.08624096
224	0x3e8d3db0	0.27586126
225	0xbed01127	-0.40638086
226	0x3dc0e51e	0.09418701
227	0x3e16b8e3	0.14718966
228	0xbe902ed5	-0.2816073
229	0xbe5e7054	-0.21722537
230	0xbd1d19bf	-0.03835463
231	0xbe0fe0b5	-0.14050563
232	0xbba633e5	-0.0050721043
233	0xbe12dccc	-0.1434204
234	0xbe8ed215	-0.27894655
235	0x3daf0a82	0.08546926
236	0x3b6618c6	0.003510998
237	0x3e7785d2	0.24172142
238	0x3de8f1c3	0.113742374
239	0xbc933a2b	-0.017972073
240	0x3e1142c9	0.14185633
241	0xbe952e66	-0.29136962
242	0x3d7dd702	0.061972626
243	0x3d95bdd6	0.07311599
244	0xbde7c27e	-0.11316393
245	0xbd3dd8be	-0.04634928
246	0x3cd99085	0.02655817
247	0xbbe152d0	-0.006876327
248	0x3e7369d1	0.23770835
249	0xbd2c22fb	-0.042025547
250	0x3d94f1cd	0.07272682
251	0x3ddc7771	0.10764969
252	0xbcd31fdc	-0.025772028
253	0x3cc53552	0.024073277
254	0x3da7b00d	0.08187876
255	0xbe5c6e4f	-0.21526454

_policy.4.bias f4 [128]
0	0x3d9334a5	0.071877755
1	0x3d658e46	0.056043886
2	0x3d6ea3fc	0.058261856
3	0xbd571506	-0.052510284
4	0xbcea8a05	-0.028630266
5	0xbe4ddff4	-0.20104963
6	0xbd521a22	-0.051294453
7	0xbd8f94a7	-0.07010775
8	0xbe3ef42c	-0.18647832
9	0xbcc31b81	-0.023816826
10	0x3d1773a3	0.036975514
11	0x3e28ecc1	0.16496564
12	0xbd9fd4f6	-0.07804291
13	0xbd7b4024	-0.061340466
14	0xbd3bb997	-0.04583129
15	0x3e0cfd1d	0.1376843
16	0xbe080532	-0.13283232
17	0x3c688c30	0.01419358
18	0xbe994f55	-0.29943338
19	0xbdaefede	-0.08544706
20	0x3cff4e4c	0.031165265
21	0x3e3375c0	0.17525387
22	0xbd137852	-0.03600342
23	0xbdb31bbd	-0.08745525
24	0x3dbb4498	0.091439426
25	0xbd218ef7	-0.039442983
26	0xbe8d8e8a	-0.2764781
27	0xba090cf6	-0.00052280666
28	0x3d142df5	0.03617664
29	0x3d2c1c92	0.042019434
30	0xbdb511c5	-0.0884128
31	0xbb9d441f	-0.0047993804
32	0x3de32045	0.11090139
33	0x3e525484	0.20540053
34	0xbeb31319	-0.34975508
35	0xbdd2378d	-0.10264502
36	0x3ddbb01a	0.10726948
37	0xbe83f7c1	-0.2577496
38	0xbd5ab63f	-0.05339646
39	0xbdb7abdc	-0.089683264
40	0xbc35370b	-0.011060487
41	0x3d5cb47e	0.05388307
42	0xbcb59cce	-0.022169497
43	0xbe0600f1	-0.13086297
44	0x3d5587b7	0.05213138
45	0xbdf550c2	-0.11978294
46	0xbdd540cf	-0.10412752
47	0xbded0280	-0.115727425
48	0x3dc1e60d	0.09467707
49	0x3caa04e8	0.020754293
50	0xbda06349	-0.07831437
51	0xbd867e30	-0.06567037
52	0x3e1267de	0.14297435
53	0xbe69c8a0	-0.22830439
54	0x3c6d3583	0.01447809
55	0x3d2ec740	0.04267049
56	0xbdde954e	-0.10868321
57	0xbd0836be	-0.03325533
58	0xbd84b938	-0.0648064
59	0xbcdc6f77	-0.02690862
60	0xbdfcfdc1	-0.12353087
61	0xbe19fd9c	-0.1503815
62	0x3d6f8d9a	0.05848465
63	0x3d045c30	0.03231448
64	0x3d8d82fe	0.069097504
65	0x3a58f0be	0.00082756195
66	0xbd0ae704	-0.03391172
67	0x3cc5e654	0.02415768
68	0xbd2919ef	-0.041284498
69	0xbd6bdcb6	-0.057583533
70	0x3c7d4c47	0.0154600805
71	0x3d5b2ed4	0.053511456
72	0xbe329b48	-0.17442048
73	0x3c96a105	0.018387327
74	0x3dd2a20b	0.102848135
75	0xbdbe0e0a	-0.092800215
76	0xbc5b018f	-0.013367071
77	0x3d85a524	0.06525639
78	0x3dc81b1a	0.09770794
79	0x3d423ba7	0.04742017
80	0xbd166508	-0.036717445
81	0xbd33216a	-0.043733038
82	0xbd3bf76f	-0.045890268
83	0xbd97f063	-0.07418897
84	0xbe2252d5	-0.1585191
85	0x3e13607b	0.14392273
86	0x3d628689	0.055304084
87	0xbe05e5f1	-0.13075997
88	0xbe2bb47b	-0.16768067
89	0xbe0a05af	-0.1347873
90	0x3e19bbaa	0.15012994
91	0xbb7b4f3c	-0.0038346788
92	0x3cd6548a	0.026163358
93	0xbdd4b786	-0.10386567
94	0xbdb2dceb	-0.08733543
95	0xbd94d6fe	-0.07267569
96	0xbe413678	-0.18868434
97	0x3d5d5779	0.0540385
98	0x3d91a989	0.071124144
99	0x3ca00d48	0.019537583
100	0xbaf8b381	-0.0018974395
101	0xbded279f	-0.11579823
102	0xbdccd504	-0.10001567
103	0x3c4288c6	0.01187343
104	0xbbf858b7	-0.007578935
105	0x3df9add0	0.12191355
106	0x3e1d8db1	0.15386082
107	0x3c862f87	0.016380085
108	0xbc51d750	-0.012807682
109	0xbd657cf7	-0.05602738
110	0xbcf2a568	-0.029619887
111	0x3c49ff73	0.01232897
112	0xbddfb083	-0.10922339
113	0xbd46395b	-0.048394542
114	0xbdf61ad0	-0.12016833
115	0x3d5cfc02	0.05395127
116	0x3da8ab19	0.08235759
117	0xbe39b85d	-0.18136735
118	0xbd5263fd	-0.051364888
119	0xbe304278	-0.17212856
120	0xbdb68be1	-0.089133985
121	0xbdec8aa5	-0.11549882
122	0xbd710b4d	-0.058848668
123	0xbdb39f27	-0.0877059
124	0xbc3eee09	-0.011653432
125	0xbe1ff591	-0.1562102
126	0x3db0c3f6	0.086311266
127	0x3d019c90	0.03164345

_policy.6.weight f4 [128, 128]
0	0xbc9f4024	-0.019439764
1	0xbcab729f	-0.020928679
2	0x3d701232	0.058611102
3	0x3c2a2ed4	0.010387141
4	0xbe028b5c	-0.12748474
5	0xbe66d54e	-0.22542307
6	0x3cb3204d	0.021865988
7	0x3cd4098e	0.025883462
8	0xbde78451	-0.11304534
9	0xbe212d8f	-0.15740035
10	0x3e878000	0.26464844
11	0xbe96433d	-0.29348174
12	0xbd2877e4	-0.04112996
13	0xbd2ffcba	-0.04296563
14	0xbe7e6d70	-0.24846435
15	0x3e4c7d32	0.19969633
16	0xbd1a8649	-0.03772572
17	0x3d7a43dd	0.061099876
18	0xbcf3ddd7	-0.029768867
19	0xbe9ed4db	-0.3102177
20	0x3dd98214	0.106205136
21	0x3c8ebacf	0.017423062
22	0x3d167c04	0.036739364
23	0x3e39d5ab	0.18147914
24	0x3d3b222a	0.04568688
25	0x3e2de757	0.1698278
26	0x3df8983e	0.12138413
27	0xbc5ef1b1	-0.013607428
28	0xbe37325d	-0.17890306
29	0xbd4bab40	-0.049723864
30	0x3db537a6	0.08848505
31	0xbcf16dc9	-0.029471295
32	0x3db40643	0.08790257
33	0x3da77067	0.08175736
34	0x3ea5e42b	0.3240064
35	0xbdf9da4b	-0.12199839
36	0x3df3b73a	0.11900182
37	0x3e219216	0.15778384
38	0x3d1ebc2c	0.038753673
39	0xbe978491	-0.29593328
40	0xbe34d76f	-0.17660306
41	0xbe29040a	-0.16505447
42	0x3cc72621	0.024310173
43	0x3da82afc	0.082113236
44	0xbdcf60b3	-0.10125866
45	0x3d9d7f5a	0.07690306
46	0xbe5f8587	-0.2182828
47	0xbe4a40dc	-0.19751304
48	0xbe84b79b	-0.2592133
49	0x3d52c15a	0.051453926
50	0x3e59ae58	0.21257913
51	0xbd200585	-0.039067764
52	0x3d8d7f3f	0.06909036
53	0x3d481d94	0.048856333
54	0x3da35c9e	0.0797665
55	0xbe97be0a	-0.29637176
56	0xbec4a9d6	-0.38410825
57	0xbe32dc95	-0.17466958
58	0xbdd4b295	-0.10385624
59	0xbe7718b8	-0.24130523
60	0x3c39fb6f	0.01135145
61	0x3e641879	0.2227496
62	0xbe89b66f	-0.26896998
63	0xbe4f20b9	-0.20227326
64	0xbeccb1b9	-0.39979342
65	0x3e389303	0.1802483
66	0x3e51e98d	0.20499249
67	0xbeed2cd4	-0.46323264
68	0x3e9f6dc6	0.31138438
69	0x3de929ad	0.11384902
70	0x3db9c642	0.09071018
71	0xbd812b1f	-0.06307053
72	0x3dd5e61c	0.104442805
73	0xbdd8aaf2	-0.1057948
74	0xbddf6669	-0.10908205
75	0xbe174d07	-0.14775477
76	0x3e7e2f2b	0.2482268
77	0xbe90fcb3	-0.28317794
78	0x3dda333b	0.10654303
79	0x3d9839ab	0.07432874
80	0xbe20b50f	-0.15694068
81	0x3dd0b7a5	0.101912774
82	0xbde876ec	-0.113508075
83	0xbe673994	-0.22580558
84	0xbd56b959	-0.052422855
85	0xbd8b804d	-0.06811581
86	0xbe791eb0	-0.24328113
87	0xbc9f3a14	-0.019436873
88	0xbe523d67	-0.20531236
89	0xbe97c36c	-0.29641283
90	0x3ec49f02	0.38402563
91	0xbd538441	-0.0516398
92	0xbe17cb3e	-0.14823624
93	0x3cb9ac99	0.022665309
94	0xbe8e3b26	-0.27779502
95	0xbe8aeedd	-0.27135363
96	0xbe2ba3a1	-0.16761638
97	0xbdccf683	-0.10007956
98	0xbdc03f90	-0.093871236
99	0xbea1a709	-0.3157275
100	0xbb0e60a1	-0.0021725076
101	0x3d68d435	0.056843
102	0x3e051610	0.12996697
103	0x3e6b4763	0.2297645
104	0xbe54d28a	-0.2078344
105	0xbddf5f2b	-0.10906824
106	0x3e9e2c54	0.30893195
107	0x3e5ca7d1	0.21548392
108	0x3d575f6e	0.052581243
109	0xbd59f836	-0.053215228
110	0x3da68917	0.081316166
111	0x3dbf404c	0.093384355
112	0xbdee8cd2	-0.11647953
113	0xbc0a8824	-0.00845531
114	0xbe1f5ddb	-0.15563147
115	0x3c649835	0.013952305
116	0xbd6da628	-0.058019787
117	0x3e35b985	0.17746551
118	0x3e4ebded	0.20189638
119	0x3dd8bbad	0.10582671
120	0x3e917439	0.28408983
121	0xbd9c86c6	-0.076428935
122	0x3e83033b	0.25588402
123	0xbea927d4	-0.330382
124	0xbeac9f9d	-0.33715525
125	0xbdf52e80	-0.1197176
126	0xbdab23b7	-0.083564214
127	0xbd424ed2	-0.04743845
128	0xbdee9af3	-0.11650648
129	0x3e2a0098	0.16601789
130	0x3d3b1d04	0.04568197
131	0xbd415448	-0.047199517
132	0xbdaa0d1d	-0.083032824
133	0xbdecbc36	-0.11559336
134	0xbeeceacc	-0.46272886
135	0xbd81c10c	-0.06335649
136	0x3db5a358	0.08869046
137	0xbe952777	-0.29131672
138	0x3e2cffdb	0.16894476
139	0x3b962ca7	0.0045829597
140	0xbda32853	-0.079666756
141	0xbb72d60a	-0.0037053847
142	0x3d773a6a	0.060358442
143	0xbe689c7d	-0.22715946
144	0x3e6c1f1b	0.23058741
145	0xbe5e76a6	-0.21724948
146	0xbeb38055	-0.35058847
147	0x3e3bd01a	0.18341103
148	0x3da40e41	0.08010531
149	0xbeb7976f	-0.35857722
150	0x3dde1481	0.108437546
151	0x3db772b3	0.08957424
152	0xbe0f1ab7	-0.13975035
153	0xbdda8cf6	-0.106714174
154	0xbd30b41e	-0.043140523
155	0x3d97f7ec	0.07420334
156	0xbe9fcb6c	-0.31209886
157	0xbdc96f1a	-0.09835644
158	0xbded5464	-0.11588362
159	0x3ebe7090	0.37195253
160	0xbe971a2f	-0.29512164
161	0x3d013d5d	0.03155266
162	0x3e429068	0.19000399
163	0xbd7abb42	-0.06121374
164	0xbd259cc0	-0.04043269
165	0x3de131ba	0.10995813
166	0x3dd2c8b1	0.10292185
167	0x3d317b83	0.04333068
168	0x3c8899c2	0.01667488
169	0x3d220bfe	0.039562218
170	0xbf3fd336	-0.7493166
171	0xbd09fac5	-0.033686418
172	0x3eab8a07	0.33503744
173	0xbe4a2e52	-0.19744232
174	0xbdeaf03e	-0.11471604
175	0x3e1e77c5	0.15475376
176	0xbe81184f	-0.25213858
177	0x3d43dc9b	0.047817808
178	0xbe95addc	-0.29234207
179	0xbd048c4f	-0.03236037
180	0xbeb62638	-0.35576034
181	0xbe0c9973	-0.13730411
182	0xbe0146e6	-0.12624702
183	0xbd94b0f6	-0.07260315
184	0xbc3290cd	-0.010898781
185	0x3ec947d1	0.39312604
186	0xbe4c3833	-0.19943313
187	0x3da3d37f	0.07999324
188	0xbc11669a	-0.00887456
189	0x3cf1ea75	0.029530743
190	0xbdee7226	-0.11642866
191	0x3c67fd96	0.014159581
192	0xbd8ff949	-0.07029969
193	0x3e0bad4b	0.13640325
194	0xbe864a6d	-0.26228657
195	0x3e562e25	0.2091604
196	0xbe9f98a7	-0.31171152
197	0xbe596c18	-0.2123264
198	0x3cdc601c	0.026901297
199	0x3e30eb3f	0.1727724
200	0xbe12efae	-0.14349243
201	0xbccda182	-0.025101427
202	0xbd852c41	-0.065025814
203	0x3e399247	0.18122207
204	0x3e40a4f9	0.18812932
205	0xbefffc14	-0.49997008
206	0xbe94d736	-0.29070443
207	0x3dc4792e	0.09593426
208	0xbe60aa7a	-0.21940032
209	0x3dba3442	0.09091999
210	0xbdb50b89	-0.08840091
211	0xbee866ca	-0.45390922
212	0x3e430524	0.1904493
213	0xbdb18ff9	-0.08670039
214	0x3dd1cf13	0.102445744
215	0xbe360f2f	-0.1777923
216	0x3e662f65	0.22479017
217	0xbec9ae2d	-0.39390698
218	0x3ca2428a	0.019807119
219	0x3d129eb4	0.035795882
220	0x3d1afe39	0.037840102
221	0x3df94663	0.12171628
222	0x3e21aa66	0.15787658
223	0x3ed39e37	0.41331646
224	0x3d64f4b8	0.055897444
225	0xbd03b13f	-0.032151457
226	0xbdcbcbd1	-0.09950984
227	0x3dc1f6fd	0.094709374
228	0xbe84ddb5	-0.259504
229	0x3db52bba	0.08846231
230	0xbe22fb4c	-0.15916175
231	0x3e372160	0.17883825
232	0x3ef821b5	0.48463216
233	0xbe1f3723	-0.15548377
234	0x3e4d6164	0.20056683
235	0x3e73cd91	0.23808886
236	0xbe765d83	-0.2405911
237	0xbea9b01f	-0.33142182
238	0x3e8f3b3e	0.27974886
239	0xbea743d3	-0.32668933
240	0xbe6ff848	-0.23434556
241	0x3dac2f45	0.084074534
242	0xbe7b5a68	-0.24546206
243	0xbeaedbf6	-0.34152192
244	0xbda2649b	-0.07929345
245	0x3cd348eb	0.025791606
246	0xbdc3c13e	-0.095583424
247	0xbeb622c5	-0.35573402
248	0xbe414d93	-0.18877248
249	0xbf4acdba	-0.79220164
250	0x3e0d615b	0.1380667
251	0x3cea7669	0.028620915
252	0xbdfd379b	-0.123641215
253	0xbda66aa6	-0.0812581
254	0x3cf6b281	0.030114414
255	0xbee2b0a1	-0.44275382

_policy.6.bias f4 [128]
0	0xbd036866	-0.032081984
1	0xbddf84f7	-0.10914033
2	0x3c9e04ca	0.019289393
3	0x3e340538	0.17580116
4	0x3d927901	0.07151986
5	0x3d1af41b	0.037830453
6	0x3d573044	0.052536264
7	0xb9f479e1	-0.00046630114
8	0x3e3559c1	0.1771002
9	0xbc8c6105	-0.017136106
10	0x3e234f57	0.15948234
11	0x3e11f3e4	0.14253193
12	0x3d421f4c	0.04739313
13	0xbcc16896	-0.02360944
14	0xbb0c37e7	-0.0021395625
15	0x3e0eb39e	0.13935706
16	0x3dab6414	0.08368698
17	0x3d85c098	0.06530875
18	0xbdac6f68	-0.084196866
19	0xbc9b089f	-0.01892501
20	0x3dbb71f2	0.09152593
21	0x3e33da17	0.17563663
22	0x3dfa4832	0.122208014
23	0x3dc2322f	0.09482228
24	0x3e4889af	0.19583772
25	0x3df4e464	0.119576246
26	0x3cddfdc4	0.027098544
27	0x3c7fa81d	0.015604046
28	0xbc4fab2b	-0.012675087
29	0xbdac7b5c	-0.084219664
30	0xbc42aecf	-0.011882498
31	0xbdee6cf2	-0.116418734
32	0x3de78676	0.11304943
33	0x3d99e4c7	0.07514339
34	0xbcce25a1	-0.025164427
35	0x3d00480a	0.0313187
36	0xbc6c50f7	-0.0144236
37	0x3c482d8a	0.012217889
38	0x3d94bef1	0.07262982
39	0x3c1169d6	0.008875331
40	0xbbb14fc7	-0.0054111215
41	0xbd824011	-0.06359876
42	0x3df66248	0.120304644
43	0x3d6d838c	0.05798678
44	0x3c8a55cf	0.01688662
45	0xbd9147c4	-0.07093766
46	0xbdfe5d64	-0.124201566
47	0x3d786e2a	0.060651936
48	0x3e6d5fe4	0.2318111
49	0xbd815be5	-0.063163556
50	0x3e0ee7f9	0.13955678
51	0x3d0a8191	0.03381497
52	0xbc44711f	-0.011989861
53	0xbdbd6ea3	-0.09249618
54	0x3d6ecd90	0.05830151
55	0x3e1b059a	0.15138856
56	0x3e38ac24	0.18034416
57	0x3e8a439b	0.27004704
58	0x3da799d0	0.08183634
59	0x3dc6d39e	0.097083315
60	0x3dbab3a5	0.09116296
61	0x3dabe345	0.083929576
62	0xbe403a54	-0.1877225
63	0x3de93b27	0.113882355
64	0xbda91008	-0.08255011
65	0x3d97e8cf	0.074174516
66	0x3e598d43	0.21245293
67	0x3e28599b	0.16440432
68	0x3d87f856	0.06639163
69	0x3d381814	0.044944838
70	0xbda5a4c2	-0.08088066
71	0x3d197734	0.037467197
72	0xbe0936e9	-0.13399853
73	0x3bb9b546	0.0056673614
74	0x3ba12ad4	0.0049184356
75	0x3bf4a82a	0.007466336
76	0x3e06fc66	0.1318222
77	0xbe0250db	-0.12726156
78	0xbc8ebdd7	-0.017424507
79	0x3d8a0623	0.06739452
80	0x3d298381	0.041385178
81	0x3d818938	0.063250005
82	0xbddaac71	-0.10677422
83	0x3c062821	0.008188278
84	0x3d7cbb29	0.061701927
85	0x3d9031c5	0.07040743
86	0xbc1a87b5	-0.009431769
87	0x3d239588	0.039937526
88	0xbc21d375	-0.009877075
89	0x3c80279b	0.015643885
90	0x3d6a4e9f	0.057203885
91	0x3e953f83	0.29150018
92	0x3e11c466	0.14235076
93	0x3dc3e3a7	0.095649056
94	0xbd2db166	-0.04240551
95	0x3c7f635f	0.015587657
96	0xbdcff4a5	-0.10154084
97	0x3dd6576b	0.104658924
98	0x3d9e4cf6	0.07729523
99	0x3d41a6a7	0.047278073
100	0xbdf14ccc	-0.11782226
101	0x3e47d503	0.19514851
102	0x3d798d0d	0.060925532
103	0x3e1589f3	0.14603405
104	0xbe02f92e	-0.12790367
105	0x3d59f9e0	0.053216815
106	0x3e62bca8	0.22142279
107	0xbc10acfa	-0.008830303
108	0xbe571b62	-0.2100654
109	0x3e031278	0.12800014
110	0x3e6a1193	0.22858267
111	0xbd3046ce	-0.043036275
112	0xbc71618c	-0.01473273
113	0xbd1dfcc5	-0.038571138
114	0x3d12db91	0.035853926
115	0x3db931b4	0.09042683
116	0xbd84cf74	-0.06484881
117	0x3db5fd59	0.08886213
118	0xbd2dd3e8	-0.042438418
119	0x3e42a516	0.19008288
120	0x3d29ea8e	0.041483454
121	0x3e568fb6	0.20953259
122	0x3e773040	0.241395
123	0xbbcd7b4a	-0.0062708007
124	0x3e239bfc	0.15977472
125	0xbdd0d914	-0.10197654
126	0x3c3e298a	0.011606583
127	0x3d9bc531	0.07605971

_policy.8.weight f4 [3, 128]
0	0xbc6ce31d	-0.014458445
1	0x3e14a7b4	0.14517099
2	0xbbad59a2	-0.005290226
3	0xbf193fae	-0.5986279
4	0xbeb1ce7f	-0.34727857
5	0xbe3424d8	-0.1759218
6	0xbe52ca94	-0.2058509
7	0xbd288f83	-0.04115249
8	0x3eeb0c8a	0.45908004
9	0xbcff620a	-0.031174678
10	0x3eb25f46	0.34838313
11	0x3ed38f9c	0.41320503
12	0xbc111579	-0.008855217
13	0x3d7917b0	0.060813606
14	0xbf48fa82	-0.78507245
15	0xbd975908	-0.07390028
16	0x3ebded03	0.37094888
17	0x3e59dcd5	0.21275647
18	0xbf1bf4bb	-0.60920304
19	0x3da6dace	0.081472024
20	0xbde440c1	-0.11145163
21	0xbe17a714	-0.14809829
22	0xbc053e50	-0.008132532
23	0x3ecbe932	0.3982635
24	0xbde1c007	-0.110229544
25	0xbe9b48ad	-0.30328885
26	0x3c97d718	0.018535182
27	0xbd8653d9	-0.065589614
28	0xbeeca0cf	-0.46216437
29	0x3e69587d	0.22787662
30	0xbdda360a	-0.106548384
31	0x3d166924	0.036721364
32	0xbe10fc09	-0.14158644
33	0xbd88f8bf	-0.066880696
34	0x3e255967	0.16147386
35	0x3ece480a	0.40289336
36	0xbedb6b45	-0.42855278
37	0x3e9286af	0.2861838
38	0xbd8181b4	-0.06323567
39	0xbdb0232c	-0.086004585
40	0x3f1bcd99	0.6086059
41	0xbdc1c5e2	-0.09461571
42	0xbd950fc0	-0.07278395
43	0x3ea7ad6f	0.32749507
44	0x3ef05c49	0.46945408
45	0xbf1014a6	-0.56281507
46	0x3fb76d57	1.4330243
47	0x3ec3c78c	0.3823818
48	0xbe41d026	-0.18927059
49	0xbc61ae22	-0.013774427
50	0x3e93f15c	0.2889508
51	0xbe2c3c95	-0.16819985
52	0xbe8880f7	-0.26660892
53	0x3e6417ef	0.22274755
54	0x3da4e9da	0.08052416
55	0xbe4dbb63	-0.20091014
56	0xbe0e9fa6	-0.13928089
57	0xbf0f5513	-0.5598919
58	0xbbe283ec	-0.006912699
59	0x3efd824a	0.49513465
60	0x3bdcac61	0.0067344164
61	0xbdb04f89	-0.0860892
62	0xbf0f2a1d	-0.55923635
63	0xbe3bb160	-0.18329382
64	0x3e931aa8	0.28731275
65	0x3ecfb771	0.40569642
66	0x3efdbcec	0.49558198
67	0xbdb7739f	-0.089576
68	0x3ecd95f8	0.4015348
69	0xbc54e039	-0.012992912
70	0x3eb39bdf	0.35079858
71	0xbd14d84a	-0.03633908
72	0xbed9405f	-0.42431924
73	0x3ef61568	0.48063207
74	0x3ea4ed1f	0.3221216
75	0xbcab592f	-0.02091655
76	0xbe38a316	-0.18030962
77	0x3eb39b03	0.35079202
78	0xbd3e25c4	-0.046422735
79	0x3dec0fa6	0.11526422
80	0xbd1d807a	-0.038452603
81	0xbe41a6b2	-0.18911245
82	0xbf3a789d	-0.7284029
83	0xbe56685e	-0.2093825
84	0xbe25156f	-0.16121458
85	0x3ef03589	0.46915844
86	0xbf039c22	-0.51410115
87	0xbdc05554	-0.09391275
88	0xbf02ac9c	-0.5104463
89	0x3f20f43c	0.6287267
90	0xbe6b1b23	-0.2295957
91	0xbe85618e	-0.2605099
92	0xbe9ed817	-0.31024238
93	0xbcc7dff7	-0.024398787
94	0x3ef43162	0.47693926
95	0x3f085021	0.53247267
96	0x3e494a3c	0.19657224
97	0xbd83da4e	-0.06438123
98	0x3e87be3b	0.26512322
99	0xbe9e8de6	-0.30967635
100	0x3e393380	0.18086052
101	0xbe03ab75	-0.12858374
102	0xbe0a1c35	-0.13487323
103	0xbed75ce3	-0.42063054
104	0xbc239202	-0.009983541
105	0x3e34feea	0.17675367
106	0xbeb08f6e	-0.34484428
107	0x3ed391a7	0.4132206
108	0x3e9371da	0.287978
109	0x3eb98436	0.3623368
110	0xbe08f27f	-0.13373755
111	0x3e4209f2	0.18949106
112	0xbec957d1	-0.3932481
113	0x3df3bb0f	0.11900913
114	0x3e1b8fc4	0.15191561
115	0xbdd85604	-0.10563281
116	0xbe4908a1	-0.19632198
117	0xbe46623d	-0.19373412
118	0x3e72b754	0.23702747
119	0xbd5edbba	-0.054408766
120	0x3ecfa8e4	0.4055854
121	0xbe3cb15d	-0.18427034
122	0xbdde1f72	-0.108458415
123	0x3ed09178	0.40735984
124	0x3eeabbbb	0.45846352
125	0x3e2a0070	0.1660173
126	0x3d35376e	0.044242315
127	0xbe08c350	-0.13355756
128	0x3e4319ec	0.19052857
129	0x3e9d5504	0.30728924
130	0xbe2bd35f	-0.1677985
131	0x3ef8e664	0.48613274
132	0x3ec04e1f	0.37559602
133	0x3b42eb80	0.002974242
134	0x3e705519	0.23469962
135	0x3edf9bea	0.4367364
136	0xbede3311	-0.43398336
137	0x3ec0c4ad	0.37650052
138	0x3c9c8e4d	0.019110823
139	0xbd3429bc	-0.043985114
140	0xbe2ea63d	-0.17055602
141	0x3e20fca1	0.1572137
142	0x3f335027	0.7004418
143	0xbe64d124	-0.22345406
144	0xbef04808	-0.46929955
145	0xbdaae201	-0.08343888
146	0x3ee68ad8	0.45027804
147	0x3de3292d	0.11091838
148	0x3ec2624d	0.37965623
149	0x3ec9afd0	0.39391947
150	0xbe1b6569	-0.15175404
151	0xbe3cb341	-0.18427755
152	0xbeb2c898	-0.34918666
153	0x3dfee640	0.124462605
154	0xbde602e4	-0.1123102
155	0xbe37f0e4	-0.17962986
156	0x3e7bb04e	0.24578974
157	0xbef8db75	-0.48604932
158	0x3e73d200	0.23810577
159	0x3cdc8b5e	0.026921924
160	0x3e8c3672	0.27385288
161	0xbdbf2117	-0.09332483
162	0xbf75d049	-0.9602094
163	0xbdf80ec1	-0.12112189
164	0xbda606f7	-0.08106797
165	0xbebf6b0c	-0.37386358
166	0x3f0fa3e3	0.56109446
167	0xbdbcd4b2	-0.09220256
168	0xbde8725e	-0.11349939
169	0x3e3704e8	0.17872965
170	0x3f28486a	0.65735495
171	0xbec7dc72	-0.39035374
172	0xbec74f9d	-0.38927928
173	0x3ecce89e	0.40021223
174	0xbf83f84a	-1.0310147
175	0xbe9b0d1d	-0.30283442
176	0xbd60aee9	-0.054854307
177	0x3eff7fd9	0.49902228
178	0xbe354aee	-0.17704365
179	0x3e6cde51	0.23131682
180	0x3e9eaa4b	0.30989298
181	0xbe06d97a	-0.13168898
182	0x3ec8a014	0.3918463
183	0xbea634b1	-0.32462075
184	0x3eee788b	0.46576342
185	0x3ef1a20a	0.47193938
186	0x3e85324d	0.2601494
187	0xbe2d30ce	-0.16913149
188	0x3d90c048	0.07067925
189	0xbdc9850b	-0.09839829
190	0x3ea6ab70	0.3255267
191	0x3ee93a18	0.45552135
192	0xbec76917	-0.38947365
193	0xbdd6edd8	-0.10494584
194	0xbcbde85b	-0.023182085
195	0x3e6cf9ba	0.23142138
196	0x3c8cb1d9	0.017174648
197	0xbf056750	-0.5211077
198	0x3e7693ec	0.24079865
199	0x3eca851e	0.39554685
200	0x3db97171	0.0905484
201	0xbf1b6b9a	-0.6071106
202	0x3d8ab045	0.06771902
203	0xbe24af4c	-0.16082495
204	0x3e4967d7	0.19668518
205	0xbebac80c	-0.3648075
206	0xbea3e5a3	-0.32011136
207	0xbe46de40	-0.19420719
208	0xbeb63015	-0.3558356
209	0xbdf563c1	-0.11981917
210	0x3ea9a3b4	0.33132708
211	0x3edd9a18	0.43281627
212	0x3e861751	0.26189664
213	0xbda51237	-0.08060115
214	0x3d9786b5	0.0739874
215	0xbdd3029f	-0.10303234
216	0x3ec708b4	0.38873827
217	0xbeeb1d39	-0.45920733
218	0x3e3681de	0.17822978
219	0xbef1bd2a	-0.47214633
220	0xbe17b7ba	-0.1481618
221	0xbeab1419	-0.3341377
222	0xbf2222ee	-0.6333455
223	0xbe2e4d89	-0.17021765
224	0xbed2502a	-0.41076785
225	0x3eff069a	0.49809724
226	0xbe05a826	-0.13052425
227	0x3e359ce3	0.17735629
228	0xbf323f57	-0.696279
229	0xbe8407e0	-0.25787258
230	0xbd73ce91	-0.05952317
231	0xbd92d6dd	-0.07169888
232	0xbdcef50c	-0.10105333
233	0xbd6ac677	-0.057318177
234	0xbdcb62fc	-0.09930989
235	0xbf202c32	-0.62567437
236	0x3ea677c1	0.3251324
237	0xbee11232	-0.43959194
238	0x3e437cf6	0.19090638
239	0xbe2059dc	-0.15659279
240	0x3eb0e7c4	0.34551823
241	0x3e911a7b	0.28340515
242	0xbdd11c9e	-0.102105364
243	0x3e69bcbe	0.22825906
244	0x3dbc3bc3	0.09191086
245	0xbbc6e2bd	-0.00606951
246	0xbf4f4e1a	-0.8097855
247	0xbea20f39	-0.3165224
248	0xbe9f677e	-0.31133646
249	0x3e7e071b	0.24807398
250	0x3efdf207	0.49598715
251	0xbed8afd0	-0.42321634
252	0xbead263d	-0.33818236
253	0xbe058e2b	-0.13042514
254	0x3e91a896	0.28448933
255	0xbe9ace7f	-0.3023567

_policy.8.bias f4 [3]
0	0xbc094b4e	-0.00837977
1	0xbd144391	-0.03619725
2	0x3d02eb75	0.03196283
