logs/weight_colliion_obj_obs = 0.4/model/model_1600.pth (torch, 427625 bytes, 19 tensors)

_policy.0.weight f4 [128, 22]
00000000: bd0f c0be e208 55bd b0bb 3a3e 5719 be3d
00000010: 3981 b7be 6189 5ebe d0d5 323e 1314 d9bc
00000020: 6c99 e33e 29b0 b53e 64c1 69be dcd6 933b
00000030: 3e8a 873e dc94 f43e f8c2 98bd 351a 01be
00000040: 19ed a5bd b24f 973d 4747 0b3d 4211 033e
00000050: 35f6 08be 7cc8 16bf d68c d6be 2667 96be
00000060: 28df f43c dfce 893f 441f 72bd 428a ae3b
00000070: c9bf 833e b160 9f3d 18d5 6dbf dea4 f93d
00000080: ae53 203e 03ed 6e3e 2bbd a73e ce2e a83e
00000090: efff 4e3e 6181 5bbd 85e9 2cbd 3f90 40be
000000a0: 013c 56be 01db dc3d 7abf b63c 644b eabc
000000b0: 6450 1abf c090 44bd 040e 8d3e e142 b33c
000000c0: b585 8ebe 9923 bc3d 39ab 1a3c 9c70 3a3e
000000d0: 16b3 a13f 3947 09bf c7b3 9c3e df10 92bb
000000e0: 30c4 cf3e c2a1 e63e 3b80 a13d 8298 1d3e
000000f0: a2f0 1fbe 78b5 e83d e835 7139 3242 24bd
00000100: b6e7 bdbd 1d86 e4bd 4d05 c13d 8e04 0ebf
00000110: cb21 973d c200 0e3f 3adc 24bd 9048 33bf
00000120: f4b7 2d3e 781b ca3e 22a7 103e 1565 1d3e
00000130: 0de3 fbbc fc4f 5abe 5b71 a8be 0e1a 253f
00000140: 089e 71be e12f 12be aeef 60be b5a5 cbba
00000150: b0d1 5dbe 1e73 933e 83e8 0d3e 234d c43d
00000160: 2ae4 8e3f a397 06bf e2b9 8fbd da59 4d3e
00000170: a83c 443f 5157 29bf 2ca6 f83d 820e 14bf
00000180: 6f65 3dbf a2f8 0a3f 859c 053e 2ada 1dbe
00000190: a9bd e9bd dd45 24be 6031 9a3b bec0 373e
000001a0: 947a 47bc e4f1 ec3b 5929 d33c 253e febd
000001b0: f43f 8a3c 8a26 f8bc 4ee8 38bf 1820 4e3f
000001c0: 8d16 fd3e 01fc 17bf 6f3c 8ebe 26bf 403f
000001d0: a014 4f3e d304 813e 9b0f 46bd b191 99bf
000001e0: e1a1 a3be db45 483c c9f5 3bbe 8319 a43c
000001f0: 620b 803d a236 00bd 4fda 283e a5f8 363d
00000200: 499b 36bd 7f74 cdbd adbf 92bd 7710 af3d
00000210: 7a3d e9bd 5367 293e 11c1 9ebe 9654 923e
00000220: dc6d cb3e c231 82bd 381f 0bbf 97f0 053e
00000230: b2ee 183f 17a8 16bf 8736 6b3e bd31 4cbd
00000240: d1a2 70bf 03dc 313e 3ffe 2cbd cdd6 8dbc
00000250: c4e6 a8bd d0df 0fbe 88a7 bd3e 750c 41be
00000260: 72c8 263e c517 f4bd 29b0 80be a464 01be
00000270: 00d6 683d 5c11 7a3f 01b0 b73e e03d 9b3e
00000280: 1296 84be ce11 e8bd 9084 56bf 7edf 643f
00000290: 8b3c 87bd ed48 ebbe ddf8 513d 62fd 613d
000002a0: ad32 22be f416 2e3d 40eb f0bd 2be7 74be
000002b0: 7a7d 91bc be69 5c3d 15be 45bc 5deb 723e
000002c0: 8d54 363e 99cd ecbe 396a e8bd 9e40 0a3e
000002d0: 2478 ef3e 2493 abbd a205 4ebe e03b 58bc
000002e0: 57ce 0740 0ad3 9a3f a7e0 a5bc e667 f4bd
000002f0: d239 403e 6ce7 223c f354 103e 937a 1ebe
00000300: f1ea 2e3e f79a 9bbd 5cc2 7dbd bcdd 31bc
00000310: c24f 88bd 6b6b d43d 7c31 b03e c18c 4a3f
00000320: e407 e6be 05f0 47bf fd1c 85be ed94 063f
00000330: eb17 04bf 59b8 2abf d9a9 22bf cf33 ae3e
00000340: fd7f 783c 46e6 f33e eccb ac3e efd9 10be
00000350: 1937 963d ca3a 3d3d 8f34 003e 7fa7 1dbe
00000360: 1b9e 33bc 61fd 863b c9b8 fbbd 0ff2 f0bd
00000370: 4955 4ebf e1ab b2be 9659 333e b9fa e2bd
00000380: 8f1d 39bf d000 b1be dc09 b6bd 553e d83d
00000390: 40a9 c73f f55c 113f 18c7 783e fd42 80be
000003a0: e020 a7bc d575 783d 0f40 9dbc 9a9d f33d
000003b0: 8297 173e a190 653c 5cd7 f0bd 1798 b4bc
000003c0: 3ca9 c8bd 4bd4 8cbd ff73 fb3c 9cee a33e
000003d0: c792 55bf 5152 b6be b31a 36be 4189 9dbd
000003e0: 864f 81bd b4c4 fabe f12b bdbe 85e9 17be
000003f0: f86d 4bbd 8390 8cbd 2903 dbbe e3aa aebe
-0.37512007 -0.052010424 0.1823566 0.09282177 -0.35840777 -0.21732093 0.17464375 -0.02649883
0.4445299 0.35485962 -0.22827679 0.004511697 0.26472658 0.4776982 -0.07459062 -0.12607653
-0.081018634 0.073882475 0.034003522 0.12799552 -0.1337517 -0.58899665 -0.41904324 -0.2937557
0.029891565 1.0766257 -0.05911185 0.00532654 0.25732258 0.07782114 -0.9290328 0.12189649
0.15656921 0.233326 0.3276151 0.3284821 0.20214818 -0.053590182 -0.04221489 -0.18805026
-0.20921327 0.10783959 0.0223081 -0.028600402 -0.60278916 -0.047989607 0.27549756 0.021882476
-0.27836385 0.09186477 0.009440237 0.1820702 1.2632778 -0.536243 0.3060591 -0.0044575776
0.40579367 0.45045286 0.07885786 0.15390208 -0.15619138 0.113627374 0.00023003633 -0.04010219
-0.09272711 -0.111583926 0.09424839 -0.554757 0.07379492 0.55469906 -0.040249087 -0.70032597
0.16964704 0.39474082 0.14126256 0.15370591 -0.030747915 -0.21319574 -0.32898983 0.6449288
-0.2359544 -0.14276077 -0.2196643 -0.0015537055 -0.2166202 0.28798765 0.13858227 0.09585025
1.116338 -0.5257513 -0.07017876 0.20053807 0.76655054 -0.6614886 0.1214107 -0.5783464
-0.739829 0.54285634 0.13047989 -0.15415254 -0.11413128 -0.16042276 0.004705593 0.17944619
-0.012175221 0.007230984 0.025776552 -0.12414197 0.016876198 -0.030291814 -0.7222947 0.8051772
0.49431267 -0.593689 -0.27780482 0.7529167 0.20222712 0.25198993 -0.048354726 -1.1997586
-0.3195944 0.012223686 -0.18355478 0.020031696 0.06252171 -0.031302102 0.16489528 0.04467072
-0.044581685 -0.100319855 -0.071654655 0.08548062 -0.11388679 0.16543321 -0.31006673 0.2858016
0.39732254 -0.06357147 -0.5434451 0.13080059 0.5973922 -0.58850235 0.2297002 -0.04985212
-0.9399844 0.17369084 -0.042234655 -0.017314339 -0.0824714 -0.14050221 0.3704188 -0.18852408
0.16287401 -0.11918596 -0.251344 -0.12636048 0.05684471 0.9768274 0.35876468 0.30320644
-0.25895745 -0.11331521 -0.83796024 0.8940352 -0.066033445 -0.45954075 0.051262725 0.055173285
-0.15839644 0.04250236 -0.117636204 -0.23916309 -0.017760027 0.05381178 -0.012069245 0.23722596
0.17805691 -0.4625061 -0.11348385 0.13501212 0.46771348 -0.08377674 -0.20119336 -0.013197869
2.121969 1.2095654 -0.020248724 -0.119338796 0.18772057 0.009942871 0.14094906 -0.15476446
0.1708181 -0.075979166 -0.061952934 -0.010856088 -0.066558376 0.10372051 0.34412754 0.79121023
-0.44927895 -0.78100616 -0.2599868 0.5257099 -0.51598996 -0.6668754 -0.63540417 0.34023902
0.0151672335 0.47636622 0.3374933 -0.14145635 0.07334728 0.046198644 0.1252005 -0.15395926
-0.010962988 0.0041195606 -0.12291104 -0.11764919 -0.80598885 -0.34896758 0.17514643 -0.11082978
-0.7231073 -0.34570932 -0.08888599 0.10558764 1.5598526 0.56782466 0.24294698 -0.25051108
-0.020401418 0.06065925 -0.019195585 0.118952945 0.1480389 0.014011533 -0.117598265 -0.022045178
-0.09797904 -0.06876429 0.03069496 0.32017982 -0.8342709 -0.35609677 -0.17783622 -0.07692195
-0.06313996 -0.48978198 -0.36947587 -0.14835174 -0.04966542 -0.06863501 -0.42775849 -0.3411475

_policy.0.bias f4 [128]
00000000: 907c cbbd 757f e9bc 1a16 45be a4e6 46be
00000010: ebf3 e7bc ff99 01be d538 1b3d 399e 09bc
00000020: 1d49 26bd 833d 383e 3e24 283e 5483 373e
00000030: 76a3 32be 832e 76be 0d7b 013c 7840 d7bd
00000040: ad92 09bc ec10 243d 756c 38be 152b 1d3d
00000050: b907 af3d d27b f2bc fee2 8abe 9aef 783e
00000060: 3f3a 97bd 20b7 88bd b915 e4bc 7f2d 14be
00000070: 9d12 e53d ffa3 57be a7f2 79be 4e01 28be
00000080: 9468 e63d 94a6 c3bd 309f b43d 75e2 753d
00000090: b051 543e 911d 50be 56b4 29be 9e2f e83a
000000a0: 5175 03bd 44f7 e33d 704c 3cbe 2985 96bd
000000b0: b89e 4a3b afd0 04be 7e4e 463e 6c3b ce3d
000000c0: f6af f9bd 3289 43be e06c a4be f513 23be
000000d0: fe2b 8ebe f1d5 623e 8c6f 8fbe e4f7 c7bd
000000e0: 809f 8ebd 7861 b23d fa78 b83e d983 5fbd
000000f0: e989 2abd 6e44 78bc e5ac 96be 8590 94bd
00000100: bef7 05be 242f b9bd 0613 513d fa99 adbd
00000110: 9e35 cfbd 3d8d 2fbe 7749 aebd 0254 92bd
00000120: a44b 2fbe b324 0e3e 3789 29be bd20 f23d
00000130: eb81 f2bd 169f ffbd e45b 44be 82c8 05be
00000140: c0bd 8aba 20b7 85bc b9eb 9a3c 6f95 7abe
00000150: e45e e0bd badb 2ebc 341f 2ebe 293e 5fbd
00000160: 12a2 ecbd 26da 84be 5a0d aa3d 83e8 65be
00000170: 197c c93d 684f 82be bda7 6dbe 52be 0e3d
00000180: a057 9abe 24a0 1abe a445 c0bd 489d 33be
00000190: 96b4 90be 21c2 1bbe 62b7 0fbe fe5a 89bd
000001a0: 41d4 ad3c 3c79 2d3c 197c 50be 296b 6bbe
000001b0: da03 5bbc 169b 273e da3b 183e d295 65be
000001c0: 15b7 50be e323 edbd 6732 8bbe 09b5 083e
000001d0: 7683 a03c 003c fe3c 1609 97bd 6513 423e
000001e0: 90f6 a63d 6b60 bcbd 36ad 5b3d 3f57 63be
000001f0: 5efd bb3b 1167 5fbe 1f08 63be 579c 8dbe
-0.09935868 -0.028503159 -0.19246712 -0.1942392 -0.028314551 -0.12656401 0.037895996 -0.00839954
-0.04059707 0.17992215 0.16420075 0.17921191 -0.17445168 -0.2404118 0.007902873 -0.10510343
-0.008396787 0.0400552 -0.18010123 0.038371164 0.08546395 -0.029600058 -0.27126306 0.2431015
-0.073841564 -0.06675553 -0.02784239 -0.1447048 0.11185191 -0.21058653 -0.24408971 -0.16406748
0.112504154 -0.09553257 0.08819425 0.06003042 0.20734286 -0.20323779 -0.16572699 0.0017714386
-0.032094304 0.111311466 -0.18388534 -0.07349617 0.0030917358 -0.12970231 0.1936588 0.100699276
-0.12191765 -0.19095305 -0.32114315 -0.15925582 -0.27767938 0.22151925 -0.2801479 -0.09764078
-0.06964016 0.08709997 0.36029798 -0.0545691 -0.041635428 -0.015153034 -0.29428783 -0.072541274
-0.13082787 -0.090421945 0.051043533 -0.08476634 -0.101176485 -0.17143722 -0.08510106 -0.071449295
-0.17118698 0.13881187 -0.1655625 0.118226506 -0.11841186 -0.12481515 -0.19175678 -0.13064769
-0.0010585114 -0.016322672 0.01891123 -0.24471067 -0.10955599 -0.010672504 -0.1700409 -0.05450264
-0.1155435 -0.25947684 0.08303328 -0.22451977 0.09838123 -0.25451207 -0.23208518 0.034849472
-0.30144978 -0.15100151 -0.09388283 -0.17540467 -0.28262776 -0.15210773 -0.14034799 -0.067068085
0.021219375 0.010587987 -0.2035984 -0.22990097 -0.0133676175 0.16367754 0.14866582 -0.22420433
-0.2038234 -0.115791105 -0.2718689 0.1335031 0.019593935 0.03103447 -0.0737478 0.18952711
0.08152497 -0.09198078 0.053631984 -0.2220125 0.005736991 -0.2181666 -0.22171067 -0.2765834

_policy.2.weight f4 [128, 128]
00000000: 0e86 3a3e 502c 88bb d188 1bbe 304c 87be
00000010: 3f76 a23e 334b 0bbf d066 8d3c 1f1c 613e
00000020: 6522 893d 40c5 12bf d9e0 61bc b414 67be
00000030: 8180 083d f563 dabd 30d7 a8be db35 6ebd
00000040: 52b1 3a3d 2a46 b83d ab5b 5bbd 6b16 e23c
00000050: 0eb6 a73d 7b37 e0bd f4d1 343d dabd b7be
00000060: f3de 97be ccae 7cbc bf5f 6dbe 14f9 803e
00000070: 3765 a43e 89af e03d 8a74 b73d c9d2 c5be
00000080: a24f f63d bcfb 0d3c 84c9 853e 9d7a 243a
00000090: a334 8d3d 1344 b3be b927 ee3d f7fe 743d
000000a0: 6ae0 debe 89ec 37be 8566 cc3c b22e dcba
000000b0: 17d3 2f3e 028c 64be 2591 933d 23f1 a1bd
000000c0: c533 b2bd 35ab 28bf fc98 a1be f806 49bc
000000d0: e947 e93e 79f9 c53e 83eb a4be 61fb 6dbe
000000e0: 6540 983e 903f 443e 2dba 0cbe 5f2c 1f3e
000000f0: 2a6f 853e 4535 f9bc c851 98be b75e c23d
00000100: 6f3f cc3c 0aad 863e f86c 113e 78ba 03bd
00000110: 828c 463d 7b93 72be 37fb d23c a532 23be
00000120: 33ed 1dbe 659e 1ebd 9ea5 03be 53f8 97be
00000130: 0012 12be be49 bdbc 9806 a3be 381f 573e
00000140: 19fe 783e 033e b83d b069 003d 87b9 08bf
00000150: e746 e1be 22ae f3bd 8e4e d73b 8c36 96bd
00000160: 0d32 76bd fb09 643d 6656 373e 99a9 9b3e
00000170: 98c5 f13c 9891 0fbf c5fc 483d 57cb 423d
00000180: d458 12bd b2c3 cb3d 9330 b1bd 3bf2 163e
00000190: 9c5a 87be a48c be3b 4b39 943d fa1b 923d
000001a0: 597e 3cbe a7b9 4ebe 278d db3c 507c b2bd
000001b0: 7cd8 cc3d 3bf7 94be e4c9 11bf 75bd d3bd
000001c0: 739c 57bd 0b28 4c3e 5298 4abe 6f94 fc3d
000001d0: f84c ca3c 9fbb 103d 961e 25be fa7b 2bbe
000001e0: a808 25bc 0b76 8e3d 6e46 9e3c 4c1c 10bf
000001f0: 00a4 0a3d df02 fbbe 6cb9 c23c dbbe 113e
00000200: ae84 7bbd 50fa 74bd 8400 64bd 25ef 3cbd
00000210: 0c41 18bb a197 46bd c05e af3c 3ead 2e3d
00000220: 53d4 1bbc a2b1 19bc b6d7 83bd 8d98 f1bd
00000230: aa58 ddbb 44ec 94bd 9c95 debd 99c9 7cbd
00000240: aa83 b3bd cdca f5bd e157 a7bd c9ab 2f3d
00000250: 666d 00be 8c9b c53b a5fd adbd a9e6 bb3c
00000260: 7127 06bd 1f4e 1bbd 1ee2 ddbc 13c6 9ebd
00000270: 1b30 c8bd 4833 2fbd 115c f1bb 0443 97bd
00000280: a674 97bd a6dd 6fbd 4677 35bd 38ea 5dbd
00000290: 40fd 973b 5062 9bbc 694b 91bd da94 95bd
000002a0: 2fc3 a03d 9df1 c13a 7d1a 1a3b 909c 1c3c
000002b0: 4ebd 713d 9e0b dabd 4d4f 8abd e933 edbd
000002c0: e38d d5bd a22b 8ebd 3f80 ebbc bf56 eabd
000002d0: 909a 66bc 3802 263b 44ca e9bd 51e5 16bc
000002e0: 2d38 7fbc eb2b 9fbd a50f 4a3d c00f e0bd
000002f0: 3ec9 3e3d dd01 2e3c e7a9 60bd 6824 0fbd
00000300: 05fd 353d c5e6 453c 5cb4 a8bd a974 0fbd
00000310: a8a7 c6bc 3ad5 453d b3cf 9ebd 8300 0cbd
00000320: 6727 213d 0afc a2bd 7005 0e3b d889 9ebd
00000330: 8d37 9ebd f631 fcbd fe18 e0bc 2ea2 06bd
00000340: 46c6 36bd e5f2 a4bb 7c14 9cb9 2bb8 81bd
00000350: 7ef4 123d 5416 0f3d f16b 35bc d2e7 0cbd
00000360: a91b f43b 3498 da3c b527 c2bc e5f2 d9bd
00000370: 41f0 ee3b f7b3 1bbd 8840 3e3d 22f7 ac3c
00000380: 127a 803c 076a d4bd a5ae bbbd 8000 02be
00000390: 2ea4 efbd 0d83 13bd f6dc 2b3d 69bb 55bc
000003a0: 32fd c5bd 9ef3 093c 6d58 cabd bffe 143d
000003b0: 430d 503d 00ba dabc e0ed cf3b b870 e5bc
000003c0: 06bc 1dbd 0a4d 323d 393c 853c 7ae6 f63c
000003d0: f4ed 1ebc 8ec4 99bd 4201 d33c 50cd 06be
000003e0: a68f 4b3d c7a7 9fbc 94a0 dcbd 08b4 ccbd
000003f0: 0b5b 42bd 7751 483d 9d26 993c fe96 73bd
0.182152 -0.004155673 -0.1518891 -0.26425314 0.3173084 -0.5441162 0.017260939 0.21983384
0.06696013 -0.5733223 -0.013786518 -0.22566491 0.033325676 -0.106635965 -0.32976675 -0.05815683
0.045579262 0.08997758 -0.05355422 0.02759858 0.08189021 -0.10948082 0.04414554 -0.35887033
-0.29662284 -0.015422534 -0.23181055 0.25190032 0.3210847 0.10970981 0.08957775 -0.3863738
0.120269075 0.008665975 0.26130307 0.00062743743 0.06894805 -0.35012874 0.1162867 0.059813466
-0.4353059 -0.17961325 0.024951229 -0.0016798584 0.17170368 -0.22319034 0.072054185 -0.07907321
-0.087012805 -0.6588624 -0.3156203 -0.012269728 0.45562676 0.38666895 -0.3221093 -0.23240425
0.2973663 0.19164872 -0.13742895 0.1554427 0.26061374 -0.030420909 -0.29749894 0.09490722
0.024932591 0.26303893 0.14201725 -0.032160252 0.048473842 -0.23689072 0.025754554 -0.15937288
-0.15422516 -0.038725276 -0.12856147 -0.29681644 -0.14264679 -0.023106452 -0.31840968 0.21008003
0.2431568 0.08996203 0.03135079 -0.5340809 -0.43999407 -0.118984476 0.0065706437 -0.07334623
-0.060106326 0.05567358 0.17904052 0.3040283 0.029513165 -0.56081533 0.049069185 0.0475572
-0.035729244 0.09949435 -0.08651843 0.14740841 -0.26436317 0.0058151055 0.0723749 0.07134242
-0.18407573 -0.20188008 0.026800705 -0.08715117 0.100022286 -0.29094872 -0.56948686 -0.103388704
-0.052639436 0.1993715 -0.19784668 0.12332999 0.024694905 0.03533518 -0.16124949 -0.16746512
-0.010072865 0.06956109 0.019320693 -0.5629318 0.03384781 -0.49025628 0.023770057 0.14232962
-0.06140583 -0.05980903 -0.055664554 -0.046126503 -0.002323213 -0.04848445 0.021407485 0.042645685
-0.009511071 -0.00938073 -0.06437628 -0.11796675 -0.0067549543 -0.072716266 -0.108683795 -0.061715696
-0.08765347 -0.12001572 -0.081710584 0.042888436 -0.12541732 0.0060305055 -0.084956445 0.022937136
-0.032752458 -0.0379163 -0.02708536 -0.077526234 -0.097748004 -0.042773515 -0.0073657115 -0.07385829
-0.07395296 -0.05856099 -0.0443032 -0.054178447 0.004638344 -0.018967777 -0.070944615 -0.07303782
0.07849728 0.0014796738 0.0023514323 0.009558812 0.059018426 -0.10646747 -0.06753407 -0.11582167
-0.10427453 -0.06941916 -0.028747676 -0.11442327 -0.0140749365 0.0025330912 -0.11415532 -0.009209947
-0.015577358 -0.077720486 0.049331326 -0.10940504 0.04657864 0.010620561 -0.05484953 -0.03494683
0.04443075 0.0120789455 -0.08237526 -0.035023365 -0.024249867 0.04829905 -0.07754459 -0.034180176
0.039344218 -0.07958229 0.0021670721 -0.07741135 -0.07725439 -0.12314217 -0.027355667 -0.03286951
-0.044622682 -0.005033838 -0.000297699 -0.063339554 0.035877697 0.034933403 -0.0110730985 -0.03440077
0.0074495864 0.026683904 -0.023700574 -0.106420316 0.007291824 -0.038013425 0.04644826 0.021113936
0.015683208 -0.103717856 -0.0916417 -0.12695503 -0.11701237 -0.03601365 0.04195877 -0.01304517
-0.09667434 0.008419899 -0.09880147 0.036375757 0.050793897 -0.02670002 0.0063454956 -0.02800785
-0.03850939 0.0435305 0.016264068 0.030139197 -0.009700287 -0.07508193 0.025757436 -0.13164258
0.04969754 -0.019489182 -0.10772815 -0.09995276 -0.047450107 0.048905816 0.01869517 -0.05947017

_policy.2.bias f4 [128]
00000000: c0b8 17be fcf1 2bbe c2ec 77bd 2a29 1b3d
00000010: 72c5 78bd 6ce5 fc3d 6647 a13d 06b7 c03d
00000020: 8097 6fbd 8fe5 033e 5158 97bd 123e 473d
00000030: 22ab 7b3d 9c42 b63d 1ef2 a83d bd98 5a3d
00000040: 8397 973d 7916 143e beb6 333e fc20 0a3c
00000050: 7662 b6bd 8671 bbbd af49 f63c 28ac 593d
00000060: 3186 7dbd b529 b6bc 4f33 c63d 65fa 01be
00000070: d2d7 28be bdf8 c93d 6c7b d2bd 64ab 53bd
00000080: 190e a4bd c4fa 59bc 8fd6 4dbd f8a8 23bc
00000090: 690a 87bd 6dab c0bc 053e a23b 49af 33be
000000a0: 658e c23d 7d71 20be 4041 5b3d e774 a6bd
000000b0: 7ef5 a6bd 503d aa3d 94e6 1dbd 89ce e9bd
000000c0: f024 f63c cc0f e3bd 30f6 85bd 315d 023e
000000d0: 5245 f43c 5419 c7bd 421e 363d 9efe 863c
000000e0: 1de6 78bc 7c34 12be c31f 1a3c 6dd8 1fbe
000000f0: 09f6 f5bb 07a8 9b3d c2a3 10be ecb0 74bc
00000100: ced5 aabd f252 a1bd 4c8e 823d 6061 e33c
00000110: e9d2 ddbd e268 29be 55aa 36bd b0fc 4ebe
00000120: b596 e0bd 7efc 1bbe 36bc 263d 6213 14bd
00000130: 976c 0e3e 1feb 01be 8c5d 753c 81e7 55bb
00000140: 6e4b 3fbc d56a 1cbd 1cc0 253d e4c1 3e3d
00000150: 0aef b8bc 0bdb 0e3e b414 f93c 8720 c8bd
00000160: 77d0 d5bd 5637 ec3d 1f6a 36be f4e6 043d
00000170: acf9 d6bc 4604 803d 5d24 52be fe20 07be
00000180: 6768 c63c 0936 143d 3138 363c 2b3c 93bd
00000190: f86b 20be 6aa1 9dbd a052 833c ce06 fc3d
000001a0: 4bde 16bd 9d86 aa3d 3597 22be b4d2 27bb
000001b0: cc30 39be 5c0c 06be 5f1e b4bd 50f8 aa3d
000001c0: dd88 953d 32da 233e f2d0 c0bd 6509 453d
000001d0: 21ae abbd a4a5 293d 5440 dfbd cc1b 813d
000001e0: 5f2f b9bd dc05 0bbe 47e9 b4bc 7cb3 c6bd
000001f0: 379a 07be 89f0 98bc 1c58 67bd e34b d03d
-0.1481657 -0.16791528 -0.060528524 0.037881054 -0.060735174 0.12348446 0.07874946 0.09409909
-0.05849409 0.12880538 -0.07389892 0.04864318 0.0614425 0.088994235 0.08249305 0.05336832
0.074019454 0.14461698 0.1755018 0.008430716 -0.08905499 -0.09152512 0.030064432 0.053142697
-0.061895553 -0.022236684 0.09677755 -0.12693174 -0.16488579 0.09861896 -0.10277447 -0.051677123
-0.080105014 -0.013304416 -0.050253447 -0.009989016 -0.065937825 -0.023519242 0.004951241 -0.17547335
0.09499816 -0.15668292 0.053529024 -0.08127766 -0.08152293 0.08312476 -0.038549975 -0.114163466
0.03004691 -0.110869974 -0.06541097 0.12730862 0.02981821 -0.09721628 0.04446245 0.016478833
-0.015191582 -0.14277834 0.009406987 -0.15609904 -0.0075061363 0.07600408 -0.14124969 -0.01493476
-0.08341561 -0.07877149 0.06374797 0.027756393 -0.108312435 -0.16543916 -0.044596035 -0.2021358
-0.10966245 -0.15233037 0.040706836 -0.036151297 0.13908611 -0.12687348 0.014975917 -0.0032639208
-0.011675699 -0.03818782 0.040466413 0.046571627 -0.02257492 0.13950746 0.03040538 -0.09771829
-0.10440152 0.11533992 -0.1781392 0.032446817 -0.0262421 0.06250815 -0.20521684 -0.1319618
0.024219705 0.036184344 0.0111217955 -0.071892105 -0.15666187 -0.07696803 0.01603061 0.123059854
-0.03683309 0.08326457 -0.15877993 -0.0025607767 -0.18085021 -0.13090652 -0.08794855 0.08348143
0.07301495 0.16001204 -0.09414853 0.048104662 -0.08382822 0.041417733 -0.109009415 0.0630413
-0.090422384 -0.13576454 -0.022083892 -0.09702203 -0.13242422 -0.018669384 -0.056480512 0.10170724

_policy.4.weight f4 [128, 128]
00000000: 8719 27bd 544b 46bd 4b9e 97bd f31d c4bc
00000010: d384 9a3d e20a 7f3d a10e 813e b9c1 883e
00000020: 6013 efbc 2f9f 223e 1508 76bd 28f8 fdbd
00000030: 8bc7 35be b376 9b3e 186e c1bd d1f4 2e3e
00000040: a16a 42be f09a 163e a2e4 b8be 051d 8cbd
00000050: 1a7b 00be b3de 69be 31f9 aebd 3f23 ee3d
00000060: 50ab 103d fa3b 0abe 9ba3 25bd 69e3 4338
00000070: 3b74 6e3d fd06 c0bd 5c2e 153e 737e c8be
00000080: 0009 a7be 01bc 0abd 701a 283e d366 2bbe
00000090: 7d41 65bb 4562 59bb c630 e8bd 0a4d 17bd
000000a0: 83f2 b8be 8891 75bb 8d9f a03b b0d4 2dbe
000000b0: 8ae2 dabd 3c9d 1f3e 316e 52bd 4f48 96bd
000000c0: 3d7b 443e 2ae0 3e3d 0fc8 7ebe f633 653d
000000d0: 03dd e03d cb30 0d3d a4d3 f2be c7e6 fe3d
000000e0: 1e88 263e 4ad7 0bbd 0342 0c3e ee67 113e
000000f0: 795f e0bd b88b 9fbc b757 8ebe ef84 52bd
00000100: e514 7b3c 4ffe ecbe 20c0 35be fbf7 84be
00000110: 21ca 05bb fdaf 85be 94e0 503d 96b7 8dbe
00000120: ad3d fb3d f92a 9abd 9bb0 47be b8fc 803e
00000130: 873e b23e 1d96 643e f0c9 0bbe e569 b3be
00000140: 7021 39bf 6ec4 dbba 726f 8dbe dc40 9c3d
00000150: e614 e83c db30 7e3c 6bb8 37be 63f8 febe
00000160: 89c3 5d3d a998 83bd 6c4f b23e 6d11 1dbe
00000170: 341f 903e 3b13 12be 9293 adbe 3b29 3b3d
00000180: f1b9 913e 1ee1 4dbc 860c 4cbe 6ba4 6cbc
00000190: 0620 ffbe f97a b13e 5b87 333e a500 98bc
000001a0: 5815 45bd 6dec d13e 70e6 2abe 6536 903d
000001b0: 3442 eb3d c31c ab3e 9f6a ab3d a60c f63c
000001c0: 0bcd 9bbe 3774 8dbe a0a8 8f3e 4781 40bd
000001d0: a48b 6bbe b986 8ebe 69cd 6e3e 3ad3 80bd
000001e0: a9b1 de3d a4e8 65be 33df 8fbc 9a4d 20bf
000001f0: 7e9b dbbc 885f b23e 3012 45be 2cf8 2c3e
00000200: 6946 aabd c21c 6d3d 910e 55be 87a7 8cbd
00000210: 62ef fb3d 71f8 553e 242d 8d3d fedd a7be
00000220: 5ec8 a73c 6d41 8fbc d185 413d 3df5 48bd
00000230: 466e 96be 2272 923e c1f9 963d c990 50be
00000240: d63b 01be d58d 5d3e de10 703e e9bd 01bd
00000250: c2da 0dbf e91c f93d fd52 4bbd e684 aebe
00000260: c935 4ebe 63d0 b73e 26b6 0b3e 14fc c03c
00000270: 8046 3abc a4a6 c83d aa89 2c3e 32c9 c93d
00000280: 5a3c 173d f27e 88bd 26af 3abe 620c 06be
00000290: 50ff bdbd 7792 89be 30b2 b6bb fcd0 9bbd
000002a0: 8311 f5bd 649f 89be 9ff9 96be 709e 003e
000002b0: 5838 b0bd 4ac4 dabd d67e 8cbf 2de2 953e
000002c0: 7c79 113e 8dc6 68bd d739 eb3b 3d33 ddbd
000002d0: 460b 9ebe 31c2 213e 27ed 6cbe e601 f73e
000002e0: b25e 8cbe 7b58 34bd dce8 fdbd 780b 4bbd
000002f0: 2508 053e ea44 4ebe 25c6 ffbe 891e cabd
00000300: 4f33 b1bd 7807 943c 26b2 60be 6ee7 383d
00000310: 0601 463e 1c30 543d 957e 0cbd ee8f e2be
00000320: 3d73 3ebd 14f9 fb3c 2b09 45be 3fea b8be
00000330: 46d7 153e f398 ffbd d6bd b2be d6ba 80be
00000340: 1b30 253e 237f 8f3e 7361 2dbf 12f7 773d
00000350: 333f b5bd 363c ffbd 4cb7 843e 6b20 6fbe
00000360: 0d6a 6cbf 9857 7e3d 57aa fc3d be03 5cbd
00000370: a02f 983b f658 00bf be15 c6be 1a9f b0bd
00000380: c1c7 033f 9446 28bf dd4e c13e 0a20 2d3d
00000390: 8755 1cbf 1bed 2ebe b837 12bd 39b8 343d
000003a0: da0d c1bb eff4 32bd 678d 2abf c008 ad3d
000003b0: d5fe 813c 97e5 b53d 8ed5 6cbd f2de 9bbe
000003c0: e9a0 ce3d dbe6 0cbe 5a11 95bc 0598 6abd
000003d0: 1bd6 84be cf4d 8f3d c2fa b2bd 706a 503c
000003e0: d91c b4be 94a8 1bbd 58ee e1bd b6af cbbd
000003f0: dc1f d3bc 4f86 f43d 9667 a9bd 9f5f 7c3e
-0.04079583 -0.048411682 -0.07403239 -0.023940062 0.075448655 0.062266238 0.25206473 0.267103
-0.029184043 0.15881036 -0.0600663 -0.12400848 -0.17751901 0.30363998 -0.09444827 0.17085578
-0.18985988 0.14707541 -0.36111933 -0.068414725 -0.1254696 -0.2283886 -0.08543623 0.116278164
0.035319626 -0.13499442 -0.04043923 4.6703415e-05 0.058216315 -0.09376333 0.14568466 -0.39158973
-0.32624054 -0.0338707 0.16416335 -0.16738443 -0.003498166 -0.0033170145 -0.11337428 -0.036938705
-0.36122522 -0.0037470777 0.0049018324 -0.16975665 -0.1068774 0.15587324 -0.051374618 -0.073380105
0.19187637 0.0466005 -0.24881004 0.055957757 0.10979655 0.03447036 -0.47427094 0.12446361
0.16262862 -0.034140863 0.13697056 0.14199802 -0.1095571 -0.019475803 -0.27801296 -0.051396307
0.015324806 -0.46287772 -0.17749071 -0.25970444 -0.0020414668 -0.2611083 0.050995424 -0.27679127
0.12267623 -0.07527728 -0.19500963 0.2519281 0.3481333 0.22322889 -0.13651252 -0.3504173
-0.72316647 -0.0016766915 -0.2762409 0.076295584 0.028330278 0.015514578 -0.17941444 -0.4979888
0.054141555 -0.06425602 0.3482622 -0.15338679 0.28148806 -0.14265148 -0.3390165 0.045693617
0.28462175 -0.012565879 -0.19926652 -0.014443497 -0.4982912 0.34664133 0.17532103 -0.018554995
-0.048116058 0.4100069 -0.16689467 0.07041625 0.114872366 0.3342038 0.08369946 0.030035328
-0.30429873 -0.27627727 0.28058338 -0.04699829 -0.23002487 -0.2783716 0.23320545 -0.06290288
0.1087373 -0.22452027 -0.017562484 -0.6261841 -0.026807543 0.3483851 -0.19245219 0.16891545
-0.08314211 0.057888754 -0.20806338 -0.06867891 0.12301518 0.20895554 0.068933755 -0.32786554
0.020481285 -0.017487252 0.047246758 -0.049062002 -0.29381007 0.286027 0.073718555 -0.20367731
-0.12620482 0.21636136 0.23443934 -0.031675253 -0.5541192 0.12163717 -0.04963969 -0.34085768
-0.20137705 0.35901174 0.13643703 0.0235577 -0.011369348 0.09797409 0.1684939 0.09852828
0.03692279 -0.06664838 -0.18230876 -0.13090661 -0.092772126 -0.26869556 -0.005575441 -0.0760822
-0.11966231 -0.26879418 -0.2948732 0.12560439 -0.08604497 -0.106819704 -1.0976207 0.2927412
0.14206499 -0.056829978 0.007178526 -0.108007886 -0.30867976 0.15796734 -0.23137341 0.48243636
-0.27415997 -0.044029694 -0.1239793 -0.049571484 0.12991388 -0.20143476 -0.4995586 -0.09869105
-0.086523645 0.018069968 -0.21942958 0.045142584 0.19336328 0.051803693 -0.034300406 -0.44250435
-0.04649662 0.030758418 -0.19241779 -0.36116216 0.14632902 -0.124803446 -0.34910458 -0.25142545
0.16131632 0.28026685 -0.6772682 0.06053836 -0.08849945 -0.12462656 0.25921094 -0.2335221
-0.9234932 0.062095255 0.12337177 -0.053714506 0.004644349 -0.50135744 -0.38688463 -0.08624096
0.51476675 -0.65732694 0.3775548 0.042266883 -0.61068004 -0.17082636 -0.03569767 0.044121
-0.005891544 -0.043690618 -0.6662201 0.084489346 0.015868584 0.088816814 -0.05782085 -0.3044353
0.10089285 -0.1375994 -0.01819675 -0.057273883 -0.259446 0.06997263 -0.087392345 0.012720689
-0.3517826 -0.038002566 -0.110317886 -0.099456236 -0.025772028 0.1193968 -0.082717106 0.24645852

_policy.4.bias f4 [128]
00000000: 39c5 3c3d 39cd 6b3c 27a2 0e3e 461f 0ebe
00000010: 069a aabd 08bd 3abe 3647 eabd efbe 4ebe
00000020: b797 3fbe 32f4 adbd c16f 443d 8c1f 603e
00000030: 26e0 18be fbfd d5bd e192 b93d 5afb f13d
00000040: dfdc 9dbe 6f58 4e3d bead e7be 5b73 78be
00000050: 1858 72bc 3900 df3d a365 d3bd f02d 99bd
00000060: a37f 2abc 3f85 cebd c925 4bbe 0760 a4bd
00000070: 0295 8d3b 91af e3bc a8c5 7dbe 7fa1 943d
00000080: 9e9b 083d 6464 463e 787d efbe aa40 85be
00000090: 0f29 2d3d 1756 cfbe e161 85bc a204 29be
000000a0: ca02 883c 31f1 0d3c fa4c d9bd e691 47be
000000b0: 82a6 a33c 6caa 33be 1ebf 1ebe 21f2 84bd
000000c0: edde c13d 468a 043e 5f13 cbbd ba30 58bd
000000d0: 9d2e e03d 3779 64be 1ad9 1b3e 643c 50bd
000000e0: 05a8 25be 4308 fdbd 0bf0 34be f3bf 613c
000000f0: a2fb 98bd e3f1 1cbe 8def 59be 9341 cd3b
00000100: edc0 943d 7093 35bd 2b2b c3bc 7252 65bd
00000110: 6f0c 3abe 1899 d7bd dccd 6ebd 8635 93bd
00000120: 3b10 81be da95 00be ea5e 3fbd 0815 12be
00000130: a61a 943d c5bc 543d 0df5 fabb a9eb dc3d
00000140: caf0 3fbe 4999 80bd 82eb 7bbd 673e fdbd
00000150: 7915 7bbe 8f16 903e f298 ab3d e7f7 d5bd
00000160: 7fbf 6cbe ee33 cebd 044d 613e 8cac 01be
00000170: 442c 84bc fd35 abbd b974 2ebe 3a9e 83bc
00000180: e502 c7be 74f3 87bd ea12 1dbc a61f 933d
00000190: 910a cb3d efa2 3bbe 340f 54be d546 e63d
000001a0: d72d 27be de01 313e 89f6 fc3d b7f2 d03a
000001b0: 1fe3 0dbe 197b 6e3c 7509 09be 760e c63c
000001c0: 0160 74be 1d1e 36bd a07f 49bd 2da1 253d
000001d0: e3f1 c83d 07d7 acbe 5e33 7cbd 369b 9dbe
000001e0: 8da1 8fbd 4ed7 18be a603 9abd d20b bf3c
000001f0: 820c 2ebd 8d35 56be e42f e33c c10d 8b3d
0.046086524 0.014392191 0.13929044 -0.13879117 -0.08330159 -0.18236172 -0.11439364 -0.20190023
-0.18710218 -0.08493842 0.04795814 0.21887034 -0.14929256 -0.104488336 0.09061218 0.1181552
-0.30832574 0.050377306 -0.45249742 -0.24262755 -0.014791511 0.10888714 -0.1032212 -0.07479465
-0.0104064075 -0.100840084 -0.19838633 -0.08026128 0.0043207416 -0.027793678 -0.24782431 0.072573654
0.033351533 0.19374233 -0.46775413 -0.26025897 0.042275485 -0.4049537 -0.016282024 -0.16505674
0.016602892 0.008663462 -0.10610385 -0.1948925 0.019976858 -0.1754548 -0.15502593 -0.06491495
0.09466348 0.12943372 -0.09915804 -0.052780844 0.10946391 -0.22311865 0.15219536 -0.050838843
-0.16177376 -0.123550914 -0.17669694 0.013778674 -0.0746987 -0.15326647 -0.21282788 0.0062639206
0.0726336 -0.04433006 -0.023824295 -0.05598683 -0.18168806 -0.10527247 -0.05830179 -0.07187943
-0.25207695 -0.12557164 -0.046721376 -0.14265835 0.07231645 0.051937837 -0.007658607 0.10787136
-0.18744197 -0.06279237 -0.061503895 -0.12365418 -0.2451991 0.2814221 0.083787814 -0.10447674
-0.23119925 -0.100684986 0.22002035 -0.12663478 -0.016134389 -0.08359907 -0.17036714 -0.01606666
-0.38869396 -0.06638232 -0.009587029 0.07183771 0.09914125 -0.18323873 -0.20708925 0.11243979
-0.1632608 0.17285869 0.1235171 0.0015941475 -0.13856171 0.014555716 -0.13382514 0.024176817
-0.23864748 -0.044462312 -0.04919398 0.040436912 0.09811761 -0.33757803 -0.061572425 -0.3078248
-0.07013235 -0.14925882 -0.07520227 0.023321066 -0.042492397 -0.20918866 0.027732797 0.06789733

_policy.6.weight f4 [128, 128]
00000000: a02f b5be 819e 433d dce5 38be 32b6 90bc
00000010: ec04 46bc 65a0 59bf bfde 0b3e 8d84 db3e
00000020: d6e9 f7be 8615 c1bd f177 9d3e c54a 25be
00000030: 9338 e9bd c364 d73e dcf3 9ebe 83a2 09be
00000040: c1f1 1ebe 5e5b efbd f7a3 603e 7ef6 74be
00000050: bfd5 4d3e dde5 883d 53c4 42bd 4a6f b9bd
00000060: 8a4e 87be 0028 f3bd 870c 04bf 6f39 aa3d
00000070: 5a2b 6abe 0595 0bbd a458 583e d567 a93e
00000080: 4ccd 873d bcab 323e c3cb ae3e eee8 983e
00000090: 5b77 083e 3126 37be 571c 833e 310e 38be
000000a0: c4a8 07bf 6326 a6bc 90d4 c93d 358e 913e
000000b0: 8a0c 4abe c070 e4be 27ed 44be cb25 8dbe
000000c0: 7684 3cbe b6d4 8d3d 8860 6fbd 2fc2 183d
000000d0: aaa0 473e 90cd 09bd 6822 4ebe 96ea 14bf
000000e0: 5ca7 49be 7bb8 9cbd 02d7 e1bd 6bcd ecbd
000000f0: 6592 353e c746 4fbe 6179 c0bc 28cc d4bc
00000100: 01b5 73bf 87dd 7e3e d3d9 c1bd 4874 c0be
00000110: 1b33 6c3d cb42 d33d da99 923e 830d 633d
00000120: 97c1 8e3e aa1e a1bd 21e4 4abe 3729 413e
00000130: a2c9 d73e 28b1 14be 8459 e03e cc47 063d
00000140: dd48 0dbe b65d f5bd ca6e 5dbe f231 d3be
00000150: ab1f 39bd 85f4 f9bd 9fb5 1cbe c857 9abc
00000160: 6545 e4bc 3d4d 30be 8686 9a3e 33e3 9cbd
00000170: 13ff 463e 0053 86bd b9fd 6cbe 4828 0fbf
00000180: db40 a2bc 21ae 2ebd bff4 46bc 2240 3fbf
00000190: 8e76 ff3c 33dc ce3c 0faa abbe 5d79 d93e
000001a0: 14db 86bd 366f 01bd 09c2 ea3d e949 883e
000001b0: 2d62 9bbe 1026 cbbe f4a3 2bbd 5677 eebd
000001c0: 34f2 b33d 7e56 9abd 5f9b f2bd e0b7 843e
000001d0: bc49 df3d 69f5 393e 3c56 3dbc 6f1c d63d
000001e0: 86a4 933e da61 12ba d06f 563e 7f8a c3be
000001f0: d154 babe 9b79 2a3e c84e 6fbe 322d 39bd
00000200: 24bf a8bc 05f2 703e 22da afbe bc5d e23d
00000210: 7c87 dbbe 39bf 1ebd 2e37 12bf 207d dfbc
00000220: ded3 c5bd 4672 5dbd 8f48 2abe 1f96 bcbd
00000230: bada 95be 9087 bc3c 2d83 b3be d0d6 06bf
00000240: 0dd2 af3d d00c 33be c479 37bf ee6e 853c
00000250: 9a5f 8f3d 6965 adbe 72bf bfbd d146 e43d
00000260: 7c39 7cbd b44f 8fbe 8d67 b73c 5938 d63d
00000270: 66d9 a5be 63ee babe b893 45bd 079d ee3d
00000280: e7a2 1abf 842b 823d 57a9 853e f450 603e
00000290: 59cd 3fbd f5fa 88bc bb7d bcbd 6a26 a03d
000002a0: 59e9 caba 7efa 52be 906c 83bf f7be 68be
000002b0: ff6e c93e adf7 afbe ec3c 0abf 8660 9cbd
000002c0: 2c4c e6be 3363 2b3d c224 3bbf 3da1 97be
000002d0: 5f3a 263e 2622 e6be faa5 16be c759 883e
000002e0: 9173 ac3b 10ab 293e 70b6 36be 4ce8 8fbd
000002f0: 62af 8abe ff93 c83c 9684 dc3d a4ef 11bd
00000300: a07b 1bbd db15 bc3e 8d11 b9be 7730 253d
00000310: 80bb 20bf 0cea ffbe 2fce 88be 2950 813e
00000320: bcc0 12bf 1028 72bc 7728 9e3d 6a0d 48be
00000330: 9415 043e 5e2e 64bf 15ef bcbe 3953 2b3e
00000340: 85c6 ddbd 4a16 2e3e c2ff dabe da1c bfbe
00000350: c04e 153e a60e 75bc db86 9f3e 0a4d 06bf
00000360: 8695 973e 9cf1 dbbe da67 64be b743 c13d
00000370: e3ea 913e a6c0 cf3c d681 ba3c 01d9 2f3e
00000380: 67c6 b13d b7e3 06be c968 5abd 7865 a23d
00000390: 5567 38bf 78bc 8fbc bf97 a7be c4d8 e83d
000003a0: 9fcd 473e ad3b c2be 8e14 0b3e 0788 2b3c
000003b0: 20b4 27be e16b 33bf cbe4 e33e 2702 76be
000003c0: a1e8 c7bd 86b6 c5bd 46f6 a7be 4ae1 37be
000003d0: a449 b5be a493 6ebd f59f 04be 2084 c0be
000003e0: c989 c2bd 1a0d 80bf b5e3 b9bd b063 243e
000003f0: 4a2c eebe 8db7 c0be a6a8 84bd 6f7a 92bf
-0.35387897 0.047758583 -0.18056434 -0.017665002 -0.012086134 -0.8501037 0.1365919 0.42874566
-0.4842059 -0.094279334 0.3075557 -0.16141804 -0.11387744 0.42069063 -0.31045425 -0.134409
-0.1552191 -0.11687349 0.21937548 -0.23922154 0.20101069 0.06684468 -0.04755051 -0.0905443
-0.26427108 -0.11872864 -0.51581615 0.08311736 -0.228681 -0.034077663 0.21127564 0.3308703
0.06630954 0.17448324 0.34139833 0.2986521 0.1332678 -0.17885663 0.2560756 -0.17974164
-0.5299189 -0.020281976 0.09854996 0.28428808 -0.19731346 -0.4461727 -0.19231091 -0.27567896
-0.18409905 0.06925337 -0.05844167 0.037294563 0.19494882 -0.033643305 -0.20130312 -0.5817045
-0.19692749 -0.07652374 -0.110273376 -0.11562618 0.17731626 -0.20241843 -0.023495378 -0.025976256
-0.95198065 0.24889193 -0.09465375 -0.37588716 0.057665925 0.10315474 0.28633004 0.055432808
0.27882072 -0.07867177 -0.19813587 0.18863378 0.4214602 -0.14520705 0.43818295 0.032783315
-0.13797326 -0.119807646 -0.21624294 -0.41249043 -0.045196217 -0.122048415 -0.15303658 -0.018840685
-0.027865121 -0.17216964 0.30180758 -0.07660522 0.1943324 -0.065588 -0.23143663 -0.5592084
-0.019806316 -0.04264653 -0.012143313 -0.74707234 0.031184461 0.025251484 -0.33528182 0.42475405
-0.065847546 -0.0316002 0.114627905 0.2661889 -0.3034834 -0.39677477 -0.041904405 -0.11643855
0.08786431 -0.07536028 -0.11846041 0.25921535 0.109027356 0.18160023 -0.011556204 0.10454642
0.2883646 -0.0005584039 0.2094109 -0.38191602 -0.36392835 0.16647951 -0.23369896 -0.045209117
-0.020598955 0.23529823 -0.3434611 0.11053035 -0.42876804 -0.038756583 -0.5711545 -0.027281344
-0.09659551 -0.054064058 -0.16629241 -0.09208321 -0.29268438 0.02301386 -0.35061017 -0.5267153
0.08584986 -0.17485356 -0.71670175 0.016288247 0.070006564 -0.33866432 -0.09362687 0.1114632
-0.06157826 -0.27990496 0.022388244 0.10459966 -0.32392424 -0.3651 -0.04823658 0.11651044
-0.6040482 0.06355956 0.2610576 0.21905881 -0.046826694 -0.016721228 -0.09203669 0.07819827
-0.001548092 -0.20603368 -1.0267506 -0.22729097 0.39342496 -0.3436865 -0.5399921 -0.07635598
-0.4497999 0.04184265 -0.7310296 -0.29615203 0.16233204 -0.44947928 -0.14711753 0.26630995
0.0052628 0.16569161 -0.17843032 -0.07026729 -0.2708693 0.024484633 0.10767476 -0.03562893
-0.037959695 0.36735424 -0.36146203 0.040329423 -0.627861 -0.4998325 -0.26719806 0.2525647
-0.5732534 -0.014780059 0.07722562 -0.19536367 0.12898856 -0.8913325 -0.36901155 0.16730966
-0.1082888 0.1700069 -0.42773253 -0.373267 0.14580822 -0.014957106 0.31157574 -0.524613
0.29606265 -0.4295777 -0.22305241 0.09436744 0.28499517 0.025360417 0.022766989 0.17172624
0.0868042 -0.13172804 -0.053322587 0.0792951 -0.7203267 -0.017545924 -0.3273296 0.1136947
0.19512032 -0.37936154 0.1358206 0.010469443 -0.16377306 -0.70086485 0.44510493 -0.24024259
-0.09761167 -0.09653954 -0.3280508 -0.17957035 -0.35407746 -0.05824627 -0.12951644 -0.37600803
-0.09498937 -1.0003998 -0.09076635 0.16053653 -0.46518165 -0.37640038 -0.0647748 -1.1443614

_policy.6.bias f4 [128]
00000000: 986d 16be 8579 00bf 57f0 603e ea8d 603e
00000010: 508d 093e adf0 1c3e 5fe3 9cbb 5704 0c3e
00000020: f319 0b3e 561e fd3c 059f 723d c555 fe3c
00000030: 5093 ab3c 6d4b 18be 5ad1 8b3e ffcf 2d3e
00000040: 7d01 1e3d 69b4 5c3d 5da0 46bd 0f1d 7abd
00000050: a118 843e 3c3e 3b3e ecc9 783e 2c13 553d
00000060: cfd4 353e fa1d e83d db2a 603d 8a53 263e
00000070: 7b6c a0bd 5880 cd3d 3bf4 de3d f731 34be
00000080: f4bc 223e 496c cebd 5ee2 553e 4b98 143e
00000090: 057b b8bb 1627 363e 0746 883d d6f2 32bc
000000a0: 8e82 55be 8538 c2bd 54cd 8e3e 2e2e 713c
000000b0: 6f5b be3d 3f21 83be fc12 873e d478 eb3d
000000c0: 20b0 a63d 8d58 06bd de93 a23d 0894 8b3d
000000d0: 0083 8b3d 464b 8a3d eaf2 573c 8ea5 bd3d
000000e0: 7cb4 4b3d 8735 c33e 1781 883d 54db 253e
000000f0: 79e6 e1bc eb67 323e e3bf b43d b715 7a3e
00000100: 959d c5bd 21fd 253e 6ab1 6d3e d656 443e
00000110: e077 733b 4074 653e d271 1abe a628 9f3d
00000120: 401c 193d 0f89 0e3e 4aa0 77bd 2320 e73d
00000130: b645 b03e ea4b 8bbe 4de4 fa3d 071e 243c
00000140: 2531 073e 7880 983b 171c 44be c202 19be
00000150: d3b3 853e 4a93 fa3c 8759 97be 06aa 583d
00000160: 9103 413e ebe7 fb3d b305 c4bd f3dd 783e
00000170: 24cd 733e 6a55 483e 56bd 65bd 4fc6 10bd
00000180: 83ac a1bd 95f4 383e d151 ca3d 6a2f a3bd
00000190: f634 743d d6d6 a5bd 4fab 3cbd bd79 083e
000001a0: 3c97 4dbc 0360 5b3e 11f1 e93d bf01 fb3d
000001b0: 7dcf fabe 538b a93e e405 a13d aae5 d23c
000001c0: dbba 3b3d 5790 00be 8e5a ec3c fad5 373d
000001d0: b4d2 063e fb26 3f3e 8ebe 56be 3030 273e
000001e0: f767 533e 8d71 a73e bd2c 683e ccfd 04bd
000001f0: 1f28 9d3e d27e 19bd 4277 acbd 1a2f 2b3c
-0.14690244 -0.50185424 0.21966682 0.21929136 0.13432813 0.15326186 -0.004787847 0.1367353
0.13584118 0.030898254 0.059233684 0.031046757 0.020944268 -0.14872523 0.2730816 0.16973875
0.038575638 0.05388299 -0.048492778 -0.06106287 0.2580004 0.1828546 0.24295777 0.052020237
0.17756961 0.113338426 0.05472837 0.16242805 -0.07833191 0.10034245 0.10886427 -0.17597185
0.15892392 -0.100792475 0.20887133 0.1451122 -0.0056298994 0.17788348 0.06653982 -0.010922154
-0.20850584 -0.094834365 0.27891028 0.014720483 0.09294783 -0.25611302 0.2638167 0.114976555
0.08139062 -0.032799292 0.0793836 0.06815344 0.06812096 0.067526385 0.013180474 0.09260093
0.04973267 0.38126776 0.06665247 0.16196948 -0.027575718 0.17422454 0.08825662 0.24422346
-0.09649197 0.16209842 0.2321221 0.1917375 0.0037150308 0.22407627 -0.15082482 0.07771425
0.037380457 0.13919471 -0.060455598 0.112854265 0.34428185 -0.27206355 0.12250576 0.010016925
0.13202341 0.0046539865 -0.1915134 -0.14942458 0.26113757 0.030587811 -0.2956049 0.052896522
0.18849017 0.12300094 -0.095713995 0.24303417 0.23808724 0.19563833 -0.056088768 -0.03534537
-0.07894232 0.1806205 0.098788865 -0.07968028 0.05962082 -0.08097617 -0.04606181 0.1332769
-0.012548264 0.21423344 0.11422933 0.122561924 -0.48986426 0.33114108 0.07862452 0.025744278
0.045832496 -0.12555061 0.028851774 0.0448818 0.13166314 0.18667214 -0.20971128 0.16326976
0.20645128 0.3270382 0.22673316 -0.032468602 0.30694672 -0.03747446 -0.08421184 0.010448242

_policy.8.weight f4 [3, 128]
00000000: d546 0bbc 2b0a 6b3d 5417 1ebe 07f1 ffbe
00000010: 28e8 f3be 3b37 8dbe 93af 30bf 9327 85be
00000020: a8b9 1d3f 1cb6 59be d90a fb3e 3367 2e3f
00000030: 093c 06be 0056 cabc ba7c 37bf 2502 29bd
00000040: 07be 833e e86b 933e c649 d1be 7c67 68bd
00000050: cc27 6cbe 8f34 1dbe 906e dd3d 3d65 643e
00000060: f382 7ebc 5c20 babe 406f 853e 4485 2bbe
00000070: 1176 32bf 4893 bf3e db4a d0bd 99ce 0f3d
00000080: 19d7 4cbe c365 fcbc 3771 19be 5941 dc3e
00000090: 679d f9be e29a f43e b983 d2bd 1121 66be
000000a0: 64a6 fa3e aa63 d2bb 40e3 e2bb 2622 243f
000000b0: 143d ad3e 35a9 d3be 5dac 4b3f c633 233e
000000c0: 69ea 08be a210 90bd ce30 903e 53b5 87be
000000d0: b336 94be dfdd 333e 33d0 c3bd 218e 58be
000000e0: ee64 8e3c cf41 afbe a16d 3e3e 5f0a 973e
000000f0: 7e8d 40bc d641 16be ceaa ffbe 58a4 15bd
00000100: bd36 923e 7dfc 5b3e 471e 363f d6d3 2ebe
00000110: 6ac7 e23e bfd1 35be d775 123f 0469 e93d
00000120: 7a40 aebe bc75 a83e 9b8b 463f d652 abbd
00000130: 6650 1fbe 6c92 833f 956c 89bd ad66 ff3e
00000140: 137b 01be fa12 4bbe 858c 69bf 1de8 0abd
00000150: b91f 8fbe 33ff 843e 8b6b 84bf 3481 debd
00000160: 46b5 bfbe f26b 2b3e 8b65 7fbe 6fcf 2fbe
00000170: edd0 24be 9cd0 15be 05ff 003f 7ecf 0f3f
00000180: bd78 7fbc 904b b4bd 5cd9 e33d 7f99 1dbf
00000190: 06be 193d 3dfd 13be db51 71be 5502 a6be
000001a0: f241 5bbd 9227 6e3e f038 b4be f3d6 3a3f
000001b0: ceec 793e 4ef1 ae3e 6c9f a0be 5d6f 373e
000001c0: 7b81 92be 647c 35be a8e4 5b3e b88c 563e
000001d0: 0eca a9be 2f4b edbe 4992 803f 0eed c0bd
000001e0: 5d64 953e e8b4 82be d7c7 5fbe 1def 043f
000001f0: a2a2 e23e db3b e83d 516b c23e e6f4 f9bd
00000200: 48ca 9e3e 9ce6 373f 123f 01be 82fd f33e
00000210: 0b0c f43e c1db b4bd ec81 e53e e58c fd3e
00000220: acee a1be bf21 fc3e 50fd babd 8c7b 22be
00000230: 5fb7 10be b7dc 123e b512 523f 2d21 67be
00000240: c6a5 aabe b07e 41be 8ca2 883e 2f3a cd3e
00000250: 0918 ce3e 0f1c 893e 05bf cabe af04 0fbe
00000260: 776c 75be aa5c a03e 16bd 9bbe 0333 8dbe
00000270: df43 b93e a0cd 96be 6b29 8a3e b99e 293d
00000280: aeee 9e3e f8ed 82be df1e 1bbf c97d bcbd
00000290: a0bf 62bc 52b5 f4be 5732 c03e 1e6f 83bd
000002a0: b7ae 483c 3be4 a13e 2d55 e43e 56c2 71bf
000002b0: 55e9 b8be 9a35 043f 7ec3 1cbf bbaf 32be
000002c0: 7a19 40be 3497 bc3e 13b6 95bc e5fe 853e
000002d0: 1f4c 953e ce02 27bd 3efa c53e aa11 f3bd
000002e0: 1d92 5a3e 6b65 ae3e 7fc5 063e 2c35 f9bc
000002f0: 1925 103f 3de0 cdbd 2279 223f b69d 553e
00000300: cf2e 11bf d49d 3fbd 7939 24be dd8d aa3e
00000310: 874c 0ebd ab16 efbe 3043 c23d b1b3 f23e
00000320: 11a8 ec3c 6224 cfbe f420 86bd cfde 59be
00000330: d502 913e d1df 80bf 9a2a a0be 845b 13bf
00000340: c39f 50be 667d 03be aca6 283f 9f8d 763e
00000350: 574d 973e 87b0 033e b203 9a3e b018 b7bd
00000360: d915 ed3e d4be 5abe 163b 093e 15f0 a1be
00000370: 630f a0be 63f5 a2be 1753 08bf dc91 43be
00000380: dd7d 11bf a7ee aa3e dc16 6cbd f1cd 573e
00000390: ad3e 36bf 614b 46be c5d8 d33d c2da bfbc
000003a0: 221f 2fbe 3190 93bd 1a66 44be 0d02 3ebf
000003b0: d68a 113f 0449 a3be 864c f13d a51f 71be
000003c0: e6b6 883e 6dec 203f e8de 0d3e e808 163e
000003d0: 4677 bbbd 3292 b13d 6e08 b2bf 1a22 c2be
000003e0: faa7 8dbe 83ce 373e a060 e43e b46b f5be
000003f0: 9562 a2be 2835 903d 5eab 2c3e 5780 7abe
-0.008500774 0.057382744 -0.15438586 -0.49988577 -0.4763806 -0.275812 -0.69017905 -0.26006755
0.61611414 -0.21260875 0.49031714 0.6812622 -0.13108839 -0.024699211 -0.7167469 -0.04126181
0.25730917 0.28793263 -0.40876597 -0.056739315 -0.23062056 -0.15352081 0.10812104 0.22304244
-0.01553415 -0.36352813 0.2606144 -0.16750056 -0.69711405 0.37417054 -0.101705275 0.035109136
-0.20003928 -0.030810243 -0.14984594 0.43018606 -0.487529 0.47774416 -0.1027903 -0.22473551
0.4895507 -0.0064205723 -0.006924063 0.64114606 0.3383566 -0.41340032 0.7955988 0.15937719
-0.1337067 -0.070344225 0.28162235 -0.26505527 -0.28947982 0.17565106 -0.09561195 -0.21147968
0.017382111 -0.34229895 0.18596508 0.295001 -0.011752484 -0.14673552 -0.49935 -0.036533684
0.28557387 0.21483035 0.7113995 -0.17072996 0.44292766 -0.17755793 0.5721106 0.11396983
-0.34033567 0.32902324 0.7755677 -0.08365409 -0.15558013 1.027906 -0.067101635 0.49883023
-0.12644605 -0.19831458 -0.9123004 -0.033912767 -0.2795389 0.25975952 -1.034532 -0.10864487
-0.37442988 0.16740397 -0.2494108 -0.17168973 -0.16095324 -0.1463036 0.5038913 0.5617598
-0.015592751 -0.08803475 0.111254424 -0.6156234 0.037534736 -0.14452071 -0.23566382 -0.32423654
-0.053529687 0.23257282 -0.3519969 0.72984236 0.2440674 0.34168476 -0.3137163 0.17913575
-0.2861441 -0.17723233 0.21473944 0.20952117 -0.33161968 -0.46346423 1.0044643 -0.094202146
0.29178134 -0.25528646 -0.21853577 0.5192736 0.44264704 0.113395415 0.379725 -0.12204914
0.31013703 0.71836257 -0.12621716 0.4765435 0.47665438 -0.08830977 0.44825685 0.49521556
-0.31627405 0.49244496 -0.09130347 -0.15867442 -0.1413245 0.14342009 0.82059795 -0.2257125
-0.333296 -0.18895984 0.26686513 0.40083453 0.40252712 0.2677922 -0.3959886 -0.1396663
-0.23967157 0.31320697 -0.304177 -0.2757798 0.36184594 -0.29453754 0.26984724 0.041411135
0.31041473 -0.2557218 -0.6059398 -0.09203679 -0.013839632 -0.47794586 0.37538406 -0.06417678
0.0122486865 0.3161944 0.44596234 -0.9443716 -0.36115518 0.5164429 -0.612358 -0.17449848
-0.18759719 0.3683411 -0.018275296 0.26171032 0.29159638 -0.04077416 0.38667482 -0.118686035
0.213448 0.3406175 0.13161276 -0.030420862 0.56306607 -0.10052536 0.63466084 0.20860943
-0.5671205 -0.046781376 -0.16037549 0.33311358 -0.03474095 -0.46696982 0.09485471 0.4740272
0.028888734 -0.40457445 -0.06549254 -0.21276401 0.28322473 -1.0068303 -0.31282502 -0.57561517
-0.20373444 -0.12840804 0.6587932 0.24077462 0.29551193 0.12860309 0.30080944 -0.08940256
0.4630573 -0.21361858 0.13401446 -0.3162848 -0.3126174 -0.3182784 -0.53251785 -0.1909861
-0.5683268 0.33385202 -0.057638988 0.21074654 -0.71189386 -0.19364692 0.1034408 -0.023419742
-0.1710172 -0.07205237 -0.19179574 -0.7422188 0.5685247 -0.31891644 0.11782174 -0.23547228
0.2670204 0.6286076 0.13854563 0.14651835 -0.09153609 0.08670463 -1.3908823 -0.37916642
-0.27667218 0.17949872 0.4460497 -0.47933733 -0.31715837 0.07041389 0.16862246 -0.2446302

_policy.8.bias f4 [3]
00000000: 71f0 ae3d 5442 a6bd e6b9 afbc
0.08541954 -0.0811812 -0.021450948

_value.0.weight f4 [128, 22]
00000000: 0949 813d 9182 2b3e 9eee 17be 7ff2 1a3d
00000010: 18b2 ec3c 85ea 2cbe 2372 9e3d cc30 4abd
00000020: b387 283e 9597 3abe 82b1 0bbd f392 243e
00000030: a7da 903d 3e58 5cbd 3d94 42bd b7d6 2d3d
00000040: a02f e3bc 611b 2d3e f6a2 2339 0f67 d23d
00000050: df54 a03d 0410 a1bd c38a 23be 990e 0dbe
00000060: ffc4 87bd ad6a 55bd 8cc6 193d 437f 1fbe
00000070: 5050 a3bd 2979 033e f99f 72bc 27e0 9fbd
00000080: 047b 17be 60b7 6dbd 3e74 1ebe 6921 303e
00000090: da37 e43d 0597 293e 93ae 15be 70ab 32be
000000a0: 6bd1 683c 727e 69be 1cf6 ecbd 3e5b 3e3d
000000b0: 06e5 d8bc 9408 00bd bda9 7fbd a072 17be
000000c0: a9a8 253e df6b 253e aaa5 d9bd e7e0 323e
000000d0: 45ed 073e 6056 903d d6c3 373e 4692 193e
000000e0: a70c 25be 4252 53be b6a6 11be 59bc 57be
000000f0: c5b7 0abe 4616 62bc 9dbe 6cbd c7af c3bd
00000100: 6a08 1abe 056d a83d fbd8 ebbd edde 353d
00000110: c90d 633b 1c1e 56be 49ed 1bbe 8fd0 573d
00000120: c730 923d 4fe0 103d 89d0 843c 29c6 e9bd
00000130: 5d46 e83d f5f7 233d 7eac 8d3e b2f4 b53b
00000140: aaca 163e ec01 d8bc b6c5 013c 88a8 26bd
00000150: e588 ddbd 67d2 973d cbe0 aabc 9527 8b3e
00000160: 7a37 0abe f96a 7b3e 6ee9 6ebe 081c a53d
00000170: 2fa3 b23c 2747 c23d d455 d43c 5423 ab3d
00000180: 641f 96bd cd0f b1bd 009f 3cbe e27e c2bd
00000190: 3cf7 653d 9849 873d 93e8 abbd 12f9 a2bd
000001a0: 2e7e 68bd de42 873d 054e 50bd 9d12 8e3c
000001b0: 4293 0b3d 3a65 cfbc 74f3 46be 5fd6 6c3e
000001c0: 2ed2 053e da5a e1bd cc36 013e 540a 0bbe
000001d0: 09d6 1d3e 6577 133d 83f5 9f3d c972 b23c
000001e0: 5ee0 04be a4eb ab3d da49 143e c25c ea3d
000001f0: 3199 363e 7876 d03d 83f8 a53a 37e9 23be
00000200: 5fbe 573b 6e34 0abe 51b3 b4bd d843 37be
00000210: 3ca4 af3d ce48 333e f04b debd 60ee 2e3e
00000220: 74e5 3abd 3f7e 30be 9fec c13c 0881 04bd
00000230: 03b1 873d baeb 5abd ac8a 4abe d1e8 60bd
00000240: 1ce1 14be 9be6 363e ef71 3cbe 1d39 f03d
00000250: 595f 7b3d f9c7 cfbd 0096 cf3d 3beb 3abe
00000260: 5ea5 28be 7c10 a73c acae adbd 9741 0cbe
00000270: 9be3 aa3b 8272 26be 6cd5 ca3d 5bb0 133e
00000280: f781 db3d 2573 893c 93d3 d4bd c561 2b3e
00000290: fd57 a2bc 2e1e 15be 1671 5d3d 62bb 47be
000002a0: 2af6 9d3d d51a fcbd e9ba 673c 89da cdbc
000002b0: e23c 62be d068 253d 554c 1c3e 10a7 f53d
000002c0: ab12 de3d d620 3bbe 86d3 8ebd fa21 e5bd
000002d0: 2840 aebd 0a26 d03c 4759 f03d b0a3 283e
000002e0: 338e 0cbd a34f 3e3e 1b9e 49bd 71be 0ebe
000002f0: fd6a 033e e7ee 06be 2e45 54be 6f17 31be
00000300: 4d47 263e 4f8c e53b 2249 533c 7aa5 cbbd
00000310: c986 5fbe f6e9 253e 8cbe 60bd b18c df3d
00000320: 139e 9f3d 5799 06bd 2e0e 3a3d 8d29 a6bd
00000330: 9a42 433d a312 29be 4f60 04bc 2521 b93d
00000340: 8f38 9cbd 2fee 4c3e 989e 17be f30b 3bbe
00000350: a406 fc3d ae79 a3bd 335d 64bd ead9 4abe
00000360: ec4f 51be 340f 183a c5be b13c c321 833d
00000370: 339b 153e 72e5 1fbe 7d0c 25bd b620 0e3e
00000380: 65be 063e 6737 a5bd e201 47bd a267 8a3d
00000390: 7fd7 0d3e f88d 9a3d 0e46 213d 0584 2ebc
000003a0: 6372 903d 4635 7f3c dca6 913c d995 ab3d
000003b0: 34be 13be b656 e0bc 2cd0 2d3e 824d afbd
000003c0: c346 8ebc 4ae6 41be 9f74 52bd 7c9c 2cbd
000003d0: dd95 77bc 3e81 aabd 1cc7 1ebe 615e 04be
000003e0: 0d2a 76bd 26ba e6bc c0b3 183d 7351 f23b
000003f0: 3ca7 0b3e 4a28 043e 2942 073e 91c5 193e
0.063127585 0.16749026 -0.14837119 0.03782892 0.028893515 -0.16886337 0.077366136 -0.049362943
0.16458015 -0.18221886 -0.03410483 0.16071682 0.070729546 -0.05379509 -0.047504652 0.042441096
-0.02773267 0.16904975 0.00015605599 0.10273563 0.07828688 -0.07864383 -0.15970902 -0.137751
-0.06629371 -0.052103687 0.037542865 -0.1557589 -0.07974303 0.12839188 -0.014808648 -0.078064255
-0.1479302 -0.05803621 -0.1547403 0.17200245 0.11143465 0.16561516 -0.14617376 -0.1744821
0.014210085 -0.22802141 -0.11570379 0.046473734 -0.026476394 -0.03125818 -0.062417734 -0.1478982
0.1617762 0.16154431 -0.10627301 0.17468606 0.13274105 0.07047725 0.17945799 0.14997205
-0.16118108 -0.20636848 -0.14223751 -0.21067943 -0.13546665 -0.013799256 -0.05779897 -0.09555011
-0.15042272 0.08223919 -0.11515995 0.04440205 0.0034645668 -0.20909923 -0.15227236 0.05268913
0.0713821 0.035370167 0.016212719 -0.11414749 0.11341546 0.040031392 0.27670664 0.0055528516
0.14725748 -0.026368104 0.007920673 -0.040688068 -0.10817126 0.07413178 -0.020859143 0.27178636
-0.13497725 0.24552526 -0.23331234 0.08061987 0.021806328 0.094862275 0.025919832 0.08356348
-0.07330206 -0.08645592 -0.18420029 -0.09496857 0.056143984 0.06605834 -0.083939694 -0.07957663
-0.05676096 0.06604551 -0.050855655 0.01734286 0.034075983 -0.025316823 -0.19428807 0.23128651
0.13068458 -0.11003657 0.1261856 -0.13578159 0.15413679 0.036002535 0.078104995 0.02178325
-0.12976214 0.08394554 0.14481297 0.114434734 0.17831875 0.10178846 0.0012662563 -0.16006933
0.0032919866 -0.13496563 -0.088232644 -0.17896974 0.08576247 0.17508242 -0.10854328 0.1708312
-0.04562898 -0.17235659 0.0236724 -0.032349616 0.06625559 -0.053447463 -0.19779462 -0.05490953
-0.14538997 0.17861407 -0.18402837 0.117296435 0.061370227 -0.10145564 0.10136032 -0.18253796
-0.16469333 0.020393603 -0.08480582 -0.13696896 0.005215121 -0.16254619 0.09903988 0.14422743
0.10718148 0.016778538 -0.10391917 0.16736515 -0.019817347 -0.14562294 0.054062925 -0.19505075
0.07712968 -0.12309805 0.014143684 -0.02512862 -0.22093537 0.04038316 0.15263493 0.11994755
0.108434044 -0.18274245 -0.06973939 -0.11188121 -0.085083306 0.025408763 0.11735778 0.16468692
-0.0343153 0.18585066 -0.049223047 -0.13939835 0.12833782 -0.13177072 -0.20729515 -0.17294095
0.16238137 0.0070052515 0.012895854 -0.099436715 -0.2182876 0.1620253 -0.05486922 0.10915507
0.07793822 -0.03286108 0.04542368 -0.08113394 0.047670938 -0.16511016 -0.008079602 0.09039525
-0.07627975 0.20012735 -0.14806592 -0.18266277 0.12305954 -0.07982193 -0.055752944 -0.1980969
-0.20440644 0.0005800605 0.021697411 0.06402924 0.14609985 -0.1561487 -0.040295113 0.13879666
0.13158567 -0.08067208 -0.04858578 0.06758048 0.13851736 0.0754661 0.03937345 -0.010651593
0.070530675 0.015576666 0.01777976 0.083781905 -0.14428025 -0.027385097 0.16973943 -0.08559705
-0.017367726 -0.18935505 -0.05138075 -0.042141423 -0.015111414 -0.08325432 -0.15505642 -0.12926628
-0.060098697 -0.028164934 0.037280798 0.0073949634 0.13638014 0.12905994 0.13208832 0.15016772
