logs/weight_colliion_obj_obs = 0.4/model/model_1590.pth (torch, 427625 bytes, 19 tensors)

_policy.0.weight f4 [128, 22]
000000 bd 0f c0 be e2 08 55 bd b0 bb 3a 3e 57 19 be 3d
       -0.37512007 -0.052010424 0.1823566 0.09282177
000010 39 81 b7 be 61 89 5e be d0 d5 32 3e 13 14 d9 bc
       -0.35840777 -0.21732093 0.17464375 -0.02649883
000020 6c 99 e3 3e 29 b0 b5 3e 64 c1 69 be dc d6 93 3b
       0.4445299 0.35485962 -0.22827679 0.004511697
000030 3e 8a 87 3e dc 94 f4 3e f8 c2 98 bd 35 1a 01 be
       0.26472658 0.4776982 -0.07459062 -0.12607653
000040 19 ed a5 bd b2 4f 97 3d 47 47 0b 3d 42 11 03 3e
       -0.081018634 0.073882475 0.034003522 0.12799552
000050 35 f6 08 be 7c c8 16 bf 2a 48 d6 be 72 7d 97 be
       -0.1337517 -0.58899665 -0.41851932 -0.29587895
000060 1c 1c ff 3c 0a a4 89 3f ac c6 7c bd 82 71 02 3c
       0.031141333 1.0753186 -0.061712906 0.007961633
000070 18 aa 85 3e 8e 1c 9a 3d ac da 6d bf 05 1b ff 3d
       0.26106334 0.075249776 -0.9291179 0.124563254
000080 d7 db 1c 3e 9d f3 6c 3e 46 bc a7 3e 3f 9d a7 3e
       0.15318237 0.23139806 0.3276083 0.32737157
000090 77 4f 4f 3e 08 ed 5a bd 9b 9f 2c bd 2a 2a 40 be
       0.20245157 -0.053448707 -0.0421444 -0.18766084
0000a0 95 fb 55 be 22 81 dd 3d 67 2e b9 3c c5 87 e7 bc
       -0.20896752 0.10815646 0.022605134 -0.028262982
0000b0 ed 87 1a bf 9e db 3d bd 5e b3 8c 3e 02 28 a1 3c
       -0.60363656 -0.04635202 0.27480596 0.019672398
0000c0 a0 9b 8f be 33 ee c4 3d 15 52 f6 3b 49 83 42 3e
       -0.2804842 0.096157454 0.007517109 0.18995394
0000d0 a9 7c a1 3f 74 41 08 bf 21 f5 9c 3e d9 98 c6 bb
       1.2616168 -0.53224874 0.3065577 -0.0060607013
0000e0 4e 80 cf 3e 4e f1 e7 3e d3 ef a1 3d f0 ef 1d 3e
       0.40527576 0.45301288 0.07907071 0.1542356
0000f0 f8 e9 1f be 4d 33 e9 3d c7 f1 d1 39 62 70 23 bd
       -0.15616596 0.11386738 0.00040043725 -0.0399021
000100 17 7f bd bd b5 21 e4 bd 25 46 c3 3d e0 f9 0e bf
       -0.09252756 -0.111392416 0.095348634 -0.5585003
000110 78 06 99 3d ab 02 0f 3f eb fe 19 bd ea e1 33 bf
       0.07471937 0.55863446 -0.037596624 -0.7026659
000120 25 9c 2e 3e 5f 64 cc 3e a4 26 14 3e 14 1b 1c 3e
       0.17051752 0.39920327 0.14467865 0.15244704
000130 33 0c c9 bc 05 8a 57 be c4 2d a6 be 56 27 26 3f
       -0.02454195 -0.21048744 -0.3245679 0.6490377
000140 f8 32 6e be d1 c4 0e be 12 76 5d be 1f f8 d6 3a
       -0.2326163 -0.13942267 -0.21627071 0.001640085
000150 79 1f 5a be a8 28 95 3e 92 53 11 3e 57 23 cb 3d
       -0.21301068 0.2913258 0.14192036 0.0991885
000160 c0 ce 8f 3f eb 3f 04 bf 6a 79 80 bd 13 59 50 3e
       1.123497 -0.5166003 -0.06273158 0.20346479
000170 f7 87 45 3f 81 d5 28 bf 43 a8 f5 3d 43 e5 13 bf
       0.7716059 -0.6595078 0.11994984 -0.577717
000180 ab 29 3b bf ea a5 0c 3f 60 87 05 3e 14 d1 1d be
       -0.73110455 0.54940665 0.13039923 -0.15411788
000190 42 7e e6 bd 6c b8 23 be 22 94 b5 3b 08 1d 38 3e
       -0.112545505 -0.1598832 0.0055413404 0.17979825
0001a0 fe ac 45 bc 52 f2 ee 3b a5 1b d8 3c 5b 69 fd bd
       -0.01206517 0.0072920704 0.02638037 -0.123736106
0001b0 1c 68 8c 3c 7a 8d f5 bc 68 df 37 bf 07 71 4e 3f
       0.017139487 -0.029974688 -0.71825266 0.80641216
0001c0 e2 df fd 3e 2f 2f 18 bf 0d 2c 8c be 6a cb 3f 3f
       0.49584872 -0.59446996 -0.27377358 0.7491976
0001d0 7d d9 4b 3e 11 f3 7f 3e 8d f6 33 bd 58 70 99 bf
       0.19907184 0.24995066 -0.0439363 -1.198741
0001e0 02 55 a3 be 92 45 c5 3b 9d ed 39 be 2c 65 a6 3c
       -0.31900793 0.0060202563 -0.18157049 0.020311914
0001f0 35 94 7e 3d a1 43 02 bd 4d d6 28 3e 86 46 35 3d
       0.06215306 -0.031802777 0.16488 0.04425671
000200 97 58 38 bd e5 03 ce bd de 52 93 bd ad 3b ae 3d
       -0.04500636 -0.100593366 -0.0719354 0.08507476
000210 c5 8e db bd e5 63 2f 3e c0 94 99 be bd c8 97 3e
       -0.107205905 0.1712795 -0.299963 0.2964534
000220 56 23 cd 3e 41 c7 82 bd 62 e1 0c bf 4f 64 08 3e
       0.40066022 -0.06385661 -0.55031407 0.13319515
000230 86 b3 19 3f 8e 0c 18 bf 6f 70 6e 3e 05 b4 55 bd
       0.60039556 -0.59394157 0.23285078 -0.052173633
000240 21 5c 6f bf 3a 5d 28 3e 72 0f 32 bd e0 59 94 bc
       -0.9349995 0.16441813 -0.04347176 -0.018109262
000250 0d 1f aa bd ea c7 10 be eb 49 bd 3e 9c 6c 40 be
       -0.08306704 -0.14138761 0.36970457 -0.18791431
000260 87 c6 25 3e 3d c2 f6 bd fb 6f 81 be c1 4c fa bd
       0.16189013 -0.12048767 -0.25280747 -0.12221671
000270 ea 95 6c 3d 47 bc 7a 3f dd f8 b2 3e 74 bd a0 3e
       0.057760157 0.9794354 0.34955493 0.3139454
000280 99 eb 82 be 64 d4 f5 bd 28 b2 57 bf 95 18 66 3f
       -0.25570372 -0.12003401 -0.8425622 0.8988126
000290 a4 5e 92 bd 08 c3 e9 be bf 43 2b 3d 88 42 5e 3d
       -0.071469575 -0.4565661 0.041812655 0.054262668
0002a0 8b c7 21 be 1a 5b 2f 3d f1 81 f0 bd 2b 02 73 be
       -0.15798776 0.04281149 -0.11743534 -0.23731296
0002b0 ac ee 90 bc 44 00 5d 3d 42 c1 3d bc 9c 70 73 3e
       -0.017691933 0.05395533 -0.011581721 0.23773426
0002c0 91 f4 37 3e f5 e0 ee be 22 5e e5 bd 5a 18 11 3e
       0.17964388 -0.46656004 -0.11199595 0.14169446
0002d0 2c ff ed 3e a8 25 ad bd 71 35 48 be 53 7b 29 bc
       0.46483743 -0.08454448 -0.19551636 -0.010344344
0002e0 b7 96 07 40 26 bb 9a 3f 3d a2 81 bc a3 94 f3 bd
       2.118574 1.2088363 -0.015824432 -0.118935846
0002f0 ec 6d 42 3e 32 53 1b 3c 12 58 10 3e 13 22 1e be
       0.18987244 0.0094802845 0.14096096 -0.15442686
000300 1c e8 2e 3e 52 70 9b bd 25 0d 7d bd 9b 09 2f bc
       0.1708073 -0.07589783 -0.061780114 -0.0106834425
000310 0e f9 87 bd 47 ba d4 3d b6 5c b4 3e 41 60 49 3f
       -0.066393 0.10387092 0.35226983 0.78662497
000320 2e 62 e9 be 79 f9 47 bf 35 85 81 be d9 55 07 3f
       -0.45582718 -0.7811504 -0.2529694 0.5286537
000330 95 18 ff be 85 ea 28 bf 6a 4e 21 bf c8 54 b0 3e
       -0.49823442 -0.6598285 -0.63010275 0.34439683
000340 52 2b 99 3c c9 e5 f7 3e 27 90 ad 3e 57 85 04 be
       0.018697415 0.484175 0.33899042 -0.1294149
000350 43 80 93 3d e4 ad 36 3d 97 48 fd 3d f4 01 1f be
       0.07202198 0.04459943 0.12367361 -0.15528089
000360 55 e3 47 bc 42 87 11 3b 0f 76 fe bd 11 c5 f2 bd
       -0.012200196 0.0022205864 -0.12424862 -0.11853994
000370 57 22 4d bf 66 05 b3 be fa cc 33 3e a1 d2 e6 bd
       -0.80130523 -0.34965056 0.17558661 -0.11270643
000380 ac 89 39 bf fc 24 b3 be d2 91 a9 bd 84 ae d5 3d
       -0.72475696 -0.34989154 -0.08279766 0.10433677
000390 a1 ba c7 3f a8 94 10 3f eb af 7a 3e ab 2a 82 be
       1.560383 0.5647683 0.2448117 -0.25423178
0003a0 36 dd 94 bc 6d 36 6f 3d 78 1f 9f bc 08 09 f3 3d
       -0.018171888 0.058401514 -0.019424185 0.11866957
0003b0 a0 63 17 3e 4e 10 69 3c 30 cc f0 bd 3a 12 b4 bc
       0.14784098 0.014225079 -0.11757696 -0.021981347
0003c0 ee a1 c8 bd a1 c3 8c bd 54 0c d4 3c d6 2d a5 3e
       -0.09796511 -0.06873251 0.025884785 0.32261533
0003d0 b1 a1 52 bf 52 42 b4 be 75 74 35 be 5b 84 a4 bd
       -0.8227797 -0.35206848 -0.17720206 -0.08033057
0003e0 4c 79 76 bd cf 11 01 bf ef ce bb be 60 98 17 be
       -0.06017427 -0.504178 -0.36681315 -0.1480422
0003f0 be 11 58 bd 50 3f 8c bd 19 50 dd be dd 1b af be
       -0.052751295 -0.068480134 -0.43225172 -0.34200945

_policy.0.bias f4 [128]
000000 90 7c cb bd 54 16 e7 bc a9 e4 44 be a4 7b 43 be
       -0.09935868 -0.028208889 -0.19227852 -0.19090134
000010 9e 86 e4 bc a8 fe 01 be a8 4a 18 3d 39 10 03 bc
       -0.027896222 -0.126948 0.037180573 -0.007999473
000020 0e af 25 bd e4 bf 36 3e 49 2c 28 3e 7c 0f 37 3e
       -0.04045015 0.17846638 0.16423143 0.17877
000030 79 a9 33 be ef 76 76 be a2 27 01 3c 64 ed d7 bd
       -0.17545117 -0.24068807 0.007882984 -0.105433255
000040 ee 21 05 bc 77 f0 25 3d 75 b6 39 be e8 98 1b 3d
       -0.008125765 0.04051253 -0.18136008 0.03798762
000050 f4 96 af 3d 3e a6 f2 bc dd 70 8b be eb de 78 3e
       0.08573714 -0.029620286 -0.27234545 0.24303786
000060 39 bd 9b bd 20 b7 88 bd b9 15 e4 bc 7f 2d 14 be
       -0.07604451 -0.06675553 -0.02784239 -0.1447048
000070 60 07 e3 3d ff a3 57 be 11 7d 77 be da 2c 28 be
       0.11085391 -0.21058653 -0.24168803 -0.1642336
000080 95 bd e5 3d 96 bd c4 bd a2 6a b4 3d 48 0a 76 3d
       0.112178005 -0.09606473 0.08809401 0.0600684
000090 b0 51 54 3e 91 1d 50 be 26 86 29 be 1c 15 92 ba
       0.20734286 -0.20323779 -0.1655508 -0.0011145207
0000a0 4a 6d 04 bd a6 25 e1 3d 5b db 3d be 29 85 96 bd
       -0.03233079 0.10993509 -0.18540709 -0.07349617
0000b0 0c 37 53 3b 23 70 05 be e1 6b 46 3e 6e ff ce 3d
       0.0032228855 -0.13031058 0.1937709 0.10107313
0000c0 0b fc fa bd 32 89 43 be 4f a7 a4 be a4 32 24 be
       -0.12255105 -0.19095305 -0.32158896 -0.16034943
0000d0 62 4c 8e be 44 fd 62 3e 8c 6f 8f be 10 ce c8 bd
       -0.2779265 0.22166926 -0.2801479 -0.09804928
0000e0 80 9f 8e bd 78 61 b2 3d 77 7a b8 3e 35 13 68 bd
       -0.06964016 0.08709997 0.36030933 -0.056658942
0000f0 e9 89 2a bd 4c 7c 8e bc e5 ac 96 be 23 94 8f bd
       -0.041635428 -0.017393254 -0.29428783 -0.07010677
000100 be f7 05 be 37 46 ba bd c9 8c 4f 3d da 78 ae bd
       -0.13082787 -0.09095424 0.050671373 -0.08519144
000110 9e 35 cf bd 4e d0 32 be 8b 74 ae bd db 83 91 bd
       -0.101176485 -0.17462274 -0.085183226 -0.071052276
000120 a4 09 30 be f7 28 10 3e 37 89 29 be 2b 03 f4 3d
       -0.17191178 0.14078127 -0.1655625 0.11914667
000130 eb 81 f2 bd 34 7b ff bd e4 5b 44 be 82 c8 05 be
       -0.11841186 -0.12474671 -0.19175678 -0.13064769
000140 c0 bd 8a ba ae 5e 55 bc 15 cf 97 3c 4e 3c 78 be
       -0.0010585114 -0.013023062 0.018531362 -0.24241754
000150 e4 5e e0 bd 95 cd 3b bc 34 1f 2e be 29 49 5e bd
       -0.10955599 -0.011462589 -0.1700409 -0.05426899
000160 23 45 ec bd 26 da 84 be 3f ca a8 3d f8 0b 66 be
       -0.11536624 -0.25947684 0.082417004 -0.22465503
000170 19 7c c9 3d 98 78 82 be 77 a7 6e be df b0 0e 3d
       0.09838123 -0.2548263 -0.2330607 0.034836646
000180 e3 26 9a be 75 c7 1a be 29 ce c4 bd 2d 4e 33 be
       -0.30107793 -0.1511515 -0.096096344 -0.1751029
000190 19 c1 92 be 15 8a 1d be 62 b7 0f be 74 71 88 bd
       -0.28662947 -0.15384705 -0.14034799 -0.066622645
0001a0 c3 f8 a4 3c 3c 79 2d 3c 6f de 50 be f1 95 6c be
       0.02013815 0.010587987 -0.20397352 -0.23104073
0001b0 06 c8 61 bc 12 ca 26 3e 5a 45 17 3e d2 95 65 be
       -0.013780599 0.16288021 0.1477255 -0.22420433
0001c0 15 b7 50 be e3 23 ed bd 67 32 8b be a4 7c 07 3e
       -0.2038234 -0.115791105 -0.2718689 0.1323114
0001d0 39 87 a5 3c 72 7b 08 3d b0 44 8d bd 99 82 41 3e
       0.02020608 0.03332085 -0.06897867 0.18897475
0001e0 90 f6 a6 3d 31 92 bc bd 0d 2f 5a 3d 3f 57 63 be
       0.08152497 -0.09207571 0.053267527 -0.2220125
0001f0 5e fd bb 3b 11 67 5f be 25 86 62 be ec 91 8b be
       0.005736991 -0.2181666 -0.22121485 -0.27259767

_policy.2.weight f4 [128, 128]
000000 0e 86 3a 3e ae dc b8 bc ff 45 1f be ff 53 88 be
       0.182152 -0.022566166 -0.15554045 -0.26626584
000010 ec 6d a2 3e 3f 4e 0a bf 67 3e 7d 3c 87 e7 62 3e
       0.3172449 -0.54025644 0.015456772 0.22158633
000020 7a 11 8b 3d 24 b8 11 bf e1 00 a2 bb 05 1b 65 be
       0.06790443 -0.569216 -0.0049439524 -0.22373588
000030 8b da 0c 3d fa 39 dd bd 8f 54 ae be 97 64 87 bd
       0.034388106 -0.10802074 -0.34048888 -0.06610983
000040 2e 93 44 3d 20 ae b2 3d 51 61 51 bd 6b e3 02 3d
       0.047991924 0.08724618 -0.0511182 0.031955164
000050 fc b2 9a 3d b9 e4 e0 bd af 86 1b 3d e4 63 b5 be
       0.0755367 -0.109811254 0.03797024 -0.35427773
000060 f3 de 97 be cc ae 7c bc bf 5f 6d be 14 f9 80 3e
       -0.29662284 -0.015422534 -0.23181055 0.25190032
000070 b9 97 a7 3e 89 af e0 3d 12 5e b7 3d 04 1c c6 be
       0.32732943 0.10970981 0.08953489 -0.3869325
000080 bf 57 f4 3d e1 75 77 3c 1d ed 84 3e 47 05 dd bb
       0.11930799 0.015103788 0.25962153 -0.006745014
000090 a3 34 8d 3d 13 44 b3 be 08 3f f4 3d 6f ad 81 3d
       0.06894805 -0.35012874 0.11926085 0.06331908
0000a0 88 6b dc be e6 1b 35 be 4a 1d 99 3c b2 2e dc ba
       -0.4305079 -0.17686424 0.018690724 -0.0016798584
0000b0 17 d3 2f 3e 0c 80 68 be 3b 37 8c 3d 7f af 91 bd
       0.17170368 -0.22705096 0.06846472 -0.07113551
0000c0 34 9c bf bd 35 ab 28 bf b3 5d 9e be 0c 86 de bb
       -0.09355965 -0.6588624 -0.30930862 -0.006790882
0000d0 e9 47 e9 3e ce 4b c5 3e 83 eb a4 be fd e0 66 be
       0.45562676 0.38534397 -0.3221093 -0.22546764
0000e0 65 40 98 3e 90 3f 44 3e f3 a6 0f be 7c c2 1c 3e
       0.2973663 0.19164872 -0.1402853 0.15308565
0000f0 2a 6f 85 3e 48 c1 91 bc c8 51 98 be e6 16 c2 3d
       0.26061374 -0.017792359 -0.29749894 0.09477024
000100 6f 3f cc 3c 03 d2 85 3e dd af 07 3e 3d ee fc bc
       0.024932591 0.2613679 0.1325068 -0.03087532
000110 82 8c 46 3d 59 d2 78 be c0 1f aa 3c e5 40 26 be
       0.048473842 -0.24298991 0.020767093 -0.16235693
000120 e2 dc 23 be d5 64 03 bd 9e a5 03 be 53 f8 97 be
       -0.16002229 -0.032078583 -0.12856147 -0.29681644
000130 00 12 12 be 1d f9 d5 bc 98 06 a3 be 38 1f 57 3e
       -0.14264679 -0.026119763 -0.31840968 0.21008003
000140 19 fe 78 3e af 29 ba 3d 2d f0 0f 3d 55 56 08 bf
       0.2431568 0.09089982 0.03514116 -0.5325673
000150 e7 46 e1 be 7b ab f4 bd 8e 4e d7 3b aa 01 a2 bd
       -0.43999407 -0.1194677 0.0065706437 -0.07910474
000160 15 50 7d bd fb 09 64 3d d8 41 3e 3e 5c 9a 9b 3e
       -0.06184395 0.05567358 0.18579805 0.30391204
000170 98 c5 f1 3c d8 ad 0d bf 1c 8b 4e 3d c6 0b 33 3d
       0.029513165 -0.5534339 0.050425634 0.0437124
000180 71 61 0b bd bd 3f d1 3d c7 1b bb bd 75 f5 0f 3e
       -0.034028474 0.10217235 -0.091361575 0.14058478
000190 da 3d 86 be 1e 10 2f 3c 4b 39 94 3d b4 e3 93 3d
       -0.26219064 0.010684995 0.0723749 0.07221165
0001a0 c9 53 40 be a7 b9 4e be e8 ae 15 3d 85 af b8 bd
       -0.18781962 -0.20188008 0.036543757 -0.09017853
0001b0 04 c3 d6 3d a3 a7 94 be e4 c9 11 bf 75 bd d3 bd
       0.10486415 -0.29034147 -0.56948686 -0.103388704
0001c0 73 9c 57 bd 0b 28 4c 3e 52 98 4a be 17 65 f7 3d
       -0.052639436 0.1993715 -0.19784668 0.12079828
0001d0 e2 ab 2d 3d 5c 5b 14 3d 96 1e 25 be af 93 29 be
       0.04240025 0.03621994 -0.16124949 -0.16560243
0001e0 a8 08 25 bc 48 bc 81 3d 8a ba ef 3c 4c 1c 10 bf
       -0.010072865 0.0633474 0.029263753 -0.5629318
0001f0 00 a4 0a 3d df 02 fb be ce 1e 18 3d 90 28 17 3e
       0.03384781 -0.49025628 0.037138753 0.14761567
000200 ae 84 7b bd 50 fa 74 bd 84 00 64 bd 25 ef 3c bd
       -0.06140583 -0.05980903 -0.055664554 -0.046126503
000210 0c 41 18 bb a1 97 46 bd c0 5e af 3c 3e ad 2e 3d
       -0.002323213 -0.04848445 0.021407485 0.042645685
000220 53 d4 1b bc a2 b1 19 bc b6 d7 83 bd 8d 98 f1 bd
       -0.009511071 -0.00938073 -0.06437628 -0.11796675
000230 aa 58 dd bb 44 ec 94 bd 9c 95 de bd 99 c9 7c bd
       -0.0067549543 -0.072716266 -0.108683795 -0.061715696
000240 aa 83 b3 bd cd ca f5 bd e1 57 a7 bd c9 ab 2f 3d
       -0.08765347 -0.12001572 -0.081710584 0.042888436
000250 66 6d 00 be 8c 9b c5 3b a5 fd ad bd a9 e6 bb 3c
       -0.12541732 0.0060305055 -0.084956445 0.022937136
000260 71 27 06 bd 1f 4e 1b bd 1e e2 dd bc 13 c6 9e bd
       -0.032752458 -0.0379163 -0.02708536 -0.077526234
000270 1b 30 c8 bd 48 33 2f bd 11 5c f1 bb 04 43 97 bd
       -0.097748004 -0.042773515 -0.0073657115 -0.07385829
000280 a6 74 97 bd a6 dd 6f bd 46 77 35 bd 38 ea 5d bd
       -0.07395296 -0.05856099 -0.0443032 -0.054178447
000290 40 fd 97 3b 50 62 9b bc 69 4b 91 bd da 94 95 bd
       0.004638344 -0.018967777 -0.070944615 -0.07303782
0002a0 2f c3 a0 3d 9d f1 c1 3a 7d 1a 1a 3b 90 9c 1c 3c
       0.07849728 0.0014796738 0.0023514323 0.009558812
0002b0 4e bd 71 3d 9e 0b da bd 4d 4f 8a bd e9 33 ed bd
       0.059018426 -0.10646747 -0.06753407 -0.11582167
0002c0 e3 8d d5 bd a2 2b 8e bd 3f 80 eb bc bf 56 ea bd
       -0.10427453 -0.06941916 -0.028747676 -0.11442327
0002d0 90 9a 66 bc 38 02 26 3b 44 ca e9 bd 51 e5 16 bc
       -0.0140749365 0.0025330912 -0.11415532 -0.009209947
0002e0 2d 38 7f bc eb 2b 9f bd a5 0f 4a 3d c0 0f e0 bd
       -0.015577358 -0.077720486 0.049331326 -0.10940504
0002f0 3e c9 3e 3d dd 01 2e 3c e7 a9 60 bd 68 24 0f bd
       0.04657864 0.010620561 -0.05484953 -0.03494683
000300 05 fd 35 3d c5 e6 45 3c 5c b4 a8 bd a9 74 0f bd
       0.04443075 0.0120789455 -0.08237526 -0.035023365
000310 a8 a7 c6 bc 3a d5 45 3d b3 cf 9e bd 83 00 0c bd
       -0.024249867 0.04829905 -0.07754459 -0.034180176
000320 67 27 21 3d 0a fc a2 bd 70 05 0e 3b d8 89 9e bd
       0.039344218 -0.07958229 0.0021670721 -0.07741135
000330 8d 37 9e bd f6 31 fc bd fe 18 e0 bc 2e a2 06 bd
       -0.07725439 -0.12314217 -0.027355667 -0.03286951
000340 46 c6 36 bd e5 f2 a4 bb 7c 14 9c b9 2b b8 81 bd
       -0.044622682 -0.005033838 -0.000297699 -0.063339554
000350 7e f4 12 3d 54 16 0f 3d f1 6b 35 bc d2 e7 0c bd
       0.035877697 0.034933403 -0.0110730985 -0.03440077
000360 a9 1b f4 3b 34 98 da 3c b5 27 c2 bc e5 f2 d9 bd
       0.0074495864 0.026683904 -0.023700574 -0.106420316
000370 41 f0 ee 3b f7 b3 1b bd 88 40 3e 3d 22 f7 ac 3c
       0.007291824 -0.038013425 0.04644826 0.021113936
000380 12 7a 80 3c 07 6a d4 bd a5 ae bb bd 80 00 02 be
       0.015683208 -0.103717856 -0.0916417 -0.12695503
000390 2e a4 ef bd 0d 83 13 bd f6 dc 2b 3d 69 bb 55 bc
       -0.11701237 -0.03601365 0.04195877 -0.01304517
0003a0 32 fd c5 bd 9e f3 09 3c 6d 58 ca bd bf fe 14 3d
       -0.09667434 0.008419899 -0.09880147 0.036375757
0003b0 43 0d 50 3d 00 ba da bc e0 ed cf 3b b8 70 e5 bc
       0.050793897 -0.02670002 0.0063454956 -0.02800785
0003c0 06 bc 1d bd 0a 4d 32 3d 39 3c 85 3c 7a e6 f6 3c
       -0.03850939 0.0435305 0.016264068 0.030139197
0003d0 f4 ed 1e bc 8e c4 99 bd 42 01 d3 3c 50 cd 06 be
       -0.009700287 -0.07508193 0.025757436 -0.13164258
0003e0 a6 8f 4b 3d c7 a7 9f bc 94 a0 dc bd 08 b4 cc bd
       0.04969754 -0.019489182 -0.10772815 -0.09995276
0003f0 0b 5b 42 bd 77 51 48 3d 9d 26 99 3c fe 96 73 bd
       -0.047450107 0.048905816 0.01869517 -0.05947017

_policy.2.bias f4 [128]
000000 a5 61 1b be fc f1 2b be c2 0b 88 bd 7f a2 2d 3d
       -0.15173967 -0.16791528 -0.066428676 0.042391296
000010 a0 08 75 bd 8c 83 fa 3d 0e a5 a3 3d 53 10 c1 3d
       -0.05982268 0.12232122 0.07990466 0.09426942
000020 80 97 6f bd 0a f4 02 3e 09 68 8d bd 6b 11 44 3d
       -0.05849409 0.12788406 -0.06904609 0.047868174
000030 6c a3 7c 3d fa a7 b9 3d f9 3f ab 3d 31 1e 70 3d
       0.06167929 0.09065242 0.08361811 0.058622543
000040 f9 31 99 3d bd 66 16 3e f7 ce 30 3e 4f b2 10 3c
       0.07480235 0.14687629 0.17266451 0.008831575
000050 cd 46 a7 bd 75 8e aa bd ff 72 0c 3d 83 77 69 3d
       -0.08167801 -0.08327953 0.034289356 0.05699874
000060 4a 3a 7a bd 0e 6f cf bc c0 b3 cb 3d cc d7 01 be
       -0.061090745 -0.02532151 0.09946394 -0.12679976
000070 d2 d7 28 be 60 0f ce 3d 1c 63 d2 bd 6c 29 60 bd
       -0.16488579 0.10061526 -0.1027281 -0.054727003
000080 7a be a2 bd d1 74 58 bc fd fc 4d bd ad 9b 52 bc
       -0.07946487 -0.013211445 -0.050290097 -0.012854499
000090 1f 66 87 bd 53 84 ba bc a7 e3 8d 3b 3e e0 30 be
       -0.06611275 -0.022768175 0.004330117 -0.17273042
0000a0 e9 72 c9 3d 23 42 21 be e9 89 59 3d 3f 9a a3 bd
       0.098363705 -0.15747885 0.053110037 -0.079884045
0000b0 c9 73 9a bd 80 d7 a8 3d 00 f1 27 bd 8d cc e7 bd
       -0.075416155 0.08244228 -0.04100132 -0.11318312
0000c0 40 00 06 3d cc 0f e3 bd bc 8d 7d bd 57 b8 03 3e
       0.032715082 -0.110869974 -0.061902747 0.12863289
0000d0 1f 8b 11 3d 1c 8e ce bd cf 77 39 3d 18 37 7b 3c
       0.035533067 -0.10085699 0.045280274 0.01533296
0000e0 cf 62 8c bc 7c 34 12 be 69 b0 0e 3c 1a a6 21 be
       -0.01713696 -0.14277834 0.008709052 -0.15786019
0000f0 af 1a bd bb ec 31 9b 3d fe 79 10 be d9 ea 38 bc
       -0.005771003 0.07577881 -0.14109036 -0.011286461
000100 ce d5 aa bd 12 a0 94 bd 83 80 85 3d 48 53 db 3c
       -0.08341561 -0.072570935 0.06518652 0.02677311
000110 39 a4 d8 bd 7a 83 28 be 56 e1 27 bd 2c 5d 51 be
       -0.10578198 -0.16456404 -0.04098638 -0.20445698
000120 77 68 d9 bd 7e fc 1b be 54 16 2a 3d 89 48 09 bd
       -0.10615628 -0.15233037 0.0415252 -0.03351644
000130 f9 96 0f 3e 3b 3c f5 bd ae e1 76 3c 00 90 5d bb
       0.14022435 -0.11974379 0.015068455 -0.0033807755
000140 de d5 05 bc 22 ad 23 bd f3 91 1f 3d f1 e1 43 3d
       -0.008168666 -0.039960034 0.038957547 0.047822896
000150 92 b2 c5 bc e7 49 11 3e 70 19 ec 3c 12 7f c5 bd
       -0.024133 0.14188348 0.028820723 -0.09643377
000160 6f f5 d5 bd 25 ac d6 3d ee 90 34 be a7 98 0b 3d
       -0.10447203 0.10482053 -0.17633411 0.034081127
000170 2e ee e4 bc db a8 83 3d 04 cd 54 be fe 20 07 be
       -0.027945604 0.06428691 -0.20781332 -0.1319618
000180 c3 db cc 3c 2d dc 0d 3d f9 4b 18 3c 64 9a a0 bd
       0.025007134 0.034633804 0.009295457 -0.07841948
000190 2a f9 21 be bd 61 9d bd de 24 93 3c d0 60 fb 3d
       -0.15817705 -0.07684658 0.017961916 0.12274325
0001a0 4b de 16 bd b1 36 a5 3d 89 ed 21 be b6 b8 79 bb
       -0.03683309 0.08067072 -0.15813269 -0.003810448
0001b0 42 09 47 be c0 89 06 be b2 47 bc bd 64 12 ab 3d
       -0.19437125 -0.13138485 -0.09193362 0.08353117
0001c0 c5 7d 92 3d da 72 23 3e ab 4b c3 bd 66 c0 41 3d
       0.07152895 0.15961781 -0.09535917 0.047302626
0001d0 75 c1 a6 bd 59 4e 2f 3d 35 a0 e3 bd 61 ba 6f 3d
       -0.08142368 0.042799328 -0.111145414 0.058527354
0001e0 1d 14 b7 bd 12 a9 04 be e8 a8 c1 bc 93 05 c8 bd
       -0.08939383 -0.1295512 -0.023640111 -0.09766688
0001f0 37 9a 07 be 53 0b b1 bc 3e fb 6e bd 8c 38 d0 3d
       -0.13242422 -0.021611845 -0.058345072 0.101670355

_policy.4.weight f4 [128, 128]
000000 60 c0 40 bd 54 4b 46 bd c1 63 96 bd 94 75 e1 bc
       -0.047058463 -0.048411682 -0.07343245 -0.027521886
000010 19 13 97 3d 57 01 5d 3d fe 5a 83 3e b9 76 8a 3e
       0.073766895 0.053956356 0.2565536 0.27043703
000020 60 13 ef bc 97 57 1c 3e 31 88 84 bd c7 15 07 be
       -0.029184043 0.15267788 -0.06471289 -0.13191901
000030 af 60 31 be 2c 06 9a 3e 3e f5 cd bd 10 16 27 3e
       -0.17322038 0.30082834 -0.10056542 0.1631701
000040 69 d9 43 be a1 78 19 3e 54 f5 b7 be 46 0a 94 bd
       -0.19125904 0.14987423 -0.35929358 -0.07228522
000050 fc 93 00 be b3 de 69 be ba 6b a4 bd 18 94 e1 3d
       -0.12556452 -0.2283886 -0.0802836 0.11014575
000060 75 5b dc 3c 49 c9 0c be ce 32 31 bd 57 a7 2d 3b
       0.026899079 -0.13748659 -0.04326134 0.0026497447
000070 3b 74 6e 3d 52 04 c0 bd 48 44 14 3e 04 66 c5 be
       0.058216315 -0.09375824 0.14479172 -0.38554394
000080 da 6d a4 be 84 3f e5 bc 6c a7 2d 3e 03 83 27 be
       -0.3211506 -0.027984388 0.16958398 -0.16358571
000090 b8 d1 70 39 57 c1 0d bc 81 d7 e8 bd 61 81 ed bc
       0.0002296631 -0.008652053 -0.11369229 -0.028992357
0000a0 ec be b9 be 82 d1 d1 3a d4 24 4c 3c 50 b2 2b be
       -0.36278474 0.0016007873 0.012459952 -0.1676724
0000b0 07 15 c8 bd 34 83 24 3e 1c 16 27 bd b9 b8 9e bd
       -0.09769636 0.16065675 -0.04079257 -0.07750077
0000c0 15 90 4d 3e 2a e0 3e 3d c8 68 82 be 03 54 60 3d
       0.20074494 0.0466005 -0.25470567 0.05476762
0000d0 a3 ca d0 3d 02 48 33 3d 2f 6e ed be 1d 8b f8 3d
       0.101949 0.043769844 -0.46373126 0.12135909
0000e0 c7 5e 30 3e 4a d7 0b bd 86 78 08 3e 84 99 0f 3e
       0.17223655 -0.034140863 0.13327226 0.14023405
0000f0 dd 18 d8 bd 5f e6 9f bc 93 8d 8e be 78 2a 7b bd
       -0.10551617 -0.01951903 -0.27842388 -0.0613198
000100 e5 14 7b 3c 50 f7 ec be af d2 2b be b4 a1 87 be
       0.015324806 -0.46282434 -0.16779588 -0.26490557
000110 be 41 81 bc 53 a1 88 be 5f 41 5d 3d 96 b7 8d be
       -0.015778419 -0.2668558 0.05401742 -0.27679127
000120 41 8a 02 3e f9 2a 9a bd bc ba 45 be 6e c4 82 3e
       0.12748052 -0.07527728 -0.19309515 0.2554049
000130 ec a3 b0 3e ee 46 6c 3e 15 4a 0d be 9f ac b1 be
       0.34500062 0.23073933 -0.13797791 -0.34702012
000140 44 a5 39 bf 19 11 69 bc 8e 82 8c be 04 4e 92 3d
       -0.725178 -0.014225268 -0.27443355 0.071437865
000150 ad 8c 01 3d ce 29 aa 3c 80 7f 29 be 49 6a fe be
       0.0316283 0.020771887 -0.16552544 -0.49690464
000160 2e f7 54 3d b2 7f 83 bd 49 97 b1 3e 6b 61 1d be
       0.05199354 -0.0642084 0.34685734 -0.15369193
000170 60 76 91 3e fa e4 15 be 1c 22 ae be 3b 29 3b 3d
       0.28410625 -0.14638129 -0.34010398 0.045693617
000180 00 af 92 3e 4a c8 61 bc e8 44 46 be 87 24 ae bc
       0.2864914 -0.013780663 -0.19362223 -0.021257652
000190 12 d1 fc be 4f 6d b4 3e 57 da 36 3e da 06 91 bc
       -0.49378258 0.35239646 0.17856728 -0.017703462
0001a0 58 15 45 bd 08 13 d3 3e c8 37 2b be 64 ea ae 3d
       -0.048116058 0.41225457 -0.16720498 0.085408
0001b0 34 42 eb 3d cc 44 a6 3e e9 7f 9b 3d c6 14 d3 3c
       0.114872366 0.32474363 0.07592756 0.025766741
0001c0 2e 39 9c be 41 11 91 be d3 a1 8e 3e 70 fa 32 bd
       -0.30512375 -0.28333476 0.27857837 -0.043695867
0001d0 c1 94 63 be f3 5c 8f be c9 ab 6b 3e 0e a5 75 bd
       -0.22224714 -0.28000602 0.2301475 -0.05997186
0001e0 49 dc ec 3d 98 22 6a be a8 70 95 bc 13 bc 23 bf
       0.115654536 -0.22864759 -0.018242195 -0.63958853
0001f0 7e 9b db bc 8f 15 af 3e 66 e2 41 be 32 2b 2e 3e
       -0.026807543 0.34196135 -0.1893402 0.17008665
000200 8d ae a5 bd c2 1c 6d 3d d4 97 57 be 75 7d 8d bd
       -0.080899335 0.057888754 -0.21054012 -0.06908695
000210 1c e8 f6 3d c2 33 57 3e 1a 13 74 3d 63 19 a8 be
       0.1205599 0.21015838 0.05958853 -0.3283187
000220 5e c8 a7 3c 0d 91 50 bc 68 47 3a 3d 33 9c 68 bd
       0.020481285 -0.012729895 0.045478255 -0.05678959
000230 f3 d6 94 be a8 f2 91 3e f8 99 aa 3d 82 ba 50 be
       -0.29070243 0.28505445 0.083301485 -0.20383647
000240 aa e8 fe bd f7 da 5a 3e 69 d7 69 3e fc f7 ae bc
       -0.12446721 0.21372591 0.22836079 -0.021358483
000250 34 84 0f bf e9 1c f9 3d ed 20 1e bd 2f 66 ad be
       -0.560611 0.12163717 -0.03860562 -0.33867022
000260 13 66 39 be 07 a2 b9 3e 43 23 10 3e 13 30 f0 3c
       -0.18105344 0.3625643 0.14075951 0.029319799
000270 80 46 3a bc 99 84 c0 3d 35 fd 28 3e 29 94 c2 3d
       -0.011369348 0.09400291 0.16502841 0.095009156
000280 c8 c9 21 3d b2 bb 8b bd e2 2e 40 be 9f 3e 02 be
       0.039499074 -0.068229094 -0.18767884 -0.127192
000290 78 0e db bd f0 25 8c be ea ac 01 bc c5 1e 9d bd
       -0.10696119 -0.27372694 -0.007914761 -0.076718844
0002a0 67 ba 08 be 62 8e 8b be 1b 9c 97 be 7b f1 07 3e
       -0.13352357 -0.27257067 -0.29611287 0.13275711
0002b0 fc cc a9 bd 3e bf eb bd 89 1a 8d bf 1d bd 96 3e
       -0.08291051 -0.11511086 -1.1023723 0.29441157
0002c0 d7 36 13 3e 8d c6 68 bd 97 67 bc b9 f5 02 e5 bd
       0.14376388 -0.056829978 -0.00035935335 -0.11182205
0002d0 21 89 a7 be 15 d6 18 3e 1f 7f 6b be d2 ee f8 3e
       -0.3272181 0.14925416 -0.22997712 0.48619705
0002e0 a2 3b 90 be 7b 58 34 bd dc 9f fe bd a9 b7 3b bd
       -0.28170496 -0.044029694 -0.124328345 -0.04582945
0002f0 55 6e 06 3e 4f cf 42 be 94 1a 01 bf b3 4d bf bd
       0.13128026 -0.19024394 -0.5043118 -0.09340992
000300 4f 33 b1 bd b6 1b a2 3c 41 92 62 be ed 0a 21 3d
       -0.086523645 0.019788604 -0.22126104 0.03931706
000310 91 e7 40 3e f0 e9 46 3d 51 7d b1 bc ee 8f e2 be
       0.18838336 0.048562944 -0.0216662 -0.44250435
000320 c0 92 56 bd 14 f9 fb 3c 56 c2 48 be 82 3f be be
       -0.052386045 0.030758418 -0.19605383 -0.37157828
000330 43 44 06 3e 0e 49 fa bd b7 78 b8 be 4a a1 82 be
       0.13111977 -0.12220965 -0.36029598 -0.2551368
000340 63 51 29 3e e9 32 8c 3e 6b a5 2d bf e4 ce 4e 3d
       0.16534953 0.2738259 -0.6783053 0.050490275
000350 2c ed c4 bd 97 cd f8 bd 7d be 87 3e ae 0b 72 be
       -0.096155494 -0.12148588 0.2651252 -0.23637268
000360 36 4b 6d bf 14 50 8b 3d a8 bc f6 3d d9 69 83 bd
       -0.9269289 0.06802383 0.12047702 -0.06416673
000370 75 64 c1 3c 39 06 04 bf 95 cb c0 be 1a 9f b0 bd
       0.023607472 -0.51571995 -0.3765532 -0.08624096
000380 15 28 02 3f 5c 51 25 bf e0 1b c2 3e 53 55 16 3d
       0.5084241 -0.6457727 0.37911892 0.036702465
000390 ed a7 18 bf 99 85 27 be 6b cf 08 bd 87 81 68 3d
       -0.59631234 -0.16359557 -0.033400934 0.056764152
0003a0 da 0d c1 bb ec 19 17 bd 28 7e 29 bf 8f 80 87 3d
       -0.005891544 -0.036889955 -0.66208124 0.066163175
0003b0 68 5c df 3b 24 c2 a8 3d 5c 20 74 bd d1 cd 9c be
       0.0068164356 0.082401544 -0.059601173 -0.30625775
0003c0 6f ed d3 3d 66 82 17 be 5e cd 46 bc 28 9b 6a bd
       0.10348021 -0.14795837 -0.012133924 -0.057276875
0003d0 b7 ee 88 be b1 9f 8c 3d ad 6f ac bd 78 03 c0 3c
       -0.26744625 0.06866396 -0.08419738 0.023439154
0003e0 ac 48 b1 be 10 7b 28 bd b3 a0 dc bd 6d 0b c8 bd
       -0.34625757 -0.041132987 -0.107728384 -0.09767804
0003f0 dc 1f d3 bc 43 35 eb 3d c3 65 84 bd 01 e4 78 3e
       -0.025772028 0.11484768 -0.06464722 0.24305727

_policy.4.bias f4 [128]
000000 f4 5c 35 3d 61 10 26 3c e8 d6 0d 3e a0 01 0c be
       0.0442781 0.010135741 0.13851511 -0.13672495
000010 8c 9f 9d bd 1e 98 39 be 55 81 e3 bd 09 9b 4e be
       -0.07696447 -0.18124434 -0.111086525 -0.20176329
000020 22 a5 44 be b6 86 b3 bd cd 0f 55 3d 8b e5 5f 3e
       -0.19203618 -0.087659284 0.052017022 0.21864907
000030 51 ed 18 be 46 cd de bd 25 d7 ac 3d ca 12 ef 3d
       -0.14934279 -0.108789966 0.08439473 0.116735056
000040 17 d0 9d be ad d5 62 3d 8f da e9 be 54 2f 80 be
       -0.30822822 0.05537956 -0.4567456 -0.25036108
000050 e2 39 0c bc 6c c1 d8 3d 9c e9 d9 bd 80 67 a0 bd
       -0.008558722 0.10583767 -0.106402606 -0.07832241
000060 39 83 17 bc 15 d1 bf bd 1a 25 50 be 88 3c a6 bd
       -0.0092475945 -0.09366051 -0.20326653 -0.08117014
000070 38 60 14 3c 69 18 f9 bc 06 75 76 be 2b 28 97 3d
       0.009056143 -0.030407147 -0.24068078 0.07380708
000080 a9 45 fc 3c ce 2f 48 3e ec f7 ee be 0d d6 84 be
       0.030794935 0.19549486 -0.46673524 -0.25944558
000090 2e 09 24 3d 24 05 cd be 31 d1 70 bc 75 b5 23 be
       0.040047817 -0.40042984 -0.014698313 -0.15987189
0000a0 1c cc b7 3c 4b 4b 30 3b f6 3f d4 bd f3 40 49 be
       0.022436194 0.0026900347 -0.10363762 -0.19653682
0000b0 ba bf 90 3c 09 5f 2f be 25 e8 29 be e0 31 8b bd
       0.017669547 -0.17126097 -0.16592462 -0.06796622
0000c0 c4 36 b9 3d 7d d7 04 3e 74 d8 cb bd 1f d5 4d bd
       0.09043649 0.12972827 -0.099533945 -0.050252076
0000d0 c5 f5 e0 3d 49 f8 63 be b3 d4 18 3e 9b 04 4e bd
       0.10984377 -0.22262682 0.14924888 -0.05029736
0000e0 51 e4 2a be 45 1d fe bd eb 21 35 be 22 ef a0 3c
       -0.16688658 -0.124079265 -0.1768872 0.019645277
0000f0 38 6c 9a bd 4f c9 1b be 2d 6f 58 be 68 55 e3 3b
       -0.07540172 -0.15213512 -0.2113616 0.0069376715
000100 3b 85 98 3d c3 e2 2a bd 62 78 da bc 3d 01 6c bd
       0.07447287 -0.041720163 -0.026668731 -0.05761837
000110 5c 75 36 be f5 05 d6 bd a1 b1 63 bd bb c5 a1 bd
       -0.17818207 -0.10450355 -0.055589322 -0.07899042
000120 6d cd 7e be 66 8b 01 be 06 8e 32 bd fb e0 0b be
       -0.24883051 -0.12650833 -0.043592475 -0.13660042
000130 80 23 9e 3d 70 ee 50 3d 8a f0 2a bc 55 1c de 3d
       0.07721615 0.05100864 -0.010433326 0.10845248
000140 4a eb 3b be 3f 38 83 bd 5b 32 82 bd 7c be ff bd
       -0.18351474 -0.064072125 -0.06357261 -0.12487504
000150 89 f8 7c be 45 7f 96 3e 2c 8c a2 3d e6 d1 df bd
       -0.24704184 0.29393974 0.07936892 -0.10928707
000160 7f 32 6b be 4d b0 d3 bd 69 47 5f 3e 41 92 03 be
       -0.22968481 -0.10336361 0.21804585 -0.1284876
000170 8b b7 56 bc a5 60 af bd 37 2b 31 be 1f 25 42 bc
       -0.0131052835 -0.08563355 -0.17301641 -0.011849671
000180 98 4c c5 be 25 98 84 bd 98 4b 6b bc 08 e9 8b 3d
       -0.38535 -0.06474332 -0.014361285 0.068315566
000190 67 10 bc 3d 1c 5c 39 be 14 98 53 be 1f 78 ea 3d
       0.09182816 -0.18101543 -0.20663482 0.114486925
0001a0 f2 3f 26 be db 77 31 3e 9c a1 fb 3d d8 19 2b bb
       -0.1623533 0.17330877 0.12286684 -0.0026107933
0001b0 86 af 13 be 6a a0 7d 3c ce c7 0f be 40 73 aa 3c
       -0.14422426 0.01548014 -0.14041063 0.020806909
0001c0 9a 1b 73 be c1 d6 47 bd 27 52 48 bd d9 00 1c 3d
       -0.23740998 -0.04878879 -0.04890647 0.038086746
0001d0 21 9c d8 3d da ba ac be 0e 6c 7f bd 59 3f 9d be
       0.10576654 -0.33736306 -0.06235891 -0.30712393
0001e0 b8 e9 86 bd cb ec 19 be df ff 9a bd 6a 5c b6 3c
       -0.06587547 -0.15031736 -0.07568335 0.022260863
0001f0 cc f8 42 bd ad 23 5a be a8 b6 eb 3c 80 12 88 3d
       -0.047600552 -0.21302672 0.02877362 0.066441536

_policy.6.weight f4 [128, 128]
000000 fb 4c b4 be 88 6b 2c 3d 10 59 38 be dd 3e fa bc
       -0.3521498 0.042094737 -0.18002725 -0.030547554
000010 a3 9f 8b bc 22 51 5a bf 9d e9 09 3e 2e 47 d9 3e
       -0.017043894 -0.8528005 0.13468023 0.42437118
000020 ad 8d f7 be 8c 0f d0 bd 38 5d 9c 3e 2e 64 1c be
       -0.48350278 -0.10159215 0.3053987 -0.1527259
000030 f6 26 e9 bd 9a ed d7 3e 63 a9 9f be 35 42 09 be
       -0.11384384 0.42173463 -0.3118392 -0.13404162
000040 e7 2a 19 be 71 12 f4 bd 65 ea 56 3e a9 39 71 be
       -0.14957772 -0.1191758 0.20987852 -0.23557152
000050 18 f3 50 3e d3 b8 8d 3d 1d 47 45 bd d9 eb ae bd
       0.20405233 0.06920018 -0.048163522 -0.08541078
000060 16 fc 86 be 17 ce f2 bd 49 f3 05 bf 55 b7 b3 3d
       -0.263642 -0.11855715 -0.5232435 0.08775202
000070 16 f7 69 be 2c c0 17 bd b6 97 5a 3e 58 8c aa 3e
       -0.22848162 -0.037048504 0.21346936 0.333102
000080 4b ec 99 3d 2a c2 2d 3e 7c c9 ae 3e e3 4b 92 3e
       0.075157724 0.16968599 0.34138095 0.28573522
000090 3a cb 09 3e 04 e0 2f be f0 eb 83 3e f6 f0 2b be
       0.13456431 -0.17175299 0.25765944 -0.16791138
0000a0 25 9b 03 bf c3 03 ca bc c6 8f d5 3d 44 d6 8c 3e
       -0.51408607 -0.024659997 0.10427813 0.27507222
0000b0 c8 20 4a be dc f9 e1 be 42 65 4f be 12 b8 87 be
       -0.19739068 -0.4413594 -0.2025347 -0.26507622
0000c0 c1 04 3c be 31 89 8e 3d 5a b5 68 bd fd 8c f5 3c
       -0.18361188 0.06959761 -0.056813575 0.029974455
0000d0 45 38 3a 3e 37 37 0b bd 60 aa 49 be 8d c4 15 bf
       0.18185528 -0.033988204 -0.19693899 -0.5850304
0000e0 a6 80 3e be 6b 06 c2 bd 89 01 e4 bd b9 6a ea bd
       -0.18603763 -0.094738804 -0.11133105 -0.11446137
0000f0 5f 63 38 3e f1 27 4a be 3c 94 bb bc 77 22 ec bc
       0.18006657 -0.19741799 -0.022897832 -0.028825028
000100 e7 6c 75 bf 91 42 7d 3e 26 d4 b5 bd a3 1e c1 be
       -0.95869297 0.24732424 -0.08878355 -0.37718686
000110 e5 cd 7c 3d d4 5a ca 3d 8b 01 96 3e de eb 3f 3d
       0.061719794 0.09880605 0.29298052 0.0468558
000120 2e 7c 8f 3e 3b c5 9a bd 37 b8 4c be c8 52 40 3e
       0.2802443 -0.0755715 -0.19992147 0.18781579
000130 31 c5 dc 3e 3f d7 1c be ad 0e e1 3e 8e b5 f7 3c
       0.43119195 -0.15316485 0.4395651 0.03023794
000140 f9 65 0a be 58 b3 fe bd 7c c0 62 be 1c 35 d0 be
       -0.13515462 -0.12436551 -0.2214374 -0.4066552
000150 eb cd 3a bd 0b 1e 03 be eb 5c 15 be 36 49 b1 bc
       -0.045606535 -0.12804429 -0.14586227 -0.021641355
000160 08 91 01 bd a7 c4 2d be 70 04 9d 3e 8e ef 98 bd
       -0.031632453 -0.16969548 0.30667448 -0.074675664
000170 02 ca 44 3e 17 3c 8a bd 61 ab 78 be 92 b3 0e bf
       0.19217685 -0.067497425 -0.24284126 -0.5574275
000180 8d 2e 9c bc 0b 47 15 bd 27 54 05 bc 2d 37 3e bf
       -0.019065166 -0.036444705 -0.008137739 -0.7430294
000190 42 c3 f6 3c b5 b0 f9 3c 3c 64 af be b8 0e da 3e
       0.030122403 0.030479768 -0.3425616 0.42589355
0001a0 88 65 a0 bd c4 1a e7 bc 55 4e fd 3d 7b 68 86 3e
       -0.078318655 -0.028211005 0.12368456 0.26251587
0001b0 62 fe 98 be 73 c1 c6 be aa 52 30 bd c8 77 e8 bd
       -0.2988158 -0.38819465 -0.043047585 -0.113509715
0001c0 b5 1b ae 3d a5 02 9b bd 8d df f7 bd c6 3d 84 3e
       0.085013784 -0.07568864 -0.12103186 0.2582838
0001d0 57 15 db 3d f3 6a 3c 3e 1c f7 43 bc 79 4e d5 3d
       0.106974296 0.18400173 -0.011960771 0.10415358
0001e0 0d 51 9a 3e f7 6e f8 ba 0e 95 5f 3e 6a 80 be be
       0.30139962 -0.0018953969 0.21834204 -0.37207347
0001f0 37 70 ba be 53 ee 30 3e eb d2 69 be 6e f2 43 bd
       -0.36413738 0.17278413 -0.22834365 -0.04783862
000200 d9 f9 92 bc 97 d1 6f 3e 93 21 ae be d1 06 e2 3d
       -0.017941402 0.23419796 -0.3400999 0.110364564
000210 72 0d d6 be 62 5e 30 bd 2e 37 12 bf a4 b9 2c bd
       -0.41807133 -0.04305876 -0.5711545 -0.04216923
000220 86 6f c0 bd b0 d1 70 bd a2 07 2a be 53 db c2 bd
       -0.093962714 -0.058793724 -0.16604474 -0.09514489
000230 f5 3e 96 be ce 58 72 3c fb 81 af be c3 24 07 bf
       -0.29344907 0.0147916805 -0.34278855 -0.5279047
000240 11 e8 a4 3d a0 44 36 be 7a d4 36 bf 54 b3 d8 3a
       0.08052076 -0.17799616 -0.71417964 0.0016532936
000250 b2 54 7e 3d ee 31 af be a6 72 c0 bd 57 44 e6 3d
       0.06209249 -0.3421778 -0.093968675 0.112435035
000260 82 60 9c bd d5 57 8b be 67 4a 80 3c f5 8c dd 3d
       -0.07635595 -0.27215448 0.015660478 0.10817901
000270 fc 32 ad be 07 c3 b7 be 28 4f 48 bd 33 a0 f4 3d
       -0.3382796 -0.35890982 -0.048903614 0.11944618
000280 15 e1 19 bf ba be 81 3d c2 60 84 3e 01 10 68 3e
       -0.6010907 0.06335206 0.2585507 0.22662355
000290 53 25 52 bd 9b 50 3a bc 11 0a b2 bd 2b dd 99 3d
       -0.051305126 -0.011371757 -0.08693326 0.075128876
0002a0 cc 36 33 38 7e fa 52 be 62 b2 85 bf 29 0c 69 be
       4.272796e-05 -0.20603368 -1.0445063 -0.22758545
0002b0 d1 e4 c6 3e 66 9b b3 be ab 48 0b bf 7f f7 b1 bd
       0.38846448 -0.35079497 -0.5440776 -0.08689784
0002c0 40 f9 ec be 1d eb 09 3d 9b 3d 39 bf c1 78 98 be
       -0.46283913 0.033671487 -0.7235963 -0.29779628
0002d0 65 ab 25 3e d0 85 e7 be 54 2f 0f be 7a 77 85 3e
       0.16178663 -0.45219278 -0.13982898 0.26067716
0002e0 b2 d0 aa ba 63 3f 2a 3e 12 ba 33 be d5 ab 5a bd
       -0.0013032167 0.16625743 -0.17551449 -0.053386528
0002f0 f9 94 8b be bb 28 a8 3c c9 36 da 3d ee 35 0b bd
       -0.27262095 0.020527234 0.10654981 -0.03398698
000300 08 7a 09 bd fb 66 ba 3e b5 17 b3 be b4 d9 0e 3d
       -0.033563644 0.36406693 -0.34979025 0.034875587
000310 80 bb 20 bf b9 4d fd be 81 8c 8a be 29 50 81 3e
       -0.627861 -0.4947336 -0.2706032 0.2525647
000320 90 0b 11 bf 9b b8 b5 bc 1e 1c a7 3d e1 e0 3d be
       -0.5665827 -0.022182753 0.0815966 -0.18542816
000330 f0 fb 01 3e 5e 77 64 bf ee 0f ca be 7c 80 26 3e
       0.12693763 -0.8924464 -0.39465278 0.1625995
000340 96 4a d9 bd 88 f0 2c 3e ed 78 d4 be 2f 46 c0 be
       -0.10609929 0.1688863 -0.4149851 -0.37553546
000350 93 e4 13 3e 3a 2f 95 bc 48 59 9d 3e f7 c9 07 bf
       0.14442663 -0.018210996 0.3073218 -0.5304255
000360 3f c7 8f 3e 34 c6 db be 60 2d 63 be 9a 1c c3 3d
       0.280817 -0.42924654 -0.22185278 0.0952694
000370 9f b2 8d 3e 8c 93 f1 3c 29 e7 97 3c 40 ce 2d 3e
       0.2767534 0.029489301 0.018542843 0.1697321
000380 3e 68 c9 3d 98 b9 0b be ab 05 57 bd d6 3c ac 3d
       0.09834336 -0.13645017 -0.05249564 0.08410041
000390 dc ea 37 bf 95 e7 90 bc a8 25 ab be c6 66 e9 3d
       -0.7184274 -0.017688552 -0.33427167 0.113965556
0003a0 83 8b 4c 3e dc 14 c3 be 34 df 0e 3e 26 7e b0 3c
       0.19975094 -0.38101852 0.13952333 0.021544527
0003b0 14 3b 14 be f7 28 33 bf ae 53 dd 3e d8 0e 7b be
       -0.14475662 -0.6998438 0.43227905 -0.24517381
0003c0 0a c7 dc bd 26 7f ce bd 54 d7 a8 be ee be 38 be
       -0.10780151 -0.100828454 -0.32976782 -0.18041584
0003d0 33 a5 b7 be cd 9a 47 bd 2d f2 04 be ad e5 bc be
       -0.35868225 -0.048731614 -0.12983008 -0.3689398
0003e0 46 3e cf bd 13 82 7a bf c7 e4 b2 bd 39 70 24 3e
       -0.101192996 -0.9785473 -0.08735042 0.16058435
0003f0 4a 2c ee be 23 6e b8 be 6e cb 8c bd ca 3e 92 bf
       -0.46518165 -0.36021528 -0.06874739 -1.1425412

_policy.6.bias f4 [128]
000000 e6 64 17 be 28 c6 00 bf 4e 6f 5d 3e 9e 04 62 3e
       -0.14784583 -0.5030236 0.2162449 0.22072074
000010 ac ba 0c 3e fa 0f 1f 3e b2 16 bf 3b 8d c2 09 3e
       0.13743085 0.15533438 0.005831563 0.13453121
000020 37 01 08 3e 4d 51 0b 3d 76 6a 67 3d e9 28 ea 3c
       0.13281713 0.03401308 0.056498013 0.02858396
000030 fe 81 c6 3c 39 d2 15 be bb dd 8d 3e 69 11 2a 3e
       0.024231907 -0.14630975 0.2770823 0.16608204
000040 cb 0d 14 3d 07 bb 4d 3d 29 13 46 bd 94 03 8c bd
       0.036145967 0.05022719 -0.048358116 -0.0683662
000050 0a 6e 85 3e 4b 7a 3a 3e ef 58 7d 3e 6b 54 4c 3d
       0.26060516 0.18210714 0.24740957 0.049885195
000060 e8 16 38 3e f9 81 e5 3d ca 96 47 3d 1b 21 29 3e
       0.17977488 0.11206431 0.048727788 0.16516535
000070 87 ae a1 bd 30 1e d6 3d 68 e0 d9 3d f7 31 34 be
       -0.078946166 0.104549766 0.10638505 -0.17597185
000080 fc 78 22 3e 14 2f b5 bd c9 37 56 3e 1d de 14 3e
       0.15866464 -0.0884687 0.20919718 0.14537854
000090 6e 3d 40 bc 25 09 33 3e f2 b0 81 3d e7 8d d2 bb
       -0.011733396 0.17483957 0.06332578 -0.0064256075
0000a0 c7 e0 52 be d2 b1 af bd 11 03 91 3e 77 c3 8f 3c
       -0.20593558 -0.085788384 0.28322652 0.01754926
0000b0 2a 7e c2 3d 30 c1 7a be b3 ef 85 3e e2 a0 f0 3d
       0.0949672 -0.24487758 0.26159438 0.11749436
0000c0 e1 68 b0 3d 83 18 dd bc 01 88 97 3d 29 84 93 3d
       0.08613754 -0.026989227 0.073989876 0.07202942
0000d0 62 48 8c 3d 6f 31 7a 3d 4a 46 6f 3c ce 4c c6 3d
       0.068497434 0.0610823 0.014604161 0.09682618
0000e0 80 da 7a 3d 01 86 c5 3e 0c 00 85 3d 0a e4 27 3e
       0.061243534 0.385788 0.064941496 0.16395584
0000f0 94 3f c3 bc a9 7a 32 3e 68 30 b6 3d 35 55 7b 3e
       -0.023834027 0.17429604 0.088959515 0.24544223
000100 94 1a ca bd 9c fc 23 3e 44 20 6d 3e 60 92 45 3e
       -0.098683506 0.16014332 0.2315684 0.19294119
000110 f3 4a 8e bb c4 cb 5f 3e cc 25 1d be a7 17 b0 3d
       -0.0043424307 0.21855074 -0.1534645 0.08598261
000120 ce 22 07 3d fd af 0f 3e 3c 33 81 bd 0b 1c fc 3d
       0.032992177 0.14031978 -0.063086 0.12310036
000130 ad 45 af 3e d4 6c 88 be 6e bb f0 3d 79 28 5e bb
       0.34232846 -0.2664553 0.117544994 -0.0033898635
000140 12 14 0a 3e 3a 7b d2 3b 55 ca 48 be f6 3b 1a be
       0.13484219 0.006423381 -0.19608434 -0.15061936
000150 21 b8 86 3e 50 10 df 3c ea 05 97 be 45 fa 49 3d
       0.26312354 0.027229458 -0.294967 0.04931094
000160 a2 00 3f 3e 9f 10 f5 3d 8c 71 d3 bd 39 c1 6f 3e
       0.18652585 0.11966061 -0.10324392 0.23413552
000170 8a b7 75 3e 49 b9 48 3e 6d d7 52 bd cd ba 0f bd
       0.23995796 0.1960193 -0.051474977 -0.035090256
000180 e1 a2 a7 bd e9 21 38 3e c6 3f cf 3d e9 d0 9e bd
       -0.081853636 0.17981686 0.10119586 -0.0775469
000190 1e 92 82 3d 28 5a 96 bd 8d 41 54 bd db d9 02 3e
       0.06375526 -0.07341415 -0.051820327 0.12778418
0001a0 47 6d e2 bb d2 ee 58 3e b3 1a e7 3d 7c db f7 3d
       -0.0069099995 0.21184853 0.11284389 0.1210241
0001b0 88 20 fa be 7d d3 a8 3e e0 68 a1 3d 4c 04 a8 3c
       -0.48852944 0.32973853 0.078813314 0.020509861
0001c0 7c 77 30 3d 6e 1c f6 bd b7 7c ca 3c 75 e5 02 3d
       0.0430827 -0.12017141 0.024717672 0.03195711
0001d0 be ce 01 3e c7 c2 3e 3e 6d de 56 be 22 5d 24 3e
       0.12676522 0.18628989 -0.20983286 0.16051152
0001e0 4b 3c 4e 3e d6 b5 a5 3e 06 47 65 3e ee 8d 33 bd
       0.20140187 0.32365292 0.22390375 -0.043836527
0001f0 e2 88 9d 3e 2f 9f 19 bd 0e 01 ab bd 60 91 58 3c
       0.30768496 -0.037505325 -0.083498105 0.013218254

_policy.8.weight f4 [3, 128]
000000 4d f1 2f bc 94 bf 6c 3d 4c 86 1f be c4 3c ff be
       -0.010738683 0.05779989 -0.15578574 -0.49851048
000010 87 00 f2 be f7 47 8f be 0f 1e 30 bf 1c b7 83 be
       -0.47266027 -0.27984592 -0.68795866 -0.2572564
000020 2a 0f 1d 3f db 28 5a be 1f 14 f9 3e 12 1d 2f 3f
       0.61351264 -0.21304648 0.48648164 0.6840373
000030 59 48 04 be bb c7 b5 bc 18 11 38 bf 1b b4 2b bd
       -0.12918223 -0.022189965 -0.71901083 -0.04191981
000040 51 f4 83 3e c1 2a 94 3e df 60 cf be 1c b1 5f bd
       0.25772336 0.2893887 -0.40503594 -0.054612264
000050 19 8f 6d be 30 26 1b be cc 1a d3 3d ff e5 62 3e
       -0.23199119 -0.15151286 0.103078455 0.22158049
000060 a2 95 95 bc 16 7f bb be 86 bf 84 3e 4d ce 33 be
       -0.018259827 -0.36620396 0.2592737 -0.17559166
000070 cc 88 32 bf 10 de bd 3e 9f 91 db bd 99 ce 0f 3d
       -0.69739985 0.37083483 -0.107211344 0.035109136
000080 4c 93 4c be 57 a2 f5 bc 26 f8 18 be c7 da dd 3e
       -0.19978064 -0.029984636 -0.14938411 0.43330976
000090 77 39 f8 be 03 2f f4 3e 01 97 cf bd 78 08 69 be
       -0.48481342 0.47692117 -0.101362236 -0.22757137
0000a0 55 a0 fc 3e 04 da 67 bc fe a8 1e bc f1 05 24 3f
       0.49341074 -0.0141511 -0.009683846 0.64071566
0000b0 be 65 ae 3e 41 59 d5 be fd 79 4b 3f 72 2c 24 3e
       0.34061998 -0.41669658 0.79483014 0.1603258
0000c0 d9 80 07 be a2 20 95 bd 94 9e 8f 3e 7b 45 88 be
       -0.13232745 -0.07281615 0.28050673 -0.2661551
0000d0 01 3d 96 be 1f dc 36 3e 7f c7 c2 bd c4 3b 55 be
       -0.29343417 0.17857407 -0.09510707 -0.2082358
0000e0 03 5e 1d 3c ee 95 b3 be 67 35 3d 3e 3e 6c 96 3e
       0.009604934 -0.35075325 0.18477403 0.29379457
0000f0 13 dd 1b bc 8e ae 18 be d9 c0 02 bf 7b e5 12 bd
       -0.009513157 -0.14910337 -0.5107551 -0.03586338
000100 2b bc 8e 3e 72 33 5b 3e 7f 85 35 3f b0 2c 30 be
       0.27877936 0.21406344 0.70906824 -0.17204547
000110 c8 2a e3 3e 02 b2 35 be 62 87 12 3f f7 27 df 3d
       0.44368577 -0.17743686 0.5723783 0.108962946
000120 35 bb ad be 06 66 ab 3e 73 33 46 3f 75 3f a9 bd
       -0.3393189 0.33476275 0.77422255 -0.082640566
000130 4a 57 23 be fa 34 83 3f a9 9b 93 bd d1 3f ff 3e
       -0.15951267 1.0250542 -0.07207424 0.49853376
000140 32 14 fc bd 27 9c 48 be 84 e1 67 bf a0 f5 ec bc
       -0.123085395 -0.19590817 -0.90578485 -0.028925717
000150 d1 5d 8e be f8 85 89 3e 87 e9 83 bf ae d6 d7 bd
       -0.2780595 0.26860023 -1.0305642 -0.10538994
000160 98 69 c0 be 5f 8b 2c 3e b5 33 7c be f0 24 30 be
       -0.37580562 0.16850041 -0.246291 -0.1720159
000170 68 b8 23 be 37 bb 19 be 4b 7f 02 3f 4d d7 0e 3f
       -0.15988314 -0.15012823 0.50975484 0.5579727
000180 34 98 95 bc 3c 5f ac bd 41 34 e3 3d 77 96 1d bf
       -0.018261053 -0.08416602 0.11093951 -0.61557716
000190 c7 c4 11 3d 05 31 16 be a1 0a 6e be 31 78 a5 be
       0.035588052 -0.14667137 -0.23246242 -0.3231826
0001a0 6e 5b 62 bd 4a 80 6b 3e f3 90 b6 be 12 26 39 3f
       -0.055262975 0.22998157 -0.35657462 0.72323716
0001b0 74 e2 7a 3e 0e 3a b0 3e ea ff a1 be 38 7f 32 3e
       0.24500448 0.34419292 -0.3164056 0.17431343
0001c0 3a c2 90 be 2a a3 31 be f7 d3 57 3e 5b 10 4f 3e
       -0.28273183 -0.17347398 0.21076952 0.20221083
0001d0 83 d4 aa be 09 4c ec be f7 08 80 3f d7 0e b7 bd
       -0.3336526 -0.4615176 1.0002736 -0.08938377
0001e0 99 da 94 3e 5b 02 80 be 8f 57 60 be bc 54 04 3f
       0.29073027 -0.25001797 -0.21908401 0.51691794
0001f0 f7 e6 e1 3e ad 47 e6 3d d4 da c4 3e 15 1d 02 be
       0.44121525 0.1124414 0.38448203 -0.12706406
000200 56 8c 9d 3e cd 8f 36 3f f6 3d fb bd 20 c3 f4 3e
       0.3077113 0.7131317 -0.122676775 0.4780512
000210 cf 76 f2 3e 7d bc ba bd e3 09 e3 3e 9a ff fb 3e
       0.4735627 -0.091179825 0.4434348 0.49218446
000220 5c bf a2 be b5 35 fb 3e 74 48 b4 bd 4a 81 27 be
       -0.3178662 0.49064413 -0.08802882 -0.16357914
000230 90 f9 14 be a0 96 11 3e b2 6d 51 3f 8b 42 67 be
       -0.14548326 0.14217615 0.81808007 -0.22583978
000240 90 be ab be ea 24 41 be 41 90 85 3e 5f 6d cb 3e
       -0.33543825 -0.18861738 0.2608662 0.3973188
000250 1c 2e cd 3e dc 03 86 3e 00 d3 c9 be a6 d4 0e be
       0.4007424 0.2617482 -0.39418793 -0.13948306
000260 5a a5 74 be ee 1d 9f 3e 47 5e 97 be b8 7c 86 be
       -0.23891202 0.31077522 -0.29564115 -0.26267028
000270 4b c9 ba 3e c7 d8 95 be f6 62 8a 3e b9 9e 29 3d
       0.364817 -0.2926695 0.27028626 0.041411135
000280 da c4 9d 3e 6b 03 86 be 0b 6b 1c bf cf 24 c1 bd
       0.30814248 -0.26174483 -0.61100835 -0.09430849
000290 27 33 c1 bc fc 3e f6 be 99 52 be 3e e7 fd 6d bd
       -0.023583962 -0.48094928 0.37172392 -0.05810347
0002a0 23 7d 08 3c 0f 75 a9 3e f7 7a e3 3e a8 aa 71 bf
       0.008330616 0.3309712 0.44429752 -0.94401026
0002b0 1a 0b b8 be f8 7a 04 3f fb cf 1c bf 2d 2e 2d be
       -0.3594597 0.51750135 -0.61254853 -0.16912146
0002c0 58 c4 3f be 49 1a bd 3e 46 0c a0 bc 0f b6 86 3e
       -0.18727243 0.36934116 -0.019537102 0.26310775
0002d0 55 c9 97 3e 07 af 31 bd 8a f7 c4 3e 94 d5 fe bd
       0.29645792 -0.04337981 0.38470107 -0.124430805
0002e0 ca d0 5e 3e 0a e7 b2 3e 90 a5 08 3e f4 12 f9 bc
       0.21759334 0.34941894 0.13344407 -0.030404545
0002f0 94 ec 0f 3f 5f 68 c8 bd cb 43 24 3f 5a 8c 54 3e
       0.56220365 -0.09785532 0.64165944 0.20756665
000300 3e a2 0f bf a7 ad 41 bd 32 02 20 be bb cb aa 3e
       -0.56106937 -0.04728475 -0.15625837 0.3335856
000310 8a 5c 22 bd e1 5c f0 be c8 85 be 3d 0c 55 fa 3e
       -0.039639033 -0.4694586 0.093028605 0.4889301
000320 08 d3 ca 3c 72 8a d1 be af eb 85 bd 6f 17 61 be
       0.02475883 -0.40925938 -0.06539094 -0.21981595
000330 db d4 92 3e a4 8b 80 bf 24 72 9c be 4a e4 12 bf
       0.2867802 -1.0042615 -0.30555832 -0.5737959
000340 2c d1 53 be 59 3b 05 be 4d fc 27 3f 37 62 6e 3e
       -0.20685261 -0.1301092 0.65619355 0.23279653
000350 05 d9 9a 3e 50 18 f1 3d a7 d9 98 3e 7b 71 b8 bd
       0.30243698 0.11772215 0.29853556 -0.0900602
000360 e8 10 ed 3e 4e 08 5b be 5e 31 05 3e bc 7f a2 be
       0.4630196 -0.21389887 0.13007113 -0.3173808
000370 b9 1b 9e be c7 04 a1 be 74 f7 07 bf 61 a1 42 be
       -0.30880526 -0.31448957 -0.5311196 -0.19006874
000380 12 8d 13 bf 05 01 ac 3e 39 34 6b bd 28 cc 5a 3e
       -0.5763713 0.33594528 -0.05742285 0.21366942
000390 b6 b6 36 bf 43 fa 47 be dc e7 c3 3d 64 38 c2 bc
       -0.71372545 -0.19529061 0.09565708 -0.02370853
0003a0 38 a9 2b be 03 25 95 bd 11 b0 3e be fb 51 3d bf
       -0.1676377 -0.0728245 -0.18621852 -0.7395322
0003b0 ac 36 11 3f c1 ad a4 be a4 62 f3 3d 65 88 78 be
       0.5672405 -0.32163814 0.118840486 -0.2427078
0003c0 b2 4e 85 3e 17 53 21 3f d8 f8 13 3e e2 63 15 3e
       0.26036602 0.6301741 0.14450395 0.14588884
0003d0 c1 d5 c4 bd a3 dc b9 3d 6a 13 b2 bf e6 f0 c1 be
       -0.09611083 0.09075286 -1.3912175 -0.37879103
0003e0 cf 7f 8e be 08 c7 33 3e 17 c0 e3 3e 23 58 f3 be
       -0.27831885 0.17556393 0.4448249 -0.4752818
0003f0 63 1e a1 be 1b d5 8e 3d 19 0a 28 3e 95 9e 76 be
       -0.31468496 0.069742404 0.16410102 -0.24083932

_policy.8.bias f4 [3]
000000 97 79 ac 3d 62 71 a5 bd c9 9d a8 bc
       0.08421629 -0.08078267 -0.02058305
