logs/weight_colliion_obj_obs = 0.4/model/model_1780.pth (torch, 427625 bytes, 19 tensors)

_policy.0.weight f4 [128, 22]
00000000: bd0f c0be e208 55bd b0bb 3a3e 5719 be3d
00000010: 3981 b7be 6189 5ebe d0d5 323e 1314 d9bc
00000020: 6c99 e33e 29b0 b53e 64c1 69be dcd6 933b
00000030: 3e8a 873e dc94 f43e f8c2 98bd 351a 01be
00000040: 19ed a5bd b24f 973d 4747 0b3d 4211 033e
00000050: 35f6 08be 7cc8 16bf 769e ddbe 62a1 96be
00000060: 4602 293d 6dc5 893f c668 86bd 8d7a 013d
00000070: acf4 833e 5c04 c43d 151c 71bf 9eea f83d
00000080: 0a44 073e 7a09 763e 3579 aa3e 1987 aa3e
00000090: b398 513e aab1 51bd 30eb 23bd 67f0 3dbe
000000a0: e336 53be 222c e23d 69e3 cb3c 30e9 d5bc
000000b0: ad5d 1abf 4dd9 41bd 8281 943e f0d9 1e3d
000000c0: abb5 90be c847 bb3d 4833 313c 45bc 363e
000000d0: e8ce a03f 218b 05bf 4518 9d3e 3d40 afbc
000000e0: dfde cf3e ce2f ed3e 02cb a13d 31a4 1d3e
000000f0: 7618 20be fb6c e93d 3587 b539 7f34 24bd
00000100: 487d bdbd 3d1c e4bd da74 9c3d c8dd 0cbf
00000110: f443 3a3d 23e0 103f 0e1d 49bd 2bb5 37bf
00000120: ef7e 423e 001c d63e aff1 113e 1b2a 143e
00000130: 26fa 30bc e49e 4fbe 52eb 9bbe d6ca 2a3f
00000140: f558 64be cfea 04be e79c 53be 411f 453c
00000150: 2982 50be 0615 9a3e 772d 1b3e e8d7 de3d
00000160: 3100 903f c482 0abf f46f 5fbd 970c 4b3e
00000170: 00e8 483f b143 2fbf 5c71 0c3e eb20 11bf
00000180: db66 3dbf add1 073f 682a 1e3e a38e 18be
00000190: 3eb5 e5bd f0a4 24be e038 863b 15cf 373e
000001a0: 4711 4dbc dbe6 e93b 5337 d13c 1556 febd
000001b0: c2f1 873c 8148 f9bc 2fce 38bf d525 4b3f
000001c0: bb21 f73e 65ca 1cbf e3ab 8ebe c7b6 3d3f
000001d0: 96e2 583e edd6 613e bdd1 49bd 51bb 9cbf
000001e0: 8398 a3be 90a4 e63c ab8a 32be 6aa1 1a3b
000001f0: fc62 7c3d a355 05bd 1cfb 273e c9fa 303d
00000200: 1012 3cbd 6429 d0bd adc2 95bd b6d6 ab3d
00000210: 2414 d4bd 1640 2f3e 37a2 bebe 39e3 833e
00000220: 8b36 cd3e 01e6 9abc 6999 07bf 63bd cc3d
00000230: c930 1e3f 5a79 12bf 1e1d 6d3e a4f0 a7bc
00000240: 8611 70bf 962e 593e 6f9a 2fbd 4251 98bc
00000250: 8aa1 abbd a635 11be edfa bc3e 758e 42be
00000260: 9bbb 243e 67db f4bd b251 7bbe 51ec b8bd
00000270: 1c82 3f3d 6526 7f3f 2146 bf3e 6048 a03e
00000280: 6c2a 88be bce7 e4bd 8592 57bf 9b1f 693f
00000290: f3c8 20bd ef77 eabe 3b9a 7a3d c5f1 ae3d
000002a0: afb1 18be 2de9 513d c3d9 ddbd 85b7 6cbe
000002b0: e1dd 21bc 8515 803d 0b30 46bb a5f9 7b3e
000002c0: 49e0 453e 4a96 dfbe 4fb0 fabd 2964 0d3e
000002d0: 7569 f23e 6a70 b8bd b682 50be d399 5cbc
000002e0: 2052 0840 8831 9d3f 0bbf b9bc ebad 00be
000002f0: 838d 363e 051e 0e3c bbae 0d3e d048 21be
00000300: 3ba8 2c3e d828 a0bd d14a 83bd 2c79 58bc
00000310: 650b 8dbd b1b6 cf3d 4ca1 b23e cc28 523f
00000320: bef4 e3be 7fae 45bf b5c9 98be 8a3c 093f
00000330: 407e 03bf 24bb 26bf 9d46 1ebf d5cd bb3e
00000340: c394 e0bb 49c3 ea3e 1af7 ad3e 7a83 ecbd
00000350: 448c 993d 8ccc 423d 524e 023e d924 1cbe
00000360: 189b 1abc 04cd cb3b 056e f8bd ff2a ecbd
00000370: 6ce6 49bf a7d0 adbe d63c 293e 1aa3 09be
00000380: 8ff4 30bf 61a4 adbe 274f d9bd 1729 823d
00000390: 7f0f c93f e125 153f ba6b 773e 5463 7fbe
000003a0: 9b95 03bd 9fc9 6c3d f06e 9ebc 0865 f23d
000003b0: ac82 173e ad4a 653c 51ab f1bd 497a b6bc
000003c0: 8a4e c9bd 796f 8dbd 73f7 cfba e1dc aa3e
000003d0: 13f1 57bf b6e5 b8be 7404 26be f6b7 c6bc
000003e0: 2c83 85bc 7fc6 f1be cd14 c4be e2c3 03be
000003f0: ed47 0dbd b294 92bd 6d58 cdbe bab3 adbe
-0.37512007 -0.052010424 0.1823566 0.09282177 -0.35840777 -0.21732093 0.17464375 -0.02649883
0.4445299 0.35485962 -0.22827679 0.004511697 0.26472658 0.4776982 -0.07459062 -0.12607653
-0.081018634 0.073882475 0.034003522 0.12799552 -0.1337517 -0.58899665 -0.4328496 -0.2942
0.041261934 1.0763375 -0.06562953 0.031611014 0.25772607 0.09571144 -0.94183475 0.12154125
0.13209549 0.24027053 0.332956 0.33306196 0.20468406 -0.051194824 -0.040019214 -0.18548737
-0.20626406 0.11043574 0.024888711 -0.026112169 -0.6029919 -0.047326375 0.29005057 0.03878206
-0.28263602 0.091445506 0.010815449 0.17845257 1.2563143 -0.5216542 0.3068258 -0.021392936
0.40599725 0.46325535 0.07900049 0.15394665 -0.15634331 0.113977395 0.00034623747 -0.040089127
-0.09252411 -0.111381985 0.07639475 -0.5502591 0.04547496 0.56592005 -0.049099974 -0.71760815
0.18993734 0.41818237 0.14252351 0.14469187 -0.010801828 -0.20275456 -0.30452973 0.66715753
-0.2229956 -0.12980197 -0.20665322 0.012031377 -0.20362152 0.30094165 0.15154062 0.108810246
1.1250058 -0.5410578 -0.054550126 0.19829021 0.78479004 -0.68462664 0.13715118 -0.56690854
-0.7398507 0.53054315 0.15445864 -0.14898162 -0.1121621 -0.16078544 0.0040961355 0.1795009
-0.012516326 0.007138116 0.025539076 -0.124187626 0.016594771 -0.03043008 -0.7218961 0.793546
0.48267922 -0.6124633 -0.27865514 0.7410702 0.21180186 0.22054644 -0.049272288 -1.2244664
-0.31952295 0.028154641 -0.1743571 0.0023594745 0.061617836 -0.032552373 0.16404384 0.043207917
-0.045915663 -0.10164145 -0.07312522 0.08390562 -0.10355404 0.1711429 -0.37233135 0.25759295
0.40080675 -0.018908503 -0.5296846 0.0999706 0.6179319 -0.5721642 0.23155639 -0.020500489
-0.9377674 0.21209177 -0.04287189 -0.018593434 -0.083804205 -0.14180622 0.3691019 -0.18999656
0.16087191 -0.1195591 -0.24542883 -0.09029449 0.04675494 0.9966796 0.37358192 0.31305218
-0.26594865 -0.11177012 -0.84207946 0.9106385 -0.03925414 -0.45794627 0.061182242 0.08542208
-0.14911531 0.051247764 -0.108325504 -0.23116882 -0.00987956 0.062541045 -0.0030241038 0.2460695
0.19323839 -0.4366935 -0.122406594 0.1380774 0.47346082 -0.09005816 -0.20362362 -0.013464409
2.1300125 1.2280741 -0.022674104 -0.12566344 0.1782742 0.008674149 0.13836186 -0.15750432
0.1686105 -0.0782029 -0.064107545 -0.013212483 -0.06886939 0.101422675 0.34888685 0.820935
-0.4452266 -0.77219385 -0.2984139 0.53608 -0.5136452 -0.65129304 -0.618265 0.36680475
-0.0068536713 0.45852116 0.33977586 -0.11548515 0.07497457 0.047558352 0.1272519 -0.15248431
-0.009436391 0.006219508 -0.121303596 -0.11531638 -0.7886722 -0.33948252 0.16527113 -0.13441125
-0.69123167 -0.33914474 -0.106108 0.063554935 1.5707854 0.58260924 0.24162188 -0.24940234
-0.032125097 0.05780947 -0.019340008 0.118356764 0.14795941 0.013994855 -0.11800254 -0.022275107
-0.09829433 -0.06906027 -0.0015866592 0.33371642 -0.84352225 -0.36112756 -0.16212636 -0.024257641
-0.0162979 -0.47221753 -0.3829712 -0.12867692 -0.034492422 -0.07157268 -0.40106526 -0.33926183

_policy.0.bias f4 [128]
00000000: 907c cbbd c4de d4bc 4ce2 44be aba1 39be
00000010: c89f e9bc 4d10 03be 65fa 153d 78d8 ce39
00000020: ecb3 2fbd fe0c 3a3e ced2 273e 03e0 373e
00000030: f10b 37be 0855 75be b7fb 293c f448 d6bd
00000040: 3d05 e8bb 2152 273d 53c2 34be 503f 1a3d
00000050: 40e2 b03d 27b7 d7bc b728 8bbe 6c67 6b3e
00000060: 0a70 97bd 9613 8dbd b915 e4bc 7f2d 14be
00000070: d410 e93d ffa3 57be 76a0 7abe 8387 27be
00000080: 9954 e53d d67e bebd 4286 b53d 6afe 843d
00000090: b051 543e 5f01 57be dd2b 26be 1973 1cba
000000a0: b619 00bd 0657 e13d f26b 3cbe 2985 96bd
000000b0: 8ab5 c4ba 184a 03be 84f7 453e 47e0 cd3d
000000c0: bbd2 f9bd ac2e 4ebe 4865 a4be 07af 27be
000000d0: 9bbd 90be be97 633e 8c6f 8fbe 81ab cabd
000000e0: 809f 8ebd 7861 b23d 4138 b83e 508e 5ebd
000000f0: e989 2abd dab7 3dbc e5ac 96be 84b3 86bd
00000100: bef7 05be c16e cabd 1d0c 543d 6372 acbd
00000110: 9e35 cfbd 23c9 35be db5a adbd 6262 90bd
00000120: 2f09 33be 5d52 103e 3789 29be 28b8 e63d
00000130: eb81 f2bd 6e3b fcbd e45b 44be 82c8 05be
00000140: c0bd 8aba a79c afbc 0f97 aa3c 54ec 79be
00000150: e45e e0bd a429 d7bb 341f 2ebe f25c 59bd
00000160: 0d1d e7bd 26da 84be a926 a53d 5a32 64be
00000170: 197c c93d f0ef 8abe fe06 76be 5f04 063d
00000180: c9be 98be 3295 19be 1f3f c0bd b065 33be
00000190: c74b 92be 3514 1abe 62b7 0fbe 9f11 8dbd
000001a0: 252a b83c 3c79 2d3c 5303 4dbe acd1 69be
000001b0: f5ab 31bc 2de0 2c3e e461 203e d295 65be
000001c0: 15b7 50be 6e6e d2bd 6732 8bbe 5524 103e
000001d0: 11ba 8b3c 18ed 173d 1252 a2bd 1536 343e
000001e0: 90f6 a63d ccaa babd 18cf 423d d935 65be
000001f0: 5efd bb3b 1167 5fbe 8898 5dbe e4c4 8abe
-0.09935868 -0.02598513 -0.1922695 -0.18128078 -0.028518572 -0.12799187 0.036615748 0.00039452664
-0.042896196 0.18169019 0.1638901 0.17956547 -0.17875649 -0.23958218 0.010374955 -0.104631335
-0.0070807026 0.04084981 -0.17652254 0.037658036 0.08636904 -0.026332451 -0.271795 0.22988671
-0.07394417 -0.06888501 -0.02784239 -0.1447048 0.11380163 -0.21058653 -0.24475273 -0.16360287
0.11197776 -0.09301536 0.08863498 0.06493838 0.20734286 -0.20996617 -0.1622767 -0.00059680786
-0.03127452 0.110029265 -0.18400553 -0.07349617 -0.0015007716 -0.12821233 0.19332701 0.10052543
-0.12198397 -0.20134991 -0.3210852 -0.16375361 -0.28269657 0.22225854 -0.2801479 -0.09895993
-0.06964016 0.08709997 0.35980418 -0.05433494 -0.041635428 -0.011579478 -0.29428783 -0.06577209
-0.13082787 -0.09884406 0.051769365 -0.08420255 -0.101176485 -0.17752509 -0.08464595 -0.07050015
-0.17483972 0.14093919 -0.1655625 0.11265594 -0.11841186 -0.12316023 -0.19175678 -0.13064769
-0.0010585114 -0.021437002 0.020823983 -0.24406558 -0.10955599 -0.0065662432 -0.1700409 -0.053067155
-0.11284838 -0.25947684 0.080640145 -0.22284833 0.09838123 -0.27136183 -0.24026105 0.032719012
-0.29833058 -0.1499832 -0.093870394 -0.1751926 -0.2857344 -0.15046771 -0.14034799 -0.068881266
0.022481034 0.010587987 -0.200208 -0.2283389 -0.01084422 0.16882391 0.15662342 -0.22420433
-0.2038234 -0.10274969 -0.2718689 0.1407636 0.017056497 0.037091345 -0.0792581 0.17598756
0.08152497 -0.09114608 0.04756078 -0.22383823 0.005736991 -0.2181666 -0.21640217 -0.2710334

_policy.2.weight f4 [128, 128]
00000000: 0e86 3a3e c83c 8cbb 7f81 28be af9d 8cbe
00000010: 1d2d 9e3e 251b 02bf af66 283d ccd1 633e
00000020: 8498 5a3d 2038 08bf 1304 f2bc 0e58 83be
00000030: 6104 ca3c 69dc fcbd 3803 98be 2819 64bd
00000040: f6d2 253d 9d38 c43d 5602 30bd 06e1 17bd
00000050: bffb c13d 5526 23be 690b 8b3d a506 c7be
00000060: f3de 97be ccae 7cbc bf5f 6dbe 14f9 803e
00000070: dd26 9b3e 89af e03d 744f 633d c8cf c7be
00000080: 0fce 073e ff9a b4bc cb07 6b3e 07ad b5bc
00000090: a334 8d3d 1344 b3be 6021 af3d 5af0 363d
000000a0: 2e6b cbbe 4813 3cbe 62c8 2e3d b22e dcba
000000b0: 5478 273e 1cb5 4ebe 223d 9e3d a224 acbd
000000c0: 50ca d6bd 35ab 28bf fb39 adbe e2ea 02bd
000000d0: a257 e73e f20e da3e 83eb a4be ff63 84be
000000e0: 6540 983e 903f 443e 296f 05be 4525 163e
000000f0: 2a6f 853e 2431 dbbc c851 98be db14 973d
00000100: 6f3f cc3c e322 7f3e 40b7 073e 49ef 04bd
00000110: 828c 463d 619f 64be 1dd4 363d 330a 1bbe
00000120: d8ee 0bbe 9906 aebd 9ea5 03be e25a 93be
00000130: 0012 12be 19f1 e2bc 9806 a3be 381f 573e
00000140: 19fe 783e 033e b83d 945e cd3c a4f8 04bf
00000150: e746 e1be 3e10 a5bd 8e4e d73b abfe 68bd
00000160: a8e5 5ebd fb09 643d 2e62 133e 68dd a43e
00000170: 98c5 f13c ce50 0fbf 249f 4f3d 90f9 c83c
00000180: 2871 b5bb d84f a93d 80f3 34bd 4736 263e
00000190: 7889 91be ae67 893d 4b39 943d 844f 933d
000001a0: c2be 17be a7b9 4ebe 50e7 30bc 7e2c 87bd
000001b0: 4464 c33d b6c4 8abe e4c9 11bf 75bd d3bd
000001c0: 739c 57bd c2d1 363e 5298 4abe 4113 fe3d
000001d0: 5798 803d 64fb 8d3d cb18 25be 13a5 1ebe
000001e0: a808 25bc 2480 583d ba77 2a3c 4c1c 10bf
000001f0: 00a4 0a3d df02 fbbe dc39 383c 72dc 1f3e
00000200: ae84 7bbd 50fa 74bd 8400 64bd 25ef 3cbd
00000210: 0c41 18bb a197 46bd c05e af3c 3ead 2e3d
00000220: 53d4 1bbc a2b1 19bc b6d7 83bd 8d98 f1bd
00000230: aa58 ddbb 44ec 94bd 9c95 debd 99c9 7cbd
00000240: aa83 b3bd cdca f5bd e157 a7bd c9ab 2f3d
00000250: 666d 00be 8c9b c53b a5fd adbd a9e6 bb3c
00000260: 7127 06bd 1f4e 1bbd 1ee2 ddbc 13c6 9ebd
00000270: 1b30 c8bd 4833 2fbd 115c f1bb 0443 97bd
00000280: a674 97bd a6dd 6fbd 4677 35bd 38ea 5dbd
00000290: 40fd 973b 5062 9bbc 694b 91bd da94 95bd
000002a0: 2fc3 a03d 9df1 c13a 7d1a 1a3b 909c 1c3c
000002b0: 4ebd 713d 9e0b dabd 4d4f 8abd e933 edbd
000002c0: e38d d5bd a22b 8ebd 3f80 ebbc bf56 eabd
000002d0: 909a 66bc 3802 263b 44ca e9bd 51e5 16bc
000002e0: 2d38 7fbc eb2b 9fbd a50f 4a3d c00f e0bd
000002f0: 3ec9 3e3d dd01 2e3c e7a9 60bd 6824 0fbd
00000300: 05fd 353d c5e6 453c 5cb4 a8bd a974 0fbd
00000310: a8a7 c6bc 3ad5 453d b3cf 9ebd 8300 0cbd
00000320: 6727 213d 0afc a2bd 7005 0e3b d889 9ebd
00000330: 8d37 9ebd f631 fcbd fe18 e0bc 2ea2 06bd
00000340: 46c6 36bd e5f2 a4bb 7c14 9cb9 2bb8 81bd
00000350: 7ef4 123d 5416 0f3d f16b 35bc d2e7 0cbd
00000360: a91b f43b 3498 da3c b527 c2bc e5f2 d9bd
00000370: 41f0 ee3b f7b3 1bbd 8840 3e3d 22f7 ac3c
00000380: 127a 803c 076a d4bd a5ae bbbd 8000 02be
00000390: 2ea4 efbd 0d83 13bd f6dc 2b3d 69bb 55bc
000003a0: 32fd c5bd 9ef3 093c 6d58 cabd bffe 143d
000003b0: 430d 503d 00ba dabc e0ed cf3b b870 e5bc
000003c0: 06bc 1dbd 0a4d 323d 393c 853c 7ae6 f63c
000003d0: f4ed 1ebc 8ec4 99bd 4201 d33c 50cd 06be
000003e0: a68f 4b3d c7a7 9fbc 94a0 dcbd 08b4 ccbd
000003f0: 0b5b 42bd 7751 483d 9d26 993c fe96 73bd
0.182152 -0.0042797066 -0.16455649 -0.27464053 0.30893794 -0.5082267 0.04111355 0.22248
0.053368106 -0.5321064 -0.029542958 -0.25653118 0.024660291 -0.123467274 -0.29689956 -0.055688053
0.04048439 0.095811106 -0.042970978 -0.037079833 0.09471845 -0.15932591 0.06789286 -0.38872257
-0.29662284 -0.015422534 -0.23181055 0.25190032 0.30303088 0.10970981 0.055495694 -0.39025712
0.13262199 -0.022046564 0.22952192 -0.022177232 0.06894805 -0.35012874 0.08551288 0.04466281
-0.3973021 -0.1836673 0.04267157 -0.0016798584 0.16354495 -0.20186275 0.07726504 -0.08405425
-0.10487807 -0.6588624 -0.33833298 -0.031962283 0.45184046 0.42589527 -0.3221093 -0.2585754
0.2973663 0.19164872 -0.13030685 0.14662655 0.26061374 -0.02675683 -0.29749894 0.07377025
0.024932591 0.24915652 0.13253498 -0.032454763 0.048473842 -0.22326423 0.04463588 -0.1514061
-0.1366533 -0.08497352 -0.12856147 -0.28780276 -0.14264679 -0.027702855 -0.31840968 0.21008003
0.2431568 0.08996203 0.025069512 -0.51941895 -0.43999407 -0.080597386 0.0065706437 -0.056883495
-0.054418236 0.05567358 0.14392921 0.3220017 0.029513165 -0.55982673 0.050688878 0.024533063
-0.005537171 0.08267182 -0.044177532 0.16231643 -0.28425193 0.067092285 0.0723749 0.07192901
-0.14818862 -0.20188008 -0.010797337 -0.06600283 0.095406085 -0.27103204 -0.56948686 -0.103388704
-0.052639436 0.17853454 -0.19784668 0.12406016 0.062790565 0.069327146 -0.16122739 -0.15492658
-0.010072865 0.05285658 0.010404522 -0.5629318 0.03384781 -0.49025628 0.0112442635 0.15611437
-0.06140583 -0.05980903 -0.055664554 -0.046126503 -0.002323213 -0.04848445 0.021407485 0.042645685
-0.009511071 -0.00938073 -0.06437628 -0.11796675 -0.0067549543 -0.072716266 -0.108683795 -0.061715696
-0.08765347 -0.12001572 -0.081710584 0.042888436 -0.12541732 0.0060305055 -0.084956445 0.022937136
-0.032752458 -0.0379163 -0.02708536 -0.077526234 -0.097748004 -0.042773515 -0.0073657115 -0.07385829
-0.07395296 -0.05856099 -0.0443032 -0.054178447 0.004638344 -0.018967777 -0.070944615 -0.07303782
0.07849728 0.0014796738 0.0023514323 0.009558812 0.059018426 -0.10646747 -0.06753407 -0.11582167
-0.10427453 -0.06941916 -0.028747676 -0.11442327 -0.0140749365 0.0025330912 -0.11415532 -0.009209947
-0.015577358 -0.077720486 0.049331326 -0.10940504 0.04657864 0.010620561 -0.05484953 -0.03494683
0.04443075 0.0120789455 -0.08237526 -0.035023365 -0.024249867 0.04829905 -0.07754459 -0.034180176
0.039344218 -0.07958229 0.0021670721 -0.07741135 -0.07725439 -0.12314217 -0.027355667 -0.03286951
-0.044622682 -0.005033838 -0.000297699 -0.063339554 0.035877697 0.034933403 -0.0110730985 -0.03440077
0.0074495864 0.026683904 -0.023700574 -0.106420316 0.007291824 -0.038013425 0.04644826 0.021113936
0.015683208 -0.103717856 -0.0916417 -0.12695503 -0.11701237 -0.03601365 0.04195877 -0.01304517
-0.09667434 0.008419899 -0.09880147 0.036375757 0.050793897 -0.02670002 0.0063454956 -0.02800785
-0.03850939 0.0435305 0.016264068 0.030139197 -0.009700287 -0.07508193 0.025757436 -0.13164258
0.04969754 -0.019489182 -0.10772815 -0.09995276 -0.047450107 0.048905816 0.01869517 -0.05947017

_policy.2.bias f4 [128]
00000000: d501 1cbe fcf1 2bbe ae50 38bd 605b 563d
00000010: 32a7 60bd 04da 063e 53d6 943d b88a d43d
00000020: 8097 6fbd eb3c 023e faae 96bd 849e 643d
00000030: 74b8 4b3d f437 aa3d b78c a73d 36e8 3c3d
00000040: c86f 903d 71af 103e 416f 3e3e 8142 103c
00000050: 97e3 c0bd d144 abbd be6d 0f3d 2f01 513d
00000060: eba3 37bd d8a9 8bbc edd7 c13d b8db 02be
00000070: d2d7 28be 0d17 c23d 104f e5bd a5e4 5fbd
00000080: 05b9 9fbd 780c 96bc e043 3dbd 2486 68bc
00000090: e5d1 7abd 82a6 ecbb b98b 1dbc d000 39be
000000a0: 1471 d43d a901 29be 273a 663d df46 a7bd
000000b0: 7d03 b5bd d54a de3d 40e8 53bd cde8 d6bd
000000c0: 8c3f cf3c cc0f e3bd 4399 95bd ff2f 053e
000000d0: 8810 2d3d 979f bbbd 19dd 803d e9eb 493c
000000e0: c358 90bc 7c34 12be e951 023d b0f9 17be
000000f0: 225f 06ba ae51 a23d af8a 02be fb64 3cbc
00000100: ced5 aabd 753c a8bd a02d 743d ab92 3b3d
00000110: 7aee e0bd 0a31 33be 24d7 4fbd 26bf 51be
00000120: 4971 e6bd 7efc 1bbe 7a04 503d 9ad0 00bd
00000130: c026 113e 59bb 0bbe 093c b53b ad2f 3cbb
00000140: 2d7c a5bb 96b2 0fbd 8a23 453d 2a97 4f3d
00000150: 49c4 edbc f097 143e 29ec fe3c f1e7 c7bd
00000160: 8931 e9bd 5e52 f23d aca9 39be 359d ee3c
00000170: 8b99 90bc fc0c 723d 2998 46be fe20 07be
00000180: c2a9 043d 0325 003d 5fad a83c 1375 98bd
00000190: a028 1fbe 78c3 97bd 3b93 0a3c 42d6 f43d
000001a0: 4bde 16bd f8e9 b03d 5f99 21be 125a 3dbc
000001b0: 6023 45be d57b 0bbe 1e64 94bd 075d a43d
000001c0: d6ca a43d 2187 2d3e 3b5a a8bd fbfb 2a3d
000001d0: 7550 b1bd e274 513d 3ea7 d7bd 4dc9 8e3d
000001e0: b5c2 b7bd 963a 12be 1e5f 9ebc 7422 ccbd
000001f0: 379a 07be 180f b7bc baee 82bd 0a57 c93d
-0.15235074 -0.16791528 -0.044998817 0.052333236 -0.05484695 0.13169104 0.072674416 0.10378021
-0.05849409 0.12718551 -0.07357593 0.055815235 0.049736455 0.083114535 0.08181136 0.04611989
0.070525706 0.14129426 0.18597127 0.008804918 -0.09418409 -0.08362735 0.035016768 0.05102652
-0.04483406 -0.017048761 0.09465013 -0.12779129 -0.16488579 0.09477053 -0.111967206 -0.05466141
-0.077989615 -0.018316492 -0.04620731 -0.014192138 -0.061235327 -0.0072219977 -0.009615832 -0.18066716
0.103731304 -0.1650454 0.056207802 -0.081678145 -0.08838556 0.10854117 -0.051735163 -0.10493622
0.025298856 -0.110869974 -0.07304623 0.1300659 0.042252094 -0.09161299 0.06292171 0.012324312
-0.01762045 -0.14277834 0.031816397 -0.14841342 -0.000512587 0.079257354 -0.12748216 -0.011498685
-0.08341561 -0.08214656 0.059613824 0.04579417 -0.10982986 -0.17499176 -0.050742283 -0.20483074
-0.11252076 -0.15233037 0.05078552 -0.031448938 0.14174938 -0.13645686 0.0055308384 -0.002871494
-0.0050502033 -0.035082422 0.048129596 0.05068127 -0.02902426 0.14511085 0.03111847 -0.09761036
-0.11386401 0.118321165 -0.18131131 0.029127697 -0.01765134 0.059094414 -0.19393982 -0.1319618
0.032388456 0.031285297 0.020590482 -0.07444205 -0.15542841 -0.074103296 0.008457954 0.11954929
-0.03683309 0.08638376 -0.15781163 -0.011557119 -0.19251776 -0.13621457 -0.07245658 0.08025556
0.080465004 0.16946079 -0.08220335 0.041744214 -0.08657924 0.05113686 -0.10529946 0.06971989
-0.08972684 -0.14280161 -0.019332465 -0.09967509 -0.13242422 -0.022346064 -0.0639319 0.098310545

_policy.4.weight f4 [128, 128]
00000000: 1b96 54bd 544b 46bd 74b9 c3bd d380 2fbd
00000010: 9d8f ac3d 93ab 573d 3101 683e 64c2 6b3e
00000020: 6013 efbc 9bb2 2c3e 1217 dbbd e292 f0bd
00000030: c6d5 5bbe 727f a13e 9e82 0bbe 8709 3b3e
00000040: 6d3d 38be 073e d63d 8a70 b9be 9d66 59bd
00000050: b386 20be a340 55be 96ab ccbd 6d01 1e3e
00000060: 2c81 073d 2e99 28be 3a4f 03bd 7d48 2fbd
00000070: 3b74 6e3d 3f3f c1bd a573 d23d 794c e2be
00000080: b542 95be 9970 8fbd f997 243e ec53 20be
00000090: 4d26 04bd 8979 c3bc 83b5 cebd 1695 c4bc
000000a0: 7a68 c2be 5e41 a33b 3915 263d 2962 4abe
000000b0: e687 eabd a9a6 ff3d bce3 70bc 0104 71bd
000000c0: 2af4 393e 2ae0 3e3d 0dc3 72be 4196 f83c
000000d0: 757c de3d 7b00 8e3d 1e60 f5be 10f3 c23d
000000e0: 86d1 0b3e 4ad7 0bbd 7b7e 323e a2e3 e93d
000000f0: 5f8d 06be b0e2 51bc 6872 9dbe 3b49 6bbd
00000100: e514 7b3c c927 e1be 78b9 40be 9df1 8bbe
00000110: 3ea6 16bd 0803 8cbe d88b 9f3d 96b7 8dbe
00000120: 4475 043e f92a 9abd 9d82 4fbe f5f5 853e
00000130: dffc b73e 69e8 4f3e 60de 19be bc94 bbbe
00000140: 4fe6 3bbf cdd2 60bb da1f 8bbe 2e7c 463d
00000150: bb82 913c c59c 113c d1b9 51be 1088 f8be
00000160: 149c 2f3d c99f 11bd 3c12 a83e fcf8 16be
00000170: 9428 9c3e 5ce5 dfbd e193 9ebe 3b29 3b3d
00000180: 0654 873e 4bd6 ab3b b559 55be 08aa 5fbb
00000190: a968 fcbe 9977 b53e e030 383e 8801 c9bc
000001a0: 5815 45bd 92ed c13e dfee 25be aba2 b33d
000001b0: 6251 eb3d bb2b 9e3e 74c7 9e3d 8871 223d
000001c0: 4227 99be ae4d a1be ab3f 7a3e fa85 64bd
000001d0: 0dc9 83be fedb 9fbe c164 413e 44b1 abbd
000001e0: 1ec3 023e 394f 53be 3273 ce3c 3d36 14bf
000001f0: 7e9b dbbc c43d 9c3e 1b5b 50be 59d3 273e
00000200: dfd8 ecbd c21c 6d3d 63d2 6ebe 5b45 67bd
00000210: 64a6 d33d eb66 6b3e 38fd 753d a9c8 9fbe
00000220: 5ec8 a73c c4aa e0bc 2572 6c3d b828 a1bd
00000230: 9527 a5be cffd 7e3e 849a 0d3e a620 5fbe
00000240: c748 0cbe 59f8 5f3e e90c 493e 6e6b 99bd
00000250: e548 07bf d14d f93d af5f 1bbd 65ed a3be
00000260: e76b 72be 5bef 943e cc1b e23d 9e05 c33c
00000270: 8046 3abc d5ee b63d 5d45 153e 147e af3d
00000280: 9318 ca3c 83f5 b9bd c722 5dbe bcac 04be
00000290: 6fde bcbd ec13 9cbe eefc 1ebc bda9 83bd
000002a0: 4934 10be 7609 89be de82 96be 5439 b13d
000002b0: 4dd1 8ebd 6458 12be cbb6 84bf 52ea 803e
000002c0: 6c3e 0d3e 8dc6 68bd 3243 52bc 0961 eebd
000002d0: d386 a3be 8a30 503e d1cb 6abe edd5 f53e
000002e0: e830 9fbe 7b58 34bd a92f 2abe 4160 3fbd
000002f0: 96eb ef3d a5d5 69be be7f 03bf bb76 0dbe
00000300: 4f33 b1bd 0145 d9bc ff3d 66be 7a83 9d3c
00000310: c1b7 3f3e c86f 2b3c cb7e 48bd ee8f e2be
00000320: 0087 48bd 14f9 fb3c 95ac 58be d050 b0be
00000330: 8cb7 1b3e 50f7 c5bd c5f6 a1be 93f1 8abe
00000340: 56be 0f3e f99a 883e 30fc 31bf c19b 683d
00000350: 1693 a9bd 78af cfbd ab74 7e3e f1b0 6abe
00000360: 06dc 6ebf 94a5 883d cfc9 da3d 3797 8dbd
00000370: a5aa 6a3b dd42 febe 84a9 bfbe 1a9f b0bd
00000380: 46c8 033f b7e9 30bf 3176 b83e 7ff3 e33c
00000390: 5c37 20bf 21c9 27be f48e 94bd 9e54 883c
000003a0: da0d c1bb b6e5 02bd 4263 2fbf cb76 7e3d
000003b0: 8987 513d c1a2 4e3d 78c4 82bd 96ad a0be
000003c0: 1d46 ce3d 7fd2 edbd bf4d 42bd 5914 92bd
000003d0: 1b35 75be bad7 823d 2bf8 dfbd a867 793d
000003e0: 9e11 c4be a4e9 cebd 7abf 07be 814e 05be
000003f0: dc1f d3bc 599a 003e 828c c9bd a0f7 693e
-0.051900964 -0.048411682 -0.09556857 -0.042847466 0.084258296 0.05265386 0.22656704 0.23023373
-0.029184043 0.16865008 -0.1069776 -0.11746766 -0.21468267 0.31542546 -0.13624045 0.18265353
-0.17992182 0.104610495 -0.36218673 -0.053076375 -0.15676384 -0.20825438 -0.09993665 0.15430231
0.033082172 -0.16464683 -0.03205798 -0.04279374 0.058216315 -0.09435891 0.10275964 -0.4419897
-0.29152456 -0.07003898 0.16073598 -0.15657014 -0.03226309 -0.023861663 -0.10093214 -0.023996871
-0.37970334 0.0049821576 0.040547583 -0.19764008 -0.11451702 0.1248296 -0.014702734 -0.05884171
0.18159547 0.0466005 -0.23707218 0.030345084 0.10863582 0.069336854 -0.47924894 0.09519017
0.13654146 -0.034140863 0.17431061 0.11420371 -0.13139866 -0.012810394 -0.30751348 -0.057442885
0.015324806 -0.43975666 -0.1882075 -0.27332774 -0.036779635 -0.27346063 0.07790345 -0.27679127
0.12935358 -0.07527728 -0.20264669 0.26164213 0.35935113 0.20303501 -0.15026236 -0.36636913
-0.733983 -0.0034305335 -0.27172738 0.04845827 0.017762532 0.008887474 -0.2048104 -0.48541307
0.042873457 -0.035552774 0.32826412 -0.14743418 0.3049971 -0.10932419 -0.30972198 0.045693617
0.26431292 0.0052440516 -0.20835002 -0.0034128446 -0.492986 0.35442808 0.17987394 -0.024536863
-0.048116058 0.37876564 -0.16204403 0.08771261 0.11490132 0.3089274 0.077528864 0.039659053
-0.29912764 -0.31504577 0.2443835 -0.055791833 -0.25739327 -0.31222528 0.18886091 -0.0838342
0.12769744 -0.2063569 0.025201414 -0.5789526 -0.026807543 0.30515873 -0.20347254 0.16389216
-0.115648024 0.057888754 -0.23322444 -0.056462627 0.10334471 0.22988479 0.06005594 -0.3120778
0.020481285 -0.027425177 0.057726044 -0.078690946 -0.3225676 0.24901508 0.13828474 -0.21789798
-0.13699637 0.21872081 0.19633831 -0.07491194 -0.52845603 0.121730454 -0.037933048 -0.32017055
-0.23673974 0.29088864 0.11040458 0.02380639 -0.011369348 0.08932272 0.14577241 0.08568969
0.024669921 -0.09080031 -0.21595298 -0.12956518 -0.09222113 -0.3048395 -0.009703858 -0.064288594
-0.14082445 -0.2676503 -0.2939672 0.086535126 -0.06973515 -0.14291531 -1.0368284 0.25178772
0.13793343 -0.056829978 -0.012833403 -0.11639602 -0.319388 0.20331016 -0.22929312 0.48014775
-0.31092 -0.044029694 -0.16619743 -0.046722654 0.11714856 -0.22835405 -0.51366794 -0.13814823
-0.086523645 -0.026522161 -0.22484587 0.019227732 0.1872244 0.010463662 -0.048949044 -0.44250435
-0.04895687 0.030758418 -0.21159585 -0.34436655 0.15206736 -0.09666312 -0.31633583 -0.27137432
0.14037451 0.26680735 -0.6952543 0.056789164 -0.082800075 -0.1014089 0.24849193 -0.2291906
-0.9330448 0.066722065 0.10683023 -0.069136076 0.0035807278 -0.49660388 -0.37434018 -0.08624096
0.5147747 -0.6910662 0.36027673 0.027826069 -0.6258447 -0.16385318 -0.07253829 0.016641911
-0.005891544 -0.03195735 -0.6851083 0.06212501 0.051154647 0.050448183 -0.0638513 -0.31382436
0.10071967 -0.116124146 -0.047437426 -0.07132787 -0.2394604 0.06388803 -0.10936006 0.06088987
-0.3829469 -0.10103157 -0.13256636 -0.13018228 -0.025772028 0.12558879 -0.09841253 0.22848368

_policy.4.bias f4 [128]
00000000: b878 c93c 77a3 babb 268b 053e 739b 0cbe
00000010: 1b16 99bd 9d1d 39be 3353 edbd 2adc 49be
00000020: 5ee1 35be d977 bdbd 3281 443d 449f 583e
00000030: 2ddf 2bbe 70c7 d7bd d42a ad3d e520 e93d
00000040: adb3 a2be 8320 433d 293b e6be 95bf 83be
00000050: cc6a 00bc 6453 dd3d b7c2 a0bd c842 8fbd
00000060: 0446 15bd c0f8 ddbd ed2c 52be 6842 ddbd
00000070: 7fdc c23b 17c7 0fbd 04f7 7bbe 3efb a63d
00000080: 49f2 ec3c ea26 4c3e 5b93 ecbe 0b1e 83be
00000090: a399 593d 8e46 c9be f7a1 40bc 02ab 28be
000000a0: 2efd 01bb e845 2f3d 20a2 94bd 78fe 6abe
000000b0: 4f11 ab3c 7d6e 33be 5656 23be 8767 8ebd
000000c0: c759 c23d fc49 043e 97bd adbd 148c 0ebd
000000d0: bb9c b73d e926 6bbe 4047 263e 9251 71bd
000000e0: b48a 1ebe 0019 00be e3f3 34be a5e9 b23c
000000f0: 026b 8ebd 3300 1dbe baf7 4ebe a12a 37bc
00000100: cc10 a93d 6a61 12bd 1aac 59bc 252f 60bd
00000110: e97f 1fbe 39cb bbbd a22d 2fbd 3267 4fbd
00000120: 95cc 83be a275 dabd 9f6b 8dbd e1da 29be
00000130: 3160 ab3d 0867 8a3d 08cd 803c 3576 d83d
00000140: 59da 3fbe 00b7 52bd 66a7 86bd 1996 eebd
00000150: d171 81be 406f 923e 0ffd b23d 48b6 debd
00000160: efb9 77be d323 c9bd f085 5f3e 990c 14be
00000170: ee78 f4bc a12d c7bd aee8 25be 7ca6 fcbb
00000180: 6b50 cfbe c21c 84bd 38a5 0ebc 71ed 963d
00000190: ee46 c63d da89 3bbe 910d 3cbe e01f f53d
000001a0: 36d5 34be 63af 2f3e 0746 013e 1796 303c
000001b0: f155 dcbd 7f32 77bc 7bf0 bbbd bb81 b43c
000001c0: 9745 78be 3247 56bd 0675 66bd 5b77 a63c
000001d0: b20d be3d d18f b3be dc75 0cbd e7dc a4be
000001e0: dc1f 87bd 2b0c 1abe d5d2 b4bd 08c9 343c
000001f0: c9c0 1cbd 7221 6cbe 33e2 bb3c 78ff 853d
0.024593696 -0.005695756 0.13041362 -0.13731174 -0.074749194 -0.18077703 -0.115881346 -0.19712892
-0.17761752 -0.09251375 0.047974773 0.21154505 -0.16784354 -0.105360866 0.084554344 0.11383227
-0.31777707 0.047638427 -0.4496701 -0.25732103 -0.007837962 0.10806921 -0.07849639 -0.069951594
-0.036443725 -0.10838461 -0.2052495 -0.108036816 0.0059466953 -0.035101976 -0.24605948 0.081533894
0.028924124 0.1993672 -0.46206173 -0.25608858 0.053125035 -0.3931164 -0.011757365 -0.16471484
-0.0019834745 0.042791277 -0.072574854 -0.22948635 0.020882277 -0.17522617 -0.15950903 -0.0695334
0.0948978 0.12918848 -0.08483427 -0.034801558 0.08965441 -0.22964062 0.16238117 -0.058915682
-0.15482599 -0.12509537 -0.1767116 0.021839926 -0.06954004 -0.15332107 -0.20211688 -0.011179597
0.08255157 -0.035737433 -0.013285661 -0.05473246 -0.15576138 -0.09169621 -0.04276813 -0.050635524
-0.2574202 -0.10666968 -0.06905293 -0.16587402 0.083679564 0.06757933 0.015722767 0.10569421
-0.18735637 -0.051444054 -0.065748975 -0.116497226 -0.25282148 0.28600502 0.08739673 -0.10874611
-0.24192022 -0.09821286 0.21828437 -0.1445793 -0.02984282 -0.097255 -0.16202042 -0.007710276
-0.40491042 -0.064507976 -0.008706383 0.07369507 0.096814975 -0.18314305 -0.1836455 0.1196897
-0.17659459 0.17156748 0.1262437 0.010777972 -0.107585795 -0.015087723 -0.091767274 0.022034517
-0.24245296 -0.05231399 -0.056263946 0.020320585 0.09279956 -0.3507066 -0.034292087 -0.32199785
-0.065978736 -0.15043704 -0.088292755 0.011034258 -0.03826979 -0.23059633 0.022935009 0.065428674

_policy.6.weight f4 [128, 128]
00000000: 8b51 c1be a434 fa3c 4ff8 2dbe 6ada 90bd
00000010: fb91 a9bc 12a4 61bf d332 303e d033 d73e
00000020: ee33 01bf b1f0 9bbd 0e5a 9d3e 00f9 42be
00000030: c821 b0bd 25fb c73e b3d1 8abe c24e c6bd
00000040: 6643 56be 9e5e cabd 34ff 803e 0043 72be
00000050: b836 2d3e 495b d63c d2e3 8cbd 784e f2bd
00000060: dae7 61be 0dfe ccbd c9a5 0cbf 2d0e b23d
00000070: 3863 81be ac54 03bd 29b5 463e 866c bb3e
00000080: d9c3 af3d caf0 2c3e 1a51 b33e ba0c 843e
00000090: 7e0d c03d 286a 7dbe 9d41 843e 80c1 4dbe
000000a0: f40d 0abf 6a71 dd3b 7590 da3d 3eef 993e
000000b0: bf7a 82be 6c8e e1be f122 4abe a3a3 8cbe
000000c0: fbff 3ebe 98e5 a73d 1f34 c3bd 2530 e63c
000000d0: 8f22 5f3e a9a4 d2bc 9be0 24be fe56 0ebf
000000e0: f585 39be a326 f6bd 2d90 f5bd 4224 bdbd
000000f0: 32cc 293e cadf 42be 2a71 bcbc 3837 a8bc
00000100: b4da 76bf 5331 7d3e bc56 a9bd ddb9 a6be
00000110: 1aa7 8d3d 21a5 ae3d 2b90 903e 7370 733d
00000120: 9df6 6d3e 4ddf d2bd 21d0 25be ae49 483e
00000130: 3206 d03e b99a 26be 477a c03e 65df 303b
00000140: 1ddf 0bbe 7144 1cbe 0ba1 65be 40aa dcbe
00000150: 670d 9abd 4eea 18be f4a9 2dbe b608 f13b
00000160: 0c38 27bd 52c1 2fbe b041 aa3e 2cf2 c2bd
00000170: 0186 343e c39d c2bd 001d 23be cfcc 12bf
00000180: fe5d efbc 529c a2bd 388e 91bc 6116 49bf
00000190: 10ee 10bd dded 783c 91ec a9be ea35 d73e
000001a0: 075f 2bbd ad89 e5bc 5771 cb3d 9f93 913e
000001b0: df1f 9ebe 556b d6be 205b 83bd 76a3 13be
000001c0: 42d7 ca3d 4d76 eebd 9cbc 12be 9bdd 863e
000001d0: d12a c73d a92a 1c3e 9146 c6ba 5585 8e3d
000001e0: 7cd5 9b3e a3ed b0bc eaaf 4a3e 9a4e b1be
000001f0: 34da a9be 7c33 0b3e eebc 74be eb2b 9fbd
00000200: 1958 57bd c052 7d3e 79cb adbe e81e b83d
00000210: 7202 dfbe 34b7 4bbd 583b 12bf b0cb fbbc
00000220: 0574 a2bd bc9a 6abd f018 33be b5bf 8cbd
00000230: a827 9fbe 3617 6d3d 6f01 9abe 6b11 fdbe
00000240: b473 a73d 9e9e 3dbe 7a3c 39bf 9bf2 14bc
00000250: b8ef 753d 651d b3be cd10 ebbd f977 ad3d
00000260: 37f6 17bd 7221 a0be 1684 963c bca2 b73d
00000270: 8704 b0be 975a c0be 6ea1 10bd 366b b63d
00000280: 5e87 17bf 842b 823d e5f1 823e 0a60 563e
00000290: 580d 81bd 4fb3 c7bb 595f fbbd 14b0 d43d
000002a0: 145e 41bd 7efa 52be 437c 82bf a405 5ebe
000002b0: 9813 c93e 0f1a a2be 253a 11bf f688 88bd
000002c0: 3be8 dbbe 1656 8f3d eae7 3cbf 573c a1be
000002d0: ce0e 1f3e f286 eabe e90d 0dbe 8e47 883e
000002e0: 514e 18bd 9077 153e 6e2b 3cbe 5de3 89bd
000002f0: 234d 94be 4aec 303c 8ff9 f53d 50fa 45bd
00000300: 56f5 5cbd f64d b73e 6d4a aabe 1dd3 893d
00000310: 320e 23bf a70d 01bf 3a28 8ebe 2950 813e
00000320: 991b 13bf 44e5 e3bc e888 933d 0d83 6bbe
00000330: 7e79 223e bf2d 62bf ef68 bdbe 087a 1d3e
00000340: d09a c1bd 3780 263e 100c e7be 13c1 cbbe
00000350: 1d30 2b3e a90e c2bc 82b6 a93e 937b 07bf
00000360: 2a0a 953e 2212 e2be ba8f 80be 76a5 ad3d
00000370: 0b4c a43e 5dbf cc3c f3b1 623d 6559 443e
00000380: 924c 9c3d 0132 17be fe69 a5bd 08d2 513d
00000390: 0a13 47bf 97f0 aabc 0fb9 99be 6f40 df3d
000003a0: 713c 313e e146 c5be 8c2f 203e b7e8 18bc
000003b0: aba5 d3bd 4c39 40bf f901 de3e bac6 83be
000003c0: 424c eebd 95be efbd a0e5 a5be 6ce5 50be
000003d0: 10a3 b7be 9c24 98bd d4ee 1fbe f0ef c2be
000003e0: aaa1 01be 0ddd 82bf fdac b2bd 3ffe 333e
000003f0: 76b9 efbe 6407 b1be b4c7 4abd 7d47 92bf
-0.37757525 0.03054268 -0.16989253 -0.07072909 -0.020699492 -0.88140976 0.17206888 0.42031717
-0.50469863 -0.076142676 0.3073277 -0.19040298 -0.08600193 0.39058796 -0.27113113 -0.096829906
-0.20924148 -0.09881328 0.25194705 -0.23658371 0.16915405 0.026166575 -0.06879391 -0.11831373
-0.220611 -0.10009394 -0.5494047 0.0869411 -0.2527101 -0.03206317 0.19405045 0.36606234
0.08582277 0.16888729 0.35022813 0.2579096 0.093775734 -0.24747527 0.2583131 -0.20093346
-0.5392754 0.006757905 0.10672084 0.3006534 -0.25484273 -0.44053972 -0.19739892 -0.27468595
-0.18652336 0.081980884 -0.09531426 0.028099129 0.21790527 -0.025713282 -0.16101305 -0.5560149
-0.18117507 -0.12019088 -0.1199039 -0.09235431 0.165818 -0.19030681 -0.02300318 -0.020534143
-0.96427464 0.24725847 -0.082684964 -0.32563677 0.06916638 0.085275896 0.2823499 0.05943341
0.23238607 -0.102964975 -0.16192676 0.19559357 0.40629727 -0.1626996 0.3759329 0.0026988622
-0.1365933 -0.15260483 -0.22424714 -0.4309864 -0.075220875 -0.1493313 -0.16959363 0.0073557748
-0.040824935 -0.1716359 0.3325324 -0.09518847 0.17629243 -0.09502747 -0.15929031 -0.57343763
-0.029219624 -0.07939972 -0.01776801 -0.7854977 -0.035383284 0.01519343 -0.33188298 0.4203332
-0.041838672 -0.02801975 0.09933727 0.28432938 -0.3088369 -0.41878763 -0.06413865 -0.14417824
0.099043384 -0.11643658 -0.14329761 0.26340947 0.097249635 0.15250649 -0.0015127232 0.06959025
0.30436313 -0.021597689 0.19793668 -0.3463028 -0.33174288 0.13593858 -0.23900196 -0.077720486
-0.05257425 0.24738598 -0.339443 0.0899027 -0.43556553 -0.049735263 -0.571218 -0.030736774
-0.07932285 -0.057276472 -0.17489982 -0.06872503 -0.31084943 0.057883464 -0.3007922 -0.4942735
0.081763655 -0.18517539 -0.72357905 -0.009091045 0.060043067 -0.34983364 -0.11477814 0.084701486
-0.037100043 -0.31275517 0.01837353 0.08966586 -0.34378454 -0.37569115 -0.0353102 0.089071676
-0.5919093 0.06355956 0.25575176 0.20935073 -0.06301373 -0.0060943733 -0.122740455 0.10385147
-0.04720886 -0.20603368 -1.0194172 -0.21681839 0.3927276 -0.31660506 -0.56729347 -0.06666748
-0.42950615 0.069988415 -0.7379137 -0.31491348 0.15532991 -0.4580608 -0.13774838 0.26617092
-0.037184063 0.1459639 -0.18375942 -0.06732819 -0.289651 0.010798523 0.1201049 -0.04833442
-0.053944908 0.35801667 -0.33259907 0.0672972 -0.63693535 -0.50411457 -0.27765065 0.2525647
-0.57463986 -0.027819283 0.07203847 -0.2299921 0.15866658 -0.88351053 -0.3699412 0.15378582
-0.09453356 0.16259848 -0.4512639 -0.3979574 0.16717573 -0.023688631 0.33147055 -0.52922934
0.29109317 -0.4415446 -0.25109655 0.08478825 0.32089266 0.024993593 0.055345487 0.19174726
0.07631792 -0.14765169 -0.08076857 0.051225692 -0.77763426 -0.020866675 -0.30024 0.109009616
0.17308213 -0.3853064 0.15643138 -0.009332827 -0.10334333 -0.7508743 0.4336088 -0.25737554
-0.11635639 -0.117062725 -0.32401752 -0.20400017 -0.35866594 -0.07428858 -0.1561845 -0.38073683
-0.12659326 -1.0223709 -0.08724401 0.17577456 -0.46821183 -0.3457595 -0.049506858 -1.1428066

_policy.6.bias f4 [128]
00000000: 0dec 14be 4d8b f5be cbe1 5e3e 0347 4c3e
00000010: 6de5 053e 0a2e 1b3e 20fc 04bb 8d09 113e
00000020: 97b3 113e 3b77 213d 7172 a03d 2465 263d
00000030: a4a0 9d3c 768a 18be a3b4 873e 5092 323e
00000040: a69e 9b3c fc7d a83d 290b 73bc 1ee5 b0bd
00000050: 881b 7b3e f1e3 413e 7a0d 743e 088e 233d
00000060: 20e6 343e c0e1 f43d b6e6 413d 7495 2e3e
00000070: 9d69 cbbd 4e4d ec3d 6f2c c83d f731 34be
00000080: 7703 233e 8d9a bcbd 18e9 543e dabd 123e
00000090: 54ed 25bd c83c 383e eaff 933d 144c 203c
000000a0: 2f20 62be 72d7 bebd 91a8 893e aca6 bd3b
000000b0: 5e41 c73d 5389 78be cd08 863e da01 033e
000000c0: 35e0 e53d 91be a7bc 405a c43d b510 873d
000000d0: 75ee 8b3d d124 623d de39 993b ead8 e33d
000000e0: 7262 9e3d 559a c83e d258 8f3d d4c1 253e
000000f0: 5937 21bd a388 3e3e 9f0d c23d 94cc 6f3e
00000100: 81ad a6bd 838a 2c3e fe0a 763e 6e22 3d3e
00000110: f850 b23c e117 793e 4cae 1cbe 65a5 743d
00000120: 0aaa b83c ba9f f03d 80aa b4bd 8431 ed3d
00000130: aed1 ab3e 5601 87be 8d46 073e 1f49 8abc
00000140: 85e6 023e 9783 b9bc 031a 5dbe 4c2b 31be
00000150: 6d6c 803e 534f e83c 44e1 9abe 6baf 783d
00000160: 2ac2 373e 5b28 103e 5d56 a7bd 0f54 7e3e
00000170: b360 6b3e 475e 403e e4bf 6dbd 9a72 21bd
00000180: 248e 5fbd b239 353e de09 fc3d 9aaf e9bd
00000190: bddd 953d d1d6 65bd d824 c0bc b3d1 fa3d
000001a0: 0e39 72bc a769 603e db0e 0e3e 56f6 e43d
000001b0: 1803 ebbe 0ea8 a83e 44aa a03d 75eb a53c
000001c0: 74ec 2f3c 6544 ccbd c117 e0bb bd81 113d
000001d0: 9f64 f93d 1f67 403e a077 68be dc93 2d3e
000001e0: b916 5d3e 9d68 a53e a949 703e 25e8 55bc
000001f0: 0caf a13e c2ca 33bd fbcb 85bd 51f3 a5ba
-0.14543171 -0.4795784 0.2176582 0.19948964 0.130758 0.15154281 -0.002029188 0.141638
0.14228664 0.039420348 0.07834328 0.0406238 0.019241638 -0.14896569 0.26505002 0.17438626
0.018996548 0.082271546 -0.014834204 -0.08637451 0.24522221 0.18934609 0.23833266 0.039930373
0.1766591 0.11957121 0.047339164 0.170492 -0.099322535 0.11538182 0.097741 -0.17597185
0.1591929 -0.09209166 0.20792043 0.14330235 -0.040509537 0.17991936 0.07226546 0.009783763
-0.2208259 -0.09318437 0.26886418 0.005787691 0.09729265 -0.24271135 0.2617859 0.12793675
0.11224405 -0.020476611 0.09587526 0.065949835 0.068325914 0.055210892 0.0046760878 0.111253574
0.07733621 0.39180246 0.06999363 0.16187221 -0.039359424 0.1860681 0.09475254 0.23417884
-0.08138562 0.16849713 0.2402763 0.18470165 0.021767125 0.24325515 -0.15300864 0.059728045
0.022542018 0.117492154 -0.08821583 0.1158171 0.3355841 -0.26368207 0.13210507 -0.01688057
0.12783249 -0.022645755 -0.21591954 -0.17301673 0.25082722 0.028358137 -0.3024999 0.060714167
0.17945161 0.14077894 -0.08170769 0.24836753 0.22986107 0.18785964 -0.05804433 -0.039415933
-0.054578915 0.1769779 0.123065695 -0.114104465 0.07317684 -0.056113068 -0.023455068 0.12247028
-0.014784111 0.21915303 0.13872854 0.11179797 -0.45900798 0.32940716 0.078449756 0.020253876
0.010737527 -0.09973983 -0.006838769 0.03552412 0.12177395 0.18789338 -0.22701883 0.16950935
0.215907 0.32306376 0.23465599 -0.013055836 0.31578863 -0.043894537 -0.06533047 -0.0012661015

_policy.8.weight f4 [3, 128]
00000000: 1409 7ebb e6fa 473d 9920 12be cda2 f8be
00000010: 4672 ebbe 9e66 8abe 7ff7 37bf ff9f 86be
00000020: 724f 1b3f e128 63be 1631 083f 4aa2 313f
00000030: bd42 02be d42c b8bc 8200 32bf 3f80 fbbc
00000040: 2550 953e 65f7 973e 61f8 dabe 7d4e 23bd
00000050: 234c 6dbe 6c35 17be 1b14 db3d 1083 623e
00000060: 2376 55bc 0e5f c8be 81e8 7d3e 3e01 37be
00000070: 469b 33bf dd84 bb3e b17b c9bd 99ce 0f3d
00000080: 416d 4cbe bdbd d0bc 86b8 0ebe 6887 df3e
00000090: 646f f8be d871 f83e 7a45 e7bd 392e 72be
000000a0: 8ebf f43e 1a9f adba fecb 46bc 9924 2b3f
000000b0: 0d60 aa3e a390 d5be 5d97 483f 149f 253e
000000c0: 3597 0bbe 8b3f 88bd f3ec 9d3e f7d5 86be
000000d0: 82a6 96be 0489 373e 0a0c c0bd fd89 51be
000000e0: 1735 a53c 3e63 adbe c647 383e e000 9b3e
000000f0: f87f 1bbd 3f1c 14be ce6d 03bf 402c 14bd
00000100: 917b a43e 82a0 673e 36fb 363f 1d3b 45be
00000110: 930f dc3e da5a 24be 298a 0a3f c36d 0e3e
00000120: 9b76 acbe efc4 a63e fd02 4d3f 320d abbd
00000130: 5975 21be 812c 893f 7adc 43bd aaff 033f
00000140: bc05 f6bd 8b8d 42be 8665 6dbf 414e f5bc
00000150: 42f8 91be f652 793e 0e9c 86bf 89fd c1bd
00000160: 7b2c c4be 9507 483e 0739 9bbe 180d 2cbe
00000170: 7e19 2dbe 1f38 0bbe 9c62 073f dfcf 103f
00000180: 95d3 1bb8 b743 cfbd 2d8a 053e 478b 1dbf
00000190: c701 313d dc5d 10be bdef 6ebe 6510 a6be
000001a0: e017 79bd 34a7 513e 0beb c4be 08c1 3c3f
000001b0: 64c2 773e fb04 af3e c96b a1be 296c 213e
000001c0: 8ba0 8bbe 7d1e 44be ab89 343e f45a 5d3e
000001d0: 5179 a2be 1369 f8be b8be 843f 0a06 dcbd
000001e0: e64f 903e 58ae 84be 5650 5bbe d2d4 063f
000001f0: 185d e53e d63e dd3d 474b ca3e ae77 f4bd
00000200: 1b13 9a3e 4c75 3b3f 345f 01be d0a3 e63e
00000210: 42f3 f33e 2a5f 9fbd 9216 f53e ff22 fa3e
00000220: 8b0a 92be 1d20 013f e66f ebbd 0fd8 23be
00000230: 2acd 0bbe c8f5 1b3e c9a3 4c3f 1628 7bbe
00000240: 6fef acbe 23dd 42be 5cf9 983e b7c7 c53e
00000250: da6d cb3e ba7e 893e 2ca7 cdbe 411a 08be
00000260: 0861 6ebe ad4f ab3e ee10 94be 53ee 85be
00000270: 302c bf3e b684 99be e2ca 8b3e b99e 293d
00000280: ac73 9d3e 8574 87be 73ac 1abf a1b1 c9bd
00000290: 7065 193b 8af2 febe 9c73 be3e 0822 8cbd
000002a0: 258b 90bc 7188 9c3e a714 e23e 73cb 70bf
000002b0: a1b1 aebe 662c 093f a486 1cbf 4575 29be
000002c0: 92be 3ebe 8bc4 b43e 5a18 21bd 9d8c 833e
000002d0: afba 983e abd9 41bd e360 c73e aae6 f9bd
000002e0: 64ad 743e 61b8 ad3e 7042 043e ee82 0bbd
000002f0: 68fd 163f 099a c3bd 183f 223f f924 4d3e
00000300: 1c1b 11bf 8426 82bd 42b6 12be b090 aa3e
00000310: 6310 f8bc 7011 f3be f78a a83d 8014 e73e
00000320: 8a42 1c3d f2a5 c5be 0c42 9bbd 03ec 42be
00000330: b412 893e ab11 82bf e3b4 a3be 9d54 17bf
00000340: 9f39 59be b199 dbbd 5a08 2d3f 3e24 833e
00000350: bc86 993e f910 053e ad9e a53e d51f b2bd
00000360: 3a04 f03e ec65 74be 66ba 2d3e 1844 a8be
00000370: 361e 91be 1e2a a4be 229c 0abf fda2 49be
00000380: a61c 12bf c729 a93e eb90 87bd 78ee 5e3e
00000390: 67ce 32bf 48e0 4bbe 07b4 d53d 2cf3 44bb
000003a0: 9014 24be 75c2 35bd 0066 3bbe e3ac 3cbf
000003b0: 8627 123f 890a a3be fe7f eb3d b34a 6fbe
000003c0: 357a 853e 264b 233f f8a6 213e efcb 083e
000003d0: cd94 cbbd 60bd bd3d a8e0 b3bf ce2c bcbe
000003e0: d3c8 8abe c241 233e c05e e23e 75f8 eabe
000003f0: a247 a7be 312e 9e3d 0bf2 1f3e 7721 82be
-0.0038762735 0.04882326 -0.14270248 -0.48561707 -0.4598562 -0.27031416 -0.71862024 -0.26293942
0.606681 -0.22183563 0.531999 0.6938826 -0.12720771 -0.022482313 -0.69532025 -0.030700801
0.29162708 0.29680935 -0.42767623 -0.039869774 -0.23173575 -0.14766473 0.10697194 0.22120309
-0.013028654 -0.3913502 0.24795724 -0.17871568 -0.70158803 0.36624804 -0.098380454 0.035109136
-0.19963552 -0.0254811 -0.13937578 0.43657994 -0.48522484 0.48524356 -0.112925485 -0.23650445
0.47802395 -0.0013246268 -0.012133596 0.6685272 0.33276406 -0.41711912 0.7835596 0.16173965
-0.136319 -0.06652745 0.3084484 -0.26335117 -0.2942391 0.17923361 -0.09377296 -0.20462795
0.020166917 -0.33864778 0.1799613 0.30274105 -0.037963837 -0.144639 -0.51339424 -0.036175013
0.32125524 0.22619823 0.7147707 -0.19260831 0.42980632 -0.16050282 0.54117066 0.13909058
-0.3368424 0.32572123 0.80082685 -0.08352126 -0.15767421 1.0716707 -0.047817685 0.5156199
-0.120128125 -0.18999307 -0.9273304 -0.029944541 -0.28509718 0.24348053 -1.0516374 -0.09472186
-0.38315186 0.19534142 -0.30316946 -0.1680187 -0.16904256 -0.13595627 0.5288484 0.56567186
-3.715193e-05 -0.101203375 0.13040991 -0.61540645 0.043214586 -0.14098305 -0.2333364 -0.32434383
-0.060813785 0.20473939 -0.38460574 0.7373204 0.24195248 0.34183487 -0.31527546 0.15763916
-0.27270922 -0.19152255 0.17630641 0.21616727 -0.31733182 -0.48517665 1.0370703 -0.10743339
0.28185958 -0.25914264 -0.21417364 0.5266849 0.44797587 0.10803001 0.39510557 -0.119368896
0.300927 0.73225856 -0.12633973 0.45046854 0.47646528 -0.07781823 0.47868782 0.48854825
-0.2852367 0.50439626 -0.11495952 -0.16000389 -0.13652483 0.15230477 0.79937416 -0.2452701
-0.33776423 -0.1902967 0.29877746 0.38628933 0.39732248 0.26854497 -0.40166605 -0.13291265
-0.23279202 0.33459225 -0.28919166 -0.2615839 0.373384 -0.29984063 0.27303225 0.041411135
0.30752313 -0.26456085 -0.60419387 -0.09848333 0.0023406409 -0.49794418 0.37197578 -0.068424284
-0.017644474 0.30572847 0.4415638 -0.9406044 -0.34119895 0.5358337 -0.61142945 -0.16548641
-0.18627384 0.353062 -0.039329864 0.25693217 0.29829928 -0.047326725 0.38941106 -0.12202199
0.23894268 0.33929732 0.12915969 -0.03406041 0.5898042 -0.09550864 0.63377523 0.20033635
-0.5668199 -0.063550025 -0.14327338 0.33313513 -0.030281251 -0.4747424 0.082296304 0.45132828
0.038149394 -0.3860317 -0.07580957 -0.19035344 0.26772082 -1.0161642 -0.31973943 -0.59113485
-0.21213387 -0.10722674 0.6759087 0.25613588 0.29985607 0.12994756 0.32347623 -0.08697478
0.46878225 -0.23867005 0.16965637 -0.3286445 -0.28343362 -0.32063383 -0.5414449 -0.19691081
-0.57074964 0.33039686 -0.06619438 0.21770656 -0.69846195 -0.19909775 0.10434728 -0.0030052168
-0.16023469 -0.0443749 -0.18300629 -0.73701304 0.5709156 -0.31843975 0.11499022 -0.23368339
0.260698 0.6378654 0.1578635 0.13359044 -0.09940491 0.09264636 -1.4052935 -0.36752933
-0.27106342 0.15943053 0.44212914 -0.45892683 -0.3267184 0.07723654 0.15619676 -0.25416157

_policy.8.bias f4 [3]
00000000: 1543 a73d afc7 aebd fdd3 55bc
0.08167092 -0.085341804 -0.01305103

_value.0.weight f4 [128, 22]
00000000: 0949 813d 9182 2b3e 9eee 17be 7ff2 1a3d
00000010: 18b2 ec3c 85ea 2cbe 2372 9e3d cc30 4abd
00000020: b387 283e 9597 3abe 82b1 0bbd f392 243e
00000030: a7da 903d 3e58 5cbd 3d94 42bd b7d6 2d3d
00000040: a02f e3bc 611b 2d3e f6a2 2339 0f67 d23d
00000050: df54 a03d 0410 a1bd c38a 23be 990e 0dbe
00000060: ffc4 87bd ad6a 55bd 8cc6 193d 437f 1fbe
00000070: 5050 a3bd 2979 033e f99f 72bc 27e0 9fbd
00000080: 047b 17be 60b7 6dbd 3e74 1ebe 6921 303e
00000090: da37 e43d 0597 293e 93ae 15be 70ab 32be
000000a0: 6bd1 683c 727e 69be 1cf6 ecbd 3e5b 3e3d
000000b0: 06e5 d8bc 9408 00bd bda9 7fbd a072 17be
000000c0: a9a8 253e df6b 253e aaa5 d9bd e7e0 323e
000000d0: 45ed 073e 6056 903d d6c3 373e 4692 193e
000000e0: a70c 25be 4252 53be b6a6 11be 59bc 57be
000000f0: c5b7 0abe 4616 62bc 9dbe 6cbd c7af c3bd
00000100: 6a08 1abe 056d a83d fbd8 ebbd edde 353d
00000110: c90d 633b 1c1e 56be 49ed 1bbe 8fd0 573d
00000120: c730 923d 4fe0 103d 89d0 843c 29c6 e9bd
00000130: 5d46 e83d f5f7 233d 7eac 8d3e b2f4 b53b
00000140: aaca 163e ec01 d8bc b6c5 013c 88a8 26bd
00000150: e588 ddbd 67d2 973d cbe0 aabc 9527 8b3e
00000160: 7a37 0abe f96a 7b3e 6ee9 6ebe 081c a53d
00000170: 2fa3 b23c 2747 c23d d455 d43c 5423 ab3d
00000180: 641f 96bd cd0f b1bd 009f 3cbe e27e c2bd
00000190: 3cf7 653d 9849 873d 93e8 abbd 12f9 a2bd
000001a0: 2e7e 68bd de42 873d 054e 50bd 9d12 8e3c
000001b0: 4293 0b3d 3a65 cfbc 74f3 46be 5fd6 6c3e
000001c0: 2ed2 053e da5a e1bd cc36 013e 540a 0bbe
000001d0: 09d6 1d3e 6577 133d 83f5 9f3d c972 b23c
000001e0: 5ee0 04be a4eb ab3d da49 143e c25c ea3d
000001f0: 3199 363e 7876 d03d 83f8 a53a 37e9 23be
00000200: 5fbe 573b 6e34 0abe 51b3 b4bd d843 37be
00000210: 3ca4 af3d ce48 333e f04b debd 60ee 2e3e
00000220: 74e5 3abd 3f7e 30be 9fec c13c 0881 04bd
00000230: 03b1 873d baeb 5abd ac8a 4abe d1e8 60bd
00000240: 1ce1 14be 9be6 363e ef71 3cbe 1d39 f03d
00000250: 595f 7b3d f9c7 cfbd 0096 cf3d 3beb 3abe
00000260: 5ea5 28be 7c10 a73c acae adbd 9741 0cbe
00000270: 9be3 aa3b 8272 26be 6cd5 ca3d 5bb0 133e
00000280: f781 db3d 2573 893c 93d3 d4bd c561 2b3e
00000290: fd57 a2bc 2e1e 15be 1671 5d3d 62bb 47be
000002a0: 2af6 9d3d d51a fcbd e9ba 673c 89da cdbc
000002b0: e23c 62be d068 253d 554c 1c3e 10a7 f53d
000002c0: ab12 de3d d620 3bbe 86d3 8ebd fa21 e5bd
000002d0: 2840 aebd 0a26 d03c 4759 f03d b0a3 283e
000002e0: 338e 0cbd a34f 3e3e 1b9e 49bd 71be 0ebe
000002f0: fd6a 033e e7ee 06be 2e45 54be 6f17 31be
00000300: 4d47 263e 4f8c e53b 2249 533c 7aa5 cbbd
00000310: c986 5fbe f6e9 253e 8cbe 60bd b18c df3d
00000320: 139e 9f3d 5799 06bd 2e0e 3a3d 8d29 a6bd
00000330: 9a42 433d a312 29be 4f60 04bc 2521 b93d
00000340: 8f38 9cbd 2fee 4c3e 989e 17be f30b 3bbe
00000350: a406 fc3d ae79 a3bd 335d 64bd ead9 4abe
00000360: ec4f 51be 340f 183a c5be b13c c321 833d
00000370: 339b 153e 72e5 1fbe 7d0c 25bd b620 0e3e
00000380: 65be 063e 6737 a5bd e201 47bd a267 8a3d
00000390: 7fd7 0d3e f88d 9a3d 0e46 213d 0584 2ebc
000003a0: 6372 903d 4635 7f3c dca6 913c d995 ab3d
000003b0: 34be 13be b656 e0bc 2cd0 2d3e 824d afbd
000003c0: c346 8ebc 4ae6 41be 9f74 52bd 7c9c 2cbd
000003d0: dd95 77bc 3e81 aabd 1cc7 1ebe 615e 04be
000003e0: 0d2a 76bd 26ba e6bc c0b3 183d 7351 f23b
000003f0: 3ca7 0b3e 4a28 043e 2942 073e 91c5 193e
0.063127585 0.16749026 -0.14837119 0.03782892 0.028893515 -0.16886337 0.077366136 -0.049362943
0.16458015 -0.18221886 -0.03410483 0.16071682 0.070729546 -0.05379509 -0.047504652 0.042441096
-0.02773267 0.16904975 0.00015605599 0.10273563 0.07828688 -0.07864383 -0.15970902 -0.137751
-0.06629371 -0.052103687 0.037542865 -0.1557589 -0.07974303 0.12839188 -0.014808648 -0.078064255
-0.1479302 -0.05803621 -0.1547403 0.17200245 0.11143465 0.16561516 -0.14617376 -0.1744821
0.014210085 -0.22802141 -0.11570379 0.046473734 -0.026476394 -0.03125818 -0.062417734 -0.1478982
0.1617762 0.16154431 -0.10627301 0.17468606 0.13274105 0.07047725 0.17945799 0.14997205
-0.16118108 -0.20636848 -0.14223751 -0.21067943 -0.13546665 -0.013799256 -0.05779897 -0.09555011
-0.15042272 0.08223919 -0.11515995 0.04440205 0.0034645668 -0.20909923 -0.15227236 0.05268913
0.0713821 0.035370167 0.016212719 -0.11414749 0.11341546 0.040031392 0.27670664 0.0055528516
0.14725748 -0.026368104 0.007920673 -0.040688068 -0.10817126 0.07413178 -0.020859143 0.27178636
-0.13497725 0.24552526 -0.23331234 0.08061987 0.021806328 0.094862275 0.025919832 0.08356348
-0.07330206 -0.08645592 -0.18420029 -0.09496857 0.056143984 0.06605834 -0.083939694 -0.07957663
-0.05676096 0.06604551 -0.050855655 0.01734286 0.034075983 -0.025316823 -0.19428807 0.23128651
0.13068458 -0.11003657 0.1261856 -0.13578159 0.15413679 0.036002535 0.078104995 0.02178325
-0.12976214 0.08394554 0.14481297 0.114434734 0.17831875 0.10178846 0.0012662563 -0.16006933
0.0032919866 -0.13496563 -0.088232644 -0.17896974 0.08576247 0.17508242 -0.10854328 0.1708312
-0.04562898 -0.17235659 0.0236724 -0.032349616 0.06625559 -0.053447463 -0.19779462 -0.05490953
-0.14538997 0.17861407 -0.18402837 0.117296435 0.061370227 -0.10145564 0.10136032 -0.18253796
-0.16469333 0.020393603 -0.08480582 -0.13696896 0.005215121 -0.16254619 0.09903988 0.14422743
0.10718148 0.016778538 -0.10391917 0.16736515 -0.019817347 -0.14562294 0.054062925 -0.19505075
0.07712968 -0.12309805 0.014143684 -0.02512862 -0.22093537 0.04038316 0.15263493 0.11994755
0.108434044 -0.18274245 -0.06973939 -0.11188121 -0.085083306 0.025408763 0.11735778 0.16468692
-0.0343153 0.18585066 -0.049223047 -0.13939835 0.12833782 -0.13177072 -0.20729515 -0.17294095
0.16238137 0.0070052515 0.012895854 -0.099436715 -0.2182876 0.1620253 -0.05486922 0.10915507
0.07793822 -0.03286108 0.04542368 -0.08113394 0.047670938 -0.16511016 -0.008079602 0.09039525
-0.07627975 0.20012735 -0.14806592 -0.18266277 0.12305954 -0.07982193 -0.055752944 -0.1980969
-0.20440644 0.0005800605 0.021697411 0.06402924 0.14609985 -0.1561487 -0.040295113 0.13879666
0.13158567 -0.08067208 -0.04858578 0.06758048 0.13851736 0.0754661 0.03937345 -0.010651593
0.070530675 0.015576666 0.01777976 0.083781905 -0.14428025 -0.027385097 0.16973943 -0.08559705
-0.017367726 -0.18935505 -0.05138075 -0.042141423 -0.015111414 -0.08325432 -0.15505642 -0.12926628
-0.060098697 -0.028164934 0.037280798 0.0073949634 0.13638014 0.12905994 0.13208832 0.15016772
