logs/weight_colliion_obj_obs = 0.4/model/model_1390.pth (torch, 427625 bytes, 19 tensors)

_policy.0.weight f4 [128, 22]
-0.3749649 -0.05213206 0.18237941 0.09280519 -0.3583018 -0.2174099 0.17463195 -0.026512954
0.44467327 0.3547445 -0.22818941 0.004464253 0.26476353 0.47769615 -0.07459073 -0.1260766
-0.08104042 0.0738581 0.033983663 0.127975 -0.13375324 -0.5889971 -0.42316198 -0.30861628
0.022452848 1.0686109 -0.040673364 0.01715805 0.29544723 0.10249338 -0.9133687 0.116584636
0.175908 0.24281329 0.33621147 0.29270115 0.2020052 -0.057124384 -0.05479543 -0.1835079
-0.20946783 0.10753137 0.02230326 -0.028760083 -0.59554964 -0.08890212 0.27993274 0.012536552
-0.29652607 0.10537933 0.007544081 0.20580955 1.2492045 -0.540952 0.26417127 -0.0042366735
0.38966218 0.46709928 0.08386684 0.15900849 -0.16169289 0.11052192 0.0014399297 -0.036134556
-0.08997317 -0.109285094 0.06441251 -0.58389145 0.02293042 0.5441454 -0.07975585 -0.7300345
0.12538444 0.40702572 0.09068522 0.11948563 -0.09027564 -0.25264362 -0.33989146 0.60181046
-0.24058986 -0.14826708 -0.22100227 -0.007592235 -0.21581687 0.28466275 0.13524967 0.0925346
1.1449481 -0.4966471 -0.098704815 0.20525302 0.8243023 -0.6626782 0.023547431 -0.56830525
-0.68573517 0.5497749 0.10335592 -0.15519528 -0.12946069 -0.17243545 0.0027941081 0.16787978
0.013288511 0.004405025 0.029936 -0.1227232 0.016335627 -0.03335181 -0.7125835 0.81127757
0.49361643 -0.5992414 -0.2450831 0.69752204 0.19560803 0.25365755 -0.004954144 -1.1956624
-0.27226293 -0.040548082 -0.17518438 0.020892896 0.059510667 -0.037456103 0.17370391 0.04410879
-0.050109725 -0.1050015 -0.0732373 0.08395251 -0.12046297 0.14523038 -0.2380679 0.3189614
0.3842804 -0.03458448 -0.5761686 0.0797813 0.64740366 -0.6595225 0.22559577 -0.10241939
-0.9093755 0.12026263 -0.054351892 -0.024427397 -0.0945844 -0.14557825 0.36291865 -0.19345197
0.15596913 -0.12502556 -0.2785855 -0.13953829 -0.022907028 0.97722924 0.31125122 0.29375318
-0.27754438 -0.16320138 -0.85832626 0.8605003 -0.072789505 -0.41015992 0.03534963 0.062750936
-0.15632991 0.04218764 -0.10652026 -0.24233556 -0.014464806 0.056440912 -0.0094465995 0.23928958
0.16982926 -0.46798748 -0.09903114 0.14792892 0.46872753 -0.07309814 -0.19454627 0.0037815284
2.072127 1.190183 0.0023480055 -0.11232697 0.19690053 0.0048090313 0.1458287 -0.15355289
0.17426687 -0.07555568 -0.059755694 -0.008004547 -0.065296486 0.10465775 0.34379 0.7782155
-0.4213702 -0.78614587 -0.26180893 0.49773654 -0.5133528 -0.63935125 -0.6529244 0.28958878
0.009829673 0.44543758 0.34584472 -0.16235629 0.069430694 0.037893604 0.12250117 -0.15741292
-0.0117354505 -0.008385726 -0.12616932 -0.13298355 -0.70304286 -0.29184705 0.20163004 -0.049718138
-0.7206758 -0.33513135 -0.063601874 0.15226208 1.5571964 0.5767579 0.27496323 -0.22300188
-0.006889694 0.07067524 -0.0127004925 0.11608957 0.15160058 0.017079826 -0.11690289 -0.021787947
-0.097458415 -0.06614624 -0.02927403 0.30466926 -0.85701394 -0.36041707 -0.19383857 -0.107774764
-0.10773239 -0.51357275 -0.35867092 -0.15026805 -0.059017308 -0.041846536 -0.38561314 -0.36357778
00000000: 66fb bfbe 6d88 55bd abc1 3a3e a610 be3d
00000010: 5573 b7be b3a0 5ebe b8d2 323e b231 d9bc
00000020: 37ac e33e 12a1 b53e 7caa 69be de48 923b
00000030: 168f 873e 9794 f43e 06c3 98bd 391a 01be
00000040: 85f8 a5bd ea42 973d 7432 0b3d e10b 033e
00000050: 9cf6 08be 84c8 16bf b0a8 d8be f402 9ebe
00000060: 09ef b73c 3ec8 883f 1d99 26bd 0a8f 8c3c
00000070: dc44 973e 0de8 d13d 88d2 69bf edc3 ee3d
00000080: 3a21 343e 0ca4 783e e923 ac3e eddc 953e
00000090: 73da 4e3e 42fb 69bd 2c71 60bd 7fe9 3bbe
000000a0: bc7e 56be 6839 dc3d 54b5 b63c 449a ebbc
000000b0: f175 18bf 5112 b6bd 5853 8f3e 1c66 4d3c
000000c0: 44d2 97be 1ed1 d73d 5734 f73b bdbf 523e
000000d0: efe5 9f3f d57b 0abf 7541 873e cbd3 8abb
000000e0: cd81 c73e a327 ef3e 61c2 ab3d 1fd3 223e
000000f0: d292 25be 5159 e23d 06bc bc3a d401 14bd
00000100: da43 b8bd ddd0 dfbd b5ea 833d e979 15bf
00000110: 93d8 bb3c 1d4d 0b3f 0957 a3bd 8ae3 3abf
00000120: c764 003e ad65 d03e 2cb9 b93d e2b4 f43d
00000130: 6fe2 b8bd 815a 81be 4106 aebe 4010 1a3f
00000140: 305d 76be 53d3 17be 6b4e 62be 49c8 f8bb
00000150: 19ff 5cbe 51bf 913e e47e 0a3e c882 bd3d
00000160: a98d 923f 8748 febe c025 cabd d92d 523e
00000170: 7a05 533f 47a5 29bf 8be6 c03c 747c 11bf
00000180: 578c 2fbf 0cbe 0c3f 45ac d33d 83eb 1ebe
00000190: 5891 04be eb92 30be 5b1d 373b ade8 2b3e
000001a0: 0eb8 593c 0758 903b 583c f53c 4d56 fbbd
000001b0: 4bd2 853c e89b 08bd df6b 36bf e3af 4f3f
000001c0: 4bbb fc3e e267 19bf 10f7 7abe ce90 323f
000001d0: 794d 483e 67df 813e 5f56 a2bb 770b 99bf
000001e0: 0c66 8bbe bf15 26bd 8963 33be 9427 ab3c
000001f0: 75c1 733d 926b 19bd 70df 313e 6bab 343d
00000200: db3f 4dbd 070b d7bd 70fd 95bd 4bef ab3d
00000210: 4ab5 f6bd 46b7 143e 12c8 73be e94e a33e
00000220: 67c0 c43e 75a8 0dbd c97f 13bf 6164 a33d
00000230: 3fbc 253f 77d6 28bf 9402 673e 42c1 d1bd
00000240: d5cc 68bf 414c f63d 17a0 5ebd f71b c8bc
00000250: 77b5 c1bd 7712 15be 79d0 b93e 4618 46be
00000260: 5fb6 1f3e b306 00be c2a2 8ebe 20e3 0ebe
00000270: 85a7 bbbc b22b 7a3f 525c 9f3e d166 963e
00000280: 4c1a 8ebe 431e 27be 45bb 5bbf bf49 5c3f
00000290: aa12 95bd 7b00 d2be c6ca 103d 9083 803d
000002a0: f314 20be f2cc 2c3d 4b27 dabd d026 78be
000002b0: cbfd 6cbc 962e 673d e9c5 1abc 5408 753e
000002c0: b9e7 2d3e 0e9c efbe d7d0 cabd ae7a 173e
000002d0: 0efd ef3e 7ab4 95bd 2337 47be 85d3 773b
000002e0: bb9d 0440 eb57 983f ffe0 193b af0b e6bd
000002f0: 4ba0 493e 1495 9d3b 1e54 153e f83c 1dbe
00000300: 0473 323e f0bc 9abd 63c2 74bd 8125 03bc
00000310: 2aba 85bd cd56 d63d 3e05 b03e 2239 473f
00000320: d6bd d7be db40 49bf d20b 86be 53d7 fe3e
00000330: 176b 03bf 86ac 23bf 0e26 27bf fb44 943e
00000340: a30c 213c 6510 e43e 8f12 b13e ba40 26be
00000350: ae31 8e3d 5336 1b3d e5e1 fa3d da30 21be
00000360: 0c46 40bc 4964 09bc 8832 01be d72c 08be
00000370: 9efa 33bf fa6c 95be 1b78 4e3e 3fa5 4bbd
00000380: 367e 38bf 5696 abbe b341 82bd 97ea 1b3e
00000390: 3652 c73f 68a6 133f fbc7 8c3e 9b5a 64be
000003a0: f1c2 e1bb 2ebe 903d ba15 50bc 5ec0 ed3d
000003b0: 2f3d 1b3e feea 8b3c c86a efbd a37c b2bc
000003c0: 4798 c7bd ae77 87bd 17d0 efbc 9cfd 9b3e
000003d0: 4465 5bbf 9688 b8be 9e7d 46be 04b9 dcbd
000003e0: cda2 dcbd 8179 03bf b7a3 b7be dedf 19be
000003f0: 22bc 71bd 4667 2bbd 166f c5be de26 babe

_policy.0.bias f4 [128]
-0.09937639 -0.02865436 -0.18982853 -0.19755393 -0.028035609 -0.1294669 0.029755717 -0.0063594566
-0.039578594 0.17306735 0.16433805 0.17547435 -0.16393216 -0.23949014 -0.004371069 -0.10791325
-0.007477399 0.04147921 -0.1892634 0.03222577 0.08059317 -0.03202002 -0.27888682 0.23377895
-0.069743626 -0.06484217 -0.022114402 -0.14464773 0.09381653 -0.20868099 -0.24322204 -0.1618507
0.11185979 -0.10292852 0.07510311 0.063882425 0.20734286 -0.19610325 -0.16131805 0.0010853739
-0.031223744 0.10491991 -0.2143018 -0.08078041 -0.0061814827 -0.12991783 0.19077025 0.10377711
-0.120441556 -0.19922991 -0.34636655 -0.16653211 -0.28846824 0.21305741 -0.26916254 -0.10036974
-0.063192904 0.098899916 0.36007994 -0.055686872 -0.038930237 -0.020450674 -0.29041764 -0.07296016
-0.13082787 -0.09433175 0.05028334 -0.08472573 -0.101176485 -0.18146916 -0.08354423 -0.071821004
-0.18970907 0.13568518 -0.15707439 0.11812622 -0.1229017 -0.12481151 -0.18889682 -0.12303241
-0.0010585114 -0.011169204 0.021714097 -0.24259555 -0.109028734 -0.015440063 -0.1700409 -0.055690184
-0.12532827 -0.24853557 0.075816125 -0.22752939 0.10221793 -0.26132438 -0.2252509 0.041023083
-0.30984715 -0.15427552 -0.110793486 -0.1761063 -0.28324318 -0.15912639 -0.14034799 -0.06857853
0.017417526 0.012560643 -0.22056012 -0.2326908 -0.019445466 0.1688695 0.13647613 -0.22420433
-0.2038234 -0.101578325 -0.2656247 0.14397177 -0.015055932 0.03960183 -0.069038406 0.18681462
0.08152497 -0.09211441 0.051042967 -0.17421709 0.014539338 -0.22301552 -0.22082381 -0.26593152
00000000: d985 cbbd 8cbc eabc 6962 42be 944b 4abe
00000010: efaa e5bc f992 04be 43c2 f33c fd62 d0bb
00000020: 2a1d 22bd 9138 313e 3c48 283e 8caf 333e
00000030: d5dd 27be e73c 75be 2f3b 8fbb 9f01 ddbd
00000040: f804 f5bb 1be6 293d 44ce 41be 2bff 033d
00000050: 080e a53d 6d27 03bd 41ca 8ebe c063 6f3e
00000060: bfd5 8ebd f9cb 84bd 4329 b5bc 891e 14be
00000070: e222 c03d 78b0 55be 330f 79be 31bc 25be
00000080: bf16 e53d 30cc d2bd a9cf 993d cad4 823d
00000090: b051 543e 4acf 48be 8f30 25be 1b43 8e3a
000000a0: f0c8 ffbc 40e0 d63d ee71 5bbe 3370 a5bd
000000b0: 098e cabb 2e09 05be 4759 433e 1889 d43d
000000c0: 10aa f6bd ed02 4cbe f556 b1be 6587 2abe
000000d0: 1cb2 93be b92b 5a3e accf 89be a68e cdbd
000000e0: 486b 81bd 0a8c ca3d 665c b83e eb17 64bd
000000f0: 5075 1fbd 2c88 a7bc 9fb1 94be 236c 95bd
00000100: bef7 05be 0131 c1bd e7f5 4d3d af84 adbd
00000110: 9e35 cfbd 0dd3 39be 3d19 abbd e416 93bd
00000120: 1843 42be 0ef1 0a3e 1cd8 20be 29ec f13d
00000130: e3b3 fbbd 2d9d ffbd 2b6e 41be 6bf8 fbbd
00000140: c0bd 8aba 09ff 36bc c3e1 b13c f86a 78be
00000150: 754a dfbd 51f8 7cbc 341f 2ebe 641b 64bd
00000160: 0e56 00be 1c80 7ebe 7c45 9b3d 77fd 68be
00000170: a257 d13d 4fcc 85be 2ca8 66be d207 283d
00000180: 49a4 9ebe 67fa 1dbe b2e7 e2bd 3655 34be
00000190: 4005 91be 07f2 22be 62b7 0fbe e672 8cbd
000001a0: 33af 8e3c 28cb 4d3c 83da 61be 7f46 6ebe
000001b0: 194c 9fbc 20ec 2c3e 66c0 0b3e d295 65be
000001c0: 15b7 50be 4c08 d0bd f6ff 87be 566d 133e
000001d0: 28ad 76bc 8735 223d 0264 8dbd 554c 3f3e
000001e0: 90f6 a63d 7ba6 bcbd 6e12 513d f765 32be
000001f0: 6736 6e3c 2e5e 64be a31f 62be 2d28 88be

_policy.2.weight f4 [128, 128]
0.182152 -0.01692564 -0.12196241 -0.27173376 0.3086227 -0.5747037 0.07806885 0.17143753
0.081906356 -0.5088084 -0.039559815 -0.2210351 0.050220266 -0.14806871 -0.4193962 -0.091320425
0.03239052 0.07620486 -0.100087374 0.035073083 0.11548355 -0.07082997 0.010379685 -0.36759797
-0.3116591 -0.014467964 -0.23181055 0.25190032 0.25990137 0.10970886 0.09043638 -0.37436217
0.11210533 -0.009187065 0.28444532 0.021212861 0.06894805 -0.35010234 0.1574926 0.05876764
-0.47104663 -0.17738456 0.09245766 -0.00552697 0.18982904 -0.24133548 0.0640403 -0.11459587
-0.019748298 -0.6588624 -0.2542906 0.022363298 0.45813772 0.3855849 -0.3213359 -0.21520174
0.29866743 0.19164872 -0.15638037 0.15190537 0.26061374 -0.016430149 -0.30864787 0.12106842
0.024932591 0.25980198 0.14531699 0.0058076987 0.048473842 -0.231539 0.021157721 -0.13607313
-0.13874966 -0.06253544 -0.12856147 -0.31067222 -0.14264679 -0.037238363 -0.31840968 0.20779678
0.2431568 0.12161536 0.016959308 -0.4601597 -0.44146964 -0.09900914 0.0065706437 -0.07793138
-0.08216634 0.056487665 0.12181284 0.26093727 0.042173043 -0.64819044 -0.018604342 0.07102167
-0.04379146 0.08893349 -0.055043083 0.12876694 -0.28259847 0.0065280595 0.0723749 0.06761956
-0.1334824 -0.20188008 0.06277753 -0.09844937 0.121783435 -0.27502033 -0.56733525 -0.103388704
-0.052639436 0.19783017 -0.19784668 0.17069922 0.0041510286 0.025750577 -0.174981 -0.142723
-0.010072865 0.08514406 0.043432415 -0.5629318 0.03384781 -0.4954526 -0.026496612 0.18387553
-0.06140583 -0.05980903 -0.055664554 -0.046126503 -0.002323213 -0.04848445 0.021407485 0.042645685
-0.009511071 -0.00938073 -0.06437628 -0.11796675 -0.0067549543 -0.072716266 -0.108683795 -0.061715696
-0.08765347 -0.12001572 -0.081710584 0.042888436 -0.12541732 0.0060305055 -0.084956445 0.022937136
-0.032752458 -0.0379163 -0.02708536 -0.077526234 -0.097748004 -0.042773515 -0.0073657115 -0.07385829
-0.07395296 -0.05856099 -0.0443032 -0.054178447 0.004638344 -0.018967777 -0.070944615 -0.07303782
0.07849728 0.0014796738 0.0023514323 0.009558812 0.059018426 -0.10646747 -0.06753407 -0.11582167
-0.10427453 -0.06941916 -0.028747676 -0.11442327 -0.0140749365 0.0025330912 -0.11415532 -0.009209947
-0.015577358 -0.077720486 0.049331326 -0.10940504 0.04657864 0.010620561 -0.05484953 -0.03494683
0.04443075 0.0120789455 -0.08237526 -0.035023365 -0.024249867 0.04829905 -0.07754459 -0.034180176
0.039344218 -0.07958229 0.0021670721 -0.07741135 -0.07725439 -0.12314217 -0.027355667 -0.03286951
-0.044622682 -0.005033838 -0.000297699 -0.063339554 0.035877697 0.034933403 -0.0110730985 -0.03440077
0.0074495864 0.026683904 -0.023700574 -0.106420316 0.007291824 -0.038013425 0.04644826 0.021113936
0.015683208 -0.103717856 -0.0916417 -0.12695503 -0.11701237 -0.03601365 0.04195877 -0.01304517
-0.09667434 0.008419899 -0.09880147 0.036375757 0.050793897 -0.02670002 0.0063454956 -0.02800785
-0.03850939 0.0435305 0.016264068 0.030139197 -0.009700287 -0.07508193 0.025757436 -0.13164258
0.04969754 -0.019489182 -0.10772815 -0.09995276 -0.047450107 0.048905816 0.01869517 -0.05947017
00000000: 0e86 3a3e a4a7 8abc 6ec7 f9bd b020 8bbe
00000010: cb03 9e3e c81f 13bf 90e2 9f3d 528d 2f3e
00000020: 85be a73d 4441 02bf 7909 22bd 0657 62be
00000030: c4b3 4d3d 539f 17be 19bb d6be 3406 bbbd
00000040: ecab 043d 4b11 9c3d 9cfa ccbd cba8 0f3d
00000050: a482 ec3d 4e0f 91bd 8e0f 2a3c cd35 bcbe
00000060: c891 9fbe 0a0b 6dbc bf5f 6dbe 14f9 803e
00000070: cb11 853e 0aaf e03d b536 b93d 66ac bfbe
00000080: 7b97 e53d 5885 16bc d1a2 913e 98c6 ad3c
00000090: a334 8d3d 9d40 b3be bd45 213e 56b6 703d
000000a0: 062d f1be 4ca4 35be 715a bd3d 961b b5bb
000000b0: 8b62 423e a620 77be 9027 833d 3db1 eabd
000000c0: 2fc7 a1bc 35ab 28bf 6132 82be 3c33 b73c
000000d0: 0791 ea3e 626b c53e 2486 a4be d85d 5cbe
000000e0: f0ea 983e 903f 443e 2d22 20be 158d 1b3e
000000f0: 2a6f 853e 8598 86bc 1807 9ebe b8f2 f73d
00000100: 6f3f cc3c c404 853e facd 143e 824e be3b
00000110: 828c 463d 8f18 6dbe f552 ad3c c156 0bbe
00000120: 6414 0ebe 9512 80bd 9ea5 03be 6e10 9fbe
00000130: 0012 12be 4187 18bd 9806 a3be aec8 543e
00000140: 19fe 783e 7911 f93d 3fee 8a3c 0d9a ebbe
00000150: 4f08 e2be 4ec5 cabd 8e4e d73b 7d9a 9fbd
00000160: d346 a8bd 9c5f 673d 0379 f93d 9299 853e
00000170: a4bd 2c3d cfef 25bf 2268 98bc cf73 913d
00000180: ad5e 33bd c322 b63d db74 61bd 7bdb 033e
00000190: bfb0 90be 55e9 d53b 4b39 943d 207c 8a3d
000001a0: 9caf 08be a7b9 4ebe 8191 803d d39f c9bd
000001b0: 9869 f93d 77cf 8cbe e23c 11bf 75bd d3bd
000001c0: 739c 57bd fe93 4a3e 5298 4abe c7cb 2e3e
000001d0: 5a05 883b e0f2 d23c 382e 33be fa25 12be
000001e0: a808 25bc 0260 ae3d 30e6 313d 4c1c 10bf
000001f0: 00a4 0a3d f7ab fdbe 6c0f d9bc de49 3c3e
00000200: ae84 7bbd 50fa 74bd 8400 64bd 25ef 3cbd
00000210: 0c41 18bb a197 46bd c05e af3c 3ead 2e3d
00000220: 53d4 1bbc a2b1 19bc b6d7 83bd 8d98 f1bd
00000230: aa58 ddbb 44ec 94bd 9c95 debd 99c9 7cbd
00000240: aa83 b3bd cdca f5bd e157 a7bd c9ab 2f3d
00000250: 666d 00be 8c9b c53b a5fd adbd a9e6 bb3c
00000260: 7127 06bd 1f4e 1bbd 1ee2 ddbc 13c6 9ebd
00000270: 1b30 c8bd 4833 2fbd 115c f1bb 0443 97bd
00000280: a674 97bd a6dd 6fbd 4677 35bd 38ea 5dbd
00000290: 40fd 973b 5062 9bbc 694b 91bd da94 95bd
000002a0: 2fc3 a03d 9df1 c13a 7d1a 1a3b 909c 1c3c
000002b0: 4ebd 713d 9e0b dabd 4d4f 8abd e933 edbd
000002c0: e38d d5bd a22b 8ebd 3f80 ebbc bf56 eabd
000002d0: 909a 66bc 3802 263b 44ca e9bd 51e5 16bc
000002e0: 2d38 7fbc eb2b 9fbd a50f 4a3d c00f e0bd
000002f0: 3ec9 3e3d dd01 2e3c e7a9 60bd 6824 0fbd
00000300: 05fd 353d c5e6 453c 5cb4 a8bd a974 0fbd
00000310: a8a7 c6bc 3ad5 453d b3cf 9ebd 8300 0cbd
00000320: 6727 213d 0afc a2bd 7005 0e3b d889 9ebd
00000330: 8d37 9ebd f631 fcbd fe18 e0bc 2ea2 06bd
00000340: 46c6 36bd e5f2 a4bb 7c14 9cb9 2bb8 81bd
00000350: 7ef4 123d 5416 0f3d f16b 35bc d2e7 0cbd
00000360: a91b f43b 3498 da3c b527 c2bc e5f2 d9bd
00000370: 41f0 ee3b f7b3 1bbd 8840 3e3d 22f7 ac3c
00000380: 127a 803c 076a d4bd a5ae bbbd 8000 02be
00000390: 2ea4 efbd 0d83 13bd f6dc 2b3d 69bb 55bc
000003a0: 32fd c5bd 9ef3 093c 6d58 cabd bffe 143d
000003b0: 430d 503d 00ba dabc e0ed cf3b b870 e5bc
000003c0: 06bc 1dbd 0a4d 323d 393c 853c 7ae6 f63c
000003d0: f4ed 1ebc 8ec4 99bd 4201 d33c 50cd 06be
000003e0: a68f 4b3d c7a7 9fbc 94a0 dcbd 08b4 ccbd
000003f0: 0b5b 42bd 7751 483d 9d26 993c fe96 73bd

_policy.2.bias f4 [128]
-0.14712064 -0.16791528 -0.05124764 0.042233806 -0.051622055 0.10648919 0.060958505 0.075911924
-0.05849409 0.12082021 -0.057144236 0.08943165 0.042934243 0.0769217 0.08254766 0.043955937
0.06519061 0.1461726 0.16704191 0.012742779 -0.04726855 -0.072031595 0.014140266 0.058206942
-0.08159583 -0.019950362 0.09820647 -0.12814008 -0.16488579 0.1063668 -0.11205625 -0.06883574
-0.08192715 -0.0073556434 -0.04355673 -0.05125941 -0.05685414 -0.041642178 0.0154340565 -0.16133797
0.10481535 -0.19216897 0.049809277 -0.05668976 -0.060635697 0.07876017 -0.028472176 -0.11451738
0.034869593 -0.110869974 -0.055038076 0.111162215 0.050760828 -0.10632645 0.011927531 0.0010727232
-0.020009708 -0.14277834 0.011257255 -0.15628152 -0.019587997 0.07940663 -0.12017891 -0.007074649
-0.08341561 -0.060167566 0.0884052 -0.0063123526 -0.11578465 -0.14816861 -0.086276375 -0.16926667
-0.10022381 -0.15233037 0.049140442 -0.060847014 0.121599644 -0.1145767 0.011369124 -0.0056630666
-0.012499455 -0.028746376 0.044776417 0.036781915 -0.026393749 0.12297866 -0.018756013 -0.094594374
-0.081993714 0.077194825 -0.16859192 0.03375824 -0.046121065 0.058239434 -0.22000724 -0.1319618
0.015374301 0.017244326 0.018354539 -0.07846656 -0.14075148 -0.07044471 0.016201409 0.11874404
-0.03683309 0.08598298 -0.1683047 -0.008931183 -0.16697848 -0.1097144 -0.093893915 0.048500255
0.07659162 0.13055173 -0.10731728 0.066894576 -0.08841361 0.02613104 -0.13296075 0.043645527
-0.080837995 -0.119535424 -0.023022022 -0.09557195 -0.13242422 -0.020333314 -0.07072976 0.094268516
00000000: cba6 16be fcf1 2bbe 0ce9 51bd 5bfd 2c3d
00000010: a671 53bd 0117 da3d a0af 793d b677 9b3d
00000020: 8097 6fbd 9670 f73d 1310 6abd f127 b73d
00000030: d1db 2f3d 2089 9d3d bf0e a93d 240b 343d
00000040: a882 853d 45ae 153e 090d 2b3e 17c7 503c
00000050: ab9c 41bd 4d85 93bd 93ac 673c 676a 6e3d
00000060: b71b a7bd f16e a3bc 7920 c93d 2737 03be
00000070: d2d7 28be d6d6 d93d bf7d e5bd c1f9 8cbd
00000080: 6cc9 a7bd 9c07 f1bb 8b68 32bd 63f5 51bd
00000090: e3df 68bd fd90 2abd 20df 7c3c c835 25be
000000a0: 6ea9 d63d f1c7 44be d004 4c3d 8633 68bd
000000b0: 235d 78bd 034d a13d 7b3e e9bc 1788 eabd
000000c0: 6bd3 0e3d cc0f e3bd 9b6f 61bd 04a9 e33d
000000d0: 96ea 4f3d afc1 d9bd b16b 433c 9e9a 8c3a
000000e0: 66eb a3bc 7c34 12be 5a70 383c 4308 20be
000000f0: 0277 a0bc f19f a23d 5c20 f6bd 75d2 e7bb
00000100: ced5 aabd 4472 76bd c90d b53d dad7 cebb
00000110: 8120 edbd 83b9 17be abb1 b0bd 3e54 2dbe
00000120: 2442 cdbd 7efc 1bbe 7d47 493d b83a 79bd
00000130: 3c09 f93d 30a7 eabd 9045 3a3c 3f91 b9bb
00000140: 84ca 4cbc 857d ebbc 7a67 373d a2a8 163d
00000150: b437 d8bc 3cdc fb3d 36a6 99bc b2ba c1bd
00000160: 52ec a7bd 5218 9e3d 5ca3 2cbe 1546 0a3d
00000170: 71e9 3cbd 798c 6e3d 9449 61be fe20 07be
00000180: 7ee4 7b3c f943 8d3c 425c 963c 13b3 a0bd
00000190: 2821 10be 5145 90bd d1b8 843c 1330 f33d
000001a0: 4bde 16bd d817 b03d 1158 2cbe 1954 12bc
000001b0: 68fc 2abe f1b1 e0bd 744b c0bd 34a8 463d
000001c0: 11dc 9c3d 5aaf 053e 29c9 dbbd 0600 893d
000001d0: 3212 b5bd c310 d63c dd26 08be a7c5 323d
000001e0: 648e a5bd fdce f4bd ae98 bcbc 3abb c3bd
000001f0: 379a 07be 0d92 a6bc c4da 90bd da0f c13d

_policy.4.weight f4 [128, 128]
0.00633859 -0.048411682 -0.05859025 0.016532257 0.09898342 0.06570773 0.18278645 0.32142058
-0.029184043 0.20878738 -0.062472407 -0.06940794 -0.15838599 0.23337409 -0.10655638 0.16712086
-0.2357047 0.13569994 -0.28441337 -0.07069882 -0.13031109 -0.26328418 -0.016552934 0.12498355
0.022462448 -0.14199805 -0.025506118 0.008587894 0.058216315 -0.1255418 0.14030188 -0.5094431
-0.26632345 -0.025165616 0.17806515 -0.20429964 0.067761995 -0.013914795 -0.10573567 -0.004429299
-0.2856229 -0.07556355 0.09091105 -0.14149083 -0.11924925 0.09836256 0.0063383835 -0.08828367
0.1934588 0.0466005 -0.15407409 0.048641052 0.12800059 -0.07103852 -0.37772787 0.0959635
0.19309855 -0.034140863 0.19542688 0.13646966 -0.03553348 -0.039868075 -0.2704066 -0.013468307
0.015324806 -0.42910403 -0.2173279 -0.24274817 -0.0119821625 -0.26476496 0.028240358 -0.27679127
0.07291389 -0.07527728 -0.13046493 0.23609926 0.36757383 0.20139433 -0.1504463 -0.40705803
-0.7433332 0.016292742 -0.21346967 0.12733243 0.034622133 -0.00029044732 -0.22550592 -0.51301306
0.08551516 -0.1217657 0.38292697 -0.15003362 0.22263518 -0.14378092 -0.35191235 0.045693617
0.36873055 -0.07805143 -0.19818872 -0.06771626 -0.47128883 0.27979913 0.23892836 -0.02164797
-0.048116058 0.41993976 -0.17440416 0.06279867 0.13268909 0.34217024 0.07288435 0.05429394
-0.29508778 -0.24987164 0.31090564 -0.006178648 -0.24084204 -0.21145804 0.20124784 -0.0064119375
0.06607264 -0.18264674 -0.108558714 -0.6093335 -0.026807543 0.42469138 -0.11488174 0.1477202
-0.13891612 0.057888754 -0.1907356 -0.038272522 0.06839903 0.25563818 0.04707321 -0.34778187
0.020481285 -0.01824059 0.08161556 -0.030972304 -0.23558736 0.32084695 0.11213841 -0.13703637
-0.12139226 0.18867026 0.24710326 0.0325083 -0.55902267 0.11063426 -0.012312752 -0.3553202
-0.25826034 0.35784373 0.16930465 0.021876192 -0.011369348 0.063538775 0.15663074 0.10155633
0.0049779126 -0.0564709 -0.21310431 -0.123101875 -0.048988882 -0.28019542 -0.0034048741 -0.037637435
-0.058967285 -0.28527927 -0.36352918 0.18301786 -0.054453094 -0.14611542 -1.0508975 0.2843634
0.18054248 -0.056829978 -0.008613712 -0.16712177 -0.30418533 0.20059945 -0.23307201 0.5122153
-0.26197618 -0.044029694 -0.10024165 -0.037073646 0.14073828 -0.20244865 -0.44025764 -0.09869737
-0.086523645 0.039562747 -0.23209809 0.045100175 0.16924699 0.062141173 0.021227002 -0.44255054
-0.09473784 0.030758418 -0.24977069 -0.33226553 0.15762205 -0.15508097 -0.29761007 -0.26106343
0.16798282 0.2913394 -0.5566588 0.057932362 -0.11365563 -0.14213534 0.2662791 -0.2346871
-0.9084979 0.061132938 0.12768915 -0.053836856 0.04719749 -0.49229005 -0.36762682 -0.08624096
0.5082849 -0.6386812 0.3918134 -0.0012657694 -0.56216365 -0.19458671 0.081592076 0.027874438
-0.005891544 -0.08223191 -0.65833235 0.045499526 -0.022928253 0.13794996 -0.06781328 -0.26705655
0.08393545 -0.106559075 -0.058638062 -0.08010835 -0.32470518 0.037890915 -0.08907135 -0.032783262
-0.30965805 -0.023444727 -0.060312357 -0.055589583 -0.025772028 0.09542197 0.002371597 0.28055468
00000000: f2b3 cf3b 544b 46bd 54fc 6fbd a86e 873c
00000010: d2b7 ca3d c691 863d 5f2c 3b3e 3d91 a43e
00000020: 6013 efbc 5ccc 553e 11e3 7fbd c025 8ebd
00000030: f02f 22be 9ef9 6e3e 3b3a dabd bb21 2b3e
00000040: 935c 71be edf4 0a3e a19e 91be 8bca 90bd
00000050: 4570 05be 2fcd 86be 059a 87bc 60f7 ff3d
00000060: 2b03 b83c f067 11be 35f2 d0bc 3db4 0c3c
00000070: 3b74 6e3d 088e 00be 4cab 0f3e dd6a 02bf
00000080: 8c5b 88be 1f28 cebc b656 363e ed33 51be
00000090: cdc6 8a3d e1fa 63bc f18b d8bd a723 91bb
000000a0: 2a3d 92be 10c1 9abd 932f ba3d f9e2 10be
000000b0: f338 f4bd 4f72 c93d 37b2 cf3b 12ce b4bd
000000c0: 101a 463e 2ae0 3e3d 99c5 1dbe d73b 473d
000000d0: 9612 033e a57c 91bd 8c65 c1be 8388 c43d
000000e0: a0bb 453e 4ad7 0bbd fc1d 483e b4be 0b3e
000000f0: 8e8b 11bd b54c 23bd bc72 8abe 2daa 5cbc
00000100: e514 7b3c 86b3 dbbe 348b 5ebe fa92 78be
00000110: d550 44bc 468f 87be 5358 e73c 96b7 8dbe
00000120: e153 953d f92a 9abd 9998 05be 01c4 713e
00000130: a332 bc3e 513a 4e3e 980e 1abe e969 d0be
00000140: 164b 3ebf 5b78 853c cb97 5abe 6f63 023e
00000150: f0cf 0d3d 2e47 98b9 06eb 66be d354 03bf
00000160: 9222 af3d 4c60 f9bd 010f c43e 6aa2 19be
00000170: 7afa 633e 4e3b 13be db2d b4be 3b29 3b3d
00000180: 40ca bc3e 6ed9 9fbd fcf1 4abe d3ae 8abd
00000190: c54c f1be d541 8f3e a3a9 743e 1557 b1bc
000001a0: 5815 45bd 5802 d73e 0197 32be 979c 803d
000001b0: a6df 073e f030 af3e 6444 953d 5363 5e3d
000001c0: bf15 97be 5ade 7fbe 062f 9f3e 4276 cabb
000001d0: 4c9f 76be 7588 58be ea13 4e3e 3b1b d2bb
000001e0: 1851 873d bf07 3bbe 0854 debd 48fd 1bbf
000001f0: 7e9b dbbc 2671 d93e 1e47 ebbd f743 173e
00000200: 0740 0ebe c21c 6d3d 3150 43be a6c3 1cbd
00000210: ca14 8c3d 02e3 823e d7cf 403d 7710 b2be
00000220: 5ec8 a73c 4a6d 95bc 0f26 a73d a1b9 fdbc
00000230: d03d 71be 0d46 a43e d3a8 e53d 4353 0cbe
00000240: 819c f8bd c732 413e a308 7d3e 6c27 053d
00000250: 1c1c 0fbf 3794 e23d 6dbb 49bc 87ec b5be
00000260: b33a 84be 4b37 b73e 335e 2d3e b335 b33c
00000270: 8046 3abc 9e20 823d cf63 203e c4fc cf3d
00000280: c21d a33b 084e 67bd 0438 5abe d61c fcbd
00000290: 91a8 48bd c675 8fbe 4f24 5fbb b629 1abd
000002a0: ae87 71bd 2010 92be 7f20 babe 0969 3b3e
000002b0: 350a 5fbd 489f 15be cf83 86bf 1498 913e
000002c0: 21e0 383e 8dc6 68bd 8720 0dbc f821 2bbe
000002d0: 2ebe 9bbe f169 4d3e 6eaa 6ebe 8b20 033f
000002e0: be21 86be 7b58 34bd 7f4b cdbd 89da 17bd
000002f0: b21d 103e b34e 4fbe 7369 e1be d921 cabd
00000300: 4f33 b1bd 8c0c 223d 1fab 6dbe f6ba 383d
00000310: 154f 2d3e be87 7e3d 40e4 ad3c fc95 e2be
00000320: ea05 c2bd 14f9 fb3c e3c3 7fbe b51e aabe
00000330: ad67 213e 8ccd 1ebe 5960 98be 1baa 85be
00000340: b003 2c3e 702a 953e 3181 0ebf 7c4a 6d3d
00000350: 48c4 e8bd ed8b 11be bc55 883e d151 70be
00000360: 5293 68bf 8866 7a3d f2c0 023e 0984 5cbd
00000370: 2852 413d 710d fcbe 9539 bcbe 1a9f b0bd
00000380: f61e 023f 9c80 23bf c49b c83e 2ce8 a5ba
00000390: f5e9 0fbf bd41 47be bf19 a73d ef58 e43c
000003a0: da0d c1bb 3469 a8bd 7888 28bf b65d 3a3d
000003b0: 08d4 bbbc c142 0d3e b0e1 8abd a3bb 88be
000003c0: 59e6 ab3d a53b dabd 772e 70bd d90f a4bd
000003d0: c23f a6be 8133 1b3d 0a6b b6bd be47 06bd
000003e0: 808b 9ebe 280f c0bc 170a 77bd e7b1 63bd
000003f0: dc1f d3bc 986c c33d cc6c 1b3b dda4 8f3e

_policy.4.bias f4 [128]
0.027901854 0.025088256 0.10950073 -0.142186 -0.044318493 -0.1627289 -0.12049363 -0.16783182
-0.18163672 -0.10379819 0.040715467 0.1999712 -0.13255131 -0.1089124 0.039640557 0.11592978
-0.278566 0.06391789 -0.47135413 -0.24435364 0.0031145376 0.100463405 -0.09735339 -0.101972066
-0.011961052 -0.107152276 -0.22834995 -0.11319822 0.022906879 -0.020638527 -0.24274115 0.08594141
0.023406342 0.1850576 -0.45316508 -0.2851504 0.03262867 -0.38980812 -0.021828141 -0.1583133
0.003440915 0.0033689102 -0.10056159 -0.19268002 0.02452053 -0.17480977 -0.16130741 -0.072633564
0.07521899 0.13293035 -0.13331488 -0.0766958 0.11938196 -0.25261152 0.11792064 -0.040355444
-0.18967214 -0.16435751 -0.16337554 0.065150745 -0.08625934 -0.15153384 -0.19029376 0.019371452
0.056247145 -0.042102486 -0.03014723 -0.07590448 -0.16947971 -0.15260758 -0.09149096 -0.06761283
-0.24294247 -0.12136574 -0.06003228 -0.16247016 0.012811719 0.036598936 0.035648443 0.08608199
-0.17567986 -0.0868337 -0.047639646 -0.13225405 -0.2346252 0.2720227 0.07249365 -0.09513443
-0.24068953 -0.094739236 0.21526217 -0.14037043 0.014453897 -0.09876265 -0.17528449 -0.03235276
-0.34544018 -0.047054015 -0.027513504 0.08390153 0.054270923 -0.17547324 -0.21865958 0.10026486
-0.14919698 0.16445443 0.12447403 -0.0003983326 -0.13309444 -0.003855664 -0.17846055 0.0054490026
-0.27304396 -0.028876847 -0.07288003 0.016194131 0.076148435 -0.30481356 -0.06402164 -0.30750805
-0.078100026 -0.15684104 -0.08691807 -0.0101476535 -0.0659423 -0.20686881 0.035041425 0.052188076
00000000: 6e92 e43c e385 cd3c eb41 e03d 3599 11be
00000010: 4f87 35bd 68a2 26be 5dc5 f6bd 1bdc 2bbe
00000020: fafe 39be 2594 d4bd 43c5 263d 40c5 4c3e
00000030: 88bb 07be 770d dfbd 235e 223d 986c ed3d
00000040: 34a0 8ebe 62e7 823d 5455 f1be d737 7abe
00000050: 451d 4c3b c2bf cd3d 3761 c7bd bbd6 d0bd
00000060: 4af8 43bc a772 dbbd 92d4 69be 78d4 e7bd
00000070: 35a7 bb3c 2112 a9bc 2391 78be 0d02 b03d
00000080: a8be bf3c bd7f 3d3e 4105 e8be 3cff 91be
00000090: a4a5 053d ee94 c7be eed0 b2bc e21c 22be
000000a0: f980 613b efc8 5c3b 3cf3 cdbd e94d 45be
000000b0: 47df c83c 5501 33be c52d 25be e8c0 94bd
000000c0: 6a0c 9a3d e51e 083e b283 08be b012 9dbd
000000d0: 877e f43d 4c56 81be 6080 f13d c04b 25bd
000000e0: 6a39 42be 564d 28be eb4b 27be c16d 853d
000000f0: bda8 b0bd b02b 1bbe 5edc 42be e1b0 9e3c
00000100: 6863 663d a873 2cbd 53f7 f6bc cf73 9bbd
00000110: 178c 2dbe 2945 1cbe 9d5f bbbd 9878 8abd
00000120: e9c5 78be 9a8e f8bd 68e4 75bd 945e 26be
00000130: 3fe8 513c c4e8 153d 1a04 123d c14b b03d
00000140: 6ce5 33be ded5 b1bd ca21 43bd 9b6d 07be
00000150: 9741 70be 8f46 8b3e 8d77 943d d7d5 c2bd
00000160: 5177 76be a506 c2bd b06d 5c3e 44bd 0fbe
00000170: 0ad0 6c3c 1244 cabd c77d 33be 5484 04bd
00000180: 89dd b0be b6bb 40bd 0064 e1bc 91d4 ab3d
00000190: 304b 5e3d 42af 33be 4ce8 5fbe aa57 cd3d
000001a0: 18c7 18be be66 283e 3eec fe3d 4cd7 d0b9
000001b0: e949 08be 4faf 7cbb 5dbe 36be 8c8d b23b
000001c0: 6bcc 8bbe 238f ecbc 2042 95bd 8ea9 843c
000001d0: b6f3 9b3d 8610 9cbe c71d 83bd b271 9dbe
000001e0: e8f2 9fbd f09a 20be 1a02 b2bd 5842 26bc
000001f0: c20c 87bd 6bd5 53be 9987 0f3d 2ac3 553d

_policy.6.weight f4 [128, 128]
-0.3178311 0.027117563 -0.104429245 -0.020823816 0.079552285 -0.85943145 0.07661396 0.3632377
-0.461308 -0.10593499 0.27373877 -0.20697778 -0.09295015 0.32759154 -0.3572102 -0.17726889
-0.18246534 -0.11671268 0.19467123 -0.28950983 0.18970053 0.04471922 -0.047179937 -0.018363932
-0.26383808 -0.09750586 -0.48549083 0.02959027 -0.24292167 -0.03550085 0.23484667 0.2862195
0.089904934 0.15212463 0.31795102 0.20537503 0.10511092 -0.044276953 0.23536924 -0.19682348
-0.56511956 -0.036672898 0.08361634 0.23653403 -0.16881436 -0.41378257 -0.19929184 -0.19327168
-0.106095456 0.049806505 0.008683289 -0.032376006 0.18931267 -0.03968001 -0.26985306 -0.6127827
-0.19026323 -0.09906438 -0.08133873 -0.17939647 0.17050332 -0.25019178 -0.0111601455 -0.14139515
-0.8677282 0.23320203 -0.050340693 -0.45260382 0.11852515 0.112845905 0.2645317 0.07137234
0.28220913 -0.044037186 -0.23048475 0.18003526 0.3754632 -0.13909288 0.43442643 0.07359334
-0.10211525 -0.0824816 -0.14275171 -0.38043246 -0.05804265 -0.10553087 -0.14530988 -0.030207159
-0.060990617 -0.16975309 0.32061622 -0.1585768 0.21149847 -0.049052425 -0.31814173 -0.5880118
-0.06554793 -0.057053186 -0.04305203 -0.76809484 -0.010385161 0.017175071 -0.43561804 0.36922827
-0.048634812 -0.053044647 0.11666377 0.26208416 -0.32012352 -0.29256898 -0.013831292 -0.092059985
0.09633107 -0.10105492 -0.05839752 0.24835272 0.16480903 0.13986921 0.038099114 0.02338946
0.34954512 -0.01497939 0.215418 -0.43097287 -0.3896296 0.08436372 -0.17043088 -0.053229332
-0.045344315 0.23168781 -0.27112144 0.14818227 -0.41271698 -0.03269187 -0.5923919 -0.007864979
-0.012069015 -0.04711922 -0.117004625 -0.021851249 -0.28700796 -0.10294113 -0.31299797 -0.5798606
0.09772195 -0.14662299 -0.7448768 0.023687286 0.047937103 -0.25862002 -0.112052344 0.11560928
-0.097568676 -0.25336465 0.10859258 0.06991451 -0.2890096 -0.3669355 -0.09120524 0.09294355
-0.59297687 0.06302823 0.2850251 0.23670343 -0.019231705 -0.018579997 -0.018083336 0.12141831
-0.0029284202 -0.19853576 -1.0291317 -0.1724056 0.386474 -0.373555 -0.6210455 -0.09870212
-0.48143065 0.012664778 -0.76477754 -0.21971181 0.16695315 -0.4230663 -0.059371203 0.2257477
0.020594379 0.30817577 -0.20307928 -0.029022658 -0.22800045 0.09173726 0.07271903 -0.028913513
0.035446107 0.37644666 -0.3748574 0.01914146 -0.62971485 -0.5678205 -0.25468206 0.2525647
-0.49347526 -0.02579312 0.05643416 -0.08738798 0.13779849 -0.88679856 -0.37339738 0.16044867
-0.16832337 0.20493476 -0.4244941 -0.36583915 0.16457732 -0.010352807 0.2626529 -0.5017888
0.25575885 -0.43602222 -0.23787577 0.06401466 0.24916095 0.03207571 0.029132832 0.13696867
0.10377252 -0.043376476 -0.054871682 0.11524993 -0.72393066 -0.023763936 -0.33670282 0.11309488
0.24282141 -0.35065192 0.19744018 0.008166178 -0.12814833 -0.693799 0.44869417 -0.22803466
-0.18358196 -0.04318398 -0.31964847 -0.12425512 -0.3754802 -0.021979298 -0.13450795 -0.38445938
-0.118820265 -0.9742077 -0.10337848 0.14985359 -0.4517474 -0.3627342 -0.07785559 -1.0993476
00000000: c2ba a2be a725 de3c 00df d5bd b596 aabc
00000010: 4fec a23d b303 5cbf c8e7 9c3d 4bfa b93e
00000020: 9030 ecbe 72f4 d8bd 7d27 8c3e fcf1 53be
00000030: a65c bebd 14ba a73e 41e4 b6be fa85 35be
00000040: 32d8 3abe 0f07 efbd e557 473e a23a 94be
00000050: db40 423e 802b 373d c03f 41bd f56f 96bc
00000060: c915 87be 27b1 c7bd 4192 f8be 4b67 f23c
00000070: 75c0 78be 5769 11bd a57b 703e 5d8b 923e
00000080: 1420 b83d 8fc6 1b3e 7aca a23e d54d 523e
00000090: 6544 d73d c05b 35bd a204 713e 188c 49be
000000a0: adab 10bf 5236 16bd 0b3f ab3d fa35 723e
000000b0: acdd 2cbe 4fdb d3be 2913 4cbe 03e9 45be
000000c0: 9348 d9bd e801 4c3d 5b44 0e3c b49c 04bd
000000d0: 2edb 413e 8287 22bd 2e2a 8abe 54df 1cbf
000000e0: 5dd4 42be 44e2 cabd ec94 a6bd b5b3 37be
000000f0: 6c98 2e3e 2319 80be 0bd9 36bc e4c9 10be
00000100: 6f23 5ebf 83cc 6e3e 0b32 4ebd b0bb e7be
00000110: 50bd f23d c11b e73d b370 873e a92b 923d
00000120: b77d 903e 5660 34bd 3204 6cbe 2a5b 383e
00000130: b63c c03e 5d6e 0ebe 246d de3e 1bb8 963d
00000140: cd21 d1bd 1dec a8bd 812d 12be 0bc8 c2be
00000150: 21be 6dbd 9220 d8bd 1dcc 14be 0175 f7bc
00000160: 4cd1 79bd c1d3 2dbe cf27 a43e f561 22be
00000170: 0e93 583e 32eb 48bd 79e3 a2be f187 16bf
00000180: fe3d 86bd 9ab0 69bd 5357 30bd dda1 44bf
00000190: 8626 2abc bcb2 8c3c 5409 dfbe 7d0b bd3e
000001a0: 4c35 47bd 5845 59bd 6aed ee3d e52f 863e
000001b0: 3be7 a3be 9acb 95be a59c 62bc f289 bcbd
000001c0: 3949 c53d e2f5 cebd 3d32 6fbd 2d50 7e3e
000001d0: b3c3 283e e039 0f3e d10d 1c3d 419b bf3c
000001e0: 94f7 b23e 1e6c 75bc 8996 5c3e 7aa8 dcbe
000001f0: 887d c7be e3c6 ac3d 6f85 2ebe 0007 5abd
00000200: f6ba 39bd 923f 6d3e 6ed0 8abe 18bd 173e
00000210: a44f d3be e9e7 05bd ffa6 17bf 1ddc 00bc
00000220: 1ebd 45bc 1500 41bd 1fa0 efbd 6401 b3bc
00000230: b5f2 92be cdd2 d2bd 4541 a0be bf71 14bf
00000240: 7222 c83d 5624 16be 3fb0 3ebf d70b c23c
00000250: b259 443d d869 84be b37b e5bd 8fc4 ec3d
00000260: 16d2 c7bd 03b9 81be c965 de3d 572f 8f3d
00000270: 11f9 93be f8de bbbe d0c9 babd 3059 be3d
00000280: 55cd 17bf f214 813d cfee 913e 6262 723e
00000290: cf8b 9dbc 1435 98bc 8123 94bc 2aaa f83d
000002a0: bdea 3fbb f54c 4bbe 96ba 83bf 188b 30be
000002b0: ecdf c53e 9a42 bfbe d6fc 1ebf 5624 cabd
000002c0: 147e f6be ee7f 4f3c 76c8 43bf 22fc 60be
000002d0: c4f5 2a3e 259c d8be 382f 73bd 682a 673e
000002e0: 8bb5 a83c 37c9 9d3e 04f4 4fbe edc0 edbc
000002f0: f378 69be bfe0 bb3d b7ed 943d 08dc ecbc
00000300: f02f 113d 9ebd c03e 4fed bfbe 8dce 9c3c
00000310: fe34 21bf af5c 11bf b065 82be 2950 813e
00000320: caa8 fcbe 184c d3bc 8127 673d 78f8 b2bd
00000330: 0c1b 0d3e 3b05 63bf f12d bfbe a84c 243e
00000340: f65c 2cbe 6bda 513e 4a57 d9be 454f bbbe
00000350: f586 283e d29e 29bc 717a 863e 3b75 00bf
00000360: d3f2 823e 4e3e dfbe b595 73be 1e1a 833d
00000370: 0c24 7f3e d261 033d faa7 ee3c 8441 0c3e
00000380: b086 d43d 88ab 31bd 21c1 60bd 2808 ec3d
00000390: 8553 39bf 96ac c2bc 5064 acbe 4a9e e73d
000003a0: 2da6 783e a688 b3be c22d 4a3e 6fcb 053c
000003b0: 5139 03be d09c 31bf 3ebb e53e eb81 69be
000003c0: e9fc 3bbe afe1 30bd f7a8 a3be 7879 febd
000003d0: f13e c0be ee0d b4bc 74bc 09be dcd7 c4be
000003e0: 0a58 f3bd ad65 79bf 19b8 d3bd 3873 193e
000003f0: 6f4b e7be 4cb8 b9be c072 9fbd 6cb7 8cbf

_policy.6.bias f4 [128]
-0.15654197 -0.4739332 0.21457162 0.20543131 0.20954128 0.12782581 -0.015044304 0.11514868
0.14355637 0.028284334 0.047450818 0.022124156 -0.0145170875 -0.119229145 0.31355354 0.15795954
0.0052342317 0.062326863 -0.07468194 -0.10135869 0.2408049 0.1999252 0.21984643 0.07167238
0.18831788 0.12982 0.04343054 0.16742209 -0.09063201 0.105793305 0.07767485 -0.17597185
0.17483489 -0.05317825 0.24794331 0.13534868 -0.015386587 0.17788877 0.057990488 0.014929408
-0.17285566 -0.09388244 0.28471 0.0024963839 0.094752505 -0.227736 0.2567363 0.15645553
0.08872773 -0.0478643 0.06460933 0.08737366 0.042941924 0.048983824 0.055447698 0.11905086
0.0394738 0.4036667 0.057326812 0.117584676 -0.046813115 0.11971101 0.08520483 0.24901952
-0.06113673 0.12479384 0.22633079 0.19699228 -0.033639133 0.18842304 -0.21738206 0.08617459
0.06564903 0.14253655 -0.06853464 0.075451866 0.3144464 -0.2671775 0.12052857 0.038869057
0.1341383 -0.029679181 -0.18350607 -0.12408288 0.30586994 0.05035262 -0.27837878 0.05144112
0.17998293 0.11938516 -0.060168393 0.25596195 0.23632845 0.14164118 -0.0030368697 -0.064521976
-0.065070175 0.16143097 0.11035148 -0.102294125 0.045129992 -0.07795457 -0.043574624 0.12564817
-0.06703516 0.21215622 0.07952317 0.11135638 -0.5193898 0.33138424 0.0990761 -0.04048296
0.09724549 -0.15563706 0.024981864 0.058054723 0.0928784 0.20990735 -0.20403922 0.11252882
0.16098642 0.31447747 0.22777162 -0.071825534 0.29996192 -0.083371215 -0.08364901 -0.0049151545
00000000: 8a4c 20be 5fa7 f2be aab8 5b3e 965c 523e
00000010: fd91 563e c5e4 023e 627c 76bc 12d3 eb3d
00000020: 7100 133e 8cb4 e73c ca5b 423d b83d b53c
00000030: 14d9 6dbc 692e f4bd 178a a03e 25c0 213e
00000040: eb83 ab3b 744a 7f3d d8f2 98bd 2595 cfbd
00000050: 8f95 763e 31b9 4c3e 6c1f 613e f8c8 923d
00000060: 67d6 403e 89ef 043e 39e4 313d b270 2b3e
00000070: 469d b9bd 29aa d83d fe13 9f3d f731 34be
00000080: eb07 333e 70d1 59bd dae4 7d3e d898 0a3e
00000090: 0618 7cbc 7928 363e 6f87 6d3d 7a9a 743c
000000a0: 1301 31be 7045 c0bd 82c5 913e 5f9a 233b
000000b0: 9a0d c23d a033 69be f172 833e e135 203e
000000c0: e2b6 b53d 5b0d 44bd e551 843d f6f0 b23d
000000d0: dfe3 2f3d 43a3 483d 201d 633d f0d0 f33d
000000e0: 48af 213d 67ad ce3e 85cf 6a3d 3cd0 f03d
000000f0: 1cbf 3fbd 0c2b f53d df7f ae3d f9fe 7e3e
00000100: 826a 7abd ea93 ff3d 42c3 673e 58b8 493e
00000110: 30c9 09bd f8f1 403e 6799 5ebe 4e7c b03d
00000120: 0073 863d 1af5 113e e45b 8cbd 8286 9a3d
00000130: 1eff a03e 7dcb 88be afd7 f63d 2935 1f3d
00000140: 8d5b 093e c121 f3bc 04e9 3bbe 2a1f febd
00000150: fc9a 9c3e 8d3e 4e3d aa87 8ebe edb3 523d
00000160: 724d 383e 3580 f43d 2273 76bd 720d 833e
00000170: 1600 723e 630a 113e 3806 47bb 1924 84bd
00000180: 8343 85bd 294e 253e f5ff e13d 957f d1bd
00000190: 3ada 383d a5a6 9fbd 4e7b 32bd eaa9 003e
000001a0: bb49 89bd 7b3f 593e 0bdd a23d d00e e43d
000001b0: bbf6 04bf 32ab a93e 69e8 ca3d 76d1 25bd
000001c0: a528 c73d 525f 1fbe c4a6 cc3c caca 6d3d
000001d0: 0837 be3d f4f1 563e a8ef 50be 8375 e63d
000001e0: a0d9 243e 3103 a13e f73c 693e 4419 93bd
000001f0: 9c94 993e 87be aabd 2c50 abbd 4e0f a1bb

_policy.8.weight f4 [3, 128]
-0.032127623 0.07346003 -0.1278142 -0.5058624 -0.47103626 -0.23843898 -0.63610554 -0.24817735
0.64476657 -0.22832136 0.44767806 0.6298494 -0.09046162 -0.03194974 -0.75976104 -0.06425779
0.28451705 0.27480352 -0.39648074 -0.041791905 -0.21168086 -0.15819997 0.065750755 0.20586474
-0.027841652 -0.3498806 0.24417403 -0.1891301 -0.6642145 0.38369593 -0.09692345 0.035109136
-0.21545275 -0.021962715 -0.14464365 0.41508004 -0.5100423 0.46675333 -0.10524292 -0.19905166
0.533299 0.024081474 -0.019678699 0.5649683 0.335021 -0.4457219 0.8182302 0.17321213
-0.15617469 -0.081405446 0.22943476 -0.26081553 -0.28539222 0.16234729 -0.07367548 -0.20662701
-0.011582357 -0.38131937 0.17403285 0.29132608 0.020179695 -0.14684056 -0.5303855 -0.0567033
0.30066767 0.23952323 0.684422 -0.1378838 0.45154867 -0.18474525 0.50859445 0.14797655
-0.30451232 0.29241955 0.75354344 -0.08938514 -0.18345034 0.98327327 -0.07055808 0.46073148
-0.10172264 -0.19747062 -0.88460433 -0.020253155 -0.309009 0.30977762 -0.99323624 -0.10101563
-0.3702128 0.18067886 -0.2629346 -0.16834015 -0.19033034 -0.1503426 0.5173082 0.5246777
-0.033558838 -0.094684176 0.08252797 -0.6256952 0.011358322 -0.16747727 -0.20556763 -0.3267995
-0.052031696 0.2563587 -0.37648422 0.7367157 0.24496147 0.36229438 -0.31804 0.07820638
-0.28469256 -0.13889074 0.22720537 0.20369507 -0.3267309 -0.46343827 0.97269523 -0.07875575
0.287016 -0.24018362 -0.2133145 0.53188187 0.4584071 0.109053835 0.3063096 -0.1302339
0.2990279 0.64391184 -0.120070904 0.5018725 0.50995106 -0.10557176 0.4107847 0.4978391
-0.3460572 0.49181592 -0.058513343 -0.14200869 -0.17500892 0.18083377 0.85583174 -0.21810503
-0.3150363 -0.17551866 0.27749336 0.3568638 0.39534646 0.28511006 -0.38155612 -0.13038033
-0.24365482 0.30428964 -0.3078884 -0.2684058 0.35318178 -0.3127734 0.26833934 0.041411135
0.32231283 -0.21269836 -0.62752515 -0.083962396 -0.018173864 -0.44518656 0.37901202 -0.076132365
-0.029375244 0.26822802 0.44699958 -0.90315133 -0.34665683 0.52460784 -0.6303328 -0.1814254
-0.16412303 0.38185716 -0.002401184 0.26083532 0.2905806 -0.0038052206 0.397879 -0.12007999
0.21711172 0.37541577 0.122660436 -0.01692279 0.5188738 -0.11420477 0.6596116 0.22549868
-0.5323675 -0.05682508 -0.124542296 0.32152653 -0.04118065 -0.48290354 0.15576394 0.41444865
-0.012403201 -0.4037224 -0.05271018 -0.24972598 0.30950636 -0.95366055 -0.29787043 -0.53997266
-0.22776414 -0.1231541 0.6528088 0.23436822 0.3256844 0.09843793 0.27362382 -0.095585994
0.46710905 -0.23086303 0.13892134 -0.30394295 -0.29137695 -0.28768864 -0.5563878 -0.18733098
-0.58734745 0.35244644 -0.06256875 0.21162677 -0.75160015 -0.19570999 0.04923425 -0.043163184
-0.1655502 -0.042274237 -0.15899864 -0.74858 0.56018996 -0.34564576 0.10329242 -0.18564682
0.26198608 0.58943194 0.0892371 0.13855875 -0.08354234 0.093635105 -1.3753189 -0.3671667
-0.24839994 0.19300166 0.46886864 -0.4770672 -0.31592515 0.06291259 0.20018488 -0.25593492
00000000: 4198 03bd 3672 963d bae1 02be 3380 01bf
00000010: aa2b f1be 5929 74be d0d7 22bf 3422 7ebe
00000020: 6c0f 253f 13cd 69be 0f36 e53e cf3d 213f
00000030: f143 b9bd bbdd 02bd b37f 42bf 9799 83bd
00000040: 38ac 913e 0cb3 8c3e 86ff cabe fd2d 2bbd
00000050: dec2 58be 2cff 21be 55a8 863d 35ce 523e
00000060: 2d14 e4bc 8d23 b3be c208 7a3e 52ab 41be
00000070: f609 2abf cb73 c43e cd7f c6bd 99ce 0f3d
00000080: a59f 5cbe 27eb b3bc 771d 14be 5f85 d43e
00000090: 2292 02bf 4bfa ee3e 9a89 d7bd 33d4 4bbe
000000a0: 4986 083f 8346 c53c 3935 a1bc c3a1 103f
000000b0: df87 ab3e a935 e4be 8977 513f 855e 313e
000000c0: 42ec 1fbe e6b7 a6bd f2f0 6a3e 9d89 85be
000000d0: ee1e 92be 5e3e 263e 2ce3 96bd 0896 53be
000000e0: edc3 3dbc 4b3c c3be ab35 323e b128 953e
000000f0: e34f a53c 5f5d 16be 58c7 07bf b841 68bd
00000100: 1df1 993e 9445 753e 4836 2f3f 6931 0dbe
00000110: 6331 e73e dc2d 3dbe 3f33 023f 2a87 173e
00000120: 0ae9 9bbe 04b8 953e 39e8 403f 8e0f b7bd
00000130: 68da 3bbe ccb7 7b3f c180 90bd ffe4 eb3e
00000140: f653 d0bd bd35 4abe 6e75 62bf f2e9 a5bc
00000150: 6d36 9ebe 2c9b 9e3e bb44 7ebf 48e1 cebd
00000160: 888c bdbe e103 393e 5d9f 86be 5c61 2cbe
00000170: f5e5 42be 69f3 19be 4f6e 043f 4751 063f
00000180: fe74 09bd c7e9 c1bd 6d04 a93d 902d 20bf
00000190: 4118 3a3c 297f 2bbe 5280 52be 4452 a7be
000001a0: 301f 55bd 7341 833e 8ac2 c0be 6699 3c3f
000001b0: 2ed7 7a3e a67e b93e 24d6 a2be ab2a a03d
000001c0: 39c3 91be 6039 0ebe 86a8 683e 7195 503e
000001d0: 4649 a7be c847 edbe 8e02 793f b24a a1bd
000001e0: c3f3 923e b2f2 75be 1e6f 5abe 6929 083f
000001f0: 56b4 ea3e 9e57 df3d 9dd4 9c3e 095c 05be
00000200: 2f1a 993e 68d7 243f bce7 f5bd b77a 003f
00000210: 278c 023f 0236 d8bd 5f52 d23e c4e4 fe3e
00000220: 692e b1be 4ccf fb3e b0ab 6fbd ba6a 11be
00000230: 8a35 33be 7d2c 393e ca17 5b3f ed56 5fbe
00000240: 704c a1be 2abb 33be 9c13 8e3e dab6 b63e
00000250: da6a ca3e f2f9 913e 535b c3be 6c82 05be
00000260: a680 79be dacb 9b3e 8ca3 9dbe 7c6c 89be
00000270: 3ed4 b43e d623 a0be c663 893e b99e 293d
00000280: 3006 a53e 99cd 59be 7da5 20bf 7af4 abbd
00000290: 5be1 94bc 7eef e3be dd0d c23e 49eb 9bbd
000002a0: 5aa4 f0bc 2f55 893e 21dd e43e ed34 67bf
000002b0: 017d b1be b34c 063f 7e5d 21bf 94c7 39be
000002c0: de0f 28be c882 c33e 2f5d 1dbb 358c 853e
000002d0: fbc6 943e 0261 79bb ccb6 cb3e 7fec f5bd
000002e0: 8952 5e3e 7f36 c03e 6535 fb3d aaa1 8abc
000002f0: ead4 043f 31e4 e9bd 4edc 283f 20e9 663e
00000300: 3d49 08bf 6ac1 68bd 0810 ffbd 209f a43e
00000310: 0bad 28bd 223f f7be 9580 1f3e 9d32 d43e
00000320: cc36 4bbc b4b4 cebe a1e6 57bd 2bb8 7fbe
00000330: 9e77 9e3e 1923 74bf 7982 98be a63b 0abf
00000340: 013b 69be 3738 fcbd 7a1e 273f 39fe 6f3e
00000350: 1bc0 a63e d399 c93d 6c18 8c3e 97c2 c3bd
00000360: eb28 ef3e 5c67 6cbe 6541 0e3e 699e 9bbe
00000370: 5c2f 95be ed4b 93be 6e6f 0ebf b1d3 3fbe
00000380: 675c 16bf dc73 b43e 0b24 80bd b0b4 583e
00000390: de68 40bf 3368 48be daa9 493d e1cb 30bd
000003a0: fe85 29be c027 2dbd 8ad0 22be f0a2 3fbf
000003b0: 9c68 0f3f 7bf8 b0be fa8a d33d 331a 3ebe
000003c0: 0a23 863e 03e5 163f f1c1 b63d 58e2 0d3e
000003d0: 3f18 abbd c3c3 bf3d 730a b0bf 46fd bbbe
000003e0: 8e5c 7ebe 3aa2 453e 8d0f f03e 2742 f4be
000003f0: f1c0 a1be 51d8 803d 44fd 4c3e e709 83be

_policy.8.bias f4 [3]
0.08421627 -0.072007395 -0.029742174
00000000: 9479 ac3d 9d78 93bd dca5 f3bc

_value.0.weight f4 [128, 22]
0.063127585 0.16749026 -0.14837119 0.03782892 0.028893515 -0.16886337 0.077366136 -0.049362943
0.16458015 -0.18221886 -0.03410483 0.16071682 0.070729546 -0.05379509 -0.047504652 0.042441096
-0.02773267 0.16904975 0.00015605599 0.10273563 0.07828688 -0.07864383 -0.15970902 -0.137751
-0.06629371 -0.052103687 0.037542865 -0.1557589 -0.07974303 0.12839188 -0.014808648 -0.078064255
-0.1479302 -0.05803621 -0.1547403 0.17200245 0.11143465 0.16561516 -0.14617376 -0.1744821
0.014210085 -0.22802141 -0.11570379 0.046473734 -0.026476394 -0.03125818 -0.062417734 -0.1478982
0.1617762 0.16154431 -0.10627301 0.17468606 0.13274105 0.07047725 0.17945799 0.14997205
-0.16118108 -0.20636848 -0.14223751 -0.21067943 -0.13546665 -0.013799256 -0.05779897 -0.09555011
-0.15042272 0.08223919 -0.11515995 0.04440205 0.0034645668 -0.20909923 -0.15227236 0.05268913
0.0713821 0.035370167 0.016212719 -0.11414749 0.11341546 0.040031392 0.27670664 0.0055528516
0.14725748 -0.026368104 0.007920673 -0.040688068 -0.10817126 0.07413178 -0.020859143 0.27178636
-0.13497725 0.24552526 -0.23331234 0.08061987 0.021806328 0.094862275 0.025919832 0.08356348
-0.07330206 -0.08645592 -0.18420029 -0.09496857 0.056143984 0.06605834 -0.083939694 -0.07957663
-0.05676096 0.06604551 -0.050855655 0.01734286 0.034075983 -0.025316823 -0.19428807 0.23128651
0.13068458 -0.11003657 0.1261856 -0.13578159 0.15413679 0.036002535 0.078104995 0.02178325
-0.12976214 0.08394554 0.14481297 0.114434734 0.17831875 0.10178846 0.0012662563 -0.16006933
0.0032919866 -0.13496563 -0.088232644 -0.17896974 0.08576247 0.17508242 -0.10854328 0.1708312
-0.04562898 -0.17235659 0.0236724 -0.032349616 0.06625559 -0.053447463 -0.19779462 -0.05490953
-0.14538997 0.17861407 -0.18402837 0.117296435 0.061370227 -0.10145564 0.10136032 -0.18253796
-0.16469333 0.020393603 -0.08480582 -0.13696896 0.005215121 -0.16254619 0.09903988 0.14422743
0.10718148 0.016778538 -0.10391917 0.16736515 -0.019817347 -0.14562294 0.054062925 -0.19505075
0.07712968 -0.12309805 0.014143684 -0.02512862 -0.22093537 0.04038316 0.15263493 0.11994755
0.108434044 -0.18274245 -0.06973939 -0.11188121 -0.085083306 0.025408763 0.11735778 0.16468692
-0.0343153 0.18585066 -0.049223047 -0.13939835 0.12833782 -0.13177072 -0.20729515 -0.17294095
0.16238137 0.0070052515 0.012895854 -0.099436715 -0.2182876 0.1620253 -0.05486922 0.10915507
0.07793822 -0.03286108 0.04542368 -0.08113394 0.047670938 -0.16511016 -0.008079602 0.09039525
-0.07627975 0.20012735 -0.14806592 -0.18266277 0.12305954 -0.07982193 -0.055752944 -0.1980969
-0.20440644 0.0005800605 0.021697411 0.06402924 0.14609985 -0.1561487 -0.040295113 0.13879666
0.13158567 -0.08067208 -0.04858578 0.06758048 0.13851736 0.0754661 0.03937345 -0.010651593
0.070530675 0.015576666 0.01777976 0.083781905 -0.14428025 -0.027385097 0.16973943 -0.08559705
-0.017367726 -0.18935505 -0.05138075 -0.042141423 -0.015111414 -0.08325432 -0.15505642 -0.12926628
-0.060098697 -0.028164934 0.037280798 0.0073949634 0.13638014 0.12905994 0.13208832 0.15016772
00000000: 0949 813d 9182 2b3e 9eee 17be 7ff2 1a3d
00000010: 18b2 ec3c 85ea 2cbe 2372 9e3d cc30 4abd
00000020: b387 283e 9597 3abe 82b1 0bbd f392 243e
00000030: a7da 903d 3e58 5cbd 3d94 42bd b7d6 2d3d
00000040: a02f e3bc 611b 2d3e f6a2 2339 0f67 d23d
00000050: df54 a03d 0410 a1bd c38a 23be 990e 0dbe
00000060: ffc4 87bd ad6a 55bd 8cc6 193d 437f 1fbe
00000070: 5050 a3bd 2979 033e f99f 72bc 27e0 9fbd
00000080: 047b 17be 60b7 6dbd 3e74 1ebe 6921 303e
00000090: da37 e43d 0597 293e 93ae 15be 70ab 32be
000000a0: 6bd1 683c 727e 69be 1cf6 ecbd 3e5b 3e3d
000000b0: 06e5 d8bc 9408 00bd bda9 7fbd a072 17be
000000c0: a9a8 253e df6b 253e aaa5 d9bd e7e0 323e
000000d0: 45ed 073e 6056 903d d6c3 373e 4692 193e
000000e0: a70c 25be 4252 53be b6a6 11be 59bc 57be
000000f0: c5b7 0abe 4616 62bc 9dbe 6cbd c7af c3bd
00000100: 6a08 1abe 056d a83d fbd8 ebbd edde 353d
00000110: c90d 633b 1c1e 56be 49ed 1bbe 8fd0 573d
00000120: c730 923d 4fe0 103d 89d0 843c 29c6 e9bd
00000130: 5d46 e83d f5f7 233d 7eac 8d3e b2f4 b53b
00000140: aaca 163e ec01 d8bc b6c5 013c 88a8 26bd
00000150: e588 ddbd 67d2 973d cbe0 aabc 9527 8b3e
00000160: 7a37 0abe f96a 7b3e 6ee9 6ebe 081c a53d
00000170: 2fa3 b23c 2747 c23d d455 d43c 5423 ab3d
00000180: 641f 96bd cd0f b1bd 009f 3cbe e27e c2bd
00000190: 3cf7 653d 9849 873d 93e8 abbd 12f9 a2bd
000001a0: 2e7e 68bd de42 873d 054e 50bd 9d12 8e3c
000001b0: 4293 0b3d 3a65 cfbc 74f3 46be 5fd6 6c3e
000001c0: 2ed2 053e da5a e1bd cc36 013e 540a 0bbe
000001d0: 09d6 1d3e 6577 133d 83f5 9f3d c972 b23c
000001e0: 5ee0 04be a4eb ab3d da49 143e c25c ea3d
000001f0: 3199 363e 7876 d03d 83f8 a53a 37e9 23be
00000200: 5fbe 573b 6e34 0abe 51b3 b4bd d843 37be
00000210: 3ca4 af3d ce48 333e f04b debd 60ee 2e3e
00000220: 74e5 3abd 3f7e 30be 9fec c13c 0881 04bd
00000230: 03b1 873d baeb 5abd ac8a 4abe d1e8 60bd
00000240: 1ce1 14be 9be6 363e ef71 3cbe 1d39 f03d
00000250: 595f 7b3d f9c7 cfbd 0096 cf3d 3beb 3abe
00000260: 5ea5 28be 7c10 a73c acae adbd 9741 0cbe
00000270: 9be3 aa3b 8272 26be 6cd5 ca3d 5bb0 133e
00000280: f781 db3d 2573 893c 93d3 d4bd c561 2b3e
00000290: fd57 a2bc 2e1e 15be 1671 5d3d 62bb 47be
000002a0: 2af6 9d3d d51a fcbd e9ba 673c 89da cdbc
000002b0: e23c 62be d068 253d 554c 1c3e 10a7 f53d
000002c0: ab12 de3d d620 3bbe 86d3 8ebd fa21 e5bd
000002d0: 2840 aebd 0a26 d03c 4759 f03d b0a3 283e
000002e0: 338e 0cbd a34f 3e3e 1b9e 49bd 71be 0ebe
000002f0: fd6a 033e e7ee 06be 2e45 54be 6f17 31be
00000300: 4d47 263e 4f8c e53b 2249 533c 7aa5 cbbd
00000310: c986 5fbe f6e9 253e 8cbe 60bd b18c df3d
00000320: 139e 9f3d 5799 06bd 2e0e 3a3d 8d29 a6bd
00000330: 9a42 433d a312 29be 4f60 04bc 2521 b93d
00000340: 8f38 9cbd 2fee 4c3e 989e 17be f30b 3bbe
00000350: a406 fc3d ae79 a3bd 335d 64bd ead9 4abe
00000360: ec4f 51be 340f 183a c5be b13c c321 833d
00000370: 339b 153e 72e5 1fbe 7d0c 25bd b620 0e3e
00000380: 65be 063e 6737 a5bd e201 47bd a267 8a3d
00000390: 7fd7 0d3e f88d 9a3d 0e46 213d 0584 2ebc
000003a0: 6372 903d 4635 7f3c dca6 913c d995 ab3d
000003b0: 34be 13be b656 e0bc 2cd0 2d3e 824d afbd
000003c0: c346 8ebc 4ae6 41be 9f74 52bd 7c9c 2cbd
000003d0: dd95 77bc 3e81 aabd 1cc7 1ebe 615e 04be
000003e0: 0d2a 76bd 26ba e6bc c0b3 183d 7351 f23b
000003f0: 3ca7 0b3e 4a28 043e 2942 073e 91c5 193e
