logs/weight_colliion_obj_obs = 0.4/model/model_1060.pth (torch, 427625 bytes, 19 tensors)

_policy.0.weight f4 [128, 22]
00000000: cb01 c7be 72e3 10be deb3 353e 52bb dc3d
00000010: 0338 b3be d170 35be 89e6 213e 3d19 84bd
00000020: f648 e93e 7fa9 b83e ff1a d5bd 5828 6c3d
00000030: 8482 923e c88a f13e 8603 8bbd 41f5 debd
00000040: af59 94bd 689a bd3d 3cd2 9d3d 5dd7 1c3e
00000050: 224c d2bd fdba f9be 5a87 cabe add9 8ebe
00000060: 3bd9 883c f1e4 823f 5118 733d 2f84 1e3e
00000070: 70b3 713e 60fe c8bc f358 5abf d4db 353e
00000080: 4092 8e3e 92fb 443e 4963 b73e c91e 823e
00000090: 4bcc 4f3e 9a4a 7fbd e6bc 8bbd 93a2 37be
000000a0: e005 6fbe 41e2 893d 99bd ea3c 73c7 79bd
000000b0: c4a1 12bf a4b0 87bd 4af7 913e b2ca d3bc
000000c0: 77a5 8dbe ea3d 003e 5ded e43b 7b73 2b3e
000000d0: 7c57 9b3f 8400 f6be d3b2 913e a895 273d
000000e0: 83f8 be3e df22 f53e 21d8 b23d 5096 203e
000000f0: 3fc1 24be a9f2 e43d 9f24 acbb 413d 26bd
00000100: 0094 febd 7c8d 0abe 1cbf dabb 54e4 1abf
00000110: c6cf 77bd 945f 0b3f e5e7 3bbe 47f8 2fbf
00000120: 0d10 be3d 8e4a e13e 6f96 19bc 102f 033e
00000130: 75c8 cabd 82f9 98be 0237 c0be 0059 fa3e
00000140: 0917 6abe 9869 26be e54c 76be 0df9 7a3c
00000150: 0554 69be d2d6 953e aac4 183e c035 093e
00000160: bdea 8c3f 0887 edbe 3170 14be 0c11 ac3e
00000170: 45ff 433f 2b16 34bf 6a55 edbd 5910 16bf
00000180: 8b0f 32bf c842 033f 7eac 963d df9c 09be
00000190: 9665 23be 104a 1ebd f736 f53c 9be5 333e
000001a0: 686e 103c f0c0 9f3c 32d8 193d 7c6e 03be
000001b0: 04e7 83bc d0ab 38bd 8bd9 43bf c4a8 373f
000001c0: b1b9 ea3e fff7 f4be 96e1 84be 6b00 1c3f
000001d0: 7d6a 0c3e ddaf 9e3e 7fc6 a6bb 5dd3 99bf
000001e0: be3e a7be af4f 0fbe ae34 59be bedb 1cbb
000001f0: 994a 063d 9b84 76bb 35e2 1b3e 5c12 db3c
00000200: 8456 78bd 0650 0fbe eb37 93bd 924f db3d
00000210: 7017 8dbd 23bd 183e 0927 f6bd 5f90 973e
00000220: a5d9 b43e 1c03 b4bd 1ea3 17bf 509d 603b
00000230: 88f7 2e3f 0527 37bf 7ce8 2a3e 2981 6fbd
00000240: 942f 64bf 8b97 963d 84cf 43bd cae2 47bc
00000250: 6815 9abd 167d 0cbe a85f c33e b247 51be
00000260: 18a6 173e 90d3 79bd 6547 cbbe 523e f7bd
00000270: 75c1 8bbd 9fad 6b3f a5f3 be3e d7c1 9d3e
00000280: b64a 5a3d 55ed 54be 9b0e 5cbf fb53 5a3f
00000290: ce53 fcbd c243 a0be 4450 14bd ac86 ef3d
000002a0: 2356 1cbe ed20 4a3c 02ad c3bd b906 8bbe
000002b0: 9cb1 c0bb 3bc4 bc3c 0f21 2bbd 09d2 5b3e
000002c0: 8c9f d83d 7bdd cdbe 3609 b5bd 73eb 1a3e
000002d0: 6cf1 eb3e bcb6 c0bd 89dc 1abe 6f2b 673d
000002e0: d760 fa3f a98d 8c3f 7b36 8cba 401a a2bd
000002f0: 870b 473e 6125 063d 7251 393e 2908 36be
00000300: d066 353e 988b a1bd e7ba 6dbd 0fa2 d3bc
00000310: 2ab2 b4bd a1b9 ef3d 47ca a43e ca46 363f
00000320: f617 fabe d75b 3fbf 2d8a 7ebe ebb8 053f
00000330: 88d8 c7be ebfb 3dbf 1296 2ebf 5d10 603e
00000340: 1346 11be eb65 e63e 5322 7a3e 52a9 21be
00000350: 5d33 983d 83cd 9a3d 2601 eb3d 7584 1ebe
00000360: d081 41bd 48b1 8e3c d9bd bfbd 86a0 ffbd
00000370: db40 24bf 3ed5 77be 8a40 213e d8a6 7ebd
00000380: d07c 39bf b5bd a9be fa8e 07bd 2feb 073e
00000390: d9b8 bd3f f703 063f 0bf1 2f3e a6c8 56be
000003a0: e081 e13b 9a8f 553d f831 19bc 7d5b ed3d
000003b0: 1a83 163e c87f fcbb 9e97 dbbd b810 1abd
000003c0: 1f28 0ebe 9f43 77bd db46 94bc 778e ad3e
000003d0: 5ffa 73bf 415e 59be 7166 33be 9a7c 3dbd
000003e0: 0909 debd 8bcf dfbe 8835 a9be f31c e6bd
000003f0: 5aa1 b33d fa56 90bd 06ce abbe a675 b6be
-0.38868555 -0.14149264 0.17744395 0.10777916 -0.3500367 -0.17718817 0.15810598 -0.06450126
0.45563477 0.36066815 -0.1040554 0.057655662 0.286152 0.47176194 -0.067877814 -0.10886622
-0.07243668 0.09257966 0.07706115 0.1531653 -0.102684274 -0.48775473 -0.3955639 -0.27900448
0.016705146 1.0226117 0.05934936 0.15480112 0.23603606 -0.024535358 -0.85291976 0.17759639
0.27845955 0.19236591 0.35817936 0.25414112 0.20292775 -0.062327005 -0.06823139 -0.17933111
-0.23342085 0.06732608 0.02865486 -0.060981225 -0.57278085 -0.066254884 0.2850898 -0.025853489
-0.27665302 0.12523618 0.0069863037 0.16743271 1.2136073 -0.48047268 0.28456745 0.040914208
0.37298974 0.47878167 0.087326296 0.1568234 -0.16089343 0.11179096 -0.005253389 -0.04058576
-0.124305725 -0.13530535 -0.006675614 -0.6050465 -0.060500883 0.54442716 -0.1835018 -0.68738216
0.09280405 0.44002193 -0.009374245 0.12810922 -0.099015154 -0.2987786 -0.37541968 0.48896027
-0.2286035 -0.16251218 -0.2405277 0.015318167 -0.22785957 0.29265457 0.14918771 0.1339941
1.1009136 -0.46392083 -0.14495923 0.33606756 0.76561385 -0.70346326 -0.11588557 -0.58618695
-0.69554967 0.51273775 0.07357119 -0.13438748 -0.1595672 -0.03864485 0.029933436 0.17568056
0.008815385 0.01950118 0.037559696 -0.12835115 -0.016101368 -0.04508573 -0.7650382 0.7174189
0.45844796 -0.47845456 -0.25953358 0.6093814 0.13712497 0.30993548 -0.0050895805 -1.2017628
-0.32665056 -0.1399524 -0.21211502 -0.0023934687 0.032785986 -0.003761566 0.1522301 0.026742153
-0.060629383 -0.1399537 -0.071884 0.10708536 -0.06889236 0.149159 -0.12019164 0.29602334
0.353223 -0.087896556 -0.5923327 0.0034273453 0.6834645 -0.71543914 0.16690248 -0.058472786
-0.891351 0.07353123 -0.047805324 -0.012200067 -0.07523614 -0.13719591 0.38158917 -0.20437506
0.14809453 -0.060992777 -0.39702907 -0.120724335 -0.068240084 0.920618 0.3729526 0.3081195
0.053293906 -0.2079366 -0.85959786 0.85284394 -0.12320672 -0.31301695 -0.03620936 0.116956085
-0.15267234 0.012336952 -0.09554483 -0.27153566 -0.0058805477 0.023042789 -0.041779574 0.21466841
0.10577306 -0.4020804 -0.088396475 0.15128879 0.46082628 -0.09409854 -0.1512319 0.056437906
1.9560803 1.0980731 -0.0010697389 -0.07915163 0.19437991 0.03275049 0.18097475 -0.1777655
0.17715001 -0.078879535 -0.058039572 -0.025834111 -0.088230446 0.11705328 0.32185575 0.71201766
-0.48846406 -0.7474951 -0.24857397 0.5223529 -0.39032388 -0.7421252 -0.6819774 0.21881242
-0.14186887 0.44999632 0.24427156 -0.15787247 0.07431672 0.075587295 0.114748284 -0.15480216
-0.04724294 0.017418519 -0.093623824 -0.12481789 -0.6416146 -0.24202439 0.15747276 -0.062170833
-0.72456074 -0.33152547 -0.033095337 0.13273309 1.4822036 0.523498 0.17181794 -0.20974979
0.0068819374 0.052138902 -0.009350292 0.11589716 0.14698449 -0.0077056624 -0.10722278 -0.0376136
-0.13882492 -0.060367223 -0.018100193 0.33897755 -0.9530391 -0.21227361 -0.17519547 -0.046261407
-0.10841567 -0.4371303 -0.33048654 -0.112359904 0.0877101 -0.070478395 -0.3355562 -0.35636634

_policy.0.bias f4 [128]
00000000: de17 84bd 3719 c7bc 37af 37be fada 3dbe
00000010: bc1e fabc 4bf7 0abe 2901 2d3d e11b fbbc
00000020: b87b 24bd 5066 3a3e 273c 143e 30cf 233e
00000030: 9c9f 55be 90cc 78be fee6 6abc c332 0fbe
00000040: 556b d1bc 1f1b 303d 5d39 4fbe 51e6 243d
00000050: 76b0 a13d 101e 7ebd cc36 82be 1bed 6b3e
00000060: 87f3 97bd 4fc9 11bd 2a36 f2bc 32b8 f5bd
00000070: 71d7 b63d cd68 60be 1c1d 7fbe ca89 1fbe
00000080: 42f7 e23d 14f2 ddbd a1ee 8b3d 318b 923d
00000090: b051 543e b7b5 52be c206 0fbe e32f 52bc
000000a0: ee6f c4bc 09bc c63d de7c 43be b99c cebd
000000b0: 6bb7 8e3c 0523 15be 27a9 3b3e 637f d73d
000000c0: 08d8 e5bd 8592 52be 3fcf b8be 44b4 37be
000000d0: c671 a0be c367 4c3e 0dbc 85be 19e8 cdbd
000000e0: 420d 2cbd c506 b33d f70e ab3e c57f 9ebd
000000f0: 2b20 62bd 21ba f1bc f846 8fbe 69f4 a1bd
00000100: f00f a2bd 6295 c5bd f1c0 d63c 4c34 adbd
00000110: 9e35 cfbd 9493 3fbe a296 c8bd 1ba5 45bd
00000120: 1ae5 48be f3f1 2c3e f696 08be 709f e03d
00000130: 8efb d7bd 42bc 0bbe 7d41 42be 6253 06be
00000140: 2510 30ba f3ae 63bc 3559 da3c 9c4d 5bbe
00000150: 821a f0bd e99d 3cbc d438 42be 3fa0 7dbd
00000160: 9440 d4bd a892 4dbe 9cd0 a53d 5dd2 7ebe
00000170: 1a2d ac3d f94f 6ebe 856c 6abe 134d 483d
00000180: c440 9ebe 2311 07be 836d f8bd c870 23be
00000190: 88a4 8fbe dada 2fbe 62b7 0fbe 75a3 68bd
000001a0: 7289 2d3c 0d66 4abc 080c 6cbe db5b 7fbe
000001b0: 7d30 febc 27d9 163e a810 133e d295 65be
000001c0: 08f0 4dbe 2270 b9bd 0510 8cbe 1be1 0b3e
000001d0: c99f 24bc 432e 393d 94cf 72bd b0bf 463e
000001e0: 90f6 a63d ea3e acbd 48e5 8e3d a3c0 22be
000001f0: 6808 443d 694c 61be 516e 34be 103c 78be
-0.06449865 -0.024304016 -0.17937933 -0.18540564 -0.030532233 -0.13570897 0.042237435 -0.030652942
-0.04015705 0.18203092 0.14476071 0.15997005 -0.20861667 -0.24296784 -0.014337299 -0.13984208
-0.025563875 0.042994615 -0.20236726 0.04025871 0.078949854 -0.06204039 -0.25432432 0.23039667
-0.07419496 -0.035592373 -0.029566843 -0.11998023 0.08927811 -0.21914978 -0.24913448 -0.15579906
0.11082317 -0.10837188 0.06832624 0.07155455 0.20734286 -0.20577131 -0.13967422 -0.0128288
-0.023979153 0.097038336 -0.19090602 -0.10088486 0.017421445 -0.1456414 0.18326245 0.10522344
-0.11222845 -0.20563705 -0.36095616 -0.1793986 -0.31336802 0.19961457 -0.26120034 -0.10054035
-0.04200483 0.087415256 0.33409855 -0.07739214 -0.05520646 -0.029507698 -0.27983832 -0.07907946
-0.07913196 -0.09647633 0.026215049 -0.084572405 -0.101176485 -0.1870864 -0.09794356 -0.04825316
-0.19618645 0.16889171 -0.13338837 0.1096791 -0.10546027 -0.13646033 -0.18970294 -0.13117746
-0.0006716273 -0.013896692 0.026653865 -0.21416324 -0.11723806 -0.011512258 -0.1896699 -0.0619204
-0.1036388 -0.20075476 0.0809643 -0.24884935 0.0840704 -0.23272695 -0.2289296 0.04890163
-0.30908787 -0.13190131 -0.12130263 -0.15960991 -0.28055215 -0.17173329 -0.14034799 -0.05679651
0.010591852 -0.012353432 -0.23051465 -0.24937384 -0.03102898 0.14731275 0.14361823 -0.22420433
-0.20111096 -0.09054591 -0.27355972 0.1366009 -0.010047861 0.045210134 -0.059279993 0.1940906
0.08152497 -0.084104374 0.06977326 -0.15893798 0.04785958 -0.22001804 -0.17620207 -0.24241662

_policy.2.weight f4 [128, 128]
00000000: f24b 083e 471f 34bc a1d7 22be b443 48be
00000010: cf1e 933e a0ab 05bf f970 7a3d 06d0 e63c
00000020: f929 9c3d 0fa7 0dbf d614 16bd 1635 25be
00000030: 2663 90bc 1835 d3bd bdd5 b3be 1bf9 d3bd
00000040: 1abe 99bd ed2c 8bbc 5c3b 21be 8ddb c63d
00000050: 45c8 d13d 8c4b 99bd ad1b 1b3e f6fa c2be
00000060: 9ebd b2be b598 9f3d 32ad adbe 3b5f 9a3e
00000070: 207d 6f3e b0b4 c13d b3db ceba c8aa e1be
00000080: 71f4 8b3d 0a70 24bd 0742 663e 1c9b d7bd
00000090: a334 8d3d 38cd a0be 6859 ee3d 21e7 6cbc
000000a0: aebb f6be 823d 37be 8380 993d fdd7 8c3c
000000b0: 13ae 0b3e 941c 67be f5fc 1d3d af46 b6bc
000000c0: 59be 80be fe0f 05bf e348 42be aec5 0f3b
000000d0: b970 f53e caca c73e 0c3d 5bbe 988d 4fbe
000000e0: 2a2d b33e a9e9 bc3d a0ed 3abe 85a3 0c3e
000000f0: 2e5e 533e 3c15 80bd 7958 b9be c483 413e
00000100: 610a 313d 5cd5 8d3e 85df 0b3e 2ad2 48bd
00000110: 828c 463d 7a18 80be 85ec 86bc 7050 e5bd
00000120: 272f acbd ca92 eabd 00f0 fbbd 5b07 b8be
00000130: e308 8bbe e37d b4bd b26c 08be cd7b 563e
00000140: 2e33 363e 9713 20bb 6cfe 36bd eab9 b3be
00000150: 1ae8 06bf c360 1dbe 26e4 033c a195 20bd
00000160: 8a99 0bbd d2c0 0e3c 13bf 053e f343 8d3e
00000170: cf34 c43d 8058 08bf b0bf 0a3c 48ed 263e
00000180: 8b43 d2bd 4243 5d3d 6ede bcbd 3fc3 d03d
00000190: dfae 3bbe 2aff 8dbd 4b39 943d acc7 9f3d
000001a0: e34e 20be c0bd 11be 1c57 203e 2b5c ddbd
000001b0: 6a92 823d c522 cdbe fc89 0dbf 75bd d3bd
000001c0: 63f1 b5bd 74a6 2d3e b2f0 5cbe fcc0 1c3e
000001d0: bc8a ae3b da0b 0ebe 4e13 4abe 4e58 ccbd
000001e0: a808 25bc 646f f13d 1574 2b3d fafe 07bf
000001f0: f586 a63d f8a8 e8be 769c e53d 25a9 403e
00000200: ae84 7bbd 50fa 74bd 8400 64bd 25ef 3cbd
00000210: 0c41 18bb a197 46bd c05e af3c 3ead 2e3d
00000220: 53d4 1bbc a2b1 19bc b6d7 83bd 8d98 f1bd
00000230: aa58 ddbb 44ec 94bd 9c95 debd 99c9 7cbd
00000240: aa83 b3bd cdca f5bd e157 a7bd c9ab 2f3d
00000250: 666d 00be 8c9b c53b a5fd adbd a9e6 bb3c
00000260: 7127 06bd 1f4e 1bbd 1ee2 ddbc 13c6 9ebd
00000270: 1b30 c8bd 4833 2fbd 115c f1bb 0443 97bd
00000280: a674 97bd a6dd 6fbd 4677 35bd 38ea 5dbd
00000290: 40fd 973b 5062 9bbc 694b 91bd da94 95bd
000002a0: 2fc3 a03d 9df1 c13a 7d1a 1a3b 909c 1c3c
000002b0: 4ebd 713d 9e0b dabd 4d4f 8abd e933 edbd
000002c0: e38d d5bd a22b 8ebd 3f80 ebbc bf56 eabd
000002d0: 909a 66bc 3802 263b 44ca e9bd 51e5 16bc
000002e0: 2d38 7fbc eb2b 9fbd a50f 4a3d c00f e0bd
000002f0: 3ec9 3e3d dd01 2e3c e7a9 60bd 6824 0fbd
00000300: 05fd 353d c5e6 453c 5cb4 a8bd a974 0fbd
00000310: a8a7 c6bc 3ad5 453d b3cf 9ebd 8300 0cbd
00000320: 6727 213d 0afc a2bd 7005 0e3b d889 9ebd
00000330: 8d37 9ebd f631 fcbd fe18 e0bc 2ea2 06bd
00000340: 46c6 36bd e5f2 a4bb 7c14 9cb9 2bb8 81bd
00000350: 7ef4 123d 5416 0f3d f16b 35bc d2e7 0cbd
00000360: a91b f43b 3498 da3c b527 c2bc e5f2 d9bd
00000370: 41f0 ee3b f7b3 1bbd 8840 3e3d 22f7 ac3c
00000380: 127a 803c 076a d4bd a5ae bbbd 8000 02be
00000390: 2ea4 efbd 0d83 13bd f6dc 2b3d 69bb 55bc
000003a0: 32fd c5bd 9ef3 093c 6d58 cabd bffe 143d
000003b0: 430d 503d 00ba dabc e0ed cf3b b870 e5bc
000003c0: 06bc 1dbd 0a4d 323d 393c 853c 7ae6 f63c
000003d0: f4ed 1ebc 8ec4 99bd 4201 d33c 50cd 06be
000003e0: a68f 4b3d c7a7 9fbc 94a0 dcbd 08b4 ccbd
000003f0: 0b5b 42bd 7751 483d 9d26 993c fe96 73bd
0.13310221 -0.010993785 -0.15902568 -0.19557077 0.28734443 -0.52215004 0.061142895 0.028175365
0.07625193 -0.55333036 -0.036640964 -0.16133532 -0.017625403 -0.10312861 -0.35124007 -0.103502475
-0.07506962 -0.016989196 -0.157453 0.09709845 0.102432765 -0.074851125 0.15147276 -0.38082093
-0.3491029 0.077927984 -0.339212 0.3015078 0.23387575 0.094582915 -0.0015782028 -0.44075608
0.06833733 -0.04014591 0.22486125 -0.10527632 0.06894805 -0.3140657 0.11638147 -0.014459402
-0.48190063 -0.17894557 0.07495215 0.017192835 0.13640623 -0.22569495 0.038571317 -0.022250501
-0.25145224 -0.5197753 -0.18973117 0.0021937895 0.47937563 0.39021903 -0.21410006 -0.20268857
0.34995395 0.09224255 -0.18254709 0.13734253 0.20641395 -0.0625405 -0.36200312 0.18897921
0.04322279 0.27701843 0.13659485 -0.049028553 0.048473842 -0.25018674 -0.016470203 -0.11196983
-0.08407431 -0.11453779 -0.12301636 -0.35943112 -0.27155218 -0.088130735 -0.13322714 0.20945664
0.17792961 -0.002442574 -0.04467623 -0.3510278 -0.5269791 -0.15368943 0.00805 -0.039205197
-0.034081973 0.008712964 0.1306117 0.27590904 0.09580385 -0.5326004 0.008468553 0.16301453
-0.10266789 0.05401922 -0.092221126 0.1019349 -0.18328427 -0.06933434 0.0723749 0.07801756
-0.15655093 -0.1423254 0.1565823 -0.10808595 0.063755825 -0.4006559 -0.5528867 -0.103388704
-0.088839315 0.16958028 -0.21576193 0.15307993 0.005326597 -0.13871709 -0.19733927 -0.0997778
-0.010072865 0.11788824 0.04185875 -0.5312344 0.0813121 -0.45441413 0.11211483 0.18814524
-0.06140583 -0.05980903 -0.055664554 -0.046126503 -0.002323213 -0.04848445 0.021407485 0.042645685
-0.009511071 -0.00938073 -0.06437628 -0.11796675 -0.0067549543 -0.072716266 -0.108683795 -0.061715696
-0.08765347 -0.12001572 -0.081710584 0.042888436 -0.12541732 0.0060305055 -0.084956445 0.022937136
-0.032752458 -0.0379163 -0.02708536 -0.077526234 -0.097748004 -0.042773515 -0.0073657115 -0.07385829
-0.07395296 -0.05856099 -0.0443032 -0.054178447 0.004638344 -0.018967777 -0.070944615 -0.07303782
0.07849728 0.0014796738 0.0023514323 0.009558812 0.059018426 -0.10646747 -0.06753407 -0.11582167
-0.10427453 -0.06941916 -0.028747676 -0.11442327 -0.0140749365 0.0025330912 -0.11415532 -0.009209947
-0.015577358 -0.077720486 0.049331326 -0.10940504 0.04657864 0.010620561 -0.05484953 -0.03494683
0.04443075 0.0120789455 -0.08237526 -0.035023365 -0.024249867 0.04829905 -0.07754459 -0.034180176
0.039344218 -0.07958229 0.0021670721 -0.07741135 -0.07725439 -0.12314217 -0.027355667 -0.03286951
-0.044622682 -0.005033838 -0.000297699 -0.063339554 0.035877697 0.034933403 -0.0110730985 -0.03440077
0.0074495864 0.026683904 -0.023700574 -0.106420316 0.007291824 -0.038013425 0.04644826 0.021113936
0.015683208 -0.103717856 -0.0916417 -0.12695503 -0.11701237 -0.03601365 0.04195877 -0.01304517
-0.09667434 0.008419899 -0.09880147 0.036375757 0.050793897 -0.02670002 0.0063454956 -0.02800785
-0.03850939 0.0435305 0.016264068 0.030139197 -0.009700287 -0.07508193 0.025757436 -0.13164258
0.04969754 -0.019489182 -0.10772815 -0.09995276 -0.047450107 0.048905816 0.01869517 -0.05947017

_policy.2.bias f4 [128]
00000000: bd06 31be fcf1 2bbe 8b25 8ebd 222a 433d
00000010: bfe6 d9bc 1012 b83d 2fcc 24bc ce8c d83c
00000020: 569e 10bd 6df6 b33d 071b 9ebd 7739 423d
00000030: e5ee d93c 610a 643d ee29 803d 4bc6 b13d
00000040: 64ef 633d c3e4 173e 00f1 113e a11b 613b
00000050: c061 73bd e1bb 89bd e85a 8c3c e9b2 1c3c
00000060: 8dfb b2bc c490 863b 4e1c 7d3d b815 03be
00000070: d2d7 28be 7e56 eb3d ceae d6bd f98b 60bd
00000080: f19f b2bd f71d 8e3c 6a48 8fbd 140e 65bd
00000090: def3 a7bd cca2 74bc 78cc 64ba 8072 02be
000000a0: c41b 103e 912b 12be ec86 123d d905 5cbd
000000b0: 7a90 62bd e432 4f3b f915 c83b 7ac5 05be
000000c0: 3578 6f3d cc0f e3bd 0c8d b2bd d658 aa3d
000000d0: 79a8 8c3d f208 a4bd 9a62 9c3c 4241 b43c
000000e0: 9953 16bc 7c34 12be ff92 24bd 9cda 18be
000000f0: 37de 1dbd 9561 a73d 2efd abbd e1ab 01bc
00000100: ced5 aabd 1e61 a3bd 64ec 773d 3e00 243c
00000110: 9a4c 11be 8c4b f9bd f820 41bd 8cca adbd
00000120: 799d 20be 0913 0fbe 2682 3a3d e532 b1bd
00000130: 931b 0b3e 2ef8 9fbd 275e 0b3d 62c1 dbbc
00000140: 2474 2ebd 86f0 fbbc cb4b f03c 0961 173d
00000150: e9bf b8bc a4dd cb3d 7a15 13bd 7870 f9bd
00000160: d8e8 a4bd 4714 8c3d 631d 30be f469 213d
00000170: 9417 c5bc ade8 a73d faa1 64be fe20 07be
00000180: a39e 223a 43dc 683c e427 0cbd 6a08 c0bd
00000190: 1f28 16be 88d8 e4bc 653e d7bc 0c02 b83d
000001a0: 4bde 16bd 19a7 b33d b603 19be 3a6f ebbc
000001b0: 5b21 17be 7111 a9bd f3b6 41bd b236 223d
000001c0: 3edd 963d 325d d03d 10a5 cebd 2748 443d
000001d0: 6f06 a5bd e5f2 a53c 3718 edbd 6d8d cb3c
000001e0: 916a a1bd 02a7 03be 3a32 48bc cbad b8bd
000001f0: 379a 07be ef0c 4dbc fb87 bdbd 36fd 4a3d
-0.17287727 -0.16791528 -0.069407545 0.047647603 -0.026599286 0.0898782 -0.010058447 0.026434328
-0.03530725 0.08787236 -0.07719999 0.047418084 0.026603172 0.05567396 0.062579975 0.086803995
0.055648223 0.1483336 0.1425209 0.0034348744 -0.059419394 -0.06725288 0.017133191 0.00956414
-0.021848464 0.004106613 0.06179457 -0.12801254 -0.16488579 0.114911065 -0.1048256 -0.05482099
-0.08721913 0.017348273 -0.06996234 -0.05592163 -0.08200811 -0.014931392 -0.0008727978 -0.12738991
0.14073092 -0.14274432 0.035773203 -0.053716514 -0.055313565 0.0031616027 0.006106135 -0.13063613
0.058464248 -0.110869974 -0.08718309 0.08317725 0.06868071 -0.08009519 0.019089986 0.022003774
-0.009175205 -0.14277834 -0.04017925 -0.14927143 -0.038542 0.08172909 -0.083978996 -0.007914514
-0.08341561 -0.07977508 0.060528174 0.010009823 -0.14189377 -0.121726125 -0.047150582 -0.084858984
-0.15685071 -0.13972105 0.045534275 -0.086522855 0.13584737 -0.078110084 0.034025338 -0.02682561
-0.04259123 -0.030754339 0.029333016 0.036957774 -0.022552447 0.09954384 -0.035909154 -0.12179655
-0.08052224 0.06839805 -0.1719871 0.039407685 -0.024059094 0.08198676 -0.22327414 -0.1319618
0.0006203448 0.014212671 -0.03421773 -0.09376605 -0.14663742 -0.027935281 -0.02627487 0.089847654
-0.03683309 0.08772106 -0.14942822 -0.02873956 -0.14758818 -0.0825528 -0.047293615 0.039602943
0.07366417 0.101740256 -0.10090077 0.047920372 -0.08057868 0.020257423 -0.11576884 0.02484771
-0.07881654 -0.12856677 -0.012219006 -0.090175234 -0.13242422 -0.012515291 -0.09254452 0.049557887

_policy.4.weight f4 [128, 128]
00000000: a551 4f3e 544b 46bd 0c59 97bd 692f 90bd
00000010: d626 c53d ca5e 483d c442 9a3c cfb4 7e3e
00000020: 6013 efbc 6a2b 363e f8bd 9bbd 83b2 a5bd
00000030: 585e f4bd 837b fc3d 7575 35be 333f 293e
00000040: 230e a3be 9783 0a3e e1b5 61be a520 b6bc
00000050: 1fa0 1bbe 7327 9dbe 1405 56bd f21c 263e
00000060: 7b97 07bd 61c0 04be 51d5 4dbd 3054 193d
00000070: 3b74 6e3d 3029 8bbe 58ee f83d 05f8 f9be
00000080: e494 87be db6c 49bd f3d4 fe3d c856 43be
00000090: dfa3 4cbd 79bb 08be 52aa d7bd b15f 76bd
000000a0: 4117 c6be 082e cbbd e954 c03d 4b2c 2dbe
000000b0: 0c3d 8cbd d39e 303d 3462 00be bb02 46bd
000000c0: 6ec2 fe3d 2ae0 3e3d 9574 58be 780d 77bd
000000d0: 5815 f13d 4128 f03b c6ff a0be 4f90 c13d
000000e0: db41 973d 4ad7 0bbd a522 133e 6b9d 283e
000000f0: 22d0 ffbc 3872 57bd 5142 b0be 27b9 f23c
00000100: e514 7b3c d0e7 d0be 716e 75be b851 a7be
00000110: 2517 733c 232c 5cbe 9868 afbc 4837 9abe
00000120: 160a 433c f92a 9abd cde2 48be e23b 473d
00000130: 0729 a93e b00a c43d cc41 e1bd 26f2 f5be
00000140: d61d 27bf 3c6e c4bc 6b2f 42be bce2 8b3e
00000150: 9cec edbc 6e01 4dbd 15d0 97be 7cd0 08bf
00000160: ab5c 313d c3b0 3dbe 939a 513e 7227 91bd
00000170: 0aa9 813e ae06 aebd 9692 d5be 3b29 3b3d
00000180: 148d 9b3e 8af6 1ebe 5e83 8bbe 8ba1 c83c
00000190: afe9 f6be 4c15 d13d bc54 633e c126 95bd
000001a0: 5815 45bd 5867 be3e 2ce3 12be 9172 b6bd
000001b0: 9a26 803d d68d 473e ca42 1b3d a254 1c3e
000001c0: a9cd 14be 519e 5ebe f2cc a63e a8f6 9ebd
000001d0: 3a6c 81be de7e 6cbe 070a 4d3e 014a 333d
000001e0: 3bf7 563e 7efa 89be a6ce d2bc 067e 15bf
000001f0: 7e9b dbbc 6ccc b73e cb1b babd fb4b 2e3e
00000200: 0e90 f43a c21c 6d3d dcbd 21be 5335 323d
00000210: 760f 4d3c 3baf 8e3e 4738 bcbc 75c8 7cbe
00000220: 5ec8 a73c 7625 a33c a6f8 bf3d 7718 ecba
00000230: de6c d3bd 5d1e a73e 069e 293e 67be 20be
00000240: 5229 c4bd 21c2 493e ba78 993e a473 17bd
00000250: 2ccd 12bf 67cb 323e d0ae e63c e05f 97be
00000260: 8c79 99be 14f8 d83e b9b4 453e 9be0 ce3d
00000270: 8046 3abc 5dfe 923d 2a2b 1f3e 897c 1a3e
00000280: 0945 84bd db36 bfbd 427d b7be d669 a2bd
00000290: 8afd 0fbe b16e 40be 5fff faba 128b 6cbd
000002a0: 9a99 9f3c 31f6 b6be 160f c3be 72be 4a3e
000002b0: b78c 303b f891 9abd f349 64bf 4dcc 723e
000002c0: 6ce8 3b3e 8dc6 68bd 71f1 77bd 00ba 1fbe
000002d0: e8b3 91be 4a0e 0d3e 55c5 6dbe c177 d73e
000002e0: e7d4 64be 7b58 34bd f8e3 803d f2e0 9a3c
000002f0: 02aa 493e 85bd 30be d53b d7be ca94 67bd
00000300: 4f33 b1bd a1a0 96bd 496d 7dbe 9621 1fbc
00000310: beeb 2c3e 8414 be3d 471e 1f3d f394 e6be
00000320: 99dc ccbc 14f9 fb3c 1605 6ebe d760 65be
00000330: f063 203e 3723 10be 2f36 7ebe e1e9 69be
00000340: b86d 863d 318d b03e 3426 d4be e2d2 863d
00000350: a9cd bdbd d81d 14be 1ae8 413e 623c 9cbe
00000360: 8369 63bf 1e20 5d3c 6d8b e63d 6e57 92bd
00000370: fd48 133d 58fd d9be 9b51 c1be 1a9f b0bd
00000380: 7151 ef3e e69c 15bf fe91 903e e08e 983d
00000390: 8723 1bbf 8a5f 94be 0659 e13d 5549 373e
000003a0: da0d c1bb fa32 bfbd 6cb3 2fbf 2d30 d43d
000003b0: 960c a53d 0a2d 763e 3a9b 66bd e84b 9fbe
000003c0: e72c 0e3e b97d 05be 6801 22bd d4ff b5bc
000003d0: 3d9b 87be e0df e73c 56d9 a6bd da36 49bd
000003e0: 7b5a 3cbe 9aa1 22be 4230 913c 4ea5 32bd
000003f0: dc1f d3bc db3b 2a3d 0f9c 31bd 56bc 863e
0.20245989 -0.048411682 -0.07390031 -0.07040293 0.09626548 0.048918523 0.018830664 0.2487366
-0.029184043 0.17789999 -0.07604593 -0.08090689 -0.11932057 0.123282455 -0.17720588 0.16528015
-0.31846723 0.1352676 -0.22042038 -0.022232363 -0.151978 -0.3069416 -0.052250937 0.1622198
-0.033103447 -0.12964012 -0.050252263 0.037433803 0.058216315 -0.2717986 0.121548355 -0.48822036
-0.26480782 -0.04917608 0.124429606 -0.19076073 -0.049960967 -0.13352765 -0.10530533 -0.060149852
-0.38689616 -0.09920889 0.09391195 -0.16911428 -0.06847581 0.043120217 -0.12537462 -0.048342448
0.12439428 0.0466005 -0.21138223 -0.06031558 0.11771649 0.0073290174 -0.3144514 0.09451353
0.07385608 -0.034140863 0.14368685 0.164663 -0.031227175 -0.052599162 -0.34425595 0.029629303
0.015324806 -0.4080186 -0.23967911 -0.32679534 0.014837061 -0.21501212 -0.021412179 -0.301203
0.01190426 -0.07527728 -0.19617768 0.048641093 0.33039114 0.09572351 -0.10998878 -0.48036307
-0.652799 -0.023978345 -0.18963401 0.27321422 -0.029043488 -0.05005019 -0.29650941 -0.5344312
0.043301266 -0.1852446 0.20469122 -0.07087602 0.2532428 -0.08497368 -0.417134 0.045693617
0.30381072 -0.15523735 -0.27248663 0.024491092 -0.4822516 0.1020914 0.22200292 -0.07282782
-0.048116058 0.3718822 -0.14344472 -0.089085706 0.06257363 0.194877 0.037905492 0.1526666
-0.14531578 -0.2174008 0.32578236 -0.0776189 -0.25277883 -0.23095271 0.20023356 0.043771747
0.20992748 -0.26948923 -0.025733303 -0.5839542 -0.026807543 0.3589815 -0.09087332 0.17021172
0.0018658654 0.057888754 -0.15795082 0.043507885 0.012515893 0.27868065 -0.022976054 -0.24685843
0.020481285 0.019915324 0.09373598 -0.0018012662 -0.10323499 0.32640353 0.16564187 -0.15697633
-0.09578194 0.1970296 0.2997492 -0.036975518 -0.5734432 0.17460404 0.028159529 -0.29565334
-0.29975545 0.4237677 0.19307221 0.10101434 -0.011369348 0.07177422 0.1554381 0.15086569
-0.0645848 -0.09336635 -0.35837752 -0.07930343 -0.14061561 -0.18792225 -0.0019149593 -0.057749815
0.019482423 -0.35734704 -0.38097447 0.19799212 0.0026939341 -0.075473726 -0.8917534 0.23710747
0.1835038 -0.056829978 -0.06053299 -0.15598297 -0.2845757 0.13774982 -0.23219807 0.42083552
-0.22346841 -0.044029694 0.062934816 0.01890609 0.19693759 -0.17259796 -0.42037836 -0.05653838
-0.086523645 -0.07354856 -0.2474872 -0.009712597 0.16886804 0.09281257 0.038847234 -0.45035514
-0.025007533 0.030758418 -0.23244128 -0.22400223 0.15663123 -0.14075933 -0.24825357 -0.22843124
0.06563896 0.3448272 -0.41435397 0.065831915 -0.09267742 -0.1446451 0.18936196 -0.30514818
-0.88832873 0.013496427 0.11257062 -0.07145582 0.03595828 -0.42576098 -0.37757573 -0.08624096
0.46741822 -0.58442533 0.28236383 0.07449126 -0.60601085 -0.2897914 0.11003308 0.17899068
-0.005891544 -0.09335895 -0.6863315 0.10360751 0.08059041 0.24040619 -0.05630038 -0.311126
0.13884316 -0.1303624 -0.039552122 -0.022216715 -0.26485625 0.028304994 -0.08146922 -0.049124576
-0.1839389 -0.15881959 0.017723206 -0.043614678 -0.025772028 0.04156099 -0.04336172 0.26315564

_policy.4.bias f4 [128]
00000000: 4c2b 0dbd 539d 673c c762 e43d cd3f 07be
00000010: 835b 74bd 4d93 41be 7fed cebd 298e 19be
00000020: 1544 29be da55 bcbd 1694 013c 8662 1b3e
00000030: caaa 1bbe bdd5 edbc 8ab8 503d 0301 0f3e
00000040: e657 56be 33c6 e13c 5d4a e4be c87b 58be
00000050: c0db eabc ad66 d73d 1074 74bd f1f2 ddbd
00000060: e051 65bb dd7d 26be aacf 97be fc06 adbd
00000070: cc9c a9bb dc9b cf3b 8cd5 49be aa79 a83d
00000080: 477a 423c c695 073e 4e66 e2be fa9e 4cbe
00000090: 5354 6abc e1d3 c9be 93d5 9fbd fccd d9bd
000000a0: 6a9d 58bd 5544 e93c 820e a2bd 81b7 4fbe
000000b0: a5ed c63c 2a5c 1fbe e0e3 44be 2837 ffbd
000000c0: 63c3 993d f758 923d c965 33be 3383 c2bd
000000d0: de3e 083e ac9c 8bbe f772 873d d5de f73b
000000e0: 6567 e0bd abd1 f8bd 44f9 c0bd 4868 193d
000000f0: 3632 07be f1df 42be 1f44 0ebe a613 2f3c
00000100: fcc2 a6bb 2a9c 13bd 0e50 1bbd 858e 19be
00000110: 49c2 74be ddbe dabd 037e c7bd 82fc 71bd
00000120: 8adf 51be 1d70 d8bd a676 b13c 29d5 08be
00000130: eaa9 35bc f804 1d3c a90e b23d 9621 c93d
00000140: ba16 f8bd a2bf 06be 66c4 89bd 29fa 32be
00000150: 71d0 84be c960 8d3e b9e7 883d 865d f4bd
00000160: ef37 6dbe e939 ecbd 202f 373e c4aa 0fbe
00000170: 41af 9c3b 1151 11be 0e3e 2bbe 1a88 db3c
00000180: c546 a2be 6357 8b3c acd7 86bd 43e7 963d
00000190: 5a48 ba3d cc0d 11be edf8 5abe 795b 803d
000001a0: 29d2 c9bd af46 083e 7205 db3d 83c2 803d
000001b0: a881 9ebd f833 3ebd 2491 c8bd c888 9d3c
000001c0: 1335 80be d200 e1bc a2bb 21be bb22 a4bc
000001d0: 7f4b 973d b9cc 8cbe c3e8 c8bd fda6 88be
000001e0: 827d cebd dc7a fcbd 920d b6bd 75f1 69bd
000001f0: 1116 cdbd e8b6 78be ba12 e73c 6993 aebb
-0.03446512 0.01413663 0.11151653 -0.13207932 -0.059657585 -0.18903847 -0.101038925 -0.14995636
-0.16529877 -0.091960624 0.007908842 0.15174302 -0.1520187 -0.029032582 0.05095724 0.1396523
-0.20931968 0.027560329 -0.44587985 -0.21140969 -0.028669238 0.10517631 -0.059681 -0.10837353
-0.0034991428 -0.1625895 -0.29650623 -0.08448598 -0.0051761623 0.0063357186 -0.19710368 0.082263306
0.0118699735 0.13240728 -0.44218677 -0.1998252 -0.014302331 -0.39419463 -0.07804408 -0.106349915
-0.052884497 0.028474966 -0.079129234 -0.20284845 0.02428324 -0.15562502 -0.19227552 -0.12461692
0.0750797 0.07145875 -0.17519297 -0.094976805 0.13305232 -0.2726797 0.06613725 0.0075644054
-0.10957221 -0.12149366 -0.09422544 0.037452966 -0.13202748 -0.1903074 -0.13893174 0.010685837
-0.005089162 -0.0360376 -0.037918143 -0.14995773 -0.23902239 -0.106809355 -0.09740832 -0.0590787
-0.2049543 -0.10568259 0.021663021 -0.13362564 -0.011087874 0.009583704 0.086942025 0.09820859
-0.1211371 -0.1315904 -0.06726913 -0.17478241 -0.25940278 0.27612904 0.066848226 -0.11931901
-0.23165868 -0.11534483 0.1788907 -0.14029986 0.004781634 -0.1419108 -0.1672289 0.026798297
-0.31694618 0.017009443 -0.06584105 0.073683284 0.09095831 -0.1416542 -0.2138402 0.06267447
-0.09854538 0.13308214 0.10694398 0.062871 -0.07739574 -0.04643628 -0.097933084 0.019230261
-0.25040492 -0.027466211 -0.15794232 -0.020036092 0.073874466 -0.2749994 -0.09810021 -0.26689902
-0.100825325 -0.12328121 -0.08889307 -0.057115037 -0.100139745 -0.24288523 0.028207172 -0.0053276313

_policy.6.weight f4 [128, 128]
00000000: b5ae 82be a975 f93d 13c2 8ebd b8b8 1bbe
00000010: a6e5 4ebc 201b 39bf e924 1bbd cfcf 8b3e
00000020: 9883 aabe fed3 0dbe 31d5 913e e6b6 f9bd
00000030: da50 70bd 4bd6 3b3e cd53 9dbe caa3 25bd
00000040: 8fa9 a2bc bdb8 c0bd 07af 283e 39d8 90be
00000050: 44ce 8b3e 4b0e 51bd 1f31 8c3b 8d34 9d3d
00000060: c86c 23be 51e5 01be 765f ddbe de63 ef3c
00000070: e20b a4be 800c 1d3d a23a a33e 7f17 8a3e
00000080: f733 683d bc0e 953d 9154 923e 1f8a 3e3d
00000090: e1e8 013e 5f60 b8bd 44cf 453e 611f 99be
000000a0: c6e4 04bf b205 b7bd ddb7 6d3d e7da 513e
000000b0: 97f7 e9bd 9d43 bdbe e7fe a1be 724d 55be
000000c0: 8382 02be 2c6c 65bd 76bb 05bd 9478 00be
000000d0: d79c fe3d a9a2 0cbd efd8 4cbe 6526 02bf
000000e0: de5a 57be 17b3 6ebd 0433 02bd bffb 0abe
000000f0: d74d ae3d 44ac 7bbe 9bba 07bd 7346 62be
00000100: 76db 4ebf 3924 343e b39a 643d c269 fcbe
00000110: 5f73 fe3d 8132 a53d fc0b df3d 2716 ec3c
00000120: f1ac 0b3e 093d aebd 1a94 d4be 7730 433e
00000130: c462 aa3e cada d2bd ef78 ae3e df52 95bc
00000140: c597 c0bd ad19 ef3d a3eb cbbd 4dc9 b9be
00000150: 8b8e 18bc 58cd a7bc 16f5 cabd 580d a6bd
00000160: 03cf 3dbe fa70 4dbe ac12 d93e f973 5bbe
00000170: 7a6c 8b3d 7320 57bb 78d2 84be 22a2 13bf
00000180: 332f 79bd 2943 5cbc a578 26bc f1ed 49bf
00000190: 4295 b8bd aba3 b3bd b503 eebe 07bb b83e
000001a0: 5d61 41be c2f2 a0bd 8b27 a03e b9b5 223e
000001b0: 4354 a4be 9142 91be f0a1 163c f040 67bc
000001c0: eb38 33bd 6c89 f9bd 4e85 09be 014e a53e
000001d0: c3bd 143e bd5f 4c3e 1396 bf3d 43be 983c
000001e0: 8319 ab3e d136 e2bc 1d88 733e e3cd 16bf
000001f0: 585f b3be 82a8 a1bc 86cf 01be eb0b 19be
00000200: 8a45 dcbd 1796 643e f534 6cbe d49f 553e
00000210: b637 bcbe 9e24 a9bc 8b5e 19bf 2852 33bc
00000220: 3307 b93d 2bcf 8fbd 9e8d 94bd 65aa 7abd
00000230: 6029 85be ec31 73bd 5e5d 68be d1a5 c4be
00000240: 1c8f 133e ab5f 20be 5256 0ebf 7c6b 0bbc
00000250: b83a c0bc 6212 4dbe 8ae4 e6bc 05e5 d93d
00000260: 01a9 bfbd 5e7f 4ebe a4fa 2b3d ca55 e73d
00000270: c88a c7be 6eb4 b1be 81da 19be 13e1 843e
00000280: d354 e6be 4e3c 223d b4a2 833e 83a1 343e
00000290: 50b4 8a39 cfa9 383d baea cb3d a50e 6d3d
000002a0: 21d6 133e 398f 21be fbb7 91bf eb7c 3ebc
000002b0: 9261 d63e 0bad 6ebe 9f51 06bf cf8c 2cbd
000002c0: 5296 e4be 2580 a33d 0abe 30bf 3b91 19be
000002d0: fc42 4d3e 0da8 e0be a9e2 77bd 2837 b73c
000002e0: b29d 213d 96cf ab3e d62a 11be 8daf 3fbc
000002f0: d464 37be f5cf b03c c49a 46be 0090 14bd
00000300: edeb b0bb d35e bc3e cf55 80be 7c1f dc3d
00000310: c8e6 0abf 3a97 0abf ad00 42be 0a59 5c3e
00000320: d5a8 ebbe affe 9bbd c9b9 14bd 7239 02bd
00000330: 4e7a 4b3e 94b6 57bf 77ab b5be 226a 043e
00000340: d9e3 23be e581 2f3e 8584 b5be 2780 bfbe
00000350: 3ef8 223d 1eee 93bc b509 5a3e 7624 0bbf
00000360: 8798 0c3e 27dd abbe 173f 1fbe dce1 093e
00000370: 896f f13d 6e47 9bba 4403 273c 576f 463d
00000380: 62dd 5f3d a160 4bbd 9f37 acbd c6b0 0c3e
00000390: 00da 33bf dc73 af3c e49d 95be 1222 c63c
000003a0: 627d 503e b734 9fbe 2a8e 893e c853 e63d
000003b0: 9e10 86be 3a1b 24bf 2eac c43e 15ba 12be
000003c0: f939 50be 11e7 c3bd 5e12 98be d866 9fbe
000003d0: a2e0 d3be 3c13 06bd 4f9e 2abe 536c 90be
000003e0: 9352 a3bd e527 79bf 13c1 73bd d929 cd3c
000003f0: dbee babe 467c a1be 431f 81bd af2b 8bbf
-0.25523916 0.12180645 -0.069706105 -0.15207183 -0.012627995 -0.72307014 -0.037876997 0.27306983
-0.33303523 -0.138504 0.28482965 -0.12193088 -0.058670856 0.18343465 -0.30727997 -0.040439405
-0.019856242 -0.09410236 0.16473018 -0.28289965 0.27305806 -0.05103902 0.0042783166 0.07676039
-0.15959466 -0.12685134 -0.43236893 0.029222425 -0.32040316 0.038342 0.3188067 0.2697105
0.056690183 0.07278201 0.28580144 0.04651844 0.12686493 -0.09002756 0.19317347 -0.29906753
-0.5191158 -0.08936633 0.058036674 0.20493661 -0.11424177 -0.36965647 -0.31639788 -0.20830324
-0.12745099 -0.056011364 -0.03264948 -0.12545997 0.124322586 -0.034334812 -0.20004629 -0.50839835
-0.21030757 -0.058276262 -0.031786934 -0.13572596 0.085109405 -0.24577433 -0.033136945 -0.22097187
-0.8080362 0.17591943 0.055811595 -0.49299437 0.12424349 0.080662735 0.10890958 0.028819157
0.1364019 -0.08507735 -0.41519243 0.19061457 0.33278477 -0.10295637 0.3407664 -0.018227993
-0.09403948 0.11674819 -0.099570535 -0.36286393 -0.009311329 -0.020483658 -0.09910028 -0.08108014
-0.18536 -0.20062628 0.42397058 -0.21430959 0.068078 -0.0032825738 -0.25941825 -0.5766927
-0.06083603 -0.013443747 -0.0101606 -0.78878695 -0.09012844 -0.087714516 -0.46487203 0.3608019
-0.18884797 -0.078588024 0.3128017 0.15889634 -0.32095537 -0.283711 0.009193882 -0.014114603
-0.043755453 -0.12184414 -0.13429758 0.32286075 0.14525513 0.19958396 0.09354796 0.018645411
0.334179 -0.02761403 0.23782392 -0.5890791 -0.3503368 -0.019733671 -0.1267682 -0.14945953
-0.10755451 0.2232288 -0.23067077 0.20861751 -0.36761254 -0.020647343 -0.59909886 -0.010944881
0.09034576 -0.07021936 -0.07253574 -0.061197657 -0.2600813 -0.05937378 -0.22691867 -0.38407758
0.1441006 -0.15661494 -0.55600464 -0.008509513 -0.0234655 -0.20026544 -0.028185148 0.10639385
-0.09358407 -0.20165774 0.041987076 0.1129566 -0.3897307 -0.3470797 -0.15024759 0.25952968
-0.4498659 0.039608292 0.2571007 0.17639737 0.00026455754 0.045083817 0.0995688 0.057875294
0.14437152 -0.15777291 -1.1384271 -0.011626462 0.41871315 -0.23308198 -0.52468294 -0.042126473
-0.44645935 0.07983426 -0.69039977 -0.14996807 0.20045084 -0.43878213 -0.060518894 0.022365168
0.03945703 0.33556813 -0.14176497 -0.011699569 -0.17909557 0.021583537 -0.19394976 -0.03627014
-0.0053992183 0.36791095 -0.25065467 0.10748193 -0.54258394 -0.54137003 -0.1894557 0.2151834
-0.46027246 -0.076169364 -0.03630999 -0.031793065 0.19870874 -0.8426297 -0.3548238 0.12931111
-0.16004886 0.17139395 -0.35452667 -0.3740246 0.039787523 -0.018057879 0.21292765 -0.5435251
0.1373006 -0.33567163 -0.1555141 0.13465065 0.11788852 -0.0011846849 0.01019365 0.048446026
0.054654486 -0.0496527 -0.084090464 0.13739309 -0.70254517 0.02141755 -0.29222023 0.024186168
0.2036033 -0.31094906 0.26866275 0.11246449 -0.26184553 -0.64104044 0.38412613 -0.14328797
-0.20334615 -0.09565557 -0.29701513 -0.3113315 -0.4138232 -0.032733187 -0.16661952 -0.28207645
-0.07974734 -0.973265 -0.0595103 0.025044369 -0.36510357 -0.31540126 -0.06304791 -1.0872706

_policy.6.bias f4 [128]
00000000: 8c64 87bd c63e dcbe 6691 4f3e bf97 823e
00000010: 09af 2c3e 0088 b13d 3ed3 9bbc 2ba5 873d
00000020: 5e81 ef3d d5b8 123d 0355 2e3d 502f 983d
00000030: 8a90 21bc cf95 dbbd 5bbc 853e 599e 133e
00000040: 8cc1 a43d ee57 c13d 6d5a afbd 7afa 94bd
00000050: aa1a 523e e2a7 673e 0a27 383e 9ac7 973d
00000060: 0199 283e c64a 313e 7538 d13c a72a 323e
00000070: 4bd5 90bc 3e35 713d d879 3ebb f731 34be
00000080: db4a b33d 5c95 60bd e463 603e bcfd de3d
00000090: 617f 89bd 67dd ea3d 38ff 293d 29f0 da3d
000000a0: b61f 1cbe 3c4f babd a757 903e 538f 5ebc
000000b0: 2842 d43d c964 71be 7ee6 6a3e 93c4 1c3e
000000c0: 66fe e13d 6f1a b23c 30d5 e23d 00e2 9c3d
000000d0: f110 1abd 4b3d 093d 8b95 8bbb 8a07 053e
000000e0: 3071 bc3d f8d7 ca3e ece0 dd3c af90 f63d
000000f0: 79dd 96bd 2f4c 433d e93e 453d 576f 713e
00000100: 5fb3 5abd 4382 f13d c91d 163e bbe7 633e
00000110: f378 f83c 02bb 183e 659b 57be 6571 043e
00000120: 3ebf 333d b8a5 2e3e 4342 92bd 1bb7 a3bc
00000130: 547f 883e d939 96be 6d58 273d 10e2 34bd
00000140: 3334 ae3d 1e7b b6bd 1521 70be eeea 93bd
00000150: 77c3 6b3e 3881 d13d e1a2 54be 1fcb b33b
00000160: 193b 2b3e c09c b93d 5221 d1bb b380 953e
00000170: 1f78 303e 65b9 b73d bb9f 24bc 77f6 af3c
00000180: 8d85 16be 84fc 143e 5904 a83d e102 afbd
00000190: b2bc c3bc 6919 833b f39d 153d 5751 443e
000001a0: 2922 19be 4aea ba3d af85 9a3d e22a e43d
000001b0: f743 dabe af1e 8f3e c9ad e33d 13ea aabd
000001c0: 0351 8a3d 8b20 ebbd 5da8 ac3d 7698 4a3d
000001d0: 0cea 533d 1f2c 503e 0e51 53be bbac c13d
000001e0: 3df3 2d3e ae90 9e3e 0139 903e a946 05be
000001f0: 2a51 833e eb83 d0bd c835 6fbd 0e7f 1a3d
-0.06610975 -0.43016642 0.20270309 0.25506398 0.16863646 0.08668518 -0.019021627 0.066233
0.11694597 0.0358208 0.042561542 0.07430899 -0.009861121 -0.10721933 0.26120266 0.14415874
0.08044729 0.094405994 -0.08562169 -0.07274337 0.20517984 0.22622636 0.17983642 0.07411118
0.16464616 0.1731368 0.025539616 0.17399083 -0.017679831 0.058888666 -0.0029064324 -0.17597185
0.08754512 -0.05482994 0.21913105 0.1088824 -0.06713749 0.114680104 0.04150316 0.10690338
-0.15246472 -0.09097144 0.28191873 -0.013583976 0.10364181 -0.23573603 0.22939488 0.15309362
0.11034851 0.02174112 0.110758185 0.076602936 -0.037613813 0.03350572 -0.0042597703 0.12991157
0.09201276 0.39617896 0.02708479 0.12039315 -0.07366461 0.047680076 0.0481557 0.23577629
-0.053393718 0.117924236 0.146598 0.22256367 0.03033111 0.14915088 -0.21055372 0.12933882
0.043883555 0.17055404 -0.07141545 -0.019984772 0.26659644 -0.2934101 0.040855814 -0.044160903
0.0850605 -0.089102015 -0.2345012 -0.07222544 0.23023783 0.10229725 -0.20765258 0.0054868604
0.16721763 0.09063101 -0.006382146 0.29199752 0.17233323 0.08970908 -0.010047848 0.021479828
-0.14699383 0.14549452 0.08203954 -0.08545471 -0.023893688 0.004000832 0.036527585 0.19171654
-0.14954437 0.09126718 0.07545029 0.11140992 -0.42629978 0.27953097 0.11117131 -0.08345427
0.06753733 -0.114808165 0.0843055 0.049461804 0.051736876 0.20329331 -0.20636389 0.09456774
0.1698732 0.30969757 0.2816849 -0.13015236 0.2564786 -0.10181411 -0.0584009 0.037718825

_policy.8.weight f4 [3, 128]
00000000: 973d a5bd 129a 4d3e eb30 0ebe bf5a 09bf
00000010: 9341 c3be e272 2cbe bd0f 0dbf 7f25 8fbe
00000020: fd2e 2b3f 5cc4 58be a7c4 c73e 9417 193f
00000030: 439e e7bc 95be 1c3c 67ac 3ebf 126d 6bbd
00000040: 3573 ab3e f956 853e db26 e0be 896e 11be
00000050: b880 16be 4cfe 1bbe b052 2d3d 86a3 813e
00000060: ad2c 86bd 3636 b5be 4146 6e3e 0ce6 40be
00000070: 9a52 1dbf 5b0f f03e 45ce acbd 99ce 0f3d
00000080: 57a2 4fbe ae42 4fbc 4bc3 66be 4772 ca3e
00000090: 9fec 03bf 7ea0 fb3e b9b4 3bbe 20f6 1ebe
000000a0: c08b fd3e 3884 94bc 968e 21bd 4f87 123f
000000b0: b727 973e b995 04bf 927e 6c3f fb67 453e
000000c0: 0612 19be 78c5 12be 877e 953e c532 81be
000000d0: b035 8ebe 6e37 343e 0582 b8bb 3366 5dbe
000000e0: 1be3 e9bc 5896 b6be c0a3 003e 6f97 b23e
000000f0: 0c89 173e d43a f0bd 35e1 33bf 3503 a7bd
00000100: ff7f 843e 5cad 9d3e 090b 0f3f 270f 31be
00000110: f426 fe3e 95cf 06be 0371 053f 2ad6 8f3d
00000120: 2aec aebe 8431 a23e 2922 273f 0042 0ebd
00000130: f78d 3dbe f6b0 3c3f a318 9bbd 2b81 c53e
00000140: f240 12be aca4 55be 58d0 56bf 5ac9 9fbd
00000150: ad7a 9ebe 1b84 d43e 79ca 57bf e045 ebbd
00000160: 2c0c f0be d8ec 783e bb9a 33be 7ac2 73be
00000170: 6c51 5abe bdf2 edbd 063f 0d3f 9f33 053f
00000180: 788b 673d b768 c1bd 75d9 fe3d a110 07bf
00000190: 26e4 9abd 0856 02be d15a 2dbe adb4 afbe
000001a0: a9d3 e6bd 5f56 993e e6d6 ecbe 1bae 483f
000001b0: 7732 9d3e 807e c83e 43b8 90be 20ff 123e
000001c0: 332f a9be 39a3 f6bd 509b 5c3e e48c 5d3d
000001d0: 2d27 a0be bb75 d2be a5e7 3d3f 7ea4 babd
000001e0: 7d8d 983e a9cb 6ebe 87d6 64be f123 f13e
000001f0: 8702 f03e aa11 363e a3c1 193e 89ac f5bd
00000200: 556b a33e f2d2 ea3e 3f35 d7bd c513 193f
00000210: 689d ed3e 4583 aabd 2574 b53e dfb8 123f
00000220: eba0 d5be ddbb 033f 430d 4cbd 6889 30be
00000230: c8d2 1dbe e177 133e 125d 6a3f 1551 27be
00000240: 4030 b6be eda6 4abe 708f 953e 8c8a d43e
00000250: 28cc c03e d93b a73e e7ec a2be 8132 02be
00000260: 0fbe 80be 615f 993e 0be2 97be 1dad 9bbe
00000270: 0f3e d33e 8aa6 c4be 7c15 853e b99e 293d
00000280: e4c8 8a3e b084 88be 88e5 28bf 2a91 c4bd
00000290: e433 a2bd d53f f8be 142c ee3e d946 a3bd
000002a0: 7f55 3cbd d35b 7d3e 6895 013f 7a84 39bf
000002b0: 9e65 a5be b536 073f e433 2fbf 7cdf 49be
000002c0: 9e45 84bd 4858 f33e e053 d9bd 63b5 8a3e
000002d0: f50e 9e3e 7b81 31bd b220 cd3e 4836 27be
000002e0: db16 693e ec3c d23e e45d 263e 8ed9 d2bd
000002f0: 3ec9 8a3e 2522 e1bd 90ae 473f 46e3 843e
00000300: 545f 07bf 18e5 f0bd 4a76 a3bd 3d67 b13e
00000310: f734 67bd d53a 0fbf 6c3d 503e 17a2 cb3e
00000320: 8854 f4bc 269d c6be 11b7 76bc 4140 71be
00000330: faab c73e 959b 49bf e92b 91be 8f34 04bf
00000340: 9429 7fbe eea5 c3bd ebfd 143f 4ee8 4e3e
00000350: 745b c33e 1bc5 01bd faa2 813e 417c aebd
00000360: 75d0 0e3f 40e6 85be 321b f73d 5851 89be
00000370: 1ed0 87be 801c 90be 045f 07bf 9841 21be
00000380: 5c97 31bf 2cf3 d53e efeb fcbc fd5a 473e
00000390: 7034 48bf b567 85be b7db 3fbc d1ea 20bd
000003a0: e691 f7bd 1a3f efbd d9fd 2abd 2793 52bf
000003b0: 8ad4 023f 879b ccbe 109d ed3d 86c9 63be
000003c0: 13b5 9a3e 3744 043f b064 2c3e eae0 473e
000003d0: afa6 1b3b 7255 d93d 1d11 a1bf f7c2 aabe
000003e0: eebf 99be 07e9 6f3e c958 0c3f 44b8 0ebf
000003f0: 0f27 acbe 95c8 12bd d045 963e 0183 7bbe
-0.08068388 0.20078304 -0.13885848 -0.5365409 -0.38135967 -0.168407 -0.5510214 -0.27958295
0.66868573 -0.21168655 0.3901722 0.598016 -0.028273707 0.009566923 -0.74481815 -0.057477064
0.33486333 0.26042917 -0.43779644 -0.14202322 -0.1469754 -0.15233725 0.042315185 0.2532007
-0.0655149 -0.35392922 0.23268987 -0.18837756 -0.61454165 0.46886715 -0.0843778 0.035109136
-0.20276771 -0.012650175 -0.22535436 0.39540312 -0.5153293 0.49145883 -0.18330659 -0.15523577
0.49520683 -0.018129453 -0.03944262 0.57237715 0.29522488 -0.5179096 0.9238063 0.19277947
-0.14948282 -0.14333141 0.29198095 -0.25234047 -0.27775335 0.1759927 -0.005630734 -0.21621017
-0.028550675 -0.35661578 0.12562466 0.3488116 0.14798373 -0.117299706 -0.70265514 -0.081549086
0.25878903 0.30796325 0.55876213 -0.17290936 0.49639094 -0.13165124 0.5212557 0.070232704
-0.34164554 0.31678402 0.652865 -0.03473091 -0.18511187 0.7370752 -0.075730585 0.3857511
-0.14282587 -0.20863599 -0.8391166 -0.07802077 -0.3095297 0.41507038 -0.84293324 -0.11487937
-0.46884286 0.24309099 -0.17539494 -0.23804656 -0.21320122 -0.11618564 0.5517429 0.5203189
0.056529492 -0.09443801 0.124438204 -0.5275975 -0.07563047 -0.12728131 -0.16929175 -0.34317532
-0.1127084 0.29948708 -0.46257704 0.78390664 0.30702564 0.39159012 -0.2826558 0.14355135
-0.33043823 -0.12042851 0.21543622 0.054089442 -0.3127989 -0.41105446 0.74181587 -0.09113406
0.29795447 -0.23319878 -0.2234746 0.47097734 0.46876928 0.17780176 0.15015273 -0.11995799
0.31917825 0.45864064 -0.10508203 0.5979579 0.46409154 -0.08325819 0.35440174 0.5731334
-0.41724333 0.5145853 -0.049817335 -0.17239916 -0.15412438 0.14401199 0.91548264 -0.16339524
-0.35583687 -0.1979024 0.29210997 0.41511953 0.3765576 0.32662848 -0.31821367 -0.12714578
-0.25145003 0.2995558 -0.29664645 -0.30405512 0.41258284 -0.3840831 0.25992954 0.041411135
0.27106392 -0.26663733 -0.65975237 -0.09598 -0.079200536 -0.484862 0.46518004 -0.079724975
-0.045979973 0.2474206 0.506186 -0.7246777 -0.3230409 0.5281785 -0.68438554 -0.19714159
-0.06458591 0.4752829 -0.10611701 0.27091512 0.30870786 -0.043336373 0.40064007 -0.163293
0.22762625 0.41062105 0.16246754 -0.102954015 0.2710666 -0.10992841 0.78000736 0.25954646
-0.52879834 -0.11762446 -0.07981546 0.34649077 -0.056446996 -0.55949146 0.2033593 0.39772102
-0.029825464 -0.3879177 -0.015058295 -0.23559667 0.38998395 -0.78753024 -0.28353813 -0.516427
-0.24918205 -0.09553133 0.5819995 0.20205805 0.3815571 -0.031682115 0.25319654 -0.08519793
0.5578683 -0.2615223 0.12065734 -0.26819873 -0.26525968 -0.28146744 -0.5287936 -0.15747678
-0.6937158 0.41787088 -0.03087422 0.19468303 -0.78205013 -0.26055685 -0.011710099 -0.03928644
-0.12088375 -0.116819575 -0.041745994 -0.82255787 0.5110556 -0.39962408 0.11602223 -0.22244844
0.30216274 0.5166659 0.16835284 0.19519392 0.0023750474 0.106120005 -1.2583348 -0.3335187
-0.30029243 0.23428737 0.54822975 -0.5574992 -0.3362355 -0.03583582 0.29350138 -0.24561693

_policy.8.bias f4 [3]
00000000: 9cb5 5d3d 005c 84bd 970d bbbb
0.054128274 -0.0646286 -0.005708407

_value.0.weight f4 [128, 22]
00000000: 0949 813d 9182 2b3e 9eee 17be 7ff2 1a3d
00000010: 18b2 ec3c 85ea 2cbe 2372 9e3d cc30 4abd
00000020: b387 283e 9597 3abe 82b1 0bbd f392 243e
00000030: a7da 903d 3e58 5cbd 3d94 42bd b7d6 2d3d
00000040: a02f e3bc 611b 2d3e f6a2 2339 0f67 d23d
00000050: df54 a03d 0410 a1bd c38a 23be 990e 0dbe
00000060: ffc4 87bd ad6a 55bd 8cc6 193d 437f 1fbe
00000070: 5050 a3bd 2979 033e f99f 72bc 27e0 9fbd
00000080: 047b 17be 60b7 6dbd 3e74 1ebe 6921 303e
00000090: da37 e43d 0597 293e 93ae 15be 70ab 32be
000000a0: 6bd1 683c 727e 69be 1cf6 ecbd 3e5b 3e3d
000000b0: 06e5 d8bc 9408 00bd bda9 7fbd a072 17be
000000c0: a9a8 253e df6b 253e aaa5 d9bd e7e0 323e
000000d0: 45ed 073e 6056 903d d6c3 373e 4692 193e
000000e0: a70c 25be 4252 53be b6a6 11be 59bc 57be
000000f0: c5b7 0abe 4616 62bc 9dbe 6cbd c7af c3bd
00000100: 6a08 1abe 056d a83d fbd8 ebbd edde 353d
00000110: c90d 633b 1c1e 56be 49ed 1bbe 8fd0 573d
00000120: c730 923d 4fe0 103d 89d0 843c 29c6 e9bd
00000130: 5d46 e83d f5f7 233d 7eac 8d3e b2f4 b53b
00000140: aaca 163e ec01 d8bc b6c5 013c 88a8 26bd
00000150: e588 ddbd 67d2 973d cbe0 aabc 9527 8b3e
00000160: 7a37 0abe f96a 7b3e 6ee9 6ebe 081c a53d
00000170: 2fa3 b23c 2747 c23d d455 d43c 5423 ab3d
00000180: 641f 96bd cd0f b1bd 009f 3cbe e27e c2bd
00000190: 3cf7 653d 9849 873d 93e8 abbd 12f9 a2bd
000001a0: 2e7e 68bd de42 873d 054e 50bd 9d12 8e3c
000001b0: 4293 0b3d 3a65 cfbc 74f3 46be 5fd6 6c3e
000001c0: 2ed2 053e da5a e1bd cc36 013e 540a 0bbe
000001d0: 09d6 1d3e 6577 133d 83f5 9f3d c972 b23c
000001e0: 5ee0 04be a4eb ab3d da49 143e c25c ea3d
000001f0: 3199 363e 7876 d03d 83f8 a53a 37e9 23be
00000200: 5fbe 573b 6e34 0abe 51b3 b4bd d843 37be
00000210: 3ca4 af3d ce48 333e f04b debd 60ee 2e3e
00000220: 74e5 3abd 3f7e 30be 9fec c13c 0881 04bd
00000230: 03b1 873d baeb 5abd ac8a 4abe d1e8 60bd
00000240: 1ce1 14be 9be6 363e ef71 3cbe 1d39 f03d
00000250: 595f 7b3d f9c7 cfbd 0096 cf3d 3beb 3abe
00000260: 5ea5 28be 7c10 a73c acae adbd 9741 0cbe
00000270: 9be3 aa3b 8272 26be 6cd5 ca3d 5bb0 133e
00000280: f781 db3d 2573 893c 93d3 d4bd c561 2b3e
00000290: fd57 a2bc 2e1e 15be 1671 5d3d 62bb 47be
000002a0: 2af6 9d3d d51a fcbd e9ba 673c 89da cdbc
000002b0: e23c 62be d068 253d 554c 1c3e 10a7 f53d
000002c0: ab12 de3d d620 3bbe 86d3 8ebd fa21 e5bd
000002d0: 2840 aebd 0a26 d03c 4759 f03d b0a3 283e
000002e0: 338e 0cbd a34f 3e3e 1b9e 49bd 71be 0ebe
000002f0: fd6a 033e e7ee 06be 2e45 54be 6f17 31be
00000300: 4d47 263e 4f8c e53b 2249 533c 7aa5 cbbd
00000310: c986 5fbe f6e9 253e 8cbe 60bd b18c df3d
00000320: 139e 9f3d 5799 06bd 2e0e 3a3d 8d29 a6bd
00000330: 9a42 433d a312 29be 4f60 04bc 2521 b93d
00000340: 8f38 9cbd 2fee 4c3e 989e 17be f30b 3bbe
00000350: a406 fc3d ae79 a3bd 335d 64bd ead9 4abe
00000360: ec4f 51be 340f 183a c5be b13c c321 833d
00000370: 339b 153e 72e5 1fbe 7d0c 25bd b620 0e3e
00000380: 65be 063e 6737 a5bd e201 47bd a267 8a3d
00000390: 7fd7 0d3e f88d 9a3d 0e46 213d 0584 2ebc
000003a0: 6372 903d 4635 7f3c dca6 913c d995 ab3d
000003b0: 34be 13be b656 e0bc 2cd0 2d3e 824d afbd
000003c0: c346 8ebc 4ae6 41be 9f74 52bd 7c9c 2cbd
000003d0: dd95 77bc 3e81 aabd 1cc7 1ebe 615e 04be
000003e0: 0d2a 76bd 26ba e6bc c0b3 183d 7351 f23b
000003f0: 3ca7 0b3e 4a28 043e 2942 073e 91c5 193e
0.063127585 0.16749026 -0.14837119 0.03782892 0.028893515 -0.16886337 0.077366136 -0.049362943
0.16458015 -0.18221886 -0.03410483 0.16071682 0.070729546 -0.05379509 -0.047504652 0.042441096
-0.02773267 0.16904975 0.00015605599 0.10273563 0.07828688 -0.07864383 -0.15970902 -0.137751
-0.06629371 -0.052103687 0.037542865 -0.1557589 -0.07974303 0.12839188 -0.014808648 -0.078064255
-0.1479302 -0.05803621 -0.1547403 0.17200245 0.11143465 0.16561516 -0.14617376 -0.1744821
0.014210085 -0.22802141 -0.11570379 0.046473734 -0.026476394 -0.03125818 -0.062417734 -0.1478982
0.1617762 0.16154431 -0.10627301 0.17468606 0.13274105 0.07047725 0.17945799 0.14997205
-0.16118108 -0.20636848 -0.14223751 -0.21067943 -0.13546665 -0.013799256 -0.05779897 -0.09555011
-0.15042272 0.08223919 -0.11515995 0.04440205 0.0034645668 -0.20909923 -0.15227236 0.05268913
0.0713821 0.035370167 0.016212719 -0.11414749 0.11341546 0.040031392 0.27670664 0.0055528516
0.14725748 -0.026368104 0.007920673 -0.040688068 -0.10817126 0.07413178 -0.020859143 0.27178636
-0.13497725 0.24552526 -0.23331234 0.08061987 0.021806328 0.094862275 0.025919832 0.08356348
-0.07330206 -0.08645592 -0.18420029 -0.09496857 0.056143984 0.06605834 -0.083939694 -0.07957663
-0.05676096 0.06604551 -0.050855655 0.01734286 0.034075983 -0.025316823 -0.19428807 0.23128651
0.13068458 -0.11003657 0.1261856 -0.13578159 0.15413679 0.036002535 0.078104995 0.02178325
-0.12976214 0.08394554 0.14481297 0.114434734 0.17831875 0.10178846 0.0012662563 -0.16006933
0.0032919866 -0.13496563 -0.088232644 -0.17896974 0.08576247 0.17508242 -0.10854328 0.1708312
-0.04562898 -0.17235659 0.0236724 -0.032349616 0.06625559 -0.053447463 -0.19779462 -0.05490953
-0.14538997 0.17861407 -0.18402837 0.117296435 0.061370227 -0.10145564 0.10136032 -0.18253796
-0.16469333 0.020393603 -0.08480582 -0.13696896 0.005215121 -0.16254619 0.09903988 0.14422743
0.10718148 0.016778538 -0.10391917 0.16736515 -0.019817347 -0.14562294 0.054062925 -0.19505075
0.07712968 -0.12309805 0.014143684 -0.02512862 -0.22093537 0.04038316 0.15263493 0.11994755
0.108434044 -0.18274245 -0.06973939 -0.11188121 -0.085083306 0.025408763 0.11735778 0.16468692
-0.0343153 0.18585066 -0.049223047 -0.13939835 0.12833782 -0.13177072 -0.20729515 -0.17294095
0.16238137 0.0070052515 0.012895854 -0.099436715 -0.2182876 0.1620253 -0.05486922 0.10915507
0.07793822 -0.03286108 0.04542368 -0.08113394 0.047670938 -0.16511016 -0.008079602 0.09039525
-0.07627975 0.20012735 -0.14806592 -0.18266277 0.12305954 -0.07982193 -0.055752944 -0.1980969
-0.20440644 0.0005800605 0.021697411 0.06402924 0.14609985 -0.1561487 -0.040295113 0.13879666
0.13158567 -0.08067208 -0.04858578 0.06758048 0.13851736 0.0754661 0.03937345 -0.010651593
0.070530675 0.015576666 0.01777976 0.083781905 -0.14428025 -0.027385097 0.16973943 -0.08559705
-0.017367726 -0.18935505 -0.05138075 -0.042141423 -0.015111414 -0.08325432 -0.15505642 -0.12926628
-0.060098697 -0.028164934 0.037280798 0.0073949634 0.13638014 0.12905994 0.13208832 0.15016772
