logs/weight_colliion_obj_obs = 0.4/model/model_1260.pth (torch, 427625 bytes, 19 tensors)

_policy.0.weight f4 [128, 22]
0	0xbec194b0	-0.37808752
1	0xbdd91606	-0.10599904
2	0x3e4b05ca	0.19826427
3	0x3de7372b	0.11289819
4	0xbeb1462a	-0.34623843
5	0xbe55ab2e	-0.20866081
6	0x3e46bac3	0.19407181
7	0xbd143897	-0.03618678
8	0x3ee749a5	0.45173374
9	0x3ead94ac	0.3390249
10	0xbe394c2f	-0.18095468
11	0x3ca79ac2	0.020459536
12	0x3e9df1c4	0.30848515
13	0x3efd64b5	0.49490896
14	0xbd55f2bb	-0.05223344
15	0xbdc506b3	-0.096204184
16	0xbd671696	-0.056418024
17	0x3daee88b	0.08540448
18	0x3d865aef	0.06560313
19	0x3e11c542	0.14235404
20	0xbde1cea4	-0.11025742
21	0xbf108932	-0.56459343
22	0xbed1223c	-0.4084643
23	0xbe9b5c88	-0.30344033
24	0xbbc96696	-0.0061462624
25	0x3f87ab09	1.0599071
26	0xbbf0424f	-0.0073321234
27	0x3d8896f9	0.06669421
28	0x3e8d40ee	0.275886
29	0x3dc8fd44	0.098139316
30	0xbf63dbbc	-0.89007163
31	0x3dfe910b	0.124300085
32	0x3e6895d8	0.22713411
33	0x3e81a7e4	0.25323403
34	0x3ea58919	0.3233116
35	0x3e9a71cf	0.30164954
36	0x3e4eb157	0.20184837
37	0xbd856845	-0.065140285
38	0xbd27889f	-0.040901776
39	0xbe46e706	-0.19424066
40	0xbe5fabb5	-0.21842845
41	0x3dd88711	0.10572637
42	0x3cc16d1c	0.023611598
43	0xbce73d21	-0.02822739
44	0xbf124fc7	-0.5715298
45	0xbdc3c4c1	-0.09559012
46	0x3e9514e7	0.2911751
47	0xbc1b9dd3	-0.009498077
48	0xbe9a14cc	-0.30093992
49	0x3df94bed	0.12172685
50	0x3bd23846	0.0064153997
51	0x3e46d48f	0.19417022
52	0x3f9c88c1	1.2229234
53	0xbf03db76	-0.51506746
54	0x3e84f803	0.25970468
55	0x3cae08ac	0.02124437
56	0x3ec4e71a	0.38457566
57	0x3ef3a13f	0.47583959
58	0x3da96856	0.082718536
59	0x3e1f99b8	0.15585983
60	0xbe223cc9	-0.158435
61	0x3df137e1	0.11778236
62	0x3aa6b9e4	0.0012720195
63	0xbd17fcea	-0.037106432
64	0xbdb8a683	-0.090161346
65	0xbde83e1c	-0.113399714
66	0x3d21371c	0.039359197
67	0xbf1c6058	-0.6108451
68	0x3c43d4e8	0.011952616
69	0x3f10f1da	0.56619036
70	0xbdf12648	-0.1177488
71	0xbf39d8b5	-0.72596294
72	0x3e190fb8	0.14947402
73	0x3ed36422	0.41287333
74	0x3d584ee4	0.05280961
75	0x3debbd37	0.11510699
76	0xbe01383b	-0.12619106
77	0xbe993aec	-0.29927766
78	0xbeb3f348	-0.35146546
79	0x3f116803	0.56799334
80	0xbe7420b5	-0.23840602
81	0xbe216fd7	-0.1576532
82	0xbe682f7b	-0.22674362
83	0x3c48534e	0.012226893
84	0xbe53bb49	-0.20676912
85	0x3e92ccdf	0.2867193
86	0x3e0c4b96	0.13700709
87	0x3dc72531	0.097238906
88	0x3f8f1458	1.1178083
89	0xbf05b067	-0.52222294
90	0xbdca934a	-0.098913744
91	0x3e5e4f44	0.21709925
92	0x3f543ea6	0.82908094
93	0xbf32610f	-0.6967935
94	0xbd735b0e	-0.05941301
95	0xbf251a54	-0.644933
96	0xbf2e27c7	-0.68029445
97	0x3ef3a2ae	0.47585052
98	0x3e062747	0.1310092
99	0xbe2843b1	-0.16432072
100	0xbdd86177	-0.10565465
101	0xbe259a0a	-0.16172042
102	0x3c67700b	0.014125834
103	0x3e263348	0.162305
104	0x3c7ae3b4	0.015313078
105	0xbb9d345d	-0.004797502
106	0x3cd5dd38	0.026106462
107	0xbe032367	-0.12806474
108	0x3c5835fe	0.0131964665
109	0xbd215da9	-0.039395962
110	0xbf388771	-0.7208167
111	0x3f47d675	0.7806161
112	0x3ef5cfdc	0.48010147
113	0xbf12d4b0	-0.57355785
114	0xbe6a6ee3	-0.22893862
115	0x3f2e43bf	0.6807212
116	0x3e2f29e0	0.17105818
117	0x3e825038	0.25451827
118	0xbc006d9d	-0.007838634
119	0xbf9afc4c	-1.2108245
120	0xbe8ceda5	-0.27525058
121	0xbd74217f	-0.059602257
122	0xbe382cb9	-0.1798581
123	0x3cf21367	0.029550267
124	0x3d354fd6	0.04426559
125	0xbcfd5dc7	-0.030928506
126	0x3e36e9d6	0.17862639
127	0x3d23f232	0.040025897
128	0xbd4c1254	-0.049822167
129	0xbde2e5a1	-0.110789545
130	0xbda0976c	-0.078413814
131	0x3da82e91	0.08212007
132	0xbdf5f362	-0.12009312
133	0x3e0fba1d	0.1403584
134	0xbe0d2357	-0.13783012
135	0x3e9ad590	0.3024106
136	0x3ea5d253	0.32387027
137	0xbd56e9db	-0.052469116
138	0xbf0626cd	-0.52402955
139	0x3dc96a54	0.098347336
140	0x3f250129	0.64454895
141	0xbf29f7f6	-0.66393983
142	0x3e7ee643	0.24892525
143	0xbd36d50c	-0.04463677
144	0xbf6cf9ff	-0.92568964
145	0x3e1993fa	0.14997855
146	0xbd52ee3c	-0.05149673
147	0xbcec96a6	-0.028880429
148	0xbd918978	-0.07106298
149	0xbe14e693	-0.14541082
150	0x3ebe95d5	0.37223688
151	0xbe598758	-0.21243036
152	0x3e1be552	0.15224198
153	0xbdd0bcb8	-0.10192245
154	0xbeb13ba5	-0.34615818
155	0xbe0a82fc	-0.13526529
156	0xbc243b7b	-0.010023947
157	0x3f778bfb	0.9669797
158	0x3e941e8f	0.28929564
159	0x3e918e6c	0.28428972
160	0xbe2d73e1	-0.16938736
161	0xbe03e2b9	-0.12879457
162	0xbf618943	-0.8810007
163	0x3f56692b	0.83754224
164	0xbe13b3ec	-0.14424103
165	0xbeab3fc2	-0.3344708
166	0xbb5df16d	-0.0033865825
167	0x3daa3ae1	0.083120115
168	0xbe20a387	-0.1568738
169	0x3d41d73a	0.047324397
170	0xbddb39ce	-0.10704385
171	0xbe6c8c82	-0.23100474
172	0xbc229a7a	-0.009924525
173	0x3d4f642f	0.050632652
174	0xbc0918ad	-0.0083677
175	0x3e793f18	0.24340475
176	0x3e27c9d3	0.16385584
177	0xbed5310a	-0.41638976
178	0xbd8a155b	-0.067423545
179	0x3e217976	0.1576899
180	0x3eeaf9b3	0.4589363
181	0xbdb3324a	-0.08749826
182	0xbe3205e7	-0.17385064
183	0x3d1257d9	0.03572831
184	0x400292a5	2.0402005
185	0x3f9611cc	1.1724181
186	0xbb2fd51d	-0.0026829906
187	0xbdd5f5c8	-0.1044727
188	0x3e4e3380	0.20136833
189	0x3bf962fb	0.0076106763
190	0x3e17d016	0.14825472
191	0xbe2845f9	-0.16432942
192	0x3e31c896	0.17361674
193	0xbd8d8e95	-0.06911961
194	0xbd5c226f	-0.053743776
195	0xbb8d6b5d	-0.004315777
196	0xbd851b1a	-0.0649931
197	0x3ddc6682	0.10761739
198	0x3e928426	0.28616446
199	0x3f3a57f0	0.7279043
200	0xbefc6af4	-0.4930035
201	0xbf2ca62a	-0.67441046
202	0xbea9a033	-0.33130035
203	0x3f0297f1	0.51013094
204	0xbef31381	-0.47475818
205	0xbf2b5df4	-0.66940236
206	0xbf3e94cd	-0.744458
207	0x3e911444	0.28335774
208	0xbdd8ffa0	-0.105956316
209	0x3eec4fd5	0.46154657
210	0x3e7f6ea6	0.24944553
211	0xbe1893e0	-0.1490016
212	0x3d8132c6	0.063085124
213	0x3d57c441	0.052677397
214	0x3deff2e5	0.1171625
215	0xbe25f6b2	-0.16207388
216	0xbc5cf752	-0.0134867
217	0xbbcb9776	-0.006213124
218	0xbe177363	-0.1479011
219	0xbe100188	-0.14063084
220	0xbf261517	-0.6487593
221	0xbe7d5dbe	-0.24742791
222	0x3e3ba5f8	0.18325031
223	0xbd1c5555	-0.038167316
224	0xbf408adc	-0.7521188
225	0xbebd2964	-0.3694564
226	0xbdc0069a	-0.09376259
227	0x3e39ed1c	0.18156856
228	0x3fc786c5	1.5588003
229	0x3f0f5065	0.5598205
230	0x3e8b2de9	0.27183464
231	0xbe5a545d	-0.21321245
232	0xbc4e56fd	-0.012593982
233	0x3d99d816	0.07511918
234	0xbc452e33	-0.0120349405
235	0x3de308fd	0.11085699
236	0x3e1c9e1e	0.15294692
237	0x3b5c3309	0.0033599755
238	0xbde8c317	-0.113653354
239	0xbc89377c	-0.01675009
240	0xbdd29ab9	-0.10283417
241	0xbd94d7cc	-0.072677225
242	0xbd1aa590	-0.03775555
243	0x3ec68241	0.3877125
244	0xbf6e7e59	-0.9316154
245	0xbeac6eec	-0.33678377
246	0xbe208557	-0.15675865
247	0xbd4dc8c4	-0.050240293
248	0xbd8032c9	-0.062596865
249	0xbf053ce5	-0.5204604
250	0xbeab7bf3	-0.33493003
251	0xbd82d1ec	-0.06387696
252	0xbcb903cb	-0.022584816
253	0xbd3e5e3f	-0.0464766
254	0xbebfc2ef	-0.3745341
255	0xbeccc693	-0.3999525

_policy.0.bias f4 [128]
0	0xbda14d8e	-0.078761205
1	0xbce11ce7	-0.027479602
2	0xbe41f655	-0.18941624
3	0xbe4ba37c	-0.19886583
4	0xbd15a813	-0.03653724
5	0xbe07289e	-0.13199088
6	0x3d021e79	0.031767342
7	0xbb8d5485	-0.004313054
8	0xbd1c86a7	-0.038214352
9	0x3e31ae63	0.1735168
10	0x3e22624d	0.15857811
11	0x3e35ff68	0.17773211
12	0xbe5451c6	-0.20734319
13	0xbe72cdc9	-0.23711313
14	0xbb2fbeab	-0.0026816528
15	0xbdedb9e0	-0.116077185
16	0xbc1efa0f	-0.009703173
17	0x3d21f595	0.039540846
18	0xbe3eede3	-0.18645434
19	0x3d0aaf09	0.033858333
20	0x3da7e541	0.081980236
21	0xbd32fea6	-0.043699883
22	0xbe8d4be9	-0.27596977
23	0x3e6c04ba	0.23048678
24	0xbda09425	-0.07840756
25	0xbd376807	-0.044776943
26	0xbc78a26e	-0.015175445
27	0xbe00b1dd	-0.1256785
28	0x3db0486a	0.08607562
29	0xbe53af10	-0.2067225
30	0xbe75f21f	-0.24018143
31	0xbe297dea	-0.16551939
32	0x3de764d2	0.11298527
33	0xbde58989	-0.112078734
34	0x3d534a15	0.051584322
35	0x3d947495	0.07248799
36	0x3e5451b0	0.20734286
37	0xbe477bb0	-0.19480777
38	0xbe27414b	-0.16333501
39	0xbc719bfd	-0.014746663
40	0xbcfc3b1b	-0.030789902
41	0x3dc78324	0.0974181
42	0xbe553087	-0.20819293
43	0xbda028b6	-0.07820265
44	0xbbf9ef63	-0.007627414
45	0xbe04efc6	-0.12982091
46	0x3e3ba53c	0.1832475
47	0x3dc64f57	0.096831016
48	0xbdf5b706	-0.119977996
49	0xbe3c8b9e	-0.18412635
50	0xbeb3f313	-0.35146388
51	0xbe2e3ac3	-0.17014603
52	0xbe9e490f	-0.30915114
53	0x3e5144b8	0.2043637
54	0xbe842bc3	-0.25814638
55	0xbdcac97b	-0.099017106
56	0xbd5e7dd8	-0.054319233
57	0x3d9c3296	0.07626836
58	0x3eb70c77	0.35751697
59	0xbd9bf54c	-0.07615146
60	0xbd311eda	-0.043242313
61	0xbcb66ed5	-0.022269646
62	0xbe996281	-0.29957965
63	0xbda0a515	-0.07843987
64	0xbdee30fc	-0.11630437
65	0xbdb96914	-0.09053245
66	0x3d418385	0.047244567
67	0xbda861ac	-0.082217544
68	0xbdcf359e	-0.101176485
69	0xbe3d0318	-0.18458211
70	0xbdaaf94e	-0.08348332
71	0xbd97d3f7	-0.07413476
72	0xbe49ef1d	-0.1972012
73	0x3e0741ac	0.13208646
74	0xbe156dff	-0.14592741
75	0x3de2b651	0.1106993
76	0xbdd9c106	-0.106325194
77	0xbdfd2dd2	-0.12362255
78	0xbe451787	-0.19247256
79	0xbdfa9b55	-0.122366585
80	0x3c15daaa	0.009146372
81	0xbc7b215f	-0.0153277805
82	0x3ccea735	0.025226215
83	0xbe7b6ac3	-0.24552445
84	0xbe000c6c	-0.12504739
85	0xbc81351c	-0.015772395
86	0xbe26ca8a	-0.162882
87	0xbd5cb92e	-0.05388754
88	0xbdfd0f45	-0.12356428
89	0xbe8787e9	-0.2647088
90	0x3d973598	0.07383269
91	0xbe760efe	-0.24029157
92	0x3db2f606	0.087383315
93	0xbe7fc0e0	-0.2497592
94	0xbe641830	-0.22274852
95	0x3d308d63	0.043103587
96	0xbea0427d	-0.31300727
97	0xbe1bd9bc	-0.15219778
98	0xbde316b9	-0.110883184
99	0xbe325bbd	-0.17417808
100	0xbe8fc408	-0.28079247
101	0xbe27adee	-0.16374943
102	0xbe0fb762	-0.14034799
103	0xbd89d8d5	-0.067308106
104	0x3c811984	0.015759237
105	0xbcb303e4	-0.021852441
106	0xbe6d3e71	-0.23168351
107	0xbe74b483	-0.23896985
108	0xbca1e8c6	-0.019764315
109	0x3e24e9d8	0.1610483
110	0x3e100373	0.14063816
111	0xbe6595d2	-0.22420433
112	0xbe484b50	-0.1955998
113	0xbdc289a2	-0.094989076
114	0xbe7f1440	-0.24910069
115	0x3e13e1d7	0.1444162
116	0xbcc7eb3d	-0.024404163
117	0x3d3135ec	0.043264315
118	0xbd750ac3	-0.059824716
119	0x3e482077	0.19543634
120	0x3da6f690	0.08152497
121	0xbdb6b26e	-0.089207515
122	0x3d83a8fe	0.06428717
123	0xbe23f65b	-0.16011946
124	0x3d14b20b	0.036302608
125	0xbe61162a	-0.21981111
126	0xbe5bccf7	-0.21464907
127	0xbe87941d	-0.2648019

_policy.2.weight f4 [128, 128]
0	0x3e42c714	0.19021255
1	0xbcd8e212	-0.026474986
2	0xbe033a26	-0.1281515
3	0xbe69b762	-0.22823861
4	0x3ea2c6c5	0.31792274
5	0xbf0e7946	-0.556538
6	0x3db08a61	0.08620144
7	0x3e003394	0.12519675
8	0x3cd0663f	0.02543938
9	0xbf102582	-0.5630723
10	0x3a8be1cb	0.001067215
11	0xbe66d12a	-0.22540727
12	0x3cbe0a14	0.023198165
13	0xbdfa69a4	-0.122271806
14	0xbef2a0c0	-0.47388268
15	0xbdc66211	-0.096866734
16	0xbcc06743	-0.023486739
17	0x3d3524e5	0.04422464
18	0xbe15f92a	-0.1464583
19	0x3dae633d	0.08515022
20	0x3e1bce9b	0.15215532
21	0xbd8ff5a5	-0.07029275
22	0x3dc6c3ad	0.09705291
23	0xbea7dbbf	-0.3278484
24	0xbe9b15b9	-0.3029001
25	0xbb18c00a	-0.0023307824
26	0xbe6ffa26	-0.23435268
27	0x3e816ddf	0.25279137
28	0x3e85cfa2	0.26134974
29	0x3d5e08ee	0.054207735
30	0x3d6c5dcc	0.05770664
31	0xbeef0e91	-0.466908
32	0x3ddbd2e0	0.107335806
33	0xbb68cd49	-0.003552275
34	0x3e4af93d	0.1982164
35	0xbc347aab	-0.011015574
36	0x3d8d34a3	0.06894805
37	0xbe9e6262	-0.30934435
38	0x3dfee248	0.124455035
39	0x3d9e5012	0.07730116
40	0xbefd8251	-0.49513486
41	0xbe4ed398	-0.20197904
42	0x3def4f4b	0.11685046
43	0x3c334696	0.010942122
44	0x3e4ae507	0.1981393
45	0xbe4c4bd0	-0.19950795
46	0x3d40f5bc	0.04710935
47	0xbdb63916	-0.08897607
48	0xbd3fcdc4	-0.046827093
49	0xbf248cdf	-0.6427745
50	0xbe86d3ce	-0.2633347
51	0x3d37cb40	0.04487157
52	0x3f0a20b7	0.5395617
53	0x3ec02289	0.37526348
54	0xbe9151f7	-0.28382847
55	0xbe7be34e	-0.24598429
56	0x3e954c90	0.29159975
57	0x3e0532ca	0.13007656
58	0xbddf1487	-0.10892587
59	0x3e311fe2	0.17297319
60	0x3e81d1a7	0.25355265
61	0xbd0842a0	-0.033266664
62	0xbeb5f8e7	-0.3554146
63	0x3e168f37	0.1470307
64	0xbc1087a2	-0.0088214
65	0x3e771264	0.24128109
66	0x3e0e55e2	0.13899949
67	0x3b330c62	0.0027320613
68	0x3d468c82	0.048473842
69	0xbe88fd93	-0.26755962
70	0xbbf632b7	-0.00751337
71	0xbdabf826	-0.0839694
72	0xbdadcd3c	-0.08486411
73	0xbcc53a1b	-0.024075558
74	0xbde20243	-0.11035588
75	0xbe8dd04f	-0.2769799
76	0xbe31116f	-0.17291807
77	0xbd6bf990	-0.05761105
78	0xbe5b35fd	-0.21407314
79	0x3e4698f3	0.19394283
80	0x3e8acf29	0.27111176
81	0x3db114f7	0.08646577
82	0x3d5477a2	0.051871903
83	0xbed4999a	-0.4152344
84	0xbed0a776	-0.40752763
85	0xbdcc66d2	-0.09980549
86	0x3cfbe9c9	0.030751126
87	0xbc952169	-0.018204408
88	0xbdb6b820	-0.08921838
89	0x3d748a40	0.059702158
90	0x3db77669	0.08958132
91	0x3e88761e	0.26652616
92	0x3c1fa877	0.009744755
93	0xbf26813f	-0.65040964
94	0x3ce9ee7c	0.028556101
95	0x3dacb34c	0.08432636
96	0x3c368a89	0.011141428
97	0x3d808aaa	0.06276448
98	0xbc8e9c0a	-0.01740839
99	0x3e16d372	0.14729097
100	0xbe6158d5	-0.22006543
101	0x3d86de7f	0.065854065
102	0x3d94394b	0.0723749
103	0x3d828b6c	0.06374249
104	0xbe26c3af	-0.16285585
105	0xbe4af159	-0.1981863
106	0x3e1ce24b	0.15320699
107	0xbdad9ba3	-0.08476951
108	0x3da44a8b	0.080220304
109	0xbe92c923	-0.2866908
110	0xbf0dbc6b	-0.5536563
111	0xbdd3bd75	-0.103388704
112	0xbd57414b	-0.052552503
113	0x3e5578cd	0.20846863
114	0xbe4fd721	-0.20296909
115	0x3e29d15a	0.16583768
116	0x3d5dd527	0.054158356
117	0x3d13d9cc	0.03609638
118	0xbe1b2d19	-0.15153922
119	0xbe09fe32	-0.13475874
120	0xbc2508a8	-0.010072865
121	0x3da27ce1	0.07933975
122	0x3d6a1d7e	0.057157032
123	0xbf033db0	-0.51266
124	0x3c5452a9	0.012959161
125	0xbee0a782	-0.43877798
126	0x3c115c8e	0.008872164
127	0x3e4cd383	0.2000256
128	0xbd7b84ae	-0.06140583
129	0xbd74fa50	-0.05980903
130	0xbd640084	-0.055664554
131	0xbd3cef25	-0.046126503
132	0xbb18410c	-0.002323213
133	0xbd4697a1	-0.04848445
134	0x3caf5ec0	0.021407485
135	0x3d2ead3e	0.042645685
136	0xbc1bd453	-0.009511071
137	0xbc19b1a2	-0.00938073
138	0xbd83d7b6	-0.06437628
139	0xbdf1988d	-0.11796675
140	0xbbdd58aa	-0.0067549543
141	0xbd94ec44	-0.072716266
142	0xbdde959c	-0.108683795
143	0xbd7cc999	-0.061715696
144	0xbdb383aa	-0.08765347
145	0xbdf5cacd	-0.12001572
146	0xbda757e1	-0.081710584
147	0x3d2fabc9	0.042888436
148	0xbe006d66	-0.12541732
149	0x3bc59b8c	0.0060305055
150	0xbdadfda5	-0.084956445
151	0x3cbbe6a9	0.022937136
152	0xbd062771	-0.032752458
153	0xbd1b4e1f	-0.0379163
154	0xbcdde21e	-0.02708536
155	0xbd9ec613	-0.077526234
156	0xbdc8301b	-0.097748004
157	0xbd2f3348	-0.042773515
158	0xbbf15c11	-0.0073657115
159	0xbd974304	-0.07385829
160	0xbd9774a6	-0.07395296
161	0xbd6fdda6	-0.05856099
162	0xbd357746	-0.0443032
163	0xbd5dea38	-0.054178447
164	0x3b97fd40	0.004638344
165	0xbc9b6250	-0.018967777
166	0xbd914b69	-0.070944615
167	0xbd9594da	-0.07303782
168	0x3da0c32f	0.07849728
169	0x3ac1f19d	0.0014796738
170	0x3b1a1a7d	0.0023514323
171	0x3c1c9c90	0.009558812
172	0x3d71bd4e	0.059018426
173	0xbdda0b9e	-0.10646747
174	0xbd8a4f4d	-0.06753407
175	0xbded33e9	-0.11582167
176	0xbdd58de3	-0.10427453
177	0xbd8e2ba2	-0.06941916
178	0xbceb803f	-0.028747676
179	0xbdea56bf	-0.11442327
180	0xbc669a90	-0.0140749365
181	0x3b260238	0.0025330912
182	0xbde9ca44	-0.11415532
183	0xbc16e551	-0.009209947
184	0xbc7f382d	-0.015577358
185	0xbd9f2beb	-0.077720486
186	0x3d4a0fa5	0.049331326
187	0xbde00fc0	-0.10940504
188	0x3d3ec93e	0.04657864
189	0x3c2e01dd	0.010620561
190	0xbd60a9e7	-0.05484953
191	0xbd0f2468	-0.03494683
192	0x3d35fd05	0.04443075
193	0x3c45e6c5	0.0120789455
194	0xbda8b45c	-0.08237526
195	0xbd0f74a9	-0.035023365
196	0xbcc6a7a8	-0.024249867
197	0x3d45d53a	0.04829905
198	0xbd9ecfb3	-0.07754459
199	0xbd0c0083	-0.034180176
200	0x3d212767	0.039344218
201	0xbda2fc0a	-0.07958229
202	0x3b0e0570	0.0021670721
203	0xbd9e89d8	-0.07741135
204	0xbd9e378d	-0.07725439
205	0xbdfc31f6	-0.12314217
206	0xbce018fe	-0.027355667
207	0xbd06a22e	-0.03286951
208	0xbd36c646	-0.044622682
209	0xbba4f2e5	-0.005033838
210	0xb99c147c	-0.000297699
211	0xbd81b82b	-0.063339554
212	0x3d12f47e	0.035877697
213	0x3d0f1654	0.034933403
214	0xbc356bf1	-0.0110730985
215	0xbd0ce7d2	-0.03440077
216	0x3bf41ba9	0.0074495864
217	0x3cda9834	0.026683904
218	0xbcc227b5	-0.023700574
219	0xbdd9f2e5	-0.106420316
220	0x3beef041	0.007291824
221	0xbd1bb3f7	-0.038013425
222	0x3d3e4088	0.04644826
223	0x3cacf722	0.021113936
224	0x3c807a12	0.015683208
225	0xbdd46a07	-0.103717856
226	0xbdbbaea5	-0.0916417
227	0xbe020080	-0.12695503
228	0xbdefa42e	-0.11701237
229	0xbd13830d	-0.03601365
230	0x3d2bdcf6	0.04195877
231	0xbc55bb69	-0.01304517
232	0xbdc5fd32	-0.09667434
233	0x3c09f39e	0.008419899
234	0xbdca586d	-0.09880147
235	0x3d14febf	0.036375757
236	0x3d500d43	0.050793897
237	0xbcdaba00	-0.02670002
238	0x3bcfede0	0.0063454956
239	0xbce570b8	-0.02800785
240	0xbd1dbc06	-0.03850939
241	0x3d324d0a	0.0435305
242	0x3c853c39	0.016264068
243	0x3cf6e67a	0.030139197
244	0xbc1eedf4	-0.009700287
245	0xbd99c48e	-0.07508193
246	0x3cd30142	0.025757436
247	0xbe06cd50	-0.13164258
248	0x3d4b8fa6	0.04969754
249	0xbc9fa7c7	-0.019489182
250	0xbddca094	-0.10772815
251	0xbdccb408	-0.09995276
252	0xbd425b0b	-0.047450107
253	0x3d485177	0.048905816
254	0x3c99269d	0.01869517
255	0xbd7396fe	-0.05947017

_policy.2.bias f4 [128]
0	0xbe226ae3	-0.15861087
1	0xbe2bf1fc	-0.16791528
2	0xbd864998	-0.06557006
3	0x3d6a4a94	0.05720003
4	0xbd2a28f0	-0.041542947
5	0x3ddcb891	0.10777391
6	0x3ccc639c	0.024949841
7	0x3d679b78	0.05654475
8	0xbd6f9780	-0.05849409
9	0x3da4d2ce	0.0804802
10	0xbd73f1cc	-0.059556767
11	0x3d57200e	0.052520804
12	0x3cc1643d	0.023607368
13	0x3d9e1ceb	0.077203594
14	0x3daa7a3d	0.08324096
15	0x3d6bcec5	0.057570238
16	0x3d5a3b17	0.05327901
17	0x3e240e5a	0.160211
18	0x3e2de165	0.16980512
19	0x3c7a78e9	0.015287616
20	0xbd0ae977	-0.033914056
21	0xbd60a911	-0.054848734
22	0xbbb4fd4e	-0.0055233603
23	0x3cd7d709	0.026347654
24	0xbda66e20	-0.081264734
25	0xbc740096	-0.014892718
26	0x3db272b1	0.08713282
27	0xbe10f195	-0.14154656
28	0xbe28d7d2	-0.16488579
29	0x3e02d338	0.12775886
30	0xbdfc527d	-0.12320421
31	0xbd57cb59	-0.05268416
32	0xbdaf958d	-0.085734464
33	0x3bca3bfe	0.0061717024
34	0xbd3c4fc5	-0.04597451
35	0xbd5b31f0	-0.05351442
36	0xbd51f7d9	-0.051261757
37	0xbd387eba	-0.04504273
38	0x3c1365ae	0.00899641
39	0xbe1ef253	-0.15522127
40	0x3e020ee0	0.12700987
41	0xbe412235	-0.18860705
42	0x3ce3ea1f	0.027821599
43	0xbd727041	-0.059189085
44	0xbd86796b	-0.065661274
45	0x3da462a4	0.08026627
46	0x3a33286a	0.000683433
47	0xbdde4c8a	-0.108544424
48	0x3d29ece8	0.041485697
49	0xbde30fcc	-0.110869974
50	0xbd33a14d	-0.043855
51	0x3dc21924	0.094774514
52	0x3d8abc9f	0.06774258
53	0xbdc87938	-0.09788746
54	0x3d1625e8	0.036657244
55	0x39a1ddac	0.0003087347
56	0xbc2dac08	-0.0106000975
57	0xbe12347c	-0.14277834
58	0x3bf2be65	0.0074079507
59	0xbe2f8813	-0.17141752
60	0xbd0655b0	-0.03279656
61	0x3d942db0	0.07235277
62	0xbdf91bc2	-0.121634975
63	0xbb9e7a9d	-0.004836394
64	0xbdaad5ce	-0.08341561
65	0xbd9ddd0e	-0.077081785
66	0x3dad6c8b	0.084679686
67	0x3c6d339c	0.014477637
68	0xbdf4109b	-0.1191723
69	0xbe0ed1ea	-0.13947263
70	0xbdd090b9	-0.10183854
71	0xbdf10470	-0.117684245
72	0xbddb69d4	-0.107135445
73	0xbe1bfc7e	-0.15233037
74	0x3d48962c	0.04897134
75	0xbd85ab13	-0.065267704
76	0x3dc1d2e5	0.09464053
77	0xbde8015a	-0.11328383
78	0x3c8825fb	0.016619673
79	0xbc807078	-0.01567863
80	0xbd074230	-0.033022106
81	0xbcefd2f8	-0.029275402
82	0x3d18b4e2	0.03728188
83	0x3d3925e6	0.04520216
84	0xbd26e52d	-0.040745903
85	0x3dcd3e00	0.10021591
86	0xbd3206a7	-0.043463375
87	0xbdd3cfae	-0.10342346
88	0xbd7494a9	-0.059712086
89	0x3d9e7a9a	0.07738228
90	0xbe21a5b4	-0.15785867
91	0x3d180bf4	0.037120774
92	0xbd146951	-0.03623325
93	0x3d4bad7e	0.049726002
94	0xbe5ef504	-0.21773154
95	0xbe0720fe	-0.1319618
96	0x3b895c30	0.004191898
97	0x3b8d4658	0.004311364
98	0x3ca7c1d5	0.020478169
99	0xbdd59a6a	-0.10429843
100	0xbe151242	-0.14557746
101	0xbd4e8c12	-0.05042655
102	0x3b963d7c	0.004584966
103	0x3dd9b05d	0.10629342
104	0xbd16de4b	-0.03683309
105	0x3d855eee	0.06512247
106	0xbe1d321e	-0.1535115
107	0xbd059e0f	-0.03262144
108	0xbe36a9bb	-0.17838185
109	0xbdebbf70	-0.11511123
110	0xbd86046b	-0.065438114
111	0x3d15a3e7	0.036533263
112	0x3d6a2ac5	0.057169694
113	0x3dfecbdc	0.12441227
114	0xbdfdcb5e	-0.12392305
115	0x3d793f26	0.06085124
116	0xbd9fa338	-0.077948034
117	0x3ca46dc7	0.020071877
118	0xbde67eaa	-0.11254628
119	0x3da055b9	0.0782885
120	0xbd9dc51c	-0.07703611
121	0xbdf5b19f	-0.11996769
122	0xbbd48551	-0.006485619
123	0xbdaff31a	-0.0859129
124	0xbe079a37	-0.13242422
125	0xbc8b6f89	-0.017020958
126	0xbdbdf896	-0.0927593
127	0x3dafbe24	0.08581188

_policy.4.weight f4 [128, 128]
0	0x3dfb947b	0.1228418
1	0xbd464b54	-0.048411682
2	0xbdc6c8cc	-0.09706268
3	0xbd17b2b5	-0.037035663
4	0x3db24701	0.08704949
5	0xbb9655b4	-0.0045878533
6	0x3e14edad	0.14543791
7	0x3e8a037d	0.26955786
8	0xbcef1360	-0.029184043
9	0x3e3f881d	0.18704267
10	0xbd9c231d	-0.07623885
11	0xbdd0123b	-0.10159727
12	0xbe1f0749	-0.15530123
13	0x3e0e7177	0.13910471
14	0xbe255c52	-0.16148499
15	0x3d991ea5	0.07476548
16	0xbe5ef486	-0.21772966
17	0x3dbfcf80	0.09365749
18	0xbe8f2588	-0.27958322
19	0xbdc02411	-0.09381879
20	0xbde7bbe3	-0.113151334
21	0xbeaa29b0	-0.3323493
22	0xbd929420	-0.07157159
23	0x3e0ea8fc	0.1393165
24	0x3d1af407	0.03783038
25	0xbde6f0ec	-0.11276421
26	0xbcd08138	-0.025452241
27	0xbd737d8a	-0.059445895
28	0x3d6e743b	0.058216315
29	0xbe341b8c	-0.17588633
30	0x3e00765d	0.12545152
31	0xbf0a6ca2	-0.5407201
32	0xbe9eff95	-0.3105437
33	0xbd5af039	-0.05345175
34	0x3e20c747	0.15701018
35	0xbe521a9a	-0.2051796
36	0xbba12d3e	-0.0049187234
37	0xbda2cd95	-0.07949368
38	0xbdbf3cdc	-0.0933778
39	0x3cbb6908	0.022877231
40	0xbeca25b1	-0.3948188
41	0xbe0d1466	-0.13777313
42	0x3d7ec732	0.062201686
43	0xbe660e98	-0.22466505
44	0xbe26d472	-0.16291979
45	0x3cecf6f1	0.028926345
46	0xbca0f158	-0.019646332
47	0xbdc1c774	-0.09461871
48	0x3e06e28a	0.13172355
49	0x3d3ee02a	0.0466005
50	0xbe430f14	-0.1904872
51	0xbc745349	-0.014912435
52	0x3e00f04c	0.12591666
53	0xbde30958	-0.110857666
54	0xbeaf01bd	-0.34181014
55	0x3d36bda1	0.044614438
56	0x3dc92dfb	0.09823223
57	0xbd0bd74a	-0.034140863
58	0x3e44ecdb	0.19230978
59	0x3dc3b698	0.09556311
60	0xbd0a281a	-0.03372965
61	0xbd9b17a9	-0.07572872
62	0xbea0957b	-0.31364045
63	0x3c498a4c	0.012301039
64	0x3c7b14e5	0.015324806
65	0xbed6dc41	-0.41964915
66	0xbe9d2d9a	-0.30698854
67	0xbea4a881	-0.32159808
68	0xbd14c95e	-0.03632485
69	0xbe8cff0d	-0.27538338
70	0xbcd8b795	-0.026454726
71	0xbe8c027c	-0.27345645
72	0xba9dec4e	-0.0012048574
73	0xbd9a2af9	-0.07527728
74	0xbe4f2809	-0.20230116
75	0x3e2563fa	0.1615142
76	0x3eb12596	0.34598988
77	0x3e03a662	0.12856439
78	0xbe321c4f	-0.17393611
79	0xbf06b9f5	-0.526275
80	0xbf306d3d	-0.68916684
81	0x3ca9d99f	0.020733653
82	0xbe3976d2	-0.18111733
83	0x3e452bec	0.19255036
84	0xbd85bc2c	-0.065300316
85	0xbd8d5648	-0.069012225
86	0xbe807f95	-0.25097337
87	0xbf030449	-0.51178414
88	0x3d3315df	0.04372203
89	0xbe16a422	-0.14711049
90	0x3ea1313c	0.31482875
91	0xbe15701c	-0.14593548
92	0x3e502321	0.203259
93	0xbe12e19b	-0.14343874
94	0xbec62dbf	-0.38706776
95	0x3d3b293b	0.045693617
96	0x3eb07078	0.34460807
97	0xbe25a475	-0.16176017
98	0xbe304cd7	-0.17216812
99	0x3c7cc11a	0.015426898
100	0xbf07a4ca	-0.52985823
101	0x3e84f333	0.25966796
102	0x3e5ae055	0.21374638
103	0xbda59362	-0.08084752
104	0xbd451558	-0.048116058
105	0x3eb98cbf	0.36240193
106	0xbe320ef3	-0.17388515
107	0x3d0934be	0.033497564
108	0x3dcf934f	0.10135519
109	0x3e95b63c	0.29240596
110	0x3c723d9e	0.0147851985
111	0x3d853f40	0.065062046
112	0xbe708bab	-0.23490779
113	0xbe89fc35	-0.2695023
114	0x3e926eed	0.28600255
115	0xbda89f02	-0.08233453
116	0xbe9f1cf6	-0.31076783
117	0xbe6e6871	-0.23282029
118	0x3e5ce558	0.21571863
119	0x3b26238b	0.0025350775
120	0x3daa3591	0.08310998
121	0xbe82c8b2	-0.25543743
122	0xbdf746b2	-0.12074031
123	0xbf0dcaa4	-0.5538733
124	0xbcdb9b7e	-0.026807543
125	0x3eae7a61	0.34077743
126	0xbdb694d4	-0.089151055
127	0x3e2780da	0.16357747
128	0xbe308efb	-0.17242043
129	0x3d6d1cc2	0.057888754
130	0xbe3228c0	-0.17398357
131	0x3d87782a	0.06614716
132	0x3d902180	0.070376396
133	0x3e9ba847	0.30401823
134	0x3d2b5310	0.04182726
135	0xbeb767ae	-0.3582129
136	0x3ca7c85e	0.020481285
137	0x3aee00ef	0.0018158237
138	0x3d9c9567	0.07645684
139	0xbd729350	-0.05922252
140	0xbe11733c	-0.14204115
141	0x3e9b3a86	0.30318087
142	0x3dd25a7a	0.10271163
143	0xbe4aa417	-0.19789158
144	0xbe0692ee	-0.13141987
145	0x3e37d2a8	0.17951453
146	0x3e8abd3e	0.27097505
147	0x3be3d1a1	0.00695248
148	0xbf147555	-0.57991534
149	0x3df3ee34	0.11910668
150	0x3d1d78f4	0.038445428
151	0xbeb3a1cd	-0.35084382
152	0xbe6ed6f8	-0.23324192
153	0x3ee8f8c8	0.45502305
154	0x3e29826c	0.16553658
155	0x3d8a8c13	0.06764998
156	0xbc3a4680	-0.011369348
157	0x3d44691b	0.0479518
158	0x3e270fbf	0.163146
159	0x3ddaa2f7	0.10675614
160	0x3b91cdaf	0.004449568
161	0xbcb3ea9a	-0.021962453
162	0xbe717f3b	-0.23583691
163	0xbdc91806	-0.09819035
164	0xbd7bacd7	-0.06144413
165	0xbe7b3fff	-0.24536131
166	0xbcf70eec	-0.030158482
167	0xbd14dfe4	-0.03634633
168	0xbd840abe	-0.064473614
169	0xbea2bc9c	-0.31784523
170	0xbea5949d	-0.32339945
171	0x3e349741	0.17635824
172	0x3d12b51b	0.035817247
173	0xbda53b68	-0.080679715
174	0xbf8043b2	-1.0020659
175	0x3e6e2f22	0.23260167
176	0x3e3be5c7	0.18349372
177	0xbd68c68d	-0.056829978
178	0xbd203981	-0.03911734
179	0xbe417777	-0.18893228
180	0xbe9e2f1a	-0.3089531
181	0x3e21eec0	0.15813732
182	0xbe583db6	-0.21117291
183	0x3eebf60d	0.4608616
184	0xbe82f85f	-0.25580117
185	0xbd34587b	-0.044029694
186	0xbbf4bcb1	-0.007468783
187	0xbda68eab	-0.081326805
188	0x3e4edbf9	0.202011
189	0xbe873694	-0.26408827
190	0xbef2c3e4	-0.47415078
191	0xbd8a1e6a	-0.06744082
192	0xbdb1334f	-0.086523645
193	0xbbed97ee	-0.0072507774
194	0xbe80e152	-0.25171906
195	0x3b1e9ae4	0.0024201209
196	0x3e38b5a7	0.18038045
197	0x3d4b9a09	0.049707446
198	0x3d205e98	0.03915271
199	0xbeec292d	-0.46125165
200	0xbd8bc677	-0.068249635
201	0x3cfbf914	0.030758418
202	0xbe665f8d	-0.22497387
203	0xbe9c9d1c	-0.30588615
204	0x3e60e46c	0.21962136
205	0xbe3ad30c	-0.1824457
206	0xbe838e1e	-0.25694364
207	0xbe6bb8de	-0.2301974
208	0x3d90862c	0.07056841
209	0x3e97af1e	0.2962579
210	0xbf03f32b	-0.5154292
211	0x3dc4b0e8	0.09604055
212	0xbdd5a0d2	-0.10431065
213	0xbe239fc3	-0.15978913
214	0x3e560753	0.20901231
215	0xbe6bbd6f	-0.23021482
216	0xbf5ce95d	-0.86293584
217	0xbc13360e	-0.008985056
218	0x3e1d263c	0.15346617
219	0xbd77ee94	-0.06053026
220	0x3d93f175	0.07223789
221	0xbef7c561	-0.48392776
222	0xbeb6e261	-0.35719588
223	0xbdb09f1a	-0.08624096
224	0x3efe5271	0.49672273
225	0xbf1d7161	-0.6150113
226	0x3ed589d9	0.41706732
227	0xbc0aa7dc	-0.008462872
228	0xbf15c5be	-0.58504856
229	0xbe2b21bc	-0.16712087
230	0x3db85048	0.089996874
231	0x3d00b7bc	0.031425223
232	0xbbc10dda	-0.005891544
233	0xbd8e5047	-0.069489054
234	0xbf2985ac	-0.6621959
235	0x3da826c6	0.082105204
236	0xbc07fd38	-0.008300118
237	0x3e501c11	0.20323206
238	0xbdbbdb2d	-0.09172664
239	0xbe875a83	-0.26436242
240	0x3dcb75fd	0.09934614
241	0xbdfb84bc	-0.122811764
242	0xbd9a8a84	-0.07545951
243	0xbd844cc8	-0.06459957
244	0xbea7da1e	-0.32783598
245	0x3cfb3cd7	0.03066866
246	0xbd5f1390	-0.054462016
247	0xbcb0ad95	-0.021567145
248	0xbe8142db	-0.2524632
249	0xbd5f73c0	-0.054553747
250	0xbd68a7c4	-0.05680062
251	0xbd5c87b3	-0.05384035
252	0xbcd31fdc	-0.025772028
253	0x3dd8305c	0.10556099
254	0x3c75da6d	0.01500569
255	0x3e90c425	0.28274646

_policy.4.bias f4 [128]
0	0xbce0acdf	-0.027426181
1	0x3c77053e	0.015076933
2	0x3db46d90	0.0880996
3	0xbdfb072d	-0.12257228
4	0xbd518ccf	-0.051159676
5	0xbe2783f3	-0.16358928
6	0xbe1347c2	-0.14382842
7	0xbe29aa34	-0.16568834
8	0xbe38fea5	-0.18065889
9	0xbddcc6a7	-0.107800774
10	0x3c5e9f6f	0.013587817
11	0x3e1c5922	0.15268376
12	0xbe0fa0d2	-0.14026192
13	0xbda1e2ba	-0.07904573
14	0x3d8f74c8	0.07004696
15	0x3dfff7e1	0.12498451
16	0xbe7b1cc6	-0.24522695
17	0x3d36449e	0.044499032
18	0xbef11e14	-0.4709326
19	0xbe62ee14	-0.22161132
20	0xbd2bfbac	-0.04198806
21	0x3db0cbf8	0.08632654
22	0xbd9b5143	-0.07583859
23	0xbe039b80	-0.12852287
24	0xbc3cc1ca	-0.011520812
25	0xbe1527be	-0.14565942
26	0xbe825b53	-0.254603
27	0xbddf56e0	-0.10905242
28	0x3b1593e2	0.002282374
29	0x3bb39e31	0.0054815044
30	0xbe85a53a	-0.2610262
31	0x3dc2ebd9	0.095176406
32	0xbc05f8b6	-0.008176973
33	0x3e2076ab	0.15670268
34	0xbef044f7	-0.46927616
35	0xbe8d0683	-0.2754403
36	0x3bc00805	0.005860331
37	0xbed3375f	-0.41253182
38	0xbd7634f4	-0.060109094
39	0xbe1b2e1d	-0.1515431
40	0xbbfee4d1	-0.007778742
41	0x3c7afe79	0.01531946
42	0xbdaff130	-0.08590925
43	0xbe59fa49	-0.21286882
44	0x3d3fb40b	0.04680256
45	0xbe3feaa9	-0.1874186
46	0xbe1c2ad1	-0.15250708
47	0xbdae7056	-0.0851752
48	0x3dbc474f	0.091932885
49	0x3e0bd960	0.1365714
50	0xbe1f746a	-0.15571752
51	0xbdab350a	-0.08359726
52	0x3e076133	0.13220672
53	0xbe733792	-0.23751667
54	0x3dccc2bf	0.09998082
55	0xbd43f065	-0.04783668
56	0xbe2cec4b	-0.16887014
57	0xbe1490b6	-0.14508328
58	0xbe0688ed	-0.1313817
59	0x3d26ba3c	0.04070495
60	0xbe2d71b1	-0.16937901
61	0xbe1627c3	-0.14663605
62	0xbe343d68	-0.1760155
63	0xbbc86bc1	-0.006116361
64	0x3d07ff91	0.03320271
65	0xbd5b79e2	-0.053583033
66	0xbc936c4f	-0.017995981
67	0xbe04311d	-0.1290936
68	0xbe48c643	-0.19606881
69	0xbe1dd400	-0.15412903
70	0xbd8d4a8a	-0.06898983
71	0xbd895474	-0.06705561
72	0xbe8b8337	-0.27248546
73	0xbdeb4a9e	-0.114888415
74	0xbd26d5dc	-0.040731296
75	0xbe2dedfa	-0.16985312
76	0x3d33c6b8	0.043890685
77	0x3cc59d0a	0.024122734
78	0x3d834756	0.064100906
79	0x3db7e7cc	0.089797586
80	0xbe161737	-0.14657293
81	0xbdddb5f6	-0.10825722
82	0xbd80db0f	-0.06291782
83	0xbe213c3c	-0.15745634
84	0xbe69b4f6	-0.22822937
85	0x3e86d05f	0.2633085
86	0x3dacc519	0.08436031
87	0xbdad5e9d	-0.08465312
88	0xbe73fa48	-0.23825943
89	0xbdc33347	-0.09531265
90	0x3e5ab728	0.21358931
91	0xbdf12996	-0.1177551
92	0xbb0ac3a9	-0.0021173751
93	0xbdda535b	-0.1066043
94	0xbe1b7f8f	-0.15185378
95	0xbc6c876e	-0.014436586
96	0xbeadd88a	-0.3395427
97	0xbd1f34c8	-0.038868695
98	0xbd7c3526	-0.061574124
99	0x3d96e340	0.07367563
100	0x3d36e326	0.04465022
101	0xbe2c4ef8	-0.16826999
102	0xbe815e0e	-0.2526707
103	0x3dcae30b	0.09906586
104	0xbe1a7fcf	-0.15087818
105	0x3e2a28ec	0.16617173
106	0x3e213db9	0.15746202
107	0xb889a1a8	-6.56278e-05
108	0xbdf9e8ec	-0.122026294
109	0xbc957591	-0.018244537
110	0xbe0adca7	-0.13560735
111	0x3ca5c59e	0.020235833
112	0xbe8f194c	-0.27948987
113	0xbcf9edfc	-0.030508988
114	0xbdd2059b	-0.102549754
115	0xbd115b3f	-0.03548741
116	0x3d9765dd	0.07392476
117	0xbe9f6add	-0.31136218
118	0xbd90a569	-0.070627995
119	0xbe9b39cc	-0.30317533
120	0xbda14a44	-0.07875493
121	0xbe276fbb	-0.16351216
122	0xbdf7c014	-0.12097183
123	0xbd128a27	-0.035776284
124	0xbde1afed	-0.11019883
125	0xbe53580b	-0.20639054
126	0x3d4421ef	0.047883924
127	0x3d2418a5	0.040062565

_policy.6.weight f4 [128, 128]
0	0xbe9d450e	-0.30716747
1	0xbd4c86d1	-0.04993326
2	0xbdfa128d	-0.122105695
3	0xbd4441cc	-0.04791431
4	0x3d04b02d	0.032394577
5	0xbf4da77d	-0.8033369
6	0x3cc9ee87	0.024649872
7	0x3ea6c191	0.32569554
8	0xbeb8dd38	-0.36106277
9	0xbddad6c3	-0.10685494
10	0x3e81ee58	0.25377154
11	0xbe299801	-0.16561891
12	0xbd1801c8	-0.037111074
13	0x3e99d30b	0.30043826
14	0xbeaaed84	-0.33384335
15	0xbe01fdd1	-0.1269448
16	0xbe15db12	-0.1463435
17	0xbde2fb7a	-0.110831216
18	0x3e2fdffe	0.1717529
19	0xbe934183	-0.2876092
20	0x3e58e4e4	0.21181065
21	0xbd4fb2bd	-0.050707567
22	0xbcd4b240	-0.025963902
23	0xba4c0018	-0.00077819964
24	0xbe8c5ed3	-0.27416095
25	0xbe235850	-0.15951657
26	0xbee4059b	-0.44535527
27	0x3c969b45	0.018384585
28	0xbe9ede4b	-0.3102897
29	0xbc4de375	-0.012566437
30	0x3e70d8a3	0.2352014
31	0x3e8bb6f7	0.2728803
32	0x3da64f84	0.08120635
33	0x3e1471f1	0.1449659
34	0x3e935f1b	0.28783497
35	0x3e237a18	0.15964544
36	0x3e2742ab	0.16334026
37	0xbd7d6935	-0.06186791
38	0x3e87d961	0.26533034
39	0xbe514f31	-0.20440365
40	0xbf156c67	-0.58368534
41	0xbd4667d7	-0.048438873
42	0x3daa0d57	0.083033256
43	0x3e4b25b6	0.19838604
44	0xbe1e91da	-0.15485325
45	0xbec5aebb	-0.3860987
46	0xbe8c3f01	-0.27391818
47	0xbe13a4ba	-0.14418307
48	0xbcf3e8c0	-0.02977407
49	0x3cf69292	0.030099187
50	0x3d75e539	0.060033057
51	0xbd957611	-0.0729791
52	0x3e22c1a5	0.15894182
53	0xbd2ce9ca	-0.042215146
54	0xbe6827f3	-0.2267149
55	0xbf17800f	-0.59179777
56	0xbe4ebbbd	-0.20188804
57	0xbd63e273	-0.05563588
58	0xbda405e4	-0.08008936
59	0xbe2b0741	-0.16701986
60	0x3e17d117	0.14825855
61	0xbe82406f	-0.25439784
62	0xbc89f626	-0.016841006
63	0xbe3cdeeb	-0.18444411
64	0xbf5ba368	-0.85796213
65	0x3e4304d2	0.19044808
66	0xbca3affc	-0.019981377
67	0xbee4e8f9	-0.44708994
68	0x3dcb0743	0.099134944
69	0x3d636112	0.055512495
70	0x3e636c2e	0.22209236
71	0x3c66dc20	0.014090568
72	0x3e7615e7	0.24031793
73	0x3bf3b740	0.0074376166
74	0xbe81f177	-0.25379536
75	0x3e34fb83	0.17674069
76	0x3eae47f2	0.34039265
77	0xbe15ad16	-0.14616808
78	0x3ecb48e7	0.39704058
79	0x3dceb621	0.10093332
80	0xbde6dcf7	-0.112726144
81	0xbca9f6bb	-0.020747533
82	0xbdf4f200	-0.1196022
83	0xbeab2bdd	-0.33431903
84	0xbd11235f	-0.035434123
85	0xbd89a6f7	-0.06721299
86	0xbdd7f597	-0.105448894
87	0xbd0618f6	-0.03273865
88	0xbd83c848	-0.06434685
89	0xbe5b4ae9	-0.21415295
90	0x3eb0cc31	0.34530786
91	0xbdd7a4f0	-0.10529506
92	0x3e74575d	0.23861451
93	0x3ce8b101	0.028404715
94	0xbea5a197	-0.32349846
95	0xbf08e48b	-0.5347373
96	0xbc772d80	-0.015086532
97	0xbc954444	-0.018221028
98	0xbd8f63c4	-0.07001451
99	0xbf38a398	-0.72124624
100	0xbbabae89	-0.005239312
101	0xbcaa6a12	-0.020802531
102	0xbee9f86a	-0.45697337
103	0x3eb4c8a5	0.3530933
104	0xbe091f8c	-0.1339094
105	0xbda41279	-0.08011336
106	0x3e4ada48	0.1980983
107	0x3e62484c	0.22097892
108	0xbe9a62b0	-0.30153418
109	0xbe784519	-0.24245109
110	0xbb4dd43d	-0.0031407021
111	0xbddf63bd	-0.109076954
112	0x3da0de11	0.07854856
113	0xbe073b92	-0.13206318
114	0xbdee0baf	-0.11623322
115	0x3e97cf80	0.29650497
116	0x3e1f397d	0.15549274
117	0x3e302ff0	0.17205787
118	0x3db04b9d	0.08608172
119	0x3d0e4cdd	0.03474127
120	0x3e98f406	0.29873675
121	0xbce0479c	-0.027377896
122	0x3e9b66a9	0.3035176
123	0xbefaf67b	-0.49016175
124	0xbeb42580	-0.3518486
125	0x3d91fe73	0.071286105
126	0xbe4a184b	-0.1973583
127	0xbd9f9328	-0.0779174
128	0xbb6ec94d	-0.0036435903
129	0x3e570412	0.20997646
130	0xbe9e2e56	-0.30894727
131	0x3e5b3c84	0.21409804
132	0xbecbe2a1	-0.39821342
133	0x3b1256af	0.00223295
134	0xbf0604e1	-0.52351195
135	0x3bf7b6f2	0.0075596506
136	0x3d1665e1	0.036718253
137	0xbd00fffc	-0.031494126
138	0xbd9d8950	-0.07692206
139	0xbd554b1c	-0.052073583
140	0xbe9034aa	-0.2816518
141	0xbe07ce4a	-0.13262287
142	0xbea1f1ed	-0.31629887
143	0xbef8180f	-0.48455855
144	0x3d8f22cb	0.06989058
145	0xbdfc2f4a	-0.12313707
146	0xbf335c08	-0.70062304
147	0x3cdb790a	0.026791114
148	0x3d0fbd17	0.03509244
149	0xbe5596f1	-0.20858361
150	0xbdc2f634	-0.09519616
151	0x3e10aecf	0.14129184
152	0xbe17467d	-0.14772983
153	0xbe3de55e	-0.18544528
154	0x3e2faf3e	0.17156693
155	0x3e16cac2	0.14725783
156	0xbeae0792	-0.3399015
157	0xbeb8217d	-0.3596305
158	0xbdaf1cb6	-0.08550398
159	0x3dd5060b	0.10401543
160	0xbf0ea326	-0.55717695
161	0x3d9e3608	0.077251494
162	0x3e9f9806	0.31170672
163	0x3e4eed3f	0.2020769
164	0xbce81659	-0.028330969
165	0x3d9bd4b9	0.07608933
166	0xbb677916	-0.0035319976
167	0x3db72dc6	0.089442775
168	0x3d4e8058	0.050415367
169	0xbe3364c7	-0.17518912
170	0xbf866608	-1.0499887
171	0xbd497199	-0.0491806
172	0x3ec0597f	0.3756828
173	0xbe9ffb2c	-0.31246316
174	0xbf13c65d	-0.57724553
175	0xbdc82f2f	-0.097746246
176	0xbed68e24	-0.4190532
177	0xbd2f3e69	-0.04278413
178	0xbf3aff3c	-0.73045707
179	0xbe682243	-0.2266932
180	0x3e1c216d	0.15247126
181	0xbefe5be1	-0.49679473
182	0xbd19675e	-0.037452094
183	0x3e20ec49	0.15715136
184	0x3c0968b3	0.008386779
185	0x3e9b043b	0.30276665
186	0xbe26aba5	-0.16276415
187	0x3d505cfe	0.050869934
188	0xbe6b684e	-0.22989008
189	0xba7cfe6d	-0.00096509495
190	0xbe0ca7af	-0.13735841
191	0xbd88183a	-0.06645246
192	0x3d68881d	0.056770433
193	0x3ecf9dc5	0.40550056
194	0xbeb6f19b	-0.35731205
195	0x3d134def	0.035962995
196	0xbf1f52ec	-0.62235904
197	0xbf14f84b	-0.58191365
198	0xbea38af2	-0.31941944
199	0x3e7ecc4b	0.24882619
200	0xbf0555f6	-0.5208429
201	0xbc985751	-0.018596323
202	0xbc39f9e8	-0.011351086
203	0xbce4e64b	-0.027941843
204	0x3d8b449b	0.06800195
205	0xbf6ae419	-0.917543
206	0xbeaca7f7	-0.33721897
207	0x3e28d54c	0.16487616
208	0xbe44b51e	-0.19209716
209	0x3e549b47	0.20762359
210	0xbec7ed09	-0.3904803
211	0xbead6a3b	-0.3387011
212	0x3e23617b	0.15955155
213	0x3b968793	0.0045937984
214	0x3e57e070	0.2108171
215	0xbee5053c	-0.44730556
216	0x3e67b938	0.22629249
217	0xbecfbc96	-0.40573567
218	0xbe84b495	-0.25919023
219	0x3d269905	0.040673275
220	0x3e3dd1e7	0.18537103
221	0xbc1d6529	-0.009606638
222	0xbc92f9ce	-0.017941382
223	0x3cf34ffe	0.02970123
224	0x3d69ff65	0.05712833
225	0xbcff7406	-0.031183254
226	0xbc269fe0	-0.010169953
227	0x3da9379b	0.08262559
228	0xbf2f1bef	-0.68402
229	0x3b2af246	0.0026084348
230	0xbea6ef80	-0.326046
231	0x3d5bea0c	0.05369
232	0x3e7c3d2c	0.2463271
233	0xbea63882	-0.32464987
234	0x3e9004fa	0.28128797
235	0x3d904c17	0.07045763
236	0xbe12ee77	-0.1434878
237	0xbf37b7ec	-0.7176502
238	0x3eea25c3	0.45731935
239	0xbe4604dd	-0.19337793
240	0xbe424675	-0.1897219
241	0xbc94d810	-0.018169433
242	0xbe9d0546	-0.30668086
243	0xbe8508d3	-0.25983295
244	0xbeb78ff0	-0.35852003
245	0xbce04da3	-0.02738077
246	0xbe10c10c	-0.14136142
247	0xbeb17493	-0.34659252
248	0xbd96a2d6	-0.07355277
249	0xbf8280fd	-1.0195614
250	0xbdc3cbec	-0.095603794
251	0x3db1d12d	0.08682475
252	0xbeff35e0	-0.4984579
253	0xbeb73f4c	-0.3579048
254	0xbd0589a9	-0.032601986
255	0xbf869a74	-1.0515885

_policy.6.bias f4 [128]
0	0xbe067cb0	-0.13133502
1	0xbf04335e	-0.5164088
2	0x3e517837	0.20456015
3	0x3e7121eb	0.23548095
4	0x3e66ce27	0.22539578
5	0x3df5db06	0.12004666
6	0xbd8e7410	-0.06955731
7	0x3e075fdc	0.13220161
8	0x3e0c0bef	0.13676427
9	0x3cb15cae	0.021650638
10	0x3d2f4d92	0.042798586
11	0x3d680754	0.056647614
12	0xbcf199e8	-0.029492334
13	0xbe132fbd	-0.1437368
14	0x3ea06905	0.31330124
15	0x3def5dad	0.11687789
16	0x3cd08649	0.025454657
17	0x3d6d05ad	0.05786674
18	0xbd8f5d82	-0.07000257
19	0xbd7b57bb	-0.061362963
20	0x3e745088	0.23858845
21	0x3e610219	0.21973456
22	0x3e1dabb8	0.15397537
23	0x3d85b6c9	0.06529004
24	0x3e254862	0.16140893
25	0x3e067f5f	0.13134526
26	0x3d2c3ba0	0.04204905
27	0x3e1b7440	0.15181065
28	0xbc8384db	-0.016054561
29	0x3dd7b648	0.10532814
30	0x3d72d60e	0.05928617
31	0xbe3431f7	-0.17597185
32	0x3e390808	0.1806947
33	0xbd5d0ff4	-0.053970292
34	0x3e6366bb	0.22207157
35	0x3dffb164	0.124850065
36	0xbd39517b	-0.04524372
37	0x3e2476d7	0.16060959
38	0x3d827efc	0.063718766
39	0xb9bd5e2f	-0.0003611906
40	0xbdd6fbda	-0.104972556
41	0xbdec6e80	-0.11544514
42	0x3e96ce83	0.2945443
43	0x3c5bc787	0.01341427
44	0x3de27c01	0.11058808
45	0xbe1b4772	-0.15163973
46	0x3e81e280	0.25368118
47	0x3e004258	0.12525308
48	0x3da1f7e5	0.0790861
49	0xbcd7d644	-0.026347287
50	0x3d9fa40f	0.077949636
51	0x3d93a991	0.072100766
52	0x3c81859d	0.015810782
53	0x3d7bf481	0.061512474
54	0x3c80cc91	0.015722545
55	0x3dec2ac8	0.115315974
56	0x3d5d3e95	0.05401476
57	0x3ed905db	0.4238728
58	0x3d564d5a	0.052319862
59	0x3de0ae07	0.10970693
60	0xbc8b56a2	-0.017009083
61	0x3d3281ff	0.043581005
62	0x3d9bd61f	0.076092
63	0x3e79c0ce	0.24389955
64	0xbd1d7895	-0.038445074
65	0x3e05b0ec	0.13055772
66	0x3e4c5e58	0.19957864
67	0x3e41fbf9	0.18943776
68	0xbc6ac7a6	-0.014329826
69	0x3e3a1030	0.18170238
70	0xbe3a301c	-0.18182415
71	0x3dd19c0e	0.10234843
72	0x3d4193b4	0.04726
73	0x3e24a604	0.16078955
74	0xbe09065c	-0.13381332
75	0x3d78ab97	0.060710516
76	0x3e9bfaad	0.30464688
77	0xbe9ee1a5	-0.31031528
78	0x3df65cd6	0.12029426
79	0xbc080ada	-0.008303368
80	0x3e0d184f	0.13778804
81	0xbd1b5ec1	-0.03793216
82	0xbe4e269e	-0.20131919
83	0xbe11182e	-0.1416938
84	0x3e9e44b6	0.30911797
85	0x3dc0ec07	0.09420019
86	0xbe728b82	-0.2368603
87	0x3d1dece3	0.03855599
88	0x3e4ed410	0.20198083
89	0x3df09bfc	0.11748502
90	0xbd1df37d	-0.038562287
91	0x3e7eb4af	0.24873613
92	0x3e64c5bd	0.22341056
93	0x3df8784b	0.12132319
94	0x3b8d2c82	0.0043082843
95	0xbda2e170	-0.07953155
96	0xbe21ee0f	-0.15813468
97	0x3e2b3b29	0.16721787
98	0x3df87827	0.12132292
99	0xbdd3660a	-0.10322197
100	0x3cb00164	0.021485038
101	0xbca3b24b	-0.019982478
102	0xbd4b62d9	-0.049654815
103	0x3dedef7b	0.11617943
104	0xbd92e385	-0.07172302
105	0x3e27b107	0.16376124
106	0x3d92fcd4	0.071771294
107	0x3dbefe5a	0.093258575
108	0xbf0fdef6	-0.56199586
109	0x3ea4c01e	0.32177824
110	0x3dcfcc4a	0.10146387
111	0xbd5728a0	-0.052528977
112	0x3de00a4f	0.10939466
113	0xbe321dcb	-0.17394178
114	0x3d64170c	0.05568604
115	0x3d1b9544	0.037984148
116	0x3d7738af	0.060356792
117	0x3e517f58	0.20458734
118	0xbe64d4c5	-0.2234679
119	0x3dde848b	0.10865124
120	0x3e1cd2ef	0.1531484
121	0x3ea5b368	0.3236344
122	0x3e714539	0.23561563
123	0xbda7e389	-0.08197696
124	0x3e93d356	0.28872174
125	0xbdb74295	-0.089482464
126	0xbdd67d79	-0.10473151
127	0x3b77b00f	0.0037794148

_policy.8.weight f4 [3, 128]
0	0xbd1dc7d2	-0.03852064
1	0x3df8cbec	0.1214827
2	0xbe077a46	-0.13230237
3	0xbefa6447	-0.4890463
4	0xbedee8c2	-0.43536955
5	0xbe621102	-0.220768
6	0xbf15e029	-0.58545166
7	0xbe89258e	-0.26786464
8	0x3f2c11ec	0.67214847
9	0xbe784db9	-0.24248399
10	0x3ecaf826	0.39642447
11	0x3f1ad40e	0.6047982
12	0xbd662a4a	-0.056192674
13	0xbcdc517f	-0.02689433
14	0xbf43a7a3	-0.7642767
15	0xbd81c257	-0.063358955
16	0x3e86b144	0.26307118
17	0x3e92215b	0.28541073
18	0xbec3294d	-0.38117447
19	0xbdafff15	-0.08593575
20	0xbe4f7093	-0.20257787
21	0xbe04fd63	-0.12987284
22	0x3d96f33a	0.073706105
23	0x3e664656	0.22487769
24	0xbd174fa2	-0.03694118
25	0xbea9a7a7	-0.3313572
26	0x3e872387	0.26394293
27	0xbe58abc3	-0.21159272
28	0xbf263d4a	-0.6493727
29	0x3ec2fd9d	0.38084117
30	0xbdf0c63b	-0.117565595
31	0x3d0fce99	0.035109136
32	0xbe67f483	-0.22651868
33	0x3c87819d	0.016541297
34	0xbe191752	-0.14950302
35	0x3ec81e93	0.39085826
36	0xbf00ee0a	-0.5036322
37	0x3eeb7ff5	0.4599606
38	0xbe0340c1	-0.1281767
39	0xbe2d8243	-0.16944222
40	0x3f10f5b8	0.5662494
41	0xbcfcb3ad	-0.030847395
42	0xbcf96551	-0.03044382
43	0x3f0b6e24	0.54464936
44	0x3ea4af3b	0.3216494
45	0xbee244da	-0.44193155
46	0x3f55b6ba	0.83481944
47	0x3e418c43	0.18901162
48	0xbe1d19af	-0.15341829
49	0xbdc2517a	-0.09488197
50	0x3e62e275	0.22156699
51	0xbe8c4d25	-0.27402607
52	0xbe9db64c	-0.30803144
53	0x3e2b18d4	0.1670869
54	0xbde9659f	-0.11396336
55	0xbe5427aa	-0.20718256
56	0xbbd9fb11	-0.006652244
57	0xbebf7a78	-0.37398124
58	0x3e271434	0.163163
59	0x3e95e1da	0.29273874
60	0x3d893888	0.067002356
61	0xbe13b40c	-0.14424151
62	0xbf182e48	-0.5944562
63	0xbd755263	-0.059893023
64	0x3e81c9a5	0.25349155
65	0x3e88dd5d	0.26731387
66	0x3f26ed95	0.6520627
67	0xbe34f94a	-0.17673221
68	0x3ef54c7a	0.4790991
69	0xbe275d57	-0.163442
70	0x3f079d45	0.5297435
71	0x3dc3f7a2	0.095687166
72	0xbea9d3bb	-0.3316935
73	0x3ea8b2ec	0.32949007
74	0x3f3602a6	0.7109779
75	0xbdadcbe2	-0.08486153
76	0xbe611390	-0.21980119
77	0x3f5fbb2b	0.8739497
78	0xbdc7affa	-0.09750362
79	0x3edfc910	0.43708086
80	0xbe127d35	-0.14305575
81	0xbe55a967	-0.20865403
82	0xbf59472a	-0.8487421
83	0xbcea8a8c	-0.028630517
84	0xbe9b3c05	-0.3031923
85	0x3eaffb2e	0.34371322
86	0xbf6cd9ac	-0.9251964
87	0xbde257fa	-0.110519364
88	0xbedb7fdd	-0.4287099
89	0x3e2943da	0.1652979
90	0xbe792d80	-0.24333763
91	0xbe438686	-0.19094285
92	0xbe4f3eae	-0.20238754
93	0xbe08744d	-0.13325615
94	0x3f0a7fc3	0.541012
95	0x3f043bf7	0.51654
96	0xbbcd31e4	-0.006262051
97	0xbdcd7212	-0.10031523
98	0x3dfea30b	0.12433442
99	0xbf1a3191	-0.6023188
100	0xbcef4dfe	-0.029211994
101	0xbe17b3d8	-0.14814699
102	0xbe355c8f	-0.1771109
103	0xbeb6b726	-0.35686606
104	0xbd2b1e03	-0.04177667
105	0x3e865c5e	0.26242346
106	0xbed42a06	-0.4143831
107	0x3f3fb21a	0.74881136
108	0x3e82125c	0.25404632
109	0x3ebc8605	0.36821
110	0xbe8e66b5	-0.27812734
111	0x3d9daad3	0.07698598
112	0xbe8af145	-0.271372
113	0xbdaea050	-0.08526671
114	0x3e922cdb	0.28549847
115	0x3e15ff86	0.14648256
116	0xbea7a8ca	-0.32745963
117	0xbed4f387	-0.41592047
118	0x3f6a63d2	0.91558564
119	0xbd816326	-0.06317739
120	0x3e8ff493	0.28116283
121	0xbe5a6f9d	-0.2133164
122	0xbe6e14d9	-0.2325014
123	0x3f04a65e	0.51816356
124	0x3ef26404	0.4734193
125	0x3df6e9c8	0.12056309
126	0x3e7e6a36	0.24845204
127	0xbe07b96f	-0.13254331
128	0x3e889ec8	0.2668364
129	0x3f11faa6	0.57023084
130	0xbdef2843	-0.11677601
131	0x3efbf758	0.49212146
132	0x3f0c35ff	0.5476989
133	0xbdb62ba4	-0.088950425
134	0x3ecb9938	0.39765334
135	0x3f076161	0.52882963
136	0xbeb81a50	-0.35957575
137	0x3f003fc9	0.5009733
138	0xbd5027a1	-0.050819043
139	0xbe111a9a	-0.14170304
140	0xbe125adb	-0.14292471
141	0x3e2cc96c	0.16873711
142	0x3f635fab	0.8881785
143	0xbe4232ad	-0.18964644
144	0xbea9cd42	-0.33164412
145	0xbe3a294b	-0.18179815
146	0x3e7d8131	0.24756314
147	0x3ed39f4c	0.4133247
148	0x3ec48a61	0.38386825
149	0x3e9268c6	0.2859556
150	0xbeb65b39	-0.35616472
151	0xbe1787ba	-0.1479787
152	0xbe6b1525	-0.22957285
153	0x3e98a7cb	0.29815516
154	0xbe8e48ce	-0.2778992
155	0xbe82a588	-0.25516915
156	0x3eb896a2	0.36052424
157	0xbea3d24a	-0.31996375
158	0x3e8f648d	0.28006402
159	0x3d299eb9	0.041411135
160	0x3ea0f917	0.3144004
161	0xbe7a595d	-0.24448152
162	0xbf1d192b	-0.6136653
163	0xbd8eaab5	-0.069661535
164	0xbd29ba3a	-0.041437365
165	0xbee3e2b4	-0.44508898
166	0x3ed0ecb3	0.40805587
167	0xbd871831	-0.06596411
168	0xbd886116	-0.06659143
169	0x3e8aedc5	0.2713453
170	0x3eef1d92	0.46702248
171	0xbf597a73	-0.8495247
172	0xbeaf4cf7	-0.34238407
173	0x3f09cfdb	0.5383279
174	0xbf22cb72	-0.6359168
175	0xbe3a5f11	-0.18200327
176	0xbe015dc8	-0.12633431
177	0x3ec3970c	0.38201177
178	0xbc8c1e49	-0.017104285
179	0x3e89fe55	0.26951852
180	0x3ea28ddd	0.31748858
181	0xbc9b2711	-0.018939527
182	0x3ed5e8e8	0.41779256
183	0xbded588b	-0.11589154
184	0x3e5fc6c9	0.21853174
185	0x3edadd43	0.42746934
186	0x3e14784d	0.14499016
187	0xbd0c760c	-0.034292266
188	0x3ee8f3b8	0.45498443
189	0xbd799a7a	-0.060938336
190	0x3f369614	0.7132275
191	0x3e73c46a	0.23805395
192	0xbf0e418d	-0.5556877
193	0xbd750bd0	-0.05982572
194	0xbe006514	-0.12538558
195	0x3eb4dcb3	0.3532463
196	0xbd4f1cc6	-0.05056455
197	0xbf0559dd	-0.52090245
198	0x3e126762	0.1429725
199	0x3ed7fc05	0.42184463
200	0x3ab19aee	0.0013550201
201	0xbed30e88	-0.41222024
202	0xbcfcef03	-0.030875688
203	0xbe87a884	-0.26495755
204	0x3ea6ff90	0.32616854
205	0xbf5a4f21	-0.8527699
206	0xbe8eb040	-0.27868843
207	0xbf08713e	-0.53297794
208	0xbe653ca9	-0.22386421
209	0xbdca1a86	-0.0986834
210	0x3f1d7a1a	0.6151444
211	0x3e5a87cb	0.21340863
212	0x3eb27945	0.34858146
213	0x3d4460f0	0.04794401
214	0x3e8a8fee	0.27062935
215	0xbdd60ff6	-0.10452263
216	0x3f00b415	0.50274783
217	0xbe5b7951	-0.21432997
218	0x3df3a4fb	0.11896702
219	0xbe9740fe	-0.29541773
220	0xbe999877	-0.29999134
221	0xbe83a55b	-0.25712094
222	0xbf112532	-0.5669738
223	0xbe376561	-0.17909767
224	0xbf1a3a4f	-0.6024522
225	0x3ec7b468	0.39004827
226	0xbd3e2831	-0.04642505
227	0x3e5e653d	0.21718307
228	0xbf4825f0	-0.7818289
229	0xbe6ce2f2	-0.23133448
230	0x3c81fdf3	0.015868163
231	0xbc22858f	-0.009919538
232	0xbe31f767	-0.17379533
233	0xbdc5bc3f	-0.09655046
234	0xbe00186e	-0.12509319
235	0xbf424b74	-0.7589638
236	0x3f0baa6e	0.5455693
237	0xbeb55c8b	-0.35422167
238	0x3dbf1464	0.09330061
239	0xbe47b09d	-0.19500966
240	0x3e8f57d0	0.27996683
241	0x3f07b21a	0.53006136
242	0x3daa33a4	0.08310631
243	0x3e0d0bb2	0.13773993
244	0xbd9911bf	-0.07474088
245	0x3d6b2dfb	0.057416897
246	0xbfab4b2d	-1.3382317
247	0xbeb5fa19	-0.35542372
248	0xbe888c09	-0.26669338
249	0x3e509dc1	0.20372678
250	0x3ef6e270	0.48219633
251	0xbf03d9e4	-0.5150435
252	0xbea05b7a	-0.3131979
253	0x3cfd740f	0.03093913
254	0x3e4ded01	0.20109941
255	0xbe73b7ec	-0.2380063

_policy.8.bias f4 [3]
0	0x3d94e30d	0.07269869
1	0xbd74f36b	-0.059802454
2	0xbcf68b70	-0.030095786
