logs/weight_colliion_obj_obs = 0.4/model/model_790.pth (torch, 427625 bytes, 19 tensors)

_policy.0.weight f4 [128, 22]
00000000: e592 b2be 67e6 bdbd 35ca 3f3e 619c 353e
00000010: 1984 bfbe bf17 d5bd 7b26 623e 2a65 553c
00000020: f0c8 083f 0350 bc3e e768 93bd 18c7 303e
00000030: 4ad4 6b3e dc45 b03e 7540 afbb c625 d7bd
00000040: 6361 03be 7d79 d73d 7395 9a3d 9332 273e
00000050: e317 13be 7a4c c9be d128 cdbe 4927 41be
00000060: 22ec 3e3c f371 803f c56c 84bb bd8b 603d
00000070: e84a 4f3e ea98 27be deec 61bf 2aad 683e
00000080: 5a3b 933e 9036 893e 1eae b53e c92f 8e3e
00000090: 500c 233e a0ed 7bbd 87a8 6e3c 23a4 3abe
000000a0: ab61 9ebe 2797 073d cdc9 8b3b deb5 8abc
000000b0: c355 13bf d085 24bd 25fb a53e c65d 1fbd
000000c0: 3a09 8ebe ec55 4a3d f046 003d d495 0a3e
000000d0: de8a 993f 0b16 f2be 2b8d 593e a53b eb3d
000000e0: 6aa9 a53e bd3f e23e 8bcf ba3d 65c6 283e
000000f0: 5b0a 24be 25df f23d 8429 01bd be15 0ebd
00000100: b5f3 36be 1675 14be e9f3 3bbd 6a39 04bf
00000110: 2c6e 95bd 9a0f 243f f2db 41be d85e 05bf
00000120: 600b 333e f3b2 e83e e317 213d a79a a93e
00000130: 270a 4fbe ad8f ddbd 3f08 b6be f23c fa3e
00000140: f941 83be 27b7 debd 1527 5bbe 4f1d e03c
00000150: 3c44 83be 6b86 783e db42 363e c75f d73d
00000160: 529b 883f ebbe 06bf 9919 24be 592c 8f3e
00000170: e003 443f 2643 36bf 9839 00be d261 23bf
00000180: fc5c 1fbf f0ae ea3e a317 db3d 1cf4 bebd
00000190: e4b4 0cbe 1614 08ba 521e d23c a35a 4a3e
000001a0: 34c4 a63c f8fa 483d e540 8d3d 74f9 b7bd
000001b0: 97cc 09bd 290d 5fbd d085 4abf b4bb 483f
000001c0: b83f d33e 295d 0dbf 3083 84be 81db e43e
000001d0: 6ab2 4f3e c048 8c3e 497f c13c 91ea 8ebf
000001e0: 9b9c 85be 0150 e5bd 3f8a 76be 8755 b03c
000001f0: aefc e43c 7b07 c9bc b2a7 283e e718 353d
00000200: 327c 12bd 792d 0cbe 260f 59bd 40cc d63d
00000210: 43de 39ba 40e1 503e 40ed dfbd 8b27 d83e
00000220: 8bbd af3e 2de5 dabd e7fe 18bf d6ab 813d
00000230: af04 283f 5a47 31bf c518 a83d 24bb d3bd
00000240: 746e 52bf c72e 333e 2055 dfbc 1a40 d2bb
00000250: 7699 4abd c8fe 0fbe bcb0 b93e 548c 44be
00000260: 69a4 0c3e f716 dfbd 613f e3be a67f 89be
00000270: d945 4abc 2e80 633f 7653 873e b4c8 8c3e
00000280: f2f6 a0bd 9a14 a4be e545 74bf f5cb 443f
00000290: b577 36be dbd9 a3be acbf 1dbe 98fa 263d
000002a0: 4650 fbbd 5278 743d 6d90 b0bd 815b 7ebe
000002b0: 2f33 8b3d 0a3e 033d add2 99bd 35cd 2d3e
000002c0: 93ae 5f3d c7ec d8be 53f2 9dbd 8029 3b3e
000002d0: 0416 ed3e e50a 89bd 0aaf 2ebe f4ac b63d
000002e0: 92cb e33f 1b66 803f c33a 3bbd bff7 27bd
000002f0: 965d 3d3e 09c4 ac3d d642 363e 572b 50be
00000300: f101 433e 0679 76bd ddaf 9bbd d76c 3abc
00000310: 536d 80bd 5a39 e43d c216 b23e 5070 273f
00000320: a91a febe 4b3e 2ebf b6c3 50be b2e9 113f
00000330: 9bcb 99be bf01 2fbf 9257 20bf c93f 6d3e
00000340: df9c e1bd 6a91 cd3e c1ee 863e 174b 02be
00000350: 5aa8 b23c 9734 9d3d a699 f43d a1bc 29be
00000360: 5d08 19bd 61e7 d93c 65d7 05be 89fd 2bbe
00000370: f477 1ebf 8b0f 67be 99cd 413e dc00 9c3c
00000380: 9a79 1bbf afbb aabe dcef cc3d db53 113d
00000390: 19e0 b33f 54f5 e63e e510 033e 8317 5fbe
000003a0: e34f 853d b261 093d 4e26 643c b7aa d93d
000003b0: 3cdf 163e 83d1 1ebd 1cec f0bd 56ee 36bd
000003c0: 85ef e8bd 6cc0 0dbd fae0 833a db73 8d3e
000003d0: 03ef 5fbf 2757 38be 4a03 2bbe f938 9a3b
000003e0: 4266 b5bd 0b8e a1be 6601 aebe a598 5fbe
000003f0: c270 a93d fc1b 9bbd be48 b7be 73a2 b4be
-0.34877697 -0.092724614 0.1872948 0.17735435 -0.3740547 -0.1040492 0.22084992 0.013024608
0.53431606 0.36779794 -0.07197743 0.17263448 0.230302 0.34428298 -0.00534826 -0.105052516
-0.12830119 0.10521219 0.075480364 0.16327886 -0.14364581 -0.3931616 -0.40070203 -0.18862642
0.011652978 1.0034775 -0.0040412867 0.054820765 0.20243418 -0.16366926 -0.88252056 0.22722307
0.2875622 0.2679944 0.35484403 0.27770832 0.15922666 -0.061505914 0.014566547 -0.18226676
-0.3093389 0.033103134 0.004266 -0.016932424 -0.57552737 -0.040166676 0.3241817 -0.03890779
-0.27741414 0.049398348 0.03131765 0.13533717 1.1995504 -0.47282442 0.21245258 0.11485986
0.32355815 0.44189253 0.09121617 0.16481932 -0.16019575 0.11858968 -0.031533733 -0.034688704
-0.17866404 -0.1449779 -0.045886908 -0.51650107 -0.07296404 0.64086306 -0.18931559 -0.52097845
0.17484808 0.45449027 0.03932942 0.33125803 -0.20218717 -0.108184196 -0.35553166 0.48874623
-0.2563627 -0.10874777 -0.21401627 0.027357725 -0.25637996 0.24270026 0.17798941 0.10516315
1.06724 -0.5263507 -0.1602539 0.27963522 0.7656841 -0.7119621 -0.1252197 -0.63821137
-0.6225126 0.45836592 0.10697868 -0.09323904 -0.1374088 -0.00051909813 0.025649223 0.19761138
0.020357229 0.049067467 0.06897143 -0.08983126 -0.033642378 -0.05445591 -0.7911043 0.7841141
0.4125955 -0.55220276 -0.25881338 0.44698718 0.20282903 0.27399254 0.023620265 -1.1165334
-0.26096043 -0.111969 -0.24076174 0.021525158 0.027952518 -0.0245397 0.1647022 0.0442132
-0.035762973 -0.13689221 -0.052992962 0.10488176 -0.00070903095 0.20398426 -0.10933924 0.4221767
0.34324297 -0.10688243 -0.5976395 0.06331603 0.65632147 -0.692495 0.082078494 -0.103384286
-0.8219979 0.17498313 -0.02726227 -0.006416333 -0.049462758 -0.14062035 0.3626765 -0.19194156
0.13734592 -0.10893052 -0.44384292 -0.268552 -0.012345755 0.8886746 0.26430863 0.27496874
-0.07859601 -0.32046968 -0.9541915 0.76873714 -0.17819102 -0.32002148 -0.15405148 0.04076633
-0.1227117 0.05968506 -0.08621297 -0.24839593 0.06796872 0.032041587 -0.07510886 0.16972812
0.054609846 -0.42368147 -0.07712235 0.1827755 0.4630586 -0.06691531 -0.1705896 0.08919707
1.77965 1.003116 -0.045710336 -0.041007753 0.18492731 0.08435828 0.17798933 -0.20329033
0.1904371 -0.06017401 -0.07601903 -0.0113784885 -0.06270852 0.111437514 0.34782988 0.6540575
-0.49629715 -0.680638 -0.20387158 0.56997216 -0.3003815 -0.6836204 -0.6263362 0.23168863
-0.11016249 0.40150005 0.2635403 -0.12723957 0.021808792 0.07676046 0.119433686 -0.16575862
-0.03736149 0.026599588 -0.13070448 -0.16795935 -0.61901784 -0.22564523 0.18926086 0.019043379
-0.60732424 -0.33346316 0.10006687 0.03548036 1.4052764 0.45109046 0.12799414 -0.21786313
0.06509378 0.033540435 0.013925148 0.106282644 0.14733595 -0.038774025 -0.11763784 -0.04466089
-0.1137381 -0.034607336 0.0010061555 0.27627453 -0.8747408 -0.18001996 -0.16700473 0.0047064987
-0.08857395 -0.31553683 -0.33985442 -0.21835573 0.0827346 -0.07573697 -0.35797685 -0.3528019

_policy.0.bias f4 [128]
00000000: b977 26bd 3bb2 7ebb b786 2abe c75f 3ebe
00000010: ad35 25bc 5926 08be f38d 413d 9a50 1e3c
00000020: bec4 31bd 8439 383e 6ddb 073e 71ba 453e
00000030: e347 55be 861f 84be bed0 a3bc 87af 06be
00000040: 4750 13bd 3919 193d 2810 69be 2f51 593d
00000050: cb53 f03d f5c6 ddbc 2e22 6cbe ddda 6c3e
00000060: 4397 7fbd 3660 cdbc a938 04bd d2dc adbd
00000070: c816 993d 12fb 73be 3cc0 80be b576 17be
00000080: b214 fb3d 41ef 9ebd c7d7 a43d 86c9 953d
00000090: b051 543e 941b 5fbe 5228 01be 42f9 133c
000000a0: 6c51 02bb a3c9 8c3d 5ba9 3fbe 8341 c8bd
000000b0: 4714 183d c195 12be d158 1e3e 212c fa3d
000000c0: 33bd a5bd 3bb0 5abe 6611 bcbe 712a 0ebe
000000d0: 99d0 99be 940f 3e3e 96c3 7cbe d7ef d9bd
000000e0: b0df 30bd 4cb8 c13d f7d7 913e d3da 37bd
000000f0: 4186 95bd f2cf f1ba 6ecf 82be a98d bcbd
00000100: 5591 acbd e2d4 c5bd 9db1 403d e49e bcbd
00000110: 9e35 cfbd 3177 2dbe e4ae 0dbe 4ee3 bcbc
00000120: d351 51be 91c8 453e 61c4 cabd 1999 c13d
00000130: 5f1b 91bd 3862 09be 6867 2fbe 9e18 e2bd
00000140: 8f34 3e3d 1974 9c3b 47b3 453d 3ff0 55be
00000150: e0d5 f5bd d5b6 f53b 3c9a 4abe 2441 c7bc
00000160: 1a1d acbd 6d6e 38be a160 c23d 3a71 70be
00000170: ad7e c23d b740 69be e11a 39be c73a 183d
00000180: 0746 9abe 83ea dabd 9a65 04be a8d9 14be
00000190: ee98 65be 5191 31be 62b7 0fbe 13a6 1bbd
000001a0: 969a d33b 2991 213c 68d3 7cbe bd8c 86be
000001b0: 20eb 17bd 5504 ff3d 08fa 023e 371b 42be
000001c0: 6b4b 20be 07c4 c6bd d9db 8bbe c04f 103e
000001d0: 3537 1c3c cc43 5e3d 432a 55bd fbb4 533e
000001e0: 90f6 a63d 7198 7abd 46de 573d 184f 28be
000001f0: 97b0 2e3c 9625 55be f0a1 1bbe b32e 85be
-0.04064152 -0.0038863558 -0.16652952 -0.18591224 -0.010083598 -0.13295878 0.047254514 0.009662772
-0.04340052 0.1799069 0.13267298 0.19309403 -0.20828204 -0.258053 -0.019996997 -0.13152896
-0.03596523 0.03737757 -0.2276007 0.05305594 0.11734732 -0.02707241 -0.23059914 0.23130365
-0.062400114 -0.025070291 -0.032280598 -0.08489384 0.07475048 -0.23826244 -0.25146663 -0.14791377
0.12259807 -0.07760478 0.08048969 0.07313828 0.20734286 -0.21787864 -0.12613037 0.009031596
-0.0019884957 0.06874397 -0.18716948 -0.0977812 0.037128713 -0.14314939 0.15463568 0.12215448
-0.080927275 -0.21356289 -0.36732024 -0.13883378 -0.3004196 0.1856063 -0.24683985 -0.10641449
-0.043182075 0.0945898 0.2848508 -0.04488642 -0.073009975 -0.0018448813 -0.2554888 -0.09206707
-0.084261574 -0.09659745 0.047044385 -0.092099935 -0.101176485 -0.16939999 -0.13836247 -0.023057606
-0.2044137 0.19314791 -0.099007376 0.09453029 -0.07085299 -0.13416374 -0.1712929 -0.110398516
0.046436843 0.004774582 0.048266675 -0.20892428 -0.12003684 0.007498602 -0.19785398 -0.024323054
-0.08403988 -0.18010874 0.09491087 -0.23480693 0.09496818 -0.22778593 -0.1807666 0.03716543
-0.30131552 -0.10689261 -0.12929383 -0.14536154 -0.2242162 -0.1734059 -0.14034799 -0.038000178
0.006457637 0.009861269 -0.2469002 -0.2627925 -0.037089467 0.12451998 0.12790692 -0.18955694
-0.1565377 -0.09705358 -0.27316168 0.14092922 0.009534647 0.054263875 -0.052042257 0.20674507
0.08152497 -0.061180536 0.05270221 -0.16436422 0.0106622195 -0.20815119 -0.15198493 -0.2601219

_policy.2.weight f4 [128, 128]
00000000: 22dc 583d bd7e 49bd 587b 19be 4992 f93c
00000010: f352 953e 439c 16bf 07ee 7fbd dbc3 493d
00000020: 3e6e c33d 64ff 0ebf e0b7 3ebb ca02 a5be
00000030: 2688 64bd c3e1 1abe 039a e9be 7fb6 cebb
00000040: ec24 19be b664 8cbd b0ed 61be cd06 373e
00000050: 4100 af3d e46d b83c 9cc2 023e ded9 aebe
00000060: 6124 f3be dc45 a43b e6d8 b9be ffe6 603e
00000070: a054 453e 2ba7 103e 2133 44bd efcc fcbe
00000080: 8a3a 393d 2e46 4b3d 3914 323e 053a 25be
00000090: a334 8d3d 5a95 46be 6b4b 943d d88b 263e
000000a0: 224a c2be 67bf 3cbe cbac 0e3e 23f2 18be
000000b0: c9a3 0d3d cd85 64be 7241 1f3d e9b0 e3bd
000000c0: 701a 0fbe cb8c cbbe c047 f7bd 7a25 06bd
000000d0: da32 c93e 3954 d03e 7056 54bd 22a5 68be
000000e0: 180c 503e 4aa7 a23d 89e6 07be fab6 c73d
000000f0: 4758 3e3e c63e 91bc 5a64 c7bd 7ca3 7c3e
00000100: 6ed3 633d 400b 873e 78a5 823c 4fb9 b9bd
00000110: 828c 463d 084d 50be 8ac1 f8bc d3fb 19be
00000120: e335 90bd 52e7 1dbe 8948 54be fea5 23be
00000130: 3a06 43be 3613 05be a71b 2fbd 474f 3b3e
00000140: 393c 153e 8c38 2ebd aadc 0f3d aa00 e1be
00000150: e8a2 05bf da11 afbc e27d 58bc ffa3 8bbd
00000160: 5722 10bd 8b94 d4bd a1e0 2fbb 6b49 363e
00000170: 6506 22bd bf14 dabe 1af0 d43d 3553 dd3d
00000180: f796 70bd 16c6 a33d fa50 3ebd 722a 5c3d
00000190: 7d43 74be 93b3 b4bd 4b39 943d 3901 bb3d
000001a0: 9452 b8bd bdca 9cbd 1a24 503e ed4e 2a3d
000001b0: ddd1 babd 0c1c b0be bc78 f6be 75bd d3bd
000001c0: 1bd0 6abe c4ba 223e 2379 25be 7cfe 0a3e
000001d0: 0ac3 aebd d16e 12be 96ac aebe b6b2 a83c
000001e0: a808 25bc c949 3e3d 6618 263d 70ee f5be
000001f0: 58aa 1ebe cbab a4be 3b6d bb3c 46bf 493e
00000200: ae84 7bbd 50fa 74bd 8400 64bd 1fb6 e8bc
00000210: e03e 703c a197 46bd c05e af3c 3ead 2e3d
00000220: 5c60 063c a2b1 19bc b6d7 83bd 8d98 f1bd
00000230: aa58 ddbb b3d0 66bd 9c95 debd e488 4fbd
00000240: aa83 b3bd ff61 f2bd e157 a7bd c9ab 2f3d
00000250: 666d 00be 8c9b c53b a5fd adbd 7f0a 263d
00000260: 7127 06bd 1f4e 1bbd 1ee2 ddbc 13c6 9ebd
00000270: 1b30 c8bd 4833 2fbd 115c f1bb d6a6 8bbd
00000280: a674 97bd a6dd 6fbd 4677 35bd 38ea 5dbd
00000290: 40fd 973b 5062 9bbc 694b 91bd da94 95bd
000002a0: 2fc3 a03d a4f0 513c 7d1a 1a3b 909c 1c3c
000002b0: 4ebd 713d 3042 c6bd 2a8a 59bd e933 edbd
000002c0: e38d d5bd a22b 8ebd 3f80 ebbc bf56 eabd
000002d0: 909a 66bc 98cf a63c 44ca e9bd ee39 95bb
000002e0: 2d38 7fbc eb2b 9fbd a50f 4a3d 5c2f c1bd
000002f0: 3ec9 3e3d 7088 e93c e7a9 60bd 6824 0fbd
00000300: 05fd 353d 4194 f63c 3bb0 93bd a974 0fbd
00000310: a8a7 c6bc 3ad5 453d 768e 7dbd 8300 0cbd
00000320: 6727 213d 0afc a2bd 7005 0e3b d889 9ebd
00000330: 8d37 9ebd f631 fcbd fe18 e0bc 2ea2 06bd
00000340: 46c6 36bd e5f2 a4bb 7c14 9cb9 2bb8 81bd
00000350: 7ef4 123d 5416 0f3d f16b 35bc d2e7 0cbd
00000360: a91b f43b 3498 da3c b527 c2bc e5f2 d9bd
00000370: 41f0 ee3b 495f acbc 7e62 813d 60ab 203d
00000380: 127a 803c e6ac b3bd a5ae bbbd 1632 ffbd
00000390: 2ea4 efbd 0d83 13bd f6dc 2b3d eb33 8d3b
000003a0: 32fd c5bd 9ef3 093c 6d58 cabd bffe 143d
000003b0: c533 7d3d 00ba dabc e0ed cf3b b870 e5bc
000003c0: f4d7 c8bc 0a4d 323d 393c 853c 7ae6 f63c
000003d0: f4ed 1ebc 8ec4 99bd 4201 d33c 50cd 06be
000003e0: a68f 4b3d 294f 29bb 94a0 dcbd 08b4 ccbd
000003f0: 0b5b 42bd 7751 483d fc17 053d fe96 73bd
0.05294431 -0.049193133 -0.14988458 0.030465262 0.29164848 -0.58832186 -0.06248286 0.049259048
0.095425114 -0.55858445 -0.0029101297 -0.3222869 -0.055793904 -0.15125184 -0.45625314 -0.0063083763
-0.14955491 -0.068551466 -0.22063327 0.17873688 0.0854497 0.022513337 0.1276955 -0.34150594
-0.47488692 0.0050132107 -0.36298293 0.21963118 0.19270563 0.1412627 -0.047900323 -0.49375102
0.045221843 0.049627475 0.17390527 -0.16135414 0.06894805 -0.1939291 0.07240947 0.16264284
-0.37947184 -0.18432389 0.13933103 -0.14936118 0.034580026 -0.22316666 0.038880773 -0.11117727
-0.13974929 -0.39755854 -0.12074232 -0.032750584 0.3929661 0.40689257 -0.051840246 -0.22719243
0.20317113 0.07942064 -0.13271536 0.09751697 0.18588363 -0.017730128 -0.097359374 0.2467174
0.055621557 0.2637577 0.015948042 -0.09068548 0.048473842 -0.20341885 -0.030365724 -0.1503747
-0.07041528 -0.15420273 -0.20730795 -0.1598129 -0.19045344 -0.1299561 -0.04275098 0.1829196
0.14573754 -0.042534396 0.03512255 -0.4394582 -0.522017 -0.021370817 -0.013213607 -0.06818389
-0.035189 -0.10379895 -0.002683677 0.17801444 -0.03955688 -0.42593953 0.10397358 0.10806886
-0.05873772 0.07996766 -0.046463944 0.053751417 -0.2385387 -0.088233136 0.0723749 0.091310926
-0.090001255 -0.07655857 0.20326272 0.041579176 -0.091220595 -0.34396398 -0.48138988 -0.103388704
-0.22930948 0.15891558 -0.16159491 0.1357364 -0.085332945 -0.14300086 -0.34116048 0.020593029
-0.010072865 0.046457086 0.040550612 -0.48033476 -0.15494668 -0.32162318 0.022879234 0.19701871
-0.06140583 -0.05980903 -0.055664554 -0.028407155 0.014663428 -0.04848445 0.021407485 0.042645685
0.008201685 -0.00938073 -0.06437628 -0.11796675 -0.0067549543 -0.056351375 -0.108683795 -0.05066766
-0.08765347 -0.118350975 -0.081710584 0.042888436 -0.12541732 0.0060305055 -0.084956445 0.040537354
-0.032752458 -0.0379163 -0.02708536 -0.077526234 -0.097748004 -0.042773515 -0.0073657115 -0.06818931
-0.07395296 -0.05856099 -0.0443032 -0.054178447 0.004638344 -0.018967777 -0.070944615 -0.07303782
0.07849728 0.012813721 0.0023514323 0.009558812 0.059018426 -0.09680593 -0.05311028 -0.11582167
-0.10427453 -0.06941916 -0.028747676 -0.11442327 -0.0140749365 0.02036266 -0.11415532 -0.004554025
-0.015577358 -0.077720486 0.049331326 -0.09432861 0.04657864 0.028507441 -0.05484953 -0.03494683
0.04443075 0.03009999 -0.07211348 -0.035023365 -0.024249867 0.04829905 -0.06190344 -0.034180176
0.039344218 -0.07958229 0.0021670721 -0.07741135 -0.07725439 -0.12314217 -0.027355667 -0.03286951
-0.044622682 -0.005033838 -0.000297699 -0.063339554 0.035877697 0.034933403 -0.0110730985 -0.03440077
0.0074495864 0.026683904 -0.023700574 -0.106420316 0.007291824 -0.02104153 0.06317614 0.039225936
0.015683208 -0.08773212 -0.0916417 -0.12460725 -0.11701237 -0.03601365 0.04195877 0.0043091676
-0.09667434 0.008419899 -0.09880147 0.036375757 0.06181695 -0.02670002 0.0063454956 -0.02800785
-0.024517037 0.0435305 0.016264068 0.030139197 -0.009700287 -0.07508193 0.025757436 -0.13164258
0.04969754 -0.0025834537 -0.10772815 -0.09995276 -0.047450107 0.048905816 0.032493576 -0.05947017

_policy.2.bias f4 [128]
00000000: 01ca 34be 78fc 1abe 7b7d 0ebe 012b 403d
00000010: a8a1 cfbb 5dd6 9a3d 2368 b4bc 8958 033d
00000020: 569e 10bd 7d59 8a3d 7f58 e0bd 6ad0 8c3d
00000030: 986d 9c3d 270d 7e3d dfaa 643d 4039 ee3d
00000040: eac3 513d 9b30 153e fce7 203e 3ec2 d43c
00000050: eb74 22bd 1e48 77bd 125b e23c c837 bcbc
00000060: 0aa5 e2bc 8d71 0abc 77e1 943d 0862 17be
00000070: d2d7 28be c191 b63d dc08 b1bd 2ded a5bd
00000080: eb27 63bd 519b c73c 756a b2bd feb9 80bd
00000090: 3b90 3dbd 6f67 253b 2bb0 153d e999 c3bd
000000a0: 2b00 133e 472d d8bd 87c6 083d 6f25 94bd
000000b0: 8f48 26bd e432 4f3b 94ac 4ebb 626e d0bd
000000c0: 93a2 293d cc0f e3bd 8ee6 dcbd 822b dbbb
000000d0: 782e a33d 6d92 b5bd 8478 063d eea7 c9bc
000000e0: 5146 a3bc 7c34 12be 64d0 18bd e817 2ebe
000000f0: 5ac9 f8bc 26d6 af3d 98e3 94bd d027 d63b
00000100: ced5 aabd 1b73 05bd c8c8 413d d3e7 ad3c
00000110: 5a2b 03be 22bf c9bd c5f5 5ebd 4222 6ebd
00000120: 8ab6 fabd 2959 05be 808c 9f3d 31b3 07be
00000130: 3bcf e13d e8dc debd 5e05 623d ac8c adbc
00000140: 7cff 8ebc 090b 49bd 119e a23c fbcb 243d
00000150: b795 1abd e2be f73d 1651 8abd 7f76 9ebd
00000160: cf17 44bd 828b ec3a 3581 30be 542c cb3c
00000170: a611 16bd 9cde c03d 9634 3abe c966 02be
00000180: 4609 14bc cad6 573c c055 acbd f981 88bd
00000190: 2dfb 14be 46d1 bbbc 40d8 6bbc 705a c73d
000001a0: 4bde 16bd 2eab a63d 1d66 33be 7cfa 34bd
000001b0: b01c 03be 0f64 88bd c6f9 54bd 3355 8e3d
000001c0: c522 0f3d ae15 8f3d f48e d9bd a9ef 303d
000001d0: 77eb ccbd 63b4 22bd 50ac f1bd e8f1 583a
000001e0: 966c b4bd f415 f4bd 35c2 90bd 3943 a8bd
000001f0: 379a 07be 0645 fa3c 2159 9dbd 195d 643d
-0.17655183 -0.15135372 -0.13915055 0.04691601 -0.0063364096 0.07560418 -0.022022313 0.032066856
-0.03530725 0.0675535 -0.10954379 0.06875689 0.07638091 0.06202426 0.055827018 0.11632013
0.05121223 0.14569323 0.15713495 0.025971528 -0.039662283 -0.06037151 0.027631316 -0.022975817
-0.027666587 -0.008449924 0.072695665 -0.1478349 -0.16488579 0.08914519 -0.08644268 -0.08101878
-0.05545799 0.024366053 -0.08711711 -0.06285475 -0.046280127 0.0025238653 0.03654496 -0.095508404
0.14355533 -0.10555511 0.033392455 -0.072337024 -0.04059654 0.0031616027 -0.003153597 -0.10177304
0.04141481 -0.110869974 -0.10786162 -0.006688536 0.079678476 -0.08865819 0.032829776 -0.024616208
-0.01993099 -0.14277834 -0.03730811 -0.17001307 -0.03036945 0.085857674 -0.072699726 0.0065355077
-0.08341561 -0.032580476 0.04731062 0.021228706 -0.12809506 -0.09850909 -0.054433603 -0.05813814
-0.12241848 -0.13022293 0.0779047 -0.1325195 0.11025854 -0.10881978 0.0551809 -0.021185242
-0.017455809 -0.04908279 0.019850763 0.040233593 -0.037740435 0.12096955 -0.06753747 -0.07737445
-0.04787427 0.0018046948 -0.17236789 0.02480141 -0.036637925 0.09417459 -0.18184122 -0.12734522
-0.009035414 0.013173768 -0.08414793 -0.06665415 -0.14548941 -0.022926938 -0.01439482 0.097340465
-0.03683309 0.08138119 -0.17519422 -0.044184193 -0.12803912 -0.0665971 -0.051996015 0.06949844
0.03494527 0.06986557 -0.10622969 0.043197308 -0.10005849 -0.03972281 -0.11800444 0.0008275793
-0.088097736 -0.1191825 -0.07068292 -0.08215947 -0.13242422 0.030550491 -0.076830156 0.055752847

_policy.4.weight f4 [128, 128]
00000000: 5978 0a3e d5ab 0cbd 2e6e 05bd f666 45be
00000010: d929 6f3d 2ed7 353d 1626 ab3d 126d 113e
00000020: 6013 efbc f8f2 e73c 4125 81bd ef2a 753c
00000030: c875 2ebe f49f 9c3d 361f c3bd c051 7e3e
00000040: 4978 c3be f1c8 233e f501 51be 553e 6dbd
00000050: 27a0 80bd c9f2 7dbe e911 83bd 09db 203e
00000060: d1d1 963c d517 46be c97d aebd ae16 483d
00000070: 3b74 6e3d 118a 69be 878d da3d 2973 edbe
00000080: 66e9 05be 0766 c6bd 8a83 2a3e c5eb 02be
00000090: 9f61 0dbe d77d 57be 2a5d 37be a997 d6bc
000000a0: 574c 8cbe 59ea b9bd 8b25 3d3e 8fb9 22bd
000000b0: cf4c 083d d39e 303d fcb4 dcbd e2df 4e3d
000000c0: 6b09 ab3c 2ae0 3e3d 0488 debd 3083 64bd
000000d0: 6fcb 683d 9d7d b63d b4b9 aebe 6f1e 65bc
000000e0: 464c 8b3d 4ad7 0bbd 7f07 bf3a 94d7 503e
000000f0: 5756 5ebe 994c fdbd c156 d7bd a407 94bd
00000100: e514 7b3c 427e 86be 9cdd 01be 1f74 6dbe
00000110: 933d b23c e2cd a7be f17e 6fbe 8eda c3be
00000120: e759 8a3d f92a 9abd 1fd0 32be d8ed bbbd
00000130: 3752 ca3e 7f70 c63c ca98 1b3d 19cf dcbe
00000140: 910e 28bf 7648 a4bd a99e 38be 602b 3f3e
00000150: ad6c c73c 9d47 babd 2294 9fbe 476c d3be
00000160: 95d3 1d3d 3ca8 64bd 1d41 a23e b30c e2bc
00000170: 6c9f c63d 9a27 3fbc fbf4 26be 3b29 3b3d
00000180: 86b0 423e 53a5 e0bd fcec 71be a568 a93d
00000190: ae98 08bf f563 733e a899 c63d a811 28be
000001a0: 5815 45bd 3a0d c63e 1745 1bbd 8a64 403c
000001b0: c484 cb3c c5fb 033e bba9 cabc 0a34 d23d
000001c0: a024 61be 0dfe 5cbe bb47 be3e d7a2 16bd
000001d0: bb0f 92be 9963 69be fdd4 443e c6ff 463d
000001e0: c0d3 4d3e 0b82 84be 5929 25bc 0a5e aabe
000001f0: 7e9b dbbc aa2b 933e ee9f a1be c7ca 5d3e
00000200: da38 14be c21c 6d3d 8d6a 263d 294b 9f3d
00000210: 69e8 b6bd 08b6 a83e bcf1 b1bd 325d a4be
00000220: 5ec8 a73c 2f02 d4bb ec19 fa3d d927 f2bc
00000230: 2f07 9fb9 bc7e ac3e a89a 283e d144 35be
00000240: a233 1cbe 2cc1 853e 2867 063e 72e1 7bbc
00000250: cc92 0bbf ad52 ef3d 494a 183e c64a a2be
00000260: e70b 0e3c 2c36 4c3e 395f 9e3d bd90 f63d
00000270: 8046 3abc d7a0 c23d e487 1a3e 7fc7 913d
00000280: eb35 f6bd b53d 35be 373d 22be cc21 a0bc
00000290: 4f26 9e3b 0a7f 2bbd 694b 9c3b f852 45be
000002a0: c28d 8fbd a06d a8be 66ef e0be 067b 123e
000002b0: 6f90 b8bc f891 9abd 2035 4bbf 1e08 333e
000002c0: 797d 023e 8dc6 68bd 174e 1b3d 346e 8dbd
000002d0: 5d59 c8bd a109 6d3d b5f7 a5be f6a6 873e
000002e0: c096 44be 7b58 34bd 7d6b 8f3d acdc 37bd
000002f0: effa 8d3e 87d9 f0bd 5609 e6be 7d8d 0a3c
00000300: 4f33 b1bd 958f 99be 0dcb 15be b7ea 23bd
00000310: c1b5 2fbd 3dc3 143e 5517 4c3d edb4 cebe
00000320: b5ec 0abd 14f9 fb3c 20ac 4abe c2f9 bdbe
00000330: 5e71 b33d c84e b4be 6be4 68be e9cb 1cbe
00000340: 3135 1fbd 8179 723e 015f 99be 4fc0 1a3b
00000350: 0090 c23a 9c36 d6bd 466e 7f3e c889 87be
00000360: 7335 60bf b677 343d e089 a3bc 44c2 3bbe
00000370: 1bf1 b13c 2944 83be c57b c5be 1a9f b0bd
00000380: c919 c53e 8ccb 16bf c153 a13e 3426 d33d
00000390: 7282 0ebf af50 88be a52e 2c3d e9f0 a13c
000003a0: da0d c1bb 95cd 76bd cdbf 09bf 3a5b 513d
000003b0: b676 0b3e ef90 2e3e 43fe 8e3d 310c 79be
000003c0: 4831 acbd 7317 7ebe b45d 46bd fdf6 9fbc
000003d0: 525f 32be 0c5e d5ba dddf 25bd 9868 0f3d
000003e0: 9352 0bbb 929b 2dbe cdf1 943d 4e0c 9d3d
000003f0: dc1f d3bc fc19 123e 84e2 2abc 612e cf3d
0.13522471 -0.03434356 -0.03257578 -0.19277558 0.05838952 0.044394664 0.08356874 0.14201763
-0.029184043 0.028314099 -0.06305934 0.014963849 -0.17037117 0.07647696 -0.095274374 0.24835873
-0.38177708 0.15994622 -0.20410903 -0.057920773 -0.06280547 -0.24799646 -0.063999005 0.15708555
0.018410595 -0.19345029 -0.08520085 0.048849754 0.058216315 -0.22806574 0.106715254 -0.46376923
-0.13077316 -0.09687429 0.1665174 -0.12785251 -0.1380677 -0.21044098 -0.17906633 -0.026195364
-0.27401993 -0.090779014 0.18471353 -0.039727744 0.033276375 0.043120217 -0.107767075 0.05050648
0.020878514 0.0466005 -0.10865787 -0.055789173 0.056834634 0.089106776 -0.34126055 -0.013984307
0.068016574 -0.034140863 0.0014574378 0.20394737 -0.21712624 -0.123681255 -0.10514594 -0.0722802
0.015324806 -0.26268202 -0.12682194 -0.23188828 0.021757877 -0.32774264 -0.23388268 -0.38252681
0.06755429 -0.07527728 -0.17462204 -0.091762245 0.3951585 0.024223564 0.037987508 -0.43126753
-0.65647227 -0.08021633 -0.18029274 0.1866889 0.024343813 -0.090956904 -0.31167704 -0.41293547
0.03853186 -0.055824503 0.31690302 -0.027593946 0.09698376 -0.011667157 -0.1630439 0.045693617
0.19012651 -0.10969033 -0.23625559 0.082719125 -0.5335797 0.237686 0.09697276 -0.16412985
-0.048116058 0.38681966 -0.037907686 0.01174272 0.024843581 0.12889011 -0.024739137 0.10263832
-0.21986628 -0.21581288 0.371641 -0.03677639 -0.28527626 -0.227919 0.19221874 0.04858377
0.20100307 -0.25880465 -0.010080659 -0.3327487 -0.026807543 0.2874425 -0.3156733 0.21659385
-0.14474812 0.057888754 0.04062896 0.077780075 -0.089310475 0.3295138 -0.08688685 -0.32102352
0.020481285 -0.006469987 0.122119755 -0.029560016 -0.00030332195 0.3369044 0.16465247 -0.17702033
-0.15254071 0.2612394 0.13125288 -0.015373575 -0.5452087 0.11685691 0.14872088 -0.31697673
0.00866983 0.1994254 0.07733006 0.120393254 -0.011369348 0.09503334 0.150909 0.07118129
-0.12022003 -0.1769932 -0.15843664 -0.019547366 0.004826344 -0.0418692 0.004769732 -0.19269931
-0.0700946 -0.32896137 -0.43932647 0.14304742 -0.022529809 -0.075473726 -0.7937794 0.17483565
0.12743177 -0.056829978 0.03791627 -0.06905785 -0.0978267 0.05787051 -0.32415548 0.2649457
-0.19198132 -0.044029694 0.07002924 -0.044888183 0.2773051 -0.1176024 -0.44928998 0.008456585
-0.086523645 -0.29992357 -0.14628239 -0.040018763 -0.042897943 0.14527602 0.04982694 -0.4037241
-0.033917148 0.030758418 -0.19792223 -0.37104613 0.087618575 -0.35216355 -0.22743385 -0.1531216
-0.038869087 0.23679163 -0.29955295 0.002361316 0.0014843941 -0.10459635 0.2494441 -0.26472306
-0.8758156 0.044059478 -0.019963205 -0.18335825 0.021721413 -0.2563794 -0.3857099 -0.08624096
0.38496235 -0.5890434 0.31509212 0.10310021 -0.55667794 -0.26624057 0.04203667 0.019768195
-0.005891544 -0.060254652 -0.5380829 0.05111239 0.13619503 0.17047475 0.0698209 -0.24321057
-0.08407837 -0.24813633 -0.048429206 -0.019526953 -0.17419174 -0.0016278639 -0.040496696 0.035011858
-0.0021258935 -0.16953877 0.07272682 0.076683626 -0.025772028 0.14267725 -0.010429982 0.10116268

_policy.4.bias f4 [128]
00000000: 6b5e 3abb b380 0e3c 71ec 983d b6f2 b3bd
00000010: 4c00 6ebd 3deb 5abe d241 2fbd fb21 c0bd
00000020: ecad 3fbe dadd 3bbd 15c1 f33c caca 293e
00000030: 6c26 d1bd 8d67 a23b e64c efbc 5a4b 173e
00000040: e0e8 6dbe 692c 0a3d 7e71 c1be f83f 54be
00000050: 40e1 0b3c c778 933d cd9d 0fbd 0f3c 04be
00000060: 0cf0 603d 7cd1 0bbe df77 84be 5ba6 6cbd
00000070: 5e95 4d3c df6d ee3c cb54 20be 2abf 393d
00000080: 7a30 933c 4610 503e 46a6 edbe 8291 3cbe
00000090: 7b24 b73c c59e 8fbe 52b9 c539 2a66 c9bd
000000a0: 923c 65bb 0321 663c adf1 90bd 3ec3 52be
000000b0: e78f 073d 0a8b b4bd 3b3f 1cbe 9857 0bbe
000000c0: 192a dd3d 8f0e f83d c55c 30be e83d d3bd
000000d0: 6328 c63d 5c45 89be c200 893c 6632 a73d
000000e0: 77bc d5bd a2c5 0dbe fe20 efbd 0af8 083d
000000f0: 39bb 08be 7362 38be 5101 bbbd f2e1 bc3c
00000100: a40e dfba 42bc aabc a39a acbd 59ef d3bd
00000110: ba99 1fbe fc30 7ebd 45d0 51bd a54d b2bc
00000120: f0b5 5ebe d4f9 5dbd 746b c03d a776 1dbe
00000130: 6457 c73b 6945 9d3d 5d4b c23d 9a8d d53c
00000140: d823 abbd 7bd3 72bd 209d 6fbd 4907 e3bd
00000150: 9443 61be 4c29 873e c172 433d 7d91 07be
00000160: 774b 48be 9cf9 f9bd 6a55 313e b026 a6bd
00000170: 08d3 b6bb 3a26 06be 233a 0bbe 3c46 59bd
00000180: 4045 90be 0ddd b03c 46a1 b03d 6802 023d
00000190: 7039 b43d ddf7 0dbe a613 e5bd e7cb 2c3d
000001a0: dd9d 86bd 3e5a 343e f935 013e af3a 993d
000001b0: 1a02 a1bd e7c0 303c fa9e a5bc 589c 103d
000001c0: 85ca 44be 7538 54bd 7175 e1bd 9df3 16bd
000001d0: fbd2 803d c4dd 82be 74ae 9cbd 68a3 74be
000001e0: 464a b4bd 3f78 ffbd 6c49 bdbd 4cec e2bd
000001f0: a556 3ebd f5d6 75be 3cc7 6c3d b795 fc3c
-0.0028437625 0.0086976765 0.074669726 -0.08786528 -0.058105752 -0.21378799 -0.04278738 -0.09381481
-0.1871869 -0.04586587 0.029755155 0.16581264 -0.102124065 0.004956192 -0.029211473 0.14774838
-0.23233366 0.03373376 -0.377819 -0.20727527 0.0085375905 0.07200771 -0.0350626 -0.12913536
0.054916427 -0.1365413 -0.25872704 -0.057775836 0.012547819 0.029105125 -0.15657346 0.045348324
0.017967451 0.20318708 -0.4641592 -0.18414882 0.022356262 -0.2805082 0.00037712842 -0.098339394
-0.003497873 0.014045957 -0.07077346 -0.20582291 0.03309622 -0.08815582 -0.15258496 -0.13607633
0.10799045 0.12112152 -0.17222889 -0.10314542 0.09675672 -0.2681073 0.016723994 0.081639096
-0.104363374 -0.13844922 -0.11676215 0.033439673 -0.1335267 -0.18006305 -0.091311105 0.023056958
-0.0017017913 -0.020841721 -0.08427932 -0.10348386 -0.15585986 -0.062058434 -0.051224012 -0.02176554
-0.21749091 -0.054193333 0.09395495 -0.15377294 0.006083416 0.076792546 0.09487031 0.026068497
-0.08356446 -0.059283715 -0.058499455 -0.11085374 -0.21998435 0.26398695 0.04771686 -0.13239093
-0.19560038 -0.12205812 0.17317739 -0.08112848 -0.005579356 -0.1310052 -0.13596396 -0.053045496
-0.28177834 0.02158978 0.086245105 0.031740576 0.08800018 -0.13864084 -0.11185388 0.042186644
-0.06573079 0.1761255 0.12618245 0.07481896 -0.07861729 0.010788179 -0.020217407 0.03530535
-0.1921788 -0.051811654 -0.11008728 -0.03685342 0.06290241 -0.2555982 -0.07650462 -0.2389046
-0.08803229 -0.12474107 -0.0924252 -0.11080226 -0.04646935 -0.24007781 0.057807192 0.030833108

_policy.6.weight f4 [128, 128]
00000000: f46a b6be 7740 0d3e ea77 c03c bf9d b5bd
00000010: 6b2a c8bd 71b4 ddbe ef92 6ebc 3c4c 7c3e
00000020: c271 b6be 9bea 99bd e3f4 9d3e c013 1fbe
00000030: 5b26 d1bd 8eba b33d c3d2 73be 0c0f fa3d
00000040: 5a3b 76bd 3799 21bd c5a6 b33d a6c6 dcbe
00000050: 03b3 433e 875b 86bc 00ad 58bc 241d d539
00000060: 16b4 39be 5271 493d 5ccf 743c fac2 28bd
00000070: 484c 89be feb3 5e3d 40fa 843e 6f4a 943e
00000080: 1997 613d 2419 813c 1951 c53e 12ea aebd
00000090: c455 d63d beb6 4b3d 840f c23d 60e5 9dbe
000000a0: 5d9d b0be ce27 f2bd d2cf 703d bfac 353e
000000b0: 932b 60be a0e0 92be ee7c bebe 6e34 57be
000000c0: 83a6 1abe b5ec af3c cc6a 8b3d 0574 d7bd
000000d0: a610 cdbb 1782 1abc 00be 32bd c64d e7be
000000e0: 7b3c dcbe 9313 f8bb 9c4d b0bc 8659 1cbe
000000f0: b79f f2bc 59a7 65bd eb17 29be 115d 81be
00000100: 72eb 1abf 9046 8d3e 70f4 013e fd4f 0bbf
00000110: 4f2b f13d 7257 453d d07f 813c 08a1 fbbc
00000120: 327d 9d3e 1029 70bc dbd5 42be 336a 0b3e
00000130: c853 b13e 1bd9 72be d49a 953e 08f8 e73c
00000140: 7ce5 dabd f5af bb3c 3a88 15be 9820 8fbe
00000150: 5a80 69bc 56fc f53d 931a 27be a248 2cbd
00000160: 3d4e 2dbe f93b 9bbe 228e a23e 7c21 21be
00000170: 3a24 10bd 5b9d aa3d 6503 76be cd5c d4be
00000180: 8e6d 45be 278f 40bd d464 c0bd df96 0ebf
00000190: 52cd aebc 76ec 01be 531c b5be 4cc8 a53e
000001a0: 5d51 c4be 267e 4dbe bf7d b93e 626c 2a3e
000001b0: 4f71 afbe 772e 9dbe a714 5f3d 6938 2fbc
000001c0: ac83 9fbc 96fa 853c 5517 e9bd c82d 523d
000001d0: c622 ce3c 1a8a 1c3e 8dc8 f93d b823 e93d
000001e0: 26d9 a93e d926 1cbd a501 323e c52d 09bf
000001f0: d1cf e3be 4169 613d 8072 bbbd 4174 32be
00000200: 8fcc debd a6b7 073e aa07 31be 1854 683e
00000210: 37a5 d3bd c89c 40bd b63b efbe 664b de3d
00000220: c3ac e23d 0c1b 44be 074a eabc 2da7 053d
00000230: b35b 36be 6fad abbd 5976 06be 5e5f d1be
00000240: 69f4 893e b818 e1bd 6702 d2be 296d 33be
00000250: 1375 8c3d 7a04 65be 17c3 85bd 124f 463d
00000260: f57a 1fbe 0d99 3abe 7e31 083e ed51 d23d
00000270: 5cdb 88be 1587 b6be d9ea 55be aaec 853e
00000280: ab79 05bf a09d d33d 091f 923e 1d4c 3c3d
00000290: 80cd 173d e34f 93bc bf32 8d3d 6356 013e
000002a0: bd65 363d f17a 56bd cf29 7bbf 8827 0b3d
000002b0: 40ee b63e ab8f aebe 5f60 8bbe 7541 373d
000002c0: dcef 99be 55ed aa3d bcd5 1abf ef06 27be
000002d0: bbea c8bd 9fa6 b8be 4228 c93d f8ba eebd
000002e0: c779 e13c 3f17 833e c82f 72be 0e6a 99bd
000002f0: e47b e8bd f4cb 453c b9b9 b8be b1c6 a3bd
00000300: 63de 96bd 61e0 8a3e 4be7 7ebe 3b0d da3d
00000310: 0159 ebbe 50b1 e6be 1558 31bc 614f 783e
00000320: 2098 b6be 9e78 18bd b3a4 aaba 5688 ad3c
00000330: e4f5 a13e 0c16 2cbf 39f3 b3be 28b4 023e
00000340: bced 0abe a223 183e 3ce7 6fbd 6eea babe
00000350: ad11 4e3e 4b10 33be 9776 7b3d 6431 c4be
00000360: f1b9 ee3d c796 09bf 88dd b7bd d4be e03c
00000370: 2a50 c93d 8e36 c3bc b1a0 e5bc ecb7 9ebc
00000380: d8dd bbbd 35fa e7bd 6464 25be 8ea4 393e
00000390: 9855 03bf ef91 8b3d d005 5cbe fab3 df3d
000003a0: 0e00 923e 5db2 89be 5a63 893e ba26 3a3e
000003b0: c84e 98be e344 27bf 1e3e c53e 2676 5bbe
000003c0: 412d 1bbe 5028 873d c410 66be aa12 8ebe
000003d0: 4e57 45be c46c 0ebe 47fe 1dbe f214 8cbe
000003e0: 9c7a b5bd 2069 67bf 3bb1 183e 4bf9 abbc
000003f0: 6564 85be 6af5 92be 6b84 133d 090e 5cbf
-0.35628474 0.13794123 0.02349468 -0.08867978 -0.097737156 -0.43301728 -0.014561399 0.24638456
-0.35633665 -0.075154506 0.30850896 -0.15534878 -0.10212394 0.08775817 -0.23810868 0.12209901
-0.060115196 -0.039452758 0.08772043 -0.43120307 0.19111256 -0.016401066 -0.01322484 0.00040648237
-0.18135104 0.049180336 0.014942016 -0.04120157 -0.2681601 0.054370873 0.25972176 0.28963038
0.05507574 0.015759058 0.38538435 -0.08540739 0.10465577 0.049734823 0.094756156 -0.30839062
-0.3449506 -0.118239984 0.058791943 0.17741679 -0.21891622 -0.28687 -0.3720469 -0.21016094
-0.15102582 0.021475175 0.06807479 -0.10520176 -0.006258088 -0.00943043 -0.04363823 -0.45176524
-0.43014893 -0.007570693 -0.021521382 -0.15268525 -0.029617174 -0.0560678 -0.1651303 -0.25266317
-0.6051551 0.27592897 0.12690902 -0.5441893 0.117758386 0.048179097 0.015808016 -0.030716434
0.3075958 -0.014658228 -0.19026892 0.1361473 0.34634233 -0.23715632 0.29219687 0.028316513
-0.10688302 0.022911051 -0.14602748 -0.27954555 -0.014251793 0.1201102 -0.16318731 -0.042061456
-0.16924377 -0.30319193 0.31749064 -0.1573543 -0.0351908 0.083307944 -0.24024732 -0.4147705
-0.19280073 -0.04701152 -0.093942314 -0.5569896 -0.021338139 -0.12687859 -0.35373172 0.32379377
-0.38343325 -0.20067653 0.3622875 0.16642907 -0.34266135 -0.30699512 0.054463055 -0.010694602
-0.019471966 0.01635484 -0.11381403 0.05131319 0.025163066 0.15287057 0.12196455 0.11383766
0.33173484 -0.038122986 0.1738344 -0.53585464 -0.4449449 0.05503202 -0.091526985 -0.1742716
-0.1087886 0.1325365 -0.1728808 0.22688329 -0.103342466 -0.04702452 -0.46725243 0.10854225
0.11068108 -0.19150943 -0.028599752 0.032630134 -0.17808418 -0.08382689 -0.13131084 -0.40893072
0.26944283 -0.10991043 -0.41017458 -0.1752211 0.06858268 -0.22364989 -0.06531351 0.04841525
-0.15574248 -0.18222447 0.1330013 0.10269532 -0.26729858 -0.35649934 -0.20890369 0.26157123
-0.52138776 0.10332799 0.28539303 0.045971025 0.037061214 -0.017982429 0.06894445 0.1263061
0.04453062 -0.05236334 -0.9811067 0.033973247 0.35728645 -0.34093985 -0.27221963 0.04474016
-0.3006581 0.08346049 -0.6048238 -0.16311239 -0.09810396 -0.36064622 0.09822132 -0.11656755
0.027523888 0.25603673 -0.2365104 -0.074909315 -0.11351755 0.012072552 -0.36079195 -0.07996882
-0.07366636 0.27124313 -0.24892919 0.10647055 -0.45966342 -0.45057154 -0.010824223 0.2424903
-0.35662937 -0.037224405 -0.0013019055 0.021183174 0.31632912 -0.6722114 -0.35146502 0.12764037
-0.13567251 0.14857343 -0.05857013 -0.3650698 0.2012393 -0.17486684 0.061392393 -0.38318932
0.11656559 -0.5374569 -0.089778006 0.027434744 0.09829743 -0.023829725 -0.028030725 -0.01937481
-0.09173173 -0.1132702 -0.16151577 0.18129179 -0.5130248 0.06814944 -0.21486592 0.10923
0.28515667 -0.26893893 0.26833612 0.18178836 -0.29747605 -0.6533949 0.38523954 -0.21431789
-0.15153982 0.06599486 -0.22467333 -0.27748615 -0.19271585 -0.13908678 -0.1542903 -0.2735973
-0.088612765 -0.90394783 0.14911358 -0.020992896 -0.26053157 -0.2870286 0.036014955 -0.85958916

_policy.6.bias f4 [128]
00000000: 7c0c a9bd 0043 a1be cbf5 0c3e a62c 353e
00000010: 5c41 6b3d 6436 fa3d 6036 ce3d daa3 17bd
00000020: a78c ee3d a25c 263d 544e 6c3d 5e8d 913d
00000030: 1425 9b3d 3dba d2bd 74ea ec3d 7dfd 523e
00000040: 2cdd 853d 869f d83d c735 3cbe 3bde a3bd
00000050: 462e 133e d891 673e 5968 083e 17ee 853d
00000060: b6ad 273e 41bb 1b3e 252b d93b fa34 173e
00000070: 9b37 0ebd 5c56 8fbd 773c bb3b f731 34be
00000080: 670c e53d f74e b6bd c7e0 1f3e b469 ef3d
00000090: 2f18 8bbd d8fc 9c3d 9e59 373d a444 273d
000000a0: faf9 c3bd 469a c8bd ca21 853e cf4c f9bb
000000b0: 6cfe eb3d 3297 50be 79ea 223e f3ef 013e
000000c0: beb4 2c3e ad82 f2bd a359 343e 921c 293d
000000d0: 549e 2bbd 6674 8dbd d0fc 6d3d d04f 3c3e
000000e0: 96c0 0e3e 8413 cc3e 193c 663c 34b6 ae3d
000000f0: 2163 c83b 8328 c03d da7c aebd 60c5 353e
00000100: 48f0 43bc b0d6 683d 1169 0e3e e3c2 4d3e
00000110: 1ab7 893d 7665 c03d 7e31 e3bd 3c21 9d3d
00000120: e5e0 c6bd b6c0 183e 77f2 59bc 28f3 bf3d
00000130: e08e 343e 1fbd 58be b795 213d 48ce 523c
00000140: fe03 ff3d c789 413b d617 1cbe 5ffc 853b
00000150: ec9b 3c3e c636 e63d e53f 2fbe 05c5 ad3d
00000160: 29bc f13d dfcd 093e 3e62 493d 323e b83e
00000170: a27e 3b3e a52a bf3d 6890 6cbd 8d51 203c
00000180: 3431 69be 8a9c 1a3e 312d f03d 8060 923d
00000190: 35ee 01be 9362 fb3d ef33 4a3d 1cb1 273e
000001a0: 3fd0 3bbe 6970 c4bc 483e a03d d053 203d
000001b0: 5bf0 b6be eabc 783e c9da 523e 44cb cb3b
000001c0: 728b 293d da3f 25be c21b e3ba ef20 e73d
000001d0: 19bb 863c 2d8b 143e 72e2 ddbd 087a f43d
000001e0: 705f 2a3e c966 933e 9308 233e 6fcd 4bbe
000001f0: edd6 5a3e 8973 0abd 6348 12bd a0a0 ec3d
-0.08254334 -0.3149643 0.13765638 0.17692813 0.05743538 0.122174054 0.10068965 -0.037021495
0.11647921 0.040615685 0.057691887 0.07107042 0.075754315 -0.102894284 0.11568156 0.2060451
0.06536326 0.10577302 -0.1837989 -0.080013715 0.1437312 0.22614229 0.13321055 0.06539553
0.16374859 0.1520815 0.0066274577 0.14766303 -0.034721 -0.069988936 0.005713995 -0.17597185
0.11184006 -0.0890178 0.1561309 0.11690083 -0.06791722 0.076654136 0.0447632 0.040836945
-0.095691636 -0.0979505 0.26002342 -0.0076080333 0.115231365 -0.20370176 0.15909757 0.1268919
0.16865823 -0.11841331 0.17612319 0.041287012 -0.04189904 -0.06906967 0.05810243 0.18389821
0.13940653 0.3985864 0.014052414 0.08530846 0.0061153327 0.09382727 -0.08519907 0.17751074
-0.011959143 0.056845367 0.13907267 0.20093875 0.06724377 0.09394352 -0.11093424 0.076723546
-0.09710864 0.14917263 -0.013302437 0.0937255 0.17632627 -0.21165894 0.03944942 0.012866564
0.12451933 0.0029531585 -0.15243468 0.004088923 0.18418854 0.11240916 -0.17114218 0.08484844
0.11803467 0.1345744 0.049165957 0.3598495 0.18310025 0.09334306 -0.057754904 0.009785068
-0.22772676 0.15098777 0.117273696 0.07147312 -0.12688525 0.12274661 0.049365934 0.16376156
-0.18341158 -0.023979383 0.07824379 0.03914243 -0.35730252 0.24290815 0.20591272 0.0062192995
0.04139275 -0.16137639 -0.0017326998 0.112855785 0.016446637 0.14506216 -0.10834207 0.11937338
0.16637969 0.28789356 0.1592124 -0.19902585 0.2137105 -0.03380159 -0.035713565 0.11554074

_policy.8.weight f4 [3, 128]
00000000: fce4 81bc 5b02 403e 31d0 10be 7d4b 14bf
00000010: 182b b6be 6349 3ebe 47ec 09bf 651b febd
00000020: b466 1d3f dcaf f8bd 74af ab3e 19d2 2d3f
00000030: 1153 51bd 6d71 b8bb facd 6cbf f42e f0bd
00000040: 428b 9d3e 581c af3e ce32 dbbe 71d5 55bd
00000050: e468 45be 638b 3cbe 4081 06bc 18ea 923e
00000060: afb7 dcbd 9a4d a5be b348 2a3e ccb7 39be
00000070: 7df8 f8be e75b 023f 9583 8ebd 99ce 0f3d
00000080: be33 3fbe 0557 d8bc 8773 82be 64bf e63e
00000090: bc39 e5be 42e6 a63e 41a5 3dbe 13c9 9cbd
000000a0: 78f4 fa3e 3f2b 7f3c 2f02 c2bd 7b76 033f
000000b0: 2f7b 9a3e 4442 f7be 0a4c 933f afdb b33e
000000c0: b0d7 23be ebcd 13be 532a 8c3e 340b 54be
000000d0: 2d92 a4be 28c7 403e 6a70 2c3d ca5d 61be
000000e0: 7750 5bbd 5380 e3be 520d db3d 4844 b83e
000000f0: eaca d23d 91ba e0bd 0885 3ebf 61c6 09be
00000100: ca1b 953e de97 9c3e 3d11 d33e e441 05be
00000110: 5813 093f 391c e1bd 3ca9 ef3e 3ef9 54bc
00000120: 80ba aebe 4783 0a3f 5803 063f 6a82 7b3d
00000130: a78f 40be 072a f33e 0da6 87bd 24ba a43e
00000140: 08ff f1bd 1e22 34be d9d6 39bf 4d57 8cbd
00000150: 3766 9cbe c6e5 f43e f6f1 32bf d80c f5bd
00000160: 422f 15bf 7f80 9c3e ae49 42be 8a26 93be
00000170: c8fd 6ebe 187e 19be 8006 063f d913 e33e
00000180: 9aaf ce3d 806d d2bd c2e8 093e 8f5f d9be
00000190: 6661 523c 8d6d 0ebe 52e5 3bbe ee09 d2be
000001a0: bf2c e5bd d9c7 873e f872 ecbe 8f94 363f
000001b0: 5c59 ad3e ab86 0a3f 296b 28be cefc 493e
000001c0: 25e5 c7be 6647 cfbd 9b87 bf3d 83fb c6bc
000001d0: 70e1 93be 6273 c4be 0a64 fe3e 14a8 8bbd
000001e0: 66dc 9a3e 6440 54be cca9 83be eb4f e03e
000001f0: 8f57 b93e 7377 413e 8328 d53d 60ee b2bd
00000200: ebf8 9e3e cdd0 b63e ea42 82bd 33dc 183f
00000210: f88c a33e fdba 87bc 810c b93e ca85 093f
00000220: 56af d7be 2f0b e53e b281 a5bb b7fc 5fbe
00000230: 064b febd 2b08 373e a58f 7b3f 5e14 3abe
00000240: 77b2 d9be 69e1 55be 1ab7 c03e 55db a13e
00000250: b0be f63e bd61 bd3e 09e6 99be ddec 06be
00000260: cad1 9abe a2d0 5b3e 3c26 81be 61dc aebe
00000270: 7638 c13e ecc8 09bf 94cd 843e b99e 293d
00000280: 672a 8c3e 0822 4ebe a7a9 53bf e7fd fabd
00000290: 32f2 11be bfa5 e6be 7118 143f 505d e5bd
000002a0: f19e 45bc 1141 f33d ba7e 043f 711c 24bf
000002b0: c1ed 86be 51b7 f13e a2c5 5bbf 3730 72be
000002c0: 53d1 9bbd bd05 2d3f ff30 97bd d5d1 803e
000002d0: d4c9 8e3e 61d9 31bd 6f0b c63e 13c6 4cbe
000002e0: 4d8f 9f3e a23d f63e 6050 133e 6206 94bd
000002f0: 0b2e 3f3e dd3f fabd 6b77 223f 775a ab3e
00000300: f3ba 0abf 200c 14be a2c6 023b f8fe a53e
00000310: 133f 2dbd 3e5d 06bf 9308 753e e7c1 f63e
00000320: 14b3 92bd 8fa2 03bf d21d 3e3d 8ee3 96be
00000330: 545f cb3e 7fa4 0dbf 84c1 8abe 0474 bfbe
00000340: 2c81 a0be f1b1 d7bd 1184 fc3e a83e 8d3e
00000350: 8a41 d93e 9acb bbbd ea41 823e cd45 07bd
00000360: 7d60 153f 9036 83be 7541 1e3e 8694 81be
00000370: 3c9d 8fbe 7cb8 69be d0ef f4be 0825 9dbd
00000380: 139b 07bf c67d f83e faf1 77bc ebdd 253e
00000390: 2182 58bf 3523 8cbe 49a1 623c c8ff f73c
000003a0: 628f c8bd 5d52 03bd eedd 7f3c deff 60bf
000003b0: 86ac ca3e acb7 0cbf 746d 293d 4082 8bbe
000003c0: 5193 b83e f4ee 063f fd4e 6a3d 9b7f 6d3e
000003d0: c32f ddbc af65 b83d bd9e 8fbf 481d a7be
000003e0: 9632 a3be b178 8f3e 944a 123f fe42 fcbe
000003f0: b5d5 9cbe 498e aabc 2bed 9b3e 8e10 9ebe
-0.015856259 0.18750899 -0.14141919 -0.57927686 -0.35579753 -0.18582682 -0.53876156 -0.12407569
0.6148484 -0.121429175 0.33532298 0.6789871 -0.05110461 -0.005628756 -0.92501795 -0.117277056
0.30770308 0.34201312 -0.42812198 -0.052205507 -0.19278294 -0.18412547 -0.008209527 0.28694224
-0.10777222 -0.32285768 0.16629295 -0.18136519 -0.48627082 0.5092148 -0.06958691 0.035109136
-0.18672082 -0.026408682 -0.25478765 0.45067894 -0.4477061 0.32597548 -0.1852007 -0.07655539
0.4901464 0.0155742755 -0.09473073 0.5135266 0.30172107 -0.48292744 1.150758 0.35128543
-0.16000247 -0.1443402 0.2737604 -0.20707399 -0.32142773 0.18825972 0.042099394 -0.22008434
-0.053543534 -0.4443384 0.106959 0.35989594 0.10292609 -0.10973085 -0.7442174 -0.13454582
0.29122764 0.30584615 0.4122409 -0.13013417 0.5354514 -0.10991711 0.46808803 -0.012998877
-0.34126663 0.54106563 0.5234885 0.06140367 -0.18804799 0.47493002 -0.066234685 0.32173264
-0.118162215 -0.1759114 -0.72593457 -0.06852589 -0.30546734 0.47831553 -0.69900453 -0.119653404
-0.58275235 0.30566785 -0.18973419 -0.2874034 -0.23338997 -0.14989507 0.5235367 0.4435108
0.10092087 -0.10274792 0.13467696 -0.42455718 0.012840604 -0.13908978 -0.18349198 -0.410232
-0.11190175 0.2651966 -0.46181464 0.7132043 0.33857238 0.54111737 -0.16447128 0.19725344
-0.3904201 -0.1012104 0.093520366 -0.024289852 -0.28882933 -0.3836928 0.496857 -0.06819168
0.30246276 -0.20727688 -0.25715482 0.43810973 0.36199614 0.18893223 0.104081176 -0.08736873
0.31049284 0.35706177 -0.06360419 0.59711 0.31943488 -0.016568655 0.36142352 0.5371977
-0.42125958 0.44735095 -0.0050508613 -0.21873747 -0.12416653 0.1787421 0.9826606 -0.18171832
-0.4251897 -0.20886768 0.37639695 0.3161265 0.48192358 0.3698863 -0.30058315 -0.13176294
-0.3023818 0.21466306 -0.25224483 -0.3415251 0.3773839 -0.5382221 0.25938094 0.041411135
0.273761 -0.2013017 -0.82680744 -0.12255459 -0.14252546 -0.4504833 0.57849795 -0.111994386
-0.01206182 0.11877645 0.5175587 -0.641059 -0.26353267 0.47210172 -0.8584844 -0.23651205
-0.07608285 0.6758688 -0.07382392 0.2516009 0.27888358 -0.0434202 0.38680598 -0.19997434
0.31164017 0.48093897 0.1438613 -0.0722778 0.18669908 -0.12219212 0.6346347 0.33467457
-0.5419151 -0.1445775 0.001995482 0.32421088 -0.04229648 -0.52486026 0.23929052 0.4819481
-0.07163063 -0.5141992 0.046415158 -0.29470485 0.39721167 -0.55329126 -0.27100766 -0.373932
-0.3134855 -0.105319865 0.4931951 0.27586865 0.42432815 -0.09169693 0.25440913 -0.03302555
0.58350354 -0.25627565 0.15454657 -0.25308627 -0.28049648 -0.22824281 -0.47839212 -0.07673079
-0.52971 0.48533458 -0.015133375 0.16197936 -0.8457356 -0.2737061 0.013832399 0.030273333
-0.09792973 -0.03206097 0.015616877 -0.8789042 0.3958475 -0.5496776 0.04136415 -0.2724781
0.36049893 0.52708364 0.057204235 0.23193209 -0.027000314 0.090037696 -1.1220318 -0.32639527
-0.31874532 0.28021768 0.5714505 -0.4926986 -0.30631796 -0.0208198 0.30454382 -0.30872005

_policy.8.bias f4 [3]
00000000: 4f5e b63c b38d a0bd 30a8 2c3d
0.022261767 -0.07839527 0.042152584

_value.0.weight f4 [128, 22]
00000000: 0949 813d 9182 2b3e 9eee 17be 7ff2 1a3d
00000010: 18b2 ec3c 85ea 2cbe 2372 9e3d cc30 4abd
00000020: b387 283e 9597 3abe 82b1 0bbd f392 243e
00000030: a7da 903d 3e58 5cbd 3d94 42bd b7d6 2d3d
00000040: a02f e3bc 611b 2d3e f6a2 2339 0f67 d23d
00000050: df54 a03d 0410 a1bd c38a 23be 990e 0dbe
00000060: ffc4 87bd ad6a 55bd 8cc6 193d 437f 1fbe
00000070: 5050 a3bd 2979 033e f99f 72bc 27e0 9fbd
00000080: 047b 17be 60b7 6dbd 3e74 1ebe 6921 303e
00000090: da37 e43d 0597 293e 93ae 15be 70ab 32be
000000a0: 6bd1 683c 727e 69be 1cf6 ecbd 3e5b 3e3d
000000b0: 06e5 d8bc 9408 00bd bda9 7fbd a072 17be
000000c0: a9a8 253e df6b 253e aaa5 d9bd e7e0 323e
000000d0: 45ed 073e 6056 903d d6c3 373e 4692 193e
000000e0: a70c 25be 4252 53be b6a6 11be 59bc 57be
000000f0: c5b7 0abe 4616 62bc 9dbe 6cbd c7af c3bd
00000100: 6a08 1abe 056d a83d fbd8 ebbd edde 353d
00000110: c90d 633b 1c1e 56be 49ed 1bbe 8fd0 573d
00000120: c730 923d 4fe0 103d 89d0 843c 29c6 e9bd
00000130: 5d46 e83d f5f7 233d 7eac 8d3e b2f4 b53b
00000140: aaca 163e ec01 d8bc b6c5 013c 88a8 26bd
00000150: e588 ddbd 67d2 973d cbe0 aabc 9527 8b3e
00000160: 7a37 0abe f96a 7b3e 6ee9 6ebe 081c a53d
00000170: 2fa3 b23c 2747 c23d d455 d43c 5423 ab3d
00000180: 641f 96bd cd0f b1bd 009f 3cbe e27e c2bd
00000190: 3cf7 653d 9849 873d 93e8 abbd 12f9 a2bd
000001a0: 2e7e 68bd de42 873d 054e 50bd 9d12 8e3c
000001b0: 4293 0b3d 3a65 cfbc 74f3 46be 5fd6 6c3e
000001c0: 2ed2 053e da5a e1bd cc36 013e 540a 0bbe
000001d0: 09d6 1d3e 6577 133d 83f5 9f3d c972 b23c
000001e0: 5ee0 04be a4eb ab3d da49 143e c25c ea3d
000001f0: 3199 363e 7876 d03d 83f8 a53a 37e9 23be
00000200: 5fbe 573b 6e34 0abe 51b3 b4bd d843 37be
00000210: 3ca4 af3d ce48 333e f04b debd 60ee 2e3e
00000220: 74e5 3abd 3f7e 30be 9fec c13c 0881 04bd
00000230: 03b1 873d baeb 5abd ac8a 4abe d1e8 60bd
00000240: 1ce1 14be 9be6 363e ef71 3cbe 1d39 f03d
00000250: 595f 7b3d f9c7 cfbd 0096 cf3d 3beb 3abe
00000260: 5ea5 28be 7c10 a73c acae adbd 9741 0cbe
00000270: 9be3 aa3b 8272 26be 6cd5 ca3d 5bb0 133e
00000280: f781 db3d 2573 893c 93d3 d4bd c561 2b3e
00000290: fd57 a2bc 2e1e 15be 1671 5d3d 62bb 47be
000002a0: 2af6 9d3d d51a fcbd e9ba 673c 89da cdbc
000002b0: e23c 62be d068 253d 554c 1c3e 10a7 f53d
000002c0: ab12 de3d d620 3bbe 86d3 8ebd fa21 e5bd
000002d0: 2840 aebd 0a26 d03c 4759 f03d b0a3 283e
000002e0: 338e 0cbd a34f 3e3e 1b9e 49bd 71be 0ebe
000002f0: fd6a 033e e7ee 06be 2e45 54be 6f17 31be
00000300: 4d47 263e 4f8c e53b 2249 533c 7aa5 cbbd
00000310: c986 5fbe f6e9 253e 8cbe 60bd b18c df3d
00000320: 139e 9f3d 5799 06bd 2e0e 3a3d 8d29 a6bd
00000330: 9a42 433d a312 29be 4f60 04bc 2521 b93d
00000340: 8f38 9cbd 2fee 4c3e 989e 17be f30b 3bbe
00000350: a406 fc3d ae79 a3bd 335d 64bd ead9 4abe
00000360: ec4f 51be 340f 183a c5be b13c c321 833d
00000370: 339b 153e 72e5 1fbe 7d0c 25bd b620 0e3e
00000380: 65be 063e 6737 a5bd e201 47bd a267 8a3d
00000390: 7fd7 0d3e f88d 9a3d 0e46 213d 0584 2ebc
000003a0: 6372 903d 4635 7f3c dca6 913c d995 ab3d
000003b0: 34be 13be b656 e0bc 2cd0 2d3e 824d afbd
000003c0: c346 8ebc 4ae6 41be 9f74 52bd 7c9c 2cbd
000003d0: dd95 77bc 3e81 aabd 1cc7 1ebe 615e 04be
000003e0: 0d2a 76bd 26ba e6bc c0b3 183d 7351 f23b
000003f0: 3ca7 0b3e 4a28 043e 2942 073e 91c5 193e
0.063127585 0.16749026 -0.14837119 0.03782892 0.028893515 -0.16886337 0.077366136 -0.049362943
0.16458015 -0.18221886 -0.03410483 0.16071682 0.070729546 -0.05379509 -0.047504652 0.042441096
-0.02773267 0.16904975 0.00015605599 0.10273563 0.07828688 -0.07864383 -0.15970902 -0.137751
-0.06629371 -0.052103687 0.037542865 -0.1557589 -0.07974303 0.12839188 -0.014808648 -0.078064255
-0.1479302 -0.05803621 -0.1547403 0.17200245 0.11143465 0.16561516 -0.14617376 -0.1744821
0.014210085 -0.22802141 -0.11570379 0.046473734 -0.026476394 -0.03125818 -0.062417734 -0.1478982
0.1617762 0.16154431 -0.10627301 0.17468606 0.13274105 0.07047725 0.17945799 0.14997205
-0.16118108 -0.20636848 -0.14223751 -0.21067943 -0.13546665 -0.013799256 -0.05779897 -0.09555011
-0.15042272 0.08223919 -0.11515995 0.04440205 0.0034645668 -0.20909923 -0.15227236 0.05268913
0.0713821 0.035370167 0.016212719 -0.11414749 0.11341546 0.040031392 0.27670664 0.0055528516
0.14725748 -0.026368104 0.007920673 -0.040688068 -0.10817126 0.07413178 -0.020859143 0.27178636
-0.13497725 0.24552526 -0.23331234 0.08061987 0.021806328 0.094862275 0.025919832 0.08356348
-0.07330206 -0.08645592 -0.18420029 -0.09496857 0.056143984 0.06605834 -0.083939694 -0.07957663
-0.05676096 0.06604551 -0.050855655 0.01734286 0.034075983 -0.025316823 -0.19428807 0.23128651
0.13068458 -0.11003657 0.1261856 -0.13578159 0.15413679 0.036002535 0.078104995 0.02178325
-0.12976214 0.08394554 0.14481297 0.114434734 0.17831875 0.10178846 0.0012662563 -0.16006933
0.0032919866 -0.13496563 -0.088232644 -0.17896974 0.08576247 0.17508242 -0.10854328 0.1708312
-0.04562898 -0.17235659 0.0236724 -0.032349616 0.06625559 -0.053447463 -0.19779462 -0.05490953
-0.14538997 0.17861407 -0.18402837 0.117296435 0.061370227 -0.10145564 0.10136032 -0.18253796
-0.16469333 0.020393603 -0.08480582 -0.13696896 0.005215121 -0.16254619 0.09903988 0.14422743
0.10718148 0.016778538 -0.10391917 0.16736515 -0.019817347 -0.14562294 0.054062925 -0.19505075
0.07712968 -0.12309805 0.014143684 -0.02512862 -0.22093537 0.04038316 0.15263493 0.11994755
0.108434044 -0.18274245 -0.06973939 -0.11188121 -0.085083306 0.025408763 0.11735778 0.16468692
-0.0343153 0.18585066 -0.049223047 -0.13939835 0.12833782 -0.13177072 -0.20729515 -0.17294095
0.16238137 0.0070052515 0.012895854 -0.099436715 -0.2182876 0.1620253 -0.05486922 0.10915507
0.07793822 -0.03286108 0.04542368 -0.08113394 0.047670938 -0.16511016 -0.008079602 0.09039525
-0.07627975 0.20012735 -0.14806592 -0.18266277 0.12305954 -0.07982193 -0.055752944 -0.1980969
-0.20440644 0.0005800605 0.021697411 0.06402924 0.14609985 -0.1561487 -0.040295113 0.13879666
0.13158567 -0.08067208 -0.04858578 0.06758048 0.13851736 0.0754661 0.03937345 -0.010651593
0.070530675 0.015576666 0.01777976 0.083781905 -0.14428025 -0.027385097 0.16973943 -0.08559705
-0.017367726 -0.18935505 -0.05138075 -0.042141423 -0.015111414 -0.08325432 -0.15505642 -0.12926628
-0.060098697 -0.028164934 0.037280798 0.0073949634 0.13638014 0.12905994 0.13208832 0.15016772
