logs/weight_colliion_obj_obs = 0.4/model/model_1510.pth (torch, 427625 bytes, 19 tensors)

_policy.0.weight f4 [128, 22]
00000000: bd0f c0be e208 55bd b0bb 3a3e 5719 be3d
00000010: 3981 b7be 6189 5ebe d0d5 323e 1314 d9bc
00000020: 6c99 e33e 29b0 b53e 64c1 69be dcd6 933b
00000030: 3e8a 873e dc94 f43e f8c2 98bd 351a 01be
00000040: 19ed a5bd b24f 973d 4747 0b3d 4211 033e
00000050: 35f6 08be 7cc8 16bf 4c9d d1be a51a 9dbe
00000060: 5d66 b93c 3f46 8a3f 4a93 69bd aed1 743c
00000070: 57f0 8c3e 3c73 873d 994c 6cbf 43ab e13d
00000080: d27d 133e 1e0f 6e3e 60c8 a63e 4a5f a23e
00000090: 04af 4f3e 57cc 5bbd ec99 2ebd eb77 41be
000000a0: 74db 55be 2c3e de3d 7cfd bb3c 5502 e5bc
000000b0: 4880 19bf 8e72 90bd e288 8e3e 32d7 963c
000000c0: f2a4 92be 9491 d83d 5389 553b 824e 5a3e
000000d0: ce14 a13f 9478 09bf a97d 943e a607 953b
000000e0: 7c5e cc3e e4a5 ea3e e93a a43d 4adb 1f3e
000000f0: dcdd 1fbe c3f7 e93d 2240 c63a 8716 20bd
00000100: a593 bbbd dd3f e2bd 5cb5 ae3d 2000 12bf
00000110: 33eb ad3d 5fff 0d3f 41a2 44bd d309 38bf
00000120: 2bdc 1c3e ecf2 d03e 3e2d 0a3e f369 113e
00000130: 8e82 2bbd 52fb 69be 60f7 a7be 59f3 223f
00000140: 9390 6abe 442b 0bbe 2c85 59be 4571 c83b
00000150: c412 55be d3ed 963e 37e3 143e d94d d23d
00000160: 8bf7 903f 456f 01bf 8f04 acbd e55e 683e
00000170: 7b41 4b3f df61 29bf b2a5 8e3d 2135 1abf
00000180: 9865 35bf 3129 0e3f 7a69 013e 8636 18be
00000190: e7ee eabd 05c3 23be ae58 a33b 78f3 323e
000001a0: 4b8d 20bc 34f2 813b 8e88 c83c 90fc ffbd
000001b0: 7409 773c 93fc 01bd 894c 36bf 21e3 513f
000001c0: 1cb0 fe3e 5a16 1dbf a536 89be 82ce 393f
000001d0: ea81 4c3e ff9f 7c3e 0968 c8bc 9f06 99bf
000001e0: 0afe a0be 345e f1bb df95 3bbe bd89 ca3c
000001f0: ae68 703d 7cb4 0dbd 7c00 253e 866a 2d3d
00000200: e28c 45bd 783a d6bd 147e 9abd 1fc4 a63d
00000210: 19e7 b9bd a58e 2c3e 9d31 90be b858 913e
00000220: b25b d03e 7ff9 8bbd d536 08bf 820b b23d
00000230: 670c 1e3f 58b2 1dbf e8fb 5c3e 0147 51bd
00000240: 8282 6bbf 4e9d 013e a955 28bd c2a2 8abc
00000250: 1df9 a4bd 1560 11be 2cc6 be3e 5ef3 3dbe
00000260: 89d6 283e 0710 f7bd e0c2 7ebe e00b 1abe
00000270: 67ed a43c e300 7c3f e9ff b13e bc1d 9e3e
00000280: 62cd 84be 46f7 0cbe 9667 54bf 18e4 653f
00000290: 278c 8cbd d4c0 dfbe f8fc 543d e8b0 893d
000002a0: 4de1 1dbe 79aa 393d dcc3 e8bd 601d 6fbe
000002b0: 3f6c 73bc 353d 6c3d 74df ffbb 25cb 763e
000002c0: 43a4 383e ec0a e9be ce5e c3bd 107a 113e
000002d0: adc2 f03e b538 93bd d5d1 41be 1b43 d9bb
000002e0: 36ef 0640 58f5 9a3f dac5 58bc f5a7 efbd
000002f0: dde1 453e 2647 133c b890 103e 9a7b 1ebe
00000300: d0d9 2e3e 26d2 9cbd a1bd 7cbd 8d65 2bbc
00000310: 57fc 87bd 9e9c d43d 496e b43e 4473 493f
00000320: ef22 e6be 768e 46bf 1767 89be e5d8 003f
00000330: 8b0a f1be 366d 27bf 79f3 21bf 9f57 ac3e
00000340: 9f44 4a3d ed4c e73e 2a08 ba3e 8d42 11be
00000350: cf72 903d 2c16 213d 723c f43d 7c85 22be
00000360: 8e37 8abc 4a95 a9ba 103a 01be 78ce f8bd
00000370: 5229 47bf 4e77 afbe db2b 453e 2013 abbd
00000380: a317 39bf 7433 bdbe 66f8 8abd 9479 013e
00000390: d4fe c63f 5986 0f3f eaf9 843e e464 63be
000003a0: e1f2 95bc 8259 843d 2c1b b1bc 008b ed3d
000003b0: a804 193e bfe4 813c d48d f3bd cb12 bcbc
000003c0: 7c7f cabd a737 8ebd d71a 593d acc9 9a3e
000003d0: 68e1 53bf 41e7 b0be 1aac 29be 63b6 d0bd
000003e0: 3764 56bd c0b3 01bf b4c5 a7be 5850 12be
000003f0: 74e0 1ebd a204 9dbd 368b cebe 0242 c2be
-0.37512007 -0.052010424 0.1823566 0.09282177 -0.35840777 -0.21732093 0.17464375 -0.02649883
0.4445299 0.35485962 -0.22827679 0.004511697 0.26472658 0.4776982 -0.07459062 -0.12607653
-0.081018634 0.073882475 0.034003522 0.12799552 -0.1337517 -0.58899665 -0.4094032 -0.3068439
0.022631818 1.0802687 -0.05702523 0.01494257 0.27527115 0.06613776 -0.9230438 0.11018994
0.14403465 0.23247954 0.3257475 0.31713325 0.20281607 -0.05366167 -0.04262726 -0.18893401
-0.20884496 0.10851702 0.02294802 -0.027955214 -0.59961367 -0.070530996 0.27838808 0.01841316
-0.28641468 0.10574642 0.0032583072 0.21319011 1.2584474 -0.5369961 0.2900212 0.004548031
0.39915836 0.4582969 0.08019049 0.15610996 -0.15611976 0.1142421 0.0015125314 -0.039083984
-0.0915902 -0.11047337 0.08530685 -0.5703144 0.08492126 0.5546779 -0.0480063 -0.7188999
0.15318362 0.40810335 0.13493821 0.14200573 -0.041872554 -0.22849777 -0.3280592 0.6365257
-0.22906713 -0.13590723 -0.21242207 0.0061170184 -0.2080794 0.2947832 0.145398 0.102687545
1.1325544 -0.5056041 -0.08399307 0.2269245 0.7939679 -0.66164964 0.069651976 -0.6023732
-0.70858145 0.55531603 0.12637892 -0.14864549 -0.11471348 -0.15992363 0.0049849367 0.17475688
-0.009799312 0.0039656404 0.024479177 -0.12499344 0.015077937 -0.031735014 -0.71210533 0.81987196
0.49743736 -0.6136223 -0.26799503 0.7258073 0.19971433 0.24670409 -0.02446367 -1.1955146
-0.31443816 -0.007365966 -0.1831889 0.024723882 0.05869358 -0.03459595 0.16113466 0.042337917
-0.04823006 -0.10460371 -0.07543579 0.08142876 -0.090772815 0.1685129 -0.28162852 0.28388
0.40694958 -0.06834697 -0.5320867 0.08693601 0.61737674 -0.61600256 0.2158047 -0.051093105
-0.91996014 0.12657663 -0.041097317 -0.016923312 -0.08055327 -0.14196809 0.37260568 -0.18549868
0.16488089 -0.12063604 -0.24879026 -0.15043592 0.020132734 0.98438853 0.34765556 0.3088206
-0.25937945 -0.13766202 -0.8297056 0.8980117 -0.068626694 -0.43701804 0.051999062 0.06723195
-0.15417977 0.04532859 -0.11365482 -0.2335105 -0.014857351 0.05767556 -0.00780862 0.24100931
0.18031411 -0.45516145 -0.09539567 0.1420672 0.47023526 -0.071885504 -0.18927701 -0.006630314
2.1083503 1.2106123 -0.013230765 -0.11701957 0.19324441 0.008989131 0.14117706 -0.15476838
0.17075276 -0.0765727 -0.06170428 -0.010461223 -0.06639927 0.10381435 0.3524039 0.78691506
-0.44948527 -0.7756113 -0.26836464 0.50330955 -0.47078356 -0.6540102 -0.63262135 0.336606
0.04938185 0.45175877 0.36334354 -0.14185543 0.07053148 0.039327785 0.119255915 -0.15871233
-0.016872194 -0.0012938168 -0.12619805 -0.12148756 -0.77797425 -0.3427071 0.19255011 -0.08353257
-0.7230169 -0.36953318 -0.067856595 0.12644035 1.5546517 0.56064373 0.2597192 -0.22206455
-0.01830429 0.06462385 -0.021619402 0.11598778 0.14943182 0.015856145 -0.11892286 -0.02295818
-0.09887597 -0.069442086 0.053004112 0.30231988 -0.8276582 -0.34551433 -0.16569558 -0.101910375
-0.052341666 -0.506649 -0.32768023 -0.14288461 -0.038788274 -0.07666899 -0.40340585 -0.37940985

_policy.0.bias f4 [128]
00000000: 907c cbbd e81e e4bc 0cf4 43be 63e6 3fbe
00000010: 61fb f0bc c098 05be 31e4 1f3d 7984 a2bb
00000020: fb4a 26bd ce03 333e c766 273e c989 343e
00000030: cc82 32be 2382 74be 7c61 1f3c 42fb d8bd
00000040: 3e86 d8bb e68b 203d 923f 3bbe 1960 0e3d
00000050: a1e3 a83d 6896 17bd 0da2 8cbe 79cb 753e
00000060: e023 a3bd 20b7 88bd b915 e4bc 7f2d 14be
00000070: 0daa c33d ffa3 57be abb0 79be 4925 27be
00000080: 529c e13d f254 cebd 882a a43d 1e97 793d
00000090: b051 543e 21dd 4fbe 8f74 2abe 295f 453a
000000a0: 52cb 05bd c5b1 e43d 5230 3ebe 603c 97bd
000000b0: b4fc 88ba 71f9 05be 49cb 443e 6d73 cf3d
000000c0: 6a50 f5bd 69c1 41be 0ba1 a5be d1b2 1fbe
000000d0: afbd 93be 11b2 613e d50c 8fbe 0a72 cdbd
000000e0: 809f 8ebd 7861 b23d 4658 b83e 86a5 73bd
000000f0: e989 2abd 059a b3bc e5ac 96be 9582 88bd
00000100: bef7 05be 2982 b8bd a1c7 513d e4a9 b0bd
00000110: 9e35 cfbd d1ac 2fbe 5537 aebd 1325 94bd
00000120: 1f1a 33be b60a 0f3e 3789 29be 3fc4 f13d
00000130: eb81 f2bd 1e76 00be e45b 44be 82c8 05be
00000140: c0bd 8aba 0888 41bc 9272 a13c 7342 76be
00000150: e45e e0bd 9858 55bc 341f 2ebe eb8d 5fbd
00000160: b51b f0bd 26da 84be 100d a33d 0865 5abe
00000170: e718 cb3d 9a11 8cbe 0183 6bbe 9e5d 133d
00000180: 5e91 9dbe b727 1cbe abc0 cabd ebf3 32be
00000190: a998 94be b69a 23be 62b7 0fbe 609d 8abd
000001a0: 4713 963c 3c79 2d3c c78d 54be 639c 71be
000001b0: e476 6bbc 4966 283e ea9a 123e d295 65be
000001c0: 15b7 50be 5955 eebd 6732 8bbe 74c1 123e
000001d0: b057 ce3b b877 133d fac7 89bd 9c20 393e
000001e0: 90f6 a63d 5665 bfbd 6b08 443d b604 4abe
000001f0: 2ee0 003c 1167 5fbe 051f 69be 98fa 87be
-0.09935868 -0.027846768 -0.19136065 -0.1874023 -0.029416742 -0.13046551 0.03903598 -0.0049596396
-0.04059885 0.1748192 0.163478 0.17630686 -0.17432708 -0.23877768 0.009727832 -0.105947986
-0.0066078 0.039195918 -0.18285969 0.034759615 0.08246542 -0.037008673 -0.27467385 0.240034
-0.07965827 -0.06675553 -0.02784239 -0.1447048 0.09553919 -0.21058653 -0.243838 -0.16322817
0.11016144 -0.10074796 0.08015925 0.060935132 0.20734286 -0.20299198 -0.16646026 0.00075291336
-0.032664604 0.11166719 -0.1857312 -0.073845625 -0.0010451288 -0.13083436 0.19218172 0.101294376
-0.119782284 -0.18921436 -0.3234943 -0.15595557 -0.28855655 0.22040583 -0.27939478 -0.10031517
-0.06964016 0.08709997 0.36004847 -0.059484027 -0.041635428 -0.021924028 -0.29428783 -0.066655315
-0.13082787 -0.09009201 0.05121577 -0.08626154 -0.101176485 -0.17155768 -0.085066475 -0.07233634
-0.17490433 0.1396893 -0.1655625 0.11805009 -0.11841186 -0.12545058 -0.19175678 -0.13064769
-0.0010585114 -0.0118122175 0.019707952 -0.24048786 -0.10955599 -0.013021611 -0.1700409 -0.054578703
-0.11724035 -0.25947684 0.07961476 -0.21327603 0.09916859 -0.2735718 -0.22999193 0.035977952
-0.3077497 -0.15249525 -0.0990003 -0.1747586 -0.2902272 -0.15976986 -0.14034799 -0.06768298
0.018319739 0.010587987 -0.20757209 -0.23594813 -0.014371607 0.16445269 0.14316908 -0.22420433
-0.2038234 -0.116373725 -0.2718689 0.14331609 0.0062970743 0.036002845 -0.067275956 0.18078846
0.08152497 -0.093455 0.04785959 -0.1972836 0.007865949 -0.2181666 -0.2276574 -0.26558375

_policy.2.weight f4 [128, 128]
00000000: 0e86 3a3e ded4 d6bc a464 16be 655d 8ebe
00000010: 8419 a13e 0753 13bf 83ab a03c b9b8 513e
00000020: 3016 883d a240 0fbf 07a0 a6bc 74e1 6abe
00000030: 2200 053d c0ec ecbd 319c bebe ae22 90bd
00000040: 0682 183d 75d8 623d a3a8 95bd 8240 223d
00000050: 4f7e bb3d 0118 b6bd 975e fd3b 5bc3 b2be
00000060: f3de 97be ccae 7cbc bf5f 6dbe 14f9 803e
00000070: b5e7 7f3e 89af e03d 0635 bb3d e848 bebe
00000080: da42 f43d 0fd8 a33c 7a8b 833e e4cb b6bb
00000090: a334 8d3d 1344 b3be c1cc eb3d ac2e ae3d
000000a0: 7894 e4be 5fe4 59be 4af8 503d b22e dcba
000000b0: c28d 333e fd10 68be d6db ad3d 9355 a2bd
000000c0: 49eb 48bd 35ab 28bf f2b2 95be 0c44 2c3d
000000d0: e947 e93e aa26 c43e 83eb a4be 5ee2 6dbe
000000e0: 6540 983e 903f 443e 79c9 11be b38f 153e
000000f0: 2a6f 853e 61a1 bfbc c851 98be d6c3 c13d
00000100: 6f3f cc3c c5a8 743e 96b7 203e d928 04bd
00000110: 828c 463d 6726 59be f2c4 df3b ce39 24be
00000120: 8823 15be aa2b 95bc 9ea5 03be 8d4a 94be
00000130: 0012 12be 18f1 68bd 9806 a3be 381f 573e
00000140: 19fe 783e dfde d43d 985e c13c 5917 f9be
00000150: e746 e1be e489 07be 8e4e d73b ccac 64bd
00000160: bf9d 4cbd fb09 643d 3b35 233e 24a7 9d3e
00000170: 44ea ed3c 96dc 18bf 0d2c 483d de80 c93c
00000180: fca8 3ebd e5e3 ae3d 907f 8bbd 34bf 0f3e
00000190: ed50 8dbe 3588 3f3c 4b39 943d 9766 913d
000001a0: d476 2cbe a7b9 4ebe 771f 133d 9c42 d8bd
000001b0: 0baa d63d e651 9abe dcc3 11bf 75bd d3bd
000001c0: 739c 57bd e03b 4c3e 5298 4abe 2877 f33d
000001d0: 6a4f 3e3c bdf3 da3c 5c95 28be 3edd 0cbe
000001e0: a808 25bc 6a05 4d3d f634 433d 4c1c 10bf
000001f0: 00a4 0a3d df02 fbbe 9f1a 8c3c dea5 213e
00000200: ae84 7bbd 50fa 74bd 8400 64bd 25ef 3cbd
00000210: 0c41 18bb a197 46bd c05e af3c 3ead 2e3d
00000220: 53d4 1bbc a2b1 19bc b6d7 83bd 8d98 f1bd
00000230: aa58 ddbb 44ec 94bd 9c95 debd 99c9 7cbd
00000240: aa83 b3bd cdca f5bd e157 a7bd c9ab 2f3d
00000250: 666d 00be 8c9b c53b a5fd adbd a9e6 bb3c
00000260: 7127 06bd 1f4e 1bbd 1ee2 ddbc 13c6 9ebd
00000270: 1b30 c8bd 4833 2fbd 115c f1bb 0443 97bd
00000280: a674 97bd a6dd 6fbd 4677 35bd 38ea 5dbd
00000290: 40fd 973b 5062 9bbc 694b 91bd da94 95bd
000002a0: 2fc3 a03d 9df1 c13a 7d1a 1a3b 909c 1c3c
000002b0: 4ebd 713d 9e0b dabd 4d4f 8abd e933 edbd
000002c0: e38d d5bd a22b 8ebd 3f80 ebbc bf56 eabd
000002d0: 909a 66bc 3802 263b 44ca e9bd 51e5 16bc
000002e0: 2d38 7fbc eb2b 9fbd a50f 4a3d c00f e0bd
000002f0: 3ec9 3e3d dd01 2e3c e7a9 60bd 6824 0fbd
00000300: 05fd 353d c5e6 453c 5cb4 a8bd a974 0fbd
00000310: a8a7 c6bc 3ad5 453d b3cf 9ebd 8300 0cbd
00000320: 6727 213d 0afc a2bd 7005 0e3b d889 9ebd
00000330: 8d37 9ebd f631 fcbd fe18 e0bc 2ea2 06bd
00000340: 46c6 36bd e5f2 a4bb 7c14 9cb9 2bb8 81bd
00000350: 7ef4 123d 5416 0f3d f16b 35bc d2e7 0cbd
00000360: a91b f43b 3498 da3c b527 c2bc e5f2 d9bd
00000370: 41f0 ee3b f7b3 1bbd 8840 3e3d 22f7 ac3c
00000380: 127a 803c 076a d4bd a5ae bbbd 8000 02be
00000390: 2ea4 efbd 0d83 13bd f6dc 2b3d 69bb 55bc
000003a0: 32fd c5bd 9ef3 093c 6d58 cabd bffe 143d
000003b0: 430d 503d 00ba dabc e0ed cf3b b870 e5bc
000003c0: 06bc 1dbd 0a4d 323d 393c 853c 7ae6 f63c
000003d0: f4ed 1ebc 8ec4 99bd 4201 d33c 50cd 06be
000003e0: a68f 4b3d c7a7 9fbc 94a0 dcbd 08b4 ccbd
000003f0: 0b5b 42bd 7751 483d 9d26 993c fe96 73bd
0.182152 -0.02622455 -0.14686829 -0.2780563 0.3146478 -0.57548565 0.019613033 0.20480622
0.06644857 -0.55957997 -0.020339979 -0.22937566 0.03247083 -0.11568594 -0.3722854 -0.070378646
0.037233375 0.05538221 -0.073075555 0.0396123 0.09154951 -0.08891297 0.0077322233 -0.3491467
-0.29662284 -0.015422534 -0.23181055 0.25190032 0.24990733 0.10970981 0.09140973 -0.37164998
0.119268134 0.020000486 0.2569235 -0.005578505 0.06894805 -0.35012874 0.11513663 0.08504996
-0.44644523 -0.21278523 0.051018037 -0.0016798584 0.17534545 -0.2266273 0.08489196 -0.07926478
-0.04905251 -0.6588624 -0.29238087 0.042057082 0.45562676 0.38310748 -0.3221093 -0.23230883
0.2973663 0.19164872 -0.14237012 0.14605598 0.26061374 -0.023392381 -0.29749894 0.09461181
0.024932591 0.23892505 0.15695032 -0.032265518 0.048473842 -0.21206056 0.0068288976 -0.16037676
-0.14564335 -0.018209297 -0.12856147 -0.28963128 -0.14264679 -0.05687055 -0.31840968 0.21008003
0.2431568 0.10394072 0.023604676 -0.48650625 -0.43999407 -0.13236195 0.0065706437 -0.055828854
-0.049955126 0.05567358 0.15938275 0.3079158 0.02904237 -0.5971159 0.048870135 0.024597581
-0.046547875 0.08539561 -0.0681144 0.14037782 -0.27600804 0.011690189 0.0723749 0.070996456
-0.16842204 -0.20188008 0.03591868 -0.1055958 0.10481652 -0.3014061 -0.5693948 -0.103388704
-0.052639436 0.19944715 -0.19784668 0.118879616 0.0116156135 0.026727552 -0.16463226 -0.13756272
-0.010072865 0.05005399 0.04765793 -0.5629318 0.03384781 -0.49025628 0.017102538 0.1578593
-0.06140583 -0.05980903 -0.055664554 -0.046126503 -0.002323213 -0.04848445 0.021407485 0.042645685
-0.009511071 -0.00938073 -0.06437628 -0.11796675 -0.0067549543 -0.072716266 -0.108683795 -0.061715696
-0.08765347 -0.12001572 -0.081710584 0.042888436 -0.12541732 0.0060305055 -0.084956445 0.022937136
-0.032752458 -0.0379163 -0.02708536 -0.077526234 -0.097748004 -0.042773515 -0.0073657115 -0.07385829
-0.07395296 -0.05856099 -0.0443032 -0.054178447 0.004638344 -0.018967777 -0.070944615 -0.07303782
0.07849728 0.0014796738 0.0023514323 0.009558812 0.059018426 -0.10646747 -0.06753407 -0.11582167
-0.10427453 -0.06941916 -0.028747676 -0.11442327 -0.0140749365 0.0025330912 -0.11415532 -0.009209947
-0.015577358 -0.077720486 0.049331326 -0.10940504 0.04657864 0.010620561 -0.05484953 -0.03494683
0.04443075 0.0120789455 -0.08237526 -0.035023365 -0.024249867 0.04829905 -0.07754459 -0.034180176
0.039344218 -0.07958229 0.0021670721 -0.07741135 -0.07725439 -0.12314217 -0.027355667 -0.03286951
-0.044622682 -0.005033838 -0.000297699 -0.063339554 0.035877697 0.034933403 -0.0110730985 -0.03440077
0.0074495864 0.026683904 -0.023700574 -0.106420316 0.007291824 -0.038013425 0.04644826 0.021113936
0.015683208 -0.103717856 -0.0916417 -0.12695503 -0.11701237 -0.03601365 0.04195877 -0.01304517
-0.09667434 0.008419899 -0.09880147 0.036375757 0.050793897 -0.02670002 0.0063454956 -0.02800785
-0.03850939 0.0435305 0.016264068 0.030139197 -0.009700287 -0.07508193 0.025757436 -0.13164258
0.04969754 -0.019489182 -0.10772815 -0.09995276 -0.047450107 0.048905816 0.01869517 -0.05947017

_policy.2.bias f4 [128]
00000000: c341 22be fcf1 2bbe 2093 70bd d743 403d
00000010: 8976 3abd ef7f ec3d 8e95 853d ab29 b53d
00000020: 8097 6fbd 4c2f 083e 91fd 84bd 97e7 8e3d
00000030: 5873 8e3d 87ee b93d 9d28 af3d 1359 553d
00000040: 9b7a 963d 5e7a 103e 9107 333e 2b7e 223a
00000050: f4ff 8cbd aa0c 90bd ee8a 1c3d bfde 843d
00000060: 8fcc 7cbd 19dd edbc 1efe da3d 12ad 09be
00000070: d2d7 28be 22d5 c63d 041d e1bd d612 82bd
00000080: b7a9 a7bd 167a 58bc a101 36bd a1cb 03bc
00000090: 2809 80bd 20f4 f6bc d0b8 713b 7da1 31be
000000a0: 430a bf3d d5fe 2fbe 7013 593d f077 a4bd
000000b0: 4509 79bd 8bce c53d cf5d ffbc 7c14 ecbd
000000c0: 1fd1 173d cc0f e3bd 998f 67bd 791a e63d
000000d0: 903d 263d 96b7 b4bd 3c78 f73c 4f26 6b3c
000000e0: 7fcf 8bbc 7c34 12be 4fb9 033c 5e9a 1ebe
000000f0: fcde 6dbc 767a a33d b47a 02be 3e0a 88bb
00000100: ced5 aabd 1ab7 8ebd 2fd8 9c3d c1aa 4f3c
00000110: 54a8 ddbd 2096 25be f302 40bd 1061 4fbe
00000120: 4e6c dbbd 7efc 1bbe 0ee6 243d 81f8 18bd
00000130: 9cba 0e3e 5f5b fabd 31dc af3c f2a5 aabb
00000140: a74e 19bc cbb9 45bd f7ea 2b3d b9b8 1a3d
00000150: cdc6 e4bc bf83 063e 3e6e a53c 33b2 b4bd
00000160: 54ff bcbd f87f d63d 2b91 36be 9548 213d
00000170: bc93 16bd 56c0 763d b7ed 57be fe20 07be
00000180: 4bb4 ba3c e355 0e3d dd49 883c aa5e a3bd
00000190: b780 1fbe ddc5 90bd 4e66 983c af9e ff3d
000001a0: 4bde 16bd 639d 963d 429d 25be 8677 b73a
000001b0: 75d6 37be e050 07be 12c3 d6bd b159 963d
000001c0: 9949 9f3d f6a1 163e 31ac b6bd 8240 4d3d
000001d0: 9e4d 92bd e736 1b3d e381 fcbd 21ee 1b3d
000001e0: 44b5 bbbd 5deb f9bd bf28 0ebd 37d6 c3bd
000001f0: 379a 07be 76e6 d6bc 1f23 83bd 816f c53d
-0.15845399 -0.16791528 -0.05873406 0.046939697 -0.0455232 0.11547839 0.06522666 0.08845838
-0.05849409 0.13299292 -0.064936765 0.06977766 0.06955594 0.090786986 0.08552668 0.0520869
0.07347604 0.1410918 0.17483355 0.000619861 -0.06884757 -0.070336655 0.03821843 0.06487798
-0.06171852 -0.029036092 0.10693 -0.13444927 -0.16488579 0.097086206 -0.109918624 -0.06351249
-0.081866674 -0.013212701 -0.044435147 -0.008044154 -0.062517464 -0.030145705 0.0036883838 -0.17346759
0.09328129 -0.17187054 0.052997053 -0.08030689 -0.060799856 0.096585356 -0.031172661 -0.115273446
0.037064668 -0.110869974 -0.05653343 0.11235518 0.040586054 -0.08824079 0.0302087 0.014352395
-0.017066715 -0.14277834 0.0080397865 -0.15488574 -0.014518496 0.07982342 -0.1274212 -0.0041516116
-0.08341561 -0.069685176 0.07658421 0.012674988 -0.10823122 -0.1617055 -0.046877813 -0.2025187
-0.10714017 -0.15233037 0.04025846 -0.037346367 0.13938373 -0.12224459 0.0214673 -0.0052077705
-0.009357131 -0.04827289 0.041972127 0.03777382 -0.027926827 0.13136195 0.02019417 -0.08823051
-0.092283875 0.10473627 -0.17828815 0.03937586 -0.036761984 0.06024202 -0.21086775 -0.1319618
0.022791049 0.034749877 0.016636783 -0.0797704 -0.15576445 -0.070689894 0.01860347 0.12481438
-0.03683309 0.07354238 -0.1617327 0.0013997413 -0.17952903 -0.13214445 -0.104864255 0.07341326
0.077777095 0.1471022 -0.08919562 0.050110348 -0.071437106 0.037894156 -0.123294614 0.038068894
-0.09165433 -0.12203095 -0.034706827 -0.095623426 -0.13242422 -0.02623294 -0.06403183 0.09640408

_policy.4.weight f4 [128, 128]
00000000: a91e 57bd 544b 46bd 7e2b a2bd 070a 35bd
00000010: aa78 a13d 9504 693d 8b88 6d3e 8b8d 913e
00000020: 6013 efbc 9e80 2f3e ecbb 60bd 4ecd cabd
00000030: 55fc 4cbe a721 883e a79d dabd 270d 303e
00000040: 90bb 71be 2dc3 233e a33d aebe cf5c 86bd
00000050: 66e8 c1bd e787 5dbe 330d 6fbd c16c 033e
00000060: 90c9 363d 453f efbd 06a3 05bd 8e89 553d
00000070: 3b74 6e3d 2e47 d4bd f259 303e 7392 d1be
00000080: a6c2 a0be 7665 9fbc 04da 223e e90e 39be
00000090: 9b00 dc3c 831b 39bc 6e21 dcbd 9983 5bbd
000000a0: f0ec aebe db8f bfbc 143a 123c 4dea 29be
000000b0: 019c bdbd 52db 153e 1f2c a1ba 0c86 dfbd
000000c0: 18b0 413e 2ae0 3e3d 3d56 6fbe 66e6 673d
000000d0: 5f2f b33d a595 f83c 4061 e3be 40dc fb3d
000000e0: 2544 0b3e 4ad7 0bbd 4879 fb3d f2b3 1f3e
000000f0: d4d9 f5bd 02ee a2bc af48 84be ad5d 37bd
00000100: e514 7b3c dbad f6be 1050 2ebe 1dbe 84be
00000110: 21c5 03bd f0f5 76be 57fb e63c 96b7 8dbe
00000120: 343e f23d f92a 9abd 3a69 2bbe bbad 843e
00000130: dd6e b43e f525 683e c083 07be 25df babe
00000140: 18f8 31bf a8a0 b1bc 5907 76be a063 893d
00000150: c293 063d 4797 e13c e137 3fbe 6958 02bf
00000160: a6ce 7a3c 3a11 9fbd fcc5 b83e 31fd 1bbe
00000170: 5b01 803e 1610 24be e694 b6be 3b29 3b3d
00000180: 0b4b 953e 7bab 0fbd b922 34be a225 0cbd
00000190: 92d0 f9be ef5d ad3e f34f 3e3e 285c 04bd
000001a0: 5815 45bd 9bcc e43e ea7c 35be 7f43 8e3d
000001b0: bf48 f33d fbe5 ae3e 4b44 6c3d ca41 9f3c
000001c0: c41e a1be 095a 92be 5531 8d3e 15dd 0bbd
000001d0: 9f27 73be f1f1 90be 4af2 793e 4efa 42bd
000001e0: f5be ea3d 3952 66be 79aa 25bd 86d4 1fbf
000001f0: 7e9b dbbc 6b7b b33e 2da8 33be 3c33 1b3e
00000200: d2b0 9dbd c21c 6d3d 77e2 5fbe 5386 afbd
00000210: 4447 b23d 4af3 593e 0436 093d cb7c b1be
00000220: 5ec8 a73c 85b7 a1bc 0820 643d 6e5d 2ebd
00000230: bdf5 8cbe 18f5 a23e c274 d93d 0722 62be
00000240: ff1b e0bd 36d7 553e 686e 4e3e 34db 08bd
00000250: e744 10bf dc1c f93d ad1c 3bbd f9ba b8be
00000260: f2b9 3dbe 23fc b03e 2b41 093e 3b1c 303d
00000270: 8046 3abc 2f54 e83d d2a2 323e fb12 cb3d
00000280: 8e22 d53c f85a 25bd a7fe 50be ec4e 08be
00000290: b756 cabd 0068 8cbe 12f3 2dbc 6036 a1bd
000002a0: 99c2 edbd f4a0 a4be a970 9abe ddbb 043e
000002b0: a293 50bd 22f8 e8bd 1dbb 8ebf bf6b 953e
000002c0: fc2f 183e 8dc6 68bd b04b 51bc 529d 0cbe
000002d0: f30a a8be e0f6 4e3e a2ea 5ebe a556 ec3e
000002e0: b3d8 6ebe 7b58 34bd a443 00be 95e5 00bd
000002f0: daf6 f73d 6d7d 65be 3ce4 f2be 42c3 d5bd
00000300: 4f33 b1bd d9a1 403d 8b87 63be 154e 7f3d
00000310: 7500 493e 2570 c63d 1bcd 89bc ee8f e2be
00000320: df75 bbbd 14f9 fb3c 9b5a 77be 3cf4 97be
00000330: a810 2c3e 0cc9 01be 62e8 a4be 6e6d 74be
00000340: 2c33 2b3e adc3 903e 6659 28bf 1841 503d
00000350: 755f d1bd b73f 03be 2fdf 793e f3a2 71be
00000360: c14d 6bbf 0e35 843d dcfb 143e 1d27 60bd
00000370: 9c65 00bc a2e1 01bf e893 cdbe 1a9f b0bd
00000380: 960e 023f a9b2 28bf d2fe bd3e e6ba b6bc
00000390: 8dc4 10bf 8062 34be 98be 4f3b d9ad bb3c
000003a0: da0d c1bb e262 81bc fffa 2bbf 0edf 993d
000003b0: 3107 ad3c 5672 f83d 13f6 89bd 17fa 9cbe
000003c0: a20b ae3d 3119 debd 6e2f 73bc e7d4 86bd
000003d0: 5dbd 91be 00f6 723d 7973 8fbd c0f5 273c
000003e0: d9bb 9bbe 0e6b 47bd 558d f0bd 3566 68bd
000003f0: dc1f d3bc 81d4 0e3e 8801 8dbd 736f 853e
-0.052519474 -0.048411682 -0.07918452 -0.044199016 0.07884343 0.056889135 0.23196618 0.284283
-0.029184043 0.17138907 -0.054866716 -0.0990244 -0.20018132 0.26588175 -0.10674601 0.17192517
-0.23606706 0.15992422 -0.340314 -0.065606706 -0.094681546 -0.21633874 -0.058362197 0.12834455
0.04462582 -0.116819896 -0.032626174 0.052133135 0.058216315 -0.10365139 0.17221811 -0.40932044
-0.31398505 -0.01945756 0.15903479 -0.18072094 0.026855757 -0.011298063 -0.10748564 -0.0535923
-0.34165144 -0.023384025 0.00892498 -0.16593285 -0.09258271 0.14634445 -0.0012296474 -0.10914239
0.1891483 0.0466005 -0.23372741 0.05661621 0.0874927 0.030344794 -0.44410133 0.12297869
0.13600214 -0.034140863 0.12278992 0.15595987 -0.12004438 -0.019888882 -0.25836703 -0.04476707
0.015324806 -0.48179516 -0.17022729 -0.25926295 -0.03217042 -0.24117255 0.02819602 -0.27679127
0.118282706 -0.07527728 -0.1673936 0.25913796 0.35240832 0.2267073 -0.13233852 -0.3649837
-0.69519186 -0.021683052 -0.2402624 0.06708455 0.032855757 0.027537955 -0.1867366 -0.50916153
0.015308058 -0.077669576 0.3608855 -0.15233304 0.25001034 -0.16021761 -0.35660475 0.045693617
0.29158816 -0.035075646 -0.1759137 -0.034215577 -0.4879194 0.33860728 0.18585186 -0.03231445
-0.048116058 0.44687352 -0.17723432 0.069464676 0.118791096 0.34159836 0.057682317 0.01944055
-0.31468785 -0.28584316 0.275767 -0.034146387 -0.23745583 -0.28309587 0.24408832 -0.04760199
0.114622034 -0.22492303 -0.04044578 -0.6243366 -0.026807543 0.35055098 -0.17544623 0.15156263
-0.076997414 0.057888754 -0.21863733 -0.08570542 0.08704999 0.21284214 0.03349878 -0.34665522
0.020481285 -0.01974083 0.05569461 -0.04256957 -0.27531233 0.31827617 0.10617973 -0.22083293
-0.1094284 0.20882878 0.20159304 -0.033412173 -0.56355137 0.121637076 -0.045681644 -0.3608015
-0.18527964 0.34567365 0.13403766 0.042995673 -0.011369348 0.11344182 0.17444924 0.099157296
0.026017454 -0.040369958 -0.20409642 -0.13311356 -0.09879821 -0.27423096 -0.0106170345 -0.07871699
-0.11609382 -0.32154047 -0.30164078 0.12962289 -0.050922044 -0.113754526 -1.1150852 0.29183766
0.14862055 -0.056829978 -0.012774393 -0.13731888 -0.32820854 0.20211363 -0.21769193 0.46159855
-0.23324852 -0.044029694 -0.12525803 -0.031468946 0.1210763 -0.22411127 -0.47439754 -0.10437633
-0.086523645 0.04702935 -0.22219674 0.062330324 0.1962908 0.096893586 -0.016821435 -0.44250435
-0.091533415 0.030758418 -0.24155657 -0.29678524 0.16803229 -0.1267435 -0.32208544 -0.23869869
0.1671874 0.2827429 -0.6576141 0.05084333 -0.10223285 -0.12817274 0.24401544 -0.23597316
-0.9191552 0.06455432 0.14549202 -0.0547248 -0.007836726 -0.50734913 -0.40151906 -0.08624096
0.50803506 -0.65897614 0.37108475 -0.022305917 -0.5654991 -0.176157 0.0031699296 0.022910045
-0.005891544 -0.015794221 -0.67179865 0.075132474 0.021121593 0.12131183 -0.06736388 -0.30659553
0.084983125 -0.10844649 -0.014842851 -0.06583577 -0.28464785 0.059316635 -0.070044465 0.010251462
-0.30416754 -0.04868608 -0.11745707 -0.056738097 -0.025772028 0.13948251 -0.06885058 0.26061592

_policy.4.bias f4 [128]
00000000: ce1c 343d cc05 8d3c d544 0f3e 8a94 13be
00000010: 0af6 86bd df96 29be 9e9e d7bd 709a 3fbe
00000020: a2d2 33be 04c3 c0bd 3689 3b3d a27f 553e
00000030: 2c03 fdbd bd21 edbd d104 aa3d 9ff6 0c3e
00000040: ae71 97be d41b 873d 7af2 e5be b1bd 76be
00000050: bf94 1c3c d253 d43d 5d2f d3bd 8b7a cabd
00000060: 4bf2 8abc 7edf bfbd 780a 69be c459 c1bd
00000070: 9aeb 303c f575 05bd 98d9 7fbe a5e1 903d
00000080: 485d 113d 7f5c 4c3e e7b6 ecbe 5ef7 87be
00000090: 1942 b63c 6970 c9be 0081 84bc 705e 2fbe
000000a0: 0cee 3c3b 4395 f63b 01fb d5bd fb16 39be
000000b0: 183b 603b f805 2ebe cc84 2abe 077d 85bd
000000c0: 95cb 903d fb19 e13d 117a e3bd b052 85bd
000000d0: 4a42 dd3d fdb7 70be e122 1c3e 99aa 45bd
000000e0: 9ca6 2ebe a974 18be b021 26be 4cc7 8f3c
000000f0: e785 9bbd c0d6 29be 9c55 53be f097 6c3c
00000100: 94e0 713d 2b5e 34bd c914 2abd a768 89bd
00000110: 1a8a 44be 9856 edbd d947 49bd 0161 abbd
00000120: 724c 81be b6eb 09be 66ec 20bd 0898 1abe
00000130: 4602 713d bb35 1e3d 15dc 70ba 2713 e43d
00000140: dc01 37be dfd1 83bd 9207 73bd b42d f9bd
00000150: fbb1 7bbe bf2e 943e 536c a53d 96b5 d0bd
00000160: 7ee1 72be fec0 c6bd 975a 663e af24 12be
00000170: e4e3 62bb c762 a9bd 684a 24be 32da 86bc
00000180: 37de c1be 7eab 71bd aacf 42bc 050f 973d
00000190: e304 8d3d 2f80 3ebe 7dfd 52be 8d13 d43d
000001a0: 292a 1fbe d82e 3f3e a52c 073e fd7c 013c
000001b0: fd88 0cbe 39e9 b53a 96d8 11be f154 b33c
000001c0: 894e 6bbe 9b57 38bd f1ba 54bd 9367 ea3c
000001d0: a446 e13d 0ddf a8be f6e4 89bd c428 9fbe
000001e0: 2869 90bd 0ed7 16be 608c a6bd d4fb a43c
000001f0: 750c 8fbd 38f1 5cbe 0e3d c93c 9df6 783d
0.043972783 0.017214678 0.13991101 -0.14412132 -0.06589897 -0.16561459 -0.10528301 -0.18711257
-0.17560819 -0.09412196 0.04578515 0.2084947 -0.123541206 -0.11578701 0.083017 0.13765953
-0.29578918 0.06597105 -0.44911557 -0.24095799 0.009556948 0.1036755 -0.10311768 -0.098866545
-0.016961237 -0.093687996 -0.227579 -0.094409496 0.010798359 -0.032583196 -0.24985349 0.07074288
0.03548935 0.1995716 -0.46233293 -0.26555914 0.022248315 -0.39343575 -0.016174793 -0.17125869
0.002882841 0.0075251176 -0.10448266 -0.18075173 0.003421491 -0.16994464 -0.1665222 -0.06517988
0.0707008 0.109912835 -0.11107267 -0.06509912 0.10803659 -0.23507686 0.1524768 -0.048258398
-0.17055744 -0.14888252 -0.16223788 0.017551087 -0.07593899 -0.16585827 -0.20638126 0.014440522
0.059052065 -0.044035118 -0.04152373 -0.06709414 -0.19193307 -0.11588782 -0.049140785 -0.083681114
-0.25253636 -0.13468823 -0.039287947 -0.15097058 0.05884006 0.03862546 -0.0009188068 0.111364655
-0.17871803 -0.06436514 -0.05933339 -0.1216692 -0.24579613 0.28941914 0.08077302 -0.10190885
-0.23718831 -0.09704779 0.22495495 -0.14271806 -0.0034620697 -0.082707934 -0.16044009 -0.016461466
-0.3786485 -0.05900144 -0.011890331 0.073759116 0.06885698 -0.18603586 -0.2060451 0.103552915
-0.15543427 0.18670213 0.13200624 0.007903335 -0.13724132 0.001387871 -0.14242777 0.02189109
-0.22979178 -0.045005422 -0.051936094 0.028613841 0.10999802 -0.32982674 -0.06733124 -0.3108579
-0.07051307 -0.14730474 -0.08132243 0.020139612 -0.06984798 -0.21576393 0.024565246 0.060782064

_policy.6.weight f4 [128, 128]
00000000: d7f1 b4be 46de 853c a0ba 25be 6b18 f1bc
00000010: 0cd5 debc 0514 57bf 2c61 aa3d de36 c93e
00000020: 5dad e9be 8356 edbd 703b 993e 4a67 30be
00000030: 5a76 c3bd 1770 dd3e 1c05 a7be 05d6 0ebe
00000040: d524 0ebe bb39 f4bd 365e 4c3e 3ff8 7cbe
00000050: fc18 683e 6857 823d ca64 abbc 7333 70bd
00000060: c35f 7abe 8e2b f8bd 2c22 03bf 4f24 813d
00000070: 541c 6cbe 9dce a0bc 3ab5 4e3e 137f a33e
00000080: bcc3 ac3d e60c 1d3e ab9d a73e 367b 6c3e
00000090: ed08 073e 975d 29be 6a00 743e 5426 46be
000000a0: 57d7 0abf 0b9e 7fbd 507c f63d 7a47 7d3e
000000b0: 4209 71be 8465 dfbe bae1 72be 6661 58be
000000c0: 30d0 2dbe 50b4 863d 82c8 61bd e904 8b3c
000000d0: a6d7 4d3e bc56 1fbd 2d3e 63be 6ed6 14bf
000000e0: 64b5 45be dbf2 d6bd 5ff8 dcbd 69d0 ecbd
000000f0: 8b98 283e ffb1 3dbe 8076 3abc 3888 b2bd
00000100: 599e 6fbf 4427 843e 2bf5 abbd c348 c6be
00000110: c3ba be3d f30f 983d ebde 8c3e a481 a33d
00000120: 7073 823e ffd2 b1bd 75d8 36be 3db2 433e
00000130: 77d0 e83e 2018 1ebe 3246 dd3e 816a 8c3d
00000140: 694e f3bd 4472 dfbd e9b8 85be c411 c9be
00000150: 785f 97bd f6f7 f6bd 0486 ecbd 6ed8 21bd
00000160: a020 efbc c12d 2abe 895d 923e 846f eabd
00000170: c1a3 403e 7a28 aebc d098 7ebe 8b4c 12bf
00000180: 7383 22bd b6c5 3dbd e8d5 27bd b7f9 3dbf
00000190: 30a0 713c ce53 513d edbb bdbe 2421 cf3e
000001a0: b07f 84bd 1ca7 9abd 5525 173e 214c 803e
000001b0: a2f1 93be 1351 bcbe b30e b5bc 6898 d8bd
000001c0: 85ec 7c3d f0f5 9dbd 1009 c9bd 6916 7c3e
000001d0: b27b fb3d 1737 253e a821 e93a 9dd2 773d
000001e0: a8cf b23e 4abb 0fbd 2d90 623e 2fc5 c7be
000001f0: dff8 bbbe 7c93 033e 2c52 59be 6f2d ddbc
00000200: 532f 4ebd 458e 7d3e bd59 a3be 3e6c 293e
00000210: fd6c d8be c9cf ffbc 6917 16bf cd42 efbc
00000220: 173d c1bd 3e32 73bd 5eae 18be bb3e e8bd
00000230: 383a 9abe 5f69 73bd fc03 a9be 1ae8 0bbf
00000240: 5ecb 8c3d 344b 28be d36c 39bf 9093 2dbd
00000250: d3b6 5f3d 1af3 9dbe a1c4 f2bd 369a ea3d
00000260: 1d5a b7bd 942d 85be 00b8 3e3d 2d39 cb3d
00000270: 86ce 9bbe 3756 b5be 3737 a6bd 87a6 073e
00000280: 1fd2 17bf ec14 813d fec7 883e ee56 623e
00000290: 2c01 2dbd 1d9d f9bc a2f0 a2bd aea6 c03d
000002a0: 84ce 56bc 7efa 52be fa4c 86bf aac2 54be
000002b0: c50b bf3e 9d6a bbbe b18e 0cbf 40ad 08be
000002c0: 74d3 f1be 0d2b 733c 10e4 37bf 8d43 86be
000002d0: 47c4 4b3e 3685 debe 4bf8 01be 5326 753e
000002e0: c556 49bb e6a5 603e 5cef 48be 0d26 02bd
000002f0: eafb 8fbe 3b33 f33c 424d 2c3d 6205 f0bc
00000300: d6fe c1bc 9e01 bb3e ea1d bebe 7eeb 213c
00000310: 80bb 20bf 7e29 01bf 0b0c 91be 2950 813e
00000320: aabc 12bf 7c0c f6bc d620 743d ea33 18be
00000330: 0518 ec3d 558a 60bf 19d6 c5be a5e6 183e
00000340: 8414 f7bd fb84 3c3e cfcc dabe b10a bebe
00000350: 8e9e 2d3e e072 bdbc 12f6 893e 8567 02bf
00000360: 7c7f 833e 816a dcbe a9ae 64be 0594 b03d
00000370: 09c4 7e3e 42dc cc3c e7c4 b23b 72d3 153e
00000380: 4c62 cf3d 299b f8bd 2e0b 58bd 174a b33d
00000390: 0131 35bf 2d26 c6bb caa6 b1be fbcc cd3d
000003a0: f194 513e a8c4 bbbe 9509 113e d816 e73c
000003b0: 7eba 11be c533 33bf 3d1b e83e b6b6 76be
000003c0: d4ef e4bd 1e5b e3bd 849d afbe 3e07 31be
000003d0: c7a1 cbbe 2744 43bd eb2c 1cbe 45c6 bbbe
000003e0: 7e93 ccbd e800 7dbf 793e d8bd 0ed1 393e
000003f0: 76a4 efbe 864b b5be 79d1 9cbd 02c4 8ebf
-0.3534076 0.01634134 -0.16184473 -0.029430589 -0.027201198 -0.8401492 0.08319315 0.39299673
-0.45640078 -0.115887664 0.2992816 -0.17226902 -0.09544058 0.4324958 -0.32621086 -0.1394883
-0.13881238 -0.11925074 0.19957814 -0.24704073 0.22665781 0.06364328 -0.020922083 -0.058642816
-0.24450593 -0.121176824 -0.5122402 0.063057534 -0.23057681 -0.01962977 0.2018632 0.31932887
0.08435771 0.15336952 0.3273748 0.23093876 0.13186999 -0.16539608 0.23828283 -0.19350559
-0.5423483 -0.06240658 0.120354295 0.24734297 -0.23538688 -0.43632138 -0.2371892 -0.21130905
-0.16973948 0.06577361 -0.05512286 0.016970115 0.20101795 -0.038901076 -0.22191687 -0.58139694
-0.19307476 -0.1049554 -0.107895605 -0.115631886 0.1646444 -0.18524931 -0.011380792 -0.08717388
-0.93600994 0.25811207 -0.083963715 -0.38727388 0.09312966 0.07424917 0.27513823 0.07983711
0.25478697 -0.086828224 -0.1785601 0.19110961 0.45471546 -0.1543889 0.43217617 0.068562515
-0.1188019 -0.10910466 -0.26117638 -0.39271367 -0.07391256 -0.120590135 -0.11548999 -0.039513044
-0.029190361 -0.16619016 0.28586987 -0.11447051 0.18812467 -0.021259535 -0.24862981 -0.57148045
-0.03967614 -0.04633113 -0.04097548 -0.7420916 0.014747664 0.051105313 -0.37057438 0.40454972
-0.06469667 -0.07551405 0.14760335 0.25058082 -0.2889529 -0.36780605 -0.022101736 -0.10575944
0.061749 -0.077129245 -0.09816182 0.24617924 0.122794524 0.16134296 0.001778652 0.06050359
0.34924054 -0.035090722 0.22125311 -0.39017627 -0.3671331 0.1284923 -0.21222752 -0.026999203
-0.0503381 0.24761303 -0.31904402 0.16545197 -0.4227065 -0.03122701 -0.5862947 -0.029206658
-0.0943548 -0.059374087 -0.14910266 -0.1134009 -0.30122542 -0.05942666 -0.33010852 -0.54651034
0.06874727 -0.16434938 -0.7243168 -0.042377055 0.054617714 -0.30849534 -0.1185391 0.11455195
-0.089527346 -0.26011336 0.046562195 0.09923015 -0.30431002 -0.3541734 -0.08116 0.13247119
-0.59304994 0.06302819 0.26715082 0.22103474 -0.042237446 -0.030470425 -0.07956053 0.094067916
-0.013110761 -0.20603368 -1.0492241 -0.20777383 0.37313667 -0.36604777 -0.5490523 -0.1334734
-0.47231638 0.014841807 -0.7183237 -0.26223412 0.19899093 -0.43461007 -0.12692373 0.23940401
-0.0030721885 0.21938285 -0.19622558 -0.03177457 -0.28121883 0.029687515 0.042065866 -0.029299442
-0.023681086 0.3652467 -0.37132198 0.009882806 -0.627861 -0.5045394 -0.283295 0.2525647
-0.5731913 -0.03003525 0.059601627 -0.14863554 0.11528019 -0.8771108 -0.38639906 0.14931734
-0.1206446 0.18410103 -0.42734382 -0.37117532 0.16955015 -0.023126066 0.2694555 -0.5093921
0.256832 -0.43050006 -0.22332253 0.086219825 0.24879469 0.02500737 0.0054556015 0.14631441
0.101261705 -0.121389695 -0.052745037 0.08754366 -0.707779 -0.0060470314 -0.34697562 0.100488625
0.20466973 -0.36673474 0.14163812 0.028209135 -0.14231297 -0.7000087 0.4533328 -0.24093136
-0.11178556 -0.111013636 -0.34299862 -0.17287919 -0.39771864 -0.047672417 -0.1525151 -0.36674705
-0.099890694 -0.9882951 -0.10558791 0.18146154 -0.4680516 -0.35409182 -0.07657141 -1.1153567

_policy.6.bias f4 [128]
00000000: 0385 1ebe a115 f5be 6b91 643e 096c 663e
00000010: 70e7 2a3e ba4c 103e 9884 9cbc 5329 0b3e
00000020: 5383 0d3e 7131 0b3d 51f9 583d 16c6 023c
00000030: b5bb a73c a0d3 0ebe 0880 903e df14 243e
00000040: e2fe 1a3d 057d 813d bcd0 7dbd f47b bbbd
00000050: 837b 863e 63a1 413e af9e 713e 47e5 7b3d
00000060: d486 333e 22a9 fb3d 0ed6 483d 236c 373e
00000070: 30ae cebd 6e96 fa3d ad99 d83d f731 34be
00000080: fe5e 2b3e c223 96bd 81f4 753e 5150 133e
00000090: 32f1 b73b fb78 2f3e 6191 663d f203 913c
000000a0: 8289 3abe 1707 9bbd f17b 8b3e b8ef 153d
000000b0: 6167 ca3d 2890 82be c04b 803e 2681 0a3e
000000c0: 04e7 b13d 4231 1fbd ffd7 673d 74a3 8d3d
000000d0: b29d 913d 934a 303d 8668 8c3c 1743 d33d
000000e0: 4835 5b3d feb6 cc3e 758f 143d 2c22 243e
000000f0: 8dc7 e8bc aeea 223e 0bbc aa3d 9b04 723e
00000100: 5048 dbbd dd81 1e3e 3ad3 5b3e 982d 473e
00000110: 4f5b a1bc d240 613e 377b 2dbe 27a8 cd3d
00000120: 09b0 153d a62c 233e 0392 98bd 3447 f73d
00000130: 6b23 a13e 8ca9 8dbe 9cfa d23d ad93 ad3c
00000140: 10b4 043e 66cc 3cbc 6999 45be 01f7 1abe
00000150: f338 8d3e 1030 383d d2d0 9abe 37b8 313d
00000160: dd9a 483e c1b3 e13d 3cbb bfbd 4f6a 703e
00000170: 0b08 743e 03d7 413e 42df e6bc 659d 82bd
00000180: cddb b0bd fbec 373e 6755 d13d 72c8 b8bd
00000190: 0ed0 7d3d 93c5 7cbd de7f 63bd 5152 f23d
000001a0: 7445 60bc df1c 4b3e f8a6 ce3d ccb7 d93d
000001b0: 2636 03bf 46f8 ac3e 7357 c73d 345b a73c
000001c0: b9d5 923d 3df9 10be 9bdb 02bc 54b9 1d3d
000001d0: 8f56 d33d fe5d 4b3e d014 3ebe db22 223e
000001e0: b919 453e 84dc a53e 183d 713e 2475 39bd
000001f0: 86d1 953e fc3c 41bd 3c83 b6bd ca36 003a
-0.15480427 -0.47868064 0.22321098 0.2250215 0.16689849 0.14091769 -0.019106194 0.13589983
0.13819627 0.033982698 0.05297214 0.007981798 0.020475248 -0.13947916 0.2822268 0.16023587
0.03784073 0.06322674 -0.061966643 -0.091545016 0.26266107 0.1890922 0.23595689 0.061497953
0.17531902 0.12288119 0.049032263 0.17912345 -0.100918174 0.122357234 0.10576186 -0.17597185
0.16735455 -0.07331039 0.24019052 0.14386107 0.0056134695 0.17135994 0.056290988 0.017702077
-0.18216518 -0.07569712 0.27242997 0.036605567 0.09882999 -0.25500607 0.25057793 0.13525829
0.08686641 -0.038865335 0.056602474 0.06915942 0.07110156 0.04303987 0.017139684 0.10315531
0.05351761 0.39983362 0.036269624 0.1602866 -0.028415466 0.15909836 0.083366476 0.2363457
-0.10707152 0.15479226 0.21467295 0.19450986 -0.01969686 0.21997383 -0.16941534 0.10041838
0.036544833 0.15935001 -0.074497245 0.12074128 0.31472334 -0.27668417 0.10301706 0.021188581
0.12959313 -0.011523342 -0.19296803 -0.15133287 0.2758251 0.04496771 -0.30237442 0.04338857
0.19590326 0.110206135 -0.09361884 0.23478054 0.23831193 0.18929677 -0.02818263 -0.06377677
-0.08635674 0.17961495 0.10221367 -0.09022607 0.061965995 -0.06171186 -0.055541866 0.11832107
-0.013688434 0.19835232 0.100904405 0.106307596 -0.512545 0.33783168 0.097334765 0.020429231
0.071696706 -0.14157577 -0.007986928 0.03850682 0.10319244 0.19860074 -0.18562627 0.15833609
0.19248094 0.32394803 0.23558462 -0.04527773 0.29261416 -0.0471773 -0.0891175 0.00048909767

_policy.8.weight f4 [3, 128]
00000000: 3902 753b 5e26 723d 16b5 18be 62a0 01bf
00000010: 3890 f3be 6370 8bbe b1db 2abf f9f3 85be
00000020: 34f1 1e3f 9c8c 58be 1179 f43e 0702 293f
00000030: 9981 e2bd 93bb 27bc a173 3abf 43aa 3dbd
00000040: 9f56 893e 78b8 923e ee09 c2be 252b 32bd
00000050: afaa 6abe 956c 0dbe 1458 b63d a90b 653e
00000060: 7e59 84bc 6c96 bdbe c789 803e 14e2 3fbe
00000070: 5b15 31bf 28ce c03e 2d13 d7bd 99ce 0f3d
00000080: 5f0d 52be 134b 3cbd 559a 12be 1d17 da3e
00000090: 38bc fcbe 2b38 f63e e246 dbbd f47a 61be
000000a0: f745 043f 02c2 5b3b 1418 213c 8f04 193f
000000b0: 5215 a33e 1f43 cfbe fe38 4c3f 928f 283e
000000c0: 716f 19be cabb 98bd c6d0 843e a7ee 87be
000000d0: 7ab9 9bbe c9ad 323e 72fe a1bd 5213 63be
000000e0: c703 503b ef85 bbbe 4e2b 2e3e 5a00 933e
000000f0: e59d 4c3c 603d 22be 50eb 06bf 6d86 08bd
00000100: 3832 993e 9945 653e d5ae 343f a156 1fbe
00000110: c9fc e53e dd40 3bbe 5cd4 0e3f fccd ce3d
00000120: 89a0 aebe 5b94 ab3e 6e1a 433f 5e86 b7bd
00000130: 3602 27be d05b 803f 7917 7dbd e7e5 f43e
00000140: d0c2 fdbd 6ff4 45be 4aa7 67bf cc24 dfbc
00000150: d776 92be c215 943e 16dd 83bf 8fb5 cdbd
00000160: 8ae5 c0be c7d3 2f3e b819 70be 2592 33be
00000170: 4052 2cbe 4743 19be 1a4d fe3e ac6a 0a3f
00000180: a5e7 55bb e0ae b9bd 3264 ff3d 3d7e 1ebf
00000190: 5ae0 173d 2250 07be 6104 59be edf2 a4be
000001a0: 46bc 70bd 6fb1 6d3e 47a4 b4be a641 393f
000001b0: 2d98 773e 3700 b23e 11fb 9fbe 55df 1c3e
000001c0: fb8f 91be 06f9 1ebe 1967 5c3e 77fc 673e
000001d0: 5ae0 9ebe 49f4 f5be ed6b 7d3f 49ae e4bd
000001e0: 1ab4 933e 69a8 7dbe 3d83 6ebe 2ee7 083f
000001f0: 44cc e23e 920a e93d 8c07 b73e bdc5 00be
00000200: 9ac7 953e 23f7 333f e1b6 00be 56b6 ee3e
00000210: 8f2e fb3e 9ba0 b7bd 6951 d93e 7b50 023f
00000220: 2973 adbe d709 fa3e 8ef2 8dbd 3654 1dbe
00000230: 081d 21be 114a 193e 09c5 523f b35a 5ebe
00000240: c457 a6be c73d 40be 807d 843e f6ce c03e
00000250: 6a44 cf3e 9f7a 823e 5d96 c8be bcb2 0abe
00000260: 3fbb 72be a25a 9f3e 56ec 94be 6bc3 87be
00000270: c85f bb3e 686f 9abe 0ea2 8b3e b99e 293d
00000280: 60ac a03e bfd4 6cbe 8c0b 21bf 5fb0 abbd
00000290: 18af 68bc 917f f3be 9e5e bf3e db9b 3dbd
000002a0: 851f d8bc 363b a03e e64d db3e 568e 6fbf
000002b0: 4e9a b0be 8ec3 033f 2ebb 1cbf 26db 33be
000002c0: 11cc 26be 6ead bf3e 1b17 d4bb d0d9 833e
000002d0: ad9e 9c3e a8c4 10bd 7c92 c93e d514 02be
000002e0: 3482 5c3e d42a bd3e e56b 0b3e 7ecf d9bc
000002f0: 3e56 0a3f cc50 c2bd fc37 233f 8e6c 4d3e
00000300: c133 05bf a081 4bbd e7af 19be 61a9 a23e
00000310: c878 41bd e955 f2be ae3a 033e 43da f73e
00000320: dcc9 c63c 7d7e debe 9d65 75bd 761e 6abe
00000330: dd4c 913e 27f4 7bbf 613c 96be 65f6 0ebf
00000340: 8424 44be 2546 0fbe d7c4 273f 83a5 703e
00000350: 61cb 9e3e 0bd1 f53d f6c7 963e 21c7 cabd
00000360: f43b ed3e 516f 5abe 5dcc ec3d 2604 9cbe
00000370: fa34 9bbe 2fac a7be edef 09bf d2c0 3dbe
00000380: b9af 11bf e692 af3e 7aa5 84bd 3a3d 593e
00000390: a62d 3cbf 6fee 49be a32a a23d 9e30 cbbc
000003a0: 7f3b 25be c553 84bd 095f 31be acf1 3cbf
000003b0: 2a3b 113f 4a8e a7be cb0b d23d f7cf 74be
000003c0: ee38 873e 9409 1c3f 6ed7 fb3d 8793 033e
000003d0: ac1a c7bd ae4e d43d 2dd1 b0bf 1206 b6be
000003e0: 3018 8dbe 07b6 363e 831b f13e d29a fcbe
000003f0: 68ad a1be 2145 733d 1e54 3d3e 532f 7cbe
0.0037385358 0.05911862 -0.14912829 -0.5063535 -0.47570968 -0.27234182 -0.6674147 -0.261627
0.62086797 -0.21147388 0.47748616 0.6601872 -0.11059875 -0.010237592 -0.72832686 -0.046304952
0.268239 0.28656363 -0.378982 -0.043498177 -0.22916673 -0.13810952 0.08903518 0.22367729
-0.016155954 -0.37028825 0.25105116 -0.18738586 -0.6917321 0.37657285 -0.10501704 0.035109136
-0.20512913 -0.045970034 -0.14316685 0.4259576 -0.4936235 0.48089728 -0.10706879 -0.22019559
0.5166926 0.0033532386 0.009832401 0.5977258 0.31852204 -0.40480897 0.79774463 0.16461018
-0.14983918 -0.07457693 0.25940531 -0.26549265 -0.30414945 0.17449106 -0.0790986 -0.22175339
0.0031740533 -0.3662562 0.17008707 0.28711206 0.012488817 -0.15843725 -0.5270281 -0.033331323
0.29921126 0.2238983 0.7057927 -0.1556039 0.44919422 -0.18286462 0.55792785 0.10097882
-0.34106854 0.33511624 0.76212204 -0.089611754 -0.16309437 1.0028019 -0.061789963 0.47831652
-0.12390673 -0.19331525 -0.9048964 -0.027239226 -0.28606293 0.2892285 -1.0301845 -0.10044395
-0.37675124 0.1717063 -0.23447311 -0.17536218 -0.16828251 -0.1496707 0.496682 0.5406902
-0.0032639292 -0.09066558 0.124702826 -0.61911374 0.037079193 -0.13214162 -0.21193077 -0.32216588
-0.0587733 0.23212217 -0.35281584 0.72365797 0.24179144 0.3476579 -0.31246236 0.1531957
-0.2843016 -0.15524682 0.21523704 0.22654901 -0.31030542 -0.48037937 0.98992807 -0.11166055
0.28848344 -0.24771275 -0.23292251 0.5347775 0.44296467 0.11378969 0.35747945 -0.12575431
0.29253846 0.70298976 -0.12569763 0.46623486 0.4905896 -0.0896618 0.42444924 0.50904053
-0.33876923 0.48835632 -0.06931029 -0.15364155 -0.15733731 0.1496966 0.823319 -0.21714287
-0.32488835 -0.18773566 0.25877 0.376579 0.40481883 0.25484177 -0.39177218 -0.13544744
-0.23704241 0.31123835 -0.2908656 -0.2651628 0.36596513 -0.3016312 0.27272075 0.041411135
0.31381512 -0.23128031 -0.62908244 -0.083832495 -0.014201902 -0.47558263 0.37376875 -0.046291213
-0.026382217 0.31295174 0.4283287 -0.9357656 -0.34492725 0.5147027 -0.61223114 -0.17564067
-0.16288783 0.37437004 -0.006472481 0.25752115 0.3058981 -0.035343796 0.3936957 -0.1270326
0.21534044 0.36946738 0.13615377 -0.026588198 0.54037845 -0.09488067 0.637573 0.20060942
-0.52032095 -0.049684167 -0.15008508 0.3176985 -0.047234327 -0.4733117 0.12815353 0.48408708
0.024266176 -0.43455878 -0.05991136 -0.22863182 0.28378955 -0.9841942 -0.2934294 -0.5584472
-0.19154555 -0.13991602 0.6553473 0.23500638 0.3101454 0.120027624 0.29449433 -0.09901262
0.46334803 -0.21331526 0.11562417 -0.30471915 -0.30313855 -0.32748553 -0.5388172 -0.18530586
-0.56908756 0.34291762 -0.06476875 0.21214762 -0.73507154 -0.19719861 0.079182886 -0.024803456
-0.16135977 -0.0646129 -0.1732141 -0.7380626 0.567309 -0.32725745 0.102561556 -0.23907457
0.2641062 0.60952115 0.12296949 0.12849246 -0.09721884 0.103665695 -1.3813835 -0.35551506
-0.27557516 0.17842875 0.47091302 -0.4933687 -0.3157761 0.0593921 0.1848912 -0.24627428

_policy.8.bias f4 [3]
00000000: 0bb3 aa3d a469 a7bd 428f 99bc
0.08334931 -0.08174446 -0.018745068

_value.0.weight f4 [128, 22]
00000000: 0949 813d 9182 2b3e 9eee 17be 7ff2 1a3d
00000010: 18b2 ec3c 85ea 2cbe 2372 9e3d cc30 4abd
00000020: b387 283e 9597 3abe 82b1 0bbd f392 243e
00000030: a7da 903d 3e58 5cbd 3d94 42bd b7d6 2d3d
00000040: a02f e3bc 611b 2d3e f6a2 2339 0f67 d23d
00000050: df54 a03d 0410 a1bd c38a 23be 990e 0dbe
00000060: ffc4 87bd ad6a 55bd 8cc6 193d 437f 1fbe
00000070: 5050 a3bd 2979 033e f99f 72bc 27e0 9fbd
00000080: 047b 17be 60b7 6dbd 3e74 1ebe 6921 303e
00000090: da37 e43d 0597 293e 93ae 15be 70ab 32be
000000a0: 6bd1 683c 727e 69be 1cf6 ecbd 3e5b 3e3d
000000b0: 06e5 d8bc 9408 00bd bda9 7fbd a072 17be
000000c0: a9a8 253e df6b 253e aaa5 d9bd e7e0 323e
000000d0: 45ed 073e 6056 903d d6c3 373e 4692 193e
000000e0: a70c 25be 4252 53be b6a6 11be 59bc 57be
000000f0: c5b7 0abe 4616 62bc 9dbe 6cbd c7af c3bd
00000100: 6a08 1abe 056d a83d fbd8 ebbd edde 353d
00000110: c90d 633b 1c1e 56be 49ed 1bbe 8fd0 573d
00000120: c730 923d 4fe0 103d 89d0 843c 29c6 e9bd
00000130: 5d46 e83d f5f7 233d 7eac 8d3e b2f4 b53b
00000140: aaca 163e ec01 d8bc b6c5 013c 88a8 26bd
00000150: e588 ddbd 67d2 973d cbe0 aabc 9527 8b3e
00000160: 7a37 0abe f96a 7b3e 6ee9 6ebe 081c a53d
00000170: 2fa3 b23c 2747 c23d d455 d43c 5423 ab3d
00000180: 641f 96bd cd0f b1bd 009f 3cbe e27e c2bd
00000190: 3cf7 653d 9849 873d 93e8 abbd 12f9 a2bd
000001a0: 2e7e 68bd de42 873d 054e 50bd 9d12 8e3c
000001b0: 4293 0b3d 3a65 cfbc 74f3 46be 5fd6 6c3e
000001c0: 2ed2 053e da5a e1bd cc36 013e 540a 0bbe
000001d0: 09d6 1d3e 6577 133d 83f5 9f3d c972 b23c
000001e0: 5ee0 04be a4eb ab3d da49 143e c25c ea3d
000001f0: 3199 363e 7876 d03d 83f8 a53a 37e9 23be
00000200: 5fbe 573b 6e34 0abe 51b3 b4bd d843 37be
00000210: 3ca4 af3d ce48 333e f04b debd 60ee 2e3e
00000220: 74e5 3abd 3f7e 30be 9fec c13c 0881 04bd
00000230: 03b1 873d baeb 5abd ac8a 4abe d1e8 60bd
00000240: 1ce1 14be 9be6 363e ef71 3cbe 1d39 f03d
00000250: 595f 7b3d f9c7 cfbd 0096 cf3d 3beb 3abe
00000260: 5ea5 28be 7c10 a73c acae adbd 9741 0cbe
00000270: 9be3 aa3b 8272 26be 6cd5 ca3d 5bb0 133e
00000280: f781 db3d 2573 893c 93d3 d4bd c561 2b3e
00000290: fd57 a2bc 2e1e 15be 1671 5d3d 62bb 47be
000002a0: 2af6 9d3d d51a fcbd e9ba 673c 89da cdbc
000002b0: e23c 62be d068 253d 554c 1c3e 10a7 f53d
000002c0: ab12 de3d d620 3bbe 86d3 8ebd fa21 e5bd
000002d0: 2840 aebd 0a26 d03c 4759 f03d b0a3 283e
000002e0: 338e 0cbd a34f 3e3e 1b9e 49bd 71be 0ebe
000002f0: fd6a 033e e7ee 06be 2e45 54be 6f17 31be
00000300: 4d47 263e 4f8c e53b 2249 533c 7aa5 cbbd
00000310: c986 5fbe f6e9 253e 8cbe 60bd b18c df3d
00000320: 139e 9f3d 5799 06bd 2e0e 3a3d 8d29 a6bd
00000330: 9a42 433d a312 29be 4f60 04bc 2521 b93d
00000340: 8f38 9cbd 2fee 4c3e 989e 17be f30b 3bbe
00000350: a406 fc3d ae79 a3bd 335d 64bd ead9 4abe
00000360: ec4f 51be 340f 183a c5be b13c c321 833d
00000370: 339b 153e 72e5 1fbe 7d0c 25bd b620 0e3e
00000380: 65be 063e 6737 a5bd e201 47bd a267 8a3d
00000390: 7fd7 0d3e f88d 9a3d 0e46 213d 0584 2ebc
000003a0: 6372 903d 4635 7f3c dca6 913c d995 ab3d
000003b0: 34be 13be b656 e0bc 2cd0 2d3e 824d afbd
000003c0: c346 8ebc 4ae6 41be 9f74 52bd 7c9c 2cbd
000003d0: dd95 77bc 3e81 aabd 1cc7 1ebe 615e 04be
000003e0: 0d2a 76bd 26ba e6bc c0b3 183d 7351 f23b
000003f0: 3ca7 0b3e 4a28 043e 2942 073e 91c5 193e
0.063127585 0.16749026 -0.14837119 0.03782892 0.028893515 -0.16886337 0.077366136 -0.049362943
0.16458015 -0.18221886 -0.03410483 0.16071682 0.070729546 -0.05379509 -0.047504652 0.042441096
-0.02773267 0.16904975 0.00015605599 0.10273563 0.07828688 -0.07864383 -0.15970902 -0.137751
-0.06629371 -0.052103687 0.037542865 -0.1557589 -0.07974303 0.12839188 -0.014808648 -0.078064255
-0.1479302 -0.05803621 -0.1547403 0.17200245 0.11143465 0.16561516 -0.14617376 -0.1744821
0.014210085 -0.22802141 -0.11570379 0.046473734 -0.026476394 -0.03125818 -0.062417734 -0.1478982
0.1617762 0.16154431 -0.10627301 0.17468606 0.13274105 0.07047725 0.17945799 0.14997205
-0.16118108 -0.20636848 -0.14223751 -0.21067943 -0.13546665 -0.013799256 -0.05779897 -0.09555011
-0.15042272 0.08223919 -0.11515995 0.04440205 0.0034645668 -0.20909923 -0.15227236 0.05268913
0.0713821 0.035370167 0.016212719 -0.11414749 0.11341546 0.040031392 0.27670664 0.0055528516
0.14725748 -0.026368104 0.007920673 -0.040688068 -0.10817126 0.07413178 -0.020859143 0.27178636
-0.13497725 0.24552526 -0.23331234 0.08061987 0.021806328 0.094862275 0.025919832 0.08356348
-0.07330206 -0.08645592 -0.18420029 -0.09496857 0.056143984 0.06605834 -0.083939694 -0.07957663
-0.05676096 0.06604551 -0.050855655 0.01734286 0.034075983 -0.025316823 -0.19428807 0.23128651
0.13068458 -0.11003657 0.1261856 -0.13578159 0.15413679 0.036002535 0.078104995 0.02178325
-0.12976214 0.08394554 0.14481297 0.114434734 0.17831875 0.10178846 0.0012662563 -0.16006933
0.0032919866 -0.13496563 -0.088232644 -0.17896974 0.08576247 0.17508242 -0.10854328 0.1708312
-0.04562898 -0.17235659 0.0236724 -0.032349616 0.06625559 -0.053447463 -0.19779462 -0.05490953
-0.14538997 0.17861407 -0.18402837 0.117296435 0.061370227 -0.10145564 0.10136032 -0.18253796
-0.16469333 0.020393603 -0.08480582 -0.13696896 0.005215121 -0.16254619 0.09903988 0.14422743
0.10718148 0.016778538 -0.10391917 0.16736515 -0.019817347 -0.14562294 0.054062925 -0.19505075
0.07712968 -0.12309805 0.014143684 -0.02512862 -0.22093537 0.04038316 0.15263493 0.11994755
0.108434044 -0.18274245 -0.06973939 -0.11188121 -0.085083306 0.025408763 0.11735778 0.16468692
-0.0343153 0.18585066 -0.049223047 -0.13939835 0.12833782 -0.13177072 -0.20729515 -0.17294095
0.16238137 0.0070052515 0.012895854 -0.099436715 -0.2182876 0.1620253 -0.05486922 0.10915507
0.07793822 -0.03286108 0.04542368 -0.08113394 0.047670938 -0.16511016 -0.008079602 0.09039525
-0.07627975 0.20012735 -0.14806592 -0.18266277 0.12305954 -0.07982193 -0.055752944 -0.1980969
-0.20440644 0.0005800605 0.021697411 0.06402924 0.14609985 -0.1561487 -0.040295113 0.13879666
0.13158567 -0.08067208 -0.04858578 0.06758048 0.13851736 0.0754661 0.03937345 -0.010651593
0.070530675 0.015576666 0.01777976 0.083781905 -0.14428025 -0.027385097 0.16973943 -0.08559705
-0.017367726 -0.18935505 -0.05138075 -0.042141423 -0.015111414 -0.08325432 -0.15505642 -0.12926628
-0.060098697 -0.028164934 0.037280798 0.0073949634 0.13638014 0.12905994 0.13208832 0.15016772
