logs/weight_colliion_obj_obs = 0.4/model/model_370.pth (torch, 427625 bytes, 19 tensors)

_policy.0.weight f4 [128, 22]
-0.31133994 -0.061344776 0.037726466 0.42736647 -0.36817628 -0.29349533 0.06302368 -0.091451555
0.5343421 0.34618038 0.049561836 0.15586989 0.18011774 0.2356639 -0.03805517 -0.113152474
-0.15545295 0.08274705 0.08248959 0.095305055 -0.109404236 -0.21686868 -0.13901056 -0.33013055
0.24772115 0.8361087 -0.0312995 -0.26851138 0.22621183 -0.018271925 -0.6783199 -0.06822281
0.28434694 0.15691505 0.23453052 0.15214887 0.174422 -0.11057902 -0.007387534 -0.26398733
-0.24373071 0.015327712 0.065337725 -0.013487313 -0.4937893 -0.073725745 0.26402026 -0.047276888
-0.19016226 -0.062006224 -0.0061832606 0.07272757 1.1876354 -0.21832809 0.29680443 0.004029727
0.2648269 0.18853463 0.06906819 0.14556232 -0.20501216 0.11034908 -0.02397182 -0.05801677
-0.13871053 -0.11291494 -0.03953731 -0.57162863 -0.0715513 0.5011843 0.020124275 -0.27041802
0.1627709 0.17957497 0.06748348 0.36230808 0.06473203 0.18769112 -0.13986261 0.43592855
-0.15552032 -0.12404845 -0.20394944 0.03989167 -0.22239968 0.20243378 0.1346089 0.14686236
0.9582962 -0.37883437 -0.14739686 -0.023697877 0.7059735 -0.40849948 -0.35213634 -0.5252528
-0.57116765 0.29240614 0.058883723 -0.10983751 -0.18794933 0.0771857 0.01633704 0.16350782
0.12725258 0.06647521 0.10318741 -0.16100405 -0.14890118 -0.0225843 -0.66829526 0.9265818
0.30005303 -0.5509565 -0.2764469 0.41078606 0.106856674 0.17546082 0.06387303 -0.63806885
-0.4148352 -0.11429315 -0.34659746 0.055397667 -0.026553255 -0.015399338 0.16612671 0.07984143
-0.0011113257 -0.08268996 -0.004571089 0.118360676 -0.036638994 -0.022709701 -0.078934565 0.30216518
0.4643372 -0.13899377 -0.56810355 0.2204026 0.48452362 -0.52361596 -0.14558229 -0.17280813
-0.62298185 0.11131982 -0.05142334 0.008767634 -0.0766336 -0.10996276 0.3540961 -0.18372633
0.24597842 -0.11313944 -0.33855852 -0.12111202 -0.05430167 0.75779283 0.23590487 0.20992336
-0.057465438 -0.27728802 -0.7463356 0.71184975 0.019692775 -0.13736978 -0.026326949 0.0049046613
-0.15448956 0.08750693 -0.0941077 -0.22222379 0.057521638 0.00056325766 -0.04133701 0.15905097
0.04843733 -0.17041616 -0.17502913 0.18748298 0.58663744 0.109512694 -0.2541175 0.0026865127
1.3609178 0.7284155 -0.027701532 0.05076729 0.084781885 0.09372743 0.1881563 -0.16741063
0.20143728 -0.12837376 -0.06296993 0.020525634 -0.08808081 0.057559725 0.2958539 0.6661826
-0.4210527 -0.774391 -0.21669078 0.46425328 -0.30517858 -0.5618665 -0.5276997 0.12309559
0.011442975 0.23599827 0.3651797 -0.11246058 -0.009245836 0.08491862 0.11276526 -0.20310609
-0.009668903 0.08777032 -0.11261192 -0.18779154 -0.29999897 -0.21146493 0.21819855 -0.041323237
-0.49593398 -0.11642947 0.027839111 0.17393412 1.171151 0.3076644 0.13443112 -0.17265216
0.021285975 0.11297599 0.036846783 0.095661566 0.1578576 -0.02390953 -0.12083437 -0.012954934
-0.11702923 0.019780679 0.0876949 0.1284136 -0.7122229 -0.030440424 -0.20579241 -0.022024956
-0.0972968 -0.24617283 -0.28676546 -0.13648356 -0.16548637 0.00024365367 -0.40343422 -0.3662997
00000000: f367 9fbe a944 7bbd 1187 1a3d c7cf da3e
00000010: 9a81 bcbe 0545 96be 8f12 813d f44a bbbd
00000020: a5ca 083f 8e3e b13e 5a01 4b3d 5b9c 1f3e
00000030: c970 383e e151 713e bddf 1bbd 7cbc e7bd
00000040: 0f2f 1fbe 4977 a93d 4df0 a83d 4c2f c33d
00000050: 540f e0bd d312 5ebe c958 0ebe df06 a9be
00000060: 9daa 7d3e 380b 563f e833 00bd 537a 89be
00000070: 13a4 673e 01af 95bc 5fa6 2dbf 67b8 8bbd
00000080: ec95 913e 57ae 203e c528 703e eacc 1b3e
00000090: ae9b 323e 4177 e2bd 2013 f2bb 5929 87be
000000a0: 8b94 79be 1521 7b3c c9cf 853d e4f9 5cbc
000000b0: f3d1 fcbe 86fd 96bd aa2d 873e 69a5 41bd
000000c0: e5b9 42be 3dfa 7dbd f39c cabb 31f2 943d
000000d0: 7004 983f 6691 5fbe c0f6 973e cd0b 843b
000000e0: 6497 873e 390f 413e a073 8d3d 4a0e 153e
000000f0: b5ee 51be b3fe e13d 8d60 c4bc fea2 6dbd
00000100: 220a 0ebe f33f e7bd e0f1 21bd 4156 12bf
00000110: 7d89 92bd 9d4d 003f aadb a43c 3b74 8abe
00000120: 6aad 263e 80e2 373e c734 8a3d 7280 b93e
00000130: 3a92 843d 1a32 403e 2538 0fbe 0732 df3e
00000140: b840 1fbe 1d0d febd 1fd8 50be 7365 233d
00000150: bebc 63be cd4a 4f3e ead6 093e 1663 163e
00000160: e652 753f 94f6 c1be 34ef 16be 0d22 c2bc
00000170: aeba 343f d826 d1be 374b b4be f876 06bf
00000180: 0b38 12bf 42b6 953e 0f30 713d 7df2 e0bd
00000190: ca75 40be 8913 9e3d 42d5 853c 986e 273e
000001a0: 804e 023e 2824 883d ec53 d33d 3fde 24be
000001b0: 8d79 18be b602 b9bc 6615 2bbf 7734 6d3f
000001c0: 8da0 993e 7c0b 0dbf 738a 8dbe 8d52 d23e
000001d0: acd7 da3d 00ac 333e ddcf 823d 7b58 23bf
000001e0: 4865 d4be 8712 eabd 3975 b1be aae8 623d
000001f0: 3686 d9bc 814d 7cbc 1f1d 2a3e e783 a33d
00000200: e7a9 91ba 5b59 a9bd 13c9 95bb 1567 f23d
00000210: c512 16bd b209 babc 72a8 a1bd 65b5 9a3e
00000220: 9bbd ed3e 6254 0ebe 3c6f 11bf 38b1 613e
00000230: 7b13 f83e b20b 06bf 8613 15be 9df4 30be
00000240: bd7b 1fbf a5fb e33d 48a1 52bd 1fa6 0f3c
00000250: 14f2 9cbd 2834 e1bd 164c b53e c122 3cbe
00000260: c4e1 7b3e a7b5 e7bd 8b57 adbe 9409 f8bd
00000270: 6e6b 5ebd b6fe 413f 0c91 713e 26f6 563e
00000280: e160 6bbd b2f8 8dbe da0f 3fbf c93b 363f
00000290: be52 a13c aaaa 0cbe 9dab d7bc 48b7 a03b
000002a0: 8332 1ebe d536 b33d 8abb c0bd a28e 63be
000002b0: cf9b 6b3d 95a7 133a ff50 29bd 42de 223e
000002c0: 3966 463d 9381 2ebe d63a 33be 8afb 3f3e
000002d0: df2d 163f 3148 e03d b01b 82be 3410 303b
000002e0: 8e32 ae3f 7079 3a3f 53ee e2bc 5df1 4f3d
000002f0: 20a2 ad3d 2bf4 bf3d 0cac 403e b16d 2bbe
00000300: 9345 4e3e 6974 03be 61f6 80bd 6025 a83c
00000310: b663 b4bd bfc3 6b3d 2a7a 973e f18a 2a3f
00000320: 3894 d7be 7d3e 46bf 30e4 5dbe 9bb2 ed3e
00000330: 5e40 9cbe 7cd6 0fbf 5417 07bf 8a19 fc3d
00000340: 517b 3b3c 88a9 713e d5f8 ba3e bc51 e6bd
00000350: d97b 17bc d0e9 ad3d 79f1 e63d 0bfb 4fbe
00000360: 526a 1ebc edc0 b33d 14a1 e6bd 6d4c 40be
00000370: 7799 99be 438a 58be 716f 5f3e 8e42 29bd
00000380: 0feb fdbe 9372 eebd d90e e43c c91b 323e
00000390: 47e8 953f 3086 9d3e 50a8 093e bacb 30be
000003a0: ed5f ae3c f55f e73d a7ec 163d 36ea c33d
000003b0: 6ca5 213e ebdd c3bc 0378 f7bd ee40 54bc
000003c0: 05ad efbd 170b a23c 6299 b33d db7e 033e
000003d0: 3d54 36bf 325e f9bc 3fbb 52be ae6d b4bc
000003e0: 8b43 c7bd bb14 7cbe ecd2 92be 59c2 0bbe
000003f0: 4275 29be 497d 7f39 ee8e cebe a28b bbbe

_policy.0.bias f4 [128]
-0.02200021 0.00573094 -0.16674888 -0.18506917 -0.012185872 -0.09036987 0.07705168 0.020285135
-0.040101383 0.17781058 0.14388147 0.14740916 -0.21018074 -0.2565748 -0.0072140214 -0.13361824
-0.0053408607 0.04505327 -0.25415647 0.075163625 0.1269186 -0.06578097 -0.14575058 0.201655
-0.069149 -0.021704761 -0.055427663 -0.052403238 0.084988855 -0.21794784 -0.22700928 -0.15758075
0.13569346 -0.080811456 0.10158295 0.07520936 0.20734286 -0.23640351 -0.10625126 0.017543988
-0.023118341 0.07791463 -0.15954264 -0.11362373 0.057400428 -0.16189183 0.14565012 0.14048062
-0.04923162 -0.19077244 -0.31354135 -0.11647193 -0.23840372 0.1308797 -0.21247901 -0.09727191
-0.05045407 0.12678602 0.20968358 -0.06126597 -0.030534921 -0.06070577 -0.17432317 -0.16065156
-0.06300782 -0.1149198 0.07798213 -0.09581473 -0.101176485 -0.18868367 -0.2015363 -0.007791137
-0.19378193 0.23028928 -0.09807974 0.09634344 -0.028990788 -0.1184525 -0.11675836 -0.13391751
0.07927492 0.022459634 0.07645052 -0.16981295 -0.14492135 0.019667432 -0.13559732 -0.022091987
-0.038452975 -0.22136244 0.10296083 -0.2449822 0.09264611 -0.1847525 -0.14601046 0.030324295
-0.2376734 -0.084331915 -0.15964887 -0.12882073 -0.20817931 -0.16973238 -0.14034799 -0.036461465
-0.007775833 0.020620769 -0.18938483 -0.21984592 0.021047676 0.10988398 0.14871414 -0.15604801
-0.16394483 -0.097256385 -0.26673838 0.14346795 0.08800212 0.037782982 -0.054297663 0.19728561
0.08152497 -0.030866286 0.07863916 -0.13327453 0.002762824 -0.16985025 -0.18447725 -0.24400054
00000000: c939 b4bc 9cca bb3b 38c0 2abe c682 3dbe
00000010: 40a7 47bc d713 b9bd 45cd 9d3d 032d a63c
00000020: 5941 24bd fa13 363e aa55 133e 6df2 163e
00000030: 9f39 57be c65d 83be 9963 ecbb 38d3 08be
00000040: 6302 afbb c789 383d cc20 82be 63ef 993d
00000050: f3f6 013e 2cb8 86bd a43f 15be a67e 4e3e
00000060: fe9d 8dbd 2fce b1bc 1e08 63bd c7a4 56bd
00000070: a30e ae3d b82d 5fbe 1f75 68be d95c 21be
00000080: 3af3 0a3e 7a80 a5bd b90a d03d 5d07 9a3d
00000090: b051 543e c313 72be 439a d9bd 69b8 8f3c
000000a0: ad62 bdbc b591 9f3d 255f 23be 8fb3 e8bd
000000b0: b61c 6b3d f9c6 25be 4e25 153e 27da 0f3e
000000c0: 18a7 49bd da59 43be 7e88 a0be d688 eebd
000000d0: 1b20 74be 5405 063e 1994 59be 7f36 c7bd
000000e0: eda8 4ebd 32d4 013e 4bb7 563e 07f2 7abd
000000f0: 5f24 fabc 9da6 78bd c681 32be d881 24be
00000100: 3e0a 81bd 125b ebbd 18b5 9f3d 833a c4bd
00000110: 9e35 cfbd 4b36 41be 885f 4ebe cb4c ffbb
00000120: c56e 46be f4d0 6b3e 08de c8bd b64f c53d
00000130: 177e edbc 3997 f2bd 021f efbd ac21 09be
00000140: e45a a23d 44fd b73c 1792 9c3d 72e3 2dbe
00000150: 4366 14be 981d a13c 06da 0abe 41fa b4bc
00000160: de80 1dbd d6ac 62be 21dd d23d 9ddc 7abe
00000170: 3ebd bd3d c22f 3dbe c483 15be a86a f83c
00000180: a860 73be 36b6 acbd fe7a 23be 95e9 03be
00000190: f52c 55be 53ce 2dbe 62b7 0fbe 9e58 15bd
000001a0: 6acc febb e3ec a83c 19ee 41be 4a1f 61be
000001b0: 2d6c ac3c da0a e13d 8548 183e 0dcb 1fbe
000001c0: 27e1 27be 5b2e c7bd ef91 88be 43e9 123e
000001d0: 753a b43d 54c2 1a3d 3a67 5ebd 3d05 4a3e
000001e0: 90f6 a63d 4bdb fcbc 910d a13d 1e79 08be
000001f0: 7f10 353b 39ed 2dbe 9be7 3cbe 47db 79be

_policy.2.weight f4 [128, 128]
-0.057949677 -0.056243043 -0.025185274 0.03138589 0.3348506 -0.52935195 0.20517594 0.058112577
0.0761279 -0.46734005 0.08460636 -0.21686171 0.033166416 -0.0823325 -0.3917306 0.048185337
-0.17468289 -0.04351793 -0.12578392 0.23788114 -0.041194335 0.035966206 0.041230146 -0.2994666
-0.07663963 0.059282456 -0.12725942 0.10389614 0.10718811 0.012192797 0.014272207 -0.4318233
0.092232235 -0.09787001 0.34049362 -0.13455437 0.06894805 -0.37334487 0.123954944 0.17308646
-0.37821147 -0.080859445 0.19810532 -0.011601681 -0.052404065 -0.023684919 0.09307803 -0.09999924
-0.103149705 -0.3386167 -0.07237082 -0.08301041 0.22889774 0.36206844 -0.03226114 -0.16222672
0.21224944 0.017614009 -0.06007078 0.037287757 0.11839608 0.022635961 0.033310104 0.37799737
-0.027291017 0.19883032 0.099502124 -0.057567287 0.048473842 -0.0015398016 0.1550509 -0.10875037
-0.19830765 -0.11526566 -0.13375731 -0.1250763 -0.13280918 0.005240182 -0.029975845 0.21222307
0.14523794 -0.025798941 0.05219576 -0.34867638 -0.43875965 -0.074616216 0.032486893 0.104691654
-0.050745163 0.053447187 -0.0473764 0.17689167 0.12066199 -0.21227832 -0.00798422 -0.014587874
-0.02066622 0.28441083 -0.1276403 0.08387435 -0.101881705 0.047132045 0.0723749 0.12677737
-0.011856956 -0.08529617 0.14774987 0.017419176 -0.23382924 -0.23159052 -0.25759408 -0.068443105
-0.04553465 -0.027869439 0.050883766 0.05682256 -0.049144186 0.09433602 -0.17026716 0.030471073
-0.010072865 0.029911932 0.01555896 -0.45050457 -0.051667657 -0.03510006 0.06138827 0.29185626
-0.06140583 -0.05980903 -0.055664554 -0.028407155 0.014663428 -0.04848445 0.021407485 0.042645685
0.008201685 -0.00938073 -0.06437628 -0.11796675 -0.0067549543 -0.056351375 -0.108683795 -0.05066766
-0.08765347 -0.118350975 -0.081710584 0.042888436 -0.12541732 0.0060305055 -0.084956445 0.040537354
-0.032752458 -0.0379163 -0.02708536 -0.077526234 -0.097748004 -0.042773515 -0.0073657115 -0.06818931
-0.07395296 -0.05856099 -0.0443032 -0.054178447 0.004638344 -0.018967777 -0.070944615 -0.07303782
0.07849728 0.012813721 0.0023514323 0.009558812 0.059018426 -0.09680593 -0.05311028 -0.11582167
-0.10427453 -0.06941916 -0.028747676 -0.11442327 -0.0140749365 0.02036266 -0.11415532 -0.004554025
-0.015577358 -0.077720486 0.049331326 -0.09432861 0.04657864 0.028507441 -0.05484953 -0.03494683
0.04443075 0.03009999 -0.07211348 -0.035023365 -0.024249867 0.04829905 -0.06190344 -0.034180176
0.039344218 -0.07958229 0.0021670721 -0.07741135 -0.07725439 -0.12314217 -0.027355667 -0.03286951
-0.044622682 -0.005033838 -0.000297699 -0.063339554 0.035877697 0.034933403 -0.0110730985 -0.03440077
0.0074495864 0.026683904 -0.023700574 -0.106420316 0.007291824 -0.02104153 0.06317614 0.039225936
0.015683208 -0.08773212 -0.0916417 -0.12460725 -0.11701237 -0.03601365 0.04195877 0.0043091676
-0.09667434 0.008419899 -0.09880147 0.036375757 0.06181695 -0.02670002 0.0063454956 -0.02800785
-0.024517037 0.0435305 0.016264068 0.030139197 -0.009700287 -0.07508193 0.025757436 -0.13164258
0.04969754 -0.0025834537 -0.10772815 -0.09995276 -0.047450107 0.048905816 0.032493576 -0.05947017
00000000: a45c 6dbd 1b5f 66bd 5951 cebc 7e8e 003d
00000010: 8a71 ab3e 9c83 07bf a419 523e 7407 6e3d
00000020: f2e8 9b3d 3247 efbe 1946 ad3d ff10 5ebe
00000030: 82d9 073d f19d a8bd ea90 c8be fd5d 453d
00000040: 12e0 32be db3f 32bd 80cd 00be 1d97 733e
00000050: 64bb 28bd 4d51 133d f1e0 283d b053 99be
00000060: 3df5 9cbd 29d2 723d 4b50 02be 80c7 d43d
00000070: 7185 db3d 4cc4 473c fad5 693c f217 ddbe
00000080: 41e4 bc3d 1270 c8bd 2e55 ae3e 9fc8 09be
00000090: a334 8d3d 0f27 bfbe 17dc fd3d 943d 313e
000000a0: efa4 c1be a399 a5bd 1fdc 4a3e fa14 3ebc
000000b0: a5a5 56bd e006 c2bc b29f be3d 67cc ccbd
000000c0: 2740 d3bd 2b5f adbe 2737 94bd 5d01 aabd
000000d0: 2b64 6a3e 0961 b93e 4224 04bd c31e 26be
000000e0: eb57 593e 414b 903c c70c 76bd 0cbb 183d
000000f0: a579 f23d 0d6f b93c 2d70 083d df88 c13e
00000100: 6991 dfbc 2d9a 4b3e c5c7 cb3d adcb 6bbd
00000110: 828c 463d 2bd3 c9ba aac5 1e3e 84b8 debd
00000120: 2911 4bbe 6710 ecbd adf7 08be 0014 00be
00000130: 21ff 07be d5b5 ab3b e78f f5bc 0151 593e
00000140: 41b9 143e 4d58 d3bc 39cb 553d b685 b2be
00000150: 1ba5 e0be 63d0 98bd fa10 053d 9468 d63d
00000160: 29da 4fbd 70eb 5a3d c20d 42bd 1723 353e
00000170: a21d f73d 7d5f 59be 3fd0 02bc fa01 6fbc
00000180: 344c a9bc 4c9e 913e 24b4 02be 51c6 ab3d
00000190: 5ba7 d0bd 880d 413d 4b39 943d edd1 013e
000001a0: ae43 42bc c2af aebd be4b 173e a9b2 8e3c
000001b0: ef70 6fbe 1126 6dbe 5fe3 83be e62b 8cbd
000001c0: 8b82 3abd 734e e4bc 7f6b 503d c6be 683d
000001d0: 6a4b 49bd 3e33 c13d 845a 2ebe 799e f93c
000001e0: a808 25bc de09 f53c 02eb 7e3c 89a8 e6be
000001f0: 77a1 53bd 15c5 0fbd 4472 7b3d 2f6e 953e
00000200: ae84 7bbd 50fa 74bd 8400 64bd 1fb6 e8bc
00000210: e03e 703c a197 46bd c05e af3c 3ead 2e3d
00000220: 5c60 063c a2b1 19bc b6d7 83bd 8d98 f1bd
00000230: aa58 ddbb b3d0 66bd 9c95 debd e488 4fbd
00000240: aa83 b3bd ff61 f2bd e157 a7bd c9ab 2f3d
00000250: 666d 00be 8c9b c53b a5fd adbd 7f0a 263d
00000260: 7127 06bd 1f4e 1bbd 1ee2 ddbc 13c6 9ebd
00000270: 1b30 c8bd 4833 2fbd 115c f1bb d6a6 8bbd
00000280: a674 97bd a6dd 6fbd 4677 35bd 38ea 5dbd
00000290: 40fd 973b 5062 9bbc 694b 91bd da94 95bd
000002a0: 2fc3 a03d a4f0 513c 7d1a 1a3b 909c 1c3c
000002b0: 4ebd 713d 3042 c6bd 2a8a 59bd e933 edbd
000002c0: e38d d5bd a22b 8ebd 3f80 ebbc bf56 eabd
000002d0: 909a 66bc 98cf a63c 44ca e9bd ee39 95bb
000002e0: 2d38 7fbc eb2b 9fbd a50f 4a3d 5c2f c1bd
000002f0: 3ec9 3e3d 7088 e93c e7a9 60bd 6824 0fbd
00000300: 05fd 353d 4194 f63c 3bb0 93bd a974 0fbd
00000310: a8a7 c6bc 3ad5 453d 768e 7dbd 8300 0cbd
00000320: 6727 213d 0afc a2bd 7005 0e3b d889 9ebd
00000330: 8d37 9ebd f631 fcbd fe18 e0bc 2ea2 06bd
00000340: 46c6 36bd e5f2 a4bb 7c14 9cb9 2bb8 81bd
00000350: 7ef4 123d 5416 0f3d f16b 35bc d2e7 0cbd
00000360: a91b f43b 3498 da3c b527 c2bc e5f2 d9bd
00000370: 41f0 ee3b 495f acbc 7e62 813d 60ab 203d
00000380: 127a 803c e6ac b3bd a5ae bbbd 1632 ffbd
00000390: 2ea4 efbd 0d83 13bd f6dc 2b3d eb33 8d3b
000003a0: 32fd c5bd 9ef3 093c 6d58 cabd bffe 143d
000003b0: c533 7d3d 00ba dabc e0ed cf3b b870 e5bc
000003c0: f4d7 c8bc 0a4d 323d 393c 853c 7ae6 f63c
000003d0: f4ed 1ebc 8ec4 99bd 4201 d33c 50cd 06be
000003e0: a68f 4b3d 294f 29bb 94a0 dcbd 08b4 ccbd
000003f0: 0b5b 42bd 7751 483d fc17 053d fe96 73bd

_policy.2.bias f4 [128]
-0.045828212 -0.15135372 -0.11617503 0.07129884 -0.0034790956 0.026817614 -0.02352446 0.013225527
-0.012476176 0.013188934 -0.043397654 0.09700375 0.07192916 0.053560957 0.05128958 0.058101844
0.053224944 0.05448735 0.12614626 0.027059464 -0.06297643 -0.026998067 0.062258583 0.02928251
-0.07748703 0.0005660722 0.0522367 -0.10504725 -0.1435383 0.07118977 -0.07913815 -0.08662796
-0.05482646 0.008981255 -0.08861318 -0.14212625 -0.06322334 -0.008813369 -0.012759368 -0.058758613
0.112123705 -0.08931332 0.079826824 -0.11653579 -0.01678657 0.027950194 -0.024066832 -0.013259659
0.010863124 -0.092972435 -0.05541615 0.012364076 0.10828532 -0.016382683 0.032957062 0.013106242
-0.064874195 -0.14277834 0.021586787 -0.07050783 -0.039271183 0.044104498 -0.1395948 -0.06598616
-0.04375905 -0.0018688297 0.0037028485 0.025623213 -0.11550285 -0.07524015 -0.04422292 -0.024192786
-0.081540905 -0.13022293 0.078232445 -0.09340284 0.10317035 -0.10693322 0.067599274 -0.009371981
0.021995319 -0.01566073 0.045409694 0.06775971 -0.02308353 0.10841192 0.010387114 -0.072851226
-0.032062758 0.0018046948 -0.075497955 0.046983793 -0.03615257 0.09783477 -0.124270454 -0.10351215
-0.0066226493 0.018430721 -0.041581545 -0.072132744 -0.1210766 -0.102819644 -0.0070496295 0.06321352
-0.019659024 0.07708682 -0.09883716 -0.026577687 -0.062338855 -0.022085223 -0.07316402 0.023779713
0.047596596 0.03971864 -0.08580402 0.06619062 -0.10895182 -0.03797151 -0.07897693 0.01399046
-0.09540305 -0.08793929 -0.07068292 -0.08301483 -0.13242422 0.05571471 -0.09491948 0.06513862
00000000: 5db6 3bbd 78fc 1abe 2ded edbd 2005 923d
00000010: 8a01 64bb 9db0 db3c 5eb6 c0bc e1af 583c
00000020: e068 4cbc 6616 583c bdc1 31bd e7a9 c63d
00000030: 984f 933d bc62 5b3d 0615 523d 33fc 6d3d
00000040: 6602 5a3d 212e 5f3d 7c2c 013e cfab dd3c
00000050: c9f9 80bd 0d2b ddbc db02 7f3d e0e1 ef3c
00000060: 85b1 9ebd 7664 143a 26f6 553d 0323 d7bd
00000070: b4fb 12be f1cb 913d 2f13 a2bd 006a b1bd
00000080: b691 60bd 1d26 133c d47a b5bd 8b89 11be
00000090: 3d7b 81bd f365 10bc ab0c 51bc dfac 70bd
000000a0: 1da1 e53d e7e9 b6bd 3f7c a33d 51aa eebd
000000b0: fd83 89bc cef7 e43c ce27 c5bc 0a3f 59bc
000000c0: 3ffb 313c 5568 bebd 0bfc 62bd b292 4a3c
000000d0: b2c4 dd3d fa34 86bc fcfd 063d 90bb 563c
000000e0: c3dc 84bd 7c34 12be c6d6 b03c 6966 90bd
000000f0: d2da 20bd eba6 343d f0f1 0ebe c023 87bd
00000100: b13c 33bd 85f3 f4ba 7dab 723b c6e7 d13c
00000110: c28c ecbd 8217 9abd 1823 35bd f32f c6bc
00000120: ebfe a6bd 2959 05be 5538 a03d fd49 bfbd
00000130: fa4a d33d ceff dabd 7d71 8a3d f08c 19bc
00000140: 872f b43c ee4a 80bc 84ff 393d 9ac5 8a3d
00000150: ac19 bdbc 1207 de3d b72e 2a3c 0633 95bd
00000160: 3d54 03bd 828b ec3a ac9e 9abd 1472 403d
00000170: b814 14bd 995d c83d 8281 febd 2efe d3bd
00000180: cf02 d9bb 06fc 963c 6951 2abd 55ba 93bd
00000190: 02f7 f7bd 1b93 d2bd 9400 e7bb 1776 813d
000001a0: f60b a1bc b2df 9d3d 236b cabd 73b9 d9bc
000001b0: 0757 7fbd 12ec b4bc 05d7 95bd accd c23c
000001c0: a6f4 423d 03b0 223d 05ba afbd f38e 873d
000001d0: 2222 dfbd 0488 1bbd a8be a1bd 3e38 653c
000001e0: ad62 c3bd 8419 b4bd 35c2 90bd ae03 aabd
000001f0: 379a 07be 1c35 643d 2565 c2bd 6667 853d

_policy.4.weight f4 [128, 128]
0.24961813 -0.03434356 -0.051278733 -0.22972788 0.18014877 0.06495048 -0.08921672 0.055260286
-0.018339774 0.05385274 -0.09648897 0.13372077 0.032347877 0.02500866 -0.101193696 0.059300456
-0.2808215 0.07139995 -0.21744177 -0.017056344 0.017990738 -0.2710176 -0.04602159 0.22551647
0.06836535 -0.057750802 0.028499797 -0.18413799 0.058216315 -0.11288728 -0.021452663 -0.31669706
-0.17113681 -0.1250995 0.14458299 0.05453848 -0.0870041 0.06888015 -0.038700614 0.030111728
-0.24155012 -0.058090154 0.08090903 0.16531272 0.032127388 0.043120217 -0.0856551 0.069713905
0.073244855 0.01679643 0.1300532 -0.03555989 0.061042566 0.03609307 -0.38800883 -0.06010821
-0.0508197 -0.034140863 -0.033252187 0.03786744 -0.09250882 -0.0814025 -0.06364429 -0.042356636
0.015324806 -0.025971796 -0.053856328 -0.13869298 0.012987707 -0.16550933 -0.17755578 -0.22340788
0.0013237414 -0.07527728 -0.081167676 -0.05456888 0.24015574 0.05256172 0.0801497 -0.13054588
-0.27049705 0.030419815 -0.232762 0.07486245 0.0658557 -0.34637964 -0.10312403 -0.42621288
0.06837472 -0.055824503 0.13286957 0.026565604 -0.0025114233 -0.051507812 0.07180862 0.045693617
0.20718643 0.09238666 0.0012909942 0.02499889 -0.3699642 0.18632981 -0.056198943 -0.29874438
-0.048116058 0.018782247 0.14852202 0.17413045 -0.04969999 0.21168673 -0.097294554 0.2609175
-0.13100679 -0.43517378 0.1248786 -0.09639937 -0.17352062 -0.23472181 -0.022669563 0.14401127
-0.06920178 -0.19933113 -0.010080659 -0.28201586 -0.026807543 0.16440637 -0.10021326 -0.013828192
-0.0058235927 0.057888754 0.04062896 -0.18718395 -0.013489658 0.25779447 0.086404204 -0.22273807
0.020481285 -0.07273791 0.2134476 -0.05952559 0.068549246 0.30204836 -0.066195145 -0.035513468
-0.19286947 0.32960793 0.15671581 -0.00078550493 -0.50249684 -0.07974619 0.122145906 -0.24721374
0.11914155 0.07069273 0.07520929 0.22848697 -0.011369348 0.049361933 0.0512261 0.0931903
-0.19827971 -0.020907309 -0.10848859 -0.016928628 -0.049785156 -0.050039057 0.17149514 -0.2077488
-0.035515323 -0.018264528 -0.43900156 0.27488166 0.099310465 -0.08757982 -0.63690907 0.053284496
0.06022985 -0.032692805 0.09485985 -0.06905785 -0.2638628 -0.06423708 -0.27695537 0.28192565
-0.22946654 -0.044029694 -0.009169911 0.13613555 0.09871303 -0.14402786 -0.24869005 0.060153224
-0.086523645 -0.43099785 0.06793703 -0.1691665 -0.08974763 0.17889561 0.052065663 -0.5065513
0.045251414 0.030758418 -0.003334987 -0.30704322 0.11328746 -0.0013167677 -0.25195143 -0.2739544
-0.016868021 0.24741536 -0.08643683 -0.017464353 0.07098597 0.02144424 0.091591075 -0.13977535
-0.5854428 0.044059478 0.119700894 -0.056693226 0.054301225 -0.080635086 -0.21387039 -0.08624096
0.25753528 -0.43692276 0.18076433 0.015992709 -0.25839496 -0.0641065 0.032392237 -0.33611506
-0.0050721043 -0.25958335 -0.12726797 -0.07156579 -0.0045889053 0.27746126 0.1601305 0.038016137
0.02982579 -0.31283456 0.08643935 0.075645134 -0.28612998 -0.06932303 0.00064192194 0.06511253
0.1850436 0.030027049 0.07272682 0.083248086 -0.025772028 0.08951477 0.04718789 -0.13593756
00000000: e59b 7f3e d5ab 0cbd a609 52bd c93d 6bbe
00000010: eb78 383e c204 853d 41b7 b6bd 9c58 623d
00000020: 4b3d 96bc b194 5c3d 029c c5bd 19ee 083e
00000030: 357f 043d f6de cc3c a43e cfbd 09e5 723d
00000040: d6c7 8fbe 233a 923d 0ea9 5ebe bfb9 8bbc
00000050: 5061 933c d2c2 8abe 2281 3cbd caed 663e
00000060: 2203 8c3d 1b8c 6cbd 6878 e93c ab8e 3cbe
00000070: 3b74 6e3d 7231 e7bd 7fbd afbc 1e26 a2be
00000080: 7d3e 2fbe 151a 00be 900d 143e be63 5f3d
00000090: 352f b2bd 0911 8d3d 8984 1ebd dfac f63c
000000a0: ea58 77be f1ef 6dbd a2b3 a53d bd47 293e
000000b0: 0298 033d d39e 303d f16b afbd 2ac6 8e3d
000000c0: 6601 963d ab98 893c ab2c 053e 3fa7 11bd
000000d0: c507 7a3d 54d6 133d 18a9 c6be 0734 76bd
000000e0: 5128 50bd 4ad7 0bbd 7233 08bd e41a 1b3d
000000f0: 4475 bdbd 5bb6 a6bd f057 82bd 277e 2dbd
00000100: e514 7b3c cec2 d4bc 7498 5cbd 8805 0ebe
00000110: 64ca 543c 477b 29be 2fd1 35be 09c5 64be
00000120: 6481 ad3a f92a 9abd 3d3b a6bd 9e83 5fbd
00000130: 63eb 753e f54a 573d 8725 a43d d2ad 05be
00000140: 977e 8abe fa32 f93c 2959 6ebe 7c51 993d
00000150: 5adf 863d ac58 b1be b132 d3bd 9338 dabe
00000160: 0c08 8c3d 3ca8 64bd f60e 083e 1ca0 d93c
00000170: b196 24bb dbf9 52bd 6610 933d 3b29 3b3d
00000180: ae28 543e 3835 bd3d 9436 a93a 79ca cc3c
00000190: f36b bdbe 3ecd 3e3e dd30 66bd 06f5 98be
000001a0: 5815 45bd 3add 993c 2816 183e 414f 323e
000001b0: 3792 4bbd 68c4 583e 5e42 c7bd fb96 853e
000001c0: a526 06be 19cf debe 5ac0 ff3d 086d c5bd
000001d0: 64af 31be ea5a 70be 85b5 b9bc b177 133e
000001e0: aab9 8dbd 761d 4cbe 5929 25bc 6264 90be
000001f0: 7e9b dbbc 255a 283e 9c3c cdbd a48f 62bc
00000200: d6d3 bebb c21c 6d3d 8d6a 263d 26ad 3fbe
00000210: ba03 5dbc a3fd 833e b0f4 b03d 7315 64be
00000220: 5ec8 a73c 9df7 94bd 0292 5a3e 1bd1 73bd
00000230: 8c63 8c3d 15a6 9a3e 5291 87bd 9276 11bd
00000240: 937f 45be 5fc2 a83e 1c7a 203e 58ea 4dba
00000250: a2a3 00bf f851 a3bd a227 fa3d 9925 7dbe
00000260: 7c00 f43d 5ac7 903d 5407 9a3d 7df8 693e
00000270: 8046 3abc bd2f 4a3d 76d2 513d 8eda be3d
00000280: d609 4bbe ce45 abbc 442f debd e8ad 8abc
00000290: 85eb 4bbd c1f5 4cbd 6c9c 2f3e 1abc 54be
000002a0: 8478 11bd 7e9f 95bc d0c4 e0be 4abd 8c3e
000002b0: 4963 cb3d 0c5d b3bd 790c 23bf d840 5a3d
000002c0: 93b3 763d e4e8 05bd e245 c23d 346e 8dbd
000002d0: 0619 87be bb8e 83bd 18cd 8dbe 8f58 903e
000002e0: 47f9 6abe 7b58 34bd 653d 16bc 1e67 0b3e
000002f0: 0f2a ca3d 0a7c 13be 9ba8 7ebe 3a63 763d
00000300: 4f33 b1bd c0ab dcbe 9222 8b3d fc39 2dbe
00000310: 9bcd b7bd 6930 373e ce42 553d 59ad 01bf
00000320: 8c59 393d 14f9 fb3c cc8f 5abb c534 9dbe
00000330: 4103 e83d 6497 acba c7ff 80be c043 8cbe
00000340: ce2e 8abc 745a 7d3e cb05 b1bd 6711 8fbc
00000350: 1861 913d d5ab af3c 1a94 bb3d 4521 0fbe
00000360: 94df 15bf b677 343d be25 f53d 2837 68bd
00000370: f66a 5e3d 0224 a5bd d700 5bbe 1a9f b0bd
00000380: aadb 833e 57b4 dfbe 491a 393e 2403 833c
00000390: 584c 84be 454a 83bd b9ad 043d 4617 acbe
000003a0: e533 a6bb 1ce8 84be 8952 02be 1691 92bd
000003b0: 875e 96bb 670f 8e3e 40f9 233e cfb6 1b3d
000003c0: 3755 f43c da2b a0be 1d07 b13d d6eb 9a3d
000003d0: a17f 92be 3cf9 8dbd a746 283a b859 853d
000003e0: 127c 3d3e 49fb f53c cdf1 943d f97d aa3d
000003f0: dc1f d3bc 8553 b73d 1748 413d 3733 0bbe

_policy.4.bias f4 [128]
0.044146948 0.02202636 0.060535956 -0.067659274 0.015974334 -0.21897104 -0.03489682 -0.07577795
-0.17385562 -0.046380866 0.035789087 0.18726842 -0.11826792 -0.059474517 -0.06794647 0.100353524
-0.15074891 -0.005407047 -0.24964616 -0.051260386 0.004085297 0.16204688 0.007008752 -0.08251577
0.01855077 0.043423504 -0.22337286 0.00017710803 0.07496261 0.047445655 -0.045532122 -0.029481318
0.13269873 0.18659766 -0.266899 -0.058422327 0.091439106 -0.24458441 -0.019804986 -0.08998241
0.0058103367 0.017604819 0.0011738786 -0.08511728 0.036156945 -0.07529569 -0.20515439 -0.12918548
0.06954839 0.032713734 -0.11674178 -0.09935706 0.08446695 -0.195698 -0.0144138895 0.056811783
-0.14329906 -0.018956693 -0.06258434 -0.033018082 -0.14249076 -0.11955342 0.011233468 0.02199469
0.064708635 -0.021577278 -0.015692208 0.034805562 0.008316813 -0.080228254 0.037731726 0.017135872
-0.13640125 0.020365626 0.118151605 -0.0966629 -0.05953409 0.02674954 0.12730056 0.07233904
-0.01593897 -0.006763192 -0.032750703 -0.061872367 -0.15018317 0.15060884 0.113658115 -0.10809471
-0.16219124 -0.1400575 0.084760234 -0.012203431 -0.016408596 -0.14234318 -0.07283277 -0.011039008
-0.1317137 0.01723018 0.021180958 0.023512239 0.029032858 -0.12198638 -0.11892051 0.060492862
-0.039689213 0.12234504 0.10591597 0.025346613 0.069987915 -0.0076690353 -0.0128621105 0.0034770437
-0.068632 -0.07353334 -0.16356087 0.04926497 0.059995543 -0.15317023 -0.06097539 -0.14864631
-0.016351296 -0.031394284 -0.057956275 -0.054301593 -0.030697946 -0.17093544 0.00330817 0.07628229
00000000: 6ed3 343d a070 b43c 8df4 773d f290 8abd
00000010: 9bdc 823c f239 60be f8ef 0ebd 7831 9bbd
00000020: 3507 32be ddf9 3dbd 9497 123d 4bc3 3f3e
00000030: 7436 f2bd 8d9b 73bd 8527 8bbd 2686 cd3d
00000040: ec5d 1abe 992d b1bb 3ea3 7fbe 69f6 51bd
00000050: f5dd 853b 9eef 253e aca9 e53b 07fe a8bd
00000060: c9f7 973c d8dc 313d dbbb 64be 13b6 3939
00000070: ff85 993d 6056 423d e47f 3abd ce82 f1bc
00000080: 2de2 073e 7513 3f3e fca6 88be 404c 6fbd
00000090: 6d44 bb3d 5674 7abe 113e a2bc b348 b8bd
000000a0: a364 be3b fb37 903c d4dc 993a f851 aebd
000000b0: 4e19 143d a034 9abd fe13 52be 3349 04be
000000c0: 636f 8e3d d6fe 053d 5016 efbd b77b cbbd
000000d0: 02fd ac3d 0e65 48be 3c28 6cbc 79b3 683d
000000e0: fdbc 12be 114b 9bbc 382c 80bd f83d 07bd
000000f0: 19e9 11be 6cd8 f4bd 940c 383c 352e b43c
00000100: f685 843d d5c2 b0bc f28c 80bc 4790 0e3d
00000110: 3e43 083c b64e a4bd 958c 1a3d 8760 8c3c
00000120: c5ac 0bbe d0d5 a63c 78f9 f13d 33f7 c5bd
00000130: 05da 73bd da21 db3c 145b 023e 7e26 943d
00000140: 7192 82bc c49d ddbb 9a25 06bd e16d 7dbd
00000150: 9ec9 19be 3439 1a3e 96c5 e83d c260 ddbd
00000160: 7615 26be 3c6b 0fbe c696 ad3d e6f0 47bc
00000170: 526b 86bc 69c2 11be 5929 95bd f5dc 34bc
00000180: f5df 06be 4e26 8d3c b083 ad3c bd9c c03c
00000190: 51d6 ed3c ffd3 f9bd 998c f3bd 5dc7 773d
000001a0: 2891 22bd 0990 fa3d 79ea d83d b3a3 cf3c
000001b0: d355 8f3d 884c fbbb 9abb 52bc 1ddf 633b
000001c0: ef8e 8cbd a698 96bd 807c 27be 11ca 493d
000001d0: e3bd 753d a8d8 1cbe 55c1 79bd bd36 18be
000001e0: 27f3 85bc 4b97 00bd 8f63 6dbd 596b 5ebd
000001f0: 427a fbbc b309 2fbe e2cd 583b e439 9c3d

_policy.6.weight f4 [128, 128]
-0.09140825 -0.0016897836 0.11824751 0.0032954381 -0.023219517 -0.21805562 0.019057687 0.11934241
-0.07770914 -0.03804261 0.2733361 -0.3285171 0.05607788 -0.07265577 -0.16596542 0.16522321
-0.0040910584 0.11520497 -0.04916154 -0.41112268 0.11239801 0.1502877 0.059909973 0.15004072
0.09389386 0.09731889 0.01752307 -0.054582637 -0.036795046 0.015607862 0.19068389 -0.07597334
0.061150577 -0.048935387 0.36270508 -0.11884204 0.15499726 0.13368508 0.04826019 -0.2986688
-0.030869637 -0.11606619 -0.024570841 -0.011926027 -0.054495547 0.09276011 -0.399262 -0.18482396
-0.18612607 0.0437388 0.09932675 -0.025869824 0.03383954 -0.053885907 0.11690398 -0.14805214
-0.45104057 0.004709388 -0.039730206 -0.193952 0.049166035 0.30519783 -0.01972187 -0.21581465
-0.3628624 0.15420572 0.1873676 -0.5376635 0.25983113 0.13680491 0.067432106 -0.08785713
0.12754051 -0.16758175 -0.11571388 -0.0091690095 0.13204359 -0.20275551 0.10276105 0.11876216
-0.014856163 0.15704575 -0.028724557 -0.17396264 0.008230532 0.13407618 -0.24934281 -0.06753844
-0.19578801 -0.14771077 0.37330574 0.02555687 -0.09324852 -0.096964225 -0.15706106 -0.36389068
-0.12725629 -0.00010294562 -0.10519327 -0.28494108 0.105273575 0.0508299 0.012938316 0.2467816
-0.23128535 -0.20087607 0.21339984 0.06610266 0.046933588 -0.023297241 -0.0131069375 0.07747936
0.02102608 -0.11655035 -0.04448656 0.12592015 -0.094052225 0.20308995 0.16099347 0.17252466
0.23562822 -0.13138409 0.048848424 -0.32462567 -0.24602564 -0.091373 0.029512549 0.027061954
-0.06352749 0.21763836 0.07654577 -0.19970143 -0.09501622 -0.11148302 -0.3885143 -0.04829665
0.11969181 -0.2958489 0.06952 -0.042719696 -0.064887725 -0.09807433 0.09974807 -0.26702598
0.14084855 -0.33481014 -0.32261214 0.17161651 0.04540948 -0.29860333 -0.031195646 0.09451067
-0.20770308 -0.19333494 0.07914378 -0.014961291 -0.26811224 0.036539994 -0.16613021 0.21070129
-0.07412976 -0.020895312 0.09107477 -0.021894217 -0.059156343 0.11918297 0.05362532 0.048333377
-0.036093254 0.08947748 -0.5951525 -0.045210622 0.27570656 -0.09578854 -0.034373444 0.06109979
-0.21896921 -0.08992508 -0.29762107 -0.031592384 -0.30497354 -0.11470111 -0.020067357 -0.03941178
0.019166509 0.28980955 -0.2756417 -0.011852532 -0.037173282 -0.01628691 -0.205824 0.01752185
-0.14829408 -0.116385125 -0.2575055 0.21485233 -0.09597608 -0.14618711 0.07838545 0.09191519
-0.15345506 0.03390212 -0.06879083 0.07722476 0.09897444 -0.48182645 -0.33129722 0.1094929
-0.38103443 0.16473511 -0.016441334 -0.57935494 0.113700114 -0.060740974 0.18604672 -0.1268431
0.23971821 -0.42797482 0.0816896 0.019963548 0.030218419 0.11275379 0.13269557 0.46905145
0.037711173 -0.058341563 -0.13318568 0.16910732 -0.20598215 0.10407356 -0.27807254 0.18991652
0.4890073 -0.22855479 0.15114687 0.15957463 -0.17113854 -0.32028168 0.16419725 -0.40223905
-0.23079152 -0.008429533 -0.19139549 -0.3629082 -0.031112919 -0.003520521 -0.14427452 -0.39249367
-0.18695828 -0.7013842 -0.028544728 0.05114075 -0.20260407 -0.21388786 0.033390272 -0.40369374
00000000: 4034 bbbd bb7b ddba c02b f23d 47f8 573b
00000010: db36 bebc f949 5fbe de1e 9c3c cb69 f43d
00000020: f825 9fbd 91d2 1bbd b6f2 8b3e 6533 a8be
00000030: ebb1 653d 8ccc 94bd d7f2 29be 4630 293e
00000040: 490e 86bb 95f0 eb3d 9c5d 49bd ac7e d2be
00000050: ee30 e63d 05e5 193e 2964 753d 46a4 193e
00000060: 6d4b c03d 204f c73d 8b8c 8f3c 0b92 5fbd
00000070: 67b6 16bd 1eb8 7f3c a342 433e e997 9bbd
00000080: 0779 7a3d 7970 48bd 7bb4 b93e 7563 f3bd
00000090: 9ab7 1e3e bee4 083e 7aac 453d 1eeb 98be
000000a0: 52e2 fcbc 1cb4 edbd ca48 c9bc 6265 43bc
000000b0: b936 5fbd 03f9 bd3d 126c ccbe 7e42 3dbe
000000c0: d597 3ebe 7527 333d d36b cb3d f4ec d3bc
000000d0: 549b 0a3d 78b7 5cbd 5b6b ef3d fb9a 17be
000000e0: caee e6be 3651 9a3b 24bc 22bd 5a9b 46be
000000f0: 5362 493d e442 9c3e c28f a1bc 84fe 5cbe
00000100: 1ac9 b9be 1be8 1d3e 4bdd 3f3e 51a4 09bf
00000110: 9608 853e 9616 0c3e d819 8a3d 70ee b3bd
00000120: fb99 023e 8d9a 2bbe 66fb ecbd 9d39 16bc
00000130: 6f36 073e 249f 4fbe 6374 d23d 9339 f33d
00000140: 4467 73bc 9ad0 203e c34f ebbc 4323 32be
00000150: 5ad9 063c 444b 093e b953 7fbe 9851 8abd
00000160: a77c 48be 7e41 17be ee21 bf3e a45c d13c
00000170: 14f9 bebd 2e95 c6bd 9dd4 20be e14f babe
00000180: 794f 02be 82e4 d7b8 926f d7bd cce3 91be
00000190: ac99 d73d 0333 503d 3bfb 533c 51b4 7c3e
000001a0: 11d6 6cbe 75b2 4dbe 7d85 5a3e d560 873d
000001b0: 6f3d 403d dbd9 bebc 7bbe 56bc 80ad 9e3d
000001c0: e33e ac3c f3b1 eebd 8a37 36bd 36f1 003e
000001d0: 749e c0bd d0f6 4f3e 79db 243e 4eaa 303e
000001e0: 8648 713e 8d89 06be 4915 483d 5635 a6be
000001f0: 25ee 7bbe c421 bbbd 4dc4 f13c 08b1 dd3c
00000200: b31a 82bd 97dc 5e3e 07c4 9c3d 887e 4cbe
00000210: dd97 c2bd 3651 e4bd 59eb c6be b5d2 45bd
00000220: fb20 f53d 8279 97be 8060 8e3d d9fa 2ebd
00000230: dbe3 84bd 32db c8bd b748 cc3d a1b7 88be
00000240: 9a3a 103e 3c6c abbe 6b2d a5be 3dbc 2f3e
00000250: 4aff 393d 89e2 98be 038e ffbc cf8e c13d
00000260: 1eb0 54be 98f9 45be 2216 a23d 3420 75bc
00000270: 0246 89be f6aa 153d 0a1e 2abe 14c2 573e
00000280: 58d1 97bd a52c abbc 6985 ba3d 805b b3bc
00000290: ec4d 72bd 3316 f43d 39a6 5b3d 38f9 453d
000002a0: 85d6 13bd f83f b73d ea5b 18bf c62e 39bd
000002b0: 6929 8d3e c82c c4bd 2bcb 0cbd c643 7a3d
000002c0: 7739 60be a42a b8bd ca61 98be 0467 01bd
000002d0: 7e25 9cbe 6ae8 eabd 4c64 a4bc 3f6e 21bd
000002e0: 1503 9d3c eb61 943e e920 8dbe 1f31 42bc
000002f0: 0343 18bd 206c 85bc 87c3 52be fc89 8f3c
00000300: 67da 17be 535b eebd c3d7 83be 4002 5c3e
00000310: 1b8f c4bd 13b2 15be 8d88 a03d 083e bc3d
00000320: 5323 1dbe f3dc 0a3d 35e2 8cbd 0428 9e3d
00000330: 1cb3 ca3d f5b1 f6be ca9f a9be d03d e03d
00000340: f216 c3be 52b0 283e faaf 86bc 9b50 14bf
00000350: 9bdb e83d 87cb 78bd 0883 3e3e 28e3 01be
00000360: b178 753e 841f dbbe e14c a73d 988a a33c
00000370: 9e8c f73c 76eb e63d 59e1 073e 8327 f03e
00000380: 0877 1a3d 90f7 6ebd d461 08be 782a 2d3e
00000390: fcec 52be 8524 d53d 865f 8ebe 7a79 423e
000003a0: 2a5f fa3e 440a 6abe 3fc6 1a3e 8867 233e
000003b0: f13e 2fbe f6fb a3be 5323 283e 47f2 cdbe
000003c0: 9d54 6cbe 061c 0abc 2efd 43be 1bcf b9be
000003d0: 85e0 febc 8bb8 66bb b3bc 13be eef4 c8be
000003e0: fe71 3fbe ea8d 33bf a2d6 e9bc f778 513d
000003f0: 7177 4fbe 6b05 5bbe 3dc4 083d f2b0 cebe

_policy.6.bias f4 [128]
0.0155193005 -0.1367601 0.047366932 0.1745769 0.066291146 0.0520005 0.032004874 0.009979302
0.17863716 0.0025918754 0.1418305 0.15096387 -0.005029411 0.02458133 -0.019489864 0.099986374
0.0766348 0.11397262 -0.09822514 0.08960652 0.08099541 0.13772815 0.12758082 0.12776312
0.16503169 0.06830038 0.03969545 0.001665715 0.006980167 0.045235936 0.00029757258 -0.116418734
0.07645286 0.026435588 -0.06215936 0.049397975 -0.012290229 0.010187568 0.13092428 -0.027096376
-0.01927246 -0.044487666 0.12487852 0.050852068 -0.0075422633 -0.15546273 -0.12547888 0.09172876
0.1958728 -0.02270732 0.08752962 -0.06534865 0.013323666 -0.09263623 0.041441742 0.10930805
0.17576723 0.2442094 0.09245457 0.13613667 0.14729854 0.042321373 -0.18777311 0.15909804
-0.01844339 0.05822599 0.21078384 0.15032403 0.04220999 -0.055595238 -0.015537134 0.09235115
-0.1677324 0.016172387 0.053944558 0.03538906 0.12562591 -0.099887595 -0.049298704 0.028935617
0.05069004 0.036207125 -0.09451104 0.002899124 0.07256524 0.11089466 0.071799465 0.055082966
-0.020613879 0.029782912 0.042405922 0.27887866 0.15658963 0.0865949 -0.012820749 -0.054356515
-0.006423756 0.17438824 0.102064334 0.0841751 -0.07851934 0.15862897 0.04436497 0.10005484
-0.0673695 0.03208211 0.16961046 -0.042741004 -0.13022758 0.16997038 0.20495413 0.0046050604
-0.04785092 -0.034844052 0.043149076 0.11772652 -0.070820615 0.10296711 -0.023590494 0.13147224
-0.0034538591 0.17341253 0.1745457 0.08866576 0.1392979 -0.050457913 -0.02409839 0.0063107526
00000000: aa44 7e3c d70a 0cbe d403 423d 49c4 323e
00000010: a7c3 873d 7afe 543d 8b17 033d 3a80 233c
00000020: a9ec 363e 74dc 293b 043c 113e 4696 1a3e
00000030: c2cd a4bb c95e c93c 35a9 9fbc a8c5 cc3d
00000040: b5f2 9c3d 7a6a e93d 432a c9bd a083 b73d
00000050: ece0 a53d 9c08 0d3e 8ca4 023e 56d4 023e
00000060: 11fe 283e 12e1 8b3d b297 223d 1f54 da3a
00000070: e2b9 e43b 5149 393d 8403 9c39 f26c eebd
00000080: 5193 9c3d 728f d83c d09a 7ebd 8855 4a3d
00000090: f55c 49bc c2e9 263c 0411 063e 38f9 ddbc
000000a0: 47e1 9dbc b338 36bd 4fc0 ff3d 424a 503d
000000b0: 1725 f7bb 9f31 1fbe 897d 00be 4adc bb3d
000000c0: e192 483e b404 babc bb42 b33d 83d5 85bd
000000d0: 814b 5a3c 10b8 bdbd d1be 293d e6dc df3d
000000e0: 53fc 333e 0712 7a3e d258 bd3d 6967 0b3e
000000f0: 6ed5 163e 2d59 2d3d 9847 40be 99ea 223e
00000100: 9816 97bc 607e 6e3d b8d7 573e 8bee 193e
00000110: 62e4 2c3d d5b7 63bd 778f 7ebc 9a22 bd3d
00000120: 0bc2 2bbe f47b 843c f8f4 5c3d 1ef4 103d
00000130: 14a4 003e de91 ccbd 70ed 49bd 630a ed3c
00000140: 5ca0 4f3d ec4d 143d 018f c1bd 3bff 3d3b
00000150: 169d 943d bd1c e33d 990b 933d ad9e 613d
00000160: 70de a8bc 4bfb f33c d5b1 2d3d 2fc9 8e3e
00000170: 0859 203e ab58 b13d 1e0e 52bc f0a4 5ebd
00000180: 5f7e d2bb d592 323e 1b07 d13d ff63 ac3d
00000190: bfce a0bd a26f 223e 0bb8 353d 8de9 cc3d
000001a0: 05f9 89bd 8868 033d 5dae 2d3e 3111 2fbd
000001b0: 615a 05be b70c 2e3e 7fdf 513e 0ce6 963b
000001c0: 54ff 43bd a3b8 0ebd 16bd 303d 9a1a f13d
000001d0: 660a 91bd 6ce0 d23d da40 c1bc a9a0 063e
000001e0: 245a 62bb 0e93 313e 1cbc 323e 6596 b53d
000001f0: 1ca4 0e3e f5ac 4ebd fd69 c5bc 6eca ce3b

_policy.8.weight f4 [3, 128]
0.0057622218 0.093187824 -0.044476125 -0.5338183 -0.30226234 -0.17351806 -0.115241 0.0041242037
0.42112967 0.06705599 0.28533328 0.28541663 0.0070029725 0.13990119 -0.73221326 -0.16352853
0.34046996 0.16808696 -0.56890976 0.08978695 -0.12115189 -0.15566295 -0.01852938 0.5090441
-0.090638645 -0.2823918 0.010742851 -0.05629189 -0.38170663 0.28010893 -0.013666295 0.036721364
-0.15556425 -0.10636985 0.20475526 0.355573 -0.3366858 0.13403592 -0.015952846 -0.13321869
0.59928024 -0.066698186 0.022524705 0.20172071 0.5395876 -0.4517532 1.325697 0.3653506
-0.169381 0.0008407585 0.2713912 -0.17076643 -0.23477727 0.27928498 0.025403464 -0.2158457
-0.10731907 -0.57422733 -0.055142645 0.4953263 0.012865181 -0.064748585 -0.54984295 -0.18480061
0.15629166 0.26799217 0.47196913 -0.08791406 0.42013222 0.084008746 0.426245 -0.05572668
-0.27264473 0.40803885 0.26337418 -0.044304427 -0.23124963 0.3188447 -0.08700908 0.13735686
-0.0380722 -0.21566261 -0.49556518 -0.23938069 -0.12199243 0.44628343 -0.4955184 -0.07627814
-0.3305313 0.60960186 -0.20310959 -0.13582999 -0.3152291 -0.036077887 0.3761528 0.421018
0.2036954 -0.017037967 0.3407017 -0.31699333 0.17874654 -0.098235205 -0.15596728 -0.42786103
-0.013200412 0.19007464 -0.3635768 0.32945234 0.21213384 0.2627803 -0.155774 0.197953
-0.40638357 0.09770556 0.13670668 -0.1045539 -0.21990259 -0.213518 0.1929359 -0.031944137
0.37445033 -0.21166864 -0.084480904 0.3433159 0.52871644 0.17990345 -0.024519728 -0.13084367
0.17472346 0.32353666 -0.13392356 0.32710123 0.36676088 -0.036685307 0.20035116 0.40045866
-0.36213136 0.15806864 -0.03674746 -0.0017818908 -0.07860974 0.0718895 0.609386 -0.14144196
-0.40653676 -0.1055263 0.4455399 0.0922546 0.3701514 0.36664933 -0.11354375 -0.24770673
-0.40648437 0.072304994 -0.10425562 -0.18752149 0.18551923 -0.45698985 0.1522883 0.026921924
0.2880739 -0.09431842 -0.6634459 -0.06776443 -0.13466458 -0.23138635 0.52919394 -0.068796426
-0.11648023 0.12774602 0.58307374 -0.30065948 -0.3852498 0.3139685 -0.94063765 -0.32265562
-0.10971428 0.46240106 -0.17696863 0.25651413 0.2568176 -0.15269272 0.36890888 -0.25811383
0.47547215 0.41275245 0.26027557 -0.16702414 0.077996805 -0.10582036 0.36163938 0.4911082
-0.2844424 -0.07380169 -0.03230126 0.17351337 0.015126035 -0.43761507 0.14661847 0.38108972
0.015866548 -0.5541987 0.036217663 -0.14831832 0.23239142 -0.3054575 -0.29380554 -0.109507084
-0.29638192 -0.115357384 0.20519057 0.4791531 0.29635456 -0.11433255 0.13688181 -0.12468219
0.29220355 -0.34270093 0.15255007 -0.49179935 -0.026066003 -0.35275963 -0.5263625 -0.14701259
-0.3688921 0.4327832 -0.18601036 0.17336453 -0.60853887 -0.2353868 -0.056342952 -0.024785774
-0.079365775 -0.06534573 -0.03690212 -0.5206095 0.37133172 -0.4229854 0.22575179 -0.109768115
0.27016273 0.19560216 -0.13905013 0.22128269 0.11564522 -0.04080889 -0.7615727 -0.34781808
-0.19647934 0.25235608 0.39184794 -0.38630918 -0.3574796 -0.16686633 0.27177805 -0.31601056
00000000: 05d1 bc3b 42d9 be3d 992c 36bd 51a8 08bf
00000010: 21c2 9abe b8ae 31be 7903 ecbd 5424 873b
00000020: 4f9e d73e a754 893d 3417 923e 2122 923e
00000030: 3179 e53b 4242 0f3e 5472 3bbf 0674 27be
00000040: 1452 ae3e fd1e 2c3e 12a4 11bf 38e2 b73d
00000050: 7b1e f8bd 1c66 1fbe edca 97bc b750 023f
00000060: c1a0 b9bd a895 90be c802 303c 5392 66bd
00000070: 0d6f c3be 706a 8f3e 99e8 5fbc 2469 163d
00000080: 3c4c 1fbe 70d8 d9bd 5dab 513e aa0d b63e
00000090: 1562 acbe b640 093e 8baf 82bc 7b6a 08be
000000a0: 6e6a 193f 0f99 88bd bb85 b83c e08f 4e3e
000000b0: 6a22 0a3f 324c e7be 70b0 a93f 3c0f bb3e
000000c0: 3672 2dbe 5966 5c3a caf3 8a3e 65dd 2ebe
000000d0: 7469 70be 71fe 8e3e ed1a d03c a806 5dbe
000000e0: 1aca dbbd 9000 13bf 41dd 61bd 699b fd3e
000000f0: 7bc8 523c e89a 84bd 82c2 0cbf 5f3c 3dbe
00000100: ec0a 203e 4536 893e f0a5 f13e 490c b4bd
00000110: 921b d73e c70c ac3d c93c da3e a941 64bd
00000120: 1798 8bbe 78ea d03e fbd8 863e 8f78 35bd
00000130: b4cc 6cbe 9d3f a33e d131 b2bd 47a7 0c3e
00000140: 98f1 1bbd a9d6 5cbe b8ba fdbe 3620 75be
00000150: 2bd7 f9bd 437f e43e 96b4 fdbe b737 9cbd
00000160: 663b a9be de0e 1c3f f6fb 4fbe 0417 0bbe
00000170: b565 a1be 68c6 13bd 1a97 c03e ac8f d73e
00000180: 8795 503e 3593 8bbc 7470 ae3e f34c a2be
00000190: 5509 373e 8a2f c9bd e3b5 1fbe 9a10 dbbe
000001a0: 8a46 58bc eda2 423e bd26 babe faad a83e
000001b0: 9d39 593e 248b 863e 3883 1fbe 31b4 4a3e
000001c0: 8211 d0be da19 c83d d6fc 0b3e 5b20 d6bd
000001d0: 252e 61be 76a4 5abe fd90 453e dbd7 02bd
000001e0: f4b7 bf3e aabf 58be 5304 adbd 1ac7 af3e
000001f0: f659 073f 9c38 383e 99dd c8bc e2fb 05be
00000200: b5ea 323e 99a6 a53e 4223 09be d079 a73e
00000210: 15c8 bb3e 5543 16bd db28 4d3e eb08 cd3e
00000220: 4869 b9be bfdc 213e 8184 16bd 558e e9ba
00000230: 25fe a0bd cd3a 933d b900 1c3f 29d6 10be
00000240: 9625 d0be 2c1e d8bd ce1d e43e fbef bc3d
00000250: 7c84 bd3e 76b9 bb3e a089 e8bd d5a6 7dbe
00000260: b81e d0be a414 943d f883 d5bd a205 40be
00000270: c1f8 3d3e 93fa e9be 77f1 1b3e 5e8b dc3c
00000280: 6c7e 933e 042a c1bd 97d7 29bf 14c8 8abd
00000290: 83e5 09be 8bf0 6cbe 4179 073f 24e5 8cbd
000002a0: 308d eebd dacf 023e 5244 153f 0af0 99be
000002b0: 763f c5be 7bc0 a03e a1cd 70bf 1e33 a5be
000002c0: e1b1 e0bd d5bf ec3e 4437 35be d255 833e
000002d0: 997d 833e 7b5b 1cbe a0e1 bc3e 7f27 84be
000002e0: 1671 f33e 4a54 d33e d742 853e 6008 2bbe
000002f0: cabc 9f3d 58b8 d8bd cc28 b93e 8972 fb3e
00000300: 6fa2 91be 5725 97bd 534e 04bd 7dad 313e
00000310: 30d3 773c 150f e0be 2723 163e 311e c33e
00000320: 90fa 813c f7df 0dbf f958 143d c2e0 17be
00000330: 04f8 6d3e ed64 9cbe ae6d 96be 4045 e0bd
00000340: 5fbf 97be 7e40 ecbd 7a1d 523e 8e53 f53e
00000350: c9bb 973e 2f27 eabd bf2a 0c3e 6059 ffbd
00000360: b49b 953e 7f76 afbe 1636 1c3e 20cd fbbe
00000370: 5f88 d5bc e99c b4be b1bf 06bf 788a 16be
00000380: 6ddf bcbe c295 dd3e 8079 3ebe 7986 313e
00000390: 34c9 1bbf 3d09 71be dec7 66bd 890b cbbc
000003a0: 868a a2bd fbd3 85bd ad26 17bd aa46 05bf
000003b0: 311f be3e 8b91 d8be 7a2b 673e 1bce e0bd
000003c0: c552 8a3e ef4b 483e 2863 0ebe ee97 623e
000003d0: 67d7 ec3d 3927 27bd 6ef6 42bf 3615 b2be
000003e0: e131 49be d134 813e 4ba0 c83e 51ca c5be
000003f0: 9107 b7be 02df 2abe 7e26 8b3e 23cc a1be

_policy.8.bias f4 [3]
0.028971393 -0.046994653 0.0028754706
00000000: 6a55 ed3c 777d 40bd 6472 3c3b

_value.0.weight f4 [128, 22]
0.063127585 0.16749026 -0.14837119 0.03782892 0.028893515 -0.16886337 0.077366136 -0.049362943
0.16458015 -0.18221886 -0.03410483 0.16071682 0.070729546 -0.05379509 -0.047504652 0.042441096
-0.02773267 0.16904975 0.00015605599 0.10273563 0.07828688 -0.07864383 -0.15971042 -0.13774975
-0.066294074 -0.05210328 0.03754238 -0.15575847 -0.07974352 0.12839209 -0.01480967 -0.07806347
-0.1479312 -0.058035854 -0.15474084 0.17200194 0.111432984 0.16560942 -0.1461795 -0.17448229
0.014209988 -0.22802146 -0.115704015 0.046467975 -0.026476394 -0.03125818 -0.062417734 -0.1478982
0.1617762 0.16154431 -0.10627301 0.17468606 0.13274105 0.07047725 0.17945799 0.14997205
-0.16118108 -0.20636848 -0.14223751 -0.21067943 -0.13546665 -0.013799256 -0.05779897 -0.09555011
-0.15042272 0.08223919 -0.11516151 0.04440346 0.0034641288 -0.20909882 -0.15227285 0.052689638
0.07138155 0.035370447 0.01621159 -0.11414662 0.11341433 0.040031787 0.2767061 0.005552226
0.14725566 -0.0263745 0.007914277 -0.040688314 -0.108171344 0.07413169 -0.020859417 0.27178013
-0.13497725 0.24552526 -0.23331234 0.08061987 0.021806328 0.094862275 0.025919832 0.08356348
-0.07330206 -0.08645592 -0.18420029 -0.09496857 0.056143984 0.06605834 -0.083939694 -0.07957663
-0.05676096 0.06604551 -0.050855655 0.01734286 0.034075983 -0.025316823 -0.19428807 0.23128651
0.13068458 -0.11003657 0.1261856 -0.13578159 0.15413679 0.036002535 0.078104995 0.02178325
-0.12976214 0.08394554 0.14481297 0.114434734 0.17831875 0.10178846 0.0012662563 -0.16006933
0.0032919866 -0.13496563 -0.088232644 -0.17896974 0.08576436 0.17508075 -0.10854278 0.1708307
-0.045628335 -0.17235716 0.023673082 -0.032349948 0.06625693 -0.053448517 -0.19779329 -0.054910015
-0.14538926 0.17861477 -0.18402617 0.11730409 0.061377894 -0.10145535 0.10136043 -0.18253787
-0.16469304 0.020401282 -0.08480787 -0.13696714 0.005214548 -0.16254564 0.09903918 0.14422807
0.10718076 0.016778909 -0.10392065 0.16736627 -0.019818852 -0.14562245 0.0540621 -0.19505152
0.077127226 -0.123106405 0.014135313 -0.025128953 -0.22093548 0.040383022 0.15263462 0.1199392
0.108435385 -0.18274362 -0.069739036 -0.11188159 -0.08508286 0.02540832 0.11735826 0.16468671
-0.034314334 0.18584995 -0.04922207 -0.13939865 0.12833832 -0.13177022 -0.20729358 -0.1729355
0.16238682 0.0070054727 0.012895945 -0.09943664 -0.21828741 0.16203076 -0.05486922 0.10915507
0.07793822 -0.03286108 0.04542368 -0.08113394 0.047670938 -0.16511016 -0.008079602 0.09039525
-0.07627975 0.20012735 -0.14806592 -0.18266277 0.12305954 -0.07982193 -0.055752944 -0.1980969
-0.20440644 0.0005800605 0.021697411 0.06402924 0.14609985 -0.1561487 -0.040295113 0.13879666
0.13158567 -0.08067208 -0.04858578 0.06758048 0.13851736 0.0754661 0.03937345 -0.010651593
0.070530675 0.015576666 0.01777976 0.083781905 -0.14428025 -0.027385097 0.16973943 -0.08559705
-0.017367726 -0.18935505 -0.05138075 -0.042141423 -0.015111414 -0.08325432 -0.15505642 -0.12926628
-0.060098697 -0.028164934 0.037280798 0.0073949634 0.13638014 0.12905994 0.13208832 0.15016772
00000000: 0949 813d 9182 2b3e 9eee 17be 7ff2 1a3d
00000010: 18b2 ec3c 85ea 2cbe 2372 9e3d cc30 4abd
00000020: b387 283e 9597 3abe 82b1 0bbd f392 243e
00000030: a7da 903d 3e58 5cbd 3d94 42bd b7d6 2d3d
00000040: a02f e3bc 611b 2d3e f6a2 2339 0f67 d23d
00000050: df54 a03d 0410 a1bd 218b 23be 450e 0dbe
00000060: 30c5 87bd 406a 55bd 0ac6 193d 267f 1fbe
00000070: 9250 a3bd 3779 033e 42a4 72bc bedf 9fbd
00000080: 477b 17be 01b7 6dbd 6274 1ebe 4721 303e
00000090: fa36 e43d 8495 293e 14b0 15be 7cab 32be
000000a0: 02d1 683c 757e 69be 3af6 ecbd 3455 3e3d
000000b0: 06e5 d8bc 9408 00bd bda9 7fbd a072 17be
000000c0: a9a8 253e df6b 253e aaa5 d9bd e7e0 323e
000000d0: 45ed 073e 6056 903d d6c3 373e 4692 193e
000000e0: a70c 25be 4252 53be b6a6 11be 59bc 57be
000000f0: c5b7 0abe 4616 62bc 9dbe 6cbd c7af c3bd
00000100: 6a08 1abe 056d a83d ccd9 ebbd 67e0 353d
00000110: 7006 633b 001e 56be 6aed 1bbe 17d1 573d
00000120: 7d30 923d 9ae0 103d 2bce 843c b4c5 e9bd
00000130: c645 e83d 5ff8 233d 6cac 8d3e 73ef b53b
00000140: 30ca 163e 560f d8bc e2aa 013c caa8 26bd
00000150: f088 ddbd 5bd2 973d 5ee1 aabc c426 8b3e
00000160: 7a37 0abe f96a 7b3e 6ee9 6ebe 081c a53d
00000170: 2fa3 b23c 2747 c23d d455 d43c 5423 ab3d
00000180: 641f 96bd cd0f b1bd 009f 3cbe e27e c2bd
00000190: 3cf7 653d 9849 873d 93e8 abbd 12f9 a2bd
000001a0: 2e7e 68bd de42 873d 054e 50bd 9d12 8e3c
000001b0: 4293 0b3d 3a65 cfbc 74f3 46be 5fd6 6c3e
000001c0: 2ed2 053e da5a e1bd cc36 013e 540a 0bbe
000001d0: 09d6 1d3e 6577 133d 83f5 9f3d c972 b23c
000001e0: 5ee0 04be a4eb ab3d da49 143e c25c ea3d
000001f0: 3199 363e 7876 d03d 83f8 a53a 37e9 23be
00000200: 5fbe 573b 6e34 0abe 51b3 b4bd d843 37be
00000210: 3aa5 af3d 5e48 333e ad4b debd 3eee 2e3e
00000220: c7e4 3abd 657e 30be 0dee c13c 6181 04bd
00000230: b7b1 873d d5ec 5abd 538a 4abe 53e9 60bd
00000240: ece0 14be cae6 363e 5b71 3cbe 203d f03d
00000250: 6367 7b3d d3c7 cfbd 0f96 cf3d 35eb 3abe
00000260: 4ba5 28be 9720 a73c c0af adbd 1d41 0cbe
00000270: cdde aa3b 5d72 26be 0ed5 ca3d 86b0 133e
00000280: 9681 db3d ec73 893c 5ad4 d4bd 1062 2b3e
00000290: 255b a2bc 0d1e 15be 3870 5d3d 96bb 47be
000002a0: e1f4 9d3d 361f fcbd cd97 673c 3cdb cdbc
000002b0: e93c 62be ab68 253d 404c 1c3e afa2 f53d
000002c0: 5f13 de3d 2521 3bbe 57d3 8ebd 2d22 e5bd
000002d0: ec3f aebd 1c25 d03c 8759 f03d a2a3 283e
000002e0: 308d 0cbd 734f 3e3e 159d 49bd 85be 0ebe
000002f0: 1f6b 033e c6ee 06be c544 54be 0116 31be
00000300: bb48 263e 2a8e e53b 8449 533c 70a5 cbbd
00000310: bc86 5fbe 64eb 253e 8cbe 60bd b18c df3d
00000320: 139e 9f3d 5799 06bd 2e0e 3a3d 8d29 a6bd
00000330: 9a42 433d a312 29be 4f60 04bc 2521 b93d
00000340: 8f38 9cbd 2fee 4c3e 989e 17be f30b 3bbe
00000350: a406 fc3d ae79 a3bd 335d 64bd ead9 4abe
00000360: ec4f 51be 340f 183a c5be b13c c321 833d
00000370: 339b 153e 72e5 1fbe 7d0c 25bd b620 0e3e
00000380: 65be 063e 6737 a5bd e201 47bd a267 8a3d
00000390: 7fd7 0d3e f88d 9a3d 0e46 213d 0584 2ebc
000003a0: 6372 903d 4635 7f3c dca6 913c d995 ab3d
000003b0: 34be 13be b656 e0bc 2cd0 2d3e 824d afbd
000003c0: c346 8ebc 4ae6 41be 9f74 52bd 7c9c 2cbd
000003d0: dd95 77bc 3e81 aabd 1cc7 1ebe 615e 04be
000003e0: 0d2a 76bd 26ba e6bc c0b3 183d 7351 f23b
000003f0: 3ca7 0b3e 4a28 043e 2942 073e 91c5 193e
