logs/weight_colliion_obj_obs = 0.4/model/model_440.pth (torch, 427625 bytes, 19 tensors)

_policy.0.weight f4 [128, 22]
0	0xbeae5975	-0.34052625
1	0x3b2d9a65	0.0026489731
2	0x3dd312a6	0.10306291
3	0x3edb5f3e	0.42846102
4	0xbed97d9d	-0.42478648
5	0xbeaad6b7	-0.3336694
6	0x3dd66b40	0.10469675
7	0xbd610e20	-0.05494511
8	0x3f052880	0.52014923
9	0x3ea8c385	0.3296167
10	0xbd0513cf	-0.032489594
11	0x3e32d875	0.17465384
12	0x3e272f22	0.16326573
13	0x3e9ed631	0.3102279
14	0xbcd00dd3	-0.025397217
15	0xbdb3eb42	-0.08785106
16	0xbdbbb4d3	-0.09165349
17	0x3db8990c	0.090135664
18	0x3d7426f2	0.059607454
19	0x3df2cc5e	0.11855386
20	0xbdbcfe72	-0.09228219
21	0xbe9fd785	-0.31219116
22	0xbe86788b	-0.26263842
23	0xbea0b09b	-0.3138474
24	0x3e7c1fc5	0.24621494
25	0x3f590fc8	0.84789705
26	0x3cc1228c	0.023576044
27	0xbe76f1d7	-0.24115692
28	0x3e15749e	0.14595267
29	0xbd51d5b6	-0.0512292
30	0xbf381a50	-0.7191515
31	0xbd2c2eee	-0.042036943
32	0x3e834a11	0.25642446
33	0x3e35ff17	0.1777309
34	0x3e82610a	0.2546466
35	0x3df5a7c9	0.11994893
36	0x3e1b6cb1	0.15178181
37	0xbdebf36c	-0.115210384
38	0x3c9d5a02	0.019207958
39	0xbe82d627	-0.2555401
40	0xbe7a95ac	-0.24471158
41	0x3c95a2bd	0.018266076
42	0x3d5cad66	0.053876303
43	0xbc55f742	-0.013059439
44	0xbf026f3f	-0.50951
45	0xbcf49cb2	-0.029859874
46	0x3e8e39e5	0.27778545
47	0xbcec1dd8	-0.028822824
48	0xbe365931	-0.17807461
49	0xbd2a996c	-0.04165022
50	0x3b3a8c59	0.0028465001
51	0x3d81dd5c	0.06341049
52	0x3fa07b0b	1.253755
53	0xbea1400c	-0.31494176
54	0x3e8da59e	0.27665418
55	0x3d94bf2d	0.072630264
56	0x3e8f96d6	0.28044766
57	0x3e8525c5	0.26005378
58	0x3d9d5b31	0.07683409
59	0x3e1faf98	0.15594327
60	0xbe20402d	-0.15649481
61	0x3dd4f94b	0.10399111
62	0xbce00125	-0.027344296
63	0xbd6ce6cf	-0.057837304
64	0xbddf40a4	-0.10901001
65	0xbdc9646e	-0.098336086
66	0xbd59308b	-0.05302481
67	0xbf191d4f	-0.59810346
68	0xbdd703ac	-0.10498747
69	0x3f04e576	0.5191263
70	0xbd5b6e2a	-0.053571858
71	0xbea85911	-0.32880452
72	0x3e52be16	0.20580325
73	0x3e29894a	0.16556278
74	0x3d6ba0ea	0.057526506
75	0x3ef42f4d	0.47692338
76	0x3cbd1d7f	0.023085354
77	0x3e1fc201	0.1560135
78	0xbe067d0e	-0.13133642
79	0x3ee3dfb8	0.4450662
80	0xbe342af8	-0.17594516
81	0xbdd2e123	-0.10296848
82	0xbe47e1db	-0.19519751
83	0xbc7d354d	-0.015454602
84	0xbe832d7a	-0.25620633
85	0x3e8d3008	0.27575707
86	0x3e0750cc	0.13214415
87	0x3e0a417d	0.13501544
88	0x3f8561ab	1.0420431
89	0xbed5fcdd	-0.41794482
90	0xbdfc2efe	-0.123136505
91	0x3dab75b8	0.083720624
92	0x3f313287	0.69217724
93	0xbf00754e	-0.5017899
94	0xbeaeca4e	-0.3413872
95	0xbf0b9be3	-0.5453474
96	0xbf0f50c7	-0.5598263
97	0x3eb2eb5c	0.3494519
98	0x3df2c47b	0.11853882
99	0xbdd63519	-0.10459346
100	0xbe437f0f	-0.19091438
101	0x3d7a6479	0.061130974
102	0x3c9dfa52	0.019284401
103	0x3e21e979	0.15811719
104	0x3e05a796	0.1305221
105	0x3d62caa1	0.055369023
106	0x3db5433b	0.08850714
107	0xbe124664	-0.14284664
108	0xbdbae04d	-0.09124813
109	0xbd2520cb	-0.040314477
110	0xbf343ebc	-0.70408225
111	0x3f654254	0.89554334
112	0x3e78fb1f	0.24314545
113	0xbf0ca0cd	-0.5493286
114	0xbe98f602	-0.2987519
115	0x3eeb0e2d	0.45909253
116	0x3e20ada6	0.15691242
117	0x3e1c57c8	0.15267861
118	0xbce1eee1	-0.027579727
119	0xbf4767b8	-0.7789264
120	0xbec5ccb2	-0.38632733
121	0xbe2f594b	-0.17123906
122	0xbeb0363b	-0.34416375
123	0x3d1d97bf	0.038474794
124	0xbcdf656b	-0.02727004
125	0xbcf4ed64	-0.029898353
126	0x3e434949	0.19070925
127	0x3d70778a	0.05870775
128	0x3bfe67b1	0.007763826
129	0xbdc0976f	-0.09403884
130	0xbc35429f	-0.011063247
131	0x3df6c439	0.12049145
132	0xbde534c0	-0.11191702
133	0x3cd63609	0.026148813
134	0xbd2433dc	-0.04008852
135	0x3eb37da6	0.350568
136	0x3ef7c80d	0.48394814
137	0xbe0c35e1	-0.13692428
138	0xbf324359	-0.69634014
139	0x3e1c5150	0.15265393
140	0x3f1096c7	0.5648007
141	0xbf259141	-0.64674765
142	0xbdc6a691	-0.09699739
143	0xbe5108c1	-0.20413496
144	0xbf2d186f	-0.6761541
145	0x3dcef561	0.10105396
146	0xbd5c0afd	-0.053721417
147	0x3ba8f4a0	0.0051561147
148	0xbdad1260	-0.084507704
149	0xbdcf8841	-0.1013341
150	0x3ea85a8a	0.32881576
151	0xbe291aa7	-0.16514073
152	0x3e7d264e	0.24721643
153	0xbdb94029	-0.09045441
154	0xbe9f5a25	-0.31123462
155	0xbe45ca5f	-0.1931548
156	0xbdd88992	-0.105731145
157	0x3f61a435	0.88141185
158	0x3e9f2528	0.31083035
159	0x3e419410	0.18904138
160	0xbe12d500	-0.14339066
161	0xbea85bc3	-0.3288251
162	0xbf562794	-0.8365414
163	0x3f34c943	0.706196
164	0xbc35e173	-0.011101115
165	0xbe4151e9	-0.18878902
166	0xbd8dbd83	-0.06920912
167	0x3cdf50dc	0.027260236
168	0xbe24b83d	-0.16085906
169	0x3d93e9ac	0.07222304
170	0xbd915923	-0.070970796
171	0xbe2af598	-0.16695249
172	0x3da1a361	0.0789249
173	0x3c91b428	0.0177861
174	0xbd01c5d0	-0.03168279
175	0x3e3d183b	0.18466274
176	0x3e079014	0.13238555
177	0xbe525596	-0.20540461
178	0xbdd7db16	-0.10539834
179	0x3e55aa95	0.20865853
180	0x3f139233	0.5764496
181	0x3de60e41	0.112331875
182	0xbe7474ce	-0.23872682
183	0x3cfb28ca	0.030659098
184	0x3fbcc1a7	1.4746598
185	0x3f4264c1	0.7593499
186	0xba62feae	-0.0008659166
187	0x3bdb176c	0.0066861417
188	0x3d960d70	0.07326782
189	0x3e11604d	0.14196892
190	0x3e469905	0.1939431
191	0xbe352f0a	-0.17693725
192	0x3e4522c6	0.19251546
193	0xbe0d3e78	-0.13793361
194	0xbdbde151	-0.09271491
195	0x3d0d2eec	0.034468576
196	0xbdc8c884	-0.0980387
197	0x3d2f7eea	0.042845644
198	0x3e8d1883	0.27557763
199	0x3f1d6b97	0.61492294
200	0xbee94568	-0.45560765
201	0xbf509d5f	-0.8149013
202	0xbe84ac4d	-0.25912705
203	0x3f04e46f	0.5191106
204	0xbe95aa79	-0.29231623
205	0xbf043a23	-0.5165121
206	0xbf24f96c	-0.6444309
207	0x3e28ff63	0.16503672
208	0xbddb43a5	-0.107062615
209	0x3e9ca78f	0.30596587
210	0x3e9edb7c	0.31026828
211	0xbdc71610	-0.09721005
212	0x3ac31ec2	0.0014886486
213	0x3db6b399	0.08920974
214	0x3dc3d73d	0.09562538
215	0xbe51ad25	-0.20476206
216	0xbb4fb068	-0.003169084
217	0x3dc01581	0.093791015
218	0xbe09540f	-0.13410972
219	0xbe693eff	-0.22777937
220	0xbed052f6	-0.40688294
221	0xbe5745ce	-0.21022722
222	0x3e2d0428	0.16896117
223	0xbd367890	-0.04454857
224	0xbf03a7ab	-0.51427716
225	0xbe49c8ba	-0.19705477
226	0x3adfa119	0.0017061561
227	0x3e7094bc	0.23494238
228	0x3fa03eca	1.2519162
229	0x3e9cfa7a	0.30659848
230	0x3db53e6b	0.08849796
231	0xbe4d65dc	-0.20058388
232	0x3c67d8a6	0.014150774
233	0x3de3adca	0.11117132
234	0x3be939fc	0.007117508
235	0x3dc68663	0.09693601
236	0x3e366b61	0.178144
237	0xbc81d9ae	-0.015850868
238	0xbe05401c	-0.13012737
239	0x3bdd3b11	0.006751426
240	0xbdfe5545	-0.124186076
241	0x3c16f599	0.0092138285
242	0xbd117779	-0.03551433
243	0x3e29a99d	0.16568609
244	0xbf453ce2	-0.77046025
245	0xbbbde43f	-0.0057950313
246	0xbe52233f	-0.20521258
247	0x3d46eb15	0.048564035
248	0xbd7c0abc	-0.061533675
249	0xbe6d8ce9	-0.23198284
250	0xbea71cb6	-0.32639092
251	0xbe14e161	-0.145391
252	0xbe04ad6f	-0.12956785
253	0x3cfedde8	0.031111673
254	0xbec9895f	-0.39362618
255	0xbeba5fd2	-0.3640123

_policy.0.bias f4 [128]
0	0xbc8e6430	-0.017381757
1	0x3b0ccb22	0.0021483381
2	0xbe2558dc	-0.16147178
3	0xbe358ba0	-0.17729044
4	0xbc312058	-0.010810934
5	0xbdae83b9	-0.08521218
6	0x3d657f51	0.05602962
7	0x3d12a3bb	0.035800677
8	0xbd58fab0	-0.05297345
9	0x3e39b9ba	0.18137255
10	0x3e154625	0.1457754
11	0x3e0a081d	0.13479657
12	0xbe367a83	-0.17820172
13	0xbe6e57db	-0.23275702
14	0x3c1f6180	0.009727836
15	0xbe0d68b3	-0.13809471
16	0xbccf1424	-0.025278158
17	0x3d2d901f	0.042373773
18	0xbe6c239c	-0.23060459
19	0x3d60a1c0	0.054841757
20	0x3de27dea	0.110591725
21	0xbd6ef918	-0.058343023
22	0xbe2cb608	-0.16866314
23	0x3e52389f	0.20529412
24	0xbd70caa7	-0.058787014
25	0xbc55cd7e	-0.013049481
26	0xbcf019a9	-0.02930911
27	0xbd5f3363	-0.054492366
28	0x3da49da8	0.08037883
29	0xbe607c95	-0.21922524
30	0xbe617d1a	-0.22020379
31	0xbe12e502	-0.14345172
32	0x3e07e20f	0.13269828
33	0xbd97ea10	-0.07417691
34	0x3daa262e	0.083080634
35	0x3d949fb1	0.07257021
36	0x3e5451b0	0.20734286
37	0xbe70b431	-0.23506238
38	0xbdfa97b2	-0.12235965
39	0x3ab7a0a1	0.0014009663
40	0xbc1351dc	-0.008991685
41	0x3d9fc48b	0.078011595
42	0xbe2ca4ba	-0.16859713
43	0xbdfa4a10	-0.122211576
44	0x3d60c996	0.054879747
45	0xbe14e6a8	-0.14541113
46	0x3e0034a6	0.12520084
47	0x3e0ce645	0.13759716
48	0xbd5efa08	-0.054437667
49	0xbe4ff12a	-0.2030684
50	0xbeb4404e	-0.3520531
51	0xbdf43a9f	-0.119252436
52	0xbe8a0fb6	-0.26965111
53	0x3e11c4cb	0.14235227
54	0xbe5bd80b	-0.21469133
55	0xbdd9d940	-0.1063714
56	0xbd831c1b	-0.06401845
57	0x3e064f92	0.13116291
58	0x3e68349c	0.22676319
59	0xbd9be6a9	-0.07612354
60	0xbd25b34e	-0.0404542
61	0xbd4c681a	-0.049903966
62	0xbe3092c8	-0.17243493
63	0xbe202ac7	-0.15641318
64	0xbd81bf59	-0.06335325
65	0xbd96113f	-0.07327508
66	0x3da3d478	0.079995096
67	0xbdbe58ed	-0.09294305
68	0xbdcf359e	-0.101176485
69	0xbe391934	-0.1807602
70	0xbe4dc78a	-0.2009565
71	0xbb008029	-0.001960764
72	0xbe4d3c25	-0.20042475
73	0x3e5bb634	0.21456224
74	0xbd97a133	-0.07403793
75	0x3db15c5c	0.08660194
76	0xbd22cd2e	-0.039746456
77	0xbdf1df83	-0.118102096
78	0xbdf38b79	-0.11891837
79	0xbe086121	-0.13318302
80	0x3dad9c9d	0.08477137
81	0x3c83bdce	0.016081717
82	0x3d75772b	0.0599281
83	0xbe2b6288	-0.16736805
84	0xbe038f7c	-0.12847704
85	0x3d2d2741	0.042273764
86	0xbe005d80	-0.12535667
87	0xbcfcb84f	-0.030849604
88	0xbd19c697	-0.037542906
89	0xbe53204b	-0.20617788
90	0x3db22b96	0.086997196
91	0xbe6c51a0	-0.23078012
92	0x3dce5b29	0.10075981
93	0xbe4cd435	-0.20002826
94	0xbe315205	-0.17316444
95	0x3d0c8fb7	0.034316745
96	0xbe7d1c5b	-0.24717848
97	0xbdab63bf	-0.083686344
98	0xbdd53bdd	-0.10411809
99	0xbe0ebfc8	-0.13940346
100	0xbe4f8f0c	-0.20269412
101	0xbe2f77ac	-0.17135495
102	0xbe0fb762	-0.14034799
103	0xbd490462	-0.049076445
104	0xbaf8b7ef	-0.0018975715
105	0x3bfefd8c	0.00778169
106	0xbe4b52f9	-0.1985587
107	0xbe5d7ec2	-0.21630386
108	0x3c9b3e1a	0.01895051
109	0x3e0056ba	0.12533084
110	0x3e0d9834	0.13827592
111	0xbddcb9a1	-0.107775934
112	0xbe35e459	-0.17762889
113	0xbde04f16	-0.109525844
114	0xbe8b9bce	-0.27267307
115	0x3e1557c2	0.14584258
116	0x3d78b7f3	0.060722303
117	0x3d376408	0.04477313
118	0xbd4a3b73	-0.0493731
119	0x3e459ece	0.1929886
120	0x3da6f690	0.08152497
121	0xbd136717	-0.035986986
122	0x3daa8a31	0.08327139
123	0xbdf09f91	-0.11749185
124	0x3c4d3b70	0.012526378
125	0xbe37a66b	-0.17934577
126	0xbe3c26a1	-0.18374111
127	0xbe7ec58b	-0.24880044

_policy.2.weight f4 [128, 128]
0	0xbad2ebb7	-0.0016091977
1	0xbc83807b	-0.016052475
2	0xbd2bb009	-0.041915927
3	0x3c2d7e1e	0.010589151
4	0x3e9b3f05	0.30321518
5	0xbf1c167b	-0.609718
6	0x3e3a5e59	0.18200053
7	0xbd7504c4	-0.059818998
8	0x3dd52338	0.10407108
9	0xbf13dd3e	-0.57759464
10	0x3dc82f6d	0.09774671
11	0xbe8f8703	-0.28032693
12	0x3d918729	0.07105858
13	0xbdafba31	-0.08580435
14	0xbef1f35d	-0.47255984
15	0x3d5243b6	0.051334105
16	0xbdf5abb7	-0.11995643
17	0xbd976f9f	-0.07394337
18	0xbe12e55f	-0.1434531
19	0x3e18d05d	0.14923234
20	0x3d1d36f2	0.038382478
21	0x3d7eec34	0.06223698
22	0x3da4eca4	0.08052948
23	0xbeb92400	-0.36160278
24	0xbe8958da	-0.268256
25	0x3d86804f	0.06567442
26	0xbe976305	-0.29567733
27	0x3d7d3470	0.061817586
28	0x3dd41be6	0.10356884
29	0x3d959da5	0.07305459
30	0xbab647b7	-0.0013906871
31	0xbedf2b5e	-0.43587774
32	0x3d87cafb	0.06630512
33	0xbd8ade09	-0.06780631
34	0x3e817bde	0.25289816
35	0xbe22792e	-0.15866539
36	0x3d8d34a3	0.06894805
37	0xbea1ef0d	-0.31627694
38	0x3e15af76	0.14617714
39	0x3e6be914	0.23038131
40	0xbec01264	-0.3751403
41	0xbe192460	-0.14955282
42	0x3e19fc90	0.15037751
43	0xbd860c06	-0.06545262
44	0xbd1ff0f6	-0.039048158
45	0xbd897a80	-0.06712818
46	0x3d6ccc73	0.057812165
47	0xbdd520d6	-0.104066536
48	0xbe455346	-0.19270048
49	0xbeb58373	-0.3545185
50	0xbd9708a3	-0.07374694
51	0xbccd0fb4	-0.025031902
52	0x3e6230e2	0.2208896
53	0x3ebc4b2b	0.367761
54	0xbd3c5494	-0.045979097
55	0xbe292ef8	-0.16521823
56	0x3e90b966	0.28266448
57	0x3d433b01	0.047663692
58	0xbd5e5017	-0.0542756
59	0x3d624bc7	0.05524805
60	0x3e010ef2	0.12603357
61	0x3d653cc5	0.055966157
62	0xbbca3ed6	-0.0061720414
63	0x3ecee38e	0.40407985
64	0x3cab2f80	0.020896673
65	0x3e1bacda	0.15202656
66	0x3d98db24	0.07463673
67	0xbd1c9b9f	-0.03823435
68	0x3d468c82	0.048473842
69	0xbd4ad0cf	-0.04951554
70	0x3d3fc4eb	0.046818655
71	0xbe00b747	-0.12569915
72	0xbe154901	-0.1457863
73	0xbdb78651	-0.08961166
74	0xbe3fd005	-0.18731697
75	0xbe11b50b	-0.14229219
76	0xbe2b774a	-0.16744724
77	0xbcb19be2	-0.021680776
78	0xbe1753ef	-0.14778112
79	0x3e325180	0.17413902
80	0x3d8b17e3	0.067916654
81	0xbcb80305	-0.022462377
82	0x3dd5c082	0.104371086
83	0xbe992a70	-0.2991519
84	0xbed68c99	-0.41904142
85	0xbd344ae4	-0.044016734
86	0xbd0b49ae	-0.034005813
87	0x3dc7cadd	0.0975549
88	0xbd83b5a7	-0.06431132
89	0x3c302c83	0.0107528
90	0xbb524f82	-0.0032090847
91	0x3e3c3cdf	0.18382595
92	0x3dfb74be	0.12278126
93	0xbe77cfb3	-0.24200325
94	0x3cb16bf1	0.021657916
95	0xbc44e88c	-0.012018334
96	0xbd1fe230	-0.03903407
97	0x3e614833	0.22000198
98	0xbe21c849	-0.15799059
99	0x3d33d4bc	0.04390405
100	0xbe270037	-0.16308676
101	0x3d83b566	0.064310834
102	0x3d94394b	0.0723749
103	0x3dd9a088	0.10626322
104	0xbdd7e730	-0.105421424
105	0xbdd9f72a	-0.10642846
106	0x3ddd95e4	0.10819605
107	0x3c196676	0.0093628075
108	0xbe74d3cb	-0.23908918
109	0xbe71a011	-0.23596217
110	0xbe907a92	-0.28218514
111	0xbdafbccd	-0.08580933
112	0xbd441819	-0.047874544
113	0x3d080f51	0.033217732
114	0x3bb17973	0.005416089
115	0x3da9d815	0.082931675
116	0xbdfa617e	-0.122256264
117	0x3cec09c2	0.028813247
118	0xbe64c6b5	-0.22341426
119	0x3d0b1297	0.033953276
120	0xbc2508a8	-0.010072865
121	0x3d95e8af	0.073197715
122	0x3d869d77	0.06573003
123	0xbeff2519	-0.4983299
124	0xbe09c800	-0.134552
125	0xbe43fa18	-0.19138372
126	0x3da332fd	0.079687096
127	0x3e812742	0.25225264
128	0xbd7b84ae	-0.06140583
129	0xbd74fa50	-0.05980903
130	0xbd640084	-0.055664554
131	0xbce8b61f	-0.028407155
132	0x3c703ee0	0.014663428
133	0xbd4697a1	-0.04848445
134	0x3caf5ec0	0.021407485
135	0x3d2ead3e	0.042645685
136	0x3c06605c	0.008201685
137	0xbc19b1a2	-0.00938073
138	0xbd83d7b6	-0.06437628
139	0xbdf1988d	-0.11796675
140	0xbbdd58aa	-0.0067549543
141	0xbd66d0b3	-0.056351375
142	0xbdde959c	-0.108683795
143	0xbd4f88e4	-0.05066766
144	0xbdb383aa	-0.08765347
145	0xbdf261ff	-0.118350975
146	0xbda757e1	-0.081710584
147	0x3d2fabc9	0.042888436
148	0xbe006d66	-0.12541732
149	0x3bc59b8c	0.0060305055
150	0xbdadfda5	-0.084956445
151	0x3d260a7f	0.040537354
152	0xbd062771	-0.032752458
153	0xbd1b4e1f	-0.0379163
154	0xbcdde21e	-0.02708536
155	0xbd9ec613	-0.077526234
156	0xbdc8301b	-0.097748004
157	0xbd2f3348	-0.042773515
158	0xbbf15c11	-0.0073657115
159	0xbd8ba6d6	-0.06818931
160	0xbd9774a6	-0.07395296
161	0xbd6fdda6	-0.05856099
162	0xbd357746	-0.0443032
163	0xbd5dea38	-0.054178447
164	0x3b97fd40	0.004638344
165	0xbc9b6250	-0.018967777
166	0xbd914b69	-0.070944615
167	0xbd9594da	-0.07303782
168	0x3da0c32f	0.07849728
169	0x3c51f0a4	0.012813721
170	0x3b1a1a7d	0.0023514323
171	0x3c1c9c90	0.009558812
172	0x3d71bd4e	0.059018426
173	0xbdc64230	-0.09680593
174	0xbd598a2a	-0.05311028
175	0xbded33e9	-0.11582167
176	0xbdd58de3	-0.10427453
177	0xbd8e2ba2	-0.06941916
178	0xbceb803f	-0.028747676
179	0xbdea56bf	-0.11442327
180	0xbc669a90	-0.0140749365
181	0x3ca6cf98	0.02036266
182	0xbde9ca44	-0.11415532
183	0xbb9539ee	-0.004554025
184	0xbc7f382d	-0.015577358
185	0xbd9f2beb	-0.077720486
186	0x3d4a0fa5	0.049331326
187	0xbdc12f5c	-0.09432861
188	0x3d3ec93e	0.04657864
189	0x3ce98870	0.028507441
190	0xbd60a9e7	-0.05484953
191	0xbd0f2468	-0.03494683
192	0x3d35fd05	0.04443075
193	0x3cf69441	0.03009999
194	0xbd93b03b	-0.07211348
195	0xbd0f74a9	-0.035023365
196	0xbcc6a7a8	-0.024249867
197	0x3d45d53a	0.04829905
198	0xbd7d8e76	-0.06190344
199	0xbd0c0083	-0.034180176
200	0x3d212767	0.039344218
201	0xbda2fc0a	-0.07958229
202	0x3b0e0570	0.0021670721
203	0xbd9e89d8	-0.07741135
204	0xbd9e378d	-0.07725439
205	0xbdfc31f6	-0.12314217
206	0xbce018fe	-0.027355667
207	0xbd06a22e	-0.03286951
208	0xbd36c646	-0.044622682
209	0xbba4f2e5	-0.005033838
210	0xb99c147c	-0.000297699
211	0xbd81b82b	-0.063339554
212	0x3d12f47e	0.035877697
213	0x3d0f1654	0.034933403
214	0xbc356bf1	-0.0110730985
215	0xbd0ce7d2	-0.03440077
216	0x3bf41ba9	0.0074495864
217	0x3cda9834	0.026683904
218	0xbcc227b5	-0.023700574
219	0xbdd9f2e5	-0.106420316
220	0x3beef041	0.007291824
221	0xbcac5f49	-0.02104153
222	0x3d81627e	0.06317614
223	0x3d20ab60	0.039225936
224	0x3c807a12	0.015683208
225	0xbdb3ace6	-0.08773212
226	0xbdbbaea5	-0.0916417
227	0xbdff3216	-0.12460725
228	0xbdefa42e	-0.11701237
229	0xbd13830d	-0.03601365
230	0x3d2bdcf6	0.04195877
231	0x3b8d33eb	0.0043091676
232	0xbdc5fd32	-0.09667434
233	0x3c09f39e	0.008419899
234	0xbdca586d	-0.09880147
235	0x3d14febf	0.036375757
236	0x3d7d33c5	0.06181695
237	0xbcdaba00	-0.02670002
238	0x3bcfede0	0.0063454956
239	0xbce570b8	-0.02800785
240	0xbcc8d7f4	-0.024517037
241	0x3d324d0a	0.0435305
242	0x3c853c39	0.016264068
243	0x3cf6e67a	0.030139197
244	0xbc1eedf4	-0.009700287
245	0xbd99c48e	-0.07508193
246	0x3cd30142	0.025757436
247	0xbe06cd50	-0.13164258
248	0x3d4b8fa6	0.04969754
249	0xbb294f29	-0.0025834537
250	0xbddca094	-0.10772815
251	0xbdccb408	-0.09995276
252	0xbd425b0b	-0.047450107
253	0x3d485177	0.048905816
254	0x3d0517fc	0.032493576
255	0xbd7396fe	-0.05947017

_policy.2.bias f4 [128]
0	0xbdb1a7c4	-0.08674577
1	0xbe1afc78	-0.15135372
2	0xbdeded2d	-0.11617503
3	0x3d5badc8	0.053632528
4	0xbc4a3046	-0.012340611
5	0x3d7f63eb	0.06235115
6	0xbcf31aa9	-0.029675798
7	0xbba2a5f6	-0.0049636317
8	0xbd109e56	-0.03530725
9	0x3c181b14	0.0092838
10	0xbd34ad08	-0.044110328
11	0x3daca54e	0.08429967
12	0x3c9b267a	0.018939245
13	0x3d86d048	0.06582695
14	0x3d8d740a	0.06906898
15	0x3d6eb1d4	0.05827506
16	0x3d87b83a	0.06626935
17	0x3dc57d7e	0.09643076
18	0x3e091ff1	0.13391091
19	0x3d624d95	0.05524977
20	0xbd869705	-0.065717734
21	0xbcd9ad05	-0.02657176
22	0x3d33e2ec	0.04391758
23	0x3c2ff7cd	0.010740233
24	0xbd99204d	-0.07476864
25	0x3c301a94	0.010748524
26	0x3d5f9e10	0.0545941
27	0xbdefe3e4	-0.117133886
28	0xbe12fbb4	-0.1435383
29	0x3daf467a	0.08558364
30	0xbd9f7eb1	-0.07787836
31	0xbda63ac8	-0.081166804
32	0xbd84eedd	-0.06490872
33	0x3c39812b	0.0113223
34	0xbd98c055	-0.074585594
35	0xbe1d8a8d	-0.15384884
36	0xbd703c96	-0.05865153
37	0x3b103e05	0.0022009623
38	0x3ce6173a	0.028087247
39	0xbdaa2dab	-0.08309492
40	0x3e01ecfd	0.1268806
41	0xbdd79120	-0.10525727
42	0x3d4f7f99	0.050658796
43	0xbd761a2b	-0.06008355
44	0x3b02bb2a	0.0019947984
45	0x3b4f32e4	0.0031616027
46	0x3bfa7a23	0.0076439544
47	0xbd2db514	-0.042409018
48	0x3c095306	0.008381611
49	0xbde30fcc	-0.110869974
50	0xbd5c2be8	-0.05375281
51	0x3c4a92b2	0.012364076
52	0x3d86abcb	0.06575736
53	0xbd2091b6	-0.03920146
54	0x3d131513	0.03590877
55	0x3cc58a7f	0.024113892
56	0xbd3a8c3a	-0.045543887
57	0xbe12347c	-0.14277834
58	0x3b3d56e2	0.0028890898
59	0xbdadbd27	-0.084833436
60	0xbd091b94	-0.033473566
61	0x3d7ecb76	0.062205754
62	0xbdc0bdf4	-0.09411231
63	0xbd86aa68	-0.06575471
64	0xbd7e80d9	-0.062134597
65	0xbc557746	-0.013028925
66	0x3c86cfa6	0.016456436
67	0x3b93a9f1	0.0045063426
68	0xbdf221fd	-0.11822889
69	0xbd99aef1	-0.075040706
70	0xbd80eb26	-0.06294851
71	0xbcdb728e	-0.026788022
72	0xbdeef799	-0.11668319
73	0xbe055929	-0.13022293
74	0x3daf868d	0.085705854
75	0xbde9e177	-0.11419957
76	0x3db5e0b2	0.08880748
77	0xbdf2f7ea	-0.11863692
78	0x3d992056	0.07476871
79	0xbcc72b04	-0.024312504
80	0xbb67dcac	-0.0035379333
81	0xbd026948	-0.031838685
82	0x3cddea7f	0.027089356
83	0x3d7f1a22	0.06228078
84	0xbd0b6747	-0.03403404
85	0x3dec70b6	0.115449354
86	0xbb8b58de	-0.004252537
87	0xbdcab5fb	-0.09897991
88	0xbd6e5cd0	-0.05819398
89	0x3aec8b82	0.0018046948
90	0xbd9ec2eb	-0.077520214
91	0x3d659735	0.056052405
92	0xbcaaf2c5	-0.020867715
93	0x3da666ee	0.08125101
94	0xbe0f4701	-0.1399193
95	0xbdd3fe2e	-0.10351215
96	0xbbf9e8b6	-0.0076266183
97	0x3c8b9d0a	0.017042655
98	0xbda868c1	-0.08223105
99	0xbd6137cb	-0.05498485
100	0xbe1832bc	-0.14863104
101	0xbdea594c	-0.11442813
102	0xbc111ad1	-0.008856491
103	0x3d565e81	0.05233622
104	0xbca10bf6	-0.019659024
105	0x3da8d695	0.08244053
106	0xbde6e9c1	-0.11275054
107	0xbc7bd6ef	-0.015371068
108	0xbdd3750e	-0.10325061
109	0xbd1a0b24	-0.03760828
110	0xbd6aebf8	-0.057353944
111	0x3d10c50f	0.03534418
112	0x3d553b3b	0.05205844
113	0x3c83f529	0.016108112
114	0xbdbfb7b7	-0.09361213
115	0x3da15603	0.078777336
116	0xbd99aacd	-0.07503281
117	0xbd1afa4e	-0.037836365
118	0xbddb8e45	-0.10720495
119	0x3d4941b6	0.049134932
120	0xbdd44d27	-0.10366278
121	0xbd7f0bb5	-0.062267024
122	0xbd90c235	-0.07068292
123	0xbd8f7d49	-0.07006318
124	0xbe079a37	-0.13242422
125	0x3d7f96f5	0.062399823
126	0xbdb1ebf1	-0.086875804
127	0x3d318260	0.043337226

_policy.4.weight f4 [128, 128]
0	0x3e62ef06	0.22161493
1	0xbd0cabd5	-0.03434356
2	0xbd5209a6	-0.051278733
3	0xbe49fe1e	-0.19725844
4	0x3e1b6e0f	0.15178703
5	0xbd80a870	-0.06282127
6	0x3ca6271c	0.02028232
7	0x3d82a82b	0.06379732
8	0xbcef1360	-0.029184043
9	0x3da8e212	0.082462445
10	0xbe0dab92	-0.1383498
11	0x3e05e714	0.1307643
12	0x3d5f6e1b	0.054548364
13	0x3d179950	0.037011445
14	0xbde7d144	-0.11319211
15	0x3dd60059	0.10449285
16	0xbe8bba73	-0.27290687
17	0x3d468ed1	0.048476044
18	0xbe401c06	-0.1876069
19	0xbd81ad9f	-0.06331944
20	0x3c3ed288	0.011646874
21	0xbe81c923	-0.25348768
22	0x3cd90731	0.026492687
23	0x3e377b37	0.17918096
24	0x3e09237f	0.13392447
25	0xbe3506e0	-0.17678404
26	0x3db1b5f3	0.08677282
27	0xbe6b3b10	-0.2297175
28	0x3d6e743b	0.058216315
29	0xbdf2d47e	-0.11856936
30	0x3d24dfb6	0.04025241
31	0xbeaf0620	-0.3418436
32	0xbdc7b865	-0.09751967
33	0xbe1ccc09	-0.15312208
34	0x3e65bcdb	0.22435324
35	0x3d5f63be	0.05453848
36	0xbd4a45a6	-0.04938283
37	0x3c868e8c	0.016425394
38	0xbdc1b46f	-0.09458243
39	0xbd103db6	-0.035215102
40	0xbe743e2d	-0.23851843
41	0xbe0fc1de	-0.14038798
42	0x3dc20b87	0.09474855
43	0x3e13ab81	0.14420892
44	0x3d1aed52	0.037823983
45	0x3d309ed3	0.043120217
46	0xbdbcae00	-0.09212875
47	0x3d298e1d	0.041395295
48	0x3d251148	0.040299684
49	0x3d3ee02a	0.0466005
50	0x3d42265d	0.047399867
51	0xbd11a73f	-0.03555989
52	0x3e05cc9f	0.13066338
53	0x3d1911de	0.037370555
54	0xbebab756	-0.36468
55	0xbdb67d6a	-0.089106396
56	0xbc368e12	-0.011142271
57	0xbd0bd74a	-0.034140863
58	0x3d0c2621	0.03421605
59	0x3d630ed4	0.055434063
60	0xbdfb7300	-0.12277794
61	0xbda00f5b	-0.07815429
62	0xbc8f8826	-0.017520975
63	0xbb166147	-0.0022946165
64	0x3c7b14e5	0.015324806
65	0xbca6d45c	-0.020364933
66	0xbde67788	-0.112532675
67	0xbe6805ef	-0.22658513
68	0x3d77ac33	0.060466956
69	0xbe6a129b	-0.2285866
70	0xbe24f09d	-0.16107412
71	0xbe94bf6b	-0.2905229
72	0x3c95e47c	0.018297426
73	0xbd9a2af9	-0.07527728
74	0xbd1c7017	-0.038192835
75	0xbcbff3e1	-0.02343172
76	0x3e8f885a	0.28033715
77	0xb9933e23	-0.0002808432
78	0x3dbc6fed	0.09201036
79	0xbe2b18e6	-0.16708717
80	0xbeb6be59	-0.356921
81	0xbdba3922	-0.090929285
82	0xbe4d96d3	-0.20077066
83	0x3db0e1f5	0.08636848
84	0x3d7dc5c9	0.0619562
85	0xbe783761	-0.24239875
86	0xbe7b592f	-0.2454574
87	0xbeb4bc00	-0.35299683
88	0x3e1c1dfc	0.15245813
89	0xbd64a83c	-0.055824503
90	0x3e17899f	0.14798592
91	0x3c60c649	0.01371915
92	0x3e56cbe3	0.20976214
93	0xbd8005ae	-0.06251083
94	0x3e1079e5	0.14108999
95	0x3d3b293b	0.045693617
96	0x3e75cd27	0.2400404
97	0x3da97673	0.082745455
98	0xbd69c12d	-0.057068992
99	0x3d8b276d	0.06794629
100	0xbeee7a13	-0.4657751
101	0x3e330a54	0.17484409
102	0xbc6092ff	-0.013706922
103	0xbe958cd4	-0.29209006
104	0xbd451558	-0.048116058
105	0x3d91202d	0.07086215
106	0x3e35da35	0.1775902
107	0x3d830012	0.06396498
108	0x3c9a2306	0.018815529
109	0x3e948cf4	0.2901379
110	0xbdb6fd11	-0.08934987
111	0x3e6a4804	0.22879034
112	0xbe2f27b3	-0.17104988
113	0xbeb4cc49	-0.35312107
114	0x3e08605a	0.13318005
115	0xbdb9e37f	-0.090765946
116	0xbe436d95	-0.19084771
117	0xbe71573e	-0.23568437
118	0x3dc5e352	0.096624985
119	0x3df94d08	0.12172896
120	0x3dc606af	0.096692435
121	0xbe83fa79	-0.25777033
122	0xbc252959	-0.010080659
123	0xbe4655d7	-0.19368683
124	0xbcdb9b7e	-0.026807543
125	0x3e86924c	0.2628349
126	0xbd4ea2fd	-0.050448406
127	0xbcfb407b	-0.030670395
128	0xbd8521e6	-0.06500606
129	0x3d6d1cc2	0.057888754
130	0x3d266a8d	0.04062896
131	0xbe50b4de	-0.20381495
132	0x3d624fb6	0.0552518
133	0x3e8f4e1f	0.2798929
134	0x3dd0f06e	0.10202108
135	0xbe85eeb9	-0.26158693
136	0x3ca7c85e	0.020481285
137	0x3cff7ee4	0.031188436
138	0x3e683c7f	0.22679327
139	0xbca1cb4e	-0.019750264
140	0x3db09e85	0.08623985
141	0x3eabc975	0.33552137
142	0x3d82c8a4	0.063859254
143	0x3d8f62be	0.070012555
144	0xbdf0d216	-0.11758821
145	0x3eba2e64	0.36363518
146	0x3e3d40ca	0.18481746
147	0xbc2442ba	-0.0100256745
148	0xbef816f4	-0.48455012
149	0xbe3d2b5c	-0.18473572
150	0x3e22133d	0.15827651
151	0xbe38fbfa	-0.18064871
152	0x3e46163c	0.19344419
153	0x3ba6675e	0.0050782403
154	0x3e03262c	0.1280753
155	0x3e55e780	0.20889091
156	0xbc3a4680	-0.011369348
157	0x3c9de0c5	0.019272218
158	0x3d921c24	0.07134274
159	0x3dcd2408	0.10016638
160	0xbe4e1a58	-0.20127237
161	0xbc40b995	-0.011762996
162	0xbe012082	-0.12610057
163	0xbc8aade8	-0.016928628
164	0xbc5df592	-0.013547318
165	0xbe3aae8b	-0.18230645
166	0x3e41f1fb	0.18939964
167	0xbe5ba8cc	-0.2145111
168	0x3cddf9de	0.027096685
169	0xbe273698	-0.1632942
170	0xbecc5b05	-0.39913192
171	0x3e83b397	0.25722954
172	0x3dacc73d	0.08436439
173	0xbd9a91f8	-0.075473726
174	0xbf33808b	-0.70118016
175	0x3dcdc87f	0.10048007
176	0xbd06f8a2	-0.03295196
177	0xbd68c68d	-0.056829978
178	0x3dcb481d	0.09925864
179	0xbd8d6e34	-0.06905785
180	0xbeb34b4d	-0.35018387
181	0xbcc2989e	-0.023754414
182	0xbea873b3	-0.32900771
183	0x3e4ccd65	0.20000227
184	0xbe8b2e2c	-0.27183664
185	0xbd34587b	-0.044029694
186	0x3c130be9	0.008975008
187	0x3ddf3069	0.108979054
188	0x3e1b9fda	0.15197697
189	0xbdf1cab3	-0.1180624
190	0xbe8d43e7	-0.27590868
191	0xbd1b714f	-0.037949856
192	0xbdb1334f	-0.086523645
193	0xbee1cdf9	-0.44102457
194	0x3c6e4c3f	0.014544546
195	0xbdd5f7d5	-0.10447661
196	0xbd81c114	-0.06335655
197	0x3e71dfcc	0.23620528
198	0x3dfd661b	0.12372991
199	0xbeb7eba9	-0.35921982
200	0x3c147f56	0.009063562
201	0x3cfbf914	0.030758418
202	0x3c6766c9	0.014123627
203	0xbe587466	-0.21138152
204	0x3e21c344	0.15797144
205	0xbe7ba7c1	-0.24575712
206	0xbec4402e	-0.38330215
207	0xbe167d00	-0.14696121
208	0xbd59da76	-0.053186856
209	0x3e9ae528	0.30252957
210	0xbdf0d843	-0.11759999
211	0xbc04876a	-0.008088926
212	0x3d631db5	0.055448253
213	0x3cd4d321	0.02597958
214	0x3e0db4d3	0.1383851
215	0xbda1aee0	-0.07894683
216	0xbf292782	-0.6607591
217	0x3d3477b6	0.044059478
218	0x3dda1c44	0.106499225
219	0x3b5bbc75	0.0033529077
220	0x3d94f75c	0.072737426
221	0xbe0dd68e	-0.13851377
222	0xbdb542ae	-0.08850609
223	0xbdb09f1a	-0.08624096
224	0x3e978d2c	0.29599893
225	0xbee046a3	-0.43803892
226	0x3e0150e9	0.12628521
227	0x3d93e9bb	0.07222315
228	0xbe8c0c81	-0.2735329
229	0xbe3a4ef7	-0.18194185
230	0xbd8f29ca	-0.069903925
231	0xbe38ad7c	-0.18034929
232	0xbba633e5	-0.0050721043
233	0xbe0da7a1	-0.13833477
234	0xbe61187a	-0.21981993
235	0x3db25ac8	0.087087214
236	0xbbded914	-0.00680078
237	0x3e8f8015	0.28027406
238	0x3e1bafd4	0.15203792
239	0xbc8eb1f2	-0.017418835
240	0x3d9344d9	0.07190866
241	0xbe9335c4	-0.28751957
242	0x3d42407d	0.047424782
243	0x3d680fa5	0.056655545
244	0xbe344fb5	-0.17608531
245	0xbd65b246	-0.056078218
246	0xbd50971e	-0.050925367
247	0xbba403b7	-0.0050053257
248	0x3e6ffd24	0.23436409
249	0x396433c9	0.00021763066
250	0x3d94f1cd	0.07272682
251	0x3db7fdf6	0.08983986
252	0xbcd31fdc	-0.025772028
253	0x3c440cba	0.011965925
254	0x3d626bf4	0.055278733
255	0xbe64d145	-0.22345455

_policy.4.bias f4 [128]
0	0x3d66ac15	0.056316454
1	0x3d77c88b	0.060493987
2	0x3d7b73ea	0.06138984
3	0xbd13cb94	-0.03608282
4	0xbd207fe7	-0.039184477
5	0xbe49edb1	-0.19719578
6	0xbd87e556	-0.06635539
7	0xbda5aee1	-0.08089996
8	0xbe4a15f8	-0.19734943
9	0xbc9a79e2	-0.018856946
10	0x3d4eb2ff	0.050463673
11	0x3e28aa85	0.16471298
12	0xbdb13cb7	-0.086541586
13	0xbd578144	-0.05261351
14	0xbd37ed1b	-0.044903856
15	0x3e05a59b	0.13051455
16	0xbe1071f1	-0.14105965
17	0x3cf8a605	0.030352602
18	0xbe95bd6b	-0.29246077
19	0xbd8d5c92	-0.06902422
20	0x3bc0741b	0.005873216
21	0x3e4fd48c	0.20295924
22	0xbcba03e8	-0.02270694
23	0xbdb38eb5	-0.087674536
24	0x3d5770a1	0.052597646
25	0xbc8907a4	-0.016727276
26	0xbe7c877e	-0.24661061
27	0xbbfdb7a9	-0.0077428413
28	0x3d4b208a	0.04959158
29	0x3d43a99c	0.047769174
30	0xbdb96e86	-0.09054284
31	0xbc557dad	-0.013030452
32	0x3deb1683	0.11478903
33	0x3e40bd09	0.18822111
34	0xbeb02fa2	-0.3441134
35	0xbdb5e1c7	-0.08880954
36	0x3dd466b2	0.1037115
37	0xbe72e2b3	-0.23719291
38	0xbd378b1c	-0.0448104
39	0xbdba7235	-0.091038145
40	0xbb993eff	-0.004676699
41	0x3d5eec6e	0.054424696
42	0xbc514456	-0.01277264
43	0xbdfae1be	-0.12250088
44	0x3d604b8a	0.05475954
45	0xbe05f01c	-0.13079876
46	0xbde81d67	-0.11333733
47	0xbe0277df	-0.1274104
48	0x3d9568a3	0.072953485
49	0x3d2e0c35	0.04249211
50	0xbdb71f6b	-0.089415394
51	0xbd97fe2d	-0.07421527
52	0x3e0064ff	0.12538527
53	0xbe64466b	-0.22292487
54	0xbbdd7923	-0.0067588254
55	0x3d86f109	0.065889426
56	0xbdeb30da	-0.11483927
57	0xbc24476a	-0.010026792
58	0xbd7312e4	-0.059344187
59	0xbca43868	-0.020046428
60	0xbe047254	-0.12934238
61	0xbde4db8a	-0.11174686
62	0x3d1d1924	0.038354054
63	0x3d1fc94d	0.039010335
64	0x3d8f0738	0.06983799
65	0x3af70ff2	0.0018849357
66	0xbd00cd48	-0.03144577
67	0x3c95ec0a	0.018301029
68	0xbd1154e4	-0.03548135
69	0xbd7a1003	-0.061050426
70	0x3bfec222	0.0077746073
71	0x3d351a0d	0.044214297
72	0xbe2ea887	-0.17056476
73	0x3b748095	0.0037308086
74	0x3df4d76b	0.1195515
75	0xbde96317	-0.11395853
76	0xbd06608d	-0.03280692
77	0x3d6645f6	0.056219064
78	0x3dbf8d8e	0.09353171
79	0x3d4d2e5c	0.05009304
80	0xbd00dfee	-0.031463556
81	0xbd2cebc6	-0.04221704
82	0xbd5f49d2	-0.05451376
83	0xbd910a25	-0.07082013
84	0xbe0ccd4a	-0.13750187
85	0x3e0cd211	0.13752009
86	0x3daf54e6	0.08561115
87	0xbdde0931	-0.10841597
88	0xbe2ed96b	-0.17075126
89	0xbe0a7f33	-0.13525085
90	0x3e129a6a	0.14316717
91	0xbcfe9909	-0.031078832
92	0x3ce31db6	0.027724128
93	0xbdf1620f	-0.11786281
94	0xbdd70d59	-0.10500593
95	0xbd56e2bd	-0.05246233
96	0xbe33a3c8	-0.17542946
97	0x3d0b94ab	0.034077328
98	0x3d434951	0.04767734
99	0x3d267ace	0.04064446
100	0x3c8b4f8a	0.0170057
101	0xbe05a1b0	-0.1304996
102	0xbdcaef63	-0.09908941
103	0x3d08a116	0.03335675
104	0x3b049bc5	0.0020234447
105	0x3dfd7df6	0.12377541
106	0x3e134bcd	0.14384384
107	0x3c8d48a2	0.017246548
108	0x3c0f784a	0.0087567065
109	0xbd52a384	-0.051425472
110	0xbbfe8832	-0.0077677006
111	0x3c2f496c	0.0106986575
112	0xbdea11f6	-0.11429207
113	0xbd726587	-0.059178855
114	0xbdd0711a	-0.101778224
115	0x3d8402b5	0.06445829
116	0x3d9a1457	0.07523411
117	0xbe348105	-0.17627342
118	0xbd49c628	-0.049261242
119	0xbe3dfa22	-0.1855245
120	0xbdadf3cd	-0.08493767
121	0xbdaaba13	-0.08336272
122	0xbd259d66	-0.04043331
123	0xbda2df3c	-0.07952735
124	0xbd0ca9e1	-0.034341697
125	0xbe280dfd	-0.16411586
126	0x3da60215	0.08105866
127	0x3d4b9844	0.04970576

_policy.6.weight f4 [128, 128]
0	0xbdcee7ca	-0.10102804
1	0xbc8f7612	-0.017512355
2	0x3dd95db5	0.10613576
3	0x3c429262	0.011875721
4	0xbd85e6ea	-0.06538184
5	0xbe678254	-0.2260831
6	0x3c8f09a3	0.01746065
7	0x3da2412d	0.079225875
8	0xbd954afe	-0.07289694
9	0xbe254d2e	-0.16142723
10	0x3e66053e	0.22462937
11	0xbec40932	-0.38288265
12	0xbd5c6b0e	-0.053813033
13	0xbd24b5c1	-0.040212397
14	0xbe71cbff	-0.23612975
15	0x3e62638b	0.22108285
16	0xbca293eb	-0.019845923
17	0x3dc5533c	0.09635016
18	0xbbf71cb1	-0.007541262
19	0xbe9aefee	-0.30261177
20	0x3df2626d	0.118351795
21	0xbbe2287a	-0.006901798
22	0x3c4a4461	0.012345404
23	0x3e41e711	0.18935801
24	0x3d6c12f4	0.057635263
25	0x3e1420d0	0.14465642
26	0x3e0b5035	0.13604815
27	0xbcc0fee7	-0.023559047
28	0xbe216cfa	-0.15764228
29	0xbd78fe87	-0.06078961
30	0x3e02db7d	0.1277904
31	0xbcf1fa6a	-0.029538352
32	0x3dd22e1d	0.10262702
33	0xbc16a83f	-0.009195386
34	0x3eb08845	0.34478965
35	0xbe2d7da7	-0.16942464
36	0x3db6ba7b	0.08922287
37	0x3e2d65f9	0.1693343
38	0x3c9c8f6b	0.019111356
39	0xbe9beb7d	-0.304531
40	0xbde6c03f	-0.11267137
41	0xbe415b2b	-0.18882434
42	0xbcca3b19	-0.024686383
43	0x3d9bb288	0.076024115
44	0xbd952e10	-0.07284176
45	0x3db128d3	0.08650365
46	0xbe5e7fc0	-0.2172842
47	0xbe354ba0	-0.1770463
48	0xbe97ecbe	-0.29672807
49	0xbc94b7d6	-0.018154066
50	0x3e42111e	0.18951842
51	0xbd14b5a2	-0.03630603
52	0x3d8c143c	0.06839797
53	0xbbdde669	-0.006771852
54	0x3d712a36	0.058878146
55	0xbe9d967a	-0.30778867
56	0xbef1e972	-0.47248417
57	0xbe33bbbc	-0.17552084
58	0xbd3866f6	-0.045020066
59	0xbe89e9e8	-0.2693627
60	0x3b8dbd3b	0.0043255365
61	0x3e69d055	0.22833379
62	0xbe3b7f46	-0.1831027
63	0xbe7677ad	-0.2406909
64	0xbec41538	-0.3829744
65	0x3e3a1aef	0.18174337
66	0x3e0a793e	0.13522813
67	0xbf048376	-0.51763093
68	0x3e9104de	0.28324026
69	0x3e030aee	0.12797138
70	0x3dfc58cb	0.123216234
71	0xbd68f41c	-0.056873426
72	0x3e103e48	0.14086258
73	0xbde8d763	-0.11369207
74	0xbd967213	-0.07345977
75	0xbe0ae8fc	-0.13565439
76	0x3e4d0d15	0.20024522
77	0xbea328cc	-0.31867063
78	0x3dbf3c7d	0.09337709
79	0x3d3022b9	0.043001864
80	0xbe0b186c	-0.13583535
81	0x3dfa1105	0.122102775
82	0xbd71c61a	-0.059026815
83	0xbe517441	-0.20454504
84	0xbc2e330d	-0.010632289
85	0x3c60052f	0.013673111
86	0xbe6ec994	-0.23319083
87	0xbcddc02c	-0.027069174
88	0xbe6f41f8	-0.23365009
89	0xbe635df9	-0.22203816
90	0x3ebbd595	0.36686388
91	0xbcffef21	-0.031241955
92	0xbe097083	-0.13421826
93	0x3c3d9b1c	0.0115726255
94	0xbe8c83c2	-0.27444273
95	0xbea0aed5	-0.31383386
96	0xbe446326	-0.19178447
97	0xbdfadcff	-0.12249183
98	0xbda01aac	-0.07817587
99	0xbe8b8529	-0.2725003
100	0x3c8ac439	0.01693927
101	0x3d667005	0.056259174
102	0x3dbea4b8	0.09308761
103	0x3e529c48	0.20567429
104	0xbe49fbb5	-0.19724925
105	0xbd9ea5a8	-0.0774644
106	0x3e87548a	0.26431686
107	0x3e2a4036	0.16626057
108	0x3d4fd7aa	0.050742783
109	0xbda8afa8	-0.08236629
110	0x3da29194	0.07937923
111	0x3db00567	0.085947804
112	0xbd80fd62	-0.06298329
113	0xbd119700	-0.035544395
114	0xbe102ba3	-0.14079146
115	0xbce2fbb1	-0.027707906
116	0xbd0157ca	-0.031577863
117	0x3e3e2bd8	0.18571413
118	0x3e5d8ad1	0.21634986
119	0x3e0197f3	0.1265562
120	0x3e8ddcb8	0.27707458
121	0xbda553bf	-0.08072614
122	0x3e4e0954	0.20120746
123	0xbea73860	-0.32660198
124	0xbe903b3e	-0.28170198
125	0xbdd7e6d6	-0.10542075
126	0xbb14925a	-0.002267024
127	0xbcc258c6	-0.023723971
128	0xbd99e2bf	-0.075139515
129	0x3e19bfec	0.15014619
130	0x3d8b6a9e	0.06807445
131	0xbdedeaf9	-0.11617083
132	0xbd9cad57	-0.076502495
133	0xbe3d8174	-0.18506414
134	0xbedf5d0e	-0.43625683
135	0xbde2232d	-0.110418655
136	0x3de5dfdf	0.11224341
137	0xbe89390a	-0.2680133
138	0x3e2c4692	0.16823795
139	0xbd393afc	-0.045222268
140	0xbdcbff1b	-0.09960767
141	0xbd1d1f64	-0.038360015
142	0x3d854409	0.06507117
143	0xbe61206f	-0.21985029
144	0x3e68b694	0.22725898
145	0xbe5c2581	-0.21498682
146	0xbeba726c	-0.36415422
147	0x3e3de47e	0.18544194
148	0x3d21ecf3	0.039532613
149	0xbec85d6e	-0.3913378
150	0x3da4d10b	0.08047684
151	0x3d8bc44e	0.068245515
152	0xbe0038df	-0.12521695
153	0xbe0518fa	-0.12997809
154	0x3b94f412	0.004545697
155	0x3beacb39	0.0071653393
156	0xbea70d7c	-0.32627475
157	0xbc138958	-0.009004913
158	0xbda15b6b	-0.07878765
159	0x3ea75a0a	0.32685882
160	0xbea97399	-0.33096007
161	0x3d5bb2bb	0.053637248
162	0x3e44339c	0.19160312
163	0xbd904e70	-0.07046211
164	0xbcea711e	-0.028618392
165	0x3dc6eaea	0.09712775
166	0x3dcaaa93	0.09895816
167	0x3d0f5b08	0.034998924
168	0x3d4ec46b	0.050480288
169	0x3e03d45b	0.12873976
170	0xbf3086da	-0.6895577
171	0xbc9042ea	-0.017610032
172	0x3e9b6d44	0.303568
173	0xbe401e38	-0.18761528
174	0xbdd5082d	-0.1040195
175	0x3d9e7637	0.077373914
176	0xbe84d057	-0.259402
177	0xbc85bf09	-0.016326444
178	0xbe6fd966	-0.23422775
179	0xbcc78bd5	-0.02435867
180	0xbeb5fe03	-0.35545358
181	0xbdd964e4	-0.106149465
182	0xbcbd228b	-0.02308776
183	0xbe173a9d	-0.14768453
184	0xbb974cc2	-0.0046173045
185	0x3ea7c52a	0.32767612
186	0xbe7c701d	-0.24652143
187	0x3d80803b	0.06274458
188	0xb9ca8c2f	-0.00038632887
189	0x3c89fabf	0.016843198
190	0xbdb7e372	-0.089789286
191	0x3b01ad21	0.001978703
192	0xbdbc45df	-0.09193014
193	0x3dccb1e9	0.09994871
194	0xbe822397	-0.25417778
195	0x3e4e7c42	0.20164588
196	0xbe74972f	-0.23885797
197	0xbe81bad7	-0.2533786
198	0x3ca01af2	0.019544099
199	0x3ded492f	0.11586224
200	0xbe107c45	-0.14109905
201	0x3b289e2b	0.002572904
202	0xbd811003	-0.06301882
203	0x3e2adaf6	0.1668509
204	0x3e4ad296	0.19806895
205	0xbee3b790	-0.44475985
206	0xbea0fe7e	-0.31444162
207	0x3ddbf715	0.107404865
208	0xbe3e0693	-0.18557195
209	0x3d94301b	0.07235738
210	0xbd9e6a20	-0.077350855
211	0xbee02c01	-0.43783572
212	0x3e47de35	0.19518359
213	0xbdd7d850	-0.10539305
214	0x3dc8c5d5	0.098033585
215	0xbe8b07f8	-0.27154517
216	0x3e5ab5da	0.21358433
217	0xbed39cbb	-0.41330513
218	0x3c54a84d	0.012979579
219	0x3d95cb5a	0.07314177
220	0xbcf6c8d9	-0.030125069
221	0x3df38018	0.11889666
222	0x3e1744c0	0.1477232
223	0x3ed5749a	0.41690522
224	0x3d922125	0.07135228
225	0x3b50ed4c	0.0031879721
226	0xbe0c065a	-0.13674298
227	0x3db2874a	0.087172106
228	0xbe943f82	-0.28954703
229	0x3de7b436	0.113136694
230	0xbe52ce88	-0.20586598
231	0x3e2cca61	0.16874076
232	0x3f021733	0.5081665
233	0xbe2ddcfc	-0.1697883
234	0x3e3c801e	0.18408248
235	0x3e489420	0.19587755
236	0xbe4bcec1	-0.19903089
237	0xbe9b579c	-0.30340278
238	0x3e9c6e5b	0.30552945
239	0xbebdf004	-0.3709718
240	0xbe759314	-0.23981887
241	0xbc981b4b	-0.018567702
242	0xbe91d09a	-0.28479463
243	0xbe9f5bd1	-0.31124738
244	0xbdb67962	-0.08909871
245	0x3d7db893	0.0619436
246	0xbe2c3f6f	-0.16821073
247	0xbec4aea4	-0.3841449
248	0xbe3fbb42	-0.18723777
249	0xbf4427d5	-0.7662328
250	0x3e0df22f	0.13861917
251	0x3ca8f6d3	0.020625507
252	0xbe46f890	-0.19430757
253	0xbdc66602	-0.09687425
254	0xbbe6781d	-0.0070333616
255	0xbee37f3d	-0.44433013

_policy.6.bias f4 [128]
0	0xbce0b08d	-0.027427936
1	0xbdfdb0ac	-0.12387213
2	0x3d0dd410	0.034626067
3	0x3e447964	0.19186932
4	0x3da5fadd	0.08104489
5	0x3d6754a6	0.05647721
6	0x3d8b3432	0.06797065
7	0x3cae70d2	0.021294031
8	0x3e3cf4f7	0.18452822
9	0x3c6aab1a	0.01432302
10	0x3e1f0c4c	0.15532035
11	0x3e1b724e	0.15180323
12	0x3d458ce5	0.04823007
13	0xbc5ac0c6	-0.013351625
14	0xbca06522	-0.019579474
15	0x3e11f286	0.14252672
16	0x3da60a47	0.08107429
17	0x3d8b1556	0.06791179
18	0xbdbcde04	-0.092220336
19	0x3c92fc35	0.017942527
20	0x3db3a089	0.08770854
21	0x3e1a8567	0.15089951
22	0x3e10807c	0.14111513
23	0x3dcaceb4	0.09902707
24	0x3e4c26df	0.19936703
25	0x3de95f0e	0.11395083
26	0x3d324d7f	0.043530937
27	0xbc463f10	-0.012099996
28	0x3c5b7ef1	0.013396964
29	0xbd2d700f	-0.042343196
30	0xbc8ce401	-0.017198564
31	0xbdee6cf2	-0.116418734
32	0x3dece180	0.11566448
33	0x3d77b107	0.06047156
34	0xbcf5369c	-0.029933266
35	0x3d334802	0.043769844
36	0xbb83a825	-0.004017847
37	0x3d06f551	0.032948796
38	0x3d9d4cc6	0.07680659
39	0x3ca39682	0.019969229
40	0xbc207502	-0.009793522
41	0xbda7401f	-0.08166527
42	0x3dddfce4	0.10839251
43	0x3d7d7a84	0.061884418
44	0x3c337332	0.010952758
45	0xbd9708cb	-0.07374724
46	0xbdf23906	-0.118272826
47	0x3d6e2ca9	0.05814806
48	0x3e776068	0.2415787
49	0xbcb9bbf1	-0.022672625
50	0x3e0e0202	0.13867953
51	0x3d0f80a5	0.035034794
52	0xbcf12518	-0.029436633
53	0xbd95c1f5	-0.07312385
54	0x3dab0f8e	0.08352576
55	0x3e2070e1	0.1566806
56	0x3e2e2595	0.17006524
57	0x3e85429d	0.26027384
58	0x3dae4e6e	0.08511053
59	0x3def5e0c	0.1168786
60	0x3df0b903	0.11754038
61	0x3dc44c88	0.0958491
62	0xbe40fa56	-0.18845496
63	0x3e05273a	0.13003245
64	0xbdaad2a8	-0.08340961
65	0x3d5705ce	0.05249577
66	0x3e59cac2	0.21268752
67	0x3e1c15ae	0.15242645
68	0x3d999808	0.07499701
69	0x3c8c1b8f	0.017102985
70	0xbd91f84a	-0.071274355
71	0x3d334d7a	0.04377506
72	0xbe014c10	-0.12626672
73	0xbc21896c	-0.009859424
74	0x3ca0603f	0.019577144
75	0x3cb341ab	0.021881899
76	0x3e0db50d	0.13838597
77	0xbe085af7	-0.1331595
78	0xbcdc93cc	-0.026925944
79	0x3d6c5d5b	0.05770622
80	0x3cdca1fd	0.02693271
81	0x3d42af6d	0.04753058
82	0xbdcef531	-0.1010536
83	0x3b4ca0ca	0.0031223767
84	0x3d80e2e6	0.062932774
85	0x3d8ee523	0.06977298
86	0xbbb9e9be	-0.005673616
87	0x3d6cadbe	0.05778288
88	0xbcce4358	-0.025178596
89	0x3ca750bf	0.020424245
90	0x3d878842	0.06617786
91	0x3e846046	0.258547
92	0x3e07b64c	0.13253134
93	0x3db0ebf3	0.08638754
94	0xbd1970ad	-0.03746097
95	0x3c059afe	0.008154629
96	0xbdbaed9c	-0.09127352
97	0x3ddbba2d	0.107288696
98	0x3dad7038	0.0846867
99	0x3d1876b1	0.037222568
100	0xbe095c87	-0.13414203
101	0x3e4d9cdd	0.2007937
102	0x3d373eac	0.044737503
103	0x3e015f0b	0.12633912
104	0xbdb17c16	-0.08666246
105	0x3d425db7	0.047452655
106	0x3e6f3744	0.23360926
107	0xbbc99822	-0.006152169
108	0xbe2ba8fc	-0.16763681
109	0x3e299d61	0.16563942
110	0x3e5e029c	0.21680683
111	0xbce68f0d	-0.028144384
112	0xbc8e4648	-0.017367497
113	0xbd547bf3	-0.05187602
114	0x3d0ec2bb	0.03485368
115	0x3db960e7	0.09051686
116	0xbdb9502d	-0.090484954
117	0x3dcca425	0.099922456
118	0xbc545501	-0.01295972
119	0x3e2f5654	0.17122775
120	0x3d3ad8d1	0.04561693
121	0x3e448b83	0.19193844
122	0x3e6b8d61	0.2300315
123	0x3cf6e410	0.030138046
124	0x3e356c13	0.17717008
125	0xbdc7a0e3	-0.097474836
126	0xbcc865a8	-0.024462536
127	0x3d7f01f2	0.062257715

_policy.8.weight f4 [3, 128]
0	0xbc4b92d2	-0.012425141
1	0x3e07f5cc	0.13277358
2	0xbbef0a9a	-0.007294965
3	0xbf221ffe	-0.63330066
4	0xbea43bd9	-0.3207691
5	0xbe402e6c	-0.18767709
6	0xbe2ae93c	-0.16690534
7	0xbd772f60	-0.060347915
8	0x3ee40154	0.44532263
9	0x3ce4403e	0.027862664
10	0x3ea56180	0.3230095
11	0x3ec1e7e0	0.3787222
12	0x3b41da08	0.002957942
13	0x3db09209	0.08621604
14	0xbf431f14	-0.76219296
15	0xbde77f88	-0.113036215
16	0x3eae66ed	0.340629
17	0x3e449d38	0.19200599
18	0xbf159730	-0.5843382
19	0x3da80526	0.08204107
20	0xbdde4fe1	-0.108550794
21	0xbe10522d	-0.14093848
22	0xbc91898e	-0.017765786
23	0x3ed44f8f	0.41466948
24	0xbe01efc6	-0.12689123
25	0xbe9a5c2b	-0.30148444
26	0x3c134afb	0.008990045
27	0xbd5aa9e1	-0.053384665
28	0xbeea8ac5	-0.45808998
29	0x3e679ca1	0.22618343
30	0xbda93176	-0.08261387
31	0x3d166924	0.036721364
32	0xbe16cce1	-0.14726593
33	0xbdada342	-0.084784046
34	0x3e34eba5	0.17668016
35	0x3ed7d58c	0.4215511
36	0xbedfcf56	-0.43712872
37	0x3e8b0f27	0.27159998
38	0xbd8495ca	-0.064738825
39	0xbdd62a52	-0.10457291
40	0x3f1dcb24	0.61638093
41	0xbdc48282	-0.09595205
42	0xbd164895	-0.036690313
43	0x3e842119	0.25806502
44	0x3ef5014d	0.47852555
45	0xbf075eb2	-0.5287887
46	0x3fb2fd30	1.3983517
47	0x3ec0d51f	0.37662598
48	0xbe3e4736	-0.18581852
49	0xbc376d00	-0.011195421
50	0x3e90de26	0.28294486
51	0xbe363eaa	-0.17797342
52	0xbe86a224	-0.26295578
53	0x3e86fe5d	0.2636594
54	0x3d9412e4	0.072301656
55	0xbe549973	-0.20761661
56	0xbdf8a241	-0.121403225
57	0xbf0e24da	-0.5552498
58	0xbd36a7ac	-0.044593498
59	0x3f0597fe	0.52185047
60	0xbc2017ed	-0.009771329
61	0xbdd1eb42	-0.1024995
62	0xbf134b3b	-0.5753667
63	0xbe3cd6d7	-0.1844133
64	0x3e75f24c	0.2401821
65	0x3ec2663a	0.37968618
66	0x3f04f80a	0.5194098
67	0xbdc0cfde	-0.094146475
68	0x3edc19d5	0.42988458
69	0xbd13632b	-0.035983246
70	0x3ed85b3c	0.42257106
71	0xbc67884c	-0.014131617
72	0xbec46169	-0.38355568
73	0x3ee3d5f9	0.44499186
74	0x3ea03080	0.31287003
75	0xbc638cf1	-0.0138885835
76	0xbe1431b8	-0.14472091
77	0x3ea83ab3	0.32857284
78	0xbd021827	-0.031761315
79	0x3def5c8c	0.11687574
80	0xbc87c73c	-0.016574495
81	0xbe3cc60a	-0.18434921
82	0xbf3a3379	-0.7273479
83	0xbe56d820	-0.20980883
84	0xbe3a8e2c	-0.18218297
85	0x3eecd6ec	0.46257722
86	0xbf036894	-0.5133145
87	0xbda9b387	-0.08286195
88	0xbedc859f	-0.43070695
89	0x3f1e1d8f	0.6176385
90	0xbe5dee9c	-0.21673054
91	0xbe694d27	-0.22783338
92	0xbe90b2d3	-0.28261432
93	0xbd196523	-0.037449967
94	0x3ee1df9b	0.4411591
95	0x3f08da7f	0.534584
96	0x3e313e77	0.17308985
97	0xbd643dfb	-0.05572317
98	0x3e8b78cc	0.27240598
99	0xbe9955cd	-0.29948273
100	0x3e2b1e2a	0.16710725
101	0xbe023bdc	-0.12718147
102	0xbdeffe95	-0.117184795
103	0xbec4cb2c	-0.38436258
104	0xbcc89cb0	-0.024488777
105	0x3e2d66f3	0.16933803
106	0xbeb73f4a	-0.35790473
107	0x3ecb4c7e	0.39706796
108	0x3e8acd10	0.27109575
109	0x3eb1eac3	0.3474942
110	0xbe1e5eb2	-0.15465811
111	0x3e52e8be	0.20596597
112	0xbec47f85	-0.3837854
113	0x3ddb9cc3	0.10723259
114	0x3e2470a9	0.16058601
115	0xbde5c2b7	-0.112187795
116	0xbe568995	-0.20950921
117	0xbe59bd35	-0.21263583
118	0x3e5727f6	0.21011338
119	0xbd2fa0f2	-0.0428781
120	0x3ec975c0	0.3934765
121	0xbe5034e4	-0.20332676
122	0xbe0373c6	-0.12837133
123	0x3ebe4a7d	0.37166205
124	0x3eec641c	0.46170127
125	0x3e3aa8ae	0.18228409
126	0x3cb3648b	0.021898529
127	0xbe184060	-0.14868307
128	0x3e35f862	0.17770532
129	0x3ea267b5	0.31719747
130	0xbe445a52	-0.1917508
131	0x3ee91823	0.45526227
132	0x3ebb4daa	0.3658269
133	0xbade4f2d	-0.0016960852
134	0x3e7289e7	0.23685418
135	0x3ee49455	0.44644418
136	0xbed3db04	-0.41378033
137	0x3e9e9a02	0.30976874
138	0x3c97bb1c	0.018521838
139	0xbd65188d	-0.055931617
140	0xbe0e0f22	-0.1387296
141	0x3e040194	0.12891227
142	0x3f2c7769	0.67369705
143	0xbe6004ea	-0.21876875
144	0xbee9bb77	-0.45650837
145	0xbd9ebfa5	-0.07751397
146	0x3ee5286c	0.44757402
147	0x3dc22439	0.09479565
148	0x3ebf1f5e	0.3732862
149	0x3ec7ae93	0.39000377
150	0xbe0ffedd	-0.14062066
151	0xbe536a12	-0.20645931
152	0xbebbffb0	-0.36718512
153	0x3de96e7e	0.11398028
154	0xbdd54d39	-0.1041512
155	0xbe489c84	-0.19590956
156	0x3e7e6851	0.24844481
157	0xbef6b6e0	-0.48186398
158	0x3e5b58f8	0.21420658
159	0x3cdc8b5e	0.026921924
160	0x3e8f491c	0.27985466
161	0xbdb180c0	-0.08667135
162	0xbf68697d	-0.9078596
163	0xbe0978e6	-0.13425025
164	0xbe013abd	-0.12620063
165	0xbebe069c	-0.37114418
166	0x3f0fd3ba	0.56182444
167	0xbd73dc0c	-0.059536025
168	0xbdd11ca1	-0.10210539
169	0x3e21a532	0.15785673
170	0x3f25effc	0.6481931
171	0xbebd71cf	-0.37000892
172	0xbec5df2b	-0.38646826
173	0x3ecd26a8	0.40068555
174	0xbf801226	-1.0005538
175	0xbe893836	-0.26800698
176	0xbd594c90	-0.05305153
177	0x3f03d2fe	0.51493824
178	0xbe1cba3a	-0.15305415
179	0x3e6f1e14	0.23351318
180	0x3e91cfc2	0.2847882
181	0xbe2e5a28	-0.1702658
182	0x3ede8569	0.4346116
183	0xbe9a9fca	-0.30200034
184	0x3eedf2c9	0.46474293
185	0x3ef2c64d	0.47416916
186	0x3e9144ab	0.28372702
187	0xbe31c305	-0.1735955
188	0x3db82eb8	0.08993286
189	0xbdb9f064	-0.09079054
190	0x3eb2e46f	0.34939906
191	0x3eeae240	0.4587574
192	0xbeb6bf8a	-0.35693008
193	0xbdc01fee	-0.0938109
194	0xbd75601c	-0.05990611
195	0x3e74194a	0.23837772
196	0xbcbe1291	-0.023202213
197	0xbef0355c	-0.4691571
198	0x3e1679bc	0.14694875
199	0x3ebaf553	0.36515293
200	0x3da494e9	0.08036215
201	0xbf1a728b	-0.6033103
202	0x3d962330	0.0733093
203	0xbe0f99c6	-0.14023504
204	0x3e3ee301	0.18641283
205	0xbeb07d95	-0.3447081
206	0xbea850d2	-0.3287416
207	0xbe35ec96	-0.17766032
208	0xbeacfe16	-0.33787602
209	0xbdfcb547	-0.123392634
210	0x3ea357c5	0.319029
211	0x3ee50474	0.4472996
212	0x3e941e5a	0.28929406
213	0xbdae8166	-0.085207745
214	0x3de002ff	0.109380715
215	0xbde86ce9	-0.11348898
216	0x3eba36bb	0.3636988
217	0xbee37d71	-0.44431642
218	0x3e292323	0.1651731
219	0xbedb8d90	-0.4288144
220	0xbe05030b	-0.12989442
221	0xbea7323a	-0.32655507
222	0xbf1f360a	-0.6219183
223	0xbe2e5a21	-0.17026569
224	0xbec69bb9	-0.38790682
225	0x3eee177f	0.465023
226	0xbe08cb73	-0.1335886
227	0x3e0e1d9f	0.13878487
228	0xbf300cf2	-0.6876975
229	0xbe893869	-0.2680085
230	0xbda375ee	-0.07981478
231	0xbd905172	-0.070467845
232	0xbdbf9ef3	-0.09356489
233	0xbd10158a	-0.03517679
234	0xbdb69aa4	-0.08916214
235	0xbf2321a7	-0.63723224
236	0x3ead12d0	0.33803415
237	0xbee5e20f	-0.44899032
238	0x3e55bf4b	0.20873754
239	0xbe1b9d21	-0.15196659
240	0x3eaec267	0.34132692
241	0x3e836b97	0.25668022
242	0xbdd5832b	-0.10425409
243	0x3e6d9a09	0.23203291
244	0x3e2bdddb	0.1678385
245	0xbc7d3d8d	-0.015456569
246	0xbf4a70e3	-0.790785
247	0xbeb4f698	-0.35344386
248	0xbe931f61	-0.28734878
249	0x3e7972df	0.24360226
250	0x3ef65c57	0.48117325
251	0xbed6b28e	-0.419331
252	0xbebacced	-0.3648447
253	0xbe136a12	-0.14395931
254	0x3e97c337	0.29641125
255	0xbea690bb	-0.32532296

_policy.8.bias f4 [3]
0	0xbb1a44e2	-0.0023539593
1	0xbd38817a	-0.045045353
2	0x3d0c54a4	0.034260407
