logs/weight_colliion_obj_obs = 0.4/model/model_1610.pth (torch, 427625 bytes, 19 tensors)

_policy.0.weight f4 [128, 22]
-0.37512007 -0.052010424 0.1823566 0.09282177 -0.35840777 -0.21732093 0.17464375 -0.02649883
0.4445299 0.35485962 -0.22827679 0.004511697 0.26472658 0.4776982 -0.07459062 -0.12607653
-0.081018634 0.073882475 0.034003522 0.12799552 -0.1337517 -0.58899665 -0.4200551 -0.29428706
0.02703812 1.0754265 -0.05965818 0.0058326516 0.25937882 0.07828617 -0.9273436 0.12182098
0.15091668 0.23731278 0.32661372 0.3289061 0.20111275 -0.054686558 -0.043379124 -0.18910989
-0.2100703 0.10677816 0.0212789 -0.029644273 -0.6044853 -0.047580108 0.27640408 0.030397141
-0.28097352 0.09045896 0.012189985 0.18454406 1.2604153 -0.5382815 0.311013 -0.007753089
0.40630373 0.44678295 0.07829888 0.15337355 -0.15692204 0.11324076 -0.00029984885 -0.04070268
-0.09326233 -0.11212456 0.094912075 -0.55721086 0.07127103 0.5565026 -0.03927972 -0.7010968
0.17078961 0.39771685 0.1398928 0.15309593 -0.032691907 -0.21253625 -0.33064806 0.64648336
-0.2339935 -0.14079988 -0.21769139 0.00045811775 -0.21456741 0.28994906 0.14054321 0.09781127
1.1154889 -0.5289912 -0.06445317 0.19077957 0.76835346 -0.666984 0.12551135 -0.5673148
-0.74431103 0.53761214 0.12787393 -0.15568319 -0.11483767 -0.1584537 0.005249085 0.17993402
-0.011623185 0.00789071 0.026551098 -0.12324525 0.017630534 -0.029500334 -0.72522616 0.80522746
0.49341598 -0.5954069 -0.27941778 0.754708 0.20171563 0.24377061 -0.05116295 -1.202582
-0.32220447 0.007786764 -0.18174194 0.014436496 0.062311728 -0.03184402 0.16466323 0.044396345
-0.044817444 -0.100786924 -0.07215791 0.08490389 -0.103692 0.15941752 -0.3163308 0.29248756
0.40411475 -0.063109174 -0.54738474 0.1314523 0.6050214 -0.58486766 0.23168696 -0.042939592
-0.93402874 0.18046123 -0.042936634 -0.018004993 -0.08322875 -0.14163618 0.3697941 -0.1894642
0.16190974 -0.119088925 -0.24297968 -0.12758051 0.059380367 0.9789548 0.36655214 0.29798234
-0.26051247 -0.112069614 -0.8321163 0.89047015 -0.05972328 -0.46403122 0.053164266 0.05083434
-0.15787485 0.04279057 -0.11736269 -0.2391674 -0.01775646 0.053980466 -0.011604447 0.2375544
0.17926814 -0.46129125 -0.11547804 0.13420042 0.4721738 -0.08001277 -0.19935514 -0.016269142
2.122328 1.2136468 -0.020225046 -0.118477106 0.18556544 0.010292772 0.1408295 -0.15518293
0.17080107 -0.076084144 -0.062011037 -0.010913494 -0.06668455 0.103638 0.33372235 0.80034447
-0.43905556 -0.7794606 -0.27209502 0.5264352 -0.5094644 -0.670066 -0.64335996 0.35561454
0.009519629 0.4730135 0.3357017 -0.13143937 0.07357908 0.046323463 0.12542927 -0.15399866
-0.010932681 0.0040133754 -0.12251827 -0.11768572 -0.8022367 -0.35168132 0.1739046 -0.11077407
-0.7127096 -0.34402928 -0.08950709 0.10012693 1.5607398 0.5683711 0.24356902 -0.25465664
-0.021373766 0.060004596 -0.018944522 0.11891772 0.14802252 0.014387851 -0.117560156 -0.02182683
-0.09782937 -0.068582095 0.023300301 0.33411926 -0.8353382 -0.35346758 -0.1781634 -0.063508116
-0.059845004 -0.50051564 -0.36469334 -0.13225354 -0.047091413 -0.06952717 -0.42140812 -0.3371556
00000000: bd0f c0be e208 55bd b0bb 3a3e 5719 be3d
00000010: 3981 b7be 6189 5ebe d0d5 323e 1314 d9bc
00000020: 6c99 e33e 29b0 b53e 64c1 69be dcd6 933b
00000030: 3e8a 873e dc94 f43e f8c2 98bd 351a 01be
00000040: 19ed a5bd b24f 973d 4747 0b3d 4211 033e
00000050: 35f6 08be 7cc8 16bf 7611 d7be cbac 96be
00000060: 0c7f dd3c 93a7 893f 235c 74bd d41f bf3b
00000070: 4dcd 843e 8054 a03d 6466 6dbf 477d f93d
00000080: e789 1a3e 1f02 733e ea39 a73e 6166 a83e
00000090: 80f0 4d3e 03ff 5fbd 4fae 31bd 06a6 41be
000000a0: ab1c 57be 82ae da3d 1651 ae3c 8cd8 f2bc
000000b0: 8cbf 1abf 5ce3 42bd d684 8d3e 6d03 f93c
000000c0: c3db 8fbe 8c42 b93d 81b8 473c 1ef9 3c3e
000000d0: 4a55 a13f d1cc 09bf 193d 9f3e a00d febb
000000e0: 0b07 d03e bcc0 e43e 2a5b a03d f50d 1d3e
000000f0: 2cb0 20be c6ea e73d 0835 9db9 dab7 26bd
00000100: 5200 bfbd 90a1 e5bd 4361 c23d 5fa5 0ebf
00000110: 8cf6 913d f476 0e3f c6e3 20bd 147b 33bf
00000120: 79e3 2e3e 8ba1 cb3e 0f40 0f3e 2ec5 1c3e
00000130: f3e7 05bd 1aa3 59be b44a a9be ef7f 253f
00000140: fe9b 6fbe d82d 10be 7eea 5ebe 862f f039
00000150: 8fb7 5bbe 3474 943e 8fea 0f3e 4651 c83d
00000160: 57c8 8e3f f86b 07bf 0600 84bd b85b 433e
00000170: d0b2 443f 77bf 2abf 0c86 003e 8b3b 11bf
00000180: 2b8b 3ebf f3a0 093f 62f1 023e 6a6b 1fbe
00000190: 0330 ebbd b041 22be 8400 ac3b a040 383e
000001a0: 2c6f 3ebc 0948 013c b081 d93c 0168 fcbd
000001b0: e96d 903c afaa f1bc 6ca8 39bf 6323 4e3f
000001c0: 05a1 fc3e 966c 18bf d90f 8fbe 8b34 413f
000001d0: 8b8e 4e3e 019f 793e 3e90 51bd 35ee 99bf
000001e0: fcf7 a4be 1c28 ff3b 8f1a 3abe 0e87 6c3c
000001f0: 953a 7f3d e06e 02bd 7a9d 283e f1d8 353d
00000200: 7f92 37bd 6069 cebd 87c7 93bd 17e2 ad3d
00000210: 795c d4bd 593e 233e 1cf6 a1be eec0 953e
00000220: 21e8 ce3e 623f 81bd 6821 0cbf 6f9b 063e
00000230: afe2 1a3f e3b9 15bf 593f 6d3e 6de1 2fbd
00000240: 821c 6fbf d4ca 383e 53de 2fbd 357f 93bc
00000250: d673 aabd 1309 11be a755 bd3e e702 42be
00000260: abcb 253e e5e4 f3bd aacf 78be 77a4 02be
00000270: d438 733d c89c 7a3f b9ac bb3e 2491 983e
00000280: e461 85be c184 e5bd 9305 55bf daf5 633f
00000290: 66a0 74bd 8095 edbe c6c2 593d ab37 503d
000002a0: f2a9 21be 2a45 2f3d da5b f0bd 4de8 74be
000002b0: ff75 91bc 9f1a 5d3d 9420 3ebc 7641 733e
000002c0: 1192 373e 5e2e ecbe c07f ecbd d66b 093e
000002d0: c4c0 f13e bcdd a3bd c123 4cbe dd46 85bc
000002e0: 39d4 0740 c758 9b3f ffae a5bc 20a4 f2bd
000002f0: de04 3e3e 04a3 283c 9c35 103e 46e8 1ebe
00000300: 7ae6 2e3e 01d2 9bbd 49ff 7dbd 83ce 32bc
00000310: e991 88bd 2940 d43d a8dd aa3e 60e3 4c3f
00000320: e4cb e0be bb8a 47bf 0a50 8bbe 75c4 063f
00000330: 426c 02bf 7289 2bbf 3db3 24bf 1c13 b63e
00000340: 38f8 1b3c d32e f23e 18e1 ab3e 0b98 06be
00000350: a1b0 963d acbd 3d3d 8870 003e d3b1 1dbe
00000360: fd1e 33bc a282 833b dcea fabd 3605 f1bd
00000370: 625f 4dbf 930f b4be 0c14 323e 84dd e2bd
00000380: 2374 36bf 9b24 b0be 7e4f b7bd 590f cd3d
00000390: 52c6 c73f c580 113f 286a 793e 5b62 82be
000003a0: 0918 afbc 61c7 753d 8b31 9bbc 228b f33d
000003b0: 3793 173e 05bb 6b3c 61c3 f0bd 2ece b2bc
000003c0: c45a c8bd c574 8cbd 46e0 be3c ae11 ab3e
000003d0: b9d8 55bf b4f9 b4be 7770 36be 8b10 82bd
000003e0: 0920 75bd cb21 00bf 16b9 babe 796d 07be
000003f0: ede2 40bd 4364 8ebd cec2 d7be a99f acbe

_policy.0.bias f4 [128]
-0.09935868 -0.02953444 -0.19300707 -0.19227849 -0.027567836 -0.12692988 0.037169617 -0.008072739
-0.04066636 0.18003082 0.1643649 0.18042158 -0.17232625 -0.24009226 0.008922376 -0.10461238
-0.009106291 0.040432714 -0.1789805 0.03860987 0.085544355 -0.030531887 -0.2704184 0.24176936
-0.071568385 -0.06675553 -0.02784239 -0.1447048 0.10861632 -0.21058653 -0.24457005 -0.16358083
0.11219961 -0.09520729 0.08821821 0.060536336 0.20734286 -0.20323779 -0.16552985 -0.0053559053
-0.032331046 0.11194696 -0.1844046 -0.07349617 0.00024133203 -0.12970972 0.19336723 0.09977558
-0.12193408 -0.19317512 -0.32179502 -0.1590045 -0.2773871 0.22143926 -0.2801479 -0.0974055
-0.06964016 0.08709997 0.3600373 -0.052727226 -0.041635428 -0.014992864 -0.29428783 -0.075516
-0.13082787 -0.08929726 0.050941847 -0.08522078 -0.101176485 -0.17470744 -0.08498169 -0.07067874
-0.17100556 0.1399074 -0.1655625 0.11726707 -0.11841186 -0.12426266 -0.19175678 -0.13064769
-0.0010585114 -0.016224176 0.018694479 -0.2442889 -0.10955599 -0.010099568 -0.1700409 -0.0540166
-0.114180304 -0.25947684 0.08294531 -0.22430499 0.09838123 -0.24917388 -0.23349051 0.034973133
-0.29994625 -0.1510571 -0.09346847 -0.1751123 -0.28153625 -0.15230344 -0.14034799 -0.066987045
0.021689886 0.010587987 -0.20203155 -0.22890134 -0.013328369 0.16461448 0.14562206 -0.22420433
-0.2038234 -0.115791105 -0.2718689 0.13460661 0.022826994 0.032435212 -0.07501435 0.1854295
0.08152497 -0.09182399 0.05096021 -0.2220125 0.005736991 -0.2181666 -0.22128208 -0.2753906
00000000: 907c cbbd 36f2 f1bc a5a3 45be a7e4 44be
00000010: f1d5 e1bc e8f9 01be 2b3f 183d 8543 04bc
00000020: c591 26bd 005a 383e 464f 283e 6fc0 383e
00000030: 4b76 30be bfda 75be 282f 123c 043f d6bd
00000040: 8e32 15bc c69c 253d aa46 37be 6225 1e3d
00000050: e131 af3d 021e fabc 4874 8abe 6392 773e
00000060: 7292 92bd 20b7 88bd b915 e4bc 7f2d 14be
00000070: 3c72 de3d ffa3 57be 9270 7abe bc81 27be
00000080: e9c8 e53d 0afc c2bd c0ab b43d f3f4 773d
00000090: b051 543e 911d 50be a880 29be 9780 afbb
000000a0: 8f6d 04bd 7344 e53d 8fd4 3cbe 2985 96bd
000000b0: 130e 7d39 a0d2 04be 0f02 463e 2457 cc3d
000000c0: 93b8 f9bd b3cf 45be 51c2 a4be 13d2 22be
000000d0: af05 8ebe f9c0 623e 8c6f 8fbe 897c c7bd
000000e0: 809f 8ebd 7861 b23d cf56 b83e 81f8 57bd
000000f0: e989 2abd a1a4 75bc e5ac 96be 22a8 9abd
00000100: bef7 05be 7be1 b6bd 66a8 503d 3b88 aebd
00000110: 9e35 cfbd 82e6 32be e10a aebd 04c0 90bd
00000120: 151c 2fbe e343 0f3e 3789 29be b829 f03d
00000130: eb81 f2bd 6c7d febd e45b 44be 82c8 05be
00000140: c0bd 8aba 90e8 84bc 2a25 993c df26 7abe
00000150: e45e e0bd a978 25bc 341f 2ebe 8340 5dbd
00000160: 5dd7 e9bd 26da 84be 3bdf a93d 35b0 65be
00000170: 197c c93d 7027 7fbe 2318 6fbe fd3f 0f3d
00000180: 8e92 99be b6ae 1abe 666c bfbd a450 33be
00000190: 8525 90be 6ff5 1bbe 62b7 0fbe 8130 89bd
000001a0: fdae b13c 3c79 2d3c 5ce1 4ebe 1d65 6abe
000001b0: 3b5f 5abc b390 283e f31d 153e d295 65be
000001c0: 15b7 50be e323 edbd 6732 8bbe 51d6 093e
000001d0: adff ba3c c9da 043d 20a1 99bd 3be1 3d3e
000001e0: 90f6 a63d 370e bcbd a7bb 503d 3f57 63be
000001f0: 5efd bb3b 1167 5fbe c597 62be ffff 8cbe

_policy.2.weight f4 [128, 128]
0.182152 0.002341539 -0.15462515 -0.26463085 0.31518376 -0.53772926 0.025320599 0.21818475
0.06326016 -0.55499434 -0.014813141 -0.22692916 0.038509063 -0.1043334 -0.3305423 -0.06411693
0.045005925 0.09227735 -0.05579308 0.025316136 0.08017276 -0.120700695 0.051705915 -0.36226192
-0.29662284 -0.015422534 -0.23181055 0.25190032 0.330656 0.10970981 0.09171635 -0.38857964
0.119789824 0.003151437 0.25812525 0.0057511986 0.06894805 -0.35012874 0.11166305 0.06417934
-0.43753907 -0.17868865 0.022333927 -0.0016798584 0.17170368 -0.21071634 0.07434406 -0.07243826
-0.08595894 -0.6588624 -0.31913823 -0.00808117 0.45562676 0.3883194 -0.3221093 -0.23282368
0.2973663 0.19164872 -0.138185 0.15267009 0.26061374 -0.027227946 -0.29749894 0.09490684
0.024932591 0.2524663 0.13648535 -0.032319482 0.048473842 -0.22731473 0.028491775 -0.15371263
-0.14407901 -0.04714034 -0.12856147 -0.29681644 -0.14264679 -0.024964608 -0.31840968 0.21008003
0.2431568 0.08996203 0.034149844 -0.5336867 -0.43999407 -0.12525854 0.0065706437 -0.06501267
-0.054533057 0.05567358 0.17501228 0.30511376 0.029513165 -0.5675771 0.050437335 0.048927177
-0.034182884 0.09956376 -0.08243193 0.15282415 -0.2556639 0.022054939 0.0723749 0.07341814
-0.17338651 -0.20188008 0.01279746 -0.08096304 0.10226819 -0.28831533 -0.56948686 -0.103388704
-0.052639436 0.1993715 -0.19784668 0.1285527 0.013558158 0.034989204 -0.16124949 -0.16895321
-0.010072865 0.06895686 0.020340268 -0.5629318 0.03384781 -0.49025628 0.031667877 0.13908947
-0.06140583 -0.05980903 -0.055664554 -0.046126503 -0.002323213 -0.04848445 0.021407485 0.042645685
-0.009511071 -0.00938073 -0.06437628 -0.11796675 -0.0067549543 -0.072716266 -0.108683795 -0.061715696
-0.08765347 -0.12001572 -0.081710584 0.042888436 -0.12541732 0.0060305055 -0.084956445 0.022937136
-0.032752458 -0.0379163 -0.02708536 -0.077526234 -0.097748004 -0.042773515 -0.0073657115 -0.07385829
-0.07395296 -0.05856099 -0.0443032 -0.054178447 0.004638344 -0.018967777 -0.070944615 -0.07303782
0.07849728 0.0014796738 0.0023514323 0.009558812 0.059018426 -0.10646747 -0.06753407 -0.11582167
-0.10427453 -0.06941916 -0.028747676 -0.11442327 -0.0140749365 0.0025330912 -0.11415532 -0.009209947
-0.015577358 -0.077720486 0.049331326 -0.10940504 0.04657864 0.010620561 -0.05484953 -0.03494683
0.04443075 0.0120789455 -0.08237526 -0.035023365 -0.024249867 0.04829905 -0.07754459 -0.034180176
0.039344218 -0.07958229 0.0021670721 -0.07741135 -0.07725439 -0.12314217 -0.027355667 -0.03286951
-0.044622682 -0.005033838 -0.000297699 -0.063339554 0.035877697 0.034933403 -0.0110730985 -0.03440077
0.0074495864 0.026683904 -0.023700574 -0.106420316 0.007291824 -0.038013425 0.04644826 0.021113936
0.015683208 -0.103717856 -0.0916417 -0.12695503 -0.11701237 -0.03601365 0.04195877 -0.01304517
-0.09667434 0.008419899 -0.09880147 0.036375757 0.050793897 -0.02670002 0.0063454956 -0.02800785
-0.03850939 0.0435305 0.016264068 0.030139197 -0.009700287 -0.07508193 0.025757436 -0.13164258
0.04969754 -0.019489182 -0.10772815 -0.09995276 -0.047450107 0.048905816 0.01869517 -0.05947017
00000000: 0e86 3a3e 8174 193b 0e56 1ebe b27d 87be
00000010: c45f a13e a0a8 09bf 256d cf3c d36b 5f3e
00000020: 8b8e 813d 1c14 0ebf d1b2 72bc 1e60 68be
00000030: aebb 1d3d c0ac d5bd d73c a9be bd4f 83bd
00000040: 2258 383d e8fb bc3d 4987 64bd c963 cf3c
00000050: 9e31 a43d ed31 f7bd 95c9 533d 657a b9be
00000060: f3de 97be ccae 7cbc bf5f 6dbe 14f9 803e
00000070: be4b a93e 89af e03d c8d5 bb3d e9f3 c6be
00000080: 5e54 f53d 5788 4e3b fe28 843e 8d74 bc3b
00000090: a334 8d3d 1344 b3be 99af e43d 7570 833d
000000a0: 1f05 e0be 28fa 36be a4f5 b63c b22e dcba
000000b0: 17d3 2f3e 06c6 57be b341 983d 835a 94bd
000000c0: 3e0b b0bd 35ab 28bf 1666 a3be e266 04bc
000000d0: e947 e93e cdd1 c63e 83eb a4be 5569 6ebe
000000e0: 6540 983e 903f 443e 5e80 0dbe 8c55 1c3e
000000f0: 2a6f 853e 240d dfbc c851 98be 845e c23d
00000100: 6f3f cc3c 4343 813e d1c2 0b3e 6f61 04bd
00000110: 828c 463d 31c5 68be 9567 e93c d866 1dbe
00000120: 7389 13be 3b16 41bd 9ea5 03be 53f8 97be
00000130: 0012 12be 9482 ccbc 9806 a3be 381f 573e
00000140: 19fe 783e 033e b83d b5e0 0b3d b19f 08bf
00000150: e746 e1be c643 00be 8e4e d73b 5d25 85bd
00000160: 0e5e 5fbd fb09 643d 6b36 333e df37 9c3e
00000170: 98c5 f13c bc4c 11bf 6197 4e3d dd67 483d
00000180: 5a03 0cbd 16e8 cb3d 12d2 a8bd ef7d 1c3e
00000190: 61e6 82be 8fac b43c 4b39 943d 405c 963d
000001a0: 3c8c 31be a7b9 4ebe 70ac 513c f3cf a5bd
000001b0: fc71 d13d 119e 93be e4c9 11bf 75bd d3bd
000001c0: 739c 57bd 0b28 4c3e 5298 4abe 52a3 033e
000001d0: 0923 5e3c d750 0f3d 961e 25be 1202 2dbe
000001e0: a808 25bc 4139 8d3d a2a0 a63c 4c1c 10bf
000001f0: 00a4 0a3d df02 fbbe 2db6 013d 786d 0e3e
00000200: ae84 7bbd 50fa 74bd 8400 64bd 25ef 3cbd
00000210: 0c41 18bb a197 46bd c05e af3c 3ead 2e3d
00000220: 53d4 1bbc a2b1 19bc b6d7 83bd 8d98 f1bd
00000230: aa58 ddbb 44ec 94bd 9c95 debd 99c9 7cbd
00000240: aa83 b3bd cdca f5bd e157 a7bd c9ab 2f3d
00000250: 666d 00be 8c9b c53b a5fd adbd a9e6 bb3c
00000260: 7127 06bd 1f4e 1bbd 1ee2 ddbc 13c6 9ebd
00000270: 1b30 c8bd 4833 2fbd 115c f1bb 0443 97bd
00000280: a674 97bd a6dd 6fbd 4677 35bd 38ea 5dbd
00000290: 40fd 973b 5062 9bbc 694b 91bd da94 95bd
000002a0: 2fc3 a03d 9df1 c13a 7d1a 1a3b 909c 1c3c
000002b0: 4ebd 713d 9e0b dabd 4d4f 8abd e933 edbd
000002c0: e38d d5bd a22b 8ebd 3f80 ebbc bf56 eabd
000002d0: 909a 66bc 3802 263b 44ca e9bd 51e5 16bc
000002e0: 2d38 7fbc eb2b 9fbd a50f 4a3d c00f e0bd
000002f0: 3ec9 3e3d dd01 2e3c e7a9 60bd 6824 0fbd
00000300: 05fd 353d c5e6 453c 5cb4 a8bd a974 0fbd
00000310: a8a7 c6bc 3ad5 453d b3cf 9ebd 8300 0cbd
00000320: 6727 213d 0afc a2bd 7005 0e3b d889 9ebd
00000330: 8d37 9ebd f631 fcbd fe18 e0bc 2ea2 06bd
00000340: 46c6 36bd e5f2 a4bb 7c14 9cb9 2bb8 81bd
00000350: 7ef4 123d 5416 0f3d f16b 35bc d2e7 0cbd
00000360: a91b f43b 3498 da3c b527 c2bc e5f2 d9bd
00000370: 41f0 ee3b f7b3 1bbd 8840 3e3d 22f7 ac3c
00000380: 127a 803c 076a d4bd a5ae bbbd 8000 02be
00000390: 2ea4 efbd 0d83 13bd f6dc 2b3d 69bb 55bc
000003a0: 32fd c5bd 9ef3 093c 6d58 cabd bffe 143d
000003b0: 430d 503d 00ba dabc e0ed cf3b b870 e5bc
000003c0: 06bc 1dbd 0a4d 323d 393c 853c 7ae6 f63c
000003d0: f4ed 1ebc 8ec4 99bd 4201 d33c 50cd 06be
000003e0: a68f 4b3d c7a7 9fbc 94a0 dcbd 08b4 ccbd
000003f0: 0b5b 42bd 7751 483d 9d26 993c fe96 73bd

_policy.2.bias f4 [128]
-0.14931688 -0.16791528 -0.056446865 0.039594106 -0.06258443 0.12672387 0.07447493 0.0952722
-0.05849409 0.12703176 -0.071057335 0.047921505 0.056036234 0.08792282 0.08043065 0.048999447
0.07318542 0.14500211 0.17515065 0.008377478 -0.08902058 -0.09066921 0.03415385 0.052117992
-0.059448753 -0.016487295 0.09552342 -0.12673151 -0.16488579 0.100798056 -0.10431864 -0.052863438
-0.08086048 -0.01574289 -0.04881931 -0.009780367 -0.06524205 -0.02561618 0.0015773567 -0.1761214
0.09289987 -0.14464517 0.05156143 -0.08257281 -0.08255449 0.08437341 -0.03905009 -0.11182349
0.025930297 -0.110869974 -0.0639214 0.1285108 0.033435915 -0.10067511 0.04075964 0.018508866
-0.015538326 -0.14277834 0.010315922 -0.15569997 -0.00863895 0.07929524 -0.1460509 -0.015780037
-0.08341561 -0.08000268 0.066533774 0.029336497 -0.110257596 -0.16675423 -0.041945357 -0.20930801
-0.1105119 -0.15233037 0.04093394 -0.03861682 0.1426669 -0.1328598 0.013391415 -0.0028560506
-0.011107417 -0.036184996 0.047181245 0.04791804 -0.02559298 0.14081672 0.0303681 -0.09453986
-0.1063821 0.11940661 -0.18102935 0.03361712 -0.023335328 0.056861475 -0.20399939 -0.1319618
0.027085798 0.03526694 0.009030093 -0.07638407 -0.15547337 -0.07510165 0.012247536 0.12362188
-0.03683309 0.07856704 -0.16011329 -0.0030788586 -0.17252594 -0.13088652 -0.082726404 0.08313914
0.07433147 0.1607238 -0.087764814 0.04733993 -0.085013166 0.04454562 -0.10492259 0.06263974
-0.08955695 -0.13724881 -0.026004752 -0.09936926 -0.13242422 -0.019389015 -0.055542413 0.09931237
00000000: 86e6 18be fcf1 2bbe d434 67bd 6e2d 223d
00000010: 442c 80bd e7c3 013e 5086 983d 121e c33d
00000020: 8097 6fbd 9d14 023e 8286 91bd 5749 443d
00000030: 4086 653d e110 b43d d3b8 a43d a5b3 483d
00000040: 3de2 953d 6f7b 143e b15a 333e b141 093c
00000050: 6c50 b6bd c7b0 b9bd e8e4 0b3d ad79 553d
00000060: 8980 73bd 5d10 87bc c8a1 c33d e8c5 01be
00000070: d2d7 28be 366f ce3d 03a5 d5bd 5587 58bd
00000080: 2e9a a5bd 3cf7 80bc c2f6 47bd d53d 20bc
00000090: a09d 85bd 06d9 d1bc 4fbf ce3a 2b59 34be
000000a0: 4942 be3d dd1d 14be 1432 533d ef1b a9bd
000000b0: 5412 a9bd f7cb ac3d fdf2 1fbd b703 e5bd
000000c0: c66b d43c cc0f e3bd 39e9 82bd 5698 033e
000000d0: 19f4 083d c12e cebd 95f3 263d e89f 973c
000000e0: 7794 7ebc 7c34 12be 1d04 293c d06f 1fbe
000000f0: 628a 0dbc 8b65 a23d 5e8e 15be 2345 81bc
00000100: ced5 aabd 72d8 a3bd dc42 883d 1853 f03c
00000110: bcce e1bd 9fc1 2abe e5ce 2bbd d754 56be
00000120: 1054 e2bd 7efc 1bbe 59aa 273d ac2c 1ebd
00000130: 4617 123e 660c 08be aa67 5b3c 942c 3bbb
00000140: e2fb 35bc b836 14bd 1f41 413d b545 443d
00000150: 5fa8 d1bc 4232 103e 86c6 f83c 1d9e c1bd
00000160: dcde d9bd 748b f43d c25f 39be 1bb2 093d
00000170: bb29 bfbc 94e7 683d 37e5 50be fe20 07be
00000180: 09e3 dd3c 1174 103d f5f2 133c 406f 9cbd
00000190: 6934 1fbe e5ce 99bd e4a9 483c 782d fd3d
000001a0: 4bde 16bd c2e7 a03d bdf4 23be adc6 49bb
000001b0: a4aa 30be 1e07 06be 766c a9bd da44 aa3d
000001c0: 193b 983d c894 243e 0abe b3bd 84e7 413d
000001d0: 621b aebd 7875 363d a8e1 d6bd 4449 803d
000001e0: a269 b7bd f48a 0cbe eb07 d5bc 1c82 cbbd
000001f0: 379a 07be b6d5 9ebc 7180 63bd 4964 cb3d

_policy.4.weight f4 [128, 128]
-0.04688955 -0.048411682 -0.07204453 -0.033745285 0.07386958 0.054854166 0.24849936 0.26610613
-0.029184043 0.16469666 -0.065031864 -0.13739057 -0.18219288 0.31012008 -0.09515701 0.17023148
-0.18423691 0.14152345 -0.35543314 -0.07270433 -0.12196769 -0.2283886 -0.081644 0.11940778
0.04006483 -0.14659138 -0.03470982 -0.010259341 0.058216315 -0.08969639 0.13673629 -0.4026069
-0.33111665 -0.04570166 0.17442597 -0.17221056 -0.012556805 -0.010121655 -0.111408085 -0.02766528
-0.3669788 0.008938485 0.012305231 -0.1703236 -0.102571964 0.1490623 -0.04357747 -0.08056961
0.19369747 0.0466005 -0.2395748 0.05730896 0.12046846 0.05251213 -0.47449866 0.121665925
0.14669321 -0.034140863 0.12741241 0.135874 -0.11060948 -0.013501142 -0.27167425 -0.04814862
0.015324806 -0.46291822 -0.17884988 -0.26405892 0.00932322 -0.2686608 0.057049006 -0.27679127
0.12818371 -0.07527728 -0.18305519 0.25406677 0.3550225 0.21402913 -0.13150118 -0.34265262
-0.72442275 -0.0096451845 -0.2896917 0.07196451 0.025322998 0.012708875 -0.18084577 -0.5042389
0.05334367 -0.060099766 0.33362293 -0.15036254 0.28702295 -0.13957648 -0.3448803 0.045693617
0.2849889 -0.005941758 -0.19729595 -0.008800607 -0.48924994 0.3501078 0.17574732 -0.0114164045
-0.048116058 0.4015695 -0.15839745 0.07221763 0.11487242 0.3273748 0.08774827 0.036790863
-0.30604792 -0.28525317 0.2778839 -0.045647804 -0.23894903 -0.26825753 0.2328741 -0.053153224
0.11001944 -0.223464 -0.01633522 -0.6307758 -0.026807543 0.3338959 -0.18839785 0.16983756
-0.0919518 0.057888754 -0.20299457 -0.0783806 0.13471912 0.21418317 0.06948704 -0.32636005
0.020481285 -0.022237295 0.048101153 -0.043296926 -0.29902953 0.29260722 0.094587415 -0.20605999
-0.13462478 0.2194821 0.23657596 -0.029585859 -0.5627186 0.12163717 -0.04551238 -0.36271286
-0.1988781 0.34820133 0.12800345 0.023628823 -0.011369348 0.08989192 0.17042553 0.10124128
0.03466061 -0.071378455 -0.18821844 -0.13495131 -0.085896835 -0.28162873 -0.009097781 -0.06712038
-0.129217 -0.26939997 -0.30519223 0.117686234 -0.07893829 -0.107251264 -1.0929043 0.28030467
0.14422284 -0.056829978 0.004268428 -0.111634076 -0.29561907 0.17707947 -0.23563011 0.49191928
-0.2832551 -0.044029694 -0.124573946 -0.0460836 0.13032293 -0.21214588 -0.50649524 -0.10000564
-0.086523645 0.025717754 -0.21922664 0.046313904 0.18711838 0.044282127 -0.026094502 -0.44250435
-0.044858586 0.030758418 -0.20216028 -0.3684745 0.14810619 -0.11463729 -0.33522546 -0.2541118
0.14857402 0.27423012 -0.677477 0.062553145 -0.07518636 -0.13318874 0.26303685 -0.23621339
-0.92378885 0.047084436 0.13021691 -0.048866455 0.01129228 -0.49155232 -0.3908988 -0.08624096
0.51258415 -0.6701852 0.3760431 0.04094316 -0.60477525 -0.17462455 -0.04342864 0.039377384
-0.005891544 -0.030457946 -0.6617862 0.08459914 0.03575267 0.07723856 -0.04762399 -0.3078359
0.09791472 -0.14028905 -0.023880549 -0.05532309 -0.25738525 0.06405684 -0.08622531 0.024853555
-0.35622674 -0.04282687 -0.11440405 -0.117013656 -0.025772028 0.12355515 -0.08068384 0.24458678
00000000: 420f 40bd 544b 46bd 158c 93bd 7f38 0abd
00000010: ef48 973d c3ae 603d 9e76 7e3e 103f 883e
00000020: 6013 efbc 3ea6 283e 6d2f 85bd 1db0 0cbe
00000030: c590 3abe 0fc8 9e3e aee1 c2bd 2951 2e3e
00000040: 9aa8 3cbe 86eb 103e 55fb b5be 02e6 94bd
00000050: 32ca f9bd b3de 69be f834 a7bd 118c f43d
00000060: 051b 243d 0d1c 16be e22b 0ebd cc16 28bc
00000070: 3b74 6e3d beb2 b7bd 9904 0c3e 7e22 cebe
00000080: 1f88 a9be aa31 3bbd b99c 323e f757 30be
00000090: 0fbb 4dbc 4cd5 25bc ec29 e4bd 4ca2 e2bc
000000a0: a5e4 bbbe b972 123c e19b 493c 4f69 2ebe
000000b0: 4011 d2bd caa3 183e 4a7e 32bd ae01 a5bd
000000c0: a158 463e 2ae0 3e3d 1953 75be cdbc 6a3d
000000d0: 2bb8 f63d f616 573d 7df1 f2be fc2b f93d
000000e0: bf36 163e 4ad7 0bbd 6678 023e 8e22 0b3e
000000f0: 3987 e2bd e533 5dbc e318 8bbe 7d37 45bd
00000100: e514 7b3c 9e03 edbe 6c24 37be bb32 87be
00000110: 6bc0 183c e98d 89be 38ac 693d 96b7 8dbe
00000120: 9742 033e f92a 9abd d272 3bbe 0a15 823e
00000130: 82c5 b53e 742a 5b3e 3fa8 06be 2a70 afbe
00000140: c573 39bf d606 1ebc 7852 94be 2162 933d
00000150: 2d72 cf3c e338 503c a22f 39be cd15 01bf
00000160: e47e 5a3d 2c2b 76bd a0d0 aa3e a3f8 19be
00000170: acf4 923e 23ed 0ebe 2794 b0be 3b29 3b3d
00000180: 11ea 913e 14b3 c2bb f307 4abe 6c30 10bc
00000190: f87e fabe 5441 b33e 1bf7 333e df0b 3bbc
000001a0: 5815 45bd 849a cd3e f132 22be d6e6 933d
000001b0: 3b42 eb3d ab9d a73e 5db5 b33d 04b2 163d
000001c0: 50b2 9cbe b40c 92be cc46 8e3e 31f9 3abd
000001d0: 0eaf 74be 0d59 89be 8c76 6e3e 32b7 59bd
000001e0: df51 e13d bfd3 64be 70d1 85bc 867a 21bf
000001f0: 7e9b dbbc 67f4 aa3e 5eeb 40be e6e9 2d3e
00000200: 3a51 bcbd c21c 6d3d cfdd 4fbe 0286 a0bd
00000210: cff3 093e d552 5b3e 394f 8e3d aa18 a7be
00000220: 5ec8 a73c fd2a b6bc b705 453d 1e58 31bd
00000230: 661a 99be 9dd0 953e 0cb7 c13d 6401 53be
00000240: 14db 09be eabf 603e f840 723e 0b5e f2bc
00000250: 530e 10bf e91c f93d 306b 3abd 80b5 b9be
00000260: b3a6 4bbe 7247 b23e 5613 033e 3c91 c13c
00000270: 8046 3abc 4119 b83d 0884 2e3e 9757 cf3d
00000280: 49f8 0d3d de2e 92bd 56bc 40be ad30 0abe
00000290: aeea afbd a431 90be dc0e 15bc 6976 89bd
000002a0: 7651 04be cbee 89be 2842 9cbe 7b05 f13d
000002b0: 66aa a1bd 8da6 dbbd 4ae4 8bbf 1884 8f3e
000002c0: 27af 133e 8dc6 68bd 2bde 8b3b 68a0 e4bd
000002d0: 625b 97be 5254 353e 0549 71be d8dc fb3e
000002e0: d006 91be 7b58 34bd a020 ffbd 28c2 3cbd
000002f0: 6073 053e c53c 59be aca9 01bf c2cf ccbd
00000300: 4f33 b1bd 0aae d23c f37c 60be a6b3 3d3d
00000310: f69b 3f3e 2d61 353d 23c4 d5bc ee8f e2be
00000320: a3bd 37bd 14f9 fb3c 1b03 4fbe b1a8 bcbe
00000330: 26a9 173e f5c6 eabd aca2 abbe f11a 82be
00000340: ca23 183e e467 8c3e 226f 2dbf dd1b 803d
00000350: 4efb 99bd a162 08be c4ac 863e ece1 71be
00000360: 6d7d 6cbf 9cdb 403d 9557 053e 3128 48bd
00000370: 4103 393c bfac fbbe e323 c8be 1a9f b0bd
00000380: b738 033f 4291 2bbf b988 c03e 04b4 273d
00000390: 8dd2 1abf c7d0 32be 3be2 31bd 2e4a 213d
000003a0: da0d c1bb f182 f9bc d26a 29bf 5042 ad3d
000003b0: 6471 123d 402f 9e3d 5f11 43bd ab9c 9dbe
000003c0: 8387 c83d efa7 0fbe 24a1 c3bc 779a 62bd
000003d0: 00c8 83be 3c30 833d e596 b0bd af99 cb3c
000003e0: 5a63 b6be 3a6b 2fbd ac4c eabd dba4 efbd
000003f0: dc1f d3bc 7c0a fd3d 923d a5bd f574 7a3e

_policy.4.bias f4 [128]
0.049617335 0.013050452 0.14241806 -0.13890809 -0.078769624 -0.18690859 -0.110663615 -0.20386593
-0.18551086 -0.08628776 0.048816044 0.21758652 -0.1493961 -0.1027831 0.10044451 0.11534598
-0.31665456 0.046972547 -0.45034227 -0.25439635 -0.016314512 0.11259253 -0.10206255 -0.07817076
-0.009895992 -0.10047181 -0.19603653 -0.07617392 0.0069033545 -0.029666781 -0.25070956 0.07461592
0.03271841 0.19010827 -0.46773022 -0.2563181 0.04440538 -0.40395257 -0.019315042 -0.17076999
0.011629614 0.015905784 -0.10372849 -0.19483554 0.021270772 -0.17336278 -0.15741974 -0.06481316
0.08947454 0.13010268 -0.100162506 -0.050974067 0.109727375 -0.21995711 0.14818461 -0.051540017
-0.16079783 -0.13074496 -0.17745738 0.006938944 -0.07006462 -0.15323375 -0.21349998 0.0054301666
0.07421785 -0.044340797 -0.022400454 -0.057425253 -0.18437353 -0.10326482 -0.057413477 -0.07122182
-0.24815847 -0.12123405 -0.049799185 -0.14258692 0.074793614 0.052809004 -0.010143263 0.10772364
-0.18652338 -0.05983692 -0.062137824 -0.12028355 -0.25068125 0.28585762 0.081944704 -0.10405784
-0.23757593 -0.097056955 0.22036779 -0.13302246 -0.021897335 -0.085198306 -0.16365336 -0.017283823
-0.39141333 -0.06939388 -0.0098132035 0.06797895 0.1002131 -0.18318564 -0.20165771 0.11248442
-0.1687023 0.17215621 0.12459441 -0.0025973376 -0.14486846 0.015544838 -0.1348018 0.026211753
-0.23816782 -0.05070427 -0.050620537 0.036575735 0.099212304 -0.3328896 -0.058273893 -0.30894136
-0.07127517 -0.14868578 -0.07728261 0.019871267 -0.04379543 -0.21084847 0.027141487 0.06892087
00000000: 8c3b 4b3d 90d1 553c 0ad6 113e ec3d 0ebe
00000010: f851 a1bd f764 3fbe 9ba3 e2bd 3bc2 50be
00000020: 8ff6 3dbe a3b7 b0bd 55f3 473d 00cf 5e3e
00000030: 4bfb 18be f27f d2bd dab5 cd3d 833a ec3d
00000040: 8c20 a2be 4966 403d 4393 e6be 3d40 82be
00000050: 03a6 85bc ea96 e63d 2c06 d1bd fe17 a0bd
00000060: cd22 22bc 2ac4 cdbd cdbd 48be 1201 9cbd
00000070: 8935 e23b c007 f3bc 015d 80be 3bd0 983d
00000080: bd03 063d beab 423e 567a efbe 203c 83be
00000090: 6ae2 353d dfd2 cebe 943a 9ebc 54de 2ebe
000000a0: 238a 3e3c d94c 823c 9a6f d4bd f882 47be
000000b0: 0b40 ae3c 0386 31be a432 21be c3bc 84bd
000000c0: 6d3e b73d a339 053e 0022 cdbd 2fca 50bd
000000d0: bfb8 e03d 703c 61be b5bd 173e a01b 53bd
000000e0: 30a8 24be 02e2 05be 63b7 35be 1560 e33b
000000f0: 0a7e 8fbd 4fe9 1cbe bd9f 5abe 8aef b13b
00000100: 87ff 973d b29e 35bd 2881 b7bc be36 6bbd
00000110: 6acc 3cbe 827c d3bd 652a 6bbd bfdc 91bd
00000120: 411d 7ebe 8f49 f8bd 3bfa 4bbd 4e02 12be
00000130: 652d 993d 414e 583d ee2f 26bc 369e dc3d
00000140: fcff 3ebe 8f17 75bd 3b84 7ebd 3957 f6bd
00000150: 4b59 80be ee5b 923e a0d2 a73d 471c d5bd
00000160: 1b47 73be ccc5 c6bd 18a8 613e 0a37 08be
00000170: 0a62 b3bc 737c aebd bf94 27be ce96 8dbc
00000180: 5467 c8be 611e 8ebd 8fc7 20bc 8c38 8b3d
00000190: 873c cd3d 0495 3bbe 5c7f 4ebe 3b5e e63d
000001a0: 4cc0 2cbe b849 303e 5b2b ff3d 1838 2abb
000001b0: 6658 14be c7af 7e3c 7c09 0abe 08ba d63c
000001c0: 44e2 73be 48af 4fbd 7b57 4fbd 70d0 153d
000001d0: d22f cb3d 8170 aabe 9bb0 6ebd 902d 9ebe
000001e0: b7f8 91bd 1641 18be 5846 9ebd 11c9 a23c
000001f0: d662 33bd a9e8 57be d357 de3c 6326 8d3d

_policy.6.weight f4 [128, 128]
-0.3543533 0.031908374 -0.17723247 -0.026852401 -0.009766023 -0.8599102 0.13442138 0.43404466
-0.4730939 -0.089980714 0.3121618 -0.15692075 -0.11074671 0.42047536 -0.3196409 -0.13245675
-0.1633609 -0.11095367 0.22853096 -0.22862014 0.20714432 0.06723596 -0.044195242 -0.087697655
-0.24888477 -0.115483746 -0.5158586 0.081667945 -0.23072357 -0.03622391 0.2096769 0.33799255
0.09372636 0.18035689 0.34190047 0.2918619 0.13658929 -0.18420744 0.25627628 -0.16993865
-0.52609164 -0.015241563 0.10616493 0.29141325 -0.19624855 -0.43420145 -0.18690124 -0.28251687
-0.19958009 0.06855025 -0.05576681 0.033198196 0.20135586 -0.025824806 -0.20293215 -0.5792322
-0.19266519 -0.08575274 -0.109510064 -0.1166993 0.19024132 -0.18865395 -0.029224059 -0.020125413
-0.9514602 0.2468113 -0.10054023 -0.36521223 0.057771146 0.099331066 0.28044325 0.055173803
0.28038037 -0.08966306 -0.20519333 0.17812742 0.4130537 -0.15468682 0.4276741 0.030134795
-0.13881338 -0.118057266 -0.21901307 -0.41156065 -0.047262657 -0.12410951 -0.15457709 -0.01729616
-0.03449842 -0.17404027 0.312756 -0.07541395 0.19098066 -0.052203402 -0.23127651 -0.5564999
-0.017025348 -0.050553717 -0.020316884 -0.7568548 0.031626113 0.02258989 -0.32509992 0.42902222
-0.07676384 -0.038033046 0.11940858 0.2679133 -0.32174197 -0.39860848 -0.04820053 -0.11647663
0.08099663 -0.075847365 -0.10808709 0.26818237 0.10652439 0.18485025 -0.0036653038 0.11118258
0.29031163 0.002540973 0.20756635 -0.38619235 -0.35970077 0.16614375 -0.23202302 -0.051971395
-0.023481969 0.24583177 -0.3433604 0.1077656 -0.42439273 -0.041944295 -0.5711545 -0.027281336
-0.083367296 -0.055577885 -0.16544612 -0.07195514 -0.29254737 0.02578361 -0.34009606 -0.5268316
0.08476235 -0.1773096 -0.7151463 0.01982148 0.07282903 -0.33936945 -0.09893953 0.10362885
-0.044868346 -0.28992596 0.017592786 0.10475161 -0.32468283 -0.36328685 -0.05104781 0.11524395
-0.6040482 0.06355956 0.2569059 0.21527822 -0.05171947 -0.019132605 -0.096513875 0.08034969
-0.006711338 -0.20603368 -1.0202448 -0.22728078 0.3962417 -0.35653722 -0.5316193 -0.07286307
-0.44982058 0.045848984 -0.7266044 -0.29539144 0.1571312 -0.45994413 -0.14834674 0.26531702
0.0026358734 0.17642805 -0.17730026 -0.06765712 -0.27238265 0.01899965 0.1044975 -0.041070275
-0.036480285 0.36488473 -0.3608958 0.03674168 -0.627861 -0.49353522 -0.28408584 0.2525647
-0.5685068 -0.021413855 0.07535143 -0.19923809 0.1418632 -0.8944942 -0.37082946 0.16341697
-0.1123199 0.16669871 -0.42126876 -0.37631032 0.14369546 -0.015854053 0.3119339 -0.52779686
0.29215437 -0.43037882 -0.23281907 0.08777117 0.28508413 0.040392116 0.039614484 0.17243792
0.0804627 -0.13162786 -0.05870963 0.07662895 -0.73556954 -0.017545924 -0.31895575 0.11426248
0.19409944 -0.38257718 0.1319145 0.007874626 -0.16797714 -0.70038086 0.44529662 -0.24394606
-0.10098848 -0.097130746 -0.32925192 -0.15923555 -0.3549867 -0.06465475 -0.12996316 -0.37856576
-0.10046315 -1.0051055 -0.09049566 0.17104416 -0.46518165 -0.36677435 -0.060829904 -1.1434888
00000000: cc6d b5be 5bb2 023d 6e7c 35be 91f9 dbbc
00000010: ab01 20bc 1323 5cbf c2a5 093e 1a3b de3e
00000020: 5d39 f2be cf47 b8bd acd3 9f3e d5af 20be
00000030: 2ccf e2bd 8c48 d73e f9a7 a3be bea2 07be
00000040: 1448 27be ae3b e3bd 0504 6a3e 661b 6abe
00000050: a41d 543e 02b3 893d 1206 35bd d49a b3bd
00000060: a6db 7ebe be82 ecbd 4f0f 04bf 8641 a73d
00000070: cd42 6cbe 865f 14bd 8bb5 563e 5c0d ad3e
00000080: 9bf3 bf3d 7aaf 383e 940d af3e ec6e 953e
00000090: 10de 0b3e e0a0 3cbe a536 833e 6604 2ebe
000000a0: f1ad 06bf c0b7 79bc 006d d93d 1e34 953e
000000b0: 61f5 48be a74f debe 0a63 3fbe 0da6 90be
000000c0: b95e 4cbe 1364 8c3d bd6b 64bd d5fa 073d
000000d0: 3b30 4e3e 8b8e d3bc 72cd 4fbe 9048 14bf
000000e0: 064a 45be 229f afbd d046 e0bd 0b00 efbd
000000f0: 9fce 423e 802e 41be 4b67 efbc 0dde a4bc
00000100: e592 73bf 1abc 7c3e 09e8 cdbd 19fd babe
00000110: 70a1 6c3d 166e cb3d 4296 8f3e edfd 613d
00000120: 048e 8f3e 44a1 b7bd 331e 52be 0967 363e
00000130: c67b d33e 3966 1ebe 1af8 da3e 3fdd f63c
00000140: 1825 0ebe 02c8 f1bd f644 60be 14b8 d2be
00000150: 7d96 41bd 202d febd 7549 1ebe adb0 8dbc
00000160: 374e 0dbd 9d37 32be 8e21 a03e a172 9abd
00000170: 6f90 433e 3cd3 55bd c0d3 6cbe c776 0ebf
00000180: be78 8bbc 6a11 4fbd 986f a6bc 3cc1 41bf
00000190: 628a 013d 6f0e b93c 7f73 a6be cda8 db3e
000001a0: 5c36 9dbd 8ac8 1bbd 7c8c f43d ef2b 893e
000001b0: 5dbb a4be 6916 ccbe eb6d 45bd 4d8b eebd
000001c0: 90e1 a53d dd55 9bbd c45c ddbd 334f 893e
000001d0: 7629 da3d 6249 3d3e 9835 70bb b1b3 e33d
000001e0: baa3 943e 7486 263b 468c 543e 01bb c5be
000001f0: b32a b8be 9621 2a3e 7197 6dbe f5df 54bd
00000200: 425d c0bc 53bb 7b3e efcc afbe 36b4 dc3d
00000210: 014a d9be c8cd 2bbd 2e37 12bf 1c7d dfbc
00000220: 79bc aabd a3a5 63bd b56a 29be 375d 93bd
00000230: c5c8 95be 2638 d33c 1221 aebe 70de 06bf
00000240: e297 ad3d a690 35be d413 37bf a860 a23c
00000250: 6327 953d d5c1 adbe cfa0 cabd 5d3b d43d
00000260: dfc7 37bd 2d71 94be bf1e 903c 0388 d63d
00000270: d43c a6be bc00 babe 8217 51bd 0505 ec3d
00000280: e7a2 1abf 842b 823d 2c89 833e e571 5c3e
00000290: ccd7 53bd fbbb 9cbc 11a9 c5bd 618e a43d
000002a0: c9ea dbbb 7efa 52be 6297 82bf 4bbc 68be
000002b0: 31e0 ca3e 0c8c b6be 3418 08bf 3c39 95bd
000002c0: e24e e6be 25cc 3b3d bf02 3abf 8c3d 97be
000002d0: 00e7 203e cc7d ebbe 35e8 17be a2d7 873e
000002e0: 9ebe 2c3b 8ea9 343e 338e 35be d18f 8abd
000002f0: bd75 8bbe 27a5 9b3c c902 d63d 4e39 28bd
00000300: 5a6c 15bd 2cd2 ba3e 56c7 b8be 727e 163d
00000310: 80bb 20bf a6b0 fcbe b373 91be 2950 813e
00000320: a989 11bf 1c6c afbc da51 9a3d 1205 4cbe
00000330: 9644 113e 92fd 64bf 5cdd bdbe c756 273e
00000340: fa07 e6bd 11b3 2a3e 8ab0 d7be bfab c0be
00000350: e724 133e 5ce0 81bc cdb5 9f3e b21d 07bf
00000360: 4295 953e 9d5a dcbe 1f68 6ebe 5fc1 b33d
00000370: 8cf6 913e 3472 253d cc42 223d 9193 303e
00000380: a1c9 a43d 74c9 06be 8279 70bd a4ef 9c3d
00000390: 494e 3cbf 78bc 8fbc 2b4e a3be 7202 ea3d
000003a0: 01c2 463e 28e1 c3be 9814 073e 9304 013c
000003b0: 3302 2cbe 294c 33bf ebfd e33e ffcc 79be
000003c0: 0cd3 cebd 7cec c6bd b593 a8be a50e 23be
000003d0: d1c0 b5be b669 84bd 1015 05be 5fd3 c1be
000003e0: a0bf cdbd 4ca7 80bf ca55 b9bd 3326 2f3e
000003f0: 4a2c eebe d9c9 bbbe c728 79bd d75d 92bf

_policy.6.bias f4 [128]
-0.14312613 -0.49045843 0.21960863 0.21391472 0.13418105 0.1528832 0.007034798 0.13487805
0.1421207 0.03401565 0.05984644 0.028437983 0.012090794 -0.15207586 0.27214813 0.1693361
0.041863978 0.060135722 -0.04027892 -0.0619058 0.25568742 0.17893848 0.2406223 0.05632696
0.17313892 0.11456042 0.053446956 0.15814207 -0.07796126 0.10446122 0.10457304 -0.17597185
0.15521908 -0.092143744 0.20424719 0.15043366 0.0033760315 0.18235606 0.07116016 -0.0016486349
-0.21415593 -0.10098986 0.27662814 0.009456645 0.09722044 -0.25637448 0.26330027 0.11446781
0.0929656 -0.028070047 0.08311189 0.068525545 0.06651904 0.068329014 0.005066399 0.095483385
0.052139692 0.38206196 0.0789229 0.16110812 -0.027539706 0.17904115 0.08901292 0.2431567
-0.097128674 0.1644616 0.23842189 0.18779482 0.0023325742 0.22774483 -0.14913493 0.08427786
0.041414358 0.13770941 -0.07041092 0.113432705 0.33695117 -0.2729254 0.11550421 0.0050975913
0.12977333 0.000940975 -0.1858929 -0.15046942 0.25869128 0.037926223 -0.29001385 0.059037503
0.1914408 0.12754802 -0.09086146 0.24460858 0.24214672 0.19664921 -0.055019308 -0.04065697
-0.069363035 0.18212308 0.10550471 -0.08412444 0.06530727 -0.083170734 -0.04670934 0.13697372
-0.013776097 0.2226931 0.11010982 0.118763775 -0.49224797 0.3341229 0.08029611 0.029842146
0.041667532 -0.12827455 0.02452726 0.043623835 0.13246301 0.19061007 -0.21281822 0.15650673
0.21348338 0.32681215 0.22421362 -0.028495256 0.30852777 -0.034887165 -0.088054284 0.014075738
00000000: a88f 12be 5e1d fbbe 16e1 603e 760c 5b3e
00000010: c266 093e 6a8d 1c3e 2a84 e63b 791d 0a3e
00000020: 1788 113e ff53 0b3d 8a21 753d c6f6 e83c
00000030: 7718 463c c6b9 1bbe 0057 8b3e 7166 2d3e
00000040: 9079 2b3d e050 763d 82fb 24bd f090 7dbd
00000050: 76e9 823e a63b 373e b165 763e 19b7 663d
00000060: 544b 313e a79e ea3d 32eb 5a3d ffef 213e
00000070: 27aa 9fbd c4ef d53d 642a d63d f731 34be
00000080: c0f1 1e3e dcb5 bcbd 2d26 513e 480b 1a3e
00000090: 6940 5d3b 8cbb 3a3e 6bbc 913d 0217 d8ba
000000a0: b14b 5bbe c6d3 cebd 34a2 8d3e 0bf0 1a3c
000000b0: 831b c73d 8443 83be 4bcf 863e 196e ea3d
000000c0: c064 be3d 28f3 e5bc 9136 aa3d 1f57 8c3d
000000d0: 223b 883d 15f0 8b3d 0904 a63b cb8c c33d
000000e0: 6e90 553d a09d c33e 54a2 a13d 87f9 243e
000000f0: f39a e1bc 9056 373e 684c b63d 12fe 783e
00000100: 66eb c6bd 9f68 283e de24 743e 494d 403e
00000110: 1ade 183b f135 693e d4b6 18be df99 ac3d
00000120: 1aa2 293d b203 0d3e 9a33 90bd 684f e83d
00000130: dd84 ac3e e1bc 8bbe 798d ec3d b209 a73b
00000140: 4de3 043e c3ab 763a b55a 3ebe a814 1abe
00000150: 2f73 843e 8758 1b3d b27c 94be 4fd1 713d
00000160: 0f09 443e f39b 023e 9315 babd ac7a 7a3e
00000170: 4ff5 773e 695e 493e ed5b 61bd ec87 26bd
00000180: 350e 8ebd 797e 3a3e da12 d83d 6f49 acbd
00000190: d1bf 853d 6b55 aabd 4b52 3fbd d742 0c3e
000001a0: 24b5 61bc a909 643e 4281 e13d 6c3a f33d
000001b0: ed07 fcbe 2812 ab3e 4972 a43d 8477 f43c
000001c0: 93ab 2a3d 675a 03be 64ed c83c e8ae 323d
000001d0: 62a4 073e 492f 433e 05ed 59be 4d43 203e
000001e0: 639b 5a3e ec53 a73e 4198 653e e26e e9bc
000001f0: 5af7 9d3e d8e5 0ebd ce55 b4bd ed9d 663c

_policy.8.weight f4 [3, 128]
-0.0019513399 0.065622956 -0.1545924 -0.498796 -0.4772767 -0.27646407 -0.6949283 -0.2531296
0.615006 -0.21730128 0.49324283 0.68506694 -0.12806825 -0.028502367 -0.71980184 -0.039789982
0.2535712 0.293076 -0.41227219 -0.05448357 -0.22993432 -0.15359016 0.10781521 0.22368914
-0.013669784 -0.3676524 0.25943452 -0.1724834 -0.69626 0.37038195 -0.100569166 0.035109136
-0.19727367 -0.033725727 -0.14270228 0.4302487 -0.49603269 0.4816263 -0.107387364 -0.22370557
0.49094427 -0.007084127 -0.0037438453 0.6419072 0.33059895 -0.41628972 0.79484427 0.15792945
-0.134609 -0.07222592 0.28490373 -0.26888317 -0.28950676 0.17884417 -0.09600827 -0.21029824
0.018159026 -0.34209993 0.18651801 0.2912311 -0.014819006 -0.14705746 -0.50419015 -0.03617768
0.28668895 0.21932423 0.7101484 -0.17162357 0.4453919 -0.17779334 0.57018316 0.11236228
-0.34433338 0.3264977 0.7782888 -0.077425614 -0.15504576 1.0314655 -0.064235434 0.49970108
-0.12130054 -0.20005725 -0.9164577 -0.03616102 -0.27885395 0.26017818 -1.035368 -0.10511493
-0.3710651 0.17516744 -0.25043103 -0.17062524 -0.16641179 -0.14675143 0.5050407 0.558572
-0.014208259 -0.087002054 0.114873216 -0.61466336 0.032924984 -0.13857265 -0.23468615 -0.32543534
-0.058182538 0.23860973 -0.35146677 0.72862583 0.2462749 0.34185046 -0.31311175 0.16770351
-0.28475532 -0.17751 0.2063133 0.20223175 -0.32857782 -0.47038332 1.0099276 -0.10297601
0.2892462 -0.25062662 -0.22689508 0.523818 0.44227454 0.1126774 0.38888156 -0.12255653
0.3148184 0.7103429 -0.12515526 0.47112146 0.49096707 -0.08672752 0.45458284 0.49131384
-0.3193093 0.4965213 -0.095992334 -0.16062719 -0.13793236 0.1420908 0.8190577 -0.22822893
-0.32879123 -0.18743578 0.27364403 0.3999396 0.40027514 0.26472783 -0.39878628 -0.14351507
-0.24180673 0.3127014 -0.3002969 -0.27415594 0.3614609 -0.29394975 0.27094248 0.041411135
0.3089831 -0.25916895 -0.60883045 -0.09223555 -0.016635723 -0.48066646 0.3788713 -0.06647414
0.009779305 0.31963387 0.44564894 -0.9418669 -0.35462746 0.5157563 -0.6123406 -0.1764771
-0.19041415 0.36789593 -0.021653874 0.26123896 0.29297176 -0.045240596 0.38470012 -0.117931835
0.22180332 0.33888447 0.13579054 -0.02986949 0.5677713 -0.09825498 0.63873225 0.20826837
-0.5677333 -0.05390138 -0.15261833 0.32927078 -0.03639855 -0.46713448 0.0962314 0.4715298
0.031549927 -0.4079455 -0.06743433 -0.21145687 0.2840018 -1.0020725 -0.31047836 -0.5751566
-0.20589545 -0.12813017 0.6617277 0.2460644 0.29286203 0.11830751 0.3017972 -0.09261793
0.46438816 -0.21916299 0.13794124 -0.3150107 -0.3073464 -0.31975803 -0.5321253 -0.18927658
-0.5683374 0.33336002 -0.05692057 0.21123497 -0.7119679 -0.19902314 0.10275578 -0.020534718
-0.16610685 -0.06905429 -0.19399267 -0.7434076 0.5660226 -0.31865677 0.11767794 -0.23191696
0.26373956 0.6286075 0.14956251 0.15229656 -0.09393401 0.09362127 -1.3911989 -0.37021643
-0.2718874 0.17352597 0.45215797 -0.48880774 -0.31688827 0.072892606 0.16429015 -0.24560235
00000000: 1ac4 ffba 5465 863d 784d 1ebe 3062 ffbe
00000010: 9d5d f4be b38c 8dbe d2e6 31bf 349a 81be
00000020: 0971 1d3f 3a84 5ebe 538a fc3e 8c60 2f3f
00000030: 5324 03be cc7d e9bc ef44 38bf d2fa 22bd
00000040: 16d4 813e 0f0e 963e 5715 d3be 2a2a 5fbd
00000050: e773 6bbe bd46 1dbe 39ce dc3d c40e 653e
00000060: 3bf7 5fbc ef3c bcbe 9ad4 843e 7d9f 30be
00000070: 183e 32bf b4a2 bd3e 35f7 cdbd 99ce 0f3d
00000080: 1c02 4abe fd23 0abd 8c20 12be 8f49 dc3e
00000090: fff7 fdbe b997 f63e e8ed dbbd 1313 65be
000000a0: 0c5d fb3e f721 e8bb 4d5b 75bb 0854 243f
000000b0: 4444 a93e ed23 d5be ea7a 4b3f 42b8 213e
000000c0: f1d6 09be 2feb 93bd e7de 913e 0eab 89be
000000d0: 3b3a 94be ed22 373e fc9f c4bd 6c58 57be
000000e0: 3dc2 943c b927 afbe 94fe 3e3e 3e1c 953e
000000f0: 6bcb 72bc 3b96 16be 9b12 01bf 0c2f 14bd
00000100: e5c8 923e 8896 603e 49cc 353f 17be 2fbe
00000110: 680a e43e 750f 36be 86f7 113f 321e e63d
00000120: 774c b0be b52a a73e ef3d 473f 5291 9ebd
00000130: 51c4 1ebe 1007 843f de8d 83bd d2d8 ff3e
00000140: 6b6c f8bd cfdb 4cbe f99c 6abf 941d 14bd
00000150: f2c5 8ebe 1336 853e f086 84bf 7f46 d7bd
00000160: 3ffc bdbe 185f 333e 7f38 80be 62b8 2ebe
00000170: da67 2abe 0246 16be 594a 013f 93fe 0e3f
00000180: c2c9 68bc 222e b2bd a642 eb3d 945a 1dbf
00000190: 59dc 063d fde5 0dbe 9151 70be 769f a6be
000001a0: d050 6ebd 1c56 743e 74f3 b3be 3987 3a3f
000001b0: 7d2f 7c3e 0607 af3e 2f50 a0be 78ba 2b3e
000001c0: 73cb 91be 2ec5 35be cb43 533e d715 4f3e
000001d0: 5a3b a8be 15d6 f0be 4f45 813f 16e5 d2bd
000001e0: 1418 943e 2252 80be 2f57 68be f018 063f
000001f0: cf71 e23e 69c3 e63d 7c1b c73e ebfe fabd
00000200: e12f a13e 08d9 353f b328 00be d536 f13e
00000210: 0960 fb3e 339e b1bd 15bf e83e 7d8d fb3e
00000220: 827c a3be 0a38 fe3e a197 c4bd 747b 24be
00000230: 243e 0dbe 4080 113e c4ad 513f d8b4 69be
00000240: 5357 a8be 2aef 3fbe 121b 8c3e e2c4 cc3e
00000250: ddf0 cc3e 688a 873e b72d ccbe 9df5 12be
00000260: 2f9c 77be 661a a03e 84c0 99be 2b5e 8cbe
00000270: 6711 b93e 9580 96be f9b8 8a3e b99e 293d
00000280: 0833 9e3e cbb1 84be 50dc 1bbf fee5 bcbd
00000290: a447 88bc ea19 f6be 6bfb c13e 9823 88bd
000002a0: 6139 203c 0da7 a33e 192c e43e 301e 71bf
000002b0: bb91 b5be 9b08 043f 5bc2 1cbf 6ab6 34be
000002c0: edfb 42be db5c bc3e 7763 b1bc 1dc1 853e
000002d0: 6500 963e 344e 39bd 6af7 c43e 3f86 f1bd
000002e0: 6920 633e 4482 ad3e ad0c 0b3e dcb0 f4bc
000002f0: 7659 113f e839 c9bd f583 233f 4e44 553e
00000300: f856 11bf b2c7 5cbd fb47 1cbe 2e96 a83e
00000310: a516 15bd 402c efbe f814 c53d 5b6c f13e
00000320: 7f3a 013d 3cde d0be 031b 8abd 2688 58be
00000330: af68 913e e943 80bf 05f7 9ebe 773d 13bf
00000340: 42d6 52be 8e34 03be fd66 293f 4ef8 7b3e
00000350: 03f2 953e 354b f23d 2a85 9a3e 78ae bdbd
00000360: 49c4 ed3e 436c 60be 7840 0d3e 1549 a1be
00000370: 825c 9dbe 53b7 a3be 5d39 08bf b8d1 41be
00000380: 8f7e 11bf 2aae aa3e 8b25 69bd fb4d 583e
00000390: 8743 36bf b9cc 4bbe 9f71 d23d 6d38 a8bc
000003a0: ea17 2abe 566c 8dbd 04a6 46be f64f 3ebf
000003b0: dbe6 103f fb26 a3be 2201 f13d a47b 6dbe
000003c0: df08 873e 6cec 203f ea26 193e a1f3 1b3e
000003d0: 7960 c0bd 82bc bf3d ce12 b2bf 028d bdbe
000003e0: d334 8bbe cbb0 313e 4081 e73e 0245 fabe
000003f0: 2e3f a2be b848 953d ad3b 283e 2f7f 7bbe

_policy.8.bias f4 [3]
0.08504181 -0.082742885 -0.019365314
00000000: 672a ae3d 1a75 a9bd 02a4 9ebc

_value.0.weight f4 [128, 22]
0.063127585 0.16749026 -0.14837119 0.03782892 0.028893515 -0.16886337 0.077366136 -0.049362943
0.16458015 -0.18221886 -0.03410483 0.16071682 0.070729546 -0.05379509 -0.047504652 0.042441096
-0.02773267 0.16904975 0.00015605599 0.10273563 0.07828688 -0.07864383 -0.15970902 -0.137751
-0.06629371 -0.052103687 0.037542865 -0.1557589 -0.07974303 0.12839188 -0.014808648 -0.078064255
-0.1479302 -0.05803621 -0.1547403 0.17200245 0.11143465 0.16561516 -0.14617376 -0.1744821
0.014210085 -0.22802141 -0.11570379 0.046473734 -0.026476394 -0.03125818 -0.062417734 -0.1478982
0.1617762 0.16154431 -0.10627301 0.17468606 0.13274105 0.07047725 0.17945799 0.14997205
-0.16118108 -0.20636848 -0.14223751 -0.21067943 -0.13546665 -0.013799256 -0.05779897 -0.09555011
-0.15042272 0.08223919 -0.11515995 0.04440205 0.0034645668 -0.20909923 -0.15227236 0.05268913
0.0713821 0.035370167 0.016212719 -0.11414749 0.11341546 0.040031392 0.27670664 0.0055528516
0.14725748 -0.026368104 0.007920673 -0.040688068 -0.10817126 0.07413178 -0.020859143 0.27178636
-0.13497725 0.24552526 -0.23331234 0.08061987 0.021806328 0.094862275 0.025919832 0.08356348
-0.07330206 -0.08645592 -0.18420029 -0.09496857 0.056143984 0.06605834 -0.083939694 -0.07957663
-0.05676096 0.06604551 -0.050855655 0.01734286 0.034075983 -0.025316823 -0.19428807 0.23128651
0.13068458 -0.11003657 0.1261856 -0.13578159 0.15413679 0.036002535 0.078104995 0.02178325
-0.12976214 0.08394554 0.14481297 0.114434734 0.17831875 0.10178846 0.0012662563 -0.16006933
0.0032919866 -0.13496563 -0.088232644 -0.17896974 0.08576247 0.17508242 -0.10854328 0.1708312
-0.04562898 -0.17235659 0.0236724 -0.032349616 0.06625559 -0.053447463 -0.19779462 -0.05490953
-0.14538997 0.17861407 -0.18402837 0.117296435 0.061370227 -0.10145564 0.10136032 -0.18253796
-0.16469333 0.020393603 -0.08480582 -0.13696896 0.005215121 -0.16254619 0.09903988 0.14422743
0.10718148 0.016778538 -0.10391917 0.16736515 -0.019817347 -0.14562294 0.054062925 -0.19505075
0.07712968 -0.12309805 0.014143684 -0.02512862 -0.22093537 0.04038316 0.15263493 0.11994755
0.108434044 -0.18274245 -0.06973939 -0.11188121 -0.085083306 0.025408763 0.11735778 0.16468692
-0.0343153 0.18585066 -0.049223047 -0.13939835 0.12833782 -0.13177072 -0.20729515 -0.17294095
0.16238137 0.0070052515 0.012895854 -0.099436715 -0.2182876 0.1620253 -0.05486922 0.10915507
0.07793822 -0.03286108 0.04542368 -0.08113394 0.047670938 -0.16511016 -0.008079602 0.09039525
-0.07627975 0.20012735 -0.14806592 -0.18266277 0.12305954 -0.07982193 -0.055752944 -0.1980969
-0.20440644 0.0005800605 0.021697411 0.06402924 0.14609985 -0.1561487 -0.040295113 0.13879666
0.13158567 -0.08067208 -0.04858578 0.06758048 0.13851736 0.0754661 0.03937345 -0.010651593
0.070530675 0.015576666 0.01777976 0.083781905 -0.14428025 -0.027385097 0.16973943 -0.08559705
-0.017367726 -0.18935505 -0.05138075 -0.042141423 -0.015111414 -0.08325432 -0.15505642 -0.12926628
-0.060098697 -0.028164934 0.037280798 0.0073949634 0.13638014 0.12905994 0.13208832 0.15016772
00000000: 0949 813d 9182 2b3e 9eee 17be 7ff2 1a3d
00000010: 18b2 ec3c 85ea 2cbe 2372 9e3d cc30 4abd
00000020: b387 283e 9597 3abe 82b1 0bbd f392 243e
00000030: a7da 903d 3e58 5cbd 3d94 42bd b7d6 2d3d
00000040: a02f e3bc 611b 2d3e f6a2 2339 0f67 d23d
00000050: df54 a03d 0410 a1bd c38a 23be 990e 0dbe
00000060: ffc4 87bd ad6a 55bd 8cc6 193d 437f 1fbe
00000070: 5050 a3bd 2979 033e f99f 72bc 27e0 9fbd
00000080: 047b 17be 60b7 6dbd 3e74 1ebe 6921 303e
00000090: da37 e43d 0597 293e 93ae 15be 70ab 32be
000000a0: 6bd1 683c 727e 69be 1cf6 ecbd 3e5b 3e3d
000000b0: 06e5 d8bc 9408 00bd bda9 7fbd a072 17be
000000c0: a9a8 253e df6b 253e aaa5 d9bd e7e0 323e
000000d0: 45ed 073e 6056 903d d6c3 373e 4692 193e
000000e0: a70c 25be 4252 53be b6a6 11be 59bc 57be
000000f0: c5b7 0abe 4616 62bc 9dbe 6cbd c7af c3bd
00000100: 6a08 1abe 056d a83d fbd8 ebbd edde 353d
00000110: c90d 633b 1c1e 56be 49ed 1bbe 8fd0 573d
00000120: c730 923d 4fe0 103d 89d0 843c 29c6 e9bd
00000130: 5d46 e83d f5f7 233d 7eac 8d3e b2f4 b53b
00000140: aaca 163e ec01 d8bc b6c5 013c 88a8 26bd
00000150: e588 ddbd 67d2 973d cbe0 aabc 9527 8b3e
00000160: 7a37 0abe f96a 7b3e 6ee9 6ebe 081c a53d
00000170: 2fa3 b23c 2747 c23d d455 d43c 5423 ab3d
00000180: 641f 96bd cd0f b1bd 009f 3cbe e27e c2bd
00000190: 3cf7 653d 9849 873d 93e8 abbd 12f9 a2bd
000001a0: 2e7e 68bd de42 873d 054e 50bd 9d12 8e3c
000001b0: 4293 0b3d 3a65 cfbc 74f3 46be 5fd6 6c3e
000001c0: 2ed2 053e da5a e1bd cc36 013e 540a 0bbe
000001d0: 09d6 1d3e 6577 133d 83f5 9f3d c972 b23c
000001e0: 5ee0 04be a4eb ab3d da49 143e c25c ea3d
000001f0: 3199 363e 7876 d03d 83f8 a53a 37e9 23be
00000200: 5fbe 573b 6e34 0abe 51b3 b4bd d843 37be
00000210: 3ca4 af3d ce48 333e f04b debd 60ee 2e3e
00000220: 74e5 3abd 3f7e 30be 9fec c13c 0881 04bd
00000230: 03b1 873d baeb 5abd ac8a 4abe d1e8 60bd
00000240: 1ce1 14be 9be6 363e ef71 3cbe 1d39 f03d
00000250: 595f 7b3d f9c7 cfbd 0096 cf3d 3beb 3abe
00000260: 5ea5 28be 7c10 a73c acae adbd 9741 0cbe
00000270: 9be3 aa3b 8272 26be 6cd5 ca3d 5bb0 133e
00000280: f781 db3d 2573 893c 93d3 d4bd c561 2b3e
00000290: fd57 a2bc 2e1e 15be 1671 5d3d 62bb 47be
000002a0: 2af6 9d3d d51a fcbd e9ba 673c 89da cdbc
000002b0: e23c 62be d068 253d 554c 1c3e 10a7 f53d
000002c0: ab12 de3d d620 3bbe 86d3 8ebd fa21 e5bd
000002d0: 2840 aebd 0a26 d03c 4759 f03d b0a3 283e
000002e0: 338e 0cbd a34f 3e3e 1b9e 49bd 71be 0ebe
000002f0: fd6a 033e e7ee 06be 2e45 54be 6f17 31be
00000300: 4d47 263e 4f8c e53b 2249 533c 7aa5 cbbd
00000310: c986 5fbe f6e9 253e 8cbe 60bd b18c df3d
00000320: 139e 9f3d 5799 06bd 2e0e 3a3d 8d29 a6bd
00000330: 9a42 433d a312 29be 4f60 04bc 2521 b93d
00000340: 8f38 9cbd 2fee 4c3e 989e 17be f30b 3bbe
00000350: a406 fc3d ae79 a3bd 335d 64bd ead9 4abe
00000360: ec4f 51be 340f 183a c5be b13c c321 833d
00000370: 339b 153e 72e5 1fbe 7d0c 25bd b620 0e3e
00000380: 65be 063e 6737 a5bd e201 47bd a267 8a3d
00000390: 7fd7 0d3e f88d 9a3d 0e46 213d 0584 2ebc
000003a0: 6372 903d 4635 7f3c dca6 913c d995 ab3d
000003b0: 34be 13be b656 e0bc 2cd0 2d3e 824d afbd
000003c0: c346 8ebc 4ae6 41be 9f74 52bd 7c9c 2cbd
000003d0: dd95 77bc 3e81 aabd 1cc7 1ebe 615e 04be
000003e0: 0d2a 76bd 26ba e6bc c0b3 183d 7351 f23b
000003f0: 3ca7 0b3e 4a28 043e 2942 073e 91c5 193e
