logs/weight_colliion_obj_obs = 0.4/model/model_160.pth (torch, 427625 bytes, 19 tensors)

_policy.0.weight f4 [128, 22]
00000000: 8bbd 98be 1d6a 583c 5775 b03c cbf7 ab3e
00000010: 6e2f 80be 7b8e 9bbe 62ff 143c 3292 e1bd
00000020: 1e9c 083f 14d9 433e e933 003d 0be9 073e
00000030: 2f86 4d3e 1f27 583e af47 fa3c 8708 a0bd
00000040: d8f8 23be 39a6 e53d 70f6 d73d 4e31 8f3d
00000050: a865 dabd 720f 11be 0337 303c 4277 41be
00000060: e2a4 a43e b256 093f 3f31 88bd f400 cabe
00000070: 5138 743d b4fb 973d 729f eebe 140f 08be
00000080: e42c 253e 9b7b e7bc 296b 013e f2d6 923d
00000090: 1c6e 943d 20a5 c5bd d5eb 693d 0181 7ebe
000000a0: 6b9c a6be d0da 94bd 8e45 b03d adac 073d
000000b0: f20b cfbe 68c3 f3bd eb26 453e 7a91 b0bb
000000c0: d826 1ebe ab0f adbd 0a44 f7bc 8804 083e
000000d0: c1e6 7d3f 8fb2 85bd 9f28 9e3e c8a6 7f3d
000000e0: 0660 693e c67c b73d e541 9d3d 81e6 0e3e
000000f0: 9e32 59be 797b bb3d 9d98 13bd 8ef6 8fbd
00000100: c3ed f9bd 63ed 08be 643b a4bd 52e1 18bf
00000110: 17ff 08bd 56ac 6a3e b309 53bd b918 88be
00000120: 47ef c53c e530 ae3d da17 0b3d 33ad 483e
00000130: eeca 8d3c f29c 8839 b0eb f8bd c26d 963e
00000140: 7207 15be b428 04be b3ae 41be a7b4 af3d
00000150: f2f7 12be 9cd9 503e fb53 033e fbc3 5c3e
00000160: 8151 4a3f bdb5 2ebe 32d8 b9bd 375e 773c
00000170: f69a 0f3f c3bf 8abe de40 a4be 5682 cdbe
00000180: fe90 04bf d999 733e 42e8 08bd 83f5 38be
00000190: 3565 2ebe 3e0b 793d fac8 203d 3b4d 2e3e
000001a0: 8bc8 483e db17 a43d 3eba e43d 8cc7 4cbe
000001b0: dddf 31be cff3 70bd 7ce4 31bf 39d2 513f
000001c0: f3b5 523e 309e fbbe 4112 9bbe feb3 d33e
000001d0: 6bce 2b3e 1f9b 733e 65f2 5dbe cdd8 c2be
000001e0: 7b38 c3be 0f35 98bd eae2 acbe 2f89 e6bb
000001f0: 7070 9aba c356 09bd 4cfc 223e f891 c63c
00000200: c5bb 213d dc01 76bd 83b0 2fbd 0e77 a43d
00000210: 06f7 05be 0b1a 71be 26b2 6e3d 2d00 b23e
00000220: c7d1 d53e 1d73 a2bc 56c8 23bf 742f 913e
00000230: 3557 f03e 8b65 87be 8113 6abe 600d 90be
00000240: 44c6 14bf 804e 213d 85c0 ebbd 8495 f7ba
00000250: 343a 47be cd32 90bd 4ad0 923e d235 ebbd
00000260: 2f78 853e 98a3 94bd b47d a2be a2e3 09be
00000270: cc10 4ebd b22a b33e e342 0b3e 12c7 8c3d
00000280: a0b4 03be 88ec ddbd fba6 26bf acc1 d33e
00000290: e4e6 fcbd 9f61 16be d3df 613d 982f 943d
000002a0: b3f2 5dbe 689d b53d 86bc 14be 1ded 06be
000002b0: 6b66 943d d153 ce3c 063b 06be 5f26 203e
000002c0: 4dae a03d 20ea ffbc 8599 8bbe 04a0 acbc
000002d0: 1a94 ff3e 0efe 823e 9123 9abe af1e a1bd
000002e0: c0ea 963f f373 cc3e 1115 20bd 82aa 9d3d
000002f0: e4e5 1d3e 0ae6 d73d 0f9a 1e3e 9ddc e6bd
00000300: f064 4c3e 7ef6 14be 19ff b8bd 0864 123d
00000310: a951 eebc 916d 843d 77ea 813e cb13 043f
00000320: 5b7e 0ebf 7e17 e3be d2a4 2abd 6987 d73e
00000330: cf27 debe b72c dabe f8cd ccbe acec 753e
00000340: 7c4e 863c ee05 2b3e 0453 5f3e 4629 d5bd
00000350: b6ca 36bd 5a5a 853d cd6c ad3d 5f53 9fbe
00000360: 1f3b 06bd 7456 c73d b347 f8bd 4edc dcbd
00000370: 9916 54be 3c20 eabd 854b 303e 3e56 f83d
00000380: be8b a5be 5b93 73bd 23d3 b73a 4956 813e
00000390: 5d27 793f 0473 9d3e 928c 5e3e 7127 03be
000003a0: 808d 7f3d f324 453d efb2 ac3d 33b8 b43d
000003b0: 77db 2e3e 6224 d93c 870f ecbd c0ea 75bc
000003c0: 018d 26be 4556 b63d efdc 2a3d 7294 163d
000003d0: 65ce a7be c69c dbbd 2b46 edbd fbc5 fcbd
000003e0: 20e6 8bbb d031 29be 1a30 9fbe ca4b 92be
000003f0: 7ab6 acbd 9584 0bbe ed7c 5cbe c8e2 8bbe
-0.2983211 0.013208893 0.021540327 0.3358749 -0.25036186 -0.3038214 0.009094091 -0.11014213
0.53363216 0.19125777 0.031299505 0.13272493 0.20070718 0.21108674 0.03055176 -0.078141265
-0.16012895 0.11213345 0.10545051 0.06991826 -0.10663921 -0.14166048 0.010755303 -0.1889315
0.32157046 0.5364791 -0.06650018 -0.39453852 0.05962402 0.074210554 -0.46606022 -0.13287002
0.16130406 -0.028257182 0.12638535 0.07169904 0.07247564 -0.09650636 0.057109673 -0.24853899
-0.32541212 -0.07268298 0.086070165 0.03312366 -0.404388 -0.11902505 0.19253127 -0.005388436
-0.15444505 -0.08450254 -0.03018381 0.13282979 0.9918023 -0.06528198 0.30890366 0.062414914
0.22790536 0.089593455 0.07678584 0.13955118 -0.21210715 0.0915441 -0.036034215 -0.070294484
-0.122035526 -0.13371806 -0.0801914 -0.5971881 -0.033446398 0.22917303 -0.05152292 -0.26581362
0.024161948 0.0850542 0.033958293 0.1959732 0.017308678 0.00026056875 -0.12154329 0.29380614
-0.14553621 -0.12906152 -0.18914299 0.085793786 -0.14352396 0.20395511 0.12825005 0.21559136
0.79030615 -0.17061515 -0.09074439 0.015098146 0.56095827 -0.27099428 -0.3208074 -0.401385
-0.5178374 0.23789157 -0.033424623 -0.18062405 -0.17030795 0.060801737 0.039254166 0.17021649
0.19607751 0.080123626 0.111683354 -0.19997996 -0.17370553 -0.058826264 -0.69489264 0.819614
0.2057722 -0.49144125 -0.30287364 0.4134826 0.16777961 0.23789643 -0.21674497 -0.3805603
-0.3812903 -0.07431995 -0.33766872 -0.0070353965 -0.0011782777 -0.033530008 0.15916556 0.024239525
0.03948571 -0.060060367 -0.042892944 0.080305204 -0.13082513 -0.23545091 0.058275364 0.3476576
0.4176161 -0.01983028 -0.63977563 0.28356516 0.46941534 -0.2644466 -0.22859003 -0.28135204
-0.5811503 0.039381504 -0.115113296 -0.0018889164 -0.19455796 -0.070409395 0.28674537 -0.11484875
0.26068255 -0.072577655 -0.3173653 -0.13465741 -0.050308987 0.3499351 0.13599734 0.06873907
-0.12861872 -0.108361304 -0.6509854 0.41358697 -0.123487264 -0.14685677 0.055145096 0.0723564
-0.21674614 0.088679135 -0.14525041 -0.13176389 0.07246097 0.025186451 -0.13108453 0.15639637
0.07845745 -0.03123957 -0.27265564 -0.021072395 0.4991768 0.25584453 -0.3010526 -0.078671806
1.179039 0.39932212 -0.03908259 0.076985374 0.15419728 0.10541923 0.15488456 -0.112725474
0.1996038 -0.14547154 -0.09033031 0.03573993 -0.029091673 0.06466211 0.25374195 0.515927
-0.55661553 -0.4435386 -0.04166109 0.42095497 -0.43389747 -0.4261224 -0.40000892 0.24016064
0.016394846 0.16701481 0.21809012 -0.10408263 -0.044626914 0.06511374 0.08468018 -0.31118295
-0.032771226 0.097332865 -0.121230505 -0.10784207 -0.20711745 -0.114319295 0.17216308 0.121258244
-0.32333177 -0.0594667 0.0014024716 0.25261143 0.9732569 0.30751812 0.21733311 -0.12808014
0.062390804 0.04813094 0.084325664 0.08824196 0.17075907 0.026506606 -0.11526399 -0.015009582
-0.16264726 0.08903173 0.041714605 0.036762662 -0.32774654 -0.107232615 -0.11585649 -0.12342449
-0.0042693764 -0.16522908 -0.31091386 -0.28573447 -0.08433242 -0.13624795 -0.2153203 -0.27321458

_policy.0.bias f4 [128]
00000000: 70ff 3b3d 920d 633b b8ee 27be 06ad 19be
00000010: 4196 53bc f2b8 99bd 6853 b43c eb7b b13c
00000020: 8fad cabc 6417 013e 0324 1e3e 7426 023e
00000030: b079 69be 8032 7ebe 07fc 613d a3f5 18be
00000040: af80 8ebc 8a03 7f3d a5dd 72be b927 2e3d
00000050: b0dc 143e c0e4 07bd 0da8 21be 28f2 533e
00000060: 2f7b 70bd 145a b5bb 279f 6fbd 7cf0 17bd
00000070: cf57 d63d 7e1e 48be add3 4ebe 3c91 1bbe
00000080: a12f 1a3e ffe0 49bd d275 883d b33e 673d
00000090: b051 543e 09c8 4dbe 29ef c7bd 1174 283c
000000a0: 73f0 32ba 58a3 b43d 3ace 2fbe 4119 c6bd
000000b0: f674 923d b235 1dbe ec1b 0a3e 5390 043e
000000c0: 086b 33bd 3951 8cbe bd4e 88be cf5b aebd
000000d0: 6943 62be 7125 0c3e 29e3 5fbe 720c f9bd
000000e0: 9588 d6bc 8c1e 043e 01f0 393e bc83 7bbd
000000f0: 6d5d 47bc 0ccf 8cbc 3c3e 3ebe b2cb 21be
00000100: 1b0f fbbd f241 8cbd 8383 833d de5e a4bd
00000110: 9e35 cfbd 0d44 42be 0633 6bbe 9a0e 97bc
00000120: e4f8 1fbe 5ed4 563e 3ee6 cdbd 1c76 ae3d
00000130: 444d 2ebd 22c8 b9bd 5a52 d2bd 0f02 18be
00000140: 925a ba3d b9e9 123c f25c 843d 7e53 24be
00000150: 4303 0dbe 1e26 893c 9a35 73bd 78fc 16bd
00000160: c17f 2ebd 28b5 44be 87bc 073e dea0 71be
00000170: 75f7 b33d bab4 52be e3b2 10be fd2a e63c
00000180: 0c84 75be 53a3 8abd 7b79 1bbe a976 f9bd
00000190: 1177 38be 23c8 3ebe cee9 eebd 4e8a 05bd
000001a0: 7de5 45bc 1272 273d 0303 42be b3d6 49be
000001b0: 1dcf 353d ce5e ba3d ff54 313e befe f6bd
000001c0: a81e 52be 6880 aabd 1d54 72be 69cc 043e
000001d0: 675c f53d bff1 6d3d 304f 89bd e655 253e
000001e0: 90f6 a63d 7179 10bd 80ba 913d 290e 32bd
000001f0: abee 623d 9883 13be 6ceb 1dbe 7ae7 80be
0.0458979 0.003464554 -0.16399658 -0.1500741 -0.012914241 -0.07505979 0.022012427 0.021665534
-0.024740962 0.12606579 0.15443425 0.12709981 -0.22800326 -0.24823952 0.055171993 -0.14937453
-0.017395345 0.062259234 -0.23717363 0.04251835 0.1453731 -0.033177137 -0.15786763 0.20697844
-0.058711227 -0.00553442 -0.05850139 -0.03709458 0.10465967 -0.19542882 -0.20197935 -0.15192121
0.15057231 -0.04928684 0.066630974 0.05645628 0.20734286 -0.20095839 -0.09762413 0.010281579
-0.0006825991 0.08820218 -0.17168513 -0.096727856 0.07151215 -0.15352514 0.13487214 0.1294568
-0.043803245 -0.27405718 -0.26622573 -0.08513605 -0.22096027 0.13686158 -0.21863998 -0.12160577
-0.026188174 0.12902278 0.1815796 -0.06140493 -0.012168271 -0.017188571 -0.18578428 -0.1580036
-0.122587405 -0.068485156 0.06421568 -0.08025907 -0.101176485 -0.18971272 -0.22968683 -0.01843958
-0.15622288 0.20979449 -0.10053681 0.08518621 -0.042554155 -0.090713754 -0.102696136 -0.14844535
0.09099306 0.008966857 0.064630404 -0.16047475 -0.13770775 0.016741809 -0.05937729 -0.036861867
-0.042602304 -0.1920973 0.13255511 -0.23596522 0.08787433 -0.20576754 -0.1413074 0.02809667
-0.23976153 -0.06769433 -0.1518306 -0.12180836 -0.1801417 -0.18631034 -0.116656885 -0.0326026
-0.01207864 0.04088027 -0.18946461 -0.19710808 0.04438697 0.09100114 0.1731758 -0.12060307
-0.20519507 -0.08325273 -0.23664899 0.12968601 0.11980515 0.058091875 -0.06704557 0.16146049
0.08152497 -0.035272066 0.0711565 -0.043470535 0.055403393 -0.14405668 -0.15421838 -0.25176603

_policy.2.weight f4 [128, 128]
00000000: 57d7 883d d130 b0bc 961c 17be efb2 153e
00000010: f1b9 643e 1e8f d2be 2918 183e b3ab c03d
00000020: 0877 6cbc 76a1 a9be 7af5 a43d d8d2 a8bd
00000030: 31c1 9b3d 63a0 85bc 16ff 41be f808 bb3d
00000040: 3a31 62bc d196 90bc 5906 1bbe 0348 4b3e
00000050: 0861 063b 586c c23d eff3 1e3d 2e64 06be
00000060: b38f bbbd c4e4 55bd a025 e63c bf3e a83c
00000070: 6e0d 913d a225 c9bc 915e 123d bb8b 61be
00000080: 1a1d c83d b750 c9bd 0039 043e eef1 ac3c
00000090: a334 8d3d 5a24 a3be 798c b4bd 2ba3 003e
000000a0: f80a c4be ab9d 5f3d bd91 bc3d aed6 a53c
000000b0: 631c e43c f86c da3d dd5e 823c 1319 4dbe
000000c0: 881a bcbc b27f aebd 4b7c 3cbc a442 3c3b
000000d0: e4da 323e 996f 973e 89a9 10bd edb2 28be
000000e0: e59f 843d e1fb ddbd e6e0 a63c 46ed cabc
000000f0: f4f5 4d3d 802f 0fbd 6136 df3a 1d82 2a3e
00000100: 1f76 8bbb 557b ff3d 14df 293e ca4a 6dbd
00000110: 828c 463d 4d32 1abd fd2f cfbc e02f fdbd
00000120: e93e 58bd 057d abbd 6d8b 19be 9a09 9e3d
00000130: 0b68 d8bd 076f 8b3d 7043 4bbc 5fc4 06bd
00000140: 1706 a63d 0fd0 92bc 94f8 79bd f44f 74bd
00000150: e00d 83be ad75 a6bc f8e1 2d3d b14f 013e
00000160: e52e d1bd 62fd 45bd 90aa 0fbd 0247 fd3d
00000170: cabc 813b 2239 24be f70f 0b3e d9eb f03d
00000180: 6d51 82bb 702c 503e e2ca 9bbd cf80 043e
00000190: ed0b 5abe f570 8d3d 4b39 943d a104 fe3b
000001a0: b1a2 29bd a5c2 31be 6b7b a53c 6e3d a23d
000001b0: d11e 7fbe 2265 ccbd 6625 3dbe 2109 ebbd
000001c0: 7141 44be 50d1 113d b0c9 533d 3693 90bd
000001d0: 3c9d 85bd 431b 013e 05d6 22be 0d50 463c
000001e0: a808 25bc 7370 223d 7e5a 0fbd 648d 92be
000001f0: 9c70 05bd 38bc aabe 3072 d23d 10b5 573e
00000200: ae84 7bbd 50fa 74bd 8400 64bd 1fb6 e8bc
00000210: 9644 2d3d a197 46bd c05e af3c 3ead 2e3d
00000220: bf21 0c3d a2b1 19bc 224a 24bd 8d98 f1bd
00000230: aa58 ddbb b3d0 66bd 9c95 debd e488 4fbd
00000240: aa83 b3bd b71f bfbd e157 a7bd c9ab 2f3d
00000250: 318a e9bd 8c9b c53b a5fd adbd 7f0a 263d
00000260: 7127 06bd 4bae 04bd 1ee2 ddbc 9c9b 57bd
00000270: 1b30 c8bd 8e67 a2bc 115c f1bb d6a6 8bbd
00000280: c040 51bd a6dd 6fbd 9719 1fbd 38ea 5dbd
00000290: 40fd 973b 5062 9bbc 91bd 8dbd da94 95bd
000002a0: 044f d93d 779e d33c 2272 fc3c 909c 1c3c
000002b0: 4ebd 713d 3042 c6bd 2a8a 59bd 8d56 debd
000002c0: 71a5 b4bd a22b 8ebd 8cd1 8bbb bf56 eabd
000002d0: 909a 66bc 98cf a63c 4b9d b9bd ee39 95bb
000002e0: 2d38 7fbc 8c92 76bd a50f 4a3d 5c2f c1bd
000002f0: 3ec9 3e3d 7088 e93c e7a9 60bd 6824 0fbd
00000300: 05fd 353d 4194 f63c 3bb0 93bd 7896 47bc
00000310: a8a7 c6bc 3ad5 453d 768e 7dbd 8300 0cbd
00000320: 40ce 873d 0afc a2bd 7005 0e3b d889 9ebd
00000330: 8d37 9ebd f631 fcbd fe18 e0bc 2ea2 06bd
00000340: 46c6 36bd e5f2 a4bb 7c14 9cb9 2bb8 81bd
00000350: 7ef4 123d 77ff 803d f16b 35bc d2e7 0cbd
00000360: 7187 bd3c 3498 da3c 6799 96bc e5f2 d9bd
00000370: 4b7a 053d 9a69 75b9 7e62 813d 60ab 203d
00000380: 127a 803c 2086 8dbd a5ae bbbd 1632 ffbd
00000390: 2ea4 efbd 0d83 13bd f6dc 2b3d db88 f33c
000003a0: 32fd c5bd 9ef3 093c 6d58 cabd c23b 483d
000003b0: c533 7d3d 00ba dabc e0ed cf3b b870 e5bc
000003c0: f4d7 c8bc 6491 5e3d 393c 853c 7ae6 f63c
000003d0: f4ed 1ebc 3495 86bd 4201 d33c f15b e1bd
000003e0: a68f 4b3d 294f 29bb 94a0 dcbd 08b4 ccbd
000003f0: 086a 9dbc 7751 483d 3767 6b3d 54e5 39bd
0.06681698 -0.021507652 -0.14756998 0.14619039 0.22336556 -0.41124815 0.14852966 0.09407749
-0.014432676 -0.33130997 0.080546334 -0.0824334 0.07605208 -0.01631183 -0.18944964 0.0913257
-0.013805682 -0.01765004 -0.1513914 0.19851689 0.0020504612 0.09493321 0.038806852 -0.13124153
-0.09158268 -0.05222012 0.028094113 0.020537732 0.0708264 -0.024554078 0.035734717 -0.22025959
0.09771176 -0.09829848 0.12912369 0.021111455 0.06894805 -0.31863672 -0.088158555 0.12562244
-0.38289618 0.054593723 0.09207485 0.020243969 0.027845567 0.106653154 0.015914375 -0.20029096
-0.02296187 -0.0852045 -0.011504243 0.0028726244 0.17466313 0.2957733 -0.03531793 -0.16474505
0.0647581 -0.10839058 0.020370912 -0.024771344 0.050283387 -0.03495741 0.0017029756 0.16651197
-0.0042560245 0.124746956 0.16589004 -0.057932653 0.048473842 -0.037645627 -0.025291437 -0.12362647
-0.05279437 -0.08373455 -0.14994593 0.07716675 -0.105667196 0.06808286 -0.012406215 -0.032902118
0.0810663 -0.017921476 -0.06102808 -0.05964656 -0.25596523 -0.020319784 0.04245183 0.12628056
-0.102140225 -0.048337348 -0.03507477 0.12367059 0.003959273 -0.1603742 0.13580309 0.11763734
-0.003976992 0.20329452 -0.07607056 0.12939762 -0.21293612 0.069063105 0.0723749 0.0077520167
-0.04141492 -0.17359407 0.020200452 0.07921873 -0.249141 -0.09980227 -0.18471298 -0.114763506
-0.19165589 0.035600007 0.051706016 -0.07059328 -0.06524131 0.12608056 -0.15901954 0.0121040465
-0.010072865 0.03965802 -0.03499841 -0.28623497 -0.032578096 -0.33346725 0.10275686 0.21065164
-0.06140583 -0.05980903 -0.055664554 -0.028407155 0.042301737 -0.04848445 0.021407485 0.042645685
0.03421187 -0.00938073 -0.04010976 -0.11796675 -0.0067549543 -0.056351375 -0.108683795 -0.05066766
-0.08765347 -0.09332221 -0.081710584 0.042888436 -0.11403311 0.0060305055 -0.084956445 0.040537354
-0.032752458 -0.03239278 -0.02708536 -0.052638635 -0.097748004 -0.01982477 -0.0073657115 -0.06818931
-0.05108714 -0.05856099 -0.038842764 -0.054178447 0.004638344 -0.018967777 -0.069209225 -0.07303782
0.10610774 0.025832398 0.030816142 0.009558812 0.059018426 -0.09680593 -0.05311028 -0.10856352
-0.08820618 -0.06941916 -0.0042669233 -0.11442327 -0.0140749365 0.02036266 -0.090632044 -0.004554025
-0.015577358 -0.06019835 0.049331326 -0.09432861 0.04657864 0.028507441 -0.05484953 -0.03494683
0.04443075 0.03009999 -0.07211348 -0.012181871 -0.024249867 0.04829905 -0.06190344 -0.034180176
0.06631136 -0.07958229 0.0021670721 -0.07741135 -0.07725439 -0.12314217 -0.027355667 -0.03286951
-0.044622682 -0.005033838 -0.000297699 -0.063339554 0.035877697 0.06298726 -0.0110730985 -0.03440077
0.023135873 0.026683904 -0.018383695 -0.106420316 0.03258733 -0.0002340436 0.06317614 0.039225936
0.015683208 -0.06910348 -0.0916417 -0.12460725 -0.11701237 -0.03601365 0.04195877 0.029728344
-0.09667434 0.008419899 -0.09880147 0.048885114 0.06181695 -0.02670002 0.0063454956 -0.02800785
-0.024517037 0.054337874 0.016264068 0.030139197 -0.009700287 -0.06571427 0.025757436 -0.110038646
0.04969754 -0.0025834537 -0.10772815 -0.09995276 -0.019215599 0.048905816 0.05747148 -0.04538472

_policy.2.bias f4 [128]
00000000: 4bb2 88bd 3e28 02be 2ded edbd 82b1 893d
00000010: aeb2 8dbb 6d1c 7cbc 9b34 dc3c f11b 823c
00000020: e068 4cbc 201e f9bb b3f8 83bd 0714 ca3d
00000030: 5287 d23d 1250 b33d 70d7 963d 9edb 013d
00000040: d322 853d 3739 5d3d f3b3 a53d 9699 163c
00000050: b93d 41bd 940b 9c3c 7cd8 903c 6774 523c
00000060: 6f91 a1bd 1d1f d4bc b157 313d 4d39 a3bd
00000070: b4fb 12be 3d77 773d e845 62bd 57ff a6bd
00000080: 12b2 13bd 2f8b 663d 610e 6bbd 1c1f 01be
00000090: 19d6 a1bd b9e4 aa3c 3c2a 903c c2f7 98bd
000000a0: 0a02 a23d 3451 ebbd cd17 ba3d 029f a4bd
000000b0: 9850 ab3b cef7 e43c 633c 463d 735b 943c
000000c0: cf61 653c 5568 bebd b115 52bd b292 4a3c
000000d0: 707a 673d 443a e13a e1c9 5b3d 5e78 823d
000000e0: 3f8e 01bd 7c34 12be 74d9 46bc ba89 d33a
000000f0: df4c 89bd cee5 003d ae59 44bd cb61 6abd
00000100: 463a 31bd 821f 8ebc 7b3a 133c d3a4 3a3d
00000110: c45e 00be 375c 03bd d6c7 28bd 6760 0cbd
00000120: 74c7 04bd 1218 dbbd a81d 443d 7133 c7bd
00000130: 96dc ae3d adff eabd 54c5 d73d 36a5 babc
00000140: 738a 833b aa3d 75bd dfc6 cd3d 75de df3c
00000150: d39a 103d e502 c13d fdc5 a8b9 3a82 21bd
00000160: c24d 34bd 828b ec3a 0be8 82bd 3ad4 9d3d
00000170: d5a6 fbbb 3215 1f3d 622c 22bd 2efe d3bd
00000180: 3dd3 cebc efd7 9b3c 9f8f 9dbd 0e4a d5bd
00000190: f56e a9bd 8306 8abd 7250 333c e150 8c3d
000001a0: f60b a1bc ef76 af3d 3e13 f9bc a680 6bbb
000001b0: bfb1 f7bd 889e 92bd 04c8 73bd 8930 0c3d
000001c0: 3a3f d23d 262a 783d 61ea 3cbd 712b aa3d
000001d0: 6593 f5bd 1718 f1bb eb1c 68bd 6414 783d
000001e0: 7673 6fbd 58ae 30bd 18c6 82bd 0a1d b2bd
000001f0: 74e1 d6bd 8d8f 583d 1d43 95bd 418c 1a3d
-0.06674632 -0.12710664 -0.11617503 0.0672331 -0.004324279 -0.015387637 0.026880553 0.015882464
-0.012476176 -0.007602468 -0.0644392 0.09867101 0.102797166 0.087555066 0.0736531 0.031703584
0.06500783 0.054009642 0.08090963 0.009191891 -0.047178004 0.01904849 0.017681353 0.012845135
-0.078890674 -0.025893742 0.04329652 -0.07969914 -0.1435383 0.06041645 -0.05524245 -0.08154171
-0.036058493 0.05628508 -0.05738676 -0.12609524 -0.07902164 0.020861017 0.017598264 -0.07469131
0.07910545 -0.11490098 0.09086571 -0.08038141 0.0052281134 0.027950194 0.048397433 0.018110013
0.01400037 -0.092972435 -0.051290218 0.012364076 0.05651325 0.0017183502 0.053659324 0.063706145
-0.031629797 -0.14277834 -0.012136806 0.0016139068 -0.06704115 0.03146916 -0.047937088 -0.05722217
-0.043268465 -0.017349008 0.008986111 0.045567345 -0.1253615 -0.032070365 -0.041206203 -0.034271624
-0.032416776 -0.106979504 0.047879845 -0.097266085 0.08538167 -0.114745475 0.10535684 -0.022783857
0.004014307 -0.05987326 0.10047697 0.027327755 0.035303902 0.0942438 -0.0003219097 -0.039430834
-0.044019468 0.0018046948 -0.06391915 0.07706495 -0.0076798 0.038838573 -0.039593108 -0.10351215
-0.02524721 0.019023864 -0.07693409 -0.104145154 -0.082731165 -0.06739523 0.010944473 0.06851364
-0.019659024 0.08567607 -0.030404683 -0.0035934835 -0.12094449 -0.07159144 -0.05951692 0.034225974
0.10265966 0.06058707 -0.04612196 0.08309067 -0.11991004 -0.007357608 -0.056668203 0.06056632
-0.05845972 -0.043135017 -0.0638544 -0.08696945 -0.104922205 0.052871276 -0.072881915 0.037731413

_policy.4.weight f4 [128, 128]
00000000: 0270 c23d d5ab 0cbd a609 52bd 1139 4dbe
00000010: 802f 373d c51c 1b3e b1da 00bc f936 bc3d
00000020: 4b3d 96bc e8c1 99bb 3292 0d3e 595d 0e3d
00000030: c329 8cbd b082 423e 2264 0abe ede6 853d
00000040: 76e2 97be b6e7 c13d 85e8 07be f252 4b3d
00000050: 8887 c0bd 9dcb 0abe 9452 ab3c fc6a 483e
00000060: c2e3 e0bb 1e83 cebd b6f0 353c 8cb5 8dbd
00000070: 3b74 6e3d 6072 8abc 4184 ccbb 072a a7be
00000080: 951d 373d 8b76 04bd a0ff 123e e4ef 923d
00000090: 16a7 07be 2e5f c23d 05cd e23d b72a 7dbd
000000a0: 6a71 a33d aca2 253d 6bfa b83d 9605 253d
000000b0: 4061 80bd d39e 303d ae44 df3c 4b64 afb9
000000c0: e784 9a3d ab98 893c 9b20 023e 3fa7 11bd
000000d0: 40d3 923d e9c2 f63c 6087 35be 36c4 eebd
000000e0: ba1c 06bd 4ad7 0bbd 3e47 2ebd 4acd 08bc
000000f0: 19c5 ae3b b0c0 26be bdc1 a5bc c529 86bd
00000100: e514 7b3c 1703 5eba 53dc 883d ad48 b0bd
00000110: 603e 1a3d 683c 38bd 1be4 cfbc 3cad b1be
00000120: c47e 30ba f92a 9abd 9405 243d 5ec9 88bd
00000130: f7df 1d3e 2095 06bc a42d 6a3c 7a59 03be
00000140: 7ceb 0bbe 3c1d f33d 4523 69be 6727 c83d
00000150: a1f4 243c 8129 c5bd 4618 10bd 07f2 3abe
00000160: dd6a 003d 3ca8 64bd d3f6 333d 18e5 113d
00000170: b196 24bb 70db 04be 5cb3 91bd 3b29 3b3d
00000180: ed43 823e 0553 553d caa3 68bd 6fa6 713d
00000190: 072c f4bd 3ab7 0d3e 2786 573d 7553 0fbe
000001a0: 5815 45bd 3401 013d f3e3 643e 3bee de3c
000001b0: caf5 f1bd 8abc 653e 531d 71bc a0aa 61bd
000001c0: a0dc d0bd 3bd2 84be c865 e13d 40ea 39bd
000001d0: e0e3 a4be d4bb 08be cad5 28bd 510d 943d
000001e0: 6460 ffbd f3c4 26be 5929 25bc d86e f1bd
000001f0: 7e9b dbbc a79a 1b3e e915 f2bc 2c3c febc
00000200: 1669 9e3d c21c 6d3d 8d6a 263d c6f1 8cbc
00000210: 13f1 b2bc 5d00 86bd 5865 a33d 5782 9cbd
00000220: 5ec8 a73c cae6 893b 9d22 073e 0c15 123e
00000230: 10aa 253e d2bb 593e 9c58 0abd b738 0fbd
00000240: f8d0 b3bd bccf 9f3e cc37 e03d d46d 5d3d
00000250: 79e3 dbbe bb96 a0bc 5aa3 213e d37b b1be
00000260: d0a7 543d 4cee a23d b3ad 253d 8276 af3c
00000270: 8046 3abc 36c4 ba3d 26a4 943d 044b 443e
00000280: 6716 e7bd a5ee 203c 145a babd e8ad 8abc
00000290: 834e 4cbd 6fb4 fc3c bc70 2bbc ed11 7fbe
000002a0: 1c66 33bd 0721 9fbd 1d5a bdbe 0e34 6a3e
000002b0: 6b59 27bd 0c5d b3bd f3ee d4be 633f 4cbd
000002c0: 5ed4 1c3d e4e8 05bd 71b2 153e 346e 8dbd
000002d0: 8184 6fbe 63da b8bd de89 8abe df09 193c
000002e0: 96e5 81be 7b58 34bd 5ca4 f53d 104d 91bc
000002f0: 707c 13be b7b9 73bd 0e9a 1dbe f844 353e
00000300: 0790 b1bd cc2a 583d 3931 a4bd c717 73be
00000310: 1c53 82be 7458 d33b 992f 5bbd af54 0cbf
00000320: 7b81 f13d 14f9 fb3c 03ef 883d 429a 83be
00000330: 966c c1bc df48 abbd 4d4c 07bd 1f2f 60be
00000340: 3ad6 25bc 4f15 343e 2fa3 23bd 1a5f 973c
00000350: 6cac 6a3d c783 48bd a5a5 16be d3b8 903c
00000360: 9726 ebbe b677 343d 0c69 823d f348 883d
00000370: f66a 5e3d bbbb f0bd 465a d4bd 1a9f b0bd
00000380: 4ce4 b43d 7fef dabe c9cf b0bc 37dd 9d3d
00000390: bf3e d3bd 0d21 57be b2cd 10bd 1ed7 88be
000003a0: e533 a6bb 3536 e5be e9c1 2cbd 473e 5ebd
000003b0: ceee 1b3e 76a0 013e 9fdd 9bbd 2bdf e6bd
000003c0: 143c 023e 8354 8ebe 1bb9 603d 209d 163d
000003d0: 376d 65be f406 143b 9778 e83d 0f39 e13d
000003e0: 8f54 bc3e 1de5 10bd 88b6 923d 1d22 9dbb
000003f0: dc1f d3bc 9279 b8bc 0340 983c db8c a33c
0.0949402 -0.03434356 -0.051278733 -0.200413 0.044723034 0.15147693 -0.00786464 0.09190173
-0.018339774 -0.004692305 0.138253 0.034756992 -0.06843903 0.18995166 -0.1351476 0.06538186
-0.29664963 0.094680235 -0.13272293 0.04963965 -0.094008505 -0.13554235 0.0209134 0.19572061
-0.0068630883 -0.10083602 0.011104753 -0.06919393 0.058216315 -0.016900241 -0.006241352 -0.32649252
0.044705946 -0.032339614 0.14355326 0.07174662 -0.13247332 0.0949081 0.110742606 -0.061808314
0.079806164 0.04043834 0.090321384 0.04028853 -0.06268549 0.043120217 0.027254429 -0.00033453325
0.0754488 0.01679643 0.1270775 -0.03555989 0.07169199 0.030122237 -0.17727423 -0.11658518
-0.03274224 -0.034140863 -0.04254841 -0.008349726 0.0053335545 -0.16284442 -0.020233983 -0.06550936
0.015324806 -0.00084690884 0.066826485 -0.08607612 0.03765714 -0.044979483 -0.025377324 -0.3470248
-0.0006732757 -0.07527728 0.040044382 -0.06679033 0.15417467 -0.008214265 0.014293108 -0.12827101
-0.13664049 0.118708104 -0.2276736 0.097731404 0.01006809 -0.09627057 -0.0351794 -0.18256389
0.031351913 -0.055824503 0.04393656 0.03561887 -0.0025114233 -0.12974334 -0.07114288 0.045693617
0.25442448 0.052081127 -0.056796826 0.058996614 -0.1192246 0.13839427 0.052618172 -0.1399668
-0.048116058 0.031495288 0.2235258 0.027213207 -0.11814459 0.22435203 -0.014716464 -0.05509436
-0.10198331 -0.25941643 0.11005741 -0.045389414 -0.32205105 -0.133529 -0.04121951 0.072291024
-0.12469557 -0.16286068 -0.010080659 -0.1178872 -0.026807543 0.15195714 -0.029551463 -0.031034552
0.07734887 0.057888754 0.04062896 -0.01720513 -0.021843469 -0.06543038 0.07978314 -0.07642048
0.020481285 0.0042084204 0.13196798 0.14265841 0.16178155 0.21263054 -0.03377591 -0.034966197
-0.08780092 0.31213176 0.109481424 0.05405982 -0.42946985 -0.019603124 0.1578497 -0.34664783
0.05191785 0.07955608 0.040448856 0.021418814 -0.011369348 0.091194555 0.07257871 0.19169241
-0.1128357 0.009822522 -0.09099212 -0.016928628 -0.049879562 0.030847756 -0.01046389 -0.24909182
-0.04379855 -0.07769971 -0.36982813 0.2287142 -0.04085676 -0.08757982 -0.41588554 -0.049865138
0.038288467 -0.032692805 0.14618851 -0.06905785 -0.2339039 -0.09026029 -0.2705831 0.009340732
-0.25370473 -0.044029694 0.1199424 -0.017736942 -0.14402938 -0.059503283 -0.15390798 0.1770209
-0.08670049 0.05277519 -0.08017201 -0.23739539 -0.25454032 0.0064497534 -0.05351219 -0.54816717
0.117922746 0.030758418 0.06686213 -0.25703627 -0.023611348 -0.083635084 -0.03303175 -0.21892975
-0.010121876 0.17586254 -0.039950546 0.018477965 0.05729334 -0.048953798 -0.14711626 0.017666256
-0.4592788 0.044059478 0.06367692 0.06654539 0.054301225 -0.11754557 -0.10368781 -0.08624096
0.08832607 -0.42760846 -0.021583455 0.07708209 -0.10314702 -0.21008702 -0.035352416 -0.2672662
-0.0050721043 -0.4476792 -0.042177115 -0.05425861 0.15227816 0.12658867 -0.0761063 -0.11273035
0.1271823 -0.27798852 0.05486403 0.03677094 -0.22404943 0.0022587152 0.11351126 0.10997211
0.36783263 -0.03537475 0.07163721 -0.0047953264 -0.025772028 -0.022518907 0.01858521 0.019964626

_policy.4.bias f4 [128]
00000000: 3803 2b3d 6989 39bc 67c6 4b3d 7ef2 bebc
00000010: d5e1 d83c 8d35 04be d4ca c0bd 06c6 9ebc
00000020: d553 9cbd b7e7 d73c 84a6 083d 79d8 003e
00000030: b12f 8ebd 9af1 bdbd 0142 01bd 46c2 c13d
00000040: fe52 51bd 8920 7b3d c5d2 3dbe ea85 35bd
00000050: 4c02 7f3d 62c0 c43d ed0f 5e3c bd9e 25bd
00000060: 5806 3cbd 09c8 693d 8a90 1cbe 96cf d9ba
00000070: 9b2c 0a3d 67bd babd 1219 223d 9e25 723d
00000080: d2ec ca3d 5b6c 1f3e 6acb 10be e4aa 6abd
00000090: bbe0 fb3d 140c 26be 17cf 6e3c 4f68 d4bc
000000a0: e228 b33a 478c 81bb 6333 973d 8593 a6bc
000000b0: 3f5e e03a 35c7 d6bd 8c30 23be 66e9 96bd
000000c0: 453f d13d 61fb 5f3d f948 35bd 6811 f2bd
000000d0: ce12 823c 0f6f 87bd 81f7 343d a300 223d
000000e0: 5149 84bd dadb 69bc f8aa 33bd 7bb4 4ebd
000000f0: 2ab7 b1bd 2bdc 90bd 7eef cc3c f744 3e3d
00000100: 801c 1c3d 1643 74bd da7a 0cbd 5feb ac3c
00000110: b4dd 973d 770c c1bd 0a9e 143d 03fa 813d
00000120: ce87 f4bd df1d 973b d2df cb3d 05b6 8dbd
00000130: 4c00 99bc 1287 cc3d 8cb4 a03d dad1 803d
00000140: 7a2d 06bc 5c9f 9f38 0eec 7b3c d70f f3bc
00000150: 84e9 33be f0f4 cb3d b6d3 633a f892 7ebd
00000160: 75fa a3bd e374 f4bd eb70 893d 9f53 653d
00000170: 8bef 02bc c6ff 67bd 0ee4 77bd 2ed7 0a3d
00000180: 3fad dcbc da03 7e3d b562 9d3d 14c0 bc3c
00000190: 30d8 98bd ad8f e7bd 7206 85bd 76e8 423d
000001a0: e87e 213d 3690 be3d ba1b 4d3d c889 bbbc
000001b0: aa38 5f3d 56bc f4bb e8ba d1bd a75f 84bd
000001c0: d885 77bc c289 25bd d5ae 85bd f225 973b
000001d0: 1955 b63d c529 c7bd 8483 98bd a694 bfbd
000001e0: 50b9 8b3b 39f1 113c a056 0cbd 1283 12bd
000001f0: df6e e53b 059a 6abd 4e5d f5bc 2489 e33c
0.041751117 -0.011324265 0.049749758 -0.023308989 0.026474873 -0.12911053 -0.094136864 -0.019381534
-0.07633177 0.026355607 0.033361927 0.12582578 -0.0694269 -0.092745975 -0.031557087 0.09460883
-0.05110454 0.061310325 -0.18537433 -0.044317164 0.06225805 0.096070066 0.013553602 -0.040434588
-0.045904487 0.057075534 -0.15289512 -0.0016617652 0.033733945 -0.09118157 0.03957469 0.059117906
0.09908451 0.15568678 -0.14140096 -0.05729188 0.12298723 -0.16215545 0.014575741 -0.025928644
0.00136688 -0.00395349 0.07382848 -0.020334015 0.0017117931 -0.104872145 -0.15936488 -0.07368736
0.10217146 0.054683093 -0.044259045 -0.11819726 0.015878107 -0.066129796 0.04418135 0.03955139
-0.064592965 -0.014273608 -0.04386422 -0.05046509 -0.08677514 -0.07073244 0.025016543 0.04645249
0.038113117 -0.05963429 -0.034296848 0.021108327 0.074153334 -0.094262056 0.03628353 0.06346514
-0.11939965 0.004611715 0.099548 -0.06919483 -0.0186769 0.099867 0.078469366 0.06290026
-0.008189553 7.611394e-05 0.015376104 -0.029670639 -0.17569548 0.099588275 0.000869091 -0.06215188
-0.08006755 -0.11936357 0.067109905 0.05598795 -0.007991682 -0.05664041 -0.060520224 0.033896618
-0.026938079 0.062015392 0.076848425 0.023040809 -0.074631095 -0.11306701 -0.0649537 0.047584973
0.039427668 0.0930485 0.05007527 -0.022892848 0.0544974 -0.0074687405 -0.10240728 -0.06463557
-0.015107594 -0.04041458 -0.06527487 0.0046126777 0.0890295 -0.09724764 -0.074469596 -0.09354524
0.0042640343 0.00890761 -0.0342623 -0.03576953 0.0070017423 -0.05727579 -0.029951718 0.027775355

_policy.6.weight f4 [128, 128]
00000000: f088 2e3e 09a5 523e f27c 813b 0018 07be
00000010: e766 643e 5f9c babd 45f2 31bd 3e80 fe3d
00000020: 00aa ce3d a805 303c 3b82 123e 0717 94be
00000030: caf6 9b3d 1ade 253c 7000 60bc e4ba a23d
00000040: 7c4b d8bc 2441 383e c356 893d 64e6 8bbe
00000050: bfc4 ba3d 5bf1 5a3e 49ae 9f3d d985 8a3e
00000060: 4437 4bbe 6500 9d3d eca0 913d d989 ccbd
00000070: 9ddf 233e 7059 8c3c 9fd8 813d 38b3 ffbd
00000080: 5ca1 763c ce79 2bbd 731f 873e 748d 1bbe
00000090: a132 113e eb2f 673d 753b 603d 9d36 0bbe
000000a0: aa35 efbd faab 94bd 8529 8cbd 8c66 01bc
000000b0: 5cde 3cbc 439b 1a3d 2dcb 7fbe 3d4c 86be
000000c0: 9c53 62be 5459 dabb a2f8 003e 66c8 663d
000000d0: abd0 d13d 1e02 823d d703 733d 7432 923d
000000e0: 0b7d abbe 0795 11be 18f0 7b3d f271 13be
000000f0: 085a 213d fb82 533e 4d1b c9bd 79fd 34bd
00000100: 5eaa 7cbe 6ab0 a43d 2a91 263d e1d2 f6bc
00000110: 3f69 2b3e 2bd4 d83d ed5d 9c3c 64c3 ccbd
00000120: 22aa 7dbd 399c 3bbe f139 0fbd a7da b4bc
00000130: 7352 453d 2ed6 693d ab33 533e f674 f13c
00000140: 0e55 8ebb 7b3d b93d f3a4 ffbc f186 7d3c
00000150: 9972 8cbd 08db 7f3c 1d04 41be bccd a1bd
00000160: 78fb 9dbd 43cd ccbd 5b65 2a3e ce72 bdbd
00000170: b335 2dbe 0511 013d 0490 4bbe 6c4d 10be
00000180: af7f 2a3c f91b b4bd ab1f 8d3c 685f d4bd
00000190: 40a9 b23d b723 9a3d d563 8cbd 8b5e 2f3e
000001a0: 776e 12be 4339 90bd f600 173e 1407 0ebd
000001b0: 4ab8 01bd 321f 9b3c 04eb 2ebc 76a1 ac3d
000001c0: ede3 03be cf7b 143e d356 913d efaa 6e3d
000001d0: 4b38 e1bd bc8b cc3c ac1a c43d 3bc6 083e
000001e0: 0673 883e d7cd f53c 9c33 093d fc97 c6bd
000001f0: dc70 54be dd2d a43d 8d02 2fbd 08cc 043e
00000200: 7764 403c 4141 663e d075 263e f37b 4bbe
00000210: 029a f9bd 27be f13b cf1d e3bd 1085 f23c
00000220: 9da6 f43d 503e 1ebe 6ca7 fabc 3c90 9c3c
00000230: dbe3 84bd 9708 a0bd 39ad a0bb e3b9 66be
00000240: eb0d d83d 666f b7be 37b9 88be 3858 ae3d
00000250: bb27 4e3d ddc4 1ebe b140 19bd a6cc 1c3d
00000260: 67f9 01be d3bb d9bd 8b21 3ebd 8ca6 82be
00000270: 63b1 83bd 2161 87bd 3022 8c3b d2a1 943d
00000280: 9614 923d aab9 c2ba 4dca 1fbd b604 8c3d
00000290: dede a0bb 41cf c73d f286 19be e2c2 113e
000002a0: a907 1ebd 6cef 683c 522a 93be 64b2 793d
000002b0: 851b 083e 0ecd 87be 16d3 e8bc c87f 5f3d
000002c0: 8644 36be ed75 9c3d 595a 2bbe a6b3 02be
000002d0: 755b cbbe 4196 5fbe ac73 b5bc 04e6 313a
000002e0: 9ea4 493e 263f 673e ae60 1cbe fa69 2d3d
000002f0: 31b1 cf3c efb9 45bd c38d 91be 4fc2 34bd
00000300: 4f4e 29bd caef 13be 373b aebe b0ec 833e
00000310: 0624 a4be 0aa6 09bd 4f1e 2b3e a348 2e3e
00000320: 86d0 05bd b214 ea3c 6e23 12be 5567 9abb
00000330: 27f1 1abd 1382 dfbe 1116 e7bd b08c 96bc
00000340: c528 e5bd 64f3 083e 7ef2 2ebe 743a bfbe
00000350: ca39 0b3d 7832 323d 8fd1 833e 54b0 7cbe
00000360: cd20 653e 6a18 6abe 525b 623d 0418 d2bb
00000370: 93d7 21bd b937 58bd c123 043e 7fba 9a3e
00000380: 0862 e13c 7382 e13b 565d 4dbe e922 b63d
00000390: 9352 9a3d bd77 403e 19c6 01bc 19cc 0b3e
000003a0: a840 923e d3b4 12be 4aee 1e3e b795 3c3e
000003b0: cd96 8abd a3a4 06be 4adb 663e 8bbf cabe
000003c0: d17c 1cbd 2cd6 86bc 8af2 083e c4c2 08bd
000003d0: 97ef 953c e5b9 b23d 7d80 9ebd 87ba 49be
000003e0: 243a 41be e495 9fbe 75a3 11bc 499b 1fbd
000003f0: 4bc7 6dbd ac59 12be 56ff b7bc d849 abbd
0.17044425 0.20570768 0.003951662 -0.13192749 0.22304879 -0.09111857 -0.043443937 0.12426804
0.10091019 0.010743536 0.14307491 -0.28923818 0.07615431 0.010123754 -0.013671979 0.07945803
-0.026403181 0.17993599 0.067060016 -0.27324212 0.091195576 0.21381132 0.07796914 0.27055243
-0.19845301 0.07666091 0.071107715 -0.0998723 0.1600327 0.01713249 0.06340145 -0.12485355
0.0150531195 -0.04186421 0.2639118 -0.15190679 0.1417947 0.056442183 0.054744203 -0.13595052
-0.116801575 -0.072593644 -0.06843857 -0.007897984 -0.011527624 0.037745725 -0.24979849 -0.2623004
-0.22102207 -0.006663481 0.12594846 0.05634346 0.102448784 0.0634806 0.059329834 0.071385294
-0.33493838 -0.14217006 0.061508268 -0.14398935 0.0393925 0.20655434 -0.0981966 -0.044187043
-0.24674365 0.08041461 0.040665783 -0.030129852 0.16739367 0.10587343 0.019087756 -0.09998205
-0.06192983 -0.18321313 -0.034967367 -0.022076918 0.048174333 0.057089023 0.20625179 0.029474717
-0.0043436354 0.090449296 -0.031206584 0.015474067 -0.06857795 0.015616186 -0.18849225 -0.07900569
-0.077139795 -0.10000088 0.16640227 -0.09250413 -0.16915016 0.03151037 -0.19879156 -0.14092034
0.010406419 -0.08794398 0.017227015 -0.1036976 0.08723688 0.07526343 -0.06854979 0.17125909
-0.14299951 -0.07042172 0.1474646 -0.03467472 -0.031669892 0.018935774 -0.010676149 0.08429234
-0.12879916 0.14500354 0.070966385 0.058268484 -0.10997065 0.024968974 0.095754 0.13356869
0.26650256 0.030005379 0.033496484 -0.096969575 -0.20746177 0.0801656 -0.042727042 0.12968457
0.011742703 0.2248583 0.1625588 -0.19871502 -0.12187578 0.0073774043 -0.1108967 0.029604465
0.119458415 -0.15453458 -0.030597411 0.019111745 -0.064887725 -0.078141384 -0.0049034622 -0.22531848
0.1054953 -0.35827178 -0.26703808 0.0851292 0.05033086 -0.15504785 -0.03741521 0.038281105
-0.12692796 -0.10631528 -0.046418708 -0.2551769 -0.06430318 -0.06610323 0.0042765364 0.07257427
0.07132833 -0.0014856358 -0.03901129 0.06836836 -0.0049093803 0.097563274 -0.14992884 0.14234498
-0.038581524 0.014217239 -0.28743225 0.060961142 0.13291748 -0.26523632 -0.028420966 0.05456522
-0.17799577 0.0763968 -0.16733684 -0.12763843 -0.39718214 -0.21834661 -0.022149883 0.0006786289
0.19691703 0.22582683 -0.15271255 0.042337395 0.025353046 -0.048273023 -0.28428468 -0.04413062
-0.041334447 -0.14446941 -0.34029552 0.25766516 -0.32058734 -0.033605613 0.1671078 0.17019896
-0.032669567 0.028574321 -0.14271328 -0.004712025 -0.037827637 -0.43653926 -0.11283506 -0.018377632
-0.11189417 0.13374096 -0.17084691 -0.37349284 0.03399066 0.043505162 0.25745818 -0.24676639
0.22375794 -0.22860876 0.05526287 -0.0064115543 -0.03951223 -0.052787516 0.12904264 0.3022041
0.027512565 0.006882006 -0.20055136 0.08893377 0.07535281 0.18795677 -0.007920765 0.13652076
0.28564954 -0.14326791 0.15520588 0.18416487 -0.06767044 -0.13148741 0.2254459 -0.3959926
-0.03820497 -0.016459547 0.13373771 -0.033388868 0.018302722 0.08726863 -0.07739351 -0.19700061
-0.18869835 -0.31169045 -0.008889069 -0.03896645 -0.05805139 -0.1429202 -0.02246062 -0.08363694

_policy.6.bias f4 [128]
00000000: 0666 0e3d 1358 c0bd e06f 673d 9f4c d13d
00000010: dbfb e3bc f206 33bc cb57 863d 1c1f 9e3c
00000020: ab72 213e f2d3 643c 71eb d03d f210 203e
00000030: 8365 8d3d 0b24 48bd edb8 b1bb 26a3 81bd
00000040: f702 553d 6849 1d3d 148f e7bd 2603 94bc
00000050: ef4d 2e3d 817f ef3d bf71 ca3d 51ab 7e3d
00000060: ade8 17ba 5ace 513d 478c 12ba c3e9 cb3c
00000070: e49a 613d 8e8c 873d 0f50 52bd 3178 48bd
00000080: 5a20 4c3d ec02 d23c 6771 38bd a9dd a93d
00000090: d443 81bc 382a 983d 3d53 6a3d 9c01 983c
000000a0: 8888 6fbd 753e c7bc c9c0 0a3e fef3 6e3c
000000b0: 5bf4 d6ba f51a 453c 4989 e5bd 559e 0f3d
000000c0: 0442 013e c94d 803c 5589 973d 7dd6 e5bd
000000d0: 7e39 b2bd 280c d4bd 1974 dd3b 4f31 60bc
000000e0: 6f8b 8f3d 459f b33d 2537 4bbc 6418 fb3d
000000f0: 5ffd c63d f3ab 463c 5ee2 f3bd fefd 973d
00000100: 88ef 64bc b39b 333d f6f8 f73d 9ef8 143e
00000110: 6a0b cbbd a0aa 1d3d d9d4 a8bc 2be3 0d3e
00000120: 1931 1dbe ad5e 43bd 1889 b33d 5847 27bd
00000130: f50d ab3d 7555 83bd 31ff 9bbc b882 333d
00000140: df5c e43c 28c7 9b3b 0297 e7bd f467 c1bc
00000150: e301 4b3d 0521 c83d febf 223d d365 2c3d
00000160: fc6b 223d 823e b53c 04d2 b63d 57a6 5f3e
00000170: b5a1 e33d 31dd 153d 58b7 4e3c 7eda d13c
00000180: c306 953d 7d62 6d3d 41b6 d03d fc4a 9f3d
00000190: 234a 1cbe 441d 2a3e 2745 e93c fc98 bd3d
000001a0: 3391 f5b9 c369 c73c 9d02 9b3d 8209 6ebd
000001b0: 48e7 d2bd c5f8 153e 6fb0 2a3e 23f6 c0ba
000001c0: e2cc 6dbd 48c1 053d 5398 633c 4c8f 803c
000001d0: 9c92 623c 0b2e 623d 8a45 d8bc d5d7 b63d
000001e0: 2ec1 b8bc 5133 0c3e 6d82 363e 2df4 193e
000001f0: 82ce a33d 20f8 e4bd 3f47 f3ba 44c3 fbbb
0.034765266 -0.09391799 0.056503177 0.102196924 -0.027830055 -0.010926949 0.06559714 0.019301943
0.15766399 0.013966547 0.10201157 0.15631464 0.069041274 -0.0488625 -0.005423656 -0.06329946
0.05200478 0.038400084 -0.11306587 -0.018067908 0.042554792 0.11694241 0.098849766 0.0621751
-0.0005794864 0.051222183 -0.0005590361 0.02489174 0.055079356 0.066186056 -0.05134588 -0.04894275
0.04983554 0.025636159 -0.045030024 0.082942314 -0.015779413 0.074299276 0.05720829 0.018555455
-0.058479816 -0.024321774 0.13550104 0.014584539 -0.0016399728 0.012030353 -0.11207826 0.035063107
0.12622839 0.01566209 0.07399241 -0.11222551 -0.08702372 -0.10353881 0.0067582247 -0.013683631
0.07009017 0.087706126 -0.012403284 0.122605115 0.097162955 0.012125957 -0.119084105 0.07421492
-0.013973124 0.04384966 0.121080324 0.14547965 -0.099142864 0.0384928 -0.020609306 0.13856189
-0.1535076 -0.04769771 0.08766383 -0.040839523 0.083522715 -0.06412784 -0.019042583 0.043825835
0.027876316 0.004753966 -0.11308099 -0.023609139 0.049562346 0.09771923 0.03973388 0.042089295
0.039653763 0.022124533 0.08926776 0.21840797 0.111148275 0.036587898 0.012616955 0.02561688
0.0727668 0.057955254 0.10191012 0.07777974 -0.15262656 0.16612726 0.028475357 0.09257695
-0.00046838223 0.024342423 0.07568858 -0.058114536 -0.1029802 0.1464568 0.16668867 -0.0014721792
-0.05805672 0.03265503 0.013891297 0.01569333 0.0138289 0.05521969 -0.026400346 0.089278854
-0.022553053 0.1369145 0.17823191 0.15034552 0.079983726 -0.111801386 -0.0018560662 -0.0076831896

_policy.8.weight f4 [3, 128]
00000000: 14c3 523d e156 ba3d cb71 99bd 3edc 79be
00000010: ea49 7abe 7b35 54be 4df8 643c 3540 583d
00000020: 3f5b b03e 2e71 8a3c e8ff 333e e78e 433e
00000030: e101 41bd 4610 303e 2a7e ffbe 6c79 a2bd
00000040: be05 3f3e 1acf 103e b064 c5be ae07 f93d
00000050: 2cfe 39bd 1b03 98bc 648a 25bd 3b10 ff3e
00000060: 368b 863d 3ed6 85be 1b5a 7abd c3af 9ebd
00000070: ea5c 6abe 5171 313e b74d 613c 1c8d d3bb
00000080: 76f0 36be 196b 9cbd b36e 403e 69a3 3d3e
00000090: 289c 59be 4363 cb3d 6f9a 29bc 5729 5fbc
000000a0: cb9f 9f3e beb5 a9bd d65d b23c 71fd fe3d
000000b0: 47de 883e 36b9 60be ba4c 553f 3f78 253e
000000c0: 0514 03be 17ed 9a3d 8d60 263e 4e77 16bd
000000d0: e7e6 24be 9e8d 533e 5358 c2bc 0785 d3bd
000000e0: beac ad3b f0cd 90be 6756 3ebd 5e71 373e
000000f0: 9846 1abb 42ef 8d3c 2bd3 d4be dd4b 40be
00000100: 0b10 ce3d 690f 943e 1faf 483e 27fb 7e3b
00000110: 68bf 4b3e a4aa db3d a653 8e3e 7605 87bc
00000120: 86ab fa39 c8e2 1c3e 2082 d43d 66f3 c8bd
00000130: bd1a f9bd c1c0 303e ef7e 18be 718a 393e
00000140: 9c16 273c 21c9 5fbe 131a d9bd 395b 0bbe
00000150: 69ef 8d3c d7e2 b63e adc3 50be cb8f 6cbd
00000160: 5ce3 25be 7596 903e 93ea 15be bc8b 71bd
00000170: dd6b 76be 7c37 64bd 0443 6e3e 87bd 103e
00000180: 7d69 1d3e bcf5 8bbd 355d ce3e 5ebd 02be
00000190: f5a4 d23c 0ab4 17be fe19 80be b46c edbe
000001a0: 1d4e 12bd 9e7b 473e 742c 40be 57f4 0e3e
000001b0: 88b4 f33d 5a2d 0f3e 714d 45be 7834 97bc
000001c0: cb28 aebe cfe9 2ebd 87a8 6a3e 60b3 99bd
000001d0: 4a77 cebc a9fc 68be 13cc 083e 120e aaba
000001e0: a4a4 033e b778 88bd 80e6 fdbd c994 3f3e
000001f0: 2cee 7c3e 6d19 573e 5738 7ebc 464e 2d3c
00000200: 04ff ed3d 8b42 613e cb38 33be 8b6c 223e
00000210: f84c 663e a5d7 ddbc 9b24 ce3d d18e 1e3e
00000220: c993 a3be 79f3 963d 606b d7bd 317e 5dbd
00000230: 87a0 74bd b33f 9739 5d23 bb3e 5e6a a3bd
00000240: 89cd 73be 3688 0abe 6cdb 573e 4fc3 e23c
00000250: 4006 003e c65c 363e b9cf 62bd d4a8 84be
00000260: 4cbd 66be 341b 8b3d e568 d6bd c3ae 90bd
00000270: 9686 d13d 20bb 84be 7bb2 8e3c 456b 033d
00000280: bc25 b33e 93f0 e6bc 7c27 f0be 584c 213d
00000290: d1fa 04be ba0c 07be 017f bb3e f74d 533d
000002a0: b0ae ab3d 9aa5 ac3d 2773 a03e 9989 0abe
000002b0: c057 cebd a330 fd3d 02cd 29bf 56b5 52be
000002c0: 6815 79bd 7df6 3d3e 19c4 25bd 5b49 3b3e
000002d0: 58e2 723e 92d1 11be 7926 443e 4f62 4ebe
000002e0: 0af6 823e e952 d03d 4f3c 0c3e 0097 853d
000002f0: ee8a 943d a986 b0bc faab 4e3e b064 e03e
00000300: 7534 7abe 2612 3cbe e4b5 77bc 0db3 1c3e
00000310: f2be d03d d62a 07be 91b4 3e3e 2002 c43e
00000320: 048b e23a acd3 96be 52dd 433d 15cc 8dbd
00000330: 4e8a 1f3e 6e00 f8bd 4f9f 64be e315 dfbd
00000340: 2086 f3bd fd78 503c 00ef ca3d e46b 8b3e
00000350: 1aff 2f3e a819 d2bc 76db 113e 2273 eabd
00000360: 03a4 3b3e 197d 40bd fdd1 ea3d 4fa3 b0be
00000370: 19f7 71bc fed5 15be d2be c4be c814 ba3a
00000380: 67a4 a0be dbd5 a13e fb67 35be 0365 053e
00000390: 0b59 02be 505f 67be e07c 81bc a30e 4f3b
000003a0: aba5 a23d cbf5 c0bd a860 923c 34d8 99be
000003b0: 7d0e 6b3e 1a7f 88be 243a a43e d363 693d
000003c0: 2d99 b63d d19d 203e 2990 4cbe b650 c83d
000003d0: 6eb2 f23d a59b 413c 58a3 e5be 9466 67be
000003e0: 47ee fc3b 9f17 bd3d af15 ae3e 70c6 91be
000003f0: 38c8 5b3c 9e6a 3dbe e096 ec3d 6c47 6bbe
0.051455572 0.09098602 -0.074924074 -0.24400422 -0.24442258 -0.20723526 0.013975215 0.052795608
0.34444615 0.016899671 0.17578089 0.19097482 -0.047120932 0.17193708 -0.49900943 -0.07933316
0.18654534 0.14141503 -0.3855338 0.12159668 -0.045408413 -0.018556168 -0.040415183 0.4981707
0.06569521 -0.26140016 -0.061121088 -0.07748368 -0.22887006 0.17328383 0.013751439 -0.0064560305
-0.17865166 -0.07637615 0.18792228 0.18519367 -0.21250975 0.09931042 -0.010351761 -0.013620696
0.311766 -0.08286618 0.02177326 0.12450684 0.26732084 -0.21945652 0.833202 0.16159151
-0.12800606 0.075647525 0.16247769 -0.03673487 -0.16103707 0.20659491 -0.023723757 -0.10328107
0.0053001335 -0.28282118 -0.04646912 0.1791434 -0.0023540612 0.017326001 -0.41567358 -0.1877894
0.10061654 0.28918007 0.19598053 0.0038907023 0.19897234 0.107259065 0.27798194 -0.016482096
0.0004781151 0.15320885 0.10376382 -0.098120496 -0.12163303 0.1726103 -0.14892171 0.18119217
0.010198262 -0.21854068 -0.106006764 -0.13609017 0.017326074 0.3571994 -0.20387144 -0.05775432
-0.16200012 0.2823979 -0.14640264 -0.05897115 -0.24064584 -0.055716977 0.23267752 0.14134799
0.15372272 -0.068339795 0.40305486 -0.1276755 0.025713423 -0.14814773 -0.2501983 -0.46371996
-0.035719026 0.1948075 -0.18766958 0.13960396 0.11899668 0.13982144 -0.19267823 -0.018457636
-0.34015498 -0.042703446 0.2291585 -0.07504916 -0.025203366 -0.22752632 0.13359098 -0.0012974164
0.12855774 -0.066636495 -0.1239748 0.18709101 0.2470023 0.21005793 -0.015516362 0.010577744
0.11620906 0.2199804 -0.17502134 0.15861718 0.22490299 -0.027080366 0.10065576 0.15484168
-0.3194869 0.073706575 -0.10518527 -0.054075424 -0.059723403 0.00028848424 0.36550418 -0.07979272
-0.23808874 -0.13528523 0.21079797 0.027681021 0.12502384 0.17808828 -0.05537388 -0.25910056
-0.22533149 0.06792298 -0.10469226 -0.07064583 0.10230748 -0.25924015 0.01741909 0.032084722
0.34989727 -0.028190887 -0.46905124 0.039379448 -0.12986304 -0.13188449 0.36620334 0.051588025
0.08382928 0.084300235 0.31337854 -0.13529052 -0.10075331 0.12362792 -0.6632844 -0.20576987
-0.06081143 0.18551059 -0.040470216 0.18289702 0.23719156 -0.14240101 0.19155301 -0.20154689
0.25578338 0.10172064 0.13694881 0.065229416 0.07253061 -0.021548586 0.20182791 0.43826818
-0.24434073 -0.18366298 -0.01511905 0.15302677 0.1019267 -0.13199934 0.18623568 0.3828287
0.0017283862 -0.29458368 0.04781849 -0.06923691 0.15580103 -0.12109457 -0.22326396 -0.108928464
-0.11890817 0.012724158 0.09908867 0.27230752 0.17187157 -0.025647 0.14243874 -0.11447741
0.18324284 -0.046994302 0.11465833 -0.34499595 -0.014768385 -0.14632413 -0.38426834 0.0014196867
-0.3137543 0.3160847 -0.17715447 0.13026814 -0.1272928 -0.22594953 -0.015806615 0.0031594418
0.07941755 -0.09421881 0.017868355 -0.30047762 0.22954746 -0.2665947 0.32075608 0.056979965
0.08915935 0.15685202 -0.19976868 0.097810194 0.11850439 0.011816894 -0.44851184 -0.22597724
0.0077188346 0.09233021 0.34000918 -0.28471708 0.013414435 -0.18497702 0.115522146 -0.22976464

_policy.8.bias f4 [3]
00000000: 8cac d13c 0d70 6fbc 1cd5 d8bc
0.025594972 -0.014614117 -0.026468806

_value.0.weight f4 [128, 22]
00000000: c69a 773d b36c 193e d4c1 ffbd 4377 4f3d
00000010: 5e24 d43c dc46 1ebe 226e d73d 4425 06bd
00000020: 66fe 2e3e b546 37be c162 22bb 1dde 2d3e
00000030: 7faa de3d 0e7e 1dbd ead7 3bbc 48df 903d
00000040: e9cb f2bb c23b 483e 315e eb3c eb08 0a3e
00000050: 74dd 9e3d a415 97bd 8dce 32be 3e70 0fbe
00000060: c86a 77bd 63dd 48bd e609 e23c b8ab 21be
00000070: 10ac 8bbd fd6b 083e cbe5 a3bc 97e5 9dbd
00000080: 15aa 18be 941f 72bd 0114 1bbe ed28 2b3e
00000090: 305e 0a3e b95e 483e 101e f9bd 3ae8 1cbe
000000a0: ca73 103d cd35 4abe 7df7 c2bd 9b86 703d
000000b0: 81e5 d8bc d507 00bd f4a9 7fbd 8572 17be
000000c0: 92a8 253e e96b 253e b2a5 d9bd c9e0 323e
000000d0: 2bed 073e a856 903d dec3 373e 6d92 193e
000000e0: 700c 25be 2e52 53be bfa6 11be 59bc 57be
000000f0: c5b7 0abe 8316 62bc 9fc2 6cbd 6ab0 c3bd
00000100: ba08 1abe 056b a83d 44da f0bd c738 643d
00000110: 4418 d4bb ea4a 4cbe 8e5c 27be 426f 283d
00000120: 59fc 7c3d 27fa 3e3d 467f 933a b1da dabd
00000130: 17f4 c83d f625 6d3d 63d4 843e 381b aa3c
00000140: 2126 033e dc30 34bd 009d 67bc be87 84bd
00000150: fae7 00be dfe2 573d d774 2ebd d257 813e
00000160: 5cf3 11be 2b4a 633e fc07 5ebe 8cc5 be3d
00000170: d449 e73b 720a c93d 6f39 403d abbc a83d
00000180: 840a 9bbd bd73 dabd 4bb2 30be a7ef a8bd
00000190: 6c27 9d3d 8c0a bc3d c772 6bbd 8987 51bd
000001a0: 72ad 03bc da5d e13d 4e90 80bc c2bf 613d
000001b0: d590 a83d 30c6 b33c cc03 35be d10e 6a3e
000001c0: d611 e33d 3187 e8bd ec56 0e3e c349 18be
000001d0: b5cd 0b3e 3155 393d 9a8f bb3d c4c1 883c
000001e0: 6f4e 12be 4be9 873d ba1e 023e 2b26 bb3d
000001f0: 13bb 283e e152 b93d e9ee 15bc ddf9 30be
00000200: 5fef 74bc d043 18be 4b00 c4bd 7916 4bbe
00000210: b111 9c3d 51f7 353e a727 d1bd 5813 353e
00000220: 0212 59bd f5b1 2ebe ea7f fd3c 8ff6 05bd
00000230: 641e 6e3d 9051 5fbd 0145 50be 2b19 44bd
00000240: 90b7 18be a9cb 423e 6574 2ebe 1373 093e
00000250: 5a47 a63d 6867 a1bd 4e57 f83d 865e 27be
00000260: dec8 17be 6f80 1d3d 5549 a8bd 3c3c 1cbe
00000270: 71a9 713c 1efe 1fbe d668 e23d 0241 1a3e
00000280: 3b82 f63d 39fa 333c 1796 b2bd 8c0b 1e3e
00000290: 26ad 8fbb c6dd 24be c790 8c3d 76ce 50be
000002a0: f2ea bb3d 66e5 bbbd 185e 4c3d adba aeba
000002b0: 1558 52be 389c 7e3d e04d 3e3e 0d95 133e
000002c0: 35ca d93d 0723 46be dc45 7cbd a9bb eabd
000002d0: 2e0e b5bd cea6 8a3c 4bd1 043e 2281 253e
000002e0: 47dd 07bd e75d 3a3e 067d 4dbd 30b3 11be
000002f0: e24c 093e 7528 08be 2eda 3bbe cd5b 26be
00000300: 4f30 3e3e f921 0d3d d74f 003d 1af2 afbd
00000310: 8fef 3fbe a854 463e 1acf 59bd 3da0 ef3d
00000320: bfc6 b93d 68ef 1fbd d175 3b3d e399 b2bd
00000330: 8b60 4f3d ea3c 2dbe ef3d bebb af1f be3d
00000340: 7003 a5bd 6bcf 463e 655a 23be e669 43be
00000350: 465b 1e3e 1342 5abd e1b0 bdbc 979a 32be
00000360: 0c06 30be 8a36 193d 452f 5f3d df94 ca3d
00000370: 4e52 0e3e 1a81 1bbe 10f3 26bd 03cd 0c3e
00000380: 3fb5 f83d 38d8 9fbd 8b8b 45bd 6ace 823d
00000390: edad 053e 206a 9d3d 40b3 ec3c ba01 2fbc
000003a0: a8c1 803d 65e4 693c ea23 f63c d0bc c93d
000003b0: 05ed 08be 5c66 e5bc a560 363e 494f b7bd
000003c0: 202d 7fbc a16c 2dbe 3887 81bd 07f7 66bd
000003d0: aa64 dc3b 6d98 9dbd fcc4 25be a88a dabd
000003e0: 7fa9 1bbd 3644 2fbd 2132 5a3d d5a0 1dbb
000003f0: 1859 233e 93db 113e cf94 1f3e 9ddd 2e3e
0.060450338 0.14982872 -0.12488142 0.050650846 0.025896247 -0.15456718 0.10519053 -0.032750383
0.17089233 -0.17898066 -0.00247781 0.1697926 0.10872363 -0.038450293 -0.011465052 0.070738375
-0.007409562 0.19554046 0.028731437 0.13479964 0.077570826 -0.073771745 -0.17461605 -0.14007661
-0.06040457 -0.049039256 0.02759261 -0.15788162 -0.06819928 0.13322444 -0.020007035 -0.077098064
-0.14908631 -0.059112146 -0.1514435 0.1671483 0.13512492 0.19567384 -0.12163937 -0.15322962
0.035266675 -0.19747086 -0.09519861 0.05872212 -0.026476623 -0.03125747 -0.06241794 -0.1478978
0.16177586 0.16154446 -0.10627307 0.17468561 0.13274066 0.07047778 0.17945811 0.14997263
-0.16118026 -0.20636818 -0.14223765 -0.21067943 -0.13546665 -0.0137993125 -0.057802793 -0.09555133
-0.15042391 0.08223537 -0.11760381 0.05571821 -0.0064726193 -0.19950452 -0.163439 0.04112173
0.061764095 0.046625283 0.001125314 -0.10686243 0.098121814 0.05789753 0.25943288 0.020764932
0.12807514 -0.04399191 -0.014136553 -0.06471203 -0.12588492 0.052706596 -0.042591896 0.25262314
-0.1425299 0.22196262 -0.21682733 0.09315023 0.0070583615 0.098164454 0.046929773 0.082391106
-0.07570365 -0.106666066 -0.17255513 -0.08248835 0.07673535 0.09181699 -0.057482507 -0.051154647
-0.008036958 0.11004229 -0.01569381 0.055114515 0.082307495 0.02194509 -0.1767723 0.22857215
0.11087386 -0.11353911 0.13900346 -0.14871888 0.1365269 0.04524726 0.09158249 0.016693957
-0.14287733 0.06636294 0.12707034 0.09138139 0.16477613 0.09049011 -0.009151199 -0.17282815
-0.014949649 -0.14869618 -0.095703684 -0.19832791 0.07620562 0.17770125 -0.10212641 0.1768316
-0.05299569 -0.17060073 0.030944783 -0.03270584 0.05813445 -0.054521143 -0.20338823 -0.047875565
-0.14913774 0.19023003 -0.17036588 0.13422804 0.08119078 -0.07881051 0.12126027 -0.16344652
-0.14822719 0.038452562 -0.08217112 -0.15257353 0.014749871 -0.15624282 0.11055152 0.15063861
0.12036558 0.010984951 -0.087200336 0.15434092 -0.0043846546 -0.16100225 0.068635516 -0.20391259
0.09175672 -0.09174614 0.049894422 -0.001333078 -0.20541413 0.0621607 0.18584394 0.14412327
0.10634271 -0.193493 -0.06159006 -0.114615746 -0.08840595 0.016925242 0.12970464 0.16162542
-0.03317001 0.18199883 -0.05016806 -0.14228511 0.13408235 -0.13296683 -0.18344948 -0.16245957
0.18573116 0.034456227 0.03132614 -0.08591099 -0.18743728 0.19368231 -0.053176023 0.11700485
0.09071111 -0.039046675 0.045766655 -0.08720758 0.05062918 -0.16917768 -0.005805723 0.09283387
-0.08057296 0.19415061 -0.15952452 -0.19083366 0.15464506 -0.05328567 -0.023155631 -0.17441784
-0.17189807 0.037405528 0.05448844 0.09891676 0.13898584 -0.15185967 -0.040759146 0.13750081
0.12143945 -0.07804912 -0.04822878 0.063870266 0.13054629 0.07686257 0.028894067 -0.010681564
0.06286937 0.014275645 0.030046422 0.09850466 -0.13371666 -0.02800291 0.17810304 -0.08950669
-0.0155747235 -0.1693597 -0.06324619 -0.056387927 0.0067258673 -0.076950885 -0.16188425 -0.10670978
-0.03800344 -0.04278966 0.053270463 -0.0024052162 0.15951955 0.14243917 0.1558411 0.17076726
