logs/weight_colliion_obj_obs = 0.4/model/model_600.pth (torch, 427625 bytes, 19 tensors)

_policy.0.weight f4 [128, 22]
-0.37139946 -0.06510659 0.13485506 0.26901442 -0.423364 -0.17539519 0.13023697 -0.062417652
0.5870361 0.3401528 -0.042456698 0.17524286 0.17082167 0.2954677 0.012997029 -0.110052474
-0.16235371 0.09219119 0.07512928 0.1257356 -0.11971163 -0.31354672 -0.39875796 -0.22316857
0.14097767 0.9356033 0.05469321 -0.03587665 0.17091875 -0.14630719 -0.78957886 0.13283043
0.28864828 0.2630176 0.36308062 0.16528998 0.15695523 -0.05884915 0.014761307 -0.22031496
-0.33004043 0.047327403 0.033303197 -0.06921645 -0.5395756 -0.0069210054 0.29700226 0.005965102
-0.22538182 0.059847083 0.011948945 0.11699298 1.2700745 -0.39522234 0.27942333 0.113218874
0.30571824 0.37216216 0.07340689 0.15490806 -0.1466773 0.10006101 -0.039202403 -0.046511933
-0.122375004 -0.14445125 -0.20038499 -0.5033197 -0.22789674 0.5238289 -0.20243904 -0.49648833
0.1582683 0.38989687 -0.031414643 0.43784466 -0.18467867 0.03384038 -0.3382953 0.47055447
-0.26112714 -0.13034715 -0.20755294 0.04337156 -0.27549294 0.21475568 0.15151893 0.12293003
1.0328511 -0.5848627 -0.12237971 0.2713705 0.7604156 -0.6453014 -0.24023952 -0.5841821
-0.61554426 0.34399524 0.12258582 -0.15023905 -0.16365549 0.04212529 0.0032579647 0.1725326
0.072830416 0.035411835 0.0933821 -0.09889718 -0.054615 -0.040755372 -0.63703686 0.87803876
0.38061082 -0.62435806 -0.25233364 0.49972212 0.17309576 0.22278523 0.023572607 -0.9764753
-0.297207 -0.1905084 -0.2770752 0.041135218 0.013382047 -0.016594406 0.17671171 0.055694375
-0.015122753 -0.10135077 -0.047756776 0.104129754 -0.052739102 0.14528759 -0.18194598 0.4639724
0.347826 -0.17284968 -0.7521607 0.13926646 0.5871184 -0.6718393 0.026870126 -0.15362792
-0.734362 0.14278898 -0.028071834 -0.0071162796 -0.07856198 -0.12273196 0.33080146 -0.20512171
0.19825979 -0.06839751 -0.45038676 -0.31079614 -0.04323761 0.8662361 0.30006543 0.29102638
-0.111746565 -0.45711643 -0.86720717 0.6816031 -0.015633507 -0.22392127 -0.11785058 0.025502551
-0.10355484 0.09472717 -0.04527695 -0.25874877 0.08082579 0.038828038 -0.06219268 0.12871411
0.06184242 -0.2798297 -0.0734142 0.20167841 0.5064199 0.0710879 -0.13597968 0.054887164
1.6641273 0.9727519 -0.0628312 0.025790013 0.1345172 0.1400024 0.19031923 -0.22823615
0.19319631 -0.06984078 -0.07765868 0.0136718815 -0.10166206 0.11271515 0.39348966 0.6459975
-0.5094741 -0.80069125 -0.22461903 0.5179507 -0.30198985 -0.6623195 -0.63902694 0.24911271
-0.101736516 0.29204205 0.32081786 -0.12688254 0.03421548 0.07265599 0.09716652 -0.20487632
-0.025369715 0.07222126 -0.10829638 -0.19990115 -0.5613495 -0.18472292 0.15723953 0.029452503
-0.59979147 -0.25842452 0.14759676 0.17597325 1.296472 0.36572763 0.15104546 -0.20289917
0.055055555 0.13950911 -0.019210497 0.112982884 0.16770606 -0.033748355 -0.13709961 0.005118853
-0.0869898 -0.042995717 -0.11654825 0.16439638 -0.8614948 -0.12461426 -0.18404694 0.026073603
-0.040275052 -0.43261442 -0.40887433 -0.27599427 -0.067035936 -0.049673185 -0.37354133 -0.35790518
00000000: 1228 bebe 9b56 85bd 7217 0a3e 42bc 893e
00000010: 2bc3 d8be cc9a 33be d75c 053e a7a9 7fbd
00000020: ff47 163f 8228 ae3e 13e7 2dbd dd72 333e
00000030: e0eb 2e3e 8b47 973e 7ef1 543c 3163 e1bd
00000040: 0d40 26be bcce bc3d 61dd 993d d5c0 003e
00000050: 5f2b f5bd 3289 a0be 012a ccbe 4d86 64be
00000060: 735c 103e b383 6f3f fd05 603d 65f3 12bd
00000070: 5305 2f3e 8dd1 15be d721 4abf b304 083e
00000080: b5c9 933e 3eaa 863e b4e5 b93e c741 293e
00000090: dfb8 203e ce0b 71bd 69d9 713c 3f9a 61be
000000a0: 0ffb a8be 61da 413d ef68 083d 5bc1 8dbd
000000b0: a021 0abf 9ac9 e2bb ae10 983e e776 c33b
000000c0: 7eca 66be 3722 753d 82c5 433c 049a ef3d
000000d0: cd91 a23f 955a cabe 9310 8f3e 4cdf e73d
000000e0: 1a87 9c3e 0a8c be3e 5a56 963d 38a0 1e3e
000000f0: 9332 16be c9ec cc3d b392 20bd 4c83 3ebd
00000100: bf9f fabd 07eb 13be b931 4dbe 8fd9 00bf
00000110: c35d 69be a719 063f 2e4c 4fbe b833 febe
00000120: 1611 223e 90a0 c73e a4ac 00bd 2d2d e03e
00000130: 681c 3dbe 369c 0a3d 0b35 adbe 84ec f03e
00000140: 75b2 85be b979 05be c288 54be 60a6 313d
00000150: 690d 8dbe eae8 5b3e c727 1b3e bdc2 fb3d
00000160: 7734 843f 90b9 15bf 37a2 fabd 13f1 8a3e
00000170: 99aa 423f 7932 25bf 5901 76be f58c 15bf
00000180: 4f94 1dbf 2520 b03e 460e fb3d 44d8 19be
00000190: 4e95 27be 918b 2c3d 9483 553b 63ac 303e
000001a0: 1d28 953d 000c 113d 1d3f bf3d 9b8a cabd
000001b0: fab3 5fbd 1bef 26bd d914 23bf 26c7 603f
000001c0: 6cdf c23e eed5 1fbf e031 81be 94db ff3e
000001d0: 0440 313e d021 643e 571b c13c 49fa 79bf
000001e0: 842b 98be a214 43be cddc 8dbe 677d 283d
000001f0: 6040 5b3c fef0 87bc eaf3 343e c91f 643d
00000200: 6cc5 77bc fe90 cfbd 9c9c 43bd fb41 d53d
00000210: f504 58bd 45c6 143e 0c50 3abe ca8d ed3e
00000220: 4016 b23e 82ff 30be 9b8d 40bf de9b 0e3e
00000230: 644d 163f a9fd 2bbf bd1e dc3c a350 1dbe
00000240: 26ff 3bbf 4637 123e e7f6 e5bc ae2f e9bb
00000250: 1ae5 a0bd e55a fbbd cf5e a93e 6d0b 52be
00000260: 9d04 4b3e fe13 8cbd 1899 e6be ac20 9fbe
00000270: ec19 31bd a6c1 5d3f 2da2 993e 6901 953e
00000280: 62db e4bd 2a0b eabe 4a01 5ebf 8a7d 2e3f
00000290: d711 80bc 9e4b 65be a55b f1bd baea d03c
000002a0: 8f14 d4bd 5200 c23d 5374 39bd b87a 84be
000002b0: fe87 a53d 260a 1f3d c0bd 7ebd a2cd 033e
000002c0: 7a4e 7d3d d745 8fbe 2f5a 96bd c984 4e3e
000002d0: bca4 013f 8896 913d 423e 0bbe 5dd1 603d
000002e0: 2002 d53f 4506 793f a5ad 80bd 9445 d33c
000002f0: e0be 093e ca5c 0f3e 0be3 423e bdb6 69be
00000300: 41d5 453e af08 8fbd 840b 9fbd 0700 603c
00000310: 3334 d0bd 33d7 e63d 7a77 c93e 1860 253f
00000320: e56c 02bf 1afa 4cbf 8802 66be 6b98 043f
00000330: 6a9e 9abe c58d 29bf 4597 23bf 6717 7f3e
00000340: 3c5b d0bd 8986 953e 3d42 a43e 7fed 01be
00000350: 8825 0c3d aacc 943d 3eff c63d 19cb 51be
00000360: 26d4 cfbc bde8 933d 7eca ddbd e3b2 4cbe
00000370: 9ab4 0fbf 0128 3dbe 6603 213e 6046 f13c
00000380: ef8b 19bf 3850 84be 9b23 173e 5532 343e
00000390: cbf2 a53f a740 bb3e a9ab 1a3e cdc4 4fbe
000003a0: ef81 613d 7adb 0e3e 555f 9dbc 9263 e73d
000003b0: 23bb 2b3e b73b 0abd d763 0cbe 0dbc a73b
000003c0: b527 b2bd 471c 30bd d9b0 eebd 8657 283e
000003d0: ec8a 5cbf c335 ffbd cd76 3cbe 4f98 d53c
000003e0: 74f7 24bd a37f ddbe fa57 d1be 1f4f 8dbe
000003f0: 234a 89bd 1c76 4bbd cf40 bfbe 593f b7be

_policy.0.bias f4 [128]
-0.026015058 0.017596446 -0.17028403 -0.17905244 -0.01205535 -0.11296388 0.043372776 0.034400225
-0.04333867 0.1937153 0.14255716 0.16078372 -0.17678005 -0.2639211 0.0006011592 -0.11311985
-0.031181017 0.03753982 -0.23615068 0.06363325 0.120164335 -0.046805523 -0.19638783 0.23708755
-0.05838089 -0.007295877 -0.024320133 -0.07916599 0.071593024 -0.22169103 -0.2523162 -0.12132303
0.14797822 -0.070855655 0.08154655 0.075704664 0.20734286 -0.2091415 -0.11477849 0.013740887
0.0029247727 0.06887145 -0.16579396 -0.1346334 0.0493495 -0.14581172 0.13724862 0.1394074
-0.0708755 -0.22290644 -0.32643858 -0.13036682 -0.26595372 0.15353978 -0.21605626 -0.10021272
-0.043128926 0.13836195 0.24251752 -0.048193686 -0.07270655 -0.023640668 -0.21718885 -0.118807495
-0.081077695 -0.0874059 0.06398951 -0.1079303 -0.101176485 -0.18131585 -0.15524915 -0.006790926
-0.19625948 0.21654704 -0.09153227 0.09454333 -0.055695336 -0.14034815 -0.12164787 -0.11697395
0.059288815 0.003576915 0.055398513 -0.18913926 -0.1006313 0.0075593335 -0.15971266 -0.03313682
-0.05106563 -0.21086068 0.10054605 -0.21824272 0.09432781 -0.21249656 -0.17284583 0.014965712
-0.25645778 -0.0985963 -0.119603984 -0.15701795 -0.21931021 -0.17640653 -0.14034799 -0.038676422
-0.003772087 0.0067354343 -0.21208552 -0.24597138 -0.0147673115 0.11747236 0.12187344 -0.152398
-0.1676938 -0.08922351 -0.2729271 0.13288453 0.02998044 0.036396828 -0.06070654 0.2041682
0.08152497 -0.039345097 0.090505585 -0.125864 -0.014661269 -0.16918334 -0.17249554 -0.2687844
00000000: 881d d5bc 6c26 903c f05e 2ebe 8659 37be
00000010: cd83 45bc 9b59 e7bd a7a7 313d 40e7 0c3d
00000020: e483 31bd 4e5d 463e 81fa 113e 7da4 243e
00000030: d405 35be ab20 87be 1c97 1d3a 61ab e7bd
00000040: 556f ffbc 5bc3 193d 7cd1 71be 2652 823d
00000050: b818 f63d 26b7 3fbd e419 49be 14c7 723e
00000060: cd20 6fbd 4112 efbb 043b c7bc c721 a2bd
00000070: 5d9f 923d f902 63be 972f 81be 3578 f8bd
00000080: 9a87 173e c51c 91bd e101 a73d 0c0b 9b3d
00000090: b051 543e 3029 56be fc10 ebbd 7521 613c
000000a0: 8bad 3f3b 7a0c 8d3d e4c5 29be 57dd 09be
000000b0: b422 4a3d ab4f 15be e78a 0c3e d0c0 0e3e
000000c0: 2d27 91bd 9641 64be f522 a7be e17e 05be
000000d0: 162b 88be 8839 1d3e da3d 5dbe 543c cdbd
000000e0: f5a7 30bd c1ae 0d3e 8356 783e be66 45bd
000000f0: 2ce7 94bd 13aa c1bc c166 5ebe 5851 f3bd
00000100: 100c a6bd dd01 b3bd ef0c 833d 900a ddbd
00000110: 9e35 cfbd ddaa 39be a2f9 1ebe 6b86 debb
00000120: 3ff8 48be 82be 5d3e 4575 bbbd ef9f c13d
00000130: cb20 64bd 6db7 0fbe 8522 f9bd 0a90 efbd
00000140: d4d8 723d ad6a 6a3b 8de9 623d b9ad 41be
00000150: c817 cebd 49b4 f73b b78b 23be 79ba 07bd
00000160: 322a 51bd ddeb 57be 16eb cd3d 057b 5fbe
00000170: f02e c13d b398 59be 7ffe 30be bf32 753c
00000180: 6f4e 83be dbec c9bd eff2 f4bd 50c9 20be
00000190: db92 60be eaa3 34be 62b7 0fbe 2b6b 1ebd
000001a0: 1e35 77bb ebb4 dc3b f22c 59be ecdf 7bbe
000001b0: 98f2 71bc 5995 f03d c898 f93d 390e 1cbe
000001c0: ecb7 2bbe d1ba b6bd 1abd 8bbe e212 083e
000001d0: 8a99 f53c d714 153d 6ca7 78bd 7811 513e
000001e0: 90f6 a63d 5328 21bd fe5a b93d 7ee2 00be
000001f0: d235 70bc 663e 2dbe aca2 30be 1c9e 89be

_policy.2.weight f4 [128, 128]
0.031487506 -0.019777406 -0.050502833 -0.12106836 0.2983718 -0.5905918 0.05354378 -0.07684534
0.1161621 -0.6811049 0.10126041 -0.2907862 -0.04579589 -0.23678057 -0.44066393 0.04591458
-0.12564631 -0.1612762 -0.3089814 0.22043002 0.111347556 -0.0060116234 0.16765471 -0.34915298
-0.48381686 0.022458958 -0.29828724 0.18227603 0.10599408 0.08245228 0.043738857 -0.43718252
0.020362573 -0.060437214 0.14481731 -0.20571756 0.06894805 -0.24342366 0.103428796 0.19914748
-0.3844114 -0.22643654 0.12027418 -0.12110984 0.01290845 -0.106773354 0.088609815 -0.09757356
-0.2141044 -0.27239034 -0.025484627 -0.006319339 0.2427985 0.40899616 -0.10231674 -0.17463897
0.23216441 -0.006804845 -0.0954567 0.17502803 0.12691996 -0.015545869 -0.048219293 0.32246774
0.023981066 0.23054326 -0.013125066 -0.10753548 0.048473842 -0.098715976 0.00075792486 -0.14883816
-0.03541309 -0.20721419 -0.23947804 -0.25387916 -0.14166671 -0.06693187 -0.16362995 0.16531128
0.07763642 -0.03627577 0.08585327 -0.4138583 -0.38448212 0.006222571 0.010887692 -0.0070185573
-0.051749885 0.040659472 0.006164445 0.08909745 0.11046995 -0.23194674 0.13720138 0.08300864
-0.055626232 0.195416 0.013582135 -0.0010851647 -0.1926871 -0.014823564 0.0723749 0.12906417
-0.20435965 -0.011981029 0.14328134 0.06438434 -0.10829089 -0.27720883 -0.45336077 -0.103388704
-0.15638694 0.09010022 -0.0047041173 0.10694773 -0.057706125 -0.015128582 -0.3357895 0.08611972
-0.010072865 0.10371417 0.012193045 -0.43878162 -0.22872981 -0.3273386 0.11392009 0.20769648
-0.06140583 -0.05980903 -0.055664554 -0.028407155 0.014663428 -0.04848445 0.021407485 0.042645685
0.008201685 -0.00938073 -0.06437628 -0.11796675 -0.0067549543 -0.056351375 -0.108683795 -0.05066766
-0.08765347 -0.118350975 -0.081710584 0.042888436 -0.12541732 0.0060305055 -0.084956445 0.040537354
-0.032752458 -0.0379163 -0.02708536 -0.077526234 -0.097748004 -0.042773515 -0.0073657115 -0.06818931
-0.07395296 -0.05856099 -0.0443032 -0.054178447 0.004638344 -0.018967777 -0.070944615 -0.07303782
0.07849728 0.012813721 0.0023514323 0.009558812 0.059018426 -0.09680593 -0.05311028 -0.11582167
-0.10427453 -0.06941916 -0.028747676 -0.11442327 -0.0140749365 0.02036266 -0.11415532 -0.004554025
-0.015577358 -0.077720486 0.049331326 -0.09432861 0.04657864 0.028507441 -0.05484953 -0.03494683
0.04443075 0.03009999 -0.07211348 -0.035023365 -0.024249867 0.04829905 -0.06190344 -0.034180176
0.039344218 -0.07958229 0.0021670721 -0.07741135 -0.07725439 -0.12314217 -0.027355667 -0.03286951
-0.044622682 -0.005033838 -0.000297699 -0.063339554 0.035877697 0.034933403 -0.0110730985 -0.03440077
0.0074495864 0.026683904 -0.023700574 -0.106420316 0.007291824 -0.02104153 0.06317614 0.039225936
0.015683208 -0.08773212 -0.0916417 -0.12460725 -0.11701237 -0.03601365 0.04195877 0.0043091676
-0.09667434 0.008419899 -0.09880147 0.036375757 0.06181695 -0.02670002 0.0063454956 -0.02800785
-0.024517037 0.0435305 0.016264068 0.030139197 -0.009700287 -0.07508193 0.025757436 -0.13164258
0.04969754 -0.0025834537 -0.10772815 -0.09995276 -0.047450107 0.048905816 0.032493576 -0.05947017
00000000: 0bf9 003d 3a04 a2bc 0fdc 4ebd b0f2 f7bd
00000010: 30c4 983e 0631 17bf b950 5b3d 1761 9dbd
00000020: 65e6 ed3d e45c 2ebf 9e61 cf3d eee1 94be
00000030: 7994 3bbd 9b76 72be b49e e1be ed10 3c3d
00000040: 6da9 00be 9725 25be cf32 9ebe 68b8 613e
00000050: 300a e43d 27fd c4bb adad 2b3e 2ec4 b2be
00000060: d8b6 f7be d9fb b73c 1bb9 98be 91a6 3a3e
00000070: 6d13 d93d bedc a83d 8427 333d 63d6 dfbe
00000080: 69cf a63c 038d 77bd fd4a 143e a0a7 52be
00000090: a334 8d3d 0d44 79be 7ad2 d33d 51ed 4b3e
000000a0: 92d1 c4be fbde 67be 4f52 f63d 7008 f8bd
000000b0: f77d 533c fdab dabd 1079 b53d a6d4 c7bd
000000c0: 2f3e 5bbe bf76 8bbe 23c5 d0bc 7512 cfbb
000000d0: 2ca0 783e f267 d13e 708b d1bd 8fd4 32be
000000e0: 82bc 6d3e 2dfb debb cd7e c3bd 8c3a 333e
000000f0: 4ef7 013e 1ab4 7ebc 9881 45bd 7e1a a53e
00000100: f173 c43c 8813 6c3e 840a 57bc 903b dcbd
00000110: 828c 463d 9a2b cabd 7aaf 463a 0869 18be
00000120: 510d 11bd f52f 54be bb39 75be 73fc 81be
00000130: 1411 11be 9413 89bd 9c8e 27be 5c47 293e
00000140: d8ff 9e3d e795 14bd d7d3 af3d 3ce5 d3be
00000150: d7da c4be b5e6 cb3b 4a62 323c edfb e5bb
00000160: b0f7 53bd 8c8a 263d 1dff c93b b978 b63d
00000170: 123e e23d 7283 6dbe 857e 0c3e 6f00 aa3d
00000180: 55d8 63bd 221b 483e 9a87 5e3c 163c 8eba
00000190: c44f 45be 89de 72bc 4b39 943d 6629 043e
000001a0: a843 51be 144c 44bc 58b8 123e f0db 833d
000001b0: 9dc7 ddbd 51ee 8dbe e71e e8be 75bd d3bd
000001c0: e623 20be 7786 b83d ff24 9abb 6907 db3d
000001d0: 425d 6cbd dfdd 77bc 9aec abbe 895f b03d
000001e0: a808 25bc 1868 d43d 56c5 473c fca7 e0be
000001f0: 2638 6abe ed98 a7be f04e e93d 63ae 543e
00000200: ae84 7bbd 50fa 74bd 8400 64bd 1fb6 e8bc
00000210: e03e 703c a197 46bd c05e af3c 3ead 2e3d
00000220: 5c60 063c a2b1 19bc b6d7 83bd 8d98 f1bd
00000230: aa58 ddbb b3d0 66bd 9c95 debd e488 4fbd
00000240: aa83 b3bd ff61 f2bd e157 a7bd c9ab 2f3d
00000250: 666d 00be 8c9b c53b a5fd adbd 7f0a 263d
00000260: 7127 06bd 1f4e 1bbd 1ee2 ddbc 13c6 9ebd
00000270: 1b30 c8bd 4833 2fbd 115c f1bb d6a6 8bbd
00000280: a674 97bd a6dd 6fbd 4677 35bd 38ea 5dbd
00000290: 40fd 973b 5062 9bbc 694b 91bd da94 95bd
000002a0: 2fc3 a03d a4f0 513c 7d1a 1a3b 909c 1c3c
000002b0: 4ebd 713d 3042 c6bd 2a8a 59bd e933 edbd
000002c0: e38d d5bd a22b 8ebd 3f80 ebbc bf56 eabd
000002d0: 909a 66bc 98cf a63c 44ca e9bd ee39 95bb
000002e0: 2d38 7fbc eb2b 9fbd a50f 4a3d 5c2f c1bd
000002f0: 3ec9 3e3d 7088 e93c e7a9 60bd 6824 0fbd
00000300: 05fd 353d 4194 f63c 3bb0 93bd a974 0fbd
00000310: a8a7 c6bc 3ad5 453d 768e 7dbd 8300 0cbd
00000320: 6727 213d 0afc a2bd 7005 0e3b d889 9ebd
00000330: 8d37 9ebd f631 fcbd fe18 e0bc 2ea2 06bd
00000340: 46c6 36bd e5f2 a4bb 7c14 9cb9 2bb8 81bd
00000350: 7ef4 123d 5416 0f3d f16b 35bc d2e7 0cbd
00000360: a91b f43b 3498 da3c b527 c2bc e5f2 d9bd
00000370: 41f0 ee3b 495f acbc 7e62 813d 60ab 203d
00000380: 127a 803c e6ac b3bd a5ae bbbd 1632 ffbd
00000390: 2ea4 efbd 0d83 13bd f6dc 2b3d eb33 8d3b
000003a0: 32fd c5bd 9ef3 093c 6d58 cabd bffe 143d
000003b0: c533 7d3d 00ba dabc e0ed cf3b b870 e5bc
000003c0: f4d7 c8bc 0a4d 323d 393c 853c 7ae6 f63c
000003d0: f4ed 1ebc 8ec4 99bd 4201 d33c 50cd 06be
000003e0: a68f 4b3d 294f 29bb 94a0 dcbd 08b4 ccbd
000003f0: 0b5b 42bd 7751 483d fc17 053d fe96 73bd

_policy.2.bias f4 [128]
-0.15212795 -0.15135372 -0.13915055 0.0391976 -0.01264197 0.067383826 -0.042071413 0.02736407
-0.03530725 0.078775756 -0.08749042 0.08776178 0.07437389 0.052329566 0.04858575 0.06785799
0.066059664 0.13528773 0.1508404 0.06118566 -0.0402885 -0.030659791 0.037880197 -0.022220947
-0.07614514 -0.028344702 0.08103194 -0.16062646 -0.16488579 0.05744262 -0.08363451 -0.090753786
-0.07626772 0.0057282215 -0.079923205 -0.15384884 -0.037992902 -0.0076055634 0.024206443 -0.09995708
0.14260867 -0.111829676 0.047617823 -0.07263215 -0.016028475 0.0031616027 0.018708339 -0.04169429
0.016132355 -0.110869974 -0.08124664 -0.006688536 0.07807796 -0.07056036 0.05275226 -0.0020210107
-0.027281485 -0.14277834 0.0007275872 -0.12476575 -0.030286508 0.073524974 -0.114602685 -0.021163605
-0.08341561 -0.01867761 0.03119029 -0.0013836903 -0.10367327 -0.094308004 -0.04472777 -0.031112667
-0.12316303 -0.13022293 0.10424966 -0.16229828 0.114736885 -0.12176696 0.07768275 -0.05541504
-0.009566683 -0.024694862 0.027168635 0.055805936 -0.040172234 0.13017856 -0.054258678 -0.08372429
-0.045725618 0.0018046948 -0.13938665 0.05272709 -0.054051045 0.068421826 -0.18568407 -0.12734522
-0.0072357384 0.0067232503 -0.1023671 -0.063629836 -0.13069308 -0.07597063 -0.0007277262 0.07884273
-0.03683309 0.08676194 -0.16841212 -0.025142573 -0.13927096 -0.08684819 -0.051579006 0.06306428
0.06582824 0.049071647 -0.09739017 0.074940324 -0.10206599 -0.02981845 -0.12954742 0.04631426
-0.06696812 -0.089395665 -0.07068292 -0.07611012 -0.13242422 0.01904322 -0.08789823 0.03732185
00000000: 6ec7 1bbe 78fc 1abe 7b7d 0ebe aa8d 203d
00000010: 4420 4fbc 8800 8a3d 1353 2cbd 9d2a e03c
00000020: 569e 10bd 2f55 a13d 2d2e b3bd 73bc b33d
00000030: 5751 983d 8757 563d da01 473d 21f9 8a3d
00000040: 4a4a 873d de88 0a3e e875 1a3e d19d 7a3d
00000050: 8e05 25bd 3e2a fbbc 4428 1b3d b408 b6bc
00000060: fcf1 9bbd 2633 e8bc 13f4 a53d 437b 24be
00000070: d2d7 28be f448 6b3d 9248 abbd 1fdd b9bd
00000080: 4032 9cbd ceb3 bb3b c7ae a3bd 8d8a 1dbe
00000090: 729e 1bbd 1738 f9bb 974c c63c 4cb6 ccbd
000000a0: 0208 123e f506 e5bd e80a 433d 2ac0 94bd
000000b0: 264e 83bc e432 4f3b 3b42 993c a2c7 2abd
000000c0: 0028 843c cc0f e3bd a364 a6bd 822b dbbb
000000d0: 56e7 9f3d f381 90bd c112 583d ef72 04bb
000000e0: 6c7d dfbc 7c34 12be 8dbb 3e3a 2f85 ffbd
000000f0: 691b f8bc 4394 963d d0b4 eabd 4c5f adbc
00000100: ced5 aabd ca01 99bc c782 ff3c f15c b5ba
00000110: a752 d4bd 8e24 c1bd 7734 37bd fedf febc
00000120: e63c fcbd 2959 05be d980 d53d 8531 26be
00000130: 2cfb ea3d f560 f9bd 2218 9f3d e2fa 62bd
00000140: 94bd 1cbc e14c cabc c290 de3c c494 643d
00000150: a48b 24bd 874d 053e 593e 5ebd a477 abbd
00000160: c94a 3bbd 828b ec3a 60bb 0ebe 5cf8 573d
00000170: a164 5dbd be20 8c3d f723 3ebe c966 02be
00000180: c619 edbb b64e dc3b d8a5 d1bd 5c50 82bd
00000190: 68d4 05be 7d96 9bbd e1c4 3eba 4c78 a13d
000001a0: 4bde 16bd 3eb0 b13d 3a74 2cbe ccf7 cdbc
000001b0: 0c9d 0ebe 77dd b1bd 8244 53bd d827 813d
000001c0: f5d0 863d 5aff 483d 7f74 c7bd 507a 993d
000001d0: f907 d1bd d245 f4bc 14a8 04be 06b4 3d3d
000001e0: 9526 89bd 1315 b7bd 35c2 90bd 9fdf 9bbd
000001f0: 379a 07be 8700 9c3c fd03 b4bd ccde 183d

_policy.4.weight f4 [128, 128]
0.17929116 -0.03434356 -0.03257578 -0.17087197 0.19955413 -0.005375232 0.13467818 0.08670381
-0.029184043 0.09855193 -0.10698452 0.20075835 -0.09580447 0.036739483 -0.19376431 0.20224418
-0.36929843 0.12821886 -0.27676803 -0.07924478 0.02791465 -0.22810261 -0.05688043 0.17945068
0.119076364 -0.19730645 0.012248965 -0.07438967 0.058216315 -0.21294932 0.025241861 -0.3916059
0.058660045 -0.16355436 0.22000743 0.05453848 -0.010458169 -0.062784635 -0.0860969 -0.0499312
-0.29189312 -0.12931362 0.16046906 0.13171001 0.07956592 0.043120217 -0.0694729 0.08209833
0.033732347 0.0466005 0.032974575 -0.055789173 0.06992091 -0.03729437 -0.45895997 -0.08901152
0.021259926 -0.034140863 0.038029563 0.20437182 -0.12018898 -0.13494545 0.034806553 0.037921276
0.015324806 -0.10743971 -0.066813365 -0.24156332 0.05762015 -0.3204498 -0.2456564 -0.29945934
0.110547625 -0.07527728 -0.16836074 -0.089084774 0.26053137 0.012819392 0.05875594 -0.34857905
-0.47876686 -0.07799294 -0.39438215 0.03142363 -0.039925043 -0.101040885 -0.30959204 -0.29690683
0.11455961 -0.055824503 0.2361666 -0.06045366 0.15512797 -0.010398495 -0.05564779 0.045693617
0.23588884 -0.15065348 -0.105140574 0.07400868 -0.5036086 0.19277227 0.023055576 -0.33282024
-0.048116058 0.30418643 0.019334182 -0.03496667 0.12788805 0.20496249 -0.09858711 0.18944143
-0.10209837 -0.41087368 0.23205912 -0.025181616 -0.2550748 -0.3253927 0.1300606 0.13545384
0.18555199 -0.3133687 -0.010080659 -0.31329453 -0.026807543 0.22988006 -0.18424957 0.041291658
-0.1121937 0.057888754 0.04062896 -0.17663226 -0.015265504 0.24629328 0.07510875 -0.21349825
0.020481285 0.04327616 0.1815097 -0.09292804 0.02308798 0.38601288 0.14606403 0.09558575
-0.18129434 0.28037447 0.11929038 0.05264056 -0.5994291 0.14994536 0.2307416 -0.2834078
0.13321179 0.1181761 0.20688383 0.1726199 -0.011369348 0.095785245 0.07070914 0.020521995
-0.13359351 -0.1275358 -0.23977166 -0.016928628 0.018211303 -0.11229089 0.12929568 -0.2321413
0.07910025 -0.28561565 -0.38439116 0.25222835 -0.061483625 -0.075473726 -0.8767969 0.1055566
-0.058424316 -0.056829978 0.1199097 -0.06905785 -0.14752153 0.0031890387 -0.37674242 0.14446269
-0.33055443 -0.044029694 0.11268654 0.017820247 0.24691524 -0.16151018 -0.31699193 -0.004453724
-0.086523645 -0.2723574 -0.02662887 -0.014906214 -0.0746977 0.22910722 0.12683305 -0.4316144
0.016555876 0.030758418 -0.12825693 -0.2681083 0.23446068 -0.2539882 -0.33671302 -0.17220391
0.0409199 0.2548326 -0.118314154 -0.011883992 0.03243624 0.0046148035 0.19843826 -0.1117175
-0.76881725 0.044059478 0.08544746 -0.14709076 -0.00461798 -0.057655133 -0.12334195 -0.08624096
0.38998204 -0.4537625 0.18473446 0.082463376 -0.37130055 -0.14939179 0.032149274 -0.01307758
-0.005891544 -0.17935155 -0.36990905 0.06895894 0.09185722 0.17742549 0.15004538 -0.06978196
0.14818008 -0.26433736 -0.07645236 0.037207227 -0.11635098 -0.009458209 -0.013497955 -0.03105995
0.12012467 -0.08165422 0.07272682 0.1012813 -0.025772028 0.017953113 0.007863363 -0.13913639
00000000: 1a98 373e d5ab 0cbd 2e6e 05bd 10f9 2ebe
00000010: eb57 4c3e b722 b0bb 14e9 093e c491 b13d
00000020: 6013 efbc 98d5 c93d b31a dbbd 9993 4d3e
00000030: 2235 c4bd 247c 163d 276a 46be 1919 4f3e
00000040: af14 bdbe ce4b 033e 8ab4 8dbe 164b a2bd
00000050: 44ad e43c bb93 69be 74fb 68bd ebc1 373e
00000060: 4fde f33d b40a 4abe e2af 483c 9c59 98bd
00000070: 3b74 6e3d 630f 5abe 05c8 ce3c 9280 c8be
00000080: 8445 703d cb7a 27be a149 613e be63 5f3d
00000090: bd58 2bbc 3b95 80bd 9253 b0bd a884 4cbd
000000a0: 0473 95be ca6a 04be 0052 243e fdde 063e
000000b0: 75f3 a23d d39e 303d cf47 8ebd 2b23 a83d
000000c0: ee2a 0a3d 2ae0 3e3d 5910 073d 3083 64bd
000000d0: b232 8f3d fbc1 18bd cdfc eabe ac4b b6bd
000000e0: 4c29 ae3c 4ad7 0bbd e3c4 1b3d d946 513e
000000f0: a425 f6bd 242f 0abe 5191 0e3d 5753 1b3d
00000100: e514 7b3c 5a09 dcbd 72d5 88bd 605c 77be
00000110: 1b03 6c3d ff11 a4be 5a8d 7bbe bc52 99be
00000120: cb66 e23d f92a 9abd c266 2cbe 1472 b6bd
00000130: 5e64 853e 6d08 523c 12aa 703d f478 b2be
00000140: ee20 f5be c3ba 9fbd 75ec c9be 10b6 003d
00000150: 7188 23bd 86ee cebd d982 9ebe 2c04 98be
00000160: 3b9e ea3d 3ca8 64bd a8d5 713e 429e 77bd
00000170: ded9 1e3e 735e 2abc f0ee 63bd 3b29 3b3d
00000180: d88c 713e e844 1abe f153 d7bd dd91 973d
00000190: 7eec 00bf 1866 453e 0cdf bc3c 6a67 aabe
000001a0: 5815 45bd 53be 9b3e b862 9e3c 3639 0fbd
000001b0: 16f5 023e b0e1 513e 0ae8 c9bd effc 413e
000001c0: f318 d1bd 095e d2be e8a0 6d3e ad49 cebc
000001d0: 2a99 82be df99 a6be 9b2e 053e 69b4 0a3e
000001e0: 5701 3e3e dd71 a0be 5929 25bc 2468 a0be
000001f0: 7e9b dbbc ae65 6b3e ebab 3cbe 7121 293d
00000200: d0c5 e5bd c21c 6d3d 8d6a 263d 16df 34be
00000210: 2a1c 7abc 4e34 7c3e 9ed2 993d 499f 5abe
00000220: 5ec8 a73c 5842 313d aedd 393e 0e51 bebd
00000230: 0123 bd3c 7ba3 c53e cf91 153e 76c2 c33d
00000240: 39a5 39be 3e8d 8f3e 844e f43d a19d 573d
00000250: 2f74 19bf 478b 193e 8747 6c3e d41a 91be
00000260: ac68 083e 5006 f23d 5bd9 533e 45c3 303e
00000270: 8046 3abc 0e2b c43d f4cf 903d be1d a83c
00000280: bdcc 08be bf98 02be b486 75be e8ad 8abc
00000290: df2f 953c c4f8 e5bd 1666 043e 73b6 6dbe
000002a0: 50ff a13d 373c 92be ebce c4be 1324 813e
000002b0: 41d6 7bbd f891 9abd c375 60bf 0f2e d83d
000002c0: 564e 6fbd 8dc6 68bd 3793 f53d 346e 8dbd
000002d0: e20f 17be 31ff 503b 62e4 c0be 07ee 133e
000002e0: 6e3e a9be 7b58 34bd 33c8 e63d c4fb 913c
000002f0: 59d7 7c3e ed62 25be c44c a2be 8bf0 91bb
00000300: 4f33 b1bd 6e72 8bbe ca24 dabc 3139 74bc
00000310: 1cfb 98bd 159b 6a3e 86e0 013e 90fc dcbe
00000320: 30a0 873c 14f9 fb3c c955 03be 7e45 89be
00000330: 7616 703e be0a 82be a665 acbe 3956 30be
00000340: a09b 273d 6b79 823e b14e f2bd 13b5 42bc
00000350: dddb 043d c737 973b 6633 4b3e 25cc e4bd
00000360: 35d1 44bf b677 343d 14ff ae3d f69e 16be
00000370: 6d52 97bb ca27 6cbd b49a fcbd 1a9f b0bd
00000380: baab c73e 8f53 e8be 082b 3d3e 8fe2 a83d
00000390: 1b1b bebe 29fa 18be f5ae 033d 5943 56bc
000003a0: da0d c1bb efa7 37be b864 bdbe 583a 8d3d
000003b0: a31f bc3d 07af 353e 7fa5 193e d8e9 8ebd
000003c0: 85bc 173e 3a57 87be 0e93 9cbd 9b66 183d
000003d0: 6c49 eebd 9bf6 1abc 8726 5dbc 7071 febc
000003e0: ec03 f63d 543a a7bd cdf1 943d 926c cf3d
000003f0: dc1f d3bc 6812 933c 56d5 003c c579 0ebe

_policy.4.bias f4 [128]
0.046145752 0.034675106 0.10762147 -0.08986955 -0.06953487 -0.25657308 -0.076479666 -0.06576717
-0.18321636 -0.03793281 -0.012915326 0.18969356 -0.13776337 -0.055073816 -0.0040017925 0.18603902
-0.19722943 -0.01270301 -0.35393324 -0.12153072 0.014293892 0.13173833 0.01796153 -0.07639846
0.06714356 -0.12893093 -0.28225195 -0.043365978 0.028857188 0.008129989 -0.13919377 0.03326992
0.015480192 0.21496461 -0.4142792 -0.11881574 0.08388243 -0.2564784 -0.052037477 -0.14427917
-0.04612361 0.019560572 -0.029628403 -0.1709498 0.056322202 -0.13103403 -0.12401353 -0.12891704
0.1323102 0.060780317 -0.11587589 -0.0798545 0.081220016 -0.27960834 0.039894864 0.018190028
-0.11504619 -0.060778357 -0.08605296 -0.013988579 -0.11867131 -0.1646284 -0.007606076 0.009740112
0.044190343 -8.240462e-05 -0.070331745 -0.06440665 -0.12458336 -0.049925104 0.02956272 -0.0025443311
-0.19897328 -0.025246017 0.10848161 -0.16904132 -0.0056652497 0.057432346 0.07947835 0.0895866
-0.040329695 -0.037762497 -0.061985377 -0.07106421 -0.1769847 0.14476462 0.07607958 -0.11869025
-0.16427597 -0.09421028 0.1713057 -0.060258307 0.0026726522 -0.12508778 -0.07797662 -0.057410616
-0.2379682 0.049692426 0.074474074 0.038770977 0.06452592 -0.13025121 -0.13535431 0.037741486
-0.0212063 0.15818092 0.12407426 0.06294487 -0.056269526 -0.018465668 -0.012933871 0.016664859
-0.15161766 -0.06530487 -0.11590188 0.03795232 0.07657964 -0.20489028 -0.061862707 -0.22704399
-0.09877431 -0.11168036 -0.12570515 -0.060763396 0.022385538 -0.2139702 0.08281363 0.053298917
00000000: 5403 3d3d 7c07 0e3d a568 dc3d 870d b8bd
00000010: 4c68 8ebd 8c5d 83be 5fa1 9cbd f0b0 86bd
00000020: 129d 3bbe 6f5f 1bbd ce9a 53bc 073f 423e
00000030: d711 0dbe 1595 61bd 7821 83bb 0381 3e3e
00000040: 83f6 49be 4920 50bc bd36 b5be 19e5 f8bd
00000050: ee30 6a3c 6ae6 063e 0f24 933c cc76 9cbd
00000060: 9082 893d 7806 04be 5483 90be 86a0 31bd
00000070: e965 ec3c a533 053c d088 0ebe 0a46 083d
00000080: a2a0 7d3c af1f 5c3e 671c d4be ab55 f3bd
00000090: 8dca ab3d 2351 83be 4025 55bd ebbd 13be
000000a0: 1cec 3cbd 7e3d a03c 44b7 f2bc 770d 2fbe
000000b0: 1cb2 663d c92d 06be cefa fdbd d402 04be
000000c0: 537c 073e c8f4 783d 5750 edbd c28a a3bd
000000d0: ae56 a63d d328 8fbe cc68 233d 4103 953c
000000e0: 569d ebbd baf2 78bd 893c b0bd 5a30 65bc
000000f0: f209 f3bd 5994 28be 643c f9bb fe94 1f3c
00000100: ef00 353d a5d0 acb8 170a 90bd a2e7 83bd
00000110: 9025 ffbd 447e 4cbd 842d f23c cbbe 26bb
00000120: a7bf 4bbe bcd0 cebc 9b2b de3d 2b19 2dbe
00000130: 8fa3 b9bb 2e3e 6b3d 8cc5 a23d 2e79 b73d
00000140: c030 25bd d9ac 1abd 61e4 7dbd 1d8a 91bd
00000150: 7a3b 35be 2d3d 143e 9ccf 9b3d e013 f3bd
00000160: f637 28be 52f1 c0bd c36a 2f3e 6ad1 76bd
00000170: aa27 2f3b 0317 00be 35b2 9fbd 6527 6bbd
00000180: f0ad 73be 498a 4b3d dd85 983d 51ce 1e3d
00000190: 2a26 843d 9360 05be 529a 0abe d196 1a3d
000001a0: d6b8 adbc 2efa 213e a51a fe3d 3de9 803d
000001b0: e07a 66bd 5045 97bc 96e8 53bc be84 883c
000001c0: a941 1bbe 8fbe 85bd f75d edbd e473 1b3d
000001d0: c9d5 9c3d c2ce 51be c063 7dbd 387e 68be
000001e0: 2f4a cabd acb8 e4bd dab8 00be 0ae3 78bd
000001f0: e061 b73c 011b 5bbe 319a a93d f74f 5a3d

_policy.6.weight f4 [128, 128]
-0.10725232 0.08839547 0.121733144 -0.05465806 -0.13136081 -0.38792828 -0.0021538127 0.108575866
-0.17814837 -0.1580048 0.25196224 -0.17698215 -0.03981101 0.070460744 -0.25756997 0.15218742
-0.06094602 0.08800757 -0.012118677 -0.48660284 0.13668889 0.06280456 -0.01571668 0.13181643
-0.067295775 0.04167698 0.05127242 -0.0266332 -0.13687527 0.020634847 0.034826033 0.16715875
0.03168943 0.072333485 0.36776364 -0.1005417 0.1266178 0.13332754 0.078318685 -0.26188207
-0.20959802 -0.29400986 -0.015058727 0.10981688 -0.19363898 -0.08972011 -0.32133132 -0.24988654
-0.12423128 0.047458936 0.1679476 -0.2042511 0.06588924 -0.012374611 0.0782909 -0.30849192
-0.600942 -0.1265907 -0.070448905 -0.20974354 -0.068226494 0.041263685 -0.14853199 -0.21255152
-0.5834966 0.29094568 0.084350996 -0.5514002 0.14280656 0.12783091 0.04678508 -0.098088704
0.20747557 -0.13355318 -0.26536652 -0.011871117 0.3181132 -0.21236491 0.17997116 -0.074513145
-0.11874426 0.026046999 -0.13966626 -0.25199813 0.105500825 0.07976196 -0.22208917 0.015207815
-0.19204646 -0.22202767 0.24226469 -0.15018454 -0.115798615 0.123580106 -0.27592024 -0.33560693
-0.30752528 -0.22954972 -0.101983 -0.45403615 -0.058640514 -0.011900145 -0.034290086 0.21311548
-0.28971103 -0.049893595 0.34321952 0.18057331 -0.059111893 -0.15719764 0.1028125 0.018289626
-0.09414108 -0.06560953 -0.06512602 -0.03024543 0.02786848 0.1738132 0.15252359 0.09826778
0.4296941 -0.16818683 0.13102563 -0.39384395 -0.2972901 0.06171235 0.031429812 -0.060604814
-0.20643885 0.036776528 -0.090369485 -0.027431631 -0.10479769 0.005275113 -0.3221103 0.106971666
0.040317226 -0.22135685 0.03771285 -0.050502177 -0.098493084 -0.0656494 -0.014054667 -0.30057338
0.29307014 -0.26243722 -0.41374272 0.024433436 -0.005884936 -0.2794043 0.036468282 0.03410727
-0.11017929 -0.19644034 0.113235906 0.052614786 -0.24158792 -0.19753343 -0.17268127 0.3496334
-0.4014003 0.20924635 0.24215041 -0.09005299 -0.014082313 0.058813084 0.14608742 0.061735354
-0.0072548953 0.10853175 -0.8806607 -0.022088151 0.35020378 -0.20055315 -0.14223126 0.09387421
-0.28330144 0.033245534 -0.61934406 -0.09865526 -0.2717623 -0.19087487 0.008932591 -0.078725174
0.0058757723 0.3530044 -0.19962123 0.074543945 -0.10490194 0.03715346 -0.3231952 0.022625675
-0.19812344 0.22932667 -0.15574947 0.1758739 -0.27757147 -0.33931106 -0.0058405166 0.2290446
-0.35314122 0.03603215 -0.046630844 0.085592814 0.12959404 -0.6756365 -0.43995664 0.02241398
-0.2648498 0.19727866 0.066576585 -0.43811783 0.16098548 -0.114858486 0.050535943 -0.30677336
0.14675581 -0.5273691 -0.03475919 0.034735512 0.00066209934 0.13660909 0.1541711 0.2792078
0.053532958 -0.088159285 -0.14836282 0.16021429 -0.3917362 0.06567736 -0.23639794 0.13603364
0.37508634 -0.19429775 0.19975357 0.23021416 -0.1679305 -0.4069864 0.34121013 -0.15241127
-0.19332193 0.06548402 -0.34477684 -0.3758223 -0.11319794 -0.00414827 -0.10510967 -0.3601721
-0.23579238 -0.8564053 0.12405974 -0.08615679 -0.20045961 -0.22232427 -0.01723675 -0.6875947
00000000: 1ba7 dbbd af08 b53d 3a4f f93d 21e1 5fbd
00000010: 7383 06be 899e c6be fb26 0dbb 065d de3d
00000020: 876c 36be 03cc 21be 3201 813e cf3a 35be
00000030: df10 23bd b94d 903d 36e0 83be 05d7 1b3e
00000040: 89a2 79bd 503d b43d 6a8d 46bc 0224 f9be
00000050: 2cf8 0b3e ad9f 803d 44c0 80bc e3fa 063e
00000060: 5ed2 89bd 7bb5 2a3d 0703 523d de2d dabc
00000070: 0829 0cbe 690a a93c bea5 0e3d aa2b 2b3e
00000080: c7cc 013d 9423 943d 844b bc3e cfe8 cdbd
00000090: 19a8 013e 0487 083e 8c65 a03d 6815 86be
000000a0: dda0 56be 7688 96be e1b8 76bc ace7 e03d
000000b0: 4c49 46be 2dbf b7bd 8a85 a4be 42e2 7fbe
000000c0: f86c febd 4d64 423d 75fa 2b3e 3327 51be
000000d0: f0f0 863d e1be 4abc fb56 a03d a7f2 9dbe
000000e0: 56d7 19bf fea0 01be 8447 90bd 03c7 56be
000000f0: 55ba 8bbd 1c04 293d c518 18be 1ba7 59be
00000100: 0860 15bf d5f6 943e 37c0 ac3d 9028 0dbf
00000110: e23b 123e 1be6 023e b6a1 3f3d bbe2 c8bd
00000120: 7a74 543e 2ac2 08be 1fde 87be 137f 42bc
00000130: bcdf a23e 3076 59be 5c4a 383e 599a 98bd
00000140: 3130 f3bd 8460 d53c ac04 0fbe e605 81be
00000150: d110 d83d 3d5a a33d 586b 63be 332a 793c
00000160: d4a7 44be 395b 63be 3c14 783e fac9 19be
00000170: d327 edbd 9117 fd3d 6b45 8dbe acd4 abbe
00000180: f473 9dbe 150f 6bbe 77dc d0bd 6d77 e8be
00000190: 0931 70bd d3f8 42bc c373 0cbd f23a 5a3e
000001a0: 0155 94be 3a5d 4cbd 78ba af3e 36e8 383e
000001b0: 501f 72bd 6bf8 20be 5c8f d23d 20d4 953c
000001c0: 0acd c0bd 4a5e 86bd ca60 85bd 44c5 f7bc
000001d0: 704c e43c 16fc 313e 252f 1c3e 9e40 c93d
000001e0: dd00 dc3e 2b39 2cbe 952b 063e eaa5 c9be
000001f0: 6836 98be 17c6 7c3d 8cbc 003d c13c 78bd
00000200: b564 53be fca2 163d a313 b9bd 4db8 e0bc
00000210: 2ca0 d6bd dbda ac3b a4eb a4be f613 db3d
00000220: ad23 253d 5fab 62be ca78 1a3d 5fdb 4ebd
00000230: beb6 c9bd 3173 86bd 8c45 66bc c1e4 99be
00000240: 4a0d 963e 2c5e 86be 16d6 d3be a128 c83c
00000250: 6cd6 c0bb 150e 8fbe c45f 153d 11b4 0b3d
00000260: aea5 e1bd a827 49be 3ae8 e73d 9a82 573d
00000270: d362 77be 3446 4abe 5cd3 30be 2603 b33e
00000280: 5784 cdbe ad44 563e 47f6 773e b46d b8bd
00000290: 80b9 66bc fde5 703d f197 153e 36de 7c3d
000002a0: 79ba edbb e545 de3d fb72 61bf 36f2 b4bc
000002b0: e94d b33e ce5d 4dbe 12a5 11be 1f41 c03d
000002c0: e30c 91be 782c 083d 558d 1ebf c50b cabd
000002d0: 6e24 8bbe b474 43be 015a 123c aa3a a1bd
000002e0: 8d89 c03b febc b43e 8269 4cbe 7faa 983d
000002f0: d4d6 d6bd 3a2e 183d d779 a5be 7b59 b93c
00000300: dfe0 4abe 9cd4 6a3e ca7c 1fbe 4a18 343e
00000310: d91d 8ebe 2eba adbe ce61 bfbb ab8a 6a3e
00000320: edce b4be 7396 133d fcff 3ebd 494b af3d
00000330: 4db4 043e 83f6 2cbf ff41 e1be 869d b73c
00000340: 659a 87be 6b03 4a3e 4e59 883d fb50 e0be
00000350: 61d9 243e ed3a ebbd c7fe 4e3d 6611 9dbe
00000360: 2847 163e a901 07bf a75f 0ebd d346 0e3d
00000370: bc90 2d3a 41e3 0b3e 07df 1d3e 53f4 8e3e
00000380: 6045 5b3d db8c b4bd 6cec 17be 370f 243e
00000390: a691 c8be da81 863d 4d12 72be 674c 0b3e
000003a0: 510b c03e fdf5 46be 338c 4c3e 43bd 6b3e
000003b0: f9f5 2bbe 8560 d0be 18b3 ae3e b311 1cbe
000003c0: 2ff6 45be 7c1c 863d 9786 b0be c86b c0be
000003d0: 52d4 e7bd 36ee 87bb bd43 d7bd 7a68 b8be
000003e0: 8f73 71be 613d 5bbf 0813 fe3d f972 b0bd
000003f0: 4945 4dbe f9a8 63be 1634 8dbc 3506 30bf

_policy.6.bias f4 [128]
-0.055305474 -0.18458676 0.06561353 0.15586917 0.013611009 -0.008019771 0.08633642 -0.057516612
0.17619774 0.0089363735 0.1532982 0.14137271 0.08090794 -0.025654782 0.01479963 0.15281129
0.13884513 0.12316193 -0.07351255 -0.09133819 0.023410076 0.16427246 0.07357126 0.13817313
0.165501 0.083783396 -0.002231234 0.07367971 -0.021807116 -0.10160225 -0.0880174 -0.13739662
0.054614108 -0.009930284 0.0445245 0.08026951 -0.055124562 0.059256557 0.06170033 0.08578554
0.011492563 -0.05569727 0.20200376 0.004978259 0.086156115 -0.15160428 0.06903389 0.09304898
0.19474252 -0.10869004 0.17204325 0.033042178 0.026288971 -0.040518735 0.0767743 0.16176629
0.17460345 0.28698614 0.10765603 0.10415606 0.07923812 0.052583765 -0.16972484 0.12445607
-0.047089413 0.09319373 0.26682663 0.14252967 0.09462015 0.12493217 -0.08086735 0.10075021
-0.11231846 0.066635974 -0.07053625 -0.02348232 0.097163126 -0.08457982 -0.0054317988 0.08421312
0.0029016861 -0.038732406 -0.17204863 0.0057241414 0.031033935 0.07166042 -0.09935407 -0.021327758
0.029529214 0.08289263 -0.008211901 0.33534485 0.15683444 0.07999022 -0.022664066 -0.03925597
-0.13833705 0.16839531 0.10917826 0.062611155 -0.15605824 0.18696392 0.043905586 0.10014819
-0.23212156 -0.02068888 0.093106344 -0.052909233 -0.34648526 0.24689287 0.23859866 0.0070921066
-0.03730701 -0.10220485 -0.011605517 0.08805887 -0.008091836 0.11304404 -0.08168121 0.10585951
0.09758821 0.21546322 0.18590301 -0.05679766 0.21061714 -0.036440417 -0.011959159 0.11999972
00000000: fe87 62bd 5004 3dbe 6360 863d 2b9c 1f3e
00000010: b600 5f3c 5c65 03bc 26d1 b03d 8a96 6bbd
00000020: 2e6d 343e de69 123c 34fa 1c3e 02c4 103e
00000030: 10b3 a53d fa29 d2bc 267a 723c 907a 1c3e
00000040: 6b2d 0e3e 523c fc3d bf8d 96bd 840f bbbd
00000050: 7dc6 bf3c 0a37 283e 87ac 963d 427d 0d3e
00000060: 1879 293e a196 ab3d e539 12bb 63e5 963d
00000070: d6a4 b2bc d714 d0bd 7742 b4bd b3b1 0cbe
00000080: 0bb3 5f3d a1b2 22bc 525f 363d 5764 a43d
00000090: 4bca 61bd 01b7 723d 7cb9 7c3d 54b0 af3d
000000a0: 4e4b 3c3c d222 64bd 13da 4e3e aa20 a33b
000000b0: 9e72 b03d 273e 1bbe a461 8d3d 7790 be3d
000000c0: 956a 473e e298 debd 1b2c 303e 3c57 073d
000000d0: f85b d73c f9f6 25bd d83b 9d3d 10a6 253e
000000e0: 3fcb 323e d9ef 923e c47a dc3d c64f d53d
000000f0: 9847 a23d 1362 573d 59cc 2dbe d3e2 fe3d
00000100: d4e0 40bd 5bdc be3d 809d 883e 4cf3 113e
00000110: 36c8 c13d 70dc ff3d c89d a5bd 2056 ce3d
00000120: 3907 e6bd 7178 883d 4f75 90bd ff5d c0bc
00000130: 76fd c63d 2f38 adbd 3bfd b1bb ee77 ac3d
00000140: 372a 3e3b dfa5 1ebd 842d 30be 9491 bb3b
00000150: e13a fe3c b3c2 923d 267a cbbd 8db7 aebc
00000160: 40e7 f13c 9cc3 a93d 368b 06bc 52b2 ab3e
00000170: 3599 203e ead1 a33d fea9 b9bc deca 20bd
00000180: 3aa8 0dbe d26f 2c3e da98 df3d 473a 803d
00000190: bbcd 1fbe 7873 3f3e 58d6 333d 7f1a cd3d
000001a0: 46b1 6dbe ba7b a9bc 8aae be3d 5ab7 58bd
000001b0: 8466 b1be 7cd1 7c3e 3553 743e e764 e83b
000001c0: 3ccf 18bd c750 d1bd 1125 3ebc 3558 b43d
000001d0: 9f93 04bc a283 e73d 7a48 a7bd dfcc d83d
000001e0: 54dc c73d 64a2 5c3e 5c5d 3e3e aaa4 68bd
000001f0: 05ac 573e 8c42 15bd 59f0 43bc 6ac2 f53d

_policy.8.weight f4 [3, 128]
0.04761787 0.2268399 -0.12250153 -0.5566511 -0.3079117 -0.16777664 -0.3651205 -0.031717777
0.53757817 -0.16308452 0.31034216 0.5347195 -0.013992415 0.030681552 -0.8660976 -0.099066384
0.29999235 0.3811015 -0.5667934 0.012859088 -0.15924928 -0.23995046 -0.061972495 0.3595077
-0.17536709 -0.32915625 0.032277707 -0.12377801 -0.5450867 0.44468698 -0.0818835 0.049281314
-0.1550472 -0.109388545 -0.07545221 0.4235763 -0.47042495 0.37453875 -0.15352021 -0.06107102
0.51793194 -0.045009084 -0.17175922 0.31903994 0.45128116 -0.5420435 1.359026 0.28042695
-0.15804273 -0.15559484 0.27479264 -0.20319138 -0.26992926 0.16093768 0.048097048 -0.2085832
-0.025296051 -0.54255116 0.043321405 0.43446624 0.07975196 -0.1319119 -0.71021116 -0.20195448
0.28831816 0.3375107 0.41933197 -0.12483756 0.4339238 -0.11878323 0.47635797 -0.00568306
-0.39003387 0.68031204 0.4102341 0.10202647 -0.24998194 0.34668306 -0.067922115 0.22514366
-0.08890301 -0.16363855 -0.724174 -0.12273306 -0.1999421 0.47848246 -0.5807399 -0.10035235
-0.5181239 0.5257964 -0.1804316 -0.29502973 -0.28981188 -0.07866997 0.540041 0.40642688
0.17035587 -0.10922047 0.18403308 -0.3190394 0.003556313 -0.100536816 -0.12014631 -0.38552955
-0.0851207 0.22682191 -0.30164698 0.6050817 0.39240515 0.5933972 -0.18035676 0.21502486
-0.36437535 -0.0056941286 0.11031503 -0.07126239 -0.2825331 -0.27571172 0.31768075 -0.109250896
0.36286804 -0.23255937 -0.19292066 0.39410767 0.43307063 0.2533719 -0.008169099 -0.10721981
0.21856885 0.267215 -0.07143832 0.5279935 0.35746968 -0.019328183 0.23279166 0.4441477
-0.44419295 0.50143296 0.03573946 -0.08379566 -0.16348793 0.17643845 0.77459174 -0.18144116
-0.44908825 -0.18633023 0.4461933 0.20252493 0.47265115 0.4337701 -0.24164006 -0.15235084
-0.26938334 0.19303784 -0.17634216 -0.32226977 0.40609232 -0.54520154 0.32103795 0.055848252
0.25292847 -0.07174607 -0.9983888 -0.12163556 -0.15587571 -0.38514006 0.5480967 -0.11952363
-0.08942045 0.14744784 0.7004981 -0.43958423 -0.38845843 0.4812346 -0.9891706 -0.2125493
-0.061071184 0.7113814 -0.14574906 0.2923265 0.24808769 -0.027979808 0.42014942 -0.3099331
0.37005493 0.49190238 0.17649244 -0.13922875 0.0722335 -0.08494871 0.5038702 0.44082767
-0.49386662 -0.12682986 0.038041525 0.29854217 0.029610679 -0.56362075 0.24434134 0.5005418
0.028315822 -0.62561023 0.050364252 -0.26552385 0.2530133 -0.42733157 -0.2510755 -0.21863067
-0.33867863 -0.11512853 0.2548844 0.4371463 0.34807095 -0.08056292 0.07091293 -0.097847044
0.4649979 -0.3722059 0.09563671 -0.2967667 -0.20402277 -0.23300771 -0.55898076 -0.011312688
-0.470068 0.51521415 -0.015964082 0.19015211 -0.7650855 -0.26520196 -0.00788508 -0.040844794
-0.16639124 -0.054629013 -0.10235029 -0.72829425 0.21237816 -0.60016775 0.1275128 -0.2545537
0.38976893 0.40721372 -0.084987104 0.2477416 0.06442031 0.044093408 -0.9703735 -0.25348777
-0.34871766 0.24602336 0.5906272 -0.4276748 -0.3089831 -0.12815762 0.33291826 -0.31168273
00000000: f50a 433d b848 683e 15e2 fabd b080 0ebf
00000010: 9aa6 9dbe a4cd 2bbe 13f1 babe 80ea 01bd
00000020: b99e 093f a1ff 26be 2be5 9e3e 61e3 083f
00000030: 7140 65bc e157 fb3c 93b8 5dbf 51e3 cabd
00000040: 9998 993e bc1f c33e 5f19 11bf edae 523c
00000050: 3e12 23be 93b5 75be dfd6 7dbd 6511 b83e
00000060: 6e93 33be 2b87 a8be a135 043d 537f fdbd
00000070: cd8a 0bbf 03ae e33e 89b2 a7bd 34db 493d
00000080: b1c4 1ebe 1a07 e0bd b086 9abd fede d83e
00000090: 8adb f0be 8bc3 bf3e 6734 1dbe 9b25 7abd
000000a0: 3097 043f 725b 38bd a6e1 2fbe 3459 a33e
000000b0: 530e e73e 5dc3 0abf 90f4 ad3f 1f94 8f3e
000000c0: f4d5 21be 4154 1fbe 9fb1 8c3e 6711 50be
000000d0: 2b34 8abe d9cc 243e 6901 453d d696 55be
000000e0: aa39 cfbc a2e4 0abf c971 313d 5c72 de3e
000000f0: ff54 a33d ea13 07be 66d0 35bf 28cd 4ebe
00000100: 709e 933e 34ce ac3e aeb2 d63e d6aa ffbd
00000110: 432b de3e 9f44 f3bd 31e5 f33e f638 babb
00000120: 85b2 c7be ee28 2e3f 340a d23e 41f3 d03d
00000130: 44fb 7fbe 7180 b13e c01a 8bbd 0f8c 663e
00000140: c812 b6bd dd90 27be 7863 39bf 785b fbbd
00000150: 9fbd 4cbe a7fb f43e 5fab 14bf 8885 cdbd
00000160: c5a3 04bf 989a 063f 10c3 38be 230e 97be
00000170: 3962 94be b91d a1bd 2140 0a3f 2f17 d03e
00000180: c571 2e3e fbae dfbd 2b73 3c3e 2259 a3be
00000190: 0811 693b 3fe6 cdbd 450f f6bd 2164 c5be
000001a0: c353 aebd 0144 683e 7971 9abe a2e6 1a3f
000001b0: 54e9 c83e e1e8 173f 71af 38be 7a2f 5c3e
000001c0: 688f babe d095 babb d9ec e13d 04f2 91bd
000001d0: 2ea8 90be 162a 8dbe 0da7 a23e efbe dfbd
000001e0: d7c9 b93e 0b24 6ebe fe8c 45be 7bc8 c93e
000001f0: 6fbb dd3e f6b9 813e afd7 05bc 0f96 dbbd
00000200: 83d0 5f3e 68d0 883e 414e 92bd 952a 073f
00000210: 4406 b73e 2356 9ebc f060 6e3e 5467 e33e
00000220: 426d e3be e95d 003f 8a63 123d 0f9d abbd
00000230: 6169 27be 48ac 343e a54b 463f b6cb 39be
00000240: e5ee e5be 5acd 3ebe 7373 e43e b262 4f3e
00000250: 55ff f13e 1d17 de3e 7e70 77be dc01 1cbe
00000260: 9dec 89be b6ab 453e 0a93 34be 8b00 a5be
00000270: 55eb cf3e 5492 0bbf 165f a43e 23c1 643d
00000280: d77f 813e 9bef 92bd 6996 7fbf 111c f9bd
00000290: e29d 1fbe 1431 c5be 1150 0c3f cec8 f4bd
000002a0: 1222 b7bd 91fc 163e d853 333f 2f11 e1be
000002b0: 06e4 c6be 6264 f63e 493a 7dbf 86a6 59be
000002c0: c725 7abd 171d 363f 3e3f 15be d2ab 953e
000002d0: b30a 7e3e e935 e5bc d31d d73e 8daf 9ebe
000002e0: d777 bd3e a1da fb3e 6fba 343e fb91 0ebe
000002f0: 28ef 933d 97f9 adbd a3fd 003f 2ab4 e13e
00000300: 16dc fcbe b0df 01be 6ed1 1b3d 85da 983e
00000310: 1892 f23c 7349 10bf 9e34 7a3e 8223 003f
00000320: 95f6 e73c fe27 20bf bf4a 4e3d bef2 87be
00000330: f68a 813e 34cb dabe f88c 80be b8e0 5fbe
00000340: 4967 adbe 82c8 ebbd 3580 823e a4d1 df3e
00000350: 5b36 b23e 2cfe a4bd cc3a 913d 0864 c8bd
00000360: 3414 ee3e c691 bebe 2edd c33d cef1 97be
00000370: 58eb 50be 9399 6ebe 5d19 0fbf da58 39bc
00000380: c1ac f0be 13e5 033f 1bc7 82bc 3cb7 423e
00000390: a5dc 43bf 8dc8 87be 6c30 01bc df4c 27bd
000003a0: 7762 2abe acc2 5fbd 079d d1bd 7e71 3abf
000003b0: a979 593e 98a4 19bf b792 023e dd54 82be
000003c0: cb8f c73e 517e d03e b80d aebd f9af 7d3e
000003d0: ccee 833d 4a9b 343d 666a 78bf 26c9 81be
000003e0: 1f8b b2be 8ced 7b3e 5833 173f 31f8 dabe
000003f0: 0833 9ebe c03b 03be 4374 aa3e e194 9fbe

_policy.8.bias f4 [3]
0.010716388 -0.047407363 0.021867245
00000000: ca93 2f3c 392e 42bd f022 b33c

_value.0.weight f4 [128, 22]
0.063127585 0.16749026 -0.14837119 0.03782892 0.028893515 -0.16886337 0.077366136 -0.049362943
0.16458015 -0.18221886 -0.03410483 0.16071682 0.070729546 -0.05379509 -0.047504652 0.042441096
-0.02773267 0.16904975 0.00015605599 0.10273563 0.07828688 -0.07864383 -0.15971042 -0.13774975
-0.066294074 -0.05210328 0.03754238 -0.15575847 -0.07974352 0.12839209 -0.01480967 -0.07806347
-0.1479312 -0.058035854 -0.15474084 0.17200194 0.111432984 0.16560942 -0.1461795 -0.17448229
0.014209988 -0.22802146 -0.115704015 0.046467975 -0.026476394 -0.03125818 -0.062417734 -0.1478982
0.1617762 0.16154431 -0.10627301 0.17468606 0.13274105 0.07047725 0.17945799 0.14997205
-0.16118108 -0.20636848 -0.14223751 -0.21067943 -0.13546665 -0.013799256 -0.05779897 -0.09555011
-0.15042272 0.08223919 -0.11516151 0.04440346 0.0034641288 -0.20909882 -0.15227285 0.052689638
0.07138155 0.035370447 0.01621159 -0.11414662 0.11341433 0.040031787 0.2767061 0.005552226
0.14725566 -0.0263745 0.007914277 -0.040688314 -0.108171344 0.07413169 -0.020859417 0.27178013
-0.13497725 0.24552526 -0.23331234 0.08061987 0.021806328 0.094862275 0.025919832 0.08356348
-0.07330206 -0.08645592 -0.18420029 -0.09496857 0.056143984 0.06605834 -0.083939694 -0.07957663
-0.05676096 0.06604551 -0.050855655 0.01734286 0.034075983 -0.025316823 -0.19428807 0.23128651
0.13068458 -0.11003657 0.1261856 -0.13578159 0.15413679 0.036002535 0.078104995 0.02178325
-0.12976214 0.08394554 0.14481297 0.114434734 0.17831875 0.10178846 0.0012662563 -0.16006933
0.0032919866 -0.13496563 -0.088232644 -0.17896974 0.08576436 0.17508075 -0.10854278 0.1708307
-0.045628335 -0.17235716 0.023673082 -0.032349948 0.06625693 -0.053448517 -0.19779329 -0.054910015
-0.14538926 0.17861477 -0.18402617 0.11730409 0.061377894 -0.10145535 0.10136043 -0.18253787
-0.16469304 0.020401282 -0.08480787 -0.13696714 0.005214548 -0.16254564 0.09903918 0.14422807
0.10718076 0.016778909 -0.10392065 0.16736627 -0.019818852 -0.14562245 0.0540621 -0.19505152
0.077127226 -0.123106405 0.014135313 -0.025128953 -0.22093548 0.040383022 0.15263462 0.1199392
0.108435385 -0.18274362 -0.069739036 -0.11188159 -0.08508286 0.02540832 0.11735826 0.16468671
-0.034314334 0.18584995 -0.04922207 -0.13939865 0.12833832 -0.13177022 -0.20729358 -0.1729355
0.16238682 0.0070054727 0.012895945 -0.09943664 -0.21828741 0.16203076 -0.05486922 0.10915507
0.07793822 -0.03286108 0.04542368 -0.08113394 0.047670938 -0.16511016 -0.008079602 0.09039525
-0.07627975 0.20012735 -0.14806592 -0.18266277 0.12305954 -0.07982193 -0.055752944 -0.1980969
-0.20440644 0.0005800605 0.021697411 0.06402924 0.14609985 -0.1561487 -0.040295113 0.13879666
0.13158567 -0.08067208 -0.04858578 0.06758048 0.13851736 0.0754661 0.03937345 -0.010651593
0.070530675 0.015576666 0.01777976 0.083781905 -0.14428025 -0.027385097 0.16973943 -0.08559705
-0.017367726 -0.18935505 -0.05138075 -0.042141423 -0.015111414 -0.08325432 -0.15505642 -0.12926628
-0.060098697 -0.028164934 0.037280798 0.0073949634 0.13638014 0.12905994 0.13208832 0.15016772
00000000: 0949 813d 9182 2b3e 9eee 17be 7ff2 1a3d
00000010: 18b2 ec3c 85ea 2cbe 2372 9e3d cc30 4abd
00000020: b387 283e 9597 3abe 82b1 0bbd f392 243e
00000030: a7da 903d 3e58 5cbd 3d94 42bd b7d6 2d3d
00000040: a02f e3bc 611b 2d3e f6a2 2339 0f67 d23d
00000050: df54 a03d 0410 a1bd 218b 23be 450e 0dbe
00000060: 30c5 87bd 406a 55bd 0ac6 193d 267f 1fbe
00000070: 9250 a3bd 3779 033e 42a4 72bc bedf 9fbd
00000080: 477b 17be 01b7 6dbd 6274 1ebe 4721 303e
00000090: fa36 e43d 8495 293e 14b0 15be 7cab 32be
000000a0: 02d1 683c 757e 69be 3af6 ecbd 3455 3e3d
000000b0: 06e5 d8bc 9408 00bd bda9 7fbd a072 17be
000000c0: a9a8 253e df6b 253e aaa5 d9bd e7e0 323e
000000d0: 45ed 073e 6056 903d d6c3 373e 4692 193e
000000e0: a70c 25be 4252 53be b6a6 11be 59bc 57be
000000f0: c5b7 0abe 4616 62bc 9dbe 6cbd c7af c3bd
00000100: 6a08 1abe 056d a83d ccd9 ebbd 67e0 353d
00000110: 7006 633b 001e 56be 6aed 1bbe 17d1 573d
00000120: 7d30 923d 9ae0 103d 2bce 843c b4c5 e9bd
00000130: c645 e83d 5ff8 233d 6cac 8d3e 73ef b53b
00000140: 30ca 163e 560f d8bc e2aa 013c caa8 26bd
00000150: f088 ddbd 5bd2 973d 5ee1 aabc c426 8b3e
00000160: 7a37 0abe f96a 7b3e 6ee9 6ebe 081c a53d
00000170: 2fa3 b23c 2747 c23d d455 d43c 5423 ab3d
00000180: 641f 96bd cd0f b1bd 009f 3cbe e27e c2bd
00000190: 3cf7 653d 9849 873d 93e8 abbd 12f9 a2bd
000001a0: 2e7e 68bd de42 873d 054e 50bd 9d12 8e3c
000001b0: 4293 0b3d 3a65 cfbc 74f3 46be 5fd6 6c3e
000001c0: 2ed2 053e da5a e1bd cc36 013e 540a 0bbe
000001d0: 09d6 1d3e 6577 133d 83f5 9f3d c972 b23c
000001e0: 5ee0 04be a4eb ab3d da49 143e c25c ea3d
000001f0: 3199 363e 7876 d03d 83f8 a53a 37e9 23be
00000200: 5fbe 573b 6e34 0abe 51b3 b4bd d843 37be
00000210: 3aa5 af3d 5e48 333e ad4b debd 3eee 2e3e
00000220: c7e4 3abd 657e 30be 0dee c13c 6181 04bd
00000230: b7b1 873d d5ec 5abd 538a 4abe 53e9 60bd
00000240: ece0 14be cae6 363e 5b71 3cbe 203d f03d
00000250: 6367 7b3d d3c7 cfbd 0f96 cf3d 35eb 3abe
00000260: 4ba5 28be 9720 a73c c0af adbd 1d41 0cbe
00000270: cdde aa3b 5d72 26be 0ed5 ca3d 86b0 133e
00000280: 9681 db3d ec73 893c 5ad4 d4bd 1062 2b3e
00000290: 255b a2bc 0d1e 15be 3870 5d3d 96bb 47be
000002a0: e1f4 9d3d 361f fcbd cd97 673c 3cdb cdbc
000002b0: e93c 62be ab68 253d 404c 1c3e afa2 f53d
000002c0: 5f13 de3d 2521 3bbe 57d3 8ebd 2d22 e5bd
000002d0: ec3f aebd 1c25 d03c 8759 f03d a2a3 283e
000002e0: 308d 0cbd 734f 3e3e 159d 49bd 85be 0ebe
000002f0: 1f6b 033e c6ee 06be c544 54be 0116 31be
00000300: bb48 263e 2a8e e53b 8449 533c 70a5 cbbd
00000310: bc86 5fbe 64eb 253e 8cbe 60bd b18c df3d
00000320: 139e 9f3d 5799 06bd 2e0e 3a3d 8d29 a6bd
00000330: 9a42 433d a312 29be 4f60 04bc 2521 b93d
00000340: 8f38 9cbd 2fee 4c3e 989e 17be f30b 3bbe
00000350: a406 fc3d ae79 a3bd 335d 64bd ead9 4abe
00000360: ec4f 51be 340f 183a c5be b13c c321 833d
00000370: 339b 153e 72e5 1fbe 7d0c 25bd b620 0e3e
00000380: 65be 063e 6737 a5bd e201 47bd a267 8a3d
00000390: 7fd7 0d3e f88d 9a3d 0e46 213d 0584 2ebc
000003a0: 6372 903d 4635 7f3c dca6 913c d995 ab3d
000003b0: 34be 13be b656 e0bc 2cd0 2d3e 824d afbd
000003c0: c346 8ebc 4ae6 41be 9f74 52bd 7c9c 2cbd
000003d0: dd95 77bc 3e81 aabd 1cc7 1ebe 615e 04be
000003e0: 0d2a 76bd 26ba e6bc c0b3 183d 7351 f23b
000003f0: 3ca7 0b3e 4a28 043e 2942 073e 91c5 193e
