logs/weight_colliion_obj_obs = 0.4/model/model_490.pth (torch, 427625 bytes, 19 tensors)

_policy.0.weight f4 [128, 22]
-0.3940665 0.0071507795 0.11617416 0.4068302 -0.4792607 -0.24361517 0.113629654 -0.006313618
0.5211218 0.3322114 -0.034413885 0.19020814 0.16312057 0.29522863 0.002513748 -0.09985919
-0.1045957 0.10164322 0.07290019 0.11371619 -0.09764026 -0.3006284 -0.33937135 -0.28051272
0.25283015 0.81507146 0.11632825 -0.08686334 0.12944409 -0.06038397 -0.6895902 0.034208808
0.32023168 0.22586557 0.32808307 0.10610816 0.14810437 -0.111937374 0.01777956 -0.2695024
-0.26493424 0.03501255 0.060582213 -0.04159131 -0.51844037 -0.019409506 0.2834014 -0.01427395
-0.19631012 0.0025809626 0.020487472 0.12560134 1.2610997 -0.36353374 0.26315698 0.09388216
0.2882602 0.3194799 0.07817359 0.1548297 -0.16370909 0.10326913 -0.028095527 -0.056681875
-0.13158664 -0.10571479 -0.12151342 -0.6428154 -0.1252643 0.44138792 -0.09175322 -0.35694566
0.14889012 0.19966902 0.08021614 0.48781395 -0.048330158 0.103150785 -0.1522867 0.43253824
-0.23468757 -0.13837528 -0.1772499 0.0005296969 -0.25819036 0.27484736 0.11882349 0.14991644
1.0271791 -0.5002478 -0.10027831 0.14657184 0.706264 -0.5554664 -0.34262794 -0.5739315
-0.608129 0.3458977 0.11040032 -0.1469549 -0.19990605 0.027753452 0.010941289 0.1579266
0.100067 0.053943947 0.09017439 -0.121124595 -0.09540021 -0.056192238 -0.6075155 0.9145433
0.3286688 -0.53814906 -0.25321645 0.46643198 0.18419214 0.12753557 0.047389273 -0.82845604
-0.32769692 -0.19297436 -0.31192097 0.025732392 -0.014976413 -0.030721467 0.19630635 0.05340432
-0.00351888 -0.111348845 -0.04479753 0.11483016 -0.13835911 0.060880106 -0.10299364 0.35213098
0.36703047 -0.117273696 -0.699976 0.07467367 0.49229828 -0.60134083 -0.03249827 -0.16661629
-0.6412678 0.14534265 -0.040695753 0.015018221 -0.090518735 -0.10475852 0.3518209 -0.17294776
0.19815286 -0.10290697 -0.39827776 -0.21698864 -0.025973327 0.8206842 0.28245875 0.25894728
-0.13375539 -0.4043987 -0.85570663 0.71926767 -0.042018913 -0.18142773 -0.06212387 -0.01075906
-0.14423597 0.09414107 -0.047254533 -0.18388861 0.07325659 0.010649344 -0.06721561 0.17519215
0.117357455 -0.2626527 -0.075032495 0.26510122 0.51797056 0.15792313 -0.2485563 0.06466226
1.4779831 0.8464856 0.02981767 0.04366664 0.11953815 0.16858792 0.20162176 -0.18832037
0.17946085 -0.10378791 -0.067127176 0.042555198 -0.09635729 0.068156056 0.35244524 0.5658206
-0.4859564 -0.8316275 -0.23196308 0.4983405 -0.28483126 -0.5760267 -0.6314233 0.17407724
-0.13323696 0.30428994 0.3221046 -0.11483744 0.0100476155 0.066275686 0.10775558 -0.21282493
-0.012595734 0.07205829 -0.12677912 -0.23223953 -0.5386162 -0.24000323 0.19600435 -0.04992168
-0.57233644 -0.26869157 -0.015553038 0.26645163 1.2574922 0.32311636 0.13288544 -0.23966575
0.0316676 0.110414825 -0.02894482 0.10812517 0.1682003 -0.031880282 -0.11295747 0.010150067
-0.12821646 -0.0075060995 -0.04953466 0.1875945 -0.7978307 -0.07592759 -0.21570233 0.024739934
-0.02990777 -0.31533366 -0.37587887 -0.17466706 -0.10593172 -0.02439422 -0.37929425 -0.4008227
00000000: 16c3 c9be 1651 ea3b b8ec ed3d 0c4c d03e
00000010: a961 f5be 4176 79be aab6 e83d 77e2 cebb
00000020: 3d68 053f 9d17 aa3e 93f5 0cbd ecc5 423e
00000030: 1409 273e 3528 973e b1bd 243b fa82 ccbd
00000040: 4536 d6bd 522a d03d b24c 953d 09e4 e83d
00000050: 9ef7 c7bd f7eb 99be 15c2 adbe 5d9f 8fbe
00000060: f472 813e 86a8 503f 813d ee3d 68e5 b1bd
00000070: fe8c 043e 2f55 77bd fc88 30bf 891e 0c3d
00000080: 68f5 a33e 4e49 673e 81fa a73e 3c4f d93d
00000090: aca8 173e 6c3f e5bd 71a6 913c 38fc 89be
000000a0: 76a5 87be 5269 0f3d 0e25 783d a65b 2abd
000000b0: 82b8 04bf af00 9fbc fd19 913e 49dd 69bc
000000c0: 8505 49be 5e25 293b 58d5 a73c a39d 003e
000000d0: b76b a13f 1821 babe 83bc 863e 4a45 c03d
000000e0: d796 933e df92 a33e 7a19 a03d ad8b 1e3e
000000f0: 5ba3 27be c47e d33d 9728 e6bc 412b 68bd
00000100: a6be 06be ff80 d8bd 07dc f8bd 8d8f 24bf
00000110: 4945 00be 99fd e13e 1de9 bbbd 95c1 b6be
00000120: a776 183e 0976 4c3e 5c48 a43d c0c2 f93e
00000130: d8f5 45bd b840 d33d 0bf1 1bbe a775 dd3e
00000140: f051 70be 40b2 0dbe ff80 35be 5bdb 0a3a
00000150: 8731 84be cbb8 8c3e bb59 f33d b283 193e
00000160: 9b7a 833f 3d10 00bf b75e cdbd ee16 163e
00000170: b8cd 343f 0c33 0ebf ee6c afbe 2ded 12bf
00000180: 58ae 1bbf 8119 b13e 9019 e23d 587b 16be
00000190: 2cb4 4cbe 355b e33c 1843 333c 83b7 213e
000001a0: edef cc3d 54f4 5c3d 5aad b83d 2c10 f8bd
000001b0: 2f61 c3bd d529 66bd 2386 1bbf 821f 6a3f
000001c0: 4747 a83e 23c4 09bf 96a5 81be 2cd0 ee3e
000001d0: dd9c 3c3e af98 023e 411b 423d b215 54bf
000001e0: e4c7 a7be 129b 45be 1bb4 9fbe bdcc d23c
000001f0: a15f 75bc 96ab fbbc 8804 493e 7dbe 5a3d
00000200: 039d 66bb dd0a e4bd 9d7d 37bd 132c eb3d
00000210: 03ae 0dbe 6b5d 793d 54ee d2bd 834a b43e
00000220: 6beb bb3e 312d f0bd a131 33bf 82ee 983d
00000230: 850e fc3e 79f1 19bf e81c 05bd 769d 2abe
00000240: 202a 24bf b4d4 143e 97b0 26bd fc0e 763c
00000250: e361 b9bd a38b d6bd de21 b43e 3819 31be
00000260: 95e8 4a3e e4c0 d2bd 10eb cbbe 4532 5ebe
00000270: 04c6 d4bc 5c18 523f 6f9e 903e bd94 843e
00000280: 2cf7 08be 590d cfbe 970f 5bbf ed21 383f
00000290: 061c 2cbd 31c8 39be 9975 7ebd c546 30bc
000002a0: 98b2 13be 09cd c03d f88d 41bd 4c4d 3cbe
000002b0: 8d07 963d 967a 2e3c 56a8 89bd 9265 333e
000002c0: 1b59 f03d 6a7a 86be a3aa 99bd 59bb 873e
000002d0: b899 043f 9ab6 213e 8b85 7ebe a66d 843d
000002e0: 8d2e bd3f 48b3 583f 3044 f43c cadb 323d
000002f0: 6bd0 f43d 50a2 2c3e ef75 4e3e 0ed7 40be
00000300: 96c4 373e c18e d4bd f979 89bd 5c4e 2e3d
00000310: f956 c5bd 6795 8b3d b473 b43e 9ed9 103f
00000320: 47cf f8be 8ae5 54bf bb87 6dbe 7c26 ff3e
00000330: 67d5 91be 7c76 13bf f5a4 21bf 4e41 323e
00000340: 456f 08be e4cb 9b3e e5ea a43e e42f ebbd
00000350: c19e 243c 8cbb 873d f5ae dc3d c7ee 59be
00000360: 565e 4ebc 4c93 933d 63d2 01be 33d0 6dbe
00000370: c0e2 09bf 68c3 75be 5db5 483e ad7a 4cbd
00000380: a484 12bf f191 89be 2bd2 7ebc 596c 883e
00000390: 81f5 a03f 826f a53e 1f13 083e f06a 75be
000003a0: e3b5 013d 2b21 e23d b01d edbc bb70 dd3d
000003b0: b33c 2c3e e694 02bd 3f56 e7bd 774c 263c
000003c0: 2d4b 03be baf5 f5bb dbe4 4abd c618 403e
000003d0: a23e 4cbf ed7f 9bbd 12e1 5cbe 67ab ca3c
000003e0: 2401 f5bc 6a73 a1be 3273 c0be ecdb 32be
000003f0: bbf2 d8bd 63d6 c7bc db32 c2be a238 cdbe

_policy.0.bias f4 [128]
-0.010743225 0.0046945177 -0.16118787 -0.16728856 -0.01817728 -0.09605837 0.050873686 0.038295593
-0.039834417 0.17434122 0.13874656 0.14460124 -0.1735992 -0.24217956 0.0077214595 -0.1250104
-0.014046461 0.043396093 -0.23006374 0.050319593 0.11866502 -0.061078858 -0.18272285 0.22740051
-0.06749782 -0.008585495 -0.049290247 -0.057122406 0.0900033 -0.22373462 -0.22688738 -0.13419326
0.12507649 -0.07419261 0.07849804 0.06307691 0.20734286 -0.22339484 -0.13152342 -0.0031304876
-0.006307914 0.07122989 -0.16845134 -0.13601537 0.04913495 -0.14620055 0.12153369 0.13677043
-0.06788375 -0.20888601 -0.33943534 -0.11898903 -0.26984674 0.12731352 -0.21711771 -0.11731673
-0.057599325 0.14248376 0.23066984 -0.058867157 -0.04429073 -0.035178978 -0.19262357 -0.14994112
-0.0824508 -0.07040289 0.07618644 -0.09890331 -0.101176485 -0.17994122 -0.17846172 -0.005934365
-0.19667372 0.20526947 -0.08570239 0.07325566 -0.05428217 -0.11746868 -0.10744267 -0.11569468
0.058324534 0.013738634 0.051749554 -0.1693466 -0.13313979 0.015764145 -0.1460287 -0.029118884
-0.038819276 -0.20633693 0.08457991 -0.22577047 0.10562299 -0.20025638 -0.16432191 0.02307944
-0.25372404 -0.08905696 -0.116156295 -0.14807087 -0.20553742 -0.16920984 -0.14034799 -0.04117637
-0.0053812237 0.0028051394 -0.20077704 -0.23170751 0.011227236 0.12858546 0.1418162 -0.124429986
-0.158741 -0.09103551 -0.26555616 0.14251873 0.05132841 0.046690293 -0.059664436 0.2031851
0.08152497 -0.03171586 0.0876104 -0.12810384 0.02206935 -0.17286445 -0.19030711 -0.26640767
00000000: 5a04 30bc 78d4 993b 6f0e 25be b14d 2bbe
00000010: 85e8 94bc 40ba c4bd ed60 503d d7db 1c3d
00000020: 6a29 23bd 8186 323e 9413 0e3e 5912 143e
00000030: fdc3 31be ebfd 77be 4c04 fd3b ba02 00be
00000040: 2123 66bc 1ac0 313d d495 6bbe eb1b 4e3d
00000050: a506 f33d d32d 7abd b31b 3bbe aedb 683e
00000060: 4c3c 8abd 2daa 0cbc 92e4 49bd 2ff9 69bd
00000070: a653 b83d b01a 65be 2a55 68be f569 09be
00000080: 0d14 003e 4cf2 97bd 95c3 a03d 782e 813d
00000090: b051 543e 9ec1 64be 13ae 06be de28 4dbb
000000a0: 9eb2 cebb fae0 913d 827e 2cbe 9d47 0bbe
000000b0: bb41 493d 99b5 15be a8e6 f83d 8c0d 0c3e
000000c0: a306 8bbd 37e6 55be 78ca adbe 85b0 f3bd
000000d0: 5a29 8abe 7a5e 023e 1b54 5ebe c143 f0bd
000000e0: 45ed 6bbd 43e7 113e b734 6c3e b01e 71bd
000000f0: 326a 35bd d517 10bd 1d3f 45be 2a8a 19be
00000100: f7db a8bd 642f 90bd a307 9c3d d28d cabd
00000110: 9e35 cfbd 8342 38be abbe 36be 1075 c2bb
00000120: d664 49be 2932 523e bc84 afbd 1007 963d
00000130: fb56 5ebd 6b93 f0bd e70a dcbd 55f1 ecbd
00000140: b5e5 6e3d 0218 613c 57f7 533d 3269 2dbe
00000150: cc55 08be cf23 813c 8c88 15be ba8a eebc
00000160: f600 1fbd fd49 53be 3b38 ad3d 6030 67be
00000170: de50 d83d 0210 4dbe 0144 28be 1811 bd3c
00000180: 1ee8 81be 7f63 b6bd 5ae3 edbd e49f 17be
00000190: 6778 52be 5845 2dbe 62b7 0fbe 8ea8 28bd
000001a0: fa54 b0bb 6ed6 373b 7f98 4dbe bc44 6dbe
000001b0: 71f2 373c e8ab 033e 4438 113e 26d5 febd
000001c0: 008d 22be d370 babd faf6 87be 6ef0 113e
000001d0: bd3d 523d 523e 3f3d b262 74bd c10f 503e
000001e0: 90f6 a63d 7de8 01bd 156d b33d a72d 03be
000001f0: c8ca b43c 6103 31be dedf 42be 9666 88be

_policy.2.weight f4 [128, 128]
0.05146302 0.03777229 -0.01718011 -0.020527933 0.30138463 -0.639961 0.12594588 -0.08666842
0.09897646 -0.57724786 0.09648556 -0.25474998 0.03679389 -0.16288178 -0.4387405 0.02364346
-0.13560115 -0.06138865 -0.21037744 0.21923949 0.040789764 -0.013413278 0.16906893 -0.4155332
-0.2737844 0.027388118 -0.29476684 0.13543133 0.1055251 0.072032824 -0.0088973185 -0.4517699
0.073517226 -0.039646886 0.18320599 -0.20627883 0.06894805 -0.3543865 0.12861532 0.2689997
-0.38860548 -0.15850414 0.10472794 -0.05914118 0.05057121 -0.07696919 0.092555664 -0.09661503
-0.17862302 -0.3165334 -0.14073409 -0.015356468 0.22049206 0.39245167 -0.072579496 -0.145116
0.21901144 0.0042755147 -0.09205518 0.11230958 0.22940084 0.0073630344 0.015808502 0.43175292
0.029910455 0.12853445 0.04399292 -0.051331475 0.048473842 -0.072595 0.044513922 -0.13440229
-0.054614536 -0.07124618 -0.20105088 -0.17190105 -0.113271356 -0.031928502 -0.2779383 0.17792122
0.06923471 0.019987134 0.08935963 -0.22073153 -0.4127407 -0.047656517 5.3684413e-05 0.08324864
-0.07708444 -0.011533794 0.009989753 0.11622714 0.087568834 -0.22041036 0.093784206 -0.0015511286
0.026270762 0.20795257 -0.16782098 0.061397206 -0.19577378 0.030592373 0.0723749 0.09557888
-0.104518905 -0.113057055 0.10853764 0.038690478 -0.18351346 -0.30051583 -0.36763686 -0.14052959
-0.12928253 0.015622735 0.023640024 0.109213404 -0.12316519 0.032485634 -0.17449519 0.04672503
-0.010072865 0.13150258 0.043082684 -0.5091026 -0.16305639 -0.3326383 0.091540165 0.24162646
-0.06140583 -0.05980903 -0.055664554 -0.028407155 0.014663428 -0.04848445 0.021407485 0.042645685
0.008201685 -0.00938073 -0.06437628 -0.11796675 -0.0067549543 -0.056351375 -0.108683795 -0.05066766
-0.08765347 -0.118350975 -0.081710584 0.042888436 -0.12541732 0.0060305055 -0.084956445 0.040537354
-0.032752458 -0.0379163 -0.02708536 -0.077526234 -0.097748004 -0.042773515 -0.0073657115 -0.06818931
-0.07395296 -0.05856099 -0.0443032 -0.054178447 0.004638344 -0.018967777 -0.070944615 -0.07303782
0.07849728 0.012813721 0.0023514323 0.009558812 0.059018426 -0.09680593 -0.05311028 -0.11582167
-0.10427453 -0.06941916 -0.028747676 -0.11442327 -0.0140749365 0.02036266 -0.11415532 -0.004554025
-0.015577358 -0.077720486 0.049331326 -0.09432861 0.04657864 0.028507441 -0.05484953 -0.03494683
0.04443075 0.03009999 -0.07211348 -0.035023365 -0.024249867 0.04829905 -0.06190344 -0.034180176
0.039344218 -0.07958229 0.0021670721 -0.07741135 -0.07725439 -0.12314217 -0.027355667 -0.03286951
-0.044622682 -0.005033838 -0.000297699 -0.063339554 0.035877697 0.034933403 -0.0110730985 -0.03440077
0.0074495864 0.026683904 -0.023700574 -0.106420316 0.007291824 -0.02104153 0.06317614 0.039225936
0.015683208 -0.08773212 -0.0916417 -0.12460725 -0.11701237 -0.03601365 0.04195877 0.0043091676
-0.09667434 0.008419899 -0.09880147 0.036375757 0.06181695 -0.02670002 0.0063454956 -0.02800785
-0.024517037 0.0435305 0.016264068 0.030139197 -0.009700287 -0.07508193 0.025757436 -0.13164258
0.04969754 -0.0025834537 -0.10772815 -0.09995276 -0.047450107 0.048905816 0.032493576 -0.05947017
00000000: e3ca 523d 1eb7 1a3d 4dbd 8cbc 322a a8bc
00000010: 164f 9a3e 7cd4 23bf f5f7 003e 367f b1bd
00000020: 2cb4 ca3d 84c6 13bf 399a c53d 976e 82be
00000030: 31b5 163d 7bca 26be 98a2 e0be eeaf c13c
00000040: 07db 0abe aa72 7bbd 2f6d 57be 5180 603e
00000050: 2b13 273d 5ec3 5bbc 6820 2d3e c5c0 d4be
00000060: 782d 8cbe 0c5d e03c aeeb 96be 83ae 0a3e
00000070: 8b1d d83d f285 933d 0fc6 11bc 624e e7be
00000080: 3390 963d c664 22bd 5a9a 3b3e c23a 53be
00000090: a334 8d3d 2672 b5be bcb3 033e 54ba 893e
000000a0: 4cf7 c6be e94e 22be 9a7b d63d 063e 72bd
000000b0: c223 4f3d 06a2 9dbd d38d bd3d 1ade c5bd
000000c0: f4e8 36be aa10 a2be 991c 10be b299 7bbc
000000d0: acc8 613e 6def c83e 8fa4 94bd 4a99 14be
000000e0: 8944 603e 9e19 8c3b 6d87 bcbd 9102 e63d
000000f0: 0ee8 6a3e 9c45 f13b d580 813c b80e dd3e
00000100: c506 f53c 899e 033e ec31 343d f440 52bd
00000110: 828c 463d b0ac 94bd 3b54 363d c1a0 09be
00000120: 7eb3 5fbd 84e9 91bd 48e0 4dbe d406 30be
00000130: d0fa e7bd 76c7 02bd ee4d 8ebe fb30 363e
00000140: edca 8d3d 0fbc a33c 2f02 b73d 7207 62be
00000150: c052 d3be 7b33 43bd 332b 6138 437e aa3d
00000160: 72de 9dbd 3df8 3cbc 10ac 233c 7f08 ee3d
00000170: 4a57 b33d 41b3 61be ef11 c03d 3d4f cbba
00000180: c835 d73c 85f1 543e 43d9 2bbe a37b 7b3d
00000190: ec78 48be db9c fa3c 4b39 943d dcbe c33d
000001a0: 020e d6bd 758a e7bd fb48 de3d e879 1e3d
000001b0: f4ea 3bbe 36dd 99be e63a bcbe fde6 0fbe
000001c0: a462 04be 80f6 7f3c b9a8 c13c 47ab df3d
000001d0: 083e fcbd a80f 053d deae 32be bf62 3f3d
000001e0: a808 25bc 9da8 063e 7877 303d 8c54 02bf
000001f0: 41f8 26be 914f aabe 6979 bb3d ed6c 773e
00000200: ae84 7bbd 50fa 74bd 8400 64bd 1fb6 e8bc
00000210: e03e 703c a197 46bd c05e af3c 3ead 2e3d
00000220: 5c60 063c a2b1 19bc b6d7 83bd 8d98 f1bd
00000230: aa58 ddbb b3d0 66bd 9c95 debd e488 4fbd
00000240: aa83 b3bd ff61 f2bd e157 a7bd c9ab 2f3d
00000250: 666d 00be 8c9b c53b a5fd adbd 7f0a 263d
00000260: 7127 06bd 1f4e 1bbd 1ee2 ddbc 13c6 9ebd
00000270: 1b30 c8bd 4833 2fbd 115c f1bb d6a6 8bbd
00000280: a674 97bd a6dd 6fbd 4677 35bd 38ea 5dbd
00000290: 40fd 973b 5062 9bbc 694b 91bd da94 95bd
000002a0: 2fc3 a03d a4f0 513c 7d1a 1a3b 909c 1c3c
000002b0: 4ebd 713d 3042 c6bd 2a8a 59bd e933 edbd
000002c0: e38d d5bd a22b 8ebd 3f80 ebbc bf56 eabd
000002d0: 909a 66bc 98cf a63c 44ca e9bd ee39 95bb
000002e0: 2d38 7fbc eb2b 9fbd a50f 4a3d 5c2f c1bd
000002f0: 3ec9 3e3d 7088 e93c e7a9 60bd 6824 0fbd
00000300: 05fd 353d 4194 f63c 3bb0 93bd a974 0fbd
00000310: a8a7 c6bc 3ad5 453d 768e 7dbd 8300 0cbd
00000320: 6727 213d 0afc a2bd 7005 0e3b d889 9ebd
00000330: 8d37 9ebd f631 fcbd fe18 e0bc 2ea2 06bd
00000340: 46c6 36bd e5f2 a4bb 7c14 9cb9 2bb8 81bd
00000350: 7ef4 123d 5416 0f3d f16b 35bc d2e7 0cbd
00000360: a91b f43b 3498 da3c b527 c2bc e5f2 d9bd
00000370: 41f0 ee3b 495f acbc 7e62 813d 60ab 203d
00000380: 127a 803c e6ac b3bd a5ae bbbd 1632 ffbd
00000390: 2ea4 efbd 0d83 13bd f6dc 2b3d eb33 8d3b
000003a0: 32fd c5bd 9ef3 093c 6d58 cabd bffe 143d
000003b0: c533 7d3d 00ba dabc e0ed cf3b b870 e5bc
000003c0: f4d7 c8bc 0a4d 323d 393c 853c 7ae6 f63c
000003d0: f4ed 1ebc 8ec4 99bd 4201 d33c 50cd 06be
000003e0: a68f 4b3d 294f 29bb 94a0 dcbd 08b4 ccbd
000003f0: 0b5b 42bd 7751 483d fc17 053d fe96 73bd

_policy.2.bias f4 [128]
-0.10852765 -0.15135372 -0.11617503 0.042058673 -0.015671963 0.05793215 -0.03377306 0.014175732
-0.03530725 0.035261635 -0.043803345 0.08505474 0.057643246 0.058334343 0.05491925 0.069104336
0.07165148 0.124054335 0.13486187 0.055236872 -0.06737214 -0.020007184 0.049325768 -0.0032196504
-0.070829965 0.009722314 0.0820395 -0.12587206 -0.1435383 0.073213734 -0.08863339 -0.07019043
-0.0730682 0.005807914 -0.092255935 -0.15384884 -0.04748681 0.0034992634 0.022866312 -0.08281157
0.13353138 -0.12830706 0.06461984 -0.059816305 -0.0006626942 0.0031616027 0.014776296 -0.05717518
0.018080859 -0.110869974 -0.0767449 -0.006688536 0.080201015 -0.06443262 0.04670759 0.029690221
-0.03774723 -0.14277834 -0.00030500794 -0.07418183 -0.033732373 0.068481594 -0.09116952 -0.051126376
-0.062134597 -0.038621396 0.015926898 -0.018218275 -0.11655358 -0.08385777 -0.04825205 -0.032041322
-0.14129344 -0.13022293 0.09786452 -0.14378047 0.084162295 -0.13842782 0.08066677 -0.04285285
-0.010526489 -0.025105352 0.027059745 0.0654737 -0.034836113 0.12694927 -0.022823812 -0.12835224
-0.060035523 0.0018046948 -0.09354537 0.06608426 -0.04426451 0.078197874 -0.1338218 -0.12734522
-0.0015402638 0.016635444 -0.08869989 -0.034148782 -0.13931406 -0.10028918 -0.006664069 0.064403534
-0.019659024 0.086811274 -0.12284378 -0.024363367 -0.12264861 -0.044210277 -0.064199865 0.05443546
0.057971854 0.04457062 -0.09316934 0.08648 -0.07370333 -0.048959162 -0.15080842 0.040037554
-0.10558658 -0.07385261 -0.07068292 -0.08483461 -0.13242422 0.056049913 -0.07710042 0.034381554
00000000: bf43 debd 78fc 1abe 2ded edbd b745 2c3d
00000010: 7d62 80bc 434a 6d3d 9f55 0abd 5441 683c
00000020: 569e 10bd 816e 103d 236b 33bd 2e31 ae3d
00000030: 531b 6c3d feef 6e3d 02f3 603d 9386 8d3d
00000040: 03be 923d 3310 fe3d 3b19 0a3e 0f40 623d
00000050: 68fa 89bd 1be6 a3bc d109 4a3d c500 53bb
00000060: 4d0f 91bd 574a 1f3c 5304 a83d 9be4 00be
00000070: b4fb 12be 15f1 953d 6c85 b5bd 00c0 8fbd
00000080: c8a4 95bd 5050 be3b aef0 bcbd 8d8a 1dbe
00000090: 8781 42bd e653 653b 2252 bb3c 1d99 a9bd
000000a0: 73bc 083e ed62 03be 6857 843d f101 75bd
000000b0: a8b8 2dba e432 4f3b 4718 723c 8630 6abd
000000c0: 4f1e 943c cc0f e3bd 6e2c 9dbd 822b dbbb
000000d0: 6e40 a43d 40f5 83bd 7550 3f3d e838 f33c
000000e0: d79c 1abd 7c34 12be 79e9 9fb9 a5ec 97bd
000000f0: f52a 0abd 1440 8c3d 16b7 babd e469 51bd
00000100: d980 7ebd 7831 1ebd 2079 823c 7e3e 95bc
00000110: a5b3 eebd 9fbd abbd f1a3 45bd c33d 03bd
00000120: 3aaf 10be 2959 05be 326d c83d 303b 13be
00000130: 485d ac3d 06c0 0dbe 9f34 a53d 7886 2fbd
00000140: 4b77 2cbc bda9 cdbc 66ac dd3c 1317 863d
00000150: 50b0 0ebd fdfe 013e 01f9 babc c56e 03be
00000160: cfe7 75bd 828b ec3a b794 bfbd 2f57 873d
00000170: b44e 35bd 3526 a03d 9508 09be c966 02be
00000180: ade2 c9ba 0e47 883c 4aa8 b5bd 98df 0bbd
00000190: 58a8 0ebe 6a64 cdbd 435e dabb 00e6 833d
000001a0: f60b a1bc 1cca b13d 8595 fbbd af95 c7bc
000001b0: 322f fbbd d615 35bd 387b 83bd b8f7 5e3d
000001c0: e573 6d3d af8f 363d 91cf bebd 6d1c b13d
000001d0: c5f1 96bd 6789 48bd 866d 1abe 6bfe 233d
000001e0: c73d d8bd 0a40 97bd 35c2 90bd c5bd adbd
000001f0: 379a 07be 9894 653d d3e6 9dbd acd3 0c3d

_policy.4.weight f4 [128, 128]
0.1802975 -0.03434356 -0.051278733 -0.22599614 0.17012832 -0.0035919538 0.047358397 0.080561005
-0.029184043 0.106155835 -0.10100501 0.12593193 0.0025034253 0.0037949164 -0.14378636 0.24273399
-0.2842882 0.11621121 -0.19203097 -0.06844335 -0.0017094561 -0.23358554 0.011990419 0.18774708
0.105176955 -0.18909092 0.09221202 -0.17460525 0.058216315 -0.18250473 0.14075997 -0.32898208
-0.05405119 -0.17309067 0.2689842 0.05453848 -0.041262172 0.016145831 -0.060179137 -0.04086582
-0.2710939 -0.15598811 0.1607767 0.06336247 0.108587086 0.043120217 -0.0862468 0.08394384
0.015247974 0.0466005 0.056768794 -0.055789173 0.10448493 0.009418126 -0.36552438 -0.077676006
-0.009709186 -0.034140863 0.05577035 0.089381106 -0.06212467 -0.09375585 0.05248541 0.038376335
0.015324806 -0.0018422131 -0.17369384 -0.19048838 0.09891648 -0.2613896 -0.19180135 -0.26426262
-0.0069240634 -0.07527728 -0.101896934 -0.00314137 0.33171296 0.007062145 0.054445155 -0.2129251
-0.45999238 -0.09075155 -0.32557622 0.12660335 0.016335849 -0.19619012 -0.2737995 -0.3123177
0.15470468 -0.055824503 0.1902307 -0.02610088 0.22510323 -0.03245943 0.06950065 0.045693617
0.2617525 0.0016867606 -0.084447056 0.03747304 -0.5171034 0.16895251 0.031066258 -0.2952212
-0.048116058 0.10408751 0.10084969 0.015262606 0.042075254 0.22587883 -0.13896027 0.22024296
-0.12931088 -0.4111989 0.28535178 -0.11921879 -0.2427337 -0.21920739 0.037915334 0.080956824
0.15143158 -0.29576355 -0.010080659 -0.23234612 -0.026807543 0.26507324 -0.05459089 -0.025676595
0.019504515 0.057888754 0.04062896 -0.23099849 0.027714388 0.26713383 0.09149061 -0.28823596
0.020481285 0.097509496 0.2341226 -0.021396596 0.1517417 0.3543037 0.04908744 0.035560936
-0.11508581 0.35892677 0.15356117 0.05574978 -0.5624442 0.047201157 0.14910652 -0.26089865
0.25195256 0.054049447 0.18669164 0.12834407 -0.011369348 0.061867204 0.043027982 0.034416597
-0.11390699 -0.055801123 -0.16163538 -0.016928628 0.03041474 -0.17905042 0.24544267 -0.21770336
0.032256264 -0.2573214 -0.42880747 0.29290235 0.064327024 -0.075473726 -0.8119834 0.14075403
-0.03614709 -0.056829978 0.16349767 -0.06905785 -0.2342525 -0.030273229 -0.31539455 0.25124618
-0.25803083 -0.044029694 0.020815726 0.075853534 0.15280952 -0.15364946 -0.29271638 0.023410005
-0.086523645 -0.44983682 0.027268726 -0.062084783 -0.06699318 0.25251636 0.13654096 -0.36738202
-0.01621909 0.030758418 0.007975316 -0.30677918 0.1779795 -0.27776408 -0.32591155 -0.13454595
0.004198108 0.31659743 -0.06080739 -0.012756809 0.013545995 0.06485776 0.1548388 -0.09195689
-0.6881818 0.044059478 0.13037206 -0.05394863 0.039213482 -0.14669722 -0.09102286 -0.08624096
0.2544604 -0.42161047 0.076888256 0.08612301 -0.25883228 -0.17490205 -0.017029136 -0.10144654
-0.0050721043 -0.086040005 -0.27216455 0.10675427 -0.002415692 0.2368906 0.092492424 0.0017613947
0.16380453 -0.31377408 0.036731422 0.04766841 -0.1664479 -0.06431134 0.019900233 0.0009424469
0.18306918 -0.028744714 0.07272682 0.11381125 -0.025772028 -0.013419778 0.1042283 -0.18674803
00000000: e89f 383e d5ab 0cbd a609 52bd 886b 67be
00000010: 1e36 2e3e fc66 6bbb e1fa 413d 2bfd a43d
00000020: 6013 efbc 3b68 d93d b7db cebd 4df4 003e
00000030: 8210 243b 22b4 783b bb3c 13be 428f 783e
00000040: 398e 91be 2500 ee3d c4a3 44be 072c 8cbd
00000050: d40f e0ba 0c31 6fbe 7673 443c c540 403e
00000060: 0467 d73d 0da1 41be a8d9 bc3d b8cb 32be
00000070: 3b74 6e3d 85e2 3abe 6223 103e 5770 a8be
00000080: c864 5dbd ae3e 31be 4cb8 893e be63 5f3d
00000090: 8602 29bd 4344 843c 667e 76bd eb62 27bd
000000a0: d2cc 8abe 59bb 1fbe a6a2 243e 2fc4 813d
000000b0: e862 de3d d39e 303d 2aa2 b0bd bfea ab3d
000000c0: a3d2 793c 2ae0 3e3d 6586 683d 3083 64bd
000000d0: 32fc d53d 7c4e 1a3c 0326 bbbe 9914 9fbd
000000e0: 4713 1fbc 4ad7 0bbd 736f 643d 710d b73d
000000f0: 7076 7ebd 1103 c0bd f1fa 563d 8130 1d3d
00000100: e514 7b3c 6a76 f1ba ccdc 31be 630f 43be
00000110: b994 ca3d dcd4 85be 9367 44be 6e4d 87be
00000120: 41e3 e2bb f92a 9abd 57af d0bd 71df 4dbb
00000130: 48d6 a93e 9169 e73b e201 5f3d 0a09 5abe
00000140: 1f84 ebbe f3db b9bd edb1 a6be 4fa4 013e
00000150: c2d2 853c 10e6 48be 732f 8cbe 1be8 9fbe
00000160: e76a 1e3e 3ca8 64bd d6cb 423e 83d1 d5bc
00000170: 7681 663e 2ef4 04bd 5b56 8e3d 3b29 3b3d
00000180: 6c04 863e 4b16 dd3a 94f2 acbd 557d 193d
00000190: e360 04bf e301 2d3e aa7e fe3c 3c27 97be
000001a0: 5815 45bd d52b d53d 488a ce3d 0210 7a3c
000001b0: 1a57 2c3d c84c 673e 9a4b 0ebe 5f87 613e
000001c0: 126a 04be aa88 d2be a119 923e fb28 f4bd
000001d0: 2f8f 78be e777 60be 1c4d 1b3d b1cc a53d
000001e0: e110 1b3e 526e 97be 5929 25bc 24ec 6dbe
000001f0: 7e9b dbbc aeb7 873e b29a 5fbd b957 d2bc
00000200: efc7 9f3c c21c 6d3d 8d6a 263d de8a 6cbe
00000210: 4909 e33c c4c5 883e 6e5f bb3d aa93 93be
00000220: 5ec8 a73c 0fb3 c73d d6bd 6f3e ea47 afbc
00000230: 2d62 1b3e 4b67 b53e e90f 493d 58a8 113d
00000240: 1cb2 ebbd 40c5 b73e 243f 1d3e e259 643d
00000250: 58fc 0fbf 0056 413d 61af 183e 8294 85be
00000260: edff 803e f462 5d3d 182c 3f3e a16c 033e
00000270: 8046 3abc 7768 7d3d 1c3e 303d 6bf8 0c3d
00000280: 1148 e9bd b88f 64bd bf83 25be e8ad 8abc
00000290: 5528 f93c fe58 37be 5355 7b3e a1ed 5ebe
000002a0: 251f 043d a1bf 83be a78c dbbe 4cf7 953e
000002b0: e3bd 833d f891 9abd 25de 4fbf d321 103e
000002c0: f90e 14bd 8dc6 68bd ef6b 273e 346e 8dbd
000002d0: e3df 6fbe 90ff f7bc 657b a1be 57a3 803e
000002e0: 9e1c 84be 7b58 34bd be85 aa3c 1959 9b3d
000002f0: 197a 1c3e 4956 1dbe ecde 95be 57c6 bf3c
00000300: 4f33 b1bd 0351 e6be aa62 df3c 9d4c 7ebd
00000310: b833 89bd d349 813e 65d1 0b3e 7f19 bcbe
00000320: e6dd 84bc 14f9 fb3c e6aa 023c 2912 9dbe
00000330: 4240 363e 1837 8ebe e1dd a6be 6ac6 09be
00000340: 4890 893b 0f19 a23e 2b11 79bd ef01 51bc
00000350: 05f0 5d3c 25d4 843d 108e 1e3e e553 bcbd
00000360: af2c 30bf b677 343d 4180 053e 3df9 5cbd
00000370: 519e 203d cc37 16be 316a babd 1a9f b0bd
00000380: a248 823e 54dd d7be 9777 9d3d 4361 b03d
00000390: aa85 84be 8619 33be b080 8bbc 34c3 cfbd
000003a0: e533 a6bb be35 b0bd 2759 8bbe fca1 da3d
000003b0: 9650 1ebb 7393 723e ab6c bd3d 99de e63a
000003c0: 60bc 273e ffa6 a0be b073 163d f33f 433d
000003d0: 5171 2abe aab5 83bd d005 a33c 8a0e 773a
000003e0: 7d76 3b3e 097a ebbc cdf1 943d df15 e93d
000003f0: dc1f d3bc a1de 5bbc a675 d53d e03a 3fbe

_policy.4.bias f4 [128]
0.05235444 0.07122416 0.10326279 -0.05452806 -0.056264553 -0.19715354 -0.088354014 -0.08044733
-0.19860736 -0.05950556 0.008882258 0.16042152 -0.059553403 -0.06539545 -0.04307527 0.12841533
-0.14717312 0.0013368572 -0.3150647 -0.09783022 0.014337396 0.15862016 -0.01174721 -0.08231375
0.06847403 -0.061246514 -0.28831536 -0.01122847 0.037956275 0.037526872 -0.097854145 -0.027690392
0.11003219 0.19137312 -0.36023262 -0.10604812 0.12501371 -0.25862977 -0.08185585 -0.10110874
-0.013123463 0.05258112 -0.028950652 -0.15820207 0.06282385 -0.13926503 -0.10711184 -0.13265233
0.12023232 0.006562861 -0.08120746 -0.08356141 0.11289919 -0.25538397 0.020748597 0.04238971
-0.10973601 -0.030388309 -0.07510502 -0.022561235 -0.12245622 -0.15430714 0.054291986 0.036553055
0.05701585 0.016562205 -0.049040496 0.010584102 -0.0589427 -0.057440463 0.031155229 0.022949876
-0.17829138 0.012062784 0.14064027 -0.08864378 -0.0077308887 0.07260026 0.08801484 0.04889788
-0.039047863 -0.038429707 -0.040695887 -0.06740477 -0.17001426 0.1356186 0.06034563 -0.13982669
-0.1352585 -0.123213746 0.14920403 -0.0047265426 0.006271999 -0.12001593 -0.09415968 -0.05447072
-0.21002197 0.060989358 0.069302104 0.011760176 0.0058897785 -0.12566826 -0.1012126 0.03242338
-0.014086721 0.14729674 0.1528057 0.047329735 -0.025044123 -0.026232177 -0.01884942 0.02568438
-0.10100123 -0.06759381 -0.12619863 0.04409684 0.08811628 -0.19402409 -0.05860718 -0.18017048
-0.061923746 -0.08392271 -0.087442845 -0.08076898 0.0025690852 -0.17224233 0.09287271 0.04576032
00000000: 9c71 563d f9dd 913d 717b d33d d158 5fbd
00000010: a975 66bd 9ee2 49be f3f2 b4bd 92c1 a4bd
00000020: ba5f 4bbe 1abc 73bd e486 113c 8a45 243e
00000030: 45ee 73bd 0dee 85bd b26f 30bd 4f7f 033e
00000040: 8db4 16be 7c39 af3a 2950 a1be 365b c8bd
00000050: 66e7 6a3c 536d 223e 5f77 40bc 1d94 a8bd
00000060: 1d3c 8c3d a0dd 7abd 129e 93be 9ef7 37bc
00000070: 0a78 1b3d c7b5 193d c167 c8bd f6d6 e2bc
00000080: 8f58 e13d 51f7 433e 6970 b8be c22f d9bd
00000090: 9803 003e 1f6b 84be 0aa4 a7bd 1912 cfbd
000000a0: cb03 57bc 4d5f 573d eb29 edbc b9ff 21be
000000b0: caa9 803d 7e9b 0ebe 745d dbbd 03d6 07be
000000c0: 5d3c f63d 450d d73b 1950 a6bd 3f22 abbd
000000d0: b137 e73d b0c1 82be f6f8 a93c d5a0 2d3d
000000e0: 46bd e0bd e7f0 f8bc a9d0 99bd 57d2 b8bc
000000f0: 54ca fabd b102 1ebe 4661 5e3d a8b8 153d
00000100: 7489 693d 76ad 873c b0de 48bd f168 2d3c
00000110: e76d 71bd b146 6bbd 4039 ff3c 6101 bc3c
00000120: 0492 36be fca2 453c 0104 103e df8a b5bd
00000130: 6553 fdbb 72af 943d 2041 b43d 2549 483d
00000140: a7f0 1fbd 7868 1dbd bbb0 26bd 830b 8abd
00000150: 3818 2ebe 9adf 0a3e fb2c 773d ba2e 0fbe
00000160: 3481 0abe 7d57 fcbd f1c8 183e 1de1 9abb
00000170: 5785 cd3b e9ca f5bd cad6 c0bd b11c 5fbd
00000180: 0010 57be facf 793d 43ee 8d3d c1ad 403c
00000190: 0bff c03b 2eaf 00be 8d48 cfbd 61ce 043d
000001a0: fecb 66bc f5d4 163e 1979 1c3e d3dc 413d
000001b0: 5529 cdbc dde4 d6bc 196a 9abc 0d68 d23c
000001c0: bcd9 cebd a06e 8abd 373a 01be e39e 343d
000001d0: 4f76 b43d 40ae 46be 150e 70bd 9c7e 38be
000001e0: c1a3 7dbd abdf abbd 3c15 b3bd 356a a5bd
000001f0: 195e 283b 4b60 30be 0c34 be3d 2c6f 3b3d

_policy.6.weight f4 [128, 128]
-0.09825719 0.019990291 0.019751819 -0.016868314 -0.13756828 -0.29090086 0.0146186305 0.022726832
-0.114519924 -0.113862485 0.2865997 -0.3264955 -0.05248544 -0.07043688 -0.23096877 0.13413568
-0.06318117 0.037839532 -0.04070187 -0.3626341 0.13049212 0.048884403 0.06544741 0.16938484
0.03041566 0.12269831 0.10056363 -0.006412052 -0.18166155 -0.0010140153 0.08816214 -0.049678285
0.05365184 0.02472139 0.34207746 -0.07809337 0.12531774 0.12179059 0.0045308047 -0.33829966
-0.14887495 -0.15570034 0.021052584 0.102273986 -0.1805274 0.05517653 -0.19907281 -0.19728078
-0.22492945 0.06845335 0.18192615 -0.038455285 0.11095495 0.048436742 0.12671812 -0.29404575
-0.35566926 -0.1583698 -0.11269646 -0.26924345 0.05115858 0.22088334 -0.28918457 -0.21462698
-0.46035904 0.19177768 0.20474449 -0.4124951 0.25740024 0.08266805 0.09074548 -0.043082517
0.09727174 -0.080599554 -0.15789858 -0.07853499 0.2384154 -0.3281347 0.1093077 0.048052285
-0.17189325 0.097840615 -0.17986973 -0.24609996 -0.039957482 -0.06454651 -0.23390566 -0.043057896
-0.14837576 -0.23523603 0.36693826 -0.009065732 -0.07879178 0.0066245617 -0.22105871 -0.32837212
-0.15531315 -0.111351386 -0.092079684 -0.28147715 0.0016992587 0.032528892 0.077506535 0.17927027
-0.21900555 -0.07433396 0.3244401 0.2123496 0.03441714 -0.12716617 0.0951825 0.09196854
-0.18703276 -0.025266604 -0.061202716 0.0005621693 -0.07167488 0.18510534 0.15097563 0.109940745
0.2384417 -0.05634301 0.2660191 -0.35749698 -0.3172713 -0.07617368 -0.032949258 -0.0077503696
-0.1312723 0.16748655 0.050041948 -0.009969504 -0.112331174 -0.06256682 -0.41086787 -0.05249654
0.09715811 -0.31939358 0.13256885 0.0033068298 -0.09662446 -0.053405147 0.031117883 -0.29513574
0.25579238 -0.25723037 -0.3087449 0.193368 0.09061176 -0.30614033 0.119046465 0.08482336
-0.09528186 -0.11782632 -0.08085484 0.069958165 -0.30563703 -0.14618187 -0.14887795 0.33459198
-0.30070624 0.06911139 0.15735659 -0.097842194 -0.081361026 0.06956838 0.08141269 0.044990446
-0.007620657 -0.02929832 -0.7958999 -0.05279259 0.34085208 -0.19727007 -0.079893485 0.14320041
-0.29927063 0.041396096 -0.29361942 -0.0011073673 -0.3525412 -0.13250834 -0.076336205 -0.06589484
0.006536751 0.34774417 -0.1865431 0.05658704 -0.004681789 0.027704274 -0.17996977 0.03586628
-0.087605216 0.1656456 -0.24451023 0.21777879 -0.32617804 -0.2894999 -0.034612488 0.14842594
-0.27650693 0.01935414 -0.06144637 0.17637815 0.06530815 -0.53548926 -0.34557 0.051561803
-0.25091723 0.09892349 -0.06417048 -0.4491265 0.19944094 -0.10249067 0.062403478 -0.19398433
0.17647925 -0.39576218 -0.010084343 0.03400209 0.014211858 0.08567459 0.13537972 0.38343555
0.063162915 -0.01786136 -0.16480373 0.08080991 -0.35493392 0.0838212 -0.18282272 0.16727534
0.44407573 -0.21469146 0.19483757 0.2504328 -0.24131174 -0.29015914 0.27943915 -0.32625797
-0.24388306 0.09237622 -0.30253962 -0.35105085 -0.11678339 0.009599876 -0.08654719 -0.36056978
-0.18658923 -0.8117844 0.2571474 0.005452868 -0.17510808 -0.1578113 0.018194964 -0.45185426
00000000: 113b c9bd aec2 a33c 91ce a13c 6b2f 8abc
00000010: b3de 0cbe f5f0 94be fb82 6f3c 9f2d ba3c
00000020: 6c89 eabd bc30 e9bd 32bd 923e 6b2a a7be
00000030: f9fa 56bd 3641 90bd 1483 6cbe dd5a 093e
00000040: 2165 81bd a0fd 1a3d 01b7 26bd 2dab b9be
00000050: ba9f 053e 033b 483d 4b09 863d 3873 2d3e
00000060: 432a f93c 4049 fb3d 4ef4 cd3d 311c d2bb
00000070: 7c05 3abe b5e8 84ba 5a8e b43d 757b 4bbd
00000080: 08c2 5b3d 8384 ca3c c724 af3e 6bef 9fbd
00000090: 4b53 003e 586d f93d 2577 943b 9d35 adbe
000000a0: ad72 18be e96f 1fbe 7876 ac3c 0675 d13d
000000b0: 2ddc 38be c900 623d bed9 4bbe f903 4abe
000000c0: e853 66be 4531 8c3d d94a 3a3e 4a83 1dbd
000000d0: 593c e33d 9b65 463d 65c2 013e 2a8d 96be
000000e0: 481a b6be b12b 22be 67cd e6bd 47da 89be
000000f0: a98b 513d 3e2f 623e 0010 94be 2dc7 5bbe
00000100: 2eb4 ebbe 5e61 443e 8aa8 513e 8f32 d3be
00000110: f7c9 833e de4d a93d c4d8 b93d 4b77 30bd
00000120: 6836 c73d 6111 a5bd 2ab0 21be f4d6 a0bd
00000130: 2b23 743e 4501 a8be b7dc df3d 79d2 443d
00000140: c904 30be a960 c83d c52f 38be a101 7cbe
00000150: 75aa 23bd f630 84bd f784 6fbe 7a5d 30bd
00000160: d1ef 17be b7e1 70be 55df bb3e 7088 14bc
00000170: 965d a1bd da12 d93b 375d 62be 6420 a8be
00000180: 690a 1fbe 320c e4bd 4694 bcbd c61d 90be
00000190: a9b9 de3a 043d 053d bfbb 9e3d a092 373e
000001a0: fe42 60be 673c 98bd 031d a63e 2c72 593e
000001b0: fdf8 0c3d d937 02be 0bef c23d 005a bc3d
000001c0: 8485 3fbe e9fb cebc b3af 7abd 8b5e 133a
000001d0: 48ca 92bd 418c 3d3e 5b99 1a3e 9d28 e13d
000001e0: 102a 743e eec7 66bd a833 883e d809 b7be
000001f0: 6271 a2be f200 9cbd cdf5 06bd d0f6 fdbb
00000200: 3f6c 06be 9881 2b3e c9f8 4c3d 2157 23bc
00000210: e30d e6bd 0823 80bd 465d d2be 9d06 57bd
00000220: d5fa c63d 8e87 a3be 21c0 073e 66b7 583b
00000230: 0be3 c5bd 5bbf 5abd eeea fe3c 081c 97be
00000240: 38f7 823e b3b3 83be d013 9ebe 4302 463e
00000250: a992 b93d 6dbe 9cbe a2ce f33d dfb7 ad3d
00000260: 2323 c3bd ed4e f1bd 3997 a5bd 3a46 8f3d
00000270: 757c 9cbe b3b0 15be 7673 18be a44f ab3e
00000280: 2bf6 99be 468a 8d3d 1622 213e 7d61 c8bd
00000290: 9ca0 a6bd de79 8e3d b2bb a63d e747 383d
000002a0: b4b6 f9bb 0803 f0bc 19c0 4bbf 0b3d 58bd
000002b0: 2a84 ae3e 2a01 4abe 329f a3bd 21a3 123e
000002c0: 003a 99be f48e 293d 4955 96be 1525 91ba
000002d0: 4880 b4be 44b0 07be 2856 9cbd e0f3 86bd
000002e0: 3e32 d63b 860b b23e 2805 3fbe d0c7 673d
000002f0: b169 99bb 13f4 e23c ff49 38be 85e8 123d
00000300: 5d6a b3bd 009f 293e e460 7abe 6701 5f3e
00000310: cf00 a7be 5539 94be d3c5 0dbd f8fc 173e
00000320: 5192 8dbe 938c 9e3c 30af 7bbd 799c 343e
00000330: 48c0 853d d315 09bf 8dee b0be 7832 533d
00000340: 3978 80be 6698 ca3d d06b 83bd e9f3 e5be
00000350: 3f3a 4c3e a1e6 d1bd ca9a 7f3d d4a3 46be
00000360: fab6 343e 57a1 cabe cd38 25bc c745 0b3d
00000370: dad8 683c 2976 af3d fba0 0a3e aa51 c43e
00000380: 8f5b 813d fd51 92bc 4fc2 28be ab7f a53d
00000390: e6b9 b5be 73aa ab3d e135 3bbe 3a4a 2b3e
000003a0: e55d e33e 14d8 5bbe 8083 473e ba38 803e
000003b0: 6d1a 77be bd8f 94be a612 8f3e 490b a7be
000003c0: 7bbc 79be be2f bd3d 79e6 9abe f0bc b3be
000003d0: 212c efbd cc48 1d3c a73f b1bd 9a9c b8be
000003e0: 3f11 3fbe 1ad1 4fbf d3a8 833e f9ad b23b
000003f0: 884f 33be 4999 21be 9b0d 953c 7159 e7be

_policy.6.bias f4 [128]
-0.0690873 -0.1355994 0.007002878 0.17345469 0.045174375 0.02286057 0.055566125 0.023275513
0.1560407 -0.031960733 0.1431862 0.14531901 0.064204805 -0.013827075 -0.026051732 0.1617546
0.10855207 0.03289557 -0.04229786 -0.044581946 0.10271244 0.17199504 0.07482142 0.101857886
0.18827507 0.12436138 0.02092774 -0.0084911715 -0.008786326 -0.10646308 -0.037232228 -0.12103014
0.07901687 0.066188 -0.019258909 0.026728932 -0.019578949 0.004165816 0.05957826 0.0156781
0.005938742 -0.020351483 0.13487847 0.10483968 0.03320408 -0.0812841 -0.083333015 0.04626777
0.24271071 -0.12387096 0.117409885 0.01677956 -0.0046768687 -0.08060358 0.061765775 0.16375478
0.17184003 0.29959127 0.08718697 0.0902586 0.047978304 0.07192444 -0.17511727 0.12995082
-0.079313196 0.08544138 0.23177646 0.1390396 0.07480337 0.017502386 -0.06464444 0.08167504
-0.1459988 0.018953707 -0.036010418 0.021735232 0.14737116 -0.09363716 -0.004873185 0.107566014
0.0173965 0.06230823 -0.120366015 0.005482769 0.06821199 0.05628958 -0.030304972 0.00892597
-0.033029653 0.065337926 0.06858885 0.31306276 0.12692651 0.14445084 -0.03975072 -0.02570149
-0.13097438 0.13603814 0.100769766 0.059499446 -0.11648947 0.20313767 0.06656267 0.15871653
-0.15936454 0.041705444 0.19606581 -0.012064907 -0.23298235 0.1950047 0.2553624 -0.0434213
-0.04607838 -0.03993096 0.029285964 0.06529505 -0.021185864 0.09879662 -0.048052076 0.1860092
0.050146155 0.22555985 0.22567996 -0.02044978 0.17016006 -0.096680164 0.003966283 0.091769546
00000000: a47d 8dbd 92da 0abe 6678 e53b 1b9e 313e
00000010: c408 393d 1746 bb3c 4e99 633d 4aac be3c
00000020: 22c9 1f3e 42e9 02bd 679f 123e 82ce 143e
00000030: cf7d 833d f58a 62bc 716a d5bc ffa2 253e
00000040: 8c50 de3d 81bd 063d 8540 2dbd 8f9b 36bd
00000050: e65a d23d 781f 303e f93b 993d de9a d03d
00000060: 2ecb 403e 2eb1 fe3d a770 ab3c 8e1e 0bbc
00000070: 86f4 0fbc 5109 dabd d280 18bd a6de f7bd
00000080: 99d3 a13d 938d 873d dcc4 9dbc a2f6 da3c
00000090: 0864 a0bc 6681 883b 5508 743d 5c6f 803c
000000a0: c799 c23b 27b8 a6bc 951d 0a3e 30b6 d63d
000000b0: 0001 083d 4778 a6bd 80aa aabd 4683 3d3d
000000c0: 2889 783e 0fb0 fdbd 9874 f03d 4a75 893c
000000d0: 6b40 99bb 7d13 a5bd 1cfe 7c3d 55af 273e
000000e0: d5f6 2f3e 0764 993e 158f b23d 80d9 b83d
000000f0: e684 443d 1f4d 933d f151 33be d411 053e
00000100: f56e a2bd e4fb ae3d cf56 6d3e 6660 0e3e
00000110: 8232 993d 2a61 8f3c 4e64 84bd 3e45 a73d
00000120: b680 15be ce44 9b3c a97f 13bd 160e b23c
00000130: 77e8 163e d7c4 bfbd 3daf 9fbb 924b dc3d
00000140: 1b83 8e3c ea36 7f3d 7582 f6bd cda8 b33b
00000150: bab2 8b3d e78f 663d 2242 f8bc 3b3e 123c
00000160: 1a4a 07bd e4cf 853d 5078 8c3d c349 a03e
00000170: 06f9 013e ecea 133e a7d1 22bd ee8b d2bc
00000180: 261e 06be 954d 0b3e 6160 ce3d b1b5 733d
00000190: 0892 eebd 5203 503e 0252 883d 9686 223e
000001a0: 7530 23be 54d3 2a3d 7ac5 483e e3ab 45bc
000001b0: ed92 6ebe 50af 473e dcbe 823e 88da 31bd
000001c0: afbc 3cbd a58e 23bd 1ee9 ef3c 69b9 853d
000001d0: fa8d adbc e255 ca3d 41d2 44bd 3279 3e3e
000001e0: 0e66 4d3d 29f9 663e a618 673e 4c86 a7bc
000001f0: 703e 2e3e 4000 c6bd 98f7 813b acf1 bb3d

_policy.8.weight f4 [3, 128]
-0.01098286 0.1224949 -0.06709476 -0.6174334 -0.3363307 -0.21905789 -0.24850717 0.011193887
0.42063808 -0.06954371 0.3439474 0.4498658 -0.007993084 0.07840247 -0.8166852 -0.08861244
0.36302337 0.27959353 -0.57791394 0.07449371 -0.13898215 -0.19954742 -0.027880456 0.42716765
-0.12314932 -0.30156744 0.016367355 -0.10725883 -0.512986 0.31074655 -0.08007474 0.013445945
-0.11884005 -0.055011455 0.08088346 0.40647942 -0.45198146 0.27400926 -0.11897575 -0.07615155
0.57138497 -0.09414589 -0.07944489 0.35117835 0.48516414 -0.584225 1.4626479 0.3780923
-0.17415643 0.015236636 0.26698285 -0.20375355 -0.2642127 0.19309133 0.0059615797 -0.19737045
-0.13346456 -0.57807994 -0.019432023 0.44520986 0.025444804 -0.09411053 -0.6601214 -0.20490383
0.2963016 0.41946647 0.48021373 -0.10456618 0.4315415 -0.017268872 0.42223907 0.00094920956
-0.40983358 0.53513616 0.3394188 0.004449131 -0.21833384 0.34893796 -0.039412063 0.1550744
-0.012883296 -0.20011391 -0.75591505 -0.18083334 -0.16214368 0.44763446 -0.50422055 -0.08652829
-0.4716274 0.660252 -0.19396421 -0.26946032 -0.34195954 -0.02238504 0.47189626 0.46988857
0.20823707 -0.0781518 0.25570586 -0.2868658 0.08415233 -0.10942604 -0.115872584 -0.38450497
0.019015048 0.17899258 -0.31935942 0.46371606 0.3328593 0.45272762 -0.16148639 0.19742124
-0.4235255 0.06984518 0.15315191 -0.08838529 -0.23823535 -0.17976217 0.2527021 -0.09500577
0.38961 -0.2044565 -0.096865945 0.3817814 0.4701045 0.16156591 -0.016014991 -0.13650292
0.13027024 0.33714768 -0.1447721 0.46140936 0.3674639 0.04238013 0.24762005 0.39129686
-0.39384237 0.40140334 -0.025679223 -0.066106625 -0.18448369 0.14183833 0.6975367 -0.19563149
-0.45499262 -0.088320516 0.45368087 0.12943667 0.430637 0.3900163 -0.12956479 -0.20044704
-0.34577122 0.121668026 -0.110230245 -0.22710298 0.3647813 -0.47494295 0.24875572 0.06438811
0.23922025 -0.056649476 -0.9780109 -0.13617721 -0.10171498 -0.39718246 0.57686263 -0.10697598
-0.10039249 0.18917227 0.68911374 -0.4728418 -0.41901577 0.44259825 -1.0399698 -0.3073
-0.052099835 0.5193199 -0.17225187 0.25349718 0.29635996 -0.12527236 0.40270644 -0.3248312
0.44604218 0.49985036 0.25974593 -0.15941693 0.063214034 -0.124275215 0.39417404 0.44411013
-0.42014474 -0.10223535 -0.029917909 0.26645222 0.032214087 -0.5815673 0.24477951 0.42422968
0.06194367 -0.6170854 0.07522647 -0.19582585 0.22046933 -0.35398307 -0.30733204 -0.23181136
-0.35154077 -0.122780494 0.2770938 0.43969107 0.26166573 -0.05998672 0.065905444 -0.066364296
0.38275084 -0.5091283 0.13663381 -0.44858316 -0.18728374 -0.3540537 -0.60177386 -0.10893906
-0.40795407 0.53868395 -0.10732964 0.16842687 -0.73043764 -0.27758113 -0.051468078 -0.07138173
-0.116333395 -0.04394771 -0.13548921 -0.67959976 0.29843014 -0.529576 0.19485748 -0.16564651
0.3683112 0.30404207 -0.0989476 0.25476024 0.14009947 -0.03321942 -0.8561691 -0.26379174
-0.31466922 0.23155572 0.49381712 -0.46146268 -0.31522423 -0.10961815 0.29295957 -0.33843112
00000000: 74f1 33bc 9bde fa3d fa68 89bd 1e10 1ebf
00000010: 8a33 acbe b650 60be aa78 7ebe 9166 373c
00000020: e05d d73e ef6c 8ebd e019 b03e cf54 e63e
00000030: 6df5 02bc 7991 a03d 4812 51bf 707a b5bd
00000040: 33de b93e e226 8f3e 2bf2 13bf 2990 983d
00000050: 5651 0ebe 2956 4cbe 8e65 e4bc b8b5 da3e
00000060: b635 fcbd 0c67 9abe d514 863c 84aa dbbd
00000070: 0d53 03bf 2c1a 9f3e 3afe a3bd 624c 5c3c
00000080: 6a62 f3bd b153 61bd 3aa6 a53d 121e d03e
00000090: 1d6a e7be f14a 8c3e 8fa9 f3bd 58f5 9bbd
000000a0: 4946 123f 8fcf c0bd 01b4 a2bd a6cd b33e
000000b0: 6f67 f83e c58f 15bf 0c38 bb3f 5095 c13e
000000c0: 1056 32be 15a3 793c fab1 883e c5a4 50be
000000d0: e346 87be bcb9 453e 5b59 c33b 7b1b 4abe
000000e0: efaa 08be 0cfd 13bf e82f 9fbc 8cf2 e33e
000000f0: 9f71 d03c 06bd c0bd b7fd 28bf 4fd2 51be
00000100: d8b4 973e 4fc4 d63e 93de f53e cb26 d6bd
00000110: 02f3 dc3e 7377 8dbc b82f d83e 60d4 783a
00000120: b5d5 d1be affe 083f 4dc8 ad3e 04ca 913b
00000130: e892 5fbe ffa7 b23e 8b6e 21bd d3cb 1e3e
00000140: 7614 53bc a9ea 4cbe a683 41bf 602c 39be
00000150: fe08 26be 5830 e53e 9914 01bf be35 b1bd
00000160: 2679 f1be 4606 293f 8e9e 46be b4f6 89be
00000170: 5215 afbe d560 b7bc 639c f13e 3c95 f03e
00000180: 193c 553e 0d0e a0bd e1eb 823e 13e0 92be
00000190: 0f58 ac3d c21a e0bd 9b4e edbd d6dd c4be
000001a0: 72c5 9b3c d549 373e 1483 a3be 316c ed3e
000001b0: 896c aa3e eacb e73e b05c 25be cb28 4a3e
000001c0: 56d8 d8be fd0a 8f3d dbd3 1c3e 5903 b5bd
000001d0: f8f3 73be 9313 38be 2b62 813e 6392 c2bd
000001e0: f67a c73e 0b5d 51be a761 c6bd da78 c33e
000001f0: 89b1 f03e 8971 253e df31 83bc 6cc7 0bbe
00000200: 9065 053e 9f9e ac3e 233f 14be d93d ec3e
00000210: 3a24 bc3e ca96 2d3d 1c90 7d3e 1058 c83e
00000220: b5a5 c9be bd84 cd3e 3c5d d2bc e962 87bd
00000230: 4be9 3cbe 113e 113e c491 323f 9f53 48be
00000240: cbf4 e8be 63e1 b4bd dc48 e83e 0c8b 043e
00000250: 747c dc3e 37b0 c73e a2ac 04be fd41 4dbe
00000260: ed08 b1be 162d f93d 65c0 e1bd af8d 68be
00000270: 9dc4 ba3e b92b f3be d2b9 7e3e eadd 833d
00000280: 27f6 743e 4809 68bd ec5e 7abf 0a72 0bbe
00000290: f24f d0bd 805b cbbe 45ad 133f 3916 dbbd
000002a0: 949a cdbd 60b6 413e c269 303f 5218 f2be
000002b0: 3c89 d6be 3d9c e23e bb1d 85bf 6d56 9dbe
000002c0: a366 55bd 26f2 043f cb62 30be 62ca 813e
000002d0: 7ebc 973e 6647 00be 8a2f ce3e 4650 a6be
000002e0: a45f e43e 63ec ff3e 6bfd 843e 313e 23be
000002f0: 5c76 813d 0184 febd 2ed1 c93e 6762 e33e
00000300: 361d d7be c460 d1bd 6716 f5bc 6d6c 883e
00000310: ebf2 033d 98e1 14bf 7ba7 7a3e a234 d93e
00000320: a5b8 7d3d 4ff9 1dbf 5610 9a3d 9286 48be
00000330: b6c2 613e 453d b5be a05a 9dbe f55f 6dbe
00000340: 27fd b3be 5774 fbbd 3ddf 8d3e 301f e13e
00000350: 0df9 853e a3b4 75bd 6ff9 863d 01ea 87bd
00000360: ebf7 c33e 3b56 02bf bce9 0b3e b1ac e5be
00000370: 4fc7 3fbe 8746 b5be da0d 1abf 711b dfbd
00000380: 5bdf d0be 31e7 093f a4cf dbbd 1878 2c3e
00000390: f6fd 3abf 1d1f 8ebe 31d0 52bd 9630 92bd
000003a0: 3440 eebd 8402 34bd afbd 0abe 40fa 2dbf
000003b0: d6cb 983e 4b92 07bf b888 473e 3d9f 29be
000003c0: 4993 bc3e 67ab 9b3e 0aa5 cabd ef6f 823e
000003d0: 3c76 0f3e 1611 08bd e62d 5bbf b60f 87be
000003e0: 531c a1be f11c 6d3e 99d5 fc3e d644 ecbe
000003f0: 1265 a1be 7b7f e0bd ccfe 953e d846 adbe

_policy.8.bias f4 [3]
-0.0028160107 -0.037444636 0.026690895
00000000: d28c 38bb 8c5f 19bd dda6 da3c

_value.0.weight f4 [128, 22]
0.063127585 0.16749026 -0.14837119 0.03782892 0.028893515 -0.16886337 0.077366136 -0.049362943
0.16458015 -0.18221886 -0.03410483 0.16071682 0.070729546 -0.05379509 -0.047504652 0.042441096
-0.02773267 0.16904975 0.00015605599 0.10273563 0.07828688 -0.07864383 -0.15971042 -0.13774975
-0.066294074 -0.05210328 0.03754238 -0.15575847 -0.07974352 0.12839209 -0.01480967 -0.07806347
-0.1479312 -0.058035854 -0.15474084 0.17200194 0.111432984 0.16560942 -0.1461795 -0.17448229
0.014209988 -0.22802146 -0.115704015 0.046467975 -0.026476394 -0.03125818 -0.062417734 -0.1478982
0.1617762 0.16154431 -0.10627301 0.17468606 0.13274105 0.07047725 0.17945799 0.14997205
-0.16118108 -0.20636848 -0.14223751 -0.21067943 -0.13546665 -0.013799256 -0.05779897 -0.09555011
-0.15042272 0.08223919 -0.11516151 0.04440346 0.0034641288 -0.20909882 -0.15227285 0.052689638
0.07138155 0.035370447 0.01621159 -0.11414662 0.11341433 0.040031787 0.2767061 0.005552226
0.14725566 -0.0263745 0.007914277 -0.040688314 -0.108171344 0.07413169 -0.020859417 0.27178013
-0.13497725 0.24552526 -0.23331234 0.08061987 0.021806328 0.094862275 0.025919832 0.08356348
-0.07330206 -0.08645592 -0.18420029 -0.09496857 0.056143984 0.06605834 -0.083939694 -0.07957663
-0.05676096 0.06604551 -0.050855655 0.01734286 0.034075983 -0.025316823 -0.19428807 0.23128651
0.13068458 -0.11003657 0.1261856 -0.13578159 0.15413679 0.036002535 0.078104995 0.02178325
-0.12976214 0.08394554 0.14481297 0.114434734 0.17831875 0.10178846 0.0012662563 -0.16006933
0.0032919866 -0.13496563 -0.088232644 -0.17896974 0.08576436 0.17508075 -0.10854278 0.1708307
-0.045628335 -0.17235716 0.023673082 -0.032349948 0.06625693 -0.053448517 -0.19779329 -0.054910015
-0.14538926 0.17861477 -0.18402617 0.11730409 0.061377894 -0.10145535 0.10136043 -0.18253787
-0.16469304 0.020401282 -0.08480787 -0.13696714 0.005214548 -0.16254564 0.09903918 0.14422807
0.10718076 0.016778909 -0.10392065 0.16736627 -0.019818852 -0.14562245 0.0540621 -0.19505152
0.077127226 -0.123106405 0.014135313 -0.025128953 -0.22093548 0.040383022 0.15263462 0.1199392
0.108435385 -0.18274362 -0.069739036 -0.11188159 -0.08508286 0.02540832 0.11735826 0.16468671
-0.034314334 0.18584995 -0.04922207 -0.13939865 0.12833832 -0.13177022 -0.20729358 -0.1729355
0.16238682 0.0070054727 0.012895945 -0.09943664 -0.21828741 0.16203076 -0.05486922 0.10915507
0.07793822 -0.03286108 0.04542368 -0.08113394 0.047670938 -0.16511016 -0.008079602 0.09039525
-0.07627975 0.20012735 -0.14806592 -0.18266277 0.12305954 -0.07982193 -0.055752944 -0.1980969
-0.20440644 0.0005800605 0.021697411 0.06402924 0.14609985 -0.1561487 -0.040295113 0.13879666
0.13158567 -0.08067208 -0.04858578 0.06758048 0.13851736 0.0754661 0.03937345 -0.010651593
0.070530675 0.015576666 0.01777976 0.083781905 -0.14428025 -0.027385097 0.16973943 -0.08559705
-0.017367726 -0.18935505 -0.05138075 -0.042141423 -0.015111414 -0.08325432 -0.15505642 -0.12926628
-0.060098697 -0.028164934 0.037280798 0.0073949634 0.13638014 0.12905994 0.13208832 0.15016772
00000000: 0949 813d 9182 2b3e 9eee 17be 7ff2 1a3d
00000010: 18b2 ec3c 85ea 2cbe 2372 9e3d cc30 4abd
00000020: b387 283e 9597 3abe 82b1 0bbd f392 243e
00000030: a7da 903d 3e58 5cbd 3d94 42bd b7d6 2d3d
00000040: a02f e3bc 611b 2d3e f6a2 2339 0f67 d23d
00000050: df54 a03d 0410 a1bd 218b 23be 450e 0dbe
00000060: 30c5 87bd 406a 55bd 0ac6 193d 267f 1fbe
00000070: 9250 a3bd 3779 033e 42a4 72bc bedf 9fbd
00000080: 477b 17be 01b7 6dbd 6274 1ebe 4721 303e
00000090: fa36 e43d 8495 293e 14b0 15be 7cab 32be
000000a0: 02d1 683c 757e 69be 3af6 ecbd 3455 3e3d
000000b0: 06e5 d8bc 9408 00bd bda9 7fbd a072 17be
000000c0: a9a8 253e df6b 253e aaa5 d9bd e7e0 323e
000000d0: 45ed 073e 6056 903d d6c3 373e 4692 193e
000000e0: a70c 25be 4252 53be b6a6 11be 59bc 57be
000000f0: c5b7 0abe 4616 62bc 9dbe 6cbd c7af c3bd
00000100: 6a08 1abe 056d a83d ccd9 ebbd 67e0 353d
00000110: 7006 633b 001e 56be 6aed 1bbe 17d1 573d
00000120: 7d30 923d 9ae0 103d 2bce 843c b4c5 e9bd
00000130: c645 e83d 5ff8 233d 6cac 8d3e 73ef b53b
00000140: 30ca 163e 560f d8bc e2aa 013c caa8 26bd
00000150: f088 ddbd 5bd2 973d 5ee1 aabc c426 8b3e
00000160: 7a37 0abe f96a 7b3e 6ee9 6ebe 081c a53d
00000170: 2fa3 b23c 2747 c23d d455 d43c 5423 ab3d
00000180: 641f 96bd cd0f b1bd 009f 3cbe e27e c2bd
00000190: 3cf7 653d 9849 873d 93e8 abbd 12f9 a2bd
000001a0: 2e7e 68bd de42 873d 054e 50bd 9d12 8e3c
000001b0: 4293 0b3d 3a65 cfbc 74f3 46be 5fd6 6c3e
000001c0: 2ed2 053e da5a e1bd cc36 013e 540a 0bbe
000001d0: 09d6 1d3e 6577 133d 83f5 9f3d c972 b23c
000001e0: 5ee0 04be a4eb ab3d da49 143e c25c ea3d
000001f0: 3199 363e 7876 d03d 83f8 a53a 37e9 23be
00000200: 5fbe 573b 6e34 0abe 51b3 b4bd d843 37be
00000210: 3aa5 af3d 5e48 333e ad4b debd 3eee 2e3e
00000220: c7e4 3abd 657e 30be 0dee c13c 6181 04bd
00000230: b7b1 873d d5ec 5abd 538a 4abe 53e9 60bd
00000240: ece0 14be cae6 363e 5b71 3cbe 203d f03d
00000250: 6367 7b3d d3c7 cfbd 0f96 cf3d 35eb 3abe
00000260: 4ba5 28be 9720 a73c c0af adbd 1d41 0cbe
00000270: cdde aa3b 5d72 26be 0ed5 ca3d 86b0 133e
00000280: 9681 db3d ec73 893c 5ad4 d4bd 1062 2b3e
00000290: 255b a2bc 0d1e 15be 3870 5d3d 96bb 47be
000002a0: e1f4 9d3d 361f fcbd cd97 673c 3cdb cdbc
000002b0: e93c 62be ab68 253d 404c 1c3e afa2 f53d
000002c0: 5f13 de3d 2521 3bbe 57d3 8ebd 2d22 e5bd
000002d0: ec3f aebd 1c25 d03c 8759 f03d a2a3 283e
000002e0: 308d 0cbd 734f 3e3e 159d 49bd 85be 0ebe
000002f0: 1f6b 033e c6ee 06be c544 54be 0116 31be
00000300: bb48 263e 2a8e e53b 8449 533c 70a5 cbbd
00000310: bc86 5fbe 64eb 253e 8cbe 60bd b18c df3d
00000320: 139e 9f3d 5799 06bd 2e0e 3a3d 8d29 a6bd
00000330: 9a42 433d a312 29be 4f60 04bc 2521 b93d
00000340: 8f38 9cbd 2fee 4c3e 989e 17be f30b 3bbe
00000350: a406 fc3d ae79 a3bd 335d 64bd ead9 4abe
00000360: ec4f 51be 340f 183a c5be b13c c321 833d
00000370: 339b 153e 72e5 1fbe 7d0c 25bd b620 0e3e
00000380: 65be 063e 6737 a5bd e201 47bd a267 8a3d
00000390: 7fd7 0d3e f88d 9a3d 0e46 213d 0584 2ebc
000003a0: 6372 903d 4635 7f3c dca6 913c d995 ab3d
000003b0: 34be 13be b656 e0bc 2cd0 2d3e 824d afbd
000003c0: c346 8ebc 4ae6 41be 9f74 52bd 7c9c 2cbd
000003d0: dd95 77bc 3e81 aabd 1cc7 1ebe 615e 04be
000003e0: 0d2a 76bd 26ba e6bc c0b3 183d 7351 f23b
000003f0: 3ca7 0b3e 4a28 043e 2942 073e 91c5 193e
