logs/weight_colliion_obj_obs = 0.4/model/model_1910.pth (torch, 427625 bytes, 19 tensors)

_policy.0.weight f4 [128, 22]
-0.37512007 -0.052010424 0.1823566 0.09282177 -0.35840777 -0.21732093 0.17464375 -0.02649883
0.4445299 0.35485962 -0.22827679 0.004511697 0.26472658 0.4776982 -0.07459062 -0.12607653
-0.081018634 0.073882475 0.034003522 0.12799552 -0.1337517 -0.58899665 -0.43976778 -0.29747078
0.04422132 1.0762478 -0.070181556 0.030346213 0.25646928 0.086381435 -0.9520029 0.117705114
0.12277877 0.23712619 0.32849714 0.33109015 0.20487836 -0.05100042 -0.039824832 -0.18529308
-0.20606977 0.11063019 0.025082998 -0.025917882 -0.6002932 -0.049531963 0.28623843 0.055533208
-0.2837581 0.083473206 0.0139407255 0.17854215 1.256508 -0.52041805 0.30559608 -0.02929556
0.40655467 0.46815792 0.07910045 0.15404718 -0.15624279 0.11407736 0.00044654688 -0.03998876
-0.09242415 -0.11128202 0.08137868 -0.55681944 0.06140901 0.5658546 -0.03689907 -0.7282538
0.1996976 0.4197926 0.15782796 0.13622601 -0.004337366 -0.19892037 -0.29245082 0.6724396
-0.22047268 -0.12727906 -0.2041303 0.014554436 -0.2010986 0.3034639 0.15406354 0.111333
1.1178485 -0.5459717 -0.050264828 0.19491547 0.78582996 -0.68301 0.14373653 -0.55930746
-0.734099 0.53602695 0.1590122 -0.1476557 -0.11138247 -0.15830462 0.0036147062 0.17901948
-0.012997763 0.006656689 0.02505765 -0.12466934 0.016113343 -0.030911509 -0.72117895 0.78056705
0.48082846 -0.61433613 -0.28189915 0.7372942 0.21180277 0.20740816 -0.046843693 -1.2366
-0.32777065 0.022158084 -0.17024216 -0.0042848024 0.061335795 -0.032834414 0.16376205 0.04292587
-0.046197712 -0.101923555 -0.07340733 0.08362351 -0.100804515 0.16550739 -0.38550973 0.25617734
0.4053407 -0.016168734 -0.54441357 0.07982473 0.61507505 -0.57618296 0.23665543 -0.013149387
-0.9355674 0.19957897 -0.042824622 -0.018546153 -0.083756864 -0.14175849 0.36914876 -0.18994881
0.16091967 -0.119511776 -0.2457626 -0.10496359 0.04212433 0.9970158 0.37013915 0.298379
-0.2687022 -0.11708077 -0.84544545 0.90966755 -0.035106026 -0.4690732 0.051327642 0.08927219
-0.14966016 0.050703738 -0.10886972 -0.2317137 -0.0104237655 0.061997 -0.0035682814 0.24552466
0.19558147 -0.43316224 -0.11934556 0.14757368 0.47941247 -0.09006806 -0.20162861 -0.009906341
2.1319146 1.2268366 -0.03250144 -0.12872495 0.17534417 0.008193547 0.13858429 -0.15728194
0.16883294 -0.077981 -0.063885644 -0.012990366 -0.06864748 0.10164458 0.35998666 0.81787366
-0.44008404 -0.77970934 -0.28538296 0.5382562 -0.52673775 -0.64818776 -0.61340326 0.35545972
-0.012476907 0.45485976 0.33853728 -0.12454467 0.07358368 0.046167385 0.12586088 -0.15387532
-0.010827396 0.004828516 -0.12269449 -0.116707295 -0.7781847 -0.3344207 0.1679972 -0.1403624
-0.67454094 -0.33776474 -0.107433744 0.063248694 1.5764748 0.5825482 0.2546879 -0.25034222
-0.030492468 0.05191057 -0.018531954 0.11916464 0.14876747 0.01480285 -0.117194615 -0.021467054
-0.09748641 -0.06825235 0.016030729 0.33403215 -0.84998655 -0.35612872 -0.15029919 -0.003727462
0.0054750927 -0.4646484 -0.37075981 -0.13013552 -0.027488615 -0.057978682 -0.40047964 -0.33635402
00000000: bd0f c0be e208 55bd b0bb 3a3e 5719 be3d
00000010: 3981 b7be 6189 5ebe d0d5 323e 1314 d9bc
00000020: 6c99 e33e 29b0 b53e 64c1 69be dcd6 933b
00000030: 3e8a 873e dc94 f43e f8c2 98bd 351a 01be
00000040: 19ed a5bd b24f 973d 4747 0b3d 4211 033e
00000050: 35f6 08be 7cc8 16bf 3e29 e1be 174e 98be
00000060: 6a21 353d 7dc2 893f 59bb 8fbd 9f98 f83c
00000070: f14f 833e c0e8 b03d 76b6 73bf 610f f13d
00000080: 7073 fb3d 35d1 723e c730 a83e a684 a93e
00000090: a2cb 513e d1e5 50bd 5d1f 23bd 78bd 3dbe
000000a0: f403 53be 1592 e23d dc7a cd3c bd51 d4bc
000000b0: d1ac 19bf 07e2 4abd d88d 923e ca76 633d
000000c0: be48 91be 00f4 aa3d a467 643c c1d3 363e
000000d0: 41d5 a03f 1e3a 05bf 1777 9c3e 3efd efbc
000000e0: ef27 d03e 65b2 ef3e 6bff a13d 8bbe 1d3e
000000f0: 1cfe 1fbe 64a1 e93d 821e ea39 41cb 23bd
00000100: df48 bdbd d4e7 e3bd dea9 a63d b88b 0ebf
00000110: 0488 7b3d d9db 103f 7b23 17bd d76e 3abf
00000120: 877d 4c3e 0eef d63e a79d 213e d57e 0b3e
00000130: 7720 8ebb c8b1 4bbe 1dbc 95be 0025 2c3f
00000140: 97c3 61be 7155 02be 8907 51be bb75 6e3c
00000150: cbec 4dbe 9f5f 9b3e d5c2 1d3e 8e02 e43d
00000160: a915 8f3f cdc4 0bbf 7ee2 4dbd ec97 473e
00000170: 272c 493f bed9 2ebf ab2f 133e c62e 0fbf
00000180: e9ed 3bbf 1039 093f 18d4 223e 0e33 17be
00000190: 7e1c e4bd 9b1a 22be b5e4 6c3b e250 373e
000001a0: 92f4 54bc 5b20 da3b b345 cd3c a452 ffbd
000001b0: 2100 843c 223a fdbc 2f9f 38bf 3ed3 473f
000001c0: 262f f63e 2245 1dbf 1655 90be 50bf 3c3f
000001d0: d3e2 583e ce62 543e 2cdf 3fbd e948 9ebf
000001e0: 8ed1 a7be df84 b53c f653 2ebe 8767 8cbb
000001f0: 3e3b 7b3d 617d 06bd 3db1 273e 09d3 2f3d
00000200: d039 3dbd 4cbd d0bd 9556 96bd ce42 ab3d
00000210: 9972 cebd c57a 293e 8861 c5be ad29 833e
00000220: d188 cf3e 4b74 84bc b05e 0bbf 267b a33d
00000230: 8f75 1d3f ba80 13bf cd55 723e 8770 57bc
00000240: 5881 6fbf 6e5e 4c3e df68 2fbd 1aee 97bc
00000250: b888 abbd 2329 11be 1101 bd3e f181 42be
00000260: 20c8 243e 97c2 f4bd 31a9 7bbe 27f7 d6bd
00000270: 908a 2c3d 6d3c 7f3f e182 bd3e 22c5 983e
00000280: 5693 89be 0bc8 efbd 1d6f 58bf f9df 683f
00000290: 56cb 0fbd 5d2a f0be ef3c 523d 57d4 b63d
000002a0: 8340 19be b9ae 4f3d 16f7 debd 5b46 6dbe
000002b0: 71c8 2abc 91f0 7d3d d4d9 69bb d16a 7b3e
000002c0: 8246 483e 71c7 ddbe 726b f4bd 8e1d 173e
000002d0: 8d75 f53e 9a75 b8bd bb77 4ebe 354e 22bc
000002e0: 4a71 0840 fb08 9d3f 3b20 05bd 79d0 03be
000002f0: 6c8d 333e 3a3e 063c 0ae9 0d3e 840e 21be
00000300: 8be2 2c3e 81b4 9fbd 7ad6 82bd 8bd5 54bc
00000310: 0d97 8cbd 092b d03d 2c50 b83e 2b60 513f
00000320: b252 e1be 089b 47bf b71d 92be 29cb 093f
00000330: 49d8 06bf a2ef 25bf ff07 1dbf d1fe b53e
00000340: f16b 4cbc 61e3 e83e c254 ad3e 4711 ffbd
00000350: 0ab3 963d 031a 3d3d ade1 003e 7e91 1dbe
00000360: 6465 31bc 8738 9e3b 4047 fbbd 3c04 efbd
00000370: 1d37 47bf 3139 abbe 7507 2c3e 29bb 0fbe
00000380: b7ae 2cbf 80ef acbe 3906 dcbd 8888 813d
00000390: edc9 c93f e121 153f 7466 823e db2c 80be
000003a0: 57cb f9bc 2ea0 543d 53d0 97bc 970c f43d
000003b0: 8056 183e a787 723c bb03 f0bd addb afbc
000003c0: f4a6 c7bd e3c7 8bbd e052 833c 4306 ab3e
000003d0: b898 59bf 8156 b6be 08e8 19be 6f48 74bb
000003e0: 6868 b33b 65e6 edbe 3bd4 bdbe 3f42 05be
000003f0: ce2f e1bc 0e7b 6dbd ab0b cdbe 9836 acbe

_policy.0.bias f4 [128]
-0.09935868 -0.025790831 -0.19216906 -0.17875823 -0.029000029 -0.12827368 0.03666299 -0.00014965382
-0.042673994 0.18029922 0.16469821 0.18053363 -0.18124 -0.24002178 0.006756465 -0.105063796
-0.007039712 0.040035617 -0.17751756 0.03880478 0.08678352 -0.024847163 -0.2713035 0.22568354
-0.074466564 -0.06888501 -0.02784239 -0.1447048 0.11548148 -0.21058653 -0.24625202 -0.16365772
0.11199696 -0.0917326 0.08641246 0.06507899 0.20734286 -0.20996617 -0.16190463 -0.0049879183
-0.030340314 0.10991354 -0.18407424 -0.07349617 0.00023580602 -0.12772118 0.19390485 0.10053874
-0.12058675 -0.20134991 -0.3197832 -0.15970236 -0.28563002 0.22281103 -0.2801479 -0.09944087
-0.06964016 0.08709997 0.35971084 -0.05285072 -0.041635428 -0.012860976 -0.29428783 -0.065030284
-0.13082787 -0.09311828 0.050945885 -0.08428892 -0.101176485 -0.18316832 -0.08543404 -0.07158191
-0.17814557 0.14067434 -0.1655625 0.11450765 -0.11841186 -0.123578064 -0.19175678 -0.13064769
-0.0010585114 -0.021437002 0.020687513 -0.24219252 -0.10955599 -0.005533423 -0.1700409 -0.053060707
-0.111976214 -0.25947684 0.081924535 -0.21668382 0.09838123 -0.26970226 -0.24046986 0.032892954
-0.297667 -0.14970304 -0.09581764 -0.17503251 -0.28309122 -0.15127021 -0.14034799 -0.06842799
0.022551501 0.010587987 -0.2007106 -0.22873215 -0.010836785 0.16960925 0.15249158 -0.22420433
-0.2038234 -0.10698838 -0.2718689 0.14003651 0.013984472 0.03741951 -0.071744375 0.17598756
0.08152497 -0.09187437 0.04401063 -0.22383823 0.005736991 -0.2181666 -0.21509455 -0.27642697
00000000: 907c cbbd 4b47 d3bc f7c7 44be 660c 37be
00000010: 7891 edbc 2d5a 03be ee2b 163d 64ec 1cb9
00000020: edca 2ebd 5ca0 383e a6a6 283e cfdd 383e
00000030: fb96 39be 45c8 75be 5665 dd3b b02b d7bd
00000040: 62ad e6bb 63fc 233d 2ac7 35be c3f1 1e3d
00000050: 8fbb b13d 478c cbbc 4be8 8abe 9619 673e
00000060: ed81 98bd 9613 8dbd b915 e4bc 7f2d 14be
00000070: 8e81 ec3d ffa3 57be 7d29 7cbe e495 27be
00000080: aa5e e53d 4dde bbbd 04f9 b03d 2248 853d
00000090: b051 543e 5f01 57be 54ca 25be b171 a3bb
000000a0: 408c f8bc 5a1a e13d f57d 3cbe 2985 96bd
000000b0: b242 7739 57c9 02be fe8e 463e 41e7 cd3d
000000c0: 30f6 f6bd ac2e 4ebe a0ba a3be 0489 23be
000000d0: 193e 92be 9328 643e 8c6f 8fbe a8a7 cbbd
000000e0: 809f 8ebd 7861 b23d 052c b83e ff79 58bd
000000f0: e989 2abd d8b6 52bc e5ac 96be 992e 85bd
00000100: bef7 05be ccb4 bebd a2ac 503d ab9f acbd
00000110: 9e35 cfbd 7a90 3bbe 0bf8 aebd 8999 92bd
00000120: cb6b 36be ef0c 103e 3789 29be fd82 ea3d
00000130: eb81 f2bd 7f16 fdbd e45b 44be 82c8 05be
00000140: c0bd 8aba a79c afbc dc78 a93c 5101 78be
00000150: e45e e0bd b751 b5bb 341f 2ebe 2f56 59bd
00000160: c953 e5bd 26da 84be 0dc8 a73d 5de2 5dbe
00000170: 197c c93d 6a16 8abe bb3d 76be c3ba 063d
00000180: cf67 98be c14b 19be 0a3c c4bd b93b 33be
00000190: 55f1 90be 94e6 1abe 62b7 0fbe f923 8cbd
000001a0: edbd b83c 3c79 2d3c 1487 4dbe c338 6abe
000001b0: c58c 31bc 0cae 2d3e c126 1c3e d295 65be
000001c0: 15b7 50be b91c dbbd 6732 8bbe bb65 0f3e
000001d0: 201f 653c 3345 193d b7ee 92bd 1536 343e
000001e0: 90f6 a63d a128 bcbd 7e44 343d d935 65be
000001f0: 5efd bb3b 1167 5fbe bf41 5cbe d687 8dbe

_policy.2.weight f4 [128, 128]
0.182152 -0.0042975056 -0.17988801 -0.29438683 0.30954868 -0.5072268 0.0430211 0.24512619
0.055424355 -0.5452259 -0.03671349 -0.25241992 0.02552403 -0.12854938 -0.29919505 -0.054168582
0.040283065 0.1116533 -0.060131885 -0.038117636 0.09578468 -0.14199585 0.06750946 -0.40101328
-0.29662284 -0.015422534 -0.23181055 0.25190032 0.3053758 0.10970981 0.051761504 -0.38583696
0.12790738 -0.032734018 0.22251968 -0.016137138 0.06894805 -0.35012874 0.088768296 0.029112687
-0.39856791 -0.1738063 0.039072726 -0.0016798584 0.15304768 -0.21333179 0.0780233 -0.08557146
-0.090330504 -0.6588624 -0.35307696 -0.030774405 0.45184046 0.41786996 -0.3221093 -0.2618672
0.2973663 0.19164872 -0.12453094 0.14147066 0.26061374 -0.01708311 -0.29749894 0.07666164
0.024932591 0.24915652 0.13103434 -0.03455144 0.048473842 -0.22950317 0.044482276 -0.1724036
-0.12521489 -0.08701921 -0.12856147 -0.284012 -0.14264679 -0.022809096 -0.31840968 0.21008003
0.2431568 0.08996203 0.022659069 -0.5228809 -0.43999407 -0.081904225 0.0065706437 -0.052397396
-0.05354874 0.05567358 0.13922864 0.3098019 0.029513165 -0.56540686 0.04134427 0.03175308
4.7855152e-05 0.080481336 -0.029368047 0.15842347 -0.2837409 0.06531371 0.0723749 0.06269681
-0.15508988 -0.20188008 -0.0014450457 -0.069384076 0.08521746 -0.26388526 -0.56948686 -0.103388704
-0.052639436 0.18665886 -0.19784668 0.11277135 0.06449266 0.089876436 -0.16460986 -0.15492658
-0.010072865 0.054775022 0.012656484 -0.5629318 0.03384781 -0.49025628 0.024283627 0.1463361
-0.06140583 -0.05980903 -0.055664554 -0.046126503 -0.002323213 -0.04848445 0.021407485 0.042645685
-0.009511071 -0.00938073 -0.06437628 -0.11796675 -0.0067549543 -0.072716266 -0.108683795 -0.061715696
-0.08765347 -0.12001572 -0.081710584 0.042888436 -0.12541732 0.0060305055 -0.084956445 0.022937136
-0.032752458 -0.0379163 -0.02708536 -0.077526234 -0.097748004 -0.042773515 -0.0073657115 -0.07385829
-0.07395296 -0.05856099 -0.0443032 -0.054178447 0.004638344 -0.018967777 -0.070944615 -0.07303782
0.07849728 0.0014796738 0.0023514323 0.009558812 0.059018426 -0.10646747 -0.06753407 -0.11582167
-0.10427453 -0.06941916 -0.028747676 -0.11442327 -0.0140749365 0.0025330912 -0.11415532 -0.009209947
-0.015577358 -0.077720486 0.049331326 -0.10940504 0.04657864 0.010620561 -0.05484953 -0.03494683
0.04443075 0.0120789455 -0.08237526 -0.035023365 -0.024249867 0.04829905 -0.07754459 -0.034180176
0.039344218 -0.07958229 0.0021670721 -0.07741135 -0.07725439 -0.12314217 -0.027355667 -0.03286951
-0.044622682 -0.005033838 -0.000297699 -0.063339554 0.035877697 0.034933403 -0.0110730985 -0.03440077
0.0074495864 0.026683904 -0.023700574 -0.106420316 0.007291824 -0.038013425 0.04644826 0.021113936
0.015683208 -0.103717856 -0.0916417 -0.12695503 -0.11701237 -0.03601365 0.04195877 -0.01304517
-0.09667434 0.008419899 -0.09880147 0.036375757 0.050793897 -0.02670002 0.0063454956 -0.02800785
-0.03850939 0.0435305 0.016264068 0.030139197 -0.009700287 -0.07508193 0.025757436 -0.13164258
0.04969754 -0.019489182 -0.10772815 -0.09995276 -0.047450107 0.048905816 0.01869517 -0.05947017
00000000: 0e86 3a3e 17d2 8cbb 9034 38be dfb9 96be
00000010: 2a7d 9e3e 9ed9 01bf e536 303d 5c02 7b3e
00000020: a604 633d ed93 0bbf e260 16bd 2f3d 81be
00000030: c517 d13c 73a2 03be 1830 99be e0df 5dbd
00000040: dbff 243d 7caa e43d da4c 76bd 3d21 1cbd
00000050: c22a c43d 5c67 11be 6642 8a3d 9d51 cdbe
00000060: f3de 97be ccae 7cbc bf5f 6dbe 14f9 803e
00000070: 385a 9c3e 89af e03d df03 543d 6c8c c5be
00000080: 27fa 023e 1b14 06bd 33dc 633e 0832 84bc
00000090: a334 8d3d 1344 b3be 27cc b53d bb7d ee3c
000000a0: 1811 ccbe 47fa 31be b90a 203d b22e dcba
000000b0: 88b8 1c3e a673 5abe aeca 9f3d 1740 afbd
000000c0: 33ff b8bd 35ab 28bf 81c6 b4be 9b1a fcbc
000000d0: a257 e73e 0df3 d53e 83eb a4be 7513 86be
000000e0: 6540 983e 903f 443e 140a ffbd afdd 103e
000000f0: 2a6f 853e e1f1 8bbc c851 98be c700 9d3d
00000100: 6f3f cc3c e322 7f3e de2d 063e d085 0dbd
00000110: 828c 463d e102 6bbe 0c33 363d 928a 30be
00000120: 5538 00be 2137 b2bd 9ea5 03be 056a 91be
00000130: 0012 12be 24da babc 9806 a3be 381f 573e
00000140: 19fe 783e 033e b83d 839f b93c 86db 05bf
00000150: e746 e1be 67bd a7bd 8e4e d73b a79e 56bd
00000160: ec55 5bbd fb09 643d f491 0e3e 5b9e 9e3e
00000170: 98c5 f13c 81be 10bf 9c58 293d 850f 023d
00000180: 14b8 4838 66d3 a43d 4295 f0bc c339 223e
00000190: 7d46 91be 32c3 853d 4b39 943d 2f67 803d
000001a0: e2cf 1ebe a7b9 4ebe b067 bdba 3d19 8ebd
000001b0: 7e86 ae3d f81b 87be e4c9 11bf 75bd d3bd
000001c0: 739c 57bd 8023 3f3e 5298 4abe aaf4 e63d
000001d0: ba14 843d 2311 b83d 7d8f 28be 13a5 1ebe
000001e0: a808 25bc c65b 603d 245d 4f3c 4c1c 10bf
000001f0: 00a4 0a3d df02 fbbe 75ee c63c 21d9 153e
00000200: ae84 7bbd 50fa 74bd 8400 64bd 25ef 3cbd
00000210: 0c41 18bb a197 46bd c05e af3c 3ead 2e3d
00000220: 53d4 1bbc a2b1 19bc b6d7 83bd 8d98 f1bd
00000230: aa58 ddbb 44ec 94bd 9c95 debd 99c9 7cbd
00000240: aa83 b3bd cdca f5bd e157 a7bd c9ab 2f3d
00000250: 666d 00be 8c9b c53b a5fd adbd a9e6 bb3c
00000260: 7127 06bd 1f4e 1bbd 1ee2 ddbc 13c6 9ebd
00000270: 1b30 c8bd 4833 2fbd 115c f1bb 0443 97bd
00000280: a674 97bd a6dd 6fbd 4677 35bd 38ea 5dbd
00000290: 40fd 973b 5062 9bbc 694b 91bd da94 95bd
000002a0: 2fc3 a03d 9df1 c13a 7d1a 1a3b 909c 1c3c
000002b0: 4ebd 713d 9e0b dabd 4d4f 8abd e933 edbd
000002c0: e38d d5bd a22b 8ebd 3f80 ebbc bf56 eabd
000002d0: 909a 66bc 3802 263b 44ca e9bd 51e5 16bc
000002e0: 2d38 7fbc eb2b 9fbd a50f 4a3d c00f e0bd
000002f0: 3ec9 3e3d dd01 2e3c e7a9 60bd 6824 0fbd
00000300: 05fd 353d c5e6 453c 5cb4 a8bd a974 0fbd
00000310: a8a7 c6bc 3ad5 453d b3cf 9ebd 8300 0cbd
00000320: 6727 213d 0afc a2bd 7005 0e3b d889 9ebd
00000330: 8d37 9ebd f631 fcbd fe18 e0bc 2ea2 06bd
00000340: 46c6 36bd e5f2 a4bb 7c14 9cb9 2bb8 81bd
00000350: 7ef4 123d 5416 0f3d f16b 35bc d2e7 0cbd
00000360: a91b f43b 3498 da3c b527 c2bc e5f2 d9bd
00000370: 41f0 ee3b f7b3 1bbd 8840 3e3d 22f7 ac3c
00000380: 127a 803c 076a d4bd a5ae bbbd 8000 02be
00000390: 2ea4 efbd 0d83 13bd f6dc 2b3d 69bb 55bc
000003a0: 32fd c5bd 9ef3 093c 6d58 cabd bffe 143d
000003b0: 430d 503d 00ba dabc e0ed cf3b b870 e5bc
000003c0: 06bc 1dbd 0a4d 323d 393c 853c 7ae6 f63c
000003d0: f4ed 1ebc 8ec4 99bd 4201 d33c 50cd 06be
000003e0: a68f 4b3d c7a7 9fbc 94a0 dcbd 08b4 ccbd
000003f0: 0b5b 42bd 7751 483d 9d26 993c fe96 73bd

_policy.2.bias f4 [128]
-0.15521964 -0.16791528 -0.03755206 0.05174603 -0.05306262 0.13666011 0.07562265 0.10481442
-0.05849409 0.12010901 -0.07270191 0.054036032 0.04703696 0.07995296 0.081964135 0.042508047
0.06851763 0.14386362 0.18777387 0.00758812 -0.09221437 -0.09324596 0.03539516 0.0484817
-0.041518345 -0.009936534 0.09438283 -0.12756695 -0.16488579 0.09795313 -0.11470872 -0.054114766
-0.08085626 -0.015190785 -0.047871593 -0.015408319 -0.062782556 -0.011227495 -0.009211379 -0.18007685
0.09782424 -0.17060167 0.055117976 -0.083669 -0.094491765 0.114180125 -0.05085811 -0.1070891
0.02252144 -0.110869974 -0.07729905 0.13226599 0.036850702 -0.0871851 0.06137608 0.006915644
-0.013127752 -0.14277834 0.030778425 -0.15206535 0.0025533952 0.07902207 -0.123104855 -0.011555291
-0.08341561 -0.084069595 0.059553385 0.04809169 -0.10850738 -0.17894024 -0.06230583 -0.21248928
-0.11526776 -0.15233037 0.04781446 -0.031470217 0.14568242 -0.15294269 0.008061871 -0.0017948025
-0.0045594047 -0.03827671 0.049896814 0.054250464 -0.033839054 0.14876029 0.03223837 -0.095612936
-0.115720056 0.12010364 -0.18328746 0.03158444 -0.018391883 0.059091523 -0.1891494 -0.1319618
0.031254735 0.031619385 0.020660937 -0.07526075 -0.15884107 -0.071778804 0.008228851 0.11540439
-0.03683309 0.087332696 -0.15535615 -0.010327667 -0.18159479 -0.13622867 -0.06850815 0.07678901
0.07851774 0.17097321 -0.08154346 0.043023147 -0.07826865 0.056536026 -0.10166115 0.067585036
-0.092222705 -0.14016412 -0.022421198 -0.09777625 -0.13242422 -0.024205865 -0.0642675 0.102679156
00000000: e6f1 1ebe fcf1 2bbe 30d0 19bd a5f3 533d
00000010: 3158 59bd a1f0 0b3e 0ce0 9a3d f1a8 d63d
00000020: 8097 6fbd b6fb f53d bde4 94bd e354 5d3d
00000030: d4a9 403d 61be a33d d0dc a73d eb1c 2e3d
00000040: f952 8c3d fc50 133e cb47 403e c4a5 f83b
00000050: e3da bcbd bdf7 bebd 84fa 103d bf94 463d
00000060: 240f 2abd d8cc 22bc c94b c13d e9a0 02be
00000070: d2d7 28be a79b c83d 68ec eabd 72a7 5dbd
00000080: f897 a5bd c5e2 78bc 0115 44bd 2d73 7cbc
00000090: 2494 80bd 87f3 37bc 53eb 16bc 1166 38be
000000a0: 1358 c83d 34b2 2ebe 63c3 613d a75a abbd
000000b0: e684 c1bd 45d7 e93d 9850 50bd 8851 dbbd
000000c0: e27e b83c cc0f e3bd f74e 9ebd bc70 073e
000000d0: c3f0 163d 1a8e b2bd 7c65 7b3d a09c e23b
000000e0: c815 57bc 7c34 12be 0923 fc3c 05b7 1bbe
000000f0: dd56 273b 53d6 a13d 661e fcbd 6752 3dbc
00000100: ced5 aabd ae2c acbd 40ee 733d cbfb 443d
00000110: 1e39 debd 1c3c 37be 6634 7fbd ca96 59be
00000120: 8111 ecbd 7efc 1bbe 18d9 433d eae6 00bd
00000130: c62d 153e 029d 1cbe f015 043c 943f ebba
00000140: 0f67 95bb 0ac8 1cbd 9a60 4c3d bc35 5e3d
00000150: d29a 0abd 9e54 183e 620c 043d b7d0 c3bd
00000160: a3fe ecbd e6f8 f53d b5af 3bbe b05e 013d
00000170: 93aa 96bc f409 723d 61b0 41be fe20 07be
00000180: f704 003d 5483 013d 2041 a93c 4f22 9abd
00000190: 3ca7 22be c400 93bd 4dd2 063c 2359 ec3d
000001a0: 4bde 16bd 7cdb b23d af15 1fbe 6035 29bc
000001b0: fcf3 39be 877f 0bbe 004e 8cbd 8e43 9d3d
000001c0: e9cd a03d 9a13 2f3e 4200 a7bd 0a39 303d
000001d0: 504b a0bd 5292 673d b933 d0bd 066a 8a3d
000001e0: 42df bcbd 2f87 0fbe a9ac b7bc ea3e c8bd
000001f0: 379a 07be 614b c6bc ae9e 83bd 7349 d23d

_policy.4.weight f4 [128, 128]
-0.047961432 -0.048411682 -0.094381034 -0.044247545 0.06895268 0.04556109 0.24267635 0.22904074
-0.029184043 0.16643532 -0.10462047 -0.117949806 -0.22634779 0.33104968 -0.12408482 0.18407808
-0.1636995 0.1232403 -0.3691994 -0.061473597 -0.15846217 -0.20825438 -0.11425989 0.14729282
0.04301058 -0.1583457 -0.036299154 -0.054090407 0.058216315 -0.096004985 0.10320913 -0.4349337
-0.29843137 -0.08585794 0.14694479 -0.15389761 -0.027007239 -0.020761123 -0.092994615 -0.01774718
-0.36553413 -0.018911183 0.032856952 -0.1734056 -0.11698775 0.12320843 -0.012671466 -0.06770331
0.18888463 0.0466005 -0.25124824 0.038562953 0.12254533 0.07849618 -0.4749471 0.10204136
0.15614337 -0.034140863 0.18973151 0.11945783 -0.12400277 -0.015559223 -0.28677943 -0.057554618
0.015324806 -0.45327327 -0.1924857 -0.27622092 -0.030393688 -0.2919389 0.07790345 -0.27679127
0.122658 -0.07527728 -0.2103138 0.24281563 0.3777409 0.19851898 -0.15021554 -0.35990378
-0.7391064 -0.00082632655 -0.26778367 0.05715204 0.010789161 0.019416103 -0.17663705 -0.48165777
0.04924538 -0.018571764 0.3340987 -0.15547034 0.32128742 -0.104551464 -0.3214674 0.045693617
0.2588675 0.004039796 -0.210248 -0.013897242 -0.46563715 0.38048396 0.18438347 -0.016211664
-0.048116058 0.37794757 -0.15790802 0.07842048 0.11490132 0.29216507 0.07055547 0.03938664
-0.30331048 -0.2990183 0.24521373 -0.05110904 -0.2659448 -0.32059216 0.20136489 -0.057086524
0.12781589 -0.2119211 0.031601 -0.5733133 -0.026807543 0.3166293 -0.20333177 0.16149284
-0.11163302 0.057888754 -0.2299978 -0.053498898 0.09938575 0.22940315 0.05537252 -0.31561366
0.020481285 -0.03899276 0.054013934 -0.08981396 -0.31931153 0.2367778 0.14716087 -0.20867138
-0.13099506 0.2243412 0.17516822 -0.067416646 -0.5195787 0.121730454 -0.041206695 -0.32229635
-0.25513446 0.2884875 0.09483888 0.028984586 -0.011369348 0.082708865 0.14387932 0.08592263
0.021003457 -0.092763074 -0.20643249 -0.13396339 -0.10169863 -0.32814723 -0.02056657 -0.056837436
-0.1305319 -0.26049626 -0.31530985 0.069803126 -0.048899792 -0.13944937 -1.0369223 0.2665226
0.14100766 -0.056829978 -0.013073984 -0.116168395 -0.3205656 0.21460074 -0.23484078 0.5025514
-0.319131 -0.044029694 -0.18564242 -0.03967219 0.11059263 -0.24339397 -0.5066464 -0.14585997
-0.086523645 -0.023276063 -0.229512 0.018159203 0.1767366 0.013286612 -0.05882647 -0.44250435
-0.05378818 0.030758418 -0.18155389 -0.35091043 0.14924014 -0.0877877 -0.30592817 -0.27971542
0.13857166 0.24309662 -0.67714244 0.05444214 -0.08913978 -0.101081654 0.25134155 -0.22744659
-0.93504834 0.065848164 0.11662108 -0.071677215 -0.0019289496 -0.5036541 -0.38152075 -0.08624096
0.5074984 -0.6930962 0.3655622 0.0018236599 -0.59599864 -0.17239633 -0.06923926 0.017775565
-0.005891544 -0.0073131914 -0.6721099 0.055167884 0.039330382 0.048002906 -0.068930306 -0.30166745
0.0995688 -0.1244939 -0.041647583 -0.07294929 -0.22495934 0.058698073 -0.12340824 0.086452715
-0.39724424 -0.08786209 -0.13248828 -0.15924516 -0.025772028 0.12915084 -0.096207656 0.2255304
00000000: 3573 44bd 544b 46bd d84a c1bd ea3c 35bd
00000010: 1037 8d3d 449e 3a3d 2680 783e a889 6a3e
00000020: 6013 efbc 056e 2a3e 4243 d6bd ab8f f1bd
00000030: b7c7 67be 587f a93e 2f20 febd f77e 3c3e
00000040: d7a0 27be 6965 fc3d b407 bdbe bdcb 7bbd
00000050: e843 22be a340 55be 1701 eabd eed3 163e
00000060: dd2b 303d 6025 22be 6cae 14bd e78d 5dbd
00000070: 3b74 6e3d 439e c4bd 4f5f d33d a1af debe
00000080: ffcb 98be 4ad6 afbd b278 163e 5697 1dbe
00000090: 493e ddbc 3b13 aabc f673 bebd 8962 91bc
000000a0: 4a27 bbbe a0eb 9abc 0395 063d 3d91 31be
000000b0: 4697 efbd b454 fc3d fb9b 4fbc 08a8 8abd
000000c0: f96a 413e 2ae0 3e3d 9ca3 80be 30f4 1d3d
000000d0: 0cf9 fa3d 9bc2 a03d 442c f3be 10fb d03d
000000e0: 0ce4 1f3e 4ad7 0bbd fa48 423e 4fa6 f43d
000000f0: 2af5 fdbd 1cec 7ebc c1d4 92be 64be 6bbd
00000100: e514 7b3c 6f13 e8be f91a 45be d46c 8dbe
00000110: 2ffc f8bc 0479 95be d88b 9f3d 96b7 8dbe
00000120: 1e34 fb3d f92a 9abd 805c 57be a9a4 783e
00000130: 4167 c13e 8f48 4b3e 1ad2 19be 4f45 b8be
00000140: 1436 3dbf d69d 58ba f11a 89be 4218 6a3d
00000150: 05c5 303c 850e 9f3c 58e0 34be d99b f6be
00000160: 86b5 493d d023 98bc fc0e ab3e 9e33 1fbe
00000170: c97f a43e 141f d6bd 6097 a4be 3b29 3b3d
00000180: 488a 843e 4460 843b 404b 57be 42b1 63bc
00000190: fe67 eebe cbce c23e 05cf 3c3e 53ce 84bc
000001a0: 5815 45bd 5882 c13e a4b2 21be eb9a a03d
000001b0: 6251 eb3d a996 953e 637f 903d e353 213d
000001c0: 834b 9bbe ed18 99be 4f19 7b3e b657 51bd
000001d0: eb29 88be a824 a4be 9932 4e3e 8fd3 69bd
000001e0: 2be2 023e d801 59be 0d70 013d a9c4 12bf
000001f0: 7e9b dbbc 3c1d a23e 3436 50be 615e 253e
00000200: da9f e4bd c21c 6d3d 8b84 6bbe a921 5bbd
00000210: c28a cb3d a9e8 6a3e 4cce 623d 1d98 a1be
00000220: 5ec8 a73c dfb6 1fbd b73d 5d3d 62f0 b7bd
00000230: cd7c a3be e175 723e 57b1 163e f3ad 55be
00000240: 9223 06be b3b9 653e 4c5f 333e bd11 8abd
00000250: 1c03 05bf d14d f93d 5ac8 28bd 0704 a5be
00000260: fca0 82be a2b4 933e e33a c23d 1571 ed3c
00000270: 8046 3abc 4463 a93d 1a55 133e 34f8 af3d
00000280: 710f ac3c 91fa bdbd 0a63 53be b32d 09be
00000290: 5f47 d0bd ea02 a8be 397b a8bc 5fce 68bd
000002a0: 28aa 05be c45f 85be 4b70 a1be f1f4 8e3d
000002b0: 264b 48bd d1cb 0ebe dfb9 84bf a675 883e
000002c0: 5064 103e 8dc6 68bd 4334 56bc b2e9 edbd
000002d0: 2d21 a4be 4cc0 5b3e 1a7a 70be 35a7 003f
000002e0: 2365 a3be 7b58 34bd 0c19 3ebe 4e7f 22bd
000002f0: 647e e23d 453c 79be 94b3 01bf 515c 15be
00000300: 4f33 b1bd 71ad bebc 3205 6bbe 9cc2 943c
00000310: 70fa 343e 17b0 593c 06f4 70bd ee8f e2be
00000320: ff50 5cbd 14f9 fb3c 43e9 39be 88aa b3be
00000330: 68d2 183e 0aca b3bd 9ea2 9cbe dc36 8fbe
00000340: bbe5 0d3e 52ee 783e 3559 2dbf b9fe 5e3d
00000350: eb8e b6bd e603 cfbd d7af 803e c2e7 68be
00000360: 545f 6fbf 67db 863d 08d7 ee3d 81cb 92bd
00000370: cfd4 fcba 7aef 00bf b056 c3be 1a9f b0bd
00000380: 6aeb 013f c16e 31bf f82a bb3e df07 ef3a
00000390: 5e93 18bf aa88 30be 50cd 8dbd 109e 913c
000003a0: da0d c1bb 7fa3 efbb 650f 2cbf b8f7 613d
000003b0: e518 213d b29e 443d 552b 8dbd 2874 9abe
000003c0: baea cb3d a8f6 febd a896 2abd 7066 95bd
000003d0: be5b 66be 646d 703d 76bd fcbd 1f0e b13d
000003e0: 9963 cbbe 0af1 b3bd 02ab 07be 2a11 23be
000003f0: dc1f d3bc 1e40 043e 8508 c5bd 71f1 663e

_policy.4.bias f4 [128]
0.027622271 -0.002177946 0.11861368 -0.13126417 -0.07670027 -0.18430305 -0.13857631 -0.19816545
-0.17841765 -0.09164331 0.0455817 0.21074851 -0.15549809 -0.10683982 0.08527317 0.1147257
-0.32159632 0.045446448 -0.44777212 -0.25716478 -0.005799498 0.105725996 -0.07727158 -0.06784295
-0.034104217 -0.10959304 -0.19818595 -0.10305526 0.0067450367 -0.027354375 -0.25037593 0.07822095
0.042707775 0.19406317 -0.459174 -0.259513 0.049045756 -0.38806865 -0.01782059 -0.16343993
0.006879394 0.047318727 -0.076562434 -0.21798149 0.027925625 -0.18271102 -0.15606438 -0.066094294
0.10582534 0.12917365 -0.08809468 -0.038586617 0.09299312 -0.22387993 0.16770567 -0.05332438
-0.15368237 -0.123865135 -0.17561145 0.02019529 -0.06454729 -0.15010536 -0.20427725 -0.009763351
0.08632492 -0.03577918 -0.023645118 -0.04921432 -0.14430593 -0.08454112 -0.043526538 -0.048071004
-0.25021443 -0.10577923 -0.066004075 -0.16923465 0.08855002 0.07184191 0.016170295 0.10714008
-0.18563868 -0.05119199 -0.06430605 -0.11343849 -0.26140112 0.29269835 0.087440364 -0.10948821
-0.23782568 -0.09812465 0.2208934 -0.15166128 -0.034039106 -0.093680896 -0.16274938 -0.0071983878
-0.3986301 -0.062455323 -0.0024305729 0.06821175 0.096088745 -0.18315196 -0.18663855 0.124721535
-0.1734406 0.16303055 0.12514393 -0.00059011776 -0.10522903 -0.017961906 -0.09756825 0.025550595
-0.2373786 -0.053751677 -0.0594039 0.016753431 0.09585608 -0.3577714 -0.031753723 -0.3242282
-0.06618568 -0.15849523 -0.10157154 0.012300179 -0.037010226 -0.23056 0.020204319 0.073331326
00000000: 1a48 e23c dfbb 0ebb bbeb f23d 1d6a 06be
00000010: 0815 9dbd f0b9 3cbe f3e6 0dbe e2eb 4abe
00000020: 1eb3 36be 7daf bbbd e0b3 3a3d 75ce 573e
00000030: e43a 1fbe d6ce dabd b3a3 ae3d 4ff5 ea3d
00000040: 46a8 a4be 0e26 3a3d 6342 e5be 1aab 83be
00000050: b709 bebb df86 d83d 9040 9ebd 3ff1 8abd
00000060: ddb0 0bbd 5172 e0bd 42f1 4abe a30e d3bd
00000070: 7805 dd3b 4816 e0bc 4631 80be 4e32 a03d
00000080: 59ee 2e3d 7fb8 463e db18 ebbe e3de 84be
00000090: 34e4 483d efb0 c6be 7cfc 91bc cc5c 27be
000000a0: 8a6c e13b 48d1 413d c4cc 9cbd 8a36 5fbe
000000b0: 48c4 e43c 9918 3bbe 57cf 1fbe 725c 87bd
000000c0: f5ba d83d 1946 043e fc6a b4bd 000d 1ebd
000000d0: 2d73 be3d c840 65be 09bb 2b3e aa6a 5abd
000000e0: e95e 1dbe 01ad fdbd 7dd3 33be 9870 a53c
000000f0: 5f31 84bd 38b5 19be 0e2e 51be 76f6 1fbc
00000100: 1fcb b03d 308d 12bd 68b3 c1bc f494 49bd
00000110: efc4 13be e523 adbd e248 32bd 1ae6 44bd
00000120: 1b1c 80be c8a2 d8bd 252d 87bd d94b 2dbe
00000130: b659 b53d da21 933d 9177 843c 426c db3d
00000140: 1118 3ebe b1ae 51bd e4b2 83bd 7052 e8bd
00000150: 5ed6 85be 8fdc 953e ef13 b33d 5b3b e0bd
00000160: 9388 73be 94f5 c8bd e131 623e 184d 1bbe
00000170: 976c 0bbd c5db bfbd c6a7 26be 74e0 ebbb
00000180: 3f19 ccbe 27d1 7fbd 3f4a 1fbb 9ab2 8b3d
00000190: 2dca c43d 308c 3bbe 2d1e 3fbe 016e ff3d
000001a0: 6a9a 31be 7bf1 263e bb25 003e 22b2 1aba
000001b0: 5182 d7bd d924 93bc ddd1 c7bd 7b4f d13c
000001c0: 6013 73be b82a 5cbd 8151 73bd 7e3e 893c
000001d0: 3150 c43d d02d b7be 3110 02bd 3d01 a6be
000001e0: 5c8c 87bd 934c 22be bd04 d0bd b186 493c
000001f0: 0998 17bd ec17 6cbe 8783 a53c bc2e 963d

_policy.6.weight f4 [128, 128]
-0.37179807 0.04196127 -0.17451315 -0.078663744 -0.015100733 -0.8814285 0.16023196 0.4122941
-0.49616018 -0.08843652 0.29684326 -0.17438 -0.100364566 0.39092398 -0.27175984 -0.10533831
-0.21107043 -0.10417347 0.25714102 -0.23010075 0.18754049 0.015638066 -0.06732236 -0.12658815
-0.20393093 -0.094097845 -0.54538965 0.06841878 -0.26324254 0.013045172 0.19270356 0.35255867
0.08134353 0.16923106 0.34741607 0.24246593 0.08637635 -0.24929051 0.26009262 -0.1884897
-0.53112257 0.005091647 0.12827848 0.2745798 -0.28044444 -0.4391211 -0.21360902 -0.28348714
-0.17897792 0.1027388 -0.06622866 0.0030645044 0.20895563 -0.025297616 -0.15259947 -0.57631713
-0.17949839 -0.10191255 -0.11860814 -0.075510085 0.178688 -0.17405507 -0.019142862 -0.0127112055
-0.95813245 0.24645627 -0.077530704 -0.31419867 0.083209865 0.06554723 0.29150176 0.060274545
0.22216477 -0.10612372 -0.17484367 0.19161457 0.41167104 -0.17012395 0.35116038 0.00053530774
-0.13795419 -0.18537755 -0.23946273 -0.44288313 -0.05481504 -0.14604478 -0.176188 0.00431452
-0.04941853 -0.17945437 0.31827128 -0.098272525 0.1800826 -0.09405087 -0.13110405 -0.5964378
-0.037470244 -0.079549775 -0.010560289 -0.7905353 -0.036674313 0.023408655 -0.3493329 0.44375342
-0.037658248 -0.04212579 0.094616495 0.28290814 -0.3202317 -0.3897901 -0.081361406 -0.16419405
0.10024626 -0.09886 -0.15447898 0.27768403 0.12041695 0.14916213 -0.006716402 0.06671859
0.33133766 -0.04505253 0.19057398 -0.33282048 -0.32135382 0.16313162 -0.2543006 -0.09150821
-0.056981474 0.25213182 -0.3335232 0.09452818 -0.44057393 -0.05107249 -0.571218 -0.022481753
-0.07927755 -0.053638168 -0.17641854 -0.05295268 -0.30834 0.07765001 -0.28234708 -0.46606985
0.08035557 -0.1849249 -0.7187709 -0.01919634 0.05034203 -0.33434144 -0.11419517 0.08780039
-0.034659214 -0.33040953 0.015889026 0.08103936 -0.3545205 -0.36967584 -0.018158155 0.0676439
-0.60140103 0.06355956 0.25233796 0.22554225 -0.064086676 0.008943067 -0.12368131 0.09985677
-0.04687184 -0.2043052 -1.0142702 -0.21781449 0.39264166 -0.31685045 -0.56417584 -0.045633826
-0.4208747 0.06021233 -0.73276955 -0.31052572 0.15672103 -0.45593467 -0.14726458 0.27814248
-0.0532937 0.16032024 -0.18506631 -0.06691259 -0.29173705 0.0017120158 0.16041939 -0.038216937
-0.04917077 0.35642385 -0.32874554 0.08467435 -0.6501324 -0.52037406 -0.26288408 0.2525709
-0.5818025 -0.021555547 0.066781335 -0.2425869 0.16514489 -0.8804731 -0.36661503 0.15795068
-0.10530518 0.16266544 -0.42769054 -0.39900616 0.16245234 -0.01974782 0.35157162 -0.52857226
0.2981629 -0.43960255 -0.24757329 0.097060114 0.34086058 0.024276754 0.06042296 0.21418092
0.0774445 -0.15841289 -0.080748715 0.06330393 -0.78095424 -0.0131800175 -0.31170547 0.10394973
0.17181203 -0.3878896 0.16771108 -0.0030240298 -0.06814092 -0.7687945 0.43081415 -0.25234246
-0.107640915 -0.12009948 -0.32057217 -0.21038717 -0.3552859 -0.06599658 -0.15523261 -0.37938872
-0.13918638 -1.0293396 -0.08724246 0.1772373 -0.47399768 -0.33765465 -0.046167303 -1.1515446
00000000: 515c bebe 95df 2b3d 93b3 32be 751a a1bd
00000010: 1169 77bc 4ca5 61bf d913 243e 3618 d33e
00000020: b508 febe 351e b5bd d7fb 973e ac90 32be
00000030: f08b cdbd 3027 c83e 1b24 8bbe 9dbb d7bd
00000040: d922 58be e658 d5bd fda7 833e 889f 6bbe
00000050: 9d0a 403e 671b 803c 4ee0 89bd 53a0 01be
00000060: 45d3 50be 5fb6 c0bd a89e 0bbf 251f 8c3d
00000070: bac7 86be 6bbb 553c 1554 453e 9282 b43e
00000080: 7097 a63d e84a 2d3e 85e0 b13e fd48 783e
00000090: 15e6 b03d 0346 7fbe dc2a 853e 7203 41be
000000a0: a6f7 07bf d5d7 a63b 6f5b 033e b995 8c3e
000000b0: 6a96 8fbe 7bd4 e0be 53bc 5abe 3a25 91be
000000c0: fd45 37be b868 d23d e4a2 87bd dad5 483b
000000d0: 77f8 553e f23c cfbc 0943 1cbe 8589 13bf
000000e0: 6dce 37be 87b7 d0bd d3e8 f2bd 08a5 9abd
000000f0: fdf9 363e 7e3b 32be 7ed1 9cbc a942 50bc
00000100: 2b48 75bf 085f 7c3e 6bc8 9ebd a6de a0be
00000110: ef69 aa3d a03d 863d b83f 953e 71e2 763d
00000120: 297f 633e 6557 d9bd 380a 33be 9c36 443e
00000130: 8cc6 d23e f934 2ebe 4bcb b33e e553 0c3a
00000140: dd43 0dbe 9dd3 3dbe b835 75be 94c1 e2be
00000150: bc85 60bd c38c 15be a16a 34be d160 8d3b
00000160: 166b 4abd e3c2 37be 74f4 a23e 1b43 c9bd
00000170: 9367 383e be9d c0bd 2440 06be 26b0 18bf
00000180: 667a 19bd feea a2bd 1005 2dbc 8560 4abf
00000190: ce37 16bd 82c3 bf3c c3db b2be a633 e33e
000001a0: 893f 1abd 188c 2cbd 4bc6 c13d 56d9 903e
000001b0: 69f5 a3be 9192 c7be cfa0 a6bd 7c22 28be
000001c0: e94d cd3d 1d77 cabd bd2f 1ebe 9a2c 8e3e
000001d0: 299d f63d f5bd 183e 4315 dcbb c2a3 883d
000001e0: 17a5 a93e 0089 38bd d325 433e 7267 aabe
000001f0: 7d88 a4be fa0b 273e b033 82be a868 bbbd
00000200: 6865 69bd 6c17 813e 8ec3 aabe fe97 c13d
00000210: e892 e1be 6331 51bd 583b 12bf a72b b8bc
00000220: 455c a2bd b2b3 5bbd 10a7 34be e9e4 58bd
00000230: bede 9dbe f806 9f3d cc8f 90be b5a0 eebe
00000240: 7691 a43d f45c 3dbe 5f01 38bf a541 9dbc
00000250: 7233 4e3d cd2e abbe 28df e9bd b1d0 b33d
00000260: d2f6 0dbd 702b a9be b429 823c f7f7 a53d
00000270: b683 b5be 2746 bdbe 69c0 94bc e388 8a3d
00000280: 6bf5 19bf 842b 823d 7132 813e 8cf4 663e
00000290: e03f 83bd f185 123c a04c fdbd b581 cc3d
000002a0: b0fc 3fbd 6235 51be 9bd3 81bf c30a 5fbe
000002b0: 5408 c93e 393a a2be d46d 10bf 89ea 3abd
000002c0: e47c d7be 34a1 763d c996 3bbf 3afd 9ebe
000002d0: 7a7b 203e 4570 e9be 87cc 16be b168 8e3e
000002e0: 7f4a 5abd fd2a 243e 0682 3dbe 7809 89bd
000002f0: 8f5e 95be b865 e03a fb44 243e 5d89 1cbd
00000300: 4a67 49bd 307d b63e 5651 a8be bf69 ad3d
00000310: 146f 26bf 3c37 05bf be98 86be f950 813e
00000320: 02f1 14bf 4295 b0bc a7c4 883d b368 78be
00000330: be1b 293e af66 61bf f7b4 bbbe d3bd 213e
00000340: 3eaa d7bd c591 263e 41fa dabe 894a ccbe
00000350: e859 263e 2ec6 a1bc 3201 b43e 8350 07bf
00000360: cfa8 983e 9613 e1be da83 7dbe 74c7 c63d
00000370: 4785 ae3e 0be0 c63c 117e 773d 3e52 5b3e
00000380: 399b 9e3d fd36 22be 955f a5bd 7ea5 813d
00000390: 9eec 47bf 00f1 57bc dc97 9fbe 99e3 d43d
000003a0: 7eef 2f3e 7799 c6be 74bc 2b3e cd2e 46bb
000003b0: 778d 8bbd b7cf 44bf ac93 dc3e 0833 81be
000003c0: d772 dcbd b7f6 f5bd 0922 a4be bc6f 57be
000003d0: 09e8 b5be 3729 87bd 4cf5 1ebe 3d3f c2be
000003e0: e086 0ebe 66c1 83bf 2dac b2bd b27d 353e
000003f0: d3af f2be 12e1 acbe ed19 3dbd d065 93bf

_policy.6.bias f4 [128]
-0.13264677 -0.47423542 0.22217658 0.19961213 0.124881655 0.14758167 -0.005549058 0.15168773
0.14204322 0.0257355 0.081018865 0.042211097 0.019608146 -0.15886559 0.2572559 0.17401278
0.017487377 0.079253376 -0.00014553331 -0.08257848 0.24610594 0.18945783 0.24350552 0.039451443
0.18014932 0.12804118 0.042152625 0.16471867 -0.10133169 0.11678508 0.091468915 -0.17597185
0.1619026 -0.09547808 0.21648924 0.1389719 -0.040937513 0.17832024 0.07428659 0.00661352
-0.22180119 -0.08888448 0.25590408 0.010276261 0.08621437 -0.24125686 0.25573373 0.11708875
0.09174247 -0.013079886 0.099261545 0.065018855 0.0739834 0.051097207 0.009982257 0.116060264
0.087082595 0.39339653 0.08063093 0.15550911 -0.039227128 0.1872893 0.10233839 0.22942878
-0.08441682 0.17257579 0.24750125 0.18900692 0.023012351 0.24891564 -0.15439789 0.06552148
0.022647766 0.11290974 -0.08168501 0.09697653 0.336116 -0.26952395 0.1258335 -0.00030313802
0.13119556 -0.028586756 -0.22758316 -0.17738913 0.25614476 0.02593164 -0.29704717 0.052487623
0.18727863 0.14408278 -0.08840386 0.24827708 0.22932597 0.17940395 -0.06609412 -0.038879976
-0.066658586 0.17430119 0.121611856 -0.1290249 0.0699412 -0.06639055 -0.02063361 0.12294866
-0.015747378 0.22065619 0.14837906 0.10573228 -0.4556808 0.3250977 0.08334881 0.027461018
0.009958985 -0.099379174 0.004246211 0.02817588 0.12126243 0.1902219 -0.21274446 0.17394301
0.22390762 0.329197 0.24131471 -0.017873732 0.30557474 -0.04185037 -0.061293364 -0.0034646783
00000000: 8ed4 07be fcce f2be 4282 633e 1f67 4c3e
00000010: f4c1 ff3d a61f 173e dfd4 b5bb 0754 1b3e
00000020: c773 113e 41d3 d23c 38ed a53d 8be5 2c3d
00000030: 43a1 a03c a9ad 22be 0cb7 833e 6830 323e
00000040: b041 8f3c 984f a23d 4d9a 18b9 e81e a9bd
00000050: 3203 7c3e 3c01 423e 8359 793e d697 213d
00000060: 1079 383e 3a1d 033e 3ba8 2c3d 03ac 283e
00000070: fd86 cfbd 042d ef3d 0e54 bb3d f731 34be
00000080: ccc9 253e 038a c3bd 5baf 5d3e a64e 0e3e
00000090: 18ae 27bd 9599 363e 9123 983d 3ab6 d83b
000000a0: da1f 63be 1109 b6bd dc05 833e c35d 283c
000000b0: 2991 b03d 0a0c 77be 88ef 823e 3acc ef3d
000000c0: 7ae3 bb3d 054d 56bc a349 cb3d 9b28 853d
000000d0: 9c84 973d 4e4b 513d 9f8c 233c 01b1 ed3d
000000e0: 5c58 b23d 456b c93e d421 a53d c83d 1f3e
000000f0: a0ac 20bd c4c8 3f3e ca96 d13d 61ef 6a3e
00000100: bae2 acbd b5b7 303e f870 7d3e 088b 413e
00000110: 6684 bc3c bee3 7e3e 7b1a 1ebe 2030 863d
00000120: cf87 b93c 393d e73d 784a a7bd a29b c63d
00000130: 6517 ac3e 0bff 89be 7fda 003e 7fee 9eb9
00000140: 2158 063e c62e eabc 8f0b 69be 7fa5 35be
00000150: 6825 833e 976e d43c 9116 98be 43fd 563d
00000160: f8c5 3f3e 708a 133e 150d b5bd 593c 7e3e
00000170: 6dd4 6a3e abb5 373e 5b5c 87bd 9c40 1fbd
00000180: 4c84 88bd 037c 323e a30f f93d 1a1f 04be
00000190: 553d 8f3d c5f7 87bd d107 a9bc 82cc fb3d
000001a0: a500 81bc b2f3 613e aef0 173e 2a8a d83d
000001b0: fe4e e9be 3573 a63e c8b2 aa3d eef5 e03c
000001c0: 032b 233c 4f87 cbbd cd23 8b3b 1ad1 e63c
000001d0: 7058 f83d 88c9 423e afd9 59be 1e1e 323e
000001e0: 0a48 653e 828c a83e 341b 773e ef6b 92bc
000001f0: 4b74 9c3e 4b6b 2bbd c00e 7bbd a80f 63bb

_policy.8.weight f4 [3, 128]
0.0049323607 0.047563147 -0.14111038 -0.4763345 -0.45828244 -0.27302694 -0.7259624 -0.26680988
0.602193 -0.22480157 0.5395343 0.693406 -0.122677706 -0.0243827 -0.6951644 -0.025506757
0.304525 0.3003467 -0.43544248 -0.040436108 -0.23380873 -0.15007481 0.119603865 0.23310612
-0.014862491 -0.39598712 0.24775308 -0.17454275 -0.70500773 0.3658794 -0.09898604 0.035109136
-0.19900537 -0.028248912 -0.142654 0.43230668 -0.47632417 0.48221287 -0.10374038 -0.2397
0.47578424 0.021213422 -0.011072437 0.6819242 0.3178507 -0.4137591 0.78710514 0.1581525
-0.13239351 -0.06989152 0.31355235 -0.25734702 -0.2896102 0.18078503 -0.09749086 -0.19958673
0.023446037 -0.34245238 0.17622766 0.30174467 -0.04578435 -0.14863972 -0.50203615 -0.03434597
0.31667134 0.22539061 0.72191995 -0.19707154 0.42394164 -0.16313419 0.5208994 0.1541257
-0.33843398 0.3198724 0.8113601 -0.06675992 -0.15944158 1.0885451 -0.055209868 0.5261676
-0.11826208 -0.18876576 -0.93146133 -0.03314095 -0.2882965 0.23510502 -1.0609185 -0.09695954
-0.38679487 0.20110387 -0.31188735 -0.16599451 -0.16806737 -0.13491885 0.51867545 0.5735669
-0.0036997444 -0.09294545 0.1355113 -0.6168406 0.052485567 -0.13939996 -0.2254563 -0.318806
-0.05380489 0.19862787 -0.38705933 0.73734146 0.24132968 0.33934033 -0.31293413 0.15578447
-0.2738928 -0.20310947 0.17367683 0.21628423 -0.32232898 -0.4786908 1.0429746 -0.108645365
0.2781426 -0.2548938 -0.21816938 0.5282926 0.44452038 0.11761901 0.40049598 -0.1113069
0.2941162 0.7421031 -0.13115868 0.44359896 0.47334936 -0.07896001 0.48616046 0.4908925
-0.2808226 0.5040886 -0.12273659 -0.15357669 -0.13679382 0.15875964 0.78659344 -0.24400312
-0.34605885 -0.19195858 0.30411404 0.39132303 0.39641652 0.267343 -0.42028254 -0.14580804
-0.2335229 0.33845443 -0.28873944 -0.26765788 0.3796972 -0.3005712 0.27427924 0.041411135
0.30642146 -0.27017564 -0.5991578 -0.091537975 -0.006272035 -0.4983736 0.36161888 -0.06429353
-0.019141333 0.29561535 0.42995942 -0.94832397 -0.33508268 0.5375036 -0.6122191 -0.1624723
-0.18465143 0.35163823 -0.04066593 0.25573543 0.30091915 -0.046879686 0.38595474 -0.1204149
0.23271008 0.34064594 0.13659751 -0.029430969 0.59649163 -0.087959 0.62765306 0.19835299
-0.5573414 -0.06701765 -0.15657863 0.3423047 -0.030435674 -0.46917194 0.08527347 0.4458846
0.036524147 -0.38953745 -0.08025667 -0.19517872 0.26234978 -1.0156658 -0.3117967 -0.5955287
-0.21454293 -0.10262884 0.68227196 0.26298106 0.29806507 0.13316432 0.3330073 -0.08391534
0.47375032 -0.24171461 0.1740934 -0.33147058 -0.28115073 -0.31390628 -0.5272544 -0.20214455
-0.5679322 0.33142325 -0.06320707 0.2238398 -0.68135446 -0.19582266 0.09168871 0.0033683926
-0.16541754 -0.02739318 -0.17022926 -0.7345394 0.5732791 -0.31498322 0.119087815 -0.23046128
0.26102445 0.6417488 0.17525883 0.1309133 -0.09204834 0.0802863 -1.4093702 -0.3616155
-0.27106655 0.16333434 0.44196898 -0.46271837 -0.32734948 0.0829259 0.15843695 -0.2562544
00000000: a49f a13b 93d1 423d 3d7f 10be 1ee2 f3be
00000010: ffa3 eabe 30ca 8bbe acd8 39bf 4e9b 88be
00000020: 5229 1a3f 6232 66be eb1e 0a3f 0e83 313f
00000030: 733e fbbd 3abe c7bc 4bf6 31bf 8cf3 d0bc
00000040: b3ea 9b3e 0bc7 993e 51f2 debe 55a0 25bd
00000050: 8e6b 6fbe 36ad 19be dff2 f43d 5fb3 6e3e
00000060: ce81 73bc d3be cabe fcb2 7d3e 56bb 32be
00000070: 637b 34bf 8b54 bb3e 31b9 cabd 99ce 0f3d
00000080: 10c8 4bbe 436a e7bc e413 12be 4d57 dd3e
00000090: c3e0 f3be 9be4 f63e d675 d4bd eb73 75be
000000a0: fe99 f33e c5c7 ad3c 2b69 35bc 9692 2e3f
000000b0: 54bd a23e 3cd8 d3be b97f 493f bbf2 213e
000000c0: 2a92 07be 4923 8fbd ef89 a03e fdc2 83be
000000d0: ca47 94be b61f 393e 4aa9 c7bd 7760 4cbe
000000e0: e711 c03c eb55 afbe 0675 343e 477e 9a3e
000000f0: 5f88 3bbd 0335 18be 7185 00bf 5cae 0cbd
00000100: bf22 a23e cccc 663e bfcf 383f 1fcd 49be
00000110: e10e d93e a60c 27be aa59 053f 21d3 1d3e
00000120: 3847 adbe 51c6 a33e 4cb5 4f3f 6db9 88bd
00000130: a744 23be 7255 8b3f be23 62bd ebb2 063f
00000140: 6433 f2bd d04b 41be 4074 6ebf cebe 07bd
00000150: 999b 93be 5fbf 703e 2dcc 87bf b992 c6bd
00000160: fa09 c6be 2cee 4d3e b3af 9fbe 77fa 29be
00000170: da19 2cbe 2b28 0abe eac7 043f 48d5 123f
00000180: 6977 72bb 2f5a bebd 79c3 0a3e 44e9 1dbf
00000190: 1bfb 563d ddbe 0ebe 04de 66be 8a3a a3be
000001a0: 8462 5cbd 1b65 4b3e a42c c6be 69c2 3c3f
000001b0: 211f 773e 04be ad3e e738 a0be f785 1f3e
000001c0: ad3b 8cbe eefb 4fbe 57d8 313e 9d79 5d3e
000001d0: 4e08 a5be f616 f5be 3180 853f 7681 debd
000001e0: b568 8e3e 7181 82be cb67 5fbe 2f3e 073f
000001f0: 2d98 e33e 3ce2 f03d cf0d cd3e dff4 e3bd
00000200: 6696 963e 78fa 3d3f 764e 06be 671f e33e
00000210: d95a f23e c9b5 a1bd 06ea f83e 4356 fb3e
00000220: fbc7 8fbe f30b 013f 525d fbbd 3543 1dbe
00000230: ae13 0cbe e391 223e 305e 493f f4db 79be
00000240: a02e b1be ca90 44be d6b4 9b3e 7e5b c83e
00000250: 1bf7 ca3e 2fe1 883e 462f d7be b44e 15be
00000260: a120 6fbe e649 ad3e a8d5 93be 740a 89be
00000270: ac67 c23e 78e4 99be 546e 8c3e b99e 293d
00000280: 46e3 9c3e 7654 8abe 6862 19bf 4378 bbbd
00000290: a585 cdbb d32a ffbe 1c26 b93e 54ac 83bd
000002a0: 49ce 9cbc e55a 973e a423 dc3e 5cc5 72bf
000002b0: f58f abbe d699 093f 64ba 1cbf 235f 26be
000002c0: 4415 3dbe ed09 b43e 5191 26bd c1ef 823e
000002d0: 1312 9a3e ea04 40bd dc9b c53e 169c f6bd
000002e0: 8d4b 6e3e 2569 ae3e 38e0 0b3e 3719 f1bc
000002f0: adb3 183f d923 b4bd dfad 203f 0c1d 4b3e
00000300: edad 0ebf 8d40 89bd 2656 20be 9042 af3e
00000310: 3c54 f9bc 4e37 f0be dba3 ae3d fc4a e43e
00000320: 589a 153d 7471 c7be 9c5d a4bd eedc 47be
00000330: b652 863e 5601 82bf d1a3 9fbe 9274 18bf
00000340: 24b1 5bbe 122f d2bd 60a9 2e3f 74a5 863e
00000350: fc9b 983e 3a5c 083e ef7f aa3e cedb abbd
00000360: 678f f23e 0984 77be 8a45 323e 83b6 a9be
00000370: fdf2 8fbe 53b8 a0be 25fa 06bf fbfe 4ebe
00000380: 0164 11bf 4fb0 a93e b572 81bd 4336 653e
00000390: 3f6d 2ebf bc85 48be 4ac7 bb3d 40c0 5c3b
000003a0: 3763 29be aa67 e0bc 9450 2ebe c60a 3cbf
000003b0: 6bc2 123f 7b45 a1be 50e4 f33d 0bfe 6bbe
000003c0: ffa4 853e a649 243f 0d77 333e 230e 063e
000003d0: d783 bcbd 256d a43d 3e66 b4bf ab25 b9be
000003e0: 3cc9 8abe 1e41 273e c249 e23e 6ce9 ecbe
000003f0: 5a9a a7be 0ed5 a93d 4c3d 223e c733 83be

_policy.8.bias f4 [3]
0.08128471 -0.08552717 -0.012402798
00000000: 9978 a63d de28 afbd 1b35 4bbc

_value.0.weight f4 [128, 22]
0.063127585 0.16749026 -0.14837119 0.03782892 0.028893515 -0.16886337 0.077366136 -0.049362943
0.16458015 -0.18221886 -0.03410483 0.16071682 0.070729546 -0.05379509 -0.047504652 0.042441096
-0.02773267 0.16904975 0.00015605599 0.10273563 0.07828688 -0.07864383 -0.15970902 -0.137751
-0.06629371 -0.052103687 0.037542865 -0.1557589 -0.07974303 0.12839188 -0.014808648 -0.078064255
-0.1479302 -0.05803621 -0.1547403 0.17200245 0.11143465 0.16561516 -0.14617376 -0.1744821
0.014210085 -0.22802141 -0.11570379 0.046473734 -0.026476394 -0.03125818 -0.062417734 -0.1478982
0.1617762 0.16154431 -0.10627301 0.17468606 0.13274105 0.07047725 0.17945799 0.14997205
-0.16118108 -0.20636848 -0.14223751 -0.21067943 -0.13546665 -0.013799256 -0.05779897 -0.09555011
-0.15042272 0.08223919 -0.11515995 0.04440205 0.0034645668 -0.20909923 -0.15227236 0.05268913
0.0713821 0.035370167 0.016212719 -0.11414749 0.11341546 0.040031392 0.27670664 0.0055528516
0.14725748 -0.026368104 0.007920673 -0.040688068 -0.10817126 0.07413178 -0.020859143 0.27178636
-0.13497725 0.24552526 -0.23331234 0.08061987 0.021806328 0.094862275 0.025919832 0.08356348
-0.07330206 -0.08645592 -0.18420029 -0.09496857 0.056143984 0.06605834 -0.083939694 -0.07957663
-0.05676096 0.06604551 -0.050855655 0.01734286 0.034075983 -0.025316823 -0.19428807 0.23128651
0.13068458 -0.11003657 0.1261856 -0.13578159 0.15413679 0.036002535 0.078104995 0.02178325
-0.12976214 0.08394554 0.14481297 0.114434734 0.17831875 0.10178846 0.0012662563 -0.16006933
0.0032919866 -0.13496563 -0.088232644 -0.17896974 0.08576247 0.17508242 -0.10854328 0.1708312
-0.04562898 -0.17235659 0.0236724 -0.032349616 0.06625559 -0.053447463 -0.19779462 -0.05490953
-0.14538997 0.17861407 -0.18402837 0.117296435 0.061370227 -0.10145564 0.10136032 -0.18253796
-0.16469333 0.020393603 -0.08480582 -0.13696896 0.005215121 -0.16254619 0.09903988 0.14422743
0.10718148 0.016778538 -0.10391917 0.16736515 -0.019817347 -0.14562294 0.054062925 -0.19505075
0.07712968 -0.12309805 0.014143684 -0.02512862 -0.22093537 0.04038316 0.15263493 0.11994755
0.108434044 -0.18274245 -0.06973939 -0.11188121 -0.085083306 0.025408763 0.11735778 0.16468692
-0.0343153 0.18585066 -0.049223047 -0.13939835 0.12833782 -0.13177072 -0.20729515 -0.17294095
0.16238137 0.0070052515 0.012895854 -0.099436715 -0.2182876 0.1620253 -0.05486922 0.10915507
0.07793822 -0.03286108 0.04542368 -0.08113394 0.047670938 -0.16511016 -0.008079602 0.09039525
-0.07627975 0.20012735 -0.14806592 -0.18266277 0.12305954 -0.07982193 -0.055752944 -0.1980969
-0.20440644 0.0005800605 0.021697411 0.06402924 0.14609985 -0.1561487 -0.040295113 0.13879666
0.13158567 -0.08067208 -0.04858578 0.06758048 0.13851736 0.0754661 0.03937345 -0.010651593
0.070530675 0.015576666 0.01777976 0.083781905 -0.14428025 -0.027385097 0.16973943 -0.08559705
-0.017367726 -0.18935505 -0.05138075 -0.042141423 -0.015111414 -0.08325432 -0.15505642 -0.12926628
-0.060098697 -0.028164934 0.037280798 0.0073949634 0.13638014 0.12905994 0.13208832 0.15016772
00000000: 0949 813d 9182 2b3e 9eee 17be 7ff2 1a3d
00000010: 18b2 ec3c 85ea 2cbe 2372 9e3d cc30 4abd
00000020: b387 283e 9597 3abe 82b1 0bbd f392 243e
00000030: a7da 903d 3e58 5cbd 3d94 42bd b7d6 2d3d
00000040: a02f e3bc 611b 2d3e f6a2 2339 0f67 d23d
00000050: df54 a03d 0410 a1bd c38a 23be 990e 0dbe
00000060: ffc4 87bd ad6a 55bd 8cc6 193d 437f 1fbe
00000070: 5050 a3bd 2979 033e f99f 72bc 27e0 9fbd
00000080: 047b 17be 60b7 6dbd 3e74 1ebe 6921 303e
00000090: da37 e43d 0597 293e 93ae 15be 70ab 32be
000000a0: 6bd1 683c 727e 69be 1cf6 ecbd 3e5b 3e3d
000000b0: 06e5 d8bc 9408 00bd bda9 7fbd a072 17be
000000c0: a9a8 253e df6b 253e aaa5 d9bd e7e0 323e
000000d0: 45ed 073e 6056 903d d6c3 373e 4692 193e
000000e0: a70c 25be 4252 53be b6a6 11be 59bc 57be
000000f0: c5b7 0abe 4616 62bc 9dbe 6cbd c7af c3bd
00000100: 6a08 1abe 056d a83d fbd8 ebbd edde 353d
00000110: c90d 633b 1c1e 56be 49ed 1bbe 8fd0 573d
00000120: c730 923d 4fe0 103d 89d0 843c 29c6 e9bd
00000130: 5d46 e83d f5f7 233d 7eac 8d3e b2f4 b53b
00000140: aaca 163e ec01 d8bc b6c5 013c 88a8 26bd
00000150: e588 ddbd 67d2 973d cbe0 aabc 9527 8b3e
00000160: 7a37 0abe f96a 7b3e 6ee9 6ebe 081c a53d
00000170: 2fa3 b23c 2747 c23d d455 d43c 5423 ab3d
00000180: 641f 96bd cd0f b1bd 009f 3cbe e27e c2bd
00000190: 3cf7 653d 9849 873d 93e8 abbd 12f9 a2bd
000001a0: 2e7e 68bd de42 873d 054e 50bd 9d12 8e3c
000001b0: 4293 0b3d 3a65 cfbc 74f3 46be 5fd6 6c3e
000001c0: 2ed2 053e da5a e1bd cc36 013e 540a 0bbe
000001d0: 09d6 1d3e 6577 133d 83f5 9f3d c972 b23c
000001e0: 5ee0 04be a4eb ab3d da49 143e c25c ea3d
000001f0: 3199 363e 7876 d03d 83f8 a53a 37e9 23be
00000200: 5fbe 573b 6e34 0abe 51b3 b4bd d843 37be
00000210: 3ca4 af3d ce48 333e f04b debd 60ee 2e3e
00000220: 74e5 3abd 3f7e 30be 9fec c13c 0881 04bd
00000230: 03b1 873d baeb 5abd ac8a 4abe d1e8 60bd
00000240: 1ce1 14be 9be6 363e ef71 3cbe 1d39 f03d
00000250: 595f 7b3d f9c7 cfbd 0096 cf3d 3beb 3abe
00000260: 5ea5 28be 7c10 a73c acae adbd 9741 0cbe
00000270: 9be3 aa3b 8272 26be 6cd5 ca3d 5bb0 133e
00000280: f781 db3d 2573 893c 93d3 d4bd c561 2b3e
00000290: fd57 a2bc 2e1e 15be 1671 5d3d 62bb 47be
000002a0: 2af6 9d3d d51a fcbd e9ba 673c 89da cdbc
000002b0: e23c 62be d068 253d 554c 1c3e 10a7 f53d
000002c0: ab12 de3d d620 3bbe 86d3 8ebd fa21 e5bd
000002d0: 2840 aebd 0a26 d03c 4759 f03d b0a3 283e
000002e0: 338e 0cbd a34f 3e3e 1b9e 49bd 71be 0ebe
000002f0: fd6a 033e e7ee 06be 2e45 54be 6f17 31be
00000300: 4d47 263e 4f8c e53b 2249 533c 7aa5 cbbd
00000310: c986 5fbe f6e9 253e 8cbe 60bd b18c df3d
00000320: 139e 9f3d 5799 06bd 2e0e 3a3d 8d29 a6bd
00000330: 9a42 433d a312 29be 4f60 04bc 2521 b93d
00000340: 8f38 9cbd 2fee 4c3e 989e 17be f30b 3bbe
00000350: a406 fc3d ae79 a3bd 335d 64bd ead9 4abe
00000360: ec4f 51be 340f 183a c5be b13c c321 833d
00000370: 339b 153e 72e5 1fbe 7d0c 25bd b620 0e3e
00000380: 65be 063e 6737 a5bd e201 47bd a267 8a3d
00000390: 7fd7 0d3e f88d 9a3d 0e46 213d 0584 2ebc
000003a0: 6372 903d 4635 7f3c dca6 913c d995 ab3d
000003b0: 34be 13be b656 e0bc 2cd0 2d3e 824d afbd
000003c0: c346 8ebc 4ae6 41be 9f74 52bd 7c9c 2cbd
000003d0: dd95 77bc 3e81 aabd 1cc7 1ebe 615e 04be
000003e0: 0d2a 76bd 26ba e6bc c0b3 183d 7351 f23b
000003f0: 3ca7 0b3e 4a28 043e 2942 073e 91c5 193e
